league/checkpoints/mfos_seeds/new_self_6x6_62/300_0.pth (torch, 549838 bytes, 105 tensors)

conv_a_0.weight f4 [16, 7, 3, 3]
0	0x3d84b4e6	0.06479816
1	0x3df0cb8e	0.11757575
2	0xbba4f70e	-0.005034334
3	0x3dc94ded	0.09829316
4	0x3d3ea7c6	0.04654672
5	0x3d7244e3	0.059147727
6	0xbdbf5305	-0.093420066
7	0x3d2caa09	0.042154346
8	0x3db19e1b	0.08672734
9	0x3e25b2f9	0.16181554
10	0xbd25ea71	-0.040506784
11	0xbdee3f70	-0.116331935
12	0x3e17fdec	0.14842957
13	0x3d1ce565	0.038304705
14	0x3d01fdbd	0.031736124
15	0x3e1f6be7	0.15568505
16	0x3d441498	0.047871202
17	0x3dddeb57	0.10835903
18	0xbe37e082	-0.17956737
19	0x3e1f8c89	0.15580954
20	0xbc08333c	-0.0083129965
21	0x3d52a6a7	0.051428463
22	0x3dbe5d48	0.09295136
23	0x3e5852c0	0.21125317
24	0xbe48d0ea	-0.19610944
25	0x3e13b023	0.1442266
26	0xbc4e1f6f	-0.012580737
27	0xbe42cdd3	-0.19023828
28	0x3d6537b1	0.055961315
29	0xbdee4034	-0.116333395
30	0xbe6e352a	-0.23262468
31	0x3c78a26c	0.015175443
32	0xbde3ce3f	-0.11123323
33	0x3ca404a0	0.020021737
34	0xbcf67081	-0.030082943
35	0x3df9d37f	0.12198543
36	0x3d03ac5b	0.032146793
37	0x3d8b678f	0.068068616
38	0xbcd7f2f0	-0.026360959
39	0x3e06f594	0.13179618
40	0xbc94e398	-0.018174931
41	0x3d95f497	0.073220424
42	0x3d90e855	0.07075564
43	0x3deeaf47	0.11654525
44	0x3d0b801c	0.03405772
45	0x3c76afa1	0.015056522
46	0xbd9f42f7	-0.077764444
47	0x3b79c889	0.0038113913
48	0xbdceebdd	-0.10103581
49	0xbe16589f	-0.14682244
50	0xbe1537e5	-0.14572103
51	0xbe0e9bec	-0.13926667
52	0xbe1a84ab	-0.15089671
53	0xbe378b41	-0.17924215
54	0x3d1766ae	0.036963157
55	0x3e417569	0.18892445
56	0x3d4bfab8	0.04979965
57	0x3e2f3d40	0.17113209
58	0xb95363bf	-0.00020159686
59	0xbc8a3a5b	-0.01687353
60	0x3d85d6bf	0.065351
61	0xbc08e793	-0.008355993
62	0x3d8e6115	0.06952111
63	0x3cfc8ce6	0.030828904
64	0x3e2ddda7	0.16979085
65	0x3d49d548	0.049275666
66	0xbe1ef62f	-0.15523599
67	0x3c1a46b6	0.009416273
68	0x3db57822	0.08860804
69	0xbdb82ce7	-0.089929394
70	0xbd76124c	-0.060076043
71	0xbdfbfcb9	-0.123040624
72	0x3dae5fa2	0.08514334
73	0x3ba4ccff	0.0050293203
74	0x3dc368ea	0.09541495
75	0xbe110f7b	-0.14166062
76	0xbd7a7532	-0.061146922
77	0xbc5ca0e7	-0.0134660965
78	0xbd991a51	-0.074757226
79	0x3d20f443	0.039295446
80	0xbb1dff6e	-0.0024108547
81	0x3dc4f2fe	0.096166596
82	0x3d3d2e7b	0.046186905
83	0x3df4a307	0.119451575
84	0xbd8a887d	-0.06764314
85	0xbdad926f	-0.084751956
86	0x3d92e3e3	0.07172372
87	0xbd54b374	-0.051928952
88	0xbd26d7e6	-0.04073324
89	0x3c4ba479	0.01242935
90	0x3df90ac8	0.121602595
91	0x3dd1392f	0.10215985
92	0xbdd5bfec	-0.10436997
93	0xbceb4c26	-0.028722834
94	0xbcb0f13a	-0.0215994
95	0xbdd118bf	-0.10209798
96	0xbc92062b	-0.017825207
97	0x3c8b624a	0.017014641
98	0xbcd39743	-0.025828963
99	0xbbfb2749	-0.0076645953
100	0xbda29782	-0.07939054
101	0x3d35141d	0.044208635
102	0x3def8d04	0.116968185
103	0x3dcc1b31	0.09966124
104	0xbdd1b984	-0.102404624
105	0xbdcf2725	-0.10114888
106	0xbda48c26	-0.08034544
107	0xbd8ddbcb	-0.06926688
108	0xbd7349ff	-0.05939674
109	0x3d039647	0.032125738
110	0xbd84f7d2	-0.064925805
111	0x3ded0205	0.11572651
112	0xbdf6a55c	-0.120432585
113	0x3de68972	0.11256684
114	0x3c9c62b1	0.019090028
115	0x3d29a641	0.041418318
116	0x3da71d87	0.08159929
117	0x3d87f07e	0.06637667
118	0x3e2baba6	0.16764697
119	0xbd81a0ea	-0.0632952
120	0x3d427b28	0.047480732
121	0x3d10b59c	0.035329446
122	0x3e203331	0.15644528
123	0x3dd7e469	0.10541613
124	0xbd8d207f	-0.06890964
125	0xbc69c4ce	-0.014268113
126	0x3d141fff	0.036163326
127	0xbaa45821	-0.0012538471
128	0x3dd0f252	0.10202469
129	0x3d7eb7bc	0.06218694
130	0x3d8b7c34	0.06810799
131	0x3e07dc6b	0.13267677
132	0xbdce7cca	-0.100823954
133	0x3e0d6f02	0.13811877
134	0xbdea700c	-0.114471525
135	0x3d3d0b14	0.046153143
136	0x3c098f7e	0.008396028
137	0x3e0fff00	0.14062119
138	0xbd2cb7fd	-0.042167652
139	0x3d5d05cf	0.053960618
140	0x3e334bc4	0.17509371
141	0xbd68ae50	-0.056806862
142	0xbd8a87fa	-0.06764217
143	0x3dd7e7a3	0.10542228
144	0x3d856e17	0.065151386
145	0x3e159efc	0.14611429
146	0x3e277c1e	0.1635594
147	0x3e19c328	0.15015852
148	0x3dcee436	0.101021215
149	0xbe3dbb62	-0.18528512
150	0xbd9544dd	-0.07288525
151	0x3e2a3165	0.16620405
152	0x3e021b8e	0.12705824
153	0x3dc2ba05	0.09508137
154	0x3de0c694	0.10975376
155	0xbe6467b1	-0.2230518
156	0x3d2a5238	0.041582316
157	0xbdea66ba	-0.11445375
158	0x3d95cd2c	0.07314524
159	0xbcfad39f	-0.030618487
160	0xbd1c2596	-0.038121782
161	0xbe421b29	-0.18955673
162	0x3d690285	0.05688717
163	0x3d4ffae8	0.050776392
164	0x3e1bb5f8	0.15206134
165	0x3db70b1d	0.089376666
166	0x3df1c7b4	0.118056685
167	0xbcfd586a	-0.030925948
168	0x3e1e54cc	0.15462035
169	0x3e29e9f7	0.16593157
170	0x3cf3c27e	0.029755827
171	0x3d531206	0.05153086
172	0x3def3347	0.11679702
173	0x3dc9c199	0.09851379
174	0x3e23606f	0.15954755
175	0xbd0fb420	-0.03508389
176	0x3dc5a7c0	0.096511364
177	0x3de18428	0.11011535
178	0xbd947168	-0.07248193
179	0xbd948b7b	-0.07253166
180	0x3e1a5be5	0.15074117
181	0x3de61aec	0.11235604
182	0x3e219915	0.15781052
183	0x3d428adf	0.04749572
184	0x3db3ae9e	0.0877354
185	0x3dc95210	0.09830105
186	0x3e34715a	0.17621365
187	0x3d1f68cc	0.0389183
188	0x3e08178b	0.13290231
189	0xbcc778fd	-0.024349684
190	0x3d04bef5	0.032408673
191	0xbd158334	-0.03650208
192	0xbd9128a3	-0.07087829
193	0x3c41746c	0.011807542
194	0x3d4c92ba	0.049944617
195	0xbddb2843	-0.10701039
196	0x3d477810	0.048698485
197	0x3d246591	0.040135924
198	0xbe0b7aa6	-0.13621005
199	0x3cff3055	0.031150976
200	0x3d75e551	0.060033146
201	0x3d855c05	0.06511692
202	0x3d028c0e	0.031871848
203	0x3c97254c	0.018450402
204	0xbdc5c18d	-0.096560575
205	0x3d5f9548	0.054585725
206	0x3d05249d	0.03250562
207	0x3cc7e5a4	0.024401493
208	0x3d3baa42	0.045816667
209	0x3c8fe8ab	0.017567
210	0x3c9f0b14	0.019414462
211	0x3d155749	0.036460195
212	0xbd9c7fc3	-0.07641556
213	0xbc60f750	-0.013730839
214	0xbc1367d9	-0.008996927
215	0x3cb75f1f	0.022384224
216	0xbd857139	-0.06515736
217	0x3ca915c0	0.020640254
218	0xbbe4b2b1	-0.0069793095
219	0x3e2b6c11	0.16740443
220	0x3d567d04	0.052365318
221	0xbdab9c28	-0.08379394
222	0x3e09878f	0.13430618
223	0xbc6a4815	-0.014299412
224	0x3dc6309b	0.096772395
225	0xbd3a332a	-0.04545895
226	0x3c8fa102	0.01753283
227	0x3da7aefa	0.08187671
228	0x3db5ab8b	0.0887061
229	0x3db37e4c	0.087643236
230	0xba2d3360	-0.0006607082
231	0x3d0be2a3	0.034151684
232	0x3de8cca3	0.11367156
233	0x3e064483	0.13112073
234	0x3dded794	0.10880962
235	0xbd1bfafd	-0.038081158
236	0xbd549726	-0.05190196
237	0x3de6b785	0.11265472
238	0xbd98490d	-0.07435808
239	0x3caabf6e	0.020843234
240	0x3e06ace0	0.13151884
241	0x3dfc53bb	0.12320658
242	0x3cf9ab98	0.03047733
243	0x3df75e4f	0.12078535
244	0x3d8179c6	0.063220546
245	0x3d96e056	0.073670074
246	0x3e0f14be	0.13972756
247	0x3d61c8bb	0.055123072
248	0x3dc71a33	0.09721794
249	0xbd57d1f6	-0.05269047
250	0xbd737279	-0.05943534
251	0xbce8888e	-0.028385427
252	0xbcbe443a	-0.023225892
253	0x3cceb81f	0.02523428
254	0xbddc291e	-0.1075003
255	0xbcc856f1	-0.02445552

conv_a_0.bias f4 [16]
0	0x3da374e3	0.07981279
1	0x3d4e1a81	0.050318245
2	0x3d64eecc	0.055891797
3	0xbe148273	-0.14502887
4	0x3d95ef35	0.07321016
5	0x3d08399c	0.033258066
6	0xbde26cf7	-0.1105594
7	0x3de9e4f9	0.11420626
8	0x3bf79fbb	0.007556883
9	0x3de77174	0.11300936
10	0x3c3e1236	0.0116010215
11	0x3ca397cc	0.019969843
12	0xbcb41d6f	-0.021986691
13	0xbc5f9721	-0.013646872
14	0x3d85c26b	0.06531223
15	0xbb4ee879	-0.003157167

conv_a_1.weight f4 [16, 16, 3, 3]
0	0x3ddba1bb	0.10724207
1	0x3dae65d1	0.08515514
2	0x3db75322	0.08951403
3	0x3d80264d	0.06257305
4	0x3cf4d9e9	0.029889064
5	0x3d984bb0	0.07436311
6	0xbc4d6101	-0.012535335
7	0x3c49f7e1	0.012327165
8	0x3d3a14e8	0.045430094
9	0x3d980096	0.07421987
10	0xbd01976b	-0.031638544
11	0x3dbc52d6	0.09195487
12	0x3c77e2b4	0.015129734
13	0x3d1cebfa	0.038310982
14	0xbd7e4363	-0.062075984
15	0xbd8b5869	-0.06803972
16	0x3a3fa239	0.0007310245
17	0xbd5ab492	-0.05339486
18	0x3d9f9e91	0.07793916
19	0xbd0e0dfc	-0.034681305
20	0x3ca152cc	0.019692801
21	0x3b918c16	0.0044417484
22	0x3d4a0dfe	0.04932975
23	0x3d6dcc36	0.05805608
24	0xbcdaa90c	-0.026691936
25	0xbd1926c2	-0.037390478
26	0xbd5ef598	-0.054433435
27	0xbd6dace4	-0.05802621
28	0x3c9a5736	0.018840414
29	0x3c93d24c	0.018044613
30	0xbd9140f2	-0.070924655
31	0xbc8355af	-0.016032068
32	0xbd71f921	-0.05907548
33	0xbc8b13ea	-0.01697727
34	0xbd2e043e	-0.042484514
35	0xbcdf6223	-0.027268475
36	0x3cd7e586	0.026354562
37	0x3dffc0e1	0.124879606
38	0x3cec08a6	0.028812718
39	0x3c552135	0.013008405
40	0xbcba9e39	-0.022780525
41	0x3e077fda	0.13232365
42	0x3dd0d4e3	0.10196855
43	0xbbf60fea	-0.0075092213
44	0x3dfa013d	0.122072674
45	0xbba0db6c	-0.0049089696
46	0x3c0241fb	0.007950301
47	0xbcba507f	-0.022743462
48	0x3d59ebce	0.053203396
49	0xbce06bed	-0.027395213
50	0x3d5506cc	0.052008435
51	0x3afc8346	0.0019265197
52	0x3d16a648	0.036779672
53	0xbd6284a0	-0.055302262
54	0xbd00ce4d	-0.031446744
55	0xbbb45f4e	-0.0055045253
56	0xbcaa30b2	-0.020775173
57	0x3c4a534f	0.012348964
58	0xbd80abc5	-0.062827624
59	0xbcfff51c	-0.031244807
60	0xbca77449	-0.020441191
61	0xbd0386c1	-0.032110933
62	0xbc9efc72	-0.019407485
63	0xbc11bc3a	-0.008894974
64	0x3d1085a7	0.03528371
65	0x3db7853d	0.0896096
66	0x3d85e566	0.06537895
67	0x3d54784e	0.051872544
68	0xbcfdc7c0	-0.030979037
69	0xbd22e24e	-0.039766602
70	0x3c6c5375	0.014424195
71	0x3d3c4d6e	0.04597228
72	0x3e0b3a84	0.1359654
73	0x3da62f5a	0.081145
74	0xbc0db35c	-0.00864872
75	0x3d9712c1	0.07376624
76	0x3e03eed5	0.12884076
77	0x3de12fc3	0.10995438
78	0x3d60b2d0	0.05485803
79	0x3d3f18fb	0.046654683
80	0x3d697267	0.05699387
81	0xbda6ccd2	-0.08144535
82	0xbda3887c	-0.07985017
83	0xbd8f687a	-0.07002349
84	0xbd2bef6c	-0.041976377
85	0x3cb10795	0.02161006
86	0xbca77470	-0.020441264
87	0xbd9f8e5f	-0.07790827
88	0x3d92b341	0.07163096
89	0x39b5da81	0.00034685808
90	0x3de0336f	0.1094731
91	0x3dd60c55	0.10451571
92	0x3d8835ed	0.066509105
93	0x3e12d27f	0.1433811
94	0x3cf8ef42	0.030387525
95	0x3dc9ccba	0.098535016
96	0x3e18e085	0.14929397
97	0x3e07a980	0.13248253
98	0x3e01437a	0.12623397
99	0xbd52af25	-0.051436562
100	0x3dccdd7e	0.10003184
101	0x3cd1e6a6	0.025622677
102	0xbd7b3802	-0.06133271
103	0x3d791ee5	0.06082048
104	0x3d6f319b	0.058396917
105	0x3d758fcf	0.0599516
106	0x3d60f151	0.054917637
107	0x3c1e1c75	0.009650339
108	0x3db84d3b	0.089991055
109	0x3e099cbb	0.13438694
110	0x3e1de993	0.15421133
111	0x3dd886e2	0.10572602
112	0x3e20deaf	0.15709947
113	0x3db21872	0.08696069
114	0x3e29d069	0.16583408
115	0x3cfa3535	0.03054295
116	0x3c26f9da	0.010191405
117	0x3e192d04	0.14958578
118	0x3df1098d	0.117694
119	0x3d362a88	0.044474155
120	0xbbbca6ea	-0.0057572024
121	0x3cafe595	0.021471778
122	0x3cb853da	0.022500921
123	0x3dd7aa30	0.105305076
124	0x3dc0334b	0.09384783
125	0x3c325577	0.010884634
126	0x3d842c3e	0.06453751
127	0x3ccd220a	0.025040645
128	0xbd9cb858	-0.07652348
129	0xba2a998d	-0.0006507866
130	0xbd9f1394	-0.07767406
131	0x3da7bc65	0.0819023
132	0x3d827b4c	0.06371173
133	0xbb3632ea	-0.0027801343
134	0xbd519845	-0.051170606
135	0x3de0f4ae	0.10984169
136	0x3b67c719	0.0035366474
137	0x3d2f5317	0.04280385
138	0x3d1393c3	0.03602959
139	0x3d3f7001	0.046737675
140	0x3b56912c	0.0032740338
141	0x3dc65a23	0.09685161
142	0x3dc1eede	0.094693884
143	0x3e11e0b5	0.14245875
144	0x3e156932	0.1459091
145	0x3ba5aecf	0.005056239
146	0x3c0932d0	0.008373931
147	0x3d6475d4	0.055776432
148	0x3d332a65	0.043741602
149	0x3e174b5b	0.1477484
150	0x3e09bb11	0.13450266
151	0x3d06bf0b	0.032897037
152	0x3d9a6889	0.0753947
153	0x3d1017f3	0.03517909
154	0x3de58baa	0.112082794
155	0x3dde45f1	0.10853184
156	0xbcda9664	-0.02668304
157	0x3d25c13c	0.040467486
158	0x3d032211	0.03201491
159	0xbcbf2e93	-0.023337638
160	0x3d87ed9c	0.06637117
161	0x3d47e977	0.048806634
162	0x3df8a544	0.12140897
163	0x3e14c096	0.1452659
164	0x3dea0426	0.114265725
165	0x3dc6f81a	0.0971529
166	0x3dc50d73	0.09621706
167	0x3d4208c8	0.047371656
168	0x3de0658a	0.10956867
169	0x3df3e4c4	0.11908868
170	0x3d99513d	0.07486198
171	0xbcf16b69	-0.029470162
172	0xbd71a00b	-0.05899052
173	0x3a85a228	0.0010195421
174	0x3ca52284	0.02015806
175	0x3b14839d	0.0022661455
176	0xbd618d6b	-0.055066507
177	0x3c6d69af	0.014490529
178	0xbd20af5c	-0.039229736
179	0x3c7e31b3	0.015514779
180	0x3af6aeb3	0.0018820375
181	0x3d1af976	0.03783556
182	0x3d89ed05	0.06734661
183	0x3d8dd418	0.06925219
184	0x3cabb301	0.02095938
185	0x3d6740f6	0.056458436
186	0x3d5eba5e	0.054376952
187	0x3da6603a	0.081238225
188	0x3884b221	6.3274296e-05
189	0x3deeface	0.11668931
190	0xbb9d3cac	-0.0047984924
191	0x3c25c15e	0.010116903
192	0x3d48f91d	0.049065698
193	0x3da73607	0.08164602
194	0x3c9519eb	0.018200835
195	0x3d8bf0ad	0.06833015
196	0x3dae4782	0.08509733
197	0x3c91efa5	0.017814467
198	0xbd91716d	-0.071017124
199	0xbe11c36e	-0.14234707
200	0xbd87b792	-0.0662681
201	0xbc81f74a	-0.015864987
202	0xbd7e0046	-0.06201198
203	0x3c2f66f4	0.010705698
204	0xbd3d436f	-0.046206888
205	0x3d323d8e	0.043515734
206	0xbd66b5d0	-0.056325734
207	0x3de7d366	0.11319618
208	0x3db40b13	0.08791175
209	0x3dac4415	0.08411423
210	0x3c98fde4	0.018675752
211	0x3df192a5	0.11795548
212	0x3cb7e85c	0.022449665
213	0x3cbfb5e0	0.023402154
214	0x3d3b9f3a	0.045806147
215	0x3df2c145	0.118532695
216	0x3d244a77	0.040110078
217	0x3e078edb	0.13238089
218	0x3cd35224	0.025796004
219	0x3db28445	0.08716635
220	0x3e328ea2	0.17437223
221	0x3e33ddb9	0.17565049
222	0x3c1a2a4f	0.009409501
223	0x3da44fab	0.08023008
224	0x3da02b64	0.07820776
225	0x3e18fbfa	0.14939871
226	0x3cc5d5b9	0.024149762
227	0x3dd3cd60	0.103419065
228	0x3e01c0cc	0.12671202
229	0x3c4c0fe7	0.012454963
230	0x3da39145	0.07986692
231	0x3da69b3e	0.08135079
232	0x3deb42d4	0.11487356
233	0x3d489344	0.04896857
234	0x3d14b889	0.0363088
235	0x3dd3bf9f	0.10339283
236	0x3e4b1c43	0.19835
237	0x3dcc9188	0.099886954
238	0x3de2ec28	0.110801995
239	0x3d980a9d	0.07423899
240	0x3e294646	0.16530713
241	0x3e0db331	0.13837887
242	0x3df68340	0.12036753
243	0x3dff2b79	0.124594636
244	0x3cb5b782	0.02218223
245	0x3da932d5	0.082616486
246	0x3e170e23	0.14751486
247	0x3e0a4df6	0.13506302
248	0x3d4ac56c	0.049504682
249	0x3e304e06	0.17217264
250	0x3e0f4eb3	0.13994865
251	0x3df3ac3b	0.11898085
252	0x3e3db675	0.18526633
253	0x3e4c180a	0.19931045
254	0x3e32d7fd	0.17465205
255	0x3dd898a6	0.105759904

conv_a_1.bias f4 [16]
0	0x3d426c18	0.047466367
1	0x3d3ad57e	0.04561376
2	0xbb7c2fca	-0.0038480633
3	0x3d19b237	0.037523475
4	0x3d546759	0.051856373
5	0x3d82f233	0.06393852
6	0x3cf3087f	0.029667137
7	0xbcc3cbb4	-0.023900844
8	0x3d141216	0.03615006
9	0x3dbad3ea	0.09122451
10	0x3d65d042	0.056106813
11	0x3d8a24a6	0.067452714
12	0x3d6ffdf0	0.058591783
13	0x3ce50430	0.027956098
14	0x3d972325	0.0737975
15	0xbba431ea	-0.005010833

linear_a_0.weight f4 [16, 576]
0	0x3c25436e	0.010086877
1	0x3d72ac5c	0.059246406
2	0x3c871894	0.016491212
3	0x3d7fb63e	0.06242966
4	0x3d6cb236	0.057787143
5	0x3d893668	0.0669983
6	0x3d1863ef	0.03720468
7	0x3c22db4c	0.00993998
8	0x3d255572	0.04036469
9	0x3d7846fa	0.060614564
10	0x3cde7112	0.027153526
11	0x3c630b65	0.013857697
12	0x3d963b0d	0.07335482
13	0x3d9c1ae2	0.07622315
14	0x3d20a3c3	0.039218675
15	0xbbacbce9	-0.0052715433
16	0xbc09614e	-0.008385016
17	0x3d179424	0.037006512
18	0x3cb909be	0.022587653
19	0x3d2d0427	0.042240288
20	0x3d7cf524	0.06175722
21	0xbc406362	-0.011742445
22	0xbc3f40e9	-0.011673191
23	0x3d052e5d	0.03251492
24	0x3d8d131b	0.0688841
25	0x3c96cf37	0.018409355
26	0x3cfa46bf	0.030551312
27	0x3d8152b9	0.06314606
28	0x3d3ca595	0.04605635
29	0x3d367890	0.04454857
30	0x3d861266	0.06546478
31	0xbc0aad6e	-0.0084642
32	0x3d3be1ab	0.04586951
33	0x3d60cfba	0.054885603
34	0x3c0290f6	0.007969132
35	0x3d6ee26b	0.058321398
36	0xbd6a72a0	-0.05723822
37	0xbd5daf4e	-0.05412226
38	0xbd16159a	-0.036641695
39	0x3bc43599	0.0059878347
40	0x3a4647f0	0.000756382
41	0xbc60eb69	-0.013728001
42	0x3c0c6aa8	0.008570351
43	0xbc879a91	-0.016553195
44	0xbd7757e4	-0.060386553
45	0xbc2c310d	-0.0105097415
46	0x3ca2c202	0.0198679
47	0xbc500ca8	-0.01269833
48	0xbd302a6c	-0.043009207
49	0xbc6fbc40	-0.014632285
50	0x3ca12cc3	0.019674664
51	0xbc20afe6	-0.009807562
52	0x3c260313	0.010132569
53	0xbb92a89d	-0.0044756667
54	0x3b93868d	0.0045021237
55	0xbd3b3cb5	-0.04571219
56	0xbc46ce5c	-0.012134161
57	0xbca4ffa9	-0.02014144
58	0xbc5dad25	-0.01353005
59	0xbcd4c5ba	-0.02597319
60	0xbd1eda1c	-0.038782224
61	0xbd50a595	-0.05093916
62	0xbd37bb05	-0.04485609
63	0x3bf23d36	0.007392551
64	0xbc274f52	-0.0102117825
65	0xbcbde5a6	-0.023180794
66	0xbd7c2a67	-0.061563876
67	0xbc0acd41	-0.008471788
68	0xbd746ed4	-0.059676006
69	0xbd025fd4	-0.03182967
70	0x3b9a9d7d	0.004718481
71	0xbc27401b	-0.010208155
72	0xbd4410e9	-0.04786769
73	0x3c60ef7f	0.013728975
74	0x3c94afc3	0.018150216
75	0xbd505987	-0.05086663
76	0xbc66f4cf	-0.014096453
77	0xbcd36fe8	-0.025810197
78	0xbc296a4d	-0.0103402855
79	0xbcc31ad8	-0.023816511
80	0x3c95da07	0.01829244
81	0x3c181435	0.0092821615
82	0xbd18853a	-0.03723643
83	0xbc891700	-0.0167346
84	0xbd1bc651	-0.038030926
85	0xbb364635	-0.0027812843
86	0xbd0a1b11	-0.03371722
87	0xbd298f0d	-0.04139619
88	0x3c2ea4b0	0.010659382
89	0xbb8c1ebf	-0.004276126
90	0xbcd8ec4a	-0.026479859
91	0xbca7b7c3	-0.020473367
92	0xbcabf283	-0.020989662
93	0x3cbb342f	0.022852032
94	0x3c741327	0.014897144
95	0x3cc6330d	0.024194265
96	0xbc4ce36e	-0.012505395
97	0xbd650e8a	-0.05592207
98	0xbd17dde8	-0.03707686
99	0x3c37ec5e	0.011225788
100	0x3c903fe5	0.017608592
101	0xbc862426	-0.016374659
102	0xbca19cc8	-0.01972808
103	0x3b30704b	0.00269224
104	0xbcd698c3	-0.02619589
105	0x3ccd0fde	0.02503198
106	0x3bfda877	0.00774103
107	0xbc28b13d	-0.010296163
108	0xbc2b61c9	-0.0104603255
109	0xbd12a3e5	-0.035800833
110	0x3ca456cc	0.02006092
111	0xbc2c8ca9	-0.010531583
112	0xbd1b6b4b	-0.03794412
113	0xbcb39fec	-0.021926843
114	0x3c9fa577	0.01948808
115	0x3d07d649	0.033163343
116	0xbd089960	-0.033349395
117	0x3d55a2ca	0.0521572
118	0xbcf1f460	-0.029535472
119	0x3d50ab0d	0.050944377
120	0x3cf50378	0.02990888
121	0x3cd1418b	0.025543949
122	0xbb8eef40	-0.004362017
123	0xbd3555ad	-0.04427116
124	0xbc5e8926	-0.013582503
125	0xbd83a55a	-0.06428023
126	0x3cc8cf8e	0.024513032
127	0xbcfedbd6	-0.031110685
128	0x3a71e2d7	0.0009227222
129	0x3d41c1af	0.04730385
130	0xbd41a4dc	-0.047276363
131	0xbd47b080	-0.048752308
132	0xbc7987a2	-0.015230091
133	0xbd4c9e65	-0.049955744
134	0x3c9bba87	0.019009842
135	0xbc5da4da	-0.013528073
136	0xbd690eac	-0.056898758
137	0xbd597b31	-0.053096
138	0xbb628a84	-0.0034567425
139	0x3d307fd3	0.043090653
140	0xbcd22895	-0.025654117
141	0x3c22dbbe	0.009940086
142	0xbcf08359	-0.029359506
143	0x3cbe6e65	0.023246
144	0x3a754612	0.00093564496
145	0xbcefe759	-0.02928512
146	0x3b842aba	0.0040334137
147	0xbc830f43	-0.015998488
148	0x3c00b9d9	0.0078568095
149	0x3ca7d7ab	0.02048858
150	0xbbbb3a9b	-0.0057137734
151	0xbcf9ac1f	-0.030477582
152	0xbcecd223	-0.028908795
153	0x3d0b1d62	0.03396357
154	0xbd1acd58	-0.037793487
155	0xbd1a0eab	-0.037611645
156	0x3bd42c25	0.006474989
157	0x3c65c213	0.014023322
158	0x3bee0192	0.007263371
159	0xbd02f231	-0.031969253
160	0xbc45128f	-0.0120283505
161	0xbc80d879	-0.015728222
162	0x3cab102e	0.020881739
163	0x3cce1d8d	0.025160575
164	0x3c25beb6	0.01011627
165	0x3c2f7fb1	0.010711596
166	0x3b213c24	0.0024602497
167	0x3c286458	0.01027783
168	0x3caa2767	0.020770742
169	0x3ca23ade	0.01980346
170	0xbc72c462	-0.014817329
171	0xbd290559	-0.041264866
172	0x3ca2e9e6	0.019886922
173	0xbc04f71b	-0.008115555
174	0x3c86e296	0.016465466
175	0x3c45a5b8	0.012063436
176	0xbd02de86	-0.031950496
177	0xbc21cebb	-0.009875949
178	0xbb3a8740	-0.0028461963
179	0xbcc86eac	-0.024466835
180	0x3bc418ce	0.0059844023
181	0xbaf509c0	-0.0018694922
182	0x3c474598	0.012162589
183	0x3c14cbf7	0.009081832
184	0xbaab0879	-0.001304879
185	0xbcfee4d9	-0.031114982
186	0x3c169c36	0.009192517
187	0xbc9dedd0	-0.019278437
188	0x3d3758ac	0.0447623
189	0xbab25eb7	-0.001360855
190	0xbc94de50	-0.018172413
191	0xbc9f0b29	-0.019414501
192	0xbcadd10f	-0.021217851
193	0x3d0cc943	0.034371626
194	0x3b93d2bb	0.004511205
195	0x3d07b6b4	0.033133224
196	0xbb6b72e1	-0.0035926627
197	0xbc51c783	-0.012803915
198	0x3bdee82d	0.00680258
199	0x3cc4c89b	0.024021437
200	0xbd67ef70	-0.05662483
201	0x3cc4ec21	0.024038376
202	0xbcdbe977	-0.026844723
203	0xbc31769b	-0.0108315
204	0xbd0c0175	-0.034181077
205	0xbcd02d79	-0.025412308
206	0xbd0b692b	-0.034035843
207	0xbc7c1dd0	-0.015387967
208	0x3d021cfa	0.031765915
209	0x3c579897	0.013158939
210	0xbc11a799	-0.008890056
211	0x3c6b27ed	0.014352781
212	0xbcfe7afa	-0.0310645
213	0x3b49efaf	0.0030813029
214	0x3d59c9bb	0.0531709
215	0x3cf00321	0.029298367
216	0xbd0b28d6	-0.03397449
217	0xbd6d0f3b	-0.057875853
218	0xbb43a74b	-0.0029854353
219	0xbd812ac6	-0.063069865
220	0xbc7067b8	-0.014673166
221	0xbcc99dd4	-0.024611391
222	0xbc81d6be	-0.015849467
223	0xbd551029	-0.052017365
224	0xbd6be490	-0.05759102
225	0xbc9c5836	-0.019085031
226	0x3b25ba6b	0.0025288116
227	0x3bfb6caa	0.007672866
228	0xbc80b2ec	-0.015710317
229	0xbc811ef7	-0.015761836
230	0xbd709c5e	-0.058742873
231	0xbc348c46	-0.011019772
232	0xbd419f7a	-0.04727123
233	0x3c481322	0.012211593
234	0xbcb2cc8c	-0.021826051
235	0xbd38a312	-0.04507739
236	0xbd4330b6	-0.047653876
237	0xbc2d4719	-0.010576033
238	0x3bbd552b	0.005777975
239	0x3c2555de	0.010091273
240	0xbd5a02ea	-0.053225435
241	0xbd34a2ea	-0.04410068
242	0xbc217501	-0.009854556
243	0x3c03180c	0.008001339
244	0xbcb4c846	-0.022068154
245	0xbd2df3ae	-0.04246872
246	0x3c17880a	0.009248743
247	0xbcbb8f0a	-0.022895355
248	0x3c076e72	0.008266078
249	0xbb45357f	-0.00300917
250	0xbd291d06	-0.041287445
251	0x3c123081	0.008922697
252	0x3cd4ef62	0.025993053
253	0xbd08cdf3	-0.033399533
254	0xbcb535fb	-0.022120466
255	0x3b5a7172	0.0033331779

linear_a_0.bias f4 [16]
0	0x3cd6f651	0.0262405
1	0x3c848716	0.016177695
2	0xbc831a58	-0.016003773
3	0x3a31f9a6	0.00067892147
4	0x3ccefb49	0.025266306
5	0x3ab937f8	0.001413106
6	0x3b4fc6db	0.003170422
7	0xbbbfeb65	-0.0058569186
8	0xbc96dab6	-0.018414836
9	0xbce697e1	-0.028148593
10	0x3a1703a6	0.00057607365
11	0xbcad0929	-0.021122532
12	0xbca3d26e	-0.019997802
13	0x3d479367	0.04872456
14	0xbccb98b4	-0.024853088
15	0xbc7b82e9	-0.015351036

GRU_a.weight_ih_l0 f4 [48, 16]
0	0x3df94f51	0.121733315
1	0xbe6d23b0	-0.23158145
2	0x3d0da2f7	0.034579244
3	0xbbe3d8e3	-0.006953345
4	0x3e83a3b3	0.2571083
5	0x3e56b71c	0.20968288
6	0x3e213731	0.1574371
7	0x3e5866a3	0.21132903
8	0xbdd3d542	-0.1034341
9	0xbe30622f	-0.17224954
10	0xbe435860	-0.19076681
11	0xbe76501e	-0.24054
12	0x3c0d856a	0.008637765
13	0x3e15813b	0.14600079
14	0x3db8a2c5	0.09015421
15	0x3e025b1d	0.1273007
16	0xbdcd6153	-0.10028329
17	0x3e30e898	0.17276227
18	0xbe4b0273	-0.19825153
19	0x3e823842	0.25433546
20	0xbe2113df	-0.15730236
21	0x3ce44181	0.027863266
22	0xbcc86f50	-0.02446714
23	0x3e736db4	0.23772317
24	0x3e400711	0.18752696
25	0xbe38d38b	-0.18049447
26	0x3dcf6dcb	0.10128363
27	0x3e107ed0	0.14110875
28	0x3e6bb89a	0.23019639
29	0xbc238039	-0.009979301
30	0xbe070b1a	-0.13187829
31	0x3cbdff7f	0.02319312
32	0xbe31a632	-0.17348555
33	0xbe1a05e9	-0.15041317
34	0x3c979fa8	0.018508747
35	0x3e51ba0c	0.20481128
36	0x3dd56dd5	0.104213394
37	0xbe879b6c	-0.26485765
38	0xbe8031da	-0.25038034
39	0x3ca09a65	0.019604871
40	0x38803e68	6.11514e-05
41	0x3e3f2987	0.18668185
42	0x3e89323a	0.26796132
43	0xbe53ca5a	-0.2068266
44	0xbc065e75	-0.008201231
45	0xbdf399de	-0.11894582
46	0xbd8ea7f5	-0.06965629
47	0x3ddafb3a	0.10692449
48	0x3e64b273	0.22333698
49	0xbd292703	-0.04129697
50	0xbe6e97bc	-0.2330007
51	0xbe26d382	-0.16291621
52	0xbe0230b1	-0.12713887
53	0x3e0491a3	0.12946181
54	0xbcfd85b7	-0.03094755
55	0x3e05a0ef	0.13049673
56	0x3e11ca5b	0.14237349
57	0xbdaafdc0	-0.0834918
58	0xbdc1e989	-0.094683714
59	0x3d5071c4	0.050889745
60	0x3dba858e	0.09107505
61	0xbdf66bd1	-0.12032283
62	0x3b8c4b97	0.004281472
63	0xbc83eaa6	-0.0161031
64	0x3e0ea974	0.13931829
65	0x3cc484d5	0.02398912
66	0xbe40bec3	-0.1882277
67	0x3d99ea12	0.075153485
68	0x3e94145a	0.28921777
69	0x3d824119	0.06360073
70	0xbd59a994	-0.053140238
71	0xbe71d88a	-0.2361776
72	0x3d145ff1	0.03622431
73	0x3da30779	0.0796041
74	0x3e60c7ff	0.21951292
75	0xbdc09963	-0.09404256
76	0xbc5b3be3	-0.013380977
77	0x3e01a8dc	0.12662071
78	0x3e22be00	0.15892792
79	0x3e4d90b0	0.20074725
80	0xbdaf0a5c	-0.08546898
81	0xbe60cdf3	-0.21953563
82	0xbe513de4	-0.20433766
83	0x3e873997	0.26411125
84	0xb908d32d	-0.0001304864
85	0x3dc66fda	0.09689303
86	0xbdb01473	-0.085976504
87	0x3e58f398	0.21186674
88	0xbd56f8c1	-0.052483324
89	0x3e5e4166	0.21704635
90	0xbe70d9bc	-0.23520559
91	0x3d85a7c8	0.06526142
92	0x3e3fc055	0.18725713
93	0x3dd712a7	0.105016045
94	0x3e02a1ee	0.12757084
95	0x3e57d3f3	0.21076946
96	0xbd5e9828	-0.054344326
97	0x3e832e20	0.25621128
98	0x3e2bcdbd	0.16777702
99	0xbe451865	-0.19247587
100	0xbe3d6d36	-0.18498692
101	0x3dffce26	0.124904916
102	0x3d358556	0.044316612
103	0x3d91bca9	0.07116062
104	0xbe706a90	-0.2347815
105	0xbe503e2e	-0.2033622
106	0x3e46fc13	0.19432096
107	0xbdad0cd0	-0.084497094
108	0x3ccd3c47	0.025053157
109	0x3e8371d8	0.25672793
110	0xbd215be9	-0.039394293
111	0x3daa3408	0.083107054
112	0xbb8f4e28	-0.0043733306
113	0xbe83ed3d	-0.25766936
114	0x3c1028be	0.008798776
115	0xbdbf7a8b	-0.09349545
116	0x3e9bbcc4	0.30417454
117	0x3e7a6183	0.2445126
118	0xbd60224a	-0.0547202
119	0xbdd96cdd	-0.10616467
120	0xbdfe1232	-0.12405814
121	0xbe81ff48	-0.25390077
122	0x3d31b707	0.04338744
123	0xbd6851c8	-0.056718618
124	0xbe0b5b74	-0.13609105
125	0xbde52a27	-0.111896805
126	0x3e02bbaa	0.127669
127	0xbdd1c04b	-0.10241755
128	0x3db0d7ed	0.086349346
129	0xbde194a5	-0.1101468
130	0x3d870c36	0.06594126
131	0x3e571354	0.21003467
132	0xbd9919c6	-0.07475619
133	0xbcde52ed	-0.027139151
134	0x3d56be42	0.052427538
135	0x3d06b513	0.03288753
136	0xbdafa415	-0.08576218
137	0xbe0d10b2	-0.137759
138	0x3d84e410	0.06488812
139	0x3dfd6c70	0.123741984
140	0xbdcdbbee	-0.1004561
141	0x3e3fc663	0.18728022
142	0xbe09ea70	-0.13468337
143	0x3c8a45dc	0.016879015
144	0xbe811484	-0.25210965
145	0xbe82f47c	-0.25577152
146	0xbd4de985	-0.05027153
147	0x3c629e91	0.0138317505
148	0xbce5909a	-0.028023053
149	0x3e0cc437	0.13746725
150	0xba5c3449	-0.0008400125
151	0x3e6dc52f	0.23219751
152	0x3e7f28dd	0.24917932
153	0x3dfbda34	0.12297478
154	0xbe6aff82	-0.22949031
155	0x3e7fff3b	0.24999706
156	0xbd24b925	-0.04021563
157	0xbdd351d3	-0.10318341
158	0xb8da184d	-0.000103995764
159	0xbe81af65	-0.25329128
160	0x3bd4f68e	0.006499118
161	0xbe5fc881	-0.2185383
162	0x3e09bedb	0.13451712
163	0xbe27e3aa	-0.1639544
164	0x3e5ebbaf	0.21751283
165	0xbe3f0253	-0.1865323
166	0x3e4751ee	0.19464847
167	0x3e32dfe0	0.17468214
168	0x3e2a90b5	0.16656764
169	0xbe68b282	-0.22724345
170	0xbdfd80cd	-0.123780824
171	0x3e55d3ba	0.20881549
172	0x3c2a1247	0.010380334
173	0xbe24ca31	-0.16092755
174	0xbdfea8e8	-0.1243456
175	0x3d9841db	0.07434436
176	0x3df77894	0.12083545
177	0x3e4b1877	0.19833551
178	0x3e29722f	0.16547464
179	0x3df407aa	0.11915524
180	0x3dd9de9a	0.10638161
181	0xbe2a44e0	-0.16627836
182	0x3daacb68	0.08339578
183	0xbb5e2db7	-0.003390176
184	0x3d8c6c63	0.068566106
185	0x3dfeb865	0.12437514
186	0xbe6d6b25	-0.23185404
187	0xbcf8a730	-0.030353159
188	0xb964aed7	-0.00021808907
189	0xbd264df4	-0.040601686
190	0x3d8d30d7	0.06894081
191	0x3e34e605	0.1766587
192	0x3d509676	0.05092474
193	0xbe4c8e6a	-0.19976202
194	0x3e5c8d7c	0.21538347
195	0x3e3589a5	0.17728288
196	0x3e6d4776	0.23171791
197	0x3d28eb4a	0.041240014
198	0xbe7b2cdc	-0.24528831
199	0xbe54cb29	-0.20780624
200	0xbd73e0b4	-0.059540465
201	0xbe49c2f1	-0.1970327
202	0x3da3661d	0.07978461
203	0x3e461df0	0.19347358
204	0x3e380a89	0.17972769
205	0x3e14a25d	0.14515062
206	0xbcca6997	-0.024708552
207	0xbd6efe26	-0.058347844
208	0x3d5e9397	0.05433997
209	0xbc6dcbc0	-0.01451391
210	0xbe59ec96	-0.21281657
211	0xbcd74a8e	-0.026280668
212	0x3e0ecc04	0.13945013
213	0xbcbfa6f7	-0.023395045
214	0x3a88e256	0.001044343
215	0x3e34a45c	0.17640823
216	0x3e5d7c3a	0.2162942
217	0x3e57b259	0.21064128
218	0x3e6bb985	0.23019989
219	0x3d9ad1b0	0.07559526
220	0xbd7a23c2	-0.061069258
221	0x3e3d3328	0.18476546
222	0xbe0ae81b	-0.13565104
223	0xbe735c12	-0.23765591
224	0xbd8e1c14	-0.06938949
225	0xbe459121	-0.19293644
226	0x3e70cd99	0.2351593
227	0xbe17b9a4	-0.1481691
228	0xbb7d1261	-0.003861569
229	0xba943d70	-0.0011309814
230	0x3e3dd07e	0.18536565
231	0xbe28d570	-0.1648767
232	0x3e22258d	0.15834637
233	0x3c482ae2	0.012217255
234	0x3c824dbf	0.015906213
235	0xbc8c22c0	-0.017106414
236	0x3c48b9da	0.012251342
237	0x3dc0efc9	0.094207354
238	0xbd9102b7	-0.07080596
239	0xbb81e739	-0.0039643315
240	0x3e83d233	0.25746307
241	0x3e4627d0	0.19351125
242	0xbc8e3b46	-0.017362248
243	0x3d7d185d	0.061790813
244	0xbe5631c0	-0.20917416
245	0xbe20544d	-0.15657158
246	0xbe01fb96	-0.12693629
247	0xbd704b70	-0.058665693
248	0xbda0e428	-0.07856017
249	0x3e647e2f	0.2231376
250	0x3e10675f	0.14101933
251	0xbe7217b3	-0.23641853
252	0xbd13ba85	-0.03606655
253	0xbe57f181	-0.2108822
254	0xbe48a5d2	-0.19594505
255	0x3c4c5107	0.01247049

GRU_a.weight_hh_l0 f4 [48, 16]
0	0x3d7edb77	0.062221017
1	0xbc9a2ecc	-0.018821143
2	0x3e2b4c5b	0.16728346
3	0xbdda109c	-0.10647699
4	0xbe2fe5d7	-0.1717752
5	0x3e684e54	0.2268613
6	0x3aa80cb9	0.0012821174
7	0x3e4ebbc6	0.20188817
8	0x3e4c7b6f	0.19968961
9	0xbe7481c9	-0.23877634
10	0xbd846c3f	-0.06465959
11	0x3e034522	0.12819341
12	0x3d9e06c4	0.07716134
13	0x3cc3b652	0.023890648
14	0xbe43e82f	-0.1913154
15	0x3e330f87	0.17486392
16	0xbe4897b5	-0.19589122
17	0x3d39f7cf	0.045402344
18	0x3e731fbc	0.23742574
19	0xbe6faaf1	-0.23405053
20	0x3dc37c5f	0.09545206
21	0xbe145a93	-0.14487676
22	0x3dc408c6	0.09571986
23	0x3de41470	0.11136711
24	0x3e6417a0	0.22274637
25	0xbe0db616	-0.13838992
26	0xbe003c8a	-0.12523094
27	0x3d8af4fc	0.06785008
28	0xbcd77f03	-0.026305681
29	0x3de256df	0.110517256
30	0x3dd7adc0	0.10531187
31	0xbe5afd04	-0.2138558
32	0x3c245374	0.010029662
33	0xbb94cab3	-0.004540765
34	0xbe2e8e1f	-0.17046402
35	0xbe86ef5b	-0.2635449
36	0xbe416eac	-0.18889874
37	0x3e11f559	0.14253749
38	0x3e4df4a4	0.20112854
39	0xbe2f618d	-0.17127056
40	0x3e15c4f6	0.14625916
41	0x3dbf92e1	0.09354187
42	0xbe33c207	-0.17554484
43	0xbe5c3504	-0.21504599
44	0x3e54522a	0.20734468
45	0xbd29a714	-0.041419104
46	0x3d3a4c2c	0.0454828
47	0x3ddd9873	0.10820093
48	0xbd9e0091	-0.07714952
49	0xbe1c6be1	-0.15275528
50	0xbe62e9f5	-0.2215956
51	0xbe7aad74	-0.2448023
52	0xbd0bc1a8	-0.034120232
53	0xbe62cb68	-0.22147906
54	0x3e06362d	0.13106604
55	0xbcb79e24	-0.022414275
56	0xbe84b226	-0.25917166
57	0x3c732a88	0.014841683
58	0xbd898f1e	-0.067167506
59	0xbe39fa68	-0.18161929
60	0xbe2b24ae	-0.16713211
61	0x3e1a30cc	0.15057677
62	0x3d2a910f	0.041642245
63	0x3cd8e8a6	0.026478123
64	0xbd6d88cc	-0.057991788
65	0x3db46fa1	0.08810354
66	0xbc9d8347	-0.019227637
67	0x3d079b5b	0.033107143
68	0x3ddc5dc2	0.107600704
69	0x3e969072	0.29407078
70	0x3e522833	0.20523147
71	0xbe6ad8ea	-0.22934309
72	0x3d04be42	0.032408006
73	0xbdce519b	-0.10074159
74	0x3dd5453c	0.10413596
75	0xbe68a88d	-0.22720547
76	0x3e324779	0.17410077
77	0x3e2b738e	0.167433
78	0x3e1f3d65	0.15550764
79	0xbe327798	-0.17428434
80	0xbd64267d	-0.055700768
81	0xbe9ec84a	-0.31012183
82	0x3e19195c	0.1495108
83	0x3e3619ef	0.1778333
84	0xbd90d96e	-0.070727214
85	0x3d85c942	0.065325275
86	0xbe1e8974	-0.15482122
87	0xbe1f2ca4	-0.15544373
88	0x3e41495f	0.18875645
89	0xbe29ab28	-0.16569197
90	0xbe58bb0a	-0.211651
91	0xbe8fe948	-0.28107667
92	0x3e3a0d98	0.18169248
93	0x3c8a5078	0.016884074
94	0x3e833993	0.25629863
95	0x3d33c00a	0.043884315
96	0xbdd11cf7	-0.10210603
97	0xbe3ec2fe	-0.18629071
98	0xbe2ff194	-0.17181998
99	0xbe31fe20	-0.17382097
100	0xbcfa95fd	-0.030589098
101	0x3caa6188	0.02079846
102	0x3e64f9ff	0.22360991
103	0x3e80bf97	0.2514617
104	0xb83af4d1	-4.457386e-05
105	0xbe7e3884	-0.24826247
106	0xbe37dd0d	-0.17955418
107	0x3e2fb8d8	0.17160356
108	0x3dc85b9a	0.097830966
109	0xbe268f99	-0.16265716
110	0x3d90d5e1	0.07072044
111	0x3d96e7d9	0.0736844
112	0x3e618ff0	0.22027564
113	0xbe8717b5	-0.26385275
114	0x3dc02214	0.093815
115	0xbd894795	-0.06703106
116	0xbdd08186	-0.10180955
117	0xbd37a0ec	-0.0448312
118	0x3d8a93bd	0.0676646
119	0xbe0cc48b	-0.1374685
120	0x3da653ac	0.08121428
121	0xbb90e9c2	-0.0044223974
122	0xbe4ad92d	-0.19809408
123	0xbd67d66a	-0.056600966
124	0xbe074af0	-0.1321218
125	0x3cf47560	0.029841125
126	0x3e26759d	0.16255803
127	0x3ea62f51	0.32457975
128	0xbdc9672e	-0.09834133
129	0xbe9803fa	-0.29690534
130	0x3d23b2c4	0.039965406
131	0x3e528e34	0.20562059
132	0xbe561835	-0.20907672
133	0x3dcca825	0.099930085
134	0xbe47d9c1	-0.1951666
135	0xbd8df2e1	-0.06931091
136	0x3e4b9d84	0.19884306
137	0x3e46f355	0.19428761
138	0x3db5ee0a	0.08883293
139	0xbdace077	-0.08441251
140	0x3e03c5f1	0.12868477
141	0x3d93a70b	0.07209595
142	0x3e2042af	0.15650438
143	0x3e2dd414	0.16975433
144	0xbe40635e	-0.18787906
145	0x3dc3bf9a	0.095580295
146	0xbd0c77f4	-0.034294084
147	0xbe38cbf7	-0.18046556
148	0xbc19c6b5	-0.009385754
149	0x3e9c0f55	0.30480447
150	0xbe6c1d19	-0.23057975
151	0xbd983817	-0.07432573
152	0xbe1881df	-0.14893292
153	0xbdedfc5c	-0.11620399
154	0x3c9e9a15	0.019360581
155	0xbe7510d0	-0.23932195
156	0xbdf5470a	-0.1197644
157	0xbe07c467	-0.13258515
158	0xbdb9cbda	-0.09072085
159	0x3d2b726a	0.04185716
160	0x3e7698cc	0.24081725
161	0x3d21a287	0.03946164
162	0xbe741670	-0.23836684
163	0xbe633d6d	-0.22191401
164	0x3db72408	0.08942419
165	0xbd8fff28	-0.07031089
166	0x3d185dba	0.03719876
167	0x3d7c51a1	0.061601285
168	0x3e4bf693	0.1991828
169	0xbd9a35aa	-0.07529767
170	0x3d2e6108	0.042573005
171	0x3e23445c	0.15944046
172	0x3b7db3b6	0.0038711852
173	0x3e0cea1a	0.13761178
174	0xbd864f2b	-0.06558069
175	0xbe6f84f5	-0.23390563
176	0xbda3fae2	-0.080068365
177	0xbcfb0650	-0.030642658
178	0xbe12992a	-0.1431624
179	0x3e82f3a2	0.25576502
180	0xbe15df40	-0.14635944
181	0xbc59c702	-0.013292076
182	0x3e646e5c	0.22307724
183	0x3d4368b2	0.047707267
184	0x3e9e4921	0.30915168
185	0x3e03b50c	0.12862033
186	0xbe19a633	-0.15004806
187	0x3c32f5c1	0.01092285
188	0x3ddb7e78	0.107174814
189	0xb8af7a11	-8.367387e-05
190	0xbd3d1e86	-0.046171688
191	0xbcf9db45	-0.030500064
192	0x3e30a26d	0.1724946
193	0xbd61bd49	-0.055112157
194	0x3ce7af95	0.028281966
195	0x3e5f441a	0.21803322
196	0xbe482a44	-0.19547373
197	0x3cd6430d	0.02615502
198	0x3e8adc5e	0.27121252
199	0x3e1cf01d	0.15325971
200	0x3db8f639	0.09031338
201	0xbdb199c7	-0.08671909
202	0xbe4eb4b0	-0.20186114
203	0xbe834a37	-0.2564256
204	0x3dd2a3e5	0.10285167
205	0xbe27ccb5	-0.16386683
206	0x3e69178c	0.22762889
207	0x3e82d870	0.25555754
208	0x3d9e081a	0.07716389
209	0x3d9c01f9	0.07617564
210	0xbe7c0b6d	-0.24613734
211	0x3b3eeff5	0.0029134725
212	0xbd12aefb	-0.035811406
213	0x3b8739cd	0.0041267634
214	0x3d6ce199	0.057832334
215	0xbe613c7c	-0.21995729
216	0x3e11736c	0.14204186
217	0xbd249ca1	-0.040188435
218	0x3d7cd213	0.06172378
219	0xbe1ba445	-0.15199383
220	0xbe9ab03d	-0.30212584
221	0x3bd3c079	0.0064621535
222	0x3e754cff	0.23955153
223	0xbd9385fa	-0.072032884
224	0x3e954684	0.29155362
225	0xbdab4cdf	-0.083642714
226	0xbe3c308b	-0.18377893
227	0xbe1dec04	-0.15422064
228	0x3e4c513a	0.1995286
229	0x3d82b15f	0.06381487
230	0x3e5502c5	0.20801838
231	0x3e921b78	0.28536582
232	0x3e956240	0.2917652
233	0x3d939af3	0.072072886
234	0xbe47e523	-0.19521002
235	0xbe8f6a60	-0.28010845
236	0xbbfe0ae4	-0.007752763
237	0xbe609b0d	-0.21934147
238	0x3e70a6e0	0.23501158
239	0xbd2e3dce	-0.04253941
240	0x3e2170ab	0.15765636
241	0x3e0f4c1b	0.13993876
242	0xbdee6443	-0.11640217
243	0x3c3d0818	0.011537574
244	0x3e2a34dd	0.16621728
245	0xbe45c213	-0.19312315
246	0xbe551cbc	-0.20811743
247	0xbda75a3c	-0.08171508
248	0xbe33ad50	-0.17546582
249	0x3dce129d	0.10062144
250	0xbde75ed5	-0.11297385
251	0xbdab96fa	-0.08378406
252	0x3bbb05b8	0.005707469
253	0xbe692df5	-0.22771437
254	0x3e00f287	0.12592517
255	0x3e49cfa6	0.19708118

GRU_a.bias_ih_l0 f4 [48]
0	0x3d8774ee	0.066140994
1	0x3e085617	0.1331409
2	0x3e5809fa	0.21097556
3	0xbdc23ac2	-0.094838634
4	0x3e68660c	0.22695178
5	0xbd1a0cff	-0.03761005
6	0xbe46e55b	-0.1942343
7	0x3e604332	0.21900633
8	0x3d9cc54a	0.076548174
9	0x3e25d4df	0.16194485
10	0x3e3413ab	0.17585628
11	0x3d337170	0.043809354
12	0x3e2f18b3	0.17099266
13	0x3d4e7f98	0.05041465
14	0xbd6cc337	-0.05780336
15	0x3e4034db	0.18770163
16	0xbe01c6db	-0.12673514
17	0x3e3dd18f	0.18536972
18	0xbd0fa42f	-0.035068687
19	0x3d9ff9e3	0.07811334
20	0xbde616c5	-0.11234812
21	0x3d3e2895	0.04642542
22	0xbe627c43	-0.22117715
23	0xbc79d337	-0.015248111
24	0xbe4af282	-0.19819072
25	0xbe135d59	-0.14391078
26	0xbe7cf4e3	-0.24702792
27	0xbe3553f0	-0.17707801
28	0x3d6e6a39	0.05820677
29	0x3e40950c	0.18806857
30	0x3de0aa3d	0.109699704
31	0xbdb538ed	-0.08848748
32	0x3dd97d23	0.10619571
33	0xbd36c732	-0.04462356
34	0xbaea6acd	-0.0017884612
35	0x3e66d8b1	0.22543599
36	0x3da32c17	0.07967394
37	0x3e1f56c8	0.15560448
38	0xbe85456a	-0.2602952
39	0xbdacaded	-0.08431611
40	0xbcb6b402	-0.022302631
41	0x3e3513e5	0.1768337
42	0x3d025c76	0.03182646
43	0xbe870ee7	-0.26378557
44	0xbdf0e962	-0.11763264
45	0x3dfefa83	0.12450125
46	0x3e44fbf1	0.19236733
47	0x3e5c6d29	0.21526016

GRU_a.bias_hh_l0 f4 [48]
0	0xbe5be38b	-0.2147352
1	0xbccd3b6e	-0.025052752
2	0xbe780644	-0.2422114
3	0x3dc4423d	0.095829464
4	0xbe3139b4	-0.17307168
5	0x3e385dce	0.18004534
6	0x3e0b0cf7	0.13579164
7	0xbc4965f7	-0.012292377
8	0xbe414490	-0.18873811
9	0xbe196cc8	-0.14982903
10	0xbc80f318	-0.015740916
11	0x3d0f06be	0.03491854
12	0xbdab7d33	-0.08373489
13	0x3ce7752a	0.02825411
14	0x3d2785ec	0.040899202
15	0xbe4f1cb1	-0.20225789
16	0x3da4a659	0.08039541
17	0xbe840168	-0.25782323
18	0x3e4f4e07	0.20244609
19	0xbe8c5d34	-0.27414858
20	0x3c789950	0.015173271
21	0x3dc3b084	0.09555152
22	0x3e6565dd	0.22402139
23	0x3a84235d	0.001008134
24	0xbe8c29dc	-0.27375686
25	0xbe077245	-0.13227184
26	0xbdaf8986	-0.085711524
27	0x3e1093af	0.14118837
28	0x3cc471d9	0.023980068
29	0xbd76ccd7	-0.060253944
30	0xbe1962d4	-0.14979106
31	0xbb8cfbb0	-0.0043024644
32	0x3d60917d	0.05482625
33	0x3e3dfbab	0.18553035
34	0xbd5814f7	-0.05275437
35	0xbe2b6294	-0.16736823
36	0xbe850ea1	-0.25987723
37	0xbd20b9cd	-0.039239693
38	0x3dda5c63	0.106621526
39	0xbdc83efe	-0.0977764
40	0xbd716f5d	-0.058944095
41	0xbe58ad2d	-0.21159811
42	0x3e45ecde	0.19328639
43	0xbe80d4a9	-0.25162247
44	0xbe1353b6	-0.14387402
45	0xbe099007	-0.13433848
46	0x3d3213d4	0.04347594
47	0xbd75c0b8	-0.059998244

linear_a.weight f4 [4, 16]
0	0x3e93edb4	0.2889229
1	0x3d8b2684	0.06794456
2	0xbe2726b0	-0.16323352
3	0x3e918f2d	0.28429547
4	0xbda4de6d	-0.08050237
5	0x3eb58e9c	0.35460365
6	0x3e0e3ad2	0.13889626
7	0x3e8e4535	0.27787176
8	0x3eb60464	0.35550225
9	0xbd6066d4	-0.054785565
10	0x3e14ea25	0.14542444
11	0xbdcc07c8	-0.09962422
12	0xbd899609	-0.0671807
13	0xbde20080	-0.110352516
14	0x3db0c960	0.08632159
15	0xbde78f7a	-0.11306663
16	0xbca0645b	-0.019579103
17	0xbc83e25f	-0.016099153
18	0x3df3ef68	0.119108975
19	0xbec521ed	-0.38502446
20	0x3e098703	0.13430409
21	0xbe1429c9	-0.14469065
22	0x3e484512	0.19557598
23	0xbe9c07fe	-0.30474848
24	0xbef3a6cb	-0.4758819
25	0x3d91fc2a	0.071281746
26	0x3e294b06	0.16532525
27	0xbe5f5400	-0.21809387
28	0xbd78429b	-0.060610395
29	0xbcb787cb	-0.022403618
30	0xbe08e570	-0.13368773
31	0x3de321e9	0.11090452
32	0x3e90f3e4	0.28311074
33	0xbe68cd88	-0.22734654
34	0x3dd0e82f	0.102005355
35	0x3df5b654	0.11997667
36	0xbdb611fd	-0.0889015
37	0x3ea60ef3	0.3243328
38	0xbd9a94c3	-0.07547905
39	0x3e75f14f	0.24017833
40	0x3d4c6b17	0.049906816
41	0x3dbe6370	0.0929631
42	0xbe3e8ce7	-0.18608437
43	0x3e766676	0.24062523
44	0x3e198459	0.14991893
45	0xbe23597f	-0.15952109
46	0x3e9b7e53	0.30369815
47	0x3e80b26e	0.2513613
48	0xbea6bc9c	-0.32565773
49	0xbc83bcdb	-0.016081264
50	0xbeef5b56	-0.4674937
51	0xbea70945	-0.3262426
52	0xbeac4310	-0.33644915
53	0xbe8f2e3e	-0.27964967
54	0xbdd270e9	-0.10275442
55	0xbd130e55	-0.03590234
56	0xbe45e5e3	-0.19325976
57	0xbb3d1304	-0.0028850446
58	0x3e3cbf54	0.18432361
59	0x3e74452a	0.23854509
60	0xbe258096	-0.16162333
61	0x3e2275eb	0.15865295
62	0xbdc48d7a	-0.09597297
63	0x3ce164d7	0.027513904

linear_a.bias f4 [4]
0	0x3da9ac71	0.08284844
1	0xbe5ed487	-0.2176076
2	0x3eac7a96	0.33687276
3	0xbd78c511	-0.060734812

conv_v_0.weight f4 [16, 7, 3, 3]
0	0x3aa93867	0.0012910486
1	0x3dd8fe9e	0.105954394
2	0x3dc3e2a4	0.09564713
3	0x3d253cd2	0.040341206
4	0x3d9266d1	0.07148517
5	0x3dcaf20e	0.099094495
6	0x3ce5e19d	0.028061682
7	0x3d657478	0.056019276
8	0x3de7948f	0.11307632
9	0xbdbfbd4d	-0.09362278
10	0xbde581cf	-0.112064
11	0xbdba4772	-0.09095658
12	0xbe40529a	-0.1878151
13	0xbe25c771	-0.16189362
14	0xbdc41daa	-0.095759705
15	0x3d09c067	0.033630755
16	0xbe0e64bc	-0.13905615
17	0x3c914e52	0.017737541
18	0x3d134766	0.035956763
19	0xbc91349a	-0.017725278
20	0xbd3fb4ec	-0.0468034
21	0x3d952608	0.072826445
22	0xbe19ea51	-0.15030791
23	0xbcd50336	-0.026002508
24	0xbdd960a5	-0.106141366
25	0x3dae3451	0.08506072
26	0xbe02ecc6	-0.12785634
27	0x3d993033	0.074798964
28	0x3e12771f	0.14303254
29	0xbd67a164	-0.0565504
30	0x3d9394f0	0.07206142
31	0x3e23f7b6	0.16012463
32	0x3e0fb1ee	0.14032719
33	0x3e45f009	0.19329847
34	0x3e305073	0.17218189
35	0x3e1dcc42	0.1540995
36	0xbdc3402e	-0.09533726
37	0x3d0db91d	0.034600366
38	0x3d08d2be	0.033404104
39	0xbc96e678	-0.018420443
40	0x3d748e57	0.05970606
41	0x3c459814	0.012060184
42	0xbdb74276	-0.08948223
43	0xbd758325	-0.059939522
44	0xbd6215f9	-0.055196736
45	0x3b4c3ca3	0.0031164072
46	0x3d76f4bd	0.060291994
47	0xbd8f4d4b	-0.06997164
48	0x3d5fa40b	0.054599803
49	0xbbdd1616	-0.0067470176
50	0xbdbe6492	-0.09296526
51	0x3d895d86	0.06707291
52	0xbd8bb2cd	-0.06821213
53	0x3d944beb	0.07241043
54	0x3c992547	0.018694533
55	0xbe06cb1f	-0.13163422
56	0xbd97620a	-0.07391746
57	0x3d192f6a	0.037398733
58	0xbc214ce6	-0.009844994
59	0xbd0c3e9c	-0.034239396
60	0x3d2c7a41	0.042108778
61	0xbdefbaf6	-0.11705582
62	0x3b061593	0.0020459637
63	0xbd8fabf8	-0.07015222
64	0x3db74b11	0.08949865
65	0xbd1eeb21	-0.038798455
66	0xbca754f8	-0.020426258
67	0xbe203b2e	-0.15647575
68	0xb9f9d6f2	-0.00047653128
69	0x3c51f81b	0.012815501
70	0x3d9f86a7	0.07789355
71	0xbc846ee0	-0.01616615
72	0x3dd5faad	0.10448203
73	0xbd736e23	-0.059431206
74	0xbc94077b	-0.018069973
75	0x3b825ee3	0.0039785965
76	0xbb3d701a	-0.002890593
77	0xbe3b969c	-0.18319172
78	0xbe2d7628	-0.16939604
79	0xbde6e5b3	-0.112742804
80	0xbd3a8d67	-0.045545008
81	0xbe354ab4	-0.17704278
82	0xbe551ad0	-0.2081101
83	0x3c8ad118	0.016945407
84	0xbe0e64b4	-0.13905603
85	0x3d360335	0.044436652
86	0xbdc1eb59	-0.09468717
87	0x3c69499a	0.014238739
88	0xbd95c40f	-0.07312786
89	0xbdbe43fd	-0.092903115
90	0x3dd21bc8	0.10259205
91	0x3df778f5	0.120836176
92	0x3e3ff92e	0.18747398
93	0x3e2cbfc3	0.16870026
94	0xbd3048f2	-0.043038316
95	0x3dbcdd71	0.09221924
96	0x3dc57256	0.096409485
97	0xbd3a6f1a	-0.04551611
98	0x3dbda8ad	0.09260688
99	0xbdfe71d9	-0.124240585
100	0xbda37547	-0.07981353
101	0x3d5dd2a2	0.054155953
102	0xbc8023c8	-0.015642062
103	0xbd8d33fb	-0.0689468
104	0x3d0c7dce	0.034299664
105	0x3d5d62f5	0.05404945
106	0xbe02034e	-0.12696573
107	0xbd75bdc4	-0.059995428
108	0x3d8fb18e	0.07016288
109	0x3d1ecf79	0.03877208
110	0xbcbc0904	-0.022953518
111	0xbd2d599f	-0.042321797
112	0x3d8c95ac	0.06864485
113	0xbd2eb7bd	-0.042655695
114	0xbdb06a8c	-0.08614072
115	0xbd096d6a	-0.03355161
116	0xbce5f075	-0.02806876
117	0xbdad4cbe	-0.08461903
118	0x3d0c2e55	0.034223873
119	0x3d86f691	0.065899976
120	0xbd54b64b	-0.05193166
121	0xbe2fde90	-0.17174745
122	0x3b8f4e54	0.004373351
123	0x3c94b873	0.018154358
124	0xbda3afca	-0.079925135
125	0xbcbf32e2	-0.023339693
126	0x3e2e96c3	0.17049699
127	0x3e06e2dc	0.13172477
128	0x3e036bda	0.12834111
129	0x3e1e16c3	0.1543837
130	0x3e3f8955	0.18704732
131	0x3da01505	0.07816509
132	0x3dbcde8f	0.09222137
133	0x3e37f6c1	0.17965223
134	0xbe194272	-0.14966753
135	0x3e482359	0.19544734
136	0x3e321d06	0.17393884
137	0x3b14972f	0.002267312
138	0x3e0cc07a	0.13745299
139	0xbde32439	-0.11090893
140	0xbd226721	-0.039649133
141	0xbde5b0fd	-0.112153985
142	0xbdf38a4b	-0.11891612
143	0xbde0186a	-0.109421566
144	0xbe5c2310	-0.2149775
145	0xbe848aa3	-0.2588702
146	0xbe8d9598	-0.27653193
147	0x3c6124d1	0.013741688
148	0xbe4bdd98	-0.1990875
149	0x3e25cc4c	0.16191214
150	0xbdc8eeef	-0.09811198
151	0x3df07e3b	0.117428266
152	0x3e011ee0	0.12609434
153	0xbdde81a7	-0.10864573
154	0xbc474a02	-0.012163641
155	0xbe248136	-0.16064915
156	0x3d3b1218	0.045671552
157	0x3da1094b	0.078631006
158	0xbe161b84	-0.14658934
159	0x3df29aae	0.11845909
160	0x3e0a57a7	0.13509999
161	0xbde47c6a	-0.111565426
162	0x3d97bc33	0.07408943
163	0x3d7e1f0e	0.062041335
164	0xbc367bbf	-0.011137902
165	0x3b4926aa	0.0030693212
166	0xbda9f5e1	-0.08298851
167	0x3ce03ef6	0.027373772
168	0xbda02e0b	-0.07821282
169	0xbbe17341	-0.0068801944
170	0x3d772f2e	0.06034773
171	0xbd8854aa	-0.066567734
172	0x3defa424	0.11701229
173	0x3c93bdd6	0.018034857
174	0x3df46bea	0.119346455
175	0xbde8fc72	-0.11376275
176	0x3d25358f	0.04033428
177	0x3d1ea7a1	0.038734082
178	0x3d6b05e8	0.05737868
179	0xbdd9aec9	-0.10629041
180	0x3c7fcf6b	0.015613417
181	0xbd617df1	-0.055051748
182	0xbdc6bd7b	-0.09704109
183	0x3d17bb80	0.03704405
184	0xbdbf890f	-0.09352314
185	0x3d141f9a	0.03616295
186	0xbcc88df2	-0.024481747
187	0xbdabbbef	-0.08385455
188	0xbd8989dc	-0.06715748
189	0xbe8470e9	-0.25867394
190	0xbe915e9b	-0.2839249
191	0x3c086d92	0.008326905
192	0x3bae82fe	0.005325674
193	0x3ad413ff	0.0016180276
194	0x3b0c4bb4	0.0021407427
195	0xbc6a24f4	-0.014291037
196	0xbc022be0	-0.007945031
197	0x3d01f604	0.03172876
198	0x3d096cd2	0.033551045
199	0x3d394d1f	0.045239564
200	0xbe3ef83c	-0.18649381
201	0x3db1b0aa	0.08676274
202	0x3ca95b8a	0.020673532
203	0xbe7646dd	-0.2405047
204	0x3e5c4656	0.21511206
205	0x3c744580	0.014909148
206	0xbe85f7ff	-0.26165769
207	0x3e015c0c	0.1263277
208	0x3e7e7df9	0.24852742
209	0x3d8b2569	0.06794245
210	0x3e0f2d31	0.13982083
211	0x3e8a37cf	0.26995704
212	0x3e7e5a4c	0.24839133
213	0x3e086011	0.13317896
214	0x3d10eebc	0.035383925
215	0x3e9500ca	0.29102165
216	0x3affaa0d	0.0019505635
217	0x3bddd3ed	0.0067696483
218	0xbcb7388d	-0.022365833
219	0x3d833fed	0.06408677
220	0xbd4d9de3	-0.0501994
221	0x3c772e8d	0.015086782
222	0x3ba6efa1	0.005094484
223	0xbe28939b	-0.16462557
224	0xbd3367c5	-0.043800134
225	0xbda1d377	-0.07901662
226	0xbde481b1	-0.11157549
227	0x3c4e8136	0.0126040485
228	0xbd0c509b	-0.03425656
229	0xbd8237a8	-0.06358272
230	0xbc9d8c2a	-0.019231874
231	0xbdec9885	-0.11552528
232	0x3c9f7d78	0.019469008
233	0xbd870b3e	-0.06593941
234	0x3daca90d	0.084306814
235	0x3dd89dea	0.10576995
236	0x3d68f8be	0.056877844
237	0x3bbb194a	0.005709802
238	0x3cc5f07b	0.024162522
239	0x3d57c98d	0.05268245
240	0x3d85a75c	0.06526062
241	0xbd6d51ff	-0.057939526
242	0xbd247420	-0.040149808
243	0xbd0eb447	-0.034839895
244	0xbcac42e6	-0.021027993
245	0xbd50fd5c	-0.051022872
246	0xbdfe97ee	-0.12431322
247	0xbd0ba083	-0.034088623
248	0xbe243d35	-0.16038974
249	0x3cfbecf8	0.030752644
250	0x3ce96e63	0.02849502
251	0x3cba1e1b	0.022719434
252	0xbd944858	-0.07240361
253	0x3e0b73b2	0.13618353
254	0xbd5a1f14	-0.053252295
255	0xbe4a00c8	-0.1972686

conv_v_0.bias f4 [16]
0	0xbd73aeea	-0.059492983
1	0x3db40d4f	0.08791601
2	0xbdc3f9ea	-0.09569152
3	0xbc46053b	-0.012086208
4	0xbdaa2e3e	-0.08309601
5	0xbc71887c	-0.014742013
6	0xbd801409	-0.062538214
7	0xbe0608b1	-0.13089253
8	0xbcbecc87	-0.023290886
9	0xbc8e94d4	-0.017404951
10	0xbce70d49	-0.028204577
11	0xbd79918b	-0.060929816
12	0x3de566be	0.11201237
13	0xbc776886	-0.015100604
14	0xbdb56908	-0.08857924
15	0xbd9ffa9a	-0.0781147
