league/checkpoints/mfos_seeds/new_self_6x6_62/850_1.pth (torch, 549838 bytes, 105 tensors)

conv_a_0.weight f4 [16, 7, 3, 3]
-0.28777632 0.032336455 0.06640445 -0.35175017 0.33075795 0.3640161 -0.48591968 0.08259051
0.05153764 -0.06865135 0.07372457 0.06878344 -0.06307616 0.038434774 0.0060026683 -0.076455876
0.035931807 0.08432183 0.44238633 -0.08208251 -0.16979635 0.42832333 -0.077204764 0.12148974
0.06480238 -0.18142098 -0.31172794 0.3717342 -0.33386672 -0.10620143 0.31641603 -0.023069149
0.079682186 0.062063377 -0.08765274 -0.26031277 -0.093221955 0.0145222405 0.0064401804 -0.0594106
0.11181837 0.09199309 0.002088191 -0.01026181 -0.07424193 0.06490592 0.07505766 -0.15456425
-0.1343996 0.010877508 -0.01659822 -0.15661144 0.023714535 -0.15981032 -0.05562577 0.01692388
-0.02975347 -0.009539845 -0.06632963 -0.0506758 -0.04467789 0.05290763 0.047414042 0.30803868
0.2844585 0.07928692 -0.16832751 -0.17452715 0.016490346 0.12559026 0.07005257 -0.16610901
-0.050760802 0.040847875 -0.034509446 0.1253436 -0.065726414 0.11399811 0.122318715 -0.05930753
0.025439847 0.26749116 0.2812217 -0.09273354 -0.10557058 0.004062231 0.013175253 0.11621149
-0.10239236 -0.041967258 0.23472404 0.32732266 0.035859313 -0.022630775 -0.12175658 -0.14030047
0.05236121 -0.14417282 -0.039661534 -0.1690063 -0.17113127 0.04090794 -0.039023817 -0.09845134
-0.13389727 -0.008302277 -0.06801723 -0.08151595 0.061640423 -0.026918164 0.05713196 -0.039711688
-0.08493007 -0.0041939067 -0.084980085 0.012286054 -0.063275225 0.076435395 0.06251126 0.04680145
0.011222808 0.076106176 0.1770084 0.029408297 0.25592193 0.14691383 0.11704933 0.12190717
0.05637655 0.031293895 0.05761768 -0.16205408 0.048681617 0.18361759 -0.2573464 0.06760112
-0.12064602 0.009154519 -0.07383803 0.1594606 -0.02408359 -0.0031747804 -0.002738389 -0.04198276
0.071405746 0.1542218 0.13915202 -0.048896812 -0.05051182 0.06251074 0.11543582 0.07974416
-0.08411975 0.11506491 -0.08555252 -0.119149245 -0.0019115767 -0.14756413 -0.10602168 0.049584124
0.09310553 -0.051586572 -0.17392793 -0.13208495 -0.14705178 0.02734987 -0.19771098 -0.05864791
-0.08058589 -0.16689846 -0.11572079 -0.024529496 -0.054050077 -0.13402545 -0.1295841 0.050168782
-0.034312326 -0.121716805 0.027282244 0.012500127 0.006735002 -0.11224359 -0.10219444 -0.06825989
0.052819535 -0.06007891 0.06408029 -0.04659122 0.049824096 0.103065066 0.12032115 0.08637338
0.11693894 -0.39510697 -0.04847011 -0.1703233 -0.21173884 0.22565818 0.0530024 -0.096226975
0.0039806976 -0.0020310082 0.06217977 0.03972705 -0.020335142 -0.26119253 0.028292064 0.12736298
0.3229716 0.3159162 0.14543448 0.24513263 -0.23030964 0.038698148 -0.1812472 -0.061376605
-0.099513546 0.32539305 0.26783594 0.14278404 0.13134976 -0.20225048 -0.025712626 -0.07447918
-0.14356457 0.06506567 0.07856322 -0.12164827 0.060371414 -0.13389534 -0.07836181 0.013594734
0.037815347 0.036947325 0.035948355 -0.1048568 0.059388835 -0.11158327 -0.04445626 -0.03543831
0.0462947 -0.16711436 -0.13664709 0.005110518 -0.0062632794 0.12532352 -0.06211971 -0.0115622645
0.14010966 -0.058405023 0.08509771 0.08401899 -0.25103524 -0.33286282 -0.0979532 -0.0063100513
00000000: 6b57 93be 3b73 043d 0eff 873d 9918 b4be
00000010: 1b59 a93e 5160 ba3e 77ca f8be 3725 a93d
00000020: 2219 533d 1499 8cbd e8fc 963d 55de 8c3d
00000030: 132e 81bd c86d 1d3d 08b2 c43b e694 9cbd
00000040: 3b2d 133d ecb0 ac3d 7680 e23e e01a a8bd
00000050: 18df 2dbe 324d db3e 881d 9ebd 9dcf f83d
00000060: 1cb7 843d 6cc6 39be ce9a 9fbe f253 be3e
00000070: 94f0 aabe 2380 d9bd 4801 a23e 83fb bcbc
00000080: 6a30 a33d 2b36 7e3d 4883 b3bd b747 85be
00000090: 27eb bebd b1ee 6d3c 2608 d33b 8858 73bd
000000a0: 0801 e53d e066 bc3d 08da 083b 2721 28bc
000000b0: 270c 98bd 65ed 843d d5b7 993d 1746 1ebe
000000c0: 0ca0 09be 9337 323c fef8 87bc c05e 20be
000000d0: fc44 c23c 51a5 23be d9d7 63bd f3a3 8a3c
000000e0: 8dbd f3bc 034d 1cbc d4d7 87bd 6d91 4fbd
000000f0: 2a00 37bd acb5 583d 3a35 423d 3fb7 9d3e
00000100: 8ba4 913e 2e61 a23d 0c5e 2cbe 3fb7 32be
00000110: c316 873c bc9a 003e b977 8f3d 7b18 2abe
00000120: 8fea 4fbd 1a50 273d c759 0dbd 135a 003e
00000130: 929b 86bd d777 e93d 3c82 fa3d 74ec 72bd
00000140: 3a67 d03c 9af4 883e 4afc 8f3e 15eb bdbd
00000150: 6335 d8bd 771c 853b 04dd 573c 4a00 ee3d
00000160: 16b3 d1bd dce5 2bbd 805b 703e d696 a73e
00000170: 37e1 123d 2d64 b9bc 845b f9bd edaa 0fbe
00000180: b578 563d 0aa2 13be 2274 22bd fd0f 2dbe
00000190: 093d 2fbe 168f 273d 70d7 1fbd dba0 c9bd
000001a0: 5e1c 09be 4606 08bc 9e4c 8bbd d6f1 a6bd
000001b0: ab7a 7c3d 7b83 dcbc 3403 6a3d b9a8 22bd
000001c0: d1ef adbd 0a6d 89bb 0a0a aebd 724b 493c
000001d0: 7196 81bd 298a 9c3d e705 803d e1b2 3f3d
000001e0: dedf 373c 8edd 9b3d b141 353e abe9 f03c
000001f0: 3308 833e 9470 163e 8fb7 ef3d 77aa f93d
00000200: 19eb 663d 072e 003d 8400 6c3d 81f1 25be
00000210: 6066 473d 4006 3c3e e8c2 83be 7572 8a3d
00000220: 4315 f7bd d6fc 153c 6538 97bd a449 233e
00000230: f34a c5bc fa0f 50bb 8b76 33bb 1df6 2bbd
00000240: 2d3d 923d 52ec 1d3e de7d 0e3e 0648 48bd
00000250: 7be5 4ebd a105 803d 9d69 ec3d e850 a33d
00000260: fa46 acbd 27a7 eb3d 2936 afbd 8504 f4bd
00000270: df8d faba 0d1b 17be e521 d9bd b918 4b3d
00000280: 1dae be3d 714c 53bd 2a1a 32be 4741 07be
00000290: be94 16be d60c e03c bf74 4abe ca38 70bd
000002a0: 370a a5bd 6ee7 2abe 06ff ecbd 15f2 c8bc
000002b0: 9d63 5dbd f83d 09be b2b1 04be c87d 4d3d
000002c0: 158b 0cbd a946 f9bd 037f df3c 55cd 4c3c
000002d0: 4bb1 dc3b f8df e5bd 524b d1bd d7cb 8bbd
000002e0: 4c59 583d 4e15 76bd 873c 833d 6fd6 3ebd
000002f0: 5a14 4c3d c713 d33d ef6a f63d 87e4 b03d
00000300: af7d ef3d 764b cabe 9888 46bd 3b69 2ebe
00000310: 11d2 58be f012 673e 0b19 593d a612 c5bd
00000320: 8370 823b aa1a 05bb 37b0 7e3d d5b8 223d
00000330: e295 a6bc 07bb 85be c2c4 e73c 716b 023e
00000340: 895c a53e c5bf a13e c7ec 143e 0c04 7b3e
00000350: 4ad6 6bbe f381 1e3d de98 39be 0966 7bbd
00000360: c2cd cbbd eb99 a63e cb21 893e fb35 123e
00000370: 8d80 063e c01a 4fbe 49a3 d2bc 8a88 98bd
00000380: 9702 13be 2641 853d c1e5 a03d ba22 f9bd
00000390: 0448 773d dc1b 09be 287c a0bd 72bc 5e3c
000003a0: 44e4 1a3d 1456 173d 953e 133d 29bf d6bd
000003b0: b541 733d c585 e4bd c417 36bd c327 11bd
000003c0: 839f 3d3d 0720 2bbe 37ed 0bbe 2276 a73b
000003d0: 323c cdbb cf54 003e 3d71 7ebd a76f 3dbc
000003e0: e878 0f3e 1b3a 6fbd b547 ae3d 2612 ac3d
000003f0: b187 80be ff6c aabe b09b c8bd 8cc4 cebb

conv_a_0.bias f4 [16]
-0.04172477 0.040290803 0.09837994 -0.015843323 0.087112844 -0.026024444 0.17135616 -0.026948588
0.14444806 -0.15963545 -0.10198194 0.13554373 0.06444289 0.04112414 -0.07893655 -0.15321106
00000000: 98e7 2abd f807 253d 6c7b c93d dbc9 81bc
00000010: 3868 b23d 3731 d5bc fd77 2f3e 49c3 dcbc
00000020: 31ea 133e 7a77 23be e8db d0bd facb 0a3e
00000030: a2fa 833d c971 283d 7ca9 a1bd 5ce3 1cbe

conv_a_1.weight f4 [16, 16, 3, 3]
-0.01787789 -0.034507368 -0.0013881943 0.025480464 0.026284507 0.026989153 -0.051533148 0.051070895
0.05738399 -0.009225321 0.052493528 0.032546736 -0.093309075 -0.09200877 -0.02986568 -0.018772976
0.014203055 -0.08446754 0.04632987 0.0023766893 0.03425802 0.05975385 -0.0016604839 -0.04992571
0.027109535 0.0046686158 -0.08691744 -0.03463139 -0.014717618 -0.008470593 -0.03989345 -0.020319307
0.0005486809 -0.03333538 0.036655836 -0.084558874 0.012923192 -0.0475795 0.052672215 0.02889939
0.050104752 -0.017591724 0.029879458 -0.054829184 -0.06927066 0.0410268 0.031118726 0.039305255
0.0062850583 0.0079052495 -0.10139166 0.008710317 -0.019922907 -0.008487098 0.03900133 -0.0115505885
0.0068846913 -0.045733847 -0.055989284 0.06041094 0.033042565 -0.030945586 0.068698525 0.04028525
-0.034807958 0.028433392 -0.006114017 -0.04605932 0.043648217 0.04971605 0.043637004 0.0456576
-0.027453298 -0.03511018 -0.07833711 0.0028350193 -0.04531223 0.011561989 0.024071693 -0.08623614
-0.06881615 0.026514718 0.04321325 0.0564627 -0.014210122 -0.05447636 0.061457545 0.06429307
-0.03737854 -0.08411156 -0.078127675 0.013996332 -0.0072415415 -0.042396914 0.0763813 -0.089082696
-0.06772446 0.0715901 0.015220972 -0.03612235 0.062199462 -0.047807686 -0.089455 -0.03930419
-0.031485252 -0.07216687 -0.07583686 -0.045141518 0.017478105 0.025595888 0.002030283 -0.09604951
0.020333823 0.0030887215 0.0022100674 -0.022939894 -0.03299164 -0.05781575 0.012508789 0.019994322
-0.052301757 0.010390734 -0.06901643 -0.00970089 -0.05824915 -0.036117364 -0.024836617 -0.062394593
0.009153915 -0.051835574 0.0024067212 -0.058439054 -0.0398837 0.06865655 0.051430065 0.06694114
-0.04962268 0.013293482 0.038281113 -0.05902333 0.029144434 -0.03840584 -0.045568325 0.04834195
0.018242007 0.029939473 0.18155605 -0.03478237 -0.04105154 0.1332396 0.1216045 -0.07305703
0.15429683 0.0032983525 -0.07578398 -0.030143838 -0.050442267 -0.09434633 -0.047600467 0.04425004
-0.09435563 -0.10511818 0.060969185 -0.08734379 -0.06657256 -0.0019029076 -0.11546041 -0.062253907
0.04927711 -0.12437733 -0.10116367 0.017228924 0.0582025 0.073478825 0.0122416215 -0.09324268
-0.05057174 0.029894467 -0.087780975 -0.02485722 -0.0119830435 -0.030093728 -0.16745533 -0.087657444
-0.03233619 -0.045430433 -0.051848207 -0.09983159 -0.062486105 -0.03254054 -0.06745567 0.005879277
-0.0408991 -0.04146312 -0.042685125 -0.019450434 0.0056931693 0.008914319 0.030909786 -0.06389461
0.044338554 0.016138364 -0.05537107 -0.079137474 0.029335156 0.08320701 -0.09806162 0.11630931
0.10890745 0.15747018 -0.02687492 -0.0129006235 0.13411288 -0.020382099 0.12610139 0.09870545
0.012286089 0.038978275 -0.107872844 0.019334465 -0.0038899828 0.056363467 0.013896416 0.01710056
0.016933585 0.008396062 0.01890237 0.014591682 -0.012693187 0.028921656 0.034595713 0.060358588
0.13539949 0.054703746 0.02324188 -0.09739458 0.039595418 -0.00092054444 -0.08530036 0.058987685
-0.028739786 0.05149355 0.13492388 -0.032712977 0.08015184 0.044101164 -0.01694701 0.023707716
-0.05050564 -0.09148604 -0.07370407 -0.0029582793 0.04655235 -0.013317824 0.008006956 -0.008742613
00000000: a774 92bc 9957 0dbd 12f4 b5ba 68bc d03c
00000010: 9b52 d73c 5b18 dd3c 6c14 53bd b72f 513d
00000020: 7a0b 6b3d cd25 17bc 7403 573d ba4f 053d
00000030: d418 bfbd 186f bcbd dfa8 f4bc c9c9 99bc
00000040: eeb3 683c 51fd acbd 64c4 3d3d 3bc2 1b3b
00000050: 2352 0c3d 74c0 743d 98a4 d9ba e77e 4cbd
00000060: d114 de3c 30fb 983b c501 b2bd a5d9 0dbd
00000070: 2a22 71bc 3ec8 0abc 5067 23bd ad74 a6bc
00000080: 5ad5 0f3a ae8a 08bd 6e24 163d 342d adbd
00000090: ccbb 533c b9e2 42bd d2be 573d 6abe ec3c
000000a0: a43a 4d3d 851c 90bc c4c5 f43c 9194 60bd
000000b0: c7dd 8dbd b80b 283d b3ec fe3c 8cfe 203d
000000c0: e4f2 cd3b 0585 013c 6ea6 cfbd b8b5 0e3c
000000d0: 5d35 a3bc 780d 0bbc dcbf 1f3d ae3e 3dbc
000000e0: fa98 e13b 6a53 3bbd 0555 65bd 7671 773d
000000f0: a457 073d 9981 fdbc d0b1 8c3d 2502 253d
00000100: ca92 0ebd 25ed e83c 1858 c8bb b3a8 3cbd
00000110: 79c8 323d 0fa3 4b3d b7bc 323d 7703 3b3d
00000120: bde5 e0bc b1cf 0fbd 356f a0bd bbcb 393b
00000130: 5199 39bd 7f6e 3d3c 0032 c53c 939c b0bd
00000140: 7bef 8cbd 6535 d93c 6000 313d 6f45 673d
00000150: 92d1 68bc 9b22 5fbd e8ba 7b3d 16ac 833d
00000160: 3d1a 19bd ae42 acbd 6701 a0bd df50 653c
00000170: 744a edbb 63a8 2dbd cd6d 9c3d fd70 b6bd
00000180: 1fb3 8abd d59d 923d 6261 793c 07f5 13bd
00000190: ddc4 7e3d fed1 43bd 2f34 b7bd 6efd 20bd
000001a0: aef6 00bd 39cc 93bd 5b50 9bbd 50e6 38bd
000001b0: 3e2e 8f3c 78ae d13c 7f0e 053b 9bb5 c4bd
000001c0: 1e93 a63c 266c 4a3b c7d6 103b 72ec bbbc
000001d0: 3e22 07bd 35d0 6cbd aaf1 4c3c 22cb a33c
000001e0: 5e3a 56bd e63d 2a3c 7c58 8dbd 7bf0 1ebc
000001f0: a996 6ebd cdef 13bd 2976 cbbc 7991 7fbd
00000200: 4dfa 153c 8a51 54bd 15ba 1d3b ca5d 6fbd
00000210: 175d 23bd ce9b 8c3d 55a8 523d 7018 893d
00000220: 2741 4bbd e8cc 593c a8cc 1c3d 73c2 71bd
00000230: 4fc0 ee3c 714f 1dbd daa5 3abd 3502 463d
00000240: 4370 953c a043 f53c d4e9 393e f577 0ebd
00000250: a925 28bd f66f 083e c80b f93d ed9e 95bd
00000260: fdff 1d3e 2c29 583b a234 9bbd 36f0 f6bc
00000270: 8d9c 4ebd a638 c1bd b5f8 42bd 883f 353d
00000280: 863d c1bd 3348 d7bd d3ba 793d 4de1 b2bd
00000290: 3257 88bd fc6a f9ba 8276 ecbd f4fd 7ebd
000002a0: cbd6 493d 8bb9 febd e62e cfbd ac23 8d3c
000002b0: bf65 6e3d 117c 963d 1591 483c 05f6 bebd
000002c0: 5024 4fbd 3ee5 f43c 83c6 b3bd 5ea1 cbbc
000002d0: 8754 44bc 1f87 f6bc 6979 2bbe bf85 b3bd
000002e0: f472 04bd 4315 3abd c95e 54bd 8174 ccbd
000002f0: 6ef1 7fbd 3b49 05bd 3326 8abd f3a6 c03b
00000300: d185 27bd 3cd5 29bd 99d6 2ebd 8456 9fbc
00000310: c48d ba3b 5d0d 123c 8536 fd3c 2ddb 82bd
00000320: 589c 353d 9a34 843c c6cc 62bd d412 a2bd
00000330: 4850 f03c 7068 aa3d 88d4 c8bd 9333 ee3d
00000340: df0a df3d dd3f 213e cb28 dcbc 235d 53bc
00000350: e354 093e 5cf8 a6bc b920 013e 1526 ca3d
00000360: 984b 493c afa7 1f3d 70ec dcbd 5063 9e3c
00000370: 15ef 7ebb 61dd 663d cbad 633c 7916 8c3c
00000380: 4db8 8a3c a38f 093c 25d9 9a3c f311 6f3c
00000390: 16f7 4fbc 1ced ec3c 3cb4 0d3d 913a 773d
000003a0: 2aa6 0a3e 0911 603d c165 be3c cf76 c7bd
000003b0: ce2e 223d b150 71ba f5b1 aebd 129d 713d
000003c0: b36f ebbc e7ea 523d 7c29 0a3e 0bfe 05bd
000003d0: a626 a43d 6ca3 343d 75d4 8abc af36 c23c
000003e0: 01df 4ebd 085d bbbd 29f2 96bd b1df 41bb
000003f0: adad 3e3d 0133 5abc 9c2f 033c 2d3d 0fbc

conv_a_1.bias f4 [16]
-0.10195421 -0.044735502 0.025129762 -0.037054483 0.053029675 -0.08865118 -0.04844526 -0.023143318
0.043762214 -0.069036186 -0.06622965 0.046720274 -0.02974331 -0.121816196 -0.05997302 -0.11666853
00000000: 5ecd d0bd 933c 37bd eedc cd3c 71c6 17bd
00000010: a535 593d c08e b5bd 896e 46bd 0e97 bdbc
00000020: 0240 333d d862 8dbd 69a3 87bd c25d 3f3d
00000030: 3ea8 f3bc c57a f9bd 45a6 75bd e9ef eebd

linear_a_0.weight f4 [16, 576]
0.010791044 0.03255361 -0.012517467 0.02150485 0.019386774 0.027131423 -0.034249377 -0.019848263
0.028582767 -0.034606066 -0.016503548 0.023062274 0.0105767995 -0.009095485 0.023697615 -0.0372909
0.027343646 -0.015592958 0.018856924 0.027101247 0.040664446 0.007795498 -0.022406727 0.004752795
-0.0033559501 0.0361081 0.017436486 0.03764689 -0.041509725 0.033855706 0.041199483 -0.028082471
-0.0076906285 -0.030962925 -0.04146938 0.019683814 0.007741551 -0.016361414 0.030826375 -0.001975518
-0.004054529 0.03550784 -0.04494794 0.014861818 -0.030402856 -0.017398464 -0.0017720916 0.036139898
-0.026236774 -0.0296279 0.032944053 -0.0015855174 0.019036984 0.0338345 0.006783887 -0.0013335308
-0.013964148 0.027681142 0.013823791 -0.0052027726 0.029256605 0.0027908727 -0.015959622 -0.026693754
-0.034801506 -0.0018504732 -0.021984966 0.03183268 0.034639843 -0.028896287 -0.030598218 0.02006995
0.0010380325 0.02592617 0.0010271467 -0.003424155 -0.032909114 0.016096609 0.030966744 -0.04055881
-0.025420006 -0.028566841 -0.028701086 0.015772812 -0.043257583 -0.008914176 0.007092013 0.036074676
0.0331491 -0.005944686 -0.02475575 0.006813314 -0.000108034255 -0.038793344 0.025766082 -0.004536123
-0.016444543 0.03109783 0.014602566 0.009354552 0.022703193 0.030503063 0.036783747 0.0031646576
-0.020107608 0.016225215 -0.024478039 -0.013284816 0.0020034031 0.035277825 -0.031170528 -0.013663356
-0.0076209493 0.022474548 0.021055223 0.00030306753 0.012763027 0.032204367 0.035841256 0.019577526
-0.033436194 0.024969866 0.029123466 0.017628906 -0.008910474 0.00054856786 -0.04031803 -0.024002422
0.004723362 -0.039489098 0.008944221 0.033197287 0.033022597 0.015644474 0.015688017 -0.030759053
-0.004340234 -0.040816795 -6.69155e-05 -0.023306685 -0.032949578 -0.0006737303 -0.011626826 -0.03072349
-0.031416662 -0.019195369 -0.025871614 -0.033726927 0.013371381 0.036813356 -0.02448697 0.0075621353
0.03267356 0.020127982 -0.026264997 0.01080017 0.02371606 -0.021913907 0.011443673 0.03025288
-0.038646497 -0.023294225 -0.023267321 -0.003885337 -0.03841714 -0.019723408 0.008736635 -0.01598496
0.009286666 0.0038476817 0.016438909 -0.018021187 0.035365347 0.03667534 0.0013898895 0.02563564
-0.01614986 -0.032133676 -0.043795716 0.021529006 0.006651342 -0.0036466594 -0.032113105 -0.024494756
-0.019038267 0.021053122 0.032308947 -0.022171546 -0.024062634 0.024410868 -0.035244614 -0.006294504
0.013379466 0.023426557 0.0057246177 0.0012071672 0.030438572 0.038179748 0.02933139 -0.023713546
0.03766059 -0.015259874 0.027487572 -0.04131433 -0.029894581 0.029112121 0.00056817534 0.027753131
0.0005317221 0.035400864 -0.014232451 0.0071373726 0.029043222 -0.006813707 -0.009540639 -0.031992134
-0.0038477855 -0.027000412 0.0099994885 0.032740775 0.0019525287 -0.038450174 0.0056798523 -0.03988252
0.008246658 -0.036902666 -5.963714e-05 -0.02468947 0.0038780642 -0.038368065 -0.035605676 -0.020653505
-0.031940136 0.02655362 -0.014200361 0.031135572 -0.039226055 0.02676316 0.0110513605 0.02175209
0.019689364 0.007824884 -0.04241092 0.024719412 -0.017617544 -0.022539753 -0.022133771 -0.0056814253
-0.022748366 0.026811408 -0.034134254 0.02731992 0.03644578 0.021808248 0.007947089 0.028510025
00000000: ebcc 303c ef56 053d 1016 4dbc f02a b03c
00000010: 03d1 9e3c b842 de3c 1349 0cbd d398 a2bc
00000020: 6826 ea3c 17bf 0dbd 7332 87bc 18ed bc3c
00000030: 504a 2d3c 3b05 15bc 8021 c23c 58be 18bd
00000040: c8ff df3c 9b79 7fbc d679 9a3c 6f03 de3c
00000050: c38f 263d 6071 ff3b 508e b7bc 56bd 9b3b
00000060: 80ef 5bbb 16e6 133d f6d6 8e3c a033 1a3d
00000070: 1a06 2abd 48ac 0a3d cac0 283d 360d e6bc
00000080: ab01 fcbb f6a5 fdbc ccdb 29bd f33f a13c
00000090: d6ac fd3b 5f08 86bc 9887 fc3c b177 01bb
000000a0: dbdb 84bb ab70 113d 551b 38bd fc7e 733c
000000b0: 690f f9bc 3987 8ebc 8745 e8ba 6e07 143d
000000c0: 81ee d6bc 36b6 f2bc 58f0 063d 23d1 cfba
000000d0: 73f3 9b3c 0b96 0a3d 5e4b de3b dec9 aeba
000000e0: e2c9 64bc 90c3 e23c 2f7d 623c 057c aabb
000000f0: 8cab ef3c 13e7 363b c1bd 82bc dcac dabc
00000100: 068c 0ebd 948b f2ba d119 b4bc fc62 023d
00000110: 82e2 0d3d e8b7 ecbc 1da9 fabc bc69 a43c
00000120: 970e 883a 1f63 d43c 53a1 863a ca67 60bb
00000130: b5cb 06bd 09dd 833c f8ad fd3c ff20 26bd
00000140: 9e3d d0bc 0205 eabc 8a1e ebbc fc35 813c
00000150: dd2e 31bd c40c 12bc 1e64 e83b 0ac3 133d
00000160: 5ac7 073d a4cb c2bb 92cc cabc 3842 df3b
00000170: 7390 e2b8 c5e5 1ebd 6413 d33c c2a3 94bb
00000180: b5b6 86bc e0c0 fe3c 9a3f 6f3c d643 193c
00000190: 0cfc b93c 8fe1 f93c 8eaa 163d 2566 4f3b
000001a0: b6b8 a4bc beea 843c 2b86 c8bc 8fa8 59bc
000001b0: 874b 033b 7b7f 103d 5659 ffbc 45dc 5fbc
000001c0: 28b9 f9bb 8b1c b83c 017c ac3c 09e5 9e39
000001d0: 041c 513c bae8 033d 48ce 123d 0c61 a03c
000001e0: 64f4 08bd 9b8d cc3c 5694 ee3c 7f6a 903c
000001f0: 3dfd 11bc c4cd 0f3a 8524 25bd baa0 c4bc
00000200: 6fc6 9a3b 52bf 21bd c88a 123c e1f9 073d
00000210: b442 073d d728 803c 2884 803c 69fa fbbc
00000220: 8638 8ebb 832f 27bd fc54 8cb8 a9ed bebc
00000230: 23f6 06bd 469d 30ba 717e 3ebc d4af fbbc
00000240: c2ae 00bd 9b3f 9dbc b5f0 d3bc 3f25 0abd
00000250: a313 5b3c 9ac9 163d e698 c8bc cacb f73b
00000260: b6d4 053d 70e3 a43c b129 d7bc 32f3 303c
00000270: 2f48 c23c cb84 b3bc 3e7e 3b3c e3d4 f73c
00000280: ca4b 1ebd 88d3 bebc 1c9b bebc 23a1 7ebb
00000290: 4a5b 1dbd fc92 a1bc 1a24 0f3c e4f2 82bc
000002a0: 1a27 183c 6329 7c3b e4aa 863c 2ba1 93bc
000002b0: 41db 103d e238 163d f42c b63a d501 d23c
000002c0: b64c 84bc 9a9e 03bd 2363 33bd 995d b03c
000002d0: 80f3 d93b cbfc 6ebb 0889 03bd 3aa9 c8bc
000002e0: 24f6 9bbc 9977 ac3c 6356 043d 1aa1 b5bc
000002f0: 001f c5bc 4df9 c73c a85c 10bd 2042 cebb
00000300: 8c35 5b3c 0de9 bf3c 9395 bb3b cf39 9e3a
00000310: 505a f93c 5e62 1c3d 6248 f03c e942 c2bc
00000320: fe41 1a3d 8d04 7abc 9e2d e13c 3739 29bd
00000330: 7be5 f4bc 8b7c ee3c 9af1 143a 895a e33c
00000340: 4463 0b3a 7f00 113d 3a2f 69bc 9fe0 e93b
00000350: 0dec ed3c 8445 dfbb 5750 1cbc 2f0a 03bd
00000360: 212b 7cbb f82f ddbc e5d4 233c 311b 063d
00000370: feeb ff3a ee7d 1dbd 0e1e ba3b da5b 23bd
00000380: fe1c 073c 4027 17bd e422 7ab8 9241 cabc
00000390: 1f27 7e3b d527 1dbd 42d7 11bd 8a31 a9bc
000003a0: a9d3 02bd fa86 d93c a2a8 68bc 0710 ff3c
000003b0: 80ab 20bd 6a3e db3c c410 353c 7031 b23c
000003c0: 974b a13c f133 003c 13b7 2dbd 5d80 ca3c
000003d0: ab52 90bc 4aa5 b8bc e251 b5bc 402b babb
000003e0: c85a babc 99a3 db3c 5cd0 0bbd 06ce df3c
000003f0: 2c48 153d 36a7 b23c 8234 023c db8d e93c

linear_a_0.bias f4 [16]
-0.039207265 -0.014707371 0.045907974 -0.072680205 0.11269994 0.006156262 0.09420072 -0.013719949
0.038522206 0.040245626 0.037693553 -0.028806558 0.008857489 -0.041478205 -0.008507054 -0.033946376
00000000: cc97 20bd 2ff7 70bc 000a 3c3d 5cd9 94bd
00000010: 3acf e63d 78ba c93b 4fec c03d a3c9 60bc
00000020: 76c9 1d3d 99d8 243d 8e64 1a3d bbfb ebbc
00000030: 001f 113c 0de5 29bd 2c61 0bbc 5b0b 0bbd

GRU_a.weight_ih_l0 f4 [48, 16]
0.069882296 0.028735153 0.22847614 -0.074033536 0.3576756 0.22327669 0.4548078 -0.21503729
0.20197958 0.19399287 -0.17027096 0.056326844 -0.1497399 -0.02405961 0.086096935 0.044359308
-0.034951553 0.15732215 0.015035776 0.059047543 0.24247329 0.24556331 0.44428325 0.16738464
-0.1797558 -0.03832931 0.30716148 -0.11569813 0.15054427 -0.0009777837 -0.016910242 -0.10176173
-0.12489539 0.038686737 0.18781136 0.17393923 0.05089084 0.054894347 0.012270512 0.051904563
-0.16473125 -0.068554334 0.1211987 0.19168267 -0.17353037 -0.06299534 0.17257859 -0.25997004
0.03469136 0.100996554 -0.14644118 0.3446034 0.12649351 0.124407314 0.086390465 -0.009107133
-0.13095504 -0.100939654 -0.07816476 -0.16549909 -0.13436392 0.07610833 0.06457994 0.3109
-0.17709345 0.18993275 -0.31001586 -0.17452228 -0.061043542 -0.14248152 -0.2128089 0.11321203
-0.11332585 0.049280893 0.077707425 0.056204554 0.13983776 0.078683615 0.18228878 0.07126896
-0.166057 0.0233287 -0.07392549 -0.17703049 0.11635543 -0.0423184 -0.08223603 -0.05393942
0.047387794 0.18100294 -0.2378159 0.18880859 -0.055646427 -0.14477484 0.014133428 -0.06542089
-0.041088536 -0.17772269 0.1439611 0.33839655 -0.24000208 0.18770547 -0.13520367 -0.078471005
0.02726759 0.22830416 0.19020908 0.121677555 -0.18242478 -0.006009487 -0.1584211 -0.0781363
0.11140438 -0.2261926 0.15463422 -0.038192835 -0.06543158 -0.0813073 0.16809696 -0.17560463
0.061042767 0.2529812 0.009588448 -0.14972048 -0.1717212 0.114522494 0.20909539 -0.010985761
-0.13544899 -0.20157588 0.22545356 -0.07703494 0.120618485 0.14372818 0.4748192 -0.121949494
0.012541707 0.09418262 0.39719334 -0.11627633 -0.16176103 0.1352361 -0.1379797 0.03419873
-0.061978687 0.11692731 -0.07390714 -0.034268666 -0.16958866 0.11632265 -0.24169037 0.16241105
0.20746152 0.06751952 -0.1197633 -0.12548417 -0.02434822 0.21418719 0.06611177 -0.11740804
-0.16842842 -0.0065417294 -0.14725776 -0.085839264 0.053570673 -0.16942309 0.2864506 -0.099232025
-0.08609153 -0.20044863 -0.15062936 0.048903342 -0.22670734 -0.20278037 0.24707645 -0.14521916
0.06951244 0.13490361 0.16264701 0.07156522 0.36445677 -0.16853271 0.2582277 0.21467227
0.18865013 0.23914178 -0.068851955 -0.18998972 -0.011457733 -0.13099112 -0.21677388 0.12774195
0.123521745 0.23344141 -0.014666237 -0.062067628 -0.3465602 -0.01085935 -0.24903812 -0.15943173
0.17145213 0.11423569 0.07299721 0.0664846 -0.12964898 -0.0906124 -0.047622394 0.089688696
-0.083454736 0.15735358 0.1743762 0.28824326 0.24233624 0.23263167 0.12728493 -0.04983061
0.23467831 -0.050959516 0.24628061 -0.21685536 -0.06738139 -0.19208056 0.1472476 -0.090725765
0.23569612 -0.1753282 0.051064063 -0.23041041 -0.1252568 0.22130336 0.2655918 -0.004012274
-0.069813825 -0.013050693 0.07014577 0.1405766 -0.104911774 0.051169742 -0.1648294 -0.092175014
0.06689046 0.054330576 0.23924975 0.109118044 0.0033075456 -0.045133945 0.040308733 -0.21185957
-0.09295782 0.102819875 -0.0475658 0.027250279 0.10025327 -0.12358408 -0.1673747 -0.01291801
00000000: 731e 8f3d fc65 eb3c a6f5 693e e59e 97bd
00000010: 4221 b73e a5a2 643e 91dc e83e bc32 5cbe
00000020: bcd3 4e3e 11a6 463e 835b 2ebe fab6 663d
00000030: 6b55 19be a918 c5bc 9753 b03d 1bb2 353d
00000040: 5c29 0fbd 0f19 213e 9e58 763c d6db 713d
00000050: eb4a 783e f374 7b3e 1879 e33e e166 2b3e
00000060: e811 38be 32ff 1cbd 4544 9d3e 24f3 ecbd
00000070: 4728 1a3e fa28 80ba 5987 8abc 7468 d0bd
00000080: 27c9 ffbd fc75 1e3d 9f51 403e 201d 323e
00000090: ea72 503d e5d8 603d 420a 493c e199 543d
000000a0: 4faf 28be 3766 8cbd 0637 f83d 7648 443e
000000b0: f2b1 31be b303 81bd 71b8 303e cb1a 85be
000000c0: 8718 0e3d 48d7 ce3d adf4 15be db6f b03e
000000d0: 8487 013e 43c9 fe3d 7ced b03d 1636 15bc
000000e0: 1419 06be 73b9 cebd d814 a0bd 9878 29be
000000f0: b296 09be afde 9b3d 7d42 843d 492e 9f3e
00000100: fc57 35be bb7d 423e 66ba 9ebe f8b5 32be
00000110: cb08 7abd ade6 11be 94ea 59be b5db e73d
00000120: 6217 e8bd c3da 493d 1225 9f3d bf36 663d
00000130: a131 0f3e e024 a13d e9a9 3a3e 76f5 913d
00000140: d90a 2abe d41b bf3c 3f66 97bd 7b47 35be
00000150: c14b ee3d 0f56 2dbd 5d6b a8bd 95ef 5cbd
00000160: b419 423d d658 393e 0386 73be 0a57 413e
00000170: 82ed 63bd db3f 14be e58f 673c 63fb 85bd
00000180: 744c 28bd f0fc 35be 8a6a 133e 5042 ad3e
00000190: 1bc3 75be dd35 403e d572 0abe 68b5 a0bd
000001a0: 4860 df3c 91c8 693e 2bc6 423e 1532 f93d
000001b0: 90cd 3abe 3beb c4bb 2439 22be ed05 a0bd
000001c0: fb27 e43d 089f 67be 6f58 1e3e 1770 1cbd
000001d0: fe00 86bd 7184 a6bd 9c21 2c3e b3d1 33be
000001e0: fb07 7a3d c086 813e de18 1d3c 5350 19be
000001f0: afd7 2fbe c58a ea3d 1a1d 563e 9ffd 33bc
00000200: 24b3 0abe e869 4ebe 4cdd 663e 7fc4 9dbd
00000210: d306 f73d 7b2d 133e 811b f33e a8c0 f9bd
00000220: bb7b 4d3c d1e2 c03d ed5c cb3e 4922 eebd
00000230: afa4 25be 557b 0a3e 8d4a 0dbe f813 0c3d
00000240: 5ddd 7dbd 9677 ef3d a05c 97bd 4d5d 0cbd
00000250: a6a8 2dbe 923a ee3d ae7d 77be 154f 263e
00000260: cb70 543e ad47 8a3d 7646 f5bd ec7e 00be
00000270: eb75 c7bc e353 5b3e 9c65 873d a073 f0bd
00000280: 8078 2cbe 015c d6bb bdca 16be 7fcc afbd
00000290: ec6c 5b3d 3f7d 2dbe a7a9 923e 293a cbbd
000002a0: c250 b0bd 6842 4dbe 953e 1abe df4e 483d
000002b0: f825 68be a8a5 4fbe 9c01 7d3e 55b4 14be
000002c0: 8a5c 8e3d 2c24 0a3e f08c 263e c990 923d
000002d0: 149a ba3e d793 2cbe 6c36 843e 0cd3 5b3e
000002e0: 802d 413e 95e1 743e 4102 8dbd aa8c 42be
000002f0: 37b9 3bbc 8922 06be f9f9 5dbe c9ce 023e
00000300: f8f8 fc3d 440b 6f3e a84a 70bc a03a 7ebd
00000310: 5770 b1be 6aeb 31bc d903 7fbe 1242 23be
00000320: 2691 2f3e 67f4 e93d 907f 953d 1429 883d
00000330: b4c2 04be fe92 b9bd b30f 43bd b5ae b73d
00000340: 51ea aabd 4c21 213e ad8f 323e 9f94 933e
00000350: fe26 783e ff36 6e3e fb56 023e 2f1b 4cbd
00000360: 834f 703e edba 50bd fc30 7c3e 550f 5ebe
00000370: 41ff 89bd c4b0 44be 13c8 163e 6ece b9bd
00000380: 535a 713e 3c89 33be 8d28 513d b5f0 6bbe
00000390: 5243 00be 599d 623e a6fb 873e 6579 83bb
000003a0: 8dfa 8ebd 93d2 55bc 96a8 8f3d 50f3 0f3e
000003b0: fcdb d6bd 5d97 513d 0ac9 28be 41c6 bcbd
000003c0: defd 883d bd89 5e3d e3fd 743e 4879 df3d
000003d0: 68c3 583b 5fde 38bd c51a 253d b7f1 58be
000003e0: ab60 bebd 3a93 d23d 5bd4 42bd fa3b df3c
000003f0: 9651 cd3d a619 fdbd 4664 2bbe 10a6 53bc

GRU_a.weight_hh_l0 f4 [48, 16]
0.061645128 0.015105713 -0.2156508 0.0008723231 -0.023083236 0.18809025 0.28836343 -0.11528561
-0.12270701 -0.03575769 -0.07049755 0.31570852 -0.021778662 -0.25334486 -0.00039032265 0.038552836
0.05604613 0.25376037 -0.0765403 -0.11341887 0.28529042 0.33149064 -0.055802386 0.049110305
0.296266 -0.19666004 -0.21032567 -0.14877269 -0.12898016 -0.14386034 0.15481319 0.27753028
-0.18475296 0.15810843 -0.024763264 -0.15788543 0.23753928 0.1302129 -0.073850356 0.19672157
0.23611476 0.11823891 -0.31934863 0.20743945 0.03037615 0.0009907867 0.03318363 -0.015547295
0.16987129 -0.11714629 -0.10548515 -0.25956148 0.1833191 -0.11622342 -0.033556033 -0.024673764
0.048860963 -0.030477205 -0.03352991 -0.03151518 0.13003086 -0.106521696 -0.30756757 0.0051023066
0.11386814 -0.108766876 0.3436333 0.037339352 0.09418996 -0.030241193 0.037840314 0.035441462
-0.33571726 0.16473116 0.1729569 0.01835267 -0.16819176 0.22060163 -0.17657441 -0.1147152
-0.14572494 -0.12223459 0.24994767 0.13577916 -0.2653849 -0.34563717 -0.09678774 0.11575033
-0.1639026 -0.005453351 0.33755034 -0.22724919 0.13255206 0.15721148 0.33506653 -0.14204264
-0.24048783 -0.05193655 -0.077201225 0.10448943 -0.26372308 0.16154096 0.16555436 0.14524892
0.16159755 0.1402393 0.24745762 0.20453134 0.16490927 0.15107138 0.25392106 0.25706908
-0.063928165 0.0692539 0.1575724 -0.11703993 0.111512564 -0.1599831 0.0062947734 0.1019131
0.10805954 0.023666466 -0.006825101 0.103433244 0.15569551 -0.019211214 -0.16315503 -0.0782165
0.25613528 0.011909255 0.11933392 0.09317946 0.07915103 0.088671915 -0.21490197 -0.14521776
0.24702932 -0.10936918 -0.05170136 0.21711484 -0.2240368 -0.26188326 -0.041663352 0.19390433
-0.15584446 0.11920613 -0.16414946 0.048491523 0.23669356 -0.19093119 -0.121997096 -0.12095091
-0.14898546 -0.100216724 0.29147336 0.2645837 0.15241656 -0.29039657 0.25229675 -0.36681116
-0.16808094 -0.025788004 -0.035832018 -0.01886815 -0.018404149 -0.025728319 -0.07396407 0.047149494
-0.12839365 0.21265447 0.15419427 -0.01966952 -0.17075501 0.10313488 0.12869361 0.10066031
0.049456045 -0.106114015 -0.31373963 0.08716489 0.19097131 -0.04906742 -0.1490805 0.08673631
-0.037663214 0.18516612 -0.2838841 -0.15574664 -0.04609862 0.0926097 0.02051806 0.17546417
-0.29331946 0.12788534 -0.13869207 -0.08461732 -0.15339403 -0.24244262 0.015300776 0.18748304
0.10325017 -0.28879222 0.047380544 -0.17410232 0.1527542 -0.1289109 0.21751794 -0.17628402
-0.044803943 0.34608278 0.054802936 0.042166322 -0.13896021 0.0440807 0.13057663 0.0981289
0.08985018 -0.116409354 -0.0055969455 -0.0083492445 0.12159094 -0.3616053 0.16011891 -0.24025552
-0.11732617 -0.14271909 -0.22957766 -0.19404499 0.15260395 -0.12655446 -0.16797008 0.124915496
0.17608663 0.041964877 0.03018467 0.010376767 -0.2446779 -0.19529298 0.03472535 -0.05334578
-0.10837275 0.030410485 -0.2738204 0.100560926 0.15476595 0.021606578 -0.17888094 0.06692975
0.115893506 0.3229705 0.040107075 -0.13001773 -0.043971203 -0.23172122 -0.09744695 0.06436771
00000000: 9a7f 7c3d f47d 773c 90d3 5cbe 9dac 643a
00000010: 0e19 bdbc bb9a 403e 5fa4 933e dd1a ecbd
00000020: d04d fbbd a876 12bd 0561 90bd 8ca4 a13e
00000030: 2a69 b2bc 6bb6 81be 38a4 ccb9 94e9 1d3d
00000040: a090 653d e1ec 813e 29c1 9cbd 2748 e8bd
00000050: 9611 923e 24b9 a93e 0b91 64bd e327 493d
00000060: 2db0 973e 4061 49be 9d5f 57be de57 18be
00000070: 6013 04be 2050 13be 5987 1e3e 7318 8e3e
00000080: e12f 3dbe 2de7 213e 54dc cabc b8ac 21be
00000090: 7f3d 733e 8856 053e db3e 97bd 6171 493e
000000a0: 11c8 713e 3e27 f23d aa81 a3be 026b 543e
000000b0: 67d7 f83c 49dd 813a 8feb 073d 15ba 7ebc
000000c0: bdf2 2d3e 65ea efbd 9908 d8bd 3ee5 84be
000000d0: 01b8 3b3e 8b06 eebd 0d72 09bd a220 cabc
000000e0: 6f22 483d 55ab f9bc a956 09bd 1016 01bd
000000f0: cf26 053e 0c28 dabd 7f79 9dbe 4031 a73b
00000100: b333 e93d 2bc1 debd b4f0 af3e 26f1 183d
00000110: aae6 c03d 61bc f7bc 72fe 1a3d 112b 113d
00000120: 22e3 abbe 49af 283e 9d1b 313e 5758 963c
00000130: 763a 2cbe 65e5 613e eccf 34be ceef eabd
00000140: eb38 15be 2156 fabd 48f2 7f3e b109 0b3e
00000150: 88e0 87be 5bf7 b0be a738 c6bd 820e ed3d
00000160: 15d6 27be 06b2 b2bb 66d3 ac3e 03b4 68be
00000170: babb 073e 0cfc 203e d78d ab3e a073 11be
00000180: 7142 76be 6bbb 54bd ad1b 9ebd 8efe d53d
00000190: b606 87be fe6a 253e 1587 293e 22bc 143e
000001a0: d479 253e e49a 0f3e 8865 7d3e aa70 513e
000001b0: fadd 283e 75b2 1a3e f101 823e 8f9e 833e
000001c0: c5ec 82bd fdd4 8d3d a95a 213e a1b2 efbd
000001d0: b360 e43d 9cd2 23be 6344 ce3b d1b7 d03d
000001e0: 524e dd3d 2de0 c13c 19a5 dfbb cfd4 d33d
000001f0: a56e 1f3e d660 9dbc 1d12 27be f92f a0bd
00000200: 2a24 833e 091f 433c 5865 f43d dfd4 be3d
00000210: ef19 a23d 9f99 b53d 430f 5cbe f7b3 14be
00000220: 41f5 7c3e f3fc dfbd cec4 53bd 5a53 5e3e
00000230: e769 65be 9015 86be 31a7 2abd db8e 463e
00000240: b195 1fbe 5822 f43d cc16 28be 0c9f 463d
00000250: cc5f 723e 7783 43be 9dd9 f9bd 1cb5 f7bd
00000260: a58f 18be 6d3e cdbd ff3b 953e 8477 873e
00000270: 1613 1c3e dcae 94be 0a2d 813e acce bbbe
00000280: 691d 2cbe 5d41 d3bc 98c4 12bd 6191 9abc
00000290: 4cc4 96bc 32c4 d2bc 797a 97bd d41f 413d
000002a0: a079 03be 18c2 593e 1ae5 1d3e f921 a1bc
000002b0: 67da 2ebe 6138 d33d 42c8 033e fe26 ce3d
000002c0: 6c92 4a3d 4e52 d9bd 7ba2 a0be 8183 b23d
000002d0: fc8d 433e ebfa 48bd 8fa8 18be cea2 b13d
000002e0: be44 1abd 309c 3d3e 4259 91be 0c7c 1fbe
000002f0: e8d1 3cbd 28aa bd3d 7e15 a83c e1ac 333e
00000300: f82d 96be 60f4 023e 4b05 0ebe d84b adbd
00000310: 5313 1dbe e142 78be 1bb0 7a3c 8efb 3f3e
00000320: d374 d33d 93dc 93be 1a12 423d e147 32be
00000330: 996b 1c3e 3801 04be 06bd 5e3e cc83 34be
00000340: 5784 37bd c331 b13e 0b79 603d 98b6 2c3d
00000350: 964b 0ebe f78d 343d e1b5 053e cef7 c83d
00000360: 5f03 b83d 0768 eebd 9566 b7bb 45cb 08bc
00000370: ac04 f93d 5424 b9be 36f6 233e 8b05 76be
00000380: b448 f0bd f424 12be 6816 6bbe bbb3 46be
00000390: 3644 1c3e 7e97 01be 5900 2cbe b2d3 ff3d
000003a0: 0e50 343e 5de3 2b3d d745 f73c 5103 2a3c
000003b0: d88c 7abe e2fa 47be 2b3c 0e3d 1b81 5abd
000003c0: 88f2 ddbd 691f f93c 3032 8cbe e3f2 cd3d
000003d0: f77a 1e3e 4700 b13c 912c 37be 7712 893d
000003e0: 9359 ed3d 645c a53e 5147 243d 5e23 05be
000003f0: 261b 34bd 5448 6dbe 4492 c7bd 38d3 833d

GRU_a.bias_ih_l0 f4 [48]
0.2305079 0.19982257 0.0778276 -0.20537248 -0.30183643 0.06375299 0.088447966 0.1552594
0.15569885 0.10017074 -0.16437784 0.13113026 -0.22419304 -0.08512208 -0.19535778 0.10819836
0.016127758 -0.13106738 -0.028977036 -0.24136657 0.101734355 -0.012747846 -0.18325217 -0.10327713
-0.1129987 -0.19278532 -0.41181594 -0.05526875 0.006208152 0.19362333 -0.49493837 -0.3120921
0.2843695 0.1464123 -0.14435911 -0.10292811 0.067288466 -0.10542509 -0.21030957 -0.0982166
0.27406052 0.022820555 -0.083156385 0.22508174 -0.04518415 -0.13974288 0.12514529 -0.0944277
00000000: 430a 6c3e 4a9e 4c3e 1464 9f3d 2a4d 52be
00000010: 4e8a 9abe ed90 823d 3524 b53d 52fc 1e3e
00000020: 856f 1f3e 5126 cd3d aa52 28be 0347 063e
00000030: dc92 65be 7c54 aebd df0b 48be 1a97 dd3d
00000040: 5c1e 843c 8736 06be 4061 edbc cc28 77be
00000050: 1a5a d03d 57dc 50bc 75a6 3bbe f682 d3bd
00000060: dd6b e7bd 8469 45be 8ad9 d2be 7c61 62bd
00000070: c16d cb3b 3245 463e 9068 fdbe 89ca 9fbe
00000080: e198 913e 1bed 153e e0d2 13be f9cb d2bd
00000090: 89ce 893d 1ce9 d7bd 645b 57be c925 c9bd
000000a0: a951 8c3e 2cf2 ba3c e54d aabd d47b 663e
000000b0: 0413 39bd c218 0fbe 1626 003e 4f63 c1bd

GRU_a.bias_hh_l0 f4 [48]
-0.10693275 0.22441329 -0.003653002 0.25629443 -0.09041725 0.12446203 -0.0684371 -0.105559774
0.05976154 -0.10628642 -0.12068418 0.038732156 0.12251604 -0.10203535 0.021626787 -0.093056805
-0.13611837 -0.29623613 -0.041390363 -0.10184054 0.09981589 -0.038092773 -0.26960227 0.13825083
-0.13766542 -0.06294058 -0.529442 -0.018931368 -0.29140827 -0.06771456 -0.26247284 -0.26797846
0.01976889 0.30305013 0.013797359 -0.059030183 -0.28421387 -0.16294862 -0.12634136 -0.3538252
0.26622105 0.11008751 0.26837927 0.36081523 0.045599777 0.030766342 0.15676646 0.18886249
00000000: 8fff dabd 99cc 653e 3467 6fbb 0639 833e
00000010: ae2c b9bd f3e5 fe3d c028 8cbd b92f d8bd
00000020: 84c8 743d b2ac d9bd 4429 f7bd 9ca5 1e3d
00000030: b1e9 fa3d e9f7 d0bd a92a b13c 9194 bebd
00000040: 9d62 0bbe 43ac 97be f188 29bd c691 d0bd
00000050: 466c cc3d 2b07 1cbd 4f09 8abe a091 0d3e
00000060: 2af8 0cbe fee6 80bd 8389 07bf f515 9bbc
00000070: 7733 95be eead 8abd d762 86be 7934 89be
00000080: 5ef2 a13c 6329 9b3e 510e 623c a2c9 71bd
00000090: 7b84 91be 01dc 26be a15f 01be 9428 b5be
000000a0: 204e 883e 8f75 e13d 0269 893e c6bc b83e
000000b0: d5c6 3a3d b209 fc3c 6387 203e 2b65 413e

linear_a.weight f4 [4, 16]
0.040613078 0.11080712 -0.24220581 0.1858441 0.68477213 0.24465384 0.92192894 0.35570922
0.09024305 0.7084984 -0.7654359 0.0124160275 0.070631035 0.112383716 -0.9279822 0.9652151
-0.71807444 -0.26201272 -0.026584249 0.12786147 -0.2406532 -0.48442394 -0.40893048 -0.28840742
-0.49367845 -0.6116897 -0.009869235 -0.38449982 -0.16733074 0.20089391 -0.2904131 0.030063478
-0.6524158 -0.44569623 0.21018964 0.074269034 -0.61382556 -0.40973416 -0.22308193 0.034190316
-0.16641456 -0.5148157 -0.16026951 -0.63500154 -0.1603139 -0.13631785 -0.049793333 -0.18858732
0.26467508 0.33722764 -0.13614367 0.06891053 -0.031051952 0.26767123 -0.22163402 -0.1549325
0.38325888 -0.3683296 0.9116174 0.22927539 0.03154753 0.20308064 1.0548127 -1.0091836
00000000: e659 263d d8ee e23d cd04 78be ea4d 3e3e
00000010: 3a4d 2f3f 8986 7a3e 8903 6c3f 851f b63e
00000020: 59d1 b83d 2760 353f 9bf3 43bf 986c 4b3c
00000030: 01a7 903d 6f29 e63d 3e90 6dbf 5618 773f
00000040: bad3 37bf 8826 86be 36c7 d9bc 1eee 023e
00000050: cb6d 76be 6a06 f8be 565f d1be 23aa 93be
00000060: 6cc3 fcbe b297 1cbf 92b2 21bc 29dd c4be
00000070: c058 2bbe 22b7 4d3e 07b1 94be af47 f63c
00000080: b904 27bf 4c32 e4be f43b 573e 5d1a 983d
00000090: ac23 1dbf adc8 d1be 976f 64be 250b 0c3d
000000a0: 9468 2abe f6ca 03bf b11d 24be 768f 22bf
000000b0: 5429 24be e896 0bbe 18f4 4bbd 091d 41be
000000c0: 7e83 873e 1aa9 ac3e 3f69 0bbe f720 8d3d
000000d0: aa60 febc 340c 893e 07f4 62be a0a6 1ebe
000000e0: 823a c43e b395 bcbe c25f 693f 2bc7 6a3e
000000f0: fc37 013d 5ff4 4f3e 1a04 873f ee2c 81bf

linear_a.bias f4 [4]
0.28359732 -0.46373543 -0.47840846 0.14911145
00000000: ab33 913e bb6e edbe f4f1 f4be acb0 183e

conv_v_0.weight f4 [16, 7, 3, 3]
-0.10373276 0.04876769 0.2181988 -0.053609613 -0.05936389 -0.034222983 -0.060023442 -0.3183133
-0.011960078 0.02738638 0.023416642 0.0656908 0.11140201 0.13021843 0.106862515 0.10520265
0.011808866 0.009498869 -0.032725394 -0.06541184 0.13472192 -0.28624305 -0.16718909 0.11007573
-0.043328498 0.23534647 -0.020415032 -0.091840714 -0.18588392 -0.17075579 -0.31702095 -0.29894072
-0.29624188 -0.29775146 -0.3321407 -0.13485417 -0.14652133 -0.22658646 -0.08332427 -0.2953264
-0.20473227 -0.29084235 -0.059079684 -0.1343112 -0.2277172 0.06321771 0.20424971 0.011216103
0.14032987 0.06372563 -0.00046949426 0.024057645 0.22215202 0.15473233 -0.10066042 -0.08603662
-0.16645925 0.003440945 -0.022528227 -0.1694439 -0.21193944 -0.007895124 -0.018886408 -0.09198683
-0.050453413 0.071265854 0.20424366 0.22622705 -0.10151388 -0.080405384 -0.18087094 -0.09348203
0.15736797 0.013462017 -0.14833336 0.036770213 0.02234833 -0.050210327 0.06544243 0.06911486
-0.05755496 0.09013649 0.15106511 0.25492665 0.15085305 0.11306869 0.17540865 0.03303979
0.10694904 0.20435633 -0.11126434 -0.14768095 -0.24147408 0.039242353 -0.16617233 -0.3257077
-0.29065755 -0.0775752 0.12262372 0.055502478 -0.058618896 -0.051551804 -0.09526751 0.019997112
0.04440907 0.09896184 0.0004542397 -0.0994638 -0.03758229 0.105445124 -0.0061673312 -0.083582036
0.0243143 0.011376157 0.09125908 0.09755755 0.15424228 -0.1479797 -0.17043597 -0.17254217
0.0045112944 -0.09341815 -0.17794238 0.000664084 -0.09922678 -0.092055604 -0.10768751 -0.13787268
-0.17112732 0.11977465 -0.014850441 -0.165625 0.11576895 -0.08241344 -0.13139513 0.23860964
0.26301196 0.0001877023 0.09926286 0.1244707 -0.06832847 0.09769305 0.14779061 -0.030651102
0.28039387 0.11353268 0.10073239 0.10884922 0.00702803 -0.17053966 -0.0028417758 0.011132683
-0.058029015 -0.21365249 -0.110449634 0.07743361 -0.20188756 -0.17587861 -0.093807 -0.19154318
-0.1184894 -0.12670672 -0.18673599 -0.09365081 -0.022213498 -0.091376886 -0.0016027916 0.0018307065
-0.053685106 -0.0021196392 -0.114195764 -0.002561707 0.0841054 0.06573408 -0.0788263 -0.09947154
-0.10847266 0.036487665 0.004258081 -0.051726334 -0.093478546 -0.13027897 -0.19976848 -0.0793163
-0.009614698 -0.21680045 -0.23115186 -0.22032294 -0.059536967 0.41230989 0.20163572 0.1437919
0.13035123 -0.12492968 0.16891015 0.08613277 -0.16518714 0.09871158 0.12935565 -0.12711632
-0.12080833 0.5058533 0.11782205 0.04089381 0.007884111 0.1296696 0.051549084 0.10248799
-0.17826499 0.040919036 -0.45113397 -0.60089767 -0.49289268 -0.3572287 -0.37290365 -0.5782453
0.09918738 -0.016399682 0.106172875 -0.30373234 -0.09295519 -0.5758937 -0.05207085 -0.14876758
-0.39153847 0.13538688 0.046995454 0.1466128 -0.020058915 0.04554792 0.12945864 -0.07256247
-0.031112107 0.062666774 0.035817947 0.034953717 0.017980497 0.053564183 -0.027955448 0.110187225
0.070198186 0.05745677 0.14282523 -0.32147568 -0.107295096 -0.2507327 -0.075003535 -0.197635
-0.115034305 -0.11274592 -0.16140962 -0.16898823 0.25453752 0.056542683 0.006184139 0.1691984
00000000: d771 d4bd a1c0 473d 826f 5f3e c195 5bbd
00000010: 8d27 73bd 662d 0cbd 24db 75bd f6f9 a2be
00000020: 34f4 43bc 6759 e03c 42d4 bf3c e688 863d
00000030: bd26 e43d fb57 053e bcda da3d 7d74 d73d
00000040: f979 413c 25a1 1b3c 100b 06bd a5f6 85bd
00000050: 8bf4 093e 738e 92be 9e33 2bbe 626f e13d
00000060: 3979 31bd aafe 703e 6d3d a7bc fc16 bcbd
00000070: 5b58 3ebe 9bda 2ebe 9250 a2be c20e 99be
00000080: 04ad 97be e172 98be 590e aabe 3617 0abe
00000090: b009 16be 4806 68be eaa5 aabd 0635 97be
000000a0: 56a5 51be 4ae9 94be 8afd 71bd e088 09be
000000b0: b32e 69be 4978 813d d626 513e bfc3 373c
000000c0: a2b2 0f3e 9582 823d 7426 f6b9 8a14 c53c
000000d0: d27b 633e 2772 1e3e 0d27 cebd f833 b0bd
000000e0: 4b74 2abe 7a81 613b 1e8d b8bc b482 2dbe
000000f0: a706 59be 8d5a 01bc abb7 9abc 9763 bcbd
00000100: 3da8 4ebd d5f3 913d 4025 513e 10a8 673e
00000110: 82e6 cfbd 94ab a4bd 3b36 39be 8273 bfbd
00000120: 1225 213e cb8f 5c3c b3e4 17be 5d9c 163d
00000130: d813 b73c 58a9 4dbd ae06 863d 178c 8d3d
00000140: c0be 6bbd 7b99 b83d d0b0 1a3e bf85 823e
00000150: 3979 1a3e 8f90 e73d 539e 333e bb54 073d
00000160: 1908 db3d c942 513e 8fde e3bd ad39 17be
00000170: fb44 77be 97bc 203d 1429 2abe 29c3 a6be
00000180: 11d1 94be bfdf 9ebd 2522 fb3d 9156 633d
00000190: 5e1a 70bd fc27 53bd 9d1b c3bd fcd0 a33c
000001a0: 49e6 353d 81ac ca3d 0527 ee39 adb3 cbbd
000001b0: e3ef 19bd 9df3 d73d 5317 cabb 0f2d abbd
000001c0: c82e c73c 1063 3a3c 0ae6 ba3d 41cc c73d
000001d0: b0f1 1d3e fe87 17be c486 2ebe e5ae 30be
000001e0: 7bd3 933b 0452 bfbd 8736 36be ec15 2e3a
000001f0: 6937 cbbd a687 bcbd 458b dcbd 7f2e 0dbe
00000200: 003c 2fbe 694c f53d 444f 73bc 9a99 29be
00000210: 4518 ed3d 61c8 a8bd 728c 06be 1656 743e
00000220: 81a9 863e f4d1 4439 544a cb3d 7fea fe3d
00000230: ccef 8bbd 4b13 c83d 6c56 173e 0518 fbbc
00000240: c98f 8f3e d283 e83d c94c ce3d 57ec de3d
00000250: 644b e63b f3a1 2ebe 163d 3abb db65 363c
00000260: d5af 6dbd b8c7 5abe 6b33 e2bd 8395 9e3d
00000270: 9dbb 4ebe 8619 34be e21d c0bd e523 44be
00000280: 92aa f2bd 68bf 01be b837 3fbe ffcb bfbd
00000290: 15f9 b5bc ce23 bbbd c314 d2ba 51f4 ef3a
000002a0: eae4 5bbd a5e9 0abb 78df e9bd 50e2 27bb
000002b0: 743f ac3d 979f 863d af6f a1bd bcb7 cbbd
000002c0: ea26 debd 1774 153d 5f87 8b3b fede 53bd
000002d0: ae71 bfbd da67 05be 1c90 4cbe 9670 a2bd
000002e0: f786 1dbc f000 5ebe 13b3 6cbe 569c 61be
000002f0: 09dd 73bd 481a d33e 9879 4e3e 2f3e 133e
00000300: cb7a 053e 22db ffbd c8f6 2c3e 6166 b03d
00000310: d126 29be 4c29 ca3d cf75 043e c82a 02be
00000320: 5c6a f7bd 9a7f 013f b04c f13d 4580 273d
00000330: 5c2c 013c 1cc8 043e 2225 533d 39e5 d13d
00000340: 198b 36be b89a 273d 08fb e6be 6ed4 19bf
00000350: 6e5c fcbe aee6 b6be 3aed bebe e207 14bf
00000360: c122 cb3d a058 86bc 2a71 d93d ce82 9bbe
00000370: 4a5f bebd c56d 13bf 3e48 55bd 8756 18be
00000380: bb77 c8be dca2 0a3e 4e7e 403d aa21 163e
00000390: 9852 a4bc 7590 3a3d ce90 043e a29b 94bd
000003a0: d1de febc 7057 803d d7b5 123d a12b 0f3d
000003b0: d64b 933c 1e66 5b3d d302 e5bc d7a9 e13d
000003c0: 11c4 8f3d ca57 6b3d c740 123e 7698 a4be
000003d0: 88bd dbbd 0960 80be 749b 99bd d460 4abe
000003e0: 1b97 ebbd 55e7 e6bd 9048 25be 400b 2dbe
000003f0: be52 823e 4d99 673d 51a4 ca3b 5842 2d3e

conv_v_0.bias f4 [16]
0.055213436 -0.07492119 0.024955494 -0.018962478 -0.015160953 0.08672915 -0.075093195 0.03161856
0.0027148526 -0.0692207 -0.05275179 -0.1465007 0.08842068 0.044814 -0.15465587 0.061836578
00000000: 7c27 623d 4870 99bd 776f cc3c 3357 9bbc
00000010: a565 78bc 0d9f b13d 76ca 99bd 7782 013d
00000020: abeb 313b 95c3 8dbd 4312 58bd 4804 16be
00000030: e715 b53d e38e 373d 1c5e 1ebe 5a48 7d3d

conv_v_1.weight f4 [16, 16, 3, 3]
0.059942123 0.07798555 0.04998687 0.06074169 -0.006215041 0.0882609 0.101431 0.09675649
0.06308804 -0.090744376 -0.007908808 0.028549723 -0.12347869 -0.1712032 -0.13922846 -0.18452735
-0.113034405 -0.03646502 -0.025359074 -0.15730561 -0.13453525 0.009742973 -0.124228716 -0.058992848
0.030093713 -0.08768446 -0.1872466 0.015161182 0.040716033 -0.012595981 0.043847825 -0.08812626
0.0071485224 0.033909444 0.03622349 0.09790312 -0.013043934 0.051962346 -0.010613975 0.038743302
-0.121599264 -0.057428565 -0.08212583 0.031974513 0.0029466706 -0.049019847 -0.012588474 0.060880754
-0.009331656 0.009300421 0.053801734 0.12030525 -0.04412905 0.0954145 0.035273504 0.053767927
0.05456092 0.075766645 -0.047952946 0.016779985 0.10132702 0.0071207564 0.02401055 0.0603014
0.0027673817 -0.027169613 -0.014093839 0.00096620875 0.009810397 0.010405433 0.047400866 0.08346775
0.04718001 -0.10235447 0.009644786 -0.09139802 -0.07036987 -0.10076683 -0.04446626 0.004203279
-0.007928332 0.045953967 0.07739135 0.06782362 0.10141267 -0.08354307 0.08294165 0.08284831
0.07754906 0.115333356 -0.14847891 -0.15254377 -0.036075722 -0.115270525 -0.04754944 -0.054632045
-0.08037249 -0.00893318 -0.036135204 -0.11484851 -0.10026 -0.11171053 -0.0676019 -0.085628934
-0.0016084164 -0.09181306 -0.08902014 0.066438764 0.051364023 -0.020791741 0.07159137 0.04211368
0.015226787 0.04548848 0.12753575 0.06150542 0.11103475 0.08242759 0.029081704 0.06605929
-0.0013036119 -0.09204238 -0.02314127 0.028968776 -0.076873906 -0.013582112 -0.24071777 -0.21098135
-0.35034776 -0.20005463 -0.16446024 -0.40410545 -0.28225002 -0.2607928 -0.25170776 -0.045223136
0.05192599 0.09613425 -0.020592785 -0.083855465 -0.023369934 -0.03695422 0.049585324 0.14880145
0.05573548 0.04006666 0.031510405 0.10392795 0.13126764 0.029125305 0.14012195 0.047316775
0.14736457 0.037202362 0.06953422 0.11545717 0.059996944 -0.03439274 0.112326786 -0.05249044
0.014108733 0.04931215 0.034358718 -0.014137635 -0.009006404 -0.03419513 0.0509631 -0.06435134
-0.08093495 0.0039923415 -0.013873046 -0.2508315 -0.11919085 0.009534872 -0.019572513 -0.002703896
0.023457097 -0.1797516 -0.032601066 -0.057852898 -0.16587894 -0.042726442 -0.07164916 0.114550665
0.028982973 -0.012740346 -0.11917876 -0.12563765 0.053054795 -0.06994634 -0.066421926 0.0022622372
-0.046989236 0.0022208588 0.019469796 -0.01733561 -0.026540074 0.098294154 -0.05925941 -0.052449524
0.08257867 0.077050336 0.1555354 0.15483789 -0.012287181 0.008056761 0.11548587 -0.06356669
-0.039100796 0.01839857 0.029605899 0.032804184 0.13962047 0.030959329 0.05304363 0.14035445
0.053352118 0.057003252 0.18245187 0.103099234 -0.025363008 0.12519546 -0.030689945 0.06760464
-0.011687408 0.0889212 0.15776554 0.12571089 0.13566671 0.1441528 0.08575777 -0.03792981
0.11487821 0.046005458 -0.051276114 0.028628211 0.027586512 -0.063977286 -0.08543126 0.06635074
0.03751405 -0.035043295 0.106643125 0.20321104 0.091882974 0.13756926 0.12891032 0.06687544
0.16485773 0.101639904 0.111993276 0.118528284 0.086533815 -0.037319876 0.0922071 0.025341881
00000000: df85 753d e3b6 9f3d 08bf 4c3d 47cc 783d
00000010: 8ba7 cbbb 21c2 b43d 0ebb cf3d 4428 c63d
00000020: 4d34 813d 30d8 b9bd f293 01bc 1ce1 e93c
00000030: 65e2 fcbd e44f 2fbe e891 0ebe bdf4 3cbe
00000040: 957e e7bd 585c 15bd d5bd cfbc b914 21be
00000050: 9cc3 09be fea0 1f3c a06b febd 7ca2 71bd
00000060: 1787 f63c e993 b3bd 93bd 3fbe 9b66 783c
00000070: dbc5 263d 605f 4ebc c799 333d 8a7b b4bd
00000080: 273e ea3b a1e4 0a3d 155f 143d 6e81 c83d
00000090: 39b6 55bc 78d6 543d 3de6 2dbc 4cb1 1e3d
000000a0: 0909 f9bd 373a 6bbd 9631 a8bd b5f7 023d
000000b0: ee1c 413b 09c9 48bd e33f 4ebc 195e 793d
000000c0: cde3 18bc cb60 183c 355f 5c3d 9962 f63d
000000d0: aac0 34bd ad68 c33d f37a 103d c23b 5c3d
000000e0: 457b 5f3d 8b2b 9b3d 4f6a 44bd 2e76 893c
000000f0: 8a84 cf3d 3c55 e93b c6b1 c43c 9afe 763d
00000100: f65c 353b cf92 debc d8e9 66bc 2c49 7d3a
00000110: cabb 203c 8d7b 2a3c 6927 423d 24f1 aa3d
00000120: d33f 413d 389f d1bd 2a05 1e3c e32e bbbd
00000130: 141e 90bd d75e cebd 4122 36bd a9bb 893b
00000140: d6e5 01bc 3a3a 3c3d 5b7f 9e3d 1ce7 8a3d
00000150: 72b1 cf3d a118 abbd 50dd a93d 60ac a93d
00000160: 0bd2 9e3d e533 ec3d db0a 18be 6f34 1cbe
00000170: 23c4 13bd f412 ecbd 34c3 42bd dac5 5fbd
00000180: 559a a4bd 795c 12bc 8202 14bd b235 ebbd
00000190: 1d55 cdbd 7ec8 e4bd dd72 8abd 395e afbd
000001a0: 80d1 d2ba 7c08 bcbd 3150 b6bd 0c11 883d
000001b0: 1563 523d 7153 aabc 7f9e 923d 657f 2c3d
000001c0: c679 793c 2152 3a3d bb98 023e 1bed 7b3d
000001d0: 3066 e33d cccf a83d c13c ee3c 184a 873d
000001e0: f5dd aaba b780 bcbd c392 bdbc ed4f ed3c
000001f0: 1170 9dbd 8287 5ebc b87e 76be 7f0b 58be
00000200: c860 b3be 1fdb 4cbe 4468 28be e9e6 cebe
00000210: 1383 90be a286 85be d7df 80be e53b 39bd
00000220: 59b0 543d 09e2 c43d 33b2 a8bc 6abc abbd
00000230: 4e72 bfbc 4f5d 17bd fb19 4b3d 685f 183e
00000240: e34a 643d f01c 243d 0e11 013d 2dd8 d43d
00000250: 066b 063e 3198 ee3c 217c 0f3e 3ccf 413d
00000260: bde6 163e 8161 183d f567 8e3d cf74 ec3d
00000270: 5bbf 753d 67df 0cbd 960b e63d 3700 57bd
00000280: 5128 673c 89fb 493d babb 0c3d 8aa1 67bc
00000290: 998f 13bc 3110 0cbd afbe 503d a3ca 83bd
000002a0: 39c1 a5bd 30d2 823b c64b 63bc fd6c 80be
000002b0: 551a f4bd 2738 1c3c 8956 a0bc d933 31bb
000002c0: 1929 c03c ce10 38be b288 05bd 29f7 6cbd
000002d0: 2bdc 29be ec01 2fbd cbbc 92bd 8a99 ea3d
000002e0: b36d ed3c e2bc 50bc fe13 f4bd 28a7 00be
000002f0: fc4f 593d 0740 8fbd 3808 88bd 0b42 143b
00000300: c977 40bd d48b 113b 1f7f 9f3c 6903 8ebc
00000310: 926a d9bc 724e c93d ffb9 72bd 50d5 56bd
00000320: 011f a93d 91cc 9d3d ac44 1f3e d38d 1e3e
00000330: 2c50 49bc 8100 043c db83 ec3d 412f 82bd
00000340: 2828 20bd 99b8 963c 1288 f23c ae5d 063d
00000350: abf8 0e3e 6b9e fd3c 4744 593d 14b9 0f3e
00000360: c087 5a3d 3e7c 693d aad4 3a3e b125 d33d
00000370: 15c6 cfbc 3d33 003e 7b69 fbbc 4d74 8a3d
00000380: 8b7c 3fbc 511c b63d 4a8d 213e 5bba 003e
00000390: 37ec 0a3e cb9c 133e c5a1 af3d 4a5c 1bbd
000003a0: 4445 eb3d 3870 3c3d e706 52bd b685 ea3c
000003b0: 1cfd e13c 8606 83bd 96f6 aebd e6e2 873d
000003c0: 55a8 193d 8f89 0fbd b667 da3d 8e16 503e
000003d0: 242d bc3d f5de 0c3e 1101 043e fef5 883d
000003e0: 77d0 283e 9528 d03d bb5c e53d f5be f23d
000003f0: a438 b13d badc 18bd 13d7 bc3d c799 cf3c

conv_v_1.bias f4 [16]
0.015673812 -0.009125927 -0.041995317 0.23488551 0.23013845 -0.14766397 -0.06134912 -0.08094181
-0.075350955 -0.012526073 -0.010017761 -0.07894297 -0.05826996 -0.025549928 0.2249189 -0.07606463
00000000: 5e66 803c ea84 15bc 4803 2cbd d485 703e
00000010: 6aa9 6b3e 3935 17be 3749 7bbd d2c4 a5bd
00000020: 9a51 9abd 283a 4dbc 8921 24bc daac a1bd
00000030: 7bac 6ebd 154e d1bc 2451 663e c6c7 9bbd
