league/checkpoints/mfos_seeds/new_self_4x4_63/350_1.pth (torch, 365518 bytes, 105 tensors)

conv_a_0.weight f4 [16, 7, 3, 3]
0.004568588 0.08436628 0.19131455 -0.0063478723 -0.056412548 0.01813165 0.041202676 -0.049181405
0.06943778 0.19804713 -0.1674201 0.15792641 0.12013831 0.0011901908 0.1607772 0.044827644
0.090729505 0.09909373 0.05011787 0.15956874 -0.0015065592 0.15282258 -0.043477364 0.033296302
0.02947379 0.073859744 -0.002684587 0.13656403 -0.0437202 0.02028371 -0.0015036359 0.17279908
-0.09914307 0.08501397 -0.0029885771 -0.025359608 -0.016502088 0.042169098 -0.08023718 0.0017369511
0.02280412 -0.035380773 0.060697507 -0.08628557 0.08211121 -0.1059989 0.06007904 -0.051857933
-0.12831621 -0.15522334 0.08546182 0.076813884 -0.13183485 0.002540304 -0.0057458635 0.03278148
-0.11594072 -0.121786095 -0.019648395 -0.13246383 -0.07035744 -0.0730136 0.014520713 0.06401444
0.16140872 0.08333792 0.2055677 0.12357464 0.18584037 0.0070893704 0.20154172 0.01827338
0.021576751 0.09420178 0.03848136 -0.04412769 0.19869961 0.09218933 0.14764503 0.19055034
0.21158184 0.13118334 0.033796296 0.10298098 0.1746038 0.17228779 -0.033230804 0.12410508
0.15498418 0.09012144 0.11054037 0.13997868 -0.02793444 0.17314048 0.07483471 0.084271275
0.048245423 0.1633134 0.08682075 0.008830464 0.0064949803 -0.07116745 -0.108078614 0.020863751
0.08781628 -0.003026534 -0.07811703 0.08913418 -0.1238998 0.07474894 -0.049291737 -0.09395449
-0.1689566 -0.013267606 -0.096955016 -0.036888193 -0.13334611 -0.020703558 -0.13948098 -0.01773381
0.03694922 0.04745199 -0.03667392 -0.03185731 0.04200815 0.07206621 0.09754804 0.2104469
-0.0424021 0.10126283 0.19369613 0.124375194 0.039193124 -0.018035863 0.13552208 -0.07203048
0.2352737 0.047919754 0.009400223 -0.04010811 0.1342441 0.009066607 0.1611287 0.16967851
0.15658092 0.16488467 0.12006662 0.0114165945 0.10362306 0.06306588 0.17707996 -0.083821364
0.08075959 -0.12974638 0.0036402855 0.04716013 -0.15375903 -0.06967204 0.0752164 0.11120553
-0.13790052 0.11833662 -0.04429335 0.069759384 -0.07839954 0.05063163 -0.008865033 0.046637975
-0.04634957 0.13082273 -0.09123129 -0.09392317 0.0070215487 0.0066726007 -0.13401122 -0.122648045
0.08767265 -0.14832093 -0.035311643 0.0075684395 0.042207725 -0.12573077 -0.12877525 -0.13759392
0.10254632 -0.112315275 0.030805074 -0.027214056 0.019747693 0.13737889 0.07447219 -0.12096605
0.066202834 0.14272709 0.045799308 -0.058513332 0.12501897 0.04435435 -0.16405469 0.057104733
-0.031995434 0.01900328 0.04525166 0.16101469 0.16417253 0.16218884 0.20563097 -0.099958606
-0.041343916 -0.01211932 -0.001793915 0.1220357 0.16331263 0.17314647 0.13082863 0.094452515
0.14869893 -0.02140835 0.00379553 0.17123704 -0.075871415 0.066154614 -0.14078195 -0.19892402
0.14344527 0.028660562 -0.05247047 0.02971648 0.0397023 0.026947424 0.07085122 0.015006675
0.05598855 -0.046491504 0.010828235 0.09511237 -0.003790051 -0.06646905 -0.14427288 -0.11353114
-0.112761356 0.020987011 0.09712434 -0.14069471 -0.029302424 -0.101523675 -0.16215982 -0.022581624
-0.12103246 -0.0067491373 0.06618755 -0.07676951 -0.024228768 -0.0110116135 0.09314576 0.095169544
00000000: 18b4 953b 3ac8 ac3d f6e7 433e d001 d0bb
00000010: d810 67bd d388 943c 23c4 283d 7172 49bd
00000020: 6535 8e3d decc 4a3e 2d70 2bbe 76b7 213e
00000030: 130b f63d 2d00 9c3a c7a2 243e 319d 373d
00000040: 64d0 b93d a7f1 ca3d 6548 4d3d fd65 233e
00000050: bd77 c5ba 867d 1c3e 5215 32bd b461 083d
00000060: 0573 f13c c743 973d e5ef 2fbb 71d7 0b3e
00000070: f413 33bd 062a a63c a615 c5ba 3ef2 303e
00000080: 860b cbbd ce1b ae3d 01dc 43bb f4be cfbc
00000090: 632f 87bc 81b9 2c3d 6453 a4bd 68aa e33a
000000a0: b5cf ba3c 6eeb 10bd f39d 783d 7db6 b0bd
000000b0: ec29 a83d f415 d9bd 7015 763d fc68 54bd
000000c0: 5365 03be def2 1ebe 9b06 af3d 9950 9d3d
000000d0: b7ff 06be 3b7b 263b cc47 bcbb e045 063d
000000e0: 5472 edbd fd6a f9bd acf5 a0bc 99a4 07be
000000f0: 9017 90bd 2888 95bd 49e8 6d3c 011a 833d
00000100: 5448 253e 12ad aa3d 5780 523e b314 fd3d
00000110: f04c 3e3e f34d e83b f460 4e3e 0eb2 953c
00000120: bac1 b03c ddec c03d a19e 1d3d 3dbf 34bd
00000130: e977 4b3e c2cd bc3d 4230 173e a11f 433e
00000140: e9a8 583e ed54 063e fc6d 0a3d b1e7 d23d
00000150: 57cb 323e 366c 303e 061d 08bd ce2a fe3d
00000160: 2cb4 1e3e 9791 b83d fd62 e23d 9256 0f3e
00000170: c4d6 e4bc bd4b 313e f142 993d 6b96 ac3d
00000180: fe9c 453d a13b 273e 14cf b13d a7ad 103c
00000190: d8d3 d43b 3dc0 91bd 5258 ddbd 75ea aa3c
000001a0: 06d9 b33d d158 46bb d2fb 9fbd fb8b b63d
000001b0: 2ebf fdbd f915 993d 22e6 49bd 366b c0bd
000001c0: f502 2dbe 5f60 59bc 5a90 c6bd 1318 17bd
000001d0: e28b 08be 829a a9bc 1ad4 0ebe 7f46 91bc
000001e0: 1158 173d 055d 423d 6437 16bd d07c 02bd
000001f0: bd10 2c3d 7397 933d 44c7 c73d 647f 573e
00000200: d3ad 2dbd e362 cf3d 4758 463e 6cb8 fe3d
00000210: f888 203d f2bf 93bc 4dc6 0a3e b784 93bd
00000220: 97eb 703e 8147 443d 6503 1a3c 6748 24bd
00000230: 4977 093e 1b8c 143c ecfe 243e 34c0 2d3e
00000240: c056 203e 87d7 283e 7de5 f53d ab0c 3b3c
00000250: 5438 d43d af28 813d 7354 353e 89aa abbd
00000260: 4965 a53d 3cdc 04be db91 6e3b fb2a 413d
00000270: 0273 1dbe 37b0 8ebd 0e0b 9a3d babf e33d
00000280: cb35 0dbe 785a f23d f26c 35bd 02de 8e3d
00000290: f08f a0bd 1d63 4f3d a53e 11bc 7607 3f3d
000002a0: 0cd9 3dbd 65f6 053e 78d7 babd ca5a c0bd
000002b0: 0515 e63b d5a5 da3b 3d3a 09be e62e fbbd
000002c0: b88d b33d 71e1 17be f1a2 10bd ac00 f83b
000002d0: 02e2 2c3d 91bf 00be a9dd 03be 6ce5 0cbe
000002e0: ce03 d23d 8d05 e6bd ec5a fc3c 03f0 debc
000002f0: eac5 a13c 0dad 0c3e e084 983d 0cbd f7bd
00000300: 5a95 873d 0d27 123e 0e98 3b3d adab 6fbd
00000310: f904 003e e8ac 353d f4fd 27be a7e6 693d
00000320: a50d 03bd c4ac 9b3c ce59 393d 09e1 243e
00000330: d81c 283e d514 263e ed90 523e 19b7 ccbd
00000340: 3d58 29bd 1d90 46bc cd21 ebba daed f93d
00000350: 6d3b 273e 4f4d 313e f1f7 053e 5270 c13d
00000360: 8844 183e 9060 afbc 6dbe 783b c358 2f3e
00000370: 7962 9bbd 127c 873d 2529 10be bdb2 4bbe
00000380: 51e3 123e 8ec9 ea3c 47eb 56bd fa6f f33c
00000390: e19e 223d d8c0 dc3c 721a 913d 8fde 753c
000003a0: 4054 653d e06d 3ebd e968 313c 46ca c23d
000003b0: 8162 78bb ed20 88bd 45bc 13be 0483 e8bd
000003c0: 6def e6bd f4ec ab3c 20e9 c63d 4612 10be
000003d0: a30b f0bc a5eb cfbd 390d 26be 19fd b8bc
000003e0: dedf f7bd de27 ddbb 578d 873d 5539 9dbd
000003f0: 697b c6bc 0e6a 34bc 34c3 be3d 40e8 c23d

conv_a_0.bias f4 [16]
0.16452095 0.17855059 0.042566914 0.052103132 -0.08973365 0.16661492 0.18518846 -0.08227014
0.060138695 0.19196817 0.03785591 0.14942205 -0.08891631 0.19542183 0.12840998 0.15692818
00000000: 2e78 283e f7d5 363e a55a 2e3d 186a 553d
00000010: 47c6 b7bd 1a9d 2a3e 0ba2 3d3e 3f7d a8bd
00000020: fe53 763d 4e93 443e cc0e 1b3d 1802 193e
00000030: c119 b6bd a91c 483e e87d 033e c8b1 203e

conv_a_1.weight f4 [16, 16, 3, 3]
0.062342513 -0.023210153 0.0014642524 -0.008065054 -0.04441164 -0.023835355 0.0027234189 0.034098644
-0.040506084 -0.08209706 0.057101805 -0.004264501 0.06584703 0.051366966 -0.0928149 -0.0891739
0.04604936 -0.012315418 -0.064828485 -0.03938336 -0.018865373 -0.12986548 -0.043179058 0.057640992
0.018924424 0.002238628 0.020730529 0.016217085 0.05123891 -0.02649893 0.049605723 0.08421513
0.039868295 0.0742437 0.07738316 0.06358063 0.0083254175 -0.05170384 -0.0062209126 0.040720705
-0.020920947 -0.039479487 0.018758046 0.07624189 0.033694156 0.021385364 -0.06979552 -0.031025218
-0.08319332 -0.011716483 -0.06450352 -0.024889607 -0.08083485 0.03358274 0.025634874 -0.03258292
-0.016464103 -0.015372869 0.00064364553 -0.04111193 0.01681203 0.0034676988 -0.0035565707 0.013737473
-0.023301017 -0.05802735 0.030443843 0.12611592 -0.013239416 -0.019289488 0.09700183 0.03222627
0.030053636 0.043168567 0.08735279 0.017828241 0.011966372 -0.0011498387 -0.030261582 -0.00327096
0.08983388 -0.0771641 0.044405006 0.03782953 0.055764344 -0.05065709 -0.042664994 0.071628414
-0.08655678 0.04134899 -0.06965844 0.0088481475 0.05367393 -0.048455182 0.06926271 -0.075695045
-0.022377279 -0.027563877 -0.020223722 -0.020849213 -0.043201435 0.06516017 -0.05828554 0.008181966
-0.02102197 -0.03892515 0.024604628 -0.03758625 0.03659297 0.03411121 0.13244633 -0.013487262
0.09172373 0.094682604 0.15191774 0.11085903 -0.017514698 0.024167266 0.024575507 -0.06279391
-0.036096722 0.008320364 -0.01825567 -0.08002226 0.018785434 -0.03368646 -0.094618164 -0.046815164
-0.040684704 0.012386281 0.013106143 -0.07619938 -0.041868318 -0.085090294 -0.06115419 0.06051438
0.041351333 0.004318036 0.031441282 0.02657128 -0.045394555 0.045776643 0.024478542 -0.016891776
0.02783492 0.1240864 0.13298388 0.13119361 2.3315271e-05 0.13158579 0.12477761 0.16543043
0.017304001 0.13754605 0.17902845 0.06636189 0.027885415 0.16378435 0.12134304 0.1611528
0.12228144 0.09245048 0.18236023 0.13845412 0.091790624 0.15279585 0.118080944 0.11261162
0.08412861 0.1642793 0.20145248 0.14749762 0.041891303 0.08120909 0.035773817 0.06612989
0.16552527 0.093017116 0.112295434 0.10344036 -0.014064341 -0.03543759 0.050407212 0.05498741
-0.07856611 0.024442408 -0.043403458 -0.014667556 0.07086747 0.137365 0.053545974 0.06025143
0.08009188 0.18418925 0.03221811 0.050822787 0.0846478 0.01640961 0.11890955 0.11016321
0.1256433 0.0491997 0.13807254 0.10989236 0.15596712 0.03541821 0.11341872 0.027570875
-0.056192707 -0.04415889 -0.040569566 -0.0029834218 0.04656015 0.05702083 0.0069887377 -0.013122155
0.024446703 -0.026471272 0.08961494 0.04696305 0.09487192 0.08345137 -0.06927459 0.093235366
-0.054717872 0.05275381 0.10256574 0.10516378 0.14143038 0.045296907 0.024223754 0.030167231
0.072422475 0.17162324 0.1481619 0.1408565 0.15886056 0.037031382 0.102432124 0.08367811
0.09351147 0.027783772 0.14788876 0.13674091 0.050410252 -0.0008745239 0.033236843 0.058451414
0.08103885 -0.010173511 0.066616945 0.040440716 -0.116074786 -0.09909105 -0.0036514644 0.02765968
00000000: dd5a 7f3d 3823 bebc 28ec bf3a 4a23 04bc
00000010: fbe8 35bd 5d42 c3bc 637b 323b 05ab 0b3d
00000020: b5e9 25bd 8122 a8bd 95e3 693d 3abd 8bbb
00000030: cfda 863d 2b66 523d bd15 bebd cea0 b6bd
00000040: 419e 3c3d 9bc6 49bc ccc4 84bd 7250 21bd
00000050: 8e8b 9abc 75fb 04be 86dc 30bd f618 6c3d
00000060: 6507 9b3c f2b5 123b 12d3 a93c b1d9 843c
00000070: e4df 513d 4914 d9bc 5f2f 4b3d fb78 ac3d
00000080: f04c 233d 150d 983d 107b 9e3d 9036 823d
00000090: 5567 083c 68c7 53bd ccd8 cbbb c1ca 263d
000000a0: 6862 abbc 3eb5 21bd 79aa 993c b524 9c3d
000000b0: e202 0a3d 5c30 af3c f4f0 8ebd 9928 febc
000000c0: 4261 aabd 7ef6 3fbc 6c1a 84bd 4ae5 cbbc
000000d0: be8c a5bd 0e8e 093d 3a00 d23c ab75 05bd
000000e0: badf 86bc 7cde 7bbc 52ba 283a fc64 28bd
000000f0: 62b9 893c 5542 633b 5b15 69bb 2313 613c
00000100: c6e1 bebc 16ae 6dbd 5e65 f93c 8824 013e
00000110: 23ea 58bc fd04 9ebc e5a8 c63d b1ff 033d
00000120: 0b33 f63c 86d1 303d 05e6 b23d 880c 923c
00000130: 9a0e 443c 2fb6 96ba 23e7 f7bc 9a5d 56bb
00000140: d3fa b73d 3608 9ebd 06e2 353d 23f3 1a3d
00000150: 2769 643d cf7d 4fbd 7dc1 2ebd ebb1 923d
00000160: ae44 b1bd 8f5d 293d 16a9 8ebd d2f7 103c
00000170: 32d9 5b3d f178 46bd 9cd9 8d3d 0106 9bbd
00000180: 8e50 b7bc a4cd e1bc 38ac a5bc f8cb aabc
00000190: fdf3 30bd b272 853d d2bc 6ebd a70d 063c
000001a0: 4436 acbc fa6f 1fbd a58f c93c 0af4 19bd
000001b0: 83e2 153d 32b8 0b3d 03a0 073e adf9 5cbc
000001c0: a7d9 bb3d f4e8 c13d 5390 1b3e 0f0a e33d
000001d0: fc7a 8fbc 6efa c53c 9352 c93c 189a 80bd
000001e0: 28da 13bd 2352 083c ea8c 95bc b6e2 a3bd
000001f0: e9e3 993c d0fa 09bd 2bc7 c1bd 42c1 3fbd
00000200: 01a5 26bd d4ef 4a3c 26bb 563c 6c0e 9cbd
00000210: 1d7e 2bbd d243 aebd d17c 7abd eddd 773d
00000220: 0460 293d 507e 8d3b 93c8 003d 03ac d93c
00000230: a4ef 39bd 4a80 3b3d 3987 c83c 9f60 8abc
00000240: 0f06 e43c 0321 fe3d ed2c 083e 9e57 063e
00000250: 2a95 c337 6dbe 063e 678b ff3d 9866 293e
00000260: 1fc1 8d3c dfd8 0c3e 3c53 373e bee8 873d
00000270: f46f e43c 16b7 273e b382 f83d 3d05 253e
00000280: b16e fa3d ad56 bd3d a4bc 3a3e ebc6 0d3e
00000290: b9fc bb3d 8476 1c3e 6cd4 f13d eca0 e63d
000002a0: 9f4b ac3d d538 283e 8f49 4e3e 9e09 173e
000002b0: 3796 2b3d f450 a63d 9187 123d 1c6f 873d
000002c0: 757f 293e c27f be3d 26fb e53d 8ad8 d33d
000002d0: 1f6e 66bc 0227 11bd cb77 4e3d 7a3a 613d
000002e0: 45e7 a0bd 723b c83c d3c7 31bd 3050 70bc
000002f0: f722 913d 69a9 0c3e 0653 5b3d 34ca 763d
00000300: 3607 a43d 1b9c 3c3e 23f7 033d 8e2b 503d
00000310: d35b ad3d 726d 863c da86 f33d 409d e13d
00000320: a3a8 003e a085 493d e362 0d3e 3f0f e13d
00000330: d8b5 1f3e af12 113d 1348 e83d 51dc e13c
00000340: 532a 66bd f4df 34bd 462c 26bd 8385 43bb
00000350: dbb5 3e3d ad8e 693d c801 e53b 4ffe 56bc
00000360: 7444 c83c 48da d8bc 0a88 b73d 545c 403d
00000370: 364c c23d 8de8 aa3d d6df 8dbd 2ff2 be3d
00000380: d91f 60bd 6114 583d fd0d d23d 1c60 d73d
00000390: 20d3 103e 4089 393d e570 c63c 4521 f73c
000003a0: 3c52 943d 01be 2f3e c1b7 173e b03c 103e
000003b0: 58ac 223e 38ae 173d efc7 d13d 6e5f ab3d
000003c0: f182 bf3d cb9a e33c 2770 173e cf05 0c3e
000003d0: fb7a 4e3d 4e40 65ba 5b23 083d c06a 6f3d
000003e0: b2f7 a53d ccae 26bc 776e 883d 2aa5 253d
000003f0: 9eb8 edbd 40f0 cabd 684d 6fbb 8e96 e23c

conv_a_1.bias f4 [16]
0.062296245 0.015681563 -0.017892037 0.0014726124 0.051020693 -0.038388956 0.08335125 0.019557254
0.050707076 0.08859111 0.07003344 0.041490342 0.052132603 0.09351682 0.0422218 0.038567606
00000000: 592a 7f3d 9f76 803c 5292 92bc ac04 c13a
00000010: 13fb 503d bd3d 1dbd 0fb4 aa3d 8936 a03c
00000020: 39b2 4f3d 426f b53d b16d 8f3d c7f1 293d
00000030: ff88 553d bf85 bf3d c4f0 2c3d 11f9 1d3d

linear_a_0.weight f4 [16, 256]
0.012672705 0.021541419 0.03583827 0.01011123 -0.04357422 -0.045639697 -0.04094031 -0.011872933
-0.016617527 0.007277092 -0.013598735 -0.052734256 -0.029520905 -0.03432279 0.029581623 0.03593165
-0.015526955 0.027798152 -0.07686235 0.043245327 0.027125768 0.02263779 0.04655854 -0.07257489
0.056627832 0.0040014703 0.00875449 0.046464007 -0.025617354 0.02068077 0.029443761 0.019839143
0.018477147 0.024345633 0.038760073 0.010092865 -0.048920605 0.03428807 -0.055309642 -0.07321501
0.021313507 -0.0029030885 -0.004772513 0.007898649 -0.016940914 -0.04854831 -0.053785462 -0.061098587
0.019721178 0.015142533 -0.047224123 0.048057813 -0.010094643 -0.057560105 -0.023734083 0.046218015
-0.057522725 0.011236959 0.013273867 0.036829308 -0.034359507 -0.069342755 -0.021024292 0.050338425
-0.059488576 0.050473016 0.01066841 -0.055998575 -0.028548855 -0.04527267 0.051227972 -0.032700073
-0.03366827 0.016617008 -0.0623443 -0.02582399 0.042855654 -0.035603754 0.05409534 0.04635999
-0.02712439 -0.05633061 -0.022668047 0.01917332 -0.06151542 0.0040722694 -0.0011444599 0.013700894
0.022816934 0.035215423 0.0023594096 0.041966375 -0.060412534 0.047934417 -0.0460421 -0.06952936
0.056850336 -0.053809207 0.04011322 -0.0035645037 0.03426944 0.039043035 0.010172595 -0.032597773
-0.004398951 -0.02157337 0.010253449 0.025956992 0.03553824 0.008618441 -0.042098626 -0.07547579
-0.0027691526 -0.008019096 0.037429176 -0.02124938 -0.05001474 0.010784034 -0.030643156 0.05172627
-0.03760756 0.05224647 0.009389319 0.015817447 -0.0013157268 0.041535523 -0.055091925 0.02184185
-0.044227414 -0.0022055516 -0.056709677 -0.014841261 0.037488475 0.0069794706 0.044687822 0.012200726
-0.0091968095 0.0028135416 -0.042129476 -0.039458234 -0.0037201976 0.02219128 0.021602126 0.03207673
-0.04152115 -0.058763944 -0.070632085 0.024186999 -0.01965932 0.008313237 -0.050984196 0.06507698
0.0057940586 0.024398465 0.033420864 -0.023544988 -0.054259665 -0.057242475 -0.042762864 0.05370152
0.0330108 0.031055097 0.035403457 -0.059044834 0.02833384 0.03574385 -0.05742086 -0.0140533
0.056745175 0.020988453 -0.036831796 0.013916334 0.030668298 0.0002782299 0.056156084 -0.027475305
-0.019147301 0.04677688 0.034151744 0.05722235 -0.009141844 -0.033135317 0.045972075 0.04545041
-0.036125135 -0.021652319 0.030728076 0.05254453 -0.041996315 -0.0034398716 -0.028084757 0.018069347
-0.0031886413 -0.02740257 -0.064237565 -0.03181456 -0.0027783138 0.041867044 -0.025523586 -0.05684702
0.013941716 -0.061243225 0.012243724 0.009841866 -0.010354452 -0.049751893 -0.040483486 -0.045918763
0.016790133 -0.014204725 -0.041285105 -0.053028308 -0.018177528 0.03003619 0.018371848 -0.052244876
-0.0027936439 -0.009712535 -0.020184712 -0.06695073 -0.032918725 -0.030667529 -0.030454105 0.0393793
-0.026132211 0.01106453 -0.05270664 -0.03641755 0.015727 0.013434071 -0.052911602 -0.018194344
-0.026681472 -0.063188486 0.015496732 0.03843796 -0.014872244 -0.06694528 -0.061246548 -0.02600528
0.00195743 -0.016764548 0.017252503 0.022695864 -0.02265975 -0.028399166 0.052115634 -0.047042508
0.0041129617 0.03288519 -0.052423313 -0.002593006 -0.028874518 -0.021034576 0.029453473 -0.048183605
00000000: 2da1 4f3c a177 b03c 26cb 123d 93a9 253c
00000010: e27a 32bd b1f0 3abd 07b1 27bd b186 42bc
00000020: 7b21 88bc ac74 ee3b 3bcd 5ebc e0ff 57bd
00000030: d3d5 f1bc 0e96 0cbd 2955 f23c 112d 133d
00000040: c564 7ebc f3b8 e33c 026a 9dbd 0322 313d
00000050: dc36 de3c e372 b93c 2bb4 3e3d 25a2 94bd
00000060: 96f2 673d c41e 833b fe6e 0f3c 0b51 3e3d
00000070: 7cdb d1bc b86a a93c 0b34 f13c b385 a23c
00000080: 635d 973c 7e70 c73c e2c2 1e3d 8b5c 253c
00000090: f960 48bd a671 0c3d 5d8c 62bd c0f1 95bd
000000a0: aa99 ae3c be41 3ebb be62 9cbb 5669 013c
000000b0: acc7 8abc 98da 46bd 254e 5cbd 8342 7abd
000000c0: 4f8e a13c 6318 783c 156e 41bd 45d8 443d
000000d0: 0064 25bc 25c4 6bbd fb6d c2bc 1a4f 3d3d
000000e0: f39c 6bbd 391b 383c a27a 593c 54da 163d
000000f0: 8ebc 0cbd 9303 8ebd 233b acbc aa2f 4e3d
00000100: 4baa 73bd cbbc 4e3d 8eca 2e3c c35e 65bd
00000110: 4adf e9bc d66f 39bd 6cd4 513d 83f0 05bd
00000120: bde7 09bd 6420 883c bd5c 7fbd d58c d3bc
00000130: 6989 2f3d 3ed5 11bd 1393 5d3d f9e3 3d3d
00000140: f833 debc edba 66bd 57b2 b9bc 5e11 9d3c
00000150: 98f7 7bbd ac70 853b b401 96ba b779 603c
00000160: 94ea ba3c 0c3e 103d 53a0 1a3b efe4 2b3d
00000170: 2273 77bd e156 443d a496 3cbd 6965 8ebd
00000180: e6db 683d 0b67 5cbd c34d 243d 739a 69bb
00000190: 1d5e 0c3d 97eb 1f3d f5aa 263c 3e85 05bd
000001a0: 1325 90bb a3ba b0bc 15fe 273c c2a3 d43c
000001b0: 8c90 113d 5d34 0d3c 9c6f 2cbd 0d93 9abd
000001c0: ac7a 35bb 8762 03bc 564f 193d 2e13 aebc
000001d0: 42dc 4cbd 84af 303c 5b07 fbbc edde 533d
000001e0: 630a 1abd 6500 563d a9d5 193c 9793 813c
000001f0: 7774 acba 2721 2a3d 12a8 61bd aeed b23c
00000200: ce27 35bd 048b 10bb 6848 68bd c328 73bc
00000210: 848d 193d 0bb4 e43b 940a 373d 8ee5 473c
00000220: 37ae 16bc 6563 383b f58f 2cbd f59e 21bd
00000230: 8fce 73bb 7dca b53c f1f6 b03c e462 033d
00000240: 1512 2abd 76b2 70bd 8ea7 90bd d023 c63c
00000250: 950c a1bc 3e34 083c ced4 50bd 1447 853d
00000260: 16dc bd3b 4adf c73c 51e4 083d 6be1 c0bc
00000270: 623f 5ebd 1677 6abd 1d28 2fbd 20f6 5b3d
00000280: 5536 073d 4267 fe3c 3703 113d ffd8 71bd
00000290: 5f1c e83c 2568 123d 2332 6bbd d03f 66bc
000002a0: a16d 683d faef ab3c f0dc 16bd 5601 643c
000002b0: 153c fb3c 63df 9139 ec03 663d e413 e1bc
000002c0: cdda 9cbc 1d99 3f3d b3e2 0b3d fc61 6a3d
000002d0: acc7 15bc e6b8 07bd 374d 3c3d 362a 3a3d
000002e0: f3f7 13bd 3460 b1bc 72b9 fb3c ef38 573d
000002f0: 5404 2cbd 786f 61bb 0112 e6bc 2b06 943c
00000300: 86f8 50bb 5b7b e0bc fc8e 83bd fc4f 02bd
00000310: 5f14 36bb c77c 2b3d d716 d1bc 6cd8 68bd
00000320: cc6b 643c 2dda 7abd e799 483c c73f 213c
00000330: b8a5 29bc a4c8 4bbd 03d2 25bd 5015 3cbd
00000340: 768b 893c efba 68bc 921a 29bd 3634 59bd
00000350: 0ae9 94bc 750e f63c 8f80 963c b9fe 55bd
00000360: 9115 37bb 5321 1fbc 695a a5bc 771d 89bd
00000370: c9d5 06bd 783a fbbc e37a f9bc 304c 213d
00000380: 3813 d6bc 0148 353c ebe2 57bd 922a 15bd
00000390: e9d5 803c 941a 5c3c d6b9 58bd 4e0c 95bc
000003a0: 1a93 dabc f768 81bd 01e6 7d3c 1f71 1d3d
000003b0: b6aa 73bc 9b1a 89bd a9dd 7abd 0609 d5bc
000003c0: 3a48 003b ce55 89bc 1f55 8d3c adec b93c
000003d0: f1a0 b9bc 5ea5 e8bc 3477 553d a5af 40bd
000003e0: 06c6 863b 9fb2 063d d4b9 56bd 6cef 29bb
000003f0: 418a ecbc b450 acbc 6948 f13c 2c5c 45bd

linear_a_0.bias f4 [16]
0.023296513 -0.005159459 -0.06279178 -0.045438908 -0.010760773 -0.0023231164 0.0106879985 0.025570009
0.05439405 0.013518972 -0.01614901 0.031572867 -0.059177313 -0.025080988 0.08226796 -0.06231975
00000000: 54d8 be3c ae10 a9bb fa98 80bd 261e 3abd
00000010: f44d 30bc 6d3f 18bb b71c 2f3c 3278 d13c
00000020: 4ccc 5e3d ae7e 5d3c ee4a 84bc 8d52 013d
00000030: e963 72bd a576 cdbc 1b7c a83d ff42 7fbd

GRU_a.weight_ih_l0 f4 [48, 16]
0.22412542 -0.18622212 -0.0052092904 -0.017453136 0.048959147 -0.07889454 0.1451255 -0.14596356
-0.056354966 -0.296868 0.09759724 -0.19234006 0.006299708 0.08267383 0.029054662 -0.18551813
0.058204725 -0.044451576 0.11541942 0.16868664 0.08695516 -0.14967343 0.2099461 -0.041391123
0.2116879 0.1511344 0.082899734 0.025506109 0.19850302 0.009909944 0.22613917 0.020882374
0.17692266 0.1854919 0.16002254 0.2268258 0.06804464 -0.188712 0.06414906 0.19744878
0.13113534 0.2186532 0.0028439995 -0.124621294 -0.059716996 0.10362763 -0.030595822 0.19226328
0.0077003296 0.036079247 0.18499535 0.20367311 0.13455513 -0.19066036 -0.038272146 -0.0905532
-0.22796515 -0.28044212 -0.2344539 -0.22317852 0.09042771 -0.25639868 -0.056100454 0.14301905
-0.06605167 0.042147085 0.078502275 -0.0019684173 0.1816666 0.0027848706 0.22276221 0.20846143
-0.0050761094 0.15099666 0.22236478 0.041273843 -0.2373207 0.23121268 -0.026850987 0.07953441
0.13393283 -0.21385714 0.22321214 0.030905992 -0.08278302 0.070223816 0.07581191 0.24423778
0.09160524 0.20666073 0.15672943 0.16132776 -0.080278255 0.20677714 0.15178244 0.24925874
0.041301943 0.02129162 -0.107533485 -0.11035638 0.07861977 0.20058547 0.19865642 0.32666183
-0.019727638 0.024397448 -0.07077458 0.1938739 -0.22783445 -0.08002909 -0.14061444 -0.2111804
0.20561975 -0.016710116 0.024349002 0.17137289 -0.129644 -0.18278916 -0.025649292 0.12046596
0.0043119504 0.25075945 0.023359701 -0.1136416 -0.22631885 -0.18344505 0.12508269 0.019334357
0.25901577 0.048062522 -0.042863462 -0.21866159 -0.05806635 0.1766438 -0.12493311 -0.112623364
-0.13419603 -0.048092544 0.19992718 0.19923402 -0.19548973 0.073720604 -0.1738316 0.2083622
-0.28995562 -0.19963197 -0.21233365 -0.0534119 -0.17786364 -0.19738498 -0.09965026 0.1781167
-0.11922903 0.01854835 -0.15916507 0.19516915 0.24544413 0.168224 0.06400123 -0.091017514
0.013010452 -0.12824947 -0.2207981 0.22089319 0.029781725 0.1999274 0.07179165 0.04903615
-0.030811045 0.22511812 0.061120827 0.07737823 0.06283849 0.12190355 -0.07446464 -0.10662391
-0.08752147 0.13234979 -0.15711808 0.20065191 -0.18198021 -0.09339389 -0.048594438 0.112892814
-0.21136898 -0.20212576 -0.09366789 0.24406528 0.22071983 -0.14097504 -0.17137486 0.10789736
-0.08716034 -0.18663129 0.04664981 0.13279137 0.14951801 0.2210318 -0.06468467 -0.047128037
0.007936798 -0.20409258 0.0654186 0.22118331 0.06863969 0.12750185 0.24048105 -0.23474146
-0.12702471 0.061456256 0.15319127 -0.08430221 -0.026723213 0.06687909 -0.19243711 0.11588772
0.16736716 -0.2768953 -0.05775478 0.040527362 -0.18022552 0.052706506 -0.1198524 0.12303467
0.26946515 0.10981696 -0.20653471 0.22573091 -0.15160006 -0.22162378 0.27929008 0.09069548
-0.21104863 0.03211137 -0.11402378 -0.028929679 0.0718589 -0.044221632 0.067820214 -0.08324465
0.21693665 -0.23503245 -0.018045103 0.19640027 0.0912179 0.030311832 0.033976853 -0.08144651
-0.15286128 -0.05497366 -0.14616726 -0.10309671 0.1528005 0.19328777 0.25233483 0.19872715
00000000: 2281 653e 03b1 3ebe b2b2 aabb e1f9 8ebc
00000010: 6389 483d 7693 a1bd c79b 143e 7977 15be
00000020: 77d4 66bd 15ff 97be 10e1 c73d cbf4 44be
00000030: c86d ce3b e650 a93d 0b04 ee3c 77f8 3dbe
00000040: 1468 6e3d db12 36bd 0461 ec3d 31bc 2c3e
00000050: 8c15 b23d fe43 19be 1cfc 563e bd89 29bd
00000060: b6c4 583e fac2 1a3e 56c7 a93d 30f2 d03c
00000070: 6044 4b3e 515d 223c 0791 673e 8311 ab3c
00000080: 372b 353e 97f1 3d3e f3dc 233e 0645 683e
00000090: fd5a 8b3d b83d 41be 9560 833d 0330 4a3e
000000a0: 5848 063e a0e6 5f3e 6562 3a3b 7339 ffbd
000000b0: cf99 74bd b93a d43d 17a4 fabc aae0 443e
000000c0: 0c53 fc3b d5c7 133d 6c6f 3d3e af8f 503e
000000d0: d2c8 093e 783c 43be 41c3 1cbd f573 b9bd
000000e0: b26f 69be 1c96 8fbe af14 70be e988 64be
000000f0: 2a32 b93d b046 83be 97c9 65bd 9673 123e
00000100: 1946 87bd 6ca2 2c3d cdc5 a03d 9000 01bb
00000110: cf06 3a3e 6082 363b c71b 643e ea76 553e
00000120: 7e55 a6bb de9e 1a3e 98b3 633e c30e 293d
00000130: 3304 73be 04c3 6c3e 9af6 dbbc f0e2 a23d
00000140: b025 093e 5efd 5abe b991 643e 902e fd3c
00000150: 258a a9bd 81d1 8f3d 4643 9b3d 7819 7a3e
00000160: 879b bb3d df9e 533e ae7d 203e 1b33 253e
00000170: ed68 a4bd 63bd 533e db6c 1b3e af3d 7f3e
00000180: 3a2c 293d c36b ae3c 843a dcbd 8702 e2bd
00000190: 6703 a13d 4766 4d3e 976c 4b3e 3840 a73e
000001a0: db9b a1bc 28dd c73c 43f2 90bd e186 463e
000001b0: 6f4d 69be 4be6 a3bd 3bfd 0fbe ad3f 58be
000001c0: fc8d 523e a7e3 88bc 8f77 c73c 607c 2f3e
000001d0: 66c1 04be 152d 3bbe 771e d2bc dbb6 f63d
000001e0: 434b 8d3b 8b63 803e d85c bf3c edbc e8bd
000001f0: 21c0 67be 05d9 3bbe ad15 003e 1663 9e3c
00000200: b79d 843e 35dd 443d 9991 2fbd d3e8 5fbe
00000210: fbd6 6dbd 1de2 343e eedc ffbd 14a7 e6bd
00000220: af6a 09be b0fc 44bd b6b9 4c3e 0104 4c3e
00000230: 762e 48be d4fa 963d e900 32be e75c 553e
00000240: 1075 94be 536c 4cbe fe6d 59be 70c6 5abd
00000250: e321 36be 4a1f 4abe 6f15 ccbd 3964 363e
00000260: 5a2e f4bd b6f2 973c 2bfc 22be 6cda 473e
00000270: b555 7b3e ea42 2c3e 1413 833d 6467 babd
00000280: ca29 553c d453 03be e618 62be d331 623e
00000290: cef8 f33c c5b9 4c3e 8007 933d 21da 483d
000002a0: 7267 fcbc 5d85 663e d559 7a3d 7a78 9e3d
000002b0: 77b1 803d 92a8 f93d eb80 98bd a35d dabd
000002c0: 753e b3bd b486 073e 90e3 20be b277 4d3e
000002d0: 0559 3abe 4c45 bfbd f60a 47bd 5934 e73d
000002e0: 1c71 58be 0efa 4ebe f3d4 bfbd 40ec 793e
000002f0: 6104 623e c35b 10be e47c 2fbe 4bf9 dc3d
00000300: 1f81 b2bd 461c 3fbe df13 3f3d 76fa 073e
00000310: 401b 193e 2956 623e 6579 84bd 5409 41bd
00000320: 5809 023c a5fd 50be 30fa 853d e17d 623e
00000330: f792 8c3d d88f 023e aa40 763e 1160 70be
00000340: c412 02be 8eb9 7b3d 2cde 1c3e a3a6 acbd
00000350: a4ea dabc e8f7 883d 3c0e 45be 8a56 ed3d
00000360: 4c62 2b3e 39c5 8dbe 4790 6cbd 0500 263d
00000370: 0a8d 38be c7e2 573d 2d75 f5bd 9af9 fb3d
00000380: 56f7 893e b7e7 e03d d67d 53be 0126 673e
00000390: 0c3d 1bbe 58f1 62be 1cff 8e3e 8dbe b93d
000003a0: 221d 58be 3687 033d 4d85 e9bd effd ecbc
000003b0: c22a 933d be21 35bd 53e5 8a3d 2c7c aabd
000003c0: a424 5e3e 59ac 70be 53d3 93bc 271d 493e
000003d0: 73d0 ba3d 8550 f83c 502b 0b3d 6ecd a6bd
000003e0: ab87 1cbe 0f2c 61bd dfac 15be 5e24 d3bd
000003f0: bc77 1c3e 3bed 453e 0832 813e 217f 4b3e

GRU_a.weight_hh_l0 f4 [48, 16]
-0.15715313 -0.015893651 -0.097845495 0.12471415 -0.16961025 -0.2261291 -0.0014378871 -0.114539154
-0.021223808 0.013195994 -0.038115952 -0.13777544 0.25022656 -0.20904022 -0.15557258 0.034051348
-0.10573089 -0.14722148 0.09767314 0.041401707 -0.2148914 0.04200758 0.28414977 0.1702939
0.01644334 -0.016605202 -0.14833842 0.07028298 -0.15408258 -0.1609784 -0.14385986 0.2509223
-0.23988768 0.22152096 0.07734518 0.13219485 0.03365522 -0.061517313 0.09063913 -0.053888474
-0.14396708 -0.041106753 -0.08291341 0.13446407 0.23835176 -0.14811672 -0.2076763 0.007078491
0.15576234 0.15594509 0.22170505 0.048165828 -0.13858497 0.10180077 0.013325475 0.04523458
0.21643129 -0.056264147 -0.1834412 -0.13237044 0.02099404 0.19265786 -0.22954327 -0.19028932
0.23444246 -0.15931217 -0.2573237 -0.09744735 -0.0014748693 -0.11073323 0.15643045 0.062792294
-0.16973306 0.17341498 0.19257455 -0.16406249 -0.16198337 -0.038001075 -0.08718389 -0.17396158
-0.06567096 -0.17097646 -0.15838194 -0.28254128 -0.15619935 0.22231933 0.24201304 0.17693254
-0.08362536 -0.085854605 0.19205941 0.19817461 0.026124911 0.112591244 0.2530944 -0.19168071
-0.17212357 0.09255391 -0.28063273 -0.19313905 0.072197795 -0.026971089 0.029369486 0.25843623
0.002614839 0.15546545 0.3401567 -0.10172407 -0.24058326 -0.26224405 0.12547238 0.08078545
0.06507749 -0.09880711 0.07351883 -0.30428642 -0.22268344 -0.06016507 0.25085297 -0.1634806
-0.03196042 0.09986543 -0.012499223 -0.15310323 -0.2729117 0.036196988 0.15247405 0.14401494
-0.28355834 -0.20483223 -0.12966287 0.24243745 0.009631202 0.015369042 0.12473457 -0.2663563
-0.14830013 0.025596065 -0.23591995 0.09819657 0.14702477 -0.002104542 0.059196986 -0.22057322
0.22099863 -0.13005641 -0.12603013 -0.08364512 -0.06803064 0.05774908 0.3222985 0.29511094
0.04432046 0.32661307 0.3103837 0.15005833 -0.005829317 -0.06949503 -0.115191214 0.19758421
0.21873093 0.007780755 -0.11673613 0.11626921 -0.36894912 -0.03872461 -0.030725894 0.33023867
0.052794844 -0.04301138 0.20876494 0.13451286 0.10733682 -0.23050055 -0.115422875 -0.095486924
-0.18085875 0.08078987 -0.26623774 -0.07501636 -0.20799156 -0.29754236 0.08243226 -0.17690443
-0.08249125 0.2851989 -0.022545397 -0.055128563 -0.08249028 -0.22998692 -0.013535401 -0.03483221
-0.16363351 -0.008564515 0.102843024 0.21214224 0.26285714 0.02643734 -0.12187053 0.20598374
-0.11514684 -0.11217011 -0.09401985 0.21294977 -0.21776223 -0.19248697 -0.17827557 0.074662805
-0.09322572 0.1243239 0.2605937 -0.06250039 0.016481386 0.23271568 0.018729718 0.09108007
-0.08398637 0.038516343 -0.29693282 0.15086545 -0.14478934 0.028454471 0.025270037 -0.10649009
-0.09279822 0.14987242 -0.016701134 -0.16681555 0.013642526 0.14165801 0.120535195 0.24321939
0.14001478 0.25716984 -0.15323283 -0.18824933 -0.25522316 -0.27969 0.30376282 0.3110468
0.19910331 0.0390796 -0.16238593 -0.11270124 -0.07458398 -0.0020968113 -0.038822316 0.33790952
-0.017435439 0.16706014 0.15371372 0.06522771 0.05295239 -0.07458089 -0.14430325 0.26818442
00000000: c0ec 20be 6733 82bc 3863 c8bd 226a ff3d
00000010: 4fae 2dbe 638e 67be 7c77 bcba 8193 eabd
00000020: 8ddd adbc 0334 583c 791f 1cbd 0115 0dbe
00000030: b21d 803e a40e 56be 6b4e 1fbe 6d79 0b3d
00000040: 7089 d8bd 3ac1 16be db08 c83d d694 293d
00000050: 7e0c 5cbe 2410 2c3d 147c 913e 8661 2e3e
00000060: 2fb4 863c a207 88bc 07e6 17be 86f0 8f3d
00000070: d3c7 1dbe 86d7 24be 0050 13be e378 803e
00000080: 1ea5 75be 64d6 623e 2667 9e3d 165e 073e
00000090: 0eda 093d 94f9 7bbd 02a1 b93d 29ba 5cbd
000000a0: 1b6c 13be 8e5f 28bd 82ce a9bd f3b0 093e
000000b0: 7c12 743e e9ab 17be 19a9 54be b0f2 e73b
000000c0: 2a80 1f3e 12b0 1f3e a606 633e 8849 453d
000000d0: 38e9 0dbe ec7c d03d 1853 5a3c e547 393d
000000e0: 2aa0 5d3e 3c75 66bd 03d8 3bbe 1e8c 07be
000000f0: b1fb ab3c 1a48 453e 640d 6bbe 34db 42be
00000100: af11 703e bb22 23be efbf 83be 7a92 c7bd
00000110: 6750 c1ba 1bc8 e2bd 4e2f 203e 3f99 803d
00000120: 81ce 2dbe b293 313e 4332 453e ffff 27be
00000130: f8de 25be 04a7 1bbd 788d b2bd fc22 32be
00000140: 7f7e 86bd 7414 2fbe e02e 22be 40a9 90be
00000150: b9f2 1fbe aea7 633e 44d2 773e ce2d 353e
00000160: c643 abbd 8ad4 afbd 39ab 443e 49ee 4a3e
00000170: e903 d63c 3d96 e63d 9795 813e f347 44be
00000180: 2941 30be e88c bd3d 18af 8fbe 3ec6 45be
00000190: 70dc 933d 79f2 dcbc 4798 f03c c151 843e
000001a0: b85d 2b3b 5632 1f3e 0529 ae3e b654 d0bd
000001b0: 755b 76be da44 86be d57b 003e d872 a53d
000001c0: 5947 853d 625b cabd 0a91 963d 6ecb 9bbe
000001d0: 2107 64be a66f 76bd cd6f 803e 7567 27be
000001e0: eee8 02bd 3f86 cc3d 8bc9 4cbc 18c7 1cbe
000001f0: 15bb 8bbe 4b43 143d 2822 1c3e a778 133e
00000200: 8f2e 91be 8abf 51be 58c6 04be 8641 783e
00000210: 30cc 1d3c 6fce 7b3c d774 ff3d da5f 88be
00000220: fddb 17be d7ae d13c 0095 71be 491b c93d
00000230: a98d 163e 5bec 09bb 8a78 723d f2dd 61be
00000240: 774d 623e 822d 05be 0b0e 01be 224e abbd
00000250: a653 8bbd 4d8a 6c3d 4f04 a53e c818 973e
00000260: 5f89 353d d439 a73e 9dea 9e3e e4a8 193e
00000270: db03 bfbb 6953 8ebd 5fe9 ebbd 8453 4a3e
00000280: 00fb 5f3e b4f5 fe3b 5a13 efbd 8d1e ee3d
00000290: e6e6 bcbe b29d 1ebd dfb4 fbbc 0b15 a93e
000002a0: 683f 583d b32c 30bd 7ac6 553e bdbd 093e
000002b0: 68d3 db3d 5608 6cbe d462 ecbd a68e c3bd
000002c0: 0933 39be 2975 a53d 5050 88be 2da2 99bd
000002d0: bdfb 54be 7957 98be 3fd2 a83d 6f26 35be
000002e0: 2cf1 a8bd 9705 923e 20b1 b8bc 7dce 61bd
000002f0: aaf0 a8bd b181 6bbe 96c3 5dbc 38ac 0ebd
00000300: 8b8f 27be 2e52 0cbc 5d9f d23d d13b 593e
00000310: 3695 863e 1f93 d83c 4297 f9bd 67ed 523e
00000320: 1bd2 ebbd 71b9 e5bd 7b8d c0bd 810f 5a3e
00000330: 10fd 5ebe 4e1b 45be df8d 36be d0e8 983d
00000340: 20ed bebd 879d fe3d 8a6c 853e 3400 80bd
00000350: f903 873c 054d 6e3e 116f 993c 3088 ba3d
00000360: 0c01 acbd 50c3 1d3d 9407 98be 797c 1a3e
00000370: a843 14be 5a19 e93c 1c03 cf3c 7a17 dabd
00000380: fe0c bebd 2878 193e d1d0 88bc b2d1 2abe
00000390: e784 5f3c cc0e 113e 28db f63d 810e 793e
000003a0: 0960 0f3e c4ab 833e 11e9 1cbe 6fc4 40be
000003b0: 9cac 82be 8733 8fbe cd86 9b3e 8741 9f3e
000003c0: bde1 4b3e ee11 203d 7f48 26be e8cf e6bd
000003d0: 7cbf 98bd a86a 09bb 2604 1fbd 7a02 ad3e
000003e0: c4d4 8ebc d011 2b3e 2167 1d3e 1b96 853d
000003f0: 9be4 583d debd 98bd 3bc4 13be 784f 893e

GRU_a.bias_ih_l0 f4 [48]
0.14206775 -0.10109043 -0.14145811 -0.17995007 0.01688067 -0.10352797 0.114666715 0.07622113
-0.2683417 -0.008444902 -0.06426614 0.095012374 0.17262138 0.17267549 -0.024119359 0.27317184
0.090994954 0.13281448 0.019632934 0.007248839 0.036986146 0.24111556 -0.24588102 -0.037959255
-0.13576704 -0.21532455 -0.3422627 0.021856885 -0.0902942 0.13442035 -0.24513763 -0.09760615
0.1369186 -0.1614731 -0.20976338 -0.16991393 0.1347931 0.10811989 0.3077289 0.21119474
0.099050336 0.19585454 0.1135719 0.055528946 -0.05579769 0.16978668 -0.115255356 0.20474553
00000000: 357a 113e 8008 cfbd 65da 10be d544 38be
00000010: 5549 8a3c 7906 d4bd 62d6 ea3d d319 9c3d
00000020: 1564 89be 7c5c 0abc f79d 83bd d995 c23d
00000030: a9c3 303e d8d1 303e f695 c5bc 2edd 8b3e
00000040: 905b ba3d 8500 083e 3fd5 a03c ab87 ed3b
00000050: c97e 173d ffe6 763e 3cc8 7bbe 2a7b 1bbd
00000060: 8406 0bbe 0a7e 5cbe 0e3d afbe 360d b33c
00000070: 2aec b8bd 7da5 093e 5c05 7bbe bce5 c7bd
00000080: 6434 0c3e 3459 25be 36cc 56be ebfd 2dbe
00000090: 3407 0a3e f66d dd3d a48e 9d3e 6f43 583e
000000a0: e7da ca3d 188e 483e 6298 e83d 5272 633d
000000b0: 1e8c 64bd 8fdc 2d3e 000b ecbd d0a8 513e

GRU_a.bias_hh_l0 f4 [48]
0.25685614 0.14401156 -0.19654147 -0.042203307 0.116442665 -0.16074152 0.30358887 0.24265386
-0.14916176 0.22282198 0.08771408 0.15805939 -0.13294756 -0.19921848 0.18202068 0.15457985
0.046313625 -0.0496931 0.12373598 -0.2789748 -0.04422033 0.23298906 0.16840336 -0.07033955
-0.23917983 -0.31033444 0.090178765 0.17393306 -0.015967423 -0.3152713 -0.18482286 0.16770744
-0.051751543 -0.16039264 0.08771023 -0.11714081 -0.040640514 -0.23466228 0.20358942 -0.19097291
-0.054592166 0.063583866 0.1732615 0.105782725 -0.014582185 -0.15015973 0.25618348 0.122419156
00000000: a682 833e c477 133e 2b42 49be 60dd 2cbd
00000010: 7e79 ee3d 6d99 24be 0070 9b3e 417a 783e
00000020: dcbd 18be 722b 643e 71a3 b33d 52da 213e
00000030: 6823 08be eeff 4bbe a163 3a3e 2e4a 1e3e
00000040: 5bb3 3d3d fe8a 4bbd 4a69 fd3d c9d5 8ebe
00000050: 6020 35bd af94 6e3e ee71 2c3e 2f0e 90bd
00000060: 8feb 74be 28e4 9ebe a5af b83d 821b 323e
00000070: 1dce 82bc 3d6b a1be 3442 3dbe 80bb 2b3e
00000080: 6df9 53bd f83d 24be 6ca1 b33d 85e7 efbd
00000090: ab76 26bd 4f4b 70be bf79 503e 678e 43be
000000a0: 099c 5fbd 4238 823d 766b 313e 9da4 d83d
000000b0: 1eea 6ebc 79c3 19be 7b2a 833e e5b6 fa3d

linear_a.weight f4 [4, 16]
0.2667587 0.08133674 0.01853776 -0.083963335 -0.22722687 -0.07927884 0.41667038 -0.06994118
-0.20273687 0.25892353 0.12193804 -0.17614377 -0.16888739 0.16162622 0.41389686 0.24945252
-0.5014873 -0.13893232 0.06170985 0.08621934 0.24378017 0.27431968 -0.065813765 -0.50344294
0.046999842 -0.19819792 -0.4420023 0.18807016 0.12627165 0.08310909 -0.40607178 -0.31388167
0.3157683 -0.12156695 0.108184695 0.1355013 0.1454391 -0.23295839 0.17552224 0.354338
-0.15208204 0.26193538 0.09177443 0.0902755 -0.15100716 0.13401009 0.10492388 0.047298763
-0.12897807 -0.20168507 -0.19563994 -0.0710395 0.13469167 -0.13653539 -0.08990561 -0.38924316
0.18132362 -0.37341326 -0.43858582 0.041971426 -0.18037151 0.25461164 -0.069437884 -0.42702293
00000000: 9994 883e e093 a63d 80dc 973c f8f4 abbd
00000010: 29ae 68be f25c a2bd d255 d53e 523d 8fbd
00000020: 419a 4fbe a091 843e a7ba f93d 085f 34be
00000030: d1f0 2cbe 5881 253e 4aea d33e 7b70 7f3e
00000040: 7961 00bf 4644 0ebe 78c3 7c3d c493 b03d
00000050: 82a1 793e a173 8c3e 5ec9 86bd a3e1 00bf
00000060: e882 403d 65f4 4abe 204e e2be 7795 403e
00000070: 5b4d 013e 1935 aa3d a4e8 cfbe 19b5 a0be
00000080: 62ac a13e 18f8 f8bd f08f dd3d dac0 0a3e
00000090: fded 143e a58c 6ebe 1abc 333e ca6b b53e
000000a0: 65bb 1bbe 651c 863e 3bf4 bb3d 5de2 b83d
000000b0: 9fa1 1abe f139 093e 55e2 d63d 59bc 413d
000000c0: d412 04be 8886 4ebe d655 48be 287d 91bd
000000d0: 9dec 093e efcf 0bbe 6f20 b8bd e14a c7be
000000e0: e6ac 393e 0630 bfbe 528e e0be 3bea 2b3d
000000f0: 4fb3 38be 755c 823e 7335 8ebd c0a2 dabe

linear_a.bias f4 [4]
0.20478807 -0.39117256 0.29150653 -0.3502547
00000000: f7b3 513e c547 c8be 5840 953e 9654 b3be

conv_v_0.weight f4 [16, 7, 3, 3]
-0.08449978 -0.08919345 -0.12201855 -0.091670714 -0.010587188 -0.11578631 -0.021368938 0.020622598
-0.009832942 0.012078668 -0.23111324 -0.18097682 0.072501004 -0.07521744 -0.21463469 0.086447105
0.024105532 0.022632474 -0.16541345 -0.14198306 0.054631773 -0.18654698 -0.25353017 -0.22431482
-0.18117267 -0.31253088 -0.23715667 0.014989821 -0.013194234 0.06105865 -0.09762295 -0.14376906
-0.18592656 -0.09602151 -0.035431303 0.002049668 0.11679437 -0.010936601 0.07189227 -0.10828496
-0.03148118 -0.027166087 0.13225812 -0.040215373 0.01694204 0.026253298 0.020699779 -0.1734172
0.076811016 0.06295492 0.035934478 -0.008743177 0.045910962 -0.036822848 -0.16047946 -0.14020899
-0.054036424 0.01090555 -0.07786512 0.054919686 -0.16010383 -0.0013499319 0.0021622998 -0.0009331043
-0.016545827 -0.09479649 -0.03188139 0.11214297 0.18552482 0.03946355 0.122767605 -0.06703581
0.0158589 -0.16055836 0.04184988 0.08950665 -0.008560354 0.01814903 0.06212802 0.10470712
0.07604591 0.13336657 0.009981893 0.08873214 0.21156572 0.08134482 0.098221704 -0.012717622
-0.033995356 -0.14273301 0.10363974 0.078324884 0.15182649 0.119217016 -0.041264903 0.12659469
0.12788336 -0.117485166 -0.13283376 0.13383009 0.015008266 0.007892563 -0.016135609 0.0993661
0.15028472 0.11554559 0.043683544 0.12175246 -0.20781417 -0.213894 -0.07589811 0.011038882
-0.15741587 -0.02306156 -0.22695649 -0.034873977 -0.07614952 -0.039112896 -0.074615456 0.085446596
0.08452819 -0.13296099 -0.12943883 0.019884082 -0.015226074 0.053258575 -0.13283578 -0.14070895
-0.12441137 0.098606 -0.20644848 0.055576716 0.0752461 0.12059777 0.092720926 0.05861924
-0.034015987 0.05406045 0.042327803 -0.03390411 0.048984922 0.031101365 -0.07216059 0.010089054
-0.25889453 -0.19553119 -0.24365215 -0.21116316 -0.08700989 -0.24026202 0.07332438 -0.09296345
-0.028278397 0.0776086 0.05723426 -0.1064476 -0.18193163 0.028662477 -0.10978877 0.035484
0.03670401 -0.0010462437 0.04655593 -0.11354851 -0.086213656 -0.07753449 -0.07764446 -0.047170762
-0.046630457 -0.022763414 -0.14887576 -0.12445675 0.04045943 -0.07105099 0.103669874 0.08467566
0.028888943 -0.11861293 0.050404135 -0.02694914 0.05014583 0.049358964 -0.02508665 -0.008480098
-0.10968743 -0.09669237 -0.079988815 -0.0074549858 0.09074905 0.0480135 0.10387648 -0.3094222
0.12715696 0.17931785 -0.30741212 0.16683692 -0.021907292 -0.060701005 0.011257744 0.08889552
0.087986715 -0.054683406 0.10598361 0.17440008 -0.14053819 -0.102354646 -0.17218108 -0.07510424
0.013513219 -0.115002595 -0.012839716 -0.12963845 -0.113536306 -0.10620505 -0.32191914 0.17902036
0.21010223 0.09539697 0.14404105 -0.00900073 -0.038928546 0.016775532 -0.029564006 -0.28408635
-0.114664815 -0.1606427 -0.11181104 -0.2106606 -0.0815554 -0.039238073 -0.19842125 -0.060150206
-0.053506967 -0.12172297 -0.11639655 0.04232066 -0.007266961 0.014973705 -0.018083977 0.06424595
0.07715011 -0.103362694 0.040767662 -0.07382507 -0.024825204 0.17335355 0.090348 0.021272536
0.09082498 0.10722902 0.11158735 0.023752473 -0.007232809 0.14903492 -0.02836952 0.045176372
00000000: 380e adbd 0eab b6bd dde4 f9bd dbbd bbbd
00000010: e375 2dbc 5f21 edbd e90d afbc b9f0 a83c
00000020: 591a 21bc 9be5 453c f3a8 6cbe fd51 39be
00000030: 687b 943d 9a0b 9abd 32c9 5bbe 2e0b b13d
00000040: f778 c53c bd67 b93c 2562 29be 0264 11be
00000050: 91c5 5f3d 2c06 3fbe b5ce 81be c9b2 65be
00000060: 5485 39be 0c04 a0be 33d9 72be de97 753c
00000070: a12c 58bc a318 7a3d 8bee c7bd 3238 13be
00000080: 8863 3ebe eda6 c4bd 6a20 11bd b953 063b
00000090: e331 ef3d 6e2f 33bc 413c 933d 81c4 ddbd
000000a0: 69f2 00bd 6a8b debc ac6e 073e e0b8 24bd
000000b0: 08ca 8a3c 2811 d73c 9592 a93c 4794 31be
000000c0: 184f 9d3d 82ee 803d 0830 133d 8b3f 0fbc
000000d0: 220d 3c3d 8ed3 16bd ba54 24be f292 0fbe
000000e0: 4c55 5dbd 31ad 323c bf77 9fbd 77f3 603d
000000f0: 42f2 23be 33f0 b0ba 5fb5 0d3b 929b 74ba
00000100: 1d8b 87bc aa24 c2bd 0f96 02bd 37ab e53d
00000110: 38fa 3d3e 88a4 213d 956d fb3d 124a 89bd
00000120: 86ea 813c 6969 24be c86a 2b3d 434f b73d
00000130: ba40 0cbc 46ad 943c f379 7e3d b070 d63d
00000140: f5bd 9b3d 3f91 083e 188b 233c 32b9 b53d
00000150: afa4 583e 1d98 a63d 7628 c93d 935d 50bc
00000160: b73e 0bbd 9a28 12be 1241 d43d cc68 a03d
00000170: 6778 1b3e 0d28 f43d 6305 29bd 0aa2 013e
00000180: dbf3 023e 109c f0bd 9305 08be c10a 093e
00000190: 3be5 753c cf4f 013c d32e 84bc 7480 cb3d
000001a0: 3de4 193e 2ba3 ec3d 84ed 323d 5b59 f93d
000001b0: 3dcd 54be 0707 5bbe 7870 9bbd 6ddc 343c
000001c0: a031 21be 99eb bcbc 4867 68be 04d8 0ebd
000001d0: 48f4 9bbd d834 20bd fdcf 98bd a0fe ae3d
000001e0: 1e1d ad3d ed26 08be 9d8b 04be f1e3 a23c
000001f0: c876 79bc aa25 5a3d 1a06 08be 0216 10be
00000200: 63cb febd f1f1 c93d 3b67 53be 69a4 633d
00000210: a11a 9a3d f7fb f63d 78e4 bd3d ba1a 703d
00000220: 5954 0bbd 7e6e 5d3d eb5f 2d3d 09df 0abd
00000230: 6aa4 483d 4ac8 fe3c eec8 93bd 8f4c 253c
00000240: d38d 84be 5439 48be f37f 79be 283b 58be
00000250: 3e32 b2bd 3f07 76be 182b 963d 9f63 bebd
00000260: 19a8 e7bc 42f1 9e3d 796e 6a3d 3301 dabd
00000270: 494c 3abe 92cd ea3c efd8 e0bd ac57 113d
00000280: f256 163d 1d22 89ba 6eb1 3e3d 1f8c e8bd
00000290: c990 b0bd 67ca 9ebd 0f04 9fbd 2136 41bd
000002a0: 94ff 3ebd 577a babc e372 18be 2ee3 febd
000002b0: cab8 253d 2e83 91bd df50 d43d 6f6a ad3d
000002c0: 81a8 ec3c 56eb f2bd 9174 4e3d 71c4 dcbc
000002d0: b765 4d3d a02c 4a3d 8582 cdbc 1cf0 0abc
000002e0: cea3 e0bd a606 c6bd 2dd1 a3bd f448 f4bb
000002f0: a3da b93d cea9 443d 31bd d43d 966c 9ebe
00000300: 6f35 023e 199f 373e 1f65 9dbe 4cd7 2a3e
00000310: ec76 b3bc 9ea1 78bd 6772 383c db0e b63d
00000320: 6132 b43d b5fb 5fbd ef0d d93d ef95 323e
00000330: 3ee9 0fbe 509f d1bd 3d50 30be 40d0 99bd
00000340: 8c66 5d3c 7b86 ebbd ac5d 52bc f1bf 04be
00000350: b985 e8bd 0982 d9bd 96d2 a4be 1d51 373e
00000360: 0a25 573e 7d5f c33d 7f7f 133e cc77 13bc
00000370: 8a73 1fbd d76c 893c 3730 f2bc c473 91be
00000380: 63d5 eabd 857f 24be 30fd e4bd 6ab7 57be
00000390: 8406 a7bd 1ab8 20bd f12e 4bbe 1060 76bd
000003a0: 1f2a 5bbd e449 f9bd 5061 eebd 6e58 2d3d
000003b0: b01f eebb 4554 753c d924 94bc 6193 833d
000003c0: e000 9e3d d2af d3bd fefb 263d 9931 97bd
000003d0: 3a5e cbbc 9883 313e 5f08 b93d be43 ae3c
000003e0: 7202 ba3d e39a db3d e987 e43d 8c94 c23c
000003f0: 3301 edbb 9c9c 183e 3267 e8bc dc0a 393d

conv_v_0.bias f4 [16]
0.08737153 -0.09127178 0.062024787 -0.003717474 0.010277965 0.18701427 -0.027475914 -0.041762765
-0.08040717 0.102508366 -0.047599096 -0.032183897 -0.11172524 -0.09837775 -0.03391846 -0.026193356
00000000: d8ef b23d b3ec babd b40d 7e3d dda0 73bb
00000010: e964 283c ab80 3f3e 2b15 e1bc 6f0f 2bbd
00000020: 84ac a4bd e8ef d13d 45f7 42bd 43d3 03bd
00000030: 34d0 e4bd 467a c9bd 15ee 0abd 7393 d6bc

conv_v_1.weight f4 [16, 16, 3, 3]
0.17433119 0.0076509095 0.05586648 0.13253309 0.17339525 0.10115719 0.08955114 0.16293001
0.15065439 -0.055395503 -0.010997692 0.010386936 -0.0026488898 -0.032701373 0.08201945 -0.09608829
-0.08921882 -0.06459827 0.082198 0.0195229 0.028452778 0.1376957 0.025418453 0.0097950185
0.08749365 0.15764329 0.040805668 0.03115233 0.049585618 0.018209253 -0.093702205 0.038807925
-0.056512933 -0.043331586 -0.031876758 0.04705408 0.13481079 0.13796487 0.117838986 0.17606853
0.087640114 0.15268634 0.23088567 0.21808033 0.23826961 -0.05299942 -0.053977184 -0.09586491
-0.08164695 -0.016847387 0.0010708312 -0.018112294 0.015936805 -0.11929339 0.08398671 0.0440192
0.094782114 0.025041739 0.117516875 0.16657181 0.053011756 0.053955276 0.04761982 0.18832895
0.1731616 0.026642544 0.15705895 0.16911094 0.056422845 0.083317146 0.14602812 0.072457105
0.22347872 0.22694084 0.086195044 0.20832114 0.19805071 0.16898015 0.21568011 0.18506427
0.1622627 0.020391056 -0.004925849 -0.039610703 -0.002624825 -0.01353634 0.00718263 0.056769826
-0.030820562 -0.043474033 0.10945797 0.13553695 0.10477263 0.07517038 0.06228108 0.1418309
0.19264713 0.119797 0.029378591 0.18980552 0.059034966 0.18490846 0.14041647 0.19168656
0.13884237 0.08952897 0.09281749 0.10079646 0.30135435 0.2536334 0.26288462 0.26669204
0.15751329 0.19305938 0.19258672 0.14425878 0.2921118 0.011317535 0.051508773 0.11649071
0.027287543 0.13265881 0.15964757 0.009184591 0.09977648 0.11141204 0.02116181 -0.011066716
-0.026479382 0.0057461127 0.05761924 0.12773937 0.08866547 0.079074524 0.11433591 0.0890299
0.04833034 0.13452438 0.117913574 0.10408304 0.11620386 0.13183208 0.089543454 0.15224317
0.016922994 0.07285166 0.0991221 -0.042474594 0.049277652 0.09590419 0.025578268 0.08476056
0.07470879 -0.0047842725 0.098296165 -0.037224114 -0.008390868 -0.001350078 0.04461954 0.00581746
0.081717744 0.060967613 0.08639628 0.051502284 0.025863118 0.07969925 -0.01710976 0.059182197
-0.049893025 0.04965016 0.05972129 -0.034745503 -0.016793542 -0.1535524 -0.09405255 -0.099034436
-0.035931323 -0.10217068 -0.11848117 -0.114677094 0.018382035 -0.030452104 -0.02873212 0.06045774
0.13879877 0.03568179 0.049834363 0.06719205 -0.013289594 -0.03260017 -0.0014867757 0.045284014
-0.026800627 -0.09489656 -0.09575857 -0.0017300087 0.020876832 -0.08085228 0.12769337 0.094932094
0.09503368 0.1118802 -0.019875731 0.051604945 0.07940874 0.06840741 0.15622836 0.056644406
0.034668963 0.0017090483 0.041897856 0.11717384 -0.016177168 -0.0048343968 0.06375813 -0.036565945
0.15070324 0.17244223 0.17134428 0.07591991 0.136018 0.13162175 0.06380559 0.17904416
0.044610903 -0.0047067865 -0.08961091 0.038523607 -0.09557726 -0.10835521 -0.027348923 0.02794601
-0.057358403 -0.029908942 -0.0077899606 0.1162853 0.15227446 0.08379039 0.01117683 0.110267304
0.054106593 0.05956559 0.16873895 0.071369804 -0.04153062 0.016574556 0.042861413 0.07029479
0.014220751 -0.008864467 0.07151474 -0.0135460915 0.109547146 0.17684034 0.22847201 0.14761207
00000000: e083 323e 7bb4 fa3b 40d4 643d c1b6 073e
00000010: 868e 313e 802b cf3d 9766 b73d 20d7 263e
00000020: 2545 1a3e 65e6 62bd aa2f 34bc f82d 2a3c
00000030: ff98 2dbb e0f1 05bd d0f9 a73d f0c9 c4bd
00000040: 5bb8 b6bd 194c 84bd 6d57 a83d 7dee 9f3c
00000050: cd15 e93c 1a00 0d3e 5c3a d03c 497b 203c
00000060: df2f b33d 3e6d 213e d823 273d 2c33 ff3c
00000070: 4a1a 4b3d 922b 953c f1e6 bfbd 0ff5 1e3d
00000080: 1b7a 67bd 767c 31bd 3491 02bd c7bb 403d
00000090: d70b 0a3e aa46 0d3e 9155 f13d 4f4b 343e
000000a0: a97c b33d cf59 1c3e 4b6d 6c3e 7350 5f3e
000000b0: f3fc 733e eb15 59bd 2e17 5dbd d254 c4bd
000000c0: 8436 a7bd 8803 8abc 225b 8c3a 3c60 94bc
000000d0: e78d 823c 1850 f4bd 3901 ac3d 7a4d 343d
000000e0: 201d c23d 5524 cd3c b0ac f03d cd91 2a3e
000000f0: db22 593d 3500 5d3d 000d 433d 4ed9 403e
00000100: 4651 313e 7741 da3c 10d4 203e 6b2b 2d3e
00000110: a41b 673d 2ea2 aa3d 6588 153e 6464 943d
00000120: 9bd7 643e 2e63 683e 0787 b03d 2352 553e
00000130: cecd 4a3e 2209 2d3e 3fdb 5c3e 7d81 3d3e
00000140: 3128 263e 250b a73c 0469 a1bb d53e 22bd
00000150: 4205 2cbb 86c7 5dbc 445c eb3b 7a87 683d
00000160: 677b fcbc d411 32bd 802b e03d 33ca 0a3e
00000170: 0893 d63d eef2 993d 721a 7f3d 1f3c 113e
00000180: 4a45 453e 2158 f53d 5fab f03c 615c 423e
00000190: a6ce 713d a558 3d3e 56c9 0f3e 7b49 443e
000001a0: b22c 0e3e f75a b73d 1917 be3d 606e ce3d
000001b0: 1e4b 9a3e 3ddc 813e d098 863e dc8b 883e
000001c0: 2a4b 213e 5cb1 453e 7435 453e 93b8 133e
000001d0: ae8f 953e 2f6d 393c ddfa 523d ae92 ee3d
000001e0: 208a df3c b6d7 073e a77a 233e f77a 163c
000001f0: 9c57 cc3d ff2b e43d 885b ad3c 2c51 35bc
00000200: 4aeb d8bc e349 bc3b 2702 6c3d 1cce 023e
00000210: 3e96 b53d d3f1 a13d f228 ea3d 4f55 b63d
00000220: 09f6 453d c2c0 093e ac7c f13d 7d29 d53d
00000230: 4afc ed3d fdfe 063e 8f62 b73d a2e5 1b3e
00000240: 17a2 8a3c 4033 953d 8700 cb3d d7f9 2dbd
00000250: 5dd7 493d 6a69 c43d 8489 d13c f296 ad3d
00000260: ec00 993d 63c5 9cbb 804f c93d 5078 18bd
00000270: da79 09bc 1af5 b0ba fbc2 363d 64a0 be3b
00000280: a25b a73d 2db9 793d 88f0 b03d 0ff4 523d
00000290: e4de d33c 5c39 a33d c429 8cbc 0869 723d
000002a0: a15c 4cbd f75d 4b3d 509e 743d 4d51 0ebd
000002b0: 9c92 89bc d73c 1dbe a09e c0bd 91d2 cabd
000002c0: b92c 13bd dd3e d1bd 41a6 f2bd d3db eabd
000002d0: ec95 963c b176 f9bc 9f5f ebbc 89a2 773d
000002e0: 4421 0e3e 1227 123d 1e1f 4c3d fc9b 893d
000002f0: 99bc 59bc c187 05bd eadf c2ba bb7b 393d
00000300: fd8c dbbc 2159 c2bd 121d c4bd 76c1 e2ba
00000310: e405 ab3c e195 a5bd 0dc2 023e c26b c23d
00000320: 05a1 c23d 7221 e53d 6ed2 a2bc b55f 533d
00000330: 0da1 a23d 2f19 8c3d 54fa 1f3e f703 683d
00000340: 0b01 0e3d 2502 e03a 169d 2b3d d7f8 ef3d
00000350: fb85 84bc dc69 9ebb 9f93 823d 2cc6 15bd
00000360: f351 1a3e b294 303e e074 2f3e e67b 9b3d
00000370: 4d48 0b3e dac7 063e 81ac 823d 5a57 373e
00000380: ecb9 363d 633b 9abb ed85 b7bd eeca 1d3d
00000390: 03be c3bd 56e9 ddbd d90a e0bc 08ef e43c
000003a0: a5f0 6abd 9903 f5bc ed42 ffbb fd26 ee3d
000003b0: d6ed 1b3e 4c9a ab3d 061f 373c d3d3 e13d
000003c0: e09e 5d3d 0cfb 733d e7c9 2c3e 552a 923d
000003d0: 031c 2abd 5dc7 873c 738f 2f3d b7f6 8f3d
000003e0: 27fe 683c 453c 11bc 5276 923d 6df0 5dbc
000003f0: 415a e03d a215 353e 91f4 693e 9e27 173e

conv_v_1.bias f4 [16]
0.016230417 0.01603252 -0.09533141 -0.07822726 0.019410415 -0.04213005 -0.053885777 0.046601564
-0.05754883 -0.017114919 -5.6395125e-05 0.025811985 0.029927287 -0.06423496 0.09139383 -0.017765936
00000000: a7f5 843c a256 833c 1d3d c3bd 9d35 a0bd
00000010: 9702 9f3c 8f90 2cbd 55b7 5cbd 48e1 3e3d
00000020: 52b8 6bbd 9634 8cbc ce89 6cb8 a873 d33c
00000030: 122a f53c 9e8d 83bd b02c bb3d de89 91bc
