league/checkpoints/mfos_seeds/new_self_4x4_63/950_0.pth (torch, 365518 bytes, 105 tensors)

conv_a_0.weight f4 [16, 7, 3, 3]
0.2151849 0.10607472 0.03814758 0.04398121 -0.020566223 0.038967814 0.14644827 0.043065216
0.07265924 0.04553422 -0.060468275 -0.13470736 0.0960172 0.06527032 -0.058551013 0.19623059
0.090618126 0.12510933 0.15930626 0.074540436 0.15126579 0.06215242 0.113222264 0.099040434
0.21154127 0.083520316 0.14722237 0.112894855 0.18688439 -0.031024903 0.032348584 0.07526008
0.1804147 0.16538101 0.13567667 0.095920295 0.055080507 0.021909889 0.069924444 -0.15962814
0.08038988 -0.031148655 -0.091257624 -0.079449944 -0.024801744 -0.09690439 0.10584242 -0.026243815
0.004124787 0.03854408 -0.013748563 -0.11997398 0.12177785 -0.12049787 -0.046061262 -0.13107719
-0.13222045 -0.012101072 0.044004694 -0.19995989 -0.13814777 -0.11121779 -0.115844354 0.13330361
0.042367782 0.058213916 0.104782335 -0.01428996 0.05600199 0.16237397 0.07323395 -0.046763297
-0.071957745 0.047781356 -0.038155522 0.05051503 -0.048156843 0.12408788 0.122810416 0.0077307182
0.021672418 0.1463427 -0.08237124 0.07646673 -0.089414135 0.16660376 0.010692806 0.13385583
-0.05148074 0.045734193 0.037922192 0.0072893105 0.21595095 0.0006824544 0.009711837 -0.047805198
0.13690183 0.01951944 0.25954837 -0.11549869 0.0880103 -0.0022575457 -0.10581662 0.078163385
0.054639187 -0.09199554 0.06836567 -0.072873935 0.055203434 -0.0037101787 0.047862466 0.013205472
0.05993249 0.013136679 -0.12618516 0.09629882 0.018294811 -0.16265622 -0.05077294 -0.055249497
-0.021779364 -0.20804909 -0.09933087 -0.03429424 -0.023605749 -0.09749176 0.22485213 0.079275355
0.087787956 -0.03150884 0.18610093 0.07118471 0.16998819 0.11092955 0.076058514 0.1289278
0.09315378 0.21412162 0.25258744 0.11414182 0.13565779 0.07786317 0.27525502 0.20453654
0.02277178 0.14631175 0.02955002 -0.14045396 0.00818141 0.0079184305 0.10719132 0.009228368
0.18951419 0.094683625 0.14853247 0.10153919 0.10037106 0.26636535 0.21999544 0.043296777
0.079806864 0.105820544 0.046922714 0.012660742 0.16807708 0.059340455 0.0596394 0.12157226
0.028176524 -0.015394254 0.15708333 0.042989135 0.009553925 -0.006916931 0.06478899 -0.012957405
-0.05881378 -0.035595182 -0.06357717 -0.09308279 0.12642714 -0.09096546 -0.0517307 0.027775532
0.13936874 -0.10559668 0.063322745 0.12564076 -0.033161893 0.22875938 0.0068627875 0.24168816
-0.03843954 0.039773338 -0.07272284 0.14294712 0.023625476 -0.015052232 0.06161807 0.0038157133
0.16416064 0.032109607 -0.11305503 -0.02681129 0.16429327 0.09660657 0.110516384 0.060411513
0.09513869 0.11299725 -0.11571685 0.021450415 -0.13340563 0.07941347 0.15376614 0.12594643
0.17237669 0.017523397 0.08658782 -0.01698008 0.18872684 -0.07225608 0.14977603 0.28296235
0.09994611 0.041994058 -0.069114774 -0.111667305 -0.09473081 0.07861259 0.0968578 -0.040771462
0.10874174 -0.020799233 -0.014905345 -0.04624744 0.0103707 -0.08058673 -0.09690393 0.09608484
-0.026136389 -0.09273444 0.114440516 -0.160773 -0.054227076 -0.10899222 -0.03682281 -0.100862525
-0.20260325 -0.1820659 -0.016215976 -0.05211627 0.36744538 0.11151954 0.18300624 0.17622861
00000000: 6e59 5c3e b43d d93d a340 1c3d a425 343d
00000010: 7f7a a8bc b79c 1f3d 89f6 153e 2765 303d
00000020: 5ece 943d 1782 3a3d 95ad 77bd baf0 09be
00000030: aaa4 c43d 72ac 853d 30d3 6fbd acf0 483e
00000040: ff95 b93d a91c 003e 2e21 233e a8a8 983d
00000050: 6be5 1a3e 8993 7e3d 13e1 e73d b6d5 ca3d
00000060: 469e 583e b30c ab3d 76c1 163e 6b35 e73d
00000070: 9f5e 3f3e f027 febc f37f 043d f521 9a3d
00000080: a2be 383e a459 293e d3ee 0a3e dc71 c43d
00000090: 199c 613d 5e7c b33c 8c34 8f3d 8f75 23be
000000a0: 73a3 a43d 772b ffbc 47e5 babd a7b6 a2bd
000000b0: 072d cbbc cf75 c6bd e9c3 d83d 45fd d6bc
000000c0: 3929 873b 66e0 1d3d a741 61bc ebb4 f5bd
000000d0: aa66 f93d 96c7 f6bd bcaa 3cbd 1939 06be
000000e0: cc64 07be 9343 46bc 443e 343d 49c2 4cbe
000000f0: 9c76 0dbe 27c6 e3bd ce3f edbd be80 083e
00000100: d789 2d3d b771 6e3d 1f98 d63d 7020 6abc
00000110: 5862 653d 5d45 263e aefb 953d df8a 3fbd
00000120: 955e 93bd 62b6 433d f748 1cbd d9e8 4e3d
00000130: 1c40 45bd c921 fe3d 0784 fb3d f751 fd3b
00000140: 5b8a b13c dcda 153e 41b2 a8bd 979a 9c3d
00000150: c21e b7bd 2d9a 2a3e e130 2f3c 8111 093e
00000160: 78dd 52bd c753 3b3d 4d54 1b3d 2bdb ee3b
00000170: 3f22 5d3e bde6 323a 661e 1f3c 62cf 43bd
00000180: fe2f 0c3e 3ce7 9f3c 86e3 843e 948a ecbd
00000190: bf3e b43d 55f3 13bb 62b6 d8bd 2014 a03d
000001a0: 57cd 5f3d 2868 bcbd 4d03 8c3d ee3e 95bd
000001b0: ff1c 623d 7826 73bb 6f0b 443d c45b 583c
000001c0: c57b 753d 3a3b 573c af36 01be 5138 c53d
000001d0: 00df 953c 5a8f 26be 49f7 4fbd 4c4d 62bd
000001e0: a36a b2bc d20a 55be fc6d cbbd 1e78 0cbd
000001f0: d860 c1bc c3a9 c7bd a33f 663e 1e5b a23d
00000200: 2cca b33d 6a0f 01bd 3e91 3e3e 4ac9 913d
00000210: 6211 2e3e 082f e33d 91c4 9b3d a605 043e
00000220: 69c7 be3d b342 5b3e 2453 813e 30c3 e93d
00000230: e0e9 0a3e ba76 9f3d 3aee 8c3e 0772 513e
00000240: e28b ba3c bfd2 153e e212 f23c 2ad3 0fbe
00000250: 520b 063c 4ebc 013c 1f87 db3d 9532 173c
00000260: 0210 423e 7de9 c13d e518 183e c7f3 cf3d
00000270: 588f cd3d 0a61 883e 7c46 613e f657 313d
00000280: c871 a33d 71b8 d83d 0832 403d 006f 4f3c
00000290: 661c 2c3e fa0e 733d 7248 743d e1fa f83d
000002a0: 74d2 e63c 2e38 7cbc 74da 203e 6015 303d
000002b0: 1188 1c3c 6ca7 e2bb 17b0 843d 4c4b 54bc
000002c0: b8e6 70bd 41cc 11bd bf34 82bd 31a2 bebd
000002d0: 1e76 013e 194c babd 92e3 53bd 8389 e33c
000002e0: aeb6 0e3e 1243 d8bd 5baf 813d f9a7 003e
000002f0: c4d4 07bd e63f 6a3e 3ce1 e03b 1a7d 773e
00000300: c772 1dbd 5ee9 223d b6ef 94bd bb60 123e
00000310: 378a c13c a39d 76bc 3b63 7c3d 0c11 7a3b
00000320: ba19 283e 5d85 033d 6589 e7bd 5aa3 dbbc
00000330: 7f3c 283e aad9 c53d 6a56 e23d 1072 773d
00000340: 13d8 c23d 1a6b e73d f5fc ecbd c8b8 af3c
00000350: 7c9b 08be 88a3 a23d df74 1d3e 1af8 003e
00000360: 8483 303e 3a8d 8f3c f454 b13d cf19 8bbc
00000370: 9c41 413e fffa 93bd e35e 193e 71e0 903e
00000380: 8cb0 cc3d f601 2c3d 0c8c 8dbd d4b1 e4bd
00000390: 3a02 c2bd a3ff a03d 625d c63d faff 26bd
000003a0: fdb3 de3d 2763 aabc 8c35 74bc f56d 3dbd
000003b0: dee9 293c a80a a5bd 9175 c6bd 21c8 c43d
000003c0: fb1b d6bc 8eeb bdbd ca5f ea3d ada1 24be
000003d0: 361d 5ebd 5037 dfbd 84d3 16bd 0391 cebd
000003e0: 3a77 4fbe 7c6f 3abe 5ed7 84bc df77 55bd
000003f0: cd21 bc3e 5b64 e43d fd65 3b3e 4675 343e

conv_a_0.bias f4 [16]
0.13787407 0.16283602 0.25954762 0.18212597 0.19305734 0.03308671 0.03200913 0.13853064
-0.1255545 0.0021586285 0.041323926 0.058779053 -0.07898205 0.032412477 0.16058323 -0.0033382946
00000000: dc2e 0d3e 7cbe 263e 6de3 843e 3b7f 3a3e
00000010: d3b0 453e ee85 073d 011c 033d fada 0d3e
00000020: 5c91 00be c777 0d3b 4743 293d 4ec2 703d
00000030: 57c1 a1bd f2c2 043d ee6f 243e 4ac7 5abb

conv_a_1.weight f4 [16, 16, 3, 3]
0.12158208 0.111322105 0.19373766 0.036053624 0.127129 0.09138978 0.12898639 0.17151326
0.076923504 -0.0031489297 -0.02374723 0.008979183 -0.022796854 0.103087775 0.042625245 0.007941435
0.1373843 0.06057846 0.16921337 0.17562181 0.08834492 0.16274069 0.08145886 0.12101371
0.06859563 0.13745768 0.09332038 0.1980779 0.163448 0.07196404 0.047244854 0.06926824
-0.0143853435 0.18436085 0.07733527 0.1361763 0.09316008 0.18756185 0.11061542 0.031122869
0.011533327 0.0016334078 0.117476076 0.12045211 0.16221267 0.06927131 0.0075429725 0.16508794
0.04064734 -0.06752916 0.025469854 0.11149623 0.15808189 0.15446274 0.17096286 0.15195855
0.14338467 0.010984064 0.13840726 0.03901256 0.15438564 0.07187245 0.043727607 0.16475198
0.11198083 0.0759969 0.06255898 0.01779918 -0.0072472002 0.110429175 0.13679473 0.1766439
0.063584745 0.036094673 0.005553319 -0.056049984 -0.034914583 0.015257312 -0.008634289 0.11359979
-0.034783475 -0.0043261764 0.059858117 0.047308773 0.1360571 0.05993591 0.13229579 0.031025544
-0.02616523 0.1136405 0.13040695 0.09611765 0.079317056 0.028308608 -0.016441131 0.08618402
0.14802691 0.0948496 0.12600823 0.03175462 -0.012322517 -0.01622554 -0.01980395 0.039596457
0.016704665 0.0013046984 0.0822101 0.07552802 -0.05242238 0.00019690351 0.025723096 -0.027998108
0.019120462 -0.04713793 0.0039054865 -0.07892949 0.037150443 0.16377673 0.11434821 0.19876112
0.03292107 0.027808119 0.08679093 0.14822313 0.032511737 0.06230708 0.21882318 0.24100497
0.21828452 0.15562141 0.0725765 0.08928614 0.08412907 0.18042545 0.13906802 0.043742314
0.044375278 0.05590134 0.08510573 0.04948225 0.035399076 0.16141808 0.08373037 0.025709553
0.0172349 0.19214934 0.075556554 0.03946298 0.14614119 0.13369463 0.03223263 0.17113897
0.1177692 -0.024948128 -0.031431064 0.07381585 0.12639065 -0.009774031 0.09400806 -0.035263233
-0.02723466 0.050222673 0.10020663 0.22147672 0.081587784 0.25469872 0.12649487 0.21720152
0.09715425 0.20222633 0.24036616 0.099627316 0.056238383 0.042025793 0.108177155 0.06540233
0.12455623 0.0325608 0.1214148 0.11356429 0.06659799 0.1512256 0.19887072 0.17491356
0.095103234 0.21347032 0.088786945 0.1202032 0.094054006 0.12579904 0.08640427 0.04969652
0.059027314 0.02110534 0.12073373 -0.018796934 0.025466815 0.021801833 0.12914538 0.18224205
0.035027307 0.17589998 0.16762395 0.16722979 0.12684141 0.06187952 0.16061172 0.1574781
0.13697883 0.14729993 0.08554622 0.016316967 0.19288686 0.1114586 0.05430975 0.05373902
0.025891112 -0.027910966 -0.10003948 0.016180359 -0.028831802 0.08455951 -0.09875976 0.036823776
-0.07051636 -0.018384183 -0.032565076 -0.036146045 0.0077659073 -1.4662852e-05 -0.025881102 -0.047294714
-0.0424183 -0.06057468 0.043136973 0.07587775 0.12477594 0.037955374 0.031605843 0.081622474
0.06556273 0.031290885 -0.010974772 0.07065223 -0.0125916125 0.015076613 0.016139206 0.0979212
-0.046299923 0.01513392 0.096342325 0.06346197 0.06078597 0.059068322 -0.0791966 0.018506886
00000000: 0700 f93d d8fc e33d 2a63 463e f7ac 133d
00000010: 1b2e 023e 912a bb3d 0215 043e 2ca1 2f3e
00000020: 128a 9d3d 465e 4ebb 8d89 c2bc 6c1d 133c
00000030: 78c0 babc af1f d33d cf97 2e3d cb1c 023c
00000040: 78ae 0c3e 1f21 783d 4546 2d3e 34d6 333e
00000050: 2eee b43d 7fa5 263e e7d3 a63d 09d6 f73d
00000060: de7b 8c3d b5c1 0c3e c11e bf3d efd4 4a3e
00000070: ea5e 273e e261 933d d283 413d 82dc 8d3d
00000080: 81b0 6bbc 17c9 3c3e f461 9e3d cd71 0b3e
00000090: b6ca be3d 3710 403e 568a e23d 63f5 fe3c
000000a0: 48f6 3c3c 1218 d63a 4c97 f03d 99af f63d
000000b0: 141b 263e 1ede 8d3d 0a2b f73b d00c 293e
000000c0: d37d 263d ba4c 8abd 28a6 d03c 2358 e43d
000000d0: 38e0 213e 7b2b 1e3e e310 2f3e 069b 1b3e
000000e0: 6ed3 123e 81f6 333c a2ba 0d3e a2cb 1f3d
000000f0: 4517 1e3e dd31 933d b81b 333d beb4 283e
00000100: 3556 e53d 43a4 9b3d ec1e 803d 96cf 913c
00000110: ec79 edbb b128 e23d eb13 0c3e 23e2 343e
00000120: b838 823d 02d8 133d 9ef8 b53b ab94 65bd
00000130: 9802 0fbd cef9 793c d576 0dbc 02a7 e83d
00000140: 1e79 0ebd 99c2 8dbb c92d 753d d8c6 413d
00000150: 8d52 0b3e 5b7f 753d 8c78 073e 4829 fe3c
00000160: 7758 d6bc 5abc e83d 6689 053e 55d9 c43d
00000170: fb70 a23d 74e7 e73c 8daf 86bc 3f81 b03d
00000180: 5e94 173e 8240 c23d 4d08 013e 2211 023d
00000190: 62e4 49bc 6ceb 84bc e53b a2bc e52f 223d
000001a0: 39d8 883c 6a02 ab3a c55d a83d 6fae 9a3d
000001b0: d9b8 56bd e277 4e39 3eb9 d23c 4a5c e5bc
000001c0: 84a2 9c3c b413 41bd 31f3 7f3b c9a5 a1bd
000001d0: 102b 183d 16b5 273e 652f ea3d 0988 4b3e
000001e0: 3ed8 063d dacd e33c 71bf b13d cec7 173e
000001f0: 072b 053d b535 7f3d 2f13 603e 02ca 763e
00000200: fa85 5f3e 385b 1f3e fda2 943d a7db b63d
00000210: dd4b ac3d 73c1 383e d967 0e3e 242b 333d
00000220: dac2 353d cef8 643d ea4b ae3d e6ad 4a3d
00000230: 9ffe 103d c84a 253e d47a ab3d d79c d23c
00000240: 3430 8d3c ccc2 443e 65bd 9a3d efa3 213d
00000250: 09a6 153e 3fe7 083e 5d06 043d 0e3f 2f3e
00000260: fa30 f13d 0460 ccbc dcbd 00bd c42c 973d
00000270: 8d6c 013e 4223 20bc 4c87 c03d 2e70 10bd
00000280: 391b dfbc 4ab6 4d3d 2239 cd3d cbca 623e
00000290: 7f17 a73d df67 823e df87 013e 136a 5e3e
000002a0: cff8 c63d 6b14 4f3e 8c22 763e 6809 cc3d
000002b0: 385a 663d 3d23 2c3d fc8b dd3d a8f1 853d
000002c0: 5617 ff3d 795e 053d 53a8 f83d 6594 e83d
000002d0: 8764 883d e2da 1a3e c4a4 4b3e 8a1c 333e
000002e0: 7cc5 c23d f797 5a3e eed5 b53d 182d f63d
000002f0: 639f c03d 77d1 003e b9f4 b03d 948e 4b3d
00000300: a0c6 713d 1be5 ac3c 3f43 f73d 07fc 99bc
00000310: c89f d03c c299 b23c b03e 043e a99d 3a3e
00000320: cb78 0f3d 201f 343e 9da5 2b3e 493e 2b3e
00000330: b7e2 013e 6175 7d3d 6677 243e f041 213e
00000340: 2e44 0c3e cbd5 163e db32 af3d 29ab 853c
00000350: 2284 453e 6844 e43d e773 5e3d 721d 5c3d
00000360: 9919 d43c 8aa5 e4bc 80e1 ccbd ac8c 843c
00000370: ac30 ecbc 892d ad3d 8f42 cabd 87d4 163d
00000380: e26a 90bd 6d9a 96bc f562 05bd e00d 14bd
00000390: 2779 fe3b 7800 76b7 9b04 d4bc 1ab8 41bd
000003a0: d0be 2dbd 281d 78bd 65b0 303d cb65 9b3d
000003b0: 878a ff3d 1877 1b3d 2175 013d af29 a73d
000003c0: c145 863d df2a 003d 88cf 33bc 1eb2 903d
000003d0: 0d4d 4ebc e603 773c 5e36 843c e98a c83d
000003e0: fda4 3dbd 43f4 773c 204f c53d 59f8 813d
000003f0: b6fa 783d a0f1 713d d431 a2bd c19b 973c

conv_a_1.bias f4 [16]
0.084491804 0.12009646 0.11546768 0.1445003 0.03466758 -0.027982228 0.17922188 -0.01753379
0.12822102 -0.07603825 0.030630708 0.061960414 0.15040277 0.0028591861 -0.0294734 0.010868783
00000000: 0a0a ad3d 22f5 f53d 527a ec3d e3f7 133e
00000010: 98ff 0d3d fc3a e5bc f185 373e 06a3 8fbc
00000020: 5f4c 033e f1b9 9bbd 40ed fa3c 34ca 7d3d
00000030: 2f03 1a3e 2f61 3b3b 3372 f1bc fb12 323c

linear_a_0.weight f4 [16, 256]
-0.023414636 0.05594152 0.028919077 0.036898762 0.03479374 -0.017782016 -0.06076417 0.0531735
-0.008744209 0.05653028 0.053932272 0.030197483 -0.03663085 -0.046702847 -0.011967512 -0.049916398
0.037986014 0.040913433 -0.00036347093 -0.0022289488 -0.011237634 -0.009104091 -0.04595114 -0.062276572
0.008523632 -0.063272834 0.02259492 -0.002754381 -0.044530276 0.04158513 0.038614392 0.043075662
-0.02804504 0.049011204 -0.00786366 -0.039786212 -0.017632352 0.045412015 0.05118395 -0.026465885
0.010148817 -0.0033190222 -0.0027532475 -0.04314602 -0.06064309 0.0019829092 0.014849278 0.011564584
-0.05636643 -0.05056574 0.044028938 -0.00026176605 0.0033784832 0.026890324 7.948791e-05 -0.056730423
0.027793128 0.04978279 0.03861525 -0.04691287 0.032922372 -0.002076405 0.021341514 -0.07254845
0.033639804 -0.069298185 0.009082583 -0.07555848 0.014908791 0.01626596 -0.053080834 0.030574724
0.072390184 -0.011102139 -0.02115063 -0.023833798 0.06387828 0.013746185 0.015257364 0.04844601
0.08056029 -0.05063908 0.068272874 0.0071970737 -0.033082068 0.029723896 0.06844738 -0.07324686
0.035812046 -0.059494812 -0.0025876132 -0.05035678 0.041626364 -0.036530882 0.049369745 0.036835898
-0.029781464 0.03824418 0.048549194 -0.049815632 0.022360781 -0.026040686 -0.0596974 0.020068433
0.022606293 0.05032288 0.045044325 0.037882857 -0.017700111 0.01219838 -0.043399565 -0.048238147
0.057423998 -0.01850981 -0.042043578 -0.0009432603 0.0302966 0.019059308 0.0035513598 -0.013157031
-0.07083855 -0.06287075 0.03665149 -0.033373374 0.017844323 0.008771586 0.02817849 -0.036554597
-0.05455564 0.05269419 0.0016497597 0.03134878 -0.030676913 -0.007377283 -0.02203707 -0.00795906
-0.025047773 0.0067652534 0.009987527 -0.07909019 -0.00972589 -0.032771435 0.028078144 -0.029720489
-0.038036197 0.03651565 -0.022102911 -0.035896946 0.0009723555 0.00032200047 0.02259556 0.0024986172
0.0046495316 -0.05034655 -0.04124 -0.051260084 -0.03709627 -0.028795818 0.013354216 -0.001859284
-0.028158015 -0.018939873 -0.022131646 -0.041388664 -0.08859337 0.018673195 0.027807556 0.014131209
-0.04370532 0.008322437 0.056549843 0.039549265 -0.007102185 -0.02534713 0.009774772 -0.050521046
-0.010391487 0.043601044 -0.033612624 0.04535155 -0.045482796 -0.07292372 0.03900424 -0.0605528
-0.045189258 -0.043651223 -0.04479176 0.006377675 0.018842395 0.031202432 0.0030794085 -0.01604876
0.026720611 0.028709179 -0.033121526 -0.05489427 0.007338598 0.026237248 -0.034532346 -0.05288625
0.04294036 0.013213337 -0.0431678 -0.0011538933 -0.015133595 -0.052606635 0.035486028 -0.02505764
-0.0634132 0.0105999 0.048653495 0.016436586 -0.029100776 -0.050571237 0.005223657 -0.025889784
0.043861818 0.02398396 0.058290776 0.048789084 -0.032320913 -0.030472588 0.016375545 -0.03425447
-0.0177564 0.034398958 -0.080481924 -0.03803043 -0.026973942 -0.044514123 -0.050133836 -0.020424146
0.013367374 0.04265863 0.026881482 -0.012638934 -0.05444349 -0.04741421 -0.03244668 0.024048425
-0.060620498 -0.032044094 -0.054131042 0.028201487 0.05093095 -0.013882596 -0.036388196 0.042016186
-0.0052925223 -0.028647048 0.05419008 -0.045121234 0.01102501 -0.0501331 -0.041242436 -0.017435424
00000000: 0dd0 bfbc ef22 653d b3e7 ec3c 2823 173d
00000010: e183 0e3d 97ab 91bc dae3 78bd 75cc 593d
00000020: df43 0fbc 4b8c 673d 16e8 5c3d b660 f73c
00000030: 3b0a 16bd 7c4b 3fbd 6213 44bc 2375 4cbd
00000040: 3997 1b3d d894 273d 3e90 beb9 8e13 12bb
00000050: 0e1e 38bc 5329 15bc 4337 3cbd b815 7fbd
00000060: b4a6 0b3c 3095 81bd fb18 b93c d882 34bb
00000070: 6165 36bd 2b55 2a3d 202a 1e3d 1b70 303d
00000080: b6be e5bc f9bf 483d 95d6 00bc def6 22bd
00000090: b971 90bc f301 3a3d 43a6 513d fcce d8bc
000000a0: 3947 263c f483 59bb d46f 34bb e2b9 30bd
000000b0: e464 78bd b2f3 013b 634a 733c 6279 3d3c
000000c0: 7ce0 66bd 051e 4fbd b057 343d a53d 89b9
000000d0: 8b69 5d3b 1949 dc3c bfb2 a638 295e 68bd
000000e0: 6aae e33c 0ae9 4b3d 062b 1e3d b627 40bd
000000f0: 9cd9 063d 4c14 08bb 66d4 ae3c 4894 94bd
00000100: e4c9 093d 35ec 8dbd 1dcf 143c 68be 9abd
00000110: 0044 743c 3140 853c 4a6b 59bd d877 fa3c
00000120: 4e41 943d bfe5 35bc 1644 adbc 193f c3bc
00000130: 9ed2 823d ae37 613c 06fa 793c 536f 463d
00000140: cbfc a43d ed6a 4fbd a6d2 8b3d 6ed5 eb3b
00000150: 1081 07bd 877f f33c 242e 8c3d 7302 96bd
00000160: a7af 123d d5b0 73bd f294 29bb e942 4ebd
00000170: 6880 2a3d 68a1 15bd ee37 4a3d 3de1 163d
00000180: 42f8 f3bc eea5 1c3d 85db 463d 7a0b 4cbd
00000190: f52d b73c 4753 d5bc 4385 74bd 8e66 a43c
000001a0: d530 b93c 5d1f 4e3d 6680 383d 0e2b 1b3d
000001b0: d3ff 90bc b7db 473c bec3 31bd 5d95 45bd
000001c0: 6d35 6b3d e3a1 97bc e335 2cbd 2145 77ba
000001d0: 9330 f83c 4422 9c3c eebd 683b 9690 57bc
000001e0: cd13 91bd 61c2 80bd df1f 163d 85b2 08bd
000001f0: 422e 923c b3b6 0f3c 94d6 e63c 46ba 15bd
00000200: bc75 5fbd ddd5 573d c03c d83a 9467 003d
00000210: 264e fbbc 23bd f1bb 1687 b4bc b866 02bc
00000220: fd30 cdbc 0faf dd3b b9a2 233c 0afa a1bd
00000230: 5759 1fbc 573b 06bd 2304 e63c 6278 f3bc
00000240: d8cb 1bbd 6f91 153d 2a11 b5bc ad08 13bd
00000250: ace5 7e3a 2cd2 a839 531a b93c d7bf 233b
00000260: 195b 983b 2f38 4ebd 46eb 28bd 18f6 51bd
00000270: 42f2 17bd 35e5 ebbc a4cb 5a3c 38b3 f3ba
00000280: a3ab e6bc cb27 9bbc 6d4d b5bc 2987 29bd
00000290: 7170 b5bd 87f8 983c accc e33c 9686 673c
000002a0: 5a04 33bd d55a 083c cfa0 673d 69fe 213d
000002b0: 72b9 e8bb c9a4 cfbc 5e26 203c 28ef 4ebd
000002c0: 0e41 2abc 0297 323d 64ad 09bd 8cc2 393d
000002d0: 2b4c 3abd 0859 95bd e9c2 1f3d 3606 78bd
000002e0: 5f18 39bd a0cb 32bd 9177 37bd d1fb d03b
000002f0: 5e5b 9a3c 3e9c ff3c e7cf 493b b078 83bc
00000300: 2fe5 da3c 832f eb3c 70aa 07bd d0d8 60bd
00000310: 9f78 f03b 7fef d63c ca71 0dbd 419f 58bd
00000320: 3be2 2f3d c17c 583c b8d0 30bd 3c3e 97ba
00000330: e6f2 77bc 0e7a 57bd cc59 113d ae45 cdbc
00000340: c8de 81bd 34ab 2d3c e348 473d 05a6 863c
00000350: c064 eebc c923 4fbd 362b ab3b d016 d4bc
00000360: 73a8 333d 027a c43c 4fc2 6e3d 10d7 473d
00000370: ef62 04bd a6a1 f9bc 0226 863c 6a4e 0cbd
00000380: df75 91bc ece5 0c3d b5d3 a4bd ccc5 1bbd
00000390: 75f8 dcbc 7154 36bd 2359 4dbd 8a50 a7bc
000003a0: d502 5b3c d1ba 2e3d 8e36 dc3c 8813 4fbc
000003b0: 2300 5fbd 6735 42bd cfe6 04bd 3401 c53c
000003c0: 334d 78bd ab40 03bd 83b8 5dbd ce06 e73c
000003d0: f99c 503d d473 63bc ca0b 15bd 2a19 2c3d
000003e0: e56c adbb 37ad eabc 6bf6 5d3d 0bd1 38bd
000003f0: 3ea2 343c 5e58 4dbd d4ed 28bd bcd4 8ebc

linear_a_0.bias f4 [16]
0.03446989 -0.05609174 0.057599463 -0.008846368 0.057258625 -0.027814003 -0.05357366 0.077748954
-0.031537678 0.004548061 0.041454595 0.02652853 0.024554603 0.012819788 0.023045162 0.043630786
00000000: 4d30 0d3d 74c0 65bd 6aed 6b3d 5bf0 10bc
00000010: 0588 6a3d 31da e3bc 0e70 5bbd d83a 9f3d
00000020: a72d 01bd e707 953b 4bcc 293d 5c52 d93c
00000030: bc26 c93c 170a 523c 35c9 bc3c 32b6 323d

GRU_a.weight_ih_l0 f4 [48, 16]
-0.22678724 0.12619156 0.23565117 0.2759445 -0.12958468 0.011252421 0.11963795 -0.12016214
-0.120666645 -0.11076611 -0.17128192 -0.17557046 0.23461503 0.06782794 -0.11022431 -0.14958581
0.20513073 -0.02302979 0.39001873 0.030728435 -0.0215567 -0.15201578 -0.14912857 -0.074515134
0.20535193 0.06571554 -0.14446574 0.12291125 -0.20645681 -0.16196166 0.0023756963 0.05544612
0.13870093 -0.07558647 -0.13247304 -0.24863724 0.022408571 0.011478634 -0.037606828 -0.008174326
0.081026204 0.16281353 0.16589047 -0.02581029 0.061846193 -0.12031791 -0.19662443 0.18492939
-0.22386666 -0.059361428 -0.03944539 -0.013879063 -0.20245934 -0.21637852 -0.12809902 -0.22689538
-0.091321625 -0.15718617 -0.101966 0.15132797 0.06536092 -0.12351146 0.0874547 -0.2306947
0.02980082 0.048151683 0.05811128 -0.048433293 0.16260025 -0.21209335 -0.2139449 -0.3722414
-0.19417755 0.020702427 -0.19244261 -0.23477106 0.1538257 -0.016248807 -0.15432808 0.15348709
0.13196272 0.2367602 -0.24282926 -0.18436192 0.24480538 -0.25626984 -0.01262438 0.017148752
-0.11145758 -0.09550153 0.035299346 0.19852373 0.057196986 0.06169595 -0.04302274 0.15490618
0.12631685 0.18515924 -0.16762349 -0.16995603 -0.03551767 0.030798832 -0.11744199 0.24350865
0.07007575 0.18017225 -0.10696691 -0.2601642 0.035400122 -0.15557761 -0.05341297 -0.14719574
0.16829446 0.2218416 0.107929826 -0.15052181 0.23411767 0.090579666 0.11066532 -0.16641559
-0.19623743 -0.10832005 0.007449016 0.06091931 -0.07688531 0.018903269 -0.22501199 0.19309376
0.037734345 0.029385716 0.0038417785 -0.18077987 0.11635345 0.05798121 -0.10821367 -0.26850986
0.20363829 0.05331651 0.10485706 -0.15642355 0.14820524 0.03859561 -0.010554794 0.06665719
0.2619318 0.0584372 -0.18209264 -0.076699175 0.09332447 0.17056389 0.23522013 0.19802637
0.115067005 0.14711179 -0.07418402 0.038996786 -0.03666798 -0.20179413 0.04939122 -0.069043376
-0.014920061 -0.09150438 -0.072182514 -0.19846883 0.016278138 0.24487083 -0.1598058 0.1994858
-0.10204603 -0.1186596 -0.027896017 -0.053915545 0.19035402 0.16422631 0.017889343 -0.12645584
-0.0123616215 -0.09366265 -0.19345213 0.10514022 -0.015149595 -0.14697346 0.23197433 0.08653587
-0.0805852 -0.03704862 -0.18470806 -0.17556186 0.22403793 0.15085328 0.053715687 0.12155148
-0.19143681 0.1047905 0.076288715 0.11978475 0.23314211 0.057902887 0.12977865 -0.42537364
0.12374108 -0.20648281 -0.0564666 -0.14513536 -0.18138148 0.20572656 -0.16403641 -0.15778673
-0.08566584 -0.19949713 -0.15714036 -0.16840182 -0.17229071 -0.1529785 0.24213512 0.22731888
0.15310465 0.084589325 -0.20791665 -0.09591244 -0.122364715 -0.043657407 0.18643402 -0.10354471
-0.034270223 0.12917665 -0.15234219 0.16605993 0.09011612 0.17059152 -0.21612261 -0.026824182
-0.123877995 -0.16622372 -0.052485593 -0.24721095 0.02841189 -0.037523344 -0.17056559 0.039436284
0.13712715 0.24126261 0.25204352 -0.085499294 0.01842005 -0.109991424 0.10169212 0.02078724
0.060034096 -0.15954131 0.041633192 -0.19971278 -0.079552606 -0.02082391 0.123442546 -0.12675762
00000000: ea3a 68be 5c38 013e 8a4e 713e 9948 8d3e
00000010: d9b1 04be 135c 383c be04 f53d 9117 f6bd
00000020: 1320 f7bd 58d9 e2bd 8764 2fbe bec8 33be
00000030: ec3e 703e 60e9 8a3d 48bd e1bd 062d 19be
00000040: ca0d 523e f8a8 bcbc 89b0 c73e 33ba fb3c
00000050: ad97 b0bc 06aa 1bbe 29b5 18be 649b 98bd
00000060: c747 523e de95 863d d4ee 13be e5b8 fb3d
00000070: 6a69 53be 47d9 25be 92b1 1b3b 791b 633d
00000080: 9e07 0e3e 14cd 9abd 03a7 07be c39a 7ebe
00000090: 2e92 b73c e110 3c3c 9e09 1abd 9ced 05bc
000000a0: 11f1 a53d 97b8 263e 31df 293e 1a70 d3bc
000000b0: 6f52 7d3d 3d69 f6bd ea57 49be 215e 3d3e
000000c0: 4d3d 65be f824 73bd 7d91 21bd 0265 63bc
000000d0: 8051 4fbe 5592 5dbe 642c 03be 4357 68be
000000e0: d506 bbbd 69f5 20be 8dd3 d0bd b8f5 1a3e
000000f0: f2db 853d 94f3 fcbd 731b b33d 3b3b 6cbe
00000100: d920 f43c b33a 453d 1806 6e3d fd61 46bd
00000110: ae80 263e 002f 59be 5f14 5bbe 6d96 bebe
00000120: 7bd6 46be 2398 a93c ad0f 45be d367 70be
00000130: 7c84 1d3e 381c 85bc 2e08 1ebe b82b 1d3e
00000140: 3c21 073e 4471 723e 3ca8 78be 5fc9 3cbe
00000150: 43ae 7a3e cd35 83be 7dd6 4ebc 8a7b 8c3c
00000160: df43 e4bd 4e96 c3bd 0c96 103d ce49 4b3e
00000170: 6347 6a3d e4b4 7c3d 9d38 30bd ba9f 1e3e
00000180: 3459 013e 629a 3d3e 7ea5 2bbe f408 2ebe
00000190: fa7a 11bd d54d fc3c 6d85 f0bd 555a 793e
000001a0: e083 8f3d 137f 383e 7811 dbbd 3e34 85be
000001b0: b8ff 103d bd4f 1fbe 8fc7 5abd 7bba 16be
000001c0: 6255 2c3e 722a 633e 500a dd3d 6422 1abe
000001d0: 8bbc 6f3e d581 b93d 80a4 e23d d968 2abe
000001e0: 77f2 48be e7d6 ddbd e016 f43b 8786 793d
000001f0: 0c76 9dbd 07db 9a3c 8b69 66be 5fba 453e
00000200: 548f 1a3d 50ba f03c 59c6 7b3b 5c1e 39be
00000210: b84a ee3d b57d 6d3d 219f ddbd 207a 89be
00000220: 8e86 503e 6a62 5a3d 4cbf d63d 7f2d 20be
00000230: 1dc3 173e 6e16 1e3d 04ee 2cbc 9183 883d
00000240: ed1b 863e d85b 6f3d 7e76 3abe 7514 9dbd
00000250: e620 bf3d 4da8 2e3e 8cdd 703e 6dc7 4a3e
00000260: 40a8 eb3d 79a4 163e cbed 97bd 18bb 1f3d
00000270: 2a31 16bd 1fa3 4ebe 734e 4a3d 9d66 8dbd
00000280: 4673 74bc a666 bbbd 6dd4 93bd 6a3b 4bbe
00000290: bb59 853c 6bbf 7a3e 22a4 23be 0146 4c3e
000002a0: 82fd d0bd ce03 f3bd 3086 e4bc 8cd6 5cbd
000002b0: 2aec 423e f12a 283e ac8c 923c a47d 01be
000002c0: 6688 4abc 34d2 bfbd 5118 46be c153 d73d
000002d0: 0236 78bc 3680 16be ae8a 6d3e b839 b13d
000002e0: da09 a5bd 4bc0 17bd 1c24 3dbe 7dc6 33be
000002f0: 336a 653e 4879 1a3e fb04 5c3d fbef f83d
00000300: 0308 44be 679c d63d 423d 9c3d b551 f53d
00000310: cebc 6e3e 942b 6d3d b2e4 043e 93ca d9be
00000320: f76b fd3d 3b70 53be 8649 67bd 5d9e 14be
00000330: 11bc 39be fca9 523e 29f9 27be d892 21be
00000340: 9271 afbd fa48 4cbe 67e9 20be 8771 2cbe
00000350: fa6c 30be 65a6 1cbe 45f2 773e 48c6 683e
00000360: 77c7 1c3e 2b3d ad3d 1ae8 54be be6d c4bd
00000370: 5a9a fabd 1cd2 32bd 8fe8 3e3e 400f d4bd
00000380: ef5e 0cbd e246 043e 97ff 1bbe 9d0b 2a3e
00000390: cd8e b83d 8baf 2e3e 3f4f 5dbe 63be dbbc
000003a0: bfb3 fdbd 8d36 2abe 22fb 56bd de24 7dbe
000003b0: 0dc0 e83c 14b2 19bd bfa8 2ebe f187 213d
000003c0: 0f6b 0c3e 8c0d 773e d90b 813e 411a afbd
000003d0: a5e5 963c 2f43 e1bd f543 d03d 004a aa3c
000003e0: 50e6 753d cc5e 23be 9187 2a3d 8281 4cbe
000003f0: 7aec a2bd e896 aabc 72cf fc3d c0cc 01be

GRU_a.weight_hh_l0 f4 [48, 16]
0.09249497 -0.11102582 0.03075614 0.17488267 -0.23157664 -0.14796744 -0.24390434 -0.13358666
-0.22066222 0.072678156 0.05027237 -0.0035061233 0.12322983 -0.21148893 0.086731575 0.14002408
-0.08842914 -0.13209368 -0.23838018 -0.08885693 0.20837545 -0.23314707 -0.13996677 -0.15540987
0.09516184 -0.15031828 -0.045159288 -0.05711731 -0.040012315 -0.025747767 -0.16383587 0.04454693
-0.13910474 -0.092356406 -0.2443146 0.04169823 0.23827611 -0.11518848 -0.11377326 0.09658944
-0.0077980184 -0.20990232 -0.14567024 0.0542106 -0.2289148 0.14122474 -0.049240958 -0.12703338
0.10637669 -0.04536428 -0.008609846 -0.08521065 0.26886618 0.14921485 0.094405085 -0.26010972
0.028906412 -0.076530255 0.14193134 0.1399249 -0.040214732 -0.07750851 -0.015812302 -0.008013008
-0.10137335 0.06765023 -0.121408224 -0.09801362 0.16311961 -0.1478239 0.0405533 -0.11245792
0.32992765 -0.019852526 -0.13444431 0.30662584 0.10495146 0.17719856 -0.10577978 0.24386917
0.04947823 0.20798658 0.011966575 0.16685472 -0.062189355 -0.11428598 -0.12690842 0.088534005
0.21307482 -0.01244869 0.07055285 0.14700603 -0.2308814 -0.117625065 -0.058906984 -0.0449252
0.15803495 -0.15378296 -0.19273871 -0.016148183 0.023678616 0.097041026 -0.09287671 -0.161163
0.08142976 -0.002975518 0.056352478 0.056219596 -0.21419707 0.18993203 -0.18976514 0.07892237
0.045079973 0.15961502 -0.1853712 0.1586824 0.086688034 -0.17127296 0.1477769 -0.07493017
-0.042590663 -0.034549057 0.19551162 0.0034222691 0.1205354 -0.25405574 0.20016272 0.08366701
0.10159729 -0.06777999 0.23465632 0.09924225 0.15532182 0.17809458 0.23137885 -0.02226263
-0.15062132 0.046588965 -0.019277241 -0.06377959 -0.18980971 -0.10268889 0.110683255 0.052141577
0.12276349 0.13013688 -0.22063328 0.25732437 -0.14121354 -0.1130053 0.014338099 0.093938045
0.1847012 0.23292203 -0.15203534 0.117585205 -0.2293424 -0.21999879 -0.0050773164 0.02985209
0.17185514 0.20004429 -0.0056652455 0.15512256 -0.016468553 -0.07433912 0.15447275 0.103731394
-0.054351427 0.03414695 -0.16403995 -0.12869814 -0.19718423 -0.14136676 0.27742457 -0.25299817
0.1969753 -0.24962251 -0.052019287 -0.20153612 -0.15112442 0.22166099 -0.22864825 -0.14923258
-0.050723396 -0.13682373 -0.050910562 0.17677622 0.2087138 -0.13505869 0.15190178 -0.20852476
0.025230674 0.19213413 0.051818006 0.0056443303 0.02237568 0.22085701 0.19267416 -0.14331508
-0.12778857 -0.031771187 0.14318793 0.21657306 0.11654103 -0.098396696 0.09701607 0.14374982
-0.096497126 0.23923153 0.09794978 -0.06868988 0.15673248 0.12246089 -0.07956149 0.21856229
-0.022210078 0.26156855 -0.15613262 -0.13019541 -0.15683143 -0.22324099 0.14915033 -0.11400532
0.13566671 -0.1699223 -0.05047432 0.073028326 0.0016377062 0.15303259 0.20706233 -0.16182524
-0.104523174 0.08823721 -0.12264404 0.008714555 -0.122911334 0.23197618 -0.12650186 0.18262337
0.12130882 -0.16057344 0.1513906 -0.15591384 0.04053186 0.04113067 0.063299954 0.011642877
0.17363295 -0.07275303 -0.029730307 -0.18727544 0.07677786 -0.18042779 0.25667736 -0.03499454
00000000: 016e bd3d 8161 e3bd 4df4 fb3c 7114 333e
00000010: 6d22 6dbe c784 17be 0fc2 79be f1ca 08be
00000020: 47f5 61be 49d8 943d 67ea 4d3d fdc6 65bb
00000030: ec5f fc3d 8e90 58be 53a0 b13d 7962 0f3e
00000040: 561a b5bd 9143 07be ef19 74be 9ffa b5bd
00000050: 6060 553e 1bbe 6ebe 7353 0fbe c423 1fbe
00000060: 36e4 c23d 09ed 19be f2f8 38bd d7f3 69bd
00000070: f4e3 23bd fbec d2bc 97c4 27be d776 363d
00000080: 7971 0ebe 5b25 bdbd 9b2d 7abe c3cb 2a3d
00000090: a7fe 733e f0e7 ebbd f401 e9bd afd0 c53d
000000a0: 8586 ffbb a2f0 56be 942a 15be ef0b 5e3d
000000b0: a468 6abe 389d 103e e3b0 49bd 0a15 02be
000000c0: 06dc d93d e5cf 39bd 5010 0dbc ec82 aebd
000000d0: d4a8 893e c7cb 183e 7457 c13d 1a2d 85be
000000e0: 24cd ec3c e5bb 9cbd 7356 113e 7948 0f3e
000000f0: 34b8 24bd c8bc 9ebd cd88 81bc fe48 03bc
00000100: d59c cfbd 348c 8a3d e0a4 f8bd 5dbb c8bd
00000110: d408 273e 265f 17be 381b 263d 5750 e6bd
00000120: 47ec a83e c4a1 a2bc c5ab 09be 10fe 9c3e
00000130: cbf0 d63d 8a73 353e 12a3 d8bd d7b8 793e
00000140: afa9 4a3d 6ffa 543e 740f 443c f7db 2a3e
00000150: 44ba 7ebd c50e eabd 48f4 01be 5151 b53d
00000160: 4930 5a3e 97f5 4bbc 037e 903d c088 163e
00000170: 2c6c 6cbe 69e5 f0bd 7348 71bd 7d03 38bd
00000180: ead3 213e 4879 1dbe 4c5d 45be 3249 84bc
00000190: a8f9 c13c 72bd c63d 2536 bebd ea07 25be
000001a0: a5c4 a63d e800 43bb dbd1 663d 8546 663d
000001b0: 7a56 5bbe 8b7d 423e cb51 42be 0da2 a13d
000001c0: c7a5 383d 1f72 233e f3d1 3dbe a47d 223e
000001d0: 7f89 b13d 2e62 2fbe d452 173e fd74 99bd
000001e0: 8c73 2ebd 5083 0dbd 3334 483e 2648 603b
000001f0: 44db f63d 9813 82be 75f7 4c3e 9c59 ab3d
00000200: 3d12 d03d 3cd0 8abd bf49 703e 853f cb3d
00000210: af0c 1f3e 6d5e 363e 94ee 6c3e 1e60 b6bc
00000220: 7a3c 1abe 12d4 3e3d 4eeb 9dbc e09e 82bd
00000230: 7a5d 42be 8e4e d2bd e7ad e23d 6892 553d
00000240: 6d6b fb3d 9a42 053e b1ed 61be 05c0 833e
00000250: 489a 10be 536f e7bd 59ea 6a3c 9762 c03d
00000260: 5022 3d3e 1d83 6e3e 27af 1bbe 83d0 f03d
00000270: bcd8 6abe 5d47 61be 9e5f a6bb 5f8c f43c
00000280: cbfa 2f3e 69d8 4c3e 86a3 b9bb 73d8 1e3e
00000290: 0fe9 86bc 1c3f 98bd 1b2e 1e3e 2071 d43d
000002a0: 9a9f 5ebd acdd 0b3d 17fa 27be 72c9 03be
000002b0: aaea 49be 73c2 10be 980a 8e3e fa88 81be
000002c0: e5b3 493e 0b9d 7fbe 2d12 55bd 7c5f 4ebe
000002d0: 5cc0 1abe 19fb 623e c422 6abe 6dd0 18be
000002e0: 56c3 4fbd 851b 0cbe 9887 50bd d304 353e
000002f0: 12b9 553e d34c 0abe 248c 1b3e 8487 55be
00000300: 8fb0 ce3c cfbe 443e 1e3f 543d 13f4 b83b
00000310: 344d b73c 5728 623e 604c 453e 30c1 12be
00000320: 02db 02be 8122 02bd db9f 123e 54c5 5d3e
00000330: 10ad ee3d 3584 c9bd 5cb0 c63d 2733 133e
00000340: 49a0 c5bd 1cf9 743e e599 c83d 48ad 8cbd
00000350: 7b7e 203e c6cc fa3d 22f1 a2bd cbce 5f3e
00000360: e9f1 b5bc 50ec 853e 3be1 1fbe f251 05be
00000370: 6b98 20be 4999 64be ddba 183e 9f7b e9bd
00000380: 37ec 0a3e 1d00 2ebe 29be 4ebd e08f 953d
00000390: 4da8 d63a 93b4 1c3e 2608 543e 84b5 25be
000003a0: 3f10 d6bd b6b5 b43d cc2c fbbd 7ec7 0e3c
000003b0: f0b8 fbbd 2a8b 6d3e b489 01be 9f01 3b3e
000003c0: c270 f83d 5d6d 24be 2306 1b3e e1a7 1fbe
000003d0: bc04 263d a278 283d 68a3 813d c4c1 3e3c
000003e0: d6cc 313e 8aff 94bd f98c f3bc 22c5 3fbe
000003f0: b63d 9d3d 10c2 38be 376b 833e 6f56 0fbd

GRU_a.bias_ih_l0 f4 [48]
-0.09774839 -0.019603636 -0.17350315 -0.008448465 -0.17901307 -0.1350904 0.09042417 -0.109375454
-0.18875661 0.031832557 0.009969467 -0.004525814 -0.22713974 0.10209738 -0.16869347 0.023900349
0.032852557 -0.1669926 -0.27563217 -0.19144997 -0.26493266 0.2327215 0.07122301 0.21270414
0.082551025 -0.22638252 -0.20264527 0.18951832 -0.084649704 -0.1529045 0.16927946 -0.12417911
0.24695493 0.08596293 0.17294301 -0.20914723 0.11786515 0.2575143 -0.20350975 0.12444819
-0.16717325 0.16872874 -0.012598827 -0.1393229 -0.19411281 -0.14577211 0.04587672 0.099880405
00000000: 4f30 c8bd ce97 a0bc cfaa 31be 6e6b 0abc
00000010: 344f 37be 2355 0abe 4f30 b93d 3d00 e0bd
00000020: 6a49 41be db62 023d fa56 233c 484d 94bb
00000030: 5297 68be 6e18 d13d fbbd 2cbe aaca c33c
00000040: 6790 063d 1c00 2bbe a91f 8dbe 760b 44be
00000050: 41a5 87be 8b4e 6e3e 5fdd 913d 1dcf 593e
00000060: 8310 a93d d2d0 67be 3e82 4fbe 1711 423e
00000070: d35c adbd ff92 1cbe 9857 2d3e 9e51 febd
00000080: c1e1 7c3e 550d b03d f917 313e b12a 56be
00000090: 4963 f13d ead8 833e dc64 50be b1de fe3d
000000a0: 772f 2bbe 3ac7 2c3e 4f6b 4ebc aaaa 0ebe
000000b0: 82c5 46be 4945 15be 3ae9 3b3d 198e cc3d

GRU_a.bias_hh_l0 f4 [48]
-0.16844933 -0.089137726 -0.14644739 -0.19429737 0.046165828 0.13451089 -0.22308822 0.11048001
0.23318207 -0.23154074 0.19432028 -0.10226205 0.2187973 0.02339537 0.2091194 0.056789648
-0.2881229 -0.21067588 -0.045659102 -0.21513724 0.07485713 0.047456715 0.16927284 0.050918147
-0.017811803 -0.19367471 0.12346022 -0.15128432 -0.020251043 0.12438049 -0.0031084674 0.22755161
0.2695649 -0.005914645 0.06245356 -0.21692483 -0.11223172 0.084152915 -0.19814299 -0.17847753
-0.17737602 0.15999234 -0.039074227 0.09771608 0.19761442 -0.16142409 -0.09595743 -0.19307765
00000000: fb7d 2cbe d78d b6bd 4ef6 15be e4f5 46be
00000010: 6118 3d3d 39bd 093e 3d71 64be 5843 e23d
00000020: 48c7 6e3e 0419 6dbe e5fb 463e c46e d1bd
00000030: 660c 603e a6a7 bf3c 6523 563e 439c 683d
00000040: d884 93be 6bbb 57be 0a05 3bbd f04c 5cbe
00000050: b24e 993d f961 423d dc55 2d3e 8c8f 503d
00000060: 0fea 91bc aa52 46be b6d8 fc3d 47ea 1abe
00000070: 84e5 a5bc 33bb fe3d 6eb7 4bbb 4a03 693e
00000080: 6904 8a3e a3cf c1bb 4ecf 7f3d 8b21 5ebe
00000090: bed9 e5bd 5d58 ac3d ffe5 4abe d0c2 36be
000000a0: 0fa2 35be 08d5 233e 4c0c 20bd 5e1f c83d
000000b0: 6f5b 4a3e 5b4c 25be 5485 c4bd 26b6 45be

linear_a.weight f4 [4, 16]
0.22179922 0.29113868 -0.12966824 0.042716004 0.35553443 0.25434542 -0.28886843 -0.1886055
0.07867795 0.101889394 0.3480441 -0.21212636 0.23235023 -0.2022923 0.28293175 -0.20414473
-0.22192536 -0.53021824 0.21520084 -0.43429458 -0.45046392 0.10571291 -0.094040565 0.15996252
-0.24709418 -0.35532528 -0.74199384 0.093880035 -0.65072286 0.041202515 -0.27045402 -0.14705974
-0.7339444 -0.6029552 0.13836676 -0.3105466 -0.68853766 0.13354152 0.02105911 0.00859876
-0.24279472 0.13247558 -0.420381 0.26033506 -0.7881282 0.05976996 0.042298637 0.16289756
0.055157334 0.42585188 -0.052248597 0.32170942 0.22297081 0.14479157 0.09696091 -0.058157615
-0.13793108 -0.1549235 0.24477112 -0.20968461 0.2204646 -0.06966698 -0.13615137 -0.12575397
00000000: 561f 633e 2110 953e c0c7 04be faf6 2e3d
00000010: 9c08 b63e 9039 823e 90e6 93be cd21 41be
00000020: e821 a13d 63ab d03d d632 b23e a737 59be
00000030: 38ed 6d3e b625 4fbe 6edc 903e 510b 51be
00000040: 6740 63be 62bc 07bf 9c5d 5c3e dc5b debe
00000050: 35a3 e6be 0380 d83d 5798 c0bd 37cd 233e
00000060: 4206 7dbe 32ed b5be 4ff3 3dbf 2d44 c03d
00000070: c695 26bf f8c3 283d f378 8abe d496 16be
00000080: c8e3 3bbf 465b 1abf 04b0 0d3e f7ff 9ebe
00000090: 0144 30bf 1cbf 083e 2884 ac3c d0e1 0c3c
000000a0: 2e9f 78be aea7 073e 2e3c d7be a34a 853e
000000b0: c5c2 49bf 58d1 743d 5641 2d3d 9ece 263e
000000c0: a8ec 613d 4209 da3e a002 56bd 19b7 a43e
000000d0: 7652 643e 3e44 143e 7193 c63d ae36 6ebd
000000e0: ce3d 0dbe 44a4 1ebe 48a5 7a3e 90b7 56be
000000f0: 79c1 613e 90ad 8ebd 446b 0bbe a6c5 00be

linear_a.bias f4 [4]
0.30764556 -0.5153785 -0.3643218 0.32119155
00000000: b883 9d3e d8ef 03bf 6388 babe 3873 a43e

conv_v_0.weight f4 [16, 7, 3, 3]
0.021522248 -0.02562492 -0.07869272 0.053084698 0.028739182 -0.095594555 -0.040732395 -0.16971126
-0.037802126 0.023999399 0.06712882 -0.030171882 0.038075317 -0.08879406 -0.20215626 0.06846356
-0.063347444 -0.0036878653 -0.01368242 -0.05091685 -0.20581187 -0.013917271 -0.101693355 -0.013298235
-0.20414075 -0.20568134 -0.08054134 0.08405877 -0.10286647 0.17863826 0.1992181 0.15552923
0.15917064 0.13287434 0.16648151 -0.02215494 0.0403599 -0.044734422 0.008309127 0.028648967
-0.033477962 -0.04389297 0.00065485766 0.05181247 -0.04994241 -0.15734705 -0.115044974 -0.070138104
-0.15061465 0.047218718 0.022422228 -0.15059705 0.009180526 -0.047478728 -0.04972511 -0.007657292
0.0228157 -0.062963955 -0.1019168 -0.12886971 0.0028876967 0.054752693 -0.05701481 -0.48221704
-0.32356015 -0.0076067783 -0.1304566 -0.011999951 -0.032807358 0.039260093 0.114781305 0.08316974
-0.022486703 0.06806311 0.06749565 -0.050363064 -0.069813184 -0.17300099 -0.014825414 -0.043504335
0.017889703 -0.11429195 -0.14966056 -0.15905719 -0.025485344 -0.06502155 0.0816847 0.0041017667
-0.06804258 0.099505946 0.23955874 0.48184004 0.34241638 -0.033218138 0.10818289 -0.13560255
-0.052307677 -0.1817421 0.18516278 -0.17206453 -0.115609445 -0.034720708 -0.17767942 -0.21482135
-0.114317015 -0.16001493 -0.019739773 -0.027309928 -0.041268863 -0.12544547 -0.12511697 -0.015553117
-0.006837064 0.0702812 0.062391758 0.059379138 0.03495737 -0.102547176 0.07573201 -0.029070292
-0.12739323 -0.110247135 -0.051724706 0.09184394 0.09622766 -0.1238205 -0.082444355 -0.051339563
0.04559616 0.049513385 0.23152433 0.14782491 0.030488532 0.075328745 0.18775533 0.17276423
-0.0364602 -0.29272667 -0.082169004 -0.45415768 -0.3383037 -0.037514936 -0.13602827 -0.13568619
-0.2538695 -0.14107758 0.019539168 -0.37215298 -0.28335774 0.26197648 -0.2024061 -0.30092472
0.25859353 0.1951712 -0.20358393 -0.24517769 0.12763095 -0.008533074 0.11375721 0.14026028
0.11730828 0.09361716 0.06739583 0.0066219894 -0.0036599992 0.14898504 0.026362913 0.04252191
0.068325184 0.029609418 0.18502405 -0.008348194 -0.05893525 -0.015521518 0.041523285 -0.009158389
0.029608242 -0.0053435676 -0.15293626 0.02135355 -0.06520387 -0.022920165 -0.1474268 -0.06580925
-0.1357145 -0.06230515 -0.13806699 0.003633721 -0.08790582 -0.10210643 -0.038174275 -0.031001953
-0.2864876 -0.23864907 0.026562542 -0.1417325 -0.093695045 0.092153214 0.12948664 -0.072984084
0.06502133 -0.12393125 0.11005525 -0.2593668 0.06579322 0.056565136 -0.026832042 0.19567978
0.27785742 0.10095579 -0.035040375 0.043063562 0.12265407 -0.13298988 0.09163258 0.07349949
-0.029784119 -0.16023785 0.06270813 -0.05212032 -0.15943292 0.015069336 0.24748749 0.09117308
-0.037219815 -0.05689424 0.07114233 0.01814857 -0.08290104 0.09519007 0.03211087 -0.05221263
0.11265538 -0.09466347 0.025947237 0.1593234 -0.084164396 0.12465663 0.12824547 -0.07757045
-0.014506009 0.07644169 0.052496288 -0.11725925 0.07422859 -0.011103834 -0.047341652 0.027258147
-0.0447327 -0.122394405 0.0041425144 0.10708659 0.13764545 -0.010837873 0.20071246 0.091338
00000000: 6d4f b03c 5aeb d1bc a629 a1bd 576f 593d
00000010: 6f6e eb3c 14c7 c3bd 03d7 26bd cac8 2dbe
00000020: 67d6 1abd 639a c43c d67a 893d 062b f7bc
00000030: ddf4 1b3d a9d9 b5bd 0d02 4fbe 9f36 8c3d
00000040: 4ebc 81bd 1db0 71bb 3b2c 60bc 308e 50bd
00000050: 59c0 52be 4405 64bc 9b44 d0bd d7e0 59bc
00000060: 460a 51be 219e 52be dcf2 a4bd 0127 ac3d
00000070: a8ab d2bd f3ec 363e d4ff 4b3e 0e43 1f3e
00000080: a1fd 223e 3610 083e 217a 2a3e 477e b5bc
00000090: 6c50 253d 713b 37bd 0123 083c 3db1 ea3c
000000a0: 3020 09bd 1dc9 33bd c1aa 2b3a 5039 543d
000000b0: 6a90 4cbd 961f 21be b39c ebbd 91a4 8fbd
000000c0: ba3a 1abe 6a68 413d d2ae b73c 1d36 1abe
000000d0: eb69 163c 0e79 42bd 8fac 4bbd 05ea fabb
000000e0: fee7 ba3c 3ff3 80bd c1b9 d0bd 6cf6 03be
000000f0: 833f 3d3b 5c44 603d 5d88 69bd 27e5 f6be
00000100: ada9 a5be 4842 f9bb 6a96 05be 719b 44bc
00000110: 0261 06bd 31cf 203d 7612 eb3d e654 aa3d
00000120: 0936 b8bc ac64 8b3d 293b 8a3d 8049 4ebd
00000130: 37fa 8ebd 2c27 31be 4be6 72bc 9a31 32bd
00000140: 6d8d 923c e611 eabd 9e40 19be e3df 22be
00000150: a4c6 d0bc 052a 85bd 4f4a a73d 1d68 863b
00000160: e859 8bbd c6c9 cb3d e34e 753e bdb3 f63e
00000170: 3351 af3e be0f 08bd fe8e dd3d 65db 0abe
00000180: 9340 56bd 9a1a 3abe 509b 3d3e af31 30be
00000190: a5c4 ecbd 4d37 0ebd 98f1 35be 21fa 5bbe
000001a0: 0a1f eabd f4da 23be 4eb5 a1bc 12b9 dfbc
000001b0: 8a09 29bd c774 00be aa1e 00be 80d2 7ebc
000001c0: 7309 e0bb 97ef 8f3d 808e 7f3d 8a37 733d
000001d0: 762f 0f3d 4104 d2bd 6219 9b3d d224 eebc
000001e0: 5f73 02be 40c9 e1bd 49dd 53bd ad18 bc3d
000001f0: 0213 c53d 9a95 fdbd 96d8 a8bd 6f49 52bd
00000200: 0ac3 3a3d 8cce 4a3d b714 6d3e 6a5f 173e
00000210: 16c3 f93c f545 9a3d ef42 403e 1be9 303e
00000220: 4a57 15bd 45e0 95be 3948 a8bd 5b87 e8be
00000230: 2436 adbe 43a9 19bd ff4a 0bbe 52f1 0abe
00000240: 2ffb 81be a476 10be 9b10 a03c d68a bebe
00000250: 4414 91be c821 863e 8b43 4fbe ce12 9abe
00000260: 5f66 843e f6da 473e 4e78 50be dc0f 7bbe
00000270: b0b1 023e 4ece 0bbc 8af9 e83d 64a0 0f3e
00000280: 533f f03d 5bba bf3d d306 8a3d 46fd d83b
00000290: 99dc 6fbb 898f 183e 09f7 d73c 742b 2e3d
000002a0: 13ee 8b3d 738f f23c f276 3d3e ddc6 08bc
000002b0: 1766 71bd f74d 7ebc 5214 2a3d 110d 16bc
000002c0: fc8c f23c 1819 afbb 539b 1cbe a4ed ae3c
000002d0: 9b89 85bd 12c3 bbbc 0df7 16be 00c7 86bd
000002e0: bef8 0abe af33 7fbd 6f61 0dbe b923 6e3b
000002f0: f707 b4bd 2d1d d1bd a15c 1cbd cff7 fdbc
00000300: 81ae 92be 6c60 74be b099 d93c 5322 11be
00000310: 30e3 bfbd d3ba bc3d 2598 043e ae78 95bd
00000320: e729 853d abcf fdbd a664 e13d bacb 84be
00000330: 99be 863d d8b0 673d dfce dbbc 4860 483e
00000340: 5443 8e3e e9c1 ce3d 7f86 0fbd 6b63 303d
00000350: 0f32 fb3d 802e 08be dda9 bb3d e786 963d
00000360: d3fd f3bc 6415 24be 1f6d 803d 1e7c 55bd
00000370: 6242 23be 60e5 763c 5c6d 7d3e f4b8 ba3d
00000380: ce73 18bd ef09 69bd 12b3 913d 4fac 943c
00000390: 05c8 a9bd 03f3 c23d b086 033d e9dc 55bd
000003a0: ddb7 e63d ecde c1bd 4d8f d43c ac25 233e
000003b0: 625e acbd fa4b ff3d c852 033e 42dd 9ebd
000003c0: 9daa 6dbc 768d 9c3d 5906 573d 9e25 f0bd
000003d0: 2905 983d dbec 35bc 52e9 41bd 7a4c df3c
000003e0: a339 37bd eba9 fabd eebd 873b 3750 db3d
000003f0: eef2 0c3e 5691 31bc 9187 4d3e 6b0f bb3d

conv_v_0.bias f4 [16]
0.010369119 -0.021568442 -0.025006168 -0.06624612 -0.033469155 -0.020271061 0.050708547 0.08992641
-0.073300935 0.08946393 0.06637928 0.004340473 0.017791158 -0.04656286 0.011370803 0.041117586
00000000: 3de3 293c 4db0 b0bc bcd9 ccbc 0cac 87bd
00000010: f416 09bd 7f0f a6bc c4b3 4f3d 562b b83d
00000020: cd1e 96bd dd38 b73d dcf1 873d 873a 8e3b
00000030: c3be 913c b3b8 3ebd 9b4c 3a3c ea6a 283d

conv_v_1.weight f4 [16, 16, 3, 3]
-0.006775065 0.027204696 0.085804984 -0.078063026 0.045834642 -0.07962147 0.046049252 0.05708979
0.053482562 0.085545205 0.05395372 0.022790834 0.050936457 0.08013011 0.14158142 0.0655714
-0.07539275 -0.047124993 0.11838838 0.12086981 0.055213016 0.061366566 0.15296368 0.14405398
0.13035141 0.13902986 0.06136672 -0.046580143 -0.04024307 -0.093582004 0.029009616 -0.016607257
-0.083273396 -0.0041200183 -0.063407995 -0.0025155568 0.14202979 0.11078241 0.06956987 0.08505175
0.05072532 0.10885826 0.033065848 0.12882869 0.19683337 0.15053788 0.14576605 0.025720604
0.14425528 0.096780255 0.022829589 0.01393048 0.078640535 0.15081853 0.0401277 0.16269858
0.08586817 0.18407734 0.14723343 0.146919 0.07815417 0.09193832 0.12624077 0.0940412
0.03596565 0.014717666 0.14820318 0.07865541 0.10074126 0.106423736 -0.027556403 -0.026083758
-0.11779771 -0.0866783 -0.18253365 -0.16475514 -0.1314836 -0.13755567 -0.090770274 -0.066408016
-0.13762844 0.07042822 -0.011218113 0.009381656 -0.023637533 -0.01784696 -0.008111088 -0.03272131
-0.021803502 0.066079296 -0.09309161 -0.002973612 -0.021760307 0.01533139 0.013283783 -0.027463157
-0.04480832 0.0074678194 -0.055623956 -0.04643382 -0.006197933 -0.12010539 -0.05387765 -0.06471708
0.013476988 0.0010726466 -0.07553869 -0.096490175 0.07247776 -0.013228153 0.09293217 0.08803593
0.080557 0.03902441 0.058209736 0.04695835 -0.02032164 -0.050879817 -0.13622895 -0.03696335
-0.122076094 -0.1765893 -0.12954257 -0.14184093 -0.08854261 -0.1608314 -0.08200302 -0.17204481
-0.107441135 -0.08384916 -0.13943815 -0.061274856 0.0036555477 -0.121382445 -0.12519202 0.017841224
0.08025213 0.06397244 0.039756108 0.04263488 0.15992193 0.025373347 0.09203218 0.059559375
0.075618 -0.024416821 -0.050516963 0.057659816 0.06896314 -0.03537359 0.058468446 0.09650116
0.0009664003 0.043661658 -0.00012258934 -0.04796049 -0.0011384534 0.07021197 0.0102082845 0.0758584
0.034587324 -0.015043885 0.0712745 0.09786127 0.048913475 0.11915563 0.05662464 0.028768277
0.09782569 0.12729487 0.16607393 -0.07788764 -0.011650736 -0.05517677 -0.024183044 -0.091294356
-0.05501787 -0.08690767 -0.0749866 -0.048908286 0.043741986 0.13542181 0.12901363 0.02817291
0.07625282 0.090741 0.043523114 0.16860738 0.04005702 0.0027845697 0.11343265 0.10312631
0.10029496 0.09008471 0.1200879 0.03944883 0.119259484 0.12043688 0.17212512 0.14388524
0.088677846 0.08502855 0.041002017 0.13793136 0.14105263 0.0485715 0.117077485 0.05409201
-0.026874658 0.12476323 0.10289293 0.021101877 0.10109867 0.10953736 0.1236044 0.104084335
-0.057250015 0.0048993905 -0.18412305 -0.0985322 -0.1479376 -0.07794666 -0.032101285 -0.1789877
-0.09486531 0.033522107 0.06057662 0.029005751 -0.028904114 -0.024334228 0.007995068 0.0646973
-0.09281114 0.098993 0.016084643 -0.054427512 -0.07926249 0.002714232 -0.036647655 -0.043294415
0.033719562 -0.020499736 -0.035353247 0.04727294 -0.090330504 -0.10791812 -0.006215241 0.011156773
-0.017483646 -0.058175102 -0.015392173 -0.13061893 0.08250532 0.052883897 0.112266764 -0.015763206
00000000: 5d01 debb 62dc de3c 86ba af3d 82df 9fbd
00000010: 1bbd 3b3d 9510 a3bd 249e 3c3d fcd6 693d
00000020: 8810 5b3d 5332 af3d 93fe 5c3d d8b3 ba3c
00000030: bfa2 503d 411b a43d b8fa 103e 4c4a 863d
00000040: 8467 9abd 2306 41bd 9b75 f23d 978a f73d
00000050: 0b27 623d 825b 7b3d 83a2 1c3e e382 133e
00000060: d77a 053e d85d 0e3e ab5b 7b3d d2ca 3ebd
00000070: ebd5 24bd eca7 bfbd 93a5 ed3c f10b 88bc
00000080: 3e8b aabd 3801 87bb 0ddc 81bd 0adc 24bb
00000090: 4270 113e e3e1 e23d a67a 8e3d 9d2f ae3d
000000a0: 5ac5 4f3d 14f1 de3d 0e70 073d abeb 033e
000000b0: b08e 493e 9a26 1a3e b243 153e 04b4 d23c
000000c0: a8b7 133e ba34 c63d 1e05 bb3c ab3c 643c
000000d0: 4a0e a13d 2c70 1a3e f15c 243d 759a 263e
000000e0: a7db af3d c57e 3c3e 5cc4 163e ef71 163e
000000f0: 4b0f a03d 284a bc3d 4345 013e ac98 c03d
00000100: b850 133d 5e22 713c 93c2 173e 1616 a13d
00000110: 6f51 ce3d b0f4 d93d f7bd e1bc 9bad d5bc
00000120: ed3f f1bd 6484 b1bd 1aea 3abe 92b5 28be
00000130: a3a3 06be 65db 0cbe c4e5 b9bd ed00 88bd
00000140: 78ee 0cbe ac3c 903d 2dcc 37bc 84b5 193c
00000150: 80a3 c1bc ca33 92bc 5ee4 04bc c806 06bd
00000160: 429d b2bc 9554 873d d0a6 bebd eee0 42bb
00000170: ac42 b2bc 8330 7b3c 39a4 593c 6afa e0bc
00000180: ee88 37bd 9cb4 f43b f2d5 63bd 6431 3ebd
00000190: 0818 cbbb d1f9 f5bd d0ae 5cbd 638a 84bd
000001a0: 96ce 5c3c 0c98 8c3a 07b4 9abd a49c c5bd
000001b0: 386f 943d e5ba 58bc 3953 be3d 2f4c b43d
000001c0: 12fb a43d 0fd8 1f3d 556d 6e3d 6657 403d
000001d0: 9179 a6bc 5b67 50bd 9a7f 0bbe e266 17bd
000001e0: 0803 fabd d3d3 34be cfa6 04be c03e 11be
000001f0: d455 b5bd fdb0 24be 33f1 a7bd 842c 30be
00000200: 190a dcbd 1cb9 abbd e0c8 0ebe 58fb 7abd
00000210: ea91 6f3b 5c97 f8bd 5632 00be c227 923c
00000220: 3b5b a43d fc03 833d 4dd7 223d e9a1 2e3d
00000230: 93c2 233e c4db cf3c 5e7b bc3d 88f4 733d
00000240: 9cdd 9a3d c905 c8bc e0ea 4ebd b32c 6c3d
00000250: 8c3c 8d3d e6e3 10bd 9c7c 6f3d 66a2 c53d
00000260: 0756 7d3a 91d6 323d 538b 00b9 3872 44bd
00000270: 2838 95ba 4bcb 8f3d a640 273c a65b 9b3d
00000280: 70ab 0d3d a17a 76bc 5df8 913d 7d6b c83d
00000290: 7f59 483d de07 f43d 3def 673d 73ab eb3c
000002a0: d658 c83d 9659 023e 490f 2a3e 8e83 9fbd
000002b0: bbe2 3ebc 0901 62bd 851b c6bc 89f8 babd
000002c0: 6b5a 61bd a6fc b1bd 9392 99bd 0e54 48bd
000002d0: cc2a 333d 04ac 0a3e 261c 043e e0ca e63c
000002e0: 702a 9c3d 6bd6 b93d 4b45 323d 6aa7 2c3e
000002f0: d412 243d 547d 363b 614f e83d e333 d33d
00000300: 7267 cd3d 557e b83d a5f0 f53d 1995 213d
00000310: 513e f43d 9ca7 f63d 9141 303e a756 133e
00000320: bb9c b53d 7323 ae3d bbf1 273d e13d 0d3e
00000330: 1a70 103e e9f2 463d 52c6 ef3d 958f 5d3d
00000340: 3e28 dcbc dd83 ff3d 87b9 d23d d8dd ac3c
00000350: d20c cf3d 2055 e03d 4e24 fd3d 2b2a d53d
00000360: fe7e 6abd 118b a03b c18a 3cbe 40cb c9bd
00000370: f47c 17be 80a2 9fbd a37c 03bd 8d48 37be
00000380: be48 c2bd 7a4e 093d 311f 783d 789d ed3c
00000390: 52c8 ecbc 9358 c7bc bffd 023c 0580 843d
000003a0: c413 bebd d8bc ca3d f1c3 833c 62ef 5ebd
000003b0: 5f54 a2bd 42e1 313b da1b 16bd 7c55 31bd
000003c0: 861d 0a3d 10ef a7bc 91ce 10bd 45a1 413d
000003d0: 33ff b8bd 2d04 ddbd 38a9 cbbb e6ca 363c
000003e0: dd39 8fbc 0449 6ebd 742f 7cbc f8c0 05be
000003f0: 8df8 a83d c99c 583d 1eec e53d d721 81bc

conv_v_1.bias f4 [16]
-0.0020535174 -0.034320846 0.0007241507 0.03983045 0.039312266 0.06105617 -0.03880923 0.046814874
-0.04694077 0.0037690625 -0.02229512 -0.016867058 0.05781249 0.09701002 0.09502545 -0.025478203
00000000: 4e94 06bb 0494 0cbd eed4 3d3a 4125 233d
00000010: e605 213d 0916 7a3d 6df6 1ebd f4c0 3f3d
00000020: f744 40bd 6002 773b 41a4 b6bc c92c 8abc
00000030: cacc 6c3d 30ad c63d b49c c23d aab7 d0bc
