league/checkpoints/mfos_seeds/new_self_3x3_64/100_1.pth (torch, 300942 bytes, 105 tensors)

conv_a_0.weight f4 [16, 7, 3, 3]
000000 2f dc 04 3d 4f 75 1b bd 18 dd 5e 3d 55 40 75 bc
       0.032436546 -0.03795367 0.05441007 -0.014968951
000010 58 97 5f 3a ad ec 30 3d 99 2d c3 3c 0f 22 32 3c
       0.0008529327 0.04319446 0.023825454 0.010872378
000020 f9 dc 56 bc 18 ba 99 3c d3 94 f2 bd cc 53 e8 bd
       -0.013114207 0.018765494 -0.11844792 -0.11344108
000030 a8 2c 2b be 3c e3 53 bb 14 45 df 3d 67 0d 50 3d
       -0.16716254 -0.0032331487 0.109018475 0.05079403
000040 00 f1 ff 3d df 2f a3 3d fa 0b 9b 3a f3 c3 0f bd
       0.12497139 0.07968115 0.0011829131 -0.03509898
000050 29 d0 21 bc cf 0d 98 3d e3 2a 38 bd 47 1b 27 3e
       -0.009876289 0.07424509 -0.044962775 0.16318999
000060 76 f2 a7 3c 24 d9 ac 3d 25 9b 0b be 27 52 40 be
       0.020501357 0.08439854 -0.13633402 -0.18781339
000070 3e fe 44 3d d1 ce c9 bd 7f d6 20 bd df cf 85 bd
       0.048094027 -0.098539 -0.03926706 -0.06533789
000080 1f 94 28 3d 4f fd 80 be 35 be 63 be 7a 5e 4f be
       0.041156884 -0.2519326 -0.22240527 -0.20250884
000090 f7 6b a0 bc af 40 9a bd 3f 2c 34 3d 58 4f 9c bd
       -0.019582732 -0.07531869 0.04398751 -0.07632321
0000a0 0f 19 8c bd 64 da 0f 3b 59 14 11 3c 06 72 67 3d
       -0.06840717 0.002195024 0.008854949 0.056505226
0000b0 74 b7 01 3e 16 85 b0 bd 08 8e 1f be c4 83 90 3d
       0.12667638 -0.08619134 -0.15581524 0.07056382
0000c0 18 4b 1c be 17 a0 c7 bd bf 2f f6 bd 32 99 43 bc
       -0.15263021 -0.097473316 -0.120208256 -0.01193838
0000d0 6c aa 2e be d6 1a 1e be 63 25 c5 bc 6c 65 aa 3c
       -0.17057198 -0.15439925 -0.024065679 0.020800315
0000e0 ee 3b 87 3d a2 5f bb bc aa 3f fd 3c 90 ac 3d 3d
       0.066032276 -0.02287275 0.030914146 0.046307147
0000f0 9c f0 55 3d a7 e7 bd 3d 99 e2 07 3e 66 df c0 3d
       0.052231416 0.092727 0.13270034 0.0941761
000100 e4 70 0b 3d f6 39 2a bc c9 8b 16 3b 5c 41 fe bd
       0.034043208 -0.0103897955 0.0022971502 -0.1241481
000110 3d 43 15 bd e2 e8 b8 3d 20 42 93 bc a8 32 85 bd
       -0.036441077 0.09028794 -0.017975867 -0.065038025
000120 19 91 c3 3d 98 30 63 3d 88 db d6 bd 43 71 82 3d
       0.095491596 0.055466264 -0.10491091 0.06369259
000130 d0 47 19 3e 9c a8 80 3d 66 b7 6a bd 1d 79 9f 3b
       0.149688 0.0628216 -0.05730381 0.0048667328
000140 7c 77 a5 3c 05 b0 52 bd e0 2d 8b 3c e2 ce 83 3d
       0.020198576 -0.051437397 0.016989648 0.06435944
000150 b3 28 47 be ea 5d f2 bd 40 73 c6 3d 0e 2a 49 bc
       -0.1944912 -0.11834319 0.09689951 -0.012278093
000160 39 92 1f 3d bc 60 cc bc 3c fc 25 3d 6d 56 e6 3d
       0.03895781 -0.02494847 0.040523753 0.11246953
000170 5a 18 48 3d 2b 12 a9 3d e5 06 9b bd 9d 60 cd 3d
       0.04885135 0.082554184 -0.075696744 0.10028193
000180 79 47 dd bb 90 90 ac 3d c1 c8 b3 bd d6 5b a1 bd
       -0.006752905 0.084260106 -0.08778525 -0.078788444
000190 b7 33 22 3c 88 4e ae bd 64 5d 9e bc f5 58 d3 3c
       0.009900025 -0.085110724 -0.019331641 0.025799254
0001a0 ef 83 95 bd a9 9e 86 3d f9 ad 69 3d fa 85 9a 3d
       -0.07300555 0.06573231 0.05705068 0.07545085
0001b0 b2 04 61 bd 38 e2 d5 bd c2 66 ac bd d9 12 3c 3c
       -0.05493612 -0.104435384 -0.08418037 0.011479103
0001c0 04 57 48 bd bf e4 d5 3d 8e 94 8a 3d b9 be 49 3d
       -0.04891111 0.104440205 0.06766616 0.049254153
0001d0 61 6a 08 3d 73 04 37 3e 98 f0 5e 3d c6 8a f6 3c
       0.033304576 0.17872791 0.054428667 0.03009547
0001e0 b7 57 35 3d 20 f5 00 3e 57 4b 0a 3d 07 db 5d bc
       0.044273105 0.12593508 0.033763256 -0.01354099
0001f0 7f 7a 42 3e 08 d0 a3 3c 9e fb 2b 3e 02 88 e8 3d
       0.18992041 0.019996658 0.16795203 0.113540664
000200 7d 99 8a 3d 10 59 59 3d 1d 77 1d be 34 09 d9 bd
       0.06767557 0.053063452 -0.1537747 -0.105974585
000210 ed 6f b8 3d 5f 2a c9 3d b1 01 20 bd 16 f3 be 3d
       0.09005723 0.09822535 -0.039064113 0.09323709
000220 ed 78 ba bd 4b be d7 3d 48 b3 85 3d 1a f8 a2 bd
       -0.09105096 0.105343424 0.06528336 -0.07957478
000230 be ee 88 be 3b 95 10 3e 18 dd 8f bc 29 95 ae 3d
       -0.26744646 0.14119427 -0.01756148 0.08524544
000240 22 59 8b 3d f2 70 b8 3d 4d 05 66 3e 15 ae 37 be
       0.0680411 0.090059176 0.2246296 -0.17937501
000250 f4 b0 53 be 1e c1 3d be 15 f1 82 3c 97 07 0f bd
       -0.20672971 -0.185307 0.015984097 -0.034919348
000260 f7 8f 90 3b c8 7d fe bd 6c 7c cd 3d 2c 7e 60 3e
       0.004411693 -0.124263346 0.10033497 0.21923131
000270 96 e2 7c be 50 e2 47 3c 8e 75 2a be 3d 88 27 bd
       -0.2469581 0.012199953 -0.16646406 -0.04090141
000280 ec c6 21 3e c9 d8 0e 3e f2 7d 6f 3d 32 41 c6 3d
       0.15798539 0.13949884 0.05846972 0.09680404
000290 e2 b1 60 bb 66 ce af 3d 5e 1b 2a 3d 8a 27 a6 bc
       -0.0034285714 0.08584289 0.041530006 -0.020282526
0002a0 8e 09 9a 3c 6f 0d 1f bc 60 0a d5 3c cb 53 c7 3c
       0.018803384 -0.009707793 0.026005924 0.024331948
0002b0 fd 1c 8e 3c 96 2c 04 bd 0f 5e 8f 3d 12 09 c0 3d
       0.017347807 -0.032269083 0.07000362 0.0937673
0002c0 51 e0 1f bd fe 56 3e bc de 89 b3 3c 26 82 79 3d
       -0.039032284 -0.01161742 0.021916326 0.060915135
0002d0 a1 b6 18 3e b8 fa 0e 3d 30 ca 45 3e cf 9a 53 3e
       0.14913417 0.034907073 0.1931541 0.20664524
0002e0 ff 3d 26 3e 7a fd a0 3d 55 d9 e9 bc c2 bb 46 3e
       0.16234587 0.07860847 -0.028546015 0.19407561
0002f0 a8 4e 9d 3d 7e d1 14 be 95 15 24 be 7f 83 0e 3d
       0.07681018 -0.1453304 -0.16023858 0.034793373
000300 33 a0 45 be d2 9b 3a 3e 18 c4 6b bd 33 11 00 3e
       -0.19299392 0.18223503 -0.057560056 0.12506561
000310 3d 6e e7 bd 7b e6 0d bd a4 df af 3d fe 7b 21 3d
       -0.11300323 -0.03464363 0.08587578 0.03942489
000320 ef 33 f6 bd a3 1e 39 be 7f ec c9 bd 79 b5 54 3e
       -0.12021624 -0.18078093 -0.09859561 0.20772351
000330 a0 b9 37 bc 8b 44 06 3e d9 b0 2b bd 52 27 68 3d
       -0.01121369 0.13112085 -0.041916702 0.056678124
000340 16 cd 58 bd 24 6b 52 bc f9 be 14 3d d3 62 9c bd
       -0.05292996 -0.012842927 0.03631494 -0.07636037
000350 06 0a 12 3d 64 fc b7 3d 4c 77 6c 3d 9c 09 62 3d
       0.03565409 0.089836866 0.057730958 0.055184945
000360 52 b6 01 3d 7b b2 ff 3d 0c 49 8b bd 5e d3 02 3e
       0.031668015 0.12485214 -0.06801042 0.12775943
000370 f9 29 8f 3d 42 5d 7d bc 43 e5 a9 3c f4 bd e8 bd
       0.069904275 -0.015464129 0.020739203 -0.11364356
000380 52 6c 8d 3d e8 c7 34 3c 5a 71 f0 bc 47 db d9 bd
       0.06905426 0.0110339895 -0.029350925 -0.10637527
000390 18 fe 43 bd d3 9a df 3d 9e ed be 3d 42 14 28 3d
       -0.047849745 0.10918202 0.09322666 0.041034944
0003a0 45 15 e8 3d c5 62 e1 bc dc a5 2c bc e0 85 ff bc
       0.11332182 -0.027512917 -0.010537591 -0.031191766
0003b0 76 31 b1 bd 33 85 8b 3d bb b9 c2 bd b5 c6 79 bc
       -0.08652012 0.06812515 -0.095080815 -0.015245129
0003c0 77 20 30 bc ca 3f 4d bb 97 02 20 be 2f 4e de 3d
       -0.010749928 -0.0031318539 -0.15625988 0.10854756
0003d0 97 76 1e 3e 7f cc 8c 3d 9e 32 11 3e 3b e6 45 3e
       0.15474926 0.06874942 0.14179465 0.19326107
0003e0 e9 b9 48 3e 64 f1 af bb 79 8a ff 3c d6 1d 19 3d
       0.19602169 -0.005369352 0.031193959 0.03738197
0003f0 9a 02 13 3e 65 f4 aa bd ec 2a 11 3d 94 98 20 3e
       0.14356461 -0.08347396 0.035441324 0.15683204

conv_a_0.bias f4 [16]
000000 fe 09 c3 3d 58 dc c6 3d 86 f5 85 bc a8 23 90 bd
       0.0952339 0.09709996 -0.016352426 -0.07038051
000010 4f dd 0e 3d 4b af 0a bd 86 cc dc 3b 52 ac c2 bd
       0.034879025 -0.03385858 0.0067382483 -0.09505524
000020 71 c9 30 bc fe 1e 80 bd 7c b7 d7 3d 73 52 d7 3d
       -0.010790215 -0.06255911 0.10533044 0.10513773
000030 53 5e c0 bd 07 63 84 bc a6 7a 8b 3b 06 85 78 bd
       -0.09392991 -0.016160501 0.004256564 -0.060673736

conv_a_1.weight f4 [16, 16, 3, 3]
000000 5e cc 35 bd 8a 33 42 bd 0d 8e 56 3d 6a 2c 81 bc
       -0.044384353 -0.047412433 0.052381564 -0.015768249
000010 1a 4a 59 3d 87 ae be 3d 67 9c cc 3c 34 f2 4a bd
       0.053049184 0.09310632 0.024976922 -0.04954739
000020 08 a5 06 3d b9 0b 4f 3d 56 65 33 3b 69 e4 46 3d
       0.03287223 0.05054829 0.0027373633 0.048557673
000030 2d 24 c3 bd 0c 64 23 3d 04 b4 10 3d b1 81 78 bd
       -0.09528384 0.039890334 0.035327926 -0.06067056
000040 aa fe 9e bd 1f df bf 3b ca ce 15 bc 9f 97 a9 bd
       -0.07763417 0.0058554555 -0.009143541 -0.082808726
000050 68 55 d7 bd dd 0f 84 bd 54 1a da bd 44 e1 bd 3c
       -0.10514337 -0.06448338 -0.10649553 0.023178704
000060 b4 df 84 bc 67 48 30 bd c6 69 44 bd 3f 54 d1 bd
       -0.016219951 -0.0430378 -0.047952436 -0.10221147
000070 94 af 0e bd 7c 04 a7 bd 0c 1c 26 3d 7f c4 f7 3b
       -0.034835413 -0.08155152 0.04055409 0.007561266
000080 60 a4 35 bc 43 ed 8f bd 75 2f 4d 3d 4c be aa bd
       -0.011086553 -0.07027676 0.050094087 -0.083370775
000090 dc 80 d4 bd 9f 15 d9 bd 2d ba 8b bd 0a 00 a4 bc
       -0.103761405 -0.10599827 -0.068226196 -0.02001955
0000a0 c2 83 be bd 18 f0 d5 bd b3 22 21 bd 12 c5 9d bc
       -0.093024746 -0.10446185 -0.039339732 -0.01925901
0000b0 a2 c3 ba bc 55 6b 1c 3e b5 dc 0e 3d d1 cf b6 3d
       -0.022798363 0.15275319 0.03487845 0.089263566
0000c0 79 0e f3 3d e9 49 cd 3d cc 94 26 3d 78 05 39 3e
       0.11867995 0.10023863 0.040669248 0.18068492
0000d0 88 8c 69 3d 0b 1e 18 3e 11 16 e1 3d 0d c5 ac 3d
       0.057018787 0.1485521 0.10990537 0.08436022
0000e0 c9 c4 02 3e 28 ee 19 3e 29 1b 2e 3e 86 be be 3d
       0.1277038 0.15032256 0.17002548 0.09313683
0000f0 4b 26 f8 3d 06 b2 ff 3d ca 77 f6 3d aa 6b 0a 3e
       0.12116679 0.12485127 0.12034567 0.13517633
000100 00 93 c6 3d b7 20 76 3d 40 0a 1e 3e e2 e3 f2 3d
       0.09696007 0.060089793 0.15433598 0.118598714
000110 7f fa 2c 3e 76 44 23 3d 2d cc bb 3d a4 37 ab 3d
       0.16892432 0.03986021 0.09169803 0.08360222
000120 06 cc a7 3d f4 06 41 3d 58 b2 2a bd 59 e7 38 bd
       0.08193211 0.04712577 -0.041673988 -0.045142505
000130 64 bb 68 bc c4 01 b3 3c 9b 50 e4 3b d7 18 82 bd
       -0.014204834 0.021851428 0.0069676167 -0.06352394
000140 4b 8e 52 bd 4d da 3d 3e fc b0 08 3e 62 37 2c 3e
       -0.051405232 0.18540306 0.13348764 0.16818002
000150 af fd 99 3d 1e 8b 28 3e 7c b6 99 3d 76 88 19 3e
       0.075190894 0.16459319 0.07505509 0.14993462
000160 23 dd 50 3e 39 00 1e 3e 61 41 cc bd ea e2 dd bd
       0.20396857 0.15429772 -0.099734075 -0.10834296
000170 2b 6c 87 bd dc b7 2c bd 7d 5a 77 bd 4b 8f 06 bc
       -0.06612428 -0.04216753 -0.06038903 -0.008212875
000180 3d a4 67 3a 5b e4 a5 3a fd 8f d0 ba 15 94 6a 3d
       0.0008836424 0.0012656556 -0.0015912052 0.05727013
000190 7d a2 82 bd 6c 1d 99 3c 93 cf 9f bc 45 3e 08 3d
       -0.063786484 0.018690787 -0.019508159 0.03326251
0001a0 45 ca 86 3d 09 94 4e 3d 94 73 ba bc 17 e1 10 bd
       0.065815486 0.050434146 -0.02276019 -0.035370912
0001b0 0e 2b a1 3c 65 fe 05 be 79 e1 6f 3c 2a de 26 3c
       0.01967385 -0.13085325 0.014641159 0.010184804
0001c0 06 94 0c bd 00 75 fa bd 7b bc 5d bd f0 4d c6 bd
       -0.034320854 -0.12229347 -0.054134827 -0.09682834
0001d0 3d 6a b2 bd f6 3d ab bd b9 ab 2b bc a8 27 95 3c
       -0.087116696 -0.083614275 -0.010477954 0.018207386
0001e0 0a d7 ef 3d 9e de 1f bd ec be 3c 3c 6b 20 15 3d
       0.11710937 -0.039030664 0.011520129 0.03640787
0001f0 b0 a6 82 3d 04 f5 db 3c 60 f8 21 3d 75 cb 7c 3d
       0.06379449 0.026850231 0.03954351 0.06171747
000200 b0 2c c0 3d f1 75 61 bb 8e 38 ae 3d 8c 0c b6 3d
       0.093835235 -0.0034402574 0.08506881 0.08889112
000210 0d 18 5c 3c 05 13 f8 3b 22 2f 9c bc 8f 8c 08 3e
       0.0134334685 0.0075706267 -0.019065443 0.13334869
000220 0a 00 00 3e 73 f8 20 3e 79 63 0a 3e 26 f5 36 3d
       0.12500015 0.15719776 0.13514508 0.044667386
000230 0e 2d 06 3e 9e 27 0f 3e f8 52 a8 3d ae 2c 99 3d
       0.13103124 0.13979957 0.0821895 0.07479225
000240 f1 1b b0 3d ee 21 85 3d b9 e3 85 bc 3a 5e 4b 3c
       0.085990794 0.06500612 -0.016343938 0.012412602
000250 7c 83 32 bd 3e 21 20 3c a1 25 bf 3d 39 6b f2 bc
       -0.043582425 0.009773551 0.09333349 -0.029592143
000260 40 42 93 3d bb 9a a9 bb d2 65 27 3d fb 69 34 3d
       0.071903706 -0.005175916 0.040868588 0.044046383
000270 e1 81 93 bc d1 be 4c ba 8b 81 aa 3c 59 f5 7f bd
       -0.018006267 -0.0007810416 0.020813724 -0.06248984
000280 8c a4 9f 3b db 7b 35 3c 26 fb ee bc 38 f0 8a bd
       0.0048719104 0.011076893 -0.029172491 -0.06784099
000290 e5 c5 e8 bb 03 86 6c bd 67 40 bb bd eb a5 ae bd
       -0.007103669 -0.05774499 -0.09143143 -0.0852774
0002a0 5b b4 ca bd d2 67 d3 bc 3d cc 07 be c0 32 b6 bd
       -0.09897681 -0.025806341 -0.13261504 -0.088963985
0002b0 a4 8c 0f 3c d1 17 0f bd b5 ae a0 bd ce ca 4b bd
       0.008761559 -0.034934822 -0.07845823 -0.049753956
0002c0 f9 7d b3 bd 3d a8 d5 3c 74 af 64 bb f1 4c 42 bb
       -0.08764262 0.026081199 -0.0034894617 -0.0029647911
0002d0 47 87 53 bc 57 dd 79 bc fd 6b 28 3c 77 a2 f8 bd
       -0.012910671 -0.015250525 0.010279653 -0.12140363
0002e0 e2 f1 b8 bd db 60 e5 3a 54 18 e2 bd 92 81 04 39
       -0.090305105 0.0017500179 -0.110397965 0.0001263677
0002f0 5c f9 c4 bd 4d 72 40 3e 52 08 e0 3d 7e 51 31 3d
       -0.09617874 0.18793602 0.10939087 0.043290608
000300 49 f6 15 3e 55 aa 20 3e 15 6a 0c 3d 3c 2f 89 3d
       0.14644732 0.15689977 0.034280855 0.06698462
000310 d1 2c c6 3d 5e f1 56 3d 62 29 a2 3d b8 1a 80 3d
       0.09676517 0.05247628 0.079180494 0.06255096
000320 2f d4 99 3d 2e 21 41 3d 5e 95 aa 3d 0f 0f 8f 3d
       0.07511174 0.047150783 0.08329271 0.06985294
000330 ca 25 1a 3e e3 3f 96 3d bd 54 88 3d 78 b6 0c 3e
       0.15053478 0.07336404 0.066567875 0.13741481
000340 dd dd 15 3e a8 c7 34 bb d9 69 e6 3c bd 97 16 3c
       0.14635415 -0.0027584825 0.028126644 0.009191451
000350 96 30 0c 3d cc 69 71 3d 65 e2 6c bc 47 d9 df 3d
       0.034226023 0.058938786 -0.014458274 0.10930114
000360 c2 fe 37 bc 72 8b 37 bd a0 5b 55 bd d0 93 0a 3c
       -0.011230173 -0.04481072 -0.052089334 0.008458093
000370 83 93 6e 3b 27 67 00 bd 83 4f 74 bc 01 9f 8a bd
       0.0036403842 -0.031348374 -0.014911535 -0.06768609
000380 b4 ec 72 3d ad 9c 6b 3e ce ce a4 3d 8f 89 43 3e
       0.05930777 0.23008986 0.08047257 0.19095443
000390 78 7b 49 3e f3 b1 1e 3e fb 1d d5 3d 38 30 75 3e
       0.19676006 0.1549757 0.10406109 0.23944175
0003a0 9b 16 fa 3d 38 b3 08 3e c0 03 50 3c ce e0 ad bd
       0.12211343 0.13349617 0.012696207 -0.08490144
0003b0 51 6f 64 3b 21 f8 e0 bd e9 7e 8d bd 18 17 98 bb
       0.0034856389 -0.10984827 -0.06908972 -0.004641425
0003c0 b4 d1 fd ba 45 d0 de bd 0a 9d ef bc 28 f3 67 3d
       -0.0019364865 -0.10879568 -0.029249687 0.056628376
0003d0 14 31 51 bd a4 50 82 bd 50 9d 8a bd 6b 47 20 3d
       -0.051072195 -0.06363037 -0.06768286 0.03913061
0003e0 2c b7 ad 3c 3a 4b f0 3c 50 af b4 3d ee f4 a0 3c
       0.021205507 0.029332746 0.08822501 0.019648042
0003f0 6f ce b0 3b b5 58 8a bd c0 3b d0 3c 58 83 b0 bd
       0.0053957026 -0.06755201 0.025419116 -0.08618802

conv_a_1.bias f4 [16]
000000 8d 5e 76 bd be a0 9c bd 86 ec 53 bd b6 1f f3 3c
       -0.060148764 -0.07647847 -0.05173924 0.029678207
000010 9a 11 9d bd 86 cc a2 bc 15 29 56 3d 0d c7 0b bc
       -0.07669373 -0.019872915 0.052285273 -0.008531344
000020 19 6a 6b 3d d7 1f c6 b6 0b 4b 49 3e 5a f3 c8 3d
       0.05747423 -5.9045665e-06 0.19657533 0.098120406
000030 79 87 42 bd e2 44 0c 3d 47 48 a3 bd ce 80 75 3d
       -0.047492478 0.03424538 -0.0797277 0.05993729

linear_a_0.weight f4 [16, 144]
000000 33 91 5e bc b3 1f dc 3d d2 ec de 3d 59 45 66 bc
       -0.013584423 0.10748234 0.10885014 -0.01405462
000010 06 11 a9 3d 48 88 e4 3c 06 98 21 3e 82 81 6e 3d
       0.082552 0.027897015 0.15780649 0.058228977
000020 8b 6d ab 3d d8 07 88 3d db 4d 47 bc dc 2c fb 3d
       0.08370503 0.06642121 -0.012164558 0.122644156
000030 ba 25 0f 3e 37 c2 ed 3d db d8 11 3e cb 83 1b 3d
       0.13979235 0.11609309 0.1424288 0.037967484
000040 f4 b3 fe 3d 8b 3b 15 3e 5b b1 01 3e 19 c6 bd 3a
       0.12436667 0.14573495 0.12665312 0.0014478593
000050 72 98 c6 3d 68 90 f4 3d 02 2e 11 3e c9 fc 74 3c
       0.096970454 0.11941606 0.14177707 0.014952847
000060 d2 86 63 3d d3 f8 27 3e 65 cb e4 3c 24 97 04 3e
       0.055548497 0.16403513 0.027929017 0.1294828
000070 2e 3c 17 3e b1 55 03 3e 49 8d e4 3d 7a 16 b8 3d
       0.1476905 0.12825657 0.111597605 0.08988662
000080 12 02 35 3e 13 f7 0f 3e a2 2d d6 3d 8d 87 fe 3d
       0.17676571 0.14059095 0.104579225 0.12428198
000090 96 3b a3 3d e8 cb 22 bc 5b 9f 45 bc 9a 75 f0 3d
       0.079703495 -0.00993631 -0.012061919 0.11741181
0000a0 b8 14 df 3a 65 62 00 3e 65 94 50 3d c8 db b3 3c
       0.0017019724 0.12537535 0.05092277 0.021955386
0000b0 04 06 6b 3d a0 19 4f 3e f3 90 d6 3d 67 63 26 3e
       0.057378784 0.20224619 0.104768656 0.16248856
0000c0 d2 70 30 3e 36 12 2c 3e d1 54 36 3e 18 6b 46 3e
       0.17230538 0.16803822 0.17805792 0.1937679
0000d0 f2 aa 1e 3e 81 ef dc 3c 0f 24 03 3d d4 47 a0 bc
       0.15494898 0.026969673 0.03201681 -0.0195655
0000e0 a2 86 c7 3d c2 f0 83 3d 5d f0 e3 3d 74 ec 8d 3d
       0.09742476 0.06442405 0.1112983 0.069298655
0000f0 97 c3 1c 3d 9b a8 0a 3e 31 9e 0e 3e d6 5e c5 3c
       0.038272467 0.1354088 0.13927533 0.024093073
000100 51 bd f3 3c ab 59 cd 3d 95 7c f2 3d e3 fd 25 3e
       0.029753359 0.100268684 0.118401684 0.16210131
000110 ea d8 76 3c 2b 4b 3c 3d ec 10 b7 3d 9d f3 d8 3c
       0.015066365 0.045970123 0.089387745 0.026483351
000120 34 49 65 3d 22 4e 7a 3d 6f b1 5a 3b 95 87 00 3e
       0.055978015 0.06110967 0.0033369919 0.1255172
000130 34 09 31 3d 2a ef c0 3d f0 ad ba bb 47 a2 9c 3d
       0.043221667 0.09420617 -0.0056970045 0.076481394
000140 93 30 f4 3d af d8 b3 3c e3 c7 8b 3d 2d d6 20 3e
       0.11923327 0.021953909 0.06825235 0.15706702
000150 e7 88 2c 3e b1 ee 31 3e e2 47 c3 3d 16 93 87 3b
       0.16849099 0.1737621 0.09535195 0.004137407
000160 c0 8b 67 3d b3 f9 ab 3c a8 6e 98 bd fc 49 cd 3c
       0.05652976 0.02099309 -0.07442981 0.025059693
000170 25 07 ab bd 50 40 ed bd 43 49 f1 bd 0b 97 82 bd
       -0.08350972 -0.11584532 -0.11781552 -0.063764654
000180 f7 0f 4e bd fa 85 e2 3c 32 e3 12 3c 3d 71 51 3d
       -0.050308194 0.027651776 0.0089653 0.051133383
000190 3c db 83 3c b5 96 aa 3d b3 e0 c6 3c 94 e8 d4 3d
       0.01609575 0.08329526 0.024277067 0.10395923
0001a0 cc 26 ec 3d 23 ac 85 3c 00 01 df 3d 85 dd 15 3d
       0.115308374 0.016317433 0.108888626 0.03658821
0001b0 44 0d b0 bd cd 68 8f bd 19 a7 2e bb 9a b8 6f bc
       -0.0859628 -0.07002411 -0.002664989 -0.014631415
0001c0 0e 96 68 3d 67 5f 66 bd 5d 7b 0e bd e8 2e 47 3d
       0.05678373 -0.056243327 -0.034785617 0.048628718
0001d0 7b 66 b6 3c ec 5e 71 3d 03 c6 de 3d ad 1a d2 3d
       0.022265663 0.058928415 0.108776115 0.10258994
0001e0 4d 32 ae 3d 6a ca 3f 3b 64 6f c0 bb c2 c6 68 3d
       0.08505688 0.0029264935 -0.005872654 0.056830175
0001f0 6e 13 a0 bc 38 1b 15 bd eb a3 62 bb 52 23 3c 3d
       -0.019540515 -0.03640291 -0.0034582566 0.04593212
000200 11 2f 42 3e dd 73 75 3d 97 98 eb 3d 4c 2a 33 3d
       0.18963267 0.05992495 0.115037136 0.04374151
000210 2e 77 c1 3d 0f c8 d3 3d 33 e3 62 3d f1 2f a5 3d
       0.0944656 0.103408925 0.055392455 0.08065785
000220 2f fa 7a 3d 60 a8 0a 3e 09 b8 c7 3d 2e 37 3d 3d
       0.06127375 0.13540792 0.09751899 0.0461952
000230 8d 86 d5 3c bf 7d a6 bc bb ae 84 3d b8 73 33 3d
       0.026065135 -0.020323632 0.0647864 0.04381153
000240 73 53 22 3e 42 87 6d 3d ca 7c 23 3e 42 f0 2c 3c
       0.15852146 0.05799032 0.15965572 0.010555329
000250 9a b6 bf 3c 73 98 85 3d a2 8d 14 3d e8 27 1c 3e
       0.0234025 0.06523218 0.036267884 0.15249598
000260 8b 56 88 3d 3f 72 fb 3c 56 17 05 3e a7 d6 1f 3e
       0.06657132 0.030694125 0.12997183 0.15609227
000270 ce 38 86 3d c7 6a 31 3e 29 03 df 3d 63 0f 81 bc
       0.065538034 0.17325889 0.108892746 -0.015754407
000280 f4 76 db 3d 3f b9 44 3d 58 18 12 3d 3b ab dc 3c
       0.10716048 0.048028227 0.035667747 0.026937118
000290 07 d4 c4 3d ed 60 0a 3e 23 8c 1b 3e 94 14 05 3d
       0.096107535 0.13513537 0.15190177 0.032490328
0002a0 73 43 43 bd 3c 7c 20 bb ab a9 7b 3d fb 38 f2 3d
       -0.047671746 -0.0024488112 0.061441105 0.118272744
0002b0 a3 d3 0a 3e 55 4f 0f 3e ad ac 05 3e 3e ad f1 3d
       0.13557296 0.13995107 0.13054152 0.118006214
0002c0 d2 53 08 3e 8b cf ef 3d ba 66 1b 3e 20 ab df 3d
       0.13313225 0.117095076 0.15175906 0.109213114
0002d0 1f 45 46 3e 9a fc ff 3d 7f 04 38 3e b0 c8 a0 3d
       0.19362305 0.12499352 0.17970465 0.07850778
0002e0 26 11 d0 3c 3f 0b 24 3e 8a 42 0a 3e 2b 74 ad 3d
       0.025398802 0.16019915 0.13501945 0.08469423
0002f0 cd 81 a0 3d 0f 8e 02 3e 22 c5 35 3d 15 7f 55 3e
       0.078372575 0.12749504 0.044377454 0.20849259
000300 5d 03 a3 3d f4 e1 34 3e 72 74 15 3e 06 a8 24 3e
       0.07959626 0.1766432 0.14595202 0.16079721
000310 89 ee 8e 3d f0 ad 50 3d a7 ff bb 3d e9 21 28 3e
       0.06979091 0.05094713 0.09179621 0.16419186
000320 75 9d 2e 3e 12 b3 ed 3c 41 29 b3 3d a6 be 35 3e
       0.17052253 0.029016051 0.08748103 0.17748508
000330 e2 9e 05 3e 68 ca aa 3d 4d 35 19 3e 98 e4 d2 3d
       0.1304889 0.08339387 0.14961739 0.10297507
000340 71 33 ac 3d 75 85 12 3e 20 9b c3 3d 58 e5 84 3d
       0.08408249 0.14308722 0.09551072 0.06489056
000350 6b ad 70 3d 57 5b 72 3c ad 3a 3a 3e e1 55 3e 3e
       0.058759134 0.014792285 0.18186446 0.18587448
000360 9c db e1 3d b3 b4 03 3e fb f1 25 3e 45 11 be 3d
       0.11028215 0.128619 0.1620559 0.09280638
000370 d5 9b a9 3c b6 36 8b 3d 97 95 b0 3d 6d 0d 5c 3d
       0.02070419 0.06797545 0.08622282 0.05372374
000380 94 0b 1c 3e 05 ee 13 3e c7 69 66 3d 1f b2 2d 3e
       0.15238792 0.14446266 0.05625322 0.16962479
000390 2c 05 19 3d fc 52 c1 3d b9 b9 af 3c 8b da 8b 3c
       0.037358448 0.09439656 0.021450864 0.017071983
0003a0 64 a6 81 bc 05 47 dc 3d 44 1a 53 bd 39 18 02 3d
       -0.015826412 0.107557334 -0.05153872 0.03176138
0003b0 77 d8 a5 bd b7 d0 7f 3c df 4f f2 3a 5a e8 5e bd
       -0.08097928 0.015613726 0.0018486938 -0.054420806
0003c0 c1 53 15 3d 16 88 1d 3d 2d 0b 19 bd a5 6b fc 3c
       0.036456827 0.03845986 -0.037364174 0.030813048
0003d0 60 e1 3e 3d 67 51 ad 3d d1 8a 87 3d 82 27 89 3d
       0.046601653 0.08462792 0.06618274 0.06696989
0003e0 cd 64 e7 3d 93 33 f7 3d ef 84 0c 3e db c5 40 3d
       0.11298523 0.12070384 0.13722585 0.04706369
0003f0 e9 13 6c bc cf cb 01 3d 6e b6 0e 3d d5 86 9d 3d
       -0.014409044 0.031688508 0.034841947 0.07691733

linear_a_0.bias f4 [16]
000000 38 c4 f9 3a 71 31 45 3c 6b d0 86 bd 01 8f 1b 3e
       0.001905567 0.0120357135 -0.06582721 0.1519127
000010 95 46 c9 3d ab d7 db 3c 1b 20 01 3d a8 13 a7 bd
       0.098279156 0.026836237 0.03152476 -0.08158046
000020 ee 76 b1 bd 5a a3 89 3c 2b 92 6a 3d df 8f 3c 3c
       -0.08665262 0.016801525 0.057268303 0.011508911
000030 8a 14 02 3e 02 24 d5 3d b4 bf 42 3d e8 99 7f bd
       0.12703148 0.104072586 0.047546104 -0.062402636

GRU_a.weight_ih_l0 f4 [48, 16]
000000 aa 79 00 3e e3 78 5b be 95 61 3c bd 94 ae ac 3d
       0.12546411 -0.21432833 -0.0459915 0.08431736
000010 9d 01 b8 3d d0 37 15 be e7 32 97 be 06 bf 3d 3d
       0.08984683 -0.14572072 -0.29531023 0.046324752
000020 09 84 b4 bc 79 10 1f be 36 9a e7 3d 48 35 2e bd
       -0.022035616 -0.15533628 0.1130871 -0.04253128
000030 a1 9a 3e 3e 9a 2d 04 bc 1c 2c 8f be 02 78 47 bb
       0.18613674 -0.008067513 -0.2796334 -0.003043652
000040 e6 3d 9b bd 5e dd eb 3d 45 83 d1 bd 5d a0 12 3e
       -0.075801656 0.11516832 -0.10230116 0.14318986
000050 0e ff 9c bd 20 9c 2f 3e 73 c4 28 3e 84 9f 08 3e
       -0.07665835 0.171494 0.1648119 0.133421
000060 1b 6f ba 3d 0f 9f 45 be 54 69 15 3e db 46 c2 bd
       0.09103223 -0.19298957 0.1459096 -0.09486171
000070 35 ea a2 3e 38 90 95 3e 46 e8 8f 3e 9a 48 68 3e
       0.3181931 0.29211593 0.28106898 0.22683945
000080 4c c1 c1 bd d9 de bf ba ef 44 54 3e 78 02 e0 3d
       -0.094606966 -0.0014638557 0.20729421 0.10937971
000090 8f 6c 1b 3e e2 94 73 3c 4d 61 b4 bb 08 80 48 3d
       0.1517813 0.014867039 -0.005504763 0.048950225
0000a0 f1 46 0c 3d bc 1c 11 3d 2c 0e f0 3d a4 18 d0 bc
       0.034247342 0.035427794 0.11721453 -0.025402375
0000b0 38 ee 82 3e 56 25 54 3d 54 05 16 3d ca cf c1 3d
       0.2557237 0.05179342 0.036626175 0.09463461
0000c0 56 a6 d6 bd e0 4f 11 be c0 0a 44 3d dc bd 80 3d
       -0.10480945 -0.14190626 0.047861814 0.06286213
0000d0 1f 4c fa 3d d0 5f 4c be cf 25 10 3e 12 97 35 3e
       0.1222155 -0.19958425 0.14076923 0.1773341
0000e0 78 07 ae 3d 29 49 75 be 76 62 3c 3e c3 51 97 bc
       0.08497518 -0.2395369 0.18396935 -0.018471604
0000f0 5e a0 0f be f9 a4 8d 3c c3 a8 24 3e 66 d1 bf bd
       -0.14026019 0.01729058 0.16080002 -0.093661115
000100 4f 87 74 be 47 e4 6d be 9d 87 74 3e a7 8e 58 3e
       -0.23879741 -0.23231612 0.23879857 0.21148168
000110 9a d5 6e 3b ea 20 68 3c 5b b3 70 3e 8f 90 93 3d
       0.0036443234 0.014168004 0.23505919 0.07205307
000120 6d bc cd 3d ad 87 32 be cf a0 4a 3e 3f 32 57 3e
       0.10045705 -0.17434569 0.19787906 0.21015261
000130 a1 d8 b3 3d 31 44 97 3e 80 a4 6f be ed fb e2 3d
       0.08781553 0.29544213 -0.23402596 0.11083207
000140 e5 9d 92 be 50 cf 38 bd 25 32 53 be 26 cb 11 3e
       -0.2863609 -0.045119584 -0.20624597 0.14237651
000150 5c 51 61 3c 37 68 8c be 58 2b 24 bd 95 5f 29 bd
       0.013752308 -0.2742326 -0.0400804 -0.04135092
000160 66 07 14 3e b6 38 26 be df fb 6b be f0 28 98 be
       0.14455947 -0.16232571 -0.230453 -0.29718733
000170 50 cc 74 bd 0c af e4 3d b5 ec 2f 3e 1e b3 c4 3c
       -0.05976516 0.111662 0.1718014 0.024011191
000180 8e f6 5c 3d 73 00 07 be b7 e4 4d be e2 06 a6 3e
       0.05394607 -0.13183765 -0.20106779 0.32427126
000190 10 d4 60 3e 5e 70 81 3c f9 24 29 be d5 87 ca bd
       0.21955895 0.015800651 -0.1651801 -0.09889189
0001a0 2f d5 bd bd 06 68 0f bd 2e 9a 6d be ee 67 5c 3d
       -0.09269177 -0.035011314 -0.23203346 0.053810053
0001b0 7e 0e f8 3d da 63 46 3e 9f 7c a5 bd cc a2 45 be
       0.12112139 0.19374028 -0.0808041 -0.19300383
0001c0 a0 bb 2b 3d 3e a2 26 3e 8a f3 b8 bd 39 aa 51 bc
       0.04192698 0.16272828 -0.090308264 -0.012796932
0001d0 9d e4 5e 3e 61 79 68 3e 66 e4 53 3e 8c f7 70 be
       0.21766897 0.22702552 0.20692596 -0.23531932
0001e0 4c b6 e5 bd 78 66 8c bd d4 00 84 3e db c2 74 3b
       -0.11216411 -0.06855482 0.25781882 0.0037347588
0001f0 91 b8 8e 3e c1 15 02 3e 4e 76 d0 3d 34 11 63 be
       0.27875188 0.12703611 0.10178815 -0.22174531
000200 90 77 64 3e dc 2b a1 3e e4 48 0c 3e 1b 60 bd 3d
       0.22311234 0.31478775 0.1369968 0.09246846
000210 84 7f 64 3e 3f ed 95 3c 65 b6 90 bc ac 70 96 3e
       0.22314268 0.018301604 -0.017665097 0.29382837
000220 66 65 7d bd 01 1e 1a 3e 20 78 05 be 26 b6 20 bc
       -0.06186428 0.15050508 -0.13034105 -0.009809053
000230 2f 71 71 3e 7f 06 3f be ac 63 f5 bd 3c b7 26 be
       0.23578332 -0.18654822 -0.119819015 -0.16280836
000240 a1 01 0a 3e 19 83 88 3e 3b c3 3b bd 62 7a 98 be
       0.13477184 0.2666252 -0.045840483 -0.2978087
000250 77 7a ad bd e2 de 98 3e ce 49 90 bd d8 af 21 3d
       -0.08470624 0.29857546 -0.07045327 0.03947434
000260 b6 2f 4f be 01 30 6e 3e 92 b4 46 3e 95 de 79 bc
       -0.20233044 0.232605 0.1940482 -0.015250822
000270 69 09 e9 3d c5 bc 39 3e d6 81 6b be 76 79 82 3e
       0.11378748 0.18138416 -0.22998747 0.25483292
000280 66 d2 11 be ce 03 7e 3e 67 1e 19 bd 12 1d 38 3e
       -0.14240417 0.24806139 -0.03738251 0.1797984
000290 d1 f7 69 bc b2 6a 2b 3c cc 04 2d 3e 9a 7c 2d 3c
       -0.014280275 0.01046245 0.16896361 0.010588789
0002a0 e2 39 5e be 64 db 25 3e 68 5d 90 3e 65 84 45 be
       -0.21701768 0.16196972 0.28196263 -0.19288786
0002b0 fd 88 21 3e 51 18 91 3d c6 53 f4 3d 08 89 47 3e
       0.15774913 0.07084716 0.11930041 0.19485867
0002c0 1a 10 3c 3e fb 06 d0 3d 85 cc 65 3d 08 69 11 be
       0.18365517 0.101575814 0.05610325 -0.14200222
0002d0 18 42 03 be 89 11 55 3e a7 fd 40 3d cb 3a 63 3e
       -0.12818182 0.2080747 0.0471169 0.22190396
0002e0 2f f5 96 bd b1 39 e1 bd 56 fa 92 3e f1 03 c7 bd
       -0.07370984 -0.10997332 0.28706616 -0.09717549
0002f0 3c b0 09 3e f2 11 e3 3d c5 6e 78 bc 1e 6c 72 be
       0.13446134 0.11087407 -0.015163128 -0.23674056
000300 bb d5 21 be b2 70 7c be fe ff 38 3e 81 84 38 3e
       -0.15804188 -0.24652365 0.18066403 0.18019296
000310 7b ef 98 bc a9 50 82 be 49 7e 03 3e b5 28 ca bd
       -0.01866888 -0.25452164 0.12841143 -0.098710455
000320 9b 11 0e be 3e a9 86 3d 16 a3 d1 bd d6 3d 86 3c
       -0.13873903 0.06575249 -0.10236184 0.016386908
000330 f5 d5 68 bd 99 aa 97 bd 67 5f 46 be 39 2b 47 3e
       -0.05684467 -0.07405586 -0.1937233 0.19450082
000340 32 f4 1b be 1e 07 28 3d d9 0f 96 bd 56 2b 2f 3e
       -0.15229872 0.041022412 -0.073272415 0.17106375
000350 e0 dd 13 be 6f 63 26 be dd e5 81 be 42 62 3a be
       -0.14440107 -0.16248868 -0.25370684 -0.18201545
000360 8a fd b8 3d f1 db c3 3d 0d 23 0c be 86 26 8c bc
       0.09032734 0.09563435 -0.13685246 -0.017108213
000370 9c fb 02 bd 4a 99 08 3e 12 67 22 3e 36 fe 5a bd
       -0.031978235 0.13339725 0.1585963 -0.05346509
000380 71 27 fe 3d a2 46 bb bc d2 e5 60 be b0 12 15 3d
       0.124098666 -0.022860829 -0.2196267 0.036394775
000390 f6 b3 7a bd c7 e4 30 3e e1 f8 17 be be 7b a7 3d
       -0.06120678 0.17274772 -0.14841034 0.08177899
0003a0 91 75 82 be b6 0f b4 bd 45 e7 91 be 57 9f a4 3c
       -0.2548032 -0.08792059 -0.28496757 0.02009551
0003b0 80 19 2b be fa 00 8c bc 07 f4 1c be 7e 01 01 be
       -0.16708946 -0.01709031 -0.15327464 -0.12598225
0003c0 ce 58 38 be 79 9f 2e be 4c 30 15 3e 54 a4 6a 3c
       -0.18002626 -0.17053021 0.14569205 0.014321405
0003d0 f5 d4 d2 bc fb 60 b1 3d 06 4a e2 3d e5 93 4f be
       -0.025736311 0.08661076 0.11049275 -0.20271261
0003e0 ee 59 2d 3e d5 dd 61 3d 4a 8b 0a be c1 05 1f be
       0.16928837 0.055143196 -0.13529697 -0.15529539
0003f0 59 a1 b9 bb 6c 2c d7 bd 9f ec 24 3d 3a dc 07 3e
       -0.005664986 -0.1050652 0.040264722 0.13267604

GRU_a.weight_hh_l0 f4 [48, 16]
000000 cb a6 39 bd 1b 72 47 be f8 be 1d 3e 54 27 67 be
       -0.04532508 -0.19477122 0.1540488 -0.22573596
000010 13 4f cf bd 50 22 2c bd 09 b0 5a be bd ce 97 bb
       -0.10122504 -0.04202491 -0.21356215 -0.0046327994
000020 c9 6e 60 bd c8 43 e9 bd 58 d3 10 be db 34 51 3e
       -0.054793153 -0.11389881 -0.14143121 0.20430319
000030 bf a5 c5 3d 96 bc 3f be 16 17 0e 3d ab 8e 3e 3e
       0.09650754 -0.18724284 0.034689985 0.18609111
000040 f0 15 f9 bd e7 bb 13 3c ec 4f 20 bd 90 b0 db bd
       -0.12162387 0.009016967 -0.03913872 -0.10727036
000050 dc 9e 80 3d 8b b1 60 bd cf 18 1a bd 5a c5 5c be
       0.062803 -0.05485682 -0.037621316 -0.21559659
000060 55 25 92 3e 90 f4 26 3e e0 1f 1d be 97 8d 2d 3d
       0.28544107 0.1630423 -0.1534419 0.04237136
000070 43 d1 1b 3e 49 ef ab 3d b8 36 1b 3d 9e 04 a7 3d
       0.15216546 0.083952494 0.03789398 0.081551775
000080 d3 c7 d0 3d 0f 6d 12 be a5 4e 75 bd b1 74 f3 3d
       0.101943634 -0.14299415 -0.059889454 0.118874915
000090 b2 24 08 ba 2c f4 5d 3e 78 8f e1 bc 0b ae 4d be
       -0.00051934563 0.21675175 -0.027534232 -0.20085923
0000a0 3c 09 75 3d 14 9e 31 3e bc 35 57 3e c7 52 68 3d
       0.05982326 0.17345458 0.21016592 0.056719568
0000b0 4b 3e f2 3d 2e 91 3b be 63 e6 eb 3a 05 d2 a1 bd
       0.11828288 -0.183171 0.0017997738 -0.07901386
0000c0 ef 5e 72 be a9 10 4e bc 92 51 6b bd 07 dc 47 3e
       -0.23669027 -0.012577214 -0.05745084 0.19517528
0000d0 da 43 6e 3d 86 b8 56 3e 01 87 8e 3e 27 c2 95 bd
       0.058170177 0.20968828 0.27837375 -0.07312422
0000e0 53 20 54 bd 44 69 bf 3d 77 c3 8a 3d 9e 71 31 3e
       -0.05178864 0.0934625 0.06775563 0.17328498
0000f0 40 1d 61 be f7 55 12 3e 05 e1 4c be af 80 32 3d
       -0.21983814 0.14290605 -0.20007713 0.043579753
000100 49 43 19 be 23 b3 d1 bd a3 5f db bd 03 77 7b 3d
       -0.14967074 -0.10239246 -0.10711601 0.061392795
000110 26 06 cf 3a 31 95 92 3e 24 fb cd 3d d2 3e 18 3e
       0.0015794679 0.2862945 0.10057667 0.14867714
000120 0c ad 20 be 01 30 75 3d 15 28 c6 bc f8 dd 49 3e
       -0.15691012 0.059860233 -0.024189034 0.1971358
000130 bf 25 0d bd 1d c6 cd 3d dc 92 4d be 15 df 58 be
       -0.034459826 0.10047553 -0.20075554 -0.21178849
000140 1f 75 f2 bc c5 f6 02 3e e8 e6 81 be a0 e1 fe bd
       -0.029596863 0.12789448 -0.2537148 -0.12445378
000150 3c b7 3b be ff 69 e0 3d bc f8 a8 3d 14 94 12 3e
       -0.18331617 0.10957717 0.08250567 0.143143
000160 f4 26 75 3e 6a a9 be bc 6b 36 9a bb 86 77 33 3e
       0.2394064 -0.023274142 -0.004706194 0.17526063
000170 47 dd 10 be f4 b5 45 3e ba 60 07 be 7f 9a e5 3d
       -0.1414691 0.19307691 -0.13220492 0.112111084
000180 58 c5 40 3e 0f 27 71 be d2 91 26 be 67 4a 11 bd
       0.1882528 -0.23550056 -0.16266564 -0.035471346
000190 f3 b5 4a 3e c4 9d b6 3d e6 39 3f 3e d1 86 84 3e
       0.1979597 0.0891681 0.1867443 0.25884107
0001a0 de 01 1c be d8 29 40 be 07 dc 0a be 88 a1 77 3d
       -0.15235087 -0.18765962 -0.13560496 0.060456783
0001b0 ca fa c3 bd a2 03 5e bd 00 b3 57 be 77 ff 0a bd
       -0.095693186 -0.054202683 -0.21064377 -0.033935037
0001c0 c3 0f d1 3b 54 7e 1d be 2b 02 64 3d ac 5a 42 3e
       0.006380053 -0.15380222 0.05566613 0.18979901
0001d0 01 a3 29 3e 37 6a 1f 3e 46 54 f7 3c 89 b0 f5 bc
       0.16566087 0.15567861 0.030191552 -0.029991405
0001e0 bc 73 20 3e f7 28 c6 3d 76 3c 03 3d 05 22 1b be
       0.15669149 0.09675782 0.032040082 -0.15149696
0001f0 38 f9 04 be 9a 0a af bd b9 c4 e0 3d 7c ca 1f be
       -0.12985694 -0.08546944 0.10975022 -0.15604585
000200 47 1c df bd 69 b8 9f 3d 4b 96 95 3d d8 6e 64 3e
       -0.10894065 0.07798845 0.07304057 0.22307909
000210 66 68 8b be 16 8a e8 bd ce 2a a4 3d 21 a5 25 be
       -0.27228087 -0.11354463 0.08015977 -0.16176273
000220 a7 96 23 bc 5a 9f 93 3e de 60 0e 3e 63 a1 a2 bd
       -0.009984649 0.28832513 0.1390414 -0.07940938
000230 6e 6a 44 be 64 07 4b 3e 3d 6f bd bd 95 d2 44 be
       -0.19181225 0.19827038 -0.09249733 -0.19220956
000240 6f f6 12 bd 0c 95 1c be 6d c4 11 be 8e dc 89 bc
       -0.03587955 -0.15291232 -0.14235087 -0.016828801
000250 18 49 ee 3c 89 38 40 be a4 fe 05 be 4d f2 b8 bd
       0.029087588 -0.18771566 -0.13085419 -0.0903059
000260 f4 6e 7f bd b1 8e 21 3e 1a 67 8e bd b2 9c 5e bd
       -0.062361673 0.15777089 -0.06953259 -0.054348655
000270 18 51 2a be fd e8 81 be 28 8d 46 3d 52 ea 41 be
       -0.16632497 -0.25373068 0.04847446 -0.18937042
000280 45 d2 52 3d 85 c5 b3 bd 54 a5 78 3d 93 76 eb 3d
       0.05147006 -0.08777908 0.060704544 0.114972256
000290 70 0b 96 bd 25 33 bc 3d 44 6c 3c bd 4e 90 a1 3d
       -0.073264 0.091894425 -0.046001688 0.07888852
0002a0 ea dd 33 be 3a 07 a6 3d 37 2b b6 bc cc 4f 29 bc
       -0.17565122 0.08106847 -0.022237403 -0.010333966
0002b0 81 4d cb 3d 96 c8 15 3e 64 85 2b be bf d3 3b 3d
       0.09926892 0.14627299 -0.16750103 0.045856234
0002c0 35 9e c9 3d dc f4 2b be 83 64 61 be e5 66 3a 3e
       0.09844629 -0.16792625 -0.22010998 0.18203314
0002d0 cd 26 92 bc 90 ce 4a be ba 28 ed 3d 9e 50 27 3e
       -0.017840767 -0.1980536 0.115800336 0.16339347
0002e0 f7 c8 3e 3e f9 15 00 be fb 8a 66 3d 15 fa 2d bc
       0.1863135 -0.12508382 0.056284886 -0.010618706
0002f0 aa ef f8 3d 88 30 69 3b 1f cf a4 3e 3b cc 22 3e
       0.12155087 0.0035581905 0.3218927 0.1589822
000300 94 e2 de bc 27 ce ed bd 79 b4 96 3d 14 48 26 be
       -0.02720765 -0.11611586 0.07358641 -0.16238433
000310 58 31 8c be 7b c4 ec bb 68 eb 16 3e 57 d2 f6 bd
       -0.27381396 -0.0072255707 0.14738238 -0.12051838
000320 78 dd 92 bd 90 8b 22 bd c2 61 00 be dc 31 d4 bd
       -0.07171148 -0.03968388 -0.12537292 -0.103610724
000330 bd 02 8e bd a0 42 37 3e b3 72 b0 3d 07 22 44 3b
       -0.06934116 0.17896509 0.08615627 0.0029927508
000340 7f 31 f0 3c 96 6e 6f 3e 5d 34 6b be 20 68 96 bd
       0.029320477 0.23382029 -0.22969194 -0.07344079
000350 c5 5f eb bd fd 8b da 3d f6 61 06 3d 61 c6 69 bd
       -0.11492876 0.10671232 0.032808267 -0.057073954
000360 67 fa 8e bd 2f da 80 be 7d c9 39 3e 53 bc 16 bd
       -0.06981354 -0.2516646 0.18143268 -0.036800694
000370 df fc 40 be d2 41 43 be 14 a8 01 be 9e 36 30 3d
       -0.18846463 -0.19068077 -0.12661773 0.043020837
000380 e4 20 21 3e cb 82 84 be 95 1a eb bd 07 a2 80 3e
       0.15735203 -0.25881037 -0.114796795 0.25123617
000390 bd 66 8a bd 08 48 42 3d c6 a1 9b 3c 0b 7c 1e be
       -0.06757877 0.047431976 0.018998038 -0.15477006
0003a0 89 92 61 be e3 0a 33 3e 41 62 a5 bd d1 ba 50 3e
       -0.22028555 0.17484622 -0.08075381 0.20383765
0003b0 54 b1 62 3d ee 92 3f 3d c3 14 85 3d 94 eb bb 3d
       0.055344895 0.046770982 0.064981006 0.09175792
0003c0 03 9d 2e bd 2b a8 88 ba 06 d5 f5 3d 44 83 e5 bc
       -0.042630207 -0.0010426095 0.120035216 -0.028016694
0003d0 c9 ae c8 bd 1d 84 6c ba 49 0a 7c be 44 8d 65 be
       -0.097989626 -0.0009022372 -0.24613298 -0.2241717
0003e0 91 c5 c2 bd 9a 52 20 3e b3 93 df bd f4 99 c4 bd
       -0.09510339 0.1565651 -0.10916843 -0.09599677
0003f0 b0 5d 1e be cb 50 de bd 67 7d 9e 3d 39 a4 1b 3d
       -0.15465426 -0.10855254 0.07738762 0.03799841

GRU_a.bias_ih_l0 f4 [48]
000000 6a ad 3c 3d 4f 85 74 3d e0 09 ae bd 6e cd 30 3e
       0.046063818 0.059697445 -0.08497977 0.17265865
000010 53 84 7b 3e 97 4d 88 3e 41 35 c4 3d c5 3f 1f bd
       0.24562196 0.26621696 0.0958047 -0.038879175
000020 23 b4 37 3e c0 3f 5a be f9 85 08 3e 32 cf 43 be
       0.1793981 -0.21313381 0.13332357 -0.19122007
000030 85 bc dc bd d2 be 31 be 34 79 82 bd ef 47 b5 3d
       -0.10778145 -0.17357948 -0.06370774 0.08851611
000040 89 8c c7 3d cc de 2c 3e 92 94 32 3e d9 3c 9c be
       0.09743602 0.16881865 0.17439488 -0.30515173
000050 75 24 da 3d 4a a4 98 be 43 66 df 3d 4d eb ec 3d
       0.10651485 -0.29812843 0.10908177 0.115683176
000060 cd 79 fe 3d ab b1 85 3b 65 d7 50 be 49 7c 74 bc
       0.124255754 0.0040800176 -0.20394666 -0.01492221
000070 ab 3d 91 be f6 35 19 be 2a a9 8e 3d d3 99 54 3e
       -0.2836736 -0.1496199 0.06965859 0.20761804
000080 ce 45 6d 3e bc a4 60 be 15 d0 88 be 5b 29 a1 3c
       0.2317116 -0.21937841 -0.26721254 0.01967304
000090 f5 ff b3 3d 1e 23 49 3e 3e 6a 44 be e3 be 87 bc
       0.08789054 0.19642302 -0.19181153 -0.016570514
0000a0 ac 77 7a 3e bb e3 0e 3d d5 b8 6d be eb 05 10 be
       0.24459714 0.03488515 -0.23215039 -0.14064758
0000b0 aa ba 82 3d b8 9e 3e be e5 af 32 be b6 21 ea 3d
       0.063832596 -0.18615234 -0.17449911 0.11432211

GRU_a.bias_hh_l0 f4 [48]
000000 ba be e5 3d 27 14 99 3d c0 88 1a 3c de 50 2e 3e
       0.11218019 0.07474547 0.009432018 0.17023036
000010 6f 1b 5a 3e ce 5d e8 bc b7 db 88 3e ed b9 99 bd
       0.21299528 -0.028365042 0.2673013 -0.07506166
000020 bb 5e f7 3d a2 45 d3 bd 6c 60 9b bd 53 23 81 3d
       0.12078615 -0.10316016 -0.075867504 0.06305566
000030 99 9f da 3a 0e eb 66 3e 17 6d 32 be 3f 22 1f be
       0.0016679644 0.22550604 -0.17424427 -0.15540408
000040 60 51 8c be 79 81 43 bd 48 41 49 3e 38 24 3a be
       -0.27405834 -0.047730897 0.19653809 -0.18177879
000050 02 ad 1c 3d 89 40 05 bd 1b 7b 2b be b2 4e 52 3e
       0.03825093 -0.03253225 -0.1674618 0.20537832
000060 7c 62 e2 3c 12 99 b6 3d 1b ae 28 be 9d cb e6 3b
       0.027634852 0.089159146 -0.16472666 0.0070433156
000070 4d 8d 63 3d 58 7f aa bc 63 0a e6 3d 57 aa 90 3b
       0.055554677 -0.020812675 0.1123245 0.0044148373
000080 b6 0a 89 be 55 fb 3e 3d ab 19 af 3d 7d 60 aa 3c
       -0.26765984 0.046626408 0.08549818 0.020797962
000090 06 74 49 3e 62 7d a3 3d 05 22 4c be 83 8b 65 bd
       0.19673166 0.07982899 -0.19934852 -0.056041252
0000a0 ab 3d 0d 3e 37 44 0a 3e 94 d9 82 be 1c 9b b6 bc
       0.13793056 0.13502584 -0.25556624 -0.022290759
0000b0 17 30 81 be ae dd 81 be 67 6f 61 be 82 39 ae bd
       -0.25232002 -0.2536444 -0.22015153 -0.085070625

linear_a.weight f4 [4, 16]
000000 aa 9a a4 bd cc 07 29 3e 90 c8 30 3e cd b2 76 be
       -0.08037312 0.1650688 0.17264009 -0.24091645
000010 47 e0 b5 3e 02 37 b6 bc 41 dc 49 3e f7 ff 6d 3d
       0.35522673 -0.022243027 0.19712926 0.058105435
000020 59 95 3f be d4 05 06 be 64 76 3f be fa 1d 1a be
       -0.18709315 -0.13088161 -0.18697506 -0.15050498
000030 3a 75 95 bd f6 19 11 be ff fc 40 bd 9c fa 61 3d
       -0.0729775 -0.1417006 -0.047116276 0.05517064
000040 a4 9c a7 be 7c 32 2d be ff c6 fe 3d 73 d5 36 be
       -0.32736695 -0.1691379 0.12440299 -0.17854862
000050 a0 1a b9 3d 37 3f d1 3d f2 af 0a 3e 05 18 ac 3d
       0.090382814 0.102171354 0.1354368 0.08403019
000060 14 a7 81 3e bc 48 97 bd c0 9e 70 bd 08 88 2b 3e
       0.25322783 -0.0738692 -0.058745146 0.1675111
000070 9e 6b 39 be 06 68 f1 bd 8d 4b 20 be 44 cf cc 3d
       -0.18107459 -0.11787419 -0.1565382 0.1000047
000080 70 71 b5 3c f4 86 68 3e fe 62 25 3e 08 6c c3 bd
       0.022148818 0.2270773 0.16151044 -0.0954209
000090 24 31 80 bd 1e 26 93 be 4e f9 01 3e 58 f0 8d be
       -0.06259373 -0.2874002 0.12692758 -0.2772243
0000a0 55 b3 8d 3d ed 5c 80 3d f4 d7 41 3e 50 15 6f 3e
       0.069189705 0.06267724 0.18930036 0.23347974
0000b0 17 1a 5e bd 18 e0 0c 3d b6 27 c7 bd 47 97 1a 3e
       -0.0542241 0.0343934 -0.09724371 0.1509677
0000c0 23 55 50 3e e2 08 4f 3e 08 a6 b4 bc 67 d1 52 3c
       0.20344977 0.20218232 -0.022051826 0.012867308
0000d0 76 86 71 be c9 a3 66 be 68 06 e6 bd 36 d0 da 3d
       -0.23586449 -0.22523417 -0.11231691 0.10684244
0000e0 68 7a 99 bc 0f 85 98 3e a5 3c 0d 3d 39 3a 20 be
       -0.018735126 0.29789016 0.034481663 -0.1564721
0000f0 f5 7a b6 3e 8a 2f c5 3e 54 76 6a 3e 70 2c 59 be
       0.35640684 0.38512832 0.22896701 -0.21208358

linear_a.bias f4 [4]
000000 0f 7d 34 3e 3a 71 8c 3e 9b b1 1e 3e 3c ac 80 3e
       0.17625831 0.27430135 0.15497439 0.25131404

conv_v_0.weight f4 [16, 7, 3, 3]
000000 e8 5a 1f 3e e9 49 39 bc 3f b8 80 3d d0 65 86 3c
       0.15562022 -0.011309125 0.06285142 0.01640597
000010 18 25 1a 3d 51 bb cc 3c 5f 62 f2 3c 88 46 8c 3d
       0.03763303 0.024991663 0.029587923 0.0684939
000020 df c0 65 3d c7 54 c5 3d 2a aa 33 3e d5 f5 3e 3d
       0.05609214 0.096353106 0.17545381 0.046621162
000030 44 f6 19 3e 07 70 92 bd ad 71 d4 ba a9 3c 9a 3d
       0.15035349 -0.07150274 -0.0016208194 0.07531101
000040 53 3f cc bc 56 5f 15 3d d5 3b 41 3e af 6e 16 3e
       -0.02493254 0.036467873 0.1887048 0.1469066
000050 e3 0d 9b 3d ee dd c3 bc cf 79 b3 3d 3e 24 09 3e
       0.07571008 -0.023909535 0.087634675 0.13392732
000060 39 ee 37 bd 55 83 43 3e c4 46 39 3e f0 d7 d5 3c
       -0.04490492 0.19093068 0.18093401 0.026103944
000070 5c 6f 2e be e1 43 87 3d 8b 8e 12 be 9d c3 76 bd
       -0.17034668 0.06604744 -0.14312188 -0.060245145
000080 67 31 ba bd fa fc 86 3c 52 dd f4 bc 55 78 12 be
       -0.09091454 0.01647805 -0.02989069 -0.14303716
000090 ba 81 c2 bd 16 0f 59 3c 03 57 0a 3c 3b 15 fc bd
       -0.094974 0.013248226 0.008443597 -0.12308737
0000a0 90 f5 82 bc 6a 7f 0a bd 19 c2 31 bc b4 bf 40 3d
       -0.015986234 -0.033812918 -0.010849499 0.047057822
0000b0 8b bc b3 3d a0 6d 65 bc a0 92 4d 3d 72 8e aa 3d
       0.08776196 -0.014003187 0.05018866 0.083279505
0000c0 4a 9d 02 3d 0a b3 62 3d af a1 c5 3d 8e 8c 9b 3d
       0.031888284 0.055346526 0.09649979 0.07595168
0000d0 c3 fc 84 bc 15 b9 f1 bd 07 ef fb bd cc 87 fb bd
       -0.016233807 -0.1180288 -0.1230145 -0.122817606
0000e0 71 b1 8d bd c3 cd d9 bc 92 67 27 bb eb aa 1e be
       -0.0691861 -0.026587373 -0.002554391 -0.15494888
0000f0 64 cb 85 3b 05 79 01 3d 62 13 0f bd 43 03 d6 3d
       0.004083084 0.031609554 -0.034930594 0.10449841
000100 ff 66 a1 bd 17 47 db 3d 26 f1 b1 3c 11 5a ed 3d
       -0.07880973 0.10706919 0.021721434 0.115894444
000110 84 e3 36 3d 37 d3 e7 bd ff 7e a3 bd 8b 30 70 3d
       0.04465057 -0.11319583 -0.07983207 0.058640044
000120 53 d9 54 3d 9b a7 0a 3e 98 80 01 3d f7 60 d9 bd
       0.05196507 0.13540499 0.031616777 -0.10614198
000130 d7 4d 21 3d c1 77 30 3d 10 58 c0 bd 44 e7 ab 3c
       0.039380874 0.043082956 -0.093917966 0.0209843
000140 ad f8 d1 3c 5c 92 5e bd 7b 92 d9 bb 2f 02 24 3e
       0.025631273 -0.054338798 -0.0066397763 0.16016458
000150 a4 83 b5 bb b4 26 06 3e 6c 26 6b bd cd df 0b 3d
       -0.0055393744 0.13100702 -0.05740969 0.03414898
000160 2b 2f 0e 3e ed 5b 45 bd d4 29 09 bd c5 d4 3f bd
       0.1388518 -0.04818337 -0.033487156 -0.046833772
000170 b2 76 fd bc dd a6 26 be 4d 3c 2c bd a5 54 c3 bd
       -0.030940387 -0.16274591 -0.042049695 -0.09537629
000180 ab 85 8b bd 10 00 e9 3c 6c 23 4a bd 09 87 18 3d
       -0.068126045 0.028442413 -0.049350187 0.037238155
000190 47 4d a8 3d db 06 78 bc 5c d8 24 bd a0 f7 83 3b
       0.082178645 -0.015138353 -0.0402454 0.004027322
0001a0 87 00 9c bc d1 ec 55 3d 48 69 d0 bd f7 63 a3 3d
       -0.01904322 0.0522278 -0.10176331 0.07978051
0001b0 ee 96 d9 bd 6e 01 ac bd da 2e 26 be 34 0a 2c be
       -0.10624491 -0.0839871 -0.1622881 -0.16800767
0001c0 92 5d 1c bd 08 bd 2e bd 99 23 6e 3c f8 b3 a5 bd
       -0.038175173 -0.042660743 0.014534854 -0.08090967
0001d0 5b 55 0a be 33 33 06 be 8d f9 18 bd ff 10 cb bd
       -0.13509123 -0.13105468 -0.037347365 -0.09915351
0001e0 60 b2 84 3d 74 2e b5 bd c1 da fb 3c 53 a3 90 bd
       0.06479335 -0.08846751 0.030743958 -0.070624016
0001f0 41 dc b3 bd fc ef c0 bc 5b 60 a8 3d d9 01 a7 bd
       -0.087822445 -0.023551933 0.08221503 -0.08154649
000200 51 2f db 3d 1f 81 b2 3c 6b 6c 8e 3d 44 cf 60 bd
       0.10702384 0.021790085 0.06954273 -0.054885164
000210 c4 5c dc 3d 04 3c 03 be 67 d2 ee 3d f0 d2 e9 bd
       0.10759881 -0.12815863 0.11661225 -0.11417186
000220 d8 05 78 bc cd 3f 4e 3d b0 92 5b bd fd a7 fb 3b
       -0.015138112 0.050353814 -0.05360669 0.007679938
000230 b8 d7 04 3e 6c 4e 40 3d 55 50 06 3d 05 3e b9 3d
       0.12972915 0.04694979 0.032791454 0.090450324
000240 3a 0e 2c bd f4 4a 30 3e 49 5d 42 bc c9 fe c0 3c
       -0.042005755 0.17216092 -0.011863061 0.023558991
000250 e2 f3 35 3d cd 89 1e 3e d4 17 d6 3d 12 3a f2 3d
       0.044422038 0.15482254 0.104537636 0.11827482
000260 77 33 c9 bc 9c 0a 1b be 4e 10 a9 3d 54 2c 32 be
       -0.024560673 -0.15140766 0.08255063 -0.17399722
000270 68 79 c8 bd 3a dc c4 3d de 16 00 be 9d 71 27 be
       -0.097887814 0.096123174 -0.12508723 -0.16351934
000280 a8 b2 56 bd 6b 49 2f 3d 60 d4 ed bc c4 e5 9c 3d
       -0.052416474 0.042794626 -0.029031932 0.07661012
000290 69 29 6b bc ac 95 75 bd 6d 62 a9 3d ad 1f 1a be
       -0.014353135 -0.05995719 0.08270726 -0.15051146
0002a0 9d 19 f6 3c 95 eb e1 bd bd c6 10 bc 24 ed 0a 3e
       0.03004151 -0.11031262 -0.008836445 0.13567024
0002b0 4a e4 a4 3d 3a ac b1 3d 7a 51 17 3e 71 83 c5 bd
       0.08051355 0.08675428 0.14777175 -0.09644211
0002c0 48 8b 3b bc c6 d0 17 3e c9 b1 3f bd 86 85 a7 3c
       -0.011446781 0.14825734 -0.04680041 0.020449411
0002d0 7f 55 70 3b b0 5a c1 bd 20 c5 8f bb 1f bb c4 3c
       0.0036672053 -0.094411254 -0.004387513 0.024015008
0002e0 c0 ae a1 bd 5d 4a 0a 3d 95 3a 52 3d c8 e8 4f 3d
       -0.07894659 0.033762325 0.0513254 0.050759107
0002f0 2b 81 40 3c a0 03 f9 3d 0a b5 7b 3d 74 88 8c 3d
       0.011749546 0.121588945 0.06145195 0.06861964
000300 a5 6d 01 3e c1 10 e9 bc b0 61 d7 3c f3 77 15 3d
       0.12639482 -0.028450372 0.026291698 0.036491346
000310 b9 41 10 be d3 a3 da bc 19 33 75 bd 40 8a 96 bd
       -0.14087571 -0.026689446 -0.059863184 -0.07350588
000320 44 a7 e4 3d 64 11 81 3c a6 1b be bd 20 0c f0 3d
       0.11164716 0.015755363 -0.09282617 0.11721063
000330 74 76 ab 3d b0 fc 95 3c eb 01 04 3d 70 a3 ed 3c
       0.083722025 0.018308967 0.03222839 0.029008597
000340 86 fd ae 3a 23 eb 3f bc 03 a2 95 bc fe be b2 3d
       0.0013350702 -0.011713776 -0.01826573 0.08727835
000350 86 c3 b1 3d a7 aa ad bd cb f2 de 3d 85 33 30 3e
       0.08679871 -0.08479815 0.10886153 0.17207153
000360 b6 d0 07 be d2 62 8c 3d a4 63 f5 bd 12 6b 1b be
       -0.1326321 0.06854786 -0.119818956 -0.15177563
000370 b2 98 01 bd 97 11 01 be 40 9d a3 3c 23 2d 15 bd
       -0.031639762 -0.12604366 0.019972444 -0.03642
000380 64 dd e0 3b 0f c0 c2 bd 78 90 ef 3d 3b 5d 9d bd
       0.0068623293 -0.095092885 0.11697477 -0.07683798
000390 c8 d1 56 3b a3 25 d8 3c 02 5e 17 bd ab 5e bd bd
       0.0032778848 0.026385134 -0.036954887 -0.09246572
0003a0 0a e0 a8 bd 73 1a c4 3d 7f ce ac 3c 2f a0 47 3d
       -0.08245857 0.09575357 0.021094559 0.048736747
0003b0 dd fc 53 3c 8a eb 7f bd ce 60 a1 3d e4 f2 a0 3c
       0.012938705 -0.062480487 0.07879792 0.01964707
0003c0 71 12 1f be c2 65 ac bc 6b 70 9c bd 2c 1c ba bd
       -0.15534379 -0.021044616 -0.076386295 -0.090874046
0003d0 12 fe 91 3c 8f 04 03 3d f4 1d b2 bd a6 97 2f 3d
       0.017821345 0.03198677 -0.08697119 0.042869233
0003e0 4c 23 4b bd 62 45 28 3d 5d ed 9f bc 2f ac a4 bd
       -0.04959421 0.041081794 -0.019522363 -0.08040654
0003f0 e9 c0 1b bd 54 16 bd 3d 22 d2 dd bd cc 98 b8 3d
       -0.03802577 0.092327744 -0.10831095 0.09013519

conv_v_0.bias f4 [16]
000000 35 40 02 bd 91 09 9d 3d d6 15 e7 3d fc b9 9f 3d
       -0.031799514 0.0766784 0.11283462 0.077991456
000010 05 fd e9 bd 3e 8d 33 bc fb 0a e5 bc d2 c3 bc 3d
       -0.11425213 -0.010958968 -0.027959337 0.09217037
000020 12 34 15 3e 5a 8a bb 3d 42 88 2c 3d 6c 6b d3 3d
       0.14570644 0.09157248 0.042122133 0.103232235
000030 6e a2 73 bd a5 25 4b bd 69 62 d4 bc 98 0e f7 bb
       -0.059481077 -0.049596447 -0.025925832 -0.0075395815
