league/checkpoints/mfos_seeds/new_self_3x3_64/950_1.pth (torch, 300942 bytes, 105 tensors)

conv_a_0.weight f4 [16, 7, 3, 3]
0	0x3d5bba26	0.05364432
1	0xbb23d089	-0.0024996123
2	0x3e08adf9	0.13347615
3	0xbdd4f5e3	-0.10398462
4	0x3c0f41c1	0.008743704
5	0x3de1617b	0.11004921
6	0xbc980b20	-0.018559992
7	0x3c8fed1c	0.017569117
8	0xbd1b6e40	-0.03794694
9	0x3db796f5	0.0896434
10	0xbdfd9ea9	-0.12383778
11	0xbd849a16	-0.06474702
12	0xbe618ecf	-0.22027133
13	0x3df6fcd4	0.12059942
14	0x3e31c0ca	0.173587
15	0xbd20c269	-0.039247904
16	0x3e0b04cf	0.13576053
17	0x3b2768d2	0.0025544656
18	0xbd9124bb	-0.07087084
19	0xbdb1d4fe	-0.08683203
20	0xbc2f109a	-0.01068511
21	0x3d0f549f	0.03499281
22	0xbdc19995	-0.094531216
23	0x3e16372c	0.14669484
24	0x3d5055e7	0.050863173
25	0x3dbda2ad	0.092595436
26	0xbde171e6	-0.110080525
27	0xbe5a9266	-0.21344909
28	0x3e1e57ff	0.15463255
29	0xbe0b4d76	-0.13603768
30	0x3da6d97a	0.08146949
31	0xbc51333c	-0.012768563
32	0x3dc0c51a	0.09412594
33	0xbe94addc	-0.29038894
34	0xbe9508a1	-0.29108146
35	0xbd61814c	-0.055054948
36	0xbd715562	-0.058919318
37	0xbdead032	-0.11465491
38	0x3b98679c	0.004651023
39	0xbdecdedb	-0.11565944
40	0xbddca88e	-0.10774337
41	0xbd1821a5	-0.03714146
42	0xbcf9b482	-0.03048158
43	0x3c8ca5a4	0.017168827
44	0x3db2df73	0.08734026
45	0xbc845b4d	-0.016156817
46	0xbdafadd0	-0.08578074
47	0x3e0ff8d1	0.1405976
48	0xbda927f3	-0.08259573
49	0xbce0c774	-0.027438857
50	0xbd4d82db	-0.05017362
51	0x3d6df631	0.058096115
52	0xbdcde6cb	-0.10053786
53	0xbdacc776	-0.08436482
54	0x3b8fd535	0.00438943
55	0x3d49c04c	0.049255654
56	0x3dc182c8	0.09448773
57	0x3bb6ecab	0.0055824122
58	0x3d732d65	0.059369463
59	0x3d991d07	0.0747624
60	0x3da53f29	0.080686875
61	0x3df82e8b	0.12118252
62	0x3e2505e3	0.16115527
63	0x3deef526	0.11667852
64	0x3db17f7c	0.08666894
65	0xbc941ede	-0.018081125
66	0xbbd2618a	-0.006420319
67	0xbe4f15b0	-0.20223117
68	0xbd4e8b9b	-0.050426107
69	0x3e3febc1	0.18742277
70	0xbdafc82f	-0.08583104
71	0xbdb87042	-0.090057865
72	0x3d795672	0.060873456
73	0x3dbebfbc	0.09313914
74	0xbd88b39c	-0.06674883
75	0x3df8664b	0.12128886
76	0x3e5a7c35	0.21336444
77	0x3bc0a432	0.0058789486
78	0xbe0b683c	-0.13613981
79	0xbdd4cbef	-0.1039046
80	0x3db68c75	0.08913509
81	0xbcdcf6dc	-0.02697318
82	0x3d4bd368	0.04976216
83	0x3e4c14f1	0.19929864
84	0xbeaae52c	-0.3337797
85	0xbe210bb8	-0.15727127
86	0x3e0da901	0.13834001
87	0x3d2db67f	0.04241037
88	0x3d5adca0	0.05343306
89	0xbda9c599	-0.08289642
90	0x3cba2986	0.022724878
91	0x3e19eb80	0.15031242
92	0x3de5d3f0	0.112220645
93	0xbc8bd0cb	-0.017067334
94	0xbe455069	-0.19268955
95	0x3d647586	0.05577614
96	0xbbf4ca77	-0.0074704248
97	0x3e027680	0.12740517
98	0xbdec22d8	-0.115300834
99	0xbda50d2d	-0.08059154
100	0x3c04a740	0.008096516
101	0xbdb1ffd9	-0.08691377
102	0xbcad2374	-0.02113507
103	0x3cc492c0	0.023995757
104	0xbd993549	-0.074808665
105	0x3d82ed40	0.06392908
106	0x3d624ae6	0.05524721
107	0x3d96d49a	0.07364769
108	0xbd4922c8	-0.049105436
109	0xbdc9f16d	-0.098605014
110	0xbda075f3	-0.07834997
111	0x3c8dcd90	0.017309934
112	0xbd307525	-0.043080468
113	0x3de1d58a	0.110270575
114	0x3d968552	0.073496476
115	0x3d61a082	0.055084713
116	0x3d204c46	0.03913524
117	0x3e7ce40b	0.24696366
118	0x3dfb3789	0.12266452
119	0x3dc961e2	0.09833123
120	0x3de66b15	0.11250893
121	0x3e46d4c6	0.19417104
122	0x3dd0e4dd	0.10199902
123	0x3d600808	0.05469516
124	0x3e842d04	0.25815594
125	0x3db4b336	0.08823244
126	0x3e42dd97	0.19029842
127	0x3e1f7a2a	0.15573946
128	0x3d9d4a6a	0.07680209
129	0x3ce9604a	0.028488297
130	0xbe8f1068	-0.27942204
131	0xbe3e6a48	-0.1859523
132	0x3e3280fe	0.17432019
133	0x3d9f2b8b	0.07771977
134	0xbbac966c	-0.005266955
135	0x3d8772f4	0.066137224
136	0x3c2c90ca	0.010532567
137	0x3e1510fd	0.14557262
138	0x3db09b30	0.0862335
139	0x3c80dbb9	0.015729772
140	0xbe2cdd8c	-0.16881388
141	0x3da699c7	0.081347995
142	0xbe6449d4	-0.22293788
143	0x3d8722f4	0.06598464
144	0x3e528a0b	0.20560472
145	0x3e1ca189	0.15295996
146	0x3e665599	0.2249359
147	0xbe4b432e	-0.19849846
148	0xbe9de6b1	-0.30840066
149	0xbe2c1134	-0.16803437
150	0xbe4077d3	-0.1879571
151	0xbbd99564	-0.006640123
152	0x3d4ca1c5	0.049958963
153	0xbcb770de	-0.022392686
154	0x3e12589e	0.14291617
155	0x3e7ec961	0.24881507
156	0xbe984242	-0.2973805
157	0xbd6ea1ff	-0.05825996
158	0xbe3e6fbe	-0.18597314
159	0xbdeed7a7	-0.11662226
160	0x3dfe4f30	0.124174476
161	0x3e072050	0.1319592
162	0x3d1ce958	0.03830847
163	0x3d9cf6bd	0.07664249
164	0xbcc13fc5	-0.023589978
165	0x3d868414	0.06568161
166	0x3caf0d43	0.021368628
167	0xbd25a878	-0.040443867
168	0xbab202e2	-0.0013581181
169	0xbcf4b005	-0.029869089
170	0x3bbf8283	0.0058444156
171	0xbab2d2ee	-0.0013643184
172	0xbc08c7e9	-0.008348444
173	0xbd6d6d1f	-0.057965394
174	0x3d357b9b	0.044307332
175	0x3d8b68d2	0.06807102
176	0xbd849059	-0.06472845
177	0xbd18d642	-0.037313707
178	0xbb77b8dc	-0.0037799394
179	0x3d10419d	0.035218824
180	0x3e74d184	0.23908049
181	0x3dffb2f5	0.12485305
182	0x3e90f282	0.2831002
183	0x3e97dad8	0.29659152
184	0x3e812c63	0.25229177
185	0x3e2c998c	0.16855448
186	0x3d7b7eac	0.0614001
187	0x3e916b4a	0.28402168
188	0x3e2ac222	0.16675618
189	0xbe60aa24	-0.21939903
190	0xbe39b114	-0.18133956
191	0x3c8d3391	0.017236503
192	0xbe553a58	-0.20823038
193	0x3e644319	0.2229122
194	0xbc462b9c	-0.012095358
195	0x3dc00f8e	0.09377967
196	0xbe59e99a	-0.21280518
197	0xbd53af63	-0.051680934
198	0x3dac008b	0.08398541
199	0x3d1d38af	0.038384136
200	0xbe47059a	-0.1943573
201	0xbe2e6428	-0.17030394
202	0xbe23068b	-0.15920465
203	0x3e2a4244	0.16626841
204	0xbd2c443c	-0.04205726
205	0x3e6358a5	0.22201784
206	0xbdbd2d5a	-0.09237166
207	0x3cf83f99	0.030303763
208	0xbdb80505	-0.089853324
209	0x3ce17298	0.027520463
210	0xbc997c22	-0.018735949
211	0xbd898a72	-0.067158595
212	0x3db746d7	0.089490585
213	0x3e442752	0.19155625
214	0x3d999646	0.074993655
215	0x3d835b60	0.06413913
216	0xbbc8e924	-0.006131308
217	0xbac5568a	-0.0015055698
218	0xbd5e2a84	-0.054239765
219	0x3d0f25fd	0.034948338
220	0x3b48cdfb	0.0030640352
221	0x3e1b5378	0.1516856
222	0x3db03928	0.08604652
223	0xbe1fd6f0	-0.15609336
224	0x3d902cf6	0.070398256
225	0xbb0dd631	-0.002164256
226	0xbd2e481b	-0.042549234
227	0xbdf4e316	-0.11957376
228	0xbd7a0da0	-0.06104815
229	0x3dc49308	0.095983565
230	0x3da3e5ce	0.08002816
231	0x3ce40998	0.027836606
232	0x3dcd0d70	0.100123286
233	0xbd26c0c2	-0.040711172
234	0xbd07a256	-0.0331138
235	0xbd5c3bd2	-0.053767987
236	0xbddf6ddd	-0.10909627
237	0x3d3a917d	0.045548905
238	0xbdf0f61b	-0.11765691
239	0xbd1aea89	-0.037821326
240	0xbd088101	-0.033326153
241	0xbcd299d2	-0.025708113
242	0xbe3720d4	-0.17883617
243	0x3e548392	0.20753315
244	0x3e81e9aa	0.25373584
245	0x3e2bc2bf	0.16773508
246	0x3e768f2b	0.24078052
247	0x3e95a17c	0.29224765
248	0x3e970b4e	0.29500812
249	0x3dbfb9d4	0.09361616
250	0x3e054dc6	0.1301795
251	0x3e0ba3eb	0.13636748
252	0x3e10cd05	0.14140709
253	0xbe5b57aa	-0.2142016
254	0x3d842aa2	0.06453444
255	0x3e5da08d	0.21643277

conv_a_0.bias f4 [16]
0	0x3ddebbb4	0.10875645
1	0x3dca107a	0.09866424
2	0xbc875302	-0.016519073
3	0xbdb29be4	-0.0872114
4	0x3cf8f1d3	0.030388748
5	0xbbf70ea5	-0.0075395876
6	0x3d57a1b8	0.05264446
7	0xbd958e9a	-0.0730259
8	0xbc8312c5	-0.016000161
9	0xbd3b1ba3	-0.045680653
10	0x3d917a5e	0.07103418
11	0x3e182a1f	0.14859818
12	0xbd8f5688	-0.069989264
13	0x3c350cdd	0.01105043
14	0xbb4b1295	-0.0030986418
15	0xbd764339	-0.060122702

conv_a_1.weight f4 [16, 16, 3, 3]
0	0xbd7de1f7	-0.061983075
1	0xbd918fba	-0.07107492
2	0x3d01b8d5	0.03167041
3	0xbd1656a7	-0.036703732
4	0x3d10b42c	0.035328075
5	0x3d94e4be	0.072701916
6	0x3be1d756	0.006892125
7	0xbd8cf3d7	-0.06882446
8	0x3c330af9	0.010927909
9	0x3d0d0a2f	0.03443354
10	0xbbf0b81c	-0.0073461663
11	0x3d3dcc25	0.046337266
12	0xbdc49a4f	-0.095997445
13	0x3d54d95c	0.051965103
14	0x3d6b851a	0.057499982
15	0xbd8652c0	-0.06558752
16	0xbd9bad8d	-0.076014616
17	0x3cae3f61	0.021270456
18	0xbd1a72a8	-0.037707
19	0xbdc4f7ad	-0.09617553
20	0xbe06a08d	-0.13147183
21	0xbdb97888	-0.09056193
22	0xbdf0fcf1	-0.11766995
23	0x3b35e426	0.0027754395
24	0xbd51fca6	-0.051266335
25	0xbd62606d	-0.05526774
26	0xbd988823	-0.07447841
27	0xbded1a2c	-0.115772575
28	0xbd484cad	-0.04890125
29	0xbdcc3df8	-0.09972757
30	0x3cf10502	0.029421333
31	0xbbad150d	-0.0052820505
32	0xbcbdcd71	-0.023169251
33	0xbdb0b675	-0.08628551
34	0x3d19de6a	0.037565626
35	0xbdd14928	-0.102190316
36	0xbe064925	-0.1311384
37	0xbe150f62	-0.1455665
38	0xbdb2bfaa	-0.08727963
39	0xbd6376f5	-0.05553337
40	0xbdf34dd7	-0.11880081
41	0xbdee920c	-0.1164895
42	0xbd978d0c	-0.073999494
43	0xbd67855c	-0.056523666
44	0xbd4055ab	-0.0469567
45	0x3e40263c	0.18764585
46	0x3d90d1ef	0.07071292
47	0x3deb3fd2	0.11486782
48	0x3e259e67	0.16173707
49	0x3e0dce4e	0.1384823
50	0x3da57f36	0.08080904
51	0x3e5d2293	0.2159522
52	0x3dbebf73	0.0931386
53	0x3e3bcf2a	0.18340746
54	0x3ddab64c	0.106793016
55	0x3da7c7ae	0.08192383
56	0x3dfe293a	0.12410207
57	0x3e10f6b3	0.14156608
58	0x3e2599fc	0.16172022
59	0x3dae7bd4	0.08519712
60	0x3de7b8fe	0.11314581
61	0x3df48aeb	0.11940559
62	0x3dea1f20	0.11431718
63	0x3dffbc80	0.124871254
64	0x3dadce04	0.0848656
65	0x3d4c4b3c	0.049876437
66	0x3e0dd03f	0.13848971
67	0x3dd445de	0.103648886
68	0x3e1e787a	0.15475646
69	0x3cf7eb7b	0.030263653
70	0x3da5f354	0.08103052
71	0x3d946d37	0.072473936
72	0x3d610ed7	0.054945793
73	0x3ca41758	0.020030662
74	0xbd8a58e7	-0.06755238
75	0xbd9c8618	-0.07642764
76	0xbd475727	-0.0486671
77	0xbb8cbf94	-0.004295299
78	0xbc98e6a3	-0.018664664
79	0xbdb26570	-0.08710754
80	0xbd99c961	-0.07509113
81	0x3e29884f	0.16555904
82	0x3e031869	0.1280228
83	0x3e4056ce	0.18783113
84	0x3d910b6e	0.07082258
85	0x3e2197ba	0.15780535
86	0x3d86e500	0.06586647
87	0x3e1d189e	0.15341422
88	0x3e5f02e0	0.2177844
89	0x3e329bf4	0.17442304
90	0xbe0225b5	-0.12709697
91	0xbe06337b	-0.13105576
92	0xbdd91062	-0.10598828
93	0xbd6f58a4	-0.058434144
94	0xbdad26d0	-0.084546685
95	0xbd0f0560	-0.034917235
96	0xbd0e7782	-0.03478194
97	0xbd13d4d9	-0.03609166
98	0xbd1630fb	-0.036667805
99	0x3d4f8660	0.05066526
100	0xbd8b11e9	-0.067905255
101	0x3be8ca01	0.007104159
102	0xbc750709	-0.014955291
103	0x3d0012a8	0.031267792
104	0x3d8623d6	0.06549804
105	0x3d697057	0.0569919
106	0xbc599a99	-0.013281488
107	0xbcebe962	-0.028797809
108	0xbe41b18c	-0.18915385
109	0xbe9dade0	-0.3079672
110	0xbe20ef6e	-0.15716335
111	0xbe2e6b9a	-0.17033234
112	0xbe58845e	-0.21144244
113	0xbe9c6487	-0.30545446
114	0xbe831717	-0.25603554
115	0xbe8f7684	-0.28020108
116	0xbe8be55d	-0.27323428
117	0xbd9aa2f9	-0.07550616
118	0xbcf225d1	-0.029559048
119	0x3c9fa2a0	0.019486725
120	0x3e01c050	0.12671018
121	0xbd72b534	-0.05925484
122	0x3cde2eba	0.02712189
123	0x3cc38556	0.02386729
124	0x3d366af2	0.044535585
125	0x3cc95c30	0.024580091
126	0x3c7deb0a	0.015497932
127	0x3d5afde3	0.05346478
128	0x3dba28f4	0.090898424
129	0xb8e7d657	-0.00011054862
130	0x3da5fa89	0.081044264
131	0x3db012a8	0.085973084
132	0x3c839c3b	0.016065707
133	0xba995b4d	-0.0011700183
134	0xbc146b6c	-0.0090588145
135	0x3e248263	0.16065364
136	0x3e158273	0.14600544
137	0x3e3df131	0.18549038
138	0x3e33d5a2	0.17561963
139	0x3da8ba04	0.08238605
140	0x3e2fc45f	0.17164753
141	0x3e3456ac	0.17611188
142	0x3df29264	0.11844328
143	0x3ddb9999	0.10722656
144	0x3d99f0ed	0.07516656
145	0x3d365c6a	0.044521727
146	0xbccfe6bb	-0.025378576
147	0xb9a39a41	-0.0003120471
148	0xbd7c9002	-0.061660774
149	0x3b0615d4	0.0020459788
150	0x3d8a4a42	0.06752445
151	0xbd048b6b	-0.03235952
152	0x3d5f0be4	0.0544547
153	0x3c01dce0	0.007926196
154	0x3cf83f5f	0.030303655
155	0x3d35bff5	0.044372518
156	0xbce8c074	-0.028412081
157	0xbb4f88b3	-0.0031667172
158	0x3c58a096	0.01322188
159	0xbd7d6060	-0.06185949
160	0x3cd2a3fb	0.025712958
161	0x3d38987a	0.045067288
162	0xbd91744a	-0.071022585
163	0xbdfe884c	-0.1242834
164	0xbc7a8f20	-0.015292913
165	0xbd87fa12	-0.06639494
166	0xbde568f2	-0.11201657
167	0xbdadc4ad	-0.084847786
168	0xbe05abb6	-0.13053784
169	0xbd9134b9	-0.07090134
170	0xbe1e8c95	-0.15483315
171	0xbdcf63da	-0.10126467
172	0x384d42c2	4.893798e-05
173	0xbd4ad20c	-0.049516723
174	0xbdbaf4c4	-0.091287166
175	0xbd8c3cf1	-0.06847561
176	0xbdba6dd6	-0.09102981
177	0x3c3bde18	0.0114665255
178	0xbc375363	-0.011189315
179	0xbbdf8b7b	-0.0068220473
180	0xbca09ea3	-0.019606894
181	0xbd886a61	-0.06660915
182	0xbc21b09d	-0.009868768
183	0xbe0d8c4b	-0.13823049
184	0xbe0b0c1c	-0.13578838
185	0xbc6d2100	-0.0144732
186	0xbdf1e42f	-0.11811101
187	0xbd4d679d	-0.05014764
188	0xbdeb2267	-0.11481171
189	0x3e741bef	0.23838781
190	0x3e05f2fe	0.13080975
191	0x3d8ce894	0.06880298
192	0x3e52a786	0.20571718
193	0x3e4346f6	0.19070038
194	0x3d7265a9	0.059178982
195	0x3e039adb	0.12852041
196	0x3df35fe2	0.118835226
197	0x3dc23fd5	0.09484831
198	0x3d8aa244	0.06769231
199	0x3d8a37ce	0.06748925
200	0x3d9a8da0	0.07546544
201	0x3d11bc31	0.035579864
202	0x3dc3ddbc	0.09563777
203	0x3da03096	0.07821767
204	0x3e071ff4	0.13195783
205	0x3da0ecaf	0.07857644
206	0x3d8b42da	0.0679986
207	0x3e08ce05	0.1335984
208	0x3e0d2422	0.13783315
209	0xbbf115b5	-0.007357324
210	0x3ca8a69d	0.02058726
211	0x39e9caa0	0.0004459219
212	0x3ce34f00	0.027747631
213	0x3d4ed7b9	0.050498698
214	0xbcbf1316	-0.02332453
215	0x3dd0df14	0.10198799
216	0xbcb2efaf	-0.021842806
217	0xbd7ce430	-0.061741054
218	0xbd9c16fa	-0.0762157
219	0xbb846f9f	-0.0040416266
220	0xbc35e456	-0.011101803
221	0xbd622123	-0.055207383
222	0xbd1d00b6	-0.038330756
223	0xbdc18e19	-0.09450931
224	0x3cee5c8f	0.02909687
225	0x3e7b5669	0.24544682
226	0x3d5efcb5	0.05444022
227	0x3e3de298	0.1854347
228	0x3e4a4d60	0.19756079
229	0x3de35823	0.11100795
230	0x3dd65c27	0.104667954
231	0x3e84ac3a	0.25912648
232	0x3e05ee0f	0.13079093
233	0x3e044835	0.1291817
234	0xbc3a130e	-0.011357082
235	0xbe07d373	-0.13264255
236	0xbd7322c9	-0.059359346
237	0xbe1ba5b1	-0.15199925
238	0xbdb66034	-0.08905068
239	0xbc3847b9	-0.011247569
240	0xbd45ee1f	-0.048322793
241	0xbdfe2e85	-0.12411217
242	0xbd678cb2	-0.056530662
243	0x3d6f227b	0.058382493
244	0xbd6c3e45	-0.057676572
245	0xbd871309	-0.065954275
246	0xbd87ec54	-0.06636873
247	0x3d19c9c5	0.037545938
248	0x3ca21d25	0.019789288
249	0x3d01a2c1	0.031649355
250	0x3da0f1dd	0.07858632
251	0x3c84ba79	0.016202198
252	0xbe471bdd	-0.19444223
253	0xbe701c55	-0.23448308
254	0xbdda599d	-0.106616236
255	0xbe86188a	-0.26190597

conv_a_1.bias f4 [16]
0	0xbd23ff0a	-0.040038146
1	0xbd62a90d	-0.055337
2	0xbc9c05fc	-0.019045822
3	0x3d4d7664	0.050161734
4	0xbd83bac4	-0.06432107
5	0x3b8e99a8	0.0043518133
6	0x3db23f05	0.08703426
7	0x3b4f4fd6	0.003163328
8	0x3dbdf3ba	0.09275003
9	0x3bceb32a	0.006307979
10	0x3e595047	0.2122203
11	0x3e4219a2	0.1895509
12	0xbc02668d	-0.00795902
13	0x3d846086	0.06463723
14	0xbd8652f1	-0.065587886
15	0x3d999fa0	0.07501149

linear_a_0.weight f4 [16, 144]
0	0x3c9bf690	0.019038469
1	0x3e0db487	0.13838397
2	0x3e18bb8c	0.14915293
3	0x3d572c8b	0.052532714
4	0x3e072cc6	0.13200673
5	0x3daee075	0.085389055
6	0x3e3a52c6	0.18195638
7	0x3da8f6b4	0.0825018
8	0x3de95a11	0.11394132
9	0x3e0a335c	0.13496155
10	0x3cdd4c6c	0.02701398
11	0x3e58afe7	0.21160851
12	0x3e2fe514	0.1717723
13	0x3e2b08eb	0.1670262
14	0x3e52bab3	0.20579033
15	0x3dea044d	0.114266016
16	0x3e64225b	0.2227873
17	0x3e83fbc9	0.25778034
18	0x3e7874b2	0.24263266
19	0x3d161c82	0.03664828
20	0x3d4712b8	0.048601836
21	0x3e55a609	0.20864119
22	0x3e633f84	0.22192198
23	0x3da58f92	0.080840245
24	0x3dffe1f4	0.12494269
25	0x3e49ee1f	0.19719742
26	0x3d8c2bc7	0.06844287
27	0x3e3c299a	0.18375245
28	0x3e74809c	0.23877186
29	0x3e226791	0.1585982
30	0x3e628d5a	0.22124234
31	0x3e4767dc	0.19473213
32	0x3e763c1a	0.24046364
33	0x3e7b776a	0.24557272
34	0x3e4637b9	0.19357194
35	0x3e28af8a	0.16473213
36	0x3e09c228	0.13452971
37	0x3d7afbb1	0.061275188
38	0x3d81b405	0.06333164
39	0x3e18dba4	0.14927536
40	0x3d89c738	0.06727451
41	0x3e191d24	0.14952523
42	0x3daef92c	0.085436195
43	0x3dd124fc	0.10212132
44	0x3dd7a9cd	0.10530434
45	0x3e87ffc3	0.26562318
46	0x3e0a15b8	0.13484848
47	0x3e836d50	0.25669336
48	0x3e6144fe	0.21998975
49	0x3e80b6b8	0.25139403
50	0x3e72471e	0.23659942
51	0x3e6e92f3	0.23298244
52	0x3e634930	0.22195888
53	0x3d8b3458	0.06797093
54	0x3dd75be0	0.10515571
55	0x3da6275f	0.08112978
56	0x3e235265	0.159494
57	0x3dfaa5d1	0.12238658
58	0x3e21199a	0.15732422
59	0x3dda2e13	0.10653319
60	0x3d58c52d	0.052922416
61	0x3e534273	0.20630817
62	0x3e236fd7	0.15960632
63	0x3d137ac0	0.036005735
64	0x3db57b40	0.08861399
65	0x3e1aaebb	0.15105717
66	0x3e23e7f9	0.1600646
67	0x3e670041	0.2255869
68	0x3d6c375c	0.057669982
69	0x3dc802de	0.09766172
70	0x3e2441cd	0.16040726
71	0x3da71bbc	0.08159587
72	0x3e12846f	0.14308332
73	0x3e244d5b	0.16045134
74	0x3dd1ff2c	0.10253748
75	0x3e3caf11	0.18426158
76	0x3e059a54	0.13047153
77	0x3e5f3965	0.21799238
78	0x3e0a88a4	0.13528687
79	0x3e30f81d	0.17282148
80	0x3e7379e2	0.23776963
81	0x3d9c6f69	0.07638437
82	0x3e004953	0.12527971
83	0x3e5f5909	0.21811308
84	0x3e4347fd	0.1907043
85	0x3e561407	0.20906077
86	0x3e07868b	0.13234918
87	0x3d2c9e3a	0.042143084
88	0x3ddf59fb	0.10905834
89	0x3daab214	0.08334747
90	0xbdc3a14e	-0.09552251
91	0x3b3eec77	0.0029132643
92	0xbddd0b4a	-0.10793169
93	0xbe01a9f5	-0.1266249
94	0xbe03bbbf	-0.12864588
95	0xbd951b26	-0.07280569
96	0xbd9556ce	-0.07291947
97	0x3bcaa72a	0.0061844783
98	0xbc637762	-0.013883444
99	0x3da2245c	0.07917091
100	0x3cfb711d	0.030693585
101	0x3dcffb91	0.10155404
102	0x3d50aa48	0.050943643
103	0x3df766c1	0.120801456
104	0x3e18c794	0.14919883
105	0x3c92171e	0.017833289
106	0x3e1692ce	0.14704439
107	0x3d4d327d	0.050096978
108	0xbdb7cb85	-0.08974365
109	0xbda32cb9	-0.079675145
110	0xbc8d43b2	-0.017244194
111	0xbcff9c0d	-0.03120234
112	0x3cf19fd9	0.029495167
113	0xbd9f218c	-0.077700704
114	0xbd688b82	-0.05677367
115	0x3cba27a2	0.022723977
116	0x3aaa2307	0.001298041
117	0x3d81e447	0.063423686
118	0x3e05ffb0	0.13085818
119	0x3df4b480	0.1194849
120	0x3dd2f2fa	0.1030025
121	0x3c78ddfc	0.015189644
122	0xbb97d041	-0.00463298
123	0x3dfc637c	0.12323663
124	0x3d1b20e6	0.03787317
125	0x3cd8b015	0.02645115
126	0x3d2394d0	0.03993684
127	0x3dd5fcf7	0.1044864
128	0x3e8a2ee8	0.26988912
129	0x3deadb4b	0.11467608
130	0x3e2375b0	0.15962863
131	0x3dafde23	0.08587291
132	0x3e47ff5f	0.1953101
133	0x3e4a24d9	0.19740619
134	0x3e23e6e6	0.1600605
135	0x3e284023	0.16430716
136	0x3cede65f	0.029040514
137	0x3e277efd	0.16357036
138	0x3e6129b0	0.21988559
139	0x3e0f1f37	0.13976751
140	0x3ddc1b39	0.1074738
141	0x3cb913ac	0.022592388
142	0x3d3e3a42	0.046442278
143	0x3d36f994	0.04467161
144	0x3e2d865c	0.16945785
145	0x3d89ad2d	0.06722484
146	0x3e36022e	0.17774269
147	0x3d6ddf7f	0.05807447
148	0x3d6b0533	0.057378005
149	0x3dda910e	0.10672198
150	0x3d058a31	0.032602493
151	0x3e1f4282	0.15552714
152	0x3d92c0b1	0.07165659
153	0x3d6bd23f	0.057573553
154	0x3df50f72	0.119658366
155	0x3e4e0321	0.20118381
156	0x3d4fca89	0.050730262
157	0x3e3a5b84	0.18198973
158	0x3dfa8a4c	0.12233409
159	0x3d152f27	0.03642192
160	0x3e343836	0.17599568
161	0x3dfc9b82	0.12334348
162	0x3dd433ea	0.10361464
163	0x3c634198	0.013870619
164	0xbca35af7	-0.019940836
165	0x3e438570	0.19093871
166	0x3e5c4217	0.21509586
167	0x3dc16af7	0.0944423
168	0xbc9a1292	-0.018807683
169	0xbbb5c005	-0.005546572
170	0x3d41d1dd	0.04731928
171	0x3e0b8b3a	0.1362733
172	0x3e31fd72	0.17381838
173	0x3dfb44aa	0.12268956
174	0x3e540ae0	0.20707273
175	0x3e37fde2	0.17967942
176	0x3e28ac98	0.1647209
177	0x3e37ad26	0.17937145
178	0x3e431465	0.19050749
179	0x3dbab09b	0.09115716
180	0x3e69daca	0.22837368
181	0x3e39e170	0.18152404
182	0x3e7bbcec	0.24583787
183	0x3db1bb3f	0.086782925
184	0x3d9bc291	0.0760547
185	0x3e302e05	0.17205055
186	0x3e16e0a9	0.14734139
187	0x3e10cfa9	0.14141716
188	0x3dd64908	0.10463148
189	0x3e257615	0.16158326
190	0x3d56c229	0.05243126
191	0x3e86b900	0.2631302
192	0x3da32eaa	0.07967885
193	0x3e711434	0.23542863
194	0x3e26f350	0.16303754
195	0x3e1466d9	0.14492358
196	0x3db4cc84	0.08828071
197	0x3d4e3a9a	0.050348856
198	0x3e14fc6d	0.14549418
199	0x3e6f9390	0.23396134
200	0x3e4105eb	0.18849914
201	0x3d0e7048	0.03477505
202	0x3da58b76	0.08083241
203	0x3e0e3507	0.13887416
204	0x3db6b7d3	0.089217804
205	0x3dc939eb	0.098255
206	0x3debba3c	0.11510131
207	0x3dc6cbdf	0.09706854
208	0x3de9306b	0.11386188
209	0x3e2b6ecf	0.16741489
210	0x3de15bf4	0.11003867
211	0x3ddd542d	0.10807071
212	0x3d8eabca	0.0696636
213	0x3d25e3d0	0.040500462
214	0x3e6cc8e3	0.23123507
215	0x3e6caf91	0.23113848
216	0x3df42e6d	0.119229175
217	0x3e31f4d2	0.17378548
218	0x3e4c55b4	0.19954568
219	0x3de2fcc6	0.11083369
220	0x3d6e6421	0.05820096
221	0x3e04e852	0.12979248
222	0x3e3a45a2	0.18190625
223	0x3dd0bcbd	0.10192249
224	0x3e54db59	0.207868
225	0x3e258f3d	0.16167922
226	0x3da8bc27	0.08239012
227	0x3e4fd7ed	0.20297213
228	0x3d102d00	0.035199165
229	0x3de158ba	0.110032514
230	0x3d2541b8	0.040345877
231	0x3c6a1130	0.014286324
232	0xbad5c02e	-0.0016307884
233	0x3e0d4eb0	0.13799548
234	0xbdc6f92d	-0.09715495
235	0xbc60e28b	-0.013725887
236	0xbe04baeb	-0.12961929
237	0xbc72686d	-0.014795405
238	0xbcfe4439	-0.03103839
239	0xbda9b9fb	-0.08287426
240	0xbc365b7f	-0.011130213
241	0xbbe9d3e6	-0.007135856
242	0xbdad8c12	-0.08473982
243	0x3c4f5db5	0.012656619
244	0x3bfd2f68	0.0077265985
245	0x3d6f34dc	0.05840002
246	0x3d37420b	0.044740718
247	0x3d38c6af	0.045111354
248	0x3dd54909	0.10414321
249	0x3d945d75	0.07244388
250	0x3e037dfc	0.12841028
251	0x3c3fc9dd	0.011705843
252	0xbd26216a	-0.04055921
253	0xb9ceaffe	-0.00039422506
254	0xbb2ae872	-0.002607849
255	0x3d0fc3aa	0.03509871

linear_a_0.bias f4 [16]
0	0x3c66c8fa	0.0140860025
1	0xbb9903a2	-0.0046696225
2	0xbd86d06b	-0.06582721
3	0x3e4c218d	0.19934674
4	0x3da88ea6	0.08230333
5	0x3d8c98d8	0.0686509
6	0xbd132ac2	-0.03592945
7	0xbdcb5d78	-0.09929937
8	0xbd8f0acc	-0.06984481
9	0x3d335f7f	0.043792244
10	0x3d8ca6bf	0.06867742
11	0xbc26fd57	-0.010192237
12	0x3e26754d	0.16255684
13	0x3e503577	0.20332895
14	0x3e0b575f	0.13607548
15	0xbd7f99e8	-0.062402636

GRU_a.weight_ih_l0 f4 [48, 16]
0	0x3dfeefcc	0.124480814
1	0xbe56d4aa	-0.20979562
2	0xbd3c6195	-0.0459915
3	0x3e2c8351	0.16846968
4	0x3e7256a7	0.23665868
5	0xbe1629b7	-0.1466435
6	0xbe8a022a	-0.26954776
7	0x3d5f5465	0.054523844
8	0xbd7cf912	-0.06176097
9	0xbe1bdb3b	-0.15220349
10	0x3dcb1c17	0.09917467
11	0xbd7e26fb	-0.062048893
12	0x3e8af959	0.27143362
13	0x3d74059e	0.05957567
14	0xbe73d917	-0.23813282
15	0xbb477802	-0.003043652
16	0xbd92d4b2	-0.07169475
17	0x3df081fc	0.117435426
18	0xbdd18345	-0.10230116
19	0x3e322ca4	0.17399842
20	0xbd53d81c	-0.05171977
21	0x3e31f3ab	0.17378108
22	0x3e2f400d	0.17114277
23	0x3e081c18	0.13291967
24	0x3db9b6af	0.09068047
25	0xbe3e64fe	-0.18593213
26	0x3e165cb5	0.14683802
27	0xbdbc45f8	-0.09193033
28	0x3eb0e364	0.34548485
29	0x3ea7e2d9	0.3279026
30	0x3e970179	0.2949331
31	0x3e68489a	0.22683945
32	0xbe0bf93b	-0.13669293
33	0xbd521bde	-0.051296107
34	0x3e5444ef	0.20729421
35	0x3d748d52	0.059705086
36	0x3de114c8	0.10990292
37	0xbb629f7b	-0.003457992
38	0xbdbb6805	-0.091506995
39	0x3d493b69	0.049128924
40	0x3c3337fc	0.010938641
41	0xbc29ea8e	-0.010370864
42	0x3dadd507	0.08487897
43	0xbd4d24af	-0.050083812
44	0x3e561de5	0.20909841
45	0xbc126e75	-0.008937468
46	0x3bd82571	0.0065962602
47	0x3dc1cfca	0.09463461
48	0xbe5f4f87	-0.21807681
49	0xbe6b9209	-0.23004927
50	0x3d440ac0	0.047861814
51	0x3d11e824	0.035621777
52	0x3e0bba0c	0.1364519
53	0xbea30df9	-0.31846598
54	0x3d8c749d	0.0685818
55	0x3e5507e3	0.2080379
56	0xbd82cea0	-0.06387067
57	0xbeb00341	-0.34377483
58	0x3d91be8b	0.07116421
59	0xbdbc3a8c	-0.091908544
60	0xbe29503e	-0.16534516
61	0xbceb7f13	-0.028747117
62	0x3dbc6219	0.09198398
63	0xbdbfd166	-0.093661115
64	0xbecd771e	-0.40129942
65	0xbec22cfd	-0.37924948
66	0x3e74879d	0.23879857
67	0x3df4d654	0.11954942
68	0xbd77fe6c	-0.06054537
69	0xbe1890c0	-0.14898968
70	0x3df73838	0.1207127
71	0x3c8c9473	0.01716063
72	0xbd8a10c3	-0.06741478
73	0xbea99c0f	-0.33126876
74	0x3d33c541	0.043889288
75	0x3e0c9d41	0.13731863
76	0xbb6333b7	-0.0034668276
77	0x3e429095	0.19000466
78	0xbec21ff1	-0.37914994
79	0x3de2fbed	0.11083207
80	0xbedee419	-0.435334
81	0xbe2a1c2a	-0.16612306
82	0xbe533225	-0.20624597
83	0x3e106d1d	0.14104123
84	0x3d9c6a67	0.07637482
85	0xbecf175e	-0.40447515
86	0xbe008355	-0.12550099
87	0xbd2fbef4	-0.042906716
88	0x3cbf451e	0.023348387
89	0xbe92a024	-0.28637803
90	0xbeb099bc	-0.3449229
91	0xbecb088f	-0.39654967
92	0xbd7ee5ae	-0.06223076
93	0x3d9e3027	0.07724028
94	0x3dcaa046	0.09893851
95	0x3cc4b31e	0.024011191
96	0x3dbf24da	0.09333201
97	0xbddd442c	-0.108040184
98	0xbe4de4b7	-0.20106779
99	0x3ebcc9ba	0.36872655
100	0x3e81fcee	0.25388283
101	0x3d48ee7e	0.04905557
102	0xbdf63e52	-0.120236054
103	0xbdc9dbc0	-0.09856367
104	0xbd6195b1	-0.055074397
105	0x3c0cf174	0.008602489
106	0xbe557f96	-0.20849451
107	0x3ddbecdc	0.10738537
108	0x3e28299f	0.16422127
109	0x3e739fe6	0.23791465
110	0xbd0d6085	-0.034515876
111	0xbe45a2cc	-0.19300383
112	0xbe0fa64c	-0.14028281
113	0x3ae31a6c	0.00173266
114	0xbdb8f38a	-0.090308264
115	0xbca3aee6	-0.019980859
116	0x3e9f6bf9	0.31137064
117	0x3d7d6b83	0.06187011
118	0x3d66bd27	0.056332733
119	0xbe6f8002	-0.23388675
120	0xbe95fd1d	-0.29294673
121	0xbe72ae32	-0.23699263
122	0x3db46ff3	0.08810415
123	0xbe38b665	-0.18038328
124	0x3e849811	0.25897267
125	0x3dfea905	0.12434582
126	0x3c80f62e	0.015742388
127	0xbe631134	-0.22174531
128	0x3e5f6ea1	0.21819545
129	0x3eb1a9fe	0.34700006
130	0x3e0c48e4	0.1369968
131	0x3de97a07	0.11400228
132	0x3e41444c	0.1887371
133	0x3d2d9be2	0.04238499
134	0xbcbbc0b2	-0.022919033
135	0x3e9693ef	0.2940974
136	0xbd564a47	-0.05231693
137	0x3e1903db	0.14942877
138	0xbdd88f19	-0.10574169
139	0xbd0d496c	-0.03449385
140	0x3e898488	0.26858926
141	0xbe2baef5	-0.1676596
142	0xbdc1b31a	-0.09457989
143	0xbe26b73c	-0.16280836
144	0x3e5d149c	0.21589893
145	0x3e9de5ee	0.30839485
146	0xbd3bc33b	-0.045840483
147	0xbea24722	-0.31694895
148	0xbe06dc8a	-0.13170066
149	0x3eb232bf	0.3480434
150	0xbd79a51f	-0.060948487
151	0x3c63ed73	0.013911593
152	0xbd179cc9	-0.037014756
153	0x3e856c1c	0.26059043
154	0x3ea3a177	0.31959125
155	0x3c9dcaa3	0.019261664
156	0x3dd5794d	0.10423527
157	0x3e2e828f	0.17041992
158	0xbe6a9392	-0.22907856
159	0x3e827976	0.25483292
160	0xbe0856c4	-0.13314348
161	0x3e7b7c97	0.24559246
162	0xbd191e67	-0.03738251
163	0x3e4e23a2	0.2013078
164	0xb9a41b6f	-0.00031300957
165	0x3c6d1236	0.014469674
166	0x3e242bd3	0.16032343
167	0x3c290270	0.010315523
168	0xbe5cb0ae	-0.21551773
169	0x3e288374	0.16456395
170	0x3e8d12fc	0.27553546
171	0xbe57b882	-0.21066478
172	0x3e3b65bc	0.18300527
173	0x3dcaf6bc	0.09910342
174	0x3e06cc63	0.13163905
175	0x3e478908	0.19485867
176	0xbaea01fb	-0.0017853373
177	0xbdb502e7	-0.08838444
178	0x3d65cc85	0.05610325
179	0xbdd72067	-0.10504227
180	0xbd85669f	-0.06513714
181	0x3d82991b	0.06376859
182	0xbda4e7a5	-0.08051995
183	0x3e663b80	0.22483635
184	0xbec5987c	-0.385929
185	0xbe8669d5	-0.26252618
186	0xbc822518	-0.015886828
187	0xbe795040	-0.24347019
188	0x3e2c8c3a	0.16850367
189	0x3e049129	0.12945999
190	0xbd067dad	-0.032834698
191	0xbe726c1e	-0.23674056
192	0xbe288a0d	-0.16458912
193	0xbe806229	-0.2507489
194	0x3e38fffe	0.18066403
195	0x3e63239c	0.22181553
196	0x3d30ffa8	0.043212563
197	0xbe87e13f	-0.26539037
198	0x3dfdd93e	0.12394951
199	0xbde22b00	-0.11043358
200	0xbe3751ff	-0.17902373
201	0x3d6f7e64	0.058470145
202	0xbdf5d458	-0.12003392
203	0xbd356063	-0.044281375
204	0xbc789b4c	-0.015173744
205	0xbd21553f	-0.039387938
206	0xbe32e7d7	-0.17471252
207	0x3e472b39	0.19450082
208	0xbe197ad0	-0.14988256
209	0x3cbf08fb	0.023319712
210	0xbd960fd9	-0.073272415
211	0x3e548709	0.20754637
212	0xbdce6c5e	-0.10079263
213	0xbe365295	-0.1780494
214	0xbe87c7cd	-0.26519623
215	0xbe2f7e4b	-0.1713802
216	0x3d555db5	0.05209132
217	0x3db80a45	0.08986334
218	0xbe250d28	-0.161183
219	0xbd069c46	-0.032863878
220	0x3bf9a21a	0.007618201
221	0x3e2ad5a7	0.16683064
222	0x3e26b929	0.1628157
223	0xbd5afe36	-0.05346509
224	0x3de23705	0.110456504
225	0xbc00e44a	-0.007866928
226	0xbe60e5d2	-0.2196267
227	0x3df8ded6	0.121518776
228	0x3d151e5e	0.036405914
229	0x3e24f323	0.16108374
230	0xbe1a86c1	-0.15090467
231	0x3dbf02d5	0.09326712
232	0xbea69718	-0.3253715
233	0xbdb7e056	-0.089783356
234	0xbe999af4	-0.30001032
235	0x3ca9590b	0.020672342
236	0xbd972f71	-0.073820956
237	0x3d7ee654	0.062231377
238	0xbdd386c7	-0.10328441
239	0xbe01017e	-0.12598225
240	0xbd322cb1	-0.043499652
241	0xbdc48683	-0.095959686
242	0x3e15304c	0.14569205
243	0x3e3014b7	0.17195402
244	0x3dec1869	0.11528093
245	0x3e6bdf28	0.23034346
246	0x3e589684	0.21151167
247	0xbe4e7ca0	-0.20164728
248	0x3e86e591	0.2634702
249	0x3e4b7a8b	0.19870965
250	0xbd8d78ed	-0.069078304
251	0xbe2301ed	-0.15918703
252	0x3e1b1a6b	0.15146796
253	0x3d5c6ec4	0.05381657
254	0x3e4d6a3a	0.20060053
255	0x3e07dc3a	0.13267604

GRU_a.weight_hh_l0 f4 [48, 16]
0	0xbdb13993	-0.086535595
1	0xbe84f692	-0.25969368
2	0x3db032f1	0.08603466
3	0xbe831845	-0.25604454
4	0xbd35b700	-0.044363976
5	0x3d2e6344	0.042575136
6	0xbe916b91	-0.2840238
7	0x3d9dc302	0.077032104
8	0xbd5862a2	-0.05282844
9	0xbdf78c3f	-0.12087297
10	0xbe561d47	-0.20909606
11	0x3e2af232	0.16693953
12	0x3d6f5ef4	0.058440164
13	0xbe826981	-0.25471118
14	0xbd1a72ea	-0.037707247
15	0x3e09582f	0.13412546
16	0xbe0ec2f1	-0.13941552
17	0x3ad06154	0.0015898147
18	0xbd3ec81c	-0.046577558
19	0xbdf73494	-0.12070575
20	0x3d8fe8ff	0.07026862
21	0xbd4626a9	-0.048376713
22	0xbd6e09c0	-0.058114767
23	0xbe4912db	-0.19636099
24	0x3e91edc8	0.28501725
25	0x3e1e9a70	0.154886
26	0xbe243519	-0.1603588
27	0x3d031f30	0.032012165
28	0x3e0e6a54	0.13907748
29	0x3d93bb7a	0.07213493
30	0x3cbf89b9	0.023381101
31	0x3d95cde3	0.073146604
32	0xbc26d64b	-0.010182927
33	0xbdecab9f	-0.115561716
34	0xbce1d779	-0.027568566
35	0x3d2d1edd	0.04226576
36	0x3d2f9a49	0.042871747
37	0x3e83ddef	0.2575526
38	0x3c3fe1a1	0.011711509
39	0xbe594c30	-0.2122047
40	0x3cf50e7e	0.029914137
41	0x3dff23e2	0.12458016
42	0x3e6eec1c	0.23332256
43	0x3ddc4aa6	0.107564256
44	0x3d4c65ba	0.0499017
45	0xbe8d89d5	-0.2764422
46	0xbdac8739	-0.08424229
47	0xbd0a5146	-0.033768915
48	0xbe06be4b	-0.13158529
49	0x3cc7f04f	0.02440658
50	0xbce96f71	-0.028495522
51	0x3e7d99ab	0.24765651
52	0x3d9e2b96	0.07723157
53	0x3e717d56	0.23582968
54	0x3ea169e7	0.3152611
55	0xbd55ce60	-0.052198768
56	0x3e09411f	0.13403748
57	0x3dd5195b	0.10405227
58	0x3dcaaa03	0.098957084
59	0x3e30d851	0.17270018
60	0xbde37780	-0.11106777
61	0x3e678588	0.22609532
62	0xbdf06afd	-0.117391564
63	0x3db0fba5	0.086417474
64	0x3c9ca619	0.01912217
65	0xbd39faaa	-0.045405068
66	0xbd6b1fc2	-0.057403333
67	0x3e184ec6	0.148738
68	0xbdb39d6f	-0.087702624
69	0x3e41b8a5	0.18918093
70	0x3e243c5f	0.16038655
71	0x3d59a291	0.05313355
72	0xbdd030d0	-0.1016556
73	0x3dbe152a	0.092813805
74	0x3ced6b92	0.028981958
75	0x3e8abb6f	0.27096125
76	0x3dbc8546	0.092051074
77	0x3e76d080	0.24102974
78	0xbd9b2731	-0.075758345
79	0xbe3b7fe7	-0.1831051
80	0x3dc7cfd0	0.09756434
81	0x3e38b35a	0.18037167
82	0xbe512c44	-0.20427042
83	0xbd5f91fd	-0.054582585
84	0xbe6fe435	-0.23426898
85	0x3d2e76b2	0.042593665
86	0x3e0c4b14	0.13700515
87	0x3d7e147f	0.062031265
88	0x3e87f62d	0.26555005
89	0xbd176136	-0.036957942
90	0x3d3b97f8	0.045799226
91	0x3e84e942	0.25959212
92	0xbcda5f27	-0.0266567
93	0x3e9c423c	0.30519283
94	0xbd00b09e	-0.031418435
95	0x3e0b9204	0.1362992
96	0x3e8b5c0d	0.27218667
97	0xbe835daf	-0.25657412
98	0xbe41ec4a	-0.18937793
99	0x3c8d69f6	0.01726244
100	0x3e1e7f97	0.15478359
101	0x3d3cf926	0.046136044
102	0x3e1d3ad9	0.1535448
103	0x3e857704	0.26067364
104	0xbe19828b	-0.14991204
105	0xbe15ca26	-0.14627895
106	0xbe1e6dda	-0.15471593
107	0x3d321153	0.043473553
108	0xbcd7d3dd	-0.026346141
109	0x3bffc533	0.0078054904
110	0xbe158b16	-0.14603838
111	0xbd82bdaf	-0.063838355
112	0xbc06718c	-0.008205783
113	0xbdb01efb	-0.08599659
114	0x3dfd4930	0.12367475
115	0x3e44c22d	0.19214697
116	0x3e819ce9	0.25315025
117	0x3e7442f0	0.2385366
118	0x3da08cfb	0.0783939
119	0xbd81e0d1	-0.063417085
120	0x3e518d49	0.20464052
121	0x3cd08780	0.025455236
122	0x3dcd069d	0.10011027
123	0xbe837a7f	-0.25679395
124	0xbdf019b5	-0.11723653
125	0xbd8c98d7	-0.068650894
126	0x3e02aa58	0.12760293
127	0xbd51600b	-0.051116984
128	0xbe1c790b	-0.15280549
129	0x3d1ae82e	0.03781908
130	0x3cff0722	0.03113133
131	0x3e4989ce	0.19681475
132	0xbe870ffa	-0.26379377
133	0xbdd65607	-0.10465627
134	0x3d57684b	0.052589696
135	0xbe335a3e	-0.17514893
136	0x3d7d38cf	0.061821755
137	0x3e839c9b	0.25705418
138	0x3dbee134	0.09320298
139	0x3e0dc2aa	0.1384379
140	0xbe6269eb	-0.22110717
141	0x3e0fe19e	0.1405091
142	0xbe0199d6	-0.1265634
143	0xbdfbcf08	-0.122953475
144	0xbdef3f01	-0.11681939
145	0xbe2de696	-0.16982493
146	0xbe1e4abb	-0.15458195
147	0xbd3359fd	-0.04378699
148	0x3d33fd1f	0.043942567
149	0xbe0a9c43	-0.13536172
150	0xbe11fd7d	-0.14256854
151	0xbd89b546	-0.06724028
152	0xbdbab668	-0.091168225
153	0x3e1b0e3a	0.15142146
154	0xbda8ebe4	-0.082481176
155	0xbe0b9176	-0.13629708
156	0xbe456d89	-0.19280066
157	0xbe9f0a3e	-0.31062502
158	0x3c7b27df	0.01532933
159	0xbe8ec7f1	-0.27886918
160	0x3d43b464	0.047779456
161	0xbdbeac26	-0.093101785
162	0x3d62fb23	0.055415284
163	0x3dde52a5	0.10855607
164	0xbd9e8cc1	-0.077416904
165	0x3db198bb	0.08671709
166	0xbd592f00	-0.05302334
167	0x3db731c6	0.089450404
168	0xbe4011e7	-0.18756829
169	0x3da907de	0.08253454
170	0xbcd1f6f7	-0.025630457
171	0xbc660069	-0.014038184
172	0x3dc52dfe	0.09627913
173	0x3e1354ee	0.14387867
174	0xbe391e35	-0.1807793
175	0x3cd9adb0	0.026572078
176	0x3e18a06f	0.1490495
177	0xbe33de51	-0.17565276
178	0xbe6b58a6	-0.22983035
179	0x3e50c35f	0.20387028
180	0x3e1a4458	0.15065134
181	0xbd3ca28f	-0.046053465
182	0x3dcbb1d2	0.09946026
183	0x3e635320	0.22199678
184	0xbb5642a3	-0.0032693527
185	0xbea51074	-0.32239115
186	0x3d4c5411	0.04988486
187	0xbe90b6f7	-0.2826459
188	0x3e268acf	0.16263889
189	0x3d688525	0.0567676
190	0x3eaeaf9a	0.34118348
191	0xbde65214	-0.11246124
192	0xbd04be60	-0.03240812
193	0xbdedb38d	-0.11606512
194	0x3d94a401	0.07257844
195	0xbe33c9ce	-0.17557451
196	0xbe93fbd3	-0.28903064
197	0x3c12a111	0.008949534
198	0x3e111c5a	0.14170972
199	0xbd9b4819	-0.07582111
200	0xbd96fdb4	-0.07372609
201	0xbce8c078	-0.028412089
202	0xbe014b55	-0.12626393
203	0xbe0095d4	-0.12557155
204	0xbdc5689d	-0.09639094
205	0x3e1c4cda	0.15263692
206	0x3d84a1c6	0.06476168
207	0xbca4b6e8	-0.020106748
208	0xbd12b578	-0.035817593
209	0x3e4b7f60	0.19872808
210	0xbe87009a	-0.26367646
211	0xbe034006	-0.12817392
212	0xbd6e24e0	-0.058140635
213	0x3e2b383c	0.1672067
214	0xbc940be2	-0.018072072
215	0x3cb81ce5	0.022474715
216	0xbe3b0cb7	-0.18266569
217	0xbe9685b2	-0.29398876
218	0x3e1b81a1	0.15186168
219	0xbd9b0e3a	-0.07571073
220	0xbe828dc1	-0.25498775
221	0xbe8757d3	-0.26434192
222	0xbe3e259b	-0.18569033
223	0xbc54846a	-0.012971023
224	0x3da0859f	0.07837986
225	0xbe9fbf8a	-0.3120082
226	0xbe2cc3e1	-0.16871597
227	0x3e8c8b34	0.27449954
228	0xbda87299	-0.08224983
229	0x3d29aa76	0.04142233
230	0xbd34a411	-0.04410178
231	0xbdbe8b8b	-0.093039595
232	0xbe204208	-0.15650189
233	0x3e5f67cf	0.21816944
234	0xbe0b85b7	-0.13625227
235	0x3e82ce5f	0.25548074
236	0x3c63e2ac	0.013909023
237	0xbd10ed35	-0.03538247
238	0x3cd79977	0.026318295
239	0x3df33b48	0.118765414
240	0xbd68dea2	-0.056852944
241	0xbe1ea4a4	-0.15492493
242	0xbd1ebb65	-0.038752932
243	0xbd3e8ed0	-0.046522915
244	0xbda1ce88	-0.07900721
245	0x3c9fa0e4	0.019485898
246	0xbecd7816	-0.4013068
247	0xbe346fb6	-0.1762074
248	0xbe103243	-0.14081673
249	0x3e357716	0.17721209
250	0xbe856c31	-0.26059106
251	0x3d4f7eea	0.050658144
252	0xbe293842	-0.16525367
253	0xbe017e65	-0.12645872
254	0x3d85e4ae	0.06537758
255	0xbdd4ba68	-0.10387117

GRU_a.bias_ih_l0 f4 [48]
0	0x3e025d98	0.12731016
1	0x3d86629c	0.06561777
2	0xbddf4cfc	-0.109033555
3	0x3e137d43	0.14403252
4	0x3e3da74f	0.18520854
5	0x3e5e03b2	0.21681097
6	0x3de1ce24	0.11025646
7	0xbddba580	-0.10724926
8	0x3e6e041b	0.23243754
9	0xbe3d379f	-0.18478249
10	0x3e0827e9	0.13296475
11	0xbe397bb7	-0.181136
12	0xbda51424	-0.08060482
13	0xbe0d2561	-0.1378379
14	0x3c4b9e4a	0.012427876
15	0x3e61de92	0.2205756
16	0x3b3845e6	0.0028117835
17	0x3dc6a142	0.09698726
18	0x3e00206c	0.12512368
19	0xbee9dfde	-0.4567861
20	0xbdacb63f	-0.08433198
21	0xbed7012b	-0.4199308
22	0x3d9b3603	0.07578661
23	0x3d8cb633	0.06870689
24	0x3d23e980	0.040017605
25	0xbd946f3e	-0.0724778
26	0xbeb42d1c	-0.35190666
27	0xbe057086	-0.13031206
28	0xbeaff2f2	-0.3436504
29	0xbe3ad27a	-0.18244353
30	0x3cb2664d	0.021777296
31	0x3d77f2d4	0.060534313
32	0x3e2102ee	0.15723774
33	0xbe8054bb	-0.25064644
34	0xbe9327eb	-0.28741392
35	0xbc92dc7c	-0.0179274
36	0x3d4daca7	0.050213482
37	0x3e10b2a3	0.14130645
38	0xbe60e1a3	-0.21961074
39	0xbd0fac80	-0.03507662
40	0x3e8194ae	0.25308746
41	0x3e16bded	0.14720888
42	0xbe7fe3c8	-0.24989235
43	0xbc26c489	-0.010178694
44	0xbb5bfeb6	-0.0033568568
45	0xbe62bbdb	-0.22141974
46	0xbe852f48	-0.26012635
47	0x3e97f526	0.2967922

GRU_a.bias_hh_l0 f4 [48]
0	0x3e461180	0.19342613
1	0x3da53426	0.08066587
2	0xbc6f9106	-0.014621979
3	0x3e1100b3	0.14160423
4	0x3e1c3e7a	0.15258208
5	0xbd9f46f7	-0.07777207
6	0x3e9041db	0.28175244
7	0xbe12dfb7	-0.14343153
8	0x3e31ff12	0.17382458
9	0xbd993541	-0.074808605
10	0xbd9c1c5a	-0.07622595
11	0x3d95ca92	0.07314028
12	0x3cec4b2c	0.028844438
13	0x3e85c28a	0.26124984
14	0xbdc8ed8d	-0.09810934
15	0xbcbf3c2d	-0.023344124
16	0xbebcc44e	-0.3686852
17	0xbdf4dd67	-0.11956292
18	0x3e16cd22	0.1472669
19	0xbeaab522	-0.33341318
20	0xbe1c4211	-0.15259577
21	0xbe1e0a3f	-0.15433596
22	0xbe4d930f	-0.2007563
23	0x3e22342b	0.15840213
24	0xbd67d858	-0.056602806
25	0x3c4e764a	0.0126014445
26	0xbea0187d	-0.31268683
27	0xbddde4a8	-0.10834628
28	0xbb90ec43	-0.004422696
29	0xbd5bb0dd	-0.053635467
30	0x3d83fac1	0.06444312
31	0xbe1217f0	-0.14266944
32	0xbed6705e	-0.41882604
33	0x3b8000f2	0.0039063627
34	0x3d826c79	0.06368346
35	0x3bcf9b9a	0.006335688
36	0x3e6ea761	0.23306037
37	0x3e499e8b	0.19689386
38	0xbe6ba28b	-0.23011224
39	0xbd7ad718	-0.061240286
40	0x3e2103c2	0.1572409
41	0x3e859b67	0.26095125
42	0xbe8a95ad	-0.2706732
43	0x3de296f4	0.11063948
44	0xbeaa519f	-0.33265397
45	0xbe916fc1	-0.28405574
46	0xbe99a762	-0.30010515
47	0x3dd4cdce	0.10390817

linear_a.weight f4 [4, 16]
0	0xbf071e6e	-0.52780807
1	0x3e2907cc	0.1650688
2	0x3e30c890	0.17264009
3	0xbf7ddaf1	-0.99162203
4	0x3fe442e0	1.7832909
5	0x3faf156c	1.3678412
6	0x3e49dc41	0.19712926
7	0x3f41069c	0.7540071
8	0xbe49835d	-0.19679017
9	0xbfacfa5d	-1.3513905
10	0xbe3f7664	-0.18697506
11	0xbf2039ad	-0.62588006
12	0xbf1e5a59	-0.6185661
13	0xbf0eb7e0	-0.5574932
14	0xbf1f26d0	-0.621686
15	0x3bb8c05e	0.0056381663
16	0xbf979619	-1.1842681
17	0xbe2d327c	-0.1691379
18	0x3dfec6ff	0.12440299
19	0xbf040079	-0.5156322
20	0xbf436108	-0.7631993
21	0xbf3c2a9b	-0.7350251
22	0x3e0aaff2	0.1354368
23	0x3ebc2a61	0.36751083
24	0x3ec45896	0.38348836
25	0x3f4aea06	0.7926334
26	0xbd709ec0	-0.058745146
27	0x3f677cb9	0.90424687
28	0xbf5fa9cd	-0.8736847
29	0xbf605d08	-0.87641954
30	0xbf460bb0	-0.77361584
31	0x3efb4ec5	0.49083534
32	0xbf14437a	-0.5791546
33	0x3e6886f4	0.2270773
34	0x3e2562fe	0.16151044
35	0xbe75a267	-0.23987733
36	0xbf4bef7b	-0.79662293
37	0xbf7a29c4	-0.9771998
38	0x3e01f94e	0.12692758
39	0xbf89c41d	-1.0762974
40	0xbe4cf5a7	-0.20015584
41	0xbe2698d0	-0.16269231
42	0x3e41d7f4	0.18930036
43	0x3dd7699e	0.10518192
44	0xbeaecec1	-0.34142116
45	0xbeef5001	-0.46740726
46	0xbef53c2f	-0.4789748
47	0xbeab9e7d	-0.33519354
48	0x3fa908ca	1.3205807
49	0x3e4f08e2	0.20218232
50	0xbcb4a608	-0.022051826
51	0x3f485bfd	0.7826536
52	0xbf921a9a	-1.1414368
53	0xbf8d37d6	-1.1032665
54	0xbde60668	-0.11231691
55	0xbf245224	-0.64187837
56	0xbd095073	-0.033523988
57	0x3ecda773	0.40166816
58	0x3d0d3ca5	0.034481663
59	0xbf049726	-0.51793134
60	0x3f9dc555	1.2325846
61	0x3fb2827d	1.3946072
62	0x3f943752	1.1579382
63	0xbf07d614	-0.5306103

linear_a.bias f4 [4]
0	0x3f226eda	0.63450396
1	0x3f0a06c2	0.5391656
2	0xbeb8f8e4	-0.36127388
3	0xbe939d89	-0.28831127

conv_v_0.weight f4 [16, 7, 3, 3]
0	0xbd99c2ce	-0.07507859
1	0xbdf3da98	-0.11906928
2	0x3d5872da	0.052843906
3	0xbdde697e	-0.10859965
4	0x3e5fb29d	0.2184548
5	0x3e5704b5	0.2099789
6	0x3cbbd8c8	0.022930518
7	0x3def322e	0.11679493
8	0xbd91c017	-0.07116716
9	0x3e951d59	0.29123953
10	0x3e294fd2	0.16534355
11	0xbdc9da6d	-0.098561145
12	0x3e1f559f	0.15560006
13	0xbe975cec	-0.2956308
14	0xbc2340b2	-0.009964155
15	0x3e466523	0.19374518
16	0xbe71085b	-0.23538344
17	0xbe67e91d	-0.2264752
18	0xbed4ba65	-0.41548458
19	0x3e9dfe25	0.3085796
20	0x3e3e3b63	0.18577342
21	0xbd9c7070	-0.07638633
22	0x3ea6a289	0.3254588
23	0x3e94e49e	0.2908067
24	0xbed2a7b7	-0.4114358
25	0x3e4747ac	0.19460934
26	0x3ec37198	0.38172603
27	0x3dd5f835	0.10447732
28	0xbeaafdf4	-0.33396876
29	0xbd21f668	-0.039541632
30	0xbec789bd	-0.38972273
31	0xbde71168	-0.11282617
32	0xbea57e3f	-0.3232288
33	0x3d5fb607	0.054616954
34	0x3cddc238	0.02707015
35	0xbe296b60	-0.16544867
36	0xbd9eaf6e	-0.07748304
37	0x3cfbd04d	0.030738974
38	0x3cd47463	0.025934404
39	0xbdd842fc	-0.10559651
40	0x3ac53333	0.0015045166
41	0xbc85b615	-0.016322175
42	0x3bd99ecf	0.006641246
43	0x3d8431e1	0.06454826
44	0x3dd78ed7	0.105252914
45	0xbd431ccc	-0.047634885
46	0x3c87a256	0.0165569
47	0x3d4b5bc8	0.049648076
48	0xbae48915	-0.0017435873
49	0x3cb1e30b	0.021714708
50	0x3d80c129	0.062868424
51	0x3d2d580c	0.042320296
52	0xbd4c3fc7	-0.04986551
53	0xbe1b4cc4	-0.15166003
54	0xbd781eeb	-0.06057636
55	0xbd775088	-0.060379535
56	0xbbdd2146	-0.0067483513
57	0x3d12d830	0.035850704
58	0x3d75487e	0.059883587
59	0xbdbd7677	-0.09251111
60	0x3d883c36	0.06652109
61	0x3dc09c2a	0.09404786
62	0x3ce1575f	0.027507482
63	0x3d2bcd48	0.04194382
64	0xbe646923	-0.22305731
65	0x3e155f2e	0.1458709
66	0x3e2410d2	0.16022041
67	0x3d84c54e	0.064829454
68	0xbd8bbdab	-0.06823286
69	0xbe5ef1b4	-0.2177189
70	0xbd28be0a	-0.04119686
71	0xbb5d30d8	-0.0033751037
72	0x3d734baa	0.05939833
73	0x3e3c5ff5	0.1839598
74	0xbd30c25b	-0.0431541
75	0xbe2d0324	-0.1689573
76	0xbd44a0e1	-0.04800499
77	0x3cbaa55f	0.022783933
78	0xbd2e19de	-0.042505138
79	0xbd747cd9	-0.059689377
80	0xbc9d89cd	-0.019230748
81	0x3e253797	0.16134487
82	0x3d2ae9e5	0.041726965
83	0x3e98ee27	0.29869196
84	0x3d4a6631	0.049413864
85	0x3ec21497	0.37906334
86	0x3dd0ced2	0.10195698
87	0x3d7cd5b0	0.061727226
88	0x3e80e6c2	0.25176054
89	0x3e227319	0.15864219
90	0xbdf2c3cc	-0.118537515
91	0xbe097949	-0.13425173
92	0xbdfcdde5	-0.123470105
93	0xbe698036	-0.22802815
94	0xbdc02952	-0.09382881
95	0xbe904c1c	-0.28183067
96	0xbe19f0fd	-0.15033336
97	0x3e378123	0.17920355
98	0xbe26e1ab	-0.16297023
99	0x3ca38ac3	0.019963628
100	0x3d84ec9f	0.064904444
101	0xbd04c32b	-0.03241269
102	0xbd6b9a13	-0.057519984
103	0xbc590a30	-0.013247058
104	0xbd14c1d3	-0.036317658
105	0x3d0f2b1a	0.034953214
106	0xbdf3c9ec	-0.11903748
107	0x3d80033d	0.06250618
108	0x3b4b8cd4	0.0031059282
109	0x3ccfc7b6	0.025363784
110	0xbd58d513	-0.05293758
111	0xbd70427c	-0.058657154
112	0x3d91c4a2	0.07117583
113	0x3d8894e9	0.06669027
114	0x3dfdb7bb	0.123885594
115	0x3ce8fd62	0.028441135
116	0xbcd2ddfa	-0.025740612
117	0xbe86a768	-0.26299596
118	0xbe2d59f0	-0.1692884
119	0xbe6ca41b	-0.23109476
120	0xbd8984d2	-0.067147866
121	0xbe61b2d1	-0.2204087
122	0xbdcf40a0	-0.10119748
123	0xbe4f6d3c	-0.20256513
124	0xbe6109bc	-0.2197637
125	0xbe1f398b	-0.15549295
126	0x3cd8f023	0.026481694
127	0xbe9068b1	-0.28204873
128	0x3b39ac32	0.0028331396
129	0x3dacd980	0.08439922
130	0x3e0f4fd8	0.13995302
131	0xbe7cd486	-0.24690446
132	0x3e040d6c	0.12895745
133	0xbeb67e96	-0.35643452
134	0x3d9f1a84	0.07768729
135	0xbde28669	-0.11060793
136	0xbdb81b93	-0.08989634
137	0xbc5273f0	-0.0128450245
138	0xbe2cb4fd	-0.16865917
139	0xbd931886	-0.07182412
140	0x3d97992a	0.074022606
141	0x3bfc1178	0.007692512
142	0x3d7fda02	0.062463768
143	0x3cf6fd1f	0.030149994
144	0x3e8ef745	0.27923027
145	0x3e8f6e31	0.28013757
146	0xbece4a12	-0.40290886
147	0x3e904233	0.28175506
148	0xbe422379	-0.18958844
149	0x3e802aa9	0.25032547
150	0x3e97d349	0.29653385
151	0x3e76da5d	0.24106736
152	0xbe1afe13	-0.15135984
153	0xbe97edb5	-0.29673544
154	0xbd24454e	-0.040105157
155	0xbd6ea802	-0.058265693
156	0xbe4bed4c	-0.1991474
157	0x3decfa28	0.11571151
158	0xbea0b57f	-0.3138847
159	0xbeb662d7	-0.35622284
160	0xbea4692a	-0.32111484
161	0x3c8d8edc	0.017280035
162	0x3a94e15b	0.0011358665
163	0x3ddaae54	0.10677782
164	0x3c818dce	0.015814688
165	0xbcf40829	-0.029789047
166	0x3de72afe	0.11287497
167	0xbdf676eb	-0.120344006
168	0x3d769e5f	0.06020963
169	0xbda42305	-0.08014492
170	0x3caebf32	0.021331403
171	0x3daadbe6	0.083427235
172	0x3ce79927	0.02827127
173	0x3d0d5c75	0.034512002
174	0x3dc3a4bf	0.09552907
175	0xbe18408d	-0.14868374
176	0xbd826f83	-0.063689254
177	0x3dc4a35a	0.09601469
178	0xbdcad6f8	-0.09904283
179	0xbd02395c	-0.031792983
180	0xbd4e3873	-0.050346803
181	0xbe17fcbf	-0.14842509
182	0xbd6f3688	-0.058401614
183	0xbcf5c09b	-0.029999068
184	0xbe0826c7	-0.13296042
185	0xbca5e70c	-0.020251773
186	0xbb30342d	-0.0026886568
187	0xbb55511e	-0.003254957
188	0xbd2d1d9f	-0.042264577
189	0x3e4609d3	0.19339685
190	0x3eb12113	0.34595546
191	0x3dcdc19f	0.10046696
192	0xbde8e093	-0.11370959
193	0x3d66715a	0.056260444
194	0x3dcd2f2b	0.10018762
195	0xbe32994d	-0.17441292
196	0xbf2348b6	-0.63782823
197	0xbdc99e2f	-0.09844624
198	0x3da64c61	0.08120037
199	0x3cdb7139	0.026787387
200	0x3dd07ea4	0.10180405
201	0x3d0fdc8c	0.03512244
202	0xbf0e6123	-0.5561697
203	0xbdf40752	-0.11915459
204	0x3e110c99	0.14164962
205	0x3e0ba483	0.13636975
206	0xbe3caf33	-0.18426208
207	0xbe19f43c	-0.15034574
208	0xbf01c43f	-0.5069007
209	0xbf31a1d0	-0.6938753
210	0x3e332be7	0.17497216
211	0x3ec3514b	0.3814796
212	0x3d60aa2a	0.05484978
213	0x3e9dfe11	0.308579
214	0x3d118c71	0.035534326
215	0x3eeee031	0.4665542
216	0xbe35ce09	-0.17754377
217	0xbe838a60	-0.2569151
218	0xbebc25bf	-0.36747548
219	0xbd8657fa	-0.06559749
220	0x3e2d686c	0.16934365
221	0xbcfc18de	-0.030773576
222	0xbd804792	-0.06263651
223	0xbec388da	-0.38190347
224	0x3d8dd118	0.06924647
225	0xbdb19416	-0.08670823
226	0x3e005e4f	0.12535976
227	0xbd8c3143	-0.068453334
228	0x3c3f156b	0.011662821
229	0x3d0e6af3	0.034769963
230	0xbcea0bab	-0.028570017
231	0xbdac32b2	-0.08408107
232	0xbd97b412	-0.074073926
233	0x3dd5466c	0.104138225
234	0x3c7d8b2f	0.0154750785
235	0x3d309bc6	0.043117307
236	0x3befd5b8	0.0073191784
237	0xbd8b781a	-0.06810017
238	0x3d95de94	0.07317844
239	0x3c65d3dc	0.014027562
240	0xbe24d3b6	-0.16096386
241	0xbcda6e49	-0.026663916
242	0xbda7f2bd	-0.082005955
243	0xbe2adea2	-0.1668649
244	0xbd6e42b0	-0.058169067
245	0xbd343d38	-0.044003695
246	0xbe26df91	-0.16296221
247	0xbd07aa35	-0.033121306
248	0xbe009959	-0.12558497
249	0xbd0efc6b	-0.034908693
250	0xbdc39c31	-0.095512755
251	0xbe2026a2	-0.15639737
252	0xbea6f3e0	-0.32607937
253	0x3e33ff6b	0.17577903
254	0xbeb96f6c	-0.3621782
255	0x3e38684a	0.18008533

conv_v_0.bias f4 [16]
0	0xbd8d9cc3	-0.069146655
1	0x3c4095d9	0.011754476
2	0x3cc88686	0.024478208
3	0x3d50afe4	0.050948992
4	0xbde95615	-0.11393372
5	0xbbee82ea	-0.0072787898
6	0xbd67fce7	-0.05663767
7	0x3c0637b1	0.008191989
8	0x3d859e74	0.06524363
9	0x3b65f716	0.0035089902
10	0xbd0c439c	-0.034244165
11	0x3cf66c93	0.03008107
12	0xbdbf8c58	-0.0935294
13	0xbc1ce546	-0.009576147
14	0x3c9d5676	0.019206267
15	0xbdb78bc9	-0.08962209
