league/checkpoints/mfos_seeds/new_self_3x3_48/300_1.pth (torch, 300942 bytes, 105 tensors)

conv_a_0.weight f4 [16, 7, 3, 3]
000000 a0 b2 c1 3d 29 4d 20 3e 26 de 2e bd a1 a4 ec 3c
       0.09457898 0.15654434 -0.042692326 0.028887095
000010 f9 bc 3d 3e c5 8c b8 3d 98 e7 34 bd d0 08 83 bb
       0.18529119 0.09011225 -0.044166178 -0.0039988533
000020 ca 30 4e 3d 11 79 08 3e db f0 12 3e f2 92 a7 3d
       0.050339498 0.13327433 0.14349692 0.081823245
000030 a1 5e 0a 3e a6 34 e2 3d 1a 9e d7 3d cd ff 4a 3d
       0.1351266 0.11045198 0.10528202 0.049560357
000040 44 77 ed bd 97 49 d6 3d 82 5f fd 3d 77 2e e6 3d
       -0.11595014 0.10463255 0.12371732 0.11239331
000050 65 4c 11 3e a2 83 5c 3d 05 e2 e7 bc e8 a8 ba bb
       0.14189298 0.053836472 -0.028306017 -0.0056964047
000060 24 1f 6c 3d 7c 4e 8b 3c 2a fb ca 3d f7 a5 27 3d
       0.057646886 0.017005198 0.09911187 0.04092976
000070 6d 89 06 3e 35 6a 60 bd e4 fa 29 bd fa 4f 01 3d
       0.13138361 -0.054788787 -0.041499034 0.031570412
000080 3c 6d 93 bd 4c 90 30 be b5 50 ac bd 20 dc dd 3d
       -0.07198569 -0.17242545 -0.08413831 0.10833001
000090 c3 fa b8 3d 1a a7 45 bd ae 37 07 be db d5 32 bb
       0.09032204 -0.048255064 -0.13204834 -0.0027288112
0000a0 bc a0 23 3d cf ac 97 bb 75 c8 fa bd d3 93 ca bc
       0.03994821 -0.0046287547 -0.122452654 -0.024728691
0000b0 50 47 0e bd 7f fe fc 3d 04 da 03 3e ec c0 b4 bb
       -0.034735978 0.12353229 0.12876135 -0.005516162
0000c0 f6 a2 25 3e e7 7a 8d 3d 9c 25 69 3d b5 65 32 3e
       0.16175446 0.069082074 0.056920633 0.1742161
0000d0 ed 25 c8 3d 52 94 76 bd ec 6b cd 3d b6 c5 28 bd
       0.09772859 -0.060200043 0.1003035 -0.041204177
0000e0 f9 28 95 bd ce bd 5d bd c3 06 31 3e 63 18 0e 3e
       -0.072832055 -0.05413609 0.17287736 0.1387649
0000f0 bb 30 04 3e 11 95 8a 3d 7b a0 12 3d bc 81 81 3d
       0.12909214 0.067667134 0.035797577 0.06323573
000100 df 17 3e bd 5e 63 03 be ff 16 18 3e ba ea 65 3d
       -0.046409484 -0.12830874 0.14852522 0.056132056
000110 52 61 39 bd 67 34 2c 3e 5e e6 01 3e 34 65 ec 3d
       -0.045258828 0.16816865 0.12685534 0.115427405
000120 48 07 cb 3c f3 1e 92 bd 01 38 cc 3d e9 77 ee 3d
       0.024783745 -0.07134809 0.099716194 0.11643965
000130 be 7f 0b 3e df 94 31 be 65 b2 1d 3e 89 b4 f8 3c
       0.13622949 -0.17341946 0.15400083 0.030359523
000140 6c 85 af bc 7d 5f d2 bb 75 75 3c 3e fd 77 a6 3d
       -0.021425925 -0.0064200745 0.18404181 0.08128355
000150 99 01 58 3d e1 44 44 3c 57 9a 7c bd 31 9a ae 3d
       0.0527359 0.011979313 -0.061670627 0.085255034
000160 0c ef 14 3c f2 36 15 3d 77 bb b4 bc 4d d7 14 bd
       0.009090196 0.036429353 -0.022062046 -0.03633814
000170 ad 02 07 3e 92 5d 04 3e 54 73 58 be cb 1a 2d 3d
       0.13184614 0.12926319 -0.21137744 0.04226188
000180 e6 2c 73 bd 74 be 84 3d e5 9d 6e 3d 8d 16 f9 bd
       -0.05936899 0.064816386 0.05825605 -0.12162504
000190 39 05 9c bd c8 54 db bd c3 61 a1 3d 45 e6 ef bd
       -0.07618184 -0.1070953 0.07879975 -0.11713842
0001a0 ef 79 ac 3c 30 1e b9 bd 8e a4 f9 3d 95 de b8 3d
       0.021054236 -0.09038961 0.121895894 0.09026829
0001b0 40 a0 d7 3d f0 b7 24 3e 72 6d 35 3c e8 e5 8a bd
       0.10528612 0.16085792 0.011073457 -0.067821324
0001c0 8c 70 2b 3e d8 86 ff 3d 4a 06 16 bd 1b 4e 93 bc
       0.16742152 0.12476891 -0.03662709 -0.01798158
0001d0 f8 d2 15 3c 46 70 6e bd 9b ca 0e 3e cd 74 c8 3d
       0.009144537 -0.05821254 0.13944475 0.09787903
0001e0 c0 48 90 bd 85 e4 23 3e 86 a6 17 3e 0c db 12 3d
       -0.07045126 0.16005142 0.14809617 0.03585343
0001f0 31 cc 99 bc 37 07 aa 3d 0e af 08 3e 20 88 76 bc
       -0.018774124 0.08302157 0.13348028 -0.015047103
000200 0e ce 42 3e 0a 3b af bd 19 fb ed 3d cc 11 cc 3d
       0.19023916 -0.08556183 0.11620159 0.09964332
000210 d3 59 95 bc e7 b0 a3 3d 0e 0a 89 3d 4a 0a 56 bb
       -0.018231308 0.07992726 0.06691371 -0.0032659941
000220 ed 72 9a bc 19 d1 81 bd 4e a6 c4 3d 98 ca 84 bd
       -0.018853629 -0.0633871 0.096020326 -0.06483954
000230 02 5e ea 3d c1 a1 28 bc ad 31 12 3e 5e 1a b7 3d
       0.11443712 -0.010292471 0.14276762 0.08940576
000240 40 56 7c 3d c2 1d 9b 3d e1 87 ce 3d 98 17 1c be
       0.061605692 0.07574035 0.100845106 -0.15243375
000250 5a 9f b0 3d 52 f8 2f 3e c9 97 76 3e 44 c4 2d 3e
       0.08624144 0.1718457 0.24081339 0.169694
000260 ca ba fb 3d 61 5d 96 3d 84 e8 57 bc 0f 58 94 bb
       0.122914866 0.07342029 -0.013177995 -0.004527099
000270 f6 79 48 3d 08 c3 df 3d 8b 30 c7 3d 49 8b ae bd
       0.048944436 0.10925871 0.09726056 -0.0852266
000280 9f db 85 3c 85 cb 5d 3d d2 cf 55 3b 76 9d b2 bd
       0.016340075 0.05414917 0.0032625091 -0.087214395
000290 1a de b2 bd 6f e6 a9 3d 49 5b a1 3d 76 e7 f0 3d
       -0.08733769 0.08295905 0.078787394 0.11762898
0002a0 ec b2 90 bc 96 31 47 3d 1b f2 f4 3d 7f 47 99 bb
       -0.017663442 0.048631273 0.119602405 -0.0046777125
0002b0 67 37 10 be 12 65 c4 bd dc 5a 66 3d 73 c9 13 be
       -0.14083634 -0.0958959 0.056238994 -0.14432316
0002c0 f0 27 22 be 25 c8 b9 bd 93 1f 1d be 7e 1b ee bd
       -0.15835547 -0.09071378 -0.15344076 -0.116263375
0002d0 94 bf 3a 3e 8c 4c c5 3d 17 f9 1a 3e 66 86 06 3e
       0.18237144 0.09633741 0.15134083 0.13137206
0002e0 e2 d0 3c bd c8 41 2d bd bf 1a 50 3d 01 72 c7 3d
       -0.046097644 -0.042299062 0.050806757 0.097385414
0002f0 f6 07 e2 3d 11 e9 d2 bd 5e 6a 43 3d db 10 e1 3b
       0.11036675 -0.1029836 0.04770886 0.0068684644
000300 19 77 ba 3d c1 87 63 bd af 47 f3 3d a9 28 49 be
       0.09104747 -0.055549387 0.11878907 -0.19644417
000310 9b 53 15 3e 49 97 0f be 39 cb 14 3d e1 ae 8e 3c
       0.14582674 -0.14022554 0.03632662 0.017417373
000320 d4 0d ac 3d a9 59 77 3c 3d 80 ac 3d 08 26 03 3e
       0.08401075 0.01509706 0.08422897 0.12807477
000330 51 5f 7c be 98 2f 4b bd b5 68 86 3a 15 e8 e5 3d
       -0.24645735 -0.049605936 0.0010254594 0.11225907
000340 27 24 29 3c 4d 21 39 3c 37 8f 38 3d 8f 93 e4 3c
       0.010323561 0.011299443 0.045058455 0.027902393
000350 e4 c9 a8 bb ce a6 23 bd 3e c6 b3 3c ae d0 9b 3c
       -0.0051510204 -0.039954 0.021945115 0.019020405
000360 50 c0 6a 3d 21 eb 2c 3e a2 f3 e2 3d 84 93 9f 3d
       0.05731231 0.1688657 0.110816255 0.07791808
000370 7d 9f e0 3d 46 12 b2 3c 67 57 6f 3d 61 70 8a be
       0.1096792 0.02173723 0.058432963 -0.27038863
000380 89 22 9a be 9f 70 1b 3d 8c ff aa bd a7 45 d0 bc
       -0.30104473 0.0379492 -0.08349523 -0.025423838
000390 ee c6 c0 bd d2 82 ce bd 0b 3d 03 3d 59 8b a1 3d
       -0.09412943 -0.10083546 0.032040637 0.078879066
0003a0 7e dd 3c bd c7 f8 dd 3d bf 7c 21 3e f3 9f 26 3e
       -0.04610967 0.10838466 0.15770243 0.16271953
0003b0 56 81 99 3a 81 71 74 bc c0 cf 4a 3d ee d6 83 3d
       0.0011711519 -0.01491964 0.049514532 0.06437479
0003c0 9d 52 9f bb 39 9a 98 3d 6a bc 22 3e 42 12 44 3c
       -0.004862143 0.07451291 0.15892187 0.011967244
0003d0 8c 0c 12 3d 69 e7 da 3d de 01 dc 3d c3 25 8a 3d
       0.035656497 0.10688669 0.10742544 0.06745484
0003e0 b0 56 2b 3d 7c a5 bb bd da f6 36 3d aa 9d e3 3b
       0.04183072 -0.09162423 0.04466901 0.0069462853
0003f0 94 ec 2a bd ae 91 9c bd da 7f 08 3e 1d 05 30 3e
       -0.041729525 -0.07644974 0.13330022 0.1718945

conv_a_0.bias f4 [16]
000000 cc af 3f 3d 56 1b dc 3d 16 e7 21 3e 62 47 d0 3d
       0.046798512 0.107474014 0.15810809 0.10169865
000010 9c 90 8e ba c6 a3 92 3b d9 8e 37 3d 4a e7 be 3d
       -0.0010876837 0.0044750897 0.044813965 0.09321459
000020 16 83 d7 bc ac f1 29 bd dc c0 2e 3e 38 15 7c bd
       -0.026307624 -0.041490242 0.17065758 -0.061543673
000030 4b 23 69 3d be 59 33 bd 6d 2e d8 bc bb f1 a6 3c
       0.056918424 -0.043786757 -0.026389325 0.020378938

conv_a_1.weight f4 [16, 16, 3, 3]
000000 a6 28 ae bc 03 c1 a3 3d b1 f0 e4 3b 1e e0 b5 3d
       -0.021259617 0.079957984 0.0069867005 0.088806376
000010 1b 46 97 3d 9e 92 24 3d fd fe 62 bd db 89 f7 3c
       0.073864184 0.040178888 -0.055418957 0.030217102
000020 d7 a6 9d 3d c2 2e 6c bd b8 6f 02 bd 0a 82 b8 bd
       0.07697838 -0.05766178 -0.031844825 -0.09009178
000030 59 14 e8 3c 4f 3a 87 3d 8f 48 0a 3c a9 1f 98 3d
       0.028330015 0.06602918 0.008440151 0.07427914
000040 c5 89 a4 3d 69 03 25 3d 42 de 2b bd 7d cf 04 3d
       0.0803409 0.040286455 -0.04196001 0.03242444
000050 9d 0f 95 bd 6c b6 a2 bd f6 63 40 bd 1f d2 4b 3d
       -0.072783686 -0.079449505 -0.04697033 0.049760934
000060 2b 96 ff 3c 86 c2 a4 3b 45 29 c5 3c 4b 75 af 3d
       0.031199535 0.005028072 0.02406753 0.08567294
000070 2f 64 b4 3d fe 7b 09 bb 4b 03 ec 3d 83 fd 9d 3d
       0.08808171 -0.0020978446 0.115240656 0.07714369
000080 a1 86 61 3d 85 87 b8 3d da 56 6a 3d 02 21 ae 3d
       0.055060033 0.09010223 0.057211734 0.085023895
000090 4b b1 53 3d e2 7a 27 3d 92 7b b7 bc 96 54 3d bc
       0.05168275 0.040888675 -0.02239779 -0.011555811
0000a0 60 e7 21 3d a0 cd 7f bd bd 1e a1 3c 9a 37 a5 bc
       0.039527297 -0.06245196 0.019667977 -0.020168114
0000b0 f6 4b c8 bd 7c c8 2e 3e a5 34 9e 3d 14 e7 25 3e
       -0.097801134 0.17068666 0.07724885 0.1620143
0000c0 23 74 48 3d a6 86 07 3e f5 e3 04 3e 94 b7 e9 3d
       0.04893888 0.13234958 0.12977584 0.11411968
0000d0 90 10 2b 3e 1b 4e 8c 3d d5 b7 9a 3c 18 7d 9d 3d
       0.16705537 0.06850835 0.018886486 0.07689875
0000e0 b4 cd 35 3e 19 db 1e 3d f1 93 53 3b b2 c8 1c 3d
       0.17754251 0.038783167 0.0032284225 0.038277335
0000f0 21 e2 df 3d 2f bc f2 3d 04 78 c1 3d 7e 64 04 3e
       0.109318025 0.118522994 0.09446719 0.1292896
000100 b4 f0 e7 3d ae 67 8a 3d bb 10 9d 3c 87 67 c3 3d
       0.11325207 0.067580566 0.019173017 0.09541231
000110 d5 ef 05 3e 53 06 3f 3e 9e c8 e6 3d ed 72 37 3e
       0.1307977 0.18654756 0.112687334 0.17914934
000120 ff 3b 9c 3d 8d 92 3c 3e 7e 3d a6 3d 9d 58 93 3d
       0.07628631 0.1841528 0.081171975 0.07194636
000130 cd 22 54 3e 73 92 2c 3d 72 32 20 3e 7d c3 30 3e
       0.207164 0.042131852 0.15644243 0.17262073
000140 e3 a4 fe 3c 3c ac 20 3e 1d a5 0b 3e 69 9b ec 3d
       0.031084483 0.15690702 0.13637204 0.1155308
000150 ba 99 4c 3d 6a b5 69 3e 02 b7 18 3e 63 f7 c2 3d
       0.049951293 0.2282311 0.14913562 0.095198415
000160 9b dd 44 3e 97 37 c6 3d b8 92 a9 3c 45 47 5b 3d
       0.19225161 0.09678572 0.020699844 0.053534765
000170 c4 4f 28 3d 4b 6c 44 3d 77 63 03 bd 4e 24 32 3b
       0.041091695 0.04795484 -0.03207728 0.0027182284
000180 bd 4d 37 3d 29 10 54 bd fb bc 92 3d 19 f4 2c 3d
       0.04475187 -0.051773224 0.071649514 0.042224977
000190 57 5e f1 3d b8 a1 73 3e 0f c0 fa 3d 67 28 7c 3e
       0.11785572 0.2379216 0.122436635 0.24624787
0001a0 34 55 f2 3d d6 90 36 3e 94 48 5a 3e 4e 11 33 3e
       0.118326575 0.17828688 0.21316749 0.1748707
0001b0 e0 26 87 bd 42 ce ee bc ff 8a 43 bd 4f b2 ac 3d
       -0.06599212 -0.029151086 -0.04773998 0.08432447
0001c0 b1 69 95 3b 23 82 cd bc 33 6f 1f 3d db 71 0d 3d
       0.0045597185 -0.025086468 0.038924407 0.03453241
0001d0 32 64 d1 3d fe 4e 31 3e 92 c6 18 3e 07 69 ab 3d
       0.10224189 0.1731529 0.14919499 0.08369642
0001e0 f1 b2 3a 3e 80 f1 0c 3e 18 c3 22 3e 15 26 9c 3d
       0.18232323 0.13764 0.15894735 0.07624451
0001f0 ca 1b 56 3e a4 9a 4c 3e 88 ae c4 bc ec e4 ed 3d
       0.20909038 0.19980866 -0.024009004 0.11615929
000200 73 8b cd 3d 7b 04 a6 3d ef df 5e 3d 5e 04 b8 3d
       0.100363635 0.08106323 0.05441278 0.08985208
000210 85 44 ba 3c c7 4f d9 b9 8d bd 5b 3d de dc 15 3e
       0.02273775 -0.00041448904 0.053647567 0.14635035
000220 ac 71 6f 3d a1 32 9d 3d 09 b0 e5 3d ba 49 4d bc
       0.058458015 0.07675672 0.11215217 -0.012529785
000230 fa 73 4f 3d 35 04 ee 3d 3d 0f cc 3d f8 29 18 3e
       0.050647713 0.11621896 0.09963844 0.1485976
000240 67 4b c4 3d c5 1c 88 3d c8 d3 81 3d bd 6e d9 3d
       0.09584694 0.06646112 0.06339222 0.10616825
000250 dd 1e d2 3c c8 71 ef 3d ca 3c 61 3d 83 03 3b 3d
       0.025649482 0.11691624 0.054989614 0.045657646
000260 bd 57 2d 3d 59 69 e5 3d 9e 8d 91 3b c9 82 da 3b
       0.042320002 0.11201734 0.004441931 0.006668423
000270 33 83 0e 3d a4 f5 1a 3c a0 b5 df 3d 61 d1 a4 3d
       0.03479309 0.009457979 0.10923314 0.08047748
000280 54 26 f0 3d 7b e5 81 3c e3 e8 01 3e f0 5d 08 3e
       0.117260605 0.015856495 0.12686495 0.13317084
000290 de 01 1e 3e a2 64 f7 3d d5 18 1d 3e 62 7e 26 3e
       0.154304 0.12079741 0.15341504 0.16259149
0002a0 c4 41 4e 3d 3d 81 18 3e 9d 11 a9 3c 02 9e cd 3d
       0.050355688 0.1489305 0.020638281 0.10039903
0002b0 f2 c3 4a 3d cb 02 96 bc ca 3f 4c 3d ec 46 85 bd
       0.049503274 -0.018311879 0.04986552 -0.06507668
0002c0 fd e1 95 bd d8 97 a6 3d 5f 36 9a bb 37 d5 07 3d
       -0.073184945 0.08134431 -0.0047061886 0.033162322
0002d0 cf 7c ae 3d 48 22 07 3e a8 91 30 3e 9a 68 2d 3e
       0.08519899 0.13196671 0.17243063 0.16934434
0002e0 5a f6 47 3e e9 2f 38 3e 92 4e 4e 3d 9b 69 0a 3e
       0.1952757 0.17987026 0.0503679 0.13516848
0002f0 21 6a 44 3e 5c 4f 0d be a9 98 08 be da 6a d1 3b
       0.1918111 -0.13799804 -0.13339485 0.0063909115
000300 2a fb d6 bb ce bf 0e be 9c 70 04 be 64 56 fa bc
       -0.006560703 -0.13940355 -0.12933582 -0.030558772
000310 9d e8 a7 bd 14 7b 83 bd d5 7e 04 bd aa e3 0e be
       -0.08198664 -0.0641996 -0.03234752 -0.13954034
000320 3c cb 1d bd ec fc 0e be c0 49 c6 bd 33 07 d0 bd
       -0.038523898 -0.1396367 -0.096820354 -0.10157623
000330 19 6b a1 bd f3 b0 53 bc 10 b7 97 bc 5c 19 21 be
       -0.078817554 -0.012920606 -0.018519908 -0.1573233
000340 8a f4 42 bd 31 55 29 be 6b 90 88 bd d2 8f 29 be
       -0.047596492 -0.16536404 -0.066681705 -0.1655877
000350 98 c0 04 be 9b 26 93 bd e5 5f 69 bd a6 8a a9 bd
       -0.12964094 -0.07185098 -0.056976218 -0.08278398
000360 9e 17 3a bd 8f c6 cd bd 88 82 20 bd 27 9b 1f be
       -0.04543268 -0.10047638 -0.039186984 -0.1558653
000370 90 8a c3 bd 9e 2a c8 bd bf da 8a bd 56 b5 0a be
       -0.09547913 -0.097737536 -0.06780004 -0.13545737
000380 9f 2a 1b be 3b dd dc bd de e3 c9 bd 7f c6 4e be
       -0.15152977 -0.10784384 -0.09857915 -0.20192908
000390 e6 28 5b be ef 10 10 be 78 20 f8 bd fa 6e 81 be
       -0.2140232 -0.1406896 -0.12115568 -0.2527998
0003a0 74 4c 00 be 60 e8 03 be b1 01 88 3d b7 91 67 bc
       -0.12529165 -0.12881613 0.066409476 -0.014133862
0003b0 dd 02 c5 ba 23 36 09 3e e3 47 0f 3e 74 ee c0 3d
       -0.001503076 0.13399558 0.13992266 0.09420481
0003c0 de ab 43 3b 6a c7 3e bb 33 16 28 3d df 3b 67 be
       0.002985708 -0.002911056 0.041036796 -0.22581433
0003d0 10 9c 46 be 2c 4c c5 bd a8 1a e3 bd f2 f0 5b be
       -0.1939547 -0.09633669 -0.11089069 -0.21478632
0003e0 ab 91 7a be 62 bf 65 be 54 cb e7 bd 08 bb 45 be
       -0.2446963 -0.22436288 -0.11318079 -0.19309628
0003f0 85 73 c3 3d 9e bc 0e 3d 87 15 ad bc e5 ca 43 bd
       0.09543518 0.034847848 -0.02112843 -0.047800917

conv_a_1.bias f4 [16]
000000 66 1e 2f bd e2 38 fd 3d 65 60 92 3d 74 f5 8c bd
       -0.0427536 0.12364365 0.07147292 -0.06882754
000010 9f 35 cf 3d cd 69 18 3e 8a 8a a0 3d 8f 4b 3c bd
       0.10117649 0.1488411 0.07838924 -0.045970496
000020 57 d8 af 3d f3 ac 2c 3d 24 53 95 bd ec 92 f0 3c
       0.085861854 0.042157125 -0.072912484 0.029366933
000030 df 34 84 bd dc ef 9b bd 83 ac b8 3d ab c5 98 3d
       -0.06455397 -0.07614109 0.09017279 0.07459577

linear_a_0.weight f4 [16, 144]
000000 26 a0 95 3d 8b 8c 34 bd 9c 2a 0e bd 42 95 ba 3d
       0.073059365 -0.044079345 -0.034708604 0.091105
000010 4c 12 69 3d 8b 76 46 3d 89 8e 47 3c 89 59 57 bd
       0.056902215 0.048452895 0.012179979 -0.05257562
000020 66 60 61 3d 41 17 42 3e b9 f6 36 3e e4 12 8b 3e
       0.055023573 0.18954183 0.17867555 0.2716285
000030 51 31 47 3e 83 f5 81 3e 5d 0e a0 3e c2 68 56 3e
       0.19452406 0.25382623 0.31260958 0.209384
000040 53 62 53 3e c8 e8 75 3e d1 5a a9 3d 05 12 87 3d
       0.20642976 0.2401458 0.08269275 0.06595234
000050 fe 71 d5 bc 25 b0 cd 3c 56 5f e9 3d 7f a9 aa 3d
       -0.026055332 0.025108406 0.11395137 0.0833311
000060 fb 88 96 3d 9a 10 8e bc 78 87 d0 bc 32 18 d1 bd
       0.07350346 -0.0173419 -0.025455222 -0.10209693
000070 06 b3 0a be e4 47 11 be ba ae d2 bd 7e 09 d0 bd
       -0.13544855 -0.1418758 -0.10287233 -0.101580605
000080 ad d0 63 be 20 fe 9c bd 30 b5 1b be ba a7 59 be
       -0.22247572 -0.07665658 -0.15205836 -0.21255389
000090 98 23 67 3d 4f ce 11 3d a5 45 0a 3d 2e 63 9b 39
       0.05643043 0.03559714 0.033757824 0.00029637798
0000a0 52 9b 57 bc 30 ae 83 3d ec dc 1c bc 03 9b 82 3d
       -0.01315959 0.06429708 -0.009574156 0.063772224
0000b0 03 6b 94 bb 88 ec 24 3e 30 38 6a 3e 4b 6d 81 3e
       -0.0045293584 0.16105855 0.22872996 0.25278696
0000c0 f2 67 5a 3e b0 43 f3 3d 53 da 5d 3e 2b 50 83 3e
       0.21328714 0.11878145 0.21665315 0.256471
0000d0 9d 1d 20 3e 19 06 82 3e 94 0f 96 bd 9c 97 1e 3d
       0.15636297 0.25395277 -0.0732719 0.038718805
0000e0 ff 31 a2 3c 0b 89 86 bd f8 ae 56 3b 80 22 96 bd
       0.01979923 -0.065691076 0.0032758098 -0.07330799
0000f0 46 73 e2 3d c6 eb a3 3d de c5 71 bd b3 a1 b8 bc
       0.11057143 0.080039546 -0.05902659 -0.022538042
000100 e0 aa b2 bd 14 ed 93 bd b3 9a 6d 3d fa 5a 19 bd
       -0.08723998 -0.072229534 0.05800886 -0.037440278
000110 96 d0 da bd 36 bd 20 3d b0 56 8c bd cc e8 f8 3c
       -0.10684316 0.039242946 -0.06852472 0.030384444
000120 18 ce 85 3e 69 c0 aa 3e 63 e4 61 3e ef 54 82 3e
       0.261338 0.33349922 0.22059779 0.25455424
000130 18 56 58 3e a0 5f 5e 3e a9 9b 9b 3e cd 91 5c 3e
       0.21126592 0.21716166 0.30392197 0.21539994
000140 07 37 66 3e e5 0b 26 3d 76 18 0c bd 60 f9 da bc
       0.22481929 0.040538687 -0.034203015 -0.02673024
000150 4f 1c c6 3d 13 55 bd 3d 96 0c c7 3d a6 b0 0c bd
       0.09673368 0.09244742 0.097191975 -0.034348153
000160 fc 6a 6b 3d b1 0f ca bc 31 f4 c8 bd a2 e6 58 bc
       0.057475075 -0.024665685 -0.09812201 -0.013238581
000170 9e 3c a1 bd 21 67 80 3a 97 33 11 bd 10 b1 05 be
       -0.0787289 0.000979636 -0.03544959 -0.13055825
000180 87 56 cd 3c a6 a9 13 be 3c df 43 3d a7 55 96 3d
       0.025065674 -0.14420184 0.047820315 0.07340556
000190 e8 d3 07 3e dc 8a 39 3e 1b 70 99 3d 59 a9 18 3e
       0.1326443 0.18119377 0.074920855 0.14908351
0001a0 41 be 3f 3e d5 93 37 3e 89 7b 33 3e 96 81 ee 3d
       0.1872492 0.17927487 0.17527594 0.1164581
0001b0 b4 12 1c be 5f c4 33 be 63 b5 5e be 27 53 d9 bd
       -0.1524151 -0.17555378 -0.21748881 -0.10611563
0001c0 ee 47 84 bd 1c 08 85 bd 99 bb 1f be a4 b3 4a be
       -0.06459032 -0.06495687 -0.15598907 -0.1979509
0001d0 32 34 b7 bd 1b 53 b2 bd 7e 91 dd 3d 00 4e 98 3d
       -0.08945502 -0.08707257 0.10818766 0.07436752
0001e0 52 52 89 3d 19 05 6f bd 5e 34 c2 bc 8c 7d 2b bd
       0.067051545 -0.05835447 -0.023706611 -0.041867778
0001f0 24 7e 1b 3d 12 58 1d bd c5 ac 87 bd ba 87 3d bd
       0.037962094 -0.03841407 -0.0662475 -0.046272017
000200 d5 bb 0a 3c e4 0c 69 bd 75 35 3f bd eb 92 f6 3b
       0.008467634 -0.05689706 -0.04668184 0.007524838
000210 4b 9a 51 3d b2 74 61 3d 9c 04 06 3d de 6e 5e 3d
       0.051172536 0.05504293 0.03271924 0.05430495
000220 fb 24 ef 3c e9 90 25 3d db 05 b3 3d 04 a0 b5 3d
       0.029192438 0.0404214 0.08741351 0.08868411
000230 33 09 dc 3c 34 e9 9b 3d 02 88 3b 3b 56 64 97 3d
       0.026859855 0.07612839 0.0028615003 0.073921844
000240 d0 c5 07 3d 0b 5f 2f 3d 3a 0b 1d 3d 5d eb 95 bd
       0.033147633 0.04281525 0.038340785 -0.073202826
000250 c2 78 ae bd 60 ba 20 bc cd 2d ff 3c fe 2e 93 3d
       -0.085191265 -0.00981006 0.03114977 0.071866974
000260 af 72 39 3c 21 be 71 3d e3 3d 29 bd fe fd fb 3c
       0.011318847 0.05901921 -0.041318785 0.030760761
000270 d4 84 0c 39 bb 54 8b bd 48 d5 9e 3c 95 47 1b bd
       0.00013400923 -0.068032704 0.01938881 -0.037910063
000280 20 8e 3e bc 52 e4 63 bc 78 03 9d bb ac 5f 7e bc
       -0.011630565 -0.013909416 -0.0047916733 -0.01552574
000290 a8 e0 2e bd 49 c4 16 3d 3e 72 00 3c 04 48 a9 3c
       -0.042694718 0.036808286 0.007839737 0.020664223
0002a0 26 30 11 bd a5 38 af bd c4 bb b2 3c 3f 54 b6 bc
       -0.03544631 -0.08555726 0.02181805 -0.022256969
0002b0 d6 30 a6 3d 23 31 c5 3c 78 8b 37 bb 9b 8c 71 3d
       0.081147835 0.024071282 -0.0028006714 0.058971982
0002c0 a3 10 74 bd 0d 33 2d bd 99 78 7f 3d 91 2a 5e bd
       -0.05958618 -0.042285014 0.06237087 -0.054239813
0002d0 9e 24 91 bd 85 45 85 bd 27 65 b9 3c ec dd 28 bc
       -0.07087062 -0.065074004 0.022631241 -0.010306817
0002e0 74 0d ff bc 55 33 45 bd 3a f3 99 bd 38 e1 80 3d
       -0.031134345 -0.048144657 -0.07517095 0.06292957
0002f0 a0 f5 47 bd 7d a6 6e 3d 7e 14 a4 bd 3e 25 65 3d
       -0.04881823 0.058264244 -0.08011721 0.05594372
000300 79 6e 31 3d d9 71 b0 3c 44 8c 8b bd 92 8f 54 bd
       0.043318246 0.021538662 -0.06813863 -0.05189473
000310 21 68 7d bb cd 19 5e bd 6a 1f ad bc 78 6a 7a 3d
       -0.0038666802 -0.054223824 -0.021133143 0.061136693
000320 9a f7 90 3d 35 8b 79 bc 01 26 b6 3c 22 50 18 3d
       0.07078476 -0.015230943 0.022234919 0.037185796
000330 da 22 9a bd ca 6d f8 3c a3 8d 6e 3d 94 19 f9 3c
       -0.07526179 0.030325789 0.058240544 0.030407704
000340 73 75 a0 3d c0 1c 7b bd f3 9c 95 3d 50 67 7c 3d
       0.07834902 -0.061306715 0.07305326 0.061621964
000350 ce 0e db 3c 6a 4b 10 3d c4 88 91 3d 9d ce 5b bd
       0.026740458 0.03522817 0.07106164 -0.05366384
000360 92 63 10 bd 73 41 86 3a 56 9d 6d bd ff 70 22 bd
       -0.035251208 0.0010242894 -0.058011375 -0.039658543
000370 de 9d d9 3c 01 35 41 3d af 99 a9 bd 9d 18 ad bd
       0.026564535 0.04716969 -0.08281266 -0.0845196
000380 6f 10 23 3d 02 42 9b bd 7c de 92 3d 9d 13 64 bd
       0.039810594 -0.07580949 0.07171342 -0.055682767
000390 69 3c c4 3b 18 28 70 bd 76 c1 3d 3d f4 70 97 bd
       0.0059886468 -0.058631986 0.046327077 -0.07394591
0003a0 95 4e 80 3b 2b 5b 90 bd 15 9b 1f bd d4 ed 78 bc
       0.0039156177 -0.07048639 -0.038966257 -0.015193421
0003b0 62 72 48 bc b9 38 b7 3c 40 12 01 bd d5 ad 36 3d
       -0.012234302 0.022365915 -0.031511545 0.044599373
0003c0 52 b1 40 3b 23 a1 0c 3d 1c 58 d7 bc 02 15 c6 bc
       0.0029402566 0.03433336 -0.026287131 -0.02417994
0003d0 09 cb 51 3d 32 09 28 3d 06 3e a2 bd 62 07 4e bd
       0.05121902 0.041024394 -0.07921986 -0.05030001
0003e0 0b 9f 6d bd b3 4a d2 3a 59 d4 cc 3c 6d 83 89 3d
       -0.058013003 0.0016043991 0.025003599 0.067145206
0003f0 9b 7a 04 bd 17 ca cc bc 1a 46 94 3d f8 af aa bd
       -0.03234349 -0.024998708 0.07239933 -0.083343446

linear_a_0.bias f4 [16]
000000 72 c0 de 3d 5b 50 67 bd f1 7b 89 3d d7 a5 d0 3c
       0.1087655 -0.056473117 0.06713093 0.025469704
000010 70 49 a9 bd 16 ad 82 3a 96 ef b1 3d 79 a5 9b 3d
       -0.0826596 0.0009969797 0.086882755 0.07599921
000020 44 53 55 bd 0e 3e 03 3d b8 47 b7 3d e1 03 13 bc
       -0.05208136 0.0320416 0.08949226 -0.008973093
000030 04 47 9a 3d b7 fd 0b 3d 0a 2f 56 3c 01 0c cc bc
       0.075330764 0.03417751 0.013072738 -0.024908068

GRU_a.weight_ih_l0 f4 [48, 16]
000000 d2 91 d4 3d dc 29 83 3d 49 fb cf b9 e9 2c e9 bd
       0.103793755 0.064044684 -0.0003966934 -0.11385519
000010 6f 26 b9 bd ec 82 9d 3d 13 a9 05 be 57 49 90 bb
       -0.09040534 0.07690987 -0.13052778 -0.004403274
000020 63 c8 61 be 54 38 05 3e a7 61 23 3e a7 f7 5b 3e
       -0.22049098 0.13009769 0.1595522 0.2148119
000030 a4 08 ce bd 53 17 f0 3c cf fc 1d 3b 08 8c 5c 3e
       -0.10060242 0.029307997 0.0024106984 0.21537793
000040 8c 20 5a be fb 09 63 be 4a 14 4b 3e 0f 6c 47 3d
       -0.21301478 -0.22171776 0.19831958 0.048687037
000050 93 aa 99 3d 4c a9 45 3b f9 88 1c 3e 88 06 80 be
       0.075032376 0.0030160723 0.15286626 -0.25004983
000060 41 da eb bc dc 28 94 3d af 2f 57 3e 70 19 20 be
       -0.028790595 0.07234356 0.21014284 -0.15634704
000070 b0 10 8d 3c 0e c8 f1 3d e5 2e 0d be 4c 82 a0 bd
       0.017219871 0.118057355 -0.1378742 -0.07837352
000080 7d 73 61 bd 60 7b 20 3e 1f 6a 23 3e f3 f1 b7 bd
       -0.05504178 0.15672064 0.1595845 -0.08981695
000090 85 d2 b6 bd 2f 1f 7c be b4 13 be 3d 4e 94 37 3e
       -0.08926872 -0.2462127 0.09281102 0.17927667
0000a0 67 c2 16 3e 29 19 04 be d3 f3 2b 3e 9a 13 90 3e
       0.14722596 -0.12900223 0.1679223 0.28139955
0000b0 28 5d d1 3d 36 f7 bd 3d 02 93 62 3e bd 0f 47 3d
       0.10222846 0.09275667 0.22126392 0.048598994
0000c0 68 ba 65 3e 57 78 59 3e e1 58 1e 3e 37 3f 9c 3e
       0.2243439 0.21237312 0.15463592 0.3051698
0000d0 74 f2 3a bd 6a 5f 0e 3e 9d b9 d9 bd 0c fa 0e 3c
       -0.045641378 0.13903585 -0.10631106 0.008726608
0000e0 ac 5c c3 3d 47 3b bc bd a4 17 a2 3e a5 a6 0e 3e
       0.0953916 -0.09190994 0.3165866 0.13930757
0000f0 fc 1e b0 3c 47 89 ac bc b1 0e 2b be fe 4b b3 bd
       0.02149915 -0.021061553 -0.16704823 -0.08754729
000100 a0 e3 a3 be 94 9a e4 bd 27 84 04 be 42 6d 09 3e
       -0.32009602 -0.11162296 -0.12941037 0.13420585
000110 94 ce 4e 3d 99 01 8c be 77 4f b1 bd 79 b9 1b 3e
       0.050489977 -0.2734497 -0.08657735 0.15207471
000120 77 67 1d 3e 2f 19 7e be 70 f8 84 bd d9 45 cc 3d
       0.153715 -0.24814294 -0.06492698 0.0997426
000130 36 2d 56 be 97 cf bb 3d f8 d6 41 3d 42 f4 da 3d
       -0.20915684 0.09170454 0.04732415 0.1069112
000140 fd fb 85 3d 33 03 09 3d 10 e3 c9 3d e8 b8 f1 bc
       0.065422036 0.033450317 0.09857762 -0.029507115
000150 16 cd 34 bd e8 13 1a bd 9d 2b 15 be 20 0e aa bd
       -0.044140898 -0.03761664 -0.14567418 -0.083034754
000160 88 91 c0 3d 25 5d b4 bd 1a 1d 08 be ae 6e f7 3d
       0.09402758 -0.088068284 -0.13292351 0.12081657
000170 16 f3 3f be 1a ad 66 be da 85 cf 3d ae f8 35 bc
       -0.18745074 -0.2252697 0.10132952 -0.011106653
000180 8b 51 27 3d b8 cc d2 3d 46 1d 72 be e3 fc be bd
       0.04084925 0.10292953 -0.2364398 -0.09325578
000190 a4 1d 1a be 87 97 c9 bd 3b 2d b1 bd 66 66 da bc
       -0.1505037 -0.09843355 -0.08651205 -0.026660156
0001a0 d8 d1 e6 3d 20 97 a5 bd 8f 78 6a 3e ee 57 3d 3e
       0.11270493 -0.080854654 0.22897552 0.18490574
0001b0 b5 d8 2c 3e 14 45 74 3e d0 3a 65 be c8 ff 98 bd
       0.16879542 0.23854476 -0.22385716 -0.074706614
0001c0 f4 93 21 3e a0 1a 83 bc 5a 71 31 3e 67 f0 04 3e
       0.15779096 -0.016003907 0.17328396 0.12982331
0001d0 66 25 04 be 1d 44 99 3b 98 b4 e6 3d da 18 d4 3d
       -0.12904891 0.004677309 0.11264914 0.103563026
0001e0 14 ab 64 be 82 5f 14 3e fc 51 95 3e 38 3a dd bd
       -0.22330886 0.14489558 0.29164112 -0.1080212
0001f0 c8 08 73 3d 26 1d 0e 3e 11 31 17 bd 92 0b e8 3d
       0.059334546 0.13878307 -0.036912028 0.11330332
000200 f4 59 e8 bd c5 eb 5f be 74 8a 11 3e df bd 1c bd
       -0.11345282 -0.21867283 0.14212972 -0.038267013
000210 a2 a9 d9 bd ab 63 e1 bd d5 9e 60 3e ee c0 b1 3d
       -0.10628058 -0.11005338 0.2193559 0.086793765
000220 5c 41 59 bd cb de 8e be 4b 3c 44 3e 09 38 46 be
       -0.053040847 -0.27904353 0.19163625 -0.19357313
000230 cf 10 03 be 9a ad 9f bd a9 cb 48 3e bc b5 79 3e
       -0.1279938 -0.07796784 0.1960894 0.24385732
000240 3e be a6 bd f0 e9 5b 3e 75 af 1e be cd f0 5c 3e
       -0.081417546 0.21475959 -0.15496619 0.21576233
000250 23 99 14 3e f8 32 33 3c 43 68 51 bd d6 71 55 3d
       0.14511542 0.010937445 -0.051124822 0.052110516
000260 bb 11 88 bb 72 1c 03 be b5 00 6e 3e ca 09 53 3e
       -0.0041525043 -0.1280382 0.23242457 0.20609203
000270 97 cc 95 3a df 6b 11 be 4a 47 8a bc 50 08 8a bc
       0.001142877 -0.14201306 -0.016879696 -0.016849667
000280 e1 29 4f 3e 4f 57 7c be cc 10 58 3e bd a6 da 3d
       0.2023082 -0.2464268 0.21100157 0.10676334
000290 c8 ff 15 be 74 c3 cb 3b dd ea 3b be 49 5c 8f bd
       -0.14648354 0.006218368 -0.18351312 -0.07000024
0002a0 db c8 09 3e 55 c4 08 be 17 37 ae bd 3a 0e 36 3e
       0.13455527 -0.13356145 -0.08506601 0.17778865
0002b0 c4 b1 5b 3e 10 b7 26 be 0f e6 a9 3d 3e 7c e1 3b
       0.21454531 -0.1628077 0.08295833 0.006881266
0002c0 18 b0 79 3e a8 c3 73 be ca bd 7e bd 6f 93 a9 3d
       0.2438358 -0.23805106 -0.062192716 0.08280074
0002d0 b7 ca 88 bd 73 9c 32 3e f8 26 92 bd 70 5f 5c be
       -0.0667929 0.17442493 -0.07136339 -0.21520782
0002e0 71 42 ae bd 96 7e 8d 3d 2f f3 e1 3d bd 2d 9d 3d
       -0.085087664 0.0690891 0.11032712 0.076747395
0002f0 ad 52 5d 3e 16 e6 80 3e ee d0 0b be c2 91 2f be
       0.2161357 0.25175542 -0.13653919 -0.17145446
000300 d3 34 f9 bd cd ee 60 3d 95 3b 10 3e 1c 6b 24 be
       -0.121682785 0.05491524 0.14085229 -0.16056484
000310 e2 e4 34 3e 16 f3 81 3e c3 77 23 3e 30 de 81 3e
       0.17665437 0.25380772 0.15963654 0.25364828
000320 8b b5 cd 3d 95 67 e4 bd 19 18 88 3e a2 ba 14 3e
       0.10044392 -0.11152569 0.26580885 0.1452432
000330 c0 31 46 3e c9 78 30 3e 01 f8 6c be 38 7b dd 3d
       0.19354916 0.17233576 -0.23141481 0.10814518
000340 53 1c b3 3d c9 84 22 bd 4e eb e0 bd 52 a3 61 be
       0.08745637 -0.039677415 -0.10982381 -0.22034958
000350 a5 f8 ec bd 31 9d 82 be 01 fb 1b 3e 52 2f c6 bd
       -0.11570863 -0.25510553 0.15232469 -0.096769944
000360 b7 fb f9 bc 04 d5 22 3d 86 d0 8f bc 8a a2 13 3d
       -0.030515535 0.03975393 -0.017555486 0.03604368
000370 67 4b 65 3d f5 1c 3a bd e6 d5 96 bd 95 2d e1 3c
       0.055980112 -0.04543777 -0.07365017 0.027487556
000380 6f c7 01 3d 5d 74 56 3d ab 65 cb bd 68 98 40 3e
       0.031684335 0.052357066 -0.09931501 0.18808138
000390 b6 68 83 bc 4e 17 2b 3e 56 58 d9 bb 4d 19 22 be
       -0.016041141 0.16708109 -0.006632845 -0.15829964
0003a0 25 bd 49 3e 8b 9c e4 3d e2 c9 6e be 29 a7 5e bd
       0.19701059 0.11162671 -0.233192 -0.054358635
0003b0 69 49 6f be 76 6f 53 be 76 c7 95 bd 48 c8 d0 bd
       -0.23367848 -0.20647988 -0.07313435 -0.101944506
0003c0 75 f0 34 be 19 b2 f6 3c b0 e5 38 3d 25 45 cf 3d
       -0.17669852 0.03011422 0.045140922 0.1012061
0003d0 6c c1 5d 3b 7f a6 d5 bd a6 ff 59 3e 34 97 8d bd
       0.0033837212 -0.10432147 0.21288928 -0.06913605
0003e0 dc 08 1b 3e 86 e0 5d be b3 53 1f 3e f5 be 5b 3e
       0.15140098 -0.2166768 0.15559272 0.21459563
0003f0 93 60 11 bd 91 21 5a 3e 91 39 0f be 3b 74 59 3e
       -0.03549249 0.21301867 -0.13986804 0.21235745

GRU_a.weight_hh_l0 f4 [48, 16]
000000 a0 13 06 bd 89 0c 65 be 32 97 19 3e b0 c3 8f 3d
       -0.03273356 -0.22368063 0.14999083 0.07019746
000010 ac 21 ee 3c a6 0d 39 be 0d b9 99 bd 10 05 9a 3d
       0.02906879 -0.18071613 -0.07505999 0.07520497
000020 5d bd 82 3e 9a da 77 be 5b a4 9a bd 3d c7 cd 3d
       0.25535098 -0.24204484 -0.075508796 0.10047767
000030 71 d2 18 be 98 ac 25 3e fa 16 87 be 31 e0 04 be
       -0.14924027 0.1617912 -0.26384717 -0.12976147
000040 ce 79 09 be 63 9b 0a be 0a 5f ab bd c1 47 21 be
       -0.13425371 -0.13535838 -0.08367737 -0.15750028
000050 9e ba 88 bd eb bb f8 bd 65 89 12 be 17 48 a1 3c
       -0.066762194 -0.121452175 -0.14310224 0.019687695
000060 b5 81 1c be ac 85 f8 3c 10 36 66 3e b9 63 79 3d
       -0.15283854 0.030337177 0.2248156 0.06088612
000070 41 7c 2d ba c9 d6 8c 3e d8 74 15 3d e1 1d 4d be
       -0.00066179415 0.27507618 0.036488384 -0.20030929
000080 03 b7 5f be 72 d7 2e 3e 24 9a 0a be 43 12 19 be
       -0.21847157 0.17074373 -0.13535362 -0.14948373
000090 b6 69 1a 3e ef da 8f 3d ba 5c 31 3d b3 e5 8f bd
       0.15079388 0.0702418 0.04330132 -0.070262335
0000a0 5f f1 74 3e 18 69 e9 bd b5 f5 2e be 51 ee 1c 3e
       0.23920201 -0.11396998 -0.17085917 0.15325285
0000b0 f3 53 85 bc 74 20 53 be 73 2b 65 bc 6e 12 79 bd
       -0.016275382 -0.20617849 -0.01398741 -0.06080859
0000c0 76 b5 1c 3d 48 60 c4 3d 95 53 5b 3e c3 4c fa bd
       0.038258992 0.09588677 0.21418603 -0.122216724
0000d0 bc 30 de bd a2 dc 3c 3e bc fd 94 bd ab 90 d4 bd
       -0.10849139 0.1844354 -0.072749585 -0.10379156
0000e0 52 9e 3d 3e ea 26 9b 3b 22 db f0 3d 62 61 9d bd
       0.18517426 0.0047348635 0.11760546 -0.0768459
0000f0 d4 0d 62 3e 21 c2 94 3d 45 a0 e5 bd 2e 3c 44 bb
       0.22075588 0.0726359 -0.112122096 -0.0029943096
000100 4d d2 56 be 6e 32 b2 bd e8 74 37 be 3e 06 6b 3d
       -0.20978661 -0.08701025 -0.1791569 0.057379
000110 f0 76 41 bd 03 95 b1 bd 27 89 dc bd f6 78 79 be
       -0.04723257 -0.08671 -0.10768347 -0.24362549
000120 07 9d 4d be 06 99 06 3e 70 db 88 bd be f3 3c 3e
       -0.20079432 0.13144311 -0.066824794 0.18452355
000130 19 9b 04 3e 0b 3d 97 bc 8a 66 42 bd 71 e7 f7 bc
       0.1294979 -0.018461725 -0.04746107 -0.030261727
000140 18 f1 48 39 58 b0 98 be 7a 3a 92 bc 60 85 17 be
       0.00019163301 -0.2982204 -0.01785015 -0.14796972
000150 62 78 fa 3d 64 3e f5 3a e2 f4 2f bd eb a5 51 3e
       0.122299924 0.001871061 -0.042958148 0.20473449
000160 5e 0b 2d 3e 8a 03 8b 3d 83 1a 14 be 4f cd 33 be
       0.16898867 0.067877844 -0.14463238 -0.17558788
000170 2e d6 d7 3d 5b 37 4c 3e 87 db 1b 3e 8a 5e 96 3e
       0.105388984 0.19942991 0.15220462 0.29369003
000180 4b 41 97 3c d8 62 79 bd 7a da 84 3d 9c 02 ac 3d
       0.018463751 -0.06088528 0.064869836 0.08398935
000190 bb c5 2b be 2f 35 1c 3e b8 fa f5 bd e5 c3 d6 bd
       -0.16774647 0.15254663 -0.120107114 -0.10486583
0001a0 b8 ad ef bd a1 02 28 bc 68 f9 b2 3d 4b a8 4e 3e
       -0.11703056 -0.010254533 0.08738977 0.20181386
0001b0 f1 90 30 bd 4c 5b 53 be 3d ec 21 bd 52 5d 3d be
       -0.043106977 -0.20640296 -0.039531935 -0.1849263
0001c0 d8 3a 85 bc 14 03 41 be b7 74 1a 3e da 82 47 3e
       -0.01626341 -0.1884883 0.15083586 0.1948351
0001d0 0f 5d 0a 3e 97 b0 12 bd db a2 c6 bd e2 c7 8c 3e
       0.13512062 -0.03581294 -0.09699031 0.27496248
0001e0 b6 97 24 be 92 10 0f be 71 da 41 be eb c8 91 be
       -0.16073498 -0.13971165 -0.18930985 -0.284736
0001f0 8e 02 41 3e ac a9 58 3d cd a8 20 3e cc 00 d6 3d
       0.18848631 0.052896187 0.15689392 0.10449371
000200 6d 7c 85 be e0 c8 11 3d 0c 99 8f 3e 26 82 08 3e
       -0.26071492 0.03559196 0.28046453 0.13330898
000210 02 f4 df bd 3a 53 8e 3d e5 35 e8 bd 6c 8a 1e be
       -0.10935213 0.06949468 -0.113384046 -0.15482491
000220 fd d1 73 3e d2 ad 87 be d7 e3 17 3e 4f 83 11 bd
       0.23810573 -0.26499802 0.14833008 -0.035525616
000230 a8 5b 13 3e 7e 6b 26 3d 8f 72 fd 3d 1d 53 99 3e
       0.14390433 0.040629856 0.12375366 0.29946223
000240 f5 6e 05 3e 75 e7 d2 bd 0f c6 83 3e 1e 75 85 3d
       0.13030608 -0.10298053 0.25737044 0.06516479
000250 f1 5b b4 bd 7b 93 76 3b 7b 82 74 3b 53 0b 25 3e
       -0.08806599 0.0037624526 0.0037309218 0.16117601
000260 6e 54 0c 3d a0 e8 ef 3d f6 4a 0e bd e9 1e 09 bb
       0.034260206 0.117142916 -0.034739457 -0.0020922965
000270 a2 8e af be 33 16 3a 3e f7 f5 68 be 13 e1 1b 3e
       -0.34288508 0.18172531 -0.22750078 0.15222578
000280 0e 5f bf bc 63 ec 6c 3e 85 4f 9d ba a8 18 09 be
       -0.023360755 0.2313705 -0.0012001848 -0.13388312
000290 4d 09 23 be 3b e2 1b 3e 0f 6e da 3c 2a a1 8c 3e
       -0.15921517 0.15223019 0.026663808 0.27466708
0002a0 8e f8 45 be ee 0d 2c be 1d d3 a2 3c c4 b5 67 3d
       -0.19333097 -0.16802189 0.019876057 0.05656983
0002b0 a3 e3 a4 bd 68 6f 1d 3e 95 be 86 3c 89 a2 c1 3d
       -0.08051231 0.1537453 0.016448298 0.09454829
0002c0 d9 c4 e5 3d cd 35 e6 3d 43 ea 05 3e a2 67 ef 3d
       0.11219186 0.112407304 0.13077645 0.11689688
0002d0 b0 69 37 be 56 4c 34 3e 1e b3 e9 3d 12 2a e7 bc
       -0.1791141 0.17607245 0.11411117 -0.028218303
0002e0 39 38 4d be 95 41 9e 3d 47 14 52 bd d5 5e 20 be
       -0.20040978 0.077273525 -0.05128887 -0.15661176
0002f0 cf 83 fb bd 82 b1 8f bc df 42 33 be f8 84 f0 bd
       -0.12281 -0.017540697 -0.17505978 -0.11744112
000300 e8 b5 35 3e b4 77 1c bb ed f3 fc 3d d1 8e 27 be
       0.17745173 -0.002387506 0.12351213 -0.16363074
000310 a6 03 29 be 92 3e 6d 3c ce f8 a8 3d 95 ff 57 bd
       -0.16505298 0.01448025 0.08250581 -0.052733976
000320 e7 7a 1b be 1a 5c 0a be bd 87 3c 3e 44 c7 6e 3e
       -0.15183602 -0.13511696 0.18411155 0.23318201
000330 3d 14 73 be bf ac 7f 3d 57 f6 e7 bd a2 2f 74 3e
       -0.23738189 0.062420603 -0.113262825 0.23846295
000340 da 00 96 bd 80 c1 65 3e b4 87 f0 bc 3c c3 38 3e
       -0.07324381 0.22437096 -0.029361583 0.18043226
000350 7d 4e 03 be 96 14 cd bd 93 25 00 3e 58 85 22 3e
       -0.1282291 -0.10013692 0.12514333 0.15871179
000360 0b b8 53 3d c7 51 a8 3d 7c af a1 3d d0 78 58 bd
       0.05168919 0.08218723 0.07894799 -0.05284959
000370 8b e6 bd bd 46 5e 6a bd 44 41 88 3c 48 8c 27 be
       -0.09272488 -0.057218812 0.016632684 -0.16362107
000380 aa 9c 3c 3e c0 51 2d be 1d 97 86 3d bf f9 53 3e
       0.18419138 -0.16925716 0.06571791 0.2070074
000390 38 03 7c 3d 7c af 10 be 75 8a 4c be c4 90 35 3d
       0.061526507 -0.14129442 -0.19974692 0.044327512
0003a0 06 76 69 3e da 7d 5d be 30 fd d4 bd a2 3f 8f be
       0.22798929 -0.2163004 -0.10399854 -0.27978235
0003b0 08 58 aa 3d c6 7f fa bd 6e 39 0d 3d c8 fd ac 3c
       0.08317572 -0.12231402 0.034478597 0.021117106
0003c0 f1 df 3f 3e eb 47 84 be eb 6e 66 3e a2 14 6f bd
       0.1873777 -0.2583612 0.2250325 -0.058369286
0003d0 8f ab 8e bd e6 41 44 be ba 8c 31 3e a3 30 18 3c
       -0.06966316 -0.19165763 0.17338839 0.00928894
0003e0 46 8f dd bd be 86 d7 bd 1d 1d 84 be 24 ef ca bc
       -0.10818343 -0.10523747 -0.25803462 -0.024772234
0003f0 ef e0 e1 3d 3f a2 e8 3d 4d 6b 5b be ae cd 97 bd
       0.11029231 0.11359071 -0.21427651 -0.07412277

GRU_a.bias_ih_l0 f4 [48]
000000 bd 96 e8 bd 34 71 17 be 73 33 5d bd 5a 21 2a 3c
       -0.11356876 -0.14789277 -0.054004144 0.010383928
000010 5e 71 21 3e 37 ce 4a 3e dc 9a 1c 3d 50 0b f1 3c
       0.15765902 0.19805227 0.038233623 0.02942434
000020 a7 23 bc 3c 42 33 51 3e c3 f9 9e 3d 20 bf 2c be
       0.02296622 0.2042971 0.07762482 -0.16869783
000030 32 f1 6d 3e 2f 92 60 be 54 4f f5 3d 65 dc 82 3d
       0.2323654 -0.21930765 0.11978021 0.06389693
000040 26 d2 3f 3e ab 79 06 3d 29 bc 11 bb 0d 91 00 3e
       0.18732509 0.032830875 -0.0022237396 0.12555332
000050 da 07 a7 3d 93 d7 08 be e4 52 31 be 35 43 4c 3e
       0.081557944 -0.13363485 -0.17316777 0.19947512
000060 81 a5 f5 bd 83 15 76 3e d7 17 a6 bd b6 51 62 be
       -0.11994458 0.24031644 -0.08110016 -0.22101483
000070 f7 7a 6c 3d a2 9d 6b be 92 79 24 3e 7c 0f 8f be
       0.057734456 -0.23009351 0.16062 -0.279415
000080 f6 10 23 be b4 2e 2e 3e d4 a0 6d be 84 b7 78 3c
       -0.15924439 0.17010003 -0.23205882 0.015180472
000090 03 db 04 3e 0a 4e 22 be a1 70 38 3e 28 79 d1 bd
       0.12974171 -0.15850082 0.18011715 -0.10228187
0000a0 54 03 92 3d 8d fe cd bc 45 41 6b bd c0 41 0a 3d
       0.07129541 -0.025145793 -0.057435293 0.03375411
0000b0 12 84 d8 bd 24 e5 c1 3d 87 c6 8b 3d 9f 26 36 3e
       -0.105720654 0.09467533 0.068249755 0.1778817

GRU_a.bias_hh_l0 f4 [48]
000000 99 13 40 3e 1c 90 81 3e bb 85 3d 3e 76 5c 49 3c
       0.18757476 0.2530526 0.18508045 0.012290111
000010 5a 02 3e be 1d b6 d5 3d 1b 3a d9 bd 69 3e c4 3d
       -0.18555585 0.10435126 -0.10606786 0.09582216
000020 b8 57 e6 3d 6f fb b6 3d 69 81 cd bd 82 cd 1a be
       0.112472 0.08934676 -0.10034449 -0.15117458
000030 38 5c 58 3e f6 a7 09 bd 27 b1 53 be c2 58 24 bc
       0.21128929 -0.033607446 -0.20673047 -0.010030927
000040 3f 56 24 3d 15 ac 8e be 3f c7 fc bd 7a 4b 86 be
       0.040121313 -0.27865663 -0.12342691 -0.2622946
000050 ff 16 77 be ee d1 0c bd 1e 99 28 be ff de 74 be
       -0.24129866 -0.034379892 -0.1646466 -0.23913191
000060 6a b6 f7 3d 1a 0d 1f be cb 70 28 3e ba b8 3f 3e
       0.120953396 -0.15532342 0.16449277 0.18722811
000070 e8 f4 c5 bd 05 d4 59 be 01 24 43 bd 01 d5 86 bb
       -0.09665853 -0.21272285 -0.047641758 -0.0041147475
000080 7f 14 de 3d c7 59 a6 bb 45 23 1d 3e 2a a1 1d bc
       0.10843753 -0.0050766203 0.15345486 -0.009620944
000090 53 70 f9 3d e6 de 54 be 06 f8 cb bd 73 86 98 3e
       0.12179627 -0.20788154 -0.09959416 0.29790077
0000a0 10 ea fb 3b 66 b0 f2 bd 65 ed 62 3e 69 54 9e bd
       0.0076878145 -0.118500516 0.22160871 -0.07730944
0000b0 19 cb e9 bd 55 27 14 bc 47 03 5f 3d 99 ef 30 be
       -0.11415691 -0.009042581 0.054446485 -0.17278899

linear_a.weight f4 [4, 16]
000000 38 db 71 be 61 b9 07 3e 98 bd b4 be 67 f7 cf be
       -0.23618782 0.1325431 -0.353009 -0.4061844
000010 e9 9d ea 3c b4 23 80 be d3 e2 ad bc df ce 0b bf
       0.02863975 -0.2502724 -0.021226322 -0.54612535
000020 37 e7 7e be 86 55 1d 3d 6b 87 be be 67 51 b2 bc
       -0.24892889 0.03841164 -0.3721269 -0.021767331
000030 4c be c1 3d 66 4a 10 be 81 9b a9 bd 93 4b 0f bf
       0.094601244 -0.14090881 -0.08281613 -0.5597469
000040 11 25 c9 3d b0 d2 65 3d f4 53 0d 3f db c3 7b be
       0.09821523 0.05610913 0.5520623 -0.24586432
000050 75 7d ed bd cf a9 48 3f 95 aa 41 3e ba 65 7d ba
       -0.11596195 0.7838411 0.18912728 -0.00096663425
000060 7c 0b 3f 3f 24 c1 42 bd ed 16 33 be 99 ab 2f 3e
       0.746269 -0.047547475 -0.17489214 0.17155303
000070 d2 32 52 be cc a8 19 3f 3e e6 f7 bd c0 55 b6 3d
       -0.20527199 0.6002319 -0.12104462 0.08903074
000080 53 36 01 3e d6 9d 44 3e f3 c1 f5 be 8a 63 ab be
       0.1261838 0.19200835 -0.47999534 -0.3347438
000090 94 68 66 3e c3 ca e8 be 07 7d c8 3d 4e b9 e7 be
       0.22500831 -0.45467195 0.09789472 -0.45258564
0000a0 c7 f2 7e bd 28 3b 4a 3d 40 f7 fe be 11 c2 bd bd
       -0.06224325 0.049372822 -0.49798012 -0.09265531
0000b0 00 da 27 be e4 06 df bd d1 35 1d 3d b2 fc 09 bf
       -0.16391754 -0.10889986 0.0383814 -0.5390121
0000c0 44 3a 4b 3e c3 7b db 3d 0d f1 4a be c2 ec 26 3f
       0.19846445 0.10716965 -0.19818516 0.65205014
0000d0 d2 a8 1c be d7 89 27 bf 95 67 a6 3d 48 73 92 3e
       -0.15298775 -0.654447 0.081252255 0.28603578
0000e0 80 c8 94 be 48 43 75 bc 16 f3 f7 3e 17 89 ee 3d
       -0.2905922 -0.014969654 0.48427647 0.116472416
0000f0 92 bd 1c 3e ba 02 1b bf a5 b9 19 be cf bc 08 3f
       0.1530669 -0.60551035 -0.15012224 0.534131

linear_a.bias f4 [4]
000000 4b 03 9e be 80 d1 18 bc 4d ae ea be 31 7e c6 3e
       -0.30861887 -0.009327292 -0.45836106 0.3876815

conv_v_0.weight f4 [16, 7, 3, 3]
000000 8b cb 86 3e 5c 2f 43 3e c6 c1 4d 3d 74 10 32 bd
       0.26327166 0.19061035 0.050233625 -0.043472722
000010 3a 4c 1c 3c e0 b4 a5 3c 97 7f 19 be 66 ba fa 3d
       0.009539658 0.02022785 -0.14990078 0.12242584
000020 e1 31 52 bd c4 10 9c bd 69 14 a2 3d 47 bd ca 3d
       -0.0513171 -0.07620385 0.07914049 0.09899383
000030 bf 32 fb 3b 4c 2e 59 3d 58 1b 72 3d 4e 72 8e 3d
       0.0076659615 0.053022668 0.05910811 0.06955396
000040 73 19 85 be b4 49 0e be 55 8e 1b 3e 42 b9 32 be
       -0.2599598 -0.13895303 0.15191014 -0.17453483
000050 96 58 1e be 9b 21 66 3e 85 41 e4 3d 68 c0 80 3e
       -0.1546348 0.22473757 0.11145309 0.25146794
000060 c7 36 b4 be 49 9f 0a 3e 47 db 9a 3d 41 5a 65 be
       -0.35198042 0.13537325 0.07561355 -0.2239771
000070 47 88 ae bd dc a2 21 be 8e 99 0b be 3d 6c 47 be
       -0.085220866 -0.15784782 -0.13632795 -0.19474883
000080 a8 a0 db 3b a1 38 1e be ce 03 1d be 21 ef da 3d
       0.0067025013 -0.1545129 -0.15333483 0.106901415
000090 75 23 e1 3d 5e 3e 8f 3c 46 59 cf 3c 71 d5 b2 3d
       0.10993091 0.017485794 0.025311124 0.08732117
0000a0 eb e1 02 3e 9e b4 df bc 28 d7 4c 3a 67 12 87 bd
       0.12781493 -0.027307805 0.0007814043 -0.06595307
0000b0 71 6e e0 bd 83 2e d3 3d d9 d3 62 3d 4b 45 c2 bc
       -0.10958565 0.10311606 0.055377815 -0.023714682
0000c0 4c 39 3c 3d b4 f7 a9 bd 4f 0b c3 bd a7 6e fa 3b
       0.04595308 -0.08299199 -0.09523641 0.0076425853
0000d0 87 10 81 bd 3e bb cc 3d f5 70 18 be ea 18 36 be
       -0.063019805 0.09996651 -0.1488684 -0.17782941
0000e0 a8 c4 1c bd 21 11 ac bd 03 cf 70 bd 48 07 89 3d
       -0.038273484 -0.084017046 -0.05879117 0.06690842
0000f0 6f a8 65 3c 36 58 98 3c 8c f9 58 3d d7 50 a4 bd
       0.0140172085 0.01859675 0.05297236 -0.080232315
000100 fe ca 17 3e a1 e7 08 3e 30 4a cd 3d 79 99 f4 3d
       0.14823529 0.1336961 0.10023916 0.11943335
000110 b2 25 db 3d ef 01 33 3d c5 3f 82 bd d8 6c 01 3e
       0.10700549 0.043703016 -0.06359819 0.12639177
000120 f1 92 78 bd 80 b1 3c bc 3f e3 97 bd 4b 97 7a 3d
       -0.06068701 -0.011516929 -0.07416391 0.06117944
000130 56 05 01 3d 68 08 aa 3d 21 dc 4d bc 13 de bf 3d
       0.03149923 0.083023846 -0.01256469 0.09368529
000140 bb 67 9d bc 9c 8a 1b bd 1c 13 7a bd c9 83 6d bd
       -0.019214502 -0.037973985 -0.06105338 -0.05798701
000150 cd 46 2d be e5 0b 72 be ed 86 0c 3c 34 20 82 be
       -0.1692154 -0.2363735 0.008577091 -0.25415194
000160 b0 f0 2c bd f3 4b 5c be d6 85 12 3e a4 dc 34 3e
       -0.042221725 -0.21513347 0.14308867 0.17662293
000170 ed 3a 6c bc 17 92 0d 3e e9 ae d3 3d 3e 64 c4 3d
       -0.014418346 0.1382526 0.10336096 0.09589432
000180 fe bc b7 3d 0d 40 06 3e b9 32 31 3e 55 31 32 3d
       0.08971594 0.13110371 0.17304505 0.043504078
000190 54 4e 0b 3e ee f8 8a 3b 2d e9 ec bc a9 9d ff 3d
       0.13604099 0.0042411005 -0.02891978 0.12481243
0001a0 6e 2c 31 bd 6f 7d 83 bd 8e 1a 7b 3d 4d 0d 07 3e
       -0.043255262 -0.06420409 0.06130462 0.13188668
0001b0 3d 49 3f be 0a ce 1d be 5a 64 98 bd 78 ce 06 be
       -0.18680282 -0.15410629 -0.074410155 -0.13164699
0001c0 cf d2 f9 3b 95 05 d6 bc 1e c2 67 be 17 f2 50 bd
       0.0076240073 -0.026125709 -0.22632644 -0.051012125
0001d0 ee 9b 3a be 8f ca 5f 3d 8b 59 6a bb 2d 87 43 3d
       -0.18223545 0.054636534 -0.0035758938 0.047736336
0001e0 8b aa c4 bd 1e 3b 11 bb 67 f8 ee 3c db 21 0d be
       -0.09602841 -0.002216048 0.029171182 -0.13782446
0001f0 f3 b5 05 be 1a d2 db bc 68 08 4c 3e 68 ee c0 bc
       -0.1305769 -0.026833583 0.19925082 -0.023551181
000200 e8 94 95 bd ec 8f 35 3e cf 56 ac be 9f 60 f9 3c
       -0.07303792 0.17730683 -0.3365998 0.03044158
000210 5c c3 44 3e 7d b9 f7 bd d8 fd 1d 3e e8 40 eb 3d
       0.19215149 -0.12095926 0.15428865 0.11486989
000220 09 c1 6c 3d 68 91 6a 3d 4c 1b c5 3d fe b2 a9 3d
       0.05780128 0.057267576 0.09624347 0.08286093
000230 7d 44 b3 3d 7b 33 12 be 63 3e 34 3c 21 c9 74 3d
       0.087532975 -0.1427745 0.011001202 0.059762124
000240 56 fb fb bc d9 76 73 3e b0 71 27 bd 8d 23 9b 3e
       -0.030759495 0.23775806 -0.040879905 0.3030056
000250 83 ec 45 3e 78 83 0f 3e 05 30 39 bc 56 5b 2a bd
       0.19328503 0.14014995 -0.011302953 -0.04159101
000260 21 ef 83 3d da 2c 83 bd 75 65 fc 3d 42 4f 6d bd
       0.064420946 -0.06405039 0.12324039 -0.057936914
000270 cd d3 c5 bd 44 cd ce 3d dd 1d 82 3d 35 de 63 be
       -0.096595384 0.10097745 0.06353352 -0.22252734
000280 4d d5 03 3e d2 45 75 3c 0a 9f ed bd 00 12 72 bd
       0.12874337 0.01497026 -0.116026 -0.059099197
000290 4c cf 00 bd d8 1c 18 bc 23 8d b9 3d 0c d6 f5 3c
       -0.031447694 -0.009284221 0.09060123 0.030009292
0002a0 92 bf 04 be ed cf 25 3d 99 27 6c 3d 1f 76 cb bc
       -0.12963703 0.040481497 0.05765495 -0.024836598
0002b0 c8 a9 32 3c 54 89 ef bd cc a2 ea bd 11 34 21 be
       0.010904737 -0.11696115 -0.11456832 -0.15742518
0002c0 72 81 5e 3b 15 4c ed bd 0b 00 9d 3d 9e 94 e0 bc
       0.0033951667 -0.11586777 0.07666024 -0.027414616
0002d0 37 aa 1a be 2c b7 ed 3c 68 b0 1d 3d b1 3a 48 be
       -0.15103994 0.029018007 0.038498312 -0.19553639
0002e0 76 db cf bd 3d cc 48 be 24 9c f3 bc 15 9a b1 bd
       -0.10149281 -0.1960916 -0.02973754 -0.08671967
0002f0 1e 5c 2a be ec 92 4c bd 71 9c 10 3e 5b 31 ee 3d
       -0.16636702 -0.049944803 0.14122178 0.116305076
000300 81 bd a5 bd 08 0d e2 3d e9 c1 ae 3c 4e 75 b7 3d
       -0.080927856 0.11037642 0.021332698 0.08957921
000310 5f ec 05 3e 05 e1 e7 3c a0 19 1d 3e 75 03 9e 3d
       0.1307845 0.02830554 0.15341806 0.07715503
000320 dc 51 7a bc 0d 2e 11 3e 20 47 05 3e 33 d3 a0 3d
       -0.015278306 0.14177723 0.13015413 0.07852783
000330 8e 5e 22 3e 0d 7e 33 3e 40 04 ed 3c d5 37 20 3e
       0.15856382 0.17528553 0.02893269 0.15646298
000340 5b 1b 5d 3e 91 d4 ef bc 2c 4c 1b 3e 81 3a 04 bd
       0.21592467 -0.029276164 0.15165776 -0.032282356
000350 96 be 59 3d 0d b2 48 3e 23 8f 59 3d c4 49 39 3e
       0.053160273 0.19599171 0.05311502 0.18094546
000360 3f 18 b8 bd 84 fc 5a be 5b 6f 3f bd 56 97 9c 3c
       -0.089889996 -0.2138539 -0.046737056 0.019115131
000370 53 8a bb bc b6 09 b7 bd 1b 38 5d 3d 34 ad 00 be
       -0.022893107 -0.08937399 0.054008584 -0.12566072
000380 70 d4 d7 bd 1d 78 93 3c 9f 75 d8 bd b2 7e a0 3b
       -0.10538566 0.01800161 -0.105693094 0.0048979158
000390 2b 58 90 3a 20 bb 8c 3d 48 07 97 3d 91 09 e9 bd
       0.0011012604 0.06871629 0.07374436 -0.11378778
0003a0 a4 dc b6 3a 1a f7 57 bd 8e e5 0e be 50 3c c1 3d
       0.0013951254 -0.05272589 -0.13954756 0.09435332
0003b0 13 d0 08 be 98 fc 42 bd 48 c0 a2 3c 22 f4 98 bd
       -0.13360624 -0.047604173 0.019867077 -0.0746844
0003c0 e6 4b c7 bd 0a 69 e5 bd aa 6e f9 bd ee c0 c3 bd
       -0.09731273 -0.11201675 -0.121793106 -0.09558283
0003d0 83 f1 0f be fc 32 46 be 8e cc 1c be b5 9e 06 bc
       -0.14056973 -0.19355386 -0.15312406 -0.00821655
0003e0 4f 64 7b bd 1f cd b1 bd 68 7c 53 be c1 ac 16 3b
       -0.06137496 -0.08681702 -0.20652926 0.0022991153
0003f0 84 e6 e1 3d 76 ea 2d 3d 77 83 95 3c fb 30 39 bd
       0.110302955 0.042459927 0.018251164 -0.045212727

conv_v_0.bias f4 [16]
000000 3a 52 43 3c 6a d3 b8 3c 1f c7 05 bd 6e ca 5e bc
       0.01192146 0.022561748 -0.0326606 -0.013598068
000010 72 79 f7 3c 90 60 3b 3d 31 1e 4a 3c ce c6 d3 3d
       0.030209277 0.045746386 0.0123363 0.10340653
000020 e8 9f bd 3d 55 7f 03 3e 5e 32 89 bc 7e 9b aa bd
       0.09259015 0.12841542 -0.01674765 -0.08330439
000030 d8 bd a6 bd e3 c8 c2 3d ca 0f 9e bd ff f5 c8 3d
       -0.081416786 0.09510972 -0.07717855 0.09812545
