league/checkpoints/mfos_seeds/new_self_3x3_48/700_0.pth (torch, 300942 bytes, 105 tensors)

conv_a_0.weight f4 [16, 7, 3, 3]
000000 b7 84 60 be 24 0b 92 be 4e 11 50 be f2 4e 33 3e
       -0.21925627 -0.28524125 -0.20319101 0.17510584
000010 ea 19 12 3e 9d 33 7e 3e 04 3c fa 3a 57 0a 26 3b
       0.14267698 0.24824376 0.0019091372 0.0025335753
000020 84 f5 3f 3d ba dc 5f 3c 43 ea e1 bd 6a 92 29 bc
       0.046865 0.013663465 -0.1103101 -0.010349849
000030 ed 7e 45 bd 25 f6 1b 3d 6b 46 9f 3c 54 82 f1 bc
       -0.04821675 0.03807654 0.019442758 -0.02948109
000040 fa a8 4a bd 08 e4 b7 3c 09 a3 7a 3e aa 26 87 3e
       -0.049477555 0.022447601 0.24476255 0.26396686
000050 a3 a4 97 3e 67 17 3c be cf ab 2f be 9c e1 86 bd
       0.29617795 -0.18368302 -0.17155384 -0.06586
000060 79 28 a5 3d 36 20 cb bc 86 1f 6a 3d e9 fe 74 3e
       0.0806436 -0.024795633 0.05715897 0.23925366
000070 e4 a3 23 3e f5 40 39 3e 7e 7d da bd 2c f3 99 be
       0.15980488 0.18091185 -0.10668467 -0.30068338
000080 d6 6f 8d be 7b 27 10 bd d1 c7 92 bd da b9 19 3c
       -0.27624387 -0.0351939 -0.07167018 0.009382689
000090 e4 d2 06 3e 85 fe ed 3d f1 4c 90 3d 32 74 de 3d
       0.13166386 0.116208114 0.070459254 0.10862006
0000a0 ef f6 e0 3d 91 41 1f 3c 1a af f3 3c 53 7f 81 3d
       0.10984599 0.009720222 0.02974658 0.06323113
0000b0 f4 8a 1c 3e b3 74 f5 3d 1c fd 18 3d 5f 46 c0 bc
       0.15287381 0.11985149 0.03735076 -0.023471056
0000c0 11 22 b2 3c f2 ff a6 3d 52 27 53 3d d9 77 9b 3d
       0.02174476 0.081542864 0.05155117 0.075912185
0000d0 48 ed 74 3d 95 7c 58 3c 8c 3b 1d bd 27 a8 61 3c
       0.0597966 0.013213296 -0.038386866 0.013773001
0000e0 5d f7 aa 3d b0 29 6a bc a2 d6 a1 3c 85 dc b4 3d
       0.08347962 -0.014292166 0.019755665 0.08831123
0000f0 cb 82 f3 3d ba c7 5e 3d 25 3d 10 3e a5 c7 7d bd
       0.11890181 0.054389693 0.14085825 -0.061957974
000100 6f 95 bb 3d 52 f5 e9 3d d4 6e 2a 3e 80 e7 bc 3d
       0.091593616 0.11423744 0.1664384 0.092238426
000110 ba bb d2 3c ec 6c d8 3c 4d 0c 3a bc f1 95 35 3d
       0.02572428 0.026419125 -0.011355472 0.04433245
000120 b2 9b 4b 3e 44 a0 d4 bc 2c 82 8c 3d c2 02 19 3d
       0.19883612 -0.025955327 0.06860766 0.037356146
000130 71 66 bd 3b 9a bc f2 3b c5 d2 d6 3d 67 89 ae bc
       0.0057800342 0.007407737 0.1048942 -0.021305753
000140 0e db fa 3c ea d9 a6 3c 4a 5e dc 3d 9c 61 62 3c
       0.030622032 0.020367581 0.10760172 0.013817217
000150 bc 23 07 bd 36 ae dc 3d 8d 33 86 bd 7b 88 0a 3e
       -0.032993063 0.107754156 -0.06552801 0.13528626
000160 eb 32 64 bd 58 bb ed bc 9e 8d 4e 3d de 2c fc 3d
       -0.05571262 -0.029019997 0.050428025 0.12313245
000170 dc dd ca bd 46 c2 02 bd a6 17 84 3b 39 37 98 bc
       -0.099055976 -0.031923555 0.0040311394 -0.01858102
000180 9c 52 8a bc 6c af 91 3d e8 ac c9 3d 13 0c 4f 3e
       -0.016885094 0.07113537 0.098474324 0.2021945
000190 f4 ee 4b 3d 2e 8b 7a 3d 79 3d ee 3d 87 a6 4f 3e
       0.04978843 0.06116789 0.11632819 0.20278369
0001a0 bc 4b 40 3e d8 75 f7 3d f0 31 1e 3e 6c 9a 4c 3e
       0.1877889 0.12083024 0.15448737 0.19980782
0001b0 ae e2 84 ba 1b 3a f4 bc e8 c2 54 bd 8e 23 36 bc
       -0.0010138357 -0.029812863 -0.05194369 -0.011116875
0001c0 f5 05 72 3d de 3b d7 3c 2a b8 1d 3c 2b 1e cb 3d
       0.059087712 0.026273664 0.009626428 0.099178635
0001d0 81 98 cc bc ac 8f ec 3c b3 a6 11 3e e6 38 a1 bd
       -0.024975063 0.028877102 0.14223747 -0.07872181
0001e0 15 55 ed 3d ca df 93 bd e4 09 b0 3c 89 52 26 3d
       0.11588494 -0.07220419 0.021489091 0.040606055
0001f0 9a bd bf 3c 93 5f 00 3e d7 6f 60 3d 4b bf 8d 3e
       0.023405839 0.12536459 0.05479416 0.27685007
000200 64 a6 22 3e 34 28 62 3b 0c a1 fc 3d 0e a1 0b bd
       0.15883785 0.0034508826 0.12335405 -0.03408914
000210 d4 69 98 be 4e 2c 82 be 7f ba 51 be a2 a8 0d 3c
       -0.2976824 -0.25424427 -0.20481299 0.008646162
000220 87 00 80 3d d4 0a 19 bd 0b f5 6a bd b0 b7 56 3d
       0.062501006 -0.037363842 -0.057362597 0.05242127
000230 87 d5 5e bc 7d c8 f0 bd a4 27 67 3d 6e 7b 93 bd
       -0.013600714 -0.1175699 0.05643429 -0.07201277
000240 a6 45 63 be 2a 83 a2 bc 37 e2 43 be 96 30 5f be
       -0.22194538 -0.019837935 -0.19129263 -0.21795878
000250 b0 8b e4 3d 36 eb 94 bd b6 e5 85 3e 14 90 94 3e
       0.11159456 -0.072714254 0.26151818 0.29016173
000260 01 9b 8c 3e 5d ed a3 be a6 6c 7b bd 45 97 1d be
       0.2746201 -0.3201703 -0.061382912 -0.15389736
000270 df 20 a7 3c 09 63 c6 3d a6 10 3f bd 43 49 29 3e
       0.020401416 0.09686858 -0.046646737 0.16531853
000280 f0 bd 6b 3e 84 8c 41 3e d6 9c d7 3d ad 21 2d 3e
       0.23021674 0.18901259 0.10527961 0.16907378
000290 5a 7b 18 bd 2b d9 24 3e 22 d2 34 3e d6 44 1e 3d
       -0.037227012 0.16098468 0.17658284 0.038639866
0002a0 04 51 13 3c 9d 24 35 3e 35 5b ce 3d 42 10 06 3e
       0.008991484 0.17689748 0.1007599 0.1309214
0002b0 e3 d2 05 3e 4b 58 08 3e 15 56 9f bc ac a8 06 3e
       0.13068728 0.13314931 -0.019450227 0.1315028
0002c0 28 e0 b9 bd f0 7b 43 3d 75 50 5f 3b 6a 22 71 bd
       -0.090759575 0.047725618 0.0034075056 -0.05887071
0002d0 dc 72 0c bd e1 b0 93 bd 92 f2 fa bc 8a 55 5c 3b
       -0.034289226 -0.07211471 -0.030633245 0.0033620321
0002e0 ee fd 6e 3d 35 1e b2 3d 97 89 03 3d c0 7f ed 3d
       0.058347635 0.08697168 0.032113638 0.11596632
0002f0 c8 56 ee 3d a1 aa b0 3c ca f2 0a 3e 14 a7 d2 bd
       0.11637646 0.021565737 0.13569179 -0.10285774
000300 93 30 79 be dd 16 5a bd 16 10 01 3d bc 06 3d 3d
       -0.24334936 -0.05324446 0.03150948 0.046149
000310 57 0b 37 3d 3f d1 8c bc 71 38 63 bd 9c 7e da bb
       0.04468855 -0.01718962 -0.05547375 -0.006667925
000320 93 ef 46 bd 37 c8 26 3d 87 25 40 bd fc 90 3e 3b
       -0.04856832 0.040718284 -0.04691079 0.0029078117
000330 c8 cf 3e 3d 2a 37 0e bc 87 c1 d4 bd b9 a6 88 3d
       0.046584874 -0.008680144 -0.10388475 0.06672425
000340 02 a1 18 bd 24 72 86 be dc 2e 92 bd 44 2e 15 3e
       -0.037262924 -0.26258957 -0.07137844 0.1456843
000350 d5 c3 5d 3d 7b 80 b4 bd ba 59 c1 bd dd f6 a6 bd
       0.054141838 -0.08813568 -0.09440942 -0.08152554
000360 c9 06 03 3e 0e db d7 bd 02 25 48 be 03 09 d1 bd
       0.12795557 -0.10539828 -0.19545367 -0.10206797
000370 8e 3c ea 3d c0 6c 2c 3d 27 fb a7 bd 84 67 ce bd
       0.11437331 0.0420959 -0.082022004 -0.10078338
000380 d6 ff 9a bc 30 55 ee bd 6b cf b4 3c 17 e3 08 be
       -0.01892082 -0.11637342 0.02207156 -0.13367878
000390 de a7 08 bd e0 8c ee 3c 36 69 de bd 81 c8 5c 3d
       -0.033363216 0.029119909 -0.10859911 0.053902153
0003a0 24 6d 44 bd 15 0d 7d bd d8 fe cf bc a6 76 dc 3b
       -0.047955647 -0.061780054 -0.025390074 0.006728011
0003b0 29 2f e4 3d fc a3 e9 3d 95 0f b3 bc 84 c9 10 3d
       0.111418076 0.11408231 -0.021858016 0.03534843
0003c0 26 43 56 bd 6b d3 8e bd 89 fa 00 3d 16 a8 de bb
       -0.05231013 -0.069739185 0.03148893 -0.0067949397
0003d0 64 fa 9e 3c 3d 87 20 3e f1 ba ad bc a8 75 93 bc
       0.019406505 0.1567659 -0.021207305 -0.018000439
0003e0 5a 70 4a 3d 37 8d c4 3d 1a 36 2d bc dd f0 ca 3c
       0.049423553 0.09597247 -0.010571981 0.024773056
0003f0 38 18 50 3e 8e 88 33 3e 77 80 47 3e f0 d7 a7 be
       0.20321739 0.1753256 0.19482599 -0.32781935

conv_a_0.bias f4 [16]
000000 ef 10 a6 3b e3 d5 30 3e 09 b4 9d bd 7d 83 8e 3b
       0.0050679366 0.17269091 -0.077003546 0.0043491707
000010 cf 16 47 3d 28 7b 5b 3d 72 a0 da 3b 85 ca 06 3c
       0.048605736 0.053584248 0.0066719586 0.008226995
000020 4f 55 6c bd 24 a1 f2 ba c9 96 ab bd 8a 8e 48 bc
       -0.057698544 -0.0018511158 -0.08378369 -0.012241015
000030 48 0a 61 bd 25 1d b3 3d c8 4f b9 3d 26 25 54 bb
       -0.054941446 0.08745793 0.0904842 -0.0032370775

conv_a_1.weight f4 [16, 16, 3, 3]
000000 41 d8 ae 3d 16 08 0a 3e 5c 16 b7 3d 59 b8 ec 3d
       0.08537341 0.13479647 0.089398116 0.11558599
000010 67 c2 0a 3d 79 59 fd 3d b7 5e 3d 3d a8 2e c2 3d
       0.033876803 0.12370581 0.046232905 0.09481555
000020 78 d2 21 3e 72 b9 ee bc 5e dc ac bd c6 51 05 3d
       0.15802944 -0.029141162 -0.08440469 0.03254869
000030 97 7e 9e bd 8f c5 c2 bd a6 9d 23 bd ae f9 04 bd
       -0.07738989 -0.095103376 -0.039945267 -0.032464676
000040 4f cd 10 bb 3d d9 c5 bd ec 88 0e 3e 53 06 79 3e
       -0.002209503 -0.096605755 0.13919419 0.24318819
000050 4c 32 f9 3d 21 fa 76 3e 94 6c 58 3e 35 3c 28 3e
       0.121677965 0.24118854 0.2113517 0.16429217
000060 e3 8a c7 3d ce 07 5c 3e 0f 31 34 3e 4e 48 7d 3d
       0.097432874 0.21487352 0.1759684 0.061836533
000070 4b c5 47 bd f2 69 ec bc 53 c6 48 3d 14 cd 8e 3c
       -0.048772138 -0.028859112 0.04901726 0.017431773
000080 37 81 bc 3d d9 31 aa 3d 15 15 81 bc 88 34 29 3d
       0.09204333 0.08310289 -0.015757123 0.041309863
000090 90 af 32 3e 29 2b 26 3e 57 de 49 3e 49 b2 88 3e
       0.17449784 0.16227402 0.19713722 0.2669852
0000a0 99 14 39 3e 9f 0f 65 3e 18 f8 4d 3e ce 11 8a 3e
       0.18074264 0.2236924 0.20114172 0.2696671
0000b0 3b f3 88 3e 71 40 34 3d 45 73 84 3d bb 48 18 3d
       0.2674807 0.04400677 0.064672984 0.037178736
0000c0 ae 09 17 bd 6e 50 f1 3a a0 38 3f bd 8e b3 50 bc
       -0.036874466 0.0018410811 -0.04668486 -0.012738122
0000d0 91 55 db 3d f4 cc d5 3d db e6 58 3e 48 43 1a 3e
       0.1070968 0.10439482 0.21181814 0.15064728
0000e0 7b 61 65 3e 15 2a 64 3e e0 12 8c 3e ed fa 0c 3e
       0.22400467 0.22281678 0.2735815 0.13767596
0000f0 79 0e 73 3e 71 7e 62 3e 8e 86 33 3e 1c 41 1d 3e
       0.2373599 0.22118546 0.17531797 0.15356869
000100 60 ca f1 3d 5a ed 28 3e c3 4a 6c 3e 69 ee f9 3d
       0.11806178 0.16496792 0.23075394 0.12203676
000110 0d c3 5c 3e d4 42 14 3e f3 37 69 3d 11 08 32 3e
       0.21558781 0.14478618 0.056938123 0.1738589
000120 d0 78 f8 bb 25 48 e3 bc 7e e6 da 3d 48 2e ed bc
       -0.0075827613 -0.027744362 0.10688494 -0.028952733
000130 2d 9e ba 3c 43 ea f5 3d c5 f5 03 3d fe 35 53 bb
       0.022780502 0.120075725 0.032216806 -0.0032228227
000140 33 71 8a 3d ae 4b 39 3d d1 8e 2f 3e d6 ff 5b 3d
       0.06759872 0.04523819 0.17144324 0.05371078
000150 e3 56 96 3d 65 31 f9 3c 58 e8 0b 3e 77 52 dc 3d
       0.07340791 0.030419061 0.13662851 0.107579164
000160 49 b1 23 3e a0 ed 51 3e 2e 57 2b bd 7b 17 eb 3c
       0.15985598 0.20500803 -0.041831188 0.02869772
000170 e3 d0 29 bd bb 50 3f 3d fe 72 d0 bc b0 72 77 3d
       -0.041458976 0.04670785 -0.025445458 0.06041211
000180 c8 5a 07 3c f2 80 bb bc bf a5 b5 3d 92 8c 01 3e
       0.00826139 -0.022888634 0.08869504 0.1265128
000190 b7 5a 01 3e 02 2f 12 3e 37 7f 3b 3e 60 31 45 3e
       0.12632261 0.14275745 0.18310247 0.19257116
0001a0 87 ba 20 3e e2 3c bd 3d a1 c9 5f 3e 16 ce 32 3e
       0.15696155 0.09240128 0.21854259 0.17461428
0001b0 d7 67 46 3d 24 bb 2b bc 25 4a ab 3d 71 13 1a bd
       0.048438873 -0.0104816295 0.08363751 -0.037616197
0001c0 45 3e 28 bd d9 39 9d 3d bd 7c a0 3d 6f f2 12 3d
       -0.04107501 0.07677049 0.07836292 0.035875734
0001d0 eb 55 bf 3b 44 a8 70 3d 61 ed a4 bd 7d e9 45 3d
       0.0058390996 0.05875422 -0.08053089 0.048318375
0001e0 4c b2 88 3d 85 c9 80 bd b4 11 36 bd fd 1e b7 38
       0.066746324 -0.06288437 -0.044450477 8.731892e-05
0001f0 c4 d9 5f 3d 6a 3b 64 bc 9e e4 75 bd 9a fd 94 3c
       0.054651037 -0.013930181 -0.06003248 0.018187333
000200 85 1f 71 3d 03 d2 68 bd 89 a2 98 bd 83 d2 19 bd
       0.05886795 -0.056840908 -0.07452876 -0.037554275
000210 5b 47 80 bd ee 97 9b bc a1 49 46 bd f9 e7 ac 3e
       -0.0626361 -0.018993344 -0.04841006 0.3377073
000220 3f 7d c1 3e ae c9 e5 3e c2 0f a4 3e d5 90 d0 3e
       0.37790868 0.44880432 0.32043272 0.40735498
000230 a5 3f c8 3e de 2e d1 3e 7e 04 d1 3e e5 02 c1 3e
       0.39111057 0.4085607 0.4082374 0.3769752
000240 42 04 4d 3e c5 81 bc 3d 4c fe 17 3e a0 b4 5f 3e
       0.20021155 0.09204439 0.148431 0.21846247
000250 c3 b3 a0 3d 89 02 3f 3e ea 4a 1a 3e 36 5c 38 3e
       0.07846787 0.18653311 0.1506764 0.18003926
000260 ed af 4e 3e e8 89 bb 3d 71 d8 e2 3d 9f 3f e0 bc
       0.20184298 0.09157163 0.11076439 -0.027374087
000270 1c 1c 59 3c 92 94 c9 3c 12 72 d2 3c 95 a1 97 3d
       0.013251331 0.024606977 0.025689159 0.07403866
000280 c3 01 4c 3d 17 cf 1b bd f7 ce 81 3e 4f e3 5e 3e
       0.049806368 -0.038039293 0.25353214 0.21766399
000290 2f 43 03 3e b2 39 8e 3e 9c 0d 95 3e b2 9c 36 3e
       0.12818597 0.27778393 0.29111946 0.17833212
0002a0 32 0f c4 3d 2d e0 85 3e fb 88 2c 3e af 3d 90 3d
       0.09573211 0.26147595 0.16849129 0.07043015
0002b0 c1 e1 d5 3c ad fd 98 3d e3 cb 41 bb 75 87 4f 3d
       0.026108624 0.0747026 -0.002957099 0.05066629
0002c0 ef 74 e0 3d aa 71 0c 3d 37 59 ba 3c 74 df 8b 3d
       0.10959803 0.034288086 0.02274762 0.0682973
0002d0 fc 5a 76 3e 2c 63 3f 3e 2b e5 72 3e 88 f0 30 3e
       0.24058145 0.18690175 0.23720233 0.17279255
0002e0 4f ab 32 3e 7a 2f 93 3e 84 95 1f 3e 1a 4c 57 3e
       0.17448162 0.2874716 0.1558438 0.21025124
0002f0 b5 28 83 3e fa f9 fc bc b9 f5 81 3b 00 68 99 bd
       0.25616995 -0.030880917 0.00396606 -0.074905396
000300 ab fa 69 bd 87 89 a8 3d ca cf 97 bd 7d 25 89 3d
       -0.05712382 0.08229356 -0.074126795 0.066966034
000310 16 28 41 3d 80 4b 28 3d b6 98 1d 3e b8 b6 79 3d
       0.04715737 0.041087627 0.15390286 0.06096527
000320 1b a7 0d 3e e5 70 72 3d 49 4f 42 3d 3c b4 db 3d
       0.13833277 0.059189696 0.047438893 0.10727736
000330 95 9b 66 3d 98 93 39 3e c0 12 4f 3e b0 04 62 3e
       0.05630072 0.18122709 0.20221996 0.220721
000340 a8 9b 0e 3e 90 1d 2f 3e 3f d3 24 3e df 73 68 3e
       0.13926566 0.17101121 0.16096209 0.22700451
000350 bf a0 53 3e e3 1a 4f 3e b4 f0 81 3e 2a 07 5a 3e
       0.20666789 0.202251 0.25378954 0.21291795
000360 56 c3 bd 3c d4 15 26 bd fa 06 be 3c 3f 08 2b bd
       0.023164432 -0.04054816 0.023196686 -0.04175591
000370 99 28 ee 3d 08 8c b5 3d 90 8f e2 3d 76 2a d0 3d
       0.11628837 0.088645995 0.110625386 0.10164349
000380 fb 31 b6 3d 8a 97 3a 3e 59 66 f6 3d 18 8a be 3d
       0.08896252 0.1822187 0.1203124 0.09303683
000390 96 b8 47 3e 1a 33 0c 3e de b7 5c 3e 3c 7f 03 3e
       0.19504008 0.13691369 0.21554515 0.12841505
0003a0 73 13 04 3e 0a c1 b3 3d eb 2d f2 3c 4c 07 17 3d
       0.12898044 0.08777054 0.029562911 0.036872193
0003b0 1f 57 12 3e 8e de 0f 3e 0f 86 0b 3e 5d 25 e6 3d
       0.14291047 0.14049742 0.13625358 0.11237595
0003c0 a8 fe 2a bd 9b b6 6c 3d 7f 54 61 3c 9a 20 39 3d
       -0.041746765 0.057791334 0.013753056 0.045197107
0003d0 a9 fc f2 3c 01 da 1d 3e 3d 90 9e bc 24 a4 20 3e
       0.029661493 0.15415193 -0.019355888 0.15687615
0003e0 46 61 be 3c e2 eb 28 3c de 43 90 3d 1f 36 14 3e
       0.023239743 0.010310145 0.07044195 0.1447377
0003f0 ed c9 f6 bb 2c 2f 01 bb 6c 9e 11 3e e0 8e ae 3d
       -0.0075313956 -0.0019711955 0.1422059 0.08523345

conv_a_1.bias f4 [16]
000000 cf 4b 1b be c4 db 87 3d c3 89 91 bd a9 db a4 3d
       -0.15165637 0.06633714 -0.07106354 0.08049709
000010 19 a2 27 bd 98 ee 71 3c 10 17 d2 bd 0a 12 82 bc
       -0.040926073 0.014766358 -0.10258305 -0.015877742
000020 c0 0e c7 bc 2f 70 14 be a9 32 9b 3d 5c 33 d0 bd
       -0.024299026 -0.1449592 0.07578022 -0.10166046
000030 4e 49 f9 bd 78 3c 8b 3d ce ec 04 be d3 ce b4 bc
       -0.12172185 0.06798643 -0.12980959 -0.022071278

linear_a_0.weight f4 [16, 144]
000000 b2 1a 2a bd a8 28 d9 bb 87 af 4e 3d 81 96 02 bd
       -0.041529365 -0.006627161 0.050460365 -0.031881813
000010 84 c5 c8 3b 70 21 80 3c 71 cc 9a ba 38 ac a2 3d
       0.0061270613 0.015640944 -0.0011810196 0.07943004
000020 94 5b 90 3d d2 02 53 bb 46 37 00 3d 7a ac 32 bd
       0.07048717 -0.0032197726 0.031302713 -0.043621518
000030 90 7f 4d 3c f6 e9 2a bd 4b 7f 49 bc ec 81 26 3d
       0.01254262 -0.04172703 -0.012298415 0.040651247
000040 0f e7 84 3c 13 03 05 3d 8e 01 65 3d c4 b9 24 bd
       0.016223459 0.032473635 0.055909686 -0.040216222
000050 a2 68 8f 3d a5 2a 38 bc 11 cb 0c 3d f4 c7 7c bd
       0.07002379 -0.011240636 0.034373347 -0.061714128
000060 65 45 c0 bb a0 80 67 bd 6b e8 db bb e0 c0 71 3c
       -0.0058676475 -0.05651915 -0.006711056 0.014755458
000070 84 4a db 3c ad 24 2e 3c ea 2c 4e 3c 52 24 9d bc
       0.02676893 0.010628861 0.012583951 -0.019182358
000080 04 1d 3d bd 4e 2b 6b bd 7c 17 83 3d 71 97 41 bb
       -0.04617025 -0.057414345 0.06400964 -0.002953973
000090 e9 20 dc 3c 20 35 03 3d 2e ff c2 3c 9e fc a0 bd
       0.026871162 0.032033086 0.02380332 -0.07860683
0000a0 08 f6 8f bc 9a cf 22 3b f3 f6 9b bd d0 58 05 bb
       -0.017573372 0.0024842978 -0.07615461 -0.0020347126
0000b0 3f 47 18 3d bd d4 ea 3c 50 cf 1d bb 6b 2f 8d 3c
       0.03717732 0.028665895 -0.0024079867 0.017234525
0000c0 cf ff 62 bd 59 21 09 3b 57 c2 83 3c 7f af 41 3d
       -0.05541974 0.0020924418 0.01608388 0.047286507
0000d0 da 15 1b 3d ff 8a 94 bd 05 8a 95 3d 93 9e 18 bc
       0.037862636 -0.07253074 0.07301716 -0.009315151
0000e0 2d a6 55 bd 96 4a 3f 3d 47 a1 6f 3d 29 b4 c6 bc
       -0.05216043 0.04670199 0.058503415 -0.024255829
0000f0 00 80 4a 3d bf f0 da bc c8 87 8f bd db 58 84 bd
       0.049438477 -0.026726125 -0.0700832 -0.0646226
000100 b8 3f 80 3d ac 33 1e 3c 09 27 7c 3d e0 48 87 3d
       0.062621534 0.009655874 0.061560664 0.06605697
000110 ae 92 b2 bd 1f 7d 3a bc 16 36 e0 bc a5 1d 1a 3d
       -0.08719383 -0.01138237 -0.02736954 0.037625927
000120 3f 62 0f 3d c4 a8 41 bd cb 4b a9 bb 22 ff ee 3c
       0.035005804 -0.047280088 -0.005166506 0.029174391
000130 84 94 75 bc 9a 0c 31 3b 96 d2 1b bc 2c 30 ab bc
       -0.014989022 0.0027015568 -0.009510657 -0.020896994
000140 42 a8 37 bd 99 2c c2 3c 11 f7 50 bd 30 c8 f3 bb
       -0.044838198 0.023702906 -0.05101687 -0.0074396357
000150 ed 30 3f 3c 0d 2e cc 3c d3 76 cd bc 0a 18 11 3d
       0.01166938 0.024924302 -0.025081074 0.035423316
000160 18 e5 8d bd 19 e2 ab bc cb 5e 70 bd dc 6a a8 bd
       -0.06928462 -0.020981835 -0.05868415 -0.08223507
000170 47 ba 0d 3c da c0 9c 3d 3b 03 8f bd 09 e9 4d 3d
       0.008650369 0.07653971 -0.06983038 0.050271068
000180 b9 cb d3 3c 05 24 92 3d 8b 67 8f bd 07 21 80 bd
       0.025853978 0.071357764 -0.07002171 -0.062562995
000190 5c fc a7 ba 49 8e 98 bc 30 8f a9 3b aa c1 e7 3c
       -0.0012816298 -0.018622534 0.00517454 0.028290588
0001a0 b7 2c 31 bc 4e 54 4f 3d 1a a7 b4 bd 86 e0 bd 3c
       -0.0108138835 0.05061751 -0.088209346 0.02317835
0001b0 bc 20 52 3d 92 1e 60 bc 82 bd 6d 3d be 60 aa bd
       0.05130075 -0.0136791635 0.058042057 -0.08319233
0001c0 4b f8 0f 3c c6 1b 7d 3c e1 81 af bb e7 9f 1d bd
       0.008787225 0.015448516 -0.005356059 -0.038482573
0001d0 c8 95 90 3c c1 4d b1 bd e7 bc ac bd f7 53 80 3d
       0.017649546 -0.086574085 -0.08434468 0.06266015
0001e0 0f e1 34 bc 60 3d 69 bc 2f 2c 8f bd 91 3c 65 bd
       -0.011039986 -0.014235824 -0.06990849 -0.055965964
0001f0 45 dd 2c bd d3 d9 62 bb 74 38 92 3c 65 67 5d bc
       -0.042203207 -0.0034614697 0.017849185 -0.013513421
000200 2c 24 52 3c b0 bf a1 3c d0 99 0f bc aa 72 d9 bb
       0.012826007 0.019744724 -0.008764699 -0.0066359835
000210 07 69 88 bd 26 b9 e0 bb 1a 11 ad 3a ab 45 89 bd
       -0.066606574 -0.006858009 0.0013203949 -0.06702741
000220 af 3d 86 bb fc 31 e1 bc 0d 4d 23 3d bb 3d f7 3c
       -0.0040967087 -0.027489655 0.039868403 0.030180803
000230 38 06 61 bd ca d0 1b bd cc 61 91 3d 21 07 d3 bc
       -0.05493757 -0.038040914 0.070987314 -0.025760235
000240 49 24 d1 bc 7a 7f 83 3d a2 1e 05 3e d4 cc 11 3e
       -0.025529997 0.064207986 0.12999967 0.14238292
000250 29 b6 bf 3d 61 39 cc 3a 34 59 3f 3d 97 25 02 bd
       0.09360916 0.0015581065 0.04671593 -0.03177413
000260 90 af 50 3d f0 1f 51 bd ce 7c 87 3d 3d c5 93 3d
       0.05094868 -0.05105585 0.066156015 0.072153546
000270 49 28 9b bd e0 7f 54 3d df 63 af bc 26 99 e2 bc
       -0.07576043 0.051879764 -0.021409927 -0.027660917
000280 77 7f 98 bc 6a 9e a7 3d 83 1c d7 3c 69 7e b6 3d
       -0.018615467 0.08184512 0.026258713 0.089108296
000290 5f 48 1a 3e 91 55 04 3d 0b 8b 3a 3e d0 dd 07 3e
       0.1506667 0.032308165 0.18217103 0.13268209
0002a0 05 fb 0a 3e 1e 46 64 3e 93 88 2f 3e e3 75 82 bb
       0.13572319 0.22292373 0.17141943 -0.0039813383
0002b0 1b ce 92 3d bd 86 bf 3d a5 71 73 bd f6 ec 2f 3d
       0.07168218 0.09351871 -0.05943455 0.042950593
0002c0 29 e4 4b bc 95 5c 91 3c ea 69 b8 3d 81 46 81 3d
       -0.012444534 0.017744342 0.090045765 0.06312276
0002d0 71 83 ed 3d 18 b7 0d 3e 38 a3 48 3d da 7b ff 3d
       0.11597336 0.13839376 0.048983783 0.12474795
0002e0 f8 18 11 3d 3f 93 de 3d ff 1d c5 3d fc ec f7 3d
       0.035424203 0.10867929 0.09624862 0.12105748
0002f0 2c 8b 77 3d 61 7c 95 bd 37 07 56 bd 6f ff 82 bd
       0.06043546 -0.07299114 -0.052252974 -0.06396376
000300 06 ce fe 3b 97 3e a3 bd 03 04 19 bd ea 71 92 3d
       0.0077760248 -0.079709224 -0.03735734 0.07150634
000310 08 16 94 3d d6 cc d3 3c ae 10 50 bb a9 f0 9b bc
       0.072307646 0.02585451 -0.0031748223 -0.019035654
000320 5a 88 75 3d 20 f3 fe 3d 68 85 3c 3d 08 e7 34 3c
       0.059944488 0.12448716 0.046025664 0.01104141
000330 70 23 cf 3d 10 50 bd 3d 4c 02 17 bb e4 bf 72 3c
       0.10114181 0.09243786 -0.002304214 0.014816258
000340 08 21 b4 3d 7d d8 01 bd 01 34 9b bd 58 6d 1b 3b
       0.08795363 -0.0317006 -0.07578278 0.0023716297
000350 9b 8a cc bb b2 d5 07 bd 9b f7 8d bd aa 74 90 3d
       -0.006242109 -0.03316278 -0.069319926 0.07053502
000360 6c 7b 0c 3e aa 12 a0 3d f0 ac c5 3d ba af 69 3e
       0.13718957 0.0781606 0.09652126 0.2282094
000370 06 ea 1e 3e c0 d9 00 3e e6 d6 04 3e f0 9b 5d 3e
       0.1551896 0.12583065 0.12972602 0.21641517
000380 5e 54 61 3e d1 da c5 3d e3 38 c7 3d 98 d5 5a bb
       0.2200484 0.096608765 0.09727647 -0.0033391472
000390 7e 80 90 3d 79 1d 94 3d ae ed b7 3d 35 1d 27 3d
       0.07055758 0.07232184 0.08980881 0.04079934
0003a0 02 5d e1 39 f9 1e ee 3c 16 98 ee 3d a5 17 b3 3d
       0.0004298464 0.029067503 0.11650102 0.08744744
0003b0 af e3 29 3e 04 5e bb 3d d2 bc 02 3e fb af 94 bb
       0.1659076 0.091487914 0.12767342 -0.00453758
0003c0 5d 88 a8 3d 1f ba e8 3d 38 28 81 3d e0 4a b5 3c
       0.08229134 0.11363625 0.06306499 0.02213043
0003d0 f8 ff 94 3d 2f 43 1c 3d fc b7 ba bc c7 bf d6 3d
       0.07275385 0.03815001 -0.022792809 0.104857974
0003e0 25 5d 14 bc 8f 23 19 3e 41 c4 19 3e ad 9d 18 3e
       -0.0090554105 0.14954971 0.15016271 0.14903899
0003f0 e3 74 7d 3d d2 7b a4 3d 55 4b ff bc 45 04 22 bd
       0.06187905 0.08031429 -0.03116385 -0.039554853

linear_a_0.bias f4 [16]
000000 28 06 31 bd 30 93 9b bd 8a b9 a1 3e 15 cd d3 bc
       -0.04321876 -0.07596433 0.31586868 -0.025854627
000010 2b 62 37 bd 13 e6 f7 bb 6c 7a 3b 3d ab 56 a6 bd
       -0.044771355 -0.007565269 0.045771047 -0.08121999
000020 6e f5 d4 3d da 69 1c 3e 62 0d 90 3d d6 09 76 3e
       0.103983745 0.15274754 0.070338026 0.2402719
000030 49 60 58 bd 10 66 12 be 9c 5d 60 3e 2b 5f 2e bd
       -0.0528262 -0.14296746 0.21910709 -0.042571228

GRU_a.weight_ih_l0 f4 [48, 16]
000000 34 d2 8b bd fa 03 06 3e b2 96 fd 3d 3a c2 7a be
       -0.068272024 0.13087454 0.123822585 -0.24488154
000010 4c b9 88 3e bc c1 78 be e1 10 63 3e 02 3b 55 be
       0.2670387 -0.24292654 0.22174408 -0.20823291
000020 e0 71 64 be f8 a3 cb bd 89 70 0d be 75 71 4c 3d
       -0.22309065 -0.09943384 -0.1381246 0.04991289
000030 9f b3 5f 3e e1 a9 09 be 87 17 b2 bd 90 0d cb bd
       0.21845864 -0.1344371 -0.08695894 -0.09914696
000040 69 4b 7c bd 41 0f 6f 3c b2 dc e8 3d ec 2f 55 3e
       -0.061595354 0.014591039 0.11370219 0.20819062
000050 0a d5 65 be 8b 91 86 bd 12 81 2c 3e 0a b9 13 be
       -0.22444549 -0.06570729 0.16846111 -0.14426056
000060 5b d8 b7 3e fb 15 80 3e a3 6e 20 be e2 ed 35 bd
       0.35907254 0.2501677 -0.15667205 -0.044416316
000070 a3 be 2e be 9c 6d b0 3c c2 e8 1b bd 13 dd 7f 3d
       -0.1706491 0.02153664 -0.038063772 0.062466692
000080 b4 f3 56 3e 23 d8 3e be 66 9d 88 3e 9f 40 1a 3e
       0.20991403 -0.18637137 0.26682585 0.15063713
000090 4f 37 64 3e 3c 1e f4 3c 3a 81 bb bd 20 db 84 bc
       0.22286724 0.029799573 -0.091555074 -0.016217768
0000a0 ab f9 6f bd 5a f6 19 be a9 c4 99 3c 7f 18 0b be
       -0.05858771 -0.15035382 0.018770533 -0.13583563
0000b0 c8 3d d1 bd ec 7b 2e 3e f7 fa 00 bd 23 43 17 3e
       -0.10216862 0.1703946 -0.03148934 0.14771704
0000c0 02 d5 1a 3e 59 ce da bd 6e 98 a8 3d 92 21 1f be
       0.15120319 -0.10683889 0.08232199 -0.1554015
0000d0 09 42 b6 bd 00 18 7c be c0 eb 52 be e0 45 b5 bc
       -0.08899314 -0.2461853 -0.20597744 -0.022128046
0000e0 04 40 84 bd 42 87 96 bd 37 03 07 be 5d 7e 80 3e
       -0.064575225 -0.07350017 -0.1318482 0.25096408
0000f0 aa c7 4f 3d 93 82 fb bd 25 57 b7 3e 18 ff 2a 3d
       0.050727524 -0.122807644 0.35808674 0.041747183
000100 2a 2c 03 be dc 50 80 be 0c 22 ff bd c8 34 ed 3d
       -0.12809816 -0.2506169 -0.12457666 0.11582333
000110 2f 5b 07 3e 4b 95 8a bd c3 d8 56 be a0 cc 04 3c
       0.13218378 -0.067667566 -0.20981126 0.008105427
000120 8d 1b 77 3e 5c f1 87 3c 2e 02 b9 bd d6 92 2b 3e
       0.24131604 0.016594581 -0.09033619 0.16755232
000130 59 34 70 be e6 b8 a6 3d 4e 58 e0 bd 80 f7 24 be
       -0.23457469 0.08140735 -0.10954343 -0.16110039
000140 d6 0a 8d bd c9 92 17 3c 49 c2 7a 3e 32 de 61 be
       -0.068868324 0.009251305 0.24488176 -0.22057417
000150 ea b2 54 3e 8c b0 26 bc 80 82 68 3d a6 4a 61 be
       0.20771375 -0.010173928 0.05676508 -0.22001132
000160 df 81 00 3d d7 1d b6 bd b7 a1 b2 3e 47 e0 94 3e
       0.031373855 -0.0889241 0.34889004 0.2907736
000170 97 f9 e3 3c a6 41 10 3d cb df a2 bc 68 e6 6f 3e
       0.027828975 0.035218857 -0.019882103 0.23427737
000180 ed 45 f6 bd 8b 84 8b 3e 79 9a 5c be 48 91 88 3d
       -0.12025056 0.2724956 -0.21543302 0.06668335
000190 23 53 1f be d0 5d 47 bd 77 cd 6b 3d 1a 46 03 3e
       -0.15559058 -0.04867345 0.057568993 0.1281971
0001a0 65 6c 7d 3d 54 52 79 be 59 c0 17 3e 6b ae 2b be
       0.06187095 -0.24347812 0.14819469 -0.16765754
0001b0 a4 ae bd bd 6b 9e a4 3e 00 54 86 3e 62 e1 47 bb
       -0.09261826 0.32152113 0.26235962 -0.003049933
0001c0 da ec 28 3e 7d 69 35 3e f8 f6 49 bd 57 3a 4c 3e
       0.16496602 0.17716022 -0.049307793 0.1994413
0001d0 14 9b be 3d 44 5f 97 3d bd 38 a0 bb 92 9b 12 be
       0.093069226 0.07391217 -0.004889576 -0.14317158
0001e0 b4 6a 0f 3e 13 f1 9e bd c1 46 af 3e 3d 67 d7 3e
       0.14005548 -0.07760825 0.34233668 0.42070952
0001f0 99 a2 3d bd a2 a0 ce 3e 31 17 25 bd e5 0e 12 be
       -0.046297643 0.40356928 -0.04030532 -0.14263494
000200 1b 0c d6 bd 7d fc 8b 3e d9 a8 9a 3e 29 57 8a 3d
       -0.10451528 0.2734107 0.30206946 0.06754906
000210 04 46 8c 3e 16 6d fd 3d e7 55 18 3e 08 8e f6 bd
       0.27397168 0.12374322 0.14876519 -0.12038809
000220 32 34 fe 3d 59 3c 93 3e 95 02 80 3e ba e6 48 3d
       0.12412299 0.2875698 0.2500197 0.049048163
000230 93 90 ad 3d 84 cf 97 3e 24 a5 32 3e 7d 4d 1e 3e
       0.08474841 0.2965051 0.17445809 0.15459247
000240 cc 21 f2 bc dd b7 a4 3e 90 3b 4a 3d cc f2 09 be
       -0.029557131 0.32171527 0.04937321 -0.13471526
000250 b9 f7 15 3e 1f 36 2c 3d 11 f1 0d 3e a4 b5 4a 3e
       0.1464528 0.0420438 0.13861491 0.19795853
000260 df 98 43 3e cc 37 84 3c cf 45 c6 3e c3 a9 56 3e
       0.19101284 0.016139887 0.38725135 0.20963196
000270 49 6b 75 bd d5 7c d2 bd b4 95 69 bd f4 ce e8 bb
       -0.05991677 -0.10277716 -0.057027534 -0.007104749
000280 2a 65 4a 3e a5 13 1f 3d bc 5b 97 3e 1d 40 31 be
       0.19765154 0.038837094 0.29562175 -0.17309614
000290 61 07 18 bd 77 42 26 be fa ca 92 3d 84 50 0b be
       -0.037116412 -0.16236292 0.07167621 -0.13604933
0002a0 32 f0 b0 3d 31 32 cb bc e2 3a 51 3d 7a c8 bf 3e
       0.086395636 -0.024804207 0.051081546 0.3745764
0002b0 f3 15 1c be aa 9c a5 3e 4f 39 bd 3c 00 09 4c be
       -0.15242748 0.32346088 0.023098616 -0.19925308
0002c0 51 8c 9c bd 83 88 2f 3e 51 34 41 bd 48 5f 30 be
       -0.07643951 0.17141919 -0.047169033 -0.17223847
0002d0 98 80 ec 3d 70 0d b3 bd 78 17 b9 3d c8 3e 20 3d
       0.11547965 -0.087427974 0.090376794 0.039122373
0002e0 3f a1 12 bd 4b 9c a3 3d a5 02 b8 3c 63 75 b4 bc
       -0.035798308 0.07988795 0.022462199 -0.02202863
0002f0 b5 2f 5e be c9 3c 85 3e e3 ee 9c 3e 24 e1 57 3e
       -0.21697886 0.26022938 0.30651006 0.21081978
000300 39 8c 0a be d3 fa 90 ba bd fe a9 3c 72 5b 85 bd
       -0.13530053 -0.001106108 0.020751351 -0.065115824
000310 6f 5d 74 be 1c 17 92 bc 67 c2 41 be 12 2b 7f be
       -0.23863767 -0.017833285 -0.18921815 -0.24918774
000320 b8 8c 57 3d 5a 5f 34 be 05 25 83 bd ba 8e 70 3d
       0.052624434 -0.17614499 -0.06403545 0.058729865
000330 6e 01 45 3e a1 91 83 be 11 45 3b be d2 93 83 be
       0.19238827 -0.25697044 -0.18288065 -0.25698715
000340 75 75 24 3d d4 f5 79 be 0e 97 d0 bb 87 50 e3 3c
       0.04015108 -0.24410182 -0.0063656634 0.02774836
000350 81 34 b9 3d c3 52 f3 bd d2 a3 3b 3e 1a d0 57 be
       0.090432175 -0.1188102 0.18324211 -0.21075478
000360 51 af 9c 3d d2 a2 98 3d 78 ad 9c 3e 9c e1 c4 3c
       0.076506265 0.074529305 0.30601096 0.02403336
000370 2b d6 53 be 96 84 4a be 2a e4 f4 3d fb aa 64 be
       -0.20687167 -0.1977714 0.11957581 -0.22330849
000380 39 1c 74 3e 0f 3e a4 3c c6 ab 93 3d 24 55 3b 3e
       0.23838891 0.020049123 0.072104976 0.18294197
000390 ab 1a e6 bd 9a 6c 99 3d 92 f4 57 be b6 bc 7a be
       -0.11235555 0.07491417 -0.2108939 -0.2448605
0003a0 2f ea a6 3e 0d 86 d3 3c 62 b1 2a 3e 9d 07 c1 3d
       0.32600543 0.025820756 0.16669229 0.0942528
0003b0 93 04 c7 bc 0d c4 22 3e 5f 2e b1 bd b6 1e 2c 3e
       -0.024294173 0.158951 -0.08651423 0.1680859
0003c0 b2 f6 6d be c5 6c d9 3d 65 f4 7c 3e 08 19 f3 bc
       -0.23238638 0.10616449 0.24702604 -0.029675022
0003d0 d5 07 d4 bb 0b d8 33 3e 0b 19 71 3e 90 aa 42 bd
       -0.00647066 0.17562883 0.2354471 -0.047525942
0003e0 0e d4 4b 3d 54 a4 23 be ab c7 c0 3c 75 30 25 3d
       0.049762778 -0.15980655 0.02353271 0.040329415
0003f0 99 78 4e be 32 ed 70 3e 68 4d 7a bd 1a f8 d6 3d
       -0.20163192 0.23527983 -0.061108977 0.1049654

GRU_a.weight_hh_l0 f4 [48, 16]
000000 9d c2 5f 3e a8 ba e6 bc bc f2 21 bd 1c 8d 0a 3e
       0.21851583 -0.028165177 -0.03953813 0.13530391
000010 da 73 3c be 09 66 9a be 4c a2 21 be d6 95 38 be
       -0.18403569 -0.30155972 -0.15784568 -0.18025908
000020 53 a3 01 be 4e 9e 5e 3c 03 14 26 3d 62 e6 95 3c
       -0.1265996 0.0135875475 0.04054643 0.018298332
000030 08 87 8b 3d 47 57 cc 3d 3f ec b7 bd 4a eb 8f be
       0.068128645 0.09977584 -0.08980607 -0.281092
000040 c3 57 bc 3e 5d ee 77 3e b8 36 71 bd b1 48 29 be
       0.36785707 0.24212022 -0.058890074 -0.16531636
000050 50 ef d4 be df 01 75 3d 84 aa e9 3d af cc 93 3d
       -0.4158883 0.059816238 0.114094764 0.07216775
000060 22 de 22 bc 7f 4b 3e 3e ec 90 c2 3e 55 60 8f be
       -0.009940656 0.18583487 0.38001192 -0.28003183
000070 01 85 80 3e 73 c7 6a bc 3c 4f 43 3e 25 cd 50 be
       0.25101474 -0.014329779 0.19073194 -0.20390756
000080 0f 88 53 bd fd 88 01 3e d9 70 97 be 99 a4 d0 bd
       -0.051643427 0.12649913 -0.29578283 -0.101876445
000090 5f 60 55 be 75 68 84 be 0f ee 24 3e 05 44 cc 3d
       -0.20837544 -0.25860944 0.16106437 0.09973911
0000a0 d3 92 39 be 08 01 84 be 35 9c 5e bb 7f ec 8f be
       -0.18122415 -0.25782037 -0.0033967618 -0.2811012
0000b0 3d 6c 4f 3e d7 9c 61 be 7f 7a 90 3d f0 32 f7 3d
       0.20256133 -0.22032486 0.07054614 0.120702624
0000c0 44 8a 98 3e 67 11 c5 3e 3e 2f 3a 3d be 49 8c 3e
       0.29792988 0.3848984 0.04545521 0.2740001
0000d0 f3 76 89 bc 24 9d 80 be ca 47 55 3e f2 a5 02 3e
       -0.016780352 -0.2511989 0.20828167 0.12758616
0000e0 bd 4d 01 be fd 63 79 3c 4d 9f a0 3e 61 93 57 3c
       -0.12627311 0.015221593 0.31371537 0.013157696
0000f0 cd a4 72 3e 89 48 11 bd c8 7f 63 3e 65 dc 12 3d
       0.23695679 -0.035469566 0.22216713 0.035854716
000100 ff 19 7e 3e 84 bf 46 be 8c bb ca 3d d4 09 25 3e
       0.24814604 -0.19408995 0.09899053 0.1611703
000110 a4 76 99 be dd 59 84 be 89 6b 0f bd 2b b9 85 3e
       -0.29973328 -0.2584981 -0.035014663 0.26117834
000120 8b 96 50 be ad ad 81 3e 12 c4 11 bd 0e 46 9e bd
       -0.20369928 0.25327817 -0.035587378 -0.077282056
000130 54 71 16 3e 67 77 62 be 55 1a 8f 3d 46 5b 4d bd
       0.14691669 -0.22115861 0.06987444 -0.050135873
000140 5c b9 11 3e ac 66 65 be ae 2f a7 3d 44 90 90 bc
       0.14230865 -0.22402447 0.08163391 -0.017646916
000150 e7 9f 39 be 6d 37 5f be 8d 3e dc bd a4 2f 04 3e
       -0.18127404 -0.21798487 -0.10754118 0.12908798
000160 20 35 4e be 29 e6 92 3c 44 82 61 3e 9b 56 bc bd
       -0.20137453 0.017932015 0.22022349 -0.09196206
000170 97 0f f4 3c e1 34 9b 3d e9 07 b9 3d ad 95 31 be
       0.02979259 0.07578445 0.09034712 -0.17342253
000180 11 22 ac 3e be c1 10 3f 74 7c a4 be 1d b5 d8 3d
       0.3361974 0.5654563 -0.321262 0.105814196
000190 c6 b7 38 be e9 ac 01 be 6a 82 32 3d ba a6 b1 3e
       -0.18038854 -0.12663616 0.043581404 0.34697515
0001a0 49 f0 33 3d 57 6e 5b 3b 38 61 12 be 73 a3 6f ba
       0.043930326 0.0033482516 -0.14294899 -0.00091414823
0001b0 21 53 5f bc 3d ec 10 be 9b 9b a9 bd bf c9 f7 bd
       -0.013630659 -0.14152618 -0.082816325 -0.12099027
0001c0 d3 06 a1 3e 8e d6 bf 3e 88 4b cd be b0 25 62 bd
       0.3145052 0.3746838 -0.40096688 -0.055211723
0001d0 ef c3 8e be 3c 2b 92 3d c6 84 91 bd 25 69 76 bc
       -0.2788386 0.071371526 -0.07105403 -0.015039717
0001e0 16 54 0e be b1 14 6a 3e 10 fc 94 3e 7c e7 2f be
       -0.13899264 0.22859456 0.29098558 -0.17178148
0001f0 8e ab 8e 3e c6 7d 84 bd 88 d8 9b 3e a6 4e 8b 3d
       0.2786526 -0.06469302 0.30438638 0.068021104
000200 8d f7 3e 3e 06 eb 10 bd b8 0f d3 bc ef 28 14 bc
       0.1864912 -0.035380386 -0.025764331 -0.009042962
000210 01 a7 8a be 93 55 43 bd 88 76 7a 3d 94 e5 12 be
       -0.2708054 -0.04768903 0.061148196 -0.1434539
000220 54 be 07 be 31 b9 15 3d fc 4a 43 3e 34 bb 5e be
       -0.13256198 0.036553565 0.19071573 -0.217511
000230 27 f7 55 3d 6b 5d d4 3d ed 08 c3 bc 3c 97 1e be
       0.052237656 0.103693806 -0.023807967 -0.15487379
000240 67 85 a8 bd 4b 02 fb 3d c4 c7 7a 3a 87 43 91 bd
       -0.082285695 0.12256297 0.00095665106 -0.07092958
000250 41 58 ae be 5d b3 e0 bd f8 83 20 bd 6b a3 3d 3e
       -0.34051707 -0.10971711 -0.039188355 0.1851937
000260 d8 51 ae be d2 98 62 3e 9c 84 3e 3d c8 59 8b be
       -0.34046817 0.22128609 0.046513185 -0.27216935
000270 25 72 b0 3d f6 ab 70 bd 30 fc 8e 3e ae 93 4f be
       0.08615521 -0.058757745 0.2792678 -0.20271179
000280 ca 9b 95 bc 15 4a 02 3f b2 2a 23 be 5c 5f 63 bd
       -0.018262763 0.5089429 -0.15934256 -0.055510864
000290 f1 c3 03 be bf 65 91 bc 27 f3 84 3e 1c 58 18 3e
       -0.12867714 -0.017748712 0.2596676 0.14877361
0002a0 8f 5d 78 be 20 fd 9e 3e 94 80 26 3e 50 de f0 bd
       -0.2425444 0.31052494 0.16259986 -0.11761153
0002b0 07 ed 88 3e 4d 72 9c bd 4d 74 ea 3d e2 e0 bd be
       0.26743338 -0.07638989 0.11447964 -0.37085634
0002c0 d1 e2 d6 3d 75 97 c6 bd 65 25 c5 3d 82 a3 b4 bd
       0.104924805 -0.09696857 0.09626273 -0.08820249
0002d0 f3 33 00 3e a7 77 3e 3d fd b9 98 3e 8f 65 95 3e
       0.12519817 0.046500828 0.29829398 0.29179046
0002e0 b5 05 21 bd 8b 6c d5 3d b8 bd 38 3d db 9e 53 be
       -0.039312083 0.104210936 0.045102805 -0.20666067
0002f0 c6 24 38 bd 56 33 ae be 3e 72 7f 3d 2d 03 0c 3e
       -0.044956945 -0.3402354 0.06236481 0.13673086
000300 c7 aa c3 bd cd 2c 64 3e 0f ba 91 be 30 c4 8d bd
       -0.095540576 0.22282715 -0.28462264 -0.069221854
000310 e8 41 30 3e 4b b5 5b 3e 04 e3 6f 3e 30 5f 70 3d
       0.17212641 0.21455877 0.23426443 0.058684528
000320 2a 68 2a be 32 5a 88 be 0a 84 91 bd 51 22 be bd
       -0.16641298 -0.26631314 -0.071052626 -0.09283889
000330 b2 e3 d7 3d 43 45 96 bc 7c f5 65 3c b5 9b 71 be
       0.10541476 -0.018343573 0.014035579 -0.23594554
000340 39 ee 7f 3c 88 d8 7d 3e 47 9b ac be c7 02 3f bd
       0.015620762 0.24789631 -0.33712217 -0.046633508
000350 64 73 c9 be 0e 37 93 bb e3 7c 0a 3e ce 1f c0 3d
       -0.3934585 -0.004492647 0.13524203 0.09381066
000360 bb f5 97 bd 7b ae 6c 3e f7 e5 30 3c 79 c9 63 be
       -0.07419916 0.23113434 0.010797015 -0.22244824
000370 e9 48 f5 3d 32 50 ee be d8 32 0f 3e 02 01 8e bc
       0.11976797 -0.4654556 0.13984239 -0.017334465
000380 88 6e 5b 3e 15 07 21 3e b8 a9 02 be 1b ab 8b 3d
       0.21428883 0.15725358 -0.12760055 0.06819745
000390 c7 84 21 be 8c eb 91 be 19 39 89 bd b3 ee 84 ba
       -0.15773307 -0.2850002 -0.06700344 -0.0010141939
0003a0 18 ee c0 bd f1 35 ca 3e 18 08 af 3e b2 94 37 be
       -0.09420413 0.3949428 0.34185863 -0.17927817
0003b0 47 ea 85 3d 22 05 2b be eb 35 98 3e 51 09 fd bc
       0.065388255 -0.16701177 0.29728636 -0.030888231
0003c0 d5 48 67 3d a5 b2 78 3e 0a 28 81 be 9d de 20 3e
       0.056465942 0.24286897 -0.2522586 0.1570992
0003d0 2d 42 20 be 42 81 f9 bd 5e 16 08 3e 7e 76 ad 3e
       -0.15650244 -0.12182857 0.13289782 0.33879465
0003e0 40 5b a2 b6 d3 cf 38 bd 54 48 74 3e d3 4b 01 be
       -4.838599e-06 -0.04512007 0.23855716 -0.12626581
0003f0 e1 d6 8f 3e fb f4 33 be fc f0 59 3d e7 fb 37 3d
       0.28093627 -0.17573921 0.053208336 0.044917967

GRU_a.bias_ih_l0 f4 [48]
000000 50 8a 82 3e ed 41 ba 3e 60 a3 17 be fa 63 21 3d
       0.2549615 0.36378422 -0.14808416 0.039401986
000010 69 5a 10 bd f4 76 9c 3d 14 22 a3 3e bc d2 4b 3e
       -0.03524247 0.07639876 0.31861937 0.19904608
000020 d6 df 14 be e0 39 8d 3e 03 45 f0 3e 91 e4 8d bd
       -0.14538512 0.27583218 0.46927652 -0.06928361
000030 6b 84 ed 3d 20 a5 6e 3e 37 14 82 3d 6c 42 ea 3d
       0.11597522 0.23305178 0.06351512 0.1143845
000040 0e 83 48 be 4d f6 ea be a8 e8 df 3d 57 3b a6 3c
       -0.19581243 -0.45891038 0.109330475 0.020291967
000050 9b 05 da bd 4b 93 2f bd c5 52 96 bd b2 fe 14 bc
       -0.106456004 -0.04286508 -0.07340006 -0.009093927
000060 e8 a4 94 be ad b7 79 be 83 fb cd bc 71 c5 d5 be
       -0.29032063 -0.24386473 -0.025144344 -0.41752198
000070 2b 4f 08 3d 8f 72 84 be b2 08 60 bd a7 1c 37 be
       0.033278625 -0.2586865 -0.054695792 -0.17882024
000080 d6 3e b9 3d bb 40 55 3e f6 cb b4 bd d5 4c 68 bc
       0.09045188 0.20825474 -0.08827965 -0.014178474
000090 63 fc 18 3e 82 c1 91 bd 95 68 db 3c 6a 84 a5 3d
       0.14940028 -0.07116987 0.026783267 0.080818966
0000a0 65 98 44 3a 0a bb 58 3e b6 5c 9b 3d ea e0 9e be
       0.0007499515 0.211651 0.075860426 -0.3103097
0000b0 13 f1 9c 3b a3 79 1d bd 9e 66 6d 3d c8 5e b1 bd
       0.0047894805 -0.03844608 0.05795919 -0.08660656

GRU_a.bias_hh_l0 f4 [48]
000000 0c 11 56 3d ca fd 43 bc ce f6 1e 3d 50 35 19 3c
       0.05226235 -0.0119623635 0.03880959 0.00935109
000010 a4 42 91 bd 70 9a 9a 3e 5f 45 70 3c cb 9c 97 3e
       -0.07092789 0.3019595 0.014664977 0.2961181
000020 8f 7d 8f 3e 69 ab 1b 3e f9 a2 41 3e 2e dc 41 3e
       0.2802548 0.15202107 0.18909825 0.18931648
000030 7b 71 54 be 51 c9 a2 bd ca 6f ab 3e b6 10 a1 3e
       -0.20746414 -0.07948554 0.33483726 0.31458062
000040 da 12 95 3d 4f 63 89 be df 5e 33 3e 0c 39 1e be
       0.07278986 -0.2683358 0.17516659 -0.15451449
000050 c6 94 6c be df 90 8a be 43 f9 8a be f6 e7 cd be
       -0.23103628 -0.27063653 -0.27143297 -0.40216035
000060 10 6b bd be 07 15 d8 bd ac 73 ce be 3a 3c 12 bb
       -0.36995745 -0.10550886 -0.40322626 -0.002231373
000070 f2 4f 30 3d 94 0b a1 bd 1f 38 5c be b9 50 ce bd
       0.04304499 -0.078635365 -0.21505783 -0.100739904
000080 c9 4b 1f be 33 a6 c7 3e 9c 38 82 be 78 a9 11 be
       -0.15556253 0.38993987 -0.25433815 -0.14224803
000090 a0 16 5b be 17 c7 8a be b2 24 f7 bc a2 34 7e 3e
       -0.2139535 -0.27105018 -0.030168865 0.24824765
0000a0 e0 0b a2 be 8e db 1e 3e 9f e1 d5 3e 1f f3 16 be
       -0.31649685 0.15513441 0.41773698 -0.14741181
0000b0 a8 85 df 3c bc 0d f9 3d ea 3e b9 3e 4b 7e 92 be
       0.027285412 0.12160823 0.36180812 -0.2861198

linear_a.weight f4 [4, 16]
000000 0a 97 99 bf 0b 9a 5f 3f a3 10 01 be 0d da 5b bf
       -1.1999218 0.87344426 -0.12604003 -0.85879594
000010 c7 8c 07 be 7a e3 64 3e 1a fa 65 bf f2 bc 1b 3f
       -0.13237296 0.223524 -0.8983475 0.6083518
000020 ad 5b b2 3c f1 f6 46 3f e3 8b 43 3f a0 93 54 3c
       0.02177223 0.7772055 0.76385325 0.01297465
000030 10 ac 5e bf 09 37 79 3e 42 22 1c 3f 8e 72 17 be
       -0.86981297 0.243374 0.60989773 -0.14789793
000040 b6 b5 9f be ca b9 ff be 6f 89 77 be 61 35 5f be
       -0.31193322 -0.49946433 -0.2417352 -0.21797706
000050 d7 8d 4c 3a 4e fb 15 be d2 ea b2 be a9 57 17 bf
       0.0007803118 -0.14646646 -0.3494478 -0.59118134
000060 5b 19 83 bd 83 1d 90 be 1d b5 14 bf 26 d1 65 3e
       -0.064013205 -0.28147516 -0.58088857 0.22443065
000070 4f 94 b5 be cf 95 64 3d 5e e2 28 bf b4 3d 87 3d
       -0.35464713 0.05580693 -0.6597041 0.06603566
000080 4e 89 ac 3f 85 b7 0b bf 97 4e 4f bd 9c dc 92 3f
       1.3479402 -0.54576904 -0.05061206 1.1473575
000090 d1 b9 39 3e 36 da 70 be 3a 74 9a 3f 4f 0e c3 3d
       0.1813729 -0.23520741 1.206672 0.095242135
0000a0 ca 67 44 be e1 30 0c be 17 9f 95 bd 18 5a 49 3d
       -0.19180217 -0.13690521 -0.073057346 0.049158186
0000b0 13 71 aa 3f cd c2 7d bd 64 d3 eb bc c6 a2 5f be
       1.3315758 -0.061953355 -0.028787322 -0.21839437
0000c0 4e 7d 75 bc 3b 80 ed be c2 80 7f 3c 46 d2 d8 be
       -0.014983488 -0.46386895 0.015594663 -0.42347926
0000d0 62 97 25 3e 48 1d f6 3d 3b e9 24 be 12 17 fc be
       0.16171029 0.12017304 -0.16104595 -0.4923635
0000e0 f9 d9 31 be 00 e5 45 bf 52 bf 2c bf 00 f8 08 3d
       -0.17368306 -0.7730255 -0.6747943 0.033439636
0000f0 ec 4b d5 be 5a ba ee bd 05 b8 2f bf 16 a9 78 be
       -0.41659486 -0.116566375 -0.68640167 -0.24283251

linear_a.bias f4 [4]
000000 f7 26 d3 3e ce 7d 5d be 82 44 62 3d c3 5d 31 bf
       0.41240665 -0.21630022 0.055241115 -0.69283694

conv_v_0.weight f4 [16, 7, 3, 3]
000000 a6 f6 af 3c e9 38 b7 3d c3 74 25 be 9b 60 02 3e
       0.021479916 0.089464016 -0.16157822 0.12732165
000010 30 b5 d8 3d a0 30 85 3d 1a bd 6b be 92 06 40 be
       0.10581434 0.06503415 -0.23021355 -0.18752506
000020 25 ea 16 3d aa eb 5c 3d 02 5a 4a 3c 82 0c 5d bd
       0.03684439 0.053935684 0.012350561 -0.053967007
000030 9d 3b 8f 3d 5b 5e e1 3c bc 36 dd bb 7b 4f 2f 3b
       0.06993792 0.027510813 -0.0067509096 0.0026750255
000040 e5 f1 b4 bc b8 fb e5 3d 57 c2 8d be d3 80 a5 be
       -0.022088 0.11229652 -0.27687332 -0.32324848
000050 ca 3a cf bc 23 d9 8a 3d d6 4e 1d 3c 16 a7 4d 3d
       -0.025296587 0.06779697 0.0096013155 0.050208174
000060 f4 fb 69 be ef 84 2f be 95 88 a4 be 37 d9 ce 3d
       -0.22850019 -0.17140554 -0.32135454 0.10100024
000070 6a 96 da 3d 08 00 06 3e 7e 1e c7 3d 2b cc 8e bd
       0.106732205 0.1308595 0.09722613 -0.06972536
000080 72 3c 4e 3e 94 5c a8 3b 7f fc 42 bc 82 83 85 bd
       0.20140246 0.0051379893 -0.01190102 -0.06519224
000090 7a 58 d4 bd 31 29 d6 bd 2f 84 6d bd a8 b7 dd bb
       -0.10368438 -0.104570754 -0.05798739 -0.0067662783
0000a0 f8 17 eb 3d e4 bd 49 3d b3 71 81 3c f3 c2 dd bd
       0.11479181 0.04925336 0.015801286 -0.10828199
0000b0 da a9 39 bd a0 bd 0c 3c 2d ca a4 bd dc de ec bd
       -0.045328 0.008590132 -0.080463745 -0.115659446
0000c0 21 68 ea bb 70 1b 54 bd 1a b8 dc bd 65 40 a8 3d
       -0.0071535264 -0.05178398 -0.10777302 0.08215407
0000d0 80 21 b4 3d 66 71 8b 39 ab e7 00 be 4b d7 4a be
       0.08795452 0.00026596634 -0.12588374 -0.1980869
0000e0 3c f2 37 be b9 d1 86 bd 40 97 fb bc 93 d8 4b be
       -0.17963499 -0.0658297 -0.03071177 -0.19906835
0000f0 bb 92 43 be ca 10 5e be 5a b2 1e bd ff 19 8e 3e
       -0.19098942 -0.21686092 -0.038744308 0.27754208
000100 ff 0a 69 3d 03 e8 47 be d8 41 32 3c 32 86 e8 bd
       0.056895252 -0.19522099 0.010879956 -0.11353721
000110 46 d2 17 3e 67 28 51 3e 4b b7 c4 be 23 e4 94 bd
       0.14826307 0.20425569 -0.3842109 -0.07270076
000120 4d 6b 15 be c4 ba 90 bd 12 40 59 3d bb f0 09 3e
       -0.14591713 -0.07066873 0.053039618 0.13470738
000130 56 e9 c7 bd 28 f2 2f be a9 9d 8f bc 07 0f 21 be
       -0.09761302 -0.17182219 -0.017531233 -0.15728389
000140 30 91 76 bb 3d fc 7d bc 3e 46 a1 be c4 1a 7b 3d
       -0.003762316 -0.015502033 -0.31498903 0.061304823
000150 ce 61 46 3e 4d 90 57 3c 3f bb 9d be 8d f4 6e bd
       0.19373247 0.013156963 -0.3080692 -0.05833869
000160 6c cd 39 bd 76 99 df bd ea fb ca 3d 5f 9a ab be
       -0.04536192 -0.10917942 0.0991133 -0.33516213
000170 19 7a 5c bd 01 52 5e 3e 75 b0 df 3c e9 4b 29 3e
       -0.05382738 0.2171097 0.027305821 0.16532864
000180 da 42 ae bc 79 15 92 3e 6f fa 17 3e 34 c1 da bd
       -0.021272112 0.28532007 0.14841627 -0.10681382
000190 1c cd 9d 3d 4a 05 62 3d 6d e7 24 3d b2 22 7d 3d
       0.07705137 0.055180825 0.040259767 0.061800666
0001a0 7a 87 6c 3d 6a f6 d1 bd 5e 00 ce bb 7c 77 8a bd
       0.057746388 -0.10252078 -0.006286665 -0.06761071
0001b0 fc 5d 98 bc e8 c1 1e be 8e 63 40 bd 79 49 5d 3d
       -0.018599503 -0.15503657 -0.046969943 0.054025147
0001c0 42 13 5c 3c 53 7e a2 3d 03 24 88 3d 35 97 e9 bd
       0.013432326 0.07934251 0.06647494 -0.114057936
0001d0 03 74 9f 3d f1 08 05 be d4 df c2 bc f9 7d 13 3b
       0.07785799 -0.12991692 -0.02378837 0.0022505505
0001e0 8a f3 5c 3d 7f 57 79 3d ec b7 58 3d 13 77 c1 bd
       0.053943194 0.06087446 0.052909777 -0.0944654
0001f0 fe 56 e1 bd e8 21 cc bd 07 cb 00 3d a8 af 5c bd
       -0.110029206 -0.099674046 0.031443622 -0.053878456
000200 65 b3 e6 3c 68 4d 33 be 57 0b bb 3c 6f ff 09 bd
       0.028161714 -0.17509997 0.022832556 -0.033690866
000210 5e a3 52 bd cc 39 69 3e 0f f8 72 ba f6 c5 02 3c
       -0.05142533 0.22775954 -0.0009268531 0.007981768
000220 13 26 9e 3d ec ee b6 be e2 e8 09 3d a7 6b 3b 3e
       0.07722106 -0.35729158 0.03366936 0.18302785
000230 c5 a7 2c be 26 90 96 3d fe d1 a4 3d 67 a4 52 3d
       -0.16860874 0.07351713 0.08047865 0.051426318
000240 3d 26 9f be 1d 53 63 3e 66 3d 9b 3d 20 cd fa bc
       -0.3108386 0.22199674 0.0758007 -0.03061539
000250 aa ca 25 be 4f e7 73 be 9f 5b 2f be 92 48 25 be
       -0.16190591 -0.23818706 -0.17124794 -0.16140965
000260 f8 9e c8 3d cd 43 98 3d cf e8 fa bd 46 3e 89 bc
       0.09795946 0.07434807 -0.12251436 -0.016753327
000270 51 0c 14 3c 70 e4 65 3d 21 b5 6e 3e ed 20 28 be
       0.00903614 0.056126058 0.23311283 -0.1641881
000280 6c 1c 52 be 4b 85 3c 3e 78 43 67 3d c2 fb 84 3d
       -0.20518655 0.18410222 0.056460828 0.064933315
000290 54 84 ab 3d 92 81 05 3d 2d 2b df bd dd 40 00 3e
       0.08374849 0.03259427 -0.10896907 0.12524743
0002a0 05 11 b4 bd 49 51 89 bd 75 ca 89 bd 7a f2 d5 3c
       -0.08792309 -0.06704957 -0.06728069 0.026116598
0002b0 13 20 8d 3d d3 92 ea bd c2 94 06 3c ee 6c ff 3d
       0.06890883 -0.11453786 0.008214178 0.124719486
0002c0 10 3b a1 bc 23 20 66 bd 3e 1c 62 bc 1c 9c 70 3d
       -0.019681484 -0.05618299 -0.013800679 0.058742628
0002d0 05 bd 70 bc 6a 87 bf bd 28 52 02 be 30 c5 5a bd
       -0.014693503 -0.09352 -0.12726653 -0.05341071
0002e0 28 c1 1b be f9 38 2c be 6f 79 9a bc a8 b1 43 3b
       -0.15210402 -0.16818608 -0.018856732 0.002986053
0002f0 c2 ac e0 bd 85 13 ab bc a1 d1 cf bd 22 02 5a bd
       -0.10970451 -0.020883331 -0.101474054 -0.05322469
000300 ae 43 3a 3e 83 a6 70 bc e2 77 ca bd 29 cb 72 3d
       0.1818988 -0.014688137 -0.09886147 0.05927578
000310 81 3e 9a bd 1d dd f6 bd 76 96 25 3d f6 fa d6 bd
       -0.07531453 -0.12053893 0.040426694 -0.10497086
000320 53 9f 67 bd d9 3c c9 3d 98 6a c7 3c 96 92 6a 3e
       -0.056548428 0.09826059 0.02434282 0.2290748
000330 ba bb 69 3d 4f 84 55 be 95 53 a4 be 46 5c 8e 3d
       0.057063796 -0.20851253 -0.32095018 0.069511935
000340 e9 a6 21 bd 2d 5c 29 be f2 e4 01 3d 68 b3 84 be
       -0.03946582 -0.16539069 0.03171248 -0.25918126
000350 c4 82 6b be e9 58 10 3e fe 0a fc 3d c3 67 8b 3c
       -0.22999102 0.14096417 0.12306784 0.01701725
000360 dd f4 cd bd 5a 82 7a bd 82 0a 31 3e f2 9c 7e bd
       -0.100564696 -0.06115947 0.17289165 -0.062161393
000370 5f 9a 37 3e 3b 06 94 be cf b0 f6 bc 14 ef 6e 3d
       0.17929982 -0.28911003 -0.030113606 0.05833347
000380 c0 49 45 3e b8 1c 95 3d b4 e7 d4 3c 62 1c 48 bd
       0.19266415 0.07280868 0.02598939 -0.048855193
000390 46 3e 5a bd 16 1c d2 3d f9 af e1 3d dd 1c 9e 3d
       -0.053282045 0.10259263 0.11019892 0.07720349
0003a0 e5 ea 87 3d cd dc a1 bc e4 26 83 3d 00 93 92 3d
       0.066365995 -0.019758606 0.06403902 0.07156944
0003b0 cb 28 d0 bd 64 26 84 3d ea 22 9d bc 03 42 d1 3d
       -0.10164031 0.06452635 -0.019181687 0.10217669
0003c0 50 9c 7c 3c dc 37 f0 bd 24 6c 7d bc 47 00 a3 bd
       0.015418127 -0.11729404 -0.015467677 -0.07959037
0003d0 94 15 13 be f2 b9 07 be 47 37 fa bd f5 e4 94 3d
       -0.143637 -0.13254526 -0.122175746 0.072702326
0003e0 c6 45 0f 3c a5 98 e2 bd 50 45 13 be 0f e6 9e bd
       0.008744663 -0.11064271 -0.1438191 -0.07758724
0003f0 58 42 e7 3d ee 5b 87 3e aa f2 0a 3b bc cc bf bd
       0.11291951 0.26437324 0.0021201768 -0.09365222

conv_v_0.bias f4 [16]
000000 4c f5 45 3b 62 db 0b 3d 58 b8 1c 3d 9c 2d 2c bd
       0.0030206023 0.034144767 0.03826174 -0.042035684
000010 a7 e9 d7 bd d9 94 6b bd a7 d5 0e bd d1 9a 9d bd
       -0.105426125 -0.057515 -0.034871724 -0.076955445
000020 7a 92 36 bd e0 3c 4a 3d a3 73 c7 3d cf 67 90 3c
       -0.044573285 0.04937446 0.09738853 0.017627625
000030 00 74 73 bd 25 8f b9 3c 09 7e 1c be 2d 1c 14 bc
       -0.059436798 0.022651264 -0.15282454 -0.009039921
