league/checkpoints/mfos_seeds/new_self_7x7_63/1000_0.pth (torch, 671385 bytes, 105 tensors)

conv_a_0.weight f4 [16, 7, 3, 3]
0.13067305 -0.007269881 -0.057764787 0.15498467 -0.050157305 -0.053305615 0.13909236 -0.016370479
-0.090261064 0.045860544 -0.049112592 -0.06981614 0.0669665 0.102478445 -0.07649878 0.17687698
0.035340376 0.06505671 0.19437909 0.075726256 0.21744305 0.09056584 0.045610085 0.052163474
0.18581094 0.012533312 0.0022761591 -0.0066066976 0.191824 -0.13692431 -0.059023295 0.008009669
0.055324383 -0.015989762 0.0069283294 -0.020854123 0.08293925 0.04976895 0.097783566 -0.13176823
0.10824969 -0.0032895287 -0.06339845 -0.051590778 0.0030573052 -0.13082616 0.07192045 -0.060165975
-0.0297975 0.0046219677 -0.047670677 -0.1538963 0.08785545 -0.15442011 0.07738787 -0.0076289675
-0.008772279 0.11134779 0.16745347 -0.07651106 -0.014699588 0.012230758 0.0076042623 0.16312222
0.0050793346 -0.04035597 0.15807402 0.009100176 -0.0073394035 0.2024415 0.05758159 -0.12685645
-0.028380098 0.1108416 0.07453441 0.11595758 0.0017293952 0.01880473 0.18031394 0.0037034764
0.0734145 0.18774253 -0.022653762 0.19139628 0.023446288 0.0933046 0.12087243 0.1970714
-0.045176268 0.021065362 0.023167169 0.11507201 0.20219103 -0.031239172 -0.0334463 -0.099649645
-0.03000221 0.004021982 0.0562042 -0.06430827 0.13920096 0.048933 -0.05462604 0.12935401
0.10582987 -0.040805224 0.119556196 -0.021683596 -0.001742209 -0.060655694 -0.00908316 -0.04374022
0.0029868905 -0.043809004 -0.18313175 0.03935318 -0.038650785 0.011161852 0.123045206 0.11856853
0.15203953 -0.034231123 0.074487746 0.13952373 0.15021293 0.07632701 0.11471873 -0.007876791
-0.1489099 -0.006980053 0.1082058 -0.09369491 0.120338544 -0.0051246295 -0.19053194 0.011050029
0.0075000427 0.15865171 0.14865306 0.029675111 0.08470168 0.045421768 0.07828335 0.05351391
0.048295762 0.07955973 -0.022335257 0.029945172 -0.057484012 -0.023047183 0.15368475 0.0074466746
0.0791162 0.015456978 0.072282344 0.011988696 0.013557007 0.14778793 0.06228701 -0.1078228
-0.12120106 -0.061361577 0.003935414 -0.030326737 0.12508906 0.016352952 0.016651912 0.07858467
-0.014810855 -0.058381766 0.11409507 0.024187168 -0.009248247 -0.02571924 0.045986664 -0.03175971
-0.07761528 -0.05439725 -0.082378834 -0.11188574 0.17107765 -0.04631492 -0.0070802127 0.07242583
0.1840194 -0.060946155 0.107973695 0.17029114 0.011489176 0.16612697 -0.05247685 0.042158652
0.048794907 0.048941668 -0.17293143 0.14102922 -0.0048355293 -0.117562376 -0.008383479 0.013266308
0.18029538 0.086757146 0.0011665027 0.041892003 0.2016169 0.107813165 0.16624615 0.13474609
0.056183517 0.17598347 -0.044412848 0.0091883475 -0.07897088 0.08353932 0.07705946 0.007787694
0.17714234 -0.02787079 0.12296155 -0.13416556 0.12849273 -0.1519004 0.012380042 0.09994071
-0.060581077 0.09310583 -0.018002598 -0.060555648 -0.043619063 0.12972455 0.14796978 0.0103403935
0.15985471 0.030312773 -0.041819543 -0.07316159 -0.01654357 -0.10750049 -0.1238184 0.06917093
-0.053050384 -0.11964876 0.08752679 0.05864131 0.16518773 0.11042229 0.18259215 0.11855218
0.0168112 0.03734842 0.20319897 0.16729864 0.17635438 0.10612691 -0.009328429 0.22804658
00000000: 28cf 053e 2f38 eebb c59a 6cbd 4db4 1e3e
00000010: bf71 4dbd fd56 5abd 3a6e 0e3e 621b 86bc
00000020: cbda b8bd 44d8 3b3d 492a 49bd c4fb 8ebd
00000030: bb25 893d 38e0 d13d 64ab 9cbd 3d1f 353e
00000040: 12c1 103d 743c 853d 500b 473e 5e16 9b3d
00000050: 64a9 5e3e 957a b93d a4d1 3a3d 5ea9 553d
00000060: 3945 3e3e 8558 4d3c 9d2b 153b ff7c d8bb
00000070: 836d 443e e335 0cbe 69c2 71bd fd3a 033c
00000080: d29b 623d f6fc 82bc 0a07 e33b 44d6 aabc
00000090: 0edc a93d 87da 4b3d c042 c83d 40ee 06be
000000a0: 03b2 dd3d 2295 57bb 0cd7 81bd da50 53bd
000000b0: 125d 483b 4bf7 05be 074b 933d 9970 76bd
000000c0: e319 f4bc e073 973b 5442 43bd fe96 1dbe
000000d0: 8fed b33d 4e20 1ebe 887d 9e3d 6bfc f9bb
000000e0: 9bb9 0fbc 4f0a e43d ec78 2b3e d5b1 9cbd
000000f0: 8ad6 70bc 8463 483c 2d2d f93b 8309 273e
00000100: 8c70 a63b 4d4c 25bd 28de 213e e818 153c
00000110: 617f f0bb d34c 4f3e acda 6b3d a8e6 01be
00000120: 617d e8bc ec00 e33d 7fa5 983d 2b7b ed3d
00000130: e0ac e23a 610c 9a3c 38a4 383e 06b6 723b
00000140: 575a 963d 943f 403e 6294 b9bc 63fd 433e
00000150: 6e12 c03c 7b16 bf3d f78b f73d 16cd 493e
00000160: c00a 39bd 4491 ac3c 13c9 bd3c e0aa eb3d
00000170: 2a0b 4f3e 4be9 ffbc fdfe 08bd 1d15 ccbd
00000180: 32c7 f5bc d5ca 833b 6036 663d 0eb4 83bd
00000190: b28a 0e3e f86d 483d 8ebf 5fbd 6175 043e
000001a0: 55bd d83d 6123 27bd e1d9 f43d cca1 b1bc
000001b0: d55a e4ba 1b72 78bd 89d1 14bc f228 33bd
000001c0: b5bf 433b 1271 33bd e486 3bbe cd30 213d
000001d0: 4950 1ebd 33e0 363c 20ff fb3d 0fd4 f23d
000001e0: 40b0 1b3e ef35 0cbd 088d 983d 4fdf 0e3e
000001f0: 6bd1 193e 5651 9c3d a7f1 ea3d a80d 01bc
00000200: d67b 18be eeb8 e4bb 019b dd3d 1ee3 bfbd
00000210: 0e74 f63d 82ec a7bb ce1a 43be 2e0b 353c
00000220: ebc2 f53b 9875 223e 8238 183e 3819 f33c
00000230: 1378 ad3d 2d0c 3a3d 0553 a03d 6731 5b3d
00000240: c7d1 453d 36f0 a23d 6ef8 b6bc 944f f53c
00000250: 5b74 6bbd 72cd bcbc 895f 1d3e 3c03 f43b
00000260: ad07 a23d 443f 7d3c c408 943d 3c6c 443c
00000270: 351e 5e3c b855 173e aa20 7f3d 33d2 dcbd
00000280: 4338 f8bd 4756 7bbd a5f4 803b c76f f8bc
00000290: 5917 003e a0f6 853c 9769 883c 00f1 a03d
000002a0: 3aa9 72bc b821 6fbd adaa e93d 2b24 c63c
000002b0: f685 17bc 28b1 d2bc 835c 3c3d 7816 02bd
000002c0: c3f4 9ebd a7cf 5ebd 3cb6 a8bd 5a24 e5bd
000002d0: fb2e 2f3e b7b4 3dbd 2101 e8bb fe53 943d
000002e0: 956f 3c3e ada2 79bd 5021 dd3d cd60 2e3e
000002f0: 193d 3c3c 301d 2a3e f7f1 56bd 8dae 2c3d
00000300: 2bdd 473d 0f77 483d f014 31be f769 103e
00000310: 5c73 9ebb 8bc4 f0bd dc5a 09bc ee5a 593c
00000320: 5a9f 383e bbad b13d 56e5 983a f396 2b3d
00000330: a974 4e3e 26cd dc3d 6e3c 2a3e e1fa 093e
00000340: b020 663d 0335 343e 3fea 35bd b98a 163c
00000350: 7cbb a1bd aa16 ab3d 5ad1 9d3d ea2f ff3b
00000360: cd64 353e 4851 e4bc 44d3 fb3d b262 09be
00000370: 9993 033e c78b 1bbe a9d5 4a3c b7ad cc3d
00000380: dd23 78bd 45ae be3d 2f7a 93bc 3309 78bd
00000390: e7a9 32bd 83d6 043e 6485 173e c16a 293c
000003a0: f4b0 233e 7e52 f83c f84a 2bbd bed5 95bd
000003b0: 6286 87bc 3829 dcbd 8094 fdbd 7da9 8d3d
000003c0: 5c4b 59bd 690a f5bd 3f41 b33d df31 703d
000003d0: f926 293e 1525 e23d 70f9 3a3e 7ccb f23d
000003e0: a4b7 893c a8fa 183d 6413 503e 5650 2b3e
000003f0: 3e96 343e 1159 d93d 44d6 18bc 0b85 693e

conv_a_0.bias f4 [16]
0.037425347 0.11789216 0.10569996 0.11341998 0.054910425 0.013631107 -0.049143657 0.040231757
0.010778978 -0.005229313 0.0153689915 0.01614888 -0.04848587 0.023628168 0.029868705 -0.12690371
00000000: 524b 193d 7271 f13d 3879 d83d bc48 e83d
00000010: c1e9 603d 0255 5f3c dc4a 49bd 0eca 243d
00000020: 4f9a 303c a85a abbb 39ce 7b3c a84a 843c
00000030: 1f99 46bd dc8f c13c 37af f43c 0cf3 01be

conv_a_1.weight f4 [16, 16, 3, 3]
0.04962238 0.04483536 0.08812484 -0.01111433 0.09172592 0.039103005 0.019200949 0.09562059
-0.022840114 -0.051114395 -0.025619682 -0.039134316 -0.038591478 0.08564898 0.0070876703 -0.013129185
0.112030655 0.020314824 0.044690337 0.036015823 -0.04561685 0.06318686 0.012753012 -0.00065660593
-0.055188283 0.01291125 -0.030529482 0.09428586 0.082458004 -0.039532527 -0.013575051 0.0073589017
-0.05297424 0.10099546 -0.024640998 0.033498216 -0.032575287 0.0562164 -0.015361577 -0.037357274
-0.036477122 -0.07511995 0.008852008 0.05299319 0.058612354 -0.06266536 -0.10047794 0.018669298
0.0008964518 -0.1324327 -0.09960773 -0.03639931 0.019260952 -0.030845689 0.1376141 0.10164092
0.062073126 0.017672293 0.15742804 0.023425518 0.088879384 0.015621027 -0.012150658 0.09630782
0.04774353 -0.022586845 0.027472053 0.013459206 -0.031404626 0.036208745 0.08469209 0.06910404
0.100543536 0.09353196 -0.004273102 -0.030843826 0.007975762 0.013797061 -0.031581305 0.12062071
-0.004247038 -0.009673439 0.079824425 0.033931643 0.14592935 0.056157093 0.07231626 0.062341362
-0.0055262055 0.115228824 0.108725786 0.05249743 0.022940697 0.04489533 -0.011481068 0.07333087
0.12866637 0.07363016 0.085674174 0.005229836 -0.026566628 -0.033058755 -0.016998112 0.03052472
0.025489284 -0.055018038 0.04956929 0.07583032 0.08216543 0.07740883 0.03806658 0.085349225
0.12971419 0.009769729 0.009792143 0.015858278 0.04223664 0.15785636 0.07118733 0.09079543
0.01960862 0.069042355 0.057649985 0.108348064 0.019896237 -0.019064251 0.048314422 0.07603099
0.01803239 0.03183748 -0.060523175 -0.06724081 -0.08931853 0.018652046 -0.07465469 0.02742963
0.05162911 0.021384662 0.05013644 0.027249094 0.017918538 0.08174499 0.062339533 -0.030121727
-0.020483159 0.12679712 0.025682604 -0.028971564 0.0868239 0.052395638 -0.025680602 0.050522506
0.06401926 0.011420887 0.0016957152 0.12016617 0.14225805 0.030108117 0.11820648 0.010575562
-0.009392111 0.09372876 -0.0305376 0.10614152 -0.019717827 0.13422178 0.013915614 0.09496152
-0.015644446 0.06123988 0.107451476 0.07712124 0.058606233 0.02826718 0.059512973 0.05774125
0.076810025 0.00745002 0.0934958 0.09934651 -0.045583695 0.07067919 0.111534946 0.08778813
0.0026391377 0.11355229 0.017327938 0.023743996 0.015399578 0.13342194 0.09896755 0.088614576
0.062009707 0.07933695 0.12438852 0.020716177 0.06221699 0.05567788 0.046351537 0.12481049
-0.03100211 0.13726003 0.13013187 0.11475473 0.060774796 -0.007911108 0.07898778 0.12629654
0.116794586 0.12767957 0.05309635 0.006070181 0.1439355 0.09205394 0.030631067 0.024254926
0.06398384 0.057362203 0.010283769 0.062059384 0.04080723 0.10399168 -0.00044003112 0.0713432
-0.01071775 -0.007291183 -0.01537011 0.01999611 0.03729554 -0.0018528857 -0.0071607856 -0.03788425
-0.03245457 -0.059422474 0.03439543 0.038692378 0.14101838 -0.0035073527 0.026606547 0.0595843
0.077512875 0.0040718447 -0.008481103 0.018566215 -0.022756359 0.002257279 -0.045665223 0.06605259
-0.06613511 -0.034033727 0.049357496 0.046926267 0.17093115 0.17626396 0.04034865 0.12910053
00000000: d640 4b3d 48a5 373d cc7a b43d e118 36bc
00000010: cdda bb3d 792a 203d 4f4b 9d3c bad4 c33d
00000020: 311b bbbc 545d 51bd 5ee0 d1bc 4e4b 20bd
00000030: 1912 1ebd bc68 af3d b03f e83b cb1b 57bc
00000040: 5470 e53d 466b a63c 370d 373d 5485 133d
00000050: bcd8 3abd 1d68 813d 02f2 503c 1420 2cba
00000060: 1c0d 62bd b589 533c f718 fabc f218 c13d
00000070: bedf a83d dcec 21bd e469 5ebc f122 f13b
00000080: 84fb 58bd b5d6 ce3d ebdb c9bc 6d35 093d
00000090: aa6d 05bd 2b43 663d 20af 7bbc f103 19bd
000000a0: 0969 15bd 7dd8 99bd 0308 113c 630f 593d
000000b0: 8213 703d b256 80bd 61c7 cdbd 5bf0 983c
000000c0: ddff 6a3a 709c 07be 23ff cbbd 7117 15bd
000000d0: 25c9 9d3c 19b0 fcbc b6ea 0c3e 1d29 d03d
000000e0: 6440 7e3d 7cc5 903c d134 213e dfe6 bf3c
000000f0: 6506 b63d 56ef 7f3c 8e13 47bc 093d c53d
00000100: b88e 433d 0c08 b9bc 120d e13c 0084 5c3c
00000110: 23a2 00bd 9f4f 143d 0c73 ad3d 6b86 8d3d
00000120: c5e9 cd3d af8d bf3d 6105 8cbb 31ac fcbc
00000130: c5ac 023c 110d 623c 665b 01bd fe07 f73d
00000140: bd2a 8bbb 587d 1ebc fd7a a33d e8fb 0a3d
00000150: 816e 153e fb04 663d 8c1a 943d a859 7f3d
00000160: 2c15 b5bb 17fd eb3d a0ab de3d 8c07 573d
00000170: 21ee bb3c 2ae4 373d 171b 3cbc 7f2e 963d
00000180: 1ec1 033e 69cb 963d f175 af3d 0b5f ab3b
00000190: 42a2 d9bc 9e68 07bd a03f 8bbc fa0e fa3c
000001a0: e7ce d03c 985a 61bd 2b09 4b3d ed4c 9b3d
000001b0: 5946 a83d 8588 9e3d b4eb 1b3d 93cb ae3d
000001c0: ccd3 043e 3711 203c 396f 203c 38e9 813c
000001d0: 5400 2d3d 19a5 213e aaca 913d f4f2 b93d
000001e0: 42a2 a03c 1466 8d3d 6422 6c3d 97e5 dd3d
000001f0: 6ffd a23c a22c 9cbc 58e5 453d 23b6 9b3d
00000200: aab8 933c 0468 023d 26e7 77bd 8db5 89bd
00000210: a2ec b6bd 2dcc 983c 8fe4 98bd 1ab4 e03c
00000220: 0c79 533d e32e af3c de5b 4d3d 7e39 df3c
00000230: e6c9 923c eb69 a73d bd57 7f3d d7c1 f6bc
00000240: 4ccc a7bc 1bd7 013e 5364 d23c c655 edbc
00000250: bbd0 b13d cf9c 563d 2060 d2bc b0f0 4e3d
00000260: 881c 833d ac1e 3b3c c342 de3a ae19 f63d
00000270: 18ac 113e 4ca5 f63c 3d16 f23d 1f45 2d3c
00000280: 5ee1 19bc ddf4 bf3d fd29 fabc ba60 d93d
00000290: 4887 a1bc 6f71 093e 51fe 633c 2f7b c23d
000002a0: c828 80bc abd6 7a3d 850f dc3d bef1 9d3d
000002b0: 170d 703d 9390 e73c e0c3 733d 1782 6c3d
000002c0: 934e 9d3d 4c1f f43b ba7a bf3d 2f76 cb3d
000002d0: f8b5 3abd 40c0 903d 6f6c e43d 43ca b33d
000002e0: 62f5 2c3b 1a8e e83d 52f3 8d3c c582 c23c
000002f0: 834e 7c3c c39f 083e 80af ca3d 8f7b b53d
00000300: e4fd 7d3d 697b a23d 69bf fe3d f9b4 a93c
00000310: 3ed7 7e3d 7d0e 643d 1cdb 3d3d a49c ff3d
00000320: 23f8 fdbc e58d 0c3e 4a41 053e 8704 eb3d
00000330: feee 783d 989d 01bc 58c4 a13d e153 013e
00000340: 0032 ef3d 6fbe 023e 8f7b 593d 5ee8 c63b
00000350: d463 133e c786 bc3d 01ee fa3c 44b2 c63c
00000360: f609 833d a1f4 6a3d 417d 283c fb31 7e3d
00000370: 7b25 273d 97f9 d43d fab3 e6b9 621c 923d
00000380: 8099 2fbc e0ea eebb ead2 7bbc e2ce a33c
00000390: 35c3 183d 87dc f2ba 06a5 eabb 842c 1bbd
000003a0: 15ef 04bd fb64 73bd 39e2 0c3d e67b 1e3d
000003b0: 1f67 103e 9ddb 65bb f9f5 d93c ab0e 743d
000003c0: 12bf 9e3d 1c6d 853b 53f4 0abc 2d18 983c
000003d0: 8b6b babc dbee 133b 750b 3bbd 9546 873d
000003e0: d871 87bd f366 0bbd 162b 4a3d c235 403d
000003f0: 9308 2f3e 8a7e 343e a044 253d ee32 043e

conv_a_1.bias f4 [16]
0.0017855533 0.104414925 -0.010141224 0.09255382 -0.035556246 -0.0019362168 0.08824789 -0.0059408303
0.11435594 -0.012129972 -0.034365617 -0.018684356 0.093174934 -0.016981015 -0.0155206565 -0.039260093
00000000: 3a09 ea3a 7ed7 d53d 6027 26bc db8c bd3d
00000010: 6da3 11bd a8c8 fdba 4fbb b43d 4cab c2bb
00000020: 7233 ea3d cabc 46bc f6c2 0cbd ef0f 99bc
00000030: 80d2 be3d c51b 8bbc 5a4a 7ebc 31cf 20bd

linear_a_0.weight f4 [16, 784]
-0.017127182 0.029377803 0.009184348 0.01439724 0.01390381 -0.018889423 -0.044570137 0.028938416
-0.005907296 0.027446546 0.019863555 0.011813249 -0.019827127 -0.020034254 -0.010496252 -0.02743609
0.016754923 0.032787453 0.0035080705 0.006335959 -0.003011974 0.0033766727 -0.020837232 -0.03606941
0.005964849 -0.034321856 0.016615655 0.005566639 -0.029716704 0.021802291 0.020883476 0.028937988
-0.01580016 0.028065324 -0.0026911877 -0.0258942 -0.013285769 0.024127634 0.024352105 -0.010678494
0.005371074 7.193192e-05 -0.007477733 -0.02762532 -0.03292757 0.001295651 0.0045499997 0.004188853
-0.034296483 -0.01995382 0.033488136 0.008270312 -0.001137692 0.028019909 0.00919067 -0.02398565
0.019743191 0.03115141 0.021032656 -0.016936228 0.019653244 -0.004635207 0.006659068 -0.04114955
0.023179546 -0.035666957 -0.0012770706 -0.04475651 0.004809622 0.012519547 -0.033699397 0.024107777
0.03089805 -0.014069254 -0.017689642 -0.022011932 0.016524913 4.9114107e-05 -0.0001721256 0.02815259
0.03275499 -0.031091586 0.010765601 -2.1357828e-05 -0.021550482 0.011909664 0.026146738 -0.037025984
0.029079458 -0.016111374 0.009648267 -0.017428732 0.025941657 -0.016493933 0.030010898 0.017640155
-0.0120200785 0.032483052 0.015953297 -0.03018166 0.01091734 -0.015181946 -0.041967697 0.0074127833
0.0053366423 0.021449378 0.022763431 0.016647944 -0.011312529 0.0026425046 -0.025254661 -0.029889306
0.021260554 -0.004231121 -0.031319004 -0.007089497 0.02170796 0.016691575 -0.00017481382 -0.00018168121
-0.047002167 -0.03837774 0.01570045 -0.012933245 0.010343698 0.0030300256 0.011660741 -0.022491796
-0.039693847 0.014420467 0.010435843 0.023072321 -0.0055288924 -0.01023877 0.0003843296 -0.007376065
-0.0023212894 0.019333435 0.0021611266 -0.04336211 -0.007853807 -0.028669542 0.03445733 -0.027664302
-0.027033018 0.018988553 -0.020652635 -0.022990983 0.008158666 0.004218786 0.018067848 -0.00032616366
0.0113204345 -0.024065347 -0.033628874 -0.03071773 -0.0093487045 -0.022449588 0.0023628816 -0.008706129
-0.016569987 -0.0047345567 -0.010273443 -0.0167254 -0.0342479 0.015816413 0.023822501 0.025758985
-0.020020721 0.0145848235 0.022999827 0.037576128 0.00222857 -0.011780255 0.0022375083 -0.029684104
-0.0029592416 0.030907577 -0.010328962 0.03599738 -0.020101702 -0.037476875 0.026618715 -0.02360723
-0.019969236 -0.022723092 -0.014127826 0.008509511 0.016673222 0.021923305 -0.0030608666 0.008184556
0.022238865 0.024829242 -0.009984926 -0.027137501 -0.0026783745 0.014712699 -0.0282691 -0.03474557
0.02606378 0.0035519374 -0.038764186 -0.0074039884 -0.014807351 -0.04262917 0.025324645 -0.01598891
-0.05096815 -0.008166008 0.008039302 -0.0052266405 -0.03881218 -0.043283667 -0.014692412 -0.018226076
0.0101652965 0.0015265734 0.03424777 0.022865921 -0.029813627 -0.02167726 -0.00858119 -0.030356746
-0.0048480355 0.014137899 -0.049912065 -0.023503907 -0.029196864 -0.024092695 -0.014253265 -0.018714542
0.020331357 0.035739556 0.0029819952 0.00023846496 -0.021333283 -0.017954867 -0.016691374 0.007843052
-0.049059566 -0.023540406 -0.039141674 0.012566015 0.025203364 -0.0121962745 -0.027112607 0.024637338
-0.01003797 -0.028118616 0.018352473 -0.035985626 0.010588819 -0.023730962 -0.02004511 -0.016527165
00000000: 4e4e 8cbc b8a9 f03c f379 163c 67e2 6b3c
00000010: cecc 633c febd 9abc 2d8f 36bd 4210 ed3c
00000020: fe91 c1bb 94d7 e03c e5b8 a23c 5c8c 413c
00000030: 806c a2bc e01e a4bc 79f8 2bbc a7c1 e0bc
00000040: 9f41 893c 234c 063d a8e7 653b e09d cf3b
00000050: 8a64 45bb 2b4b 5d3b d8b2 aabc 85bd 13bd
00000060: c874 c33b 1395 0cbd 8e1d 883c 5a68 b63b
00000070: 7270 f3bc b89a b23c d313 ab3c 5c0f ed3c
00000080: 566f 81bc 40e9 e53c a35e 30bb 1320 d4bc
00000090: 8eac 59bc 51a7 c53c 117e c73c daf4 2ebc
000000a0: d6ff af3b 28da 9638 c507 f5bb 7f4e e2bc
000000b0: 0fdf 06bd d5d2 a93a 2a18 953b a542 893b
000000c0: 787a 0cbd 3276 a3bc db2a 093d 3480 073c
000000d0: 9c1e 95ba 028a e53c 7794 163c 8e7d c4bc
000000e0: 79bc a13c 3e31 ff3c ad4c ac3c d8bd 8abc
000000f0: d7ff a03c efe2 97bb 5034 da3b 6e8c 28bd
00000100: 08e3 bd3c 8417 12bd 6163 a7ba 9a52 37bd
00000110: 099a 9d3b c91e 4d3c 6108 0abd ac7d c53c
00000120: e81d fd3c ba82 66bc dee9 90bc 5e52 b4bc
00000130: 415f 873c dfff 4d38 9d7c 34b9 43a0 e63c
00000140: 192a 063d c8b3 febc 3462 303c 9629 b3b7
00000150: a38a b0bc c020 433c af31 d63c 8fa8 17bd
00000160: 0b38 ee3c 00fc 83bc c413 1e3c b3c6 8ebc
00000170: 9983 d43c 491e 87bc 6ad9 f53c 1682 903c
00000180: ddef 44bc f30c 053d 7db0 823c 873f f7bc
00000190: a5de 323c b2bd 78bc 52e6 2bbd efe6 f23b
000001a0: 00df ae3b 9bb6 af3c 607a ba3c 4561 883c
000001b0: 3058 39bc df2d 2d3b dde2 cebc 6bda f4bc
000001c0: 9d2a ae3c 37a5 8abb 5b48 00bd 034f e8bb
000001d0: e4d4 b13c c5bc 883c 3a4e 37b9 ae81 3eb9
000001e0: 5885 40bd fa31 1dbd 3b9e 803c f6e5 53bc
000001f0: 9d78 293c 6593 463b b10c 3f3c b740 b8bc
00000200: 0496 22bd d343 6c3c 19fb 2a3c 2a02 bd3c
00000210: b62b b5bb 84c0 27bc d97f c939 ebb2 f1bb
00000220: c620 18bb 2761 9e3c b0a1 0d3b 789c 31bd
00000230: 41ad 00bc 63dc eabc 2123 0d3d 3fa0 e2bc
00000240: 5974 ddbc e28d 9b3c b72f a9bc 9657 bcbc
00000250: edab 053c be3d 8a3b 0603 943c f200 abb9
00000260: 5879 393c b124 c5bc 6ebe 09bd c0a3 fbbc
00000270: 4f2b 19bc 33e8 b7bc 93da 1a3b 27a4 0ebc
00000280: c8bd 87bc 5724 9bbb f151 28bc b503 89bc
00000290: 8747 0cbd 6c91 813c 6827 c33c 8204 d33c
000002a0: 7f02 a4bc 2ff5 6e3c 226a bc3c 6de9 193d
000002b0: 330d 123b f801 41bc 29a3 123b 142c f3bc
000002c0: d6ef 41bb e331 fd3c ce3a 29bc fd71 133d
000002d0: 53ac a4bc 5a81 19bd 7e0f da3c f363 c1bc
000002e0: 8696 a3bc c725 babc 6678 67bc 7a6b 0b3c
000002f0: 4896 883c 8198 b33c d298 48bb 8418 063c
00000300: 482e b63c b266 cb3c d197 23bc 774f debc
00000310: ab87 2fbb 880d 713c 9994 e7bc 5f51 0ebd
00000320: b583 d53c 9fc7 683b 32c7 1ebd 289d f2bb
00000330: 889a 72bc ed9b 2ebd a175 cf3c 2dfb 82bc
00000340: fbc3 50bd b8ca 05bc 47b7 033c 3d44 abbb
00000350: 85f9 1ebd 374a 31bd 71b8 70bc da4e 95bc
00000360: 588c 263c 4e17 c83a 6447 0c3d 5051 bb3c
00000370: b53b f4bc 8294 b1bc 1f98 0cbc b6ae f8bc
00000380: 45dc 9ebb a5a2 673c 9870 4cbd 448b c0bc
00000390: 432e efbc 0b5e c5bc 8786 69bc 3d4f 99bc
000003a0: f28d a63c a463 123d 946d 433b 730c 7a39
000003b0: 23c3 aebc 1616 93bc 59bc 88bc 2580 003c
000003c0: aff2 48bd cfd7 c0bc 0553 20bd b0e1 4d3c
000003d0: 4977 ce3c e2d2 47bc 421b debc 3ed4 c93c
000003e0: 4c76 24bc 0359 e6bc ed57 963c aa65 13bd
000003f0: ba7c 2d3c 6f67 c2bc a435 a4bc fa63 87bc

linear_a_0.bias f4 [16]
-0.0035558136 0.072360285 0.011914714 0.011313565 0.02408121 0.007941596 0.026530467 -0.046933517
0.023889696 0.009809064 -0.016330691 0.039563265 0.0034643332 0.07141841 -0.006025639 -0.03137547
00000000: a708 69bb a131 943d ef35 433c 885c 393c
00000010: f545 c53c 781d 023c 6c56 d93c 5c3d 40bd
00000020: 53b4 c33c 32b6 203c f1c7 85bc 170d 223d
00000030: de09 633b d143 923d b972 c5bb 9183 00bd

GRU_a.weight_ih_l0 f4 [48, 16]
0.102585286 -0.0772028 0.24707314 -0.2441155 0.06858171 0.21926683 0.035637166 -0.2754909
0.047746412 -0.13272521 -0.102671675 0.22335105 -0.12404417 -0.20231578 -0.11567137 0.2064815
-0.025966719 -0.071083836 0.16044234 -0.17779556 -0.2334193 0.21848544 0.07333215 0.035854094
-0.14394931 -0.052949872 -0.004224925 -0.24906912 0.17941923 -0.24000922 -0.24501082 -0.059965506
-0.18149877 0.18181974 -0.1825129 -0.09292543 0.14486131 0.123824276 0.24877098 -0.27082688
-0.19769539 0.18732476 0.0028164114 0.1275925 0.16651617 0.14311467 0.020526655 -0.082873546
-0.18686643 -0.17500494 0.16018705 -0.015520935 -0.033640157 -0.23989281 0.055223145 -0.35214126
0.24173248 -0.15714365 0.16731973 0.16804227 -0.17906855 0.2056186 0.1858425 -0.08407267
0.08859224 -0.15686299 -0.116195284 -0.14198898 0.14404507 -0.19247405 -0.12778358 0.04719462
-0.018233782 -0.1033514 -0.30858347 -0.105537325 -0.19508426 0.07354432 0.16506356 -0.22293545
0.093143314 -0.04044112 -0.16682467 -0.049851384 0.14921977 -0.00679291 0.16068158 0.12727392
0.0067634927 0.27948302 -0.14573587 -0.04543272 0.21158202 -0.083286874 -0.19002955 -0.017654294
0.21978201 0.012841269 -0.23491624 0.0715508 -0.13664438 -0.023458239 -0.018712182 0.24584755
-0.04870848 0.22244972 0.057770707 -0.2388966 0.030951012 -0.00844298 -0.12646721 0.22576277
0.024044983 -0.03236723 0.112070784 -0.0047064056 0.11200418 0.22010522 -0.12654859 -0.15728682
-0.0007767343 0.043613188 0.15175688 -0.21884486 -0.0013684339 0.116869114 0.21972522 -0.24080758
-0.060820993 -0.04679807 -0.03108842 -0.1310545 -0.107580304 0.1297829 0.119219944 0.21125038
-0.060550187 0.18923612 -0.09983031 -0.11162344 -0.11965067 -0.107132524 0.04658638 -0.13316248
-0.12567803 0.12924808 0.10123053 -0.20727436 0.18508913 -0.089177504 -0.19664957 -0.028421888
-0.03328753 -0.29028785 0.020574952 -0.18053585 0.107423976 -0.2051965 0.104724675 0.101833016
-0.16794942 0.123848334 0.05199532 -0.16374156 0.018893968 -0.20716082 0.10020373 -0.2242079
0.028859472 -0.07638027 0.18211465 -0.17077787 0.2532381 -0.124366105 -0.058631 0.1975956
0.2235647 -0.10843038 0.17067413 0.14528905 -0.04667171 0.056769278 -0.20416342 0.15695895
-0.06367397 0.08848945 0.22815649 -0.18535338 -0.052878127 0.14046657 0.006611833 -0.10168654
0.03316211 0.033971976 0.18529838 -0.06287916 0.055932213 0.0514619 0.13169123 -0.20946518
-0.20406738 -0.054441392 0.072342604 0.13547742 -0.09228547 -0.16667502 -0.11195833 0.22115745
-0.0681635 0.17040956 -0.23075527 -0.11007026 -0.14034161 -0.21554506 -0.10717936 -0.0030651572
-0.060463645 0.053563505 0.14665338 -0.21467616 -0.041735247 0.029796762 -0.11007538 -0.05538172
0.10118595 -0.19219793 -0.0351694 0.2771671 -0.08035929 -0.03321966 0.049776614 -0.13358504
0.0008043431 -0.04052161 0.04401658 0.16626808 0.15042858 -0.28741744 0.21896228 0.07347066
0.02694017 0.2214549 -0.09903773 0.28789428 0.108467616 -0.048846908 0.16491692 0.33562455
0.03772674 0.20298551 0.024737474 0.181185 0.122381926 -0.04082125 0.052515376 -0.23410736
00000000: 3c18 d23d 801c 9ebd be00 7d3e 6af9 79be
00000010: 9174 8c3d 7c87 603e 47f8 113d 250d 8dbe
00000020: be91 433d 1ee9 07be 8745 d2bd 23b6 643e
00000030: df0a febd de2b 4fbe 1ce5 ecbd e36f 533e
00000040: 28b8 d4bc 6794 91bd ff4a 243e 0a10 36be
00000050: 7805 6fbe a6ba 5f3e 2b2f 963d bedb 123d
00000060: 7367 13be f7e1 58bd 3d71 8abb fa0b 7fbe
00000070: adb9 373e fac4 75be 1ee4 7abe 649e 75bd
00000080: d0da 39be f42e 3a3e a9e4 3abe b04f bebd
00000090: 8656 143e 9597 fd3d d2bd 7e3e d2a9 8abe
000000a0: a970 4abe 10d2 3f3e 8b93 383b 9ca7 023e
000000b0: 3783 2a3e a78c 123e 8427 a83c 9bb9 a9bd
000000c0: ea59 3fbe 7f34 33be 1308 243e 854b 7ebc
000000d0: 43ca 09bd 76a6 75be aa31 623d dc4b b4be
000000e0: b888 773e 44ea 20be dd55 2b3e 4613 2c3e
000000f0: bf5d 37be af8d 523e 7f4d 3e3e 4b2e acbd
00000100: d96f b53d b1a0 20be cbf7 edbd 8f65 11be
00000110: 8d80 133e eb17 45be b3d9 02be 254f 413d
00000120: 035f 95bc e6a9 d3bd a7fe 9dbe f423 d8bd
00000130: 2bc4 47be 689e 963d 6c06 293e 3149 64be
00000140: ecc1 be3d 96a5 25bd 16d4 2abe f730 4cbd
00000150: 11cd 183e 0f97 debb b689 243e 1854 023e
00000160: 4aa0 dd3b 6618 8f3e c93b 15be a917 3abd
00000170: f5a8 583e 4f92 aabd 1b97 42be bd9f 90bc
00000180: 890e 613e 3064 523c e28d 70be 3a89 923d
00000190: 81ec 0bbe 7e2b c0bc 4a4a 99bc 76bf 7b3e
000001a0: 8b82 47bd dcc9 633e faa0 6c3d 4fa1 74be
000001b0: fa8c fd3c 6d54 0abc 9f80 01be 5b2e 673e
000001c0: fcf9 c43c 8093 04bd 5e85 e53d 3138 9abb
000001d0: 7362 e53d 4363 613e f495 01be cc0f 21be
000001e0: c29d 4bba bea3 323d 2866 1b3e de18 60be
000001f0: 065d b3ba 1359 ef3d a6ff 603e 4396 76be
00000200: 6f1f 79bd 55af 3fbd 24ad febc 2733 06be
00000210: 1053 dcbd cfe5 043e 9629 f43d 0552 583e
00000220: 7903 78bd 1dc7 413e d573 ccbd d59a e4bd
00000230: 690b f5bd 4c68 dbbd 5cd1 3e3d bf5b 08be
00000240: beb1 00be 9c59 043e f451 cf3d bb3f 54be
00000250: 0188 3d3e b2a2 b6bd 815e 49be 05d5 e8bc
00000260: 8158 08bd 9ca0 94be cd8c a83c 64de 38be
00000270: 1a01 dc3d 081f 52be e479 d63d d48d d03d
00000280: effa 2bbe 32a4 fd3d 0bf9 543d deab 27be
00000290: 86c7 9a3c f721 54be 9d37 cd3d c196 65be
000002a0: b36a ec3c 426d 9cbd 437c 3a3e 65e0 2ebe
000002b0: 6da8 813e a8b3 febd 0f27 70bd 8056 4a3e
000002c0: 25ee 643e bf10 debd 33c5 2e3e a7c6 143e
000002d0: d62a 3fbd e786 683d 3710 51be d9b9 203e
000002e0: 8067 82bd f539 b53d dba1 693e 47cd 3dbe
000002f0: bc96 58bd 78d6 0f3e 13a8 d83b 0841 d0bd
00000300: fed4 073d 3326 0b3d dcbe 3d3e cac6 80bd
00000310: 2d19 653d b7c9 523d 11da 063e 0a7e 56be
00000320: 0af7 50be f0fd 5ebd 5c28 943d 98ba 0a3e
00000330: 2a00 bdbd dbac 2abe 694a e5bd 1977 623e
00000340: 4e99 8bbd d87f 2e3e 1c4b 6cbe 846c e1bd
00000350: b6b5 0fbe d8b7 5cbe da80 dbbd cee0 48bb
00000360: baa8 77bd 6865 5b3d 4e2c 163e 11d4 5bbe
00000370: 94f2 2abd 5718 f43c 336f e1bd f1d7 62bd
00000380: 943a cf3d 89cf 44be ca0d 10bd d9e8 8d3e
00000390: 6993 a4bd 5711 08bd 90e2 4b3d 84ca 08be
000003a0: 8dda 523a fdf9 25bd bb4a 343d 2e42 2a3e
000003b0: f309 1a3e 6128 93be a637 603e c977 963d
000003c0: a2b1 dc3c 13c5 623e 4bd4 cabd e166 933e
000003d0: 4524 de3d b213 48bd fbdf 283e fbd6 ab3e
000003e0: 5b87 1a3d 6fdb 4f3e 3ea6 ca3c 9088 393e
000003f0: 60a3 fa3d 2f34 27bd 5d1a 573d d7b9 6fbe

GRU_a.weight_hh_l0 f4 [48, 16]
-0.2597906 -0.17710225 0.02341047 -0.067540064 0.15246597 -0.25222805 0.07872868 0.16080265
-0.13443851 0.0016138655 0.067305885 -0.06912743 0.009674839 0.21235129 -0.2530146 -0.2579935
-0.27177313 -0.015749158 -0.09011408 -0.14091972 0.14637192 0.13052641 -0.2173405 0.01549001
-0.019650819 0.13834964 -0.19723265 -0.2662826 0.05593873 -0.18423541 0.08784976 -0.23751667
0.22364587 0.14885485 0.029078024 0.18240829 -0.097806685 -0.022992745 -0.20870756 0.0938866
0.2574294 -0.05389543 -0.15506698 -0.080678694 0.10779061 0.1296927 0.12971824 -0.05081861
0.22962226 -0.1680204 0.25832146 0.1743844 0.05880986 0.14610836 0.3183096 0.20853037
0.095168985 -0.16163485 0.14279753 -0.09146633 0.304693 0.06601984 0.18291695 -0.11547419
-0.24358143 -0.10344718 -0.043741956 0.2337984 -0.16573465 -0.2757903 -0.20637655 0.21725644
0.33437744 0.012047012 -0.022018366 0.20178296 -0.13334428 -0.08086531 -0.03498349 -0.18793616
-0.17133784 -0.08292185 0.09255627 -0.055626523 -0.027388256 -0.0863774 0.026812164 -0.17151132
-0.11196828 -0.15309162 0.2216674 0.030695366 -0.17136665 0.026013155 -0.18557778 -0.057131793
-0.07666125 0.005366197 0.09333801 -0.07064737 0.07463964 -0.066017695 -0.04546552 -0.26262853
-0.028958805 -0.20547543 0.21483748 -0.20768248 0.09417993 -0.18717816 -0.0464956 0.2955636
0.040757857 0.08069067 0.03629959 -0.2395664 -0.22218253 -0.1411481 0.13017134 -0.14557937
0.23995376 -0.10777447 0.20863327 0.067070164 0.10553117 0.21113311 -0.015955614 -0.017264726
-0.26445413 -0.24455988 -0.10647614 -0.24731289 -0.18684019 0.12064003 0.018988783 -0.013224546
-0.21815985 -0.016603678 -0.09940327 0.025526699 -0.023137975 -0.07635902 -0.00744994 -0.2036472
0.06966702 -0.07085757 -0.2353311 -0.28837767 -0.08143425 0.1754461 -0.0024591482 -0.122311205
-0.07725835 -0.14254506 0.20542881 -0.0038953638 -0.096779056 -0.00202966 0.07521977 -0.19808905
-0.03080785 -0.028451847 -0.15254937 -0.16056201 0.18830718 -0.23634765 -0.0504143 -0.34626755
0.14593948 -0.24751632 -0.19092377 0.11634147 0.12105103 0.31722558 0.29732272 0.16708416
-0.055596367 -0.053335115 0.19342533 0.058380987 -0.08871334 -0.07586367 -0.07312116 -0.10595636
-0.15778728 -0.1914019 0.08568637 -0.15709761 -0.21377495 -0.27341345 -0.15291494 -0.08916855
0.24866052 -0.034468397 -0.047298297 0.27835566 0.39723107 -0.16546206 0.028997712 -0.30319062
-0.2037583 -0.13925989 0.05961928 0.24373847 -0.09787858 -0.005026066 -0.01947781 0.16571738
-0.019439168 -0.30443466 0.13026002 0.23797217 -0.21604672 0.11664338 0.117433846 0.20628189
0.022393567 0.19410686 -0.1797933 0.13972516 0.1716624 -0.039878756 -0.11756982 0.09222459
0.018608034 -0.003696206 0.16382423 0.20308283 -0.27215123 0.16088405 -0.18588312 -0.17448334
-0.029869333 0.2352201 -0.15534946 0.026871126 0.30603862 -0.18812323 -0.13595475 0.07535096
0.2417108 -0.104106314 -0.025339995 -0.06724874 0.3184324 -0.041217584 -0.12942812 -0.32074547
-0.03611187 -0.20367606 -0.043996062 0.14766538 0.16690674 0.09759825 -0.11500962 0.32711965
00000000: 4603 85be 4b5a 35be 50c7 bf3c 7252 8abd
00000010: 0a20 1c3e 0924 81be 813c a13d 73a9 243e
00000020: 40aa 09be 5788 d33a abd7 893d af92 8dbd
00000030: 3783 1e3c 9e72 593e 218b 81be b917 84be
00000040: d925 8bbe 6104 81bc bb8d b8bd 424d 10be
00000050: 85e2 153e b7a8 053e 828e 5ebe d0c9 7d3c
00000060: c1fa a0bc 87ab 0d3e 5bf7 49be 3156 88be
00000070: 0220 653d 35a8 3cbe 93ea b33d 9237 73be
00000080: 6c03 653e 686d 183e 0935 ee3c 3dc9 3a3e
00000090: df4e c8bd 485b bcbc 6fb7 55be 9e47 c03d
000000a0: c9cd 833e 74c1 5cbd e1c9 1ebe df3a a5bd
000000b0: 53c1 dc3d 2ace 043e dcd4 043e 2d27 50bd
000000c0: 1922 6b3e 8a0d 2cbe b642 843e d391 323e
000000d0: 9ce2 703d 6e9d 153e 7af9 a23e fc88 553e
000000e0: f5e7 c23d 9b83 25be 8439 123e b352 bbbd
000000f0: b900 9c3e 6935 873d 954e 3b3e bb7d ecbd
00000100: 696d 79be 1ddc d3bd c42a 33bd d968 6f3e
00000110: 58b6 29be 6334 8dbe 6054 53be 7978 5e3e
00000120: 8533 ab3e d560 453c dc5f b4bc 31a0 4e3e
00000130: 678b 08be b69c a5bd d94a 0fbd 5672 40be
00000140: 3073 2fbe eed2 a9bd 248e bd3d a3d8 63bd
00000150: 565d e0bc a2e6 b0bd 2fa5 db3c aaa0 2fbe
00000160: a04f e5bd 0dc4 1cbe c7fc 623e d974 fb3c
00000170: bd7a 2fbe 8a19 d53c 1a08 3ebe 0703 6abd
00000180: 9300 9dbd ecd6 af3b 0028 bf3d 91af 90bd
00000190: abdc 983d 4934 87bd 0e3a 3abd 3f77 86be
000001a0: 043b edbc 2768 52be 5bfe 5b3e b7aa 54be
000001b0: 68e1 c03d a2ab 3fbe 2c72 3ebd 1d54 973e
000001c0: b6f1 263d 2641 a53d e1ae 143d e550 75be
000001d0: d183 63be 2189 10be a34b 053e c212 15be
000001e0: 70b6 753e dcb8 dcbd f6a3 553e 155c 893d
000001f0: ba20 d83d 4733 583e 59b5 82bc c16e 8dbc
00000200: 8866 87be e86d 7abe 2a10 dabd 973f 7dbe
00000210: 0953 3fbe 1f12 f73d 5d8e 9b3c c4ab 58bc
00000220: 4c65 5fbe 7004 88bc f193 cbbd 5e1d d13c
00000230: da8b bdbc 1e62 9cbd a01e f4bb e488 50be
00000240: 95ad 8e3d c61d 91bd a3fa 70be 3da6 93be
00000250: 00c7 a6bd 24a8 333e a929 21bb 4c7e fabd
00000260: a039 9ebd 55f7 11be ee5b 523e 5c49 7fbb
00000270: 1934 c6bd 0b04 05bb d30c 9a3d dbd7 4abe
00000280: bf60 fcbc d913 e9bc e735 1cbe 5e6a 24be
00000290: 99d3 403e 1e05 72be 3a7f 4ebd fb49 b1be
000002a0: 2971 153e eb74 7dbe 8581 43be 7044 ee3d
000002b0: 9ae9 f73d 646b a23e af3a 983e 1c18 2b3e
000002c0: 04b9 63bd ec75 5abd 4a11 463e e720 6f3d
000002d0: 57af b5bd 695e 9bbd 8cc0 95bd a6ff d8bd
000002e0: fd92 21be dcfe 43be 567c af3d 32de 20be
000002f0: d2e7 5abe d9fc 8bbe bc95 1cbe 009e b6bd
00000300: dda0 7e3e bc2e 0dbd dcbb 41bd a284 8e3e
00000310: df61 cb3e e36e 29be 9c8c ed3c cd3b 9bbe
00000320: 04a6 50be 259a 0ebe 5933 743d 9496 793e
00000330: 9174 c8bd b3b1 a4bb ee8f 9fbc d1b1 293e
00000340: e43e 9fbc dcde 9bbe e262 053e faae 733e
00000350: 5a3b 5dbe b9e2 ee3d 2881 f03d 8f3b 533e
00000360: b772 b73c f3c3 463e bc1b 38be 1d14 0f3e
00000370: 45c8 2f3e e857 23bd 72c8 f0bd 3fe0 bc3d
00000380: e06f 983c 0c3c 72bb 8ac1 273e f2f4 4f3e
00000390: 6857 8bbe cabe 243e 2558 3ebe c3ab 32be
000003a0: 88b0 f4bc 8add 703e ee13 1fbe d620 dc3c
000003b0: 18b1 9c3e 60a3 40be b937 0bbe 9b51 9a3d
000003c0: 0983 773e b135 d5bd d295 cfbc b5b9 89bd
000003d0: 9209 a33e c5d3 28bd ce88 04be c038 a4be
000003e0: 0aea 13bd 7590 50be 3735 34bd 9835 173e
000003f0: 9ae9 2a3e 97e1 c73d 2a8a ebbd 3a7c a73e

GRU_a.bias_ih_l0 f4 [48]
-0.10127042 -0.010320954 -0.13045037 -0.16270214 -0.23762012 0.22894356 0.26066163 0.007379423
-0.22703743 -0.23419814 0.13443117 0.081727125 0.1690366 -0.1594696 -0.108139634 0.19822489
-0.20812365 -0.24352704 0.2518267 0.004171075 -0.18254776 -0.08308637 -0.16510782 -0.15045452
-0.07924044 0.19409578 0.095137835 -0.23475125 0.0676931 -0.14216205 0.05938931 0.037150808
0.22505458 0.11501724 -0.054458663 0.28824154 -0.13552676 0.06973607 -0.0707044 -0.2640404
-0.007885141 0.14922379 -0.293542 0.1282463 0.0978527 -0.17284802 0.18639141 0.18771783
00000000: de66 cfbd 3819 29bc c894 05be 649b 26be
00000010: b052 73be 2e70 6a3e 7175 853e 16cf f13b
00000020: 807c 68be a3d1 6fbe 53a8 093e 8d60 a73d
00000030: ee17 2d3e 004c 23be 5078 ddbd 77fb 4a3e
00000040: 5e1e 55be 275f 79be 6eef 803e 83ad 883b
00000050: cded 3abe 3029 aabd 0612 29be c010 1abe
00000060: d048 a2bd 0bc1 463e a0d7 c23d a262 70be
00000070: aea2 8a3d ee92 11be 3542 733d 722b 183d
00000080: b574 663e 298e eb3d 0c10 5fbd 6594 933e
00000090: 87c7 0abe c9d1 8e3d 78cd 90bd 4e30 87be
000000a0: ae30 01bc 1fce 183e 234b 96be 0053 033e
000000b0: ff66 c83d 12ff 30be 64dd 3e3e 1a39 403e

GRU_a.bias_hh_l0 f4 [48]
-0.011861746 -0.29969117 0.1312448 -0.212089 -0.1676865 -0.114019714 -0.021570394 0.18612437
0.06558174 -0.13603252 0.27791962 -0.11151443 0.09528459 -0.08353035 0.19614267 -0.015416746
-0.3749005 -0.24080618 -0.19977376 -0.04657711 -0.13733834 -0.30860847 0.14520058 -0.039599866
-0.14862637 -0.054591298 0.110892184 -0.15193233 0.029202735 -0.096026234 -0.078213766 -0.25636616
-0.015388272 -0.02764484 -0.093098566 0.25605538 -0.05721335 -0.08820383 0.2237343 0.05998534
-0.17895095 0.11403724 -0.21502261 -0.17195281 -0.23540808 -0.007171167 -0.19132975 -0.07539307
00000000: c557 42bc 1f71 99be 0965 063e dc2d 59be
00000010: 03b6 2bbe 2b83 e9bd 65b4 b0bc 6397 3e3e
00000020: b84f 863d 1c4c 0bbe 7b4b 8e3e ad61 e4bd
00000030: 9124 c33d f611 abbd a0d9 483e 8596 7cbc
00000040: f5f2 bfbe e595 76be 7e91 4cbe a4c7 3ebd
00000050: 6ca2 0cbe ee01 9ebe 76af 143e 7833 22bd
00000060: 8331 18be 209b 5fbd 711b e33d 2694 1bbe
00000070: 933a ef3c 67a9 c4bd 8a2e a0bd 6d42 83be
00000080: 171f 7cbc 6e77 e2bc 76aa bebd b119 833e
00000090: 8c58 6abd 36a4 b4bd 9b1a 653e 30b3 753d
000000a0: eb3e 37be 5b8c e93d e32e 5cbe 6614 30be
000000b0: d10e 71be 1cfc eabb f2eb 43be af67 9abd

linear_a.weight f4 [4, 16]
0.13458247 0.31323478 -0.042352114 -0.123868085 0.38387015 -0.17596053 -0.08249527 -0.1396327
0.059609935 -0.0072363694 -0.09720544 0.39960915 -0.14233012 0.28678375 0.10419895 0.39823008
-0.27608934 -0.4408874 -0.434428 -0.18865648 -0.31749475 -0.15761922 -0.07349097 0.18815757
-0.410457 0.12076282 0.09372232 -0.58327335 0.025081774 -0.294373 -0.3538219 -0.20481312
-0.54899913 -0.43862838 -0.30845872 -0.035821944 -0.34835812 0.15622357 -0.0695697 -0.16740294
-0.28461266 0.08886871 -0.122555554 -0.34214294 -0.2983584 -0.3623214 -0.4549986 -0.3847106
0.23339221 0.17691626 0.12954456 0.20299065 0.35099837 0.18237202 -0.16671492 -0.0055664275
0.2151936 -0.32974815 0.29893112 -0.03398537 0.3179211 -0.009116151 0.28736028 -0.08623822
00000000: fdcf 093e 4f60 a03e 6979 2dbd 8dae fdbd
00000010: a18a c43e ff2e 34be 48f3 a8bd e0fb 0ebe
00000020: 8c29 743d 111f edbb a513 c7bd 9299 cc3e
00000030: fdbe 11be 52d5 923e 4266 d53d d0e4 cb3e
00000040: 955b 8dbe febb e1be 596d debe 2a2f 41be
00000050: ac8e a2be ef66 21be 6f82 96bd 61ac 403e
00000060: 6b27 d2be 7f52 f73d 7df1 bf3d 6751 15bf
00000070: 4b78 cd3c 0fb8 96be 2528 b5be 88ba 51be
00000080: 358b 0cbf e693 e0be 4dee 9dbe 08ba 12bd
00000090: ff5b b2be 12f9 1f3e 8f7a 8ebd ad6b 2bbe
000000a0: c0b8 91be cc00 b63d 68fe fabd 5c2d afbe
000000b0: 6fc2 98be 3182 b9be 94f5 e8be caf8 c4be
000000c0: 5efe 6e3e 8929 353e 54a7 043e c8dc 4f3e
000000d0: 0fb6 b33e bbbf 3a3e 51b7 2abe 9466 b6bb
000000e0: b65b 5c3e c0d4 a8be 800d 993e 3e34 0bbd
000000f0: 8ec6 a23e e95b 15bc e320 933e aa9d b0bd

linear_a.bias f4 [4]
0.22068356 -0.07477145 -0.49398693 -0.03180986
00000000: dffa 613e c621 99bd dbeb fcbe 0e4b 02bd

conv_v_0.weight f4 [16, 7, 3, 3]
0.027492587 0.0108581595 0.018466506 0.107358746 -0.00553123 0.044457447 0.19637321 -0.0020274876
-0.092696816 -0.11643159 -0.19834551 -0.2088106 -0.1408958 -0.26594412 -0.15695886 0.002122031
-0.25103113 -0.25217623 0.1215305 0.11487057 -0.07779337 0.10468937 -0.033579245 -0.10888166
-0.038885083 -0.040058147 -0.047969636 -0.29406196 -0.28462377 -0.11676926 -0.33965346 -0.19272944
-0.26884896 -0.047330018 -0.36206907 -0.10752954 -0.03535441 -0.16763711 -0.17167455 -0.088819906
-0.048890147 -0.22333921 -0.25042698 -0.061019354 -0.08736109 -0.057439342 0.005641979 -0.023436543
0.100431666 0.059624325 -0.015925758 0.048403054 -0.12689452 -0.067587756 -0.09196325 0.006141127
0.036726806 0.021560576 -0.06397892 -0.008346306 -0.057088803 -0.045540813 -0.034714784 -0.046590388
0.12294778 0.06514747 0.1588459 -0.31627935 0.07507801 0.17836294 -0.30365837 0.036753442
-0.50978875 -0.49416807 -0.06366275 -0.28156626 -0.04153648 -0.040862437 -0.26992354 0.06449382
0.04746075 -0.049303737 0.32703838 -0.2667186 0.06176693 0.26845777 0.39315495 0.12062984
0.12756209 0.23320526 -0.2038546 -0.24704762 -0.046680726 -0.28179413 -0.15823993 -0.13883449
0.12623577 0.120115966 0.0668887 -0.15223074 -0.042630713 0.061228756 0.022654252 0.015277011
-0.039545354 0.059841745 -0.008809084 -0.0986043 -0.044783514 -0.011863031 -0.046869926 -0.024263866
-0.09396985 0.055251196 -0.039247647 -0.10991747 -0.08115361 -0.06823319 -0.11997818 -0.22488616
-0.0648144 -0.0161548 -0.107827246 -0.042461462 -0.009625322 -0.04641046 0.006915109 -0.026716543
0.013817365 -0.13900945 -0.2836399 -0.008342767 0.12988602 -0.13327524 -0.07950423 0.10557635
-0.11771144 -0.013598541 0.0505293 0.06685921 0.051886033 0.10001212 0.04914113 0.060884696
0.06842357 0.20900053 0.18132682 0.09229026 0.054887958 0.1801059 0.054792937 -0.05496658
-0.19526744 -0.0675782 -0.09483542 0.053857252 -0.21573494 -0.0920404 -0.05987857 -0.18678425
-0.10784948 -0.013701194 0.057655934 -0.040526602 0.047104992 -0.12106887 -0.06836768 -0.015635328
-0.13194208 0.08505268 0.032701623 0.041143402 -0.033400133 -0.15263104 0.02999332 0.0966121
-0.06657262 -0.081446044 -0.01195164 -0.10318913 0.02470519 -0.11084669 0.0047634738 -0.086786464
0.04186565 -0.13047957 -0.14405103 -0.036677007 -0.16461936 -0.21921387 0.063744314 0.043807063
0.11946769 -0.01400785 0.050740812 0.19735046 -0.0015004141 0.031086586 0.15447302 0.023495128
0.040350284 0.014198252 0.030510545 0.06854321 0.02141164 0.055879053 0.06800934 0.102058455
0.093454935 -0.038607422 0.09250153 0.084921755 0.04538211 0.08470804 0.087692775 0.031073326
-0.12101879 -0.117942534 -0.1250958 -0.30649075 -0.11899674 -0.17012295 -0.12687162 -0.14203101
0.0023628776 -0.008784039 -0.1114209 -0.033093322 -0.004767467 -0.0046420516 0.072938174 -0.12473846
0.001540531 0.07677593 0.07830555 -0.09309883 0.054090194 -0.07071526 -0.007847651 0.038293447
0.06957928 -0.054236468 -0.07716221 -0.1107921 -0.025265776 0.09437958 -0.06581994 -0.09602569
0.028401308 -0.076911554 -0.14340195 0.005024618 -0.0320079 -0.030098764 0.013156825 -0.06861232
00000000: 2238 e13c 6ce6 313c 1247 973c e7de db3d
00000010: 523f b5bb 0319 363d 0f16 493e 99df 04bb
00000020: d4d7 bdbd af73 eebd 161b 4bbe 72d2 55be
00000030: fd46 10be d429 88be d3b9 20be c611 0b3b
00000040: 2787 80be 3e1d 81be fce4 f83d 4341 eb3d
00000050: 2152 9fbd 6167 d63d 648a 09bd 59fd debd
00000060: f745 1fbd 0314 24bd cf7b 44bd 4a8f 96be
00000070: 35ba 91be b924 efbd 0fe7 adbe de5a 45be
00000080: 92a6 89be 1fdd 41bd 1e61 b9be 7338 dcbd
00000090: c9cf 10bd 10a9 2bbe 74cb 2fbe 36e7 b5bd
000000a0: 0941 48bd 09b3 64be f737 80be 6eef 79bd
000000b0: 5fea b2bd 8445 6bbd 5ae0 b83b fefd bfbc
000000c0: 1eaf cd3d a338 743d bc76 82bc 4842 463d
000000d0: a3f0 01be 736b 8abd 3a57 bcbd 823b c93b
000000e0: d96e 163d ce9f b03c 6107 83bd f2be 08bc
000000f0: f3d5 69bd 0189 3abd 1731 0ebd 90d5 3ebd
00000100: 0ccc fb3d 096c 853d 80a8 223e 5eef a1be
00000110: 80c2 993d c6a4 363e 1c79 9bbe c78a 163d
00000120: 8481 02bf 9903 fdbe 9e61 82bd 7429 90be
00000130: 2822 2abd 5f5f 27bd 6b33 8abe 5615 843d
00000140: 3466 423d b7f2 49bd 9371 a73e 578f 88be
00000150: 52ff 7c3d 4c73 893e 9b4b c93e c70c f73d
00000160: a39f 023e 5ccd 6e3e 43bf 50be 0dfa 7cbe
00000170: 4a34 3fbd 5247 90be a609 22be a12a 0ebe
00000180: f343 013e 5cff f53d f1fc 883d 60e2 1bbe
00000190: 8b9d 2ebd 01cb 7a3d 6995 b93c 6e4c 7a3c
000001a0: 4ffa 21bd 9e1c 753d fa53 10bc 0df1 c9bd
000001b0: eb6e 37bd 295d 42bc aefa 3fbd 04c5 c6bc
000001c0: 4473 c0bd 144f 623d 24c2 20bd 691c e1bd
000001d0: dd33 a6bd d8bd 8bbd 1fb7 f5bd 8f48 66be
000001e0: 6abd 84bd 1257 84bc 88d4 dcbd 12ec 2dbd
000001f0: 87b3 1dbc e518 3ebd 2498 e23b a7dc dabc
00000200: 3b62 623c 7e58 0ebe 4039 91be 1ab0 08bc
00000210: d700 053e 4e79 08be 1dd3 a2bd 6a38 d83d
00000220: b212 f1bd 6acc 5ebc d0f7 4e3d 7bed 883d
00000230: 7386 543d 28d3 cc3d 3648 493d 3b62 793d
00000240: a821 8c3d 3c04 563e bdad 393e ad02 bd3d
00000250: 32d2 603d ae6d 383e 8f6e 603d a324 61bd
00000260: 30f4 47be 7066 8abd 1339 c2bd 6c99 5c3d
00000270: 9fe9 5cbe ad7f bcbd 3b43 75bd 5f44 3fbe
00000280: 30e0 dcbd f97a 60bc a128 6c3d 39ff 25bd
00000290: 2af1 403d f5f2 f7bd 5b04 8cbd a915 80bc
000002a0: d31b 07be 1930 ae3d 23f2 053d fc85 283d
000002b0: 94ce 08bd 504b 1cbe 8db4 f53c 91dc c53d
000002c0: 3a57 88bd 2fcd a6bd d0d0 43bc d354 d3bd
000002d0: 8a62 ca3c 9703 e3bd ea16 9c3b 1abd b1bd
000002e0: 517b 2b3d 709c 05be 1d82 13be a13a 16bd
000002f0: fa91 28be 9a79 60be 618c 823d 096f 333d
00000300: 7aab f43d 2e81 65bc 99d5 4f3d 3d16 4a3e
00000310: 8ba9 c4ba 4ca9 fe3c 2d2e 1e3e db78 c03c
00000320: 5746 253d c99f 683c 40f1 f93c 6260 8c3d
00000330: 7767 af3c 6fe1 643d 7b48 8b3d 0604 d13d
00000340: 4d65 bf3d d122 1ebd 7171 bd3d 75eb ad3d
00000350: 97e2 393d 697b ad3d 4598 b33d 7d8d fe3c
00000360: b3d8 f7bd db8b f1bd 1d19 00be 5bec 9cbe
00000370: 90b4 f3bd b634 2ebe a2ea 01be 9470 11be
00000380: 82da 1a3b eeea 0fbc a430 e4bd dd8c 07bd
00000390: 6938 9cbb 5a1c 98bb 9c60 953d e176 ffbd
000003a0: a5eb c93a b33c 9d3d a95e a03d 99aa bebd
000003b0: ae8d 5d3d 2ad3 90bd 6f93 00bc 97d9 1c3d
000003c0: 957f 8e3d 0f27 5ebd 3907 9ebd f8e6 e2bd
000003d0: 2cfa cebc 154a c13d 9bcc 86bd 1ea9 c4bd
000003e0: dca9 e83c ce83 9dbd f6d7 12be 8da5 a43b
000003f0: b71a 03bd af91 f6bc b98f 573c 9e84 8cbd

conv_v_0.bias f4 [16]
0.033413276 -0.08426416 -0.06893237 -0.08955414 -0.040724397 0.017596817 -0.04116588 -0.06656988
0.0446184 0.030323887 -0.2257896 0.018930193 0.07378467 -0.05971901 0.06551942 0.04437407
00000000: 5cdc 083d b092 acbd 6a2c 8dbd 2968 b7bd
00000010: a0ce 26bd 3327 903c 8e9d 28bd ca55 88bd
00000020: c9c1 363d cd69 f83c 6435 67be 7e13 9b3c
00000030: 6b1c 973d ec9b 74bd 0c2f 863d 96c1 353d

conv_v_1.weight f4 [16, 16, 3, 3]
0.0930698 0.07864723 0.08902269 0.00019496333 0.08198744 0.05731897 0.0038517083 0.14519133
0.1072002 -0.07298751 0.018422242 -0.03399274 -0.10982616 -0.13751568 0.045591064 -0.042683102
0.021960037 -0.011290303 -0.0038073778 -0.08193243 0.019672208 -0.009509151 -0.085780285 0.06101316
0.009979383 -0.061887577 -0.10644574 -0.028880391 -0.05620699 -0.092564076 -0.05419015 -0.03105104
-0.028519299 0.033124235 0.042211235 -0.007912553 -0.0022948675 0.043896675 -0.08153367 0.05787281
0.041074272 0.14453648 0.024744844 0.12995712 0.12513834 0.076660626 0.043106735 -0.022780234
-0.02364785 0.02491275 -0.04905438 0.051287394 0.0975159 0.1571866 -0.090551384 -0.13672072
0.065567784 -0.033945482 -0.071575314 0.05582547 -0.024220075 -0.22037072 -0.009213127 -0.061879
-0.046438187 0.041290008 -0.093492575 -0.12902097 0.024011075 -0.033679623 -0.0053652884 -0.027497241
0.07328631 -0.034245454 0.028145466 -0.0069805495 0.04869275 -0.038483206 -0.006568868 0.037449744
-0.014284982 0.06427655 -0.061079662 0.0038256343 -0.17675513 -0.16533127 -0.073396385 -0.006611528
0.006069159 0.043316733 -0.010132199 0.05337428 0.01052034 0.09094059 -0.0010368075 0.009788153
0.025553163 0.026048558 -0.042770065 0.10976621 -0.06329714 -0.024700627 0.006775066 0.041956358
0.019184055 0.11683521 -0.03155535 0.09314362 0.0012706197 0.01115185 -0.0095253065 0.008779199
-0.021595463 0.11249139 0.115003385 0.02133669 0.012268171 0.047130305 0.06610619 -0.0061675156
-0.109475695 -0.1257167 0.0017705158 -0.005393067 -0.106634185 -0.07184596 0.13487977 -0.014818956
0.047385786 0.037111826 -0.011267405 -0.044120118 0.06089243 -0.0151940435 0.075763 -0.023259383
0.00604692 -0.0046210936 -0.06083074 -0.06515517 0.040110406 0.010405129 0.05340695 0.11420135
0.0139276385 0.07253563 0.08030282 0.14376189 0.1412212 0.12162018 0.109475076 0.08062008
0.19643947 -0.025077652 -0.106394134 -0.06636273 -0.13308457 -0.15397386 -0.12617128 -0.11171706
-0.12600794 -0.12547098 -0.00086969463 0.045580734 -0.068557754 0.0070895683 0.090047896 0.018035034
-0.0105768265 0.038456906 0.05080868 -0.02146529 0.07984021 0.10652471 0.08629069 0.04884807
0.08039456 0.07929802 -0.029819174 -0.008416858 -0.00081205665 -0.08998189 -0.06966953 -0.058071572
-0.033422366 -0.07367245 -0.029810924 0.011262056 -0.017242253 0.0525445 0.09204605 0.107481204
0.12639771 0.09530475 0.11328539 -0.0042778784 0.048821792 0.1908474 -0.13812932 -0.21695742
-0.24649121 -0.2089099 -0.17538261 -0.15218683 -0.126532 -0.18314517 -0.22483891 -0.06494156
-0.0859208 -0.09525341 -0.09292951 0.0076394393 -0.0041091787 0.06808688 -0.061985426 0.03036609
0.033765677 0.030459465 0.10546406 0.08438643 0.13500051 0.12955181 0.1270101 0.038297422
0.09293653 0.008137645 -0.031630423 -0.06993174 -0.09979605 -0.009821602 0.0052281595 0.023093471
0.011225221 0.05750127 -0.2579705 -0.22116686 -0.2809953 -0.221711 -0.08321792 -0.23590277
-0.22397171 -0.22504324 -0.13161545 0.06650304 0.13446532 0.10251915 0.1798743 0.16005561
0.19095787 0.033239495 0.09362061 0.044040635 0.09632898 0.1561662 0.057798907 0.085002646
00000000: 619b be3d cd11 a13d 8751 b63d 126f 4c39
00000010: 08e9 a73d 4cc7 6a3d f16c 7c3b 09ad 143e
00000020: c78b db3d 7a7a 95bd 3eea 963c f93b 0bbd
00000030: 8aec e0bd e9d0 0cbe b2bd 3a3d 7ad4 2ebd
00000040: 89e5 b33c f7fa 38bc 3385 79bb 31cc a7bd
00000050: 9c27 a13c 45cc 1bbc 93ad afbd efe8 793d
00000060: 9180 233c d47d 7dbd 3900 dabd 9296 ecbc
00000070: 4d39 66bd 3c92 bdbd 7ef6 5dbd c05e febc
00000080: 4ea1 e9bc 47ad 073d b0e5 2c3d a7a3 01bc
00000090: 7d65 16bb 00cd 333d 20fb a6bd 0a0c 6d3d
000000a0: 7f3d 283d 5f01 143e b3b5 ca3c 7b13 053e
000000b0: 4424 003e 3f00 9d3d b090 303d 9d9d babc
000000c0: 23b9 c1bc d315 cc3c 3fed 48bd bb12 523d
000000d0: 6bb6 c73d 86f5 203e 0173 b9bd 8400 0cbe
000000e0: 6748 863d 6b0a 0bbd 1496 92bd 3fa9 643d
000000f0: 2e69 c6bc dda8 61be a8f2 16bc d674 7dbd
00000100: f835 3ebd b61f 293d 0979 bfbd 131e 04be
00000110: e0b2 c43c a5f3 09bd 4dcf afbb e541 e1bc
00000120: 2217 963d f644 0cbd 5291 e63c 18bd e4bb
00000130: 0d72 473d 91a0 1dbd a93f d7bb e764 193d
00000140: 8f0b 6abc 6da3 833d ab2e 7abd 7eb7 7a3b
00000150: 4cff 34be 9a4c 29be d850 96bd 84a5 d8bb
00000160: ccdf c63b e36c 313d 8601 26bc fd9e 5a3d
00000170: 815d 2c3c 0f3f ba3d 7de5 87ba 7d5e 203c
00000180: de54 d13c c963 d53c aa2f 2fbd 1bcd e03d
00000190: eea1 81bd f858 cabc 5f01 de3b 6eda 2b3d
000001a0: e127 9d3c 4c47 ef3d 2f40 01bd 15c2 be3d
000001b0: ec8a a63a 40b6 363c 0810 1cbc a1d6 0f3c
000001c0: f8e8 b0bc e361 e63d e586 eb3d 48ca ae3c
000001d0: 7000 493c b50b 413d af62 873d df18 cabb
000001e0: cb34 e0bd e1bb 00be a710 e83a 53b8 b0bb
000001f0: 0663 dabd fa23 93bd ec1d 0a3e 35cb 72bc
00000200: 9917 423d 9202 183d ec9a 38bc 4cb7 34bd
00000210: 576a 793d 70f0 78bc a229 9b3d 768a bebc
00000220: 3e25 c63b 8b6c 97bb a729 79bd 1370 85bd
00000230: cf4a 243d 467a 2a3c 3fc1 5a3d 66e2 e93d
00000240: c030 643c 8f8d 943d ce75 a43d 5136 133e
00000250: 4a9c 103e 0014 f93d 7834 e03d 241c a53d
00000260: 6e27 493e a66f cdbc 2be5 d9bd 2fe9 87bd
00000270: 5247 08be 53ab 1dbe 0b33 01be eacb e4bd
00000280: 3a08 01be 777b 00be 38fc 63ba ddb2 3a3d
00000290: 0268 8cbd 9c4f e83b 086b b83d 35be 933c
000002a0: 6d4a 2dbc fd84 1d3d c31c 503d fad7 afbc
000002b0: 4483 a33d a129 da3d 2cb9 b03d ea14 483d
000002c0: e7a5 a43d 0067 a23d 5747 f4bc dce6 09bc
000002d0: 33e0 54ba 6d48 b8bd e6ae 8ebd 75dc 6dbd
000002e0: e4e5 08bd 95e1 96bd 0a36 f4bc 7d84 383c
000002f0: a03f 8dbc e738 573d a482 bc3d 1b1f dc3d
00000300: 676e 013e 232f c33d 2c02 e83d 722d 8cbb
00000310: 5cf9 473d 806d 433e c671 0dbe 162a 5ebe
00000320: 3168 7cbe 7aec 55be 8097 33be ddd6 1bbe
00000330: 9b91 01be 688a 3bbe 2c3c 66be 1500 85bd
00000340: 3ff7 afbd 3814 c3bd d451 bebd 4354 fa3b
00000350: 4aa6 86bb 2271 8b3d 6ee4 7dbd 4ec2 f83c
00000360: e14d 0a3d 2186 f93c 8bfd d73d cbd2 ac3d
00000370: 933d 0a3e 3ba9 043e f00e 023e c2dd 1c3d
00000380: 8255 be3d c253 053c e78e 01bd 5f38 8fbd
00000390: df61 ccbd c9ea 20bc fb50 ab3b 852e bd3c
000003a0: fde9 373c 7486 6b3d b614 84be 9179 62be
000003b0: 9ede 8fbe 3508 63be 286e aabd 7f90 71be
000003c0: d758 65be bc71 66be 33c6 06be bf32 883d
000003d0: 47b1 093e 8ff5 d13d f830 383e 9ee5 233e
000003e0: 768a 433e 2326 083d 2abc bf3d f463 343d
000003f0: 2148 c53d 08ea 1f3e 8cbe 6c3d de15 ae3d

conv_v_1.bias f4 [16]
0.044770323 0.09185441 0.095281065 -0.057753377 0.085885026 0.06595058 -0.05599779 -0.08216145
0.09931883 -0.10743674 0.20525843 -0.24003628 -0.0783626 -0.06502079 0.041661605 -0.095552824
00000000: 1661 373d 2a1e bc3d b822 c33d ce8e 6cbd
00000010: 7de4 af3d 1911 873d f05d 65bd 4344 a8bd
00000020: ac67 cb3d cb07 dcbd 442f 523e 12cc 75be
00000030: 927c a0bd 9f29 85bd 5ca5 2a3d 33b1 c3bd
