league/checkpoints/mfos_seeds/new_self_7x7_63/800_0.pth (torch, 669646 bytes, 105 tensors)

conv_a_0.weight f4 [16, 7, 3, 3]
0.18773614 0.060932484 0.004935965 0.1893398 0.0075651137 0.010666322 0.16870575 0.039903253
-0.032984152 0.07549587 0.0025981243 -0.033303224 0.09094564 0.14633995 -0.05279748 0.19474101
0.06514872 0.11404665 0.2020106 0.102257855 0.23334317 0.098572925 0.0581088 0.068180166
0.17916368 0.008672771 0.011330921 -0.022657499 0.1629773 -0.087995626 -0.025489273 0.0137180695
0.07467588 0.031957448 0.04597305 0.020227915 0.06447501 0.03130503 0.07931932 -0.15023269
0.08978544 -0.021753555 -0.081862696 -0.070054784 -0.01540669 -0.1259815 0.076765314 -0.05532109
-0.024952639 0.0094668185 -0.04282576 -0.14905167 0.09270032 -0.14957547 0.07300882 -0.012007881
-0.013151193 0.10696874 0.16307461 -0.08089011 -0.019078521 0.007851838 0.0032253452 0.21515359
0.07335746 0.030020079 0.19904469 0.07488005 0.056680992 0.23407921 0.11298284 -0.06752909
0.005864797 0.15703796 0.13133153 0.14517324 0.03966808 0.06401578 0.20380993 0.050557338
0.107747085 0.19900821 0.00093745533 0.20766528 0.019601267 0.08553474 0.12218669 0.18132298
-0.045428045 0.050414246 0.0185146 0.09342877 0.19104645 -0.0005725494 -0.018047474 -0.07371042
0.020430194 0.050363693 0.100118995 -0.08125596 0.12225295 0.03198532 -0.071573764 0.1124062
0.088882186 -0.057752904 0.10260851 -0.038631286 -0.010755643 -0.069669195 -0.0180966 -0.052753594
-0.006026524 -0.052822378 -0.1921449 0.030339822 -0.04766423 -0.002598761 0.10928461 0.10480799
0.13827911 -0.047991686 0.060727097 0.1257632 0.13645251 0.06256632 0.17408966 0.055994295
-0.08222674 0.04234533 0.16390863 -0.024130063 0.16159539 0.05227497 -0.14066592 0.046847034
0.058845937 0.2237945 0.18101501 0.07278296 0.136009 0.07012122 0.11537938 0.09757212
0.07347561 0.10799165 -0.00077014376 0.036530033 -0.05670345 -0.016373202 0.1512655 0.0073479475
0.11451035 0.005860695 0.051568564 -0.0033518076 0.03701956 0.1624417 0.08518718 -0.07111838
-0.07585767 -0.008028264 -0.01706662 -0.051328752 0.1040873 -0.004649078 -0.0043501174 0.0575826
-0.035812918 -0.07938359 0.09309325 0.0017119114 -0.03172351 -0.048194505 0.023511436 -0.054234978
-0.10009066 -0.07687254 -0.10485421 -0.13436109 0.13675343 -0.08063917 -0.0414043 0.038101688
0.14969517 -0.095270485 0.0736494 0.13596691 -0.022834994 0.21473415 0.006075686 0.10632636
0.078622416 0.10001645 -0.14040594 0.16629249 0.033216517 -0.064390264 0.010874872 0.052570187
0.23786412 0.114841424 0.034185052 0.07895466 0.22233054 0.12948951 0.19984029 0.1390274
0.07270426 0.18627428 -0.051596396 -0.0063606123 -0.091141246 0.065881945 0.078611866 0.02094335
0.16455582 -0.063607864 0.107735105 -0.10765049 0.15515453 -0.13306448 0.06134676 0.14743692
-0.015198373 0.067060195 -0.04404818 -0.08660131 -0.06966458 0.103678815 0.121924154 -0.01570526
0.13380882 0.004267117 -0.04818569 -0.07952777 -0.022909662 -0.11386672 -0.13018426 0.062804736
-0.059416506 -0.12601471 0.081160605 0.04275666 0.14930296 0.09453769 0.16670738 0.10266758
0.0009265391 0.021463785 0.1873142 0.15141387 0.22580822 0.1613139 0.06268057 0.26971492
00000000: e73d 403e 5794 793d e0bd a13b 4be2 413e
00000010: c6e4 f73b ccc1 2e3c 33c1 2c3e 9871 233d
00000020: 641a 07bd 949d 9a3d 4b45 2a3b f668 08bd
00000030: b541 ba3d 24da 153e 2c42 58bd 306a 473e
00000040: b16c 853d 4a91 e93d dedb 4e3e 916c d13d
00000050: 83f1 6e3e 9ae0 c93d 7e03 6e3d 0ba2 8b3d
00000060: af76 373e 3d18 0e3c 54a5 393c 389c b9bc
00000070: 85e3 263e 0d37 b4bd e1ce d0bc c1c1 603c
00000080: abef 983d d0e5 023d 3d4e 3c3d 03b5 a53c
00000090: 790b 843d b439 003d 2b72 a23d 99d6 19be
000000a0: 6ee1 b73d 8334 b2bc a1a7 a7bd e278 8fbd
000000b0: 576c 7cbc 4b01 01be 2237 9d3d 5e98 62bd
000000c0: 7a69 ccbc b71a 1b3c 106a 2fbd 00a1 18be
000000d0: aad9 bd3d 502a 19be a685 953d b4bc 44bc
000000e0: 1a78 57bc 6d12 db3d 08fd 263e b7a9 a5bd
000000f0: 8f4a 9cbc ffa4 003c 5060 533b 3951 5c3e
00000100: 703c 963d abec f53c 5fd2 4b3e b65a 993d
00000110: 542a 683d 76b2 6f3e 8c63 e73d b14c 8abd
00000120: 7c2d c03b 8fce 203e c67b 063e 4ba8 143e
00000130: ff7a 223d b51a 833d 8db3 503e 3615 4f3d
00000140: 81aa dc3d cfc8 4b3e 90bf 753a 35a6 543e
00000150: d692 a03c d62c af3d 043d fa3d bbac 393e
00000160: c212 3abd 2b7f 4e3d eeab 973c 9557 bf3d
00000170: aea1 433e 2417 16ba 4cd8 93bc 7df5 96bd
00000180: 395d a73c 294a 4e3d 300b cd3d 8669 a6bd
00000190: c15f fa3d 0a03 033d 4495 92bd 3935 e63d
000001a0: dd07 b63d 4f8e 6cbd 6924 d23d d73b 1ebd
000001b0: 7038 30bc b9ae 8ebd 523f 94bc 2714 58bd
000001c0: 267a c5bb 475c 58bd a2c1 44be 388b f83c
000001d0: 913b 43bd fa4f 2abb 9cd0 df3d 92a5 d63d
000001e0: 0a99 0d3e ee92 44bd fabc 783d 11c8 003e
000001f0: 35ba 0b3e c522 803d 8f44 323e 465a 653d
00000200: 7e66 a8bd 4c72 2d3d aad7 273e 69ac c5bc
00000210: 4379 253e 471e 563d ba0a 10be ade2 3f3d
00000220: 7008 713d 632a 653e 005c 393e 3c0f 953d
00000230: f145 0b3e b79b 8f3d 064c ec3d e4d3 c73d
00000240: 617a 963d ba2a dd3d 79e3 49ba 84a0 153d
00000250: e041 68bd 1821 86bc 58e5 1a3e 0dc7 f03b
00000260: 6784 ea3d 130b c03b 8f39 533d 00aa 5bbb
00000270: d2a1 173d 1e57 263e 9e76 ae3d 83a6 91bd
00000280: 445b 9bbd fb88 03bc 4ccf 8bbc 193e 52bd
00000290: b92b d53d 4b57 98bb 6e8b 8ebb bbdb 6b3d
000002a0: 91b0 12bd dd93 a2bd ada7 be3d 3762 e03a
000002b0: 83f0 01bd 9a67 45bd 0e9b c03c 7f25 5ebd
000002c0: 55fc ccbd 5a6f 9dbd cebd d6bd f495 09be
000002d0: 1709 0c3e 2626 a5bd 8e97 29bd 8410 1c3d
000002e0: b149 193e 2c1d c3bd 7fd5 963d e93a 0b3e
000002f0: 7410 bbbc 45e3 5b3e 8c16 c73b a2c1 d93d
00000300: ca04 a13d 6dd5 cc3d 93c6 0fbe 9448 2a3e
00000310: 0b0e 083d 0bdf 83bd 852c 323c d653 573d
00000320: a792 733e fb31 eb3d a005 0c3d fbb2 a13d
00000330: 9eaa 633e e698 043e efa2 4c3e 335d 0e3e
00000340: f9e5 943d afbe 3e3e be56 53bd af6c d0bb
00000350: 43a8 babd 1ded 863d 42ff a03d 6391 ab3c
00000360: 5281 283e d744 82bd 39a4 dc3d dc77 dcbd
00000370: d4e0 1e3e 0e42 08be bd46 7b3d b4f9 163e
00000380: 9902 79bc db56 893d dd6b 34bd 075c b1bd
00000390: 4eac 8ebd 8f55 d43d 5fb3 f93d 51a8 80bc
000003a0: 2e05 093e 2cd3 8b3b 5c5e 45bd 75df a2bd
000003b0: 0bad bbbc f432 e9bd 064f 05be c59f 803d
000003c0: b95e 73bd 000a 01be 8837 a63d 9c21 2f3d
000003d0: e0e2 183e fa9c c13d 57b5 2a3e 6143 d23d
000003e0: fde2 723a d2d4 af3c 4bcf 3f3e 3d0c 1b3e
000003f0: 453a 673e 792f 253e ac5e 803d 1318 8a3e

conv_a_0.bias f4 [16]
0.08800299 0.1679735 0.1580616 0.15943688 0.10519465 -0.032294612 -0.013442789 0.091553286
0.018606609 0.03359943 0.056407776 -0.023924323 -0.041858234 0.05292695 0.07465399 -0.12286896
00000000: e93a b43d 3f01 2c3e e6da 213e 6c43 233e
00000010: 4b70 d73d 5b47 04bd 253f 5cbc 4a80 bb3d
00000020: e36c 983c 8e9f 093d d70b 673d f1fc c3bc
00000030: 8a73 2bbd eec9 583d 31e4 983d b9a2 fbbd

conv_a_1.weight f4 [16, 16, 3, 3]
0.0791208 0.07596026 0.11894886 0.01783244 0.11626848 0.06834316 0.046748716 0.11866058
0.008782742 -0.024092529 0.0032063373 -0.00956105 -0.011055782 0.11161367 0.03971282 0.010413988
0.13544437 0.050610345 0.078726105 0.0689615 -0.009954452 0.09265072 0.041680176 0.033809166
-0.023202999 0.043977365 0.005139335 0.11760307 0.107886605 -0.014399825 0.010866303 0.030684523
-0.024834193 0.12272251 -0.0025251661 0.058654565 0.0033769545 0.09234131 0.018458305 -0.01051472
-0.008369524 -0.03926396 0.037099324 0.08220746 0.09601883 -0.04093336 -0.07353463 0.050295375
0.025560545 -0.10402921 -0.06538406 -0.012618715 0.045084808 -0.002722548 0.14209276 0.122792184
0.09124067 0.022750286 0.16570468 0.048462152 0.09282751 0.0316804 0.011470414 0.12380837
0.07788797 0.011595609 0.05536367 0.037102744 -0.00013137434 0.05733558 0.10546408 0.099406965
0.10856009 0.10749864 0.0077133058 -0.014356855 0.02195167 0.028699903 -0.02365477 0.13503043
0.009224157 -0.004536369 0.09014068 0.06011648 0.15542157 0.067163885 0.092732355 0.06564001
0.0026496132 0.12498519 0.12672827 0.07689418 0.05274908 0.059930947 0.0048786043 0.102804355
0.13684317 0.08498867 0.11422015 -0.0115596885 -0.040593535 -0.050512034 -0.034038153 0.009691184
0.0062273364 -0.07301411 0.030456277 0.061324265 0.06952817 0.073837206 0.05631318 0.07528454
0.12643108 0.017091582 0.00048152346 0.008865481 0.06317905 0.17224523 0.08661162 0.10759894
0.029100979 0.07515934 0.07788962 0.11235516 0.027045527 -1.6306187e-05 0.090056695 0.11819088
0.06915864 0.075827785 -0.019686984 -0.024371635 -0.04843252 0.057957064 -0.033021368 0.0066687316
0.03102229 0.010602871 0.025250066 0.005098398 0.0020616825 0.05213032 0.04157124 -0.037589498
-0.056505412 0.09117691 -0.0043538846 -0.060042046 0.055902794 0.022327738 -0.06018588 0.020569332
0.03334449 -0.018640341 -0.026714535 0.09451161 0.11262904 0.0031773828 0.09162133 -0.021357685
-0.038009755 0.0663969 -0.060514033 0.07629703 -0.044978563 0.10358422 -0.015437849 0.06738961
-0.045226816 0.033278976 0.083581805 0.051272564 0.0312041 0.0059823734 0.034472954 0.035073154
0.05427178 -0.01934777 0.06876046 0.075642206 -0.07326001 0.042166602 0.09264178 0.056178797
-0.024409967 0.090788096 -0.011207969 -0.005291589 -0.008472214 0.13009654 0.095996596 0.08735105
0.059348498 0.077042945 0.12373443 0.018605854 0.061711133 0.05506728 0.019055206 0.09044454
-0.045997147 0.10728983 0.10274211 0.09271453 0.038076475 -0.030737467 0.06883858 0.089255154
0.080873266 0.09879227 0.018228788 -0.023916462 0.11555103 0.057031795 -0.0015708185 -0.0043790964
0.03813219 0.03024433 -0.008256339 0.037298847 0.017475441 0.08787529 -0.024235882 0.04891134
-0.026327603 -0.036906905 -0.04404805 -0.0034030755 0.008487177 -0.029064696 -0.028682765 -0.06565551
-0.05508995 -0.07908957 0.006500526 0.0077258497 0.11633733 -0.029750211 -0.0016920039 0.03540983
0.051056907 -0.026149169 -0.035627466 0.031073472 -0.014253632 0.018357733 -0.03035971 0.07742128
-0.050463863 -0.019563532 0.06046008 0.061341047 0.14136598 0.13402222 0.00884276 0.11523264
00000000: 160a a23d 0e91 9b3d 769b f33d 5615 923c
00000010: 2b1e ee3d 80f7 8b3d 957b 3f3d 5104 f33d
00000020: 7de5 0f3c b25d c5bc 6a21 523b f3a5 1cbc
00000030: 5023 35bc b595 e43d e9a9 223d 6e9f 2a3c
00000040: eeb1 0a3e cb4c 4f3d 273b a13d b03b 8d3d
00000050: ff17 23bc a9bf bd3d d5b8 2a3d 7b7b 0a3d
00000060: 3714 bebc 9c21 343d de67 a83b e1d9 f03d
00000070: a7f3 dc3d 3eed 6bbc 9408 323c 1c5e fb3c
00000080: 1471 cbbc f055 fb3d 427d 25bb c53f 703d
00000090: e54f 5d3b 711d bd3d df35 973c ef45 2cbc
000000a0: 5420 09bc 3fd3 20bd 76f5 173d 635c a83d
000000b0: 85a5 c43d bda9 27bd 5399 96bd 8602 4e3d
000000c0: 5964 d13c 440d d5bd 14e8 85bd babe 4ebc
000000d0: d9aa 383d c76c 32bb c480 113e 787a fb3d
000000e0: 63dc ba3d cf5e ba3c 7dae 293e 4080 463d
000000f0: 591c be3d 4fc3 013d 67ee 3b3c 3e8f fd3d
00000100: ba83 9f3d 82fb 3d3c 04c5 623d 0cf9 173d
00000110: 88c1 09b9 b7d8 6a3d 8dfd d73d e195 cb3d
00000120: c154 de3d 3f28 dc3d e6bf fc3b 0439 6bbc
00000130: fdd3 b33c 0f1c eb3c a6c7 c1bc 6b45 0a3e
00000140: eb20 173c d2a5 94bb ad9b b83d b33c 763d
00000150: d526 1f3e 388d 893d 76ea bd3d 456e 863d
00000160: 22a5 2d3b 3cf8 ff3d 0ec5 013e b27a 9d3d
00000170: 6b0f 583d 277a 753d b3dc 9f3b 178b d23d
00000180: 9e20 0c3e 8a0e ae3d 41ec e93d d964 3dbc
00000190: 6845 26bd b5e5 4ebd 976b 0bbd c6c7 1e3c
000001a0: af0e cc3b 6c88 95bd 717f f93c 272f 7b3d
000001b0: c964 8e3d f637 973d a6a8 663d c82e 9a3d
000001c0: 2677 013e a503 8c3c fc74 fc39 8640 113c
000001d0: 0564 813d 0e61 303e 6f61 b13d d55c dc3d
000001e0: 2d65 ee3c 24ed 993d 9884 9f3d 761a e63d
000001f0: 958e dd3c 45c9 88b7 a56f b83d 0f0e f23d
00000200: 0ca3 8d3d 994b 9b3d 9946 a1bc 06a7 c7bc
00000210: 2e61 46bd 6364 6d3d 6a41 07bd 6085 da3b
00000220: 7522 fe3c aab7 2d3c 3ad9 ce3c 7610 a73b
00000230: 4b1d 073b 9a86 553d 9b46 2a3d 72f7 19bd
00000240: 3872 67bd f6ba ba3d 08ab 8ebb a6ee 75bd
00000250: 54fa 643d a9e8 b63c 7885 76bd 0481 a83c
00000260: 3b94 083d a1b3 98bc 71d8 dabc 4e8f c13d
00000270: 0eaa e63d a33b 503b f7a3 bb3d 50f6 aebc
00000280: 1eb0 1bbd 19fb 873d 90dd 77bd 9e41 9c3d
00000290: 713b 38bd f723 d43d 08ef 7cbc 9003 8a3d
000002a0: c13f 39bd 894f 083d f02c ab3d 2e03 523d
000002b0: be9f ff3c c907 c43b 8333 0d3d dea8 0f3d
000002c0: 164c 5e3d 377f 9ebc 49d2 8c3d 4dea 9a3d
000002d0: 5809 96bd e3b6 2c3d f9ba bd3d bd1b 663d
000002e0: 69f7 c7bc 1cef b93d a1a1 37bc 1165 adbb
000002f0: 0bcf 0abc 0738 053e dd99 c43d 1be5 b23d
00000300: 6917 733d b1c8 9d3d 7a68 fd3d 4e6b 983c
00000310: d0c4 7c3d 3a8e 613d aa19 9c3c fd3a b93d
00000320: 8167 3cbd c5ba db3d 756a d23d 1ee1 bd3d
00000330: 14f6 1b3d 24cd fbbc 3efb 8c3d 68cb b63d
00000340: e2a0 a53d 9a53 ca3d 8a54 953c 75ec c3bc
00000350: 05a6 ec3d 2c9a 693d ece3 cdba 867e 8fbb
00000360: 8030 1c3d f5c2 f73c 9845 07bc adc6 183d
00000370: a828 8f3c f6f7 b33d 548a c6bc 4257 483d
00000380: fcac d7bc b22b 17bd ba6b 34bd 2206 5fbb
00000390: cd0d 0b3c 1619 eebc 1ef8 eabc 6576 86bd
000003a0: 00a6 61bd b6f9 a1bd 5d02 d53b 2029 fd3b
000003b0: 4442 ee3d b7b6 f3bc 3bc6 ddba e609 113d
000003c0: 0c21 513d c836 d6bc 1bee 11bd cb8d fe3c
000003d0: 1188 69bc f562 963c edb4 f8bc 0c8f 9e3d
000003e0: 32b3 4ebd b343 a0bc fda4 773d c040 7b3d
000003f0: 3ec2 103e 1f3d 093e 39e1 103c 17ff eb3d

conv_a_1.bias f4 [16]
0.045177486 0.07637561 -0.00029804683 0.10626901 -0.05183235 0.013340507 0.07881901 0.0347352
0.077862084 0.028953074 0.004009132 0.025853656 0.058058504 -0.05772373 0.024014618 -0.044781957
00000000: 070c 393d d16a 9c3d 2b43 9cb9 91a3 d93d
00000010: 294e 54bd 2492 5a3c dc6b a13d 7f46 0e3d
00000020: 2876 9f3d ff2e ed3c 095f 833b 0ccb d33c
00000030: c1ce 6d3d b86f 6cbd 4eba c43c 496d 37bd

linear_a_0.weight f4 [16, 784]
-0.017127182 0.029377803 0.009184348 0.01439724 0.01390381 -0.018889423 -0.044570137 0.028938416
-0.005907296 0.027446546 0.019863555 0.011813249 -0.019827127 -0.020034254 -0.010496252 -0.02743609
0.016754923 0.032787453 0.0035080705 0.006335959 -0.003011974 0.0033766727 -0.020837232 -0.03606941
0.005964849 -0.034321856 0.016615655 0.005566639 -0.029716704 0.021802291 0.020883476 0.028937988
-0.01580016 0.028065324 -0.0026911877 -0.0258942 -0.013285769 0.024127634 0.024352105 -0.010678494
0.005371074 7.193192e-05 -0.007477733 -0.02762532 -0.03292757 0.001295651 0.0045499997 0.004188853
-0.034296483 -0.01995382 0.033488136 0.008270312 -0.001137692 0.028019909 0.00919067 -0.02398565
0.019743191 0.03115141 0.021032656 -0.016936228 0.019653244 -0.004635207 0.006659068 -0.04114955
0.023179546 -0.035666957 -0.0012770706 -0.04475651 0.004809622 0.012519547 -0.033699397 0.024107777
0.03089805 -0.014069254 -0.017689642 -0.022011932 0.016524913 4.9114107e-05 -0.0001721256 0.02815259
0.03275499 -0.031091586 0.010765601 -2.1357828e-05 -0.021550482 0.011909664 0.026146738 -0.037025984
0.029079458 -0.016111374 0.009648267 -0.017428732 0.025941657 -0.016493933 0.030010898 0.017640155
-0.0120200785 0.032483052 0.015953297 -0.03018166 0.01091734 -0.015181946 -0.041967697 0.0074127833
0.0053366423 0.021449378 0.022763431 0.016647944 -0.011312529 0.0026425046 -0.025254661 -0.029889306
0.021260554 -0.004231121 -0.031319004 -0.007089497 0.02170796 0.016691575 -0.00017481382 -0.00018168121
-0.047002167 -0.03837774 0.01570045 -0.012933245 0.010343698 0.0030300256 0.011660741 -0.022491796
-0.039693847 0.014420467 0.010435843 0.023072321 -0.0055288924 -0.01023877 0.0003843296 -0.007376065
-0.0023212894 0.019333435 0.0021611266 -0.04336211 -0.007853807 -0.028669542 0.03445733 -0.027664302
-0.027033018 0.018988553 -0.020652635 -0.022990983 0.008158666 0.004218786 0.018067848 -0.00032616366
0.0113204345 -0.024065347 -0.033628874 -0.03071773 -0.0093487045 -0.022449588 0.0023628816 -0.008706129
-0.016569987 -0.0047345567 -0.010273443 -0.0167254 -0.0342479 0.015816413 0.023822501 0.025758985
-0.020020721 0.0145848235 0.022999827 0.037576128 0.00222857 -0.011780255 0.0022375083 -0.029684104
-0.0029592416 0.030907577 -0.010328962 0.03599738 -0.020101702 -0.037476875 0.026618715 -0.02360723
-0.019969236 -0.022723092 -0.014127826 0.008509511 0.016673222 0.021923305 -0.0030608666 0.008184556
0.022238865 0.024829242 -0.009984926 -0.027137501 -0.0026783745 0.014712699 -0.0282691 -0.03474557
0.02606378 0.0035519374 -0.038764186 -0.0074039884 -0.014807351 -0.04262917 0.025324645 -0.01598891
-0.05096815 -0.008166008 0.008039302 -0.0052266405 -0.03881218 -0.043283667 -0.014692412 -0.018226076
0.0101652965 0.0015265734 0.03424777 0.022865921 -0.029813627 -0.02167726 -0.00858119 -0.030356746
-0.0048480355 0.014137899 -0.049912065 -0.023503907 -0.029196864 -0.024092695 -0.014253265 -0.018714542
0.020331357 0.035739556 0.0029819952 0.00023846496 -0.021333283 -0.017954867 -0.016691374 0.007843052
-0.049059566 -0.023540406 -0.039141674 0.012566015 0.025203364 -0.0121962745 -0.027112607 0.024637338
-0.01003797 -0.028118616 0.018352473 -0.035985626 0.010588819 -0.023730962 -0.02004511 -0.016527165
00000000: 4e4e 8cbc b8a9 f03c f379 163c 67e2 6b3c
00000010: cecc 633c febd 9abc 2d8f 36bd 4210 ed3c
00000020: fe91 c1bb 94d7 e03c e5b8 a23c 5c8c 413c
00000030: 806c a2bc e01e a4bc 79f8 2bbc a7c1 e0bc
00000040: 9f41 893c 234c 063d a8e7 653b e09d cf3b
00000050: 8a64 45bb 2b4b 5d3b d8b2 aabc 85bd 13bd
00000060: c874 c33b 1395 0cbd 8e1d 883c 5a68 b63b
00000070: 7270 f3bc b89a b23c d313 ab3c 5c0f ed3c
00000080: 566f 81bc 40e9 e53c a35e 30bb 1320 d4bc
00000090: 8eac 59bc 51a7 c53c 117e c73c daf4 2ebc
000000a0: d6ff af3b 28da 9638 c507 f5bb 7f4e e2bc
000000b0: 0fdf 06bd d5d2 a93a 2a18 953b a542 893b
000000c0: 787a 0cbd 3276 a3bc db2a 093d 3480 073c
000000d0: 9c1e 95ba 028a e53c 7794 163c 8e7d c4bc
000000e0: 79bc a13c 3e31 ff3c ad4c ac3c d8bd 8abc
000000f0: d7ff a03c efe2 97bb 5034 da3b 6e8c 28bd
00000100: 08e3 bd3c 8417 12bd 6163 a7ba 9a52 37bd
00000110: 099a 9d3b c91e 4d3c 6108 0abd ac7d c53c
00000120: e81d fd3c ba82 66bc dee9 90bc 5e52 b4bc
00000130: 415f 873c dfff 4d38 9d7c 34b9 43a0 e63c
00000140: 192a 063d c8b3 febc 3462 303c 9629 b3b7
00000150: a38a b0bc c020 433c af31 d63c 8fa8 17bd
00000160: 0b38 ee3c 00fc 83bc c413 1e3c b3c6 8ebc
00000170: 9983 d43c 491e 87bc 6ad9 f53c 1682 903c
00000180: ddef 44bc f30c 053d 7db0 823c 873f f7bc
00000190: a5de 323c b2bd 78bc 52e6 2bbd efe6 f23b
000001a0: 00df ae3b 9bb6 af3c 607a ba3c 4561 883c
000001b0: 3058 39bc df2d 2d3b dde2 cebc 6bda f4bc
000001c0: 9d2a ae3c 37a5 8abb 5b48 00bd 034f e8bb
000001d0: e4d4 b13c c5bc 883c 3a4e 37b9 ae81 3eb9
000001e0: 5885 40bd fa31 1dbd 3b9e 803c f6e5 53bc
000001f0: 9d78 293c 6593 463b b10c 3f3c b740 b8bc
00000200: 0496 22bd d343 6c3c 19fb 2a3c 2a02 bd3c
00000210: b62b b5bb 84c0 27bc d97f c939 ebb2 f1bb
00000220: c620 18bb 2761 9e3c b0a1 0d3b 789c 31bd
00000230: 41ad 00bc 63dc eabc 2123 0d3d 3fa0 e2bc
00000240: 5974 ddbc e28d 9b3c b72f a9bc 9657 bcbc
00000250: edab 053c be3d 8a3b 0603 943c f200 abb9
00000260: 5879 393c b124 c5bc 6ebe 09bd c0a3 fbbc
00000270: 4f2b 19bc 33e8 b7bc 93da 1a3b 27a4 0ebc
00000280: c8bd 87bc 5724 9bbb f151 28bc b503 89bc
00000290: 8747 0cbd 6c91 813c 6827 c33c 8204 d33c
000002a0: 7f02 a4bc 2ff5 6e3c 226a bc3c 6de9 193d
000002b0: 330d 123b f801 41bc 29a3 123b 142c f3bc
000002c0: d6ef 41bb e331 fd3c ce3a 29bc fd71 133d
000002d0: 53ac a4bc 5a81 19bd 7e0f da3c f363 c1bc
000002e0: 8696 a3bc c725 babc 6678 67bc 7a6b 0b3c
000002f0: 4896 883c 8198 b33c d298 48bb 8418 063c
00000300: 482e b63c b266 cb3c d197 23bc 774f debc
00000310: ab87 2fbb 880d 713c 9994 e7bc 5f51 0ebd
00000320: b583 d53c 9fc7 683b 32c7 1ebd 289d f2bb
00000330: 889a 72bc ed9b 2ebd a175 cf3c 2dfb 82bc
00000340: fbc3 50bd b8ca 05bc 47b7 033c 3d44 abbb
00000350: 85f9 1ebd 374a 31bd 71b8 70bc da4e 95bc
00000360: 588c 263c 4e17 c83a 6447 0c3d 5051 bb3c
00000370: b53b f4bc 8294 b1bc 1f98 0cbc b6ae f8bc
00000380: 45dc 9ebb a5a2 673c 9870 4cbd 448b c0bc
00000390: 432e efbc 0b5e c5bc 8786 69bc 3d4f 99bc
000003a0: f28d a63c a463 123d 946d 433b 730c 7a39
000003b0: 23c3 aebc 1616 93bc 59bc 88bc 2580 003c
000003c0: aff2 48bd cfd7 c0bc 0553 20bd b0e1 4d3c
000003d0: 4977 ce3c e2d2 47bc 421b debc 3ed4 c93c
000003e0: 4c76 24bc 0359 e6bc ed57 963c aa65 13bd
000003f0: ba7c 2d3c 6f67 c2bc a435 a4bc fa63 87bc

linear_a_0.bias f4 [16]
-0.0035558136 0.0744871 0.011914714 0.011313565 0.038395602 0.007941596 0.026530467 -0.046933517
0.023889696 0.034998894 -0.044299882 0.0695182 0.0034643332 0.05733997 -0.006025639 -0.03137547
00000000: a708 69bb b18c 983d ef35 433c 885c 393c
00000010: b544 1d3d 781d 023c 6c56 d93c 5c3d 40bd
00000020: 53b4 c33c 005b 0f3d cb73 35bd 8f5f 8e3d
00000030: de09 633b 51dd 6a3d b972 c5bb 9183 00bd

GRU_a.weight_ih_l0 f4 [48, 16]
0.102585286 -0.07768909 0.24707314 -0.2441155 0.06715704 0.21926683 0.035637166 -0.2754909
0.047746412 -0.12008281 -0.08860561 0.22335105 -0.12404417 -0.1984275 -0.11567137 0.2064815
-0.025966719 -0.075364724 0.16044234 -0.17779556 -0.23340577 0.21848544 0.07333215 0.035854094
-0.14394931 -0.052926466 -0.011385816 -0.24906912 0.17941923 -0.24307694 -0.24501082 -0.059965506
-0.18149877 0.18112665 -0.1825129 -0.09292543 0.14498599 0.123824276 0.24877098 -0.27082688
-0.19769539 0.186598 0.0027418844 0.1275925 0.16651617 0.14589028 0.020526655 -0.082873546
-0.18686643 -0.18500558 0.16018705 -0.015520935 -0.03362623 -0.23989281 0.055223145 -0.35214126
0.24173248 -0.17966224 0.119488694 0.16804227 -0.17906855 0.20482804 0.1858425 -0.08407267
0.08859224 -0.15739681 -0.116195284 -0.14198898 0.14404513 -0.19247405 -0.12778358 0.04719462
-0.018233782 -0.10340257 -0.3095692 -0.105537325 -0.19508426 0.072747774 0.16506356 -0.22293545
0.093143314 -0.040566888 -0.16682467 -0.049851384 0.1544019 -0.00679291 0.16068158 0.12727392
0.0067634927 0.28214017 -0.083366245 -0.04500181 0.21158202 -0.074679315 -0.19002955 -0.017654294
0.21978201 0.0127894515 -0.23491624 0.0715508 -0.12898254 -0.023458239 -0.018712182 0.24584755
-0.04870848 0.22245018 0.057338443 -0.23860845 0.030951012 0.0012267719 -0.12646721 0.22576277
0.024044983 -0.032267485 0.112070784 -0.0047064056 0.112284005 0.22010522 -0.12654859 -0.15728682
-0.0007767343 0.0443037 0.12617849 -0.21884486 -0.0013684339 0.09035074 0.21972522 -0.24080758
-0.060820993 -0.047935713 -0.03108842 -0.1310545 -0.10758785 0.1297829 0.119219944 0.21125038
-0.060550187 0.18908598 -0.10217248 -0.11162442 -0.11965067 -0.107412495 0.04658638 -0.13316248
-0.12567803 0.15018307 0.10123053 -0.20727436 0.16497003 -0.089177504 -0.19664957 -0.028421888
-0.03328753 -0.2925629 0.049988557 -0.18054383 0.107423976 -0.18112199 0.104724675 0.101833016
-0.16794942 0.12482493 0.05199532 -0.16374156 0.019152867 -0.20716082 0.10020373 -0.2242079
0.028859472 -0.07638027 0.17046976 -0.177317 0.2532381 -0.12348335 -0.058631 0.1975956
0.2235647 -0.103035 0.17067413 0.14528905 -0.04659571 0.056769278 -0.20416342 0.15695895
-0.06367397 0.088495694 0.23972955 -0.18535338 -0.052878127 0.15163986 0.006611833 -0.10168654
0.03316211 0.023325194 0.18529838 -0.06287916 0.097597726 0.0514619 0.13169123 -0.20946518
-0.20406738 -0.058510162 0.04282985 0.13547742 -0.09228547 -0.20823075 -0.11195833 0.22115745
-0.0681635 0.14104703 -0.23075527 -0.11007026 -0.17809658 -0.21554506 -0.10717936 -0.0030651572
-0.060463645 0.05377712 0.099354014 -0.250424 -0.041735247 -0.020172121 -0.11007538 -0.05538172
0.10118595 -0.18381958 -0.0351694 0.2771671 -0.079518504 -0.03321966 0.049776614 -0.13358504
0.0008043431 -0.04075752 0.054351896 0.16626734 0.15042858 -0.24760647 0.21896228 0.07347066
0.02694017 0.22088102 -0.09903773 0.28789428 0.10876969 -0.048846908 0.16491692 0.33562455
0.03772674 0.20138627 0.026867371 0.18113956 0.122381926 -0.029867668 0.052515376 -0.23410736
00000000: 3c18 d23d 751b 9fbd be00 7d3e 6af9 79be
00000010: a189 893d 7c87 603e 47f8 113d 250d 8dbe
00000020: be91 433d faed f5bd dc76 b5bd 23b6 643e
00000030: df0a febd 9430 4bbe 1ce5 ecbd e36f 533e
00000040: 28b8 d4bc d258 9abd ff4a 243e 0a10 36be
00000050: ec01 6fbe a6ba 5f3e 2b2f 963d bedb 123d
00000060: 7367 13be 6cc9 58bd 938b 3abc fa0b 7fbe
00000070: adb9 373e 29e9 78be 1ee4 7abe 649e 75bd
00000080: d0da 39be 4479 393e a9e4 3abe b04f bebd
00000090: 3577 143e 9597 fd3d d2bd 7e3e d2a9 8abe
000000a0: a970 4abe 8c13 3f3e 30b1 333b 9ca7 023e
000000b0: 3783 2a3e 4364 153e 8427 a83c 9bb9 a9bd
000000c0: ea59 3fbe 1a72 3dbe 1308 243e 854b 7ebc
000000d0: a8bb 09bd 76a6 75be aa31 623d dc4b b4be
000000e0: b888 773e 61f9 37be 7db6 f43d 4613 2c3e
000000f0: bf5d 37be 71be 513e 7f4d 3e3e 4b2e acbd
00000100: d96f b53d a12c 21be cbf7 edbd 8f65 11be
00000110: 9180 133e eb17 45be b3d9 02be 254f 413d
00000120: 035f 95bc bac4 d3bd db7f 9ebe f423 d8bd
00000130: 2bc4 47be c9fc 943d 6c06 293e 3149 64be
00000140: ecc1 be3d 7729 26bd 16d4 2abe f730 4cbd
00000150: 881b 1e3e 0f97 debb b689 243e 1854 023e
00000160: 4aa0 dd3b ad74 903e ecbb aabd d153 38bd
00000170: f5a8 583e 78f1 98bd 1b97 42be bd9f 90bc
00000180: 890e 613e d98a 513c e28d 70be 3a89 923d
00000190: 0014 04be 7e2b c0bc 4a4a 99bc 76bf 7b3e
000001a0: 8b82 47bd fbc9 633e b7db 6a3d c655 74be
000001b0: fa8c fd3c a2cb a03a 9f80 01be 5b2e 673e
000001c0: fcf9 c43c e92a 04bd 5e85 e53d 3138 9abb
000001d0: 28f5 e53d 4363 613e f495 01be cc0f 21be
000001e0: c29d 4bba cc77 353d ef34 013e de18 60be
000001f0: 065d b3ba cf09 b93d a6ff 603e 4396 76be
00000200: 6f1f 79bd 3d58 44bd 24ad febc 2733 06be
00000210: 0557 dcbd cfe5 043e 9629 f43d 0552 583e
00000220: 7903 78bd c19f 413e ce3f d1bd 589b e4bd
00000230: 690b f5bd 15fb dbbd 5cd1 3e3d bf5b 08be
00000240: beb1 00be 97c9 193e f451 cf3d bb3f 54be
00000250: e7ed 283e b2a2 b6bd 815e 49be 05d5 e8bc
00000260: 8158 08bd ceca 95be cdc0 4c3d 7be0 38be
00000270: 1a01 dc3d 0b78 39be e479 d63d d48d d03d
00000280: effa 2bbe 37a4 ff3d 0bf9 543d deab 27be
00000290: 79e6 9c3c f721 54be 9d37 cd3d c196 65be
000002a0: b36a ec3c 426d 9cbd a08f 2e3e 9692 35be
000002b0: 6da8 813e d7e4 fcbd 0f27 70bd 8056 4a3e
000002c0: 25ee 643e 0404 d3bd 33c5 2e3e a7c6 143e
000002d0: 25db 3ebd e786 683d 3710 51be d9b9 203e
000002e0: 8067 82bd 3b3d b53d aa7b 753e 47cd 3dbe
000002f0: bc96 58bd 7b47 1b3e 13a8 d83b 0841 d0bd
00000300: fed4 073d 7a14 bf3c dcbe 3d3e cac6 80bd
00000310: 51e1 c73d b7c9 523d 11da 063e 0a7e 56be
00000320: 0af7 50be 5aa8 6fbd 5a6e 2f3d 98ba 0a3e
00000330: 2a00 bdbd 713a 55be 694a e5bd 1977 623e
00000340: 4e99 8bbd a26e 103e 1c4b 6cbe 846c e1bd
00000350: f35e 36be d8b7 5cbe da80 dbbd cee0 48bb
00000360: baa8 77bd 6645 5c3d 1e7a cb3d 9337 80be
00000370: 94f2 2abd 0140 a5bc 336f e1bd f1d7 62bd
00000380: 943a cf3d 333b 3cbe ca0d 10bd d9e8 8d3e
00000390: 99da a2bd 5711 08bd 90e2 4b3d 84ca 08be
000003a0: 8dda 523a 5bf1 26bd 18a0 5e3d fc41 2a3e
000003b0: f309 1a3e 8d8c 7dbe a637 603e c977 963d
000003c0: a2b1 dc3c a22e 623e 4bd4 cabd e166 933e
000003d0: a5c2 de3d b213 48bd fbdf 283e fbd6 ab3e
000003e0: 5b87 1a3d 3438 4e3e f618 dc3c a67c 393e
000003f0: 60a3 fa3d 0aad f4bc 5d1a 573d d7b9 6fbe

GRU_a.weight_hh_l0 f4 [48, 16]
-0.2604555 -0.18632965 0.036250047 -0.054699756 0.1658389 -0.25925142 0.09156912 0.17020547
-0.121544436 -0.019162001 0.07216528 -0.07861917 -0.0033418415 0.1855066 -0.2620283 -0.24023408
-0.27459517 -0.015004436 -0.093245514 -0.1445739 0.14315432 0.13420862 -0.22049722 0.014738677
-0.023403779 0.13573259 -0.19057214 -0.26506504 0.05621203 -0.18247193 0.08869083 -0.24164845
0.22406931 0.1491455 0.028925667 0.18296367 -0.09797976 -0.021921577 -0.20886189 0.093608126
0.25726292 -0.054317586 -0.15609731 -0.08040456 0.10722888 0.13003011 0.13002358 -0.05084904
0.21236601 -0.18576063 0.24118395 0.1489933 0.041834664 0.16332226 0.30073524 0.225069
0.07602169 -0.15890232 0.14630425 -0.10775084 0.30578038 0.06522713 0.16557649 -0.123282716
-0.2439873 -0.10388053 -0.044112887 0.23326442 -0.16611512 -0.27550536 -0.20675385 0.21769425
0.333962 0.011477824 -0.022013705 0.20137486 -0.1340718 -0.08067263 -0.03539214 -0.18840432
-0.16182749 -0.070888 0.10265204 -0.0458804 -0.017272346 -0.08019122 0.03697474 -0.18434499
-0.10187275 -0.15445423 0.22087035 0.04437358 -0.16560836 0.013734066 -0.17341097 -0.060063194
-0.075095765 0.0045893467 0.09756358 -0.065570645 0.07941899 -0.06855894 -0.04009303 -0.26176995
-0.020788368 -0.21406811 0.2166283 -0.20858541 0.083337136 -0.1927406 -0.047370315 0.30569062
0.021609701 0.06327363 0.017879874 -0.26329544 -0.24105574 -0.16640732 0.111319706 -0.12906085
0.22025225 -0.09547005 0.22320037 0.05109074 0.10693804 0.22609577 -0.03353795 -0.025698815
-0.26504633 -0.24504372 -0.107157186 -0.24800381 -0.18754709 0.12118278 0.018279456 -0.012753274
-0.21905097 -0.01727399 -0.09911853 0.025080834 -0.023770023 -0.075866416 -0.00791275 -0.20459352
0.08767003 -0.05376788 -0.21731068 -0.27022916 -0.06355576 0.15856934 0.015554214 -0.13939463
-0.05921769 -0.14401227 0.19131628 0.013475373 -0.06896628 -0.012118513 0.090839535 -0.1784418
-0.029805332 -0.027400756 -0.1515801 -0.15954685 0.18928531 -0.23789644 -0.04944944 -0.34730995
0.14690752 -0.24636059 -0.19178995 0.1173918 0.122791015 0.31728366 0.29836065 0.16705808
-0.054250672 -0.052819844 0.19492511 0.060553353 -0.087272264 -0.07562129 -0.071574286 -0.10653023
-0.15608548 -0.19049157 0.08924717 -0.15692674 -0.2145078 -0.27336228 -0.15240695 -0.087303765
0.21441627 -0.0666916 -0.08082738 0.24089134 0.36246336 -0.19837262 -0.0047397525 -0.2710402
-0.23935628 -0.16038913 0.05327464 0.2109882 -0.114062056 0.0250099 -0.05185758 0.1805145
-0.059975103 -0.340738 0.080063984 0.19547777 -0.26625273 0.16912378 0.06720196 0.24115464
-0.028206633 0.21901836 -0.1777719 0.105205 0.17433433 -0.09007129 -0.15252572 0.054612473
0.025485173 0.0012681828 0.17021273 0.21094586 -0.26571456 0.15586495 -0.17946982 -0.17942941
-0.023362711 0.24098569 -0.15368542 0.03215691 0.31121135 -0.18546277 -0.13103108 0.08245188
0.24196497 -0.102869794 -0.024699451 -0.06726911 0.31914657 -0.0394422 -0.12877654 -0.32197455
-0.035421874 -0.20383604 -0.044671986 0.14891493 0.1676626 0.09637001 -0.11378403 0.32713017
00000000: 6c5a 85be 33cd 3ebe ee7a 143d da0c 60bd
00000010: acd1 293e 9abc 84be 9788 bb3d 584a 2e3e
00000020: 4aec f8bd a1f9 9cbc 64cb 933d 1603 a1bd
00000030: cc02 5bbb 71f5 3d3e 9328 86be ecff 75be
00000040: bd97 8cbe 2ad5 75bc 81f7 bebd 2e0b 14be
00000050: 0c97 123e fc6d 093e 06ca 61be 7e7a 713c
00000060: 48b9 bfbc 7cfd 0a3e 5825 43be 9bb6 87be
00000070: 963e 663d ecd9 3abe 8aa3 b53d b172 77be
00000080: 6d72 653e 99b9 183e 85f5 ec3c d45a 3b3e
00000090: 9da9 c8bd e194 b3bc e4df 55be 9eb5 bf3d
000000a0: f7b7 833e 1e7c 5ebd f9d7 1fbe 25ab a4bd
000000b0: d19a db3d 9d26 053e e724 053e 1547 50bd
000000c0: 7a76 593e 0938 3ebe edf8 763e b391 183e
000000d0: d35a 2b3d f33d 273e f8f9 993e 7d78 663e
000000e0: 43b1 9b3d 4ab7 22be c8d0 153e 79ac dcbd
000000f0: 3f8f 9c3e cd95 853d e28c 293e a67b fcbd
00000100: cfd7 79be 51bf d4bd b7af 34bd dedc 6e3e
00000110: 151a 2abe 0a0f 8dbe 48b7 53be 3eeb 5e3e
00000120: 11fd aa3e 7c0d 3c3c 1656 b4bc 3635 4e3e
00000130: 1e4a 09be b137 a5bd 59f7 10bd 10ed 40be
00000140: 1bb6 25be ba2d 91bd 3c3b d23d 16ed 3bbd
00000150: bc7e 8dbc 4b3b a4bd d372 173d efc4 3cbe
00000160: a9a2 d0bd 4029 1ebe d62b 623e 12c1 353d
00000170: 3d95 29be d904 613c a592 31be d304 76bd
00000180: cfcb 99bd 3b62 963b 6acf c73d e749 86bd
00000190: 6ca6 a23d a168 8cbd 9738 24bd b606 86be
000001a0: 5e4c aabc ac34 5bbe cfd3 5d3e 6a97 55be
000001b0: a9ac aa3d cb5d 45be 6007 42bd 7b83 9c3e
000001c0: d406 b13c 9b95 813d d078 923c a9ce 86be
000001d0: 51d7 76be ae66 2abe 96fb e33d 8728 04be
000001e0: ce89 613e cd85 c3bd a38e 643e 8644 513d
000001f0: 5502 db3d a685 673e 175f 09bd 5286 d2bc
00000200: 27b4 87be beec 7abe 3a75 dbbd b6f4 7dbe
00000210: 580c 40be ad2e f83d ccbe 953c 1cf3 50bc
00000220: e64e 60be 2f82 8dbc a8fe cabd 5276 cd3c
00000230: 5ab9 c2bc da5f 9bbd 7ba4 01bc f780 51be
00000240: 588c b33d b53b 5cbd b186 5ebe 7a5b 8abe
00000250: 8629 82bd 0060 223e 1ad7 7e3c 77bd 0ebe
00000260: 408e 72bd f477 13be 6ae8 433e d0c7 5c3c
00000270: 313e 8dbd ba8c 46bc 140a ba3d 72b9 36be
00000280: 502a f4bc 8d77 e0bc d037 1bbe 4060 23be
00000290: 02d4 413e 209b 73be 7f8b 4abd 9cd2 b1be
000002a0: ed6e 163e f345 7cbe 9664 44be 1d6b f03d
000002b0: db79 fb3d 0173 a23e bac2 983e 4611 2b3e
000002c0: f435 5ebd 9f59 58bd 739a 473e cb06 783d
000002d0: cdbb b2bd 56df 9abd 8a95 92bd 852c dabd
000002e0: dfd4 1fbe 3910 43be 38c7 b63d 67b1 20be
000002f0: efa7 5bbe 24f6 8bbe 9110 1cbe 51cc b2bd
00000300: f08f 5b3e 9b95 88bd d388 a5bd 38ac 763e
00000310: cc94 b93e 3122 4bbe ed4f 9bbb c8c5 8abe
00000320: d019 75be 0c3d 24be 8236 5a3d 4a0d 583e
00000330: 5e99 e9bd 90e1 cc3c 9d68 54bd cbd8 383e
00000340: 74a8 75bd 3675 aebe 96f8 a33d 532b 483e
00000350: 4752 88be c92e 2d3e 2ea1 893d 3ef1 763e
00000360: 9911 e7bc 5946 603e d609 36be b875 d73d
00000370: b384 323e 4c77 b8bd b42f 1cbe 54b1 5f3d
00000380: 48c6 d03c 2739 a63a 3f4c 2e3e 3102 583e
00000390: bd0b 88be 109b 1f3e f0c6 37be 58bc 37be
000003a0: 2863 bfbc f4c4 763e b65f 1dbe f7b6 033d
000003b0: 1857 9f3e f4e9 3dbe 032d 06be 88dc a83d
000003c0: aac5 773e 66ad d2bd 8156 cabc 63c4 89bd
000003d0: 2e67 a33e 258e 21bd ffdd 03be d9d9 a4be
000003e0: 8716 11bd 65ba 50be f9f9 36bd 287d 183e
000003f0: bfaf 2b3e a45d c53d 9a07 e9bd 9b7d a73e

GRU_a.bias_ih_l0 f4 [48]
-0.08844485 -0.01344944 -0.13060227 -0.17999242 -0.23799022 0.24013887 0.26405248 -0.011051399
-0.22766222 -0.2162363 0.13538271 0.08375377 0.1355886 -0.20966418 -0.10175556 0.19885853
-0.20721892 -0.24510226 0.21735668 -0.0039417553 -0.21255301 0.00021186174 -0.16553858 -0.17348774
-0.09225797 0.19510885 0.110869 -0.2331467 0.10402275 -0.13417532 0.059170395 0.032806553
0.20490524 0.10872163 -0.056014284 0.2673443 -0.14296661 0.07015342 -0.07012261 -0.2988177
-0.011222783 0.14648059 -0.2926985 0.13841887 0.118846744 -0.114969365 0.17066477 0.18743272
00000000: 9322 b5bd 0a5b 5cbc 9abc 05be ef4f 38be
00000010: b5b3 73be f7e6 753e e331 873e ed10 35bc
00000020: 4920 69be 0c6d 5dbe c4a1 0a3e 1987 ab3d
00000030: bdd7 0a3e 35b2 56be 3865 d0bd 92a1 4b3e
00000040: 3231 54be 16fc 7abe c092 5e3e d729 81bb
00000050: 7fa7 59be 3427 5e39 f282 29be c5a6 31be
00000060: bff1 bcbd 9dca 473e 490f e33d 02be 6ebe
00000070: e109 d53d 4165 09be a85c 723d 2a60 063d
00000080: aed2 513e 72a9 de3d 3c6f 65bd 5ae1 883e
00000090: d765 12be 99ac 8f3d 719c 8fbd a2fe 98be
000000a0: c3df 37bc 02ff 153e 94dc 95be adbd 0d3e
000000b0: ec65 f33d 0f75 ebbd bfc2 2e3e 5dee 3f3e

GRU_a.bias_hh_l0 f4 [48]
0.00096392713 -0.30281946 0.13109289 -0.22937928 -0.1680566 -0.102824844 -0.018179847 0.16769302
0.06495661 -0.11807099 0.2788719 -0.10948778 0.061836395 -0.13372494 0.20252672 -0.014783204
-0.37399518 -0.2423814 -0.23424372 -0.054689884 -0.16734359 -0.22531004 0.14476982 -0.06263272
-0.16164328 -0.05357831 0.1266235 -0.15032777 0.06553225 -0.08803904 -0.07843284 -0.26070958
-0.023433361 -0.02904256 -0.09467531 0.23420182 -0.05774911 -0.10036453 0.22393037 0.025439288
-0.17922904 0.13155578 -0.2151865 -0.15761752 -0.21409017 0.05468617 -0.196941 -0.07589755
00000000: 0eb0 7c3a 270b 9bbe 373d 063e 67e2 6abe
00000010: 0817 2cbe d595 d2bd e7ed 94bc b8b7 2b3e
00000020: f907 853d 34cf f1bd 4cc8 8e3e 213b e0bd
00000030: 2948 7d3d 31ef 08be 2a63 4f3e 4035 72bc
00000040: 4c7c bfbe d432 78be 96dd 6fbe 8002 60bd
00000050: 1e5c 2bbe adb7 66be 8a3e 143e 9545 80bd
00000060: d185 25be ee74 5bbd 97a9 013e 86ef 19be
00000070: c635 863d d04d b4bd 66a1 a0bd ba7b 85be
00000080: 52f7 bfbc aaea edbc 21e5 c1bd 9ad2 6f3e
00000090: 558a 6cbd eb8b cdbd 014e 653e 0e66 d03c
000000a0: d187 37be 8fb6 063e da59 5cbe 7d66 21be
000000b0: 743a 5bbe 9bfe 5f3d e7aa 49be 2d70 9bbd

linear_a.weight f4 [4, 16]
0.11888326 0.28744075 -0.061024416 -0.1334442 0.36558726 -0.18626629 -0.03469166 -0.116002314
0.041003615 -0.039213095 -0.09601349 0.37447715 -0.10597938 0.26990217 0.07742917 0.37841234
-0.24485007 -0.4157815 -0.40308633 -0.16836315 -0.2849123 -0.09612312 -0.12984107 0.19631933
-0.37897182 0.0679773 0.09616955 -0.5583114 -0.04073286 -0.2958074 -0.3290329 -0.21107948
-0.63505316 -0.5081989 -0.3391009 -0.10345925 -0.38030016 0.108718775 -0.020911636 -0.11516624
-0.31561235 -0.01159796 -0.1260822 -0.4119481 -0.27765867 -0.37558308 -0.52561444 -0.37608787
0.25489268 0.20626773 0.14742726 0.21786079 0.36844513 0.18730678 -0.21320835 -0.05542448
0.23303245 -0.27430418 0.2978737 -0.005285254 0.28866354 0.009840278 0.3178685 -0.067783274
00000000: 1179 f33d 6f2b 933e bdf4 79bd 99a5 08be
00000010: 412e bb3e 97bc 3ebe d818 0ebd 9f92 edbd
00000020: 68f3 273d e99d 20bd b8a2 c4bd 78bb bf3e
00000030: b80b d9bd 9e30 8a3e 2f93 9e3d 43bf c13e
00000040: fab9 7abe 50e1 d4be 5561 cebe 6467 2cbe
00000050: 06e0 91be 33dc c4bd 0ff5 04be ef07 493e
00000060: 9808 c2be af37 8b3d 8bf4 c43d 7fed 0ebf
00000070: 80d7 26bd 1174 97be 0077 a8be 3825 58be
00000080: d892 22bf 5319 02bf a29e adbe 71e2 d3bd
00000090: b4b6 c2be f3a7 de3d e14e abbc 47dc ebbd
000000a0: f197 a1be 5f05 3ebc b11b 01be ddea d2be
000000b0: 4729 8ebe 6d4c c0be ab8e 06bf 978e c0be
000000c0: 4b81 823e d937 533e 2cf7 163e e616 5f3e
000000d0: d7a4 bc3e 59cd 3f3e 4a53 5abe c804 63bd
000000e0: 0fa0 6e3e 9971 8cbe e782 983e ed2f adbb
000000f0: b5cb 933e 1e39 213c a9bf a23e f5d1 8abd

linear_a.bias f4 [4]
0.20208971 -0.04354538 -0.52489597 -0.013956206
00000000: 9bf0 4e3e a45c 32bd 955f 06bf 92a8 64bc

conv_v_0.weight f4 [16, 7, 3, 3]
0.043926604 0.035863843 0.01985996 0.11183448 0.003023801 0.018330116 0.23675162 0.010312925
-0.11317448 -0.14599475 -0.16377454 -0.22123182 -0.16949883 -0.27407616 -0.14870138 -0.03730394
-0.21070732 -0.21945691 0.12080137 0.13232239 -0.05142583 0.10606681 -0.045437716 -0.08041204
0.008879215 -0.029555626 -0.02921295 -0.30238777 -0.28129804 -0.12275905 -0.36945945 -0.16212519
-0.23411326 -0.09970978 -0.35564137 -0.09986706 -0.011226471 -0.14350902 -0.14754646 -0.06469217
-0.024762241 -0.19921112 -0.2262986 -0.03689155 -0.06323335 -0.063843556 -0.0007622536 -0.02984079
0.0940273 0.053220112 -0.022330001 0.041998822 -0.13329881 -0.07399211 -0.10504323 -0.006938828
0.023646843 0.008480599 -0.07705891 -0.021426236 -0.070168845 -0.058620773 -0.047794748 -0.16573732
0.08995445 0.057674505 0.12328637 -0.32196888 0.12649761 0.20727174 -0.30699247 0.081413224
-0.51190656 -0.45212448 -0.05691032 -0.2690452 0.047516655 -0.036875125 -0.22830905 0.0611798
0.062300142 0.009719484 0.3226362 -0.2648487 0.10943896 0.2519053 0.36328247 0.12483017
0.12972167 0.2200911 -0.18408662 -0.24825513 -0.07632811 -0.276405 -0.18012036 -0.12062057
0.14895922 0.14696334 0.04314012 -0.15038747 -0.0407876 0.06307183 0.024497379 0.017120153
-0.03770223 0.061684802 -0.0069659282 -0.09676115 -0.038655926 -0.0057354365 -0.040742338 -0.018136246
-0.087842114 0.06137882 -0.033120036 -0.10378973 -0.07502587 -0.062615745 -0.11436082 -0.21926896
-0.05919695 -0.010537417 -0.10220988 -0.036844045 -0.004007941 -0.04079305 -0.0079785725 -0.0137402695
0.00931705 -0.06795762 -0.28003502 0.018070776 0.14155774 -0.09866553 -0.05983327 0.11823258
-0.08490764 0.037641875 0.038778916 0.055439137 0.07945942 0.08246105 0.06681052 0.06577829
0.05513093 0.20745288 0.14049697 0.11324861 0.059192132 0.16579416 0.036243003 0.014197336
-0.21320681 -0.060727313 -0.059632383 -0.03040652 -0.21222389 -0.11131218 0.0057812394 -0.19046472
-0.07177793 -0.032758456 0.07186201 -0.026320694 0.061310943 -0.10686266 -0.0541617 -0.0014293792
-0.11773609 0.09925886 0.04690754 0.05398135 -0.020562172 -0.13979296 0.04283136 0.109450296
-0.0537345 -0.06860785 0.000886433 -0.090350926 0.035258725 -0.100293204 0.015317065 -0.076232925
0.052419163 -0.119926155 -0.13349761 -0.026123429 -0.15406574 -0.22149481 0.025371246 0.027886821
0.102274485 -0.0015191601 0.06764734 0.2061552 0.010309444 0.006089291 0.14484714 0.012138021
0.00046362926 0.0037063484 0.05827994 0.06532313 0.00403689 0.07442816 0.07097772 0.124409705
0.12376331 0.018727686 0.09453329 0.078981765 0.06394746 0.07981486 0.0744965 0.060914528
-0.17192464 -0.09441969 -0.13780156 -0.31149277 -0.11616132 -0.14982235 -0.14391796 -0.1295612
-0.013964304 -0.012754884 -0.11539176 -0.037064113 -0.008738306 -0.008612886 0.06896731 -0.12870927
-0.002430292 0.07280507 0.090430364 -0.08097401 0.066215 -0.058590554 0.0042770463 0.050418157
0.081704095 -0.04211176 -0.0650374 -0.1143946 -0.028868273 0.090777084 -0.06942244 -0.09962819
0.02479881 -0.08051405 -0.14700451 0.0014221051 0.045378592 0.0057186573 0.0022214323 -0.06969435
00000000: 62ec 333d f7e5 123d 5bb1 a23c 7a09 e53d
00000010: f62a 463b 0a29 963c 046f 723e 8bf7 283c
00000020: 06c8 e7bd a67f 15be 83b4 27be 988a 62be
00000030: 1a91 2dbe b653 8cbe 2d45 18be 04cc 18bd
00000040: a9c3 57be 50b9 60be b566 f73d 857f 073e
00000050: e4a3 52bd 8e39 d93d e61c 3abd 11af a4bd
00000060: 217a 113c a41e f2bc ff4f efbc 92d2 9abe
00000070: 4c06 90be 1969 fbbd ca29 bdbe 2504 26be
00000080: 63bb 6fbe a434 ccbd a016 b6be 1a87 ccbd
00000090: 3bef 37bc 07f4 12be 6b16 17be 547d 84bd
000000a0: 2fda cabc 00fe 4bbe d2ba 67be 981b 17bd
000000b0: 7d80 81bd 69c0 82bd f9d1 47ba ac74 f4bc
000000c0: 6391 c03d 55fd 593d 68ed b6bc f506 2c3d
000000d0: 7c7f 08be 2d89 97bd e820 d7bd 1c5f e3bb
000000e0: 06b7 c13c 36f2 0a3c 10d1 9dbd 1386 afbc
000000f0: afb4 8fbd 561c 70bd 6dc4 43bd 0bb7 29be
00000100: 0a3a b83d 1a3c 6c3d 907d fc3d 1bd9 a4be
00000110: 9788 013e 0b3f 543e 1e2e 9dbe fabb a63d
00000120: 4f0c 03bf dc7c e7be cc1a 69bd 4bc0 89be
00000130: d3a0 423d 5f0a 17bd d9c9 69be ac97 7a3d
00000140: 6f2e 7f3d 783e 1f3c 9230 a53e 409a 87be
00000150: 8921 e03d bbf9 803e 2900 ba3e f6a6 ff3d
00000160: c2d5 043e 905f 613e 3481 3cbe 9836 7ebe
00000170: ea51 9cbd f584 8dbe 7971 38be eb07 f7bd
00000180: c488 183e 8f7d 163e b2b3 303d 2cff 19be
00000190: e610 27bd ce2b 813d baae c83c 903f 8c3c
000001a0: a76d 1abd 34a9 7c3d 7142 e4bb b62a c6bd
000001b0: ad55 1ebd 54f0 bbbb 70e1 26bd 7792 94bc
000001c0: 91e6 b3bd 5c68 7b3d e0a8 07bd b68f d4bd
000001d0: 2aa7 99bd af3c 80bd 0136 eabd 0b88 60be
000001e0: 8078 72bd 21a5 2cbc 6a53 d1bd c8e9 16bd
000001f0: 0c55 83bb 9d16 27bd 8fb8 02bc de1e 61bc
00000200: 8aa6 183c 5d2d 8bbd c060 8fbe 2a09 943c
00000210: 83f4 103e 2711 cabd bb13 75bd ec23 f23d
00000220: 0fe4 adbd 5e2e 1a3d a4d6 1e3d 2614 633d
00000230: 9fbb a23d 57e1 a83d f4d3 883d c5b6 863d
00000240: f8d0 613d 876e 543e 70de 0f3e e3ee e73d
00000250: 7373 723d f2c5 293e 8b73 143d f19b 683c
00000260: e352 5abe 34bd 78bd 1641 74bd 1817 f9bc
00000270: 3851 59be a4f7 e3bd 8d70 bd3b 2f09 43be
00000280: 4f00 93bd bb2d 06bd 642c 933d 7f9e d7bc
00000290: 2f21 7b3d cfda dabd a9d8 5dbd 025a bbba
000002a0: 9f1f f1bd 3b48 cb3d 1f22 403d 8c1b 5d3d
000002b0: 0072 a8bc e325 0fbe f06f 2f3d 7a27 e03d
000002c0: b518 5cbd 4682 8cbd 835f 683a e809 b9bd
000002d0: 746b 103d 8666 cdbd 6df4 7a3c 0220 9cbd
000002e0: 7ab5 563d d89b f5bd 99b3 08be cd00 d6bc
000002f0: 69c3 1dbe 89cf 62be 5cd7 cf3c e772 e43c
00000300: 4975 d13d 8e1e c7ba b08a 8a3d 591a 533e
00000310: f1e8 283c ad88 c73b cf52 143e 8dde 463c
00000320: 4413 f339 35e6 723b f2b6 6e3d 22c8 853d
00000330: e347 843b cb6d 983d c45c 913d 84ca fe3d
00000340: 9e77 fd3d ce6a 993c ab9a c13d 31c1 a13d
00000350: e3f6 823d f975 a33d 9f91 983d 8381 793d
00000360: 030d 30be 1c5f c1bd da1b 0dbe fb7b 9fbe
00000370: fce5 edbd 086b 19be 3b5f 13be b1ab 04be
00000380: 89ca 64bc dcf9 50bc 8452 ecbd 8ad0 17bd
00000390: 1d2b 0fbc 101d 0dbc bc3e 8d3d 5dcc 03be
000003a0: 8945 1fbb d31a 953d 8e33 b93d b4d5 a5bd
000003b0: bb9b 873d a6fc 6fbd 7726 8c3b 4583 4e3d
000003c0: 7a54 a73d 617d 2cbd 5432 85bd b747 eabd
000003d0: 287d ecbc 56e9 b93d 5a2d 8ebd dd09 ccbd
000003e0: e026 cb3c 8de4 a4bd 5a88 16be ee65 ba3a
000003f0: e7de 393d 9363 bb3b 7395 113b e9bb 8ebd

conv_v_0.bias f4 [16]
0.05034489 -0.068649836 -0.057842035 -0.07151739 -0.026686361 0.033632968 -0.045585282 -0.053364534
0.058052823 0.030755827 -0.22152492 0.033119753 0.08785063 -0.055223517 0.0758221 0.04606108
00000000: 7236 4e3d 4998 8cbd c5eb 6cbd b677 92bd
00000010: 5b9d dabc b9c2 093d a2b7 3abd c594 5abd
00000020: ccc8 6d3d a5f3 fb3c 6ed7 62be 94a8 073d
00000030: 08eb b33d 0e32 62bd 9e48 9b3d 8baa 3c3d

conv_v_1.weight f4 [16, 16, 3, 3]
0.113456495 0.09008217 0.100899346 0.019859552 0.08984597 0.053514272 0.011674536 0.15869397
0.11388693 -0.07258918 0.045004893 -0.030869214 -0.09082622 -0.12424651 0.024889382 -0.029795049
0.050978344 -0.0027781522 0.00874859 -0.038932797 0.018328674 0.018513707 -0.09101705 0.037823282
0.0014323171 -0.029566165 -0.10130321 -0.009729275 -0.010581998 -0.05369825 -0.026812725 -0.03752136
-0.024652291 0.01169188 0.04323323 -0.0011179443 0.010764503 0.06374022 -0.07610508 0.041378375
0.023600822 0.119594336 -0.033485126 0.109452166 0.10534488 0.12536909 0.06157675 0.00021149794
0.0038821246 0.047318477 -0.039498158 0.07747702 0.11867729 0.17966035 -0.05267394 -0.12226091
0.029793873 -0.00808804 -0.0801546 0.008305573 -0.021670433 -0.20702673 -0.028870719 -0.019839592
-0.0180352 0.044008944 -0.100201234 -0.15624301 -0.016968695 -0.014660212 0.009679091 -0.022096146
0.10167126 -0.011238162 0.036062907 0.017430097 0.0616062 -0.03987802 0.016339242 0.057046734
-0.0036560646 0.083897054 -0.026833257 0.010254213 -0.14763944 -0.13918504 -0.06370112 0.036170643
0.046037477 0.06969023 -0.041540008 0.0713401 0.050422985 0.051545344 -0.075740114 -0.028336478
-0.002250209 0.012888113 -0.030364044 0.12065997 -0.04504874 -0.023303917 0.02885498 0.05038189
0.022157189 0.1258894 -0.024980616 0.09685961 0.023900008 0.026114754 -0.00034227225 0.034530476
-0.0044182623 0.120182395 0.13313377 0.039078996 0.024092551 0.07111407 0.10914167 -0.0069766776
-0.093951516 -0.12587984 -0.0012400321 -0.005907608 -0.088495605 -0.07848314 0.13437268 -0.0077191917
0.042074308 0.04120225 -0.0049128486 -0.043098107 0.078190565 0.00029343195 0.08642161 0.0068701883
0.029632518 0.0027074213 -0.028675206 -0.044459604 0.045705978 0.029744586 0.07454643 0.13089158
0.017255954 0.07322276 0.07841476 0.1482767 0.14568233 0.118550085 0.1066153 0.07916898
0.19499737 -0.020369522 -0.12654403 -0.07097639 -0.13606663 -0.17075132 -0.14720993 -0.11092235
-0.118922085 -0.104145624 0.03595283 0.04540462 -0.046940107 0.026021808 0.080762304 0.0057559996
-0.022473479 0.021926638 0.062938176 -0.024703348 0.05651247 0.07398456 0.08534872 0.023569085
0.052596595 0.0726059 -0.04553013 -0.015742496 -0.0027103866 -0.09702226 -0.067940995 -0.0368828
-0.031211063 -0.088647306 -0.024693612 0.02012308 -0.011349536 0.056762327 0.09575542 0.11103026
0.13582096 0.10724832 0.11495778 0.009088996 0.06281514 0.19758739 -0.08337113 -0.19387771
-0.18621628 -0.18099657 -0.16377614 -0.111972325 -0.118374735 -0.16035146 -0.18477449 -0.07352261
-0.10889856 -0.12983139 -0.08418256 -0.025123967 -0.051843405 0.059647825 -0.07127821 0.014661193
0.033436857 0.024186572 0.099893324 0.08726579 0.13067158 0.12247261 0.11907605 0.030155262
0.08513217 0.017735103 -0.028565774 -0.056260303 -0.10076784 -0.011719683 0.007901698 0.025382178
0.01886005 0.073255755 -0.21973592 -0.22438592 -0.29063788 -0.20935152 -0.1255767 -0.29355887
-0.2305967 -0.26393417 -0.12756024 0.06700161 0.13081713 0.094703816 0.18145427 0.15697555
0.1861828 0.025964912 0.085500814 0.034489635 0.09333476 0.14991714 0.049360897 0.08236465
00000000: e15b e83d 007d b83d 51a4 ce3d 80b0 a23c
00000010: 2a01 b83d c831 5b3d 8e46 3f3c ac80 223e
00000020: 8d3d e93d a3a9 94bd 0d57 383d 6fe1 fcbc
00000030: 1903 babd f474 febd d1e4 cb3c bf14 f4bc
00000040: abce 503d a911 36bb 3f56 0f3c ff77 1fbd
00000050: 0426 963c 0faa 973c 2667 babd 96ec 1a3d
00000060: 96bc bb3a be34 f2bc 0f78 cfbd 8967 1fbc
00000070: 1e60 2dbc b2f2 5bbd 5ca6 dbbc ffaf 19bd
00000080: 9af3 c9bc 4d8f 3f3c 5415 313d fc87 92ba
00000090: 995d 303c 3c8a 823d fbdc 9bbd 5f7c 293d
000000a0: 8356 c13c e0ed f43d b327 09bd 7528 e03d
000000b0: 0ebf d73d c160 003e e737 7c3d 8cc5 5d39
000000c0: 3e6b 7e3b 05d1 413d d2c8 21bd 46ac 9e3d
000000d0: 140d f33d e2f8 373e a1c0 57bd ee63 fabd
000000e0: 4812 f43c b383 04bc 1828 a4bd 1914 083c
000000f0: 3186 b1bc d1fe 53be 4982 ecbc a486 a2bc
00000100: 8ebe 93bc b942 343d 4e36 cdbd 2bfe 1fbe
00000110: ef01 8bbc 6331 70bc 0d95 1e3c fa02 b5bc
00000120: 0639 d03d 4520 38bc b3b6 133d 90c9 8e3c
00000130: c856 7c3d 2257 23bd e0d9 853c d6a9 693d
00000140: 969a 6fbb 38d2 ab3d 6bd1 dbbc 4901 283c
00000150: cb2e 17be 8686 0ebe bc75 82bd ab27 143d
00000160: cb91 3c3d c0b9 8e3d db25 2abd c21a 923d
00000170: 5588 4e3d 3621 533d a21d 9bbd e721 e8bc
00000180: 3e78 13bb aa28 533c 04be f8bc 931c f73d
00000190: 0785 38bd dbe7 bebc 4761 ec3c 3e5d 4e3d
000001a0: fe82 b53c 27e9 003e 26a4 ccbc 555e c63d
000001b0: f3c9 c33c 9cee d53c 0173 b3b9 d46f 0d3d
000001c0: 12c7 90bb 3022 f63d 3854 083e 4c11 203d
000001d0: be5d c53c 41a4 913d ab85 df3d 9d9c e4bb
000001e0: a769 c0bd a5e6 00be 9388 a2ba 9c94 c1bb
000001f0: 2f3d b5bd c5bb a0bd fe98 093e 46f1 fcbb
00000200: 1c56 2c3d b1c3 283d f6fb a0bb a487 30bd
00000210: 6022 a03d c5d7 9939 d0fd b03d 511f e13b
00000220: e5bf f23c fe6e 313b 44e8 eabc 461b 36bd
00000230: 3136 3b3d ebaa f33c ccab 983d 7108 063e
00000240: 5c5c 8d3c d0f5 953d eb97 a03d d9d5 173e
00000250: c02d 153e 63ca f23d 1f59 da3d 5923 a23d
00000260: 64ad 473e fcdd a6bc c294 01be 125c 91bd
00000270: 0d55 0bbe 6fd9 2ebe 33be 16be 422b e3bd
00000280: 6c8d f3bd 4d4a d5bd 4643 133d 32fa 393d
00000290: 4544 40bd b02b d53c b566 a53d d39c bc3b
000002a0: 4d1a b8bc 7e9f b33c bbe5 803d ad5e cabc
000002b0: 9f79 673d 3885 973d 4fcb ae3d f413 c13c
000002c0: 876f 573d 67b2 943d cd7d 3abd 68f6 80bc
000002d0: bea0 31bb 9bb3 c6bd a624 8bbd 6b12 17bd
000002e0: 58ae ffbc b88c b5bd 424a cabc 28d9 a43c
000002f0: 67f3 39bc 9d7f 683d 6b1b c43d d563 e33d
00000300: a614 0b3e 02a5 db3d fc6e eb3d 03ea 143c
00000310: 39a5 803d 5954 4a3e 7cbe aabd e187 46be
00000320: 7baf 3ebe 2a57 39be efb4 27be bf51 e5bd
00000330: 746e f2bd 2c33 24be 8635 3dbe 0693 96bd
00000340: 3506 dfbd 85f2 04be e867 acbd c7d0 cdbc
00000350: c059 54bd 4751 743d 4ffa 91bd 8035 703c
00000360: 16f5 083d eb22 c63c df94 cc3d 68b8 b23d
00000370: c5ce 053e ebd2 fa3d 25de f33d 2b08 f73c
00000380: c659 ae3d 3549 913c c502 eabc 3471 66bd
00000390: 5f5f cebd ea03 40bc 2076 013c 49ee cf3c
000003a0: 6480 9a3c 1d07 963d 7402 61be 6cc5 65be
000003b0: 7dce 94be 3f60 56be 2e97 00be 594d 96be
000003c0: 8b21 6cbe 6122 87be 279f 02be 2438 893d
000003d0: edf4 053e 13f4 c13d 26cf 393e 33be 203e
000003e0: b4a6 3e3e 5eb4 d43c 0d1b af3d 0145 0d3d
000003f0: 4b26 bf3d e183 193e a72e 4a3d ccae a83d

conv_v_1.bias f4 [16]
0.040329155 0.07745855 0.081147835 -0.052193433 0.06997168 0.055065293 -0.04877899 -0.07507263
0.094750956 -0.10149428 0.19228137 -0.23729357 -0.0741865 -0.05799226 0.03504897 -0.08895657
00000000: 2f30 253d 97a2 9e3d d630 a63d c8c8 55bd
00000010: 504d 8f3d 258c 613d 7acc 47bd aebf 99bd
00000020: ca0c c23d 3cdc cfbd 68e5 443e 16fd 72be
00000030: 17ef 97bd 4b89 6dbd 828f 0f3d dd2e b6bd
