league/checkpoints/mfos_seeds/new_self_4x4_62/700_1.pth (torch, 365518 bytes, 105 tensors)

conv_a_0.weight f4 [16, 7, 3, 3]
0.11540103 0.0314985 0.09820475 -0.0147308 0.05227692 0.13454854 -0.041008394 -0.211925
0.06818949 0.11476294 -0.08850344 -0.08303594 0.071521446 0.019696828 -0.038871817 0.0946675
0.07219189 0.069311514 -0.2564215 -0.07906795 -0.011626644 0.040536866 0.07075562 -0.09613796
-0.13547583 0.07731487 -0.15051174 0.11660488 -0.0858345 -0.05853233 0.06713231 -0.13716106
0.080761656 0.17971736 -0.0505003 0.03982072 0.20169121 -0.024813272 -0.02276436 0.0455293
0.1929126 0.19764988 0.19545166 0.16020752 -0.009242677 -0.06920375 0.04600092 0.0058438657
-0.11217144 -0.14506003 -0.09999432 0.03881559 -0.025492812 -0.17815453 -0.03862465 0.022818258
0.1105543 -0.04926702 0.06975689 0.011643609 0.059589636 0.104665205 -0.080623634 0.21303628
0.071957275 -0.1755544 0.2839465 0.19034837 -0.03661595 0.13983366 0.23685554 -0.22273675
0.05886103 -0.009924362 0.13790116 0.0013874617 0.007266571 0.02656266 0.061932426 0.093733385
-0.021536116 -0.14486799 -0.12192623 0.19265744 -0.19008395 -0.053170137 0.34969655 -0.08484792
-0.025820572 0.21632917 0.0393059 0.057152107 0.009051777 -0.08779364 -0.053179022 0.04355981
0.0029337944 -0.07484075 0.18728136 0.06331026 0.09144555 -0.06469009 -0.11375291 0.13533181
-0.028795661 0.039415006 -0.0056574014 0.07022941 0.011470105 0.062364127 -0.08572597 0.09915495
0.101159 0.016960733 0.01562853 -0.043192223 0.0807712 0.03738576 -0.0250972 -0.053130753
-0.08601986 0.09036084 0.074578516 -0.1243412 -0.11611555 0.018422754 -0.19323789 -0.13512133
0.20843157 -0.23228125 0.13931029 0.29780802 -0.10715057 -0.008991851 0.26416114 -0.07315668
-0.015849873 0.16299638 -0.07594241 0.0018283874 0.0008369389 -0.13020673 -0.13492765 0.022110209
-0.103302635 -0.17232913 -0.2283253 0.2184777 0.22879621 -0.21430007 0.26114616 0.12693104
-0.20383228 -0.1809591 -0.042864192 -0.23902832 0.13173102 0.11321042 -0.15881996 0.27034625
0.10906657 -0.15522157 -0.05741844 0.13294837 -0.05482981 0.030463202 0.07717208 0.14672287
0.039094217 -0.06489556 0.14220202 -0.1196436 -0.20312084 -0.16736543 -0.1704394 -0.16451515
-0.15163709 -0.17867047 -0.2082262 -0.15362601 0.018857546 0.16871275 0.0009135961 0.09517417
0.14663722 0.04461834 -0.059913933 0.049023304 0.16642365 0.07468862 -0.17654797 -0.100944586
-0.19087191 -0.18208005 0.10388917 0.0996572 0.20865048 0.22253041 0.023133922 0.005618791
-0.06735331 -0.019875307 -0.029112626 -0.062816225 -0.033530235 -0.183376 -0.04535478 -0.0035020735
-0.059720427 -0.16568919 -0.19590543 0.01429363 -0.13885196 0.1964877 0.23261178 0.040531922
-0.032191537 -0.052205984 -0.12792592 -0.14314349 0.06552823 0.10323237 0.21819805 0.1237436
0.12582111 0.07582824 0.07601738 0.03869018 0.1449063 -0.03955093 0.12793028 -0.0098118065
-0.06815619 0.10519959 -0.074184015 -0.00074184965 -0.12869151 0.09470128 -0.042778686 -0.06464986
0.008193807 -0.103168584 -0.08439016 0.18082464 0.10091874 0.18648705 0.1397472 0.2097014
0.23555265 0.0593789 0.07668474 0.10427654 0.040533453 0.09827133 0.08526308 0.055137765
00000000: 6057 ec3d 9204 013d 921f c93d 7459 71bc
00000010: 5320 563d 18c7 093e 6bf8 27bd de02 59be
00000020: eea6 8b3d d508 eb3d 4b41 b5bd bf0e aabd
00000030: d679 923d 3e5b a13c 0e38 1fbd 09e1 c13d
00000040: 57d9 933d 32f3 8d3d ae49 83be 61ee a1bd
00000050: ae7d 3ebc fc09 263d 53e8 903d fbe3 c4bd
00000060: 2dba 0abe 4257 9e3d c01f 1abe 8ace ee3d
00000070: 00ca afbd 99bf 6fbd aa7c 893d f373 0cbe
00000080: 5e66 a53d d407 383e 67d9 4ebd 0d1b 233d
00000090: 2488 4e3e 3445 cbbc 537c babc ee7c 3a3d
000000a0: e18a 453e bb64 4a3e 7b24 483e 710d 243e
000000b0: 996e 17bc b2ba 8dbd 766b 3c3d e67d bf3b
000000c0: 24ba e5bd 9e8a 14be d2c9 ccbd 19fd 1e3d
000000d0: 4dd6 d0bc 246e 36be e234 1ebd 5bed ba3c
000000e0: 4b6a e23d 37cc 49bd b3dc 8e3d d6c4 3e3c
000000f0: 4314 743d b65a d63d 011e a5bd 2f26 5a3e
00000100: 565e 933d 88c4 33be 7061 913e afea 423e
00000110: 9bfa 15bd 8e30 0f3e 428a 723e 1a15 64be
00000120: 4318 713d cb99 22bc f635 0d3e 7ddb b53a
00000130: 6a1c ee3b ef99 d93c dbac 7d3d 4af7 bf3d
00000140: 826c b0bc 4658 14be 76b4 f9bd fe47 453e
00000150: 5ea5 42be eec8 59bd 6d0b b33e bfc4 adbd
00000160: aa85 d3bc 6585 5d3e 39ff 203d 5418 6a3d
00000170: e84d 143c 27cd b3bd 3fd2 59bd c56b 323d
00000180: e744 403b 1b46 99bd afc6 3f3e cfa8 813d
00000190: ce47 bb3d 3d7c 84bd 49f7 e8bd 6c94 0a3e
000001a0: e1e4 ebbc a171 213d b961 b9bb 70d4 8f3d
000001b0: 1bed 3b3c 8771 7f3d 1991 afbd c011 cb3d
000001c0: 732c cf3d 3cf1 8a3c 6707 803c 54ea 30bd
000001d0: 5f6b a53d d021 193d a598 cdbc a29f 59bd
000001e0: 2e2b b0bd 1b0f b93d 9fbc 983d 99a6 febd
000001f0: fdcd edbd 51eb 963c 27e0 45be 3f5d 0abe
00000200: 166f 553e 23db 6dbe 5ba7 0e3e 4b7a 983e
00000210: c271 dbbd 8e52 13bc 2140 873e 2bd3 95bd
00000220: 98d7 81bc 86e8 263e b287 9bbd 80a6 ef3a
00000230: 0566 5b3a ea54 05be 792a 0abe 7820 b53c
00000240: 5590 d3bd 0c77 30be 1cce 69be 9eb8 5f3e
00000250: 8e49 6a3e 7a71 5bbe f3b4 853e 36fa 013e
00000260: 69b9 50be 584d 39be 5d92 2fbd d7c3 74be
00000270: 7fe4 063e ddda e73d b3a1 22be d36a 8a3e
00000280: 4b5e df3d 67f2 1ebe 992f 6bbd 9e23 083e
00000290: 3995 60bd f78d f93c 650c 9e3d 853e 163e
000002a0: 4221 203d f7e7 84bd 689d 113e b407 f5bd
000002b0: e9fe 4fbe d861 2bbe ab87 2ebe a976 28be
000002c0: c146 1bbe 64f5 36be 4039 55be 2350 1dbe
000002d0: 247b 9a3c 09c3 2c3e 657e 6f3a adea c23d
000002e0: 1128 163e b8c1 363d 5068 75bd a9cc 483d
000002f0: f66a 2a3e 59f6 983d fec8 34be 09bc cebd
00000300: ed73 43be 3173 3abe d8c3 d43d 1319 cc3d
00000310: 79a8 553e 03df 633e 5a83 bd3c d61d b83b
00000320: 88f0 89bd 8ad1 a2bc 9a7d eebc cba5 80bd
00000330: 0057 09bd ebc6 3bbe efc5 39bd 0b83 65bb
00000340: 689d 74bd 6daa 29be 6f9b 48be d42f 6a3c
00000350: 352f 0ebe 1234 493e c831 6e3e cd04 263d
00000360: 46db 03bd f1d5 55bd 03ff 02be 3594 12be
00000370: aa33 863d 7e6b d33d 4f6f 5f3e 496d fd3d
00000380: 40d7 003e d64b 9b3d 00af 9b3d 9879 1e3d
00000390: 5162 143e 2800 22bd 2800 033e b3c1 20bc
000003a0: 7995 8bbd e272 d73d caed 97bd b078 42ba
000003b0: b5c7 03be bff2 c13d b438 2fbd 2567 84bd
000003c0: 513f 063c 0d4a d3bd c0d4 acbd 182a 393e
000003d0: 7cae ce3d 76f6 3e3e e419 0f3e f7bb 563e
000003e0: b734 713e 4a37 733d e40c 9d3d f08e d53d
000003f0: 6806 263d 7b42 c93d 699e ae3d 23d8 613d

conv_a_0.bias f4 [16]
0.09025801 0.13902096 -0.1265934 -0.10941938 0.178287 0.08783932 -0.023908962 0.006867221
0.021639213 0.12335784 0.11022419 -0.05042084 -0.05428154 -0.033676945 -0.026310598 -0.050453696
00000000: 31d9 b83d 835b 0e3e b3a1 01be 4517 e0bd
00000010: de90 363e 1ae5 b33d badc c3bc 6d06 e13b
00000020: b844 b13c 09a3 fc3d 38bd e13d 1586 4ebd
00000030: 5256 5ebd d6f0 09bd 5389 d7bc 89a8 4ebd

conv_a_1.weight f4 [16, 16, 3, 3]
-0.06789123 0.1088472 0.21438034 -0.033172604 -0.16694021 0.10135871 0.10220243 -0.0007852706
0.17639561 0.031765386 -0.13004385 0.13672154 0.09037174 -0.043296207 -0.07621839 0.12754355
0.08151078 0.045723956 -0.2385971 0.024070146 0.02992971 -0.04095785 0.01852993 0.11740696
-0.18566632 -0.02993931 -0.055280257 0.039918017 0.0530689 -0.029021401 0.12657781 0.012331882
0.036895987 -0.04503339 -0.0006558809 -0.028259112 0.08411484 0.11506205 -0.04819256 0.16642582
-0.0072456426 0.03294777 0.061654974 0.21658732 0.10498506 0.1274702 -0.05934468 0.05019108
0.18311672 0.16033442 -0.08975207 -0.009196179 0.065636635 0.11907494 -0.040947746 0.020647021
0.1024269 -0.034906905 0.053591307 0.1711243 -0.06903717 -0.0845672 0.1592876 0.14884423
-0.06726671 -0.1735863 0.1836683 0.026118046 -0.124192566 0.13280904 0.057694186 -0.08232916
-0.04423651 0.1232831 0.055785332 -0.055990662 0.12613532 0.14199199 0.038442537 -0.09113881
0.06536227 -0.017870555 -0.041930888 0.050055172 0.028388226 -0.049544413 0.08131717 -0.064068615
0.14614055 0.1592242 0.018647414 0.13317609 -0.15363553 0.22234525 0.05512047 -0.11385782
0.17915268 0.0022714245 -0.047187757 0.13074385 -0.045330506 -0.07951538 0.047510393 0.107138604
-0.15273027 0.16936623 0.04297673 -0.009025346 -0.05564589 -0.049795005 0.015094357 0.13487728
-0.0013320979 -0.14935733 0.0015351109 0.0993246 -0.17184918 -0.11520633 0.24995977 -0.10395221
-0.028795734 0.122786574 0.07964536 -0.21145117 0.0071743093 0.0861907 0.07432151 -0.0905152
-0.08578061 0.1610472 -0.071030855 0.05504419 -0.06890038 -0.0115776975 0.00733202 -0.17974308
0.19949454 -0.05182856 0.15052296 -0.084387034 0.085979655 -0.064540155 0.10665007 0.07760314
0.01011499 0.047355562 0.053171065 0.014123713 0.01570488 0.006915805 -0.068297975 -0.04038121
0.050701205 0.07866524 -0.009036859 -0.05058582 -0.03173268 -0.014798555 -0.079133704 -0.014645237
0.057214536 -0.03960891 0.26200858 0.28932267 0.29658696 0.27059594 0.22221561 0.30814484
0.23998173 0.20549239 0.3214572 0.2455969 0.24009655 0.19595039 0.14994898 0.15569407
0.1154084 0.15941688 0.17791528 0.19069298 -0.032576274 -0.052581657 0.017997453 -0.109943986
-0.07267733 -0.1221238 -0.08252874 0.040406305 -0.0805631 -0.025971001 0.054597147 -0.026591599
-0.031023568 0.031803783 -0.0742365 0.068689294 -0.08217668 -0.08477243 0.13517942 0.1726745
0.13245788 0.10951573 0.25010303 0.19702044 0.23154585 0.24233131 0.15714292 0.1709135
0.14381628 0.16882613 0.11732798 0.08137061 0.0939708 0.11280421 0.13004589 0.07821853
0.025341853 0.038362373 -0.020501766 0.0503761 -0.08098264 0.066420466 -0.0750009 -0.042948946
0.036592275 -0.06743393 0.05460874 0.014395407 -0.07086369 -0.06234019 -0.057878956 0.031099169
0.031134134 0.01872875 0.078721605 -0.071121685 0.0032747919 -0.03764013 0.0107885795 -0.05847191
-0.05470195 -0.016467387 -0.02660256 0.083150655 0.11179878 0.18858917 0.07737328 0.02105603
0.14013834 0.095635176 0.08545761 0.03899214 0.16652642 0.19722223 0.13460825 0.18035406
00000000: 8f0a 8bbd 48eb de3d 8586 5b3e ffdf 07bd
00000010: 60f2 2abe 2895 cf3d 824f d13d 9eda 4dba
00000020: 0da1 343e 6c1c 023d 372a 05be bb00 0c3e
00000030: d214 b93d 5d57 31bd 6318 9cbd c79a 023e
00000040: 20ef a63d 0b49 3b3d cc52 74be c12e c53c
00000050: 272f f53c 6bc3 27bd 14cc 973c 0f73 f03d
00000060: 501f 3ebe 4943 f5bc 8d6d 62bd 1381 233d
00000070: c65e 593d 4abe edbc 9d9d 013e a90b 4a3c
00000080: 3f20 173d ef74 38bd 6cef 2bba a77f e7bc
00000090: 6744 ac3d a7a5 eb3d 9065 45bd 886b 2a3e
000000a0: db6c edbb 3ef4 063d ed89 7c3d 11c9 5d3e
000000b0: 6802 d73d 8c87 023e 6813 73bd 2995 4d3d
000000c0: f382 3b3e b52e 243e efcf b7bd 92ab 16bc
000000d0: 806c 863d 90dd f33d d3b8 27bd f123 a93c
000000e0: 32c5 d13d 8bfa 0ebd 8f82 5b3d 353b 2f3e
000000f0: 5c63 8dbd 9131 adbd 4a1c 233e 9f6a 183e
00000100: 21c3 89bd 9bc0 31be 8b13 3c3e 83f5 d53c
00000110: ac58 febd 18ff 073e bd50 6c3d 319c a8bd
00000120: 5831 35bd da7b fc3d 297f 643d 7756 65bd
00000130: 9e29 013e 5966 113e ec75 1d3d fca6 babd
00000140: a7dc 853d 4565 92bc b9bf 2bbd a706 4d3d
00000150: 6d8e e83c 15ef 4abd 9e89 a63d 6836 83bd
00000160: dea5 153e ab0b 233e 76c2 983c 505f 083e
00000170: a252 1dbe 79ae 633e 00c6 613d 4a2e e9bd
00000180: cd73 373e 2edc 143b f347 41bd b7e1 053e
00000190: 7bac 39bd f6d8 a2bd 429a 423d 7c6b db3d
000001a0: 5365 1cbe 576e 2d3e 5e08 303d 0bdf 13bc
000001b0: f2ec 63bd d9f5 4bbd 524e 773c 451d 0a3e
000001c0: ca99 aeba 21f1 18be c635 c93a b26a cb3d
000001d0: 3bf9 2fbe 4cf1 ebbd 74f5 7f3e e5e4 d4bd
000001e0: 08e5 ebbc 8777 fb3d 1b1d a33d a886 58be
000001f0: 7816 eb3b c084 b03d e035 983d 0860 b9bd
00000200: bfad afbd 8fe9 243e a078 91bd 0476 613d
00000210: a41b 8dbd 62b0 3dbc 7141 f03b 920e 38be
00000220: 4c48 4c3e 2f4a 54bd b122 1a3e 1cd3 acbd
00000230: 1a16 b03d a12d 84bd 5a6b da3d 65ee 9e3d
00000240: 58b9 253c e8f7 413d e7c9 593d 2567 673c
00000250: 85a7 803c fa9d e23b cfdf 8bbd c566 25bd
00000260: 11ac 4f3d 3e1b a13d 550f 14bc 1433 4fbd
00000270: 20fa 01bd a375 72bc da10 a2bd 93f2 6fbc
00000280: ca59 6a3d f43c 22bd fd25 863e 1a22 943e
00000290: 3fda 973e 8d8b 8a3e 7d8c 633e 29c5 9d3e
000002a0: c5bd 753e 996c 523e 0a96 a43e c17d 7b3e
000002b0: dfdb 753e 38a7 483e 3a8c 193e 446e 1f3e
000002c0: 3d5b ec3d 2e3e 233e 6c2f 363e 0545 433e
000002d0: b36e 05bd dd5f 57bd 656f 933c 502a e1bd
000002e0: dad7 94bd 0b1c fabd d404 a9bd 1581 253d
000002f0: 44fe a4bd 23c1 d4bc 42a1 5f3d a0d6 d9bc
00000300: 2325 febc af44 023d 4e09 98bd f9ac 8c3d
00000310: 3f4c a8bd 2b9d adbd 796c 0a3e 96d1 303e
00000320: 0aa3 073e c849 e03d 810d 803e babf 493e
00000330: 5b1a 6d3e b325 783e 13ea 203e f303 2f3e
00000340: 9344 133e c2e0 2c3e a749 f03d a2a5 a63d
00000350: c373 c03d e505 e73d c02a 053e 0931 a03d
00000360: b899 cf3c dd21 1d3d 52f3 a7bc 2b57 4e3d
00000370: 3ada a5bd 7407 883d 129a 99bd 3ceb 2fbd
00000380: c8e1 153d cd1a 8abd 6aad 5f3d b7da 6b3c
00000390: fb20 91bd 6d58 7fbd 7c12 6dbd afc3 fe3c
000003a0: 030d ff3c 096d 993c cb38 a13d 3fa8 91bd
000003b0: e49d 563b 892c 1abd 95c2 303c 3e80 6fbd
000003c0: 270f 60bd 9de6 86bc 9ded d9bc e44a aa3d
000003d0: c2f6 e43d 851d 413e e275 9e3d b27d ac3c
000003e0: 6d80 0f3e 60dc c33d 6604 af3d 39b6 1f3d
000003f0: e785 2a3e a0f4 493e bfd6 093e bcae 383e

conv_a_1.bias f4 [16]
0.07679848 -0.07478221 -0.07592423 -0.022310486 0.019151922 -0.061260767 -0.07167234 -0.09936013
0.08232894 0.005126939 0.114790365 0.011140906 0.013744722 -0.08059413 -0.084056415 -0.08524849
00000000: 8548 9d3d 6a27 99bd 2a7e 9bbd 7bc4 b6bc
00000010: 7ee4 9c3c 92ec 7abd f3c8 92bd 537d cbbd
00000020: 139c a83d e2ff a73b 3617 eb3d 5988 363c
00000030: 8b31 613c 890e a5bd c525 acbd c396 aebd

linear_a_0.weight f4 [16, 256]
0.012775443 -0.011898822 -0.01008717 -0.07417709 -0.0015787133 0.0011957871 0.030379126 0.036198236
0.019871136 0.023665246 0.04096941 0.023537403 -0.05718852 -0.05565049 -0.06095388 0.004482013
0.02459665 0.058740195 0.017456938 0.049953237 -0.034378164 -0.06638899 0.03354252 -0.06407263
0.039928593 0.014648842 0.028605914 0.024875952 -0.044307306 0.045101523 -0.012209016 0.030788297
-0.017019637 -0.03452758 -0.024260202 0.054501288 0.005479209 -0.020776616 -0.044643 0.00038182404
0.03960885 -0.063006625 0.039907027 -0.033998754 -0.03612428 0.0058759963 0.024426267 -0.058547128
-0.028245369 0.0022289993 -0.051913522 0.057304014 -0.0154600525 -0.00080846023 -0.06424031 0.024028974
0.052309107 0.013852394 0.0484003 0.07679727 0.019050691 -0.026886946 0.019297043 -0.034533065
0.054266896 0.0050106174 0.02817758 -0.00032168286 -0.03559738 -0.069932796 0.03028366 0.022013705
-0.009983525 -0.018343143 0.021357605 0.002700263 -0.001573897 -0.042891994 -0.03023779 -0.0020391538
-0.047824964 0.007987738 0.04219897 0.049302578 -0.034907363 -0.057959445 0.052682668 -0.008644648
-0.033212967 0.033520825 0.0407949 -0.016487405 -0.041806392 0.03923296 -0.049118124 -0.016699456
0.05291082 -0.0071305917 -0.028259149 0.05273388 -0.025537275 0.00026704415 -0.06585518 -0.026786251
0.0381943 0.010525724 0.011232491 0.007210491 0.0035268683 -0.047125496 0.017456258 0.053089984
-0.060839564 -0.044523362 -0.013121659 0.055863984 -0.05729299 -0.02143096 0.008702332 0.05679212
-0.013931549 -0.05418844 -0.051237 -0.060044028 -0.03457694 -0.05682002 0.0036672996 0.02739349
-0.036444105 0.0014070991 -0.02653767 0.023402652 -0.068390995 -0.031470925 0.03793474 -0.07118163
0.008517766 0.010281236 0.051655263 -0.01569054 -0.04452134 -0.048186846 -0.05942305 0.036071032
-0.033428278 -0.04964425 0.055604286 0.026523663 -0.023612106 -0.07001765 0.036250368 -0.058116067
-0.02418265 -0.047584757 0.063712515 0.014293014 -0.040683478 0.030013299 -0.011571361 -0.0655502
-0.005153973 -0.0335922 -0.049209166 0.005891209 -0.01465642 -0.038978603 0.041458946 -0.00863544
-0.017517764 -0.024717053 0.035940304 0.042331398 0.024860442 -0.015688026 -0.023938738 0.030219182
0.02831111 0.055513967 -0.0013388825 0.03535501 -0.021898217 -0.01980195 -0.013037777 0.020173192
0.058192585 -0.039856687 -0.0004245059 -0.0042684996 -0.022239817 0.03319273 0.014529761 0.014177241
-0.020853693 -0.038077638 -0.053222127 -0.0077861226 -0.03554737 0.038800884 -0.019087035 -0.03818549
-0.056056026 0.0037544454 -0.03750782 -0.044014744 0.02811226 -0.0050426666 -0.048886262 -0.045746993
0.04390217 0.04070953 -0.0052407333 -0.022608131 0.006508566 -0.048559815 -0.072311565 -0.034429386
0.03308275 -0.060927156 -0.038459476 -0.026629407 -0.063465826 -0.03365058 -0.050394494 -0.018621463
0.009019268 0.00894826 0.023817161 0.025458785 -0.0640455 -0.014829023 -0.00946316 -0.06732658
-0.052301016 -0.02196368 0.02823306 -0.04186649 -0.054101415 -0.069020346 0.036798358 -0.0014337329
0.026327262 0.005378918 -0.008797609 -0.055091437 0.043085337 0.031956494 -0.07544692 -0.042375416
0.03195188 -0.06843715 -0.03960851 0.02718183 -0.059978146 0.01346501 0.02816819 -0.06852413
00000000: 1750 513c 47f3 42bc a844 25bc 28ea 97bd
00000010: d4ec ceba f5bb 9c3a a5dd f83c 9a44 143d
00000020: cbc8 a23c 9edd c13c 8acf 273d 83d1 c03c
00000030: 823e 6abd c5f1 63bd c7aa 79bd dadd 923b
00000040: ea7e c93c 8f99 703d da01 8f3c c49b 4c3d
00000050: 1ed0 0cbd f3f6 87bd e263 093d 8338 83bd
00000060: 2a8c 233d b201 703c f356 ea3c a7c8 cb3c
00000070: 947b 35bd 60bc 383d 5308 48bc bd37 fc3c
00000080: c46c 8bbc cb6c 0dbd 55bd c6bc be3c 5f3d
00000090: f08a b33b b933 aabc 94db 36bd 8e2f c839
000000a0: e43c 223d 9e09 81bd 8d75 233d 4742 0bbd
000000b0: 0ef7 13bd 6e8b c03b 9819 c83c 1dcf 6fbd
000000c0: d562 e7bc 6714 123b 46a3 54bd 9db7 6a3d
000000d0: 294c 7dbc d9ee 53ba 6c90 83bd 69d8 c43c
000000e0: 1342 563d 27f5 623c 653f 463d e347 9d3d
000000f0: 3210 9c3c 0342 dcbc d514 9e3c 8b72 0dbd
00000100: f746 5e3d 1b30 a43b abd4 e63c 8ba7 a8b9
00000110: 8fce 11bd ed38 8fbd 7015 f83c 1656 b43c
00000120: f091 23bc 5c44 96bc 25f6 ae3c e5f6 303b
00000130: 384b ceba 84af 2fbd 3eb5 f7bc 53a3 05bb
00000140: 1ce4 43bd 00df 023c d4d8 2c3d 80f1 493d
00000150: 06fb 0ebd e266 6dbd c8c9 573d 48a2 0dbc
00000160: 520a 08bd 224d 093d 8e18 273d 9810 87bc
00000170: 2e3d 2bbd beb2 203d 1630 49bd 4ccd 88bc
00000180: 04b9 583d bda7 e9bb bb7f e7bc 7bff 573d
00000190: 8c33 d1bc 0f02 8c39 15df 86bd d76e dbbc
000001a0: a071 1c3d 1674 2c3c 7b08 383c fc45 ec3b
000001b0: 0823 673b aa06 41bd 6d00 8f3c e274 593d
000001c0: e832 79bd 215e 36bd 3afc 56bc a2d1 643d
000001d0: 0eac 6abd fb8f afbc 3a94 0e3c db9e 683d
000001e0: 2741 64bc b3f4 5dbd e3dd 51bd baf0 75bd
000001f0: 8da0 0dbd 1cbc 68bd 1457 703b 5068 e03c
00000200: 6a46 15bd 696e b83a 8765 d9bc ebb6 bf3c
00000210: 9410 8cbd a8e7 00bd 7561 1b3d adc7 91bd
00000220: 1a8e 0b3c a172 283c 7894 533d 7389 80bc
00000230: 025c 36bd 925f 45bd 9665 73bd 38bf 133d
00000240: 17ec 08bd c557 4bbd 52c1 633d 2748 d93c
00000250: 2d6e c1bc 6a65 8fbd 447b 143d 1d0b 6ebd
00000260: b11a c6bc 3ce8 42bd b57b 823d 3f2d 6a3c
00000270: b8a3 26bd 73de f53c ce95 3dbc 2f3f 86bd
00000280: a9e2 a8bb fa97 09bd 8d8f 49bd 0b0b c13b
00000290: 7b21 70bc 07a8 1fbd dbd0 293d a97b 0dbc
000002a0: 6a81 8fbc 6b7b cabc 2436 133d b063 2d3d
000002b0: 20a8 cb3c 2d84 80bc 2c1b c4bc 388e f73c
000002c0: b3ec e73c 9d62 633d 717d afba 6ad0 103d
000002d0: e463 b3bc b337 a2bc 669c 55bc 4042 a53c
000002e0: 595b 6e3d c440 23bd 3890 deb9 c5de 8bbb
000002f0: 4730 b6bc 1af5 073d 3c0e 6e3c a947 683c
00000300: 5dd5 aabc 4cf7 1bbd 72ff 59bd bb22 ffbb
00000310: 1e9a 11bd aded 1e3d 6a5c 9cbc 6368 1cbd
00000320: 019b 65bd 240d 763b cda1 19bd ce48 34bd
00000330: af4b e63c f43c a5bb f63c 48bd 3361 3bbd
00000340: c3d2 333d 09bf 263d 75ba abbb b034 b9bc
00000350: cf45 d53b a8e6 46bd 1618 94bd d405 0dbd
00000360: c781 073d c18e 79bd af87 1dbd ea25 dabc
00000370: 5ffa 81bd 31d5 09bd 756a 4ebd 0a8c 98bc
00000380: 8dc5 133c b99b 123c 351c c33c f18e d03c
00000390: 492a 83bd 6ef5 72bc 5f0b 1bbc 85e2 89bd
000003a0: 9739 56bd 2ded b3bc 0549 e73c 327c 2bbd
000003b0: 7299 5dbd 8a5a 8dbd e0b9 163d 18ec bbba
000003c0: 45ac d73c a241 b03b d923 10bc 8fa7 61bd
000003d0: 407a 303d d0e4 023d ea83 9abd d891 2dbd
000003e0: f9df 023d c728 8cbd 883c 22bd 6eac de3c
000003f0: a5ab 75bd 589c 5c3c fac0 e63c 6156 8cbd

linear_a_0.bias f4 [16]
-0.04318683 -0.07834294 0.033528287 -0.013909995 0.038187817 -0.028293941 -0.03270753 -0.100363076
-0.055466574 0.2471055 -0.010778909 -0.063348934 0.022423688 0.26305208 -0.030529046 0.060879484
00000000: ace4 30bd 4372 a0bd f554 093d bfe6 63bc
00000010: d46a 1c3d b2c8 e7bc 55f8 05bd 288b cdbd
00000020: eb30 63bd 3909 7d3e 059a 30bc 16bd 81bd
00000030: e2b1 b73c c3ae 863e 0d18 fabc c45c 793d

GRU_a.weight_ih_l0 f4 [48, 16]
0.14462782 0.05002203 -0.07592976 -0.057803567 -0.11410821 -0.116141714 0.028892059 0.22006716
-0.05749693 0.13149877 0.18168764 0.08015916 -0.15289041 -0.07847429 0.033381566 -0.044467583
0.15669863 0.1344829 0.1887151 0.12288061 0.17279787 -0.21994822 -0.0736312 -0.0322224
0.14730467 0.23775576 -0.14783095 -0.23969617 0.2850377 0.2835869 0.17780015 -0.27120036
0.01832348 0.031668738 0.021237733 -0.20572047 -0.14449185 -0.1530179 0.20192802 0.05968213
0.09298431 0.12777074 -0.10159373 0.0042035924 -0.1617729 -0.12374039 -0.050943304 0.33783227
-0.01702872 0.15962525 0.11988731 0.07449315 -0.11317187 0.0008457472 -0.00088418246 0.24719495
0.261134 0.23052478 0.2198504 -0.18505444 -0.050121028 0.31902057 0.0020981298 0.057205714
-0.054146264 0.006151973 0.047033075 -0.1583049 -0.08674712 0.030499987 0.121230036 -0.24684814
-0.26498792 0.23012663 0.23167403 0.14245231 0.01352433 0.29132617 -0.12994099 0.047460888
-0.19704737 0.31869262 0.15596412 0.17893675 -0.027385747 0.09412724 0.0782891 0.07352035
0.06818079 0.59311795 0.13838317 -0.023372913 -0.2026045 0.16025457 -0.07940337 0.08246896
-0.1111212 0.11418738 0.19157578 -0.046991564 0.1627693 -0.13349915 0.17038709 -0.21585347
0.27636245 0.4279567 0.023090126 0.09745768 -0.0059944363 0.11672651 0.029292507 0.08135913
-0.23342049 0.17067917 0.2389543 -0.13656187 0.250258 0.12747154 0.14363314 -0.18924926
-0.04535336 0.6028337 0.22570916 0.0011199956 0.07633918 0.27478597 0.16006881 0.24863504
0.1233295 -0.09111434 -0.009424297 0.22425272 -0.18703693 -0.20981154 0.004876451 0.06602239
-0.20277175 0.4067214 -0.006064602 -0.12416792 -0.11123835 0.25280467 -0.16569762 -0.11685889
0.039298113 -0.17399971 -0.104661226 -0.12629892 -0.01700147 -0.17458166 -0.23280464 0.1627411
-0.16171715 0.2586171 -0.22097798 -0.23636663 0.141071 -0.0987697 0.14238177 -0.06331927
-0.23369731 0.2527201 0.18793687 0.14758873 -0.13733214 -0.21916 -0.20074475 0.33083043
0.35605255 0.14235342 -0.09769789 0.19144359 -0.07313128 0.08938389 0.18235873 0.18301226
-0.13152376 0.060346417 0.19799331 -0.14851691 0.016069844 0.18372783 0.07076389 -0.142007
0.055836555 0.16225922 -0.07506321 0.34390503 0.1990221 0.19233221 -0.013312154 0.23170076
-0.11780029 0.11875779 0.2031455 -0.17705147 0.008959439 0.24354285 0.21047172 -0.098830216
-0.010346234 -0.07959601 0.19891922 -0.07672029 0.064684585 -0.18609996 0.02429769 0.23537074
0.07580207 0.32116428 -0.11300987 -0.104436316 0.04326188 -0.13849318 0.09518192 0.22761048
0.27865112 0.32765853 0.18277583 0.13543528 -0.057866145 0.09197753 0.13283493 0.13715823
-0.06439371 -0.29541883 0.19228712 0.12926167 -0.03473893 -0.09359333 -0.06356635 0.07682524
-0.1826358 0.24853094 -0.0919357 -0.21667802 -0.08015416 -0.18675332 0.086663164 0.19700532
0.07672759 -0.1103153 -0.14639875 0.21848164 -0.23119397 -0.2013626 -0.09607838 -0.010980001
0.18239865 0.12908413 0.19352841 0.040993024 0.04911493 0.32357073 0.17578755 0.2981261
00000000: 5119 143e e6e3 4c3d 1081 9bbd 6fc3 6cbd
00000010: 91b1 e9bd b5db edbd 0aaf ec3c 4959 613e
00000020: e781 6bbd 9da7 063e 530c 3a3e 7c2a a43d
00000030: 4e8f 1cbe 21b7 a0bd 1cbb 083d a423 36bd
00000040: 9b75 203e e3b5 093e 883e 413e d4a8 fb3d
00000050: edf1 303e 1b3a 61be f4cb 96bd a3fb 03bd
00000060: 09d7 163e 3f76 733e ff60 17be ea72 75be
00000070: 76f0 913e 4d32 913e 3e11 363e c6da 8abe
00000080: 1f1b 963c 14b7 013d c1fa ad3c 63a8 52be
00000090: acf5 13be b9b0 1cbe 38c6 4e3e 4075 743d
000000a0: 8f6e be3d 55d6 023e 6010 d0bd 4abe 893b
000000b0: cca7 25be 9a6b fdbd eda9 50bd 5af8 ac3e
000000c0: d07f 8bbc cd74 233e 7a87 f53d dd8f 983d
000000d0: a7c6 e7bd 22b5 5d3a 7bc8 67ba ac20 7d3e
000000e0: 5bb3 853e b00e 6c3e 7720 613e e97e 3dbe
000000f0: b54b 4dbd aa56 a33e c780 093b 8a50 6a3d
00000100: 79c8 5dbd 7d96 c93b c1a5 403d ae1a 22be
00000110: 79a8 b1bd 1cdb f93c 7447 f83d c2c5 7cbe
00000120: 7fac 87be 51a6 6b3e f53b 6d3e 05df 113e
00000130: 2795 5d3c b428 953e 400f 05be 5966 423d
00000140: c9c6 49be ae2b a33e 0fb5 1f3e 323b 373e
00000150: 1358 e0bc c8c5 c03d 0956 a03d d691 963d
00000160: 5fa2 8b3d 94d6 173f 51b4 0d3e 8d78 bfbc
00000170: 8e77 4fbe c619 243e 3c9e a2bd 7ce5 a83d
00000180: 8393 e3bd 13db e93d 712c 443e 3a7a 40bd
00000190: ffac 263e 00b4 08be f479 2e3e b108 5dbe
000001a0: 617f 8d3e 241d db3e 8127 bd3c e497 c73d
000001b0: fa6c c4bb 4f0e ef3d d7f6 ef3c 9e9f a63d
000001c0: c805 6fbe 85c6 2e3e 70b0 743e e0d6 0bbe
000001d0: d121 803e e687 023e 9114 133e 8fca 41be
000001e0: 72c4 39bd 4f53 1a3f 4d20 673e d1cc 923a
000001f0: b757 9c3d bfb0 8c3e 14e9 233e 2f9a 7e3e
00000200: 2d94 fc3d 289a babd 5e68 1abc 81a2 653e
00000210: 9c86 3fbe d6d8 56be a3ca 9f3b bf36 873d
00000220: 66a3 4fbe ca3d d03e 92b9 c6bb c04b febd
00000230: efd0 e3bd 9d6f 813e a3ac 29be b753 efbd
00000240: 0ff7 203d fb2c 32be a058 d6bd 8154 01be
00000250: ab46 8bbc 89c5 32be 5764 6ebe 9aa5 263e
00000260: 2e99 25be 7669 843e 0d48 62be 180a 72be
00000270: eb74 103e c547 cabd 87cc 113e 89ad 81bd
00000280: 594e 6fbe 8764 813e 8672 403e 8021 173e
00000290: cca0 0cbe 7b6b 60be 0890 4dbe 9b62 a93e
000002a0: 854c b63e 18c5 113e d515 c8bd ca09 443e
000002b0: dac5 95bd e70e b73d 3fbc 3a3e 9167 3b3e
000002c0: 2aae 06be ce2d 773d c2be 4a3e d114 18be
000002d0: e8a4 833c 2623 3c3e a9ec 903d 486a 11be
000002e0: dfb4 643d 4827 263e beba 99bd 5214 b03e
000002f0: 73cc 4b3e bcf2 443e 391b 5abc f742 6d3e
00000300: 4741 f1bd 4937 f33d 6005 503e fb4c 35be
00000310: 9cca 123c 4c63 793e e685 573e 7f67 cabd
00000320: 4083 29bc 3c03 a3bd 7bb1 4b3e 871f 9dbd
00000330: 5a79 843d fd90 3ebe f30b c73c 0705 713e
00000340: 1e3e 9b3d a56f a43e b871 e7bd b5e2 d5bd
00000350: 5e33 313d 28d1 0dbe bdee c23d b912 693e
00000360: 5cab 8e3e dcc2 a73e 9629 3b3e 8caf 0a3e
00000370: 0d05 6dbd b75e bc3d e105 083e 3573 0c3e
00000380: d9e0 83bd 2341 97be eae6 443e 2c5d 043e
00000390: 694a 0ebd dcad bfbd 132f 82bd 8d56 9d3d
000003a0: e104 3bbe e57e 7e3e c948 bcbd d8e0 5dbe
000003b0: dd27 a4bd 433c 3fbe 757c b13d c3bb 493e
000003c0: 5b23 9d3d fdec e1bd 8ee9 15be a7b9 5f3e
000003d0: 1dbe 6cbe ff31 4ebe bec4 c4bd 76e5 33bc
000003e0: b6c6 3a3e a12e 043e 502c 463e 4de8 273d
000003f0: bd2c 493d 10ab a53e a701 343e fca3 983e

GRU_a.weight_hh_l0 f4 [48, 16]
-0.025556492 -0.12195679 -0.014464009 0.20951305 0.07396039 0.180935 0.011978651 -0.14816353
0.028812952 0.057517402 0.09778388 0.31713197 -0.2701355 0.29337934 -0.1606604 0.21253544
-0.23753501 0.06143101 0.024603052 0.022384187 -0.12275117 -0.0378567 0.2878633 0.19569203
-0.12357634 0.06243606 0.029746462 0.0047040274 -0.23993488 0.076228745 -0.09007836 0.32994273
-0.3010849 -0.09175319 -0.31436008 -0.049485907 -0.2024041 -0.16005416 -0.101803176 0.06536112
-0.052543197 -0.007792996 0.09647531 -0.16324385 0.14752696 -0.113457985 0.0044651916 0.25948614
0.12104583 0.18035945 -0.24292688 0.17874436 -0.023830941 0.06963355 0.05077372 0.02348932
0.071261294 -0.10543574 0.28486323 -0.011110311 0.10175925 -0.050639518 -0.27962482 0.0366557
-0.31521964 0.15576525 -0.34738314 -0.0073315836 0.11746244 0.051320195 0.20858246 0.15665902
-0.10045645 -0.04967813 -0.10864864 0.24439907 0.041251138 0.0705554 -0.15816143 0.026817728
-0.26656613 0.19181627 -0.07791533 0.06513167 -0.1413922 0.48081207 0.32172307 0.18638463
-0.18608694 0.26055714 0.0056661856 0.1716997 -0.20310417 0.34946448 -0.36395392 0.13826935
-0.26246065 0.20424071 -0.04033514 0.36723363 -0.31467474 0.2434791 0.12781213 -0.11499463
0.0075964388 0.14184287 0.24869004 0.072678834 -0.30811748 0.3692173 -0.21940054 0.3442254
-0.04335038 0.20048815 -0.29292506 0.50977504 -0.46317858 0.41484082 0.16165751 0.06338718
0.046101164 0.2799456 0.5131811 0.4691484 0.00046213897 0.1431479 -0.41143778 0.17086121
-0.09002498 0.26968417 -0.27342916 0.19221248 -0.020825721 0.037730277 0.14010347 0.14196357
0.18607645 0.09838575 0.057220723 -0.059799448 0.0017640489 0.19971253 -0.073367834 -0.07790632
0.04941661 0.057802368 -0.33473375 -0.03486232 0.040314917 0.2628245 0.10254797 0.014942185
0.061141647 0.15537067 -0.042801388 -0.093856335 0.037327833 0.3231095 0.0066110888 -0.060741097
0.034412887 -0.082802944 -0.32265958 0.04761244 -0.15710765 0.34795457 0.026984075 0.15551446
-0.21343568 0.09114632 0.06229175 -0.09209933 -0.052275553 0.120944984 -0.2937764 0.38045296
-0.3938198 0.16335507 -0.014294925 0.16123131 -0.12357356 0.21708679 0.22589538 0.1324616
0.032675166 0.043477822 0.0940019 0.22630058 -0.31024632 0.3082396 -0.21152385 0.3575939
-0.048265614 0.0075041265 0.11575095 -0.07450095 0.17937735 0.062452555 0.24387592 -0.03277635
-0.09451995 0.027138667 0.16880965 0.1030269 0.046366096 -0.13966644 -0.3421071 -0.15684049
0.06333238 -0.049442865 -0.13079214 0.23624659 -0.2337017 0.040413965 0.1468086 0.22030294
-0.2115357 0.308753 0.40443277 -0.057918765 -0.3949048 0.27099812 -0.11558745 -0.001744797
0.04796297 0.09780181 -0.1417793 0.26745546 -0.004322402 0.1815819 0.087709375 -0.09862193
0.17130683 -0.11302726 0.08401759 0.12751853 -0.11916772 0.09146006 -0.18358567 0.08654816
-0.18500553 0.32815224 -0.050251782 0.29138842 0.054834332 0.40357214 0.23741575 -0.12520535
-0.25446874 0.100419685 0.23018125 0.12903093 0.06999504 0.31124195 -0.014419725 0.32650936
00000000: d95b d1bc 7bc4 f9bd 73fa 6cbc 978a 563e
00000010: 8c78 973d 0647 393e 1b42 443c 2eb8 17be
00000020: 2409 ec3c 5e97 6b3d ea42 c83d 1f5f a23e
00000030: 334f 8abe d135 963e 2984 24be e4a2 593e
00000040: 613c 73be 159f 7b3d 578c c93c 0b5f b73c
00000050: f764 fbbd a10f 1bbd d262 933e 7e63 483e
00000060: 9815 fdbd f4bc 7f3d daae f33c 3e24 9a3b
00000070: 7db1 75be d11d 9c3d 017b b8bd 41ee a83e
00000080: cd27 9abe 19e9 bbbd cef3 a0be bcb1 4abd
00000090: 0543 4fbe 3de5 23be 2f7e d0bd 0ddc 853d
000000a0: 8937 57bd 635c ffbb d994 c53d 6529 27be
000000b0: 4f11 173e a95c e8bd be50 923b 5edb 843e
000000c0: e0e6 f73d 26b0 383e d3c1 78be c308 373e
000000d0: 1b39 c3bc 099c 8e3d 1bf8 4f3d ad6c c03c
000000e0: 71f1 913d b1ee d7bd 98d9 913e 0608 36bc
000000f0: 2767 d03d 626b 4fbd fc2a 8fbe 4a24 163d
00000100: 7864 a1be ed80 1f3e 34dc b1be c83d f0bb
00000110: 2690 f03d 2035 523d a496 553e 396b 203e
00000120: 1cbc cdbd 4b7b 4bbd 2e83 debd c043 7a3e
00000130: f4f6 283d 597f 903d 12f5 21be dab0 db3c
00000140: 5b7b 88be 7c6b 443e 1392 9fbd c163 853d
00000150: 1ec9 10be 002d f63e e3b8 a43e 9ddb 3e3e
00000160: 938d 3ebe bf67 853e 69ab b93b 0cd2 2f3e
00000170: 8afa 4fbe 02ed b23e 2b58 babe 7b96 0d3e
00000180: 3e61 86be 7a24 513e 7636 25bd 0c06 bc3e
00000190: 0c1d a1be 9652 793e 2fe1 023e 4e82 ebbd
000001a0: 8ceb f83b 423f 113e 9aa8 7e3e a4d8 943d
000001b0: 93c1 9dbe 0d0a bd3e 89aa 60be 503e b03e
000001c0: 2b90 31bd c44c 4d3e 46fa 95be 9e80 023f
000001d0: be25 edbe 0466 d43e 8c89 253e 23d1 813d
000001e0: 93d4 3c3d 0855 8f3e d65f 033f 3834 f03e
000001f0: 3e4b f239 5d95 123e f9a7 d2be 3ef6 2e3e
00000200: 045f b8bd 0b14 8a3e e8fe 8bbe 59d3 443e
00000210: b49a aabc 108b 1a3d 4977 0f3e e65e 113e
00000220: d38a 3e3e 787e c93d 4760 6a3d 44f0 74bd
00000230: a937 e73a 7181 4c3e e041 96bd 598d 9fbd
00000240: 1269 4a3d 2dc2 6c3d 3962 abbe cbcb 0ebd
00000250: 4121 253d ef90 863e ac04 d23d 11d0 743c
00000260: aa6f 7a3d 7d19 1f3e 8250 2fbd c037 c0bd
00000270: 12e5 183d 9c6e a53e d5a1 d83b a8cb 78bd
00000280: 87f4 0c3d 9794 a9bd a333 a5be 4305 433d
00000290: d4e0 20be 1a27 b23e b50d dd3c 2f3f 1f3e
000002a0: e28e 5abe ecaa ba3d a225 7f3d 939e bcbd
000002b0: e41e 56bd 01b2 f73d dc69 96be bbca c23e
000002c0: c0a2 c9be 8d46 273e 4335 6abc d219 253e
000002d0: 2214 fdbd 004c 5e3e 1e51 673e 03a4 073e
000002e0: 65d6 053d cd15 323d 1184 c03d 57bb 673e
000002f0: 9bd8 9ebe 95d1 9d3e b599 58be 8c16 b73e
00000300: 2ab2 45bd 2de5 f53b d60e ed3d f493 98bd
00000310: b2ae 373e 40ce 7f3d 9cba 793e 7e40 06bd
00000320: ad93 c1bd e951 de3c 70dc 2c3e c4ff d23d
00000330: 60ea 3d3d b804 0fbe a928 afbe cb9a 20be
00000340: 68b4 813d 9a84 4abd 60ee 05be a0ea 713e
00000350: 804f 6fbe 1d89 253d fe54 163e 1897 613e
00000360: d19c 58be e014 9e3e d011 cf3e 3a3c 6dbd
00000370: f630 cabe 44c0 8a3e 1db9 ecbd acb1 e4ba
00000380: d274 443d 514c c83d 982e 11be ecef 883e
00000390: f0a2 8dbb 9bf0 393e f9a0 b33d 4bfa c9bd
000003a0: 0f6b 2f3e d67a e7bd 6a11 ac3d 3894 023e
000003b0: 350e f4bd 694f bb3d e2fd 3bbe 2940 b13d
000003c0: 1772 3dbe 9203 a83e d0d4 4dbd dd30 953e
000003d0: f799 603d 02a1 ce3e 1d1d 733e d535 00be
000003e0: ba49 82be d6a8 cd3d a2b4 6b3e af20 043e
000003f0: 8f59 8f3d 1b5b 9f3e b640 6cbc 3c2c a73e

GRU_a.bias_ih_l0 f4 [48]
0.3713999 0.085071534 0.071713336 0.09784854 -0.039597936 0.3839885 0.17981751 0.40624928
0.06674224 0.32064304 0.32091296 0.13445528 -0.00376034 0.22830537 -0.26898462 0.23737869
-0.038623095 -0.44585446 0.0061159376 -0.04033239 -0.11865631 -0.27973583 -0.16765012 -0.044740878
-0.5923666 0.023779768 -0.36266625 0.009696392 -0.061419133 -0.12153537 -0.43091992 0.07609235
-0.25099123 0.11516666 0.03624868 0.24068931 0.24655004 0.15654682 -0.0741245 -0.01413213
0.15628093 -0.30037495 0.30480492 0.040970724 -0.19308388 0.12546405 -0.27975455 0.26620027
00000000: 2128 be3e fc39 ae3d 71de 923d d164 c83d
00000010: 7231 22bd 249a c43e 1522 383e e8ff cf3e
00000020: 28b0 883d 532b a43e b44e a43e a5ae 093e
00000030: 0970 76bb e2c8 693e 5ab8 89be 6613 733e
00000040: 4033 1ebd 0947 e4be 3468 c83b 9433 25bd
00000050: 1402 f3bd 8939 8fbe 79ac 2bbe 3642 37bd
00000060: 56a5 17bf cacd c23c 64af b9be 9edd 1e3c
00000070: a192 7bbd 89e7 f8bd 89a1 dcbe 4ed6 9b3d
00000080: ec81 80be 7fdc eb3d 7f79 143d 4277 763e
00000090: 9d77 7c3e cf4d 203e 96ce 97bd 738a 67bc
000000a0: 1c08 203e bfca 99be 640f 9c3e ebd0 273d
000000b0: c8b7 45be a679 003e fd3b 8fbe 674b 883e

GRU_a.bias_hh_l0 f4 [48]
0.3652116 -0.052981265 0.13594814 0.23889996 0.116415 -0.01603857 0.21120463 0.44355932
0.08003228 -0.06494387 0.028065557 0.21848316 0.081694365 0.3167268 -0.050769765 0.0006704419
-0.24394938 -0.3431482 -0.25135386 -0.16840059 -0.5090422 -0.14635937 -0.41416648 -0.45965588
-0.6014293 -0.26164374 -0.37548834 -0.21651684 -0.31241602 -0.004554673 -0.21276434 -0.12763417
-0.3795355 -0.047830995 -0.27219427 0.12591995 0.14666602 0.44892198 0.027867036 0.07556572
0.40097204 0.001194408 0.04981585 0.37390086 -0.359324 0.051367186 0.03478349 -0.09495685
00000000: 04fd ba3e e202 59bd fd35 0b3e 31a2 743e
00000010: fd6a ee3d 5263 83bc 0746 583e 351a e33e
00000020: f7e7 a33d 4b01 85bd bde9 e53c 0dba 5f3e
00000030: 604f a73d 042a a23e f5f3 4fbd 98c0 2f3a
00000040: decd 79be 1fb1 afbe 74b1 80be 3471 2cbe
00000050: 9750 02bf 3bdf 15be a10d d4be 0458 ebbe
00000060: 45f7 19bf 2bf6 85be 0240 c0be 97b6 5dbe
00000070: fef4 9fbe 5e3f 95bb e5de 59be 88b2 02be
00000080: 7a52 c2be 6fea 43bd 0c5d 8bbe 29f1 003e
00000090: 9e2f 163e 1ad9 e53e 6949 e43c 33c2 9a3d
000000a0: 354c cd3e af8d 9c3a b40b 4c3d ef6f bf3e
000000b0: 51f9 b7be 6666 523d 2279 0e3d bd78 c2bd

linear_a.weight f4 [4, 16]
-0.019650042 -0.36844704 0.11144686 -0.41445044 -0.3353979 -0.38515413 -0.40563753 -0.11998066
-0.14420086 0.09399333 -0.5232506 -0.4814258 0.042800784 -0.23440582 -0.17632788 -0.57142645
0.12424004 0.8251419 -0.004044645 0.13538367 -1.0011466 0.10750379 0.8901012 -0.50637066
-0.9076673 0.86489654 0.29307938 0.26203808 0.22215676 0.2210493 0.12651396 0.20291993
-0.08691695 -0.670324 -0.034089714 0.08385239 0.6404034 0.27557543 -0.6066937 0.94752157
1.0585521 -0.8671892 0.29667643 0.30502576 0.07114977 0.3143471 -0.1332627 0.3779689
0.17391247 -0.39085832 0.13579819 -0.58609456 0.07099847 -0.42035463 -0.5111171 -0.37229842
-0.26411813 -0.024958858 -0.3575667 -0.59921646 -0.118551135 -0.29957852 0.021733314 -0.19624227
00000000: 20f9 a0bc 17a5 bcbe 403e e43d d932 d4be
00000010: 46b9 abbe ec32 c5be b9af cfbe 6cb8 f5bd
00000020: 64a9 13be 937f c03d c0f3 05bf 717d f6be
00000030: e04f 2f3d 1408 70be 4c8f 34be 0149 12bf
00000040: 9071 fe3d 803c 533f f188 84bb 04a2 0a3e
00000050: 9225 80bf f22a dc3d acdd 633f 82a1 01bf
00000060: e25c 68bf dc69 5d3f 800e 963e db29 863e
00000070: 107d 633e bf5a 623e e08c 013e 3eca 4f3e
00000080: 8401 b2bd 5b9a 2bbf a8a1 0bbd cdba ab3d
00000090: 7af1 233f 3918 8d3e 4750 1bbf c690 723f
000000a0: a37e 873f 1d00 5ebf f9e5 973e 562c 9c3e
000000b0: f8b6 913d 1af2 a03e 0476 08be 2485 c13e
000000c0: 1c16 323e 951e c8be ae0e 0b3e 4b0a 16bf
000000d0: a567 913d b938 d7be 92d8 02bf e69d bebe
000000e0: 7e3a 87be 8576 ccbc fc12 b7be 4066 19bf
000000f0: f0ca f2bd 5b62 99be 100a b23c bcf3 48be

linear_a.bias f4 [4]
-0.37667742 0.17650354 -0.1293216 -0.24956186
00000000: dddb c0be 58bd 343e e26c 04be 258d 7fbe

conv_v_0.weight f4 [16, 7, 3, 3]
-0.108079806 -0.08597471 0.336512 -0.116436675 -0.122710966 0.3250474 -0.0046755923 -0.21646576
-0.24987258 0.23010114 0.19970801 -0.035946522 -0.12579133 0.112417616 0.001027005 -0.010385116
-0.23288031 0.19235937 0.09096958 0.19145104 0.1662309 0.097288795 -0.6125368 -0.257451
0.17920062 0.2188613 -0.19967021 0.020285038 0.031217575 0.048409257 0.13465878 -0.09987426
0.056952868 0.07019696 0.13148841 -0.012066356 -0.0054765632 0.0054535307 -0.024909923 -0.03567732
-0.031740516 0.06943676 0.09183379 0.0010861693 -0.05544005 0.03724707 -0.007483381 -0.10554304
0.016002925 -0.029391387 0.04720778 0.03128633 0.038420036 -0.16933003 -0.077429615 -0.22716449
-0.018577987 -0.1271588 -0.15415595 -0.18643345 -0.012675056 -0.10945789 0.012182098 0.11560014
-0.1243808 0.18356833 -0.052814033 0.15524451 -0.36957616 -0.09099735 -0.02075796 -0.3053024
0.023945143 -0.015563379 0.050650425 -0.015403418 -0.014883753 0.1522783 0.20459002 -0.0374672
0.058486704 0.076598264 -0.35574886 0.18652223 0.15446919 0.016632045 0.1360623 0.097500846
0.16396305 0.19735038 -0.1850285 -0.030481469 0.12213613 0.04006256 0.021110244 -0.31782058
0.14438517 -0.17812262 0.110080935 -0.023074616 -0.0009069483 -0.011146448 0.0047777956 0.087103605
-0.07632856 -0.05598572 -0.09453038 0.03124668 0.01897382 -0.054356437 0.03297599 0.0005976237
0.031598024 0.039401423 -0.027339919 0.030797744 -0.07404041 -0.14705154 -0.06726759 -0.12478759
-0.19537383 -0.15956198 -0.11872284 -0.05069577 0.026748559 -0.057157364 0.21095233 -0.41615164
-0.032643158 0.17654185 -0.34036526 0.021807063 0.1870769 -0.15033692 0.03988101 0.007248396
0.10165021 0.06436997 0.008837102 -0.059123997 -0.012157083 0.02100141 0.03063478 -0.07667023
0.22679615 0.14550799 -0.12709126 0.16345543 0.13148463 -0.073237605 0.17755556 0.16704933
-0.16791451 -0.14805607 -0.2969422 -0.2242243 -0.08956519 0.0389859 -0.06584306 0.12685668
0.1029644 -0.124676615 -0.09296749 -0.013906921 -0.07978029 -0.028300978 0.027666181 0.011081721
0.033918623 -0.022692557 -0.08138715 -0.013592147 -0.0060354765 -0.043655127 0.11893506 -0.029240344
0.0045730895 0.009066418 -0.045957014 -0.031062448 0.010898942 -0.03341438 -0.14268737 -0.11349587
-0.10004609 -0.09969259 -0.011567501 0.016055625 0.06289869 0.015981907 0.01874265 -0.09995511
0.027649784 0.028908229 -0.07898106 -0.0010150743 0.08752485 0.20685542 0.08598132 0.0031027035
0.26397258 -0.46730715 -0.12387507 -0.0034058194 -0.22677043 -0.10585243 -0.16358776 0.13980453
-0.44329622 -0.29627928 -0.025668329 -0.185511 -0.2904025 0.24085689 -0.11118928 0.0859556
-0.28106108 -0.14991085 -0.12377958 -0.031313013 -0.047642402 -0.14746621 -0.09821544 -0.019042697
-0.011534174 0.05267837 -0.168969 0.03477928 -0.17213714 -0.11043003 -0.12691846 -0.026101321
-0.04364971 -0.104389995 0.020469032 0.065493874 -0.10555192 -0.16930997 -0.14277932 0.071728
-0.022710657 -0.0721578 0.0058395136 -0.15138704 -0.17703782 -0.044638023 -0.16945411 -0.22896011
-0.043079447 -0.24776846 -0.13262498 -0.16705333 0.06276029 -0.20353858 0.10935915 0.13604772
00000000: f258 ddbd 8213 b0bd 4d4b ac3e 5a76 eebd
00000010: e34f fbbd 9d6c a63e b635 99bb 33a9 5dbe
00000020: 99de 7fbe a29f 6b3e 4280 4c3e a93c 13bd
00000030: 71cf 00be 353b e63d 929c 863a 5526 2abc
00000040: 2d78 6ebe dbf9 443e 424e ba3d be0b 443e
00000050: 6f38 2a3e 593f c73d 36cf 1cbf 9ed0 83be
00000060: 5e80 373e 2d1d 603e 5976 4cbe cf2c a63c
00000070: 00bc ff3c c948 463d fee3 093e e08a ccbd
00000080: 6947 693d 6cc3 8f3d e6a4 063e f7b1 45bc
00000090: be74 b3bb 88b3 b23b e50f ccbc 6222 12bd
000000a0: 5802 02bd dc34 8e3d 5b13 bc3d cb5d 8e3a
000000b0: 1b15 63bd 6290 183d 2637 f5bb f326 d8bd
000000c0: 9118 833c 35c6 f0bc f25c 413d 1826 003d
000000d0: 545e 1d3d da64 2dbe 6b93 9ebd cf9d 68be
000000e0: dd30 98bc eb35 02be 0fdb 1dbe 69e8 3ebe
000000f0: 0aab 4fbc 752b e0bd 6c97 473c c4bf ec3d
00000100: 5cbb febd 56f9 3b3e 8753 58bd 6bf8 1e3e
00000110: 1639 bdbe d25c babd 990c aabc 9950 9cbe
00000120: 9b28 c43c 8bfd 7ebc d276 4f3d 9e5e 7cbc
00000130: fcda 73bc d8ee 1b3e 0c80 513e 3577 19bd
00000140: c18f 6f3d 8ddf 9c3d b724 b6be afff 3e3e
00000150: 2c2d 1e3e ed3f 883c ea53 0b3e 86ae c73d
00000160: eee5 273e 3816 4a3e 1c78 3dbe 46b4 f9bc
00000170: 8222 fa3d a418 243d 64ef ac3c 61b9 a2be
00000180: b5d9 133e c765 36be 1d72 e13d fa06 bdbc
00000190: 45c0 6dba 979f 36bc 0e8f 9c3b 6063 b23d
000001a0: 2652 9cbd 4851 65bd 2599 c1bd 0af9 ff3c
000001b0: fc6e 9b3c dba4 5ebd d511 073d d9a9 1c3a
000001c0: ee6c 013d 6363 213d f7f7 dfbc 8d4b fc3c
000001d0: 80a2 97bd ae94 16be 97c3 89bd a390 ffbd
000001e0: 1410 48be 3764 23be f624 f3bd 5ea6 4fbd
000001f0: cb1f db3c d71d 6abd e303 583e d411 d5be
00000200: d5b4 05bd 63c7 343e 5b44 aebe baa4 b23c
00000210: 1691 3f3e ecf1 19be 455a 233d f483 ed3b
00000220: fc2d d03d 67d4 833d 7ec9 103c 012c 72bd
00000230: 802e 47bc 260b ac3c caf5 fa3c 4805 9dbd
00000240: 403d 683e 0c00 153e 3624 02be dc60 273e
00000250: e8a3 063e 99fd 95bd 20d1 353e fb0e 2b3e
00000260: c8f1 2bbe 039c 17be cf08 98be 0e9b 65be
00000270: f46d b7bd aeaf 1f3d bad8 86bd b8e6 013e
00000280: 00df d23d 7456 ffbd bd65 bebd dbd9 63bc
00000290: d963 a3bd 74d7 e7bc 30a4 e23c 1b90 353c
000002a0: 41ee 0a3d bee5 b9bc 4eae a6bd 99b1 5ebc
000002b0: 3fc5 c5bb b8cf 32bd 3a94 f33d 7289 efbc
000002c0: dbd9 953b 508b 143c 6c3d 3cbd ad76 febc
000002d0: 7a91 323c 84dd 08bd a31c 12be 8670 e8bd
000002e0: f7e4 ccbd a12b ccbd 9e85 3dbc 1687 833c
000002f0: 07d1 803d 7dec 823c 308a 993c 44b5 ccbd
00000300: cd81 e23c f3d0 ec3c d2c0 a1bd 3e0c 85ba
00000310: 3b40 b33d e8d1 533e f916 b03d ba56 4b3b
00000320: 6a27 873e e242 efbe 36b2 fdbd 2b34 5fbb
00000330: 8236 68be 29c9 d8bd 8d83 27be eb28 0f3e
00000340: b9f7 e2be ebb1 97be 6346 d2bc 98f6 3dbe
00000350: a3af 94be 30a3 763e 35b7 e3bd 7d09 b03d
00000360: 3de7 8fbe 3b82 19be 2680 fdbd 1342 00bd
00000370: ae24 43bd 6201 17be 2d25 c9bd 6eff 9bbc
00000380: d5f9 3cbc 46c5 573d 3606 2dbe b874 0e3d
00000390: b844 30be 2429 e2bd eaf6 01be 70d2 d5bc
000003a0: 0aca 32bd 6cca d5bd acae a73c a721 863d
000003b0: 9b2b d8bd 985f 2dbe be34 12be 21e6 923d
000003c0: b30b babc 78c7 93bd 6459 bf3b 3405 1bbe
000003d0: 6749 35be 5cd6 36bd 6185 2dbe 8574 6abe
000003e0: 1374 30bd 04b7 7dbe d8ce 07be 0710 2bbe
000003f0: 7888 803d 6b6c 50be b1f7 df3d 1850 0b3e

conv_v_0.bias f4 [16]
-0.054648295 -0.02996583 0.010386223 0.01648052 0.11747043 0.06372954 -0.013297903 -0.024177605
-0.01347775 0.1409075 0.10817223 -0.049318675 0.03851792 -0.014599812 0.0068394677 0.09130058
00000000: e4d6 5fbd e67a f5bc fa2a 2a3c 2802 873c
00000010: 5694 f03d a284 823d 73df 59bc 1d10 c6bc
00000020: c8d1 5cbc 0e4a 103e 6789 dd3d 6102 4abd
00000030: f7c4 1d3d 0d34 6fbc 9d1d e03b ccfb ba3d

conv_v_1.weight f4 [16, 16, 3, 3]
0.17782575 0.07287904 0.20030871 0.15987872 0.18501872 0.18073297 0.27940434 0.2707859
0.16077088 0.03344099 0.062462743 0.05242035 0.09881665 0.13311383 0.15384714 0.055628806
0.08603152 0.12809122 0.18444957 0.10696697 0.15538406 0.15416661 0.16357054 0.049053613
0.106226176 0.18109241 0.10110386 -0.2607093 -0.18699755 -0.099495135 -0.2326315 -0.24620725
-0.16445994 -0.23323908 -0.109004825 -0.21038534 -0.047521193 0.050479557 0.062237244 0.033956863
0.07379943 0.06489398 0.05258441 -0.019508844 0.07924228 0.035081305 -0.018863156 -0.013396505
-0.02090708 0.026421227 -0.025834013 0.0582223 0.0643349 -0.042398702 0.060564388 0.09647964
0.10860041 0.0357075 0.05091016 0.06211795 0.12926528 0.03974845 0.011228105 0.24464384
0.09541923 0.2660346 0.08683335 0.101232834 0.16462372 0.1851291 0.09788422 0.152264
-0.09791768 -0.07225756 -0.10969906 -0.1267109 -0.10807464 -0.18851225 -0.079456575 -0.13940297
-0.050216388 0.08248564 0.0014483042 0.036823634 0.026375862 0.062300865 -0.07852677 0.00987892
-0.048163675 -0.00013793068 0.064160146 -0.0048193615 0.038356494 -0.023564834 -0.039073754 -0.0032463977
-0.086214185 -0.002020855 -0.06399052 0.0963213 0.13724995 0.086946085 0.041767467 0.07829921
0.09888661 0.15151004 0.10807681 0.026781924 -0.19727959 -0.26467195 -0.19366334 -0.24480946
-0.2657533 -0.23502727 -0.17302048 -0.2536456 -0.22795431 0.17474377 0.0954128 0.11622721
0.19348916 0.053068012 0.16503608 0.059676792 0.18629883 0.14214414 0.06914704 0.038544975
0.00588906 -0.0034157196 0.100250244 0.08562034 0.10604889 0.0076942244 -0.01593314 0.06685692
-0.0039022488 -0.0795755 0.019688973 -0.022049455 0.010278702 -0.009424738 -0.012249779 -0.025543923
-0.09151354 -0.0055485847 -0.004489875 -0.07206917 -0.032623425 0.055721536 -0.045044817 0.07001467
-0.01645526 0.20743799 0.14657754 0.057425067 0.080872335 0.15974991 0.14377506 -0.029876307
0.20395088 0.03922991 -0.033590555 0.03572044 0.15826258 0.07594672 0.0013293592 0.07925566
0.058810696 0.017114718 0.055518597 0.034766417 -0.16327696 -0.03782428 -0.08472451 -0.07452229
-0.061096173 -0.20460632 -0.031963024 -0.08142038 -0.08965983 -0.067946844 0.04434699 -0.08283017
-0.093609944 -0.040618118 -0.0123140225 -0.026139868 -0.061782 -0.051014915 -0.09953852 -0.00089237985
-0.12384338 -0.13334814 0.019353665 -0.10508536 -0.016314795 -0.018984525 -0.013087835 0.016046347
-0.10338023 -0.14724101 -0.0064875223 -0.10334014 0.023817038 -0.044531353 -0.0457691 0.006617615
0.04857191 0.013378509 -0.009248332 0.09040229 0.09883723 0.08467726 0.08166158 -0.08529818
0.07782626 0.14982916 0.13733703 -0.0020177308 0.033331342 0.09095383 0.05723912 0.18787389
0.051447537 -0.11163947 0.0015443315 -0.019712549 0.03739602 -0.034389082 0.07165714 -0.07584223
-0.099461384 -0.0639088 -0.067679286 -0.009643416 0.0038619 -0.0299837 -0.18161377 -0.025832586
-0.15280181 -0.060262483 -0.0048302184 0.11817098 0.0774513 0.071965694 0.13375725 0.03830419
0.11836364 0.06535464 0.17507851 0.16761686 -0.22626388 -0.14858091 -0.12936488 0.045592207
00000000: f417 363e 9b41 953d ba1d 4d3e 3fb7 233e
00000010: 8c75 3d3e 1012 393e 160e 8f3e 73a4 8a3e
00000020: 1fa1 243e 6bf9 083d efd8 7f3d b9b6 563d
00000030: 6260 ca3d fe4e 083e 1b8a 1d3e 08db 633d
00000040: 4b31 b03d 582a 033e 59e0 3c3e 8011 db3d
00000050: 001d 1f3e dadd 1d3e 097f 273e 71ec 483d
00000060: 1c8d d93d 4a70 393e 8a0f cf3d b07b 85be
00000070: 497c 3fbe 1bc4 cbbd f436 6ebe c11d 7cbe
00000080: 3068 28be 3ad6 6ebe ec3d dfbd 416f 57be
00000090: 95a5 42bd a7c3 4e3d 7bec 7e3d 5a16 0b3d
000000a0: 2824 973d 23e7 843d c062 573d 03d1 9fbc
000000b0: c749 a23d 6ab1 0f3d e886 9abc 047d 5bbc
000000c0: 5345 abbc 5471 d83c daa1 d3bc 827a 6e3d
000000d0: 04c2 833d 43aa 2dbd 5d12 783d 1e97 c53d
000000e0: e469 de3d 0742 123d 2c87 503d 646f 7e3d
000000f0: 1e5e 043e 45cf 223d 16f6 373c ea83 7a3e
00000100: 286b c33d b035 883e afd5 b13d 2953 cf3d
00000110: 1f93 283e 7c92 3d3e 8677 c83d 18eb 1b3e
00000120: 1189 c8bd c6fb 93bd e7a9 e0bd 81c0 01be
00000130: 3d56 ddbd 5b09 41be 21ba a2bd a7bf 0ebe
00000140: b3af 4dbd 3bee a83d 06d5 bd3a 61d4 163d
00000150: 3112 d83c 312f 7f3d a5d2 a0bd 32db 213c
00000160: 4647 45bd 7ca1 10b9 6566 833d bceb 9dbb
00000170: b31b 1d3d 0a0b c1bc cd0b 20bd 84c1 54bb
00000180: 1091 b0bd 5270 04bb 760d 83bd 1a44 c53d
00000190: 408b 0c3e ca10 b23d 5d14 2b3d 565b a03d
000001a0: 1085 ca3d 7325 1b3e 6057 dd3d c465 db3c
000001b0: a903 4abe 1583 87be af4f 46be 55af 7abe
000001c0: d110 88be fdaa 70be 482c 31be d6dd 81be
000001d0: db6c 69be 08f0 323e c967 c33d 8808 ee3d
000001e0: 0622 463e d85d 593d 38ff 283e a76f 743d
000001f0: 1fc5 3e3e 3c8e 113e f79c 8d3d 56e1 1d3d
00000200: 04f9 c03b 44da 5fbb 0050 cd3d b859 af3d
00000210: 2930 d93d d51f fc3b 3786 82bc 48ec 883d
00000220: dfbc 7fbb 7bf8 a2bd c54a a13c 0fa1 b4bc
00000230: 0068 283c 376a 1abc 4cb3 48bc 7d41 d1bc
00000240: 736b bbbd e7d0 b5bb cd1f 93bb 0099 93bd
00000250: 24a0 05bd 443c 643d ea80 38bd da63 8f3d
00000260: 2ecd 86bc a06a 543e 6c18 163e 8c36 6b3d
00000270: 65a0 a53d 7b95 233e c539 133e 28bf f4bc
00000280: 80d8 503e 8baf 203d 4096 09bd 994f 123d
00000290: 960f 223e f489 9b3d e53d ae3a cb50 a23d
000002a0: 7ce3 703d 2a34 8c3c 7867 633d 3b67 0e3d
000002b0: 1332 27be a2ed 1abd 0b84 adbd 249f 98bd
000002c0: fb3f 7abd 5284 51be a9eb 02bd babf a6bd
000002d0: 939f b7bd b727 8bbd 30a5 353d dda2 a9bd
000002e0: 92b6 bfbd 2f5f 26bd c1c0 49bc 4723 d6bc
000002f0: 1f0f 7dbd 04f5 50bd dada cbbd 99ee 69ba
00000300: 99a1 fdbd 6a8c 08be 948b 9e3c fe36 d7bd
00000310: 9ba6 85bc 6f85 9bbc 5c6e 56bc a173 833c
00000320: 04b9 d3bd 59c6 16be 4895 d4bb ffa3 d3bd
00000330: f31b c33c 8266 36bd 6178 3bbd 94d8 d83b
00000340: 57f3 463d 8931 5b3c 5186 17bc d624 b93d
00000350: 2c6b ca3d 456b ad3d 303e a73d d0b0 aebd
00000360: 6063 9f3d d16c 193e 14a2 0c3e e83b 04bb
00000370: 7286 083d 0046 ba3d 9173 6a3d 0362 403e
00000380: a7ba 523d 3ca3 e4bd 2b6b ca3a 367c a1bc
00000390: 922c 193d 91db 0cbd fbc0 923d 2c53 9bbd
000003a0: 69b2 cbbd 9ee2 82bd 709b 8abd 6bff 1dbc
000003b0: ee17 7d3b 60a0 f5bc f6f8 39be dc9e d3bc
000003c0: 1478 1cbe cbd5 76bd cf46 9ebb a003 f23d
000003d0: ca9e 9e3d c062 933d a9f7 083e dbe4 1c3d
000003e0: a368 f23d a7d8 853d c847 333e c1a3 2b3e
000003f0: b8b1 67be 9825 18be 3a78 04be e5be 3a3d

conv_v_1.bias f4 [16]
-0.10366389 0.06780996 0.057489973 0.108947024 -0.021563793 -0.04046399 -0.06869859 -0.02826746
0.032965317 0.053289797 0.06458019 0.0602302 -0.10056933 0.04628745 0.0485581 0.036538873
00000000: bc4d d4bd f3df 8a3d 9b7a 6b3d 9e1f df3d
00000010: 8da6 b0bc 92bd 25bd d9b1 8cbd 2991 e7bc
00000020: a406 073d 6746 5a3d 9e42 843d f1b3 763d
00000030: 4bf7 cdbd e997 3d3d dce4 463d c9a9 153d
