league/checkpoints/mfos_seeds/new_self_3x3_42/450_0.pth (torch, 300942 bytes, 105 tensors)

conv_a_0.weight f4 [16, 7, 3, 3]
00000000: 633e da3d 2fde 2b3e 1063 84be 114e 773e
00000010: f108 fabd c284 943d 57a8 8dbe f9d8 213d
00000020: 63ec dc3d 4e36 ac3c 7f11 863d cc10 203b
00000030: 6437 be3c 02d0 73bc 09a0 593d 3a67 7ebc
00000040: eed3 5a3d d0ad 333d 6e90 5fbe 7e02 dd3d
00000050: bbe0 b2bd cb7a 623e 4c91 12be d4a5 a8bd
00000060: 5c34 72be 8689 7dbe b51b c93d bd39 70be
00000070: 216d 963d 285b b0bd c24f 4e3e 8a38 f9bd
00000080: 7c32 1cbc 2ff4 bd3c ab77 49be 28ec dd3d
00000090: 609a ac3b 770c b33d fbf6 1bba 3699 5dbd
000000a0: 239b 9f3c cdca 46bd e854 1e3d a2f1 c83d
000000b0: a774 6f3d 5632 10be b727 55bc ca6c 81bd
000000c0: 483c b2bc f76d 26be 8e81 57be 21a4 09be
000000d0: 54c0 3abe af81 903c fa1b 0abd 8cfc 91bc
000000e0: 3515 f7bc badc 93bd 513b ea3c c859 23be
000000f0: 5941 7ebd e6bd 1fbe f23e ffbc 0435 a1bd
00000100: f4ce 313e e3d1 20bd 11d6 253e 93e4 3abd
00000110: c8e8 6dbd ed34 bebd d7b2 0a3e d4e6 fe3d
00000120: 37ef 173e 4dbc 66bd b818 afbd a77d 14be
00000130: f454 abbd 1707 2c3e 70e6 d23d 4683 053e
00000140: 393f ffbb 2391 bbbd 2782 8e3d fc87 283d
00000150: 4430 653e 4081 643d 4ecf 7d3e 6746 0abe
00000160: d8ec 39bd cdf5 103e 5ea5 dfbd a432 423d
00000170: 4d0f ea39 1b7d 2c3d f686 26be fb7b a4bd
00000180: 7a0b 013e a0ec b5bd ce02 993c bd11 3bbe
00000190: 721e 08be c514 f0bc 8f88 9ebd afe2 1bbe
000001a0: c4d8 6cbd fa5c 16be 00b1 2bbe 9c47 05be
000001b0: c725 fbbd a59d bdbd 8099 e83d ad4b 3b3c
000001c0: 8dc2 d83c 07fd 04be 0cc9 c2bd f869 5ebd
000001d0: 1367 f03b fe71 6ebd 7fe5 d6ba 599c babc
000001e0: c810 593d 0de6 bc3b 2ce0 333d a30d 06bd
000001f0: 9793 0abd b8da aabc e81a 26bd 3eb4 8cbd
00000200: 6250 31be d07e 543d d45c 353e 0307 773d
00000210: 31d6 60be 6994 213e dd43 4ebe 6b58 f7bc
00000220: a9f0 f13a 5fdf a83c 7d43 a2bd cce9 10bd
00000230: c576 85bd 26a2 9dbd baaf f1bb 2bbe 2dbe
00000240: 13ce bc3d 13cf 17be b949 8cbd 6e41 4c3e
00000250: 3c85 f73c a8f6 303e 74a8 5cbd df24 3bbe
00000260: 0997 8abd e68e 3abd 63b4 d43d caa4 65bd
00000270: 39e4 313e dd2d 48bd 8a92 033e feeb 91bd
00000280: dbae c9bd 7437 b0bc 0220 b63b ac31 f9bd
00000290: 0003 2d3d 7c12 f2bc 2504 8cbd 77d1 c73d
000002a0: badd 8e3c 5f91 a4bd b667 98bd 0a1f b1bd
000002b0: c5d3 25bc 9ebb e6bd b602 1cbe 5728 fdbd
000002c0: c5c7 32be f08e 11bd aeaf 8b3c 13db 4bbe
000002d0: 976e dfbc 2012 0c3c 72fe 09bd 81ac cfbd
000002e0: 681d 173c 6c7c 1e3c c16a 1abc 0e20 a1bd
000002f0: 201c b8bd 5ea3 863d f0f9 f83d 3f11 b4be
00000300: 5f8c c03e a7ba 8c3e 47fd b3be c349 383d
00000310: 9327 653c f95d bebe d4d7 0a3d 6151 923d
00000320: 3306 cf3c bffb 5b3d f837 cf3c 4203 1abd
00000330: b3bd 033d 889c cc3d 70db da3b 32bc cabe
00000340: 4d57 61be 5b08 a63e 1a2e 863b 8109 9fbd
00000350: 268a ad3e 7cc0 c8be 2e1d afbe 4622 a73e
00000360: ee8a 38be 3bae 81be 03ae 9a3e 27f0 3e3d
00000370: 1a0a 43bd 7deb a53e 8767 9cbe 1040 95be
00000380: bf58 46be 3406 563d e1cf 813d 09e3 623c
00000390: c896 f5bd 312a 20be 5a9e 09be 2277 7d3d
000003a0: fbcf e83c f173 973d e2b2 ba3d e1a9 693d
000003b0: 5c01 c43c 5cb3 90bd 2c8a a9bd 7dd0 bdbd
000003c0: 2727 9d3d 8d4e 16bd 82ba 4cb9 b5cf f3bd
000003d0: e455 8ebd 2a76 0abe fcf4 03be 29a6 9bbb
000003e0: 6200 acbd 2be3 ff3c 1418 b2bd 214c 0ebe
000003f0: bdf0 dbbb 4445 37bd 6100 cbbd 43c1 b3bd
0.106564306 0.16783975 -0.2585683 0.24150874 -0.12208737 0.07251884 -0.27667496 0.039513562
0.10787275 0.021021988 0.06546306 0.0024424074 0.023219772 -0.014881136 0.053131137 -0.015527541
0.05342477 0.043866932 -0.2183244 0.10791491 -0.0873427 0.22117154 -0.14313239 -0.08234754
-0.23652786 -0.24759492 0.09819738 -0.23459525 0.073450334 -0.08611137 0.20147613 -0.12168987
-0.009533521 0.023187725 -0.19674556 0.10836059 0.0052674264 0.08742612 -0.0005949584 -0.05410119
0.019483155 -0.04853325 0.03865519 0.09811713 0.058460858 -0.14081702 -0.013009957 -0.06319578
-0.02175726 -0.16252886 -0.21045515 -0.13441516 -0.1823743 0.017639963 -0.033718087 -0.017820619
-0.03016148 -0.072198346 0.028592737 -0.15952218 -0.06207404 -0.15599784 -0.031157944 -0.0787144
0.17364103 -0.039262664 0.16194941 -0.04562814 -0.058083326 -0.092874385 0.13544784 0.12446371
0.14837347 -0.05633192 -0.085496366 -0.14501058 -0.08365813 0.1679958 0.10297859 0.13038358
-0.007789519 -0.09158542 0.06958418 0.04114531 0.22381693 0.055787325 0.24786112 -0.13503419
-0.045391887 0.14156266 -0.10920213 0.047411576 0.00044643358 0.042111497 -0.16262421 -0.0803146
0.12602034 -0.08883023 0.018678095 -0.18268485 -0.13292864 -0.029306779 -0.0774089 -0.15223192
-0.05782391 -0.14683905 -0.16766739 -0.13015598 -0.12263065 -0.09258584 0.11357403 0.011431617
0.026459957 -0.12987147 -0.09511003 -0.05430028 0.007336506 -0.05821418 -0.00163953 -0.02277963
0.05299452 0.005764729 0.04391496 -0.03272785 -0.03383216 -0.020856246 -0.040553004 -0.06870316
-0.1731582 0.05187875 0.17711192 0.06030942 -0.21956708 0.1577927 -0.20143075 -0.030193528
0.0018458563 0.020614324 -0.079230286 -0.035379216 -0.06516794 -0.07696943 -0.0073756846 -0.16967075
0.09218993 -0.14825086 -0.06849999 0.19946834 0.030214898 0.17281592 -0.053871587 -0.18275784
-0.06767089 -0.045546435 0.103859685 -0.05606536 0.17372216 -0.048871864 0.12848869 -0.0712509
-0.09847804 -0.021510817 0.005558015 -0.12167677 0.04223919 -0.02954983 -0.06836728 0.09756749
0.017439712 -0.0803554 -0.07441656 -0.08648498 -0.010121291 -0.11266254 -0.15235409 -0.1236121
-0.17459019 -0.035536706 0.017051544 -0.19907789 -0.027274413 0.008549243 -0.033689924 -0.101403244
0.00922332 0.009673219 -0.009424866 -0.07867442 -0.089897394 0.065741286 0.12157047 -0.35169408
0.37607095 0.27486154 -0.35154173 0.04499222 0.013986486 -0.3718107 0.033897236 0.07144428
0.02527151 0.05370688 0.025295243 -0.037600763 0.032163333 0.099907935 0.006678991 -0.39596707
-0.22005959 0.3242825 0.004094851 -0.077654846 0.3389446 -0.39209354 -0.3420195 0.32643336
-0.18021747 -0.2532824 0.30210885 0.046615746 -0.047617055 0.32406226 -0.30547735 -0.29150438
-0.19369791 0.05225201 0.06338478 0.013848075 -0.1199165 -0.15641095 -0.13439313 0.061881192
0.028419485 0.07395161 0.091161504 0.057046775 0.02392643 -0.0706546 -0.08278307 -0.092682816
0.07673483 -0.036696006 -0.00019524436 -0.11904851 -0.06949976 -0.13521639 -0.12886423 -0.0047500324
-0.083985105 0.031236252 -0.08695999 -0.13896228 -0.006712048 -0.04474379 -0.09912182 -0.08777096

conv_a_0.bias f4 [16]
00000000: 2621 7fbd 8827 b23c 4058 79bb 72dd 3bbd
00000010: c7d3 98bc a3d2 1d3b 82ad 51bc ed87 4e3c
00000020: 607f 9ebd 602a 273e 18a2 3d3d a374 453e
00000030: f9c2 c6bd 89d3 a8bc e3b7 49bd 18a9 6c3d
-0.062287472 0.021747366 -0.0038046986 -0.045865484 -0.01865567 0.0024081848 -0.012797715 0.012605649
-0.077391386 0.16324759 0.046297163 0.19282775 -0.09705157 -0.02060868 -0.049247634 0.057778448

conv_a_1.weight f4 [16, 16, 3, 3]
00000000: b62e d93d 38d2 aa3d aab7 083e e9fe 3f3d
00000010: 803e c23d 68fe 5a3d cdd2 093e 14eb 7e3d
00000020: 79d2 4a3d daed abbd 004f 603c 7e40 ab3d
00000030: dfd7 413d 9a9f 39bd fae1 7cbc cacc 78bc
00000040: c58e 72bd a881 873d 8450 b53d cb3b d23d
00000050: 51a6 8e3d 0a05 613d acdd ba3d 052a 113e
00000060: b938 e23d 3758 c03d 70dd 1f3e d4a7 5e3e
00000070: fd07 3d3e 2c82 493e 0cec b13e 979a 693e
00000080: 4edb 5d3e 3c27 553e f26d 6f3e 9cf4 253e
00000090: 6d84 c3bb 75e6 a53d 5d0e de3d 9f3a b83d
000000a0: 78b1 f4bc 3f68 bd3d 5be1 eabc 17d0 ba3d
000000b0: c133 983d 0550 eb3d cf5d d93d c30a b33d
000000c0: 204e 523d 2199 d03d 73d4 d83b 2bf3 b33d
000000d0: 8fe6 ba3c b3e5 683d 4e4a 7a3c 0a7a 533d
000000e0: 363f 513d 5a53 6a3d dbb5 313d b632 0c3c
000000f0: aa05 d33d 8ce9 0a3e 8b21 113e 1abc b93d
00000100: d61f 2dbc 9ed1 24bd fe56 833d 781e 9d3d
00000110: 81ee 09bd 55e8 9c3d 2fcc e13d d3f1 353d
00000120: 16cc e23d d1ed 723e 7d67 543e f5e3 533e
00000130: e8a9 0e3e 7a28 6a3e 1fc7 3c3e d415 8a3e
00000140: ba01 023e 3364 443d 7492 ab3c 4792 4b3d
00000150: 6614 1cbc f710 473d 3840 ecbb 11a9 1ebd
00000160: de94 efbc 24ec 953d 3488 a33c ea1e f93d
00000170: 714b 8e3d cf65 f43d d0d9 db3d 9480 cb3d
00000180: 5ed9 123d 62d6 2dbc 9018 af3d b09a 4ebd
00000190: 51ac ac3d 97b6 8dbd 4cf2 2d3d ec4e a33d
000001a0: 56c3 613d 400b 013d 3d76 90bd 4cdb 9e3d
000001b0: dd9f 8a3d b687 363d df49 3c3e 193c b33d
000001c0: 2b3b b83d 045f 383e a92e d03c c5dd 123d
000001d0: f563 fe3d 8976 603e e870 663e 073c 043e
000001e0: e30b 293e 1676 413e 228f 493e eadd 113e
000001f0: 3c68 8c3e 4197 613e eaeb e83d 4420 9e3e
00000200: 6234 723e d85e 823e 641b 233e b4b9 823e
00000210: e47d a83e 6002 843e f69a 1e3e 1e49 713d
00000220: 1fb9 183c 5b7b 1d3d fff1 823d b19a 893d
00000230: 0b7f 3cbd ab54 ac3d 5ef8 58bd cf4a 353b
00000240: 906f 313d 7f99 b63d 11d0 e23d c2ae c73d
00000250: 52ca dd3d 782f fd3d d3ea 5d3e 81db 353e
00000260: 9749 2e3e 4a90 823d 0597 e23d e58a 933c
00000270: 052e dd3c 71a4 fa3c ab54 42bd 80d0 87bd
00000280: 7eed 9f3c 0cf1 9cbb 1230 fb3d 16b4 ad3d
00000290: 1efd 0c3e f28e 213e a9bc 9f3d a469 1d3e
000002a0: 175d 2c3e 8eef 7f3d 198a 123d 0c93 6d3e
000002b0: 4ee4 7a3e 7622 853e 12bf 893e 2278 723e
000002c0: 1fef 4e3e 8a51 703e cc55 7b3e 7c56 ac3e
000002d0: 29e6 203d 9d12 aa3c e1b1 183e fe00 413d
000002e0: 85b0 093e fdc1 113e efc8 d23d 8cc0 83bb
000002f0: 379e c83d 3023 033e e06b 4f3d 1f88 0b3e
00000300: a24a e33d cb2d 593d 5ff4 b93d db20 853d
00000310: a73d 023d 4b50 fa3d 0723 8f3d 1920 13bc
00000320: 482e d73d 2ec4 21bc 6a5d 133e 44d5 063e
00000330: 3fb5 e43d f17c e03c 81c9 d33d 87aa 403d
00000340: a094 543d 94d8 833d eb98 8b3d d244 00bd
00000350: 74ee 43bc ad2a 923c 0b5a a43c a846 853d
00000360: 71b0 063e e59d 3f3e 5605 713e e2fe 163e
00000370: 508b 753e 5dfc 363e 7e22 083e 883d 3d3e
00000380: 54e7 333e cc92 1c3d 9c62 3c3d d58d 81bc
00000390: ef9e 863c bc04 873d 5ae1 2d3d 9b25 e53d
000003a0: cd62 4f3c d404 da3d 7a20 d33d 069b b43c
000003b0: 9fea d63d fce7 313e 667a 113d 752b 2f3d
000003c0: 8404 103e 33f6 163e 3069 e13c 3e20 9d3d
000003d0: 538f b53c 849d 7abd 1f11 b53c 45e6 3c3d
000003e0: 537a e43a ddc7 593d ea8f 3dbd 032f b53d
000003f0: 376a 483e 407f 4e3e fbc7 d33d a95e 373e
0.106046125 0.08340877 0.13351312 0.04687396 0.09484577 0.053465277 0.1345932 0.062235907
0.04951713 -0.08394976 0.01369071 0.0836191 0.04732501 -0.045318224 -0.015434736 -0.015185544
-0.059218187 0.06616527 0.08853248 0.10265311 0.06965316 0.054936446 0.09124312 0.14176185
0.11045975 0.09391826 0.15611815 0.21743709 0.18460079 0.19678563 0.34750402 0.22812878
0.2166569 0.20815748 0.23381785 0.16206592 -0.005966714 0.08100597 0.10842583 0.08995556
-0.02986978 0.09248399 -0.028671911 0.09121721 0.07431746 0.11489872 0.10613596 0.08742287
0.051344037 0.10185457 0.006617123 0.08786615 0.022815017 0.056859683 0.015276505 0.051630057
0.051085673 0.057208396 0.04338632 0.008557012 0.10303815 0.13565654 0.14172952 0.09069081
-0.010566672 -0.04023897 0.06413077 0.07671827 -0.03367472 0.07661501 0.11025273 0.044420075
0.110740826 0.23723532 0.20742603 0.20692427 0.13932002 0.22867003 0.18435334 0.2696978
0.12695971 0.04794712 0.020943858 0.049700048 -0.009526348 0.048600163 -0.007209804 -0.038735453
-0.02924579 0.07320431 0.019962408 0.121640995 0.06947983 0.11933481 0.10734904 0.09936634
0.03585183 -0.010610195 0.08549607 -0.05044049 0.08431304 -0.06919592 0.0424674 0.079740375
0.055117927 0.03150487 -0.07053802 0.07756671 0.06768773 0.044563018 0.18387555 0.08751697
0.089956604 0.18004996 0.025412874 0.035856027 0.12421409 0.21920218 0.22504008 0.12913524
0.1650844 0.18892702 0.19683507 0.1424481 0.27423275 0.22030355 0.11373122 0.30883992
0.23652795 0.25462985 0.15928417 0.25532305 0.32908547 0.25783062 0.154888 0.05890762
0.00932148 0.03844772 0.06393813 0.06718958 -0.046019595 0.08414587 -0.052971236 0.0027662998
0.043319285 0.08915996 0.11074842 0.09750129 0.10829605 0.123625696 0.2167161 0.17759515
0.1702026 0.06375177 0.11063961 0.018010566 0.026999483 0.03059599 -0.047444027 -0.06631565
0.019522425 -0.004789477 0.12265028 0.08481614 0.13768432 0.15777186 0.07799656 0.1537233
0.16832386 0.062484317 0.03577623 0.23200625 0.24501154 0.26002854 0.26903588 0.2367864
0.20208405 0.23468605 0.24544448 0.33659732 0.039281998 0.020760829 0.14911605 0.047120087
0.13446243 0.14234157 0.10292231 -0.004020756 0.09795802 0.12806392 0.050639987 0.13626145
0.110982195 0.053022187 0.09079813 0.06500407 0.031797078 0.12222346 0.06989103 -0.008979821
0.10506874 -0.009873433 0.14391103 0.13167292 0.111673824 0.027403327 0.10341168 0.047037628
0.051899552 0.064377934 0.06816276 -0.031315632 -0.011958707 0.017842615 0.020062467 0.06507617
0.13153245 0.18712576 0.23537192 0.14745668 0.23978925 0.17869706 0.13294408 0.18480504
0.17568713 0.038225934 0.04599248 -0.015814701 0.016433207 0.065927 0.04245124 0.11188813
0.012657833 0.10645452 0.10308929 0.022046577 0.10493969 0.17373651 0.03551712 0.042766053
0.14064223 0.14742355 0.027515978 0.07672165 0.022163069 -0.061185375 0.02210289 0.04611804
0.0017431475 0.05316912 -0.046279825 0.088468574 0.19571768 0.2016573 0.103408776 0.17907204

conv_a_1.bias f4 [16]
00000000: de80 fb3c d68e 82bd 46fe 5a3c 773b 74bd
00000010: 7a2a b73d 563c 73bd e3b6 21bd 142f 4c3d
00000020: 93b1 23bc 8d74 ccbc e3a0 43bd cafb dc3d
00000030: 6756 21bd ec33 4abc 5af2 9cbc 098d 86bd
0.030701097 -0.063749 0.013366288 -0.059627023 0.08943649 -0.059383713 -0.039481055 0.049849585
-0.009991067 -0.02495792 -0.047760855 0.107902125 -0.03938904 -0.012341481 -0.019158531 -0.06569869

linear_a_0.weight f4 [16, 144]
00000000: 4a83 74bd 3fe1 ae3c 615b 40bd 3f49 88bd
00000010: af45 48bd c569 69bd e2f0 953d fe20 45ba
00000020: 2aee b93c ed1f 933b e3ea a0bd 0f45 123d
00000030: ddd2 e5bc cb2a 0abd 40a0 0a3d a2aa 79bd
00000040: f93f d7bb 0ae5 c1bd c16d 2b3d eb24 c43c
00000050: 32a1 a8bd 9f45 5c3d 3652 443c 9158 53bd
00000060: 7a86 873d e655 ab3c 4cb1 963c bfaa 10bd
00000070: 0ef8 4ebd 0ada 3ebd cbe7 ff3c a899 593c
00000080: 23ae 7abd a3ec 523d 4839 fe3c 074b 5ebd
00000090: fa42 8c3c eb7d 5bbd 206d 203d 53d2 a03d
000000a0: 3988 a6bd 369c 01bd fd7a 31bc f318 133d
000000b0: d8c4 c1bd cf70 6fbd 7f84 2cbc b8d7 05bc
000000c0: 9ae6 733b 29a6 aebb c225 c63c 3a41 a53b
000000d0: 041d d53b fc26 8bb9 acd9 f0bc 734e 413d
000000e0: 2c73 74bd f871 99bd 541b d63a 5c51 94bd
000000f0: 13a9 5d3b b8b9 373d bcc6 7e3c 60c0 50bd
00000100: 5f06 3c3c f014 88bd dc8d bebd 4913 a33d
00000110: bb69 4dbd d837 90bd 2ce8 10bd 9211 383b
00000120: 4971 a93c d2f7 1ebd 3986 9abb 9c6a c0bc
00000130: 4ed3 993d 7737 a43d e4a2 d73c 4b17 94bc
00000140: d594 7f3d a865 8cbd 379d 073d 4b16 16bd
00000150: 49e4 9e3d dbb4 77bd 83de 213d be40 9cbd
00000160: 06b8 6e3d 0597 993c 7517 913d 94fc aabd
00000170: ca9b 453d 6ca2 adbd 381b 26bd 798e e33c
00000180: 32dd 3dbc ca5c a3bd 833c c1bd cb2c a1bb
00000190: 2318 213c bf03 b73d c18a 7f3d 67cc 7a3c
000001a0: 3345 5ebd 6d54 80bd 14cf c63d 6743 42bd
000001b0: bf98 e2bb 1ffe 88bd bf85 54bd 8a00 7d3c
000001c0: 5b1b f9bc 0fac 0d3c 9132 d4ba 3871 023b
000001d0: 120a 94bc 2003 0d3b 6657 223d cc00 853d
000001e0: ef97 a03d 4e14 a5bd 9d91 9bbd a82b 0bbc
000001f0: 05e2 69bc bd0e 2c3d f0e4 5b3d 34b2 6c3c
00000200: de30 86bd 752c 3dbc 993e 3b3d dc4b e23c
00000210: 36ff 8ebd 95f9 40bb 891f c2bd fbcf dcbc
00000220: 5d06 7c3d 957b e8bc 46e2 723d ae8c 7fbd
00000230: affa b13d 9145 323d ba4d 803d f9d0 113d
00000240: e701 c3ba 590e 38bd a6ba 45bd c1d5 65bd
00000250: 2905 8b3d 06d4 f7bc 53f7 683a 0836 a6bd
00000260: f645 a13c d34f e3bc 9d21 75bd 725b 71ba
00000270: ef2a 94bd 3079 1abc 5c09 92bd e539 423d
00000280: 9566 85bd c28c 993b f72e 233d 0c70 91bd
00000290: e412 563d 7ec1 893d fab0 5dbd 678a ff3b
000002a0: 2d24 bd3c d8a1 7d3d 0a25 843d 772c 85bd
000002b0: 79d2 78bd 0638 90bd 1609 edbc c72e 82bc
000002c0: b597 b9bc 7b53 6b3d fa15 6cbd 3238 94bd
000002d0: c32b 8bbd 3bdf 67bd 2a65 7d3d 230c 393c
000002e0: 99d6 89bc fd28 0cbd 8d30 9abd 99e4 e9bc
000002f0: a477 293d aef0 793d 42d9 533d be48 dbba
00000300: 04ad 3dbd ecf4 61bd 0035 993d 7ee4 a2bd
00000310: c4d6 863c 10a3 64bc ff0f a63d 5add 613d
00000320: 574c debc 80ed 9dbd a248 333c 0fa4 5ebd
00000330: ca8a 71bb 65f2 763c f1ee 293d 2083 dabc
00000340: d247 78bd 269f 97bd ce40 a8bd 3b78 1d3c
00000350: e628 3fbd bdf5 96bb c750 1bbd 978d 75bd
00000360: f9ee 563d 5a2a f33c 4825 253d ec05 823d
00000370: 97a7 98bd c98c 4cbd 6023 9dbd 5d91 683d
00000380: 9a2f 183d e602 623d 7160 40bd 8c37 46bd
00000390: bd1b aa3d 59ff 87bd 5ad4 6abd 4fdd fb3c
000003a0: 765e 8bbd f720 a3bc 3933 1c3d 10bc 973d
000003b0: 5b87 49bb bc39 97bd 80e1 573d 60f5 b73d
000003c0: 4b30 87bd cc07 813a 755e 54bd e3c0 40bd
000003d0: 6ca2 d13c 62cd d83c e54f cf3c 5d11 b1bd
000003e0: f377 edbc df90 9a3c 9314 6fbc 51f8 ffbc
000003f0: 363b 26bd 30d5 a33d 37b5 85bd a4c8 8ebd
-0.05969552 0.02134764 -0.046962146 -0.066545956 -0.04889458 -0.056985635 0.073213354 -0.000751987
0.022696573 0.00448989 -0.07857301 0.03571039 -0.028054649 -0.033732217 0.033844233 -0.060953744
-0.0065689054 -0.09467514 0.041852716 0.023943385 -0.082338706 0.053777333 0.011982491 -0.051598135
0.06617446 0.020914983 0.018395089 -0.035319086 -0.050529532 -0.046594657 0.031238457 0.013281263
-0.061201226 0.051495206 0.031033173 -0.05427077 0.01712178 -0.05358688 0.03916657 0.07852616
-0.08131451 -0.031643115 -0.010832545 0.035912465 -0.09461373 -0.058457192 -0.010529636 -0.008169107
0.0037216307 -0.0053298664 0.024187926 0.005043176 0.006503703 -0.00026541192 -0.029400669 0.047193956
-0.05968015 -0.07492441 0.0016335049 -0.072420806 0.00338227 0.04485485 0.015550312 -0.050964713
0.011476128 -0.066446185 -0.09304401 0.07962663 -0.05014966 -0.07041901 -0.035377666 0.0028086645
0.020683901 -0.03881056 -0.0047157076 -0.023488335 0.07511006 0.080183916 0.02632279 -0.018077513
0.062397797 -0.06855327 0.033108916 -0.036642354 0.07758386 -0.06047521 0.039518844 -0.07629536
0.058280967 0.01874877 0.07084552 -0.08348957 0.048244275 -0.08478245 -0.0405533 0.027777897
-0.011588382 -0.079766825 -0.0943537 -0.00491867 0.009832415 0.089362614 0.062388185 0.015307522
-0.054265212 -0.06266103 0.09707466 -0.04742756 -0.0069151814 -0.06689095 -0.051885363 0.015442023
-0.030408552 0.008646979 -0.0016189386 0.001990391 -0.018071208 0.0021516755 0.03963413 0.064942926
0.07841479 -0.080605134 -0.07596133 -0.008494295 -0.014275079 0.042006243 0.05368513 0.014446784
-0.065522894 -0.011546244 0.045713995 0.027624063 -0.069822714 -0.0029445637 -0.09478671 -0.026954642
0.061529506 -0.028379241 0.059297822 -0.062390022 0.08690392 0.043523375 0.06264825 0.035599682
-0.0014877886 -0.044935558 -0.048273705 -0.056112055 0.067880936 -0.030252468 0.0008886952 -0.081157744
0.01968668 -0.027748024 -0.05984651 -0.0009207047 -0.072347514 -0.009428307 -0.071306914 0.047418494
-0.065137066 0.004685969 0.03983971 -0.07101449 0.05226411 0.06726359 -0.054123856 0.0077984813
0.023088539 0.061921924 0.06452377 -0.065026216 -0.060747597 -0.070419356 -0.028934997 -0.015891446
-0.022655347 0.05745266 -0.057638146 -0.07237281 -0.06795456 -0.056609374 0.061864056 0.0112943975
-0.016825961 -0.034218777 -0.075287916 -0.028551387 0.041373864 0.061020546 0.051720865 -0.0016730053
-0.04630758 -0.055165216 0.07480812 -0.07953738 0.01645983 -0.013954893 0.0810852 0.055142738
-0.027136011 -0.07711315 0.01094261 -0.054355677 -0.0036856406 0.01507244 0.041487638 -0.026673853
-0.06061537 -0.07403402 -0.082154855 0.009611185 -0.046669863 -0.004606931 -0.037918832 -0.059949484
0.052473996 0.02968328 0.040318757 0.06348786 -0.0745384 -0.04993895 -0.07672763 0.056779254
0.03715477 0.055178545 -0.046966974 -0.048392817 0.08306072 -0.066405006 -0.05733142 0.030745177
-0.06805126 -0.01991318 0.038134787 0.07408917 -0.0030750844 -0.07384059 0.052705288 0.089823484
-0.06601008 0.0009844243 -0.051847894 -0.04705895 0.025590144 0.026465122 0.025306651 -0.0864589
-0.02898786 0.018867908 -0.014592308 -0.031246336 -0.04058381 0.07999647 -0.065287046 -0.06971863

linear_a_0.bias f4 [16]
00000000: 3799 fbbc acb4 7c3b 8e33 a4bd a31e b03b
00000010: aa1b be3d 372a dcbc d186 44bb 2dd9 fa3d
00000020: a0fe dc3c aa36 923d af00 e0bc cf3d 10bc
00000030: 3e08 9bbd 8153 423d 4b00 1c3c 7a6b 47bd
-0.030712707 0.0038559837 -0.08017646 0.005374746 0.0928262 -0.026875598 -0.0029987583 0.12248454
0.026976883 0.071393326 -0.027344076 -0.008803799 -0.075699314 0.047442917 0.009521554 -0.048686482

GRU_a.weight_ih_l0 f4 [48, 16]
00000000: 1721 8abd 69c6 033e df9f 853e dcfc ddbc
00000010: 7526 3c3e 7ece 5739 e5a8 98bd 7936 9fbb
00000020: f583 12be 80a4 de3d 8f78 9e3c e5dc c8bd
00000030: 6803 483e bdfe 35bd 2f84 19be 7b9e 003e
00000040: 2ab1 0fbd 5213 10be 27a5 52be ac52 b2bd
00000050: a16e 69be b13d 193e e09b 1abc 308f 253e
00000060: dc0d c43d fa92 0739 dff5 dabc 66dc 2fbe
00000070: 1379 833c 1aad 8bbe 9253 febd 6fc0 373e
00000080: c960 14bd 07e0 533e 52a7 1b3e 7a9a 78bd
00000090: 33e7 44be e6de 613e a9f3 983c 5ca6 6c3e
000000a0: 4f8b 7bbe 5936 753d a4e4 3abe a8d1 8dbd
000000b0: 2321 56be 7a0c 6dbe 8264 b93c 7399 513e
000000c0: 0029 9e3c b08e 82bc ce23 803e ebf2 123d
000000d0: 9a34 ebbd 52d5 313e d7db 333e be3c 613e
000000e0: 5a2d 363e d7cc 763e a596 b1bd b514 023d
000000f0: 9b34 92bd 506f a7bc 34e7 553e ce9d 42be
00000100: 07c9 ed3d a067 19be 4752 9dbc 1f2b 89bd
00000110: 3f64 13be 34e5 b9bb e668 38be 31de 6e3e
00000120: 3264 08be 1b1e ee3d 9ddb 78bd c289 83be
00000130: 473b 3f3e adaf c8bd 2c71 c2bd 541e 8fbc
00000140: 694d 8fbc 842d 8e3d 2f17 b93d 420f a63d
00000150: 4afa ca3d 6577 803e c785 3d3e 53df 103d
00000160: 8d93 cabd 8f80 ca3d 32dd a6bd a17c e13d
00000170: b3ac f2bd 7b09 f13d d0e5 723d 98b5 853e
00000180: 462d 223e 76b1 74be 157b 7b3e 6ae1 c7bb
00000190: d896 82be eaff 443e 9738 35be 40cc 85bd
000001a0: dfb3 243d 2523 a63d f3a8 303e c754 edbd
000001b0: a6a9 083e f4c8 473e d713 303e ec1c 55bd
000001c0: a112 0d3d 296e 863d 42e1 383e 2c64 56be
000001d0: 29a5 7fbe 2257 8cbe cb6f e93c fc41 43be
000001e0: 887f 51bd 606d 2dbe fb5c d63b 6332 3ebe
000001f0: f524 033e 11ea 99be 3752 1abe 06bf 61bb
00000200: e153 87be d3d8 5d3d a249 1fbe ca66 38be
00000210: fd8c 0c3e 6909 f2bd 1c2b 26bc 2442 e8bd
00000220: d94b e73d 3e26 373e f2f7 553e 4f85 0ebe
00000230: 5ee0 83be dc4b 76be c353 9b3d 2dbb c43c
00000240: 3b58 033e 9b22 cb3d 1137 813e 9633 35be
00000250: 0762 34be c944 acbd 10ab 843e 9b5c 33be
00000260: f4a4 3a3e bbc5 3f3d f12d 2a3e 720f 6f3e
00000270: 8839 743e 347e 843e aca5 51bd 83dc a4bd
00000280: d555 e73d c13d 5e3e c00f adbc b9a6 92bd
00000290: 6182 1ebd 16e6 fdbd 1ee3 113e b631 60be
000002a0: 2b7a 743e 1579 44bc e0cf 26be 8e86 2fbd
000002b0: 7097 28be 88af 3bbe bcf5 0a3c 1638 50bd
000002c0: 4574 bcbd ae5e 2abd a44f 473d d14c 383e
000002d0: 7c8f 7abe e3f4 a43d 28d5 01bd b79e 8abe
000002e0: 71ef 803e c17e 83bd a6d2 813e 1fb7 453e
000002f0: 6628 d93c ea54 7e3e feb6 31be 70aa 423d
00000300: 6851 64be 0da0 18be b2a8 ca3c 0ce3 003e
00000310: 6422 32be 23e4 13be 997b 28be f2fb edbc
00000320: 46e6 67be 49c1 76be 56df b0bd 7bba 753e
00000330: 3087 483c 2a95 25be 547e 1e3e 3f67 f73d
00000340: 901d 2b3e 270d 88bb 4d98 4ebd 406f 083e
00000350: 2c40 743d 21a9 123e a471 2e3e 78d4 2bbe
00000360: 5b49 653e 2bcd b23c a48f 723e 9796 623e
00000370: ab13 4f3e 6485 253e 97c4 523e fed9 fdbd
00000380: e082 11be fd3a 91bd 69c9 02be 9856 3f3e
00000390: b55b f73a dd5c 7fbd 8e70 04be b26a 42be
000003a0: 9be9 013c 0179 663e d349 353e a576 473e
000003b0: 6c61 393e de94 ca3d 611d da3a 9923 3fbe
000003c0: e60f 453e 530d 35be da93 35be 127e 973d
000003d0: db19 243e dc0e 31be b546 133e 194a 81be
000003e0: aad8 d33d 0b0c b13d 9882 e23c d6d5 08be
000003f0: 73e3 27be 782e 3e3e 5d1b 243d 09b9 e0bd
-0.06744593 0.12868656 0.26098534 -0.027098112 0.18374045 0.00020580922 -0.07454089 -0.0048587886
-0.1430815 0.1087122 0.019344596 -0.09807757 0.1953255 -0.04443239 -0.1499183 0.12560456
-0.035081066 -0.1406987 -0.20570813 -0.08707175 -0.22796108 0.1496494 -0.009436578 0.16167903
0.09572956 0.00012929356 -0.026728569 -0.17173919 0.016048944 -0.27280504 -0.124182835 0.17944501
-0.036225114 0.20690928 0.15200546 -0.060694195 -0.1922882 0.22057685 0.018670874 0.23110336
-0.24564861 0.059866283 -0.18251282 -0.069247544 -0.20911078 -0.2314929 0.022630934 0.20468692
0.01930666 -0.01593718 0.25027317 0.035876196 -0.11484642 0.17366531 0.17564331 0.21995828
0.17790738 0.24101578 -0.08671311 0.03175803 -0.0713894 -0.02043882 0.20888978 -0.1900551
0.116106085 -0.14980936 -0.019204272 -0.06697678 -0.1439371 -0.005673075 -0.18008766 0.23326947
-0.13319471 0.11626836 -0.060756315 -0.25691038 0.18674956 -0.097991325 -0.09494242 -0.017470516
-0.017492967 0.06942275 0.09037625 0.08108379 0.0991102 0.2509109 0.18508063 0.03536923
-0.09891424 0.09887802 -0.081476584 0.11010099 -0.11849346 0.117693864 0.059301198 0.26115108
0.15837583 -0.23895821 0.24558671 -0.0060998695 -0.2550571 0.19238248 -0.17697369 -0.06533098
0.0402106 0.08112172 0.17251949 -0.115884356 0.13345966 0.19510251 0.17195068 -0.052029535
0.034441594 0.0656398 0.18054679 -0.2093665 -0.24965347 -0.27410227 0.02849569 -0.1906814
-0.051147014 -0.16936255 0.006541846 -0.18573909 0.12807067 -0.3006139 -0.15070425 -0.0034446134
-0.26431182 0.054161858 -0.15555432 -0.18007961 0.13725658 -0.11818201 -0.010142114 -0.1134074
0.11293764 0.17885682 0.20895365 -0.1391804 -0.25757116 -0.24052376 0.07584336 0.024015034
0.12826626 0.0991871 0.25237325 -0.1769546 -0.1761552 -0.08411557 0.2591176 -0.17515795
0.18226987 0.04681943 0.16619088 0.23345736 0.23850071 0.25877535 -0.051183388 -0.08049872
0.11295668 0.21703245 -0.021125674 -0.07160706 -0.038698558 -0.12397401 0.14246795 -0.21893963
0.23874728 -0.011991759 -0.16290236 -0.04285293 -0.16464019 -0.18328679 0.008481439 -0.050834738
-0.09201864 -0.0415942 0.048659936 0.17998053 -0.24468797 0.08054521 -0.031697422 -0.27074215
0.2518268 -0.06420661 0.25356025 0.19308136 0.026508521 0.2483708 -0.17354962 0.047525823
-0.22296679 -0.14904805 0.024738643 0.12586612 -0.17395931 -0.14442496 -0.16453399 -0.029050801
-0.22646436 -0.2409717 -0.08636348 0.23996918 0.012239262 -0.16170183 0.15477878 0.120802395
0.16710496 -0.0041519585 -0.050438214 0.13323689 0.05963151 0.1432233 0.17035538 -0.16780269
0.22391264 0.021826347 0.23687607 0.22127758 0.20222346 0.16164166 0.20582806 -0.12395094
-0.14210081 -0.07091329 -0.12772144 0.18685377 0.0018871935 -0.06234442 -0.12933561 -0.18986014
0.007929231 0.22507097 0.17703943 0.19478853 0.1810357 0.098916754 0.0016640836 -0.18665923
0.19244346 -0.17680864 -0.17732182 0.07397093 0.16025488 -0.17290825 0.14382441 -0.25251845
0.1034406 0.08644875 0.027650163 -0.13362822 -0.16395359 0.18572414 0.04006516 -0.10972793

GRU_a.weight_hh_l0 f4 [48, 16]
00000000: 1b3d b0bd 81c2 fe3a b92c 28bd b514 6a3e
00000010: 6af3 843e ea4e 26be cb01 7d3c 77ce 54be
00000020: e08a e53d 43db fc3d fe6c 61bc 099c ba3c
00000030: c028 7abd 4fc0 06be 8d4f 773e 8d95 95be
00000040: e76c f9bc 3e8c bd3d 9a82 5fbe a0b0 b03d
00000050: 4737 083e becf 77be 0050 cf3d f95a abbc
00000060: c3eb 953e 5107 01be dcd7 d73d 5f03 84bd
00000070: 8473 3b3e bdb9 7abd 3d4d 603c edc3 583d
00000080: 56b5 2b3e 27e6 3d3e dfb1 dd3d b28e bcbc
00000090: 8040 3cbe e82d 5b3c 4a38 7d3e 35f6 563e
000000a0: cda4 51be 95b0 f23d b9f1 ba3d ade6 4fbd
000000b0: 5df5 0d3e c94e f6bd 8843 093d 97d0 59be
000000c0: cb37 f1bc dd27 543e b8df 173e 11ec 4fbe
000000d0: 8614 00bd c31a 203e 579a d7bd f918 e2bc
000000e0: d657 033e bee9 373e 50b7 713e 2443 2ebe
000000f0: 0031 83be ee94 333e f561 f8ba 92bf 5b3e
00000100: f9a3 2d3e 6494 33be d743 3f3e 3527 e03d
00000110: 03c3 9c3b 67ce 4b3e 7070 223c f03b 88bd
00000120: a4f9 67be d911 233e 6a84 68be 9850 363e
00000130: 5b69 bcbd a4ab 73bd 4a31 923c 9d46 6c3e
00000140: dbd7 c2ba 5126 a8be 97ea 5cbd 61d5 95be
00000150: e953 84be e14f fb3d bc4e 8e3d 1b52 e0bc
00000160: 7469 953d 5f59 cc3b 92b8 c83e 1213 5b3e
00000170: f6fe 82be 21da 983e 3cab 94bd b6ef 533e
00000180: 9c17 713e f92b 8bbd 7719 8e3d e472 34bd
00000190: b2c7 1bbc 608c 003c 1b95 143d b01f e03d
000001a0: 0369 083e 0d0f 573d 01fd 85bb 2cb0 6b3e
000001b0: ac24 2a3e 1338 313d 6961 853d 66e2 4cbe
000001c0: d9f6 31be 2b98 cbbb aa09 24be 695f fd3d
000001d0: 97ea 47be b565 4ebe 6c6f 0dbe 0407 333e
000001e0: e336 293e 4054 32be d8c6 15be 2d66 e03c
000001f0: fce7 9fbb 3aad 31be 8e5e d63d a6eb 74be
00000200: abce 7ebd 7dd4 0a3d 7b2e 943e fc2e cabd
00000210: 2d20 813e 3de2 063e b817 083e 3e3d ae3e
00000220: ea88 1ebe dafc 49bc 1077 8fbd 4343 dd3d
00000230: 19a3 28bd 4dbc e23d 99d7 3b3e 8255 193e
00000240: 594f 8b3e 879c 993e 9fd3 93be d66a 81be
00000250: 0f0f 8bbe ae93 753d a549 0c3e a9d0 d83b
00000260: b742 453e 6aed 633d 4dab 153d 3f3e c2bc
00000270: f348 803d adc4 10be e563 a3be 9c54 413e
00000280: 2fa4 a73e 4408 24be 29cd 573e b887 1abe
00000290: dc10 b4be 2fc4 20be 1d46 693e 1bef 5ebe
000002a0: bc5b 8d3e 782b 7fbe e89d 573d 4456 65bc
000002b0: 6cab 8fbe 516a 9d3e 508a 1dbe bcd3 b4bd
000002c0: 6126 cfbd 36f0 2b3e ca6a 503c afaf d63d
000002d0: 03b5 bfbc d1e3 193e bef1 b73c 3a07 5a3e
000002e0: 061a 8fbc b50d 13bc 0016 983e be7e 473c
000002f0: 3e02 6fbe 6b1f 6abd 6b0c 1bbe 312f 673b
00000300: 3e80 37bd e79f 473e 0e33 2abe 4b0e 41be
00000310: f995 f53d 934a 233e c97e 8dbd 725c ac3d
00000320: 5bcc 453e 72c5 2d3d a35d abbd 9255 f63d
00000330: e294 733e 6877 04bd 64f1 383e 9a2e 8fbb
00000340: 73f9 0abe c8b2 97bd 47fd 5cbe 1c83 3b3e
00000350: 09e8 83bd 2a59 19be 3ed4 e6bd 5238 fcbc
00000360: 95c2 6bbe d606 febd 46f0 013d 29c5 0ebd
00000370: 686e cf3d 555c e0bd 3e02 143e 7858 68be
00000380: deea 403e 7cf8 293e 29b0 1e3e 701b 45be
00000390: c7f8 313e fbdd 413d df12 87be 3f78 843e
000003a0: cbe2 0cbc 802f e43d cb5d 313e 2605 083e
000003b0: d933 683e 294b 79be 2762 903e c008 313d
000003c0: 0630 a0bc a92c 81be 1d48 2cbe 0041 7c3e
000003d0: 791d 4e3e f566 553e 8ac9 1ebd cf43 02be
000003e0: f09a 953c f232 3abe 654c ddbd d196 723d
000003f0: 78aa 5f3e a61b 50be f53b 2bbe 73a9 733c
-0.08605405 0.0019436629 -0.041058276 0.22859462 0.2596696 -0.16241041 0.015442322 -0.20781885
0.11208129 0.12346508 -0.013758896 0.022779481 -0.06107402 -0.13159297 0.2415144 -0.2921566
-0.030447436 0.09255265 -0.21827164 0.086274385 0.13302337 -0.24200341 0.10122681 -0.020917403
0.29281434 -0.12600447 0.10539219 -0.064459555 0.18305784 -0.06121229 0.01369029 0.052921224
0.16768393 0.18544827 0.10824942 -0.023017261 -0.1838398 0.013377644 0.24728504 0.20992358
-0.20473023 0.118500866 0.09128136 -0.0507571 0.1386313 -0.12026746 0.03351167 -0.21270977
-0.02944555 0.20718332 0.14831436 -0.20304896 -0.031269573 0.15635209 -0.10527485 -0.027599799
0.12826476 0.1796026 0.23605084 -0.170178 -0.25623322 0.17537281 -0.0018950092 0.21459797
0.16957082 -0.17537075 0.18678223 0.10944978 0.0047839894 0.19902955 0.0099145025 -0.06652057
-0.22653824 0.15924777 -0.22706762 0.17804182 -0.091997825 -0.05948986 0.017845768 0.23073812
-0.0014865355 -0.32841733 -0.05393466 -0.29264358 -0.25845268 0.12271095 0.06948611 -0.027382901
0.07295504 0.00623624 0.39203316 0.21393993 -0.25585145 0.2985392 -0.07259223 0.20696911
0.23544163 -0.067954965 0.06938451 -0.04405488 -0.00950806 0.007845968 0.03627501 0.10943544
0.13321309 0.052504588 -0.0040889983 0.23016423 0.16615552 0.043266367 0.0651272 -0.20008239
-0.17379321 -0.006213208 -0.16019312 0.12371714 -0.19523083 -0.20155986 -0.13812035 0.17483145
0.16524844 -0.17414951 -0.14626634 0.027392471 -0.0048799496 -0.17351237 0.104672536 -0.23918018
-0.062208813 0.03389405 0.28941712 -0.09872243 0.2521986 0.1317224 0.13290298 0.340311
-0.15481916 -0.012328351 -0.07005131 0.10803845 -0.041171167 0.11071072 0.18343963 0.14974025
0.27208975 0.30002233 -0.28872392 -0.25276822 -0.27159926 0.05995529 0.13699968 0.006616671
0.19263731 0.055646338 0.03654032 -0.023711322 0.06263914 -0.14137526 -0.3191215 0.18879932
0.3274245 -0.16018778 0.21074356 -0.15090835 -0.35169113 -0.15699838 0.22780652 -0.21770899
0.2760905 -0.24918926 0.052640826 -0.013997618 -0.28060472 0.30745175 -0.15384793 -0.088294476
-0.10114742 0.16790852 0.012720773 0.10482728 -0.023401743 0.15028311 0.022454139 0.21291819
-0.017468464 -0.008975436 0.29704285 0.012176214 -0.23340699 -0.05715887 -0.15141456 0.003527593
-0.044800036 0.19494592 -0.16621038 -0.18853109 0.11991496 0.15946417 -0.06908948 0.0841607
0.19316237 0.042424627 -0.08367469 0.1202804 0.23787263 -0.032340437 0.18060833 -0.004369569
-0.1357172 -0.07407147 -0.21580993 0.18311733 -0.064407416 -0.1497542 -0.11270951 -0.030788574
-0.23023446 -0.124036476 0.031723283 -0.034855995 0.1012848 -0.10955111 0.1445398 -0.22689998
0.18839595 0.16598696 0.15496887 -0.19248748 0.17380057 0.047330838 -0.26381585 0.2587299
-0.0085989935 0.111418724 0.17320935 0.13283214 0.22676028 -0.24345078 0.28199884 0.043221235
-0.01955415 -0.25229385 -0.16824384 0.2463417 0.2012843 0.20840056 -0.03876642 -0.1272118
0.018262357 -0.18183497 -0.10805587 0.05922586 0.21842372 -0.20323047 -0.1672209 0.014871943

GRU_a.bias_ih_l0 f4 [48]
00000000: 9259 21be 2b0a c13d 34c6 27be acc8 193e
00000010: 0f62 91bd d962 7e3d fd83 6ebd ae80 893d
00000020: 51e1 2d3e 471a c53d 6049 703e dc0c 5fbe
00000030: fe38 9fbd 05dd 65be ada8 42be bc34 293d
00000040: 1086 36be cca0 0bbd efdb 2abe 64c9 abbe
00000050: 328b f5bb 6f5e c0be cd69 3fbd 958b 5cbe
00000060: 2140 d33d 6754 013e 64f3 17be 566a 43be
00000070: b54f 8cbe d93c a53d bcc2 64be 45bd 22be
00000080: ef19 9d3c 5d2f 143e 6f7f b5bd faf1 f33d
00000090: eb5a a43d a121 be3d 6f7e 1c3e 5706 81be
000000a0: 659f 10be a72b d1bd 9572 bbbd 542b 743d
000000b0: 4cfc 233e 76e8 6abe 6859 033e e555 ad3c
-0.15756825 0.094257675 -0.16384202 0.15017956 -0.07098781 0.062105987 -0.058231343 0.06713997
0.16980483 0.09624153 0.2346549 -0.21782249 -0.07774542 -0.22447594 -0.19009657 0.041310057
-0.17824578 -0.034088895 -0.1668546 -0.33552086 -0.0074934 -0.37572047 -0.04673176 -0.21537621
0.10314966 0.12629853 -0.1483894 -0.19083533 -0.27404562 0.080682464 -0.2233991 -0.15892513
0.019177405 0.14471193 -0.08862197 0.11911388 0.08025154 0.09283758 0.15282606 -0.2520015
-0.14123304 -0.10213404 -0.09152714 0.059611633 0.16014212 -0.2294024 0.12827075 0.021159122

GRU_a.bias_hh_l0 f4 [48]
00000000: 70ce 643e b40e 013e a8d9 25bd 0ad4 18bd
00000010: 9ece 4ebe 9794 553e 5166 623e c3b0 6c3d
00000020: 0123 023e 873f 033e baa1 043e 34bc 7abd
00000030: 6d5c 70be 3de0 04be 9363 4e3e c0ef 5c3e
00000040: 491a 3dbe b386 ea3d a8f5 0d3e 8a4a a4be
00000050: 0873 00be fd15 85be 8a33 01be d59d 8d3d
00000060: b532 803c e1b5 343e 35af 05be 78e2 433d
00000070: fa59 e33b a8c6 8dbe 06bd 97be a49b 8fbc
00000080: f235 7a3e a536 23be 53ab 0dba 3a7d 78be
00000090: 7889 f93d 0459 4d3e e4f8 80bd f9d7 de3d
000000a0: 9c37 c83d 2bd6 c33d be3b dcbd 5bcb b4bc
000000b0: 34aa ce3d 15a9 9c3d 2cc6 58be a8d1 e8bd
0.22344375 0.12603265 -0.040490776 -0.03731159 -0.20196006 0.20857464 0.22109343 0.05778576
0.12708665 0.12817203 0.12952319 -0.06121464 -0.23472758 -0.12976165 0.20155172 0.21575832
-0.18467058 0.11451473 0.13863242 -0.3208812 -0.12543881 -0.25993338 -0.12617317 0.0691487
0.015649179 0.17647506 -0.13055117 0.0478234 0.0069382163 -0.27690625 -0.296364 -0.01753027
0.24434641 -0.15938814 -0.00054042524 -0.2426652 0.12184423 0.20053488 -0.06297472 0.10881037
0.09776232 0.09562334 -0.107535824 -0.022069624 0.100910574 0.07649437 -0.21169347 -0.11368114

linear_a.weight f4 [4, 16]
00000000: f390 853e 4bf9 5dbe f94b 443e eb03 3cbd
00000010: d0ec 8c3e d89d f9be 2364 933e 4c1c e2bd
00000020: ace0 a33e 47db 4d3e 5b18 dc3e 5607 5a3e
00000030: abe9 0e3e 694e 6b3c 2d0b cbbd 4551 313e
00000040: c47d 08bf 09be 77be e72b ec3d e07f 69be
00000050: 545e 49bd 431c 16be 4224 06bf 66f9 483e
00000060: 59ee c4be 42e2 f5be 0a7b 84be 4b5b 99be
00000070: b350 463e a06c f2be 2bfe 833e 9b0f f2be
00000080: 73dd 01bf ddb3 8abe 7df2 16be 78b3 e33d
00000090: 2858 423d 9fd7 4fbe a309 f1be 5648 0e3e
000000a0: dc94 c8be 1b60 a63d 6376 cb3d 4da2 f2be
000000b0: 75eb 0d3e 5a24 05bf cdb9 c43d 0a6b dbbe
000000c0: 5ce9 463e 099b 083f 8e70 c13c 6611 0abe
000000d0: ac89 dc3d 1c40 a03e 3a2a cf3e cc72 3fbe
000000e0: d971 103e e455 a4bd 0620 ddbe ccf0 b43d
000000f0: 5efe 22be 74a7 58bc 5e14 87bd d901 353d
0.2608715 -0.21677129 0.19169606 -0.045902174 0.27524424 -0.48753238 0.28787336 -0.110405535
0.3200735 0.20103179 0.42987332 0.21291861 0.13956325 0.014361956 -0.09914241 0.17316158
-0.53316903 -0.24193586 0.11531811 -0.22802687 -0.049162224 -0.14659218 -0.52399075 0.19626388
-0.38463095 -0.48024184 -0.2587512 -0.29952464 0.19366722 -0.473485 0.25779852 -0.4727753
-0.5072853 -0.2709035 -0.1474094 0.11118215 0.047447354 -0.20297097 -0.47077665 0.13894781
-0.3917607 0.081237994 0.0993469 -0.4738945 0.13859351 -0.52008593 0.09605751 -0.42855102
0.19424957 0.53361565 0.02361324 -0.134832 0.10768446 0.31298912 0.40461904 -0.18696135
0.1410593 -0.08024195 -0.43188494 0.08834991 -0.15917346 -0.013223518 -0.065956816 0.044191215

linear_a.bias f4 [4]
00000000: db97 94bd bf78 83be 6cc9 d1be 591e 8f3e
-0.07255527 -0.2567806 -0.40973985 0.2795284

conv_v_0.weight f4 [16, 7, 3, 3]
00000000: 54b4 483d 2dc9 173e 0065 413d e531 b3bd
00000010: 1ddb 653c 6598 a7bd d7f4 c63c 00ee c83c
00000020: 0814 c33d 34f3 233d e955 1ebd e82b dabc
00000030: 5e4a 0c3e 70c2 ddbd 4da7 963d 5763 083e
00000040: 0c4e a4bd bbaf 96bd da06 04be 9cae e7bd
00000050: e261 223d d175 39be 4864 6cbe 18cd 7bbd
00000060: 791a aabd bc26 973d 5dd2 593d 9fee 1bbe
00000070: 38a9 60bd 306b 1ebd 6eaa b03d ef6b 393d
00000080: 293d d13d 89e8 e6bd e19b 073e f0e0 d23d
00000090: ee60 ecbc 98a8 c5bd d12f 413c 4ba3 d7bd
000000a0: 58f5 b7bd 5962 1e3c 7596 09be b13e e3bb
000000b0: f881 35bd 0337 1b3a ea1e aa3b 7a18 f43c
000000c0: ba69 9bbd 7b04 523d 373d f3bd 4fb5 563d
000000d0: 39db d2bd 411f f73d ffb2 f83a 2ef6 d43b
000000e0: 8d1c a63b 7892 80bb 3dd6 9cbd 549d 1abe
000000f0: 7148 403d 4b32 443d 65be 52bd 8747 ce3d
00000100: 8845 023c 02b5 41be 87c6 133e e2b5 00bd
00000110: 3a63 3fbe 4604 4f3c 2625 a9bc bc09 e6bd
00000120: a7da 94bc f753 26bd 2e91 153e e11c 70bd
00000130: c5c1 7b3c c5ef 9e3e 8cc4 42bd 7840 9bbc
00000140: e38c 553d a62f 2abd 541f fe3d b344 14be
00000150: ecb0 cdbe 671a 163e f73b 96be ec7f 503c
00000160: 0279 033e 71d1 d0be 8017 93bc 1156 d83d
00000170: df52 d7bc 73ac 4c3d c926 ba3d 828b 7a3d
00000180: 9f55 d4bc 523e 9b3d 044c 7b3d 0d49 bc3d
00000190: 11d8 28bd cec7 883d 9036 0abd f00b 1cbc
000001a0: 8004 c3bd a447 73bd 82d0 323c 5741 0ebd
000001b0: 770a 51bd c320 05bc c62c b5bd f0be e63c
000001c0: 5252 ae3d dddc 7d3d f676 943d 3e3f 96bd
000001d0: dfb3 0cbd aad3 26be 8b67 3abe 9b72 18be
000001e0: ff1f 34bd 7f32 74be d4ec 3fbe af2f 65bd
000001f0: fa14 61bd fc8a 1cbe 203b 173d 1566 533d
00000200: 76ef 073e 57a2 733e 5243 92bc d4ca fe3d
00000210: 04fd 0dbe b2b0 51be 721f 14be d3bd 55bd
00000220: 5656 1ebe f017 39bc 1b5c db3d 586b 953e
00000230: 43d5 b43d 6f5c 073d 0e01 c33d 9d36 52bd
00000240: eeef 4e3e a650 183e ca89 4a3e b07f c53a
00000250: f6e1 f03a a88b bcbe 60a5 34be 0539 a5be
00000260: be19 9ebe c95f 233e cfc4 e83d d9d2 f93d
00000270: 15e2 333d 536c 023c d6b8 87be eb34 8abe
00000280: 221c a9be 0799 403c 267b 923d df81 4f3d
00000290: 2f7a 8abd 6b06 84bd 8734 b73d c901 adbd
000002a0: cf2d 2c3d 5716 e53d 4aee bcbd 2294 6e3d
000002b0: 6ac8 09be a9f1 61bd b4a1 663d 597b 803d
000002c0: cd79 ab3d 76a1 963d 58dd 1bbe 9ff1 1cbc
000002d0: 8d68 59be 0965 e5bc 4cae 7fbd 7a04 2dbb
000002e0: bfb1 8fbd 2ab9 5abc 6b8d d7bd f3ba 4dbe
000002f0: 01f8 3abe f29f 54be 2d5b f13c 10ae c03c
00000300: 0d5d a0be 8f50 68be 0fee 673e f8de 1abe
00000310: a26f 173c ae7f 0b3e 3d8b 3f3e b1f6 19be
00000320: e69f 293d 130b 853d 41fc 84bd f69d d2bd
00000330: 8ccc 4c3c 4809 24bd 32a5 8abd eaa9 153e
00000340: e44a 2e3e 389e d2be e427 dc3d 4947 f53d
00000350: 4678 81be b194 a93c 8a49 a6bc 6e4c 08be
00000360: cf2c 443e 17f4 703e 72ab c5be 461f 5abd
00000370: fd2f f53d 221f 42be fc19 8bbd 190c 153d
00000380: 58ac 2ebe 1a07 123e 1b2b 863d c374 a7bd
00000390: 0dbe d8bc 2737 8abd 435a 843c 6ac4 143d
000003a0: 6635 54bd fd0b 87bd 80e1 b1bc bda4 2b3c
000003b0: 2e13 c43d a014 483d 73db 8fbd 71c0 e7bd
000003c0: fbdc e23c 43ee 74bc 84b5 9d3d c12e 8abd
000003d0: 446c 5e3c 2fe2 93bd fe25 32bd a1d2 5fbd
000003e0: a191 d6bb 64a9 153c 4518 0c3e bb81 063e
000003f0: 9320 213e 4bcb 05be fee3 0a3e d470 183e
0.0490001 0.14822836 0.04721546 -0.08749751 0.014029291 -0.08183364 0.02428667 0.02452755
0.09525305 0.04002686 -0.03865615 -0.026632264 0.13700244 -0.10828102 0.07356129 0.13319145
-0.08022699 -0.07357737 -0.12893239 -0.11312601 0.03964413 -0.1811135 -0.2308513 -0.06147489
-0.083058305 0.07380435 0.053179134 -0.15227745 -0.05484888 -0.03867644 0.08626257 0.04526895
0.102167435 -0.11274821 0.13243057 0.1029681 -0.028854813 -0.09651297 0.0117911855 -0.105291925
-0.089823425 0.009667003 -0.13436301 -0.0069349636 -0.0443134 0.0005920978 0.0051916735 0.029796828
-0.07588525 0.051273804 -0.1187691 0.052419003 -0.1029572 0.12066508 0.0018974243 0.0064990735
0.0050693215 -0.0039237104 -0.0765805 -0.15099078 0.046944086 0.047899526 -0.051451106 0.100722365
0.007951148 -0.18916705 0.14431201 -0.031423457 -0.18690196 0.012635296 -0.020647597 -0.112323254
-0.018170668 -0.04060742 0.14606163 -0.05862129 0.0153660225 0.31042305 -0.047550723 -0.01895164
0.052136313 -0.041549347 0.12408319 -0.14479332 -0.40174043 0.14658509 -0.29342625 0.012725811
0.1283913 -0.4078479 -0.017955542 0.10563291 -0.026284633 0.049969148 0.09089429 0.0611682
-0.025919734 0.07580246 0.06135179 0.09193621 -0.041221682 0.06678735 -0.03374344 -0.0095243305
-0.09522343 -0.059394494 0.01091397 -0.03473028 -0.05103537 -0.008125487 -0.088464305 0.028167218
0.08511795 0.06197821 0.072492525 -0.07336281 -0.034351226 -0.16291681 -0.18203561 -0.14887469
-0.043975826 -0.23847388 -0.18742687 -0.055953678 -0.054951645 -0.15287393 0.03692162 0.051611025
0.13274941 0.23792396 -0.017854366 0.1244103 -0.13866049 -0.2047756 -0.1446512 -0.052182984
-0.15462622 -0.011297211 0.10710927 0.2918346 0.08829739 0.033047136 0.095216855 -0.051321615
0.20208713 0.14874515 0.19779125 0.0015067961 0.0018377888 -0.368253 -0.1764121 -0.32270065
-0.30879015 0.15954508 0.11365663 0.12198419 0.04391678 0.007960397 -0.26508206 -0.26993498
-0.33029276 0.011755235 0.07152395 0.050660964 -0.06761586 -0.06446537 0.08945566 -0.08447606
0.042035874 0.111859016 -0.092251375 0.05824674 -0.13455358 -0.055162106 0.056306556 0.06273527
0.08372841 0.07355015 -0.15221155 -0.009579091 -0.21231289 -0.028002279 -0.06242208 -0.0026400373
-0.07016324 -0.013349811 -0.1052502 -0.20090847 -0.18258668 -0.2076414 0.029462421 0.0235205
-0.31320992 -0.2268698 0.22649406 -0.15124118 0.009242924 0.13622925 0.18705459 -0.15035512
0.041412257 0.06496253 -0.06493426 -0.10284035 0.01249994 -0.040047914 -0.0676979 0.14615598
0.17020756 -0.41136336 0.10749796 0.11976487 -0.25287074 0.020700784 -0.020298738 -0.13310406
0.19157718 0.23530613 -0.38607365 -0.05325248 0.11972044 -0.18957189 -0.067920655 0.03638849
-0.17057931 0.14260522 0.065511905 -0.081765674 -0.02645781 -0.06748801 0.016156321 0.036320128
-0.051808737 -0.065940835 -0.021713972 0.010476288 0.09573971 0.048847795 -0.070242785 -0.11316002
0.027693262 -0.014949384 0.07700637 -0.06747199 0.013575617 -0.072208755 -0.043493263 -0.05464423
-0.006548122 0.009134624 0.13681133 0.13135426 0.15735082 -0.13065831 0.13563535 0.1488679

conv_v_0.bias f4 [16]
00000000: 32b0 8b3d 210a 573d d155 22bd f84b e73c
00000010: ead8 a23c 1556 ab3c 1a1d abbb 0481 d53d
00000020: 9655 8f3d 115b 3c3d 4e3a a5bb 3bdb debd
00000030: be2b d03d 8e24 503d 16d1 b33d 60d2 bb3c
0.06820716 0.052499894 -0.039632622 0.028234467 0.019878823 0.02091507 -0.005221975 0.104249984
0.06998746 0.045985285 -0.005042351 -0.10881659 0.10164593 0.05081611 0.08780114 0.022927463

conv_v_1.weight f4 [16, 16, 3, 3]
00000000: 5c7e 54bc 39da a93c 1b15 1e3d 726b 58bd
00000010: abed d6bc 7634 9dbc 38ff f93c 9c71 283b
00000020: 56ec e4bc b478 513d 9fb2 893d 783c 5a3d
00000030: c799 59bc a865 bdbc 2542 74bd 139d 223d
00000040: 0665 a3bd 3e77 c1bd faea 2ebc ded5 14be
00000050: 5ce4 8fbd 773e f4bd 43a4 19bd 8245 b5bd
00000060: ca19 073d 7876 c1bd 343e 12bd 40b5 91bc
00000070: 4cd7 e9bd 9286 5f3c 32fa ecb9 c0e7 b5bd
00000080: 3236 dfbd c134 9cbc e38a e23c d0e1 88bd
00000090: f9b5 3abc 175a 60bd 2276 933d 2375 c5bb
000000a0: af44 92bc 4726 0b3d 3138 d13d ce86 973d
000000b0: fedb 413d 8ea2 953d 15d4 ddba d1ea 4dbb
000000c0: f576 d3bc 577f 76bd ba94 993c 1263 52bd
000000d0: f137 1d3d bb9e 51bd 0e69 03be 64ed 83bd
000000e0: 6d40 e3bc 74ac e0bd c1e0 e0bd aa50 20bd
000000f0: 04ce 8fbd 1e26 88bc 95f5 5a3c 92b7 b23d
00000100: 5bd7 173c 7a86 bdbc 2e22 26bc ada5 713c
00000110: 3574 513c 3bfc 9cbc 4d90 773d f759 59bb
00000120: b4d8 b13c 0739 54bd bfeb acbc 5bcf aebc
00000130: fed2 653d f483 9abd 5a9b efbc cf09 893c
00000140: 8a27 9dbc 84a2 2bbd d034 e33c cf31 66bd
00000150: 0090 98bd f436 bebc fa55 b9bd 0f00 bcbd
00000160: 1145 573b 52fb 16bd 9dea 40bc 647c 3ebd
00000170: 303d 123d 49c5 77bc cd47 abbd ac6c 9abd
00000180: 5ace 24bd ac9a d6bd cffe 99bd e647 bbbc
00000190: 52c5 88bd a6fb bebc 2b2e e1bd c8ce a03c
000001a0: 751f c5bd ad1b f9bd bb64 ebbb 47b9 d1bd
000001b0: 5f4d 1d3c cd7e 32bd dada a7bd 2960 bcbc
000001c0: 6d94 df3b f2a7 fc3c 307d 373d 4080 79bc
000001d0: 0560 503d d3bf 633d 7f15 2a3d ce4b 3a3c
000001e0: 86c0 03bc f5cf 343d 675a d83b 2555 b23d
000001f0: 1405 883c 286c debc 6af2 84bb f847 e6bd
00000200: 14c4 26bc 5567 0c3d 9f84 fdbc 36dc a0bd
00000210: 7d77 45bd bfdb 0bbc 500d c9bd 5549 7fbd
00000220: f61d babd 2753 d5bd d05b bbbd 8ec3 bbbd
00000230: dbe4 a83c 1015 9f3c 8e49 a5bd 59e8 ecbd
00000240: e8b8 8e3c eb3d a13b c270 f43c 6948 aebc
00000250: ed32 57bd b74c a3bd 5b39 b2bb 10c0 cbbd
00000260: 34ca adbd 2eef 9cbd 7821 2abe 988f 76bd
00000270: daab 94bd c0a4 38be c41f b9bd d468 12be
00000280: 54dd 51be e1ce 7bbd 5446 4dbc 3056 debd
00000290: 3586 9ebd 9351 d4bd 459e 5dbd 4060 a4bd
000002a0: f629 b3bd 7990 a9bd 7564 f2bd d7b6 e13d
000002b0: a8a0 873c d9e8 923d efbb 0c3e 9858 d53c
000002c0: fec9 883c 560c b03d 7694 6b3d 09e3 19bd
000002d0: 54ca 85bd a336 b13b d4a4 adbd 5712 eebd
000002e0: d7c8 a7bd 7287 80bd c833 963c 6095 3cbc
000002f0: 60e2 7fbd b865 4cbd 4c02 8bbb 53c8 5c3d
00000300: d7c5 6abc 07e2 523d 8131 71bd 543f 9a3c
00000310: d6dd b83c 9289 953d f4b7 47bc d042 273e
00000320: fa08 453c f571 03bd e85a de3d e111 183e
00000330: c5b7 b63d 0514 f03d 5b1f d13d 522b c9bd
00000340: 0794 19bc cc92 2fbe 7c4a 96bd 2bcb c9bd
00000350: b262 86bd 508a 3bbe 0122 49bd 51c5 35bd
00000360: 6485 86bd af6a afbd 76eb 96bd 8d0f 79bc
00000370: 8846 9fbd 71d2 ecbc 3203 b1bc f08c 68bc
00000380: d1a3 d3bd 39f3 583d 234e c9bc 782f f2bb
00000390: 2048 11bd 7a49 54bd f6e9 fd3b 8396 123d
000003a0: b29b a83d b9f5 c03d 7d11 643d 5be3 783d
000003b0: 05e5 8a3d 645b f93c 8f3e 49bd 8448 773d
000003c0: 4390 bb3c 419e d13b 35ab 0f3a de36 0c3e
000003d0: ba6e 043e 7581 393d b793 f83c bc11 8b3c
000003e0: 40ce ce3d 82ae 76bc 31ed 353c b333 4bbb
000003f0: 02fa 273d e797 933d b2d1 0d3d da9d 753d
-0.01296958 0.02073394 0.038594346 -0.052836843 -0.026236376 -0.019190054 0.030517206 0.0025702482
-0.027944725 0.051140502 0.067235224 0.053280324 -0.013281292 -0.023119763 -0.059633393 0.03970058
-0.07978253 -0.09446572 -0.01067614 -0.14534709 -0.07025978 -0.11925977 -0.037510168 -0.08851148
0.03298358 -0.09446424 -0.035703853 -0.017786622 -0.11418018 0.013642924 -0.00045199838 -0.088820934
-0.10899009 -0.019068124 0.027654117 -0.06683695 -0.011395925 -0.054773416 0.072002664 -0.0060259267
-0.017855017 0.03397205 0.10215796 0.07398759 0.04732894 0.073063955 -0.0016924167 -0.003142048
-0.02581356 -0.060180034 0.018747676 -0.051364012 0.038383428 -0.051176768 -0.12833044 -0.06441763
-0.027740682 -0.10970393 -0.109803684 -0.039139427 -0.07021716 -0.016619738 0.013364215 0.087264195
0.009267653 -0.023135412 -0.010139985 0.014748973 0.012784054 -0.019163242 0.06044035 -0.0033165195
0.021709777 -0.051812198 -0.021108506 -0.02133911 0.05610942 -0.07544699 -0.029248882 0.01672831
-0.019183893 -0.041903034 0.027735144 -0.056199845 -0.07449341 -0.023219563 -0.09049602 -0.09179699
0.0032847563 -0.03686077 -0.011774686 -0.046505347 0.035702884 -0.01512272 -0.08363304 -0.07540259
-0.040235855 -0.1047872 -0.07519304 -0.022861432 -0.06678261 -0.023313355 -0.10995134 0.019629851
-0.096251406 -0.12163482 -0.007183639 -0.10240417 0.009600966 -0.043577958 -0.081960395 -0.022995071
0.0068231137 0.030841801 0.044797122 -0.015228331 0.05087282 0.05560286 0.041524407 0.011370612
-0.008041507 0.044143636 0.0066025737 0.08707646 0.016603984 -0.027151182 -0.0040572183 -0.11244196
-0.010178585 0.034278233 -0.030947028 -0.07854502 -0.048209656 -0.008536278 -0.09816992 -0.062325794
-0.09087746 -0.10416251 -0.09148371 -0.091681585 0.02061694 0.019419223 -0.0807067 -0.11567754
0.017422155 0.0049207113 0.029838923 -0.021274762 -0.0525388 -0.079736166 -0.005438966 -0.099487424
-0.08485833 -0.076628074 -0.1661433 -0.060195535 -0.072593406 -0.18031597 -0.09039262 -0.14297801
-0.20494586 -0.061476592 -0.012528975 -0.10856283 -0.07740442 -0.103671215 -0.054106016 -0.08026171
-0.08748238 -0.08279509 -0.11835567 0.11021202 0.016556099 0.071733184 0.13743566 0.026043221
0.01669788 0.08596103 0.05751463 -0.037570033 -0.06532732 0.0054081245 -0.08478704 -0.11624592
-0.08192604 -0.06275834 0.018335238 -0.011510223 -0.062471747 -0.049901694 -0.004242217 0.05390198
-0.014329395 0.051485088 -0.0588851 0.018829025 0.022566717 0.0730163 -0.012189854 0.1633408
0.012026066 -0.0320911 0.10857183 0.1485057 0.0892177 0.117225684 0.10211059 -0.09822716
-0.009373671 -0.17145842 -0.073384255 -0.09853204 -0.065617934 -0.18314481 -0.049104694 -0.04437763
-0.06568411 -0.0856527 -0.07369129 -0.0152014615 -0.07777125 -0.02890894 -0.021607969 -0.014193758
-0.1033398 0.05296633 -0.024573391 -0.0073909126 -0.035469174 -0.051827885 0.0077488376 0.03578807
0.082328215 0.09421868 0.05568074 0.060763698 0.06781963 0.030439086 -0.049131926 0.06037189
0.022895938 0.006397039 0.0005480529 0.13692805 0.12932864 0.045289475 0.030343873 0.01697623
0.10097933 -0.015056254 0.011103914 -0.0031006157 0.04100991 0.072067074 0.03462381 0.059964992

conv_v_1.bias f4 [16]
00000000: 6f14 7fbc cf57 19bd ea15 b73d dc64 013d
00000010: 0aa8 86bd 4a46 21bd 7e22 593c 1929 a63d
00000020: c8b6 6e3c 33e0 843c a705 083e 53f9 af3d
00000030: c2ae 203d 7d98 413d df7c c23d 8c6c 93bb
-0.015568837 -0.037437256 0.08939727 0.031590328 -0.0657502 -0.039373673 0.0132528525 0.081133075
0.014569946 0.016220188 0.13283406 0.08592477 0.039229162 0.047264565 0.094964735 -0.004499024
