league/checkpoints/mfos_seeds/new_self_3x3_42/550_1.pth (torch, 300942 bytes, 105 tensors)

conv_a_0.weight f4 [16, 7, 3, 3]
00000000: fdda 3e3e 3742 48bd 464f 5c3c 6eef 513e
00000010: 5f0e 183d 613d 73bc 35a4 123e b095 023d
00000020: 31fa 0d3c 4ae3 383e 09a3 0b3e a46c f03d
00000030: 6e02 493d 0653 c83d 48fa 20be cf42 5b3e
00000040: bd35 c03c 434b b9bd 4140 cb3d a7f6 0b3e
00000050: 05f9 0bbd e86a cb3d 5430 5d3e affb 323e
00000060: e698 17bd 51d0 553e 9446 ad3c 4a1a 16bd
00000070: 7c7c bc3d 1ee3 dc3d 3122 d7bd ed9b 243e
00000080: d24e 823d 823d aebd 660d 6c3d 5e73 f4bd
00000090: ce73 be3d 9c95 713d 16c7 fcbc cb86 b3bd
000000a0: 7ddf 9e3d fa88 a83d 303d 9d3c 1b07 c6bd
000000b0: b5f7 b5bd f0b3 fc3d bda4 8dbd 031f 253d
000000c0: 39a2 e23d 9df0 ea3d 9e50 4d3d 9334 edbc
000000d0: ac23 1b3d d8ec 83bd 4ca7 8fbd dff2 0bbe
000000e0: 48c8 243d 433b 33be 9512 9fbd 83c6 8cbc
000000f0: 7e23 aebd 3d69 063d 2e24 1cbe 8ce6 213e
00000100: 7813 93bc be75 153e 131d 3bbb a616 d4bd
00000110: a133 593d 4ed7 3a3e bbd8 71bd 373b 2e3e
00000120: 816d 073d bfa7 d63d cff2 b5bb ed55 203e
00000130: 4c0c 2c3d 28f7 87bd 2d73 143e bdc4 e7ba
00000140: d8d1 68bd 9f84 46bd a7a3 bfbb 60f5 2b3e
00000150: 7d59 153e f2ab 643c fb68 223e 31df 4abd
00000160: 73e4 183d f65f 54be a226 01bd 416a 0f3d
00000170: 8c28 d03d a35c 15bd b0fe 9f3d 923f 27be
00000180: 4f82 993c 96a6 92bd 6542 e6bc 48ca ba3d
00000190: 716e ce3d 8334 bebc 5a41 f1bc affb 243d
000001a0: 7c3d 1e3e 60ad a93c e27e 42bd 1097 993d
000001b0: f38c 253d 14c4 ab3d 3445 25be dd05 b1bb
000001c0: 0f1e 27be c2f3 b6bd c792 05be 8657 17bd
000001d0: 43ca c1bd adee 15bd f505 213b f671 bc3d
000001e0: 0149 7a3d 48bc 0abe 300e 75bd e468 ba3b
000001f0: 4dbf 17be b9b6 8f3d ae42 cd3d e3e6 323d
00000200: 9373 223e 86c9 5ebd 998b d03d 949f b1bd
00000210: e968 1e3e 39f9 553d 5392 9e3d 1a15 30bc
00000220: 75e4 333d 126b ca39 fc7c 8dbd ceb1 9c3c
00000230: 9d7d 983d ce13 1a3d 8b42 343e b34e 2b3e
00000240: 315f f43c 9b6f 823d db51 9b3c c50c 3abe
00000250: 08ea 8a3d 3fee 2f3e 678c 983d c121 f4bd
00000260: b732 353e 4ff7 063e 5b35 303e 80e1 073e
00000270: aa03 263e b80c 1bbe 302c 22bd e826 313d
00000280: e095 0dbd c349 f43c f3dc 0e3d 2c09 253d
00000290: 2d79 773d 881c 8e3c 4123 9539 04f0 dabc
000002a0: 282b bd3c 2de5 d33d 41b6 c03d 786a cbbd
000002b0: bd37 0cbc ddb5 22bb 87b9 363d b365 bfbd
000002c0: 5af5 b9bd 7797 86bd 14f2 8d3d 0102 15be
000002d0: c765 b3bc b76c 8d3d 2782 b0bd 4f03 1a3d
000002e0: b381 0dbc 6ec8 73bc 83c3 f3bd 7dba 75bc
000002f0: 2ed4 9c3d 7427 fc3d 5a55 7d3d f944 9b3d
00000300: 04b2 523e 333c c63d e576 273e 3c2f 9e3d
00000310: 6326 493e 827b 523d 124f 093e e081 283c
00000320: 2d56 453e e7b3 a93d 02dd c7bc 4dd4 673e
00000330: 2711 e93d 3867 583e 8014 28bc 961a 053e
00000340: 3295 f33d a5df 15bd fe0c 953b d824 be3d
00000350: 4fee f53d f216 253e e6f9 8abb eadd d23d
00000360: 7b73 a53d cd19 4d3e 9a5d 9d3a 318c 503b
00000370: 115d b1b9 1e45 923d 5ae6 54bd 9334 f63b
00000380: adec 9a3d 55bb c33c 3793 103e ceb6 883d
00000390: b893 07bc f4b0 383d 1aee 0e3e aa3e 19bd
000003a0: f773 713d 92a9 c23d 95ff e1ba 227b a4bd
000003b0: ee69 88bd b4ad 75bd f175 3fbb 6674 4bbc
000003c0: 55ec cabd e7a0 1abe 5db7 993d 6170 ab3c
000003d0: 1d88 debd 0653 c43d d78d 82bd de26 30bd
000003e0: fe61 aabd 384b b1bd cd81 87bd 53a7 54bd
000003f0: 7ac0 a33d 632a 2e3e 31dc 03bd 2798 493e
0.18638225 -0.048891272 0.013446635 0.20501491 0.03712308 -0.014846177 0.14320453 0.031881034
0.008665607 0.18055454 0.13636412 0.117394716 0.049074583 0.097814605 -0.15720475 0.21412204
0.023463124 -0.09047558 0.09924365 0.13668309 -0.03417303 0.099325 0.21600467 0.17478822
-0.03701105 0.20880248 0.021151818 -0.036646165 0.09203431 0.10785507 -0.10504568 0.16075106
0.0636269 -0.085078254 0.057629965 -0.11936067 0.09299432 0.05898057 -0.03085665 -0.08765944
0.07757471 0.08229251 0.019194216 -0.09669324 -0.08885137 0.12339008 -0.06916187 0.04031278
0.11066098 0.114716746 0.05012571 -0.028955733 0.037875816 -0.06441659 -0.07014331 -0.13666867
0.040230066 -0.17503075 -0.07767216 -0.017184502 -0.08502863 0.032815207 -0.15248176 0.15810603
-0.01795362 0.14595696 -0.0028551265 -0.10355882 0.053027753 0.18246195 -0.05904458 0.17014776
0.033063415 0.10481214 -0.0055526267 0.15657778 0.042003915 -0.06638938 0.14497061 -0.0017682534
-0.056840748 -0.04846632 -0.0058483663 0.16792822 0.14584918 0.013957011 0.1586036 -0.04952926
0.03732724 -0.20739731 -0.031530984 0.03501344 0.10163984 -0.0364653 0.0781225 -0.16332844
0.018738894 -0.0716068 -0.028107831 0.09120613 0.10079659 -0.023218399 -0.029450107 0.040279087
0.15453142 0.020712554 -0.047484286 0.07499516 0.040417623 0.08387008 -0.1613968 -0.0054023103
-0.1632006 -0.08933212 -0.13044272 -0.036948703 -0.094624065 -0.036604572 0.00245702 0.09201424
0.06110478 -0.13548386 -0.059827983 0.0056887735 -0.14819069 0.070172735 0.10022484 0.043677222
0.158644 -0.054391406 0.10182876 -0.08673015 0.15469708 0.05223963 0.07742753 -0.0107472185
0.043919045 0.00038608216 -0.069086045 0.019127753 0.07445834 0.037616543 0.17603509 0.1672924
0.029830547 0.06368943 0.01895993 -0.18168934 0.06782919 0.17180727 0.074486546 -0.119205005
0.17695127 0.13180278 0.17207853 0.13269615 0.16212335 -0.1514157 -0.03959292 0.043249995
-0.03456676 0.029820329 0.034878682 0.04029195 0.060418297 0.01734759 0.0002844576 -0.026725776
0.023091868 0.10346446 0.09409762 -0.09932417 -0.008558211 -0.0024827637 0.044610526 -0.093455695
-0.0908 -0.065718584 0.06930938 -0.14551546 -0.021899117 0.06905501 -0.086185746 0.03760081
-0.00863688 -0.014879329 -0.11902525 -0.014998076 0.076576576 0.123122126 0.061848976 0.07581515
0.2057572 0.09679451 0.16353948 0.07723853 0.1964355 0.051387317 0.13409069 0.010284871
0.19271155 0.08286267 -0.024397377 0.2263958 0.11380225 0.21133125 -0.010258794 0.12998423
0.11893691 -0.036590237 0.004548668 0.09284371 0.120083444 0.16122034 -0.004241216 0.10296233
0.08078667 0.20029373 0.0012006045 0.0031821842 -0.0003382941 0.07142089 -0.051977493 0.0075135916
0.075646736 0.023893038 0.14118658 0.06675492 -0.008274965 0.04509063 0.13958016 -0.037413277
0.058948483 0.09504999 -0.0017242307 -0.08031298 -0.066608295 -0.05998011 -0.0029214586 -0.012417888
-0.09908358 -0.15100442 0.07505677 0.02092761 -0.10865805 0.09586148 -0.0637471 -0.043005817
-0.08319472 -0.08656925 -0.066165544 -0.051917385 0.07995696 0.17008357 -0.032192413 0.19686948

conv_a_0.bias f4 [16]
00000000: c2f4 3d3d 2697 283e 340b 643d 893e 333e
00000010: 39e3 c73d 2897 983d 9d6b 4c3d d29a df3d
00000020: eb3f c03c 8af9 c93c 6a5f db3d 0d23 443e
00000030: 730a b53d e61b 193e 1a57 2f3d d51e 603d
0.046375997 0.16463909 0.055674747 0.17504324 0.09760136 0.07450706 0.049907316 0.109182015
0.023467978 0.024655122 0.10711558 0.19153996 0.08839884 0.14952049 0.042807676 0.054716904

conv_a_1.weight f4 [16, 16, 3, 3]
00000000: 4e42 cf3d 4adc 173e cb50 273e 0684 953d
00000010: 8530 9f3d 3e69 d43c 391c 3a3d af00 b23d
00000020: 759b 3e3e b734 0c3d 1d0e 743d 9844 143e
00000030: fe03 b93d bdfd 903d ada6 8c3c e253 e83d
00000040: 34fb d83d d8e7 f93c ff0d 0f3e 4682 153e
00000050: 234c 173e 50a5 ad3c 98e1 9f3d 7097 5c3c
00000060: 1302 ce3d acb8 053d 3094 9f3d a7c4 b33d
00000070: f1c8 9f3d e1c1 1a3e d5f7 2e3e 95e2 2a3e
00000080: 4bf1 283e c935 fb3d a185 383d a4b4 ee3d
00000090: 3a70 b03c ac01 803d c8b0 153e 99e5 c63d
000000a0: 4344 b73d f9c3 c53d bac4 103e 31e1 ba3d
000000b0: e9bd 6a3d 2e53 aa3d fc51 de3c 9100 273e
000000c0: 9d6a 553d 5d58 193e f99e 163e 8cef a13d
000000d0: 8d35 c03d a038 b03d ac7a e73d f9f3 ab3d
000000e0: 1014 e53c 2181 fe3d 2dbc a43d 87c3 333d
000000f0: b4c0 cb3d fc08 233d 482c ef3d e65b 7d3d
00000100: cb39 ec3c 1b9d 323e d31f 083e f5f6 f83d
00000110: 44b4 593d 0933 343d abe6 2e3e 3091 213e
00000120: 9847 ad3c a1de fb3d f2c3 e03d 7416 253e
00000130: 1d85 0a3e 61c4 dc3d 53fa ed3d 0699 293e
00000140: 12e9 2d3d fb7b f83d 8902 373e 6a90 df3d
00000150: 9ff0 3a3e 866c e23d f619 f23d 6f91 4a3e
00000160: fe9f 523d a6bc 123e 74e1 e83d 10fe 003e
00000170: 50c4 b63d cf30 143d 6a3e 463d 86a7 cb3d
00000180: 2b7b d83d 236e 4c3d 44b4 243e ac98 803c
00000190: 1490 753d 25c9 a43b 22c9 113d d548 263e
000001a0: 530b 243e 6d32 263e 7f81 293e 16e3 1b3e
000001b0: e012 213e 3236 273d e56c 523d 59a0 ae3d
000001c0: 9aa1 fa3c f5f9 a63d 6354 9b3c 2a71 9a3d
000001d0: b608 913d 0fa1 b33d 6a9a d93d a525 2e3e
000001e0: 7adf fa3d 353e e33c 74e6 273e e168 ae3c
000001f0: 6667 d13c 7eba 843d e0e4 033e 18f1 743d
00000200: 7c7d aa3d 36ec d63c 9ec7 22ba 950e ea3d
00000210: 4f19 df3d 7f7f 0e3e 7300 9a3d f1da b83c
00000220: 2f0c 823c 569a 113c 95cc 413e e447 893d
00000230: 847d 1f3e fc7a dd3c b7f5 ea3c 9d05 193e
00000240: 03c7 38bd e5cb 8b3b f859 9e3d 8224 4dbd
00000250: 209b b03c 99dc 1bbd 21b7 42bd 9b45 efbb
00000260: 6dbf cebc 8889 143d 5050 7b3d 66f7 7a3d
00000270: 8977 c5bc d8c8 003d fc9a 963d 3f3b 983b
00000280: 61d7 533d be75 8b3d deda 7bbd b350 403c
00000290: b52d 35bd c91f 393d ebc8 963d cc76 15bd
000002a0: 7c94 77bc e030 953d 9d8b b8bc ecf3 463d
000002b0: f9eb f53c afb5 6abd 175f 5cbd c6bb 78bd
000002c0: 1c9d a6bc f46a 9cbd 43ef 19bc c56b 103d
000002d0: 223c 883d 37ce 95bc 8e6b 463d 6e81 633b
000002e0: c4be 733d 23da 83bd 9c3f 883c 637d 63bc
000002f0: 3822 6e3c 861d adbd 73e9 80bc 1216 f83b
00000300: 46b0 453d d0bd d1bb 0a6d d8bb 6d19 a5bb
00000310: 50ea 9ebc 3f18 88bd 5513 6c3d 7f49 abbd
00000320: 0f49 89bd 7af7 9fbd fd53 16bd 2440 94bd
00000330: 2acd 97bd 2692 623d 0dbf 1bbd 0ea8 1bbd
00000340: d9c7 01bd 6d9b fd3c c43b 0ebc 8ecd 2b3d
00000350: bcfc f83b 950a 0bbb 49fb 233d 401e 563d
00000360: ffb0 cfbd ca21 c3bd 93df b8bc 9733 0dbd
00000370: c3f9 36bd c69e 93bc 6fcb 8c3c 63be 923d
00000380: 6bc8 a83c 3220 84bd ae37 68bc 6428 073d
00000390: cf38 cabd cb6f 90bd 0a9d b7bd 1150 29bd
000003a0: fbe1 d4bd 01ee ef3c 7b2b d73a 19a3 e3bc
000003b0: 992e 24bb 213a babd 6f0e a3bd faf1 353d
000003c0: 6836 823d c223 3ebd a9a7 e73c a840 7c3b
000003d0: a10e 2538 da55 053d 1a13 8abc ce55 1abd
000003e0: bc62 633d f2e7 09bd 9537 403d da13 bbbd
000003f0: b1a2 8ebd ba23 473c 00fa 92bd 63d8 a7bd
0.101200685 0.14830127 0.16339414 0.07300572 0.07772926 0.02592909 0.04543707 0.08691537
0.1861399 0.03422996 0.059583772 0.14479291 0.090339646 0.07079647 0.017169321 0.113441244
0.10594788 0.03050606 0.13970183 0.14600477 0.14775138 0.021196991 0.078067005 0.01346384
0.100589894 0.03264682 0.077919364 0.08777743 0.078019984 0.15113021 0.17086728 0.16687997
0.16498296 0.12266118 0.045049313 0.11655548 0.021537889 0.06250319 0.14618218 0.09711761
0.08948567 0.096565194 0.14137545 0.09124983 0.05731002 0.083166465 0.027138703 0.1630881
0.052103627 0.14975114 0.14709081 0.07907018 0.09385214 0.0860455 0.11302695 0.083961435
0.027963668 0.12426973 0.08043704 0.04388764 0.099488646 0.03980349 0.11678368 0.06185522
0.028836152 0.17442743 0.1329339 0.12156478 0.05315043 0.043993983 0.1708018 0.15778041
0.021152303 0.122983225 0.109748736 0.16121846 0.13527341 0.10779644 0.11620011 0.1656228
0.0424586 0.121330224 0.17872061 0.10916217 0.18255852 0.110558555 0.11821358 0.19782041
0.05142211 0.14329776 0.11371127 0.12596917 0.089241624 0.03617936 0.048399366 0.09944062
0.105703674 0.049909722 0.16084391 0.0156978 0.059951857 0.005028861 0.035592206 0.1623872
0.16019945 0.16230173 0.16553305 0.15223345 0.15729856 0.04082317 0.05137338 0.08526678
0.030594636 0.08153144 0.018961137 0.075411156 0.070817396 0.08770954 0.10625155 0.17006548
0.12249656 0.027739624 0.16396505 0.021290245 0.025562 0.06480883 0.12880278 0.059800237
0.083247155 0.026235681 -0.0006209555 0.114285626 0.10893499 0.13915823 0.07519617 0.022565337
0.01587495 0.008886894 0.18925698 0.06703165 0.15575224 0.027036183 0.02868162 0.14943548
-0.045111667 0.0042662495 0.07732004 -0.050083645 0.021558344 -0.038052175 -0.047537927 -0.007301999
-0.025237763 0.036263973 0.06135589 0.061271094 -0.02410485 0.03144154 0.0735378 0.0046457346
0.051719073 0.06809567 -0.061488025 0.01173799 -0.044233043 0.04519633 0.07362541 -0.036490247
-0.015111085 0.07284713 -0.02252751 0.048572466 0.030019747 -0.057302173 -0.053801622 -0.06072595
-0.020338587 -0.07637587 -0.009395423 0.035259027 0.066520944 -0.018286807 0.048442416 0.0034714597
0.0595081 -0.06438091 0.016631894 -0.013884875 0.014534526 -0.08452897 -0.015736317 0.0075709904
0.04826381 -0.0064008012 -0.0066047953 -0.0050384314 -0.019398838 -0.066452496 0.057635624 -0.08363628
-0.06703388 -0.07810874 -0.03670119 -0.07238796 -0.07412179 0.05531516 -0.038023997 -0.038002066
-0.03168473 0.030957902 -0.008681241 0.04194408 0.0075984877 -0.0021216024 0.040034566 0.052274942
-0.10141181 -0.09527929 -0.022567546 -0.034473028 -0.044671785 -0.018020045 0.017186848 0.0716522
0.02060338 -0.06451453 -0.014173431 0.032997504 -0.09874117 -0.07052573 -0.089655 -0.041336123
-0.10394665 0.029288294 0.0016416156 -0.027787732 -0.0025052188 -0.090931185 -0.07961737 0.04442022
0.063580334 -0.04642082 0.028278189 0.0038490687 3.935269e-05 0.032552578 -0.016854811 -0.037679486
0.055514082 -0.033668466 0.046928007 -0.09134646 -0.06964625 0.012154514 -0.0717659 -0.08195569

conv_a_1.bias f4 [16]
00000000: 43fc 083e 399b 6a3d 6b2e e73c 7aa7 823d
00000010: 88b8 ef3d 93a5 d43c 8f67 25bd bf82 233c
00000020: 340f 403c a85c a7bc f28a 793d e028 1f3d
00000030: e210 1dbd 95da 21bd eae0 c43c c8bd 493b
0.1337748 0.057276938 0.028220376 0.063796 0.117051184 0.025957858 -0.040381964 0.009979903
0.011722375 -0.020429924 0.060923524 0.03885734 -0.03834618 -0.039515097 0.024033029 0.0030783284

linear_a_0.weight f4 [16, 144]
00000000: b58e 273c de7b 92bd d3d9 8dbd a58c 963c
00000010: 4917 48bd 9a49 b4bc 6d01 163c 4909 2c3c
00000020: 651a 16bd bba0 bbbc 1f39 3abd e4b9 b3bd
00000030: a009 5a3d d3ff 13bd 8bb3 87bd 5e28 71bd
00000040: 4457 953d 067a 553d cc89 8e3d 060f b6bd
00000050: fb55 01bd 8598 aebd 16b2 283b fe32 b03c
00000060: 6b15 3ebd d86f 20bc 2c2f 80bd febf a83d
00000070: 085a 663d 6364 09bd e7e9 b43c 5fe3 923d
00000080: 3413 a9bd 0e86 9c3d 7576 b1bd 11bc 27bc
00000090: f7d1 803d 50c6 83bc 50e8 163d f2f9 5fbd
000000a0: f3f3 3f3d 2d05 11bd 8605 4ebd 5923 5fbb
000000b0: d947 a1bc 8a25 eabc cf80 2ebd 6431 663d
000000c0: 0410 c4bc 383a dabc b7a6 96bd 57c3 883d
000000d0: d868 a2bd af98 843d 94d1 d2bc 0ec6 6cbd
000000e0: 84cb debc 2f93 94bd bf72 97bc 4376 773d
000000f0: 7130 393c eaa1 923d 6823 bc3b 6ea6 933d
00000100: 4f6a 18bd 4c40 adbd d250 083d 40e8 89bc
00000110: abbd 193d 3c37 483d 64bc 623c 7e12 05bd
00000120: 6edc 7e3d 9558 5fbb 5304 243d 0c3b 82bd
00000130: 9c64 81bc 6b66 5cbb 0b0f 8cbd 6475 5abd
00000140: d4b4 ba3c 8a39 8e3d 0e26 373d 39ea 993d
00000150: e512 523d 8f9c 0cbd 6a13 2c3d 194a a6bd
00000160: 228b 0bbd 50a9 4cbd fc58 75bd 4b9a b2bd
00000170: 148d 223d 6843 41bd affb a9bd b761 1bbd
00000180: e72c 703d c0c6 78bc c27b 153b 368d f73c
00000190: 6c92 1f3a 6665 a0bd 6628 943d 8d0e f73a
000001a0: f6e4 803d 7d22 be3c c62d 3dbd af66 bd3c
000001b0: 6679 573c 6036 38bc 0410 9c3d 4e65 12bc
000001c0: 2362 c8bc 6cc3 a43c 6067 9dbc 3444 ae3d
000001d0: 2e41 9b3d 59ef ca3c 37ed 6c3d 7702 87bb
000001e0: 8c3a 863d 8a27 613d 0a9e 843d 38db 3c3c
000001f0: 1c66 94bd 63e4 703c 9f77 6e3c 4dfb 4e3d
00000200: 5908 84bd 4fd0 95bd 1ca7 2a3d 717c 9bbc
00000210: 2b17 c23c c170 a8bc 2dbe dd3c 216f 4ebd
00000220: 4d47 5fbd 1f57 55bd 6ebd 3fbc c45f b6bd
00000230: 73de d4bd 152a 153d 7284 3bbd 9285 aabd
00000240: ffb9 8dbd 8542 d63c 1c83 81bd 0cc7 92bd
00000250: 21aa d13c 7f99 89bd c4cd 8dbd b4f7 d8bb
00000260: 7bba a3bc 6833 1bbd 3b1c c33b 415c a6bc
00000270: 5a22 5c3d f23c 4ebd 6a1c f23c 5055 c8bc
00000280: 84ea 153d bc63 34bd 7025 44bd 536d 53bc
00000290: 02ba 273d b738 ca3c 7b9a 793b d0b3 203d
000002a0: 9b51 0b3d b816 35bc b468 2fbd 01c3 f2bc
000002b0: 7e72 76bd 06f8 a6bd 5f77 9e3d 79c3 66bd
000002c0: 751a b9bc 48ce 953d 2880 89bd 1b1b 16bd
000002d0: c46f 22bd 57be 3cbd 6b26 88bc 669a 81bc
000002e0: 176b 443d 7488 b33b 07ad 2b3d 3351 5c3b
000002f0: 7397 85b9 5a98 873d cfc5 f9bc 1ad1 b7bd
00000300: 9fb0 afbd 2dc6 98bd 9d20 32bc cace 073d
00000310: eadb f83c 671a 97bc 79e5 963d 625c 85bd
00000320: 861c 033d 9b09 5c3d 893e 08bd 1977 98bb
00000330: f55e 7ebd 521a 63bd ebbc 353d 5372 0dbb
00000340: 2a45 bfbb 717e 7fbb 8885 3e3d cb06 44bc
00000350: 99c1 03bd b83e a0bd 8828 873d e696 02bd
00000360: 884a 6b3d cca7 8d3d c85f 40bd feef 2dbd
00000370: f082 b33d 0ce2 143d 8df9 7dbd 0ec1 0dbc
00000380: ff0d c7bc f177 97bd b7ca 8ebd 4342 923c
00000390: 0150 fabc 7823 df3a 1b9f 7abd 390f 1dbd
000003a0: a16c 513d 5d8a 51bb 9891 1b3d df5c a73d
000003b0: dcaa dd3c 3bb2 833c 4369 673d 6b9d 743d
000003c0: febe 723d 6b3d 0e3c f86f 47bd f8bb f03c
000003d0: eb51 51bd e11b 85bd 1c51 1ebd b0be d43c
000003e0: bcde 23bd 246e 1d3d 283d 50bb fb9b 2cbd
000003f0: a6af 57bd 7e49 1dbd 5e92 95bd 8b81 733c
0.010226895 -0.07152532 -0.06926312 0.018377611 -0.04885033 -0.022007752 0.009155613 0.010500261
-0.036646266 -0.02290379 -0.04546463 -0.0877569 0.053231835 -0.036132645 -0.06626042 -0.058876388
0.07292035 0.052118324 0.069598764 -0.08889584 -0.031576138 -0.085251845 0.0025740913 0.02150869
-0.046407145 -0.009792291 -0.06258997 0.082397446 0.056238204 -0.033543 0.02208419 0.07172274
-0.08255616 0.076427564 -0.08665172 -0.01023771 0.062900476 -0.016085774 0.036842644 -0.054681726
0.046863507 -0.035405327 -0.050298236 -0.0034048168 -0.01968758 -0.028582353 -0.04260331 0.056199446
-0.023933418 -0.026639089 -0.07356017 0.06677883 -0.079301536 0.064744346 -0.0257347 -0.057806067
-0.027196653 -0.072546355 -0.018487332 0.060415518 0.011303053 0.07159789 0.0057415254 0.07209478
-0.03721076 -0.08459529 0.0332802 -0.016834378 0.037534397 0.0488808 0.013838861 -0.03248834
0.062221937 -0.0034079899 0.040043186 -0.063589185 -0.015795045 -0.0033630382 -0.06838807 -0.05333461
0.022791304 0.069445685 0.044714026 0.075153776 0.05128755 -0.034328993 0.042010702 -0.08119602
-0.034068234 -0.049966156 -0.059899315 -0.08720835 0.039685324 -0.047183424 -0.08299958 -0.037934985
0.058636572 -0.015184104 0.002280936 0.030218702 0.0006087187 -0.0783184 0.07234268 0.0018848941
0.06293671 0.023209805 -0.04618623 0.023120252 0.013151502 -0.011243433 0.07620242 -0.008935286
-0.024460858 0.020112716 -0.019214332 0.085091025 0.075807914 0.024772333 0.057843413 -0.004120167
0.06554136 0.054969348 0.06475456 0.011526875 -0.07246038 0.014702889 0.014554887 0.050532628
-0.06446905 -0.07315122 0.041663274 -0.018980237 0.023692688 -0.020561578 0.027068222 -0.05039895
-0.054511357 -0.05208504 -0.011702878 -0.089049846 -0.10393991 0.036417086 -0.045780607 -0.08326258
-0.069202416 0.026154766 -0.06323835 -0.071668714 0.02559382 -0.0671873 -0.06924012 -0.0066213254
-0.019986382 -0.03789082 0.005954293 -0.020307662 0.053743698 -0.05035109 0.029554565 -0.024454743
0.036600605 -0.044040427 -0.047887266 -0.012904483 0.040948875 0.024685247 0.0038086462 0.039233983
0.034013372 -0.01105278 -0.042824462 -0.029634 -0.060167782 -0.081527755 0.07737612 -0.05633876
-0.022595624 0.07314736 -0.06713897 -0.036646944 -0.03965737 -0.04607996 -0.016619882 -0.015820693
0.04795369 0.005478913 0.04191306 0.0033617734 -0.00025480575 0.06620856 -0.03048983 -0.0897543
-0.0857861 -0.07459674 -0.010872033 0.033156194 0.0303783 -0.018445207 0.07367987 -0.06511761
0.032009624 0.053720098 -0.033262763 -0.0046528694 -0.062102277 -0.055445023 0.04436962 -0.0021583035
-0.0058371024 -0.0038985277 0.046514064 -0.01196451 -0.03216705 -0.07824463 0.065995276 -0.03188219
0.057444125 0.0691677 -0.046966344 -0.042465203 0.08765209 0.036348388 -0.06200557 -0.008651985
-0.024298666 -0.07395924 -0.069722585 0.017853862 -0.030555727 0.001702412 -0.06118689 -0.038344596
0.051128987 -0.003197334 0.037980646 0.08172011 0.027059011 0.016076198 0.05649687 0.059720438
0.059264176 0.008681635 -0.048690766 0.029386505 -0.051103514 -0.06499458 -0.03865157 0.025969833
-0.040007338 0.038435116 -0.0031774733 -0.042140942 -0.052657746 -0.038400166 -0.07303308 0.014862428

linear_a_0.bias f4 [16]
00000000: b6ca 96bd 212c 7ebd 755d c83d 70fd 2e3d
00000010: 71b0 8c3d dfbf 87bc 1d9e 3fbd 1dff b93b
00000020: 4b37 663d 11e8 863d 6cdb 6d3d 836e d0bc
00000030: 46af 5b3d 13da f3bc d947 993c 4003 953d
-0.07362883 -0.062053803 0.097834505 0.042722166 0.06869591 -0.016570983 -0.046781648 0.005676164
0.056205075 0.06587232 0.058070585 -0.025443321 0.05363395 -0.029767072 0.018711017 0.072760105

GRU_a.weight_ih_l0 f4 [48, 16]
00000000: bc4d 0abe 7e0e c53c b37a 853e c2b9 593e
00000010: 4f17 0cbe 42e6 9cbd c26d 35be 3487 46be
00000020: 2059 4c3e 041b 20bc 4447 6ebe fc3d 373e
00000030: d033 16be c00b 44be a3bc 00be c956 71bd
00000040: e126 32bb 04ea 15bc ec0b 21be a17b 493e
00000050: 78ed 8a3c e65a b53d 2fea bc3d 983c 6bbe
00000060: 4cd1 af3c 1d72 623e c110 6c3e 30aa cf3c
00000070: e719 6c3e c8d2 c3bd 1bc4 35be 9550 49be
00000080: c81c ccbd e78d 6cbe 12f4 283e 9004 1e3d
00000090: 5a25 9dbd 3301 09be 8d4c 333d fbbf f9bd
000000a0: 02cc debd d1b2 25bd d4a4 6ebe daf6 5fbc
000000b0: 4c34 893e 39da 763e 2632 573d 0e3e 46be
000000c0: 0110 923d 22ab 13be 052d 6ebe 32e0 00be
000000d0: 1173 2ebe b4f3 023e 2099 56be 5228 15bd
000000e0: 5af9 0a3d 3352 fcbd 3243 eabd 07be ef3d
000000f0: 2d06 7fbe 348d f93d e124 c6bd c8ce 40be
00000100: 1f0b ccbc 38fc 43bd 7ca0 333c ec1e aabd
00000110: b902 393d a9e0 a53d bd69 263e 5a19 fdbd
00000120: e9bc 863d b357 3e3e 0488 a4bc 19ef 49bc
00000130: 25ab 1c3e 84b1 57be acc0 28be 65bc 753e
00000140: 1d9f b43c 3ea8 73bc 245f 97be c9e1 2cbe
00000150: ea46 033b 1dde 5dbd 7019 d43d b359 31be
00000160: 8043 c43d 9793 0ebe d337 bcbd 6645 553e
00000170: 8151 b8bc 4c97 44be c7b8 733d 4531 ac3d
00000180: 33bd 87bd 6094 73be f68d 1e3e c080 233e
00000190: a6ff 263e b105 f13d c7a0 f93c 1ed0 53be
000001a0: d29b 37be fdce 3bbd 9e44 843d a004 023b
000001b0: 7f30 a5bd b098 1b3e dee5 b93d 3ac5 3dbe
000001c0: 09b4 453e 66d9 033e 0f5c 473e 91bb c3bd
000001d0: 42fc d73d 5b3f be3c ea25 4f3e 7a43 273e
000001e0: ad5a c53b 50f9 043e 84bf abbd 9f30 efbd
000001f0: 146a 6b3d 7d24 d43d 6fec ff3d 1c8b ed3d
00000200: 4f8b 673e 8811 183e 301c 123e 1d43 6cbe
00000210: e55f 4fbe 0c13 8d3d 07a0 323e eddb 463d
00000220: 94e3 7d3d 17a9 d43d f046 f9bd 2738 12bd
00000230: df86 0cbe c865 fabd c7a2 95bd 667a 01be
00000240: ba3c 80bc b59e 68be 6c19 233e 4a29 42be
00000250: 7c27 86bd 2804 0fbd 4a7c 58be 1c62 9cbd
00000260: c617 533e d596 5cbe c082 3b3e f769 08be
00000270: 7ac4 65be 1eb2 e63d 9b97 a43d 4e32 293e
00000280: ee45 f93d 342b 163e cf10 343e 755b 6cbc
00000290: aebe 6b3e cb72 45be d23f 7bbe 5cf4 e6bd
000002a0: 76ba 30be 38b7 593e a22f 043e 54c8 653e
000002b0: 70bd 44bd 42d8 873e c399 11be 488f 31be
000002c0: b381 773e da26 533a 62f0 153d 5fca 98bd
000002d0: 3303 023e fe93 ffbc ff74 4c3e af8d 103e
000002e0: 373e debc 9e3e e1bd 6b2c 36be de00 113e
000002f0: e436 3a3d d41b 01be a190 4fbd 3bfc 26bc
00000300: 4e99 413e 33ad 0fbe 8338 d93a 2c33 16be
00000310: e5e9 583e 8e0a e1bd bc85 8fbd 912d 283e
00000320: 98c3 443e 1b75 123e ee44 823e 9944 40be
00000330: 8bde c2bd 6393 693e 9fe6 743e ea2e 6e3e
00000340: 8a2b 37be dfad c73d ad7c 283e 9137 033e
00000350: d201 053c 47de 593e 7929 643e bfd6 1e3e
00000360: 92e7 ab3d 8bf7 70be ce42 80be 7633 8d3d
00000370: 0803 7bbe 30c5 febc c195 09be 715e d33b
00000380: 33bb d6bd 043b 1b3e f7c6 7b3e 4851 75be
00000390: 539e 683e 6278 4bbe 335a 25be 5f09 be3d
000003a0: d52c 7cbd 1758 3ebe c75d f6bd 851e 5c3e
000003b0: add8 1dbe 16a2 e2bd 4c33 0ebe 5ca3 ec3d
000003c0: a435 203e 6055 e4bd 348f 5dbc 9438 e8bc
000003d0: 009c 57be e0cc 0d3d 80dc 933d 9ca6 373e
000003e0: c95a 753e 98f7 08be 258f 85bd d7ec afbd
000003f0: df66 37be 20b7 da3d d0a7 943d 84fe 41bd
-0.13506216 0.024054762 0.26070175 0.21262267 -0.13680767 -0.07661106 -0.1771765 -0.19387513
0.19955873 -0.009772066 -0.23269373 0.17894739 -0.14668202 -0.19145107 -0.12571959 -0.058920655
-0.0027183818 -0.009150032 -0.15727204 0.19676067 0.016958937 0.08855228 0.092243545 -0.22972333
0.021462105 0.22113843 0.23053266 0.025349706 0.23056756 -0.09561688 -0.1775059 -0.19659646
-0.09966427 -0.23101006 0.16499355 0.03857857 -0.0767314 -0.13379364 0.043774176 -0.121948205
-0.10878755 -0.040453736 -0.23305064 -0.013669694 0.26797712 0.24106683 0.05253806 -0.1935961
0.07131959 -0.1442075 -0.23259361 -0.12585524 -0.17036082 0.12788278 -0.2095685 -0.036415406
0.033929206 -0.12320366 -0.11438598 0.11706167 -0.249047 0.121851355 -0.09675003 -0.18828881
-0.024907647 -0.047847956 0.010963555 -0.08306679 0.045168612 0.08099491 0.16251273 -0.12358351
0.065790005 0.18588142 -0.020084389 -0.012325072 0.15299661 -0.2106381 -0.16479748 0.23997648
0.022048527 -0.014871655 -0.29564774 -0.16883005 0.0020031282 -0.0541669 0.10356414 -0.17319374
0.09583187 -0.13923489 -0.09190335 0.20827255 -0.022499802 -0.1919834 0.05950239 0.08407835
-0.06627884 -0.2378707 0.15483841 0.15967083 0.1630846 0.11768664 0.030472172 -0.20684859
-0.17930534 -0.045851696 0.064584 0.0019839182 -0.080658905 0.15194964 0.09077047 -0.18532267
0.19306959 0.128759 0.19468711 -0.0955726 0.10546161 0.02322357 0.20229307 0.16334334
0.0060227723 0.1298573 -0.08386138 -0.116791956 0.05747421 0.10358522 0.12496268 0.11598799
0.22611736 0.14850438 0.14268565 -0.23072477 -0.20251425 0.068883985 0.17443858 0.04854958
0.061984614 0.10383814 -0.121717334 -0.035698082 -0.13723324 -0.122264445 -0.07306438 -0.12644348
-0.015653957 -0.22716792 0.15927666 -0.18961063 -0.065505 -0.034916073 -0.21141163 -0.076359004
0.20614538 -0.21541913 0.18311596 -0.13321672 -0.22438231 0.11264442 0.08036729 0.16523096
0.12171541 0.14664918 0.17584537 -0.014426102 0.23021957 -0.19282071 -0.24536064 -0.112770766
-0.17258629 0.21261299 0.12908795 0.224397 -0.048032224 0.2653218 -0.14218812 -0.17339814
0.2417057 0.00080548006 0.0366062 -0.07460474 0.12696533 -0.031198498 0.19966505 0.14116548
-0.027129276 -0.109982714 -0.17790382 0.14160487 0.045462504 -0.12608272 -0.05067504 -0.010191972
0.18906137 -0.14030914 0.0016572628 -0.14667958 0.21182974 -0.10988341 -0.0700793 0.16423632
0.19215238 0.14302485 0.25443214 -0.18776168 -0.09515103 0.2281013 0.239161 0.23260084
-0.17887703 0.0974996 0.1645381 0.12814166 0.00811811 0.21276198 0.22281446 0.15511607
0.08393778 -0.2353193 -0.25050968 0.06894581 -0.24512875 -0.031099886 -0.13436033 0.0064504673
-0.10484924 0.15159231 0.24587618 -0.23956788 0.22716646 -0.19870141 -0.1614769 0.09279131
-0.061566193 -0.18588291 -0.12029605 0.21496017 -0.15414687 -0.11066072 -0.13886756 0.11554596
0.15645462 -0.111490965 -0.013522912 -0.028347291 -0.21055603 0.034619212 0.072197914 0.1793465
0.23960413 -0.133757 -0.06521443 -0.085900955 -0.17910336 0.106794596 0.0725857 -0.047361866

GRU_a.weight_hh_l0 f4 [48, 16]
00000000: 2837 bd3d 36db 4d3e 6492 633e 7815 593d
00000010: 6b71 1dbe 49ca 2f3e 9d9b 553b 3d01 75bd
00000020: b8fb 94bc 8027 343d 8a49 e7bd ce41 233e
00000030: cfc6 35be 9537 1e3d 7152 78be ba61 aa3d
00000040: efa1 c2bd 3895 1cbd b007 303e 4a2f 913d
00000050: 8b74 253d 700b dd3d fdd2 aebc 9fde 3a3e
00000060: 6116 453c 3186 3b3e d905 543e ce83 bfbc
00000070: 761f 823e 4ce4 5f3d 9162 1f3e 49a3 62be
00000080: 954c 87be db11 bc3d 083c cb3d 215d f8bd
00000090: 3e18 cebd 526f 503d 66a3 763e ae69 bf3c
000000a0: 0def 4a3e fc92 4a3e b349 613d 9401 673a
000000b0: 716d bebd 0743 3fbe 262d 0f3e b599 48bd
000000c0: 04b8 f2bd 18a9 58bd 8064 f0bd f6a7 38bd
000000d0: 6761 173e 9624 4c3e 12ba 0bbe baac 2b3d
000000e0: dc2b dcbd 3918 7fbe 0917 023e 26b8 3f3e
000000f0: bdf1 413e 1d8a 503e 5fbf babd cda8 5e3d
00000100: 7be1 913d 57bf 2abe 2df9 663e c80a 64be
00000110: c851 193c 40ee cbbd 7b3c d63d 3803 443e
00000120: f759 c33c d5a6 fbbd 363b 473e 3ad3 7ebe
00000130: 2749 c6bc 19e0 6fbe 7b47 aebc 8297 253e
00000140: 46f4 ed3d 9d81 01be 2e31 02be bf26 cd3d
00000150: 2fb5 e1bd 0298 7abe a768 333e d5c6 d23d
00000160: 2e65 36be 4d25 72be a493 c73d 020e 83bd
00000170: 9fa6 04be f097 463e df62 e63d c239 593e
00000180: e7b9 6d3c 4491 593c e8e1 0ebe a2cf 973d
00000190: 4029 02be c7a5 3bbd c122 193d dcd3 153e
000001a0: e5f0 ba3d 4720 88be bee5 e2bc 5e48 263e
000001b0: 3548 2fbd 93e1 563e 1a4e e4bd 4a97 69be
000001c0: 0628 793e c132 d4bd 0443 343e 7dee 473e
000001d0: eb66 3abe 7c9c 6ebe 2982 00bd 12ed 1ebe
000001e0: 2ca7 493e 0912 0d3e 6521 663e 2411 ccbd
000001f0: 901d 823d ab4c b23c 9a1b 29be f282 09be
00000200: 011b 1c3e e354 54bc da04 3b3e 8626 5d3d
00000210: 6571 c23d 57c5 bc3d 4225 4cbe 9068 2ebe
00000220: b781 22be d8c7 70bd 2400 cf3d a91a d9bd
00000230: 2845 22be aa9c 79bd 55f7 45be 40b5 bf3c
00000240: c14e 82be f063 9dbc f33c 32be f6aa 81be
00000250: c782 3c3e 17f5 843e 7ff6 1bbe 54c1 253d
00000260: fdac 5ebe 1aa8 3bbe c29e 6bbe 4105 42be
00000270: 4f6b 6d3e c156 653d 0eb0 c43d 35e8 17be
00000280: e4c0 1b3d 4438 fa3d f485 003e d367 07bd
00000290: f705 39be e8a4 163e 1dbe 813e d5de b2bd
000002a0: 9871 2e3e 9268 863c c9b3 29bd 6b1f 013e
000002b0: 894d 9dbd 1ac5 de3d da2c 3fbd 0ca1 71be
000002c0: 831d 39bc 91fe b03d b351 0e3d 4791 c93c
000002d0: 0c2e a5bd 0b41 483e cde4 40be e297 aabc
000002e0: 1908 833c ed58 9e3d fdb7 cabd 758f 123d
000002f0: 535a 5fbe 8eba a93d 180d c2bd 2bc7 063e
00000300: b4e2 783e 14b8 5d3e a01f 27be b64a 053e
00000310: ef52 b8bd 6d87 313d 0458 ba3d b595 45be
00000320: 2cc4 6dbe a9a7 fb3c 3e61 4f3d 7cca 12be
00000330: 8011 113e a927 1f3e dff1 4fbd 4f19 41be
00000340: 9986 c63d 8232 2ebe 3934 85bd 7b00 76bc
00000350: 7487 213e fa4a 5a3d 9c32 63be 02d0 47be
00000360: e969 eebd 8997 5bbe 5a8e ec3c 484e abbd
00000370: 1e7a 5dbd 2c4d 79be e192 693e e00d 0bbe
00000380: d6ba aabd 956b 323e b3c7 d6bc 4085 7cbd
00000390: 808b f93d 23af a2bd cf68 4d3e 2542 8bbc
000003a0: 2d80 f23d 0033 723c f11a f4bd a2c1 f1bd
000003b0: 22af 893b ee0b 24bd 801e 213e 5b0c 313e
000003c0: 77b9 13be 1e56 11be d07d f7bc 7cf5 373e
000003d0: c2d1 f2bb 6e5b 473e e416 bc3d cfee 91bc
000003e0: 4932 51be e0c8 97bc b3d5 22be b3cd 0bbe
000003f0: f211 143e 80c4 17be ec04 03be 8a8c 563e
0.09239036 0.20103154 0.22223812 0.05299899 -0.15375297 0.1716701 0.0032593973 -0.059815634
-0.018186435 0.043982983 -0.11293323 0.15943071 -0.1775162 0.038627226 -0.24250199 0.08319421
-0.09503543 -0.038228244 0.17190433 0.07089098 0.040394347 0.10793197 -0.021340841 0.18248986
0.012029261 0.18312909 0.20705356 -0.023378279 0.25414628 0.05466108 0.15564944 -0.22132601
-0.26425615 0.09183093 0.099235594 -0.12127138 -0.100632176 0.050887413 0.24085769 0.023365822
0.19817753 0.19782633 0.055001926 0.0008812186 -0.09298218 -0.18677913 0.13982067 -0.04897471
-0.118515044 -0.052895635 -0.11737919 -0.045082055 0.1478325 0.19935831 -0.13645199 0.04191277
-0.10750553 -0.24911584 0.127041 0.18722591 0.18939872 0.20365186 -0.091185324 0.0543602
0.07123085 -0.16674553 0.2255599 -0.22269738 0.009357877 -0.09957552 0.104607545 0.19141853
0.02384661 -0.1228768 0.19456181 -0.24885264 -0.024204804 -0.2342533 -0.021274319 0.16171077
0.11618857 -0.126471 -0.12714073 0.10017156 -0.11020886 -0.24472049 0.1752039 0.102918305
-0.17812034 -0.23647042 0.09744957 -0.06399156 -0.12954186 0.19393897 0.11249327 0.21213439
0.014509655 0.013279263 -0.13953364 0.0741265 -0.12711048 -0.045812394 0.03738666 0.14631599
0.09127978 -0.26587126 -0.02769744 0.16238543 -0.04279347 0.20984487 -0.11147709 -0.22811618
0.24331674 -0.10361243 0.1760369 0.1952457 -0.18203323 -0.23301882 -0.03137413 -0.15520123
0.19692677 0.13776411 0.22473677 -0.09964207 0.06353295 0.021765074 -0.16514435 -0.13428858
0.15244676 -0.012959692 0.1826357 0.053991817 0.094942845 0.09217327 -0.19936088 -0.17032075
-0.15869795 -0.058784336 0.10107449 -0.10600788 -0.15846694 -0.060940422 -0.19332631 0.023401856
-0.2545071 -0.019212693 -0.17406063 -0.25325745 0.18409263 0.2596824 -0.1523075 0.040467575
-0.21745677 -0.18325844 -0.2300978 -0.18947317 0.23185466 0.055990938 0.09603892 -0.14834674
0.03802575 0.12217763 0.12551099 -0.033058 -0.18068682 0.14711344 0.25340357 -0.08733908
0.1703552 0.016407285 -0.041431222 0.12609641 -0.07680804 0.10877438 -0.046673633 -0.23596591
-0.01129854 0.08642305 0.034745883 0.024605406 -0.08065423 0.19556062 -0.1883728 -0.020824376
0.015995072 0.07731805 -0.09898374 0.035781343 -0.218118 0.082875356 -0.09475154 0.13161914
0.2430523 0.21652251 -0.16320658 0.13016781 -0.09000193 0.043342043 0.09098819 -0.1929539
-0.23219365 0.030719595 0.050629847 -0.14335054 0.14166832 0.15542473 -0.050767776 -0.1885731
0.09693641 -0.17011455 -0.06504101 -0.015014763 0.15774328 0.05329416 -0.22187275 -0.19512942
-0.116412945 -0.21444525 0.028876472 -0.0836454 -0.05407154 -0.24345845 0.22809936 -0.13579512
-0.083364174 0.17423852 -0.02621827 -0.061650515 0.12184811 -0.07943561 0.20059513 -0.016999314
0.11840854 0.014782667 -0.11919201 -0.11804511 0.0042017857 -0.04005044 0.15734291 0.1728987
-0.14426218 -0.14193007 -0.03021136 0.17964739 -0.007410259 0.19468471 0.091840535 -0.017814068
-0.20429339 -0.018528402 -0.15901832 -0.13652687 0.1445997 -0.14821053 -0.12794846 0.20952049

GRU_a.bias_ih_l0 f4 [48]
00000000: bad6 1bbe f51f 04be 9b98 b33d 492b b53d
00000010: 7c23 623e f31b e93d dd2d 6a3e 7ec4 653e
00000020: da3c 9ebd 177e 0e3e 29ae 303e 4864 c5bd
00000030: 0ea3 acbd 210e 5f3d f58c 163e a977 443d
00000040: 618a 13be 4e7f 82be 9610 9e3c 1845 3bbe
00000050: 159c 983d a3bb c0bd f06f 2f3e 79a6 523e
00000060: dadf 2d3e cb4a 553e 6ccf 6dbe 2f1c 0a3e
00000070: 4083 543e 598d c53c 8b60 e13a fda9 fcbd
00000080: 65aa 6cbe 3d36 763e 2938 a53d 9999 5abe
00000090: c3a7 263e cb9f 6d3e ec8a 7b3d e714 003e
000000a0: 959f 8abe b0ff 1abe 4a17 7abe c24b 7bbe
000000b0: 9c7a cf3c 87c8 1a3c 3357 aabd 7573 343b
-0.1521863 -0.12902816 0.087693416 0.088461466 0.22083849 0.11382284 0.22869058 0.22438237
-0.0772645 0.13915287 0.17253937 -0.09638268 -0.08429538 0.054456834 0.14702208 0.04796568
-0.14408256 -0.2548775 0.019295018 -0.18288076 0.07451645 -0.09410789 0.17132545 0.20571317
0.16979924 0.20829313 -0.23223656 0.13487314 0.20753193 0.024115251 0.001719491 -0.1233711
-0.23111875 0.24044128 0.08067352 -0.21347655 0.16274934 0.23205487 0.061411783 0.12507974
-0.27074876 -0.151366 -0.24422947 -0.24540618 0.02532702 0.0094472235 -0.08317413 0.0027534638

GRU_a.bias_hh_l0 f4 [48]
00000000: 114a f93d c31f 413e 90ab d8bd 72fc 1a3e
00000010: fba5 b1bd f788 fd3d 5c69 f5bd ae6d 4cbe
00000020: 02ba f33c c057 12bd f491 e33c 2ce0 13bd
00000030: a27d 75bd 852a 5bbe f14e 703e eeec 1fbe
00000040: 83cc 843e c29b 38be 1640 b63d e06f 6abe
00000050: 20cc 6d3e 80d0 023e efb0 473e 4d12 783e
00000060: 18a7 3b3e 2fad 05be b1ad c5bd b8ba 903d
00000070: a66b a3ba 80ee a5be c629 47be 6ea4 8c3e
00000080: c261 733e f67f 903d 52b3 1b3e b7de 6d3e
00000090: 3723 39be b685 4cbe 58ed 573e 78a1 643e
000000a0: 36f5 41be 8dd7 7bbe 0fd5 3b3d 5bf9 c3bd
000000b0: 6647 5fbe 83e5 fbbd 9ce6 71be f1cb 113e
0.1217233 0.18859772 -0.10579598 0.15135363 -0.086742364 0.123796396 -0.11982986 -0.19963714
0.029751781 -0.035728216 0.027779557 -0.03610246 -0.059934266 -0.21402939 0.23467614 -0.15617725
0.2593728 -0.18028167 0.08898942 -0.2289424 0.23222399 0.12774849 0.19501089 0.24225731
0.1832546 -0.13054346 -0.0965227 0.07066864 -0.0012467995 -0.32408524 -0.19449529 0.274692
0.2376776 0.070556566 0.15205124 0.2322949 -0.1807984 -0.19972882 0.21086633 0.2232722
-0.18941197 -0.24593945 0.045857485 -0.09569045 -0.2180458 -0.12299635 -0.23623127 0.14237954

linear_a.weight f4 [4, 16]
00000000: 8b26 edbd a165 ad3e 49c6 023e 19a1 d9bd
00000010: 5a88 25bc de82 d83e 7842 ce3e 0bb2 0dbe
00000020: 8b79 95bc 80c8 2b3e ec21 f33e e612 2a3e
00000030: 87b4 11bc 932b 7d3e 7127 6d3c eed2 183e
00000040: 2089 c4bc 5065 96be cf3f 12bf 5d42 43be
00000050: 5b63 473e d587 04bf 3bca 07bf 2e8f 2ebe
00000060: a570 08bc 407b f43c ef2a 75be 88c2 3f3e
00000070: 341d b6be b770 97be d476 853e 17c6 eb3c
00000080: ab56 3abd 9f88 af3e 85a5 1a3e 6e7b f0bd
00000090: 47d2 73be 6ad8 813e c11d 843e b7f4 18be
000000a0: b9c5 ddbb 2444 adbd 3681 823e 804a 473c
000000b0: 13de 82bd e63d de3e 78d3 223e 90f7 2abe
000000c0: a32d 593e 6ade cbbe d824 96be dba8 b23d
000000d0: 5e05 4bbe 226d 1bbf eb8d 9dbe 65e7 173d
000000e0: 1a76 543e 00e2 3ebd ab85 21be ae14 6d3e
000000f0: 624c 513d 20d6 7dbe dba1 94bd f6ff 75bd
-0.11579617 0.338666 0.12770952 -0.1062643 -0.0101033095 0.42287344 0.40285087 -0.13837449
-0.018246433 0.16775703 0.47486818 0.16608772 -0.008893139 0.24723653 0.014474736 0.14924213
-0.023991168 -0.2937417 -0.57128614 -0.19068284 0.19471495 -0.51769763 -0.53042954 -0.17046806
-0.008327638 0.029843926 -0.23942159 0.18726552 -0.35569155 -0.29578182 0.2606722 0.02878098
-0.04549281 0.3428392 0.15102203 -0.11742292 -0.23810683 0.25360423 0.2580395 -0.14937101
-0.006767955 -0.084602624 0.25489205 0.012163758 -0.063900135 0.434066 0.15900981 -0.16696
0.21208815 -0.39818126 -0.29324985 0.08723613 -0.19826266 -0.607134 -0.30772337 0.03708591
0.20748177 -0.04660225 -0.15773647 0.2315242 0.051098235 -0.24788713 -0.07257434 -0.060058556

linear_a.bias f4 [4]
00000000: 374d 273e 0c6c 20bd f92d 263e 486b ffbe
0.16338049 -0.03916554 0.16228475 -0.49886537

conv_v_0.weight f4 [16, 7, 3, 3]
00000000: 0fab 323e f6c1 263e e3cc 913c d00a 943d
00000010: e8e7 013e 2e02 bcbd 393d 59be d757 403e
00000020: 3246 08be 4eb0 e53d 0fbe 2b3e fd72 503e
00000030: e1b8 57bd 354e 28be e1a6 123e 8de2 323e
00000040: 5698 0ebe 9296 f13d 1614 5c3e 4d18 d8be
00000050: 162f 393e f76e 203e e6e6 9bbe 989f 93be
00000060: 8ffe 4d3e c7ab 083e a277 d03d a8d2 5f3e
00000070: 54c3 9abe f56e 8ebc 071d 9f3d 8721 6fbe
00000080: 3de9 22be 08eb 343e 7fd8 3d3e 044d 21bd
00000090: b2c1 c43a 49cb 803d 6a8f 74bd f29f 01be
000000a0: 7a0e 81bd 5076 72bd ec73 e53d d7c1 d1bc
000000b0: 0e6f 6f3d 3a42 c53d a13c 9fbd 69da e3bc
000000c0: d2f1 44bd bbc9 243d c442 a93d 8594 bdbd
000000d0: cbe0 b3bd 2c8d a2bb f5f2 0cbd 6a4b fa3d
000000e0: d5b5 d73d 03a9 42bd efa8 b73d fe0e 453b
000000f0: 47e2 a23d 5f7d 70bc e39a b93d 4d17 0a3d
00000100: 75e1 0a3e 28f6 09be 23fd c03d 5235 1e3e
00000110: a59e 7f3d 2a53 acbe dfcc d43d 89de 67be
00000120: 40c8 1f3c 142c d23d f879 eb3d 043b e63d
00000130: d584 c5bd ed75 0ebe 2743 ad3d de66 9b3d
00000140: c7f3 0c3d 6637 7ebe 8569 a73d f4c4 56bd
00000150: 0fa6 223e 0c75 f13d d226 b63d 9d62 a93d
00000160: 053f 24be 2082 8d3d 8aaf 85be 6c5b 5e3d
00000170: d3ac 51bd c78f 83bd 080c 023d b992 a03d
00000180: 0a41 20be f69c e3b8 ae11 a73c b90d c3bd
00000190: 4161 723c 9371 efbd 2de4 b7bd 0017 01bd
000001a0: 93ab d83c 7e90 a2bc ca2f fcbb 8106 84bd
000001b0: 7ec4 fc3d dc64 b4bd 5cda abbd 632c b5bd
000001c0: f2db 9c3d 5f91 5a3d 153f 103d c8ae 103c
000001d0: 3096 5ebd 6be4 39be 692b 453c 3256 c53b
000001e0: e629 debb a6ec e5bd ecd8 36be cc20 e9bd
000001f0: ea8e 43be 015b d1bd bf4a 153e b955 cd3c
00000200: d311 d43d 38b8 87bd c1e6 e1bc 50c3 e6bd
00000210: 04a9 de3d 62eb 37bc 1e75 083c 17ee 89bd
00000220: a877 0a3d b889 f23d 5a6a ab3d 5064 0a3d
00000230: 50a1 1f3e 57cf 703d cebc 473c 5d05 1abd
00000240: 1fea c03c 3d91 e0bd 1a98 bfbc d0a1 a1bd
00000250: 8719 29be 5d53 e43c 7fc5 273c 01b5 33bc
00000260: 05f0 ffbd d16e 353e eba3 cebd d6cb 613d
00000270: 4f7e 4f3d 3758 583e c53b 1b3e 6a12 9d3d
00000280: f590 51bd dada 0e3e eae9 50be 6e71 063c
00000290: 604d 33be f7a7 2bbd 2467 a3bd 0cf3 8d3c
000002a0: 8938 0fbe 0ce5 c7bd 1883 39be 8cf4 a4bd
000002b0: 1dc8 ce3d dd02 be3d c54b ed3c 516b ffbd
000002c0: 12c1 373d a83b 14be 10c0 dbbd e44b 03be
000002d0: 063b cabc 51ee cebc 157c 94bd ef85 6fbd
000002e0: 8f23 14bd 0481 12bd 7cf6 9b3d 222e eb3d
000002f0: 33f3 3e3d 3777 ee3a 832a 9a3d 6594 5abc
00000300: 68c2 18be a30d 3abd 066a 04bd ea22 b1bc
00000310: 6914 8b3d 3e25 243d 885c 5dbd 1754 0d3e
00000320: 0e8e 8ebd 9d6f 1c3d d716 4bbe c63b ff3d
00000330: e648 78bc feb7 13be 7fdc c23d 50d1 0b3e
00000340: c71e 06be a4b2 ba3c 920b 363e 1b07 0f3e
00000350: b417 7a3c 6955 5a3e dad4 e73d 6b94 23be
00000360: 4ff3 e43c 3605 6fbe cb68 b13c bd3d 59bd
00000370: 6cb5 40bc 78fa 1abd ec20 abbd 2a08 89bd
00000380: 0882 b4bd 7e43 9f3d 21a5 063c ee46 053d
00000390: a831 823d fc92 c03d 794c 1fbd cf08 87bc
000003a0: a134 983d d3c2 1bbd 00aa 943d 4597 983c
000003b0: ee4e da3d 2e60 d23d 1dc7 5ebd be08 8a3d
000003c0: d8e5 453c 99f1 3a3d fcc7 f53c b383 76bd
000003d0: 72c4 96bd d7e0 76bd a7e2 45be 04bf 1abe
000003e0: a0e4 90bd 2166 01be baa7 5ebd 1367 ebbd
000003f0: 8ea0 593d 1178 1cbd a051 c33b cd45 213e
0.17448066 0.16284928 0.017797893 0.07228625 0.12686121 -0.09180103 -0.21214761 0.18783508
-0.13308027 0.11215268 0.1677172 0.20356365 -0.05266655 -0.16436084 0.14321472 0.17469235
-0.13925299 0.11796297 0.21492037 -0.4220604 0.18084368 0.1566733 -0.304496 -0.28832698
0.20116638 0.13346778 0.10179068 0.21857703 -0.3022715 -0.017386893 0.077692084 -0.23352633
-0.15909286 0.17667782 0.18539618 -0.03938009 0.0015011339 0.062887736 -0.059707083 -0.1265867
-0.06301589 -0.059194863 0.11203751 -0.025605125 0.05845552 0.09631772 -0.07775236 -0.027814107
-0.04808218 0.040231448 0.08264688 -0.092568435 -0.0878311 -0.0049606767 -0.03441139 0.12221415
0.105327286 -0.047524463 0.089677684 0.003006875 0.07953315 -0.014678328 0.090627454 0.033713628
0.13562568 -0.13472807 0.09423282 0.15450028 0.062407155 -0.336572 0.103906386 -0.22643484
0.009752333 0.102623135 0.11497873 0.11241725 -0.09644476 -0.13912173 0.08460074 0.0758798
0.03441217 -0.2482582 0.08174423 -0.052433923 0.15883659 0.11789903 0.08894123 0.08270762
-0.16039665 0.06909585 -0.26110488 0.054286405 -0.05119021 -0.06423908 0.031749755 0.07840485
-0.1564981 -0.0001085344 0.020394173 -0.09524102 0.014793695 -0.116915844 -0.08979068 -0.031516075
0.026449 -0.01984429 -0.0076961266 -0.06446553 0.123421654 -0.088083 -0.08391258 -0.08846357
0.07659139 0.053361293 0.03521641 0.008830734 -0.05434245 -0.18153541 0.012034276 0.006022238
-0.006779897 -0.11226778 -0.17856187 -0.11383209 -0.19097486 -0.10222436 0.14579295 0.02506529
0.10354962 -0.06626934 -0.027575852 -0.11267722 0.10872081 -0.011225553 0.008328704 -0.06734865
0.03380552 0.11842674 0.08369894 0.03378707 0.1558888 0.058791485 0.012191011 -0.03760277
0.023549138 -0.10965202 -0.023387957 -0.078921914 -0.16513644 0.027871782 0.010239958 -0.010968448
-0.12496952 0.17718054 -0.100898586 0.055126034 0.050657567 0.21127401 0.15159519 0.07669528
-0.051163632 0.13950673 -0.20401731 0.008205755 -0.17509985 -0.04190823 -0.07978657 0.017327808
-0.1398641 -0.09760484 -0.18116415 -0.08054456 0.10096762 0.0927789 0.028966794 -0.12471641
0.04486186 -0.14475882 -0.107299924 -0.12821919 -0.024686348 -0.025260122 -0.07250229 -0.05847734
-0.036166724 -0.03576757 0.076153725 0.114834085 0.04661865 0.0018193488 0.0752764 -0.013341044
-0.1491791 -0.04542316 -0.032327674 -0.021623094 0.06791002 0.04007458 -0.054043323 0.13801609
-0.069606885 0.03819238 -0.19832931 0.12462573 -0.015154099 -0.14425656 0.095147125 0.13654065
-0.13097678 0.02279026 0.17777851 0.13967554 0.01526444 0.21321644 0.11319895 -0.15974586
0.02794805 -0.23341832 0.021656414 -0.053037394 -0.011762004 -0.037836522 -0.08355889 -0.0669101
-0.08813864 0.07776545 0.008218081 0.032538347 0.063571274 0.09403035 -0.03889129 -0.016483692
0.07431913 -0.038027596 0.072589874 0.018626818 0.10659586 0.10272251 -0.054389108 0.06739949
0.012078725 0.04564056 0.030002587 -0.060184192 -0.07361688 -0.060273018 -0.19324742 -0.15111929
-0.07074857 -0.12636615 -0.054359175 -0.11494269 0.053131633 -0.03820044 0.005960658 0.15749283

conv_v_0.bias f4 [16]
00000000: 6108 57bc 7248 453d af4b 6c3d 1bea 103c
00000010: a0ee 98bc bbe5 9bbd cb6f f53c 1d04 dabc
00000020: db10 733d 4212 81bc 64a6 553d 37be d73d
00000030: 5e93 7e3c c29a 5bbd bcfd 6c3c cdc3 1b3e
-0.013124556 0.048164792 0.057689365 0.008844878 -0.018668473 -0.07612177 0.029960534 -0.02661329
0.059342247 -0.015755776 0.052160636 0.105343275 0.015538065 -0.053614385 0.014464792 0.15211411

conv_v_1.weight f4 [16, 16, 3, 3]
00000000: b7db e53d 2e60 183e d20a 0f3e 5dd8 2f3e
00000010: 2d5d fe3d c25c cc3d 762f ef3d cb34 cb3d
00000020: 32c4 d43d b114 a1bd b055 90bd 7f1b 61bd
00000030: 0c1c b9bd b077 14bd 3c86 7abd 914b 4ebc
00000040: fa66 1dbd d8ad e0bd 0cdc 853c 5492 40bc
00000050: d2f8 5c3b 680c 24bd 7775 6abd b7e4 1d3d
00000060: 9d39 b13d f5e3 a83d 351f 95bd ce11 353d
00000070: 65fd ab3c 552c e4bd 1bc9 0d3d d992 833d
00000080: 326e 95bd 3ca8 c93b f0de 333c 5220 6c3d
00000090: c203 29b9 6629 9dbc dab2 88bd 36ce 453d
000000a0: 2e3e e63c bde4 7ebd eaf9 fbbd b40f a1bd
000000b0: 88e8 eabd 4c33 a93d 0e3f 883d c407 a13c
000000c0: 1b1c 853d 5658 a23d fcc4 ab3b 3530 a33c
000000d0: e487 0c3e beaf fe3d 4051 de3c 3ecf 42bd
000000e0: 49ef 003d 87f3 283c a641 b13c 0478 6abb
000000f0: 4b4b 933d 4e9a 45bd 7241 3ebd 1f70 fa3d
00000100: 567b 1f3e 9c2a f13d ade9 0a3e d956 c33d
00000110: ee51 563e 3079 4a3e cd85 473e aa58 bd3d
00000120: caf7 3c3d 3f84 57bc 0bcc 7d3d 4174 f03d
00000130: d4a1 383d 870e 663d fe22 553c 0721 1b3d
00000140: 3aad c73d 4ee0 9f3d 9138 5a3d 4f1b 1c3d
00000150: 328e c63d 0606 d83d c16d 9f3c efd7 5bbd
00000160: 03a7 d13c 6f64 78bb ff90 ecbc 21b1 003e
00000170: 7510 813c ae52 ec3d 1170 98bb aa5e 6d3d
00000180: 05fe a33d 8f93 7f3d da38 42bd edef 973d
00000190: 8988 3b3d 19e8 97bd 691e a2bc 6d65 153b
000001a0: 091c 8a3d 41a5 4c3d 78da 1c3d ff2a e23a
000001b0: 2621 a33d d89c 40bc b372 98bc d38d 073e
000001c0: beea fc3d 9148 c73d 7296 f53d 3881 213e
000001d0: f007 0c3e dd47 99bd 8f4a 133d 67da f13c
000001e0: bd5c 96bd ab0e 7e3c 7bbe 28bd c3d8 9abd
000001f0: f23d ce3a 4acc 8fbd e4b2 8bbd fda8 e03c
00000200: 3723 fb3b 6494 9e3d 50b4 bdbc 4188 8f3d
00000210: 9a9e ecbc 07a6 6e3d 0526 733d 542e 273d
00000220: bb54 af3d 6a95 cbbc 78b6 d83d a181 58bd
00000230: f917 e33d f907 383d aa7c d63d b021 07bd
00000240: 6c7d 683d 2ea1 923d aeee 3e3e b87b ab3d
00000250: 4b01 143e aa34 4f3e eb95 fa3d d8c8 1c3e
00000260: 0496 143e ed71 07bd 74ef 21bd 20f3 1fbd
00000270: 8161 c23b bb45 4f3d b0d2 ecbc 8815 c5bc
00000280: 4ce7 e73a 5077 b43b b016 0a3e e92d 0f3e
00000290: ec19 f73d f88a 8e3d ff6b 1f3d 821b 863d
000002a0: 89a6 b2bc aaf7 983d bc35 1a3d 8cf8 2bbd
000002b0: 22c7 903d 870c cfbb 9d68 0b3d dc6b 2a3c
000002c0: b650 edbc e470 313d e95b a73d 37ca b9bc
000002d0: 429c a4bd a753 5fbd fa99 1abe 6331 fabc
000002e0: ea1d 25be 20eb 95bd 8dfc 00bd 91d0 4ebd
000002f0: 132c f4bd 94ef f03c e166 733d 0dc6 843d
00000300: b16e 633d 1712 8e3c 94b6 2c3d 57a9 b5bc
00000310: 5a44 7f3d 1798 0bbd 421a 913d 52af 17bd
00000320: 2846 b43d 457f 5cbd ccc9 3cbc 19d9 4cbd
00000330: d324 c23d f94e c83d fbd8 0c3d 6776 e53d
00000340: 53e4 0b3e 9da6 4c3e 97e0 553e 385e 4a3e
00000350: 2a2d 3e3e e18d 303e 0863 213e 3f7f 3a3e
00000360: 0eb3 3b3e 22c0 f93d 5c9f 283e f7e9 7a3d
00000370: b16b 293d 5901 8e3d 8a2c 1b3e f3c7 023e
00000380: f98d 2b3e 8a57 cd3d 3350 0d3e 7128 013e
00000390: 4781 d93c c514 7cbc e018 893d d671 f63d
000003a0: 1265 c13c 7df3 503d d7ca d33c 4226 ae3c
000003b0: 95b5 243e 8f4b af3d 8de8 963d 5949 e33d
000003c0: 4193 0d3e e23f e53d b5e1 1b3d 1906 173d
000003d0: cc6f 34bc c6e8 273d 7ca7 c43d b013 4ebc
000003e0: d93e f63c daa0 4ebd f6fb a23d 3c7c 883c
000003f0: 4ff5 7a3e ae63 b13d dfa5 2a3e 92b3 6d3e
0.11223548 0.1488044 0.13968971 0.1717238 0.124201156 0.0997863 0.11678974 0.09922179
0.10388984 -0.07865275 -0.070475936 -0.054957863 -0.09038553 -0.036246955 -0.061163172 -0.012591259
-0.038428284 -0.10970658 0.016340278 -0.011753637 0.0033717644 -0.040050894 -0.05724093 0.038548198
0.08653567 0.08246604 -0.07281343 0.044206433 0.020994851 -0.11141268 0.034615617 0.06424493
-0.07296409 0.0061540883 0.010978445 0.05764801 -0.00016118496 -0.01918478 -0.06674738 0.04829236
0.028105821 -0.06222986 -0.12303527 -0.07864323 -0.11470133 0.08261737 0.06652652 0.019657023
0.06499501 0.07927005 0.005241988 0.019920448 0.13723713 0.12435864 0.027138352 -0.047560923
0.0314782 0.010311968 0.021637749 -0.0035777101 0.07192095 -0.04824286 -0.046449132 0.12228417
0.15574393 0.11775705 0.13565703 0.09538049 0.20929691 0.19772792 0.19484635 0.09245427
0.046134748 -0.0131540885 0.06196217 0.11740924 0.045076206 0.056166198 0.013008831 0.037873294
0.09749837 0.078064546 0.053276602 0.03811198 0.0969509 0.10548024 0.019461514 -0.053672727
0.025592333 -0.003790166 -0.028877733 0.1256757 0.015754918 0.115392074 -0.004652031 0.057951607
0.08007435 0.062396582 -0.0474175 0.07418809 0.045784507 -0.07417316 -0.019789891 0.002279605
0.067436285 0.049962286 0.038294286 0.0017255245 0.07965307 -0.011756144 -0.01860938 0.13237695
0.12349461 0.09730638 0.11991586 0.1577195 0.13674903 -0.0748441 0.035959776 0.029523088
-0.07341907 0.015506427 -0.04119728 -0.07560875 0.0015735014 -0.07021387 -0.0682123 0.02742433
0.00766411 0.07743147 -0.023157269 0.0700841 -0.02888422 0.058263805 0.05936243 0.040815666
0.08561083 -0.02485152 0.10581678 -0.052858 0.11088557 0.04492948 0.104729965 -0.03299111
0.056760237 0.07159649 0.18645737 0.08373207 0.14453618 0.20234933 0.12235626 0.15310991
0.14510351 -0.033067632 -0.039535 -0.03905022 0.0059320335 0.05060361 -0.028909057 -0.024058118
0.0017692833 0.005507387 0.13485217 0.13982357 0.12065491 0.069601 0.038921352 0.065482154
-0.021807926 0.07469113 0.0376489 -0.04198508 0.070692316 -0.006318632 0.034035314 0.010401692
-0.02896915 0.04332055 0.08171827 -0.022679431 -0.08037616 -0.054523136 -0.150978 -0.030541128
-0.16124693 -0.07320237 -0.03149085 -0.050491873 -0.11922469 0.029411115 0.059424285 0.06483088
0.055525485 0.01734261 0.042166308 -0.022175474 0.062321045 -0.03408059 0.070850864 -0.037032433
0.08802444 -0.05383231 -0.0115227215 -0.050011728 0.0947968 0.09780688 0.034386616 0.11204224
0.13661318 0.19985433 0.20886455 0.19762504 0.18571916 0.17241623 0.15760434 0.18212603
0.18330023 0.121948496 0.16467041 0.061258283 0.04136247 0.06933851 0.15153709 0.12771587
0.16753377 0.100264624 0.13800125 0.12613083 0.026550902 -0.015385811 0.06694198 0.12033431
0.023607764 0.05101346 0.025853558 0.021258477 0.16084893 0.085593335 0.07368574 0.11097974
0.13825704 0.11193825 0.038057048 0.03687105 -0.011012983 0.040993474 0.096022576 -0.012577936
0.030059265 -0.05044637 0.07958214 0.016660802 0.2450764 0.086615905 0.16664837 0.23213032

conv_v_1.bias f4 [16]
00000000: 8edd 463d 9c31 1abd 4966 313d dbab dc3d
00000010: 6a84 dc3d 7408 5e3d b179 ec3d 7fcd af3c
00000020: ec71 ae3d 6a7a a13d 6b3a b73d ecf1 333b
00000030: 8a51 c43d 1db4 513d 4569 293e 8592 dabb
0.048551135 -0.037644967 0.043310437 0.10774966 0.107674435 0.05420728 0.11546648 0.021460293
0.085178226 0.07884677 0.08946689 0.002745743 0.09585865 0.05119716 0.16544063 -0.0066702985
