league/checkpoints/mfos_seeds/new_self_3x3_42/950_1.pth (torch, 300942 bytes, 105 tensors)

conv_a_0.weight f4 [16, 7, 3, 3]
000000 c2 bf da 3d 3d 3c a4 bd fb 41 d6 3c 93 c3 26 3e
       0.10681106 -0.08019302 0.026154509 0.16285543
000010 71 cd 19 3c 68 a4 4a 3b b2 11 be 3d 7e 17 8d 3c
       0.00938736 0.0030920748 0.09280719 0.017223116
000020 4c b2 63 3c 5b 91 33 3e dc fb f3 3d ca c5 a7 3d
       0.01389749 0.17535917 0.11913273 0.08192022
000030 c0 b2 7d 3d af c8 ac 3d e3 1f 46 be ab 96 3a 3e
       0.061938047 0.08436715 -0.19348101 0.18221538
000040 3f d7 bf bc f8 92 fb bd 4e 59 0a 3e 81 e7 14 3e
       -0.023418067 -0.122838914 0.1351063 0.14541437
000050 aa df a1 3c 1c 38 06 3e 00 f1 5b 3e 96 ce 2b 3e
       0.019759972 0.13107342 0.21478653 0.16778025
000060 7a cc 42 3d 85 a2 85 3e df ca b3 3c bb d4 8c bd
       0.047558285 0.26100555 0.021947322 -0.068765126
000070 40 9f a2 3c 97 e4 91 3d 07 f0 31 be a3 b1 e0 3c
       0.019851327 0.07123678 -0.1737672 0.027428454
000080 6e d6 a3 bc 59 fe 13 be a9 c7 65 bd 85 b6 57 be
       -0.019999709 -0.14452495 -0.056098614 -0.2106572
000090 b3 dd 62 3d 97 17 af 3c b4 36 8c bd f6 45 00 be
       0.05538721 0.021373553 -0.06846371 -0.12526688
0000a0 24 b5 23 3d 1d 08 37 3d b4 d6 96 bc 1d 86 09 be
       0.03996767 0.04468547 -0.018412925 -0.13430066
0000b0 71 7e 01 be d6 4c b4 3d e6 0b d6 bd 49 86 a2 3b
       -0.1264589 0.08803718 -0.10451488 0.0049598557
0000c0 13 3b 9a 3d 78 89 a2 3d 78 09 72 3c 4e b4 83 bd
       0.07530799 0.07936376 0.014772765 -0.06430875
0000d0 3a 58 25 3b fb 53 cc bd 63 6d ad bd fe d5 1a be
       0.002522959 -0.099769555 -0.084681295 -0.15120694
0000e0 f4 77 d2 3c 65 1e 42 be a9 d8 bc bd bc ef 01 bd
       0.025691964 -0.18956907 -0.09221012 -0.03172277
0000f0 95 e9 cb bd c1 b9 95 3c 55 07 2b be 1b 5a 0a 3e
       -0.099566616 0.01827705 -0.16702016 0.13510935
000100 96 f2 30 be aa ae 95 3d c9 28 14 be 88 b3 55 be
       -0.17280039 0.07308705 -0.14468683 -0.20869267
000110 c0 3e ad bc dd 06 37 3e 9e d3 ca bd f4 59 13 3e
       -0.021148086 0.17873712 -0.09903644 0.14389783
000120 83 ac 0c bd ca 5e 3f 3d 2c 92 e2 bd ba 1a b3 3d
       -0.034344207 0.046721257 -0.11063036 0.08745332
000130 58 2c 94 3b 39 6d ee bd e6 04 bb 3d 11 74 96 bc
       0.0045218877 -0.11641926 0.09131794 -0.018365892
000140 6b 77 22 be 1e 26 9f bb 6b 3c 3d 3d 83 73 8b 3e
       -0.15865867 -0.004856839 0.046200197 0.27236566
000150 a0 5e 38 3e 6a 76 89 3d 52 e9 87 3e 9d 22 a6 bd
       0.18004847 0.06712039 0.26545197 -0.08112071
000160 00 fe 1e 3c 49 8c 09 be 35 57 51 be 6e 0a b1 bd
       0.009704113 -0.13432421 -0.20443423 -0.086445674
000170 ad 11 cf 3b 01 de 26 be 26 b4 6d bd 7e 51 11 be
       0.006319246 -0.16295625 -0.05803313 -0.14191243
000180 23 ee 5e be b3 52 8c be 70 98 a1 bd de eb 92 3d
       -0.2177053 -0.27406844 -0.07890403 0.07173894
000190 f2 8f a6 3d 21 d7 2e bd b5 5d 48 bd 6f 7d aa 3c
       0.08132924 -0.04268563 -0.04891749 0.020811765
0001a0 ff 4d 0a 3e 25 36 a3 3a ef 1d 89 bd 4a 71 63 3d
       0.13506316 0.0012452049 -0.066951625 0.055527963
0001b0 be 9f bd 3d b0 4e 0b 3e 1d b1 df bd ed 91 3f 3d
       0.09258984 0.13604236 -0.109224536 0.046770025
0001c0 d1 62 e3 bd ce 34 18 bd 24 4c a0 bd 1c 6d 79 3c
       -0.11102832 -0.037159733 -0.07827023 0.015223768
0001d0 ea e1 2d bd 8b 86 89 bd f3 1b e6 bc 37 c5 7b 3d
       -0.042451777 -0.06715115 -0.0280895 0.061467376
0001e0 87 55 fa 3c ba 03 2a be 82 16 b9 bd 76 a2 cb bc
       0.03055836 -0.16602984 -0.09037496 -0.02485774
0001f0 c4 06 37 be 0d 4f 22 3d f4 ff 23 3d 82 15 c7 bd
       -0.17873675 0.03962617 0.040039018 -0.09720899
000200 cc 6e 25 3e 15 95 dd bd d9 2b f6 bc dc d4 4e be
       0.16155547 -0.10819451 -0.030050205 -0.20198387
000210 b0 65 40 3e e8 1d d2 3d bb 46 a3 3d 4c 1b a2 bd
       0.1878879 0.102596104 0.07972475 -0.07915363
000220 b4 a0 33 bd d0 3c 02 be 6f b8 cd bd bc 1d a3 3c
       -0.04385443 -0.1271851 -0.100449435 0.01991164
000230 14 66 6c bc c3 63 88 3d 14 ec 18 3e 94 81 42 3e
       -0.014428634 0.06659653 0.14933807 0.18994743
000240 f2 76 bd 3d 7c f2 00 3e d8 95 0f 3e a7 f0 c5 bd
       0.09251203 0.125925 0.14022005 -0.096650414
000250 9c a1 ba 3d e2 84 59 3e bd 4d c4 3d e4 72 7c be
       0.09112856 0.21242097 0.0958514 -0.24653202
000260 95 92 36 3e 14 f4 b6 3d b7 39 9e 3d 37 25 f9 3d
       0.17829354 0.08933273 0.07725852 0.12165301
000270 83 44 95 3d 49 da 59 be 13 ae 04 be 01 f1 cf bd
       0.07288458 -0.21274675 -0.12957029 -0.1015339
000280 e1 92 f6 bd 8d 4c fd bd cc 60 73 3d 8e c6 84 3d
       -0.12039734 -0.123681165 0.059418485 0.06483184
000290 8a fe ad 3d 21 92 2b 3d 63 5c cb 3c cd 42 0f bb
       0.08495815 0.041887406 0.024824327 -0.0021859885
0002a0 75 19 43 3d 94 13 03 3e 48 f8 f2 3d af 5b d0 bd
       0.0476317 0.12800437 0.11863762 -0.10173737
0002b0 47 c2 33 bc 0d 70 a0 bb da d6 2c 3d f6 56 c4 bd
       -0.010971612 -0.00489617 0.042197086 -0.09586899
0002c0 9d e6 be bd c0 88 8b bd c8 00 89 3d c5 7a 17 be
       -0.0932133 -0.06813192 0.06689602 -0.14792927
0002d0 d7 81 13 3d 8b 03 02 3e fe 9e e7 bc fd 9b c3 3d
       0.036012497 0.12696664 -0.028274056 0.09551237
0002e0 4a d4 49 3d a8 42 30 3d 78 52 7a bd 21 c6 2f 3d
       0.04927472 0.04303232 -0.061113805 0.04291356
0002f0 45 b7 09 3e 8e 89 b7 3c ac f0 24 3d 3e 5e e1 bc
       0.13448818 0.022404458 0.040268585 -0.027510758
000300 f6 ec 20 3e 62 7f d9 3b 33 ba dd 3d 9c 87 37 3d
       0.15715393 0.0066374997 0.1082653 0.04480706
000310 9a fc 19 3e 86 95 ed bc b5 5f 8e 3d 44 a3 cd bc
       0.15037766 -0.029001962 0.069518484 -0.025102265
000320 56 d2 12 3e a1 0e 9e bb 12 c5 fc bd c3 72 3d 3e
       0.1433805 -0.0048235212 -0.12342276 0.1850081
000330 42 b2 a8 3d ce 8b 0d 3e 7f b2 e3 bd 60 a5 2d 3e
       0.08237125 0.13822863 -0.1111803 0.16957617
000340 c6 6f fd 3d 0d 63 4c bd 5e 8f 6b 3c 18 d5 da 3d
       0.12374835 -0.04989915 0.014377443 0.10685176
000350 6c c9 16 3e 6a dd 58 3e cd ed 0a 3d 5a a9 16 3e
       0.14725274 0.21178213 0.03391819 0.1471304
000360 0a fd 00 bd 69 25 c4 3d cd 8b 91 bd 63 f4 ed bd
       -0.031491317 0.09577448 -0.07106743 -0.11618879
000370 f5 43 d4 bd e7 73 85 bd a5 c2 f8 bd 82 b7 3e be
       -0.10364524 -0.06516247 -0.121465005 -0.1862469
000380 21 ca 1c bc 3f 5c 33 3d bf f2 24 3e 07 76 b1 3d
       -0.009569676 0.043789145 0.16108225 0.0866509
000390 58 66 3e 3c af 17 85 3d a0 4d 23 3e 49 80 8f bc
       0.01162108 0.06498658 0.1594758 -0.017517226
0003a0 29 79 a1 3d ce 68 eb 3d 98 59 46 bd 02 10 02 be
       0.078844376 0.11494599 -0.048425287 -0.12701419
0003b0 b8 0e e8 bd 9a 7b da bd fe 40 4b bd b2 26 72 bd
       -0.113309324 -0.106681064 -0.04962253 -0.059118934
0003c0 9d 48 15 be 64 73 4a be 2a 4a e8 3c 6d 30 d1 3d
       -0.14578481 -0.1977058 0.028355677 0.102143146
0003d0 d4 ce e0 bc ad 53 35 3e 05 1a 8f 3c a3 81 1c 3d
       -0.027442373 0.17707701 0.017468462 0.03820957
0003e0 22 b1 01 bb 91 6c af bb 49 94 76 3c 44 02 f0 3c
       -0.0019789417 -0.0053535183 0.015050002 0.029297955
0003f0 c5 f6 a0 3c 10 6b e9 3d 90 27 4a 3c ef 25 1b 3e
       0.019648919 0.11397374 0.012338534 0.1515119

conv_a_0.bias f4 [16]
000000 fe 35 e8 3c bb be ce 3d 03 fd c8 3c bf bb e5 3d
       0.028346058 0.10094973 0.024534708 0.1121745
000010 19 cd 43 3d a5 65 fd 3b 32 97 7a 3c 0d d6 2c 3d
       0.04780302 0.0077330642 0.015294837 0.042196322
000020 78 35 f5 3a 64 54 79 3c 54 64 87 3d d2 de 0e 3e
       0.0018707952 0.015217874 0.06610933 0.13952187
000030 03 46 4d 3d 09 34 e6 3d 28 75 98 3b 0f 1a 12 bb
       0.050115597 0.11240394 0.004652638 -0.0022293364

conv_a_1.weight f4 [16, 16, 3, 3]
000000 cb 5d a0 3c 3f f7 c0 3d 23 cd a8 3d f2 f2 87 bb
       0.019575974 0.094221584 0.08242252 -0.0041488344
000010 b4 af 4a 3c 9a c4 a7 bd 7e c6 ca bc 55 6b bf 3c
       0.012370992 -0.08191796 -0.024752852 0.02336661
000020 81 d9 fa 3d 18 51 83 bc de f6 dd 3c 62 31 c5 3d
       0.12248517 -0.01602988 0.027095255 0.0962856
000030 5c 27 63 3d 63 77 e5 3c 4c 05 5b bd 1b 87 78 3d
       0.055457458 0.02801103 -0.05347185 0.06067572
000040 f0 d9 90 3d 70 b6 34 bd f1 e3 45 3e 3c 63 30 3e
       0.07072818 -0.0441193 0.19325234 0.17225355
000050 39 2a 26 3e 83 6b d5 3c 25 21 85 3d fc 6f 9f bb
       0.16227044 0.026052242 0.065004624 -0.0048656445
000060 c8 bd e7 3d f5 ad e3 3c 63 4f b6 3d 82 48 8b 3d
       0.11315495 0.02779291 0.089018606 0.06800939
000070 21 f7 56 3d b2 aa 09 3e c6 97 16 3e d7 8a 05 3e
       0.052481774 0.13444021 0.14706334 0.13041244
000080 eb b5 14 3e 88 12 ca 3d 4d 72 98 3c b3 e0 a0 3d
       0.14522521 0.09866816 0.01860919 0.07855358
000090 eb c6 47 ba ef 27 85 3c 61 17 05 3e 63 ed 9a 3d
       -0.00076208886 0.016254393 0.129972 0.07564809
0000a0 03 10 9a 3d 0d e5 9c 3d c2 4a 16 3e 16 05 a5 3d
       0.07522585 0.076608755 0.14676955 0.08057611
0000b0 b7 f3 c6 3c 3d 9e 4a 3d 29 80 b8 bb f4 9d 0d 3e
       0.024286134 0.049467314 -0.0056305123 0.13829786
0000c0 e8 07 d0 3c d8 ac f8 3d 09 43 04 3e 1b 37 c4 3c
       0.025394395 0.12142342 0.12916197 0.023952058
0000d0 dc 73 63 3d 77 70 3f 3d d5 2d 4d 3d 9e 32 09 bc
       0.055530414 0.046738114 0.050092537 -0.0083738845
0000e0 c5 e2 43 bd 12 b9 58 3d 4b 6a 92 ba da a4 62 bd
       -0.047823686 0.05291087 -0.0011170594 -0.055332996
0000f0 aa 30 81 3d ad 23 18 bd 5a 3d 0a 3d f3 7d 1b 3d
       0.0630811 -0.037143398 0.033749916 0.03796191
000100 b7 0e 2b bb f6 43 1f 3e 68 86 a0 3d 4f aa a7 3d
       -0.00261013 0.15553269 0.07838136 0.08186781
000110 12 d2 0d 3d fe 52 05 ba 63 81 0e 3e f5 49 11 3e
       0.034624167 -0.0005085914 0.13916545 0.14188369
000120 c9 a7 52 bc 79 c3 c2 3d 28 20 5c 3d 6d 9c 02 3e
       -0.012857386 0.0950994 0.053741604 0.12754984
000130 4d 69 d5 3d 0e b0 a3 3d f6 30 c5 3d 0c 65 19 3e
       0.10420475 0.07992564 0.09628479 0.14979953
000140 e3 8c ce b9 02 7d 9c 3d 63 02 17 3e d3 fb 40 3d
       -0.0003939635 0.07641031 0.14747004 0.04711516
000150 65 c7 18 3e df 7a 76 3d 7d 14 8d 3d 08 12 1f 3e
       0.14919813 0.060175773 0.068886735 0.15534222
000160 8b b0 b6 3c 4c e5 d1 3d c7 b6 8b 3d ee 4e a4 3d
       0.02230098 0.10248813 0.068219714 0.08022867
000170 1e 81 40 3d 3e b1 30 3c a3 a1 04 3d d4 bc c8 3d
       0.046998136 0.010784445 0.03238071 0.09801641
000180 bf 03 28 3d 22 2c fc 3c 40 a7 11 3e aa 97 ac bc
       0.041019198 0.030782763 0.14223957 -0.021068413
000190 5d f8 2d 3d e6 ac c0 bc 70 9c a6 bc 52 17 03 3e
       0.042473186 -0.023519944 -0.020338267 0.12801865
0001a0 95 10 e5 3d 4f be e8 3d 59 53 e4 3d ef 78 e7 3d
       0.111848034 0.113644235 0.1114871 0.11302363
0001b0 cb 26 ca 3d bc ca 7e 39 ac 73 1e 3c ac fd 88 3d
       0.098706804 0.00024298852 0.009671133 0.06689009
0001c0 c0 07 f6 3c f3 7f 5c 3d aa 4a 8a 3c 70 dc 9e 3d
       0.030032992 0.05383296 0.016881306 0.07756889
0001d0 09 09 79 3d 20 6f 8f 3d 36 7d b0 3d 8e fd 15 3e
       0.060799632 0.07003617 0.08617632 0.14647505
0001e0 51 aa c3 3d 25 d5 97 bb a5 8a 0f 3e 23 1a 62 bc
       0.0955397 -0.004633563 0.14017732 -0.013800177
0001f0 11 85 11 bc 69 53 14 3d 6e 7c 10 3e f6 a4 87 3d
       -0.008881823 0.03621236 0.14109966 0.06623261
000200 a3 b5 a5 3d b2 59 b1 3c 9c 66 a7 bc 87 bf b7 3d
       0.08091285 0.021649215 -0.02043467 0.08972078
000210 9d 70 9c 3d e5 0d d1 3d 98 7b 89 3d 3c 6e 71 3c
       0.07638667 0.10207728 0.06713027 0.014735755
000220 e7 4b 2f 3d 44 1a ed 3c 57 b0 27 3e de cc 48 3d
       0.042796995 0.028943188 0.16375862 0.0490235
000230 04 22 04 3e cb 1a 18 3c 73 2c a7 3c 62 31 0c 3e
       0.12903601 0.009283732 0.020406937 0.13690713
000240 ff e4 97 bc 3f d7 f8 3c ab f7 57 3e 7a 6f 9f bd
       -0.018541811 0.030376075 0.21090572 -0.07784934
000250 3f 6c c2 3d 3d cc 65 3d ee 89 f0 bc 47 8e 28 3d
       0.094933026 0.05610298 -0.029362645 0.04115131
000260 50 67 74 3d f0 06 19 3d 82 16 a3 3d 31 2a bf 3d
       0.05966884 0.03736013 0.079632774 0.09334219
000270 9e c6 9f bd f2 f0 da 3d 0e 3b 3d 3e ae 32 c9 3c
       -0.07801555 0.10690488 0.18479559 0.024560299
000280 5d 46 97 3d 68 5c 29 3e 59 2f f2 bd c7 e6 2b 3c
       0.073864676 0.16539156 -0.11825437 0.010492033
000290 ad 95 11 be 81 34 f8 3d 8c 6e b5 3d 7e aa f7 bd
       -0.14217253 0.12119389 0.08858976 -0.12093066
0002a0 b1 3c 36 bd 51 d1 0d 3e a8 5c c7 bd ea 85 86 3d
       -0.044491474 0.13849379 -0.0973447 0.06568511
0002b0 78 c0 05 3d b5 25 21 bd db 4c 12 bd b3 16 6b bd
       0.032654256 -0.0393426 -0.035717826 -0.057394695
0002c0 9a b4 01 bd 87 a9 ed bb 09 ef 91 3c bc 2b 38 3d
       -0.031666376 -0.0072528752 0.017814176 0.044963583
0002d0 86 d3 c0 3d 97 d5 5d bd 02 2c d1 3d 7e 7b 53 bc
       0.09415345 -0.054158773 0.10213472 -0.012907861
0002e0 4d cd 23 3d 36 7a 74 bd 7b a7 81 3d 8b af 0b 3d
       0.039990712 -0.059686862 0.063307725 0.034102958
0002f0 0d 2f 12 3d 08 32 00 3c 8f cd 0e 3d c0 75 1d 3c
       0.035689402 0.007824428 0.034864005 0.009610593
000300 f5 a9 d0 3c 5a ee d0 bc eb 84 a3 bc a6 74 be 3d
       0.025471667 -0.02550428 -0.019960841 0.09299593
000310 f9 66 bb bd 1d 41 b0 bd 73 71 b0 3d 43 e7 1c 3c
       -0.091505 -0.086061694 0.08615389 0.009576621
000320 2f fc bc bd fd d2 9c bd 2a 99 ad 3c b7 b1 9d bd
       -0.09227788 -0.0765743 0.021191198 -0.07699912
000330 32 6b 39 bd 53 32 ee 3d a9 12 11 bd c4 dc 9a 3c
       -0.045268245 0.11630692 -0.035418186 0.018904097
000340 e9 71 21 bd e6 ad 68 3c e6 88 9a 3d 8b 36 88 3d
       -0.039415274 0.014201617 0.075456426 0.06651028
000350 0c 8e 04 3d ee 41 2e 3d 69 42 b1 3d 99 7c 0e 3d
       0.03236203 0.042543344 0.08655245 0.034786794
000360 f6 15 3b be c3 5e 0f bd 90 3b 73 bc 0d 20 2d 3c
       -0.18270096 -0.03500248 -0.014845744 0.0105667235
000370 f6 7e d5 bc fe 1c 70 bc 58 c0 a4 bc 6f 9d 1b 3e
       -0.026061516 -0.01465535 -0.020111248 0.15196775
000380 ce 12 a8 3c 81 b8 ac bd eb b3 c2 3d 25 96 8f 3d
       0.02051678 -0.08433629 0.09506973 0.0701106
000390 5e c0 6a bd ae db 74 bd 45 0d 85 bd 66 8a 67 bd
       -0.057312362 -0.059779815 -0.064966716 -0.05652847
0003a0 ee 28 3f bd f4 73 1a 3d 0c aa a4 bb 3d 9e a7 bd
       -0.046669893 0.037708238 -0.005025154 -0.081844784
0003b0 dd 18 6c bd c9 7d b9 bd 14 74 bc bd 78 5c b0 3d
       -0.0576409 -0.09057195 -0.09201828 0.08611387
0003c0 77 c4 b6 3d 04 4f d1 bd 31 39 9c 3d ac b3 85 bc
       0.089241914 -0.10220149 0.07628096 -0.016321026
0003d0 c7 42 57 bd 19 5c 9a 3d 1c bd 84 bd 42 54 b9 bd
       -0.05255392 0.075370975 -0.06481382 -0.09049274
0003e0 09 d2 ae 3d e2 e2 72 3c 79 34 10 3d 5b 48 38 bd
       0.08536155 0.014824601 0.03520629 -0.04499088
0003f0 97 4b 1e bc 41 a2 1c bd f3 75 20 3b 0a a7 77 bd
       -0.009661577 -0.038240675 0.0024484366 -0.060462035

conv_a_1.bias f4 [16]
000000 da 2d 0c 3e 43 ce ee 3d a5 2b 2f 3c 3c 53 89 3d
       0.13689366 0.11660435 0.010691558 0.06705329
000010 16 1f e5 3d 9c e8 32 3d c0 7b 35 3c 34 25 0e 3d
       0.1118757 0.043678865 0.011076868 0.03470345
000020 d8 11 13 3e eb 66 b0 bc 40 e4 69 3d 73 88 2f 3d
       0.14362276 -0.02153345 0.05710244 0.042854737
000030 5a 5a 5f bd 1a 65 b2 3c 93 2c f3 3c 0e 40 71 bc
       -0.054529525 0.021776725 0.02968434 -0.0147247445

linear_a_0.weight f4 [16, 144]
000000 b5 8e 27 3c de 7b 92 bd d3 d9 8d bd a5 8c 96 3c
       0.010226895 -0.07152532 -0.06926312 0.018377611
000010 49 17 48 bd 9a 49 b4 bc 6d 01 16 3c 49 09 2c 3c
       -0.04885033 -0.022007752 0.009155613 0.010500261
000020 65 1a 16 bd bb a0 bb bc 1f 39 3a bd e4 b9 b3 bd
       -0.036646266 -0.02290379 -0.04546463 -0.0877569
000030 a0 09 5a 3d d3 ff 13 bd 8b b3 87 bd 5e 28 71 bd
       0.053231835 -0.036132645 -0.06626042 -0.058876388
000040 44 57 95 3d 06 7a 55 3d cc 89 8e 3d 06 0f b6 bd
       0.07292035 0.052118324 0.069598764 -0.08889584
000050 fb 55 01 bd 85 98 ae bd 16 b2 28 3b fe 32 b0 3c
       -0.031576138 -0.085251845 0.0025740913 0.02150869
000060 6b 15 3e bd d8 6f 20 bc 2c 2f 80 bd fe bf a8 3d
       -0.046407145 -0.009792291 -0.06258997 0.082397446
000070 08 5a 66 3d 63 64 09 bd e7 e9 b4 3c 5f e3 92 3d
       0.056238204 -0.033543 0.02208419 0.07172274
000080 34 13 a9 bd 0e 86 9c 3d 75 76 b1 bd 11 bc 27 bc
       -0.08255616 0.076427564 -0.08665172 -0.01023771
000090 f7 d1 80 3d 50 c6 83 bc 50 e8 16 3d f2 f9 5f bd
       0.062900476 -0.016085774 0.036842644 -0.054681726
0000a0 f3 f3 3f 3d 2d 05 11 bd 86 05 4e bd 59 23 5f bb
       0.046863507 -0.035405327 -0.050298236 -0.0034048168
0000b0 d9 47 a1 bc 8a 25 ea bc cf 80 2e bd 64 31 66 3d
       -0.01968758 -0.028582353 -0.04260331 0.056199446
0000c0 04 10 c4 bc 38 3a da bc b7 a6 96 bd 57 c3 88 3d
       -0.023933418 -0.026639089 -0.07356017 0.06677883
0000d0 d8 68 a2 bd af 98 84 3d 94 d1 d2 bc 0e c6 6c bd
       -0.079301536 0.064744346 -0.0257347 -0.057806067
0000e0 84 cb de bc 2f 93 94 bd bf 72 97 bc 43 76 77 3d
       -0.027196653 -0.072546355 -0.018487332 0.060415518
0000f0 71 30 39 3c ea a1 92 3d 68 23 bc 3b 6e a6 93 3d
       0.011303053 0.07159789 0.0057415254 0.07209478
000100 4f 6a 18 bd 4c 40 ad bd d2 50 08 3d 40 e8 89 bc
       -0.03721076 -0.08459529 0.0332802 -0.016834378
000110 ab bd 19 3d 3c 37 48 3d 64 bc 62 3c 7e 12 05 bd
       0.037534397 0.0488808 0.013838861 -0.03248834
000120 6e dc 7e 3d 95 58 5f bb 53 04 24 3d 0c 3b 82 bd
       0.062221937 -0.0034079899 0.040043186 -0.063589185
000130 9c 64 81 bc 6b 66 5c bb 0b 0f 8c bd 64 75 5a bd
       -0.015795045 -0.0033630382 -0.06838807 -0.05333461
000140 d4 b4 ba 3c 8a 39 8e 3d 0e 26 37 3d 39 ea 99 3d
       0.022791304 0.069445685 0.044714026 0.075153776
000150 e5 12 52 3d 8f 9c 0c bd 6a 13 2c 3d 19 4a a6 bd
       0.05128755 -0.034328993 0.042010702 -0.08119602
000160 22 8b 0b bd 50 a9 4c bd fc 58 75 bd 4b 9a b2 bd
       -0.034068234 -0.049966156 -0.059899315 -0.08720835
000170 14 8d 22 3d 68 43 41 bd af fb a9 bd b7 61 1b bd
       0.039685324 -0.047183424 -0.08299958 -0.037934985
000180 e7 2c 70 3d c0 c6 78 bc c2 7b 15 3b 36 8d f7 3c
       0.058636572 -0.015184104 0.002280936 0.030218702
000190 6c 92 1f 3a 66 65 a0 bd 66 28 94 3d 8d 0e f7 3a
       0.0006087187 -0.0783184 0.07234268 0.0018848941
0001a0 f6 e4 80 3d 7d 22 be 3c c6 2d 3d bd af 66 bd 3c
       0.06293671 0.023209805 -0.04618623 0.023120252
0001b0 66 79 57 3c 60 36 38 bc 04 10 9c 3d 4e 65 12 bc
       0.013151502 -0.011243433 0.07620242 -0.008935286
0001c0 23 62 c8 bc 6c c3 a4 3c 60 67 9d bc 34 44 ae 3d
       -0.024460858 0.020112716 -0.019214332 0.085091025
0001d0 2e 41 9b 3d 59 ef ca 3c 37 ed 6c 3d 77 02 87 bb
       0.075807914 0.024772333 0.057843413 -0.004120167
0001e0 8c 3a 86 3d 8a 27 61 3d 0a 9e 84 3d 38 db 3c 3c
       0.06554136 0.054969348 0.06475456 0.011526875
0001f0 1c 66 94 bd 63 e4 70 3c 9f 77 6e 3c 4d fb 4e 3d
       -0.07246038 0.014702889 0.014554887 0.050532628
000200 59 08 84 bd 4f d0 95 bd 1c a7 2a 3d 71 7c 9b bc
       -0.06446905 -0.07315122 0.041663274 -0.018980237
000210 2b 17 c2 3c c1 70 a8 bc 2d be dd 3c 21 6f 4e bd
       0.023692688 -0.020561578 0.027068222 -0.05039895
000220 4d 47 5f bd 1f 57 55 bd 6e bd 3f bc c4 5f b6 bd
       -0.054511357 -0.05208504 -0.011702878 -0.089049846
000230 73 de d4 bd 15 2a 15 3d 72 84 3b bd 92 85 aa bd
       -0.10393991 0.036417086 -0.045780607 -0.08326258
000240 ff b9 8d bd 85 42 d6 3c 1c 83 81 bd 0c c7 92 bd
       -0.069202416 0.026154766 -0.06323835 -0.071668714
000250 21 aa d1 3c 7f 99 89 bd c4 cd 8d bd b4 f7 d8 bb
       0.02559382 -0.0671873 -0.06924012 -0.0066213254
000260 7b ba a3 bc 68 33 1b bd 3b 1c c3 3b 41 5c a6 bc
       -0.019986382 -0.03789082 0.005954293 -0.020307662
000270 5a 22 5c 3d f2 3c 4e bd 6a 1c f2 3c 50 55 c8 bc
       0.053743698 -0.05035109 0.029554565 -0.024454743
000280 84 ea 15 3d bc 63 34 bd 70 25 44 bd 53 6d 53 bc
       0.036600605 -0.044040427 -0.047887266 -0.012904483
000290 02 ba 27 3d b7 38 ca 3c 7b 9a 79 3b d0 b3 20 3d
       0.040948875 0.024685247 0.0038086462 0.039233983
0002a0 9b 51 0b 3d b8 16 35 bc b4 68 2f bd 01 c3 f2 bc
       0.034013372 -0.01105278 -0.042824462 -0.029634
0002b0 7e 72 76 bd 06 f8 a6 bd 5f 77 9e 3d 79 c3 66 bd
       -0.060167782 -0.081527755 0.07737612 -0.05633876
0002c0 75 1a b9 bc 48 ce 95 3d 28 80 89 bd 1b 1b 16 bd
       -0.022595624 0.07314736 -0.06713897 -0.036646944
0002d0 c4 6f 22 bd 57 be 3c bd 6b 26 88 bc 66 9a 81 bc
       -0.03965737 -0.04607996 -0.016619882 -0.015820693
0002e0 17 6b 44 3d 74 88 b3 3b 07 ad 2b 3d 33 51 5c 3b
       0.04795369 0.005478913 0.04191306 0.0033617734
0002f0 73 97 85 b9 5a 98 87 3d cf c5 f9 bc 1a d1 b7 bd
       -0.00025480575 0.06620856 -0.03048983 -0.0897543
000300 9f b0 af bd 2d c6 98 bd 9d 20 32 bc ca ce 07 3d
       -0.0857861 -0.07459674 -0.010872033 0.033156194
000310 ea db f8 3c 67 1a 97 bc 79 e5 96 3d 62 5c 85 bd
       0.0303783 -0.018445207 0.07367987 -0.06511761
000320 86 1c 03 3d 9b 09 5c 3d 89 3e 08 bd 19 77 98 bb
       0.032009624 0.053720098 -0.033262763 -0.0046528694
000330 f5 5e 7e bd 52 1a 63 bd eb bc 35 3d 53 72 0d bb
       -0.062102277 -0.055445023 0.04436962 -0.0021583035
000340 2a 45 bf bb 71 7e 7f bb 88 85 3e 3d cb 06 44 bc
       -0.0058371024 -0.0038985277 0.046514064 -0.01196451
000350 99 c1 03 bd b8 3e a0 bd 88 28 87 3d e6 96 02 bd
       -0.03216705 -0.07824463 0.065995276 -0.03188219
000360 88 4a 6b 3d cc a7 8d 3d c8 5f 40 bd fe ef 2d bd
       0.057444125 0.0691677 -0.046966344 -0.042465203
000370 f0 82 b3 3d 0c e2 14 3d 8d f9 7d bd 0e c1 0d bc
       0.08765209 0.036348388 -0.06200557 -0.008651985
000380 ff 0d c7 bc f1 77 97 bd b7 ca 8e bd 43 42 92 3c
       -0.024298666 -0.07395924 -0.069722585 0.017853862
000390 01 50 fa bc 78 23 df 3a 1b 9f 7a bd 39 0f 1d bd
       -0.030555727 0.001702412 -0.06118689 -0.038344596
0003a0 a1 6c 51 3d 5d 8a 51 bb 98 91 1b 3d df 5c a7 3d
       0.051128987 -0.003197334 0.037980646 0.08172011
0003b0 dc aa dd 3c 3b b2 83 3c 43 69 67 3d 6b 9d 74 3d
       0.027059011 0.016076198 0.05649687 0.059720438
0003c0 fe be 72 3d 6b 3d 0e 3c f8 6f 47 bd f8 bb f0 3c
       0.059264176 0.008681635 -0.048690766 0.029386505
0003d0 eb 51 51 bd e1 1b 85 bd 1c 51 1e bd b0 be d4 3c
       -0.051103514 -0.06499458 -0.03865157 0.025969833
0003e0 bc de 23 bd 24 6e 1d 3d 28 3d 50 bb fb 9b 2c bd
       -0.040007338 0.038435116 -0.0031774733 -0.042140942
0003f0 a6 af 57 bd 7e 49 1d bd 5e 92 95 bd 8b 81 73 3c
       -0.052657746 -0.038400166 -0.07303308 0.014862428

linear_a_0.bias f4 [16]
000000 b6 ca 96 bd 21 2c 7e bd c4 2d ee 3d 00 6d 1c 3d
       -0.07362883 -0.062053803 0.11629823 0.038189888
000010 65 3b 9d 3d 1a f2 9c bc 1d 9e 3f bd fd 48 b4 3c
       0.07677344 -0.019158412 -0.046781648 0.02200746
000020 4b 37 66 3d a6 50 73 3d bf 85 57 3d 3a 3c ff bc
       0.056205075 0.059403084 0.052617785 -0.031156648
000030 06 9c d4 3d 88 57 5d bd e0 22 03 3d a7 0f bd 3d
       0.103813216 -0.054038554 0.03201568 0.09231501

GRU_a.weight_ih_l0 f4 [48, 16]
000000 bc 4d 0a be 7e 0e c5 3c a0 cc a3 3e c2 b9 59 3e
       -0.13506216 0.024054762 0.31992054 0.21262267
000010 44 0b 06 be cc ae 9c bd c2 6d 35 be e7 5e 3a be
       -0.13090235 -0.07650527 -0.1771765 -0.18200265
000020 20 59 4c 3e 04 1b 20 bc 44 47 6e be fc 3d 37 3e
       0.19955873 -0.009772066 -0.23269373 0.17894739
000030 a8 bf 08 be 7d 0a 44 be 46 1d 03 be 80 6b 90 bd
       -0.13354361 -0.19144626 -0.12804136 -0.07051754
000040 e1 26 32 bb 04 ea 15 bc 26 8d 14 be cd 12 4f 3e
       -0.0027183818 -0.009150032 -0.14506969 0.20222016
000050 d8 08 e1 3c 62 76 cc 3d 2f ea bc 3d 7c e4 6a be
       0.027470037 0.09983517 0.092243545 -0.22938722
000060 4c d1 af 3c a9 b0 62 3e c1 10 6c 3e 6d a0 cf 3c
       0.021462105 0.22137703 0.23053266 0.025345052
000070 a5 e1 64 3e d9 d4 c5 bd f3 39 40 be d4 4d 11 be
       0.22351702 -0.09659738 -0.18772106 -0.14189845
000080 c8 1c cc bd e7 8d 6c be 1e 33 32 3e 4c b3 1f 3d
       -0.09966427 -0.23101006 0.17402312 0.03898935
000090 fc 36 58 bd 09 f5 09 be 8d 4c 33 3d 05 00 f9 bd
       -0.052786812 -0.1347238 0.043774176 -0.12158207
0000a0 02 cc de bd b8 2c 24 bd d4 a4 6e be d6 f9 5f bc
       -0.10878755 -0.04008171 -0.23305064 -0.013670405
0000b0 59 ad 95 3e e3 a9 76 3e 27 51 c5 3d 49 20 09 be
       0.29233816 0.24088244 0.09634619 -0.13391222
0000c0 01 10 92 3d 22 ab 13 be 31 3e 76 be 32 e0 00 be
       0.07131959 -0.1442075 -0.24047162 -0.12585524
0000d0 4c dd 00 be d6 f9 02 3e 20 99 56 be 11 bc b6 bd
       -0.12584418 0.12790617 -0.2095685 -0.089225896
0000e0 5a f9 0a 3d f5 5d 00 be 32 43 ea bd e5 b0 ef 3d
       0.033929206 -0.12535842 -0.11438598 0.11703662
0000f0 79 48 5a be 8e 49 f7 3d 2b e6 93 bd 87 b4 44 be
       -0.21316709 0.12074576 -0.072216354 -0.1920949
000100 1f 0b cc bc 38 fc 43 bd 8d ab 56 bd ec 1e aa bd
       -0.024907647 -0.047847956 -0.052409697 -0.08306679
000110 01 0d 0f 3e fa 36 a6 3d bd 69 26 3e 83 e9 38 be
       0.13969804 0.08115955 0.16251273 -0.18057828
000120 e9 bc 86 3d c2 c9 3c 3e 04 88 a4 bc cd 0a 4a bc
       0.065790005 0.1843634 -0.020084389 -0.012331677
000130 00 94 6e 3e 8f a0 58 be 3c e3 87 bd cd 24 ac 3e
       0.23298645 -0.21154998 -0.066351384 0.33621827
000140 1d 9f b4 3c 3e a8 73 bc 33 69 9e be 01 e2 2c be
       0.022048527 -0.014871655 -0.30939636 -0.16883089
000150 49 a8 04 be 8e 53 5f bd 70 19 d4 3d f1 16 23 be
       -0.1295482 -0.054523043 0.10356414 -0.1592672
000160 80 43 c4 3d 4f ad 0d be d3 37 bc bd 66 45 55 3e
       0.09583187 -0.13835643 -0.09190335 0.20827255
000170 7d 01 13 be 1c 9f 44 be 0e 9f 04 bd 55 3f 9a 3d
       -0.14356036 -0.1920132 -0.03237825 0.07531611
000180 33 bd 87 bd 60 94 73 be 49 2c 35 3e ab 80 23 3e
       -0.06627884 -0.2378707 0.17692675 0.15967052
000190 1a b3 96 3e 8e 9a f2 3d c7 a0 f9 3c 5f 83 63 be
       0.2943352 0.11845885 0.030472172 -0.22218083
0001a0 d2 9b 37 be c3 25 41 bd 9e 44 84 3d 9d f0 01 3b
       -0.17930534 -0.047155153 0.064584 0.0019827255
0001b0 fc 9a 54 3d 6b 95 1b 3e a8 8a 37 3e 2c 3b 6d be
       0.051905617 0.15193717 0.17923987 -0.23167104
0001c0 09 b4 45 3e 66 d9 03 3e 0e 75 4b 3e 91 bb c3 bd
       0.19306959 0.128759 0.19868872 -0.0955726
0001d0 8d 2d fa 3d 6d 44 be 3c ea 25 4f 3e 67 b8 34 3e
       0.12215719 0.023225987 0.20229307 0.17648469
0001e0 ad 5a c5 3b 50 f9 04 3e 84 bf ab bd 9f 30 ef bd
       0.0060227723 0.1298573 -0.08386138 -0.116791956
0001f0 f3 07 92 3d cb 1c d4 3d 24 ef d7 3d 08 1a ea 3d
       0.071304224 0.10357054 0.10543659 0.11430746
000200 4f 8b 67 3e 88 11 18 3e 60 72 eb 3d 1d 43 6c be
       0.22611736 0.14850438 0.11496425 -0.23072477
000210 3f d4 18 be e5 5c 8e 3d 07 a0 32 3e 4f 65 88 3c
       -0.14924715 0.06951312 0.17443858 0.01664987
000220 94 e3 7d 3d 17 a9 d4 3d f0 46 f9 bd 25 38 12 bd
       0.061984614 0.10383814 -0.121717334 -0.035698075
000230 06 80 b0 bd 54 9f fb bd 85 24 d7 bc a2 0e ce bd
       -0.086181685 -0.12286249 -0.026262531 -0.10061385
000240 ba 3c 80 bc b5 9e 68 be 25 50 03 3e 4a 29 42 be
       -0.015653957 -0.22716792 0.12823541 -0.18961063
000250 f2 ae 1c bd 7a 14 0f bd 4a 7c 58 be a5 ca f6 bd
       -0.03825278 -0.034931637 -0.21141163 -0.1205037
000260 c6 17 53 3e d5 96 5c be c0 82 3b 3e f7 69 08 be
       0.20614538 -0.21541913 0.18311596 -0.13321672
000270 fc dd 43 be bc ad e6 3d 79 53 02 3e c6 53 44 3e
       -0.19127649 0.11263606 0.12727155 0.19172582
000280 ee 45 f9 3d 34 2b 16 3e 22 a7 37 3e 53 64 6c bc
       0.12171541 0.14664918 0.1793485 -0.014428216
000290 c9 bd 82 3e 13 60 25 be d2 3f 7b be 6b dd 13 be
       0.2553542 -0.1614993 -0.24536064 -0.14439933
0002a0 76 ba 30 be f9 56 52 3e c4 2f 04 3e aa c0 65 3e
       -0.17258629 0.2054099 0.12908846 0.22436777
0002b0 e5 4e 4b bd ac b9 86 3e 4a 5f 1a be d3 c6 d7 bd
       -0.049635787 0.2631353 -0.15075412 -0.105359696
0002c0 b3 81 77 3e da 26 53 3a 5b 9f 8d 3d 79 bd 98 bd
       0.2417057 0.00080548006 0.0691516 -0.07458014
0002d0 bd 2e b3 3d fe b0 38 bd ff 74 4c 3e 71 0b d6 3d
       0.08749149 -0.045090668 0.19966505 0.10451401
0002e0 37 3e de bc 9e 3e e1 bd 6b 2c 36 be de 00 11 3e
       -0.027129276 -0.109982714 -0.17790382 0.14160487
0002f0 9f 18 8d bc 90 56 fc bd 99 57 0a be d7 70 35 3c
       -0.017223654 -0.12321198 -0.13509978 0.011074266
000300 4e 99 41 3e 33 ad 0f be 0e fa 14 3d c0 33 16 be
       0.18906137 -0.14030914 0.036371283 -0.14668179
000310 39 1f 55 3e 76 11 e1 bd bc 85 8f bd d4 8f 1c 3e
       0.20812692 -0.109896585 -0.0700793 0.15289241
000320 98 c3 44 3e 7c 0d 12 3e ee 44 82 3e cf 44 40 be
       0.19215238 0.14262956 0.25443214 -0.18776248
000330 3d 0d a9 bd 94 95 69 3e bc 4f 85 3e f4 69 73 3e
       -0.08254478 0.22810966 0.26037395 0.23770887
000340 8a 2b 37 be df ad c7 3d 97 0a 8a 3e 3d a2 fa 3d
       -0.17887703 0.0974996 0.26961204 0.12237976
000350 26 a4 bb 3d ed 88 61 3e 79 29 64 3e 90 9b 1f 3e
       0.09162168 0.2202489 0.22281446 0.15586686
000360 92 e7 ab 3d 8b f7 70 be ce 42 80 be e8 11 8d 3d
       0.08393778 -0.2353193 -0.25050968 0.06888181
000370 4c c5 23 be dd cc 0e bd aa 92 86 bd 9f 65 d6 bd
       -0.15993232 -0.03486334 -0.06570943 -0.104686014
000380 33 bb d6 bd 04 3b 1b 3e 56 30 7d 3e 77 8a 72 be
       -0.10484924 0.15159231 0.2472547 -0.23685633
000390 92 46 93 3e 1a a2 4b be 33 5a 25 be 2b 5e 0f 3d
       0.28764778 -0.19886056 -0.1614769 0.035001915
0003a0 d5 2c 7c bd 17 58 3e be 1f e4 f5 bd 9a 1e 5c 3e
       -0.061566193 -0.18588291 -0.12006401 0.21496049
0003b0 00 57 9b bd af 85 ed bd dd 9d 99 bd 15 d4 50 3e
       -0.07584953 -0.11597764 -0.07500813 0.20393403
0003c0 a4 35 20 3e 60 55 e4 bd 25 c0 39 3c 94 38 e8 bc
       0.15645462 -0.111490965 0.011337315 -0.028347291
0003d0 c4 5e 08 be 46 c6 0d 3d 80 dc 93 3d 56 4c 5a 3e
       -0.133174 0.034612916 0.072197914 0.21318182
0003e0 c9 5a 75 3e 98 f7 08 be 25 8f 85 bd db ec af bd
       0.23960413 -0.133757 -0.06521443 -0.085900985
0003f0 b7 78 cb bd 4c 92 da 3d 45 e9 17 3e 4d 8e 1a bd
       -0.09935134 0.10672435 0.14835079 -0.037733365

GRU_a.weight_hh_l0 f4 [48, 16]
000000 6d 09 97 3d e2 24 65 3e fb 4d 78 3e 2f 69 eb 3d
       0.07374845 0.22377351 0.24248497 0.114946716
000010 7a 99 bb bd 70 5b 42 3e ab e1 c1 3c 01 b1 bc bd
       -0.09160133 0.18980193 0.023667177 -0.09213448
000020 da 2b 3f bd 55 0c f9 3c 05 0b d2 bd ac 55 09 3e
       -0.04667268 0.030401388 -0.10256008 0.13411587
000030 95 4c 2f be 80 84 b8 3c 88 c6 92 be 3e c1 49 3d
       -0.17119057 0.022524118 -0.28667092 0.049256556
000040 18 6e f1 bd b5 94 ef bc 14 84 31 3e 34 55 c1 3d
       -0.11788577 -0.029245714 0.1733554 0.09440079
000050 83 7d 3b 3d fb 6c d6 3d 8c 38 a6 bc 23 20 49 3e
       0.045773994 0.10470005 -0.020290636 0.19641165
000060 0a 26 77 3b a5 8b 47 3e 79 a1 41 3e a5 57 bb bc
       0.0037711882 0.19486864 0.18909253 -0.02286894
000070 d0 b4 83 3e 8b 2c 25 3d c7 40 fd 3d 96 6b 3e be
       0.25723886 0.040325683 0.12365871 -0.18595728
000080 93 70 aa be dc 0b 0c 3e 02 47 13 3e 3e 37 b2 bd
       -0.33289012 0.13676399 0.14382556 -0.08701943
000090 3b 9d be bd 78 5b a5 3d 7e 3d 93 3e 8b 5d 5f bc
       -0.09307333 0.08074087 0.28757852 -0.013633142
0000a0 c8 21 37 3e 03 3a 16 3e 10 4b a4 3d 30 62 30 bd
       0.1788398 0.14670567 0.080221295 -0.04306239
0000b0 a4 04 38 bd f3 3d 60 be 78 5d b7 3d dc b7 9f bd
       -0.0449263 -0.21898632 0.089533746 -0.0779874
0000c0 19 06 55 be 2f 67 16 3d 06 9c fe bc 12 77 07 be
       -0.20803107 0.036719497 -0.031080257 -0.13229015
0000d0 e3 98 4b 3e 62 61 90 3e 02 e7 56 bd 43 49 0c 3a
       0.1988254 0.28199297 -0.0524664 0.0005351493
0000e0 fa 7c 20 be 44 b9 ab be 2f f2 4b 3e 1c 3b ac 3d
       -0.15672675 -0.33539784 0.19916604 0.08409712
0000f0 f3 f7 8e 3e 46 d6 97 3e 70 48 35 be b3 af 74 3c
       0.27923545 0.29655665 -0.17703414 0.014934468
000100 8d fe 48 bd d8 7e 63 bd 9c 61 a9 3e c1 ff ac be
       -0.049070884 -0.05554089 0.33082283 -0.33788875
000110 6d b5 b9 3d 46 83 c0 3b a9 a0 53 3e 60 3b ec 3d
       0.09067807 0.005875024 0.20666756 0.115347624
000120 ec 88 bb bd 19 87 76 be 44 d1 99 3e 13 6e be be
       -0.09156975 -0.24074973 0.3004247 -0.37193355
000130 15 0f b1 3d 29 75 f7 bd eb 3f 16 be e9 7d 83 3d
       0.08645455 -0.120828934 -0.1467282 0.064205
000140 53 e3 5e 3e 94 6c 71 be 8b 87 71 be 32 bc 38 3e
       0.21766405 -0.23576576 -0.23586862 0.18040541
000150 d4 35 cc bd ee f3 bd be 81 31 8e 3d 36 27 3d 3e
       -0.099712044 -0.37100166 0.06943036 0.18471989
000160 ac e4 82 bd fa 0b f4 bd 0b bb f3 bc 48 3b 16 3d
       -0.06391272 -0.11916347 -0.029752275 0.03667763
000170 12 e4 81 be 93 e2 e6 3d 63 b4 10 3e 91 de a2 3e
       -0.25369316 0.11273684 0.14131312 0.3181043
000180 10 e1 bf bd 34 29 ee 3d b4 b6 ad bc 8a af 80 3c
       -0.09369099 0.116289526 -0.021205284 0.015708704
000190 6d ab 24 be 60 21 b6 3d 28 9b 1d 3e 39 ca a1 3d
       -0.16081019 0.088930845 0.15391219 0.07899899
0001a0 31 d3 93 3c 52 5e c5 be 05 10 cc 3d 1b 2d 9c 3d
       0.01804504 -0.38548523 0.09963993 0.07625791
0001b0 a9 58 b5 3d 98 75 93 3e ec 4d 1c be 67 af 99 be
       0.08854801 0.28800654 -0.152641 -0.30016634
0001c0 ad 44 6a 3e 32 f9 c0 bd 2f 8a 43 3e 2c bc 0d 3e
       0.2287776 -0.0942253 0.19095682 0.13841313
0001d0 7e 78 41 be 42 d2 5b be 71 6f 89 bc 75 6c 19 be
       -0.1889362 -0.21466926 -0.016776772 -0.1498278
0001e0 96 11 4a 3e 1e c1 02 3e ee 33 71 3e 45 a5 fe bd
       0.19733271 0.12768981 0.23554966 -0.124338664
0001f0 2d 34 9c 3d 81 8f 82 3d c5 12 3f be 8c 80 06 be
       0.07627139 0.063750274 -0.18659504 -0.13134974
000200 0e 1b 53 3d 6c bb 90 3d 6d 86 8c 3e 6e ee 5f bc
       0.051539473 0.07066998 0.2744631 -0.013667686
000210 3e ec ba 3d 91 ca 30 3e 9d 08 db bd 44 01 63 be
       0.09127091 0.17264773 -0.10695002 -0.22168452
000220 9a 6d 39 be 63 27 1c be a6 57 34 3e 7c 46 34 be
       -0.18108216 -0.152494 0.1761156 -0.17605013
000230 30 ee 98 bd ee 9c df 3c 15 26 a1 be 31 de 18 bd
       -0.07467306 0.02729651 -0.31474367 -0.037321273
000240 cb 37 a5 be 51 7e 4c 3d 4d fd da bd 39 2a a6 be
       -0.3226913 0.049925152 -0.106928445 -0.32454088
000250 73 90 62 3e 1f dd a6 3e 6b 68 b5 bd 57 82 37 3d
       0.22125416 0.32590577 -0.08857807 0.044802036
000260 47 b4 84 be a5 8b 81 be 73 a9 36 be 1a ec 98 be
       -0.2591879 -0.25301853 -0.17838077 -0.2986763
000270 f6 56 98 3e a9 1f 18 3e 3e 41 55 3c 5f d5 2e be
       0.29753846 0.14855827 0.013016043 -0.17073582
000280 5a 56 e1 3c ac b0 d0 3d a9 0f dd 3d 48 f7 19 3d
       0.027506996 0.101899475 0.107940026 0.03758934
000290 9a b6 35 bd d4 cd 01 3e e4 a1 71 3e 91 10 9c bd
       -0.044363596 0.12676173 0.23596913 -0.07620347
0002a0 9b 3b 58 3e 73 69 5c 3d 78 00 9f bd e1 8b 28 3e
       0.21116488 0.0538115 -0.07763761 0.1645961
0002b0 e6 7a c4 bd a9 78 9c 3d b8 3c 83 be af 18 81 be
       -0.095937535 0.076402016 -0.25632262 -0.25214145
0002c0 f2 f8 42 bc 71 84 e0 3d 47 dc ec 3c 78 b3 b0 3c
       -0.0119001735 0.10962761 0.02891363 0.021569952
0002d0 1f 66 5e bd 63 40 43 3e 6c b3 46 be 2a 2a 2f bd
       -0.05429661 0.1906753 -0.19404382 -0.04276482
0002e0 b3 2c 50 ba 7b b5 9d 3d 9f e7 bb bd ae 8f a3 3d
       -0.0007941231 0.0770063 -0.091750376 0.07986389
0002f0 2d a1 59 be 34 cd 9b 3d ed a1 b4 bd 4b c4 ce 3d
       -0.2125289 0.07607499 -0.088199474 0.10096034
000300 c6 95 5e 3e 79 81 8c 3e 40 8f f5 bd 11 bf 3c 3e
       0.21736822 0.2744253 -0.119902134 0.18432261
000310 9b 1b 8e 3d 64 aa ad 3d dd bf 0e 3e f8 e0 84 be
       0.06938859 0.08479765 0.13940378 -0.25952888
000320 7e 52 a0 be 86 89 d8 3b a7 f6 c1 3d e3 e0 38 be
       -0.31312937 0.006608191 0.09470873 -0.18054537
000330 34 ab 29 3e cb a7 25 3e 63 78 21 be c0 ce 89 be
       0.16569215 0.16177289 -0.1576858 -0.2691555
000340 41 c9 4e 3d a3 ca ab bd 9e d4 8a 3c f6 8e b1 bd
       0.0504849 -0.08388259 0.016947087 -0.08669846
000350 d6 1e 31 3e 16 92 15 3e 79 00 10 be 26 fc 82 be
       0.17296919 0.14606509 -0.1406268 -0.25583
000360 d9 e8 53 be 58 bb 98 be 9d 32 01 3e 68 88 1e be
       -0.20694293 -0.29830432 0.12616964 -0.15481722
000370 d0 1c f9 3c a1 78 25 be 91 86 45 3e bc 17 68 be
       0.030409247 -0.16159298 0.19289614 -0.22665304
000380 f0 ee 27 be 9b c5 89 3e e9 54 91 3d 04 db 11 be
       -0.16399741 0.26908574 0.070962735 -0.14243704
000390 97 44 60 3d 87 06 93 3c b1 51 98 3e d3 ae ac bd
       0.054752912 0.017947448 0.29749826 -0.084317826
0003a0 3c 06 45 3c a5 77 fe bd 81 e0 77 bc b3 e0 64 be
       0.012025412 -0.12425164 -0.0151292095 -0.22351341
0003b0 71 c6 c7 3d 78 e5 3e 3d 6c a4 5d 3e 55 f6 19 3e
       0.097546466 0.046605557 0.21644753 0.15035374
0003c0 60 21 6e be 44 6b 4f bd 32 51 77 3d 83 71 eb 3d
       -0.23254919 -0.050639406 0.06038017 0.1149626
0003d0 8a 8f 91 3d 29 5c 92 3e f6 71 3a 3e 3c 1d 8e bd
       0.07107456 0.28585938 0.18207535 -0.0693917
0003e0 b4 c0 90 be a3 58 e5 bd 3c 1b 88 bd 94 8d 73 be
       -0.2827202 -0.11198547 -0.066458195 -0.23784477
0003f0 65 eb 70 3e c2 48 5f bd f7 db 58 be e9 5b 0b 3e
       0.23527296 -0.054512747 -0.2117766 0.1360928

GRU_a.bias_ih_l0 f4 [48]
000000 d0 07 f0 bd c9 1f ef bd a7 be 24 3e 6c 40 25 3e
       -0.1172024 -0.116759844 0.16088353 0.16137856
000010 ed 79 a8 3e 5d 55 68 bb 9a 2c b6 3e 34 e2 69 3e
       0.32905522 -0.003545127 0.35580903 0.22840196
000020 1f 79 08 3a 44 28 25 3e 77 94 1c 3e 22 b9 d0 bd
       0.0005206037 0.16128641 0.1529101 -0.10191561
000030 f6 38 12 bd 49 0b 02 3e 6a fc 6c 3e ee a7 0b 3e
       -0.035698853 0.12699617 0.23143163 0.13638279
000040 70 35 49 be 0b d5 96 be b6 87 39 bc 5f 1f 80 be
       -0.19649291 -0.29459414 -0.01132386 -0.25023934
000050 9b 16 8a 3d bd e5 80 bd 4f 72 fa 3d 0d a3 47 3e
       0.06742593 -0.06293819 0.12228834 0.19495793
000060 2b 02 16 3e b5 2a 34 3e dd 80 31 be ee 18 11 3e
       0.14649265 0.17594416 -0.17334314 0.14169666
000070 84 a1 78 3e f3 92 23 bd f2 a5 27 bd 71 fc 38 be
       0.24280363 -0.039935064 -0.040929742 -0.18065049
000080 ff dd b2 be d8 7f 96 3e 7c 62 30 3e de de 0d be
       -0.34934995 0.29394412 0.17225069 -0.13854548
000090 90 58 84 3e 9d 0f c0 3e e2 63 21 3e 08 d8 d7 3d
       0.25848818 0.37511912 0.15760759 0.105392516
0000a0 75 9d ac be 06 c9 05 be 62 b2 f1 bd 11 03 7b be
       -0.3371388 -0.13064966 -0.11801602 -0.24512888
0000b0 02 3f fe 3d b6 51 25 bd 64 d4 19 be df 5e 85 bd
       0.124143615 -0.04036113 -0.15022427 -0.06512236

GRU_a.bias_hh_l0 f4 [48]
000000 0c 78 20 3e d1 af 4d 3e ce 8d 05 bd 2b a7 65 3e
       0.15670794 0.200866 -0.03260594 0.22427051
000010 18 eb af 3c bd a6 d2 3b 2d df ee 3b f8 4f 48 be
       0.021474406 0.006428568 0.007289788 -0.19561756
000020 57 3c dc 3d 09 be 5e bc c4 89 05 3c df 89 2a bd
       0.107536964 -0.013595113 0.008150522 -0.04163539
000030 3e c3 39 bc c8 e2 10 be 58 5f a3 3e bc c5 8a bd
       -0.011338053 -0.1414901 0.3190868 -0.06775996
000040 e5 ed 53 3e fe 46 61 be de 15 6f 3d c6 b4 97 be
       0.20696218 -0.21999738 0.058370464 -0.29630107
000050 88 89 66 3e 72 bb 22 3e 31 7a 15 3e e1 0e 6d 3e
       0.22513402 0.15891817 0.14597394 0.23150207
000060 68 c9 23 3e 45 cd 26 be 97 21 1a bd 49 b4 9e 3d
       0.15994799 -0.16289242 -0.03762969 0.077492304
000070 6c 5d 0b 3d c0 b9 c6 be 08 d6 72 be d4 a1 5e 3e
       0.03402464 -0.3881359 -0.23714459 0.2174142
000080 c5 aa 22 3e 8b 1b d2 3d 2d ba 6f 3e dd 32 ae 3e
       0.15885456 0.1025916 0.23410864 0.3402318
000090 c1 e5 9f bd 63 3e 9c bd 4a 83 a0 3e 2c 0c 49 3e
       -0.07807494 -0.07629087 0.31350166 0.1963355
0000a0 4e 55 80 be 53 4a 7a be a0 d7 23 3e 9f 31 ca bd
       -0.25065082 -0.24442415 0.16000223 -0.09872746
0000b0 38 29 f9 bd 53 5d 32 be da ac 95 be 1f 4a 96 3d
       -0.12166065 -0.17418413 -0.29233438 0.07338356

linear_a.weight f4 [4, 16]
000000 8b 26 ed bd 53 e6 b2 3e 9d ef 12 3e 42 62 e5 bc
       -0.11579617 0.34941348 0.14349218 -0.028000955
000010 03 e1 d7 3d 01 bb e1 3e c4 bf d6 3e 0b b2 0d be
       0.105409645 0.44087985 0.4194318 -0.13837449
000020 b6 98 b5 3a 80 c8 2b 3e 5e d6 fd 3e 0b 48 38 3e
       0.0013854716 0.16775703 0.49577612 0.17996232
000030 c3 81 1c 3c dd 99 81 3e 89 3e 37 bd ee d2 18 3e
       0.009552422 0.253127 -0.044737373 0.14924213
000040 20 89 c4 bc d5 6a cc be 73 22 2d bf 23 fc 8b be
       -0.023991168 -0.39925256 -0.6763069 -0.27340803
000050 5c 21 17 3e 6b 3a 1f bf 2a fa 22 bf 2e 8f 2e be
       0.1475882 -0.62198514 -0.6366297 -0.17046806
000060 49 83 f8 bb 40 7b f4 3c f0 bd 91 be eb 04 43 3e
       -0.00758401 0.029843926 -0.28465223 0.19044845
000070 63 11 e4 be 39 65 c4 be f6 9d 30 3e 17 c6 eb 3c
       -0.44544515 -0.38358477 0.17247757 0.02878098
000080 ab 56 3a bd 19 80 bd 3e ba 51 32 3e ba 11 47 be
       -0.04549281 0.37011793 0.17413989 -0.19440356
000090 85 d1 af be 3c 3f 8c 3e ce b2 8f 3e b7 f4 18 be
       -0.34339538 0.27391994 0.28066105 -0.14937101
0000a0 ce 4b cd bc 24 44 ad bd 54 f3 80 3e 7b 36 bc 3c
       -0.02506056 -0.084602624 0.25185645 0.022975197
0000b0 d9 0b 7b bd 7d 5c ed 3e d4 9a 70 3e 90 f7 2a be
       -0.061290596 0.46359625 0.23496562 -0.16696
0000c0 a3 2d 59 3e c9 de 09 bf 85 a3 e0 be 24 d4 a1 3d
       0.21208815 -0.5385557 -0.43874756 0.07901791
0000d0 91 5e 92 be ab a8 3f bf 8a 4c e8 be 65 e7 17 3d
       -0.28587773 -0.7486674 -0.45370895 0.03708591
0000e0 53 bb 3f 3e 00 e2 3e bd 4e 84 75 be b2 b5 17 3e
       0.18723802 -0.04660225 -0.23976251 0.14815405
0000f0 1d f8 19 bc 09 44 c7 be 01 41 06 be f6 ff 75 bd
       -0.009397534 -0.38919094 -0.13110735 -0.060058556

linear_a.bias f4 [4]
000000 ec 4b 38 3e fe e3 15 be d4 b0 3d 3e f8 55 25 bf
       0.17997712 -0.14637753 0.18524486 -0.645843

conv_v_0.weight f4 [16, 7, 3, 3]
000000 cc 81 08 3e ea 09 2b 3e cf d4 5c bb ed 21 03 3e
       0.13330764 0.16703 -0.003369618 0.1280591
000010 51 a2 1e 3e fb 47 d2 bd 9f 15 b2 bd 7a 0f 2a 3e
       0.15491606 -0.102676354 -0.0869553 0.16607466
000020 f5 bb 1c be dc 31 09 3e db d7 17 3e 0d 14 8a 3e
       -0.15306075 0.13397926 0.14828436 0.26968423
000030 bc f7 eb bd 76 ac 9f be 63 d4 56 3e fa 48 5a 3e
       -0.11521861 -0.31186265 0.20979457 0.21316901
000040 ac c4 3b be 7f 19 67 3e 5a 36 75 3e ea d4 dc be
       -0.18336743 0.2256832 0.23946515 -0.4313119
000050 6f 89 32 3e df 52 2c 3e e1 31 c3 be 6d 49 a7 be
       0.1743524 0.16828488 -0.38123992 -0.32673207
000060 d6 37 64 3e 6b b5 0b 3e fa 6a 6b 3d f1 c6 67 3e
       0.22286925 0.13643424 0.057475068 0.22634484
000070 5b ee 42 be a0 8a 5b bd d5 f1 f0 3d 81 54 de bd
       -0.19036238 -0.053599 0.11764876 -0.108559616
000080 4d 13 6a be 37 a9 41 3e cc 77 4d 3e 1f 8d 9c bc
       -0.22858925 0.18912207 0.2006523 -0.01911026
000090 c2 e9 7b 3c 7f 35 9d 3d f4 ba 3b bd da d5 e6 bd
       0.015375556 0.07676219 -0.04583259 -0.11271258
0000a0 95 48 49 bd e7 a1 39 bd 11 ef 00 3e de 31 40 bc
       -0.049141485 -0.045320418 0.12591197 -0.011730639
0000b0 b6 21 94 3d 35 90 e6 3d 6c dd 7b bd 17 45 3d bc
       0.07232992 0.11257974 -0.06149046 -0.011552117
0000c0 fd 55 02 bd 86 65 67 3d c2 90 ca 3d 86 46 9c bd
       -0.031820286 0.056493305 0.098908916 -0.07630639
0000d0 cf 92 92 bd 00 29 39 3c 5c 5e 64 bc 81 1c 12 3e
       -0.07156908 0.011301279 -0.013938513 0.14268686
0000e0 be d1 00 3e 4d 9b dd bc 9e 96 e1 3d 68 58 c0 3c
       0.1258001 -0.027051592 0.11015056 0.023479655
0000f0 f5 cf cc 3d f1 de bd 3b 91 88 e3 3d 2f 21 ab bd
       0.10000602 0.005794399 0.11110032 -0.08355939
000100 db bb d1 3a 14 1b 5b be ee 06 db 3d e0 05 1d 3e
       0.001600142 -0.21397048 0.10694681 0.15334272
000110 ed 4d bc 3d 35 a0 a8 be 15 09 cc 3d d0 5d 7d be
       0.09194551 -0.32934728 0.0996267 -0.24742818
000120 ed 31 dc b8 23 ed 4e 3d 74 05 94 3d 07 1b e1 3d
       -0.00010499717 0.05051912 0.072276026 0.10991483
000130 3e 92 da bd e6 20 31 be bd 11 9d 3d 8b 9a 0e bd
       -0.10672425 -0.17297706 0.07669399 -0.034815352
000140 6b 58 9b 3c 41 6d a2 be 83 4a 68 3d 6c 0e 02 be
       0.01896306 -0.3172398 0.056711685 -0.12700814
000150 ef a8 34 3e ea d9 26 3e 1b 43 c1 3d b0 ae 66 bd
       0.17642568 0.16294065 0.094366275 -0.05631894
000160 f3 4f 51 be ab 25 25 3c ad 34 90 be b7 15 82 3d
       -0.20440654 0.0100797815 -0.28165188 0.06351798
000170 b6 80 ba bc 1a 38 66 bd ef 38 40 bc de d0 6b 3d
       -0.022766452 -0.056205846 -0.011732324 0.05757224
000180 33 41 09 be 4d a0 7f 3b ff c3 12 3d c6 a8 6c bd
       -0.13403778 0.0039005459 0.035831448 -0.057778142
000190 d0 0a 56 3d 39 b8 a2 bd c8 55 56 bd ff dc c2 3b
       0.052256405 -0.07945294 -0.0523279 0.005946755
0001a0 3a e4 82 3d b6 54 90 3c 57 d9 f3 3c 33 35 dd bc
       0.06391187 0.017618518 0.029766722 -0.027002906
0001b0 82 1e e1 3d 8b 0a d0 bd 10 80 c7 bd 18 d2 d0 bd
       0.10992147 -0.10158261 -0.09741223 -0.10196322
0001c0 39 36 81 3d e7 45 23 3d 43 e7 b1 3c fc fd 98 bb
       0.0630917 0.039861586 0.02171672 -0.004668949
0001d0 c6 f0 8a bd 8b f0 02 be f3 8c 86 3d fe 79 74 3d
       -0.06784205 -0.12787072 0.06569853 0.059686653
0001e0 f5 09 40 3d 5d 0a 70 bd 21 ca ff bd ad 72 76 bd
       0.046884496 -0.058603633 -0.12489725 -0.060167957
0001f0 08 9b 0c be fe e6 46 bd 8b 7b 01 3e f3 2b 6a 3d
       -0.13731015 -0.048560135 0.12644784 0.05717082
000200 1e 67 e7 3d d8 1e c8 bd 47 64 ff 3c a8 71 ce bd
       0.11298965 -0.09771508 0.031175746 -0.10080272
000210 18 01 58 3d 95 a7 f3 bd 4b 93 b9 3b ef f3 b9 bc
       0.052735418 -0.11897198 0.0056633106 -0.022699324
000220 a3 bb 78 3d 25 16 92 3d ae e8 33 3d ca aa 11 3d
       0.06072582 0.0713313 0.043923073 0.035563268
000230 01 c8 06 3e 43 52 40 3b df a7 80 3c b2 8d 37 bd
       0.13162233 0.0029345907 0.015705047 -0.044812866
000240 7a c7 9a bc 33 84 c8 bd 75 ba bd bd b4 3b f1 bd
       -0.018893946 -0.0979084 -0.092640795 -0.117789656
000250 e5 ea 59 be 1b a4 40 bd ee 95 f7 bd 29 39 06 bd
       -0.21281011 -0.047031503 -0.12089144 -0.032769356
000260 4c 8b 90 be 25 0b 6f 3e 93 d2 82 bd bf 68 d7 3d
       -0.28231275 0.23344095 -0.0638782 0.105180256
000270 4d d6 b5 3d 42 d7 8e 3e 83 f1 63 3e 0f 1c 0e 3e
       0.08878765 0.27898604 0.22260098 0.13877891
000280 c2 0e 5f bc 84 ca 25 3e d6 2c 3e be 07 21 d9 3c
       -0.013614358 0.16190535 -0.18571791 0.026505006
000290 4f 90 20 be 62 67 c1 bc 27 da 7b bd c1 ed 11 3d
       -0.1568005 -0.023608867 -0.061487343 0.03562713
0002a0 ef f6 f8 bd f5 6a a2 bd 04 c6 26 be c3 ab 9b bd
       -0.12156474 -0.07930557 -0.16286474 -0.0760112
0002b0 1c 11 d8 3d c1 4b c7 3d 6a 37 09 3d 93 22 f6 bd
       0.10550138 0.09731246 0.033500113 -0.12018313
0002c0 9e 52 4a 3d 3f 97 0f be 2f 77 d2 bd 0c 4f fd bd
       0.049395196 -0.1402254 -0.10276639 -0.123685926
0002d0 c0 68 89 bc 1f 1c 8e bc 7b 47 84 bd 99 1c 4f bd
       -0.016773582 -0.017347394 -0.06458946 -0.050564382
0002e0 d2 74 e7 bc b4 2f e4 bc 24 2b ac 3d bb 62 fb 3d
       -0.028253946 -0.027854778 0.08406666 0.12274691
0002f0 76 5c 5f 3d 16 91 33 bd ae ba 1f 3e 5a 48 b0 bc
       0.054531537 -0.043839537 0.15598556 -0.021518875
000300 9b cc 5c be 36 e9 ce bd d5 7b 90 bd 0c 99 37 bc
       -0.21562426 -0.10103075 -0.07054869 -0.011205923
000310 20 d7 8b 3d 47 c9 0f 3d 27 fd 3e bd b8 15 13 3e
       0.06828141 0.035104062 -0.046628144 0.14363754
000320 48 4f dd bd 20 e3 fa 3c a6 63 9d be 94 92 0e 3e
       -0.10806137 0.03062588 -0.30740088 0.13923103
000330 90 d2 d6 3c 6c fd 4f be d8 a0 7a 3d bc 03 e7 3d
       0.02622345 -0.20311517 0.06118855 0.11280009
000340 17 22 8b be e9 56 15 3d 3d 21 1d 3e ec 6a f0 3d
       -0.27174446 0.036459837 0.1534471 0.11739144
000350 51 ec 59 bd c6 ee 81 3e 7f c1 fd 3d 2e 5f 67 be
       -0.053203885 0.25377482 0.12390422 -0.22594902
000360 e0 72 a6 3d 37 28 8f be ef ae 44 3d 14 f1 87 bd
       0.081273794 -0.2796037 0.048018392 -0.06637779
000370 4b 5b df 3c c7 49 41 3c 68 8b 1f be a1 fe 41 bd
       0.027265212 0.011797375 -0.15580523 -0.047361974
000380 55 1d b4 bd c4 32 a4 3d 87 1f 2e 3c 89 25 0f 3d
       -0.08794657 0.08017495 0.010627634 0.034947906
000390 fa 20 87 3d 45 82 c5 3d b9 6d 15 bd 73 97 66 bc
       0.06598087 0.096439876 -0.036481593 -0.014074194
0003a0 e9 23 9d 3d 0e e4 11 bd bf e1 10 3d 09 4d 98 bc
       0.07672865 -0.03561788 0.03537154 -0.01859142
0003b0 b6 15 8e 3d f4 26 86 3d be 9c bb bd ba 3e f7 3c
       0.06937735 0.065503985 -0.091607556 0.030181278
0003c0 7a f1 cd bc ba fd 09 3c 5e 71 ec bb b3 83 76 bd
       -0.025139559 0.0084223095 -0.007215663 -0.060184192
0003d0 72 c4 96 bd d7 e0 76 bd a7 e2 45 be 04 bf 1a be
       -0.07361688 -0.060273018 -0.19324742 -0.15111929
0003e0 a0 e4 90 bd 21 66 01 be ba a7 5e bd 13 67 eb bd
       -0.07074857 -0.12636615 -0.054359175 -0.11494269
0003f0 51 51 a1 3d 07 93 c8 bc 28 60 fd 3a eb 4a 37 3e
       0.07876838 -0.02448417 0.0019331025 0.17899673

conv_v_0.bias f4 [16]
000000 f2 5f 83 ba 90 5f 96 bb b0 ca 1a 3d 9b da 4e bc
       -0.0010023101 -0.0045890287 0.037790954 -0.012625362
000010 67 27 81 bc b0 5e 8a bd bd f8 b9 bc b9 a0 c5 bc
       -0.015765859 -0.067563415 -0.022701615 -0.02412449
000020 92 d1 27 3d 2b 2b b3 bd 49 00 e5 bb d3 92 00 3d
       0.040971346 -0.08748468 -0.0069885594 0.031390022
000030 0c be da 3c f8 0e a0 bd e4 6e 75 3c 05 f0 ed 3d
       0.02670195 -0.07815355 0.014980052 0.11618046
