league/checkpoints/mfos_seeds/new_self_6x6_63/1000_1.pth (torch, 551577 bytes, 105 tensors)

conv_a_0.weight f4 [16, 7, 3, 3]
000000 6f d5 f0 3d 77 fb fd bc 58 a3 18 3e f3 9b b0 bd
       0.11759459 -0.031003697 0.1490606 -0.08623495
000010 3c b0 1d 3e f7 2d 87 3d 1f 2b 8d 3c d9 eb 00 3e
       0.1539926 0.06600564 0.017232476 0.12589969
000020 7e fc 9f 3d 4b eb ba 3d 3b 1e cd 3c c5 05 37 3d
       0.07811831 0.0912691 0.02503883 0.044683237
000030 f7 ea cf bd 33 3c 01 3e f5 0d a7 bc 5a d0 f6 3d
       -0.10152238 0.1262062 -0.020392397 0.12051459
000040 6b 26 10 3e f8 b8 04 3e 20 2b 33 3b 38 ae 72 be
       0.14077155 0.12961185 0.0027338937 -0.23699272
000050 d4 10 16 3e 89 7e 40 be 34 75 d2 bd b1 f0 40 3e
       0.14654857 -0.1879827 -0.10276261 0.18841816
000060 b2 71 35 be cd 1a 3a 3e 3b 4a 9f 3e 27 fd 4b 3c
       -0.17719153 0.18174286 0.3111132 0.012450493
000070 d1 26 a0 3d b3 ac 48 bd cc 86 d8 bd e8 fc ec bd
       0.07819904 -0.048992824 -0.105725855 -0.115716755
000080 27 b4 20 bd 17 ce b6 3d 92 5b d3 bd d6 cd 12 be
       -0.039234307 0.08926027 -0.103202 -0.14336333
000090 12 43 71 be fa f9 f8 bd 7a 7f a3 bd cd 22 40 be
       -0.23560742 -0.12157054 -0.079832986 -0.18763275
0000a0 4f e3 2e be 27 64 80 bd 54 b8 4c be 49 27 15 be
       -0.17078899 -0.062691025 -0.1999219 -0.14565767
0000b0 20 a5 4d be 4c 77 c2 3d ca 9a 7a bd 2e a3 71 3d
       -0.20082521 0.0949541 -0.061182775 0.05899351
0000c0 5a 69 01 3e ba 6c 63 bc 36 b2 7c 3c 03 9f 81 bd
       0.12637845 -0.013880903 0.015423348 -0.06329157
0000d0 d0 ff 2d 3e ae f5 df 3d 69 52 0c be 09 f9 92 bc
       0.16992116 0.109355316 -0.13703312 -0.017941015
0000e0 c3 6c 58 bc f8 a7 5b 3c 8c 19 99 bd d2 59 b4 bd
       -0.013209525 0.013406746 -0.07475576 -0.08806194
0000f0 ee 95 cb b9 af a1 d0 bc d1 fb 16 bd 43 24 5c bd
       -0.00038830884 -0.025467722 -0.036861245 -0.05374552
000100 57 98 7a 3d 9e b2 d3 3d 9a 22 8c bd 60 11 23 bd
       0.06118044 0.10336803 -0.06842537 -0.039811492
000110 da 51 14 3d e4 cc 4b 3c 1d be 34 3c dd c3 1b 3e
       0.036210872 0.012438986 0.011031655 0.15211435
000120 64 ed 09 3d b0 08 73 bc c0 12 f7 3c 46 6d b5 bd
       0.03367366 -0.014833614 0.030160308 -0.08858733
000130 6d 83 5c 3e e9 b8 b6 3c a5 0b 02 3e 2f a2 6b 3d
       0.2153451 0.022304969 0.12699755 0.057527717
000140 7b d2 d7 3c e4 8b ca 3d 79 82 ba 3e 3e 78 89 3e
       0.026345482 0.09889963 0.36427668 0.2684955
000150 ef 09 10 3e 3f 6f a5 3e 9c c5 ad 3e 52 bf 87 3e
       0.1406629 0.32311437 0.33939826 0.26513153
000160 44 b5 8d 3e c5 46 28 3d 7c ca b5 bc d0 6c 33 bc
       0.27677357 0.041083116 -0.022191279 -0.010951236
000170 c4 85 02 3e 70 63 fc bc 72 e4 20 3d ce a4 89 bd
       0.1274634 -0.030809134 0.039280362 -0.06720887
000180 5b f8 34 3c 42 26 89 3d 73 1a 28 be 85 d1 93 bd
       0.011045541 0.0669675 -0.1641634 -0.07217697
000190 ea 63 09 3e 65 dd 03 3e 45 a0 0a 3e fb d4 a1 bd
       0.1341702 0.12877424 0.135377 -0.07901951
0001a0 00 ab 92 3c 4f 39 bd 3d ba 00 2e bd 44 f7 11 3d
       0.017903805 0.09239446 -0.04248116 0.0356362
0001b0 d9 6f ef 3d 37 6e 91 3d c2 0e e8 3c 47 54 ef 3c
       0.11691255 0.071011 0.02832735 0.029214991
0001c0 91 01 1f 3e a4 fb f9 bc 9e ac 31 3e c2 95 af bc
       0.15527941 -0.0305155 0.17351004 -0.021433715
0001d0 f3 4a c4 3d e2 25 98 3d 3a af 92 bb cd ab 54 3d
       0.09584608 0.074291006 -0.004476455 0.051921654
0001e0 3a 24 d4 bd 40 fe e8 bc ce 62 29 bc d4 c4 05 bd
       -0.10358472 -0.028441548 -0.010338498 -0.032658413
0001f0 9f 59 c4 3c 57 2a 6f bb a8 b7 57 3c 82 18 d9 3d
       0.023968516 -0.0036493742 0.013166346 0.106003776
000200 e2 9f 12 3e 31 62 f6 bc ea 7e ae 3b db df 00 3e
       0.14318803 -0.030076118 0.005325188 0.12585394
000210 ee 2a 90 3d 6b e3 0a 3e f6 f0 2c 3e 7e a4 43 3e
       0.07039438 0.13563316 0.16888794 0.19105718
000220 e8 1a 01 3e 42 67 f5 3d f5 bb 86 bd 70 59 bd 3c
       0.1260792 0.119825855 -0.06578819 0.023113936
000230 4c af 9b bb 6e 99 49 3e 62 1f b2 3d ee 83 a6 bc
       -0.0047511216 0.19687435 0.08697392 -0.02032658
000240 02 ba e3 3d cc e1 df 3e fb d6 17 3e ed 8e 4b 3e
       0.111194625 0.43726957 0.14828102 0.1987874
000250 cc 68 bc bb 90 ab 99 3d 09 87 2e be d1 9e b2 3e
       -0.0057497974 0.07503426 -0.170437 0.34886792
000260 ef e6 14 bc 56 32 ea bd 3e 69 ac bd 8f 58 3c 3d
       -0.009088262 -0.11435382 -0.08418511 0.045982894
000270 53 00 14 be df 9e 94 3d 64 fd 4f be 63 8d 10 3c
       -0.14453249 0.07256865 -0.20311505 0.008822772
000280 39 f2 a5 bc c7 48 74 bd 71 6b cc bd 91 39 40 bd
       -0.020257102 -0.05963972 -0.0998143 -0.0469299
000290 92 a9 ab bd 4a cc 99 bd 1c ef 72 3d 90 95 37 3d
       -0.08381952 -0.07509668 0.059310064 0.04482037
0002a0 59 87 e7 3d 50 a3 b6 3d 56 9c b7 bd 98 3a e0 bd
       0.113051124 0.08917868 -0.089653656 -0.10948676
0002b0 c6 1b a2 bd b2 a7 1b be 72 1b 10 be 79 b9 2d 3c
       -0.079154536 -0.1520069 -0.1407297 0.010603302
0002c0 c3 ec 98 bd 78 d7 79 bd c0 b5 db bd 9b 6b 02 be
       -0.07467034 -0.060996503 -0.107280254 -0.1273636
0002d0 9e 69 22 3d 4b c4 9b bd 42 a5 c1 3c 7f eb 3c bc
       0.039651506 -0.07605799 0.023638371 -0.011530756
0002e0 3c ed cf bc 8d b8 c2 bd 4e ae 05 3d 33 d6 3a bd
       -0.025381677 -0.095078565 0.032636933 -0.045614433
0002f0 87 c2 d1 bd 15 8b bd bd ae 30 0b be 3b b2 db bd
       -0.10242181 -0.092550434 -0.13592789 -0.10727354
000300 6e b7 9e 3c a8 dc 22 bc ec b2 0d 3d 68 89 c6 bc
       0.019374575 -0.009940304 0.03459446 -0.024235442
000310 03 95 93 bb 3f 31 31 3c 0c b9 f5 bd 6e e3 2f be
       -0.0045038476 0.010814964 -0.119981855 -0.17176601
000320 36 15 06 3d 09 be 3a 3e 48 a0 ea 3c 63 c0 93 bc
       0.032735072 0.18236555 0.028640881 -0.018036073
000330 81 b6 53 bd a9 78 da 3c 26 1d 00 bd fe 2d c9 3d
       -0.05168772 0.026668863 -0.031277798 0.098232254
000340 70 26 9a 3e 20 64 20 3e 18 89 86 3e 86 69 a2 3e
       0.3010745 0.15663195 0.2627647 0.31721133
000350 ab 05 23 be 8e 0a 19 3e 60 96 65 3e ce 76 6b 3e
       -0.15920131 0.14945433 0.22420645 0.22994539
000360 72 ae bd bd e9 51 be bd 5d 36 18 3e 19 11 f6 3c
       -0.092617884 -0.09292967 0.14864488 0.03003745
000370 af ff af 3d 0e a9 f4 3d 42 be 52 be 4e 9d 12 3e
       0.0859369 0.11946307 -0.2058039 0.1431782
000380 98 73 5c be 07 b4 b0 bd 7b d3 0d bc bc 2d a6 bd
       -0.2152847 -0.086280875 -0.008656378 -0.08114192
000390 9b 84 60 3c a9 17 71 bd 85 ae 6b bd 94 b1 9e 3c
       0.013703491 -0.058860455 -0.05753948 0.019371785
0003a0 a7 ea cf 3d 05 00 0c ba 76 27 95 3d ca ba 3d bb
       0.10152178 -0.0005340579 0.07282917 -0.0028950446
0003b0 47 fd fa 3c 2d 23 ab 3b 0c 9f 57 3c b3 9e c6 bd
       0.03063835 0.005222699 0.013160478 -0.09698238
0003c0 20 4c 19 bd 34 b2 0f bb 56 fa 3c bd ba 03 af bd
       -0.037426114 -0.0021926286 -0.046137176 -0.08545633
0003d0 31 86 19 be 14 fe dd 3b 29 2f ca bd 08 cf 07 be
       -0.14992596 0.0067746732 -0.09872276 -0.1326257
0003e0 54 5f 1d be 8e eb 5c 3d b2 2b 3b 3c 71 dd 64 bd
       -0.15368396 0.05393558 0.011423992 -0.055875245
0003f0 dd 01 b2 bd 16 a2 0e 3e 02 ae 28 3e 4f 35 e3 bd
       -0.08691762 0.13929018 0.16472629 -0.11094152

conv_a_0.bias f4 [16]
000000 91 55 c9 bc 90 15 e5 bc 98 0b 66 3c 31 81 4c 3d
       -0.024576934 -0.027964383 0.01404085 0.049927894
000010 92 ca 16 3e 0e 99 02 be a7 74 8a 3c 28 26 2b 3d
       0.14725712 -0.12753698 0.016901327 0.041784436
000020 8a d0 d6 3d 0e 27 66 bc 4f b4 27 ba d1 7c 16 3d
       0.104889944 -0.014047397 -0.00063974125 0.036740128
000030 e4 8e 81 3d f0 b9 99 3d cc ae df 3d 1e 46 e2 bd
       0.06326082 0.07506168 0.10922012 -0.1104853

conv_a_1.weight f4 [16, 16, 3, 3]
000000 5b d1 30 3e 0f c7 ad 3d 40 da 1e 3e f5 cd 13 3e
       0.17267363 0.08485233 0.15512943 0.14434035
000010 96 84 06 3e c2 15 07 3e f8 2d b0 3d 1b 77 36 3e
       0.13136515 0.13191894 0.08602518 0.17818873
000020 96 aa 34 3e 9f 9b b1 3d 90 96 83 bd 5c fc f3 3b
       0.17643198 0.086722605 -0.06425202 0.007445855
000030 39 b0 51 bc eb c6 56 3d 31 0c f3 bc 7f ff 14 bd
       -0.012798362 0.052435797 -0.0296689 -0.036376473
000040 f7 dc 12 bc 38 40 e0 3b 13 67 ce 3d 28 40 db 3d
       -0.008963815 0.006843593 0.100782536 0.10705596
000050 7a 4a c5 3d 7b 5e 8f bb 7b cd 6a 3d 64 05 c0 3d
       0.09633346 -0.0043752766 0.057324868 0.09376028
000060 2f 75 82 3d 4b 13 8b 3d 22 f8 b3 3d 35 68 2a 3d
       0.06370007 0.06790789 0.08787562 0.041603286
000070 b7 0f 04 3d 7d 76 20 3c fa ff 08 bd fb fc 1b 3d
       0.03224155 0.009793875 -0.033447243 0.038083058
000080 24 c7 a8 3c 2b f7 94 bc 75 1b 2d 3d ef b4 a4 3d
       0.02060277 -0.018184265 0.042262513 0.08042323
000090 10 f6 0a bd b6 0a ab bc 87 d2 79 3c 59 5c af bc
       -0.03392607 -0.02087913 0.015247948 -0.02140634
0000a0 22 c4 90 3d 4a f0 c2 bb f7 8d a2 3d 45 0c 4a b8
       0.07068659 -0.005949055 0.07937234 -4.817198e-05
0000b0 f3 7a 92 3a 5e 8d b9 ba c1 f5 40 3c ae 6d 9c 3b
       0.0011175558 -0.0014156511 0.011777342 0.004773817
0000c0 1b 45 d6 3d c4 13 9d 3d 2a ef e4 3c ce eb 93 3d
       0.104623996 0.076697856 0.027946074 0.072227105
0000d0 d2 ee a8 3d 49 0e 21 3d dc 2f b2 3d 1f d3 96 3d
       0.08248676 0.039320264 0.08700535 0.07364487
0000e0 bf f6 8d bc 2b e0 35 3c dc 26 9d 3d df 47 03 3e
       -0.017329572 0.011100809 0.076734275 0.12820385
0000f0 77 e6 67 3c da fc 9a 3d d4 c1 88 3d 27 39 03 bd
       0.014154068 0.07567759 0.06677595 -0.032036927
000100 be fe 30 3d eb b0 1d 3c d0 20 0f 3d 3c 49 82 3d
       0.04321169 0.0096247 0.0349434 0.063616246
000110 9e bd 09 3e b0 09 4b 3c ec ec c4 ba 2b d5 be 3d
       0.1345124 0.012392446 -0.0015024222 0.09318002
000120 53 52 8b bd f8 b7 78 3d c7 a0 b4 3c 23 f9 db 3c
       -0.068028115 0.06072232 0.02204932 0.026852196
000130 c0 62 bb 3d 8d c7 da bc 95 81 4d 3d 78 be 1c 3b
       0.091496944 -0.026706481 0.050172407 0.002391724
000140 e2 98 8b bd ca 90 f5 ba 30 b6 1b 3d b1 ac 59 3d
       -0.068162695 -0.0018735167 0.038015544 0.053143207
000150 d0 de 27 bd 36 08 35 bd aa 07 84 bc dc ec a1 bd
       -0.040983975 -0.044197284 -0.016116936 -0.079065055
000160 06 1f 9b bd e3 7a 35 bd e3 a9 bb 3d e6 46 42 bd
       -0.075742766 -0.044306647 0.09163263 -0.047430895
000170 b5 d8 d8 3d b2 62 35 3c 50 e1 02 3d e2 b9 ef 3d
       0.105882086 0.011070894 0.031953156 0.11705376
000180 9f 1a 93 bc 26 b7 70 bd 22 9f bd 3d eb 3f 9b 3d
       -0.01795703 -0.058768414 0.09258868 0.07580551
000190 f6 91 cb bc 0b 32 f0 bb fb bb 71 3d 5d 96 a5 3d
       -0.024849873 -0.0073301843 0.059017163 0.0808532
0001a0 75 c5 a4 3d 26 0b 04 bd f1 1c b0 3d 0b 24 13 3e
       0.080454744 -0.032237194 0.0859927 0.14369218
0001b0 cb ff e9 3d 1e cf 39 3d e9 2d 12 3d 2d b1 df 3d
       0.11425742 0.045363538 0.035688315 0.109224655
0001c0 96 71 08 bc 50 a8 eb 3c 12 c4 90 bc f1 2e b0 bc
       -0.008327862 0.028766781 -0.017671619 -0.021506758
0001d0 8c 11 75 3d 7c 40 89 3d 55 d8 23 3d 5d 0e 29 3d
       0.059831187 0.067017525 0.040001232 0.041273464
0001e0 f6 6c 8e bb 1a fb 7e 3d 65 1e 75 3d e2 a9 a2 3d
       -0.0043464852 0.062251188 0.05984344 0.07942559
0001f0 01 25 c4 3c 48 66 10 bc e1 b8 bc bb c5 21 26 3d
       0.023943426 -0.008813448 -0.005759344 0.04055955
000200 92 d4 b0 3d d3 f0 9a 3d 9b d6 3d 3d ea aa c9 3d
       0.086342946 0.07565465 0.04634724 0.098470524
000210 95 f3 5d 3d e8 69 c8 ba 16 4c 6a bb 9a ae 43 3d
       0.054187376 -0.0015290352 -0.0035750917 0.047773935
000220 bf dc 6b 3d d9 89 79 3d 30 95 ee 3d b3 04 e5 3d
       0.057583567 0.060922477 0.11649549 0.11182537
000230 69 7a b1 3d 37 ea 92 3d ab e1 d1 3d 60 f5 0b 3e
       0.08665926 0.07173579 0.10248121 0.13667822
000240 ff 4c 93 bd 39 0a bc 3c 46 3e 05 be fe 64 4d bd
       -0.0719242 0.022954093 -0.13012037 -0.05014514
000250 36 b1 1e 3d 84 12 f5 bd 4c 5b c3 bd 98 c0 f1 3c
       0.03874322 -0.11966422 -0.09538898 0.029510781
000260 1b cc 30 be b5 f6 00 3d 4f 12 b2 3d c3 d6 e7 bc
       -0.1726536 0.03148528 0.08694898 -0.028300649
000270 c1 98 b9 3d 50 6f ca 3d dd c5 70 bc 47 49 48 3c
       0.090623386 0.098845124 -0.014695612 0.012224502
000280 0e 1f 9c ba 76 97 42 bd e6 bf 10 3c 8d 33 07 3d
       -0.001191111 -0.047507726 0.008834815 0.033008147
000290 94 30 d2 3d 7d db e5 3d f2 aa c4 3d 7e a3 06 bd
       0.10263172 0.11223505 0.09602918 -0.032870762
0002a0 03 ea ac bc 74 d6 ba 3c b2 36 41 3c 07 82 bb bd
       -0.02110768 0.022807337 0.011792826 -0.0915566
0002b0 1e 1a 1a 3e 4f 31 e1 3d e6 ec 19 bd 9f 93 2a 3d
       0.15049025 0.10995733 -0.03757944 0.04164469
0002c0 ac 92 cc 3d 82 8f b6 bd e0 3a 93 3d bf 3d ca 3d
       0.09988913 -0.08914091 0.07188964 0.098750584
0002d0 90 9c 8e 3c b6 f1 2f bd b5 1f 9c bc c1 0d a1 bc
       0.01740864 -0.042955123 -0.019058088 -0.019659879
0002e0 f3 8e 1c 3d 76 41 38 3d 1c 51 d0 bb 95 3b 92 bc
       0.038222264 0.044984303 -0.0063573252 -0.017850677
0002f0 b2 e5 c4 3b 31 67 75 bd d0 d0 13 be df 3c 81 bd
       0.006008827 -0.059912864 -0.14435124 -0.06310438
000300 2c 58 d3 bd dc dc 90 bc 24 40 0b be 0d d7 17 bd
       -0.10319552 -0.017683439 -0.13598686 -0.037070323
000310 70 92 da bd f1 b1 b0 bd 27 1c 09 3d b4 2f 5d 3d
       -0.10672462 -0.0862769 0.033474114 0.05400057
000320 a4 9b 91 3d 18 6c 78 bb b3 e2 26 bc 52 98 c4 3c
       0.07109764 -0.0037906226 -0.010185885 0.023998413
000330 b2 5e d8 bd 03 58 6c bd 3f eb 12 3d 03 f2 da 3c
       -0.10564937 -0.057701122 0.03586888 0.026726728
000340 81 58 cc 3d c6 85 4b 3d c9 f2 e0 bc 74 5c 94 3d
       0.09977818 0.049688123 -0.027459519 0.072441965
000350 9e c6 e7 3c 8b d1 9e bd 2e 0f 4e bc eb 6b 23 bd
       0.02829295 -0.07754811 -0.012576861 -0.03989784
000360 d6 84 44 3d fc 1b ca 3d f9 49 47 3d 00 40 43 3d
       0.047978245 0.09868619 0.04865453 0.047668457
000370 8c 6d 49 bd 08 e6 92 bc 00 07 b5 3d 0a 95 8c bd
       -0.049176738 -0.017931953 0.08839226 -0.068643644
000380 cc ba 14 bd b3 eb 10 3e 7b 64 23 3e 90 e3 17 3e
       -0.036310956 0.14152412 0.15956299 0.14832902
000390 a6 c5 c9 3d a2 68 b7 3d af 65 93 3d 0e 45 a8 3d
       0.098521516 0.08955504 0.07197129 0.08216296
0003a0 b4 08 17 3e 3d 23 22 bd 99 dd ef 3c 97 55 14 3e
       0.14749414 -0.039584387 0.02928047 0.14485775
0003b0 1a 9b 8d 3c 6a 43 f4 3c 9a f9 c5 3d 45 19 51 bd
       0.017285872 0.029817302 0.09666748 -0.05104949
0003c0 b6 1b b5 3a 49 ec 23 bd 42 e0 a4 bd 46 b5 9b bd
       0.0013817463 -0.04002026 -0.08050586 -0.076029345
0003d0 7a e6 b3 3d b6 92 78 3d b8 cc 0e bd 11 13 8a bd
       0.08784194 0.06068679 -0.034863204 -0.06741918
0003e0 5c 4e 52 3d 06 19 19 bd f6 02 2e bd ba 12 5d bc
       0.05134426 -0.03737738 -0.042483293 -0.013493234
0003f0 e7 1d 41 bd 1e 43 dc 3d 2e ab 9d bd f2 38 8f 3d
       -0.047147658 0.10754989 -0.076986656 0.06993283

conv_a_1.bias f4 [16]
000000 c7 01 71 bd 96 21 e5 3c 5b 62 91 bc f3 97 08 3d
       -0.058839586 0.027970117 -0.017747095 0.033348035
000010 5c 44 e1 3c ef dd c0 3d be ba 6a bd 0b a2 c0 3c
       0.027498417 0.094173305 -0.057306997 0.023514768
000020 d5 48 99 3c c1 52 45 bd fa 31 9c bc 83 4a 83 bb
       0.018711487 -0.048174623 -0.0190668 -0.004006685
000030 94 2f d4 bd ec 10 84 bd 44 08 a4 3d bd 45 40 3d
       -0.10360637 -0.0644854 0.08009389 0.046941508

linear_a_0.weight f4 [16, 576]
000000 a5 10 1b bd 4c 38 cc bc 06 0a 4d 3d 52 99 87 bc
       -0.03785767 -0.024929188 0.050058387 -0.016552601
000010 28 10 b4 3b 38 1a 2c bd d3 4e 4f bd fa 03 fc bc
       0.00549509 -0.04201719 -0.050612282 -0.030763615
000020 30 ca f5 3c 79 4e 8a bc a8 79 67 bd 22 a9 30 bd
       0.030003637 -0.016883122 -0.056512505 -0.043130048
000030 e4 03 39 bd d9 b4 c2 bc 4b 22 24 3d ee 5f eb 3c
       -0.045169726 -0.023767876 0.040071767 0.028732266
000040 ef f3 c0 3c 1d ff 18 bd 65 16 33 bd a8 34 55 bd
       0.023553817 -0.03735267 -0.04372253 -0.05205217
000050 d2 f2 3b bd ba ee be 3b 30 9a fc 3c 55 a4 78 bd
       -0.04588587 0.0058267983 0.030835241 -0.060703594
000060 1a ba 86 bd 9c 91 fb bc f7 bf 0d bc ef ad bb 3c
       -0.06578465 -0.03070908 -0.008651725 0.022910086
000070 19 18 7f bd 3a 83 46 bd 69 6c 94 bc 04 57 d2 3b
       -0.06227884 -0.04846499 -0.0181181 0.0064190645
000080 f7 44 6a 3b dc 72 da bc 50 c6 2e bd 51 06 07 bd
       0.0035746673 -0.026666097 -0.042669594 -0.03296501
000090 e1 8f 80 3c 1d 97 66 3d 35 07 88 3d 5b 0d 90 3d
       0.015693607 0.056296457 0.06642 0.07033797
0000a0 46 06 45 3d cf 12 55 3d 94 bb 93 3c f8 dd a5 3d
       0.048101686 0.05201989 0.01803378 0.08098978
0000b0 91 cf a0 3d 75 39 36 3d 0c 7b 15 3d 9a 60 11 3d
       0.0785209 0.04448839 0.0364943 0.035492517
0000c0 0d 63 ef 3b c1 28 76 3c 23 0f 53 3d 3a 98 8e 3d
       0.007305509 0.015024365 0.051528107 0.06962629
0000d0 9c 36 4f 3c 09 bf 3c 3d e2 b5 31 3d 02 5f e4 bb
       0.012647297 0.046080623 0.043386348 -0.0069693336
0000e0 0f 72 80 3d 09 d9 88 3d 03 e7 1f 3d 80 f9 6e 3d
       0.06271755 0.06682021 0.03903867 0.05834341
0000f0 8d e0 51 3d 4f a7 4d 3d fa b8 11 3c bd 6c cd 3d
       0.05123954 0.050208386 0.0088941995 0.10030506
000100 f8 bd 3a 3d b5 72 e7 3b 11 31 39 3d 06 77 49 3d
       0.045591325 0.0070632347 0.04521281 0.049185775
000110 8e 5f 86 3d 49 d1 e7 3d 4f 02 a0 3d 28 13 cf 3c
       0.06561194 0.11319215 0.0781294 0.02527769
000120 dd 11 95 bc 1d 8a e9 3c 26 68 f5 3d 55 2f d7 3d
       -0.018196994 0.02850824 0.11982755 0.10507075
000130 ec 1f 9c 3d 09 17 1f 3b 04 90 83 3d 94 69 8f 3d
       0.07623276 0.0024275205 0.06423953 0.07002559
000140 36 1b b1 3d 1e 02 32 3d 5f b7 59 3d e0 e9 db bb
       0.08647768 0.04345905 0.053153392 -0.0067112297
000150 c9 fe 05 3d e0 27 d0 3c a6 38 d2 3d db 54 0d 3d
       0.032713685 0.025409639 0.10264711 0.034504753
000160 b4 c1 c4 3b d2 10 99 bc a5 3d 5e 3d 4f b2 6a 3b
       0.0060045365 -0.018684778 0.054258008 0.0035811847
000170 6a 0a 54 3d c9 5a 69 3d f9 95 bd 3d 79 f2 1f 3d
       0.051767744 0.056971345 0.09257121 0.0390496
000180 fe e8 da 3c b5 07 56 3c f9 ca 8a 3d 50 90 ca 3d
       0.026722427 0.013063361 0.06776995 0.09890807
000190 43 a2 1a 3d f9 a2 d7 3b 81 53 95 3c 6e 73 3f 3d
       0.0377524 0.006580707 0.018228294 0.04674094
0001a0 32 bd bc 3d b6 57 07 3e 97 26 5d 3d 56 07 40 3d
       0.09215774 0.13217053 0.05399188 0.046881996
0001b0 68 81 f7 3c 01 26 f2 3c d8 8c 84 3d 79 9c 84 3d
       0.030213073 0.029559137 0.06472176 0.06475157
0001c0 e8 79 82 3d e9 b8 0c 3d 50 88 93 3d 30 96 54 3d
       0.06370908 0.03435603 0.07203734 0.051901042
0001d0 8b 34 23 3d ad a5 a6 3d 23 43 f3 3c 53 a1 b7 3c
       0.03984503 0.08137069 0.0296951 0.022415793
0001e0 33 64 fe 3c 14 da 53 3d e5 88 95 3d 94 d6 61 3d
       0.031053638 0.051721647 0.07301501 0.05513628
0001f0 ae b6 59 3d d8 87 7c 3c 9f d6 0f 3c f9 21 25 3d
       0.053152733 0.015413247 0.008779197 0.040315602
000200 f3 fd c6 3c 7d 5b db 3d 43 c1 91 3d cd 35 dc 3c
       0.024291014 0.107108094 0.0711694 0.026881123
000210 4c 49 1b 3c 68 46 00 3d 5c 99 91 3d e9 10 a1 3d
       0.009477925 0.031317145 0.07109329 0.078645535
000220 bf 2b a4 3d 06 04 78 3d cd 80 d5 bb 50 b2 8f 3d
       0.080161564 0.060550712 -0.0065155984 0.07016432
000230 75 68 63 3d cf 41 ca 3d bd 50 6c 3c 1f a1 68 3d
       0.05551954 0.09875833 0.014423546 0.056794282
000240 1c 80 9b 3c 19 d6 88 3d 10 fa c5 3d af e4 e0 3d
       0.018981986 0.06681461 0.09666836 0.10981118
000250 f4 c7 0f 3b 6c 00 f6 bc e1 52 0e 3d e3 f6 99 3c
       0.002193925 -0.030029498 0.03474701 0.018794483
000260 02 fa 9d 3d 25 52 d5 3d 69 c0 54 3b 9e a2 1a 3d
       0.07713701 0.104160585 0.0032463318 0.03775274
000270 6c b4 2c bb b6 cf 94 3d 07 03 8d 3d 0b 27 9b 3d
       -0.0026352657 0.0726618 0.06885343 0.07575806
000280 c0 b0 a6 3d be a1 05 3d b4 b3 0d 3d b9 26 0c 3d
       0.08139181 0.032624952 0.034595206 0.034216616
000290 92 d8 34 3d c5 80 4f 3d 87 cf b4 3d fc 00 6c 3d
       0.04415185 0.050659914 0.08828645 0.057618126
0002a0 31 1a 11 bc 26 be 1b 3d ce 80 78 3d ac ff 3f 3d
       -0.008856342 0.038023137 0.060669713 0.046874687
0002b0 fd 59 7c 3d 00 31 11 3d 17 ea cd bb 0e ea b5 3d
       0.061609257 0.03544712 -0.006284009 0.08882533
0002c0 13 7b 94 3d 3a da d8 3d 7e b7 4b 3d fa 4f 34 3d
       0.07250037 0.105884984 0.04973554 0.044021584
0002d0 23 6f 95 bc 78 da 68 3d 4c b0 f8 3d 1f b7 d5 3d
       -0.01824147 0.056848973 0.12143001 0.10435318
0002e0 2d 00 84 3d 4b e8 fc b8 6b 2b 8d 3d 8b d9 ac 3d
       0.06445346 -0.00012059564 0.06893047 0.084399305
0002f0 4e e7 9b 3d 77 b7 03 3d 49 43 4d 3d 8a 59 d7 bb
       0.07612477 0.032157388 0.050112996 -0.006571953
000300 1b a8 6a bc ba e8 51 3d 67 9f 27 3d 1b 9a 49 3d
       -0.014322306 0.051247336 0.040923502 0.049219232
000310 83 92 95 ba 47 8d 0f 3d 28 32 c8 3b 9c 57 8b 3d
       -0.0011411462 0.035046842 0.0061094947 0.068038195
000320 59 e9 b8 3d 30 07 69 3d ed 27 c7 3b d2 4c c5 3c
       0.090288825 0.05689162 0.0060777576 0.024084482
000330 62 11 c8 3a e9 b4 2c 3c ca bf a4 3d 56 3f e7 3d
       0.001526397 0.010541179 0.08044393 0.11291377
000340 6d 91 25 3d d9 c6 c5 3c 2b 9c 92 bc 26 d1 90 3d
       0.040421892 0.02414267 -0.017896732 0.07071142
000350 b1 31 c7 3d 98 76 69 3d 19 0c b1 3d dd 0b 6a bc
       0.09726275 0.056997865 0.086448856 -0.014285055
000360 ba 31 c4 ba aa 50 a5 3d df 58 8e 3d 03 72 18 bc
       -0.0014968433 0.08072026 0.069505446 -0.009304526
000370 0d e3 1f bc 1e b1 5e bc 83 d6 4e bd d1 03 ab 3d
       -0.009758723 -0.013592033 -0.050497543 0.08350337
000380 e5 2d 58 3d 6f f9 9e 3d ad b9 b5 bc 9d 3e b8 3c
       0.052778143 0.077624194 -0.022183264 0.022490794
000390 d8 a0 37 3c 25 9e 19 bb 61 33 40 3d 40 6f b4 3d
       0.011207782 -0.0023440209 0.046924 0.08810282
0003a0 78 71 a7 bb 8c 47 73 bd 6c 19 96 bc 76 47 23 3d
       -0.005109962 -0.059394404 -0.018322669 0.039863072
0003b0 76 fe c5 3d bf fe 0a 3d 4a 52 f6 3b c9 29 9b bd
       0.09667675 0.03393435 0.007517134 -0.07576329
0003c0 9f b1 75 bd 58 a6 40 3d cc 95 9b 3d 8e 44 e5 3d
       -0.059983846 0.047033638 0.07596931 0.111947164
0003d0 81 74 29 3d 77 ad 6e 3b ba 5a 40 bc 79 46 5b 3d
       0.041370872 0.003641931 -0.011740381 0.053534005
0003e0 eb 2a 1b 3e 13 23 87 3d e7 80 ad 3b 48 bc 86 3c
       0.1515309 0.06598487 0.0052949074 0.016447201
0003f0 7f 1e 5c 3c 54 a6 41 3c 9b f8 87 3d 83 3b d9 3d
       0.013435005 0.011819441 0.066392146 0.10607054

linear_a_0.bias f4 [16]
000000 10 d1 b8 3d 3c d9 eb bb 8e 05 95 3b 91 28 b2 3d
       0.090242505 -0.007197527 0.0045477813 0.08699144
000010 bd a1 2c bd 84 41 c8 3d 27 a5 0d bd b3 18 25 bd
       -0.042146433 0.09778121 -0.03458133 -0.040306758
000020 25 72 47 3c e0 40 30 bc a3 be 58 bd 78 6b 9b 3c
       0.01217321 -0.010757655 -0.05291618 0.018972144
000030 27 e8 ab 3d ad 37 e8 bc 56 38 8d 3d e3 b5 00 3d
       0.08393889 -0.02834686 0.06895511 0.03142346

GRU_a.weight_ih_l0 f4 [48, 16]
000000 3f 3a 82 be 19 52 b6 bd cf 42 1c 3d 45 1c ee bd
       -0.25435063 -0.08902378 0.03814965 -0.11626486
000010 14 4d fc 3d ca 90 17 3e 9a 9e eb bd 5b 3f 06 be
       0.12319389 0.14801326 -0.1150486 -0.13110106
000020 81 6f 74 bd b9 d1 fc 3c 64 5e e8 3d ff fb 1e be
       -0.05967665 0.030861722 0.113461286 -0.15525816
000030 5a df 19 be 0a 82 f5 bd 0f 06 5e 3e f3 b7 58 3e
       -0.15026608 -0.119876936 0.21681999 0.21163921
000040 70 27 e3 3d 64 94 b1 3d 30 d2 41 3e 4d d1 e4 3d
       0.110915065 0.086708814 0.18927836 0.111727335
000050 03 a3 1c 3e 66 74 42 3d 75 ee 9c bd b6 f3 1b 3e
       0.15296559 0.047474287 -0.076626696 0.15229687
000060 93 36 62 3e ed ab 67 bc f2 0d 6e 3e f9 85 34 3e
       0.22091131 -0.014140111 0.23247507 0.17629232
000070 05 28 5b 3e 96 3c 56 bd de 7a 24 be 7c 5f b3 3c
       0.21401985 -0.052303873 -0.16062495 0.021896116
000080 bd 3b ce 3e 8c 9e 1c 3c a1 fa d9 3d e6 1c 16 be
       0.40279952 0.009559285 0.10643507 -0.14659461
000090 76 19 5a 3e 96 ff f9 bd 55 ee 31 be 74 36 3f bd
       0.21298775 -0.12206952 -0.17376073 -0.04668279
0000a0 4b 29 82 bd 2e bb 6d 3e 96 34 60 3d f8 7e 72 3c
       -0.06355532 0.23215935 0.05473765 0.0148007795
0000b0 96 4b 8c 3d 09 48 67 bd 64 69 4a bd 82 55 e7 3d
       0.068503544 -0.056465182 -0.049416915 0.11295606
0000c0 db 34 2b 3e 25 8e be bd c6 47 40 3d eb af 3c 3e
       0.16719382 -0.09304456 0.04694345 0.18426482
0000d0 2a 84 42 be aa d4 3d 3d 42 9b f2 3c 57 cf 09 3c
       -0.18995729 0.04634539 0.029615048 0.00841125
0000e0 f4 89 9a 3e 32 6b f7 bb 02 32 64 3e bd 7a a6 3d
       0.30183375 -0.0075506205 0.22284701 0.08128879
0000f0 c6 26 5a 3e f9 be e5 bd 50 8d 63 3e 09 b9 07 3d
       0.21303853 -0.11218066 0.22221875 0.033135448
000100 54 e2 08 be 72 9b 30 3e b4 a4 0a 3d aa 45 15 be
       -0.13367587 0.17246798 0.03384848 -0.14577356
000110 a5 b9 5c bd 70 38 29 3d 72 6b 31 3e 18 34 c2 bc
       -0.053887982 0.04131359 0.17326143 -0.02370648
000120 3f 5b 9f bd 4c 5b 21 3e ae bc f7 bd 31 f3 34 3e
       -0.07781076 0.15757483 -0.12096535 0.17670895
000130 8f 6c 45 3e d1 b4 13 3e 73 71 8a 3e d4 0c 9e bc
       0.19279693 0.14424445 0.2703968 -0.019293226
000140 2f c7 22 be 11 4c 8b be e8 94 a7 bd eb 49 b1 bd
       -0.15896295 -0.27206472 -0.081826985 -0.08656677
000150 99 a0 27 3e 47 47 ac 3d d4 7f bf bc 59 4b 6d 3e
       0.16369857 0.084120326 -0.023376383 0.23173274
000160 34 0c 17 be ed 89 09 be 04 73 27 be 41 fb ae bd
       -0.14750749 -0.13431521 -0.16352469 -0.08544017
000170 44 e6 97 3c 20 ae b4 3d 0c ce c0 bd 7b 32 15 bd
       0.018542416 0.08822274 -0.094143 -0.036425095
000180 5a 59 68 be 42 b7 16 3e 3a 85 6a 3e cb 36 22 be
       -0.22690335 0.14718345 0.22902384 -0.15841214
000190 79 29 3c 3d 52 cc dd bd 81 d2 23 bd 02 e6 4d bd
       0.04593799 -0.10829987 -0.039995674 -0.05026818
0001a0 df 9a dd bd c3 06 1f 3d a6 94 57 be 63 31 80 3e
       -0.10820555 0.038824808 -0.21052799 0.2503768
0001b0 69 17 bd 3d 05 4f 11 3e 49 17 6c bd 18 50 1e bd
       0.09232981 0.141903 -0.057639394 -0.038650602
0001c0 4d af 36 3e c9 bc b7 3d f9 a8 87 3e 95 a5 8c be
       0.1784031 0.08971555 0.26496103 -0.2747008
0001d0 ef c7 8a be 5b 05 0e 3e 9c cd 78 be 8b a7 46 be
       -0.27105662 0.1386923 -0.24297184 -0.1939985
0001e0 95 75 b9 3d 51 46 83 3c 91 1f 71 3e 39 b1 88 3e
       0.0905563 0.01602474 0.23547198 0.2669771
0001f0 76 aa 5d be d8 9c fa 3d ea 9f e2 bd 38 64 db 3d
       -0.21647057 0.12236947 -0.110656574 0.107124746
000200 8b 46 74 3e c0 1c 7c 3e 13 dd e7 3d e5 1d ee 3d
       0.23855035 0.24620342 0.113214634 0.11626796
000210 05 90 a1 3c ac 1e 3f be 3b 9d 73 be 0f 3f 9d 3d
       0.019721994 -0.18664044 -0.23790447 0.07678043
000220 83 da 35 3e f3 db 08 3e 93 88 23 3c 0f 19 29 bd
       0.17759137 0.13365154 0.009981292 -0.041283663
000230 46 4f 98 be 17 d4 1b 3e 58 49 93 ba 55 14 39 be
       -0.2974798 0.15217625 -0.0011237068 -0.18074162
000240 f6 e9 33 3e 17 e1 1d 3e 4d 47 9d 3d cb 66 d6 bc
       0.17569718 0.15417896 0.07679615 -0.026172062
000250 02 5a 86 bd f8 97 0d 3e 04 95 d3 3d 67 10 9e 3d
       -0.065601364 0.13827503 0.10331157 0.07717972
000260 e4 4d 75 3c dd 06 1b 3e d2 1b 6a be 22 aa 30 be
       0.014972184 0.15139337 -0.22862175 -0.172524
000270 da 80 38 be a1 26 b5 bd 75 fc 36 3e b4 87 5f 3c
       -0.18017903 -0.088452585 0.17869742 0.013643194
000280 9a 43 bf 3d 58 a8 d2 bc 91 24 1e 3e 46 9b 3d bd
       0.09339066 -0.025715038 0.15443636 -0.04629066
000290 46 24 ec bd 9e 91 ad bb bc a9 3f 3e 86 c2 f0 3d
       -0.11530356 -0.0052969 0.18717092 0.117558524
0002a0 2a 68 aa 3d be 19 84 3c 07 8d a4 3d e4 84 85 3e
       0.08320649 0.016125556 0.08034711 0.2607795
0002b0 99 ca 2b be da 9e 10 be 2b 82 5e bd cf 1d 6f bd
       -0.16776504 -0.14123097 -0.054323357 -0.058378037
0002c0 da 2a 78 3e ea 5d 92 3d 26 60 0f be 9c ac 24 be
       0.24235097 0.07146819 -0.14001521 -0.1608147
0002d0 e1 d1 d4 bd 3c 05 63 3e c6 84 65 be e1 57 93 3d
       -0.10391594 0.22169966 -0.2241393 0.07194496
0002e0 21 e8 cf 3d 89 4b 7b 3e db de a6 bd 21 bc 06 3d
       0.10151697 0.24540533 -0.08147975 0.032894257
0002f0 ea dd 11 3d cf e2 9a 3d cc 85 22 be fb 36 5b be
       0.035612024 0.075627916 -0.15871352 -0.21407692
000300 e1 ef 1b 3d 06 c7 0e be f9 bc 07 be e8 1a b0 bd
       0.038070563 -0.13943109 -0.13255681 -0.08598882
000310 40 e6 15 bd e4 ae ac 3d 7b 87 1c 3e f2 71 2b bc
       -0.036596537 0.08431795 0.15286057 -0.010464178
000320 52 67 3e 3e ba 84 9f bc 14 52 50 bd 58 ce 27 be
       0.18594101 -0.019472469 -0.050859526 -0.16387308
000330 26 8c 45 be f0 60 6f 3c fc ad 8d 3e 9d 15 1b 3e
       -0.19291744 0.014610514 0.27671802 0.15144964
000340 36 b0 28 3d 2c 29 05 bd d6 50 18 3d 0d 41 13 3e
       0.041183673 -0.032509968 0.037186466 0.14380284
000350 54 d7 36 3c 5d 58 fb 3d 79 2a cf 3d 4d 62 ff 3c
       0.011159737 0.12272713 0.10115523 0.031174803
000360 82 bc 72 be 1a 88 77 be bc 08 0e bd 6d a4 b9 3a
       -0.23704723 -0.24173012 -0.0346763 0.0014163383
000370 2b a9 46 be c1 7f 39 be 9d 9f a8 be d6 a9 f8 bd
       -0.1940047 -0.1811514 -0.32934275 -0.12141769
000380 32 99 17 3e 48 8f 27 be fc c3 14 be 56 65 35 be
       0.14804533 -0.16363251 -0.14527887 -0.17714438
000390 d0 83 30 3e b3 db e3 3d 7a 1d 5f be 30 7f 74 3d
       0.17237782 0.11125889 -0.21788588 0.059691608
0003a0 e3 be 5c 3e f3 bb 10 3e 78 e4 94 3d 77 e4 12 3e
       0.21557193 0.14134197 0.072701395 0.14344965
0003b0 34 08 6a be e6 eb ee 3d 91 71 f3 bd 69 6e 65 3d
       -0.22854692 0.11666088 -0.118868954 0.0560135
0003c0 e3 ae 3e bd d7 d6 20 be 86 fa 6d be 19 26 20 3e
       -0.046553504 -0.15706955 -0.23240098 0.15639533
0003d0 eb 3d 8e bd 13 3d 28 3e 98 41 b6 bc e5 5b d3 bb
       -0.06945404 0.16429548 -0.022248074 -0.0064501637
0003e0 5e 55 9a bd 8e 3f d9 bc 06 52 21 3e 43 7e bc bc
       -0.07535814 -0.026519563 0.15753946 -0.023009425
0003f0 4b 3d 95 be 33 6c 29 3c b0 ab 1c bd 40 1b c2 bd
       -0.29148325 0.010340738 -0.03824967 -0.09477854

GRU_a.weight_hh_l0 f4 [48, 16]
000000 63 32 81 3e 98 8a fe 3d fb 81 e8 bd 27 df 5e be
       0.25233755 0.124287784 -0.11352917 -0.21764813
000010 11 6c c1 3c 5c e2 7b 3e 26 47 43 bd cf b9 a3 3d
       0.0236111 0.24598068 -0.047675274 0.079944246
000020 2d 53 00 3d 42 99 1a be 7b a9 47 3c e6 93 59 3d
       0.031329323 -0.15097526 0.012186403 0.053119563
000030 75 e2 bd 3d 98 6c 6a be 8b f7 44 be 68 6f 77 3e
       0.09271709 -0.22892988 -0.19235055 0.24163592
000040 1c cc ca 3c 6b 8d 68 bd 36 98 3d 3d 4a ca 57 bd
       0.02475553 -0.05677549 0.046287738 -0.052683152
000050 ec 09 15 3e f2 fa 93 bd da b1 54 be 65 00 cb 3c
       0.14554566 -0.072255984 -0.2077097 0.024780462
000060 e0 5b 2f be 06 48 65 bd 25 6a 84 3d d7 1e 82 3d
       -0.17124891 -0.05597689 0.06465558 0.063535385
000070 8f 8b d8 39 87 02 3b 3d 4d fa 2d bd be 26 4f be
       0.0004130271 0.045656707 -0.042475034 -0.20229623
000080 a5 1d f0 bd 65 49 55 3e 9f 8c 12 3e 7c fd b5 bb
       -0.11724404 0.20828779 0.14311455 -0.0055538993
000090 a6 44 fa bd 47 4b 50 3e 9c 3e 97 be 0f 70 11 bc
       -0.12220125 0.20341216 -0.29539955 -0.0088768145
0000a0 73 e2 fc bd 22 9f b5 3d b5 66 10 be 23 c4 90 3e
       -0.12347879 0.08868243 -0.1410168 0.2827464
0000b0 8a e8 76 bd a4 ed a2 bd 89 60 ed bd 61 b5 1c 3e
       -0.06028036 -0.079554826 -0.11590678 0.15303566
0000c0 6d 66 a9 bc f6 26 00 bd e8 e3 a9 3d d4 94 59 bc
       -0.020678723 -0.031287156 0.08295423 -0.013280112
0000d0 33 25 61 3e 7c 4b b2 3d dc 28 ee 3d 18 89 8e bd
       0.21986847 0.08705804 0.11628887 -0.06959742
0000e0 d9 3a 0d 3e c5 9e e0 bd dc db d7 3d c6 f4 10 3e
       0.1379198 -0.10967783 0.10539982 0.14155874
0000f0 03 a9 e8 3c 64 85 9f bc 7d 2b 87 3e 91 f4 db 3c
       0.028400904 -0.019472785 0.26400366 0.026850017
000100 f4 5f 00 be e1 90 3c be 5a 48 0b be 3a 6c 2b be
       -0.12536603 -0.18414642 -0.13601819 -0.16740504
000110 02 1a 36 3d 29 ef ce 3c 71 f4 5a 3e d3 0c 68 bd
       0.044458397 0.025260525 0.2138231 -0.056652855
000120 f0 91 14 be ba dd 3f be 92 3d 90 bd 42 ba dc bb
       -0.14508796 -0.18736926 -0.070429936 -0.006736071
000130 87 06 72 3c 25 b8 4e 3e 39 28 3c 3e a4 37 7b 3e
       0.014772064 0.20187433 0.18374719 0.24532944
000140 90 35 11 ba 78 53 22 3e a9 32 4c be df 22 b5 bd
       -0.00055392925 0.15852153 -0.199412 -0.08844542
000150 c3 d3 eb b9 b3 ee 78 3e be df 2f be 56 82 38 be
       -0.00044980468 0.24309807 -0.17175195 -0.18018469
000160 78 71 bd 3d ca ee 3e bd fb 94 1e 3e ba 32 b1 3d
       0.09250158 -0.046614446 0.15486519 0.086522534
000170 62 92 39 be 33 a4 aa bc 12 5a 46 3b 55 36 18 be
       -0.18122247 -0.02083025 0.0030266088 -0.14864476
000180 cc 2e 7b be 07 94 d6 3d 56 22 ce 3d eb fd e5 3d
       -0.2452957 0.10477453 0.10065143 0.11230072
000190 5c 94 15 bd 13 a1 50 3e aa 16 73 bd 07 49 48 3d
       -0.03651844 0.20373945 -0.059347786 0.04889777
0001a0 c8 fc 64 3e 56 62 4e be 7e 55 6e bd d3 b8 71 3e
       0.22362053 -0.201547 -0.058187 0.23605661
0001b0 a3 ea 4e be 7e 9b 3e be 9f 5b a6 3d f1 e3 9c 3c
       -0.20206694 -0.18614003 0.08122944 0.01915166
0001c0 15 e6 51 be b8 64 6f 3d 86 63 88 be f5 c3 23 be
       -0.20497926 0.058445662 -0.2663843 -0.1599272
0001d0 19 08 d7 3d b7 62 13 be b7 d4 ca bc 18 a0 57 3e
       0.104995914 -0.14393125 -0.024759633 0.21057165
0001e0 e5 86 10 3e 69 d4 bb bd 9e 63 2b 3e 95 11 b2 3d
       0.14113958 -0.091713734 0.1673722 0.0869476
0001f0 e7 51 f9 3b 49 71 06 3e 53 b2 89 3d 8b 99 96 bd
       0.0076086405 0.13129152 0.06723466 -0.07353505
000200 73 41 60 3e 1e ab 04 be f8 f7 87 be 42 b9 81 be
       0.21899967 -0.12955901 -0.26556373 -0.25336653
000210 ef 92 16 3e d2 d4 92 be 41 41 32 be 6c cc 25 3d
       0.14704488 -0.28677994 -0.17407705 0.040478155
000220 0b 62 07 be 1b 76 e2 3d b6 2f 56 bd 39 74 76 3e
       -0.13220994 0.11057683 -0.052291594 0.24067773
000230 53 a0 61 be 9a f8 12 be ef e8 0c 3e 7c c5 4c be
       -0.22033815 -0.14352646 0.13760732 -0.1999721
000240 17 b7 bf bd f8 c9 bf bd e6 df 11 3e 99 b9 22 3e
       -0.093610935 -0.09364694 0.14245567 0.15891112
000250 c6 00 6f be 39 2d 18 be a4 5f 77 be 06 68 20 be
       -0.23340139 -0.14861001 -0.24157578 -0.15664682
000260 f4 64 69 3e 51 9e 1a 3e 2e 9d 28 3e f5 e8 2b be
       0.22792417 0.15099455 0.1646621 -0.16788085
000270 d9 90 32 bd e1 1e 4d 3d 03 7d c7 3d 97 50 62 3d
       -0.04359517 0.050078277 0.09740641 0.055252638
000280 7a a4 05 3e 8f d0 03 be f9 8f 66 be 8a 3b 82 be
       0.13051024 -0.12872528 -0.22515859 -0.2543605
000290 84 6e 16 3d 0d c7 ab bc 94 46 73 be f4 cf 80 3e
       0.03672649 -0.020968938 -0.23757392 0.25158656
0002a0 68 68 b5 bd b2 76 9d 3d 49 c2 7b 3e 81 e4 37 3e
       -0.088578045 0.07688655 0.24585833 0.17958261
0002b0 9c e8 38 3e 30 01 86 3d 0d c1 59 be fa ba 0d 3e
       0.18057483 0.06543195 -0.2126505 0.13840857
0002c0 19 9e b4 3d 72 ae 92 be 22 76 98 bc 53 ca ad be
       0.08819217 -0.28648716 -0.018611018 -0.33943424
0002d0 c4 65 af bd 25 1d ff bd bb 14 3e bd f9 84 4c 3e
       -0.08564332 -0.12456731 -0.04640649 0.199726
0002e0 f9 81 49 bd db d1 c7 3d a4 6b 0e 3c fd 56 5c 3e
       -0.049196217 0.09756824 0.008692656 0.21517558
0002f0 e4 32 0f be 00 96 72 bc 3c 51 a1 bc 29 a4 61 3e
       -0.13984257 -0.014806271 -0.019692056 0.22035278
000300 ea d8 b5 bd 08 e1 9b 3e a6 1d 96 3e 40 dc 14 3e
       -0.08879264 0.30445123 0.29319495 0.14537144
000310 de 7d 4c be b3 e7 4d be cf 1a b4 be ed 9f 63 3e
       -0.1996989 -0.20107917 -0.35176703 0.22228976
000320 6d de de bc 12 d6 9a bd 91 fe a0 3d 98 ae 3c 3e
       -0.02720567 -0.07560362 0.07861055 0.18425977
000330 25 74 99 bd cf 04 0b 3e 30 9a c7 3c 9e 5b 1b be
       -0.07492856 0.13576053 0.024365515 -0.15171668
000340 6e f6 17 be b0 aa 21 3e f9 51 52 3e 10 c4 15 be
       -0.14840099 0.15787768 0.20539083 -0.14625573
000350 c4 c5 5f be b5 fb 7b be 62 9d db bd b7 bb 2d 3e
       -0.21852785 -0.24607737 -0.10723378 0.16966139
000360 51 24 b9 3d 34 7b 67 be 94 58 a7 bc 7a fb 8e bd
       0.0904013 -0.22605592 -0.02042798 -0.06981559
000370 fa bf 57 3e 97 b6 9b 3d 55 14 1e be ee c5 b4 3d
       0.21069327 0.076031856 -0.15437444 0.088268146
000380 54 52 01 be ed eb 15 3e 59 5a 82 3d 16 b8 21 3e
       -0.12629062 0.1464078 0.06364889 0.1579288
000390 c2 85 64 be ee 1f 59 be 01 2c 28 bd 24 4d d1 bd
       -0.2231665 -0.21203586 -0.04105759 -0.102197915
0003a0 4d 07 3e 3c 7f 97 27 3e c4 bc 68 3e 0d 5a 6e 3e
       0.01159842 0.16366385 0.22728258 0.23276539
0003b0 42 4a 27 bc 8a ef e6 3d f0 fa 3a 3d e8 18 3f be
       -0.010210576 0.11276157 0.04564947 -0.18661845
0003c0 56 be 53 3c 7f 2e 94 be 55 a7 24 be c3 e0 4b bd
       0.012923798 -0.28941724 -0.16079457 -0.049774896
0003d0 d5 de 8a be 49 08 47 3e 8f e1 8b 3d 12 50 86 bb
       -0.27123132 0.19436754 0.06830131 -0.0040989006
0003e0 62 3d aa 3d f2 a2 65 be c1 e3 ca 3d cc b6 02 3e
       0.08312489 -0.2242544 0.09906722 0.12765044
0003f0 d1 e1 8a 3d 3b f2 74 3c 5e bf 4f 3c c6 de 74 3e
       0.06781352 0.01495033 0.012679903 0.23913106

GRU_a.bias_ih_l0 f4 [48]
000000 8a 2f d7 bd 2d 32 63 3e 3b 97 34 bd a7 89 b0 3c
       -0.10507114 0.2218711 -0.044089537 0.021550013
000010 c2 e5 81 3e 2a 6b 7c be 90 69 4d be dd 65 08 be
       0.25370604 -0.24650255 -0.200598 -0.13320108
000020 e2 d1 be bc e7 61 32 3e f1 0a 87 bc 7b f2 01 be
       -0.02329344 0.1742016 -0.01648471 -0.12690155
000030 a4 b7 c2 bc b6 13 3e be 32 26 3a 3e 61 b6 15 be
       -0.023769207 -0.18562207 0.18178633 -0.14620353
000040 ff a5 c3 bd 72 34 2a 3e cb b7 71 bc 6f e8 2f be
       -0.095531456 0.16621569 -0.014753292 -0.1717851
000050 41 f2 3b 3e 4b 0d fb 3d c7 de 77 be 32 6b d1 3d
       0.18354131 0.12258395 -0.24206077 0.10225524
000060 28 c5 cc bd f5 a2 86 be 7c 0d 66 bd 73 58 54 be
       -0.09998542 -0.262962 -0.056165203 -0.20736866
000070 1b 56 82 bd 44 8f 24 3e 4a 6d 1d 3d 89 a6 f0 3b
       -0.063640796 0.16070276 0.038434304 0.0073440713
000080 4d 39 18 be 10 7b 43 3e e3 8f f4 bd f3 cc b0 3d
       -0.14865609 0.19089913 -0.11941507 0.08632841
000090 38 c9 8c 3e 66 21 26 be ce 2b 52 be 27 d8 0b bb
       0.27497268 -0.16223678 -0.20524523 -0.0021338554
0000a0 6c 29 9b bc 61 68 43 bd ec 6f 86 39 a7 91 39 3e
       -0.01894065 -0.047706965 0.0002564186 0.18121968
0000b0 a3 a0 f7 3c 48 bc 8c 3d 61 eb 33 3e 17 f5 c2 3d
       0.030227965 0.06871849 0.17570259 0.095194034

GRU_a.bias_hh_l0 f4 [48]
000000 b6 c7 95 3c bb 8c 5c bd d5 e4 52 3e 21 7c 9f 3b
       0.018283706 -0.05384515 0.20595105 0.0048670922
000010 4c 17 48 be 8e 16 a6 bd e5 b2 66 bc de ff 69 be
       -0.19540137 -0.08109771 -0.014080738 -0.22851512
000020 29 89 e7 3d cb 7a ed 3c 43 c9 e1 3c a7 02 03 3d
       0.11305458 0.028989216 0.02756179 0.03198495
000030 a3 f6 25 3e 12 c0 5a 3e d2 fb 8a bd e4 a7 87 be
       0.16207366 0.21362332 -0.06786312 -0.26495278
000040 40 ff cf bd 74 65 27 3c 43 99 1b 3e 5b b4 f9 3c
       -0.10156107 0.010217059 0.15195183 0.030481508
000050 7e 4d 6e be 90 2a 23 bc db c9 ba 3d 14 d5 ae 3d
       -0.23271748 -0.009958878 0.09120532 0.08536735
000060 b7 79 09 be 95 11 ad be 13 c3 88 be f8 c5 79 bd
       -0.13425337 -0.33802477 -0.2671133 -0.060979813
000070 8e 09 57 3d 07 2a ce bd 90 62 9a 3e fe ce 39 be
       0.052499346 -0.1006661 0.30153322 -0.18145368
000080 ef 1c 4c 3e 8d 5a 53 3e 5b ff 63 be 4f f7 5b bd
       0.19932912 0.20640011 -0.22265379 -0.05370265
000090 7c 25 e8 3c dd 3e 37 3e d4 aa 6b 3e ee ed 72 3c
       0.028338186 0.17895074 0.23014385 0.014827235
0000a0 ef 74 32 3e 7c 87 11 bc dd 8e 5a 3e c9 3c 3a be
       0.17427419 -0.0088824 0.2134356 -0.1818725
0000b0 73 08 8f be 1b 33 73 3d c9 f9 a8 3d f3 5d e5 bd
       -0.27936134 0.05937491 0.08250768 -0.1119956

linear_a.weight f4 [4, 16]
000000 5e 1b 1a 3e 0c 0b 51 be 70 68 c6 be e5 ee fa bd
       0.15049502 -0.2041437 -0.38751554 -0.12252597
000010 3f 34 1f be 5b 27 f4 bd 70 39 25 3e 5b 15 55 be
       -0.15547274 -0.11921569 0.16135192 -0.20808928
000020 0a db 0a bf a4 e6 fb be 34 95 01 3e a6 69 1e bf
       -0.5424048 -0.49199402 0.12654573 -0.61879957
000030 8b 47 07 bf e4 0d cd be da be 6f 3e 51 77 26 be
       -0.5284354 -0.4004966 0.23412648 -0.16256453
000040 49 8e 60 be 48 d8 28 3e 43 1b 0e be 02 fc 11 be
       -0.21929277 0.16488755 -0.13877587 -0.1425629
000050 e3 b5 48 3e ea f0 21 3d b2 1e 29 3e 99 96 a2 3e
       0.19600634 0.039536394 0.16515616 0.31755522
000060 fa 15 b3 3e 95 a3 17 3e 91 b1 35 be 36 01 d6 3d
       0.34977704 0.14808495 -0.17743517 0.1044945
000070 c7 53 b0 3d 2d c1 b5 3e 31 07 da bb b6 90 cf bd
       0.08609729 0.35498944 -0.0066536893 -0.10135023
000080 56 a1 5b 3d 29 18 b6 be 8d f2 a9 3d d6 70 4c be
       0.05362066 -0.35565308 0.08298216 -0.19964918
000090 4d 3a c9 be 41 17 65 3e 06 ac 53 be fc 6a 26 bf
       -0.39302292 0.22372152 -0.2067109 -0.65006995
0000a0 59 ee f4 bd f7 c6 11 bf f0 25 3b be 1e 7a ee be
       -0.11959524 -0.5694422 -0.18276191 -0.46577543
0000b0 23 81 43 be f4 bd b7 be e6 94 0e bd 2e 49 4c 3e
       -0.1909223 -0.3588711 -0.03480997 0.19949791
0000c0 bd 3d ee bd fe 45 a5 3e cc a6 8b 3e be ea 71 3e
       -0.116328694 0.32279962 0.27275693 0.23624703
0000d0 e8 61 14 bd 5f b5 38 be 34 44 d2 bd aa 86 06 3e
       -0.036226183 -0.18037938 -0.10266915 0.13137308
0000e0 d7 89 c3 3e 3d 4b cd 3e d1 07 97 3e 05 2d a9 3d
       0.381911 0.40096465 0.2949815 0.0826054
0000f0 48 df c3 3e 96 61 98 3e ee 0f 02 3e 70 c3 a4 3e
       0.38256288 0.29761952 0.12701389 0.32180357

linear_a.bias f4 [4]
000000 4a 4f c5 be 47 1f 55 3d 78 69 50 be 10 48 66 3c
       -0.38537055 0.05203178 -0.20352733 0.014055267

conv_v_0.weight f4 [16, 7, 3, 3]
000000 0c 0a 9d bb 29 95 b7 bd bd 50 4f bd 94 69 fd bc
       -0.0047924574 -0.08963997 -0.050614107 -0.030934133
000010 82 ce 70 3d 2b 06 93 3d a7 78 eb bd a2 a9 70 3e
       0.05879069 0.07178911 -0.11497622 0.2350221
000020 01 ce e9 3d b7 95 ff 3d d1 d2 4f 3d 8f 94 0f 3e
       0.11416245 0.12479728 0.05073816 0.14021514
000030 22 e3 c7 3d 18 64 41 3d d8 83 84 3e 46 1b 6e 3e
       0.09760119 0.047214597 0.2588184 0.23252591
000040 d8 d2 e8 be 76 0b ba 3e 27 92 25 bc 73 07 e2 be
       -0.4547336 0.3633687 -0.010105646 -0.44146308
000050 1f dd 79 bd b9 57 b5 bd 1a ae 0a bf 98 d8 c4 bd
       -0.061001893 -0.088546224 -0.5417191 -0.096116245
000060 34 0f 1f be a2 c2 98 be f1 c2 d2 bc de 79 73 be
       -0.15533143 -0.29835993 -0.02572772 -0.23776957
000070 5f a8 71 3e 26 61 1a 3e e9 0a 8f bd e9 ac 98 3e
       0.23599385 0.15076122 -0.06984503 0.2981942
000080 b2 53 c3 3d e3 4b 18 3e b4 49 9c 3d ee b7 4d 3e
       0.09537448 0.14872698 0.07631245 0.20089695
000090 88 66 e7 3a 7c 4c 08 bd 6a 27 81 bc f6 8c c3 bd
       0.0017654458 -0.033276066 -0.015765864 -0.095483705
0000a0 39 5a 03 be 5b e9 dd bd 29 84 1d bc d2 aa c6 3d
       -0.12827386 -0.10835525 -0.009614029 0.0970055
0000b0 49 1b d4 b9 8d 25 91 3d ae a6 79 3d 11 1c 52 3c
       -0.0004045612 0.0708724 0.060949974 0.012824074
0000c0 3e 51 d9 3b 6e 8e 1e be ef df 0d be 50 55 3c 3c
       0.0066319993 -0.1548402 -0.13854955 0.011494949
0000d0 4d 12 74 3d 84 9d f7 bd de d9 20 3c 4b 9d 4d 3d
       0.059587765 -0.120905906 0.009817569 0.050198834
0000e0 62 ac 3c be c5 6f 02 be 16 87 1a bd 79 7e b8 bd
       -0.18425134 -0.12737949 -0.037726484 -0.09008498
0000f0 79 55 00 be b3 77 12 bd 18 c2 21 be 2d f5 13 bd
       -0.12532605 -0.035758685 -0.15796697 -0.03612249
000100 25 a2 94 bc e9 b9 ca 3d c6 db a2 bc e8 68 ca bd
       -0.018143723 0.09898741 -0.019880187 -0.098832905
000110 02 ca 6e 3d 16 b9 d2 bd e8 4a 5c 3d 8f cb f8 3d
       0.05829812 -0.102892086 0.053782374 0.12148201
000120 78 7e 15 3d 19 35 20 bb 75 62 21 3e 79 c5 44 be
       0.036497563 -0.0024445711 0.15760215 -0.19215955
000130 48 81 d2 bd d7 95 ab bb a2 6c 71 bd 73 55 be bd
       -0.10278565 -0.005236368 -0.05894149 -0.09293642
000140 91 36 56 3c bc 33 0c be df cd 90 3d 89 03 ab 3d
       0.013074533 -0.1369161 0.07070517 0.08350284
000150 58 96 9e 3b 2c 5e 57 3e e6 21 18 3e ad 6d fc 3c
       0.0048396997 0.21032017 0.14856681 0.030814016
000160 e5 20 d6 3b 6e ee 2d bd 98 65 a0 be 33 7b 95 be
       0.006534683 -0.042463712 -0.3132751 -0.29195556
000170 9b d1 e2 bc 75 8d 8a be 2e f7 ac be b5 af 93 be
       -0.027687838 -0.27061048 -0.33782333 -0.2884499
000180 8d 9a 56 be f9 80 ad be 55 3a b9 bd 63 43 04 bd
       -0.20957394 -0.3388746 -0.09044329 -0.032290827
000190 6b 1f fd bd 57 9e f3 bc 5d dd c2 bd a1 bb f7 3c
       -0.12359508 -0.029738588 -0.09514878 0.030240836
0001a0 6e cd 06 3d 73 d3 3b bd 31 6f 18 be d8 ad be bd
       0.032910757 -0.04585595 -0.14886166 -0.09310502
0001b0 40 e2 51 3e 76 13 ec bc 68 10 ef 3d 31 0e d2 3d
       0.20496464 -0.028817873 0.11673051 0.10256613
0001c0 5f 2c f2 3d 11 e0 9b 3d 6b a5 27 3e 2a 93 4b 3e
       0.11824869 0.07611097 0.16371696 0.19880357
0001d0 5c 36 c2 3c e5 7a 60 3d 60 7f b5 3c 84 61 95 3c
       0.023707561 0.0548047 0.022155464 0.018234976
0001e0 f3 c1 0e be 4f 9b 17 be 5b 0a 1e 3d c6 7a 0e 3d
       -0.13941173 -0.1480534 0.038584094 0.034785055
0001f0 04 40 ff bd df f9 4c bd 11 b7 7b bd 36 5e 57 bd
       -0.12463382 -0.050042983 -0.061453883 -0.05258008
000200 98 84 82 bd 2c ae 48 bd 05 c7 8b bd b2 ef f1 bd
       -0.063729465 -0.04899423 -0.06825069 -0.118132964
000210 0f 5b d5 bd 0e 29 0f be 10 4c 36 3d 93 2d 75 be
       -0.10417759 -0.13980505 0.044506133 -0.23943166
000220 f7 2e c2 be 53 82 7d bd 4b 49 90 3e a9 c8 88 3d
       -0.37926456 -0.061891865 0.28180918 0.06678898
000230 59 6f 6f bb 8f ac be be fb 4d c7 be b2 1c ba be
       -0.0036534874 -0.37241027 -0.38926682 -0.36350018
000240 71 16 b1 3d d6 20 13 be 9e e9 4e be 2c cb 5d 3d
       0.086468585 -0.14367995 -0.20206305 0.054148838
000250 9d 23 06 3e da fc 45 bd 08 c7 57 3c c9 10 73 bd
       0.13099523 -0.04833684 0.013170011 -0.05934218
000260 fa 46 c9 be 72 97 9f be 61 7a 37 3e e5 c1 a0 3e
       -0.39311963 -0.3117023 0.17917778 0.3139793
000270 14 6e 4b bd b5 67 06 3e aa f6 8a 3e c9 18 d9 bc
       -0.049665526 0.13125499 0.27141315 -0.026501076
000280 c1 14 8b 3c da 00 c7 3d a6 c0 17 be 51 19 92 bd
       0.01697767 0.09716959 -0.14819583 -0.07133735
000290 88 02 ed 3c fd b7 e5 bc 15 e9 f0 bc 5f 91 31 3d
       0.028931871 -0.028041834 -0.029408017 0.043351527
0002a0 0c 49 35 3d f1 8a de bd 82 67 7d 3d fe 78 0d bd
       0.044259116 -0.10866345 0.06186629 -0.034539215
0002b0 71 f6 19 3d fb 31 dd bc 73 54 f8 3d e6 e2 de 3d
       0.03758854 -0.027001372 0.121254824 0.10883121
0002c0 09 e7 06 bd 28 fc 83 bc 43 ca f0 3d d3 f2 c7 bd
       -0.032935176 -0.016111448 0.11757328 -0.09763112
0002d0 c5 ff 09 be 4d be b0 bd 89 d1 f8 bd cb f7 a8 bd
       -0.13476475 -0.08630047 -0.12149341 -0.08250388
0002e0 f5 0f 66 bd 20 4c 5c 3d 2b 8f ab bd 8a c8 86 3d
       -0.05616756 0.053783536 -0.083769165 0.065812185
0002f0 31 e0 9c 3d 2d 5d 8c 3c 3d 72 c9 3c 2c a8 61 be
       0.076599486 0.017134273 0.024590606 -0.22036809
000300 f1 76 30 bd 29 d2 95 3c 90 2e b6 3d 6f 1f 10 3d
       -0.04308218 0.018288689 0.088956 0.035186227
000310 40 85 de 3d be cb 3d 3e e7 1c fd 3b b9 9b e9 3c
       0.10865259 0.18534753 0.0077243927 0.028516637
000320 be 50 19 3e 82 30 80 be 8f a0 af bd f2 92 27 bc
       0.14972207 -0.2503701 -0.08575546 -0.010227906
000330 be d2 2e bc ad 2c cd bd f2 a6 76 ba 5b 26 0d 3d
       -0.010670362 -0.10018287 -0.0009409032 0.034460407
000340 18 a0 4e 3e f8 1a 5e 3e 40 97 59 3e d6 83 89 3e
       0.20178258 0.21689975 0.21249104 0.26858395
000350 70 ad b5 bc c1 9e d7 3d 41 73 fc 3d 30 ba 80 3b
       -0.022177428 0.10528327 0.123266704 0.0039284453
000360 e9 f5 9e be 24 01 a2 be cc 65 0d bd 6a d7 9d be
       -0.3104699 -0.31641495 -0.03452091 -0.3082841
000370 b0 12 c6 be 99 f8 9c be 68 3f 77 be 5f c5 cf be
       -0.38686132 -0.30658415 -0.24145281 -0.4058027
000380 a8 06 8d 3b 57 45 e4 3c 4d 5a 34 bc 5b b1 8d 3d
       0.004303772 0.027865095 -0.0110078575 0.069185935
000390 37 d7 df 3c 61 7c fc bd b3 e3 39 3a 90 ed 16 bc
       0.027324302 -0.12328411 0.000709112 -0.009211913
0003a0 b0 14 ac bd c9 38 b4 3d 2d 20 10 be 10 83 89 3b
       -0.08402383 0.087998934 -0.14074774 0.004196532
0003b0 eb 71 e8 bd 00 21 8d bd 92 5b eb bd cb a5 2b be
       -0.11349853 -0.0689106 -0.11492075 -0.16762464
0003c0 6c 2a 13 bd d0 ae b7 3b e5 ba 02 be a0 f2 40 bb
       -0.03592913 0.005605556 -0.12766607 -0.002944149
0003d0 ec 8a d1 bc e7 29 90 3d 1f 12 cf 3c 77 38 20 3d
       -0.025578938 0.07039242 0.025277195 0.03911635
0003e0 e1 ff 27 bd ae 61 7e bd ff f6 c7 bd e0 c8 da bd
       -0.04101551 -0.062104873 -0.09763908 -0.10682845
0003f0 99 42 97 bc e4 34 2b be e1 5a 87 be 5c 35 82 be
       -0.018464373 -0.16719395 -0.26436523 -0.25431335

conv_v_0.bias f4 [16]
000000 90 43 65 3d b8 4d f7 bc b7 b7 25 3d 78 e8 56 bd
       0.055972636 -0.030188426 0.040458407 -0.052467793
000010 62 bd 7b 3d 23 a0 ad 3d 64 69 c4 bc 77 5b 36 3d
       0.061459906 0.08477809 -0.023976035 0.04452082
000020 3b ac 3d 3d f9 07 8e bc 25 b1 83 bd 7b 3a eb 3c
       0.04630683 -0.017337786 -0.06430272 0.02871441
000030 9a e3 bc 3c f1 40 9e bd 18 b9 61 bd 10 5b 1a bd
       0.023057748 -0.0772723 -0.05510816 -0.0376845
