league/checkpoints/mfos_seeds/new_self_6x6_63/250_1.pth (torch, 549838 bytes, 105 tensors)

conv_a_0.weight f4 [16, 7, 3, 3]
000000 a4 e9 78 3d ec e8 00 bd 7b cb ea 3d 60 4e 98 bd
       0.060769692 -0.03147213 0.11464592 -0.07436824
000010 9e 29 10 3e 06 44 58 3d 97 ec b1 3c 4c 24 03 3e
       0.14078376 0.052799247 0.02171926 0.12806815
000020 25 3d 42 3c 6d bd 83 3d 97 51 09 bd 32 c9 87 3d
       0.011855398 0.064326145 -0.033525076 0.06630172
000030 9a 56 a6 bd 3e b8 e8 3d 59 c1 47 3d d2 d1 14 3e
       -0.08121987 0.113632664 0.048768375 0.14533165
000040 a8 6c 25 3d 64 cc 02 3e 3f bd 88 3d bf b9 1d be
       0.040386826 0.12773281 0.06676721 -0.15402888
000050 86 58 95 3c 18 f8 d4 bd 6a 34 bb bd 2b 0d cb 3d
       0.018230688 -0.10398883 -0.091408566 0.09914621
000060 8d d4 ea bd 91 a3 28 3e 41 48 49 3e 03 cc 35 bb
       -0.11466322 0.16468646 0.19656469 -0.0027740009
000070 e8 2c eb 3d 29 a4 0e bd cc 0c d9 bd 2e 59 22 bc
       0.114831746 -0.034824524 -0.10598144 -0.009908957
000080 f0 a2 26 bc 55 86 5e 3c 7e 52 c7 bc ab eb ef bd
       -0.010170683 0.013581832 -0.024331328 -0.11714872
000090 5e 5a fc bd 5b 75 16 bc e6 57 05 3d 27 1a 9a bd
       -0.12321924 -0.009183253 0.03255453 -0.075245194
0000a0 a2 36 6f bd 43 8e 4b 3d 27 45 b3 bd be 46 08 bd
       -0.05840171 0.04969622 -0.08753424 -0.03327059
0000b0 c0 1e b5 bd ad a6 9c 3d f8 1d a3 bd 4e 01 26 3d
       -0.08843756 0.076489784 -0.079647005 0.040528588
0000c0 2e 02 dd 3d fc 7c 04 bd db 52 47 bb 98 6f a7 bd
       0.10791431 -0.032345757 -0.0030414376 -0.08175582
0000d0 63 17 1b 3e 11 25 ba 3d 4c d2 d2 bd c2 50 84 3c
       0.1514564 0.09089101 -0.10294017 0.01615179
0000e0 5a 13 ab 3c e7 8e 42 3d 44 8e 26 bd a9 0e 5d bd
       0.020883251 0.047499564 -0.04066302 -0.05396906
0000f0 c2 0d 0a 3d 4d 50 0d 3c d2 6d 35 bb f0 a1 8e 3c
       0.033704527 0.008625102 -0.0027683866 0.017411202
000100 e8 9e da 3d f0 f6 06 3e 67 af 61 bd 37 1d 02 bd
       0.1067484 0.13180137 -0.055098917 -0.031766143
000110 ce 46 b0 3c a3 34 e0 3d 07 ce 1c 3d 3c a0 1f 3e
       0.021518137 0.1094754 0.03828242 0.15588468
000120 ff 77 eb bd f5 38 0a be a6 07 c3 3d 1d 51 fb bd
       -0.11497497 -0.1349829 0.09522943 -0.122713305
000130 d8 ef 21 3e fe d4 a4 3d c3 8d 8c 3d f6 a1 79 3d
       0.1581415 0.080484375 0.068629764 0.060945474
000140 d7 3b 0f 3e 7f 9f 96 3d a9 f1 63 3e 12 2e 17 3d
       0.13987671 0.0735464 0.22260155 0.03690917
000150 73 ed bf 3d 47 fa 5b 3e a8 1a 66 3e 59 ce 45 3e
       0.09371462 0.21482192 0.22471106 0.19316997
000160 ba 9a 39 3e 00 50 ad bd dc 47 0c 3e 6c 38 2d 3d
       0.1812543 -0.084625244 0.13699287 0.042290136
000170 63 9e 7e 3d 20 cd 2c 3d 51 5b aa 3d 36 d0 1a be
       0.062162768 0.04218781 0.083181985 -0.15118489
000180 3e 5c 05 3e cd ca db 3d 0b 2b e7 bd ff fc 03 be
       0.13023469 0.107320406 -0.11287507 -0.12889479
000190 54 9f 9e 3d 5e 92 93 3d 04 18 a1 3d ba fe 0a be
       0.07745233 0.07205652 0.07865909 -0.13573733
0001a0 56 fb 1e bd 08 22 12 3d d6 28 cb bd e8 b2 ac bc
       -0.03881391 0.035676986 -0.09919898 -0.021081403
0001b0 c2 7d c6 3d 23 f8 50 3d 5a 8e 08 3c 5f 19 17 3c
       0.09691955 0.05101789 0.0083347205 0.0092223575
0001c0 68 88 0a 3e b9 e1 4e bd 73 33 1d 3e a9 ae 29 bd
       0.13528597 -0.050508235 0.15351658 -0.041426335
0001d0 dc 58 9b 3d 75 9e 7f 3d a3 06 86 bc 6e fe 23 3d
       0.07585308 0.062406976 -0.016360587 0.040037565
0001e0 f5 7a ec bd 7e 2c 25 bd 1a 0c b6 bc 18 72 36 bd
       -0.1154689 -0.040325634 -0.022222567 -0.044542402
0001f0 e6 fd 45 3c 3d 80 7e bc e3 a8 45 3d a9 e5 ab 3d
       0.01208446 -0.015533504 0.048256766 0.083934136
000200 41 3e 20 3e 62 b0 1d 3d 6e 7f bb 3c 9d 0c 8c 3d
       0.15648748 0.03849829 0.022887912 0.06838343
000210 59 d9 d3 3d 7a d4 01 3e e3 79 e0 3d c6 0a 31 3e
       0.1034419 0.1267871 0.10960748 0.17289266
000220 2b ce 0a 3e 51 9f 40 3e 59 6a b7 bd c2 4a 04 3c
       0.1355521 0.18810774 -0.08955831 0.008074464
000230 33 11 80 3d 43 42 11 3e 5e e3 74 3d 64 2a 0a 3d
       0.062532805 0.14185433 0.059787147 0.033731833
000240 6b e9 93 3c be 1a 4c 3e a5 56 77 bc ce 92 dc 3d
       0.018055638 0.19932076 -0.015096341 0.10770188
000250 ba f1 f2 bd b0 95 aa bd 97 a2 e2 bd d9 c1 2f 3e
       -0.11862512 -0.08329332 -0.11066168 0.17163791
000260 7a 6d c1 bd 1c 58 9c bc ef c4 02 bc d1 1c b9 bc
       -0.09444709 -0.019084983 -0.007981523 -0.022596749
000270 67 09 f9 bc 45 63 ab 3d de ea 28 be fe eb 0c 3e
       -0.030399991 0.083685435 -0.16495845 0.13761899
000280 bf 05 3d 3d 09 dc c3 bd 6a d5 91 bd df 1a 96 bc
       0.046148058 -0.09563453 -0.071207836 -0.01832336
000290 02 27 62 bd 6d 6c 3e bd 97 0d b4 3d d2 60 96 3d
       -0.055212982 -0.04649012 0.087916546 0.07342686
0002a0 97 0e 11 3e 27 39 f1 3d 9d 0c 7a bd 5b 40 b2 bd
       0.14165722 0.11778479 -0.061047185 -0.08703681
0002b0 2a 43 68 bd 99 aa 04 be 9d 3c f2 bd b7 62 07 3d
       -0.056704678 -0.12955703 -0.11827967 0.033053126
0002c0 22 e5 55 bd 16 e3 1d bd 81 bb ad bd dd dc d6 bd
       -0.05222047 -0.038546644 -0.08483029 -0.10491345
0002d0 88 33 9f bc f5 62 0a be ba 30 11 bd 1e 9f 90 bd
       -0.019433752 -0.13514312 -0.03544686 -0.07061599
0002e0 00 fd ac bd fe dc 1d be 0b aa d8 bc c7 6c d6 bd
       -0.084466934 -0.15416333 -0.02644827 -0.104699664
0002f0 fa 61 25 be 89 f3 13 bd cc bd 91 bd 80 d6 67 bd
       -0.16150656 -0.036120925 -0.07116279 -0.056601048
000300 4e cc 6f 3d 0e 06 f5 bc 47 de ab 3d 0b e2 01 bd
       0.05854445 -0.029910114 0.083920054 -0.031709712
000310 ef fc 23 bd b0 ca 22 bc df 14 33 be ed ff 20 be
       -0.04003614 -0.00993602 -0.1748843 -0.15722628
000320 9d e4 b7 3d 08 d7 23 3e 26 e3 91 3d f2 ca aa 3d
       0.089791514 0.15999997 0.07123403 0.0833949
000330 70 10 c6 bd 0e 32 6e 3d 6e 29 0d 3d e5 04 0d 3d
       -0.09671104 0.058153205 0.03446334 0.034428496
000340 da 04 4c 3e 48 83 1a 3d e5 6c 72 3e 22 6f 4a 3e
       0.19923726 0.037722856 0.23674352 0.19768956
000350 c7 2d 26 be ee ff b5 3d 33 80 ee 3d c8 cf df 3d
       -0.162284 0.08886705 0.11645546 0.10928303
000360 05 08 51 3d 11 7f 09 be de 61 62 3d 96 2e 17 3e
       0.05103304 -0.13427378 0.055269115 0.14763865
000370 23 b6 a9 3d a8 bb 6f 3c 74 29 3e be 0c c7 ce 3d
       0.08286693 0.014632143 -0.185705 0.10096559
000380 66 29 13 be 55 47 06 be 27 2a 5b bd 32 04 01 be
       -0.14371261 -0.13113149 -0.053506996 -0.12599257
000390 5a 28 ff bc 75 66 d4 bd e4 b1 d1 bd 12 b9 d0 bc
       -0.03114717 -0.10371105 -0.10239008 -0.025478873
0003a0 e2 1f 68 3d 58 e5 39 bd 25 7f f5 3d 1d d4 34 3d
       0.05667103 -0.045384735 0.119871415 0.0441476
0003b0 18 17 9f 3d 24 14 56 3d 6f 97 76 3d c4 8d 4c bd
       0.07768077 0.0522653 0.060203012 -0.049939886
0003c0 75 8e 1d 3c a8 b4 37 3d 5c 5e 6d 3a b5 74 14 bd
       0.009616484 0.04485002 0.0009054893 -0.036244113
0003d0 d1 42 ce bd 68 52 65 3d 46 cb 4a bd b7 d4 aa bd
       -0.10071338 0.05598679 -0.049510263 -0.083413534
0003e0 03 f5 d5 bd 41 3f d3 3d 8f 5d 78 3d 9e 55 da bb
       -0.10447123 0.10314799 0.0606361 -0.0066630384
0003f0 12 b4 3d bd ef 48 26 3e 82 60 37 3e 24 fc 33 bd
       -0.046314307 0.1623876 0.17907909 -0.043941632

conv_a_0.bias f4 [16]
000000 4a 0c ad bc e0 5a 37 3d c0 34 8d 3d bd 33 b5 3d
       -0.021124024 0.0447644 0.06894827 0.08847759
000010 b0 7c 32 3e 18 0e 0e be 6a c8 82 3d 44 be 94 3d
       0.17430377 -0.13872564 0.06385882 0.07262853
000020 6f e6 28 3e cd 55 8a 3d 29 34 40 3d fd 3e e7 3c
       0.16494153 0.067546465 0.046924744 0.028228277
000030 e1 d4 12 3e d8 ad 1a 3e 89 a2 14 3e 5c d6 9c bd
       0.1433902 0.15105379 0.14515127 -0.07658073

conv_a_1.weight f4 [16, 16, 3, 3]
000000 06 a3 b8 3d e8 6a f5 bb be 44 75 3d 12 f6 38 3d
       0.09015469 -0.007489551 0.05988001 0.045156546
000010 cf 00 d1 3c 24 8d 24 3d 39 c2 3c bc 21 0a 99 3d
       0.02551308 0.040173665 -0.011520916 0.07472635
000020 ab f5 69 3d 2e 5a 90 3d 03 24 a0 bd b3 89 e6 bc
       0.057119053 0.070484504 -0.07819369 -0.028141832
000030 97 0d ad bc 41 b8 b7 3c 5f 2f 70 bd 85 49 45 bd
       -0.021124644 0.022426726 -0.058638927 -0.048165817
000040 1e 0d 01 bd aa 75 ce bc 77 68 b1 3d c3 82 c3 3d
       -0.03150665 -0.025202591 0.08662503 0.09546425
000050 15 57 a9 3d 25 95 6f bc 62 4b 17 3d 4a 06 96 3d
       0.08268563 -0.014622961 0.036937125 0.07325418
000060 fa 80 59 3d 75 ee 5c 3d 20 c7 96 3d 15 d8 fc ba
       0.053101517 0.053938348 0.07362199 -0.0019290472
000070 c4 03 de bc 1f 10 8b bd 49 3e a6 bd c4 06 9f bc
       -0.027101405 -0.06790184 -0.08117349 -0.019412406
000080 d3 60 55 bd 50 19 52 bd 3d b2 21 bc cc ad e1 3c
       -0.052094292 -0.05129367 -0.0098691555 0.027548693
000090 cc 24 7e bd 3a 6e 5f bd f5 af c7 bc 95 ce 61 bd
       -0.06204681 -0.05454848 -0.024375895 -0.055128653
0000a0 3a 38 f6 3c 74 5b 37 bd 3f 31 3c 3d 1e d3 17 bd
       0.030056108 -0.04476495 0.045945402 -0.03706657
0000b0 72 d7 18 bd e4 00 e0 bc 3f 26 e6 bc 7d a4 01 bd
       -0.03731484 -0.027344175 -0.028094409 -0.03165101
0000c0 7b 6f 9c 3d fe ab 47 3d 45 75 a7 bb 1d 55 08 3d
       0.07638451 0.04874801 -0.005110415 0.033284295
0000d0 a8 43 6d 3d e5 c0 52 3c 9d 68 25 3d 95 b7 de 3c
       0.05792585 0.012863372 0.04038297 0.027187148
0000e0 aa 99 9c bd 69 e6 ef bc 8c a1 e5 3c 10 60 97 3d
       -0.076464966 -0.029284673 0.028031133 0.07391369
0000f0 bb ff b1 bc 2f 36 e0 3c 86 35 d3 3b 77 22 a1 bd
       -0.021728387 0.027369587 0.0064455895 -0.07867902
000100 10 e7 a0 bc b3 6a 69 bd 80 41 5e bc 5e de 44 3b
       -0.01964143 -0.056986522 -0.013565421 0.0030039768
000110 0f e3 95 3d 50 33 fb bc 94 f2 67 bd e6 8a a7 3c
       0.073186986 -0.030664116 -0.056627825 0.020451974
000120 6d 36 83 bd 7a 43 7a 3d 72 65 a6 3c c3 63 f8 3c
       -0.06406865 0.061099507 0.020312045 0.030321008
000130 78 61 b1 3d c5 80 ef bc 34 1f 72 3d 43 14 af ba
       0.08661169 -0.029236207 0.05911179 -0.0013357479
000140 fd 31 78 bd f6 ee f3 bb 8e b7 06 3c 10 14 1a 3d
       -0.060594548 -0.007444258 0.008222474 0.03761679
000150 c1 e2 60 bd 93 f9 85 bd 5a 94 1b bd 59 bc a0 bd
       -0.05490375 -0.06541743 -0.037983276 -0.078484245
000160 98 fa bd bd 46 43 80 bd 82 4c 97 3d b9 2b a8 bd
       -0.092763126 -0.062628314 0.073876396 -0.082114644
000170 2f 1a 94 3d c0 54 40 bc a5 40 d5 bb e0 79 9f 3d
       0.072315566 -0.011738956 -0.0065079504 0.07786918
000180 2a 10 2f bd 3a db bc bd 39 dd 61 3d 37 e7 c7 3c
       -0.042740025 -0.09221502 0.055142615 0.024402244
000190 af 92 a4 bd 1f 50 86 bd 9a d5 9d 3a ef 6f 31 3c
       -0.0803579 -0.06558251 0.0012041808 0.01082991
0001a0 a0 19 20 3c 50 f9 9d bd 9b 47 a9 3c 93 21 83 3d
       0.0097717345 -0.07713568 0.020664027 0.06402888
0001b0 39 c6 ad 3d 28 9a 9b 3b 62 ab 30 3a b5 ad 9a 3d
       0.084850736 0.0047486015 0.0006739405 0.07552663
0001c0 a6 14 49 bd d0 a4 42 bb 2e 9d 36 bd d1 7a 60 bd
       -0.049091958 -0.0029700287 -0.044583492 -0.054804627
0001d0 3b 9a 13 3d 1d 9a 2b 3d cb d9 49 3b 45 c0 99 ba
       0.036035758 0.04189502 0.003079998 -0.0011730274
0001e0 44 18 fd bc ca 37 b7 3c 1f a4 c9 3c f1 f1 6d 3d
       -0.03089536 0.02236547 0.024614392 0.05809206
0001f0 ce 1f 0c bc 41 95 4b bd 03 e2 9c bc ef c7 a2 3c
       -0.008552505 -0.049702886 -0.01915074 0.019870726
000200 81 90 85 3d 21 fa 87 3d e2 2b c6 3c 8a d0 97 3d
       0.065217026 0.06639505 0.024190847 0.074128225
000210 1e 57 4b 3d 8f bd 8d bc 75 24 c8 bc 27 4b 5c 3d
       0.04964363 -0.017302303 -0.024431447 0.05378261
000220 ce 9c 86 3d 8b b2 91 3d e2 8a 01 3e 56 41 f5 3d
       0.06572877 0.071141325 0.12650636 0.119753525
000230 84 b4 c4 3d 2b 52 a2 3d 19 e8 dd 3d 6d 5d 17 3e
       0.09604743 0.079258285 0.10835285 0.14781733
000240 4c 45 44 3a de 7e ad 3d dc 28 b5 bc 4b 4b 18 3d
       0.00074871327 0.084714636 -0.02211421 0.03718118
000250 25 25 ad 3d d2 49 05 bd 7f 5d cb bc 76 cf aa 3d
       0.084543504 -0.032541104 -0.024824856 0.08340351
000260 a8 82 90 bd 12 7a a2 3d 8f c3 7c 3d 33 5d 9c bb
       -0.07056171 0.07933439 0.061709937 -0.0047718524
000270 bb e9 e4 3d ee ff e4 3d fc 8a ad 3c 13 ea ac 3d
       0.11177393 0.11181627 0.021184437 0.084430836
000280 c4 fa 85 3d a1 5f 23 3c ce 12 16 3d 29 1c c9 3b
       0.0654197 0.00997153 0.036639027 0.00613739
000290 f6 0c ee 3d 9a 41 e4 3d 29 32 90 3d 2b 2b c1 bc
       0.11623566 0.11145325 0.07040817 -0.023580154
0002a0 8e f7 ad bc 86 0e 32 3d 65 2f 05 3d 4d 73 11 bc
       -0.021236207 0.043470882 0.032515902 -0.0088775875
0002b0 8e ca 1a 3e d8 68 d5 3d 78 ee 93 3b 6c e9 99 3d
       0.15116331 0.10420388 0.0045145117 0.07515225
0002c0 e6 3f f6 3d 46 09 f5 3b 8c 5e 0b 3e 65 8f 01 3e
       0.120239064 0.007477912 0.13610286 0.12652357
0002d0 e7 f1 a3 3d c3 09 35 3b f8 bf 69 3d 27 fd 57 3d
       0.080051236 0.0027624227 0.05706784 0.05273166
0002e0 84 c2 ac 3d ed cb f0 3d 8b 9a ad 3d b1 6c 31 3d
       0.084355384 0.11757646 0.08476742 0.043316547
0002f0 1a 31 a2 3d 95 2c c3 3c 4b 65 8d bd 2d 2b 8a 3b
       0.07919522 0.02382497 -0.06904086 0.0042165727
000300 05 91 b5 bc dc af 76 3d 76 88 ad bd 66 bb 7d 3d
       -0.022163877 0.060226306 -0.084732935 0.061946295
000310 de 79 b8 bc 11 22 d6 bc 87 7a d3 3d e1 a6 a5 3d
       -0.022519048 -0.026139291 0.103261046 0.0808847
000320 4e e8 e6 3d 1b 35 5a 3d ae 13 bf 3c 1b f6 7e 3d
       0.11274777 0.0532733 0.023324814 0.062246423
000330 bb 69 3c bc b2 9e 8d 3b ae 3a af 3d 8e e5 e4 3d
       -0.0114998175 0.0043218965 0.08556114 0.111765966
000340 a8 ff 05 3e 20 a5 be 3d 58 c3 4c 3d 63 bf e1 3d
       0.13085806 0.09308839 0.04999098 0.11022832
000350 b8 01 91 3d 95 c9 a7 3c d6 c1 2c 3d 52 59 97 3c
       0.07080406 0.020481864 0.042177044 0.018475208
000360 a8 1e 9d 3d 23 91 04 3e 80 ab f7 3d ff d2 ca 3d
       0.07671863 0.1294599 0.12093258 0.099035256
000370 c5 0e 1a bc 08 1b 3a 3d 36 8a 08 3e 62 b2 b9 bb
       -0.009402935 0.045435935 0.13333973 -0.005667017
000380 cd 60 11 3d b2 ef 09 3e 2d d6 de 3d ed 19 1c 3e
       0.035492707 0.13470343 0.108806945 0.15244265
000390 9a e2 c6 3d d0 92 1c 3d 17 33 d3 3d fb 3e c6 3d
       0.097111896 0.03822595 0.10312479 0.09679981
0003a0 6e 24 0e 3e f0 89 03 3d 29 4e d7 3d da a2 2e 3e
       0.13881084 0.03211397 0.10512955 0.1705431
0003b0 ff 32 34 3d a2 d0 ba 3d 11 d6 fa 3d 8d a3 45 bc
       0.043993946 0.09121825 0.12247861 -0.012062919
0003c0 15 94 55 3d ea 26 8a 3b 66 47 df bc bd d7 c4 3b
       0.052143175 0.0042160647 -0.027255725 0.0060071633
0003d0 ba 56 e2 3d 72 d1 d7 3d 5b 13 17 3d 51 1f 06 bd
       0.11051698 0.105379954 0.036883693 -0.03274471
0003e0 8e 16 90 3d 89 2a 1c 3d d0 31 21 3c ce 80 27 3c
       0.07035552 0.038126502 0.009838536 0.0102235805
0003f0 4b 8d 6b bc 60 51 e7 3d 1e 43 98 bc c6 f9 d6 3d
       -0.014376949 0.11294818 -0.018586691 0.10496859

conv_a_1.bias f4 [16]
000000 bd fe 91 bc 58 7e bd 3d f8 75 5e 3d 03 c6 ee 3d
       -0.017821664 0.09252614 0.054311723 0.116588615
000010 ec 84 d0 3d 23 68 aa 3d 64 8b 0e bc 06 a2 db 3d
       0.10181603 0.08320644 -0.0087002255 0.10724263
000020 b6 1e d7 3d 92 db d6 3b 04 9f 39 3d 35 8d 95 3d
       0.105039045 0.0065569365 0.045317665 0.07302324
000030 ff 2c 78 bd f1 fd ad bc 7f fa e6 3c 4e 6f 56 3d
       -0.060589787 -0.021239253 0.028195618 0.052352242

linear_a_0.weight f4 [16, 576]
000000 32 7c c5 bc 02 f0 4d bd 22 4b 28 bb 4c 40 60 bd
       -0.024107073 -0.050277717 -0.0025679548 -0.05474882
000010 60 53 32 bc 8e ac fe bc 2c 40 44 bd 01 95 42 bd
       -0.010884136 -0.03108814 -0.04791276 -0.047505382
000020 f8 2a 4f bb 4d 49 35 bd 80 15 6e bd 00 67 2e bd
       -0.0031611305 -0.04425936 -0.058125973 -0.042578697
000030 03 11 22 bd af e5 b2 bc c0 cc 93 3c 0c e0 30 3c
       -0.039567005 -0.021838037 0.018041968 0.010795604
000040 85 13 9b 3c 63 d7 02 bd 8d 16 0d bd 5b 20 5f bd
       0.018930206 -0.03194369 -0.034445334 -0.054474216
000050 9b 29 7a bd e8 ff a1 bc 57 ba 06 3c 44 5a 6b bd
       -0.061074834 -0.019775346 0.008223138 -0.05745913
000060 a0 fd 7d bd ce 68 21 bd ba 19 10 bd 51 ab 55 bc
       -0.062009454 -0.03940659 -0.035180785 -0.013041333
000070 0d 10 8d bd e0 40 2e bd 9f 06 0c bc ac b0 d5 bc
       -0.06887827 -0.04254234 -0.0085465005 -0.02608522
000080 71 f4 57 bd 89 fc 88 bd 0c 0f 59 bd 80 0f c5 bc
       -0.052723352 -0.06688792 -0.052992865 -0.024055243
000090 23 8c 5d 3d 41 c0 73 3d b3 27 21 3d 47 c9 36 3d
       0.054088723 0.05950952 0.0393445 0.044625547
0000a0 73 fa 76 3d 6b e2 b4 3d 94 dd 79 3d 43 99 af 3d
       0.06029744 0.08832248 0.06100233 0.08574154
0000b0 dc 5b 81 3d ba c9 c8 3c bf 78 87 3d 08 b3 ab 3d
       0.06316349 0.024510253 0.06614827 0.08383757
0000c0 d3 d0 39 3d de e0 1b 3d df 80 64 3d 07 ef 84 3d
       0.045365166 0.038056247 0.055786964 0.06490903
0000d0 e5 c6 27 3d 8d 62 a8 3d a5 bb ae 3d db a9 0b 3d
       0.040961165 0.08221922 0.08531884 0.034097534
0000e0 27 dd a8 3d b7 a1 94 3d 2c 98 44 3d 03 ed ac 3d
       0.082453065 0.07257407 0.047996685 0.08443644
0000f0 ca 45 a9 3d b6 0c b6 3d 0c 0f 80 3c 88 0c c1 3d
       0.08265264 0.08889143 0.015632175 0.09426218
000100 13 b2 31 3d fc e3 de 3c 04 cb ad 3d 7e 10 95 3d
       0.043382715 0.02720832 0.08485988 0.07278536
000110 f6 10 38 3d 45 d5 ad 3d 1b 4b 9b 3d 9d 51 58 3d
       0.04493805 0.084879436 0.075826846 0.052812207
000120 c6 1b e1 3c 81 29 0b 3d f9 e5 ac 3d 82 00 97 3d
       0.027479064 0.033975128 0.08442301 0.07373144
000130 6e 6d b7 3d 1d 11 4e 3d 1b 23 c5 3d ac f1 94 3d
       0.08956419 0.05030929 0.096258365 0.07272658
000140 9d ef 90 3d 5d 23 cc 3c d9 a7 91 3d c4 3d 12 3d
       0.070769526 0.024919206 0.071120925 0.035703436
000150 07 f6 88 3d 3a 00 47 3d af 0c cc 3d a9 4f 01 3d
       0.06687551 0.0485842 0.09963357 0.03157011
000160 c8 b4 cb 3c 2b ca 60 3c ef fd b8 3d 83 b5 f6 3c
       0.024866477 0.013720076 0.09032809 0.030115848
000170 c1 f9 6e 3d 93 d2 56 3d f9 b5 c0 3d 4a 37 84 3d
       0.058343653 0.052446913 0.094097085 0.06455858
000180 ba 8c 95 3d 71 95 19 3d ed 3b 6a 3d 2e ff 8b 3d
       0.07302232 0.037496034 0.057186056 0.06835781
000190 6b 86 0d 3d d8 9e 03 3d b8 be 71 3d df 59 44 3d
       0.03455202 0.032133907 0.059019774 0.04793727
0001a0 4d 22 82 3d c0 17 d5 3d 36 cb 68 3d 26 ef ad 3d
       0.063541986 0.104049206 0.056834422 0.084928796
0001b0 01 08 86 3d 1e f6 d6 3c 9f 33 fa 3c 25 9f 55 3d
       0.065444954 0.026240405 0.030542193 0.052153725
0001c0 81 63 b9 3d 32 05 9a 3d 74 eb c3 3d b7 42 4f 3d
       0.09052182 0.07520522 0.095663935 0.050600734
0001d0 ee 16 7a 3c 45 ba 99 3d 63 11 5c 3d 5f bc 81 3d
       0.015264256 0.07506231 0.05372752 0.06334757
0001e0 a0 a2 74 3d d9 c6 8d 3d 22 77 90 3d 00 a0 57 3d
       0.059725404 0.06922693 0.07053973 0.052642822
0001f0 3d 52 93 3d 60 9b 3a 3d eb a0 26 3d cb aa 51 3d
       0.0719342 0.045558333 0.040680807 0.05118827
000200 4d f0 88 3c 70 cb b5 3d 30 fa 9b 3d 4d a2 5b 3d
       0.016716147 0.08876693 0.07616079 0.05362158
000210 07 8b 17 3d b4 8a 24 3d c7 bc 65 3d c0 55 64 3d
       0.03699782 0.04017134 0.056088235 0.05574584
000220 74 74 b8 3d 84 af b2 3d 50 85 e2 3c f8 84 6e 3d
       0.09006587 0.08724883 0.027651459 0.058232278
000230 4f c1 9c 3c eb 68 91 3d c7 3c d1 3c 4a 29 b6 3d
       0.019135145 0.0710009 0.025541676 0.08894594
000240 4a 13 51 3d 19 24 69 3d 34 d1 58 3d 11 34 9a 3d
       0.051043786 0.05691919 0.052933887 0.07529462
000250 d6 e8 42 3c 4a 81 05 3c a8 2d 74 3d 2d db 55 3c
       0.011896333 0.008148501 0.059613854 0.013052744
000260 ba 8d 39 3d 1f 78 9b 3d 85 da a4 3c 35 ea 90 3d
       0.045301177 0.07591271 0.02012373 0.070759214
000270 04 d3 a9 3c 6e 2f bc 3d 83 36 87 3d a8 34 6b 3d
       0.020730503 0.09188734 0.06602194 0.057423264
000280 31 94 b2 3d de f5 4b 3d 71 7e 6b 3d 29 3b 5a 3d
       0.087196715 0.049795024 0.05749363 0.053279076
000290 67 2e 18 3d a1 9b 03 3d 8c 4c a9 3d 1f ac 97 3d
       0.037153628 0.03213084 0.08266553 0.07405876
0002a0 f1 f6 8b 3c 30 17 2d 3d 20 cf 2b 3d 52 6d 1c 3c
       0.017085524 0.04225844 0.041945577 0.009547548
0002b0 cc 6c 62 3d d4 3c 3a 3d 6d e2 8d 3c d0 41 b1 3d
       0.055279538 0.045468166 0.017319882 0.08655131
0002c0 60 5e 33 3d 6f ae 93 3d 7f 3e 66 3d 72 92 91 3d
       0.043791175 0.07211005 0.056211945 0.0710801
0002d0 ed 52 75 3c 24 5e 41 3d 3f f1 a3 3d 9a 30 8f 3d
       0.014973384 0.04720892 0.080049984 0.06991692
0002e0 ee 85 9f 3d 4a 11 26 3d 2d 5b bf 3d c4 01 9d 3d
       0.07789217 0.040543832 0.09343562 0.076663524
0002f0 6f 4f 48 3d ff f2 5a 3c 95 c2 84 3d 19 d7 d6 3c
       0.04890388 0.013363599 0.06482426 0.026225613
000300 e2 85 f0 3b cd f0 6d 3d 66 38 15 3d e4 23 40 3d
       0.007340179 0.058090974 0.03643074 0.046909228
000310 4a 24 4b 3c 1f d0 6e 3d 58 57 ee 3c 92 e7 a6 3d
       0.012398789 0.05830395 0.029094383 0.08149637
000320 c6 3d b7 3d 32 95 30 3d a7 db 75 3b 4d 2f 10 3d
       0.08947329 0.043111034 0.0037514956 0.03520136
000330 12 86 0d 3d cc a3 db 3c 57 3b 84 3d d5 fd a8 3d
       0.034551688 0.026811503 0.06456631 0.082515396
000340 12 32 04 3d 02 75 40 3d 1f 05 4d 3c ab 82 85 3d
       0.032274313 0.046986587 0.012513428 0.065190636
000350 d8 07 72 3d e9 a2 a0 3c 07 ea a6 3d 53 af 57 3c
       0.05908951 0.019608932 0.08150106 0.013164359
000360 b3 f0 3a 3d 2a 3b 7a 3d 4f 0d a0 3c 9b 3c 0d bb
       0.045639705 0.06109158 0.019537596 -0.0021551016
000370 44 4c 4f 3d c5 6d 93 3d 0e 10 3a 3c d6 bc 66 3d
       0.050609842 0.07198671 0.011356367 0.05633243
000380 8b 76 6a bb 17 68 ba 3d bc 43 5e 3d 81 6c c4 3d
       -0.0035776224 0.09101885 0.054263815 0.09591008
000390 e6 52 81 3d 48 18 f7 3c 97 f1 d2 3c d2 c9 99 3d
       0.0631464 0.030162945 0.025749965 0.07509197
0003a0 5d cf 3e 3d 83 be 36 3c 6c da fe 3c 09 93 41 3d
       0.046584476 0.01115382 0.031110011 0.047259364
0003b0 d5 23 bc 3d a5 a7 10 3d d4 2c 50 3d db 34 3d bc
       0.09186522 0.03531613 0.050824 -0.011548246
0003c0 4b db e4 3b d4 9a 83 3d e2 e5 7b 3d de d4 96 3d
       0.0069841496 0.064260155 0.06149853 0.0736482
0003d0 d7 35 a4 3d 33 88 9e 3d 6d ea 16 3d 76 ba 31 3d
       0.08018082 0.07740822 0.03684466 0.043390714
0003e0 b1 69 cd 3d 7d cb 67 3d ba 67 5d 3d 14 75 a7 3d
       0.10029925 0.056590546 0.054054 0.08176628
0003f0 c0 59 7b 3d be 79 d3 3c 94 99 28 3d 7d 67 af 3d
       0.06136489 0.025814887 0.04116209 0.08564661

linear_a_0.bias f4 [16]
000000 8b 53 68 3d 6e 48 dc 3c fa ff 1e 3d 80 c3 e6 3c
       0.056720298 0.026890006 0.038818337 0.028169394
000010 b9 e8 db bc ae 38 ea 3c 27 a5 0d bd 27 5e 9c bc
       -0.02684437 0.02859148 -0.03458133 -0.019087864
000020 ed cc 57 3c 71 ba c3 3b 5e 8b 6c 3c af b1 21 3d
       0.013171417 0.0059731533 0.014437525 0.039476093
000030 7a fb 0b 3b e8 95 34 3b 91 5b 94 3c 73 fb 92 3d
       0.0021359609 0.0027555171 0.018110069 0.071768664

GRU_a.weight_ih_l0 f4 [48, 16]
000000 32 f1 7a be e0 70 9f bd db 8c 5c 3d c6 10 ee bd
       -0.24506071 -0.07785201 0.053845268 -0.11624293
000010 83 8b fd 3d 7a cc 19 3e 9a 9e eb bd 43 3f 06 be
       0.123801254 0.15019408 -0.1150486 -0.1311007
000020 6b 70 72 bd b9 d1 fc 3c 7b 0c f5 3d de d6 10 be
       -0.05918924 0.030861722 0.11965271 -0.14144465
000030 c1 2c 14 be df fe e7 bd 8e a3 5c 3e e9 d0 5e 3e
       -0.14470197 -0.1132791 0.21546766 0.2175938
000040 9c 6d f3 3d 7d 9d c4 3d 42 cf 65 3e 4c b1 c9 3d
       0.11886141 0.09600351 0.22442344 0.0984827
000050 d8 76 0d 3e db b8 10 3d 75 ee 9c bd c2 f3 1b 3e
       0.13814867 0.035332542 -0.076626696 0.15229705
000060 cc 98 40 3e 4f a6 a8 3a da 03 7a 3e 72 47 70 3e
       0.18808287 0.0012866947 0.24415532 0.23464754
000070 3a fc ec 3d 6d 35 30 3c 41 30 47 be 33 52 94 3c
       0.11571546 0.010754925 -0.19452001 0.018105602
000080 aa 8b a5 3e 9b 6f 68 bd 54 7f c6 3c fc ae 10 be
       0.32333118 -0.05674706 0.024230637 -0.14129251
000090 5f 04 63 3e 72 8f 36 be 55 ee 31 be 38 34 96 bd
       0.22169636 -0.17828158 -0.17376073 -0.07334179
0000a0 9a a5 db bd ba 6a 4e 3e c3 ba d1 bb ea 71 4c bd
       -0.10724945 0.201579 -0.0064004376 -0.049913324
0000b0 71 ff 07 3d ec 08 1e bd 6c 63 dc bc 1b e8 ed 3d
       0.033202592 -0.038582727 -0.026902877 0.11616536
0000c0 20 34 0f 3e 7a 9c f7 bd 04 6f 8e 3c 51 0c 40 3e
       0.13984728 -0.120903924 0.01738692 0.18754698
0000d0 29 bb 2f be 4f e7 48 3d 42 9b f2 3c 27 9a 09 3c
       -0.1716124 0.049048718 0.029615048 0.008398569
0000e0 7c e9 82 3e 92 02 d8 bc 6a da 45 3e 11 8b 5d 3d
       0.2556876 -0.026368413 0.193216 0.054087702
0000f0 d9 73 44 3e 45 99 d9 bd 04 01 63 3e 2f 47 d2 3c
       0.19184817 -0.10624937 0.22168356 0.025668709
000100 0b 3f 34 be 83 55 12 3e c7 0a 0f bc 06 d2 0d be
       -0.17602174 0.14290433 -0.008730597 -0.13849649
000110 e5 fd f5 bd a6 95 a0 3b 72 6b 31 3e 15 db de 3a
       -0.12011317 0.004900652 0.17326143 0.0017002547
000120 06 4f 19 bd a5 b8 3b 3e 2c 29 0b be 84 c4 12 3e
       -0.03742888 0.18332155 -0.13589925 0.14332777
000130 6d a2 20 3e c4 38 02 3e fb f3 7a 3e 5a b7 2b bd
       0.1568696 0.12716967 0.24507134 -0.041922905
000140 f5 47 0d be 18 6d 82 be 1a 55 3d bd 58 d8 61 bd
       -0.1379698 -0.25473857 -0.046223737 -0.055137962
000150 55 f5 15 3e 94 84 00 3e d4 7f bf bc 91 4f 6d 3e
       0.14644368 0.12550575 -0.023376383 0.23174883
000160 46 32 f7 bd ed 89 09 be b6 39 2d be 23 4a 47 bd
       -0.12070136 -0.13431521 -0.16916546 -0.048654687
000170 e2 2b 86 3d 2b 95 c4 3d 82 62 a9 bd 36 cf c2 bc
       0.06551339 0.09598764 -0.08270742 -0.023780446
000180 83 57 68 be ea b9 16 3e bf 8b 6a 3e cb 36 22 be
       -0.22689633 0.14719358 0.22904871 -0.15841214
000190 79 29 3c 3d bf cb dd bd 81 d2 23 bd 02 e6 4d bd
       0.04593799 -0.10829877 -0.039995674 -0.05026818
0001a0 df 9a dd bd c3 06 1f 3d 7d 93 57 be 24 35 80 3e
       -0.10820555 0.038824808 -0.21052356 0.25040543
0001b0 ca 19 bd 3d 51 51 11 3e 1f 17 6c bd fe 49 1e bd
       0.092334345 0.14191176 -0.057639237 -0.038644783
0001c0 06 53 4e 3e ea 19 c2 3d 55 67 81 3e 53 71 63 be
       0.20148858 0.09477599 0.2527415 -0.22211199
0001d0 1e a6 6a be ca 9a 38 3e 9c cd 78 be 8b a7 46 be
       -0.22914931 0.18027797 -0.24297184 -0.1939985
0001e0 8d 96 25 3e b5 64 e9 3b d4 46 88 3e f0 c8 65 3e
       0.16170712 0.007122601 0.26616538 0.22439933
0001f0 b3 86 19 be 12 8f b0 3d 8a 55 d3 bd 5e 98 e9 3d
       -0.1499279 0.086210385 -0.1031905 0.11406015
000200 04 d4 9f 3e 4a cf 95 3e c7 1b 30 3e 78 b3 fe 3d
       0.31216443 0.29259712 0.17198096 0.12436575
000210 2f d3 48 3d 81 53 01 be 3b 9d 73 be 66 69 9c 3d
       0.049029525 -0.1262951 -0.23790447 0.07637291
000220 94 9e 33 3e f3 db 08 3e 79 8b 9d 3d 63 e0 00 3c
       0.17540962 0.13365154 0.07692618 0.007865998
000230 5d 99 7d be 1c bc 1a 3e 77 60 99 3b 14 8b 23 be
       -0.24765535 0.1511082 0.004680689 -0.15971023
000240 66 8d 72 3e 4e c9 53 3e b1 bc 10 3e 36 f6 fd bc
       0.23686752 0.2068226 0.1413448 -0.031001192
000250 c6 27 78 bd 6b 69 4f 3e 04 95 d3 3d a7 9c a5 3d
       -0.060584806 0.20255058 0.10331157 0.0808652
000260 ae aa af 3d 3f 2a 1e 3e 5d e4 3e be 58 dd da bd
       0.085774764 0.15445803 -0.18641801 -0.10686749
000270 ae 32 e6 bd f9 46 b7 bd bc 75 47 3e f8 c5 0f 3c
       -0.11240135 -0.08949084 0.19478506 0.008775227
000280 71 e8 bd 3d ef f2 f7 bc 0b c0 19 3e 5b c8 3e bd
       0.0927285 -0.030267207 0.15014665 -0.046577793
000290 2b ed e3 bd e6 8e 64 bc bc a9 3f 3e 73 fb f0 3d
       -0.111292206 -0.013950085 0.18717092 0.1176671
0002a0 58 8c ac 3d be 19 84 3c cd 05 a0 3d d9 e9 83 3e
       0.08425206 0.016125556 0.078136064 0.2576435
0002b0 47 3a 3b be a5 04 11 be 9f 16 5b bd 28 a1 6e bd
       -0.1828395 -0.14161928 -0.05348837 -0.05825916
0002c0 a5 36 7d 3e aa 2e bf 3d 64 31 af bd c0 7f 36 be
       0.24727876 0.09335072 -0.085543424 -0.1782217
0002d0 90 c8 21 be 39 50 4a 3e c6 84 65 be 87 58 93 3d
       -0.15799165 0.19757165 -0.2241393 0.071946196
0002e0 29 9b 51 3d 92 17 83 3e 98 e9 b2 bd 1c 02 f2 3d
       0.051173363 0.2560392 -0.08735961 0.118168086
0002f0 e0 7f a6 bd 5c 02 1f 3e 58 d8 57 be 07 70 53 be
       -0.08129859 0.15528244 -0.21078622 -0.20648204
000300 7d 9c 1c 3d b0 31 25 be 9d 91 34 be a9 5e cc bd
       0.038235176 -0.16132236 -0.17633672 -0.099789925
000310 be 6a 6b bd 1f 15 aa 3d 7b 87 1c 3e 84 60 2b bc
       -0.057474844 0.0830481 0.15286057 -0.010460023
000320 7c 5b 2b 3e ba 84 9f bc f4 ec 5f bd c2 d0 74 be
       0.16734117 -0.019472469 -0.054669335 -0.2390776
000330 0f e5 46 be 11 a5 93 bd 33 9c 85 3e 79 20 1f 3e
       -0.19423316 -0.07209218 0.26095733 0.15539731
000340 28 f1 aa 3c d2 63 bf bc 1e c2 cb 3c b2 34 0e 3e
       0.020866945 -0.023363028 0.024872836 0.13887289
000350 e7 93 67 bc c4 53 37 3e 79 2a cf 3d 1d 66 ff 3c
       -0.014134384 0.17903048 0.10115523 0.031176621
000360 c1 5e 64 be df 07 78 be 99 b5 85 bd f9 89 0a bb
       -0.22301771 -0.24221753 -0.06528778 -0.0021139367
000370 f1 8a a6 bd 7f 29 38 be b0 73 72 be 59 7e 10 be
       -0.0813197 -0.1798458 -0.23676944 -0.14110698
000380 7f 7f 17 3e 4f be 27 be 28 65 15 be 08 41 35 be
       0.1479473 -0.1638119 -0.1458937 -0.17700589
000390 d0 83 30 3e 17 47 e4 3d 7a 1d 5f be 30 7f 74 3d
       0.17237782 0.11146372 -0.21788588 0.059691608
0003a0 a3 45 5d 3e f3 bb 10 3e 63 b0 94 3d 13 53 10 3e
       0.21608596 0.14134197 0.072602056 0.1409419
0003b0 a0 fb 66 be 0e 56 ee 3d 24 3a f3 bd 55 13 65 3d
       -0.22556925 0.116375074 -0.11876324 0.05592664
0003c0 39 88 fa bb c1 61 02 be 8e 09 45 be c2 47 10 3e
       -0.0076456335 -0.12732603 -0.19241926 0.14089873
0003d0 5a 81 8a bd 79 f9 64 3e 98 41 b6 bc 11 c8 5b 3c
       -0.06762953 0.22360791 -0.022248074 0.013414399
0003e0 32 94 7b bd 8e 3f d9 bc cd cc 22 3e 7e b7 02 3d
       -0.061420627 -0.026519563 0.15898438 0.031913273
0003f0 31 84 65 be a5 6c df 3c 1d 44 33 bc 95 07 d2 bd
       -0.22413708 0.027273485 -0.010941532 -0.102553524

GRU_a.weight_hh_l0 f4 [48, 16]
000000 a5 3e 80 3e 7f 6b 03 3e a1 e3 de bd a4 5a 5b be
       0.25047794 0.12833975 -0.108832605 -0.21421295
000010 41 d7 ce 3c 62 ca 7c 3e 80 1d 4e bd d8 dc ac 3d
       0.025249125 0.24686578 -0.050321102 0.0844056
000020 a8 4f 0e 3d b3 b2 16 be bd 80 fa 3b ea e1 64 3d
       0.034743935 -0.14716606 0.0076447413 0.05587951
000030 f9 15 c6 3d cb a5 67 be 4e 9b 48 be f6 48 72 3e
       0.0967216 -0.22621839 -0.19590494 0.23660645
000040 7f ac 93 3c 17 3e 3f bc a6 d5 de 3d 04 9a e6 bb
       0.018026588 -0.011672518 0.10880594 -0.007037403
000050 78 81 31 3e f6 68 27 bd ef d6 81 be 7a 44 93 3d
       0.17334545 -0.040871583 -0.25359294 0.07190795
000060 a7 18 00 be 42 d2 1e bc 00 d5 8c 3c 50 a0 de 3d
       -0.12509404 -0.009693684 0.01719141 0.10870421
000070 68 c2 42 3d aa 70 ba 3d d7 ea ba bd bb 55 84 be
       0.04754868 0.0910352 -0.091268234 -0.25846657
000080 3c 67 63 bd 9b 4d 53 3e f0 c7 f5 3d 7c c7 04 bc
       -0.055518374 0.20635073 0.12001026 -0.008104201
000090 fb 46 36 be 2a 70 70 3e b0 58 94 be 86 11 88 bc
       -0.17800514 0.23480287 -0.28973913 -0.016609918
0000a0 71 78 05 be ee 40 a2 3d 88 b5 14 be fa f9 8b 3e
       -0.13034226 0.079225406 -0.14522374 0.27339154
0000b0 dc 07 8e bd 3b 3a b7 bd 21 d8 03 be db f4 30 3d
       -0.06935093 -0.089466535 -0.12875415 0.043202262
0000c0 4e a9 e5 bb fc 77 be bc 10 80 d1 3d 27 68 2d 3c
       -0.007008708 -0.023250572 0.10229504 0.010583914
0000d0 98 a2 5b 3e 69 61 06 3e 9f c2 e5 3d a4 02 89 bd
       0.21448743 0.13123097 0.11218762 -0.06689957
0000e0 dd 99 11 3e dc 65 da bd a1 b3 d3 3d 92 f9 14 3e
       0.1421885 -0.106639594 0.10336996 0.14548329
0000f0 e0 b7 02 3d 1a e8 83 bc 05 02 85 3e 03 1f 2d bd
       0.031913638 -0.016101886 0.25978103 -0.042265903
000100 06 55 b3 bd 0d 27 41 be 5d 46 03 be 60 38 2a be
       -0.08756451 -0.18862553 -0.1281981 -0.16623068
000110 5c 07 2a 3c 5e 4d 74 bc 36 2d 65 3e 16 63 69 bd
       0.010377731 -0.014911024 0.22380528 -0.05697926
000120 80 21 16 be 99 d4 3e be d6 74 9f bd 54 5e 08 bc
       -0.14661217 -0.18635787 -0.077859566 -0.008323271
000130 05 01 83 3c 8f cb 4c 3e cd c8 32 3e f5 0a 2c 3e
       0.015991697 0.19999526 0.17459412 0.16801055
000140 52 7a ea bc 8c 51 44 3e 16 83 2d be 0b 2b 73 bd
       -0.02862278 0.19171733 -0.16944537 -0.05936722
000150 d7 31 e3 3c b8 62 88 3e 9a f3 51 be 9b a1 1b be
       0.027733726 0.26637816 -0.20503083 -0.15198366
000160 72 6d 00 3e 25 5a 95 bc 02 1b ff 3d 90 a3 f5 3d
       0.1254175 -0.01823146 0.12456323 0.11994088
000170 51 eb 17 be 84 25 47 3c 5d 37 1c bd 54 c0 1c be
       -0.1483586 0.0121549405 -0.038138736 -0.15307742
000180 f8 2f 7b be 81 96 d6 3d 0b 26 ce 3d 9f 01 e6 3d
       -0.24530017 0.10477925 0.1006585 0.11230778
000190 d6 92 15 bd 8d a0 50 3e 9c 1b 73 bd a8 4d 48 3d
       -0.036516987 0.20373745 -0.059352502 0.048902184
0001a0 4c fd 64 3e ac 60 4e be 88 5d 6e bd 32 ba 71 3e
       0.2236225 -0.20154065 -0.058194667 0.23606184
0001b0 e6 e8 4e be 09 9a 3e be d8 58 a6 3d 5b df 9c 3c
       -0.20206031 -0.18613447 0.08122414 0.019149473
0001c0 3a 77 7d be 56 13 92 3d 26 34 47 be 07 7f 0c be
       -0.24752513 0.07132594 -0.19453487 -0.13720332
0001d0 fb 04 57 3e b5 c6 25 bd 85 ef 2b bd 32 f9 68 3e
       0.20997994 -0.040472705 -0.04197647 0.2275131
0001e0 ea 73 21 3e 18 fb 99 bd 78 80 1a 3e 2a 17 d6 3d
       0.15766874 -0.075185955 0.1508807 0.10453637
0001f0 93 df cb 3c 07 81 18 3e 7a 00 50 3d b7 8f 94 3c
       0.024886882 0.1489297 0.050781704 0.018134935
000200 97 7c 2e 3e 61 df dd bd 88 af 4f be 51 6f 71 be
       0.17039715 -0.10833622 -0.20281804 -0.2357762
000210 19 9c 47 3e 08 e7 8b be f4 6f 44 be c5 3e 82 3d
       0.1949314 -0.273247 -0.19183332 0.063596286
000220 6c 1f dd bd db bf 07 3e 9b cf 9a bd 3d e9 86 3e
       -0.10797009 0.13256781 -0.07559129 0.26349822
000230 41 16 4a be 72 da f6 bd 38 d8 08 3e cd b7 19 be
       -0.19735052 -0.12053384 0.13363731 -0.1501152
000240 1b da dd bd 26 61 d6 bd da a8 18 3d f9 4a 27 3e
       -0.10832616 -0.10467748 0.037270404 0.16337194
000250 76 e5 43 be 60 0a 07 be 2f 20 7e be 25 76 18 be
       -0.19130501 -0.13187551 -0.24816965 -0.14888819
000260 93 68 72 3e 6b 82 22 3e ca 62 22 3e f5 58 22 be
       0.23672704 0.15870063 0.15857998 -0.15854247
000270 4c 5e 11 bd ea 14 7a 3d 9d c4 fb 3d e5 3c 89 3d
       -0.03549032 0.0610551 0.122933604 0.06701068
000280 9f d2 04 3e b0 e2 03 be 2f 4b 68 be 38 ec 82 be
       0.1297097 -0.12879443 -0.2268493 -0.25570846
000290 c5 c6 10 3d 9c cc b8 bc bd 17 73 be db 54 80 3e
       0.03534581 -0.022558503 -0.23739524 0.2506474
0002a0 d3 a5 b6 bd a4 c5 9b 3d df db 7c 3e 71 a3 37 3e
       -0.08918347 0.07606056 0.24693249 0.17933442
0002b0 ff 94 38 3e 12 58 85 3d d1 25 59 be 9d 01 11 3e
       0.18025587 0.06510939 -0.21205832 0.14160772
0002c0 25 a7 d2 3d 75 ef 52 be e5 9b 02 bb b5 45 89 be
       0.102857865 -0.20599158 -0.0019929346 -0.26810995
0002d0 6f 7a d6 bd 42 05 0a be 42 51 f8 bd 99 b8 8d 3e
       -0.10472571 -0.13478568 -0.12124874 0.276799
0002e0 2c ee d1 3c e3 a2 32 3e e8 79 90 bd 16 d7 93 3e
       0.025626265 0.17444949 -0.07054502 0.28875035
0002f0 e6 d3 83 bd dd 3d 82 3d a2 71 b8 bd a2 9f d3 3d
       -0.06436901 0.06359456 -0.09006049 0.10333182
000300 7e f3 96 bd 2e d4 5e 3e ed 13 85 3e d2 68 6c 3d
       -0.07370661 0.21760628 0.25991765 0.057717152
000310 36 75 65 be be e8 50 be 01 41 87 be ab d0 0a 3e
       -0.22407994 -0.20401284 -0.26416782 0.13556163
000320 dd 60 e9 bd 4f 2a 24 be ff 24 2a 3e d6 65 c9 3d
       -0.11395428 -0.16031764 0.16615675 0.09833877
000330 26 14 25 be ed 80 5f 3d f0 06 e5 3d ec e6 8d bd
       -0.16120967 0.054566313 0.11182964 -0.069288105
000340 37 bb 23 be 0b c6 17 3e 48 76 38 3e 61 7e 22 be
       -0.15989386 0.14821641 0.1801387 -0.15868522
000350 86 fd 31 be af 31 2c be 9e 20 d9 bd 7a 0b 2d 3e
       -0.17381868 -0.16815828 -0.10601924 0.16898909
000360 0d 0d b8 3d b9 84 69 be 32 a3 9e bc 92 e7 90 bd
       0.08986864 -0.22804536 -0.019364927 -0.070754185
000370 e5 bc 56 3e d4 6c 99 3d fa 2a 1c be f6 1e 11 3e
       0.20970495 0.074914604 -0.1525077 0.14171967
000380 6f 6d 01 be ad eb 16 3e 47 a1 86 3d 69 fe 22 3e
       -0.12639402 0.1473834 0.0657373 0.15917362
000390 72 f0 62 be 3c ef 56 be 6b 02 2d bd 98 1c cd bd
       -0.22162035 -0.20989698 -0.042238634 -0.100152194
0003a0 25 62 63 3c c9 18 29 3e fb fd 66 3e 09 7c 6f 3e
       0.01387838 0.16513361 0.22557823 0.2338716
0003b0 bb 2f ef bb dd 1e e9 3d 03 29 3a 3d a7 f1 3c be
       -0.007299391 0.1138284 0.045449268 -0.18451558
0003c0 5e cd 18 3d bc 18 82 be 26 cc 38 be 73 c1 4b bc
       0.03730523 -0.25409496 -0.18046626 -0.012436259
0003d0 3a d6 6b be 36 58 62 3e e0 8b fa 3c 03 d0 1e 3d
       -0.2303094 0.22103962 0.030584276 0.038772594
0003e0 da 46 01 3e 26 d6 39 be 5c 08 67 3d 6a 33 2b 3e
       0.12624684 -0.18148097 0.056404456 0.16718832
0003f0 41 3e df 3d fb de 60 3d 79 fa 57 bc bb 23 79 3e
       0.10900546 0.05490015 -0.013182276 0.24330036

GRU_a.bias_ih_l0 f4 [48]
000000 e3 90 d1 bd b4 71 86 3e f9 68 64 bd b9 b0 d6 3c
       -0.10232713 0.26258624 -0.055764172 0.026207315
000010 92 30 81 3e 47 0f 5a be 1a 69 4d be 97 dd eb bd
       0.2523237 -0.2129489 -0.20059624 -0.11516874
000020 19 c8 ce 3b c2 84 3c 3e 03 38 89 bc fd e1 62 bd
       0.0063104746 0.18410018 -0.016750341 -0.0553913
000030 6b a3 df bd c8 fc 3e be a1 ec 3a 3e 89 c8 db bd
       -0.109198414 -0.18651116 0.1825433 -0.107316084
000040 97 ec ce bd ff 91 51 3e 30 d1 7d bd ba 7b 58 be
       -0.1010372 0.2046585 -0.061967075 -0.21140948
000050 0a 89 6e 3e 70 3a 7d 3d c8 ca 62 be 04 74 a8 3d
       0.23294464 0.06182331 -0.22147667 0.08225253
000060 46 f6 4d bd 7a 24 46 be df 8f 67 bd 5c 1f 4e be
       -0.050283693 -0.19349852 -0.05653369 -0.2012915
000070 de 10 08 3d 7f 30 18 3e 67 f2 82 bc 28 02 ab 3d
       0.03321921 0.1486225 -0.015984727 0.08350021
000080 d0 54 18 be 23 f9 47 3e af 91 af bd d6 c6 91 3d
       -0.14876103 0.19528632 -0.08572709 0.07118003
000090 08 ab 80 3e 61 98 57 be f0 2f 52 be 17 b6 6c bc
       0.25130486 -0.21054222 -0.20526099 -0.0144477105
0000a0 b0 4f 3e 3c 0a 5e b9 bc a5 0a 64 bc 66 17 44 3e
       0.011615679 -0.02262785 -0.0139185535 0.19149551
0000b0 cb 10 c8 3d 63 b1 95 3d dc 5a 34 3e b2 32 86 3d
       0.09768828 0.073092245 0.17612785 0.06552638

GRU_a.bias_hh_l0 f4 [48]
000000 8e 41 ac 3c 55 20 57 bc 03 f0 46 3e 08 0c 1c 3c
       0.021027353 -0.013130267 0.19427495 0.009524353
000010 ca 81 49 be 80 bd 42 bd 50 ab 66 bc e2 88 57 be
       -0.19678417 -0.047544003 -0.01407893 -0.2104831
000020 fd 14 12 3e a7 48 1f 3d 2b 9c df 3c c5 f4 d3 3d
       0.14265819 0.038887646 0.027296146 0.103494205
000030 d2 f7 9c 3d 00 d7 59 3e fd 6e 89 bd d6 7d 67 be
       0.076644555 0.21273422 -0.067106225 -0.22606596
000040 da 45 db bd 78 4f 47 3d ac 80 d6 3d ef c3 15 bc
       -0.107066825 0.04865977 0.10473761 -0.0091409525
000050 b4 b6 3b be 63 d5 90 bd 3e f1 e4 3d ed dd 85 3d
       -0.18331414 -0.0707195 0.11178826 0.065364696
000060 97 29 ad bd bf 80 89 be 47 f3 88 be 47 e2 60 bd
       -0.08455198 -0.26856038 -0.26748106 -0.054903295
000070 a5 f1 18 3e 2d e7 e6 bd 7e 0b 7d 3e c0 a6 d7 bd
       0.1493593 -0.11274562 0.24711415 -0.10529852
000080 f4 1c 4b 3e 4b c0 5c 3e 19 c1 40 be 67 2e 9f bd
       0.19835263 0.21557729 -0.18823661 -0.077725224
000090 72 3a 83 3c a1 01 13 3e a2 a1 6b 3e 0d 1c 2d 3c
       0.01601908 0.1435609 0.23010877 0.01056577
0000a0 b1 ef 57 3e 50 13 40 3c a4 ba 4b 3e e4 a1 30 be
       0.21087529 0.011723354 0.19895416 -0.17249256
0000b0 fe de 51 be 12 b5 7c 3d 38 bb a9 3d a2 79 f6 bd
       -0.20495221 0.06169612 0.08287662 -0.12034918

linear_a.weight f4 [4, 16]
000000 dc 8e 24 3e c5 44 17 be aa c4 af be 57 4e a0 3d
       0.16070122 -0.14772327 -0.3432973 0.07827442
000010 42 43 a7 3c ce af ee 39 70 39 25 3e 1e 16 dd bc
       0.020417813 0.00045525882 0.16135192 -0.026988085
000020 42 10 bf be f0 ed a2 be 6c a4 08 3e b1 1f e9 be
       -0.3731709 -0.31822157 0.13343972 -0.4553199
000030 76 36 b9 be ff 50 68 be b4 c2 6f 3e 1a a2 25 be
       -0.36174363 -0.22687148 0.23414117 -0.16175118
000040 2e ee 4f be c3 47 06 3e 86 5a 5b bd aa 21 ca bd
       -0.20305702 0.13113312 -0.053553127 -0.09869702
000050 11 07 5e 3e 49 d3 c5 3c b2 1e 29 3e fa 6e 97 3e
       0.21682383 0.0241486 0.16515616 0.29576856
000060 66 9f ad 3e bd 45 0f 3e 52 32 2f be e7 1a b1 3d
       0.33910674 0.13991447 -0.1710904 0.08647709
000070 0e 2c 9a 3d 00 2e ac 3e d8 6c 04 bc 85 3a c3 bc
       0.07527934 0.33628845 -0.008082591 -0.023831615
000080 fd fc 8b 3d 50 29 ac be 3f 74 59 3d fb 54 a0 bc
       0.06835363 -0.3362527 0.053089377 -0.019571772
000090 8c 37 94 be 71 9d 29 3e 06 ac 53 be 2e 8d f3 be
       -0.2894863 0.16563965 -0.2067109 -0.4756865
0000a0 1e dc 0f 3d c9 1d d5 be 0f 32 27 be ee fb 94 be
       0.03512203 -0.41624287 -0.1632769 -0.29098457
0000b0 da 3f 22 bd a3 50 41 be 19 99 0d bd e5 89 76 3e
       -0.039611675 -0.18878417 -0.034569833 0.2407604
0000c0 39 52 0a be d5 fb a8 3e bc d9 38 3e e5 7b d3 3d
       -0.13507928 0.33004633 0.18051809 0.103263654
0000d0 3e 95 04 be 5f e0 52 be 34 44 d2 bd 81 e6 8d 3d
       -0.12947556 -0.20593403 -0.10266915 0.06928731
0000e0 db 41 a0 3e 36 7e a8 3e c9 25 90 3e 98 61 95 3c
       0.31300244 0.3290879 0.28153828 0.018235013
0000f0 eb c0 a1 3e 81 33 6f 3e d9 0a 03 3e ff 55 6f 3e
       0.31592497 0.23359491 0.12797107 0.23372649

linear_a.bias f4 [4]
000000 66 f6 73 be 2e 59 0f 3d 96 2f e7 bc 99 b0 56 bd
       -0.23824462 0.034997158 -0.028220933 -0.05241451

conv_v_0.weight f4 [16, 7, 3, 3]
000000 42 3b 95 3d d8 74 f2 bc 68 73 51 3c ab 57 8c 3d
       0.07286693 -0.029596731 0.012783863 0.06852659
000010 c1 94 f5 bc fe 5b a8 3d b0 77 36 3d c0 17 bf 3d
       -0.029978158 0.08220671 0.044547737 0.09330702
000020 b2 e5 f9 3c b0 e0 09 3d 92 67 83 3d d6 ab 67 3d
       0.030505035 0.033661544 0.06416239 0.05656036
000030 1d 65 ce 3d 3f 9b ce 3d 2f ad b5 3d 66 26 3d 3e
       0.100778796 0.100882046 0.08870923 0.18471679
000040 da 63 83 be 19 a6 1c 3e 6d ad 3e be 04 5f 8b be
       -0.25662118 0.15297736 -0.18620844 -0.2722093
000050 6c 78 8b bd d6 98 41 be 25 f7 88 be 00 7b b9 bd
       -0.06810078 -0.18905959 -0.26751056 -0.090566635
000060 6b fc 5e bd 2d b9 45 be 17 ff 8e bd 13 da 7f bc
       -0.054439943 -0.1930892 -0.06982248 -0.015615958
000070 f7 50 74 3e b8 d4 d7 3d ec 48 0d 3d 46 7e 5d 3e
       0.2385901 0.1053862 0.03449337 0.216302
000080 ec 7c 4e 3d e8 f4 76 3e 56 aa 06 3e e7 e9 43 3e
       0.050412104 0.24116862 0.13150916 0.19132195
000090 22 97 14 3c a7 c3 d4 bc 6d a4 0a bc d6 97 b4 bd
       0.009069236 -0.0259722 -0.008462054 -0.08818023
0000a0 18 bf f7 bd 31 f4 ce bd 24 67 17 bb f2 9f d5 3d
       -0.12096995 -0.101051696 -0.0023102248 0.10430898
0000b0 bc 12 e2 3b 2a 1f 9f 3d fd cc 8a 3d 79 f4 a0 3c
       0.006899206 0.07769616 0.0677738 0.019647824
0000c0 98 75 5c 3c aa 91 17 be 2c e3 06 be 14 11 96 3c
       0.013455771 -0.1480166 -0.13172597 0.01831869
0000d0 cf 02 88 3d e7 a3 e9 bd 3d 5a 1c 3d 7e e0 a0 3d
       0.06641161 -0.11408215 0.038171995 0.078553185
0000e0 66 a3 1f be d7 cd ca bd c2 8d 19 bc 5e d9 7c bd
       -0.15589675 -0.09902542 -0.009372177 -0.061730735
0000f0 2d 99 c6 bd b2 9f f2 bb 1c b9 04 be f2 c5 a1 bd
       -0.09697185 -0.007404291 -0.12961239 -0.07899083
000100 ae a6 57 bd d6 44 26 3d 4c ad c9 bb 87 f6 c5 bd
       -0.052649193 0.04059299 -0.006154692 -0.09666162
000110 16 88 9d 3d e6 01 40 3c 3c 05 8e 3d b1 68 13 3e
       0.07691972 0.011719203 0.06934592 0.14395405
000120 bf a2 fe bc 2e 54 d3 3c cf 57 f5 3d 73 a2 d9 bc
       -0.031083463 0.025796976 0.11979639 -0.02656672
000130 d1 61 f7 bc a9 1e 15 3d 9a ae f7 bd 22 2d 9a bd
       -0.03019801 0.036406193 -0.120938495 -0.0752814
000140 73 d7 f3 3b 10 1d 4e 3d 2e 9c 98 3d 92 bd f6 3d
       0.007441455 0.050320685 0.07451664 0.120478764
000150 af f9 0d 3e ca 06 69 3e b0 c5 52 3e c4 17 32 3d
       0.13864778 0.22756496 0.20583224 0.043479696
000160 dc 74 1e 3d 8b f6 cb 3d d4 dc 24 be 75 74 25 be
       0.038685665 0.09959134 -0.16099864 -0.16157706
000170 4c 88 21 be 28 6b 7b bd 3a e7 1e be 7b 9f 3f be
       -0.1577465 -0.06138149 -0.15517893 -0.1871318
000180 0a 14 da bd 5a 14 2d be 23 22 8d 3b ef fe 11 bd
       -0.106483534 -0.16902295 0.004307048 -0.035643514
000190 91 fe 01 be ad 8a 07 bd 0d bb c9 bd cd 44 dc 3c
       -0.12694766 -0.033091236 -0.0985013 0.026888276
0001a0 fa 23 f2 3c 08 8f 49 bd 14 de 1b be 88 8b c5 bd
       0.02955817 -0.04920867 -0.15221435 -0.09645754
0001b0 5e 52 57 3e b9 95 c0 bc 3b f0 f9 3d ab ed dc 3d
       0.21027514 -0.023508893 0.122040235 0.10787519
0001c0 35 0c fd 3d 95 bf a6 3d 58 15 2d 3e 17 03 51 3e
       0.12355844 0.0814201 0.16902673 0.20411335
0001d0 0c b4 ed 3c 4d f6 6a 3d 9e 75 ca 3c d3 57 aa 3c
       0.029016517 0.057363797 0.024714287 0.020793831
0001e0 a0 23 0c be fc fc 14 be 8c 85 28 3d f2 f5 18 3d
       -0.13685465 -0.14549631 0.041142985 0.037343927
0001f0 67 03 fa bd 92 7e 42 bd d2 fd 34 be 9f ba 23 3d
       -0.1220768 -0.047483988 -0.1767495 0.039972898
000200 4c c6 83 3c c7 5d 39 bd 22 83 fc bd bc 96 3c bd
       0.016085766 -0.04525545 -0.12329699 -0.04604219
000210 eb c6 43 bd 77 39 26 be eb 97 4c bb 4e b3 87 bd
       -0.047797125 -0.16232859 -0.003121848 -0.066259965
000220 2b ea 32 be 83 48 06 be 35 57 a1 3d e3 64 3c 3d
       -0.1747214 -0.13113599 0.078779615 0.04599465
000230 a5 e9 55 bc d1 09 fa bd 27 f7 ee bd 5f c2 2a be
       -0.0130561935 -0.122089036 -0.11668234 -0.16675709
000240 99 bb b5 3d c0 ce 9b bd 94 af a9 bd 74 f7 76 3d
       0.08873672 -0.07607794 -0.08285442 0.060294583
000250 54 68 90 3d d8 b9 9b bd 6b 04 ae 3d 74 e9 0b 3d
       0.07051149 -0.07603806 0.084969364 0.034158185
000260 66 8d fc bd b3 e0 77 bb 82 2f b4 3d 8a f6 22 3e
       -0.12331657 -0.003782314 0.08798124 0.1591436
000270 79 ef d8 bd e3 e1 19 3d ec 41 90 3d 63 cc bc 3d
       -0.10592551 0.037568938 0.070438236 0.09218671
000280 c1 c6 2c 3d 42 81 d9 3d e7 2f 0a be 94 f0 6d bd
       0.042181734 0.10620357 -0.13494836 -0.05809076
000290 97 c3 2c 3d 1b 67 72 bc 93 64 84 bc bd d3 67 3d
       0.042178717 -0.01479509 -0.016161239 0.056598414
0002a0 5b 8b 6b 3d f5 69 c3 bd cd d4 99 3d b2 41 63 bd
       0.057505947 -0.09541694 0.07511292 -0.055482574
0002b0 55 5b 88 3c bf 61 44 bd 14 70 cd 3d 84 fe b3 3d
       0.016645113 -0.04794478 0.10031143 0.087887794
0002c0 c4 af 5c bd ea c6 17 bd e1 e5 c5 3d 35 d7 f2 bd
       -0.05387856 -0.037054934 0.096629865 -0.11857454
0002d0 9d 0f 0f be b4 dd ba bd 7a 78 01 be 3d 17 b3 bd
       -0.139708 -0.09124318 -0.12643614 -0.08744667
0002e0 55 4f 7a bd a0 0c 48 3d 9f ae b5 bd fc 51 79 3d
       -0.061110813 0.048840165 -0.08871197 0.060869202
0002f0 a8 c0 92 3d d5 0d e6 bc f1 a8 61 bd 3b 88 1e be
       0.071656525 -0.028082768 -0.055092756 -0.15481655
000300 2b fc 5a 3c c5 ca 68 3c b9 c2 05 3e bd 63 f4 3c
       0.013365786 0.0142085 0.13062562 0.029832715
000310 98 fc 09 3e f5 0d 49 3e 2f 95 87 3d 9a ea 7a 3d
       0.13475263 0.1963423 0.066202514 0.06125889
000320 e4 6a fb 3d 6e af ad bd 6b 30 73 bc 86 57 a8 3d
       0.12276247 -0.08480726 -0.014843087 0.08219819
000330 39 bc d4 bc 32 4c 09 3b b2 a4 2c 3d 81 29 14 3e
       -0.025968658 0.0020949957 0.042149253 0.14468957
000340 af f0 63 3e d5 fc 5b 3e a7 e0 5d 3e e7 91 85 3e
       0.22259782 0.21483167 0.2166773 0.26087877
000350 30 ac 90 3d 41 08 ab 3d a3 7b f3 3d 28 18 e5 3d
       0.07064092 0.08351184 0.11888816 0.11186248
000360 e2 c3 4f be 8d 6c 69 be 55 ab 26 be ef 7c 38 be
       -0.20289567 -0.22795315 -0.16276295 -0.18016408
000370 69 3d 69 be ca bf 31 be 72 57 53 be 71 56 9e be
       -0.22777332 -0.17358318 -0.20638826 -0.30925325
000380 36 36 23 bd 96 aa 58 bb e6 c3 2c bd 7e b5 1b 3d
       -0.03984662 -0.0033060662 -0.04217901 0.03801488
000390 c2 1b 7c bb 82 29 1e be 8a 8b f9 bc be 68 25 bd
       -0.0038468693 -0.15445521 -0.030462045 -0.040383093
0003a0 3e eb eb bd 35 c4 68 3d b8 7a fe bd d4 78 a9 3c
       -0.11519478 0.056827743 -0.124257505 0.020687498
0003b0 1a ac c6 bd 99 b5 56 bd b7 95 c9 bd f5 c2 1a be
       -0.097007945 -0.05241928 -0.09843009 -0.15113433
0003c0 29 3c 9f bc cd 03 b5 3c fa af e3 bd bb 71 c5 bc
       -0.019437866 0.022096539 -0.11117549 -0.024102082
0003d0 55 6f 3f bd d7 a9 49 3d 94 fa 86 3b 6f 1d 93 3c
       -0.046737034 0.049234238 0.0041192267 0.017958371
0003e0 d4 a9 7e bd db 85 aa bd 05 4c f3 bd c1 0e 03 be
       -0.06217368 -0.08326312 -0.11879734 -0.12798597
0003f0 9f bc db bd 97 25 50 be f5 71 93 bd 0e ea 42 be
       -0.10729336 -0.2032684 -0.0719947 -0.19034597

conv_v_0.bias f4 [16]
000000 34 a7 86 3d b9 69 24 3c 69 0b 9f 3d 5f f8 68 bb
       0.0657486 0.010034972 0.07765848 -0.0035548431
000010 ec dc 3a 3d cd b4 ee 3d aa d1 de bb 49 8b 94 3d
       0.045620844 0.11655579 -0.0067998962 0.07253129
000020 3b 7f 6f 3d 58 e9 d8 bb 86 c8 48 bd 43 b0 18 3d
       0.058470946 -0.0066196136 -0.04901936 0.03727747
000030 a7 dd 59 3c e7 d4 63 bd b8 55 5c bb f9 1e 18 bc
       0.013297475 -0.05562296 -0.0033620428 -0.009284728
