league/checkpoints/mfos_seeds/new_self_6x6_63/900_0.pth (torch, 549838 bytes, 105 tensors)

conv_a_0.weight f4 [16, 7, 3, 3]
0	0x3e195a4d	0.14975853
1	0xbe41a9e6	-0.18912467
2	0xbdd9b45c	-0.10630104
3	0x3e0a20c7	0.13489066
4	0xbcf2e71a	-0.029651213
5	0xbcd2e428	-0.025743559
6	0x3e3084be	0.17238137
7	0xbdc68999	-0.096942134
8	0xbaf91972	-0.0019004776
9	0xbda6bfec	-0.08142075
10	0xbd307a6c	-0.0430855
11	0xbe59a182	-0.21253017
12	0x3c52ffe5	0.012878393
13	0x3d8047da	0.062637046
14	0xbda6cee7	-0.08144932
15	0x3dd07e4c	0.10180339
16	0x3c81ab71	0.01582882
17	0xbbd40a39	-0.006470945
18	0xbda54d4b	-0.08071383
19	0xbc823a1e	-0.015896853
20	0x3e7b5af4	0.24546415
21	0x3d590635	0.052984435
22	0x3d93fe6c	0.072262615
23	0x3df77710	0.12083256
24	0xbc8ff73f	-0.01757395
25	0xbc619945	-0.013769452
26	0x3d316493	0.043308806
27	0xbe3da734	-0.18520814
28	0x3d8768e9	0.06611807
29	0x3d1f9260	0.038957953
30	0xbe8b551a	-0.27213365
31	0x3d11b2bb	0.03557084
32	0x3e39a750	0.18130231
33	0xbe4f2fac	-0.20233029
34	0xbe057b3d	-0.13035293
35	0x3d10ed57	0.035382595
36	0x3d262dde	0.040571086
37	0x3bf284ec	0.0074010994
38	0x3d62fb6b	0.055415552
39	0xbe3250f4	-0.17413694
40	0x3d86ecbc	0.06588122
41	0xbd3b0381	-0.04565764
42	0xbdd89c0b	-0.10576638
43	0xbdc06d6a	-0.09395869
44	0xbd210445	-0.039310712
45	0xbd84ad05	-0.06478313
46	0x3e0d4665	0.13796385
47	0x3bc098e5	0.0058776014
48	0x3d1476f8	0.03624627
49	0x3d90b938	0.07066578
50	0x3c9682a3	0.01837284
51	0xbdb3ebf3	-0.08785238
52	0x3e1d97b8	0.15389907
53	0xbdb4fe93	-0.08837619
54	0x3e225e40	0.15856266
55	0x3d969e85	0.07354454
56	0x3d94471e	0.07240127
57	0x3e4524ab	0.19252269
58	0x3e7e9882	0.24862865
59	0x3b98cc19	0.004663002
60	0x3d882392	0.066474095
61	0x3dbf4ae6	0.093404576
62	0x3db5d13d	0.088778
63	0x3e453a3f	0.192605
64	0x3e24f6ff	0.16109847
65	0x3d31cf4b	0.04341058
66	0x3da77f1b	0.0817854
67	0x3c5f7805	0.013639455
68	0x3bcb390b	0.0062018684
69	0x3e82bdd0	0.2553544
70	0x3df594ad	0.11991248
71	0xbd4bb168	-0.049729735
72	0xbe37ad06	-0.17937097
73	0x3d820e64	0.06350401
74	0xbe34ca3b	-0.1765527
75	0xbdb0f7a3	-0.08640983
76	0xbdc199ca	-0.09453161
77	0xbd6be199	-0.057588194
78	0x3e02ca32	0.12772444
79	0xbd747b7e	-0.059688084
80	0x3c669eee	0.014075978
81	0x3dffdbb2	0.124930754
82	0xbcab8d72	-0.02094147
83	0x3e32a7dc	0.17446846
84	0xbde7f1c2	-0.113254085
85	0x3d8e4c18	0.069481075
86	0x3d0a9bfb	0.03384016
87	0x3ce64441	0.028108718
88	0xbe43e4b6	-0.19130215
89	0xbdc49531	-0.095987685
90	0x3dbcfba5	0.09227685
91	0x3e925964	0.28583825
92	0x3e09252e	0.13393089
93	0xbc9305e8	-0.017947152
94	0xbc1ec75c	-0.009691086
95	0x3cf3e85d	0.029773885
96	0xbe1ed11b	-0.15509455
97	0xbdd9b26b	-0.10629734
98	0x3e53d726	0.20687541
99	0xbe275fe5	-0.16345175
100	0x3d2413dc	0.040058002
101	0xbd4da865	-0.05020942
102	0xbe1d75ca	-0.15376964
103	0x3cf77d3a	0.03021108
104	0x3bdb21de	0.006687387
105	0xbe0f4e96	-0.13994822
106	0x3ca73a27	0.020413471
107	0xbdf773ae	-0.12082611
108	0x3da190ac	0.07888922
109	0x3ca3a464	0.019975848
110	0x3d9287e3	0.071548246
111	0x3d171b86	0.036891483
112	0x3dab4007	0.083618216
113	0x3d16d366	0.0368227
114	0xbdd1eb8c	-0.10250005
115	0x3df5ba74	0.11998454
116	0x3d2bf3fa	0.04198072
117	0x3d106bbd	0.035258997
118	0x3e16accc	0.14714354
119	0x3e12174b	0.14266698
120	0x3e345d37	0.17613684
121	0xbc2609ca	-0.01013417
122	0x3dc9e6f6	0.098585054
123	0x3e278c7b	0.16362183
124	0x3e327e71	0.17431046
125	0x3dcdab3c	0.10042426
126	0xbd30f374	-0.043200925
127	0xbdff6c1e	-0.124717936
128	0xbe050364	-0.12989575
129	0xbe114946	-0.14188108
130	0x3c0be043	0.008537355
131	0xbd1b7d98	-0.037961572
132	0x3d62d304	0.05537702
133	0xbda48ebb	-0.08035036
134	0xbdb3e695	-0.087842144
135	0xbd346503	-0.044041645
136	0x3d99b8b9	0.07505936
137	0x3cb793f3	0.022409415
138	0x3d8791d7	0.066196136
139	0x3da6e864	0.08149794
140	0x3e140f1b	0.14458887
141	0x3cc83c5f	0.02444285
142	0x3d5163d9	0.051120613
143	0x3ce54a04	0.027989395
144	0xbe005de5	-0.12535818
145	0xbdbd2640	-0.09235811
146	0xbdb0f4e7	-0.086404614
147	0xbdf7554c	-0.12076816
148	0xbdeb63dc	-0.11493656
149	0x3c8f05f0	0.017458886
150	0x3e217826	0.15768489
151	0xbce0e244	-0.027451642
152	0x3dd1eb3d	0.10249946
153	0xbd7ac210	-0.06122023
154	0xbd43b31c	-0.047778234
155	0xbd81d2fa	-0.06339069
156	0x3e11c3dc	0.1423487
157	0x3e04f2c1	0.12983228
158	0x3e3bb8ae	0.18332168
159	0x3dbceccb	0.09224852
160	0xbe0849b1	-0.13309361
161	0xbc2b0a09	-0.010439404
162	0xbd22bd58	-0.039731354
163	0xbd9789c6	-0.07399325
164	0x3da6c0fb	0.08142277
165	0xbcdfc10f	-0.027313737
166	0xbcdd4e21	-0.027014794
167	0x3d0f067b	0.03491829
168	0xbd6f8613	-0.058477473
169	0xbdd0feaa	-0.10204823
170	0x3d903d0e	0.07042895
171	0x3dac7c38	0.0842213
172	0x3d50054a	0.050786294
173	0x3d0c8e69	0.0343155
174	0x3dd92173	0.10602083
175	0x3ce7a100	0.028275013
176	0xbc90062d	-0.01758107
177	0x3bb8b863	0.005637215
178	0xbcb70c1c	-0.022344641
179	0xbd54612d	-0.051850487
180	0x3e164e69	0.14678349
181	0xbd909bb3	-0.07060947
182	0xbd008264	-0.03137435
183	0x3d4525d4	0.04813178
184	0x3e238f01	0.1597252
185	0xbdae92d1	-0.08524097
186	0x3dab5fdc	0.08367893
187	0x3e15803b	0.14599697
188	0xbc51cc81	-0.012805105
189	0x3e51c81e	0.20486495
190	0xbd8139c0	-0.06309843
191	0x3dc29941	0.09501887
192	0xbd1fc5e1	-0.03900707
193	0xbd8b9298	-0.0681507
194	0xbdd871b2	-0.10568561
195	0x3e35cccd	0.17753907
196	0xbe305c67	-0.17222749
197	0x3c984179	0.018585907
198	0x3ca79317	0.02045588
199	0xbcb2de83	-0.021834617
200	0x3d579b67	0.052638438
201	0xbd5ebe3b	-0.054380637
202	0xbd82f58b	-0.0639449
203	0xbcb0be23	-0.02157504
204	0x3de18770	0.11012161
205	0x3d248e0f	0.04017454
206	0x3d8f976f	0.070113055
207	0x3d2cafdf	0.04215991
208	0x3ddacafe	0.10683249
209	0x3e9098fa	0.28241712
210	0xbdef4b03	-0.11684229
211	0xbd8d713e	-0.06906365
212	0xbd79f915	-0.06102856
213	0xbdb2379e	-0.087020144
214	0xbd8b0d3c	-0.06789634
215	0xbe03cdfd	-0.12871547
216	0x3e67a3fc	0.22621149
217	0x3de13a66	0.10997467
218	0x3e500bfd	0.20317073
219	0xbe6c5dc2	-0.23082641
220	0x3db0dcfd	0.086359
221	0xbd19f7ec	-0.037589952
222	0xbd116623	-0.035497796
223	0x3db6e2bb	0.08929964
224	0x3d4f3eac	0.050596878
225	0xbc652423	-0.013985666
226	0xbe0018d3	-0.1250947
227	0xbe2babc6	-0.16764745
228	0xbe1a53ee	-0.15071079
229	0x3cb968f1	0.022633048
230	0x3d27702f	0.04087847
231	0xbdc62589	-0.09675128
232	0x3d581dc2	0.052762754
233	0xbd9d3e47	-0.07677894
234	0x3c054f8e	0.008136643
235	0xbcbe1985	-0.023205528
236	0x3d08dbcc	0.03341274
237	0xbd6bb3e9	-0.057544623
238	0xbd9744d4	-0.07386175
239	0x3df3f8c7	0.11912685
240	0xbb4ac94f	-0.0030942743
241	0xbd8ebacd	-0.06969223
242	0x3e0cc84f	0.13748287
243	0x3c175204	0.009235863
244	0x3ded1edd	0.11578152
245	0x3d79ecb4	0.061016753
246	0x3e086204	0.1331864
247	0x3d8d9ca1	0.0691464
248	0xbd0581cf	-0.0325945
249	0xbc458b11	-0.012057082
250	0x3e1d7be2	0.15379289
251	0x3df17191	0.11789239
252	0x3e0896ed	0.13338824
253	0x3e14c0e5	0.14526708
254	0x3e09afa9	0.13445915
255	0x3e2b0452	0.16700867

conv_a_0.bias f4 [16]
0	0xbb08c5d2	-0.0020869863
1	0x3db3a053	0.08770814
2	0x3dee7f9f	0.116454355
3	0x3daac6a6	0.083386704
4	0x3dbea562	0.09308888
5	0xbd7b758f	-0.06139141
6	0xbd6b1aed	-0.057398725
7	0x3d322b04	0.043498054
8	0xbbc39455	-0.0059686103
9	0xbce61de1	-0.02809042
10	0xbc2f35e2	-0.010693999
11	0xbb212eed	-0.002459462
12	0xbd79e2a0	-0.061007142
13	0xbcbfcb3a	-0.023412336
14	0xbbe38614	-0.0069434736
15	0xbd17dee4	-0.0370778

conv_a_1.weight f4 [16, 16, 3, 3]
0	0x3c91b3d5	0.017785946
1	0x3cbb4ccd	0.02286377
2	0x3dd52923	0.10408237
3	0xbd3280df	-0.043579932
4	0x3daece2a	0.085354164
5	0x3ce7a5ea	0.028277356
6	0x3cb1ec25	0.021719048
7	0x3db2c477	0.08728879
8	0x3ce3130d	0.027719045
9	0xbd7c2b7f	-0.06156492
10	0xbd3e3385	-0.04643585
11	0xbd5992a8	-0.053118378
12	0xbd76930e	-0.060198836
13	0x3da27bfe	0.07933806
14	0xb90fb733	-0.0001370579
15	0xbc781ee1	-0.015144081
16	0x3dd4ae35	0.1038479
17	0x3ceb1ed9	0.028701233
18	0x3ce138ed	0.027492965
19	0x3d2a8034	0.04162617
20	0xbd2d8e86	-0.04237225
21	0x3d1561f6	0.036470376
22	0xbbacc0bb	-0.0052719987
23	0xbc51f9e8	-0.01281593
24	0xbdb52a9d	-0.088460185
25	0x3bbf851d	0.0058447258
26	0xbd07c252	-0.033144303
27	0x3dc11e84	0.094296485
28	0x3d8ac727	0.067762665
29	0xbc026274	-0.007958043
30	0xbce6a34f	-0.028154043
31	0x3c805e33	0.015669918
32	0xbd6bcd66	-0.05756893
33	0x3dd90e24	0.105984
34	0x3b889676	0.004168327
35	0x3d21fd6f	0.039548334
36	0xbd3335c3	-0.043752443
37	0x3d578f81	0.05262709
38	0xbc5d17b1	-0.013494418
39	0xbd7680d2	-0.060181446
40	0xbd75e637	-0.060034003
41	0xbdb0992b	-0.086229645
42	0xbc706442	-0.014672341
43	0x3d3e972d	0.04653089
44	0x3d879064	0.06619337
45	0x3e6b59d9	0.22983493
46	0x3e0f342b	0.13984744
47	0x3e721e11	0.23644282
48	0x3e9fbe17	0.31199715
49	0x3e1c2bb1	0.15251042
50	0x3db081a5	0.08618478
51	0x3ea46a9b	0.32112584
52	0x3ea9fbdb	0.33199963
53	0x3e5f9dd2	0.21837547
54	0x3de224d7	0.11042183
55	0x3e118556	0.1421102
56	0x3e2b8d66	0.16753158
57	0x3cf9a041	0.030471923
58	0x3e38461b	0.17995493
59	0x3d8b2b21	0.067953356
60	0x3e275e8a	0.16344658
61	0x3dc2f2f2	0.095189944
62	0x3d240e1f	0.04005253
63	0x3d8ec927	0.069719605
64	0x3d49e54b	0.049290936
65	0xba1f9165	-0.0006087034
66	0xbcb3c821	-0.021946015
67	0xbc241329	-0.010014334
68	0xbccbf7d9	-0.024898456
69	0x3cbc9508	0.023020282
70	0x3d9d1888	0.076706946
71	0x3dbb0f80	0.09133816
72	0xbe57676a	-0.21035543
73	0xbe4a87c2	-0.1977835
74	0xbe808b0d	-0.25106087
75	0xbe8940c3	-0.26807222
76	0xbe51a439	-0.20472802
77	0xbe221c19	-0.15831031
78	0xbe855eef	-0.2604899
79	0xbe0c91e0	-0.13727522
80	0xbe82f82b	-0.25579962
81	0x3cb6f9f6	0.022335988
82	0x3e2112a8	0.15729773
83	0x3df7405d	0.12072823
84	0x3e352e24	0.17693383
85	0x3d93b217	0.07211702
86	0x3e24aebd	0.16082282
87	0x3df8ece8	0.12154561
88	0x3dc162d6	0.094426796
89	0x3e18f0a7	0.14935552
90	0x3df98461	0.121834524
91	0x3d491a7d	0.049097527
92	0x3d5c6fb3	0.053817462
93	0xbba5ed47	-0.005063686
94	0xbaa8ac58	-0.0012868745
95	0x3dcdd7e1	0.10050941
96	0x3e1e6862	0.15469506
97	0x3dc3d4a3	0.095620416
98	0x3ddfe1f2	0.109317675
99	0x3e145a1f	0.14487503
100	0x3de20582	0.11036207
101	0x3e09cd64	0.13457257
102	0x3e010cc1	0.12602521
103	0x3e51cef5	0.20489104
104	0x3e4e02e6	0.20118293
105	0x3dbf97d8	0.09355134
106	0x3e707f25	0.23486002
107	0x3e6ca629	0.2311026
108	0x3dbcf666	0.09226684
109	0x3e2f4efa	0.17119971
110	0x3e6a6d99	0.2289337
111	0x3e0dfa76	0.13865075
112	0x3e87f60d	0.2655491
113	0x3dca3e78	0.09875196
114	0x3daa9f77	0.08331197
115	0x3d88894f	0.066668145
116	0x3e59bd30	0.21263576
117	0x3e01238b	0.12611215
118	0x3db0173b	0.08598181
119	0x3e4474d9	0.19185199
120	0x3caee0a9	0.02134736
121	0x3e0f9869	0.14022984
122	0x3e28d381	0.16486932
123	0x3dd45612	0.10367979
124	0x3d3ee1ae	0.046601944
125	0x3da647de	0.08119176
126	0x3d8b4bb7	0.06801551
127	0x3e166ec8	0.14690697
128	0x3e09ad66	0.13445053
129	0x3d25ba31	0.04046077
130	0xbbdf58ce	-0.0068160063
131	0x3d43be65	0.047788996
132	0xbd396cb5	-0.045269687
133	0x3d8c3ed1	0.06847919
134	0x3c301711	0.010747687
135	0xbea3840f	-0.3193669
136	0xbe940330	-0.28908682
137	0xbe813622	-0.25236613
138	0xbe76bf73	-0.2409647
139	0xbe72543e	-0.23664948
140	0xbe662d9f	-0.2247834
141	0xbe262204	-0.16223913
142	0xbe3b0d2f	-0.18266748
143	0xbeb08e70	-0.3448367
144	0xbdc3edc0	-0.095668316
145	0x3da1dad1	0.07903064
146	0x3ca548e9	0.020176368
147	0xbd4ec853	-0.050484013
148	0x3d4eecc9	0.050518785
149	0x3cc1ac07	0.0236416
150	0xbd76f602	-0.060293205
151	0x3d6cdb9e	0.05782663
152	0x3d769b0b	0.060206454
153	0xbd837097	-0.06417959
154	0xbd8d3ea8	-0.06896716
155	0x3d15a7cd	0.03653698
156	0x3d8f16a4	0.0698674
157	0xbd50f2eb	-0.051012915
158	0x3d47d4b9	0.048786853
159	0xbd3e8959	-0.046517704
160	0xbd76fd94	-0.060300425
161	0x3ccdb50a	0.02511074
162	0xbda08f24	-0.07839802
163	0x3d6ad98f	0.057336386
164	0xbd9b5a4a	-0.07585581
165	0x3d9af028	0.075653374
166	0xbd24cf06	-0.040236495
167	0x3d279946	0.040917657
168	0xbd8906b7	-0.06690734
169	0x3bd8622d	0.0066035003
170	0x3d55da90	0.05221039
171	0x3c81f76b	0.015865048
172	0x3acb89f0	0.001552878
173	0xbc8fddfa	-0.017561901
174	0xbbba9cb6	-0.005694951
175	0xbae56fda	-0.0017504648
176	0xbadc3852	-0.0016801453
177	0xbd287a9c	-0.041132554
178	0x3d41fbd0	0.047359288
179	0x3d19b7c1	0.037528757
180	0xbd940584	-0.072276145
181	0x3c853970	0.01626274
182	0x3d982ba4	0.07430199
183	0x3d074174	0.033021405
184	0xbd0dcb06	-0.034617446
185	0x3d77dfe9	0.06051627
186	0xbbc44c5c	-0.005990548
187	0xbcbd8bfa	-0.023138035
188	0xbcd32dbc	-0.025778644
189	0x3e8a23d8	0.26980472
190	0x3e3953e4	0.18098408
191	0x3e2170e2	0.15765718
192	0x3e4800e2	0.19531587
193	0x3e1f4693	0.15554266
194	0x3e3bf0cf	0.1835358
195	0x3e48b3fc	0.19599909
196	0x3e797303	0.2436028
197	0x3e18a473	0.14906482
198	0x3d1ceebc	0.038313612
199	0x3e366cc9	0.17814936
200	0x3d4bc375	0.04974695
201	0x3e053d24	0.13011605
202	0x3e37bf25	0.1794401
203	0x3e0d550e	0.13801977
204	0x3e398318	0.18116415
205	0x3df41032	0.119171515
206	0x3dffb5ce	0.12485848
207	0x3d22a9a7	0.039712574
208	0x3da7624b	0.08173045
209	0x3da060c1	0.07830954
210	0xbca981fd	-0.020691866
211	0xbd33fe8e	-0.043943934
212	0x3dbf6fc2	0.09347488
213	0x3d087c2f	0.033321556
214	0xbc4547b2	-0.012041019
215	0xbc4626cf	-0.012094214
216	0xbe727681	-0.23678018
217	0xbe705e89	-0.23473562
218	0xbe866ff0	-0.26257277
219	0xbe68f9c1	-0.22751524
220	0xbe33ae45	-0.17546947
221	0xbdcd1437	-0.10013621
222	0xbe7cdd12	-0.24693707
223	0xbdc1ec72	-0.094689265
224	0xbe779af5	-0.24180205
225	0xbb0045e8	-0.0019572917
226	0x3d7fe870	0.06247753
227	0x3da460ce	0.080262765
228	0x3d12abf4	0.03580852
229	0x3d707417	0.058704462
230	0x3d141b90	0.0361591
231	0x3db78b90	0.08962166
232	0x3d8a17fe	0.067428574
233	0x3b8d0352	0.0043033743
234	0xba65999a	-0.0008758545
235	0x3d5780f6	0.05261322
236	0x3e08c5f4	0.13356763
237	0xbd16d1e0	-0.036821246
238	0x3ccb47ef	0.024814574
239	0x3d961732	0.07328643
240	0x3dc4dc54	0.09612337
241	0x3cf9d362	0.030496303
242	0x3cfde194	0.030991353
243	0x3e0ba50c	0.13637179
244	0x3de92478	0.11383909
245	0x3e271117	0.16315113
246	0x3d9611df	0.073276274
247	0x3e6d7e51	0.23192717
248	0x3dde53d7	0.10855835
249	0x3df376d5	0.118879
250	0x3e87affc	0.26501453
251	0x3e6b90c1	0.23004438
252	0x3e124ef1	0.14287926
253	0x3e3308b0	0.17483783
254	0x3ddfa6d4	0.10920492
255	0x3e1e8b18	0.15482748

conv_a_1.bias f4 [16]
0	0xba80f638	-0.0009839004
1	0x3d226786	0.03964951
2	0x3b90f179	0.004423317
3	0x3cd334c9	0.025782006
4	0xbd542cbe	-0.051800482
5	0xbbdb475e	-0.0066918572
6	0x3d84c451	0.06482757
7	0x3d0391af	0.032121357
8	0x3e057a22	0.13034871
9	0xbd3dcccd	-0.04633789
10	0xbd3defb7	-0.046371188
11	0xbd382dfe	-0.044965737
12	0x3cf4c4d3	0.02987901
13	0x3c00ba00	0.007856846
14	0xbd6245a7	-0.055242207
15	0xbd90b137	-0.07065051

linear_a_0.weight f4 [16, 576]
0	0x3b0ee001	0.0021800997
1	0x3da25ac3	0.07927468
2	0xbcd2f94b	-0.025753638
3	0x3d734d00	0.059399605
4	0x3d89216e	0.06695829
5	0xbc8597e5	-0.01630778
6	0x3d2aee2b	0.04173104
7	0x3c921695	0.017833034
8	0xbd467b0e	-0.048457198
9	0x3dcd59c8	0.1002689
10	0x3db79e94	0.08965793
11	0x3d2ddf2d	0.042449165
12	0x3d271bd9	0.040798042
13	0x3ad059db	0.001589592
14	0x3d60433b	0.054751616
15	0x3ad278b6	0.0016057703
16	0x3c8442a8	0.016145065
17	0x3b0f3560	0.0021851882
18	0x3d588509	0.052861247
19	0x3cad099a	0.021122742
20	0x3cb73bb7	0.022367341
21	0x3dae60f3	0.08514585
22	0x3db9a448	0.09064537
23	0x3d748fdf	0.05970752
24	0x3d26a695	0.04068621
25	0xbb8612aa	-0.0040915804
26	0x3d326994	0.04355772
27	0x3d9b42b7	0.07581084
28	0x3d84c36e	0.06482588
29	0x3e10e336	0.14149174
30	0x3d1a08be	0.037605993
31	0x3d133aee	0.03594487
32	0xbd2ba44a	-0.041904725
33	0x3dfb3918	0.12266749
34	0x3e09aca0	0.13444757
35	0x3d9810fd	0.07425115
36	0xbcd84ec1	-0.02640474
37	0x3d1a5b16	0.037684523
38	0x3b92a241	0.0044749086
39	0x3ca5beab	0.02023252
40	0x3d430f7b	0.047622185
41	0xbcb059d4	-0.021527208
42	0x3d890a05	0.06691364
43	0xbccb439a	-0.024812508
44	0xbd4f9d1d	-0.050686944
45	0x3d963969	0.07335169
46	0x3d6b9e1a	0.057523824
47	0x3cb475f9	0.02202891
48	0x3d32e1be	0.043672316
49	0x3d0c176a	0.034202017
50	0x3d391798	0.045188516
51	0x3d408827	0.047004845
52	0xbcdb2e8a	-0.02675559
53	0xbcc46471	-0.023973675
54	0x3d970091	0.07373155
55	0xbcd8736a	-0.026422221
56	0x3d5d55b5	0.054036815
57	0x3debbe79	0.11510939
58	0x3db794de	0.08963941
59	0x3dd0dc01	0.101982124
60	0x3d866a62	0.0656326
61	0xbc343981	-0.011000038
62	0x3cd869b9	0.0264176
63	0x3c8fa5ed	0.017535174
64	0x3da28a56	0.07936542
65	0x3d229491	0.039692465
66	0x3d453e60	0.04815519
67	0xbd968867	-0.073502354
68	0x3d38502d	0.044998337
69	0x3e0281f5	0.12744887
70	0x3dfb54c3	0.122720264
71	0x3df104b6	0.11768477
72	0x3e0898a9	0.13339485
73	0x3cdf8e83	0.027289635
74	0x3d0f2268	0.03494492
75	0x3dce3769	0.100691624
76	0x3ddb5559	0.10709638
77	0xbd2d2e2e	-0.04228037
78	0x3e482019	0.19543494
79	0x3d97d12b	0.074129425
80	0x3d731a28	0.059351116
81	0x3dd0ab1b	0.10188886
82	0x3dec8552	0.11548866
83	0x3cc9ab9e	0.024617966
84	0x3db3a729	0.08772118
85	0x3da3f8ec	0.080064625
86	0x3e1e7171	0.15472962
87	0x3dcdc686	0.10047631
88	0x3df1413c	0.117800206
89	0x3ca88b47	0.020574225
90	0x3e1229b1	0.14273717
91	0x3d44f9b3	0.048089694
92	0x3e013281	0.12616922
93	0x3dd80185	0.10547165
94	0x3e619574	0.22029668
95	0x3e24d4eb	0.16096847
96	0x3d65565f	0.055990573
97	0x3d7d3e1a	0.061826803
98	0x3d3c9212	0.04603774
99	0x3df1abde	0.11800359
100	0x3e18428a	0.14869133
101	0x3d96066e	0.07325445
102	0x3d50d221	0.050981645
103	0x3dd3c9d3	0.10341229
104	0x3d0e7d2f	0.034787353
105	0x3e262340	0.16224384
106	0x3e041957	0.12900291
107	0x3d88278e	0.066481695
108	0x3ce33e47	0.027739657
109	0xbbf3bc9e	-0.0074382564
110	0xbd3a6c29	-0.045513306
111	0xbcb5cb37	-0.022191627
112	0x3d15dcbf	0.036587473
113	0xbcebd794	-0.02878932
114	0x3d940745	0.07227949
115	0xbd2c1d57	-0.04202017
116	0x3c7491d3	0.014927345
117	0x3d648be4	0.055797473
118	0x3d985749	0.07438523
119	0x3cc43341	0.023950221
120	0xbb478931	-0.0030446763
121	0xbdbe0e3c	-0.09280059
122	0x3deda94c	0.116045564
123	0x3d3623d0	0.044467747
124	0xbd0060ab	-0.03134219
125	0xbced51fd	-0.02896976
126	0x3cdd3b63	0.027005857
127	0xbd223860	-0.039604545
128	0x3bc216a9	0.0059231115
129	0x3d55df5b	0.05221496
130	0x3dcd269a	0.10017128
131	0x3e12fcb8	0.14354217
132	0x3cb16447	0.021654261
133	0x3c975b2c	0.018476091
134	0x3d776162	0.060395606
135	0x3d5c5327	0.053790238
136	0x3d95a1a4	0.07306221
137	0x3d6a9fd6	0.057281338
138	0x3c65c680	0.014024377
139	0xbd12d3ca	-0.03584651
140	0xbcd23afc	-0.025662892
141	0x3d7fc7f8	0.062446564
142	0x3e207ea9	0.15673317
143	0x3d96c6d4	0.07362142
144	0x3bc7b7c7	0.006094906
145	0x3dd962ca	0.10614546
146	0x3bcdf315	0.006285081
147	0x3d3bff26	0.045897625
148	0x3dc58132	0.09643783
149	0x3cba156b	0.022715291
150	0x3d6e7ff1	0.058227483
151	0x3c9cf73f	0.019160865
152	0xbc8969b2	-0.016774032
153	0xbd346135	-0.044038016
154	0x3cc6b5f4	0.024256684
155	0x3bd3e5e8	0.006466616
156	0x3d2f77b8	0.042838782
157	0x3ddb5bf4	0.10710898
158	0x3dc64aa5	0.09682206
159	0x3daa13e7	0.08304577
160	0xbc9a1ab6	-0.018811565
161	0xbd6942a0	-0.056948304
162	0x3d80fbf0	0.06298053
163	0xbcdce3b4	-0.026964046
164	0xbabe5693	-0.0014521651
165	0x3ded3b15	0.11583535
166	0x3e2a54ed	0.16633959
167	0x3e2b8150	0.16748548
168	0x3bd69afa	0.0065492364
169	0x3d8fe649	0.07026345
170	0x3cd4fd40	0.025999665
171	0x3dd45d3a	0.10369344
172	0x3da50452	0.08057465
173	0x3d5c24e7	0.05374613
174	0x3d5de1c7	0.054170396
175	0xbd0c2389	-0.034213576
176	0xbd22fe95	-0.03979357
177	0x3d2ac3fc	0.04169081
178	0x3ddc27eb	0.10749801
179	0x3e1203b2	0.14259222
180	0x3c3a4cf2	0.011370884
181	0xbc67e9c7	-0.014154858
182	0xbc2c5055	-0.0105171995
183	0xbd837d72	-0.06420411
184	0xbd58dca1	-0.052944783
185	0xbd1c3b0b	-0.038142245
186	0x3c8b2015	0.016983071
187	0xbc2edd52	-0.010672884
188	0x3cdb9471	0.02680418
189	0x3ca946e2	0.020663682
190	0x3c33cfd4	0.010974843
191	0xbaa2a414	-0.0012408518
192	0x3d0d5e45	0.03451373
193	0x3d8a5fbe	0.067565426
194	0x3dae32ac	0.08505759
195	0xbbe7484b	-0.0070581785
196	0x394017eb	0.00018319457
197	0x3c44a98c	0.012003314
198	0xbcf58f63	-0.029975599
199	0x39ffb05b	0.00048768785
200	0x3de2235e	0.11041902
201	0x3da44335	0.08020631
202	0x3d93009d	0.07177851
203	0x3d3283c8	0.043582708
204	0x3c19ec96	0.009394785
205	0xbcad89da	-0.021183897
206	0x3c8a5a92	0.01688889
207	0x3b0b12e5	0.0021220979
208	0x3d08c6a0	0.03339255
209	0x3dd8d945	0.10588316
210	0x3d48363e	0.048879854
211	0x3d699bf7	0.057033505
212	0xbd4a9f4f	-0.049468335
213	0x3b865232	0.004099154
214	0x3de187e1	0.11012245
215	0x3dbd2458	0.09235448
216	0x3d815553	0.063151024
217	0x3d6d5a99	0.05794773
218	0x3b8535a9	0.0040652347
219	0x3e07f930	0.13278651
220	0x3c2187a6	0.009859001
221	0xbd43e845	-0.04782893
222	0x3e043dcb	0.12914197
223	0xbabb39a0	-0.0014284141
224	0x3c9d82ce	0.019227412
225	0x3dfbc8d0	0.12294161
226	0xbba88017	-0.0051422226
227	0x3d2eb9ea	0.04265777
228	0x3c9a0acd	0.018803978
229	0x3d1b05f5	0.037847478
230	0x3cf0139a	0.029306222
231	0x3bc678a9	0.0060568643
232	0xbc0c7532	-0.008572863
233	0xbcc0e547	-0.023546828
234	0x3dd48d79	0.10378546
235	0x3d464656	0.04840692
236	0x3bda6e42	0.006665976
237	0x3d10c302	0.035342224
238	0x3dc51091	0.096223004
239	0x3e0584fb	0.1303901
240	0xbc35b261	-0.011089892
241	0xbb875528	-0.0041300245
242	0xbd8a3ff1	-0.06750477
243	0x3db43b4f	0.08800375
244	0x3e44d75c	0.19222778
245	0x3d79389f	0.060845014
246	0x3d3bcad0	0.045847714
247	0x3dfb30db	0.12265178
248	0xbcdab61b	-0.026698163
249	0x3dbe13c3	0.09281113
250	0x3e02b628	0.127648
251	0x3d922acd	0.0713707
252	0x3caafe9b	0.020873358
253	0xbcb466db	-0.022021702
254	0xbbfd5ab2	-0.007731759
255	0x3ce9160c	0.028452896

linear_a_0.bias f4 [16]
0	0x3bef7fa4	0.007308917
1	0x3e08727b	0.13324921
2	0x3da8ec12	0.08248152
3	0x3dc16317	0.09442728
4	0x3c8ba500	0.017046452
5	0xbd25f6b8	-0.040518492
6	0xbc96b101	-0.018394949
7	0x3df6207f	0.12017917
8	0x3cffb1c5	0.031212697
9	0x3c9ac212	0.018891368
10	0xbd254c81	-0.040356163
11	0x3ca0b446	0.019617211
12	0x3cb51384	0.022104032
13	0x3c6e2313	0.0145347295
14	0x3cd31165	0.02576513
15	0xbc0388e3	-0.008028242

GRU_a.weight_ih_l0 f4 [48, 16]
0	0x3e4a02b4	0.19727594
1	0xbe4b4a86	-0.19852647
2	0x3e502168	0.20325243
3	0x3e3512bd	0.1768293
4	0x3e281d99	0.1641754
5	0x3e89a3a0	0.26882648
6	0xbd92aa97	-0.07161444
7	0x3e3622de	0.17786738
8	0x3eb5f3a4	0.35537446
9	0x3ea69d07	0.32541677
10	0xbe5a5f98	-0.21325529
11	0x3e23fada	0.16013661
12	0xbe0b7292	-0.13617924
13	0x3e2a29f1	0.16617562
14	0x3d9de1b7	0.07709067
15	0x3e7158e6	0.23569068
16	0xbe495728	-0.19662154
17	0xbe0078a9	-0.12546028
18	0xbd9c684e	-0.07637082
19	0xbe956900	-0.2918167
20	0x3e1450f8	0.14484012
21	0x3cd852da	0.026406694
22	0xbd97231c	-0.073797435
23	0x3d47a4f3	0.048741292
24	0xbdc19a06	-0.09453206
25	0xbe07964d	-0.13240929
26	0xbe1bda2f	-0.15219949
27	0x3d864fc1	0.065581806
28	0xbe43949e	-0.19099662
29	0xbd8d22db	-0.06891414
30	0xbe5a9426	-0.21345577
31	0xbe6c46ce	-0.23073885
32	0x3de11a7b	0.10991379
33	0xbe02bbd8	-0.12766969
34	0x3e0182cd	0.12647553
35	0x3e8513d6	0.25991696
36	0x3e5cb296	0.215525
37	0xbdf657de	-0.12028478
38	0xbe73f9bd	-0.23825736
39	0x3ed0804b	0.4072288
40	0xbdc731cd	-0.097262956
41	0x3dff4c43	0.12465718
42	0x3e63da59	0.22251262
43	0x3e0a800c	0.13525409
44	0x3e270eca	0.16314235
45	0x3da6101c	0.08108541
46	0x3e254191	0.16138293
47	0x3e09b76d	0.13448878
48	0xbe35eeaf	-0.17766832
49	0x3ea32e93	0.3187147
50	0xbd76b981	-0.060235504
51	0x3e21e056	0.15808234
52	0x3df06430	0.11737859
53	0x3e45c9d8	0.19315279
54	0x3e1d82ee	0.15381977
55	0x3e9dd983	0.3083001
56	0x3d9a88f1	0.07545651
57	0x3df1bb04	0.118032485
58	0x3ce1ce63	0.027564233
59	0xbe16bfad	-0.14721556
60	0xbe6ce6f9	-0.23134984
61	0xbdd43945	-0.10362486
62	0xbd3a6dc2	-0.04551483
63	0x3e2c7a6d	0.16843577
64	0xbedba3e7	-0.42898485
65	0x3e5c91bd	0.2153997
66	0x3d4a2324	0.04934992
67	0x3d77b4c9	0.060475145
68	0x3e1a426e	0.15064403
69	0x3dcae7d9	0.09907503
70	0x3e0b5fbd	0.1361074
71	0xbd6c3923	-0.057671677
72	0xbe197c10	-0.14988732
73	0x3e23c025	0.15991266
74	0x3e0d761c	0.13814586
75	0x3c602e96	0.013682982
76	0x3d44504b	0.047928136
77	0x3edf12c0	0.43568993
78	0x3e4364c2	0.19081405
79	0xbe32bdf5	-0.17455275
80	0x3d31c966	0.04340496
81	0x3df2e9bc	0.118609875
82	0x3eba0dbe	0.3633861
83	0x3de6e6ca	0.11274488
84	0xbb9bbe7b	-0.0047529317
85	0x3ea2d48d	0.31802788
86	0xbe75d8a9	-0.2400843
87	0x3eaa4d74	0.33262217
88	0x3dcc5bbb	0.09978434
89	0xbd83b064	-0.06430128
90	0x3e0b6a66	0.13614807
91	0x3e5b49ab	0.21414821
92	0xbe46c782	-0.19412044
93	0xbd882650	-0.066479325
94	0x3e812b0a	0.2522815
95	0xbd284ff6	-0.04109188
96	0x3d5b0533	0.053471755
97	0x3d6b3bb3	0.05742998
98	0xbe0f00d9	-0.13965167
99	0x3e37e00f	0.17956565
100	0xbe5d0b72	-0.21586397
101	0xbe0c4e44	-0.13701731
102	0x3b77d166	0.003781402
103	0xbe66abd7	-0.22526489
104	0x3e0f4fb2	0.13995245
105	0xbd852d3e	-0.0650277
106	0x3e5efc57	0.21775948
107	0x3d922e57	0.07137745
108	0x3e1b672c	0.15176076
109	0xbde9ed8b	-0.11422261
110	0xbe46c9ca	-0.19412914
111	0x3e66b881	0.2253132
112	0x3e0ba1cf	0.13635944
113	0x3e6ffe83	0.23436932
114	0x3dd6336f	0.10459029
115	0xbe921e82	-0.285389
116	0xbeacf85c	-0.33783233
117	0xbcc78a35	-0.024357894
118	0xbe264460	-0.1623702
119	0xbd920102	-0.071290985
120	0xbdbf2a50	-0.09334242
121	0x3e2a1734	0.16610414
122	0xbe02e157	-0.12781273
123	0xbdf44d77	-0.11928838
124	0x3d8e8928	0.06959754
125	0xbe0f6ec1	-0.14007093
126	0xbe2141dd	-0.15747781
127	0x3e76ca66	0.24100646
128	0xbe03c659	-0.12868632
129	0xbd9c93b3	-0.07645359
130	0x3e419ac9	0.18906702
131	0x3dc05a45	0.093922175
132	0x3d083cb0	0.033261
133	0x3c4fbb15	0.012678881
134	0xbe57a7e5	-0.2106014
135	0xbe42d579	-0.19026746
136	0xbe66b206	-0.22528848
137	0xbe33c4c0	-0.17555523
138	0xbd72ec61	-0.05930746
139	0x3e1066a4	0.14101654
140	0x3e809c86	0.25119418
141	0x3d2f540a	0.042804755
142	0x3e677507	0.22603236
143	0xbd7bef73	-0.061507653
144	0xbd8d6b5a	-0.06905241
145	0x3e041169	0.12897266
146	0x3df899c8	0.121387064
147	0xbc36ad0a	-0.011149654
148	0xbd52c2c5	-0.051455278
149	0xbe3e65e9	-0.18593563
150	0xbd1e08ff	-0.038582798
151	0xbd8bf44c	-0.06833705
152	0x3cec946f	0.028879372
153	0x3cbb5d91	0.022871764
154	0xbe5ee3a6	-0.21766528
155	0x3d058ba2	0.032603867
156	0x3e39d11d	0.18146177
157	0x3d0a2b3e	0.033732645
158	0xbc68befc	-0.0142056905
159	0x3e41782f	0.18893503
160	0xbdbb412a	-0.091432884
161	0x3d840185	0.06445602
162	0x3e915631	0.2838607
163	0x3dbe4dfa	0.092922166
164	0x3ecb03cc	0.39651334
165	0xbca8aac8	-0.020589247
166	0x3e38e5e2	0.18056443
167	0x3ebcd7ea	0.3688348
168	0x3db1f75c	0.08689758
169	0x3e6b4473	0.2297533
170	0x3dddb909	0.10826308
171	0x3e13baa7	0.14426671
172	0xbdeadd98	-0.11468047
173	0x3e235e11	0.15953852
174	0xbbf66e9d	-0.0075205103
175	0xbe31a19c	-0.17346805
176	0x3bf9eb53	0.00762693
177	0x3e8f5d6b	0.2800096
178	0xbe1b8a15	-0.15189393
179	0x3d85982b	0.06523164
180	0xbdbd4dfb	-0.09243389
181	0x3e2fd8ea	0.1717259
182	0xbd40cc50	-0.047069848
183	0x3dc4e709	0.09614379
184	0x3d5fb175	0.054612596
185	0x3e6f8008	0.23388684
186	0x3ddb29df	0.10701346
187	0xbe5c9b10	-0.21543527
188	0xbd61eb70	-0.05515617
189	0x3d24496d	0.040109087
190	0xbe0f5d91	-0.14000537
191	0xbd70c138	-0.058778018
192	0x3d9e9d22	0.077448145
193	0xbe84a0fb	-0.25904068
194	0x3e529e51	0.20568205
195	0xbe81fb22	-0.25386912
196	0xbdbf4547	-0.093393855
197	0x3d4beab9	0.049784396
198	0x3d664e31	0.056226913
199	0x3e034846	0.12820539
200	0x3e36dce4	0.178577
201	0x3de44b4b	0.111471735
202	0x3e4dc8e3	0.20096163
203	0xbe354bcd	-0.17704697
204	0x3da87d14	0.08226982
205	0x3c747aa4	0.014921818
206	0xbe46202a	-0.19348207
207	0x3dec2542	0.11530544
208	0x3d7b6fb8	0.06138584
209	0xbd18962d	-0.037252594
210	0x3b3c79ca	0.0028759115
211	0x3e56c454	0.2097333
212	0x3e649263	0.22321467
213	0xbe5e79e6	-0.21726188
214	0x3da55dbe	0.080745205
215	0xbe064704	-0.13113028
216	0xbd9a8482	-0.07544805
217	0xbdb2b9e2	-0.087268606
218	0x3d34308a	0.043991603
219	0xbdcb2de3	-0.099208616
220	0x3e3949b6	0.18094525
221	0xbe185a97	-0.14878307
222	0x3e11c595	0.14235528
223	0x3b2e67da	0.0026612193
224	0x3eb22718	0.3479545
225	0xbe2101c5	-0.15723331
226	0xbe34d56e	-0.17659542
227	0xbe3043be	-0.17213342
228	0xbda4e5df	-0.08051657
229	0x3d9f9711	0.077924855
230	0x3da240bd	0.07922504
231	0xbdf8d8c5	-0.121507205
232	0xbe34b14c	-0.17645758
233	0x3da3b19b	0.0799286
234	0x3e803c6a	0.25046092
235	0x3c0aa454	0.00846203
236	0x3d4d11cb	0.050065797
237	0x3dcf1a18	0.10112399
238	0x3dbb089a	0.091325
239	0x3def4288	0.11682612
240	0xbdfefc99	-0.12450523
241	0xbe98c12a	-0.29834872
242	0xbe65465b	-0.2239012
243	0xbe3d40c4	-0.18481737
244	0x3e9bd008	0.30432153
245	0xbe562002	-0.20910648
246	0xbdc76f5f	-0.09738039
247	0xbe8d7f04	-0.27635968
248	0x3dfa3058	0.12216252
249	0x3cd560f5	0.02604721
250	0xbdc64e6b	-0.09682926
251	0x3d4a1cc2	0.04934383
252	0xbe9e0469	-0.3086274
253	0xbe0c6458	-0.13710153
254	0x3e1d0f1a	0.15337792
255	0xbd8edf8c	-0.06976232

GRU_a.weight_hh_l0 f4 [48, 16]
0	0x3e5868cc	0.21133727
1	0x3ddee366	0.108832166
2	0x3e9990a5	0.29993168
3	0x3e2b2284	0.16712385
4	0xbe1776aa	-0.1479136
5	0xbdd11e78	-0.102108896
6	0xbd605d5e	-0.054776542
7	0x3e4d9e80	0.20079994
8	0xbc1ec610	-0.0096907765
9	0x3d964e3f	0.07339143
10	0x3e039885	0.1285115
11	0xbd48a75c	-0.04898773
12	0x3d33cf5c	0.043898925
13	0x3d8cd630	0.068767905
14	0x3de3cd0e	0.111230955
15	0x3e9b923c	0.30385005
16	0x3ba0b873	0.0049048006
17	0x3e1827b0	0.1485889
18	0xbe216574	-0.15761358
19	0xbe91fce3	-0.2851325
20	0xbd2d586e	-0.04232066
21	0xbd2a3d2b	-0.04156224
22	0x3dbf2189	0.09332568
23	0xbe93260b	-0.28739962
24	0x3d1348cf	0.035958108
25	0x3dd7d914	0.10539451
26	0x3e576bae	0.2103717
27	0xbe32db21	-0.17466404
28	0xbd3ad237	-0.045610633
29	0xbe61edb2	-0.2206333
30	0xbd5f9f4a	-0.05459527
31	0x3d0a5a38	0.033777446
32	0xbd4b2720	-0.04959786
33	0x3e2875af	0.16451143
34	0xbe39fbec	-0.18162507
35	0x3e8c5a93	0.27412853
36	0xba9d6c7f	-0.0012010484
37	0x3e504b69	0.20341267
38	0x3e44383f	0.19162081
39	0x3ddec17e	0.108767495
40	0xbe2f0a9b	-0.1709389
41	0x3dd49b17	0.103811435
42	0xbe348628	-0.17629302
43	0xbccd1e0c	-0.025038742
44	0x3e5a1bc6	0.21299657
45	0x3e659330	0.22419429
46	0xbe502afa	-0.20328894
47	0xbcc734f6	-0.024317246
48	0x3e8befc6	0.2733137
49	0x3e07fc64	0.13279873
50	0x3d799f5c	0.060942993
51	0xbe5ce7e3	-0.21572833
52	0x3e0c9429	0.13728394
53	0x3ea9d755	0.33172098
54	0xbea6c06e	-0.32568687
55	0x3e46776c	0.19381493
56	0x3d923009	0.07138068
57	0x3d31f86e	0.04344981
58	0x3eec900a	0.46203643
59	0x3ec320ef	0.38111064
60	0xbeb2717c	-0.34852207
61	0xbec01cf1	-0.3752208
62	0x3eae40d1	0.34033826
63	0x3e8a9dd6	0.27073544
64	0xbe04b4c4	-0.12959582
65	0x3d93b9f8	0.07213205
66	0xbd5957f5	-0.053062398
67	0xbe9a9a60	-0.30195904
68	0x3ec10a81	0.37703326
69	0x3d5f5365	0.05452289
70	0xbdb067ad	-0.086135246
71	0xbe06b250	-0.13153958
72	0xbd30ff07	-0.043211963
73	0x3dd41c04	0.10356906
74	0x3e96db4e	0.2946419
75	0x3eafeeba	0.3436182
76	0x3e84b0f0	0.25916243
77	0x3e82f17c	0.25574863
78	0x3dd590fb	0.104280435
79	0xbe7b6ece	-0.24553987
80	0x3e682089	0.22668661
81	0xbdcf24b7	-0.10114425
82	0x3d934fdd	0.07192967
83	0xbe8bd5ab	-0.27311453
84	0xbd9f6388	-0.07782656
85	0x3e78b11e	0.24286315
86	0xbeb3e874	-0.35138285
87	0x3e614ee6	0.22002754
88	0x3d99981a	0.07499714
89	0xbc074b2f	-0.008257671
90	0x3ea5e010	0.3239751
91	0xbd06813b	-0.032838088
92	0x3cf26e68	0.029593661
93	0x3d3c2820	0.045936704
94	0xbd06d772	-0.03292031
95	0xbdd8a943	-0.10579159
96	0xbd302fe8	-0.043014437
97	0x3d16222d	0.036653686
98	0xbe88a02f	-0.2668471
99	0xbd9789e6	-0.07399349
100	0x3e76f793	0.2411788
101	0xbdfc8a71	-0.12331093
102	0x3e2af309	0.16694273
103	0xbd4dfe7c	-0.050291523
104	0x3e89b88a	0.26898605
105	0x3de906de	0.11378263
106	0xbe442d18	-0.19157827
107	0x3d702602	0.058629997
108	0x3e183de8	0.14867365
109	0xbcc4edc4	-0.024039157
110	0x3dc66057	0.09686344
111	0xbd47047f	-0.048588272
112	0xbdbcf23d	-0.09225891
113	0xbcb46786	-0.02202202
114	0xbe97d608	-0.2965548
115	0xbdc5043d	-0.09619949
116	0xbe3cfabc	-0.18455023
117	0xbcecbeb8	-0.028899536
118	0x3dd2d374	0.10294238
119	0x3e06ac48	0.13151658
120	0xbe6f1c78	-0.23350704
121	0x3e3c7478	0.18403804
122	0xbe55d3b4	-0.2088154
123	0xbe0379d1	-0.12839438
124	0xbda5d6c2	-0.080976024
125	0x3cac455a	0.021029163
126	0xbd0e9fe5	-0.034820456
127	0xbd687ee8	-0.056761652
128	0x3d101fd0	0.03518659
129	0xbc453876	-0.012037387
130	0x3d3aeff7	0.045639005
131	0xbea4506b	-0.32092604
132	0xbe8368ed	-0.2566599
133	0xbe826bb4	-0.25472796
134	0x3dcced31	0.10006178
135	0xbe993e61	-0.29930404
136	0xbdc157d8	-0.09440583
137	0x3e02bc99	0.12767257
138	0x3d3c03dc	0.045902118
139	0xbe889da3	-0.26682767
140	0x3df174e4	0.11789873
141	0x3c40cd0d	0.011767638
142	0x3e8538b1	0.26019815
143	0x3e22ea8a	0.15909782
144	0xbd89aa79	-0.06721968
145	0x3d4c9027	0.049942162
146	0xbcdec750	-0.027194649
147	0x3b15fc19	0.0022885858
148	0xbe18b5c0	-0.14913082
149	0xbe0635cf	-0.13106464
150	0xbe2a5761	-0.16634895
151	0xbe4af60a	-0.19820419
152	0xbe3063b1	-0.17225529
153	0xbd8a28af	-0.06746041
154	0x3e093742	0.13399985
155	0xbcf38632	-0.029727075
156	0xbd797a1d	-0.060907472
157	0x3e9618ed	0.29315892
158	0x3e3d51c6	0.18488225
159	0xbe53a99f	-0.20670174
160	0x3e3e0445	0.18556316
161	0x39235813	0.00015577702
162	0x3e4ecd37	0.20195471
163	0xbdb0e0ba	-0.08636613
164	0x3e2d3691	0.16915347
165	0x3ec6d720	0.38836002
166	0xbea7a219	-0.32740858
167	0x3e928bea	0.2862237
168	0xbe3656de	-0.17806575
169	0x3cdab182	0.02669597
170	0x3ed62f49	0.4183295
171	0x3e78a90a	0.24283233
172	0xbe76b77d	-0.24093433
173	0x3e00b399	0.12568511
174	0x3e1640d0	0.14673162
175	0x3d17575d	0.03694855
176	0xbd7485b7	-0.059697833
177	0x3e0c1801	0.13681032
178	0x3e6d7467	0.23188935
179	0xbe034851	-0.12820555
180	0xbdcf9f3e	-0.10137795
181	0x3e4d1589	0.20027746
182	0xbec56b46	-0.38558406
183	0x3e36c06d	0.17846842
184	0xbd61aa5b	-0.055094104
185	0x3b22904d	0.0024805248
186	0x3ec6ad3d	0.38804045
187	0x3ec5eee1	0.38658813
188	0xbe79d37e	-0.24397084
189	0x3e6f5e93	0.23375921
190	0xbd3cb76b	-0.04607336
191	0x3cf36886	0.029712927
192	0xbdd3df27	-0.10345297
193	0x3e08541c	0.13313335
194	0xbe099d96	-0.1343902
195	0xbd8b1d7f	-0.06792735
196	0xbd97250b	-0.07380112
197	0xbd0caab3	-0.03434248
198	0xbcca5608	-0.024699226
199	0xbe6d1510	-0.23152566
200	0xbc340a4c	-0.010988783
201	0x3e5db956	0.21652731
202	0xbe672d44	-0.22575861
203	0x3e0e82c5	0.13917072
204	0x3d061524	0.032735005
205	0x3e1656a6	0.14681491
206	0x3d6591b5	0.05604716
207	0xbdb215b8	-0.08695549
208	0x3da69cf7	0.081354074
209	0x3c9d540a	0.019205112
210	0xbe20142d	-0.15632696
211	0x3e9660f9	0.2937086
212	0xbdc0a32b	-0.09406122
213	0xbdf57baf	-0.119864814
214	0x3dd45587	0.103678755
215	0xbade4e60	-0.0016960613
216	0xbe50dd54	-0.2039693
217	0xbe97d5d7	-0.29655334
218	0x3e40764f	0.18795131
219	0xbd28ac77	-0.0411801
220	0x3dc6dab3	0.09709682
221	0x3ccabbe9	0.024747806
222	0xbc60285d	-0.013681498
223	0x3e8440a7	0.25830576
224	0x3d506619	0.050878618
225	0x3d048829	0.032356415
226	0xbd95b532	-0.07309951
227	0xbddc4c69	-0.107567616
228	0xbda14cb9	-0.07875962
229	0x3bccedb8	0.006253924
230	0x3e6f512f	0.23370813
231	0xbe067a38	-0.1313256
232	0x3ab6ed31	0.0013956187
233	0xbe4d4bd3	-0.20048456
234	0xbd570177	-0.05249163
235	0x3e855e0a	0.2604831
236	0xbd9d09bf	-0.076678745
237	0xbcce8c37	-0.025213344
238	0x3e146de1	0.1449504
239	0xbe5b9d10	-0.21446633
240	0xbd544b4a	-0.051829614
241	0x3e6d6315	0.23182328
242	0xbe15165c	-0.1455931
243	0x3e378b8e	0.1792433
244	0xbe51aa16	-0.20475039
245	0xbd92397e	-0.07139872
246	0xbe57de73	-0.21080951
247	0xbdee1729	-0.11625511
248	0xbe39a6ff	-0.1813011
249	0x3e67d74d	0.22640724
250	0x3d251c88	0.040310413
251	0x3eabc31e	0.335473
252	0xbe5c4b94	-0.21513206
253	0x3e62010e	0.22070715
254	0xbbaf644b	-0.005352532
255	0x3e3d0cda	0.18461934

GRU_a.bias_ih_l0 f4 [48]
0	0xbc168106	-0.009186035
1	0xbd280216	-0.041017614
2	0x3e6e7e34	0.2329033
3	0x3ed96093	0.42456493
4	0xbe4cdb8b	-0.20005624
5	0x3e8f3be2	0.27975374
6	0xbd947b29	-0.072500534
7	0xbdb3623c	-0.08758971
8	0xbe248516	-0.16066393
9	0x3d2e1d82	0.04250861
10	0x3e85e03a	0.26147634
11	0x3d459e0d	0.048246432
12	0x3e4b6bb0	0.19865298
13	0x3dff0319	0.12451763
14	0xbe220c67	-0.15825044
15	0xbe592406	-0.21205148
16	0xbbf8a4c1	-0.0075879996
17	0x3dbc8a0d	0.092060186
18	0xbc95673d	-0.018237704
19	0xbeb61b79	-0.35567835
20	0x3d63571c	0.055502996
21	0xbaf9da9c	-0.0019062343
22	0x3ce118c0	0.027477622
23	0x3dd2e208	0.10297018
24	0xbd50ac2a	-0.05094544
25	0x3dc299fe	0.09502028
26	0xbe279fd3	-0.16369562
27	0x3c9993b6	0.018747192
28	0xbc10962c	-0.008824866
29	0xbbd05fa4	-0.0063590575
30	0xbec7f552	-0.39054352
31	0x3c54b42b	0.0129824085
32	0xbd279b3c	-0.040919527
33	0x3e2c23a7	0.16810475
34	0x3e84773b	0.25872216
35	0x3e8c4597	0.27396843
36	0x3cb185e1	0.021670284
37	0xbe0f68fa	-0.14004889
38	0xbe760a22	-0.24027303
39	0x3d9b0f45	0.07571272
40	0x3ce3d2d2	0.027810488
41	0xbe0b88b3	-0.13626365
42	0x3ed9a361	0.4250746
43	0xbeb1b928	-0.34711576
44	0xbdb87c9c	-0.09008142
45	0x3e7d5193	0.2473815
46	0x3d3741c8	0.04474047
47	0x3decc564	0.11561087

GRU_a.bias_hh_l0 f4 [48]
0	0x3db14450	0.08655608
1	0x3e03f094	0.12884742
2	0x3e720dce	0.23638079
3	0x3e9fade8	0.31187367
4	0x3e1bad10	0.15202737
5	0x3d304653	0.043035816
6	0x3de8c993	0.11366572
7	0xbe5b9acd	-0.2144577
8	0x3e08463b	0.13308041
9	0x3dab68e4	0.08369616
10	0x3ecf3f68	0.40478063
11	0x3ea02aba	0.31282598
12	0xbe6316b0	-0.22176623
13	0xbcba4115	-0.022736112
14	0xbd93013c	-0.0717797
15	0xbde15bd2	-0.110038415
16	0xbe36f90f	-0.17868446
17	0xbde9a595	-0.114085354
18	0xbe53e992	-0.20694569
19	0xbe336677	-0.17519556
20	0xbeb501cd	-0.35352936
21	0x3e08b1e1	0.13349105
22	0x3dda1cfa	0.10650058
23	0x3e932a7d	0.28743353
24	0x3d9273e3	0.0715101
25	0xbe0f3178	-0.13983715
26	0xbe283d29	-0.16429581
27	0xbd0da22a	-0.03457848
28	0xbe2dbd04	-0.16966635
29	0xbe5aaf9f	-0.21356057
30	0xbe1ef2db	-0.1552233
31	0xbc4a4577	-0.012345663
32	0x3e0879ba	0.13327685
33	0x3dfea3b6	0.12433569
34	0xbd86b66e	-0.065777645
35	0xbc64df59	-0.013969266
36	0x3e0933a9	0.13398613
37	0x3e47d3b1	0.19514348
38	0xbe581eec	-0.21105546
39	0xbe204a98	-0.15653455
40	0x3e38fb7e	0.18064687
41	0x3e56740d	0.20942707
42	0x3e9e4a1c	0.30915916
43	0x3d8fdfd4	0.07025114
44	0xbb8b4cc5	-0.004251095
45	0x3ea5990f	0.32343337
46	0x3e5cecc1	0.2157469
47	0xbe46b8fd	-0.19406505

linear_a.weight f4 [4, 16]
0	0x3c0eae9d	0.008708623
1	0x3f2c7060	0.6735897
2	0x3d3b2607	0.045690563
3	0xbf5f7757	-0.87291473
4	0x3f6b2a86	0.9186176
5	0x3ccb7b58	0.024839088
6	0x3d22b919	0.039727304
7	0xbe5fe959	-0.21866359
8	0x3f602aff	0.87565607
9	0x3e247efe	0.16064069
10	0x3e829d84	0.255108
11	0x3f411f4b	0.75438374
12	0x3d864cc0	0.06557608
13	0xbf15e79d	-0.5855654
14	0x3f4d0540	0.80086136
15	0x3ce258cc	0.027630232
16	0xbea2ee72	-0.31822544
17	0xbe89b74e	-0.26897663
18	0xbe8e5ccb	-0.2780517
19	0x3d95c6be	0.07313298
20	0x3d1a797a	0.037713505
21	0xbebdb4f9	-0.37052134
22	0xbe383413	-0.17988615
23	0xbe6db9e1	-0.23215438
24	0xbed405dd	-0.41410723
25	0xbd170485	-0.036869545
26	0xbeb50a15	-0.35359254
27	0xbdf9c348	-0.1219545
28	0x3e5d1069	0.21588291
29	0xbe102df5	-0.14080031
30	0xbe88df33	-0.26732787
31	0xbef1752e	-0.47159714
32	0xbe5ef1e1	-0.21771957
33	0xbe7d8b58	-0.24760187
34	0xbf036f72	-0.5134193
35	0xbec68397	-0.3877227
36	0xbe976f3c	-0.29577053
37	0xbefe85ed	-0.49711552
38	0x3e4dcf79	0.20098676
39	0x3bbddc3c	0.0057940762
40	0xbeb35d1f	-0.35031983
41	0xbb882a28	-0.004155416
42	0xbe87ad4d	-0.26499406
43	0xbe4cf958	-0.20016992
44	0x3e391543	0.18074517
45	0xbe54fe49	-0.20800127
46	0xbe771fb0	-0.24133182
47	0xbf207bc5	-0.6268886
48	0x3eec5f7a	0.46166593
49	0xbdaaa0d6	-0.08331458
50	0x3ecc6bbc	0.39925945
51	0x3f7ccded	0.9875172
52	0xbf3e1d18	-0.74263144
53	0x3eda65dd	0.4265584
54	0xbd9ab715	-0.075544514
55	0x3e11f5f3	0.14253978
56	0xbed38bc8	-0.41317582
57	0x3d070aa4	0.032969132
58	0x3eaa5d31	0.33274224
59	0xbf0d0138	-0.55079985
60	0xbe573a1c	-0.2101826
61	0x3f06388e	0.52430046
62	0xbee50a3f	-0.4473438
63	0x3e507515	0.20357163

linear_a.bias f4 [4]
0	0x3e4f3c92	0.2023795
1	0xbef9f0c2	-0.48816496
2	0xbedd8437	-0.43264934
3	0x3eeb6332	0.45974118

conv_v_0.weight f4 [16, 7, 3, 3]
0	0x3e0baa56	0.13639197
1	0xbacb6708	-0.0015518377
2	0x3d27b5e5	0.040944953
3	0x3e2abc47	0.16673385
4	0x3dc17f72	0.094481364
5	0x3d17e4f5	0.037083585
6	0x3e81def2	0.25365406
7	0xbd5857b8	-0.05281803
8	0xbe178893	-0.14798193
9	0xbdbf4602	-0.09339525
10	0x3d3d91a2	0.046281464
11	0xbd7cf57a	-0.061757542
12	0xbd67bc5a	-0.05657611
13	0x3cd10789	0.025516288
14	0xbd84693c	-0.06465384
15	0xbdbab271	-0.09116066
16	0x3d92b4de	0.07163404
17	0x3d65d99f	0.056115743
18	0xbd9171f1	-0.07101811
19	0x3d013486	0.03154423
20	0xbe620bb0	-0.22074771
21	0xbe946727	-0.2898495
22	0x3d1bd011	0.038040224
23	0x3e1c89b7	0.15286909
24	0x3e2a964d	0.16658898
25	0x3dc6d924	0.09709385
26	0xbc0a9a2c	-0.008459609
27	0xbe882301	-0.26589206
28	0xbc0f6c43	-0.008753839
29	0x3bded68d	0.006800479
30	0xbe265ade	-0.162456
31	0xbdda18d7	-0.10649269
32	0xbe3d827c	-0.18506807
33	0x3e076540	0.13222218
34	0x3dc2d781	0.0951376
35	0xbd023be1	-0.031795386
36	0x3d8196cb	0.063275896
37	0x3b5c41f4	0.0033608647
38	0xbe284a2f	-0.16434549
39	0xbd50d79f	-0.050986882
40	0x3d16e736	0.036841594
41	0x3d8ae36f	0.06781661
42	0x3c67c16b	0.0141452355
43	0xbe1de067	-0.15417634
44	0x3cc025bf	0.023455499
45	0x3ce3371b	0.027736237
46	0x3dbe539a	0.092932895
47	0xbd0a7863	-0.033806216
48	0x3d2ad5d0	0.041707814
49	0xbd9e27d0	-0.077224374
50	0xbdaf2d80	-0.085536
51	0x3bf67921	0.007521764
52	0x3ddbf313	0.10739722
53	0x3dd5c9eb	0.104389034
54	0xbe17cef1	-0.14825036
55	0xbe1a072a	-0.15041795
56	0xbd6253c3	-0.055255663
57	0x3d004c78	0.031322926
58	0xbe3a5040	-0.18194675
59	0xbe1a2ca6	-0.15056095
60	0xbd9934c2	-0.07480766
61	0xbe180ed9	-0.14849414
62	0xbd4ccf95	-0.050002653
63	0xbc44c3c7	-0.012009568
64	0x3be28e26	0.006913918
65	0xbcf294cf	-0.029611973
66	0x3e2389e7	0.15970574
67	0x3e2589bc	0.16165823
68	0xbd53d6ec	-0.051718637
69	0x3e81402f	0.2524428
70	0x3ea43d2a	0.32077914
71	0x3e19441e	0.14967391
72	0x3e009bc3	0.12559418
73	0x3e3b53da	0.18293706
74	0x3e8a4f4d	0.27013627
75	0x3db96aab	0.090535484
76	0x3dbd2a9b	0.09236642
77	0xbd4c935c	-0.04994522
78	0x3d077858	0.033073753
79	0x3de84b14	0.11342445
80	0xbd5b70db	-0.053574424
81	0xbd8e8456	-0.06958835
82	0xbe6fdeef	-0.23424886
83	0xbe9b6db3	-0.3035713
84	0xbec8c70b	-0.39214358
85	0xbec14474	-0.37747538
86	0xbe7762e9	-0.24158825
87	0xbce08a8c	-0.027409814
88	0xbe6a08f3	-0.22854976
89	0x3d5e8653	0.05432732
90	0x3d342b54	0.043986633
91	0xbd4ec1f2	-0.05047793
92	0xbd0dda16	-0.03463181
93	0xbcaec5cd	-0.021334553
94	0xbd5a399b	-0.053277593
95	0xbe0c6631	-0.13710858
96	0xbd9c458c	-0.076304525
97	0xbbf7f9d0	-0.007567622
98	0xbda1ff76	-0.079100534
99	0x3e19a2fa	0.15003577
100	0xbd32f37f	-0.043689247
101	0x3e1bd2eb	0.15217178
102	0x3d2b418f	0.04181057
103	0x3d06108b	0.03273062
104	0x3d8e8b9e	0.069602236
105	0x3ccd9646	0.02509607
106	0x3cb261c7	0.02177514
107	0x3dd46d6f	0.10372435
108	0xbe0cb8b8	-0.1374234
109	0xbda9e4d5	-0.08295599
110	0x3d55f5d2	0.052236386
111	0x3c01176d	0.00787912
112	0xbe1f087e	-0.15530583
113	0x3c3fac4c	0.011698794
114	0xbd139c7a	-0.0360379
115	0xbdf9aff9	-0.12191767
116	0x3d29498d	0.04132991
117	0x3de6bb02	0.11266138
118	0x3d1c4bb5	0.038158137
119	0x3d0f55ec	0.03499405
120	0x3df1bdba	0.118037656
121	0x3abb131f	0.0014272666
122	0x3defbb81	0.117056854
123	0xbd8ceaa2	-0.0688069
124	0xbb2f3218	-0.002673274
125	0xbd2275d8	-0.039663166
126	0xbd0123d9	-0.031528328
127	0x3daa7c51	0.08324493
128	0x3e2f56ca	0.17122951
129	0x3d34a16f	0.044099268
130	0xbd621091	-0.05519158
131	0xbc9d71bc	-0.019219272
132	0x3d774a57	0.06037363
133	0xbe2856a7	-0.16439305
134	0xbd87d9a0	-0.066333055
135	0xbc4cb7b3	-0.012494969
136	0x3dc9ec4f	0.098595254
137	0xbde30ab6	-0.11086027
138	0xbd7d53fa	-0.061847664
139	0x3d209e6d	0.039213587
140	0xbe0a456a	-0.13503042
141	0xbca6f22c	-0.020379148
142	0xbde25eb3	-0.11053219
143	0xbdba2f08	-0.09091002
144	0xbd42fc6e	-0.047604017
145	0x3d45e315	0.048312265
146	0xbd47ac80	-0.048748493
147	0xbd936f4b	-0.07198962
148	0x3d561160	0.052262664
149	0xbb5300ec	-0.0032196594
150	0x3e4589e1	0.19290878
151	0x3dd7fa83	0.10545828
152	0x3dc3e544	0.09565213
153	0xbe8d32af	-0.2757773
154	0x3db19c80	0.08672428
155	0x3b4f3a4a	0.0031620436
156	0xba144a4f	-0.0005656825
157	0xbe2a7401	-0.16645814
158	0xbe9db2c1	-0.3080044
159	0xbd677684	-0.05650951
160	0xbddcfef4	-0.10790816
161	0xbe8b1fc8	-0.27172685
162	0x3b0b1983	0.0021224923
163	0x3cf2f864	0.029659458
164	0xbd185dcb	-0.037198823
165	0x3d0b4600	0.034002304
166	0xbc515159	-0.012775742
167	0xbcb841fc	-0.022492401
168	0x3dcffdf2	0.10155858
169	0x3dbc3596	0.09189908
170	0x3d1020e6	0.035187624
171	0x3db59ac4	0.0886741
172	0x3d236395	0.03988989
173	0x3dbc5fdb	0.091979705
174	0xbdcea470	-0.10089958
175	0x3d232a07	0.039835002
176	0xbe14783b	-0.1449899
177	0xbcda01fc	-0.026612274
178	0xbdc49f46	-0.096006915
179	0x3c0854ba	0.008320982
180	0x3d9e9a24	0.07744244
181	0xbe0d7608	-0.13814557
182	0xbe08c751	-0.13357283
183	0xbdd1ef70	-0.10250747
184	0x3d6c31ed	0.0576648
185	0xbd20f087	-0.039291885
186	0xbdfa9e13	-0.122371815
187	0xbbf52c61	-0.007482097
188	0xbb94a74f	-0.0045365463
189	0x3e11c030	0.1423347
190	0x3e2cb6e1	0.16866638
191	0x3e19bb6c	0.15012902
192	0xbdb153c2	-0.08658554
193	0x3e63f1c0	0.22260189
194	0x3e597e2c	0.21239537
195	0x3d16a5d3	0.036779236
196	0x3de5f903	0.11229136
197	0x3dc6547c	0.09684083
198	0x3d9c5afd	0.07634542
199	0x3ce7b000	0.028282166
200	0xbc93b6af	-0.018031446
201	0xbc063c69	-0.008193114
202	0x3d016879	0.031593774
203	0xbd349e1b	-0.044096094
204	0x3d6e2ec7	0.05815008
205	0x3e932675	0.28740278
206	0x3e51ce7a	0.20488921
207	0xbeeb00b9	-0.4589899
208	0x3e8797e4	0.2648307
209	0x3e70cb18	0.23514974
210	0xbd998583	-0.074961685
211	0xbeac7cc3	-0.33688936
212	0x3e59ef51	0.21282698
213	0xbef7c59f	-0.4839296
214	0xbe9e6d73	-0.30942878
215	0x3dcba34c	0.09943256
216	0x3e2b1e86	0.16710863
217	0x3ec788c8	0.38971543
218	0x3ec4bfc8	0.38427567
219	0x3e18e7d2	0.14932182
220	0x3e44ed8e	0.19231245
221	0xbe29d6ec	-0.16585892
222	0x3d6aa71c	0.057288274
223	0x3dd10816	0.102066204
224	0x3e70df5a	0.23522702
225	0xbe46fadb	-0.19431631
226	0x3c1316a9	0.008977571
227	0xbdadebe6	-0.0849226
228	0xbe4d3452	-0.2003949
229	0x3ca9b547	0.020716323
230	0xbdd9ff24	-0.10644367
231	0xbe2adf35	-0.16686709
232	0xbe365902	-0.17807391
233	0xbe1b9acf	-0.15195774
234	0x3dd35696	0.10319249
235	0xbd954936	-0.072893545
236	0x3cfe83e2	0.031068746
237	0x3d4f5e27	0.0506269
238	0x3db3733d	0.08762214
239	0xbcd85053	-0.02640549
240	0x3dd3e186	0.103457496
241	0xbce997f2	-0.028514836
242	0x3e11597e	0.14194295
243	0xbcbdf9b7	-0.023190362
244	0xbcc98251	-0.024598273
245	0xbe2e3807	-0.1701356
246	0xbd851ec8	-0.06500012
247	0xbe2e6960	-0.17032385
248	0xbe1be1db	-0.15222876
249	0xbe295c36	-0.16539082
250	0xbe1d74c3	-0.15376572
251	0xbdc12508	-0.09430891
252	0xbd803cd8	-0.06261605
253	0x3e0d619c	0.13806766
254	0x3dcd309b	0.100190364
255	0x3eadb710	0.33928728

conv_v_0.bias f4 [16]
0	0xbc0d5ba2	-0.008627804
1	0x3d8a6d39	0.06759114
2	0x3dbfcaa6	0.09364824
3	0xbcb5b535	-0.022181133
4	0xbcd340ae	-0.025787678
5	0x3db8e751	0.09028495
6	0x3d973e38	0.07384914
7	0xbce73ea9	-0.02822812
8	0xbba66378	-0.0050777756
9	0x3c53b95f	0.012922614
10	0xbc7b8251	-0.015350894
11	0xbcd124f2	-0.025530312
12	0x3d18c768	0.037299544
13	0xbe1eba3e	-0.15500733
14	0xbdc484d7	-0.0959565
15	0x3cd23747	0.025661124
