league/checkpoints/mfos_seeds/new_self_3x3_45/200_0.pth (torch, 300942 bytes, 105 tensors)

conv_a_0.weight f4 [16, 7, 3, 3]
-0.11547047 0.08261526 -0.009497808 0.116198964 -0.057237864 0.014809611 0.06363149 -0.07543389
0.047192022 -0.07167771 -0.18687901 -0.12338317 -0.07698034 -0.060081717 0.09805619 -0.024858363
0.0270395 0.0561597 0.019042633 0.12884504 -0.08385415 -0.07402878 -0.045803096 0.10909521
0.036756024 0.14360748 -0.0065416177 -0.010253402 -0.06149039 -0.01082829 -0.024025656 0.008495127
0.053714946 0.06977087 -0.124844514 -0.15084141 0.08220995 -0.03371168 -0.072994374 0.03379706
0.008433775 -0.08506874 0.0857581 -0.06762047 -0.08799528 -0.101366684 -0.014713557 0.002891002
-0.10625726 0.023894478 -0.061547216 -0.0573423 0.016079364 0.021658955 -0.12246941 0.08253893
-0.061026953 -0.00956399 0.0012402302 0.06671553 0.06617486 0.04485523 -0.06645057 -0.088888735
0.077405006 -0.06983425 -0.06339823 0.062930174 -0.079828255 -0.020836558 -0.09186822 0.05023641
-0.124893606 0.05605045 -0.015727945 0.12903863 0.039356682 0.04680264 -0.097205356 -0.055282716
-0.16942571 -0.0064355223 -0.022319471 0.08031955 -0.019457592 0.11772499 0.073022544 -0.12038821
-0.15696831 -0.06987242 -0.10160713 -0.0116871735 0.1134442 -0.08712197 -0.038535774 -0.013432846
-0.19470035 -0.09719813 -0.13947813 0.13021322 -0.057813708 0.0044424864 -0.062097892 -0.0052677565
-0.054927643 -0.076630846 0.06550483 0.0050608837 -0.1349787 -0.117586814 -0.124286994 -0.1752473
0.020951975 -0.14397398 -0.014764406 -0.09162254 -0.20741732 0.006557912 -0.014975387 0.09606895
0.03634424 0.016036512 -0.118953265 0.058176428 0.024060916 0.12843175 -0.0543097 0.1738072
-0.032160137 -0.1405884 0.18493384 0.067203045 -0.17317154 0.18361229 0.122583084 0.041250683
0.1201065 0.059310097 -0.028425949 0.027668593 0.10716094 -0.00063829636 0.06257846 0.04757188
-0.0996132 -0.19076934 0.030097658 0.013817933 -0.22797064 0.030477604 0.11125593 -0.17266333
0.079417 0.16210455 0.10991102 -0.020316282 -0.10318382 0.0035908164 0.11657741 0.12771162
-0.083460696 0.025522921 0.109290816 0.09666909 0.15384936 0.057625204 0.09017486 0.019315105
0.13486256 -0.09350663 0.0017356924 0.058892984 0.084339775 0.11575358 -0.12155281 0.07164078
0.036251944 0.09665635 -0.055884782 0.058769926 -0.0768703 -0.12578723 0.08719921 -0.07638953
0.022905005 0.08028408 0.036466423 -0.14285319 0.033927727 -0.02685067 -0.034127068 -0.055723593
-0.028439257 0.021487491 0.11213398 -0.01723239 -0.104504764 0.12877019 -0.0408467 0.11514805
-0.13584268 -0.04123091 0.03892107 -0.070859425 -0.038629163 -0.019333446 0.13734248 0.14365453
0.02527427 0.09368615 -0.037888538 0.009252514 0.026298827 0.00734929 -0.18411213 -0.026172625
-0.16039829 0.14406887 -0.046014957 -0.048413247 -0.05238571 0.1274155 0.013476444 0.06630933
0.06152041 0.1563094 -0.011485968 0.0278242 -0.03107509 0.1258619 0.09618271 0.05760506
0.013653102 0.17962375 0.07560079 0.032866307 -0.05019833 -0.11504553 -0.11278732 -0.062157284
-0.17132431 -0.14105149 -0.059940178 -0.030785047 0.08524956 0.024337366 0.00023296657 0.03281579
0.088614464 -0.06594037 0.08918004 0.12753178 0.01154427 0.14070405 -0.05396006 -0.0065686945
00000000: c87b ecbd 3032 a93d b29c 1bbc b9f9 ed3d
00000010: 4072 6abd 03a4 723c 3a51 823d 157d 9abd
00000020: 6c4c 413d c3cb 92bd 365d 3fbe 51b0 fcbd
00000030: dea7 9dbd 3f18 76bd afd1 c83d c4a3 cbbc
00000040: f181 dd3c b707 663d 4cff 9b3c f4ef 033e
00000050: b9bb abbd 679c 97bd 079c 3bbd 4f6d df3d
00000060: 7c8d 163d d70d 133e 115b d6bb e3fd 27bc
00000070: 59dd 7bbd 2469 31bc 74d1 c4bc 252f 0b3c
00000080: 3404 5c3d 08e4 8e3d 7bae ffbd 2c76 1abe
00000090: b15d a83d 4215 0abd 137e 95bd c96e 0a3d
000000a0: d12d 0a3c 8538 aebd f1a1 af3d 9a7c 8abd
000000b0: df36 b4bd 5699 cfbd 2211 71bc f776 3d3b
000000c0: 689d d9bd 5abe c33c ef18 7cbd c2df 6abd
000000d0: dfb8 833c 1f6e b13c 3ed1 fabd 2c0a a93d
000000e0: 66f7 79bd 48b2 1cbc 388f a23a 27a2 883d
000000f0: af86 873d 1eba 373d 3d17 88bd 4c0b b6bd
00000100: 8486 9e3d 4205 8fbd eed6 81bd 89e1 803d
00000110: ff7c a3bd 6eb1 aabc 6825 bcbd b2c4 4d3d
00000120: 38c8 ffbd 2895 653d e4d7 80bc b422 043e
00000130: 7934 213d 20b4 3f3d 9a13 c7bd 2170 62bd
00000140: ef7d 2dbe 13e1 d2bb 53d7 b6bc 947e a43d
00000150: 8765 9fbc cd19 f13d d88c 953d 188e f6bd
00000160: 4dbc 20be 4519 8fbd 6617 d0bd 8f7b 3fbc
00000170: 6f55 e83d 016d b2bd b0d7 1dbd 7115 5cbc
00000180: 875f 47be d00f c7bd 5bd3 0ebe 9d56 053e
00000190: 11ce 6cbd 4792 913b 5c5a 7ebd 259d acbb
000001a0: cffb 60bd a2f0 9cbd 6527 863d c5d5 a53b
000001b0: db37 0abe 5bd1 f0bd 2e8a febd 0774 33be
000001c0: 7aa3 ab3c ea6d 13be 68e6 71bc 99a4 bbbd
000001d0: 3565 54be c1e3 d63b 535b 75bc ccbf c43d
000001e0: b3dd 143d 015f 833c c59d f3bd 684a 6e3d
000001f0: 661b c53c 9d83 033e d973 5ebd 84fa 313e
00000200: 59ba 03bd 68f6 0fbe 4c5f 3d3e c0a1 893d
00000210: e153 31be dc04 3c3e d70c fb3d 7af6 283d
00000220: 66fa f53d 25ef 723d 89dd e8bc 3fa9 e23c
00000230: 3277 db3d 5853 27ba 2329 803d bbda 423d
00000240: 0102 ccbd 0a59 43be 5d8f f63c 9d64 623c
00000250: 2371 69be 2bac f93c 26da e33d a8ce 30be
00000260: 61a5 a23d bcfe 253e 0719 e13d 556e a6bc
00000270: 0a52 d3bd e753 6b3b 23c0 ee3d d6c6 023e
00000280: 71ed aabd 7215 d13c ddd3 df3d 72fa c53d
00000290: b08a 1d3e 6808 6c3d 99ad b83d b63a 9e3c
000002a0: 6919 0a3e 6780 bfbd 2c80 e33a c539 713d
000002b0: 55ba ac3d 3710 ed3d aef0 f8bd 67b8 923d
000002c0: eb7c 143d c4f3 c53d 71e7 64bd bcb8 703d
000002d0: 2d6e 9dbd 5ece 00be 8095 b23d 1d72 9cbd
000002e0: 47a3 bb3c fb6b a43d d15d 153d 1b48 12be
000002f0: cdf7 0a3d f0f5 dbbc d3c8 0bbd 6c3e 64bd
00000300: 72f9 e8bc 8906 b03c 80a6 e53d f12a 8dbc
00000310: 9806 d6bd 55dc 033e df4e 27bd bed2 eb3d
00000320: 581a 0bbe bee1 28bd b36b 1f3d bf1e 91bd
00000330: 9d39 1ebd 2d61 9ebc 82a3 0c3e 2c1a 133e
00000340: fc0b cf3c 86de bf3d 0331 1bbd db97 173c
00000350: a370 d73c 50d2 f03b e487 3cbe f967 d6bc
00000360: 733f 24be ca86 133e 2e7a 3cbd f84c 46bd
00000370: 6692 56bd 3579 023e 4ecc 5c3c 30cd 873d
00000380: d3fc 7b3d 920f 203e a42f 3cbc 94ef e33c
00000390: 3091 febc f1e1 003e 71fb c43d 49f3 6b3d
000003a0: 43b1 5f3c 4aef 373e 96d4 9a3d d29e 063d
000003b0: c49c 4dbd fe9c ebbd 0afd e6bd a398 7ebd
000003c0: a46f 2fbe cd6f 10be d583 75bd ec30 fcbc
000003d0: 5297 ae3d 285f c73c 7d48 7439 da69 063d
000003e0: 807b b53d bf0b 87bd 06a4 b63d b197 023e
000003f0: 2e24 3d3c b914 103e 3905 5dbd 343e d7bb

conv_a_0.bias f4 [16]
-0.099298246 0.093054615 -0.058099087 0.06955468 0.006698772 0.1292709 0.14069232 -0.052955635
-0.07110687 0.039973173 0.016190095 -0.016348913 0.031205412 -0.075843364 0.11197397 0.03802085
00000000: e15c cbbd 6b93 be3d 4ff9 6dbd af72 8e3d
00000010: 5f81 db3b 975f 043e a611 103e 02e8 58bd
00000020: 7ba0 91bd e9ba 233d 17a1 843c 28ee 85bc
00000030: 7ea2 ff3c c453 9bbd 9c52 e53d c0bb 1b3d

conv_a_1.weight f4 [16, 16, 3, 3]
0.08231145 -0.06530183 -0.03873872 -0.00844073 0.07201238 0.021930402 0.056652617 0.0037841983
0.08133765 0.035733577 0.12277787 0.0060073934 0.030621136 0.061037872 0.028958764 -0.012995578
0.01640622 -0.063438974 0.049330525 0.007466868 0.039667394 -0.02787616 0.041914 0.046652265
-0.041543692 -0.03386353 -0.06590152 -0.048388444 0.06842722 -0.034916367 -0.014030209 0.09155661
-0.021248247 0.07548098 0.11589321 0.10826401 -0.023804465 0.039439425 0.0065149963 0.0515004
-0.0053402656 -0.06723095 0.0016599159 0.00076477014 0.036839068 -0.08242786 -0.015694182 0.014182926
0.011318947 0.034385152 0.032902453 -0.0056084143 -0.09358501 -0.030911077 0.008711895 0.032630414
-0.08882708 -0.09414766 -0.042311262 -0.024260957 0.049106974 -0.075925045 -0.02011122 -0.065495074
0.05576283 -0.0964389 -0.009716185 -0.05240607 -0.076453194 -0.113304205 0.030767493 0.030667707
0.07458117 0.1011798 0.07122069 0.13044852 0.028759666 0.08078354 -0.012208498 -0.03314137
-0.021333609 0.0115064625 -0.11208563 -0.016388081 -0.124401495 0.0491659 0.0064461483 -0.058371264
0.02855177 0.04430334 0.061823077 0.05270813 -0.009137452 0.038536035 0.0316583 -0.007974356
0.061468083 0.0620394 0.057792615 0.009880436 0.049668185 -0.07062713 0.026547996 -0.082682006
-0.07509859 0.007996041 -0.07335977 -0.057282563 -0.0013088456 -0.006590843 -0.13023087 -0.0055624126
-0.052924808 -0.035440538 0.014012256 -0.09151334 -0.08113419 -0.024487821 0.024537671 0.111776315
0.0986165 0.06060737 0.04391551 0.047474176 -0.021384737 -0.00182647 0.021647137 -0.025976378
0.02082942 0.020929668 0.039957523 -0.07056283 -0.04324617 -0.010832939 -0.059092343 0.0114815505
0.06065485 -0.04939365 -0.05995321 -0.08537401 0.05979348 0.005694763 -0.0030480183 -0.044215895
-0.006130855 -0.044471394 0.025043754 0.03299378 -0.045382243 -0.08003025 -0.02252116 0.073874466
0.08626011 0.023586996 0.019896356 0.014537697 0.0014549219 0.075616404 -0.03309619 0.04594645
-0.043913096 0.044150773 0.025797354 0.11655166 0.025341589 0.026634067 0.13322042 -0.009061033
0.013655184 0.15479486 0.0796282 0.105029434 0.07161026 0.067856625 0.10214976 0.11484624
0.07033601 -0.04122969 0.06082232 0.023327002 0.04351552 0.06669057 -0.047406513 0.039614256
0.1086299 0.033801217 0.022194546 0.00026864928 0.107699074 0.030969672 -0.0065329294 -0.016738728
0.08125117 0.07726447 0.00503944 -0.01173844 0.05092722 0.058512192 0.090091236 0.0035923808
0.0147959385 0.07021106 0.12861452 0.099726036 0.09857368 0.07775293 0.026666682 -0.05646903
0.08024954 -0.0679498 0.027856551 0.04930971 0.0840933 -0.09554647 -0.07109265 -0.0308867
-0.038645923 -0.05501982 0.050801206 0.080066785 0.00562921 -0.021604963 -0.054043356 -0.03042089
-0.062853426 0.016969655 -0.021709695 0.09328233 0.032633357 0.03763743 0.0065557957 -0.055732712
0.039547615 -0.060475755 0.017874483 0.07221634 0.0555668 0.020322232 -0.041521408 0.084671944
0.077447094 0.09785861 -0.05927414 -0.039045684 -0.018633235 -0.030956937 0.07454275 0.10025501
0.0026716643 -0.001990817 -0.07597604 0.028630551 0.1016353 0.06891289 0.14213628 0.025818614
00000000: e892 a83d f7bc 85bd 7eac 1ebd fd4a 0abc
00000010: 3a7b 933d 63a7 b33c 930c 683d 5000 783b
00000020: 5b94 a63d 5f5d 123d f772 fb3d abd9 c43b
00000030: 2dd9 fa3c d902 7a3d ee3a ed3c 68eb 54bc
00000040: 5666 863c 4bec 81bd ce0e 4a3d a1ac f43b
00000050: 477a 223d 8b5c e4bc 04ae 2b3d 7216 3f3d
00000060: b829 2abd 7cb4 0abd 60f7 86bd f632 46bd
00000070: 9223 8c3d 7704 0fbd f6de 65bc 0882 bb3d
00000080: ce10 aebc c695 9a3d 6b59 ed3d 85b9 dd3d
00000090: 9501 c3bc 3c8b 213d c07b d53b 15f2 523d
000000a0: 65fd aebb 61b0 89bd 8991 d93a db7a 483a
000000b0: 90e4 163d f0cf a8bd 1691 80bc 815f 683c
000000c0: 1b73 393c 72d7 0c3d b9c4 063d cac6 b7bb
000000d0: 7fa9 bfbd 3a39 fdbc 56bc 0e3c 78a7 053d
000000e0: f9ea b5bd 7dd0 c0bd 934e 2dbd eabe c6bc
000000f0: 6524 493d 977e 9bbd 49c0 a4bc 4822 86bd
00000100: 9167 643d c281 c5bd a230 1fbc bfa7 56bd
00000110: 7e93 9cbd 090c e8bd 1c0c fc3c d83a fb3c
00000120: 03be 983d 5b37 cf3d 27dc 913d 4c94 053e
00000130: 6499 eb3c d771 a53d 2706 48bc 3fbf 07bd
00000140: d2c3 aebc 9a85 3c3c 278d e5bd 4c40 86bc
00000150: 36c6 febd 2f62 493d 363a d33b b516 6fbd
00000160: 67e5 e93c 6b77 353d 323a 7d3d 7be4 573d
00000170: 40b5 15bc f6d7 1d3d 22ac 013d e0a6 02bc
00000180: f5c5 7b3d 071d 7e3d f3b7 6c3d 8de1 213c
00000190: de70 4b3d f5a4 90bd 2f7b d93c 2f55 a9bd
000001a0: 4acd 99bd d401 033c a63d 96bd 1fa1 6abd
000001b0: 928d abba 00f8 d7bb 3e5b 05be e644 b6bb
000001c0: afc7 58bd 192a 11bd a993 653c 596b bbbd
000001d0: af29 a6bd af9a c8bc 3a03 c93c fbea e43d
000001e0: 73f7 c93d 6f3f 783d c0e0 333d 4874 423d
000001f0: 0b2f afbc 2a66 efba 5655 b13c 6acc d4bc
00000200: 76a2 aa3c b274 ab3c 80aa 233d 3f83 90bd
00000210: e522 31bd a47c 31bc d00a 72bd 1d1d 3c3c
00000220: 3871 783d ff50 4abd 7f91 75bd 92d8 aebd
00000230: 02ea 743d 229b ba3b 43c1 47bb ba1b 35bd
00000240: 57e5 c8bb a327 36bd 8f28 cd3c 7c24 073d
00000250: bbe2 39bd e6e6 a3bd 4c7e b8bc 7f4b 973d
00000260: 24a9 b03d 8439 c13c affd a23c 852f 6e3c
00000270: 14b3 be3a c6dc 9a3d df8f 07bd 5832 3c3d
00000280: 38de 33bd 71d7 343d f954 d33c a3b2 ee3d
00000290: 2a99 cf3c b02f da3c ef6a 083e ba74 14bc
000002a0: feb9 5f3c 8b82 1e3e 1c14 a33d ac19 d73d
000002b0: 66a8 923d 6af8 8a3d e533 d13d 8134 eb3d
000002c0: 530c 903d 77e0 28bd d320 793d 4518 bf3c
000002d0: 543d 323d 1195 883d 552d 42bd 8f42 223d
000002e0: 5a79 de3d 2573 0a3d 56d1 b53c 7fd9 8c39
000002f0: 5591 dc3d 1cb4 fd3c 2f12 d6bb a81f 89bc
00000300: 0367 a63d d63c 9e3d e321 a53b 9652 40bc
00000310: 1099 503d 7baa 6f3d c181 b83d 266e 6b3b
00000320: aa6a 723c d1ca 8f3d 86b3 033e 2a3d cc3d
00000330: ffe0 c93d ee3c 9f3d 1674 da3c 124c 67bd
00000340: df59 a43d 4429 8bbd 6c33 e43c faf8 493d
00000350: 1c39 ac3d dead c3bd 0699 91bd 1b06 fdbc
00000360: 304b 1ebd 765c 61bd ed14 503d 0efa a33d
00000370: 3c75 b83b e4fc b0bc 915c 5dbd 3b35 f9bc
00000380: 4cb9 80bd f203 8b3c 88d8 b1bc ce0a bf3d
00000390: 8eaa 053d b529 1a3d 00d2 d63b fc47 64bd
000003a0: aefc 213d 6db5 77bd 826d 923c 29e6 933d
000003b0: 039a 633d cf7a a63c 5a12 2abd 7c68 ad3d
000003c0: 959c 9e3d 186a c83d 71c9 72bd 5eee 1fbd
000003d0: baa4 98bc 6799 fdbc dfa9 983d 8052 cd3d
000003e0: 1717 2f3b 5e78 02bb 5399 9bbd 9e8a ea3c
000003f0: 2b26 d03d 3422 8d3d 2c8c 113e 8f81 d33c

conv_a_1.bias f4 [16]
0.03701664 0.03259546 -0.05335012 -0.050563205 0.038594026 0.14780556 0.061944794 -0.061050665
0.080317676 -0.04151624 0.11726722 0.13419051 -0.0014306051 0.119111486 0.026591385 0.03777642
00000000: c39e 173d d182 053d a885 5abd 5d1b 4fbd
00000010: c514 1e3d 575a 173e d3b9 7d3d 4310 7abd
00000020: 987d a43d ef0c 2abd cc29 f03d 3d69 093e
00000030: 2483 bbba b9f0 f33d 2dd6 d93c 73bb 1a3d

linear_a_0.weight f4 [16, 144]
0.05065917 0.054884695 0.029358827 -0.07358356 -0.005027694 -0.07400799 -0.10513038 -0.09131971
-0.0193546 0.08873092 0.061823677 0.073095515 0.036281418 0.08230963 0.008295834 0.086282805
0.13780928 0.15092035 -0.10463822 0.019246588 -0.080910675 0.042468812 -0.1201194 -0.039124127
-0.0077620246 -0.05818969 -0.016080618 -0.05654524 -0.097333334 0.04431807 -0.077043645 -0.056117095
0.010082595 -0.03645348 0.046615545 0.04554876 0.0029374193 -0.030392673 0.011734878 -0.027267996
-0.0031256566 -0.015021089 -0.02510019 0.03352621 -0.059852097 0.10640439 0.036582723 0.033585068
0.13403048 0.17615114 0.020150818 0.10927484 0.08151483 0.19530292 0.12731783 0.14077158
0.057185996 0.1366058 0.12571953 0.16221382 0.10435011 0.21174467 0.10117067 -0.060679443
0.057778675 0.029372934 -0.008475832 -0.04561508 0.04608778 -0.053710088 0.07202897 0.06942665
-0.062201995 0.06202704 -0.0669187 -0.035007875 0.019256404 0.06290603 -0.038509604 -0.059953224
0.04174157 -0.08851196 0.04085402 0.07096827 -0.06311105 0.018451009 -0.018141564 -0.02601251
-0.0031341352 0.05215546 0.13617119 0.018741928 0.09008228 0.0981857 0.0064182007 0.06292045
0.016420372 0.098140165 0.03875099 0.17774352 0.15201771 0.054290168 0.18234621 0.10008802
0.08705415 0.10669707 0.044977248 0.19141233 0.06256286 0.11999507 0.14243612 0.12229083
0.08877205 0.12590413 0.06537356 0.05925639 0.14060551 0.019957356 0.092106916 0.18578304
0.10155574 0.05121045 0.15361883 0.15604293 0.0885307 0.048983343 -0.0037688268 -0.012336674
0.10678286 0.09487541 0.092886515 -0.023135923 -0.04373329 -0.046891272 0.03845758 0.079068
0.08206808 -0.010718839 -0.080629714 -0.069109455 -0.032819152 -0.00094424566 0.08161686 0.050694615
0.01997193 0.08674851 -0.04043765 -0.016192108 -0.023377264 0.113614656 0.10185473 0.010359514
0.092167124 -0.003529438 0.11125186 0.063448094 0.009080177 0.03862628 -0.031641655 0.05584013
0.119087875 0.010078254 0.10692052 0.03604702 0.00049554784 0.10207968 0.08510992 0.036878113
0.032565393 -0.041256666 0.12442055 0.047992963 -0.057005033 -0.04812802 -0.04401883 0.050807305
-0.00098127 0.07058843 0.052963562 0.04664306 -0.0081193205 0.12561859 0.10380609 -0.00781397
0.10284292 -0.014615718 0.10075724 0.075228825 -0.020998906 0.04630829 0.067249 0.019635778
0.079224095 0.0064934236 0.009205519 0.056687444 0.1039435 0.015393967 0.029564193 0.0013743871
0.09628837 -0.00089698855 0.05168866 0.013440936 0.033381745 0.063250616 0.06862855 -0.0015212623
0.035263095 -0.05939301 -0.048575234 -0.037146498 -0.086695194 -0.044943154 0.056340255 -0.0875401
-0.04716969 -0.042353828 0.036789525 0.08591134 0.023896227 0.098543875 0.06448368 0.034157928
-0.011547269 -0.036799513 -0.031945158 0.03529394 0.025923222 0.013493426 0.06886864 0.0032421178
-0.029591663 0.123994194 -0.10188385 -0.05390851 -0.08287552 -0.12667745 -0.08751372 -0.10368914
-0.06681366 -0.079428196 -0.017675783 -0.018219387 0.04793436 0.11363137 0.09623317 0.10102966
0.011214126 0.024735376 0.08382289 -0.027333835 -0.015917996 0.021621931 0.08896928 0.016736943
00000000: fd7f 4f3d c6ce 603d ec81 f03c fab2 96bd
00000010: 5bbf a4bb 8091 97bd 994e d7bd d405 bbbd
00000020: 8a8d 9ebc 8eb8 b53d d33a 7d3d 1ab3 953d
00000030: d39b 143d f491 a83d 40eb 073c 0ab5 b03d
00000040: e01d 0d3e dd8a 1a3e 904c d6bd 05ab 9d3c
00000050: 7fb4 a5bd c7f3 2d3d 2901 f6bd 9f40 20bd
00000060: 9558 febb 5058 6ebd 80bb 83bc fb9b 67bd
00000070: b356 c7bd dd86 353d 0fc9 9dbd 0adb 65bd
00000080: 7831 253c 3f50 15bd f1ef 3e3d 5691 3a3d
00000090: b881 403b 0efa f8bc a543 403c 2261 dfbc
000000a0: d1d7 4cbb 041b 76bc ea9e cdbc c752 093d
000000b0: 7927 75bd 8bea d93d c4d7 153d 7f90 093d
000000c0: 493f 093e f760 343e 5413 a53c 7dcb df3d
000000d0: 3ff1 a63d 7dfd 473e 9b5f 023e 6d26 103e
000000e0: dd3b 6a3d 64e2 0b3e 9fbc 003e 611b 263e
000000f0: 83b5 d53d 98d3 583e 9132 cf3d 028b 78bd
00000100: 55a9 6c3d 829f f03c 37de 0abc e1d6 3abd
00000110: 8ac6 3c3d 1cff 5bbd ed83 933d 8f2f 8e3d
00000120: 85c7 7ebd 1110 7e3d ac0c 89bd 6b64 0fbd
00000130: 9bbf 9d3c e0d4 803d 3fbc 1dbd 8391 75bd
00000140: 35f9 2a3d c245 b5bd 8b56 273d d057 913d
00000150: 5e40 81bd 9226 973c 9e9d 94bc 3018 d5bc
00000160: 1066 4dbb f7a0 553d 7670 0b3e ac88 993c
00000170: 0f7d b83d 9615 c93d c54f d23b 70dc 803d
00000180: 0484 863c b6fd c83d 5cb9 1e3d 6602 363e
00000190: 88aa 1b3e 5e5f 5e3d f7b8 3a3e f3fa cc3d
000001a0: 7249 b23d fe83 da3d 103a 383d 9801 443e
000001b0: f520 803d fabf f53d c6da 113e 9d73 fa3d
000001c0: 1fce b53d 03ed 003e 93e2 853d d4b6 723d
000001d0: e4fa 0f3e 9c7d a33c 8da2 bc3d e93d 3e3e
000001e0: 75fc cf3d 0cc2 513d 414e 1d3e b8c9 1f3e
000001f0: 954f b53d c2a2 483d 6cfe 76bb c31f 4abc
00000200: f9b0 da3d 0a4e c23d 493b be3d 8c87 bdbc
00000210: ae21 33bd 1011 40bd b285 1d3d 67ee a13d
00000220: 4f13 a83d 129e 2fbc 3121 a5bd 4289 8dbd
00000230: 606d 06bd 4187 77ba be26 a73d 28a5 4f3d
00000240: 2c9c a33c 34a9 b13d f3a1 25bd 50a5 84bc
00000250: ad81 bfbc cdae e83d 3699 d03d f3ba 293c
00000260: 1ec2 bc3d 254e 67bb 04d8 e33d 13f1 813d
00000270: 06c5 143c 9736 1e3d ae9a 01bd 9fb8 643d
00000280: 58e4 f33d 431f 253c 25f9 da3d 0aa6 133d
00000290: a7e7 013a 270f d13d 1c4e ae3d 810d 173d
000002a0: 4a63 053d c0fc 28bd 34d0 fe3d 4594 443d
000002b0: 1c7e 69bd e321 45bd 174d 34bd 521b 503d
000002c0: f59d 80ba ab90 903d 52f0 583d cb0c 3f3d
000002d0: e606 05bc 29a2 003e 4a98 d43d 2a06 00bc
000002e0: 4f9f d23d c476 6fbc d059 ce3d 9211 9a3d
000002f0: e605 acbc c3ad 3d3d d8b9 893d 36db a03c
00000300: 3e40 a23d c9c6 d43b bfd2 163c 1831 683d
00000310: 54e0 d43d fa36 7c3c 9b30 f23c c724 b43a
00000320: d632 c53d e223 6bba 7db7 533d 5f37 5c3c
00000330: 4cbb 083d 8a89 813d 208d 8c3d 1865 c7ba
00000340: 0970 103d 1646 73bd d3f6 46bd ed26 18bd
00000350: 408d b1bd 5016 38bd 0ac5 663d 3948 b3bd
00000360: 0135 41bd 357b 2dbd 9db0 163d 49f2 af3d
00000370: 05c2 c33c 5fd1 c93d 0510 843d 2fe9 0b3d
00000380: c230 3dbc 16bb 16bd edd8 02bd 6190 103d
00000390: f05c d43c 8813 5d3c 000b 8d3d b679 543b
000003a0: 376a f2bc abf0 fd3d 7ba8 d0bd 2bcf 5cbd
000003b0: a4ba a9bd bcb7 01be 653a b3bd f95a d4bd
000003c0: 9ad5 88bd 40ab a2bd cecc 90bc d340 95bc
000003d0: d256 443d 90b7 e83d e515 c53d a3e8 ce3d
000003e0: 74bb 373c d8a1 ca3c 56ab ab3d 35eb dfbc
000003f0: 7566 82bc 7a20 b13c 8735 b63d ea1b 893c

linear_a_0.bias f4 [16]
0.03797392 0.057198923 0.03718753 0.045997143 0.014251227 0.12885113 0.026386842 0.09999811
0.058540236 -0.034076907 -0.08155428 -0.035416137 0.021652132 0.049619313 0.039193086 -0.028528046
00000000: 8b8a 1b3d 6b49 6a3d f451 183d 8067 3c3d
00000010: fa7d 693c 8df1 033e 3829 d83c cfcb cc3d
00000020: e3c7 6f3d 3a94 0bbd ee05 a7bd 8310 11bd
00000030: d05f b13c 9f3d 4b3d ee88 203d a6b3 e9bc

GRU_a.weight_ih_l0 f4 [48, 16]
0.0736652 -0.02155126 0.13954924 -0.12853505 -0.07985329 0.010880321 0.09221706 -0.16178052
-0.07742285 0.09782512 0.076307595 0.11002728 0.08602126 0.099376045 -0.018028129 0.07809279
-0.17203358 -0.13560061 0.019280117 0.16692264 -0.10849458 -0.18251143 0.16633177 -0.0607617
0.04016655 -0.079365425 -0.2465437 0.21772805 -0.10315391 -0.19378649 -0.17948052 -0.1388261
-0.1812491 0.21866949 -0.26553357 0.23245496 -0.3082909 0.069526516 0.11659329 -0.21779378
0.13589549 -0.20136169 -0.18128446 -0.15338707 -0.12800895 -0.24123783 0.09981428 -0.17318735
-0.060326517 0.17992373 0.16564985 -0.2121597 -0.22344272 -0.045244563 -0.041036766 -0.08279107
-0.071119554 0.12511599 -0.2415821 0.050477117 -0.25982374 -0.108904324 0.111883186 -0.24864401
-0.04312475 0.11698259 -0.057328697 0.10927081 0.14588691 0.049234822 0.03963032 -0.25647053
0.15781711 0.16412148 0.22224632 -0.0539065 -0.040338125 -0.13045739 -0.16771074 0.061317526
-0.18037198 0.17334756 0.07647436 -0.07390624 0.21153708 0.068444714 -0.08908619 0.31436354
0.124530114 0.1123418 0.08920312 0.062267274 0.13232559 0.12873879 -0.20456243 -0.21501547
0.28240624 -0.0063691023 0.008106778 -0.06490345 0.12285977 0.0324887 -0.014851836 0.09969515
-0.12853003 0.07165904 -0.116746575 0.122288615 0.002658796 -0.112930246 -0.06384822 0.016342932
0.060234644 0.12130305 0.2604663 0.024600396 -0.20150653 0.3052452 0.1481774 -0.14839515
0.15866682 0.04370744 -0.24260846 -0.22758526 -0.16376056 0.037865136 -0.19650783 0.18711172
-0.20312528 -0.105906636 0.057991132 -0.09775148 -0.23142412 -0.07218853 0.07789436 -0.2672104
-0.30037653 -0.08778789 -0.18926871 -0.17130738 -0.12716062 -0.21883151 -0.22650109 -0.18334296
-0.17446756 0.021460382 0.22895242 0.19555347 -0.19238465 0.010661267 -0.105081275 -0.1799333
-0.067256354 -0.07448895 0.08928272 -0.1211406 0.15020178 -0.13879463 -0.17447884 0.20867696
0.09112649 -0.025042739 -0.01211598 -0.21660137 -0.018053614 0.3127788 0.2386106 -0.12552276
-0.13735043 -0.19426239 -0.19663969 0.074807554 -0.13809332 -0.090566725 -0.22165899 0.058311515
0.036753368 0.24165714 0.22298403 0.23766047 0.32448944 0.019825391 -0.14899613 0.25204673
0.083923854 0.2164048 0.1445294 -0.10223925 0.18103746 -0.05200253 0.10036698 -0.11292169
-0.11064748 -0.03823 0.061888598 -0.12726974 0.24254984 0.21016358 0.11217629 0.2229237
0.0026422453 0.060952604 0.061323285 0.032494694 -0.14627965 -0.05968886 0.046067204 -0.17152056
-0.21767966 -0.011972531 -0.06560986 -0.27362233 -0.036204077 -0.16938913 0.13614573 -0.1513451
-0.16787557 -0.24409437 0.17636195 0.22342497 -0.12085604 0.21882233 0.20228867 -0.22251256
0.05169705 -0.092015214 -0.117682315 -0.06434929 -0.023676297 -0.060849242 0.21811306 -0.098194696
-0.07873573 -0.07203605 0.1294555 -0.014350235 0.2994634 -0.13381664 0.08980776 -0.08971862
0.20358324 0.20031224 0.10600009 0.071497254 -0.12964915 0.014203267 0.22880708 -0.15242927
0.17803513 0.025568532 -0.17599502 0.24349141 0.24956366 0.036653496 -0.10530043 -0.009734534
00000000: c8dd 963d 458c b0bc ffe5 0e3e b19e 03be
00000010: 1f8a a3bd 6043 323c 4cdc bc3d cba9 25be
00000020: df8f 9ebd 8958 c83d 2847 9c3d fc55 e13d
00000030: ea2b b03d ab85 cb3d baaf 93bc 1def 9f3d
00000040: 9229 30be e3da 0abe 56f1 9d3c c5ed 2a3e
00000050: 6832 debd 47e4 3abe e052 2a3e 43e1 78bd
00000060: ae85 243d 578a a2bd f475 7cbe 1af4 5e3e
00000070: 5b42 d3bd f76f 46be bec9 37be 6e28 0ebe
00000080: 5d99 39be e5ea 5f3e 04f4 87be ac08 6e3e
00000090: 4ed8 9dbe eb63 8e3d 76c8 ee3d 5505 5fbe
000000a0: 3028 0b3e c231 4ebe a2a2 39be 8011 1dbe
000000b0: c714 03be 0d07 77be 6e6b cc3d 0658 31be
000000c0: f018 77bd ed3d 383e 1da0 293e 6440 59be
000000d0: 2bce 64be 5d52 39bd 2b16 28bd 5d8e a9bd
000000e0: 21a7 91bd 681e 003e 4c61 77be 18c1 4e3d
000000f0: 9e07 85be 3b09 dfbd 0323 e53d 899c 7ebe
00000100: 94a3 30bd 9194 ef3d 7fd1 6abd 60c9 df3d
00000110: 6163 153e 74aa 493d 6753 223d 1b50 83be
00000120: cf9a 213e 760f 283e 8a94 633e 10cd 5cbd
00000130: 9739 25bd 9f96 05be 5dbc 2bbe 1628 7b3d
00000140: 6fb3 38be 0682 313e 979e 9c3d 285c 97bd
00000150: 2d9d 583e be2c 8c3d d272 b6bd 42f4 a03e
00000160: a509 ff3d 7513 e63d 20b0 b63d f80b 7f3d
00000170: 5c80 073e 1ad4 033e d078 51be 042d 5cbe
00000180: 8d97 903e e7b3 d0bb 4bd2 043c 1aec 84bd
00000190: e79d fb3d df12 053d 1d55 73bc f92c cc3d
000001a0: 609d 03be fac1 923d d418 efbd 7472 fa3d
000001b0: 323f 2e3b f947 e7bd dbc2 82bd 9de1 853c
000001c0: 9ab8 763d bc6d f83d d75b 853e c586 c93c
000001d0: ba57 4ebe 1949 9c3e d1bb 173e e6f4 17be
000001e0: 8e79 223e 9306 333d 5a6e 78be 1c0c 69be
000001f0: d9b0 27be 7918 1b3d 5939 49be 379a 3f3e
00000200: 1300 50be 94e5 d8bd 1c88 6d3d ee31 c8bd
00000210: 72fa 6cbe 94d7 93bd 1487 9f3d cdcf 88be
00000220: f4ca 99be 23ca b3bd a8cf 41be 346b 2fbe
00000230: 6536 02be 5e15 60be e7ef 67be 42be 3bbe
00000240: a0a7 32be afcd af3c 8172 6a3e 2b3f 483e
00000250: 7b00 45be 98ac 2e3c da34 d7bd 6f40 38be
00000260: b3bd 89bd aa8d 98bd dcd9 b63d 9018 f8bd
00000270: 7fce 193e 2e20 0ebe 95aa 32be 6aaf 553e
00000280: 86a0 ba3d 6e26 cdbc 1a82 46bc c0cc 5dbe
00000290: 2ce5 93bc 8b24 a03e 5656 743e 0a89 00be
000002a0: 97a5 0cbe b8ec 46be ea5b 49be b434 993d
000002b0: 5668 0dbe 0c7b b9bd 93fa 62be 0ed8 6e3d
000002c0: b38a 163d f874 773e ed55 643e 445d 733e
000002d0: 7b23 a63e dc68 a23c 7192 18be 450c 813e
000002e0: 45e0 ab3d 3899 5d3e 84ff 133e d062 d1bd
000002f0: e261 393e 9b00 55bd 348d cd3d 7d43 e7bd
00000300: 259b e2bd 0f97 1cbd e67e 7d3d 0053 02be
00000310: fc5e 783e 1f35 573e afbc e53d 1c46 643e
00000320: 8529 2d3b 70a9 793d 202e 7b3d 2819 053d
00000330: 55ca 15be 4e7c 74bd f7b0 3c3d 16a3 2fbe
00000340: 6be7 5ebe 6f28 44bc 765e 86bd 3a18 8cbe
00000350: ba4a 14bd 5874 2dbe c969 0b3e 36fa 1abe
00000360: 93e7 2bbe e0f3 79be 3a98 343e 84c9 643e
00000370: 5f83 f7bd f612 603e c324 4f3e 55da 63be
00000380: 49c0 533d 7972 bcbd 6d03 f1bd 90c9 83bd
00000390: cbf4 c1bc 0e3d 79bd 0859 5f3e 4d1a c9bd
000003a0: 3340 a1bd a387 93bd fc8f 043e 401d 6bbc
000003b0: 4453 993e 3b07 09be 22ed b73d 65be b7bd
000003c0: 2078 503e a71e 4d3e 9316 d93d 276d 923d
000003d0: bfc2 04be d2b4 683c 674c 6a3e 6b16 1cbe
000003e0: d74e 363e 1975 d13c 0a38 34be d055 793e
000003f0: 9e8d 7f3e fa21 163d c0a7 d7bd 987d 1fbc

GRU_a.weight_hh_l0 f4 [48, 16]
0.09959608 -0.08435606 -0.04061559 -0.09875663 0.060035877 0.15919921 0.05440715 0.15316886
0.15085153 -0.0776769 -0.21288843 0.032872543 -0.10566261 0.03671113 -0.071412906 0.1533642
-0.093698055 0.050011333 -0.1848151 0.10788519 0.0047891103 -0.22699507 -0.23140173 0.051975638
-0.21989247 -0.04170695 -0.16149126 0.10424238 0.09889455 0.07598616 -0.15992455 0.016663916
0.26770005 -0.11799417 -0.2547374 0.030320425 -0.16331027 -0.2655842 -0.11363757 0.022062382
-0.07660693 0.12063907 -0.20287624 0.07075481 0.201806 0.024093812 -0.04225196 -0.18312363
0.12941697 0.15371405 0.08251829 -0.049051855 0.14599001 -0.2245791 0.21238564 -0.090627976
0.18708518 0.23579329 -0.026269166 0.04521533 0.050693423 0.09066526 -0.10598008 0.21304971
-0.115050524 -0.04415049 -0.02950304 -0.070054285 0.11040914 0.0042707887 0.15217452 0.12280497
0.04648012 -0.0516751 0.18749712 0.053018868 -0.15896858 0.060491722 0.17844708 0.033364892
-0.19121179 -0.20013952 0.22266503 -0.2515476 -0.20879337 0.21529077 -0.107129924 0.110099934
0.06367222 0.22296293 0.25209948 -0.08987979 -0.17748308 -0.04078449 0.26161078 -0.11162825
-0.09059383 0.1234163 0.064628944 0.17819795 0.055995423 0.26158667 -0.10772524 -0.20238115
-0.2373974 -0.23049049 0.014870428 0.17794906 0.20843531 -0.088086426 0.1856984 -0.12843888
-0.18090278 -0.16288455 0.21848659 0.16569883 0.0072623 -0.14385939 -0.0020042679 0.29694787
-0.13066027 -0.07430534 0.23152234 0.19860902 -0.1927718 -0.0892795 0.124841064 0.10273779
-0.11055428 0.059198637 -0.19312026 0.09961618 -0.1573313 -0.17706539 -0.07651059 0.090939
0.1813874 0.20176437 0.08973321 -0.2237335 -0.11564678 0.087587334 0.14692962 -0.030873861
-0.1973709 0.0011891987 0.062356256 -0.08202177 -0.20105949 -0.017048324 0.011607297 0.12690578
0.044856936 -0.19193204 -0.22527167 -0.08971938 -0.18766834 -0.21261553 -0.15205376 0.1892313
-0.26883855 0.2545305 -0.16901198 0.030463055 -0.06861132 0.008300054 0.20942475 0.15998295
0.11235863 -0.047066998 -0.15496598 0.07955023 -0.06689564 0.058972877 0.33612594 -0.098259486
0.0700082 0.047561437 0.016821284 -0.028678155 -0.07848419 -0.092706256 -0.046342477 0.2622651
-0.12081178 0.12373552 0.21200591 -0.08229906 0.16014859 -0.101480424 0.21215905 -0.14220576
0.19821993 -0.079854794 0.189735 0.09712539 -0.0625525 0.08026554 0.25039548 0.21520421
-0.18346323 0.18656892 0.015288753 0.025966775 0.08061269 0.15796784 -0.043094993 -0.23175235
-0.00023607808 0.08980104 -0.17527828 -0.10396391 -0.11652439 0.07957903 -0.13641843 -0.20125684
-0.14938079 -0.08501807 -0.2319744 0.13654904 -0.021193445 0.1610941 0.22199254 -0.0102170855
0.032577172 0.106790744 -0.18424723 -0.20291568 -0.13315168 -0.10433462 -0.17491248 0.28023392
0.16210192 -0.14363633 -0.10536242 0.026172198 -0.25765267 -0.1332261 -0.15652904 -0.073112294
-0.21543972 -0.20089117 -0.15764737 -0.19985183 -0.00665046 -0.12047355 -0.12011222 0.053547885
0.11812616 -0.013628918 -0.077771276 0.16375175 -0.11260167 -0.19852549 -0.0020476212 0.25159174
00000000: 08f9 cb3d dfc2 acbd 885c 26bd eb40 cabd
00000010: 2ee8 753d 1e05 233e 08da 5e3d 4cd8 1c3e
00000020: d378 1a3e 1115 9fbd 6dff 59be 5ca5 063d
00000030: a365 d8bd 695e 163d ee40 92bd 810b 1d3e
00000040: c4e4 bfbd afd8 4c3d 2b40 3dbe e9f2 dc3d
00000050: f8ed 9c3b 6571 68be 93f4 6cbe 68e4 543d
00000060: 7e2b 61be e8d4 2abd f75d 25be 077d d53d
00000070: 3a89 ca3d a29e 9b3d 43c3 23be c482 883c
00000080: fb0f 893e eda6 f1bd f16c 82be 8a62 f83c
00000090: cf3a 27be a7fa 87be d0ba e8bd 2bbc b43c
000000a0: 18e4 9cbd 9e11 f73d cabe 4fbe e6e7 903d
000000b0: 3ba6 4e3e 6360 c53c 6410 2dbd c384 3bbe
000000c0: e285 043e 3767 1d3e 59ff a83d 99ea 48bd
000000d0: 687e 153e 10f8 65be 9f7b 593e 299b b9bd
000000e0: 4293 3f3e cc73 713e 6f32 d7bc b633 393d
000000f0: e8a3 4f3d b5ae b93d 160c d9bd b429 5a3e
00000100: 9c9f ebbd 25d7 34bd 5cb0 f1bc 9f78 8fbd
00000110: 301e e23d f9f1 8b3b a3d3 1b3e 2c81 fb3d
00000120: f061 3e3d 45a9 53bd 3fff 3f3e 502a 593d
00000130: a9c8 22be 2bc6 773d d5ba 363e a0a9 083d
00000140: 06cd 43be 60f1 4cbe 4d02 643e d9ca 80be
00000150: eecd 55be 2f75 5c3e ef66 dbbd 137c e13d
00000160: 9566 823d 6550 643e 2f13 813e e512 b8bd
00000170: 20be 35be a30d 27bd d9f1 853e 5a9d e4bd
00000180: 4289 b9bd afc1 fc3d 2e5c 843d 8679 363e
00000190: 755b 653d b0ee 853e 0d9f dcbd 013d 4fbe
000001a0: 4e18 73be b305 6cbe 18a3 733c 4738 363e
000001b0: 1170 553e a866 b4bd b927 3e3e 7b85 03be
000001c0: 943e 39be 35cb 26be f3ba 5f3e f4ac 293e
000001d0: 96f8 ed3b e04f 13be 095a 03bb 8d09 983e
000001e0: cecb 05be 662d 98bd 3114 6d3e 2a60 4b3e
000001f0: f965 45be 2cd8 b6bd acac ff3d 3168 d23d
00000200: 486a e2bd 457a 723d 51c1 45be 9103 cc3d
00000210: 751b 21be a150 35be 96b1 9cbd 3a3e ba3d
00000220: 9ebd 393e 529b 4e3e 0cc6 b73d 651a 65be
00000230: 38d8 ecbd fd60 b33d b874 163e 2eeb fcbc
00000240: 991b 4abe e3de 9b3a 4669 7f3d 08fb a7bd
00000250: 8ae2 4dbe eda8 8bbc 882c 3e3c 97f3 013e
00000260: e8bb 373d d589 44be 9ead 66be cbbe b7bd
00000270: 212c 40be e3b7 59be fbb3 1bbe dac5 413e
00000280: 35a5 89be d251 823e 7a11 2dbe a88d f93c
00000290: 1784 8cbd f3fc 073c 7173 563e 92d2 233e
000002a0: 481c e63d 53c9 40bd 67af 1ebe 3beb a23d
000002b0: 9500 89bd 8b8d 713d b318 ac3e 453c c9bd
000002c0: 7660 8f3d c8cf 423d cacc 893c 73ee eabc
000002d0: 52bc a0bd c7dc bdbd 9cd1 3dbd 9c47 863e
000002e0: 2b6c f7bd 0c69 fd3d 1418 593e 698c a8bd
000002f0: fefd 233e f8d4 cfbd 3940 593e 639e 11be
00000300: 2afa 4a3e e98a a3bd e449 423e ade9 c63d
00000310: 861b 80bd 4262 a43d d633 803e 7e5e 5c3e
00000320: c9dd 3bbe ec0b 3f3e ae7d 7a3c 46b8 d43c
00000330: 4418 a53d 52c2 213e 6084 30bd 7d50 6dbe
00000340: ba8b 77b9 9ce9 b73d 267c 33be 08eb d4bd
00000350: 57a4 eebd 55fa a23d 46b1 0bbe 4616 4ebe
00000360: 47f7 18be f41d aebd b28a 6dbe 83d3 0b3e
00000370: e09d adbc daf5 243e 0352 633e 9065 27bc
00000380: a46f 053d 1bb5 da3d 4eab 3cbe 21c9 4fbe
00000390: ea58 08be 64ad d5bd 421c 33be d27a 8f3e
000003a0: 0cfe 253e 6715 13be 41c8 d7bd 1467 d63c
000003b0: 0deb 83be 6c6c 08be 2649 20be e6bb 95bd
000003c0: 3b9c 5cbe 6ab6 4dbe 506e 21be f5a5 4cbe
000003d0: 1aec d9bb d6ba f6bd 65fd f5bd 0755 5b3d
000003e0: 21ec f13d d34b 5fbc 8c46 9fbd 8aae 273e
000003f0: b49b e6bd 444a 4bbe 6231 06bb a2d0 803e

GRU_a.bias_ih_l0 f4 [48]
-0.13216344 -0.2310497 0.20504873 -0.060066942 -0.20033248 0.22277755 -0.0039348747 -0.014145534
-0.111287534 -0.17543504 0.03892223 0.006521082 0.231735 0.09173525 0.24805763 -0.14001626
-0.082101524 0.18826589 -0.21201453 0.036106106 0.19377105 -0.14995581 -0.1331475 -0.08189391
-0.114254326 -0.292174 0.06690272 -0.021480344 0.08581695 0.1582944 -0.11817635 -0.02069363
-0.0030400415 -0.20018128 0.08393096 -0.23776732 -0.098231696 0.23224103 0.22196817 0.15749508
0.0106722275 -0.25380746 0.120156296 -0.1659653 -0.20296676 -0.19357912 -0.027498754 -0.0579171
00000000: da55 07be 4b98 6cbe 4bf8 513e c108 76bd
00000010: f523 4dbe cc1f 643e 1ff0 80bb abc2 67bc
00000020: b8ea e3bd 3ea5 33be eb6c 1f3d cdae d53b
00000030: f14b 6d3e b1df bb3d d202 7e3e 6c60 0fbe
00000040: d824 a8bd c6c8 403e 561a 59be ffe3 133d
00000050: eb6b 463e 048e 19be d157 08be ffb7 a7bd
00000060: 2cfe e9bd d597 95be 4b04 893d 8cf7 afbc
00000070: ccc0 af3d ed17 223e 7106 f2bd b085 a9bc
00000080: 6f3b 47bb 52fc 4cbe ffe3 ab3d 4779 73be
00000090: b32d c9bd 98d0 6d3e a04b 633e 6446 213e
000000a0: 91da 2e3c 0df3 81be 8114 f63d cff2 29be
000000b0: 85d6 4fbe 9b39 46be 1145 e1bc 7b3a 6dbd

GRU_a.bias_hh_l0 f4 [48]
0.26692358 0.039796278 0.049872346 0.18886061 -0.21232061 0.018267348 -0.0082343 0.24894294
-0.13571487 0.035150763 -0.024148589 0.13398685 0.07440627 -0.054756723 -0.06950877 -0.25122687
-0.23671563 -0.03715285 -0.19513339 -0.1393132 -0.20087577 -0.25528795 -0.15365812 0.20250164
-0.17678525 0.100883245 -0.045411505 0.10633511 -0.14932336 -0.1076714 -0.1773739 -0.109899856
-0.08011461 0.20776151 0.027773816 0.15704915 -0.20150812 -0.100790605 0.060995243 -0.07964793
0.1190736 -0.043988038 0.17316805 -0.11247785 0.16653717 0.15696041 -0.1818736 -0.117788345
00000000: 35aa 883e 6c01 233d f246 4c3d ad64 413e
00000010: 936a 59be 68a5 953c 28e9 06bc e6ea 7e3e
00000020: d7f8 0abe 3ffa 0f3d 43d3 c5bc d933 093e
00000030: 5162 983d 9648 60bd 9d5a 8ebd cfa0 80be
00000040: 9565 72be 962d 18bd 0cd1 47be 1fa8 0ebe
00000050: 61b2 4dbe 1ab5 82be 8e58 1dbe 975c 4f3e
00000060: 3107 35be e09b ce3d 6a01 3abd 39c6 d93d
00000070: 39e8 18be d382 dcbd 81a1 35be 2d13 e1bd
00000080: 2113 a4bd 6fbf 543e ea85 e33c 7ed1 203e
00000090: 2558 4ebe 4e6b cebd 26d6 793d 741e a3bd
000000a0: dcdc f33d cd2c 34bd f752 313e c95a e6bd
000000b0: b888 2a3e 3bba 203e 133d 3abe 043b f1bd

linear_a.weight f4 [4, 16]
0.1230942 0.21538572 -0.048339058 -0.24797007 0.07762259 0.17053555 -0.2211159 0.048365057
0.17634252 0.21577656 0.21090195 0.3754133 -0.11128503 0.21733475 0.022184076 0.17636277
-0.055874467 -0.3581719 0.21521413 0.14396292 0.24590145 -0.29576126 0.07867481 -0.28773904
-0.3568782 0.0041148365 -0.13303593 -0.16124292 0.13698348 -0.04684561 -0.38457957 0.084712334
-0.22361526 -0.1687274 0.17937365 -0.06284034 0.10633525 -0.21427985 0.047819246 -0.34417343
-0.3181665 -0.12854329 -0.0766117 -0.25288162 0.0984934 0.013116664 -0.22730236 -0.14965023
-0.07702476 -0.06331196 0.1170445 -0.17769009 -0.09587522 0.13642594 0.3009111 0.24174446
0.32242945 0.014723867 0.27325878 0.1370524 0.22171554 -0.21164463 0.25866073 -0.09772886
00000000: d018 fc3d 138e 5c3e 2dff 45bd deeb 7dbe
00000010: 98f8 9e3d dfa0 2e3e 356c 62be 701a 463d
00000020: 2293 343e 88f4 5c3e aef6 573e 2c36 c03e
00000030: 68e9 e3bd 008d 5e3e 61bb b53c 7198 343e
00000040: a0dc 64bd 4f62 b7be 1861 5c3e 046b 133e
00000050: 97cd 7b3e 056e 97be 4220 a13d 8852 93be
00000060: bdb8 b6be c0d5 863b 923a 08be dd1c 25be
00000070: 6645 0c3e 2fe1 3fbd 9de7 c4be a97d ad3d
00000080: 66fb 64be e0c6 2cbe baad 373e 70b2 80bd
00000090: 4cc6 d93d 2d6c 5bbe 1dde 433d 8037 b0be
000000a0: b8e6 a2be daa0 03be 98e6 9cbd b379 81be
000000b0: e8b6 c93d 47e7 563c f3c1 68be e93d 19be
000000c0: 28bf 9dbd b3a9 81bd 07b5 ef3d 64f4 35be
000000d0: 3a5a c4bd 3eb3 0b3e 0511 9a3e dc8b 773e
000000e0: 7915 a53e 603c 713c 93e8 8b3e 7757 0c3e
000000f0: 6609 633e 5fb9 58be 2e6f 843e 1226 c8bd

linear_a.bias f4 [4]
0.12857738 0.08194953 -0.22227831 -0.08799264
00000000: caa9 033e 28d5 a73d ed9c 63be 7c35 b4bd

conv_v_0.weight f4 [16, 7, 3, 3]
-0.112472214 0.017716357 -0.118792005 -0.097159795 -0.08988736 -0.003482938 -0.0711713 -0.012744222
0.07962958 0.04508237 -0.06875327 0.007356564 -0.032045428 -0.19573988 -0.094200656 -0.1437267
0.013881815 -0.07246997 -0.04758576 -0.09353283 -0.22566368 0.13450265 -0.11356837 -0.027017703
-0.11921388 0.049542863 0.015476838 -0.15541227 -0.09555959 0.039530944 0.06945165 -0.017642807
0.0962972 -0.09556678 0.05874057 0.047977246 0.11328831 0.09173952 0.0029929068 -0.09058956
0.08990463 -0.07393528 0.0508205 0.053206045 -0.045728818 0.019845216 0.07338913 -0.017995672
0.102535985 -0.013252523 0.101634115 0.05997689 0.0054635988 0.04869294 -0.05513607 -0.0033129402
0.12753245 0.0751342 0.09968479 -0.10888386 -0.05067685 0.080157764 0.06820935 -0.055726796
0.010776221 -0.031908896 0.18027179 -0.0037818425 -0.01284061 -0.17610405 0.04028206 -0.06298246
-0.043977734 -0.08349257 0.14221622 0.020538477 0.07964866 -0.09215387 0.026597084 0.090590425
-0.032354806 -0.18559939 0.029558918 0.019520342 0.11118651 0.11263126 0.14408608 0.2071549
0.13548343 0.023195146 -0.054100346 -0.09809918 -0.024591088 0.0016745065 -0.124325134 -0.14689331
-0.008508926 -0.11218744 0.062469218 -0.044683445 -0.029971782 -0.027863458 0.0051489477 -0.08939364
-0.06530521 -0.089789376 -0.08520137 0.078367904 0.14327468 0.08964903 0.16920103 0.13629244
-0.04737751 0.010223915 0.0558697 0.040466167 0.08105939 -0.17050232 -0.020908698 -0.19234866
-0.112023674 0.01638691 -0.21407384 0.026955333 -0.08026397 -0.036306903 -0.094751544 0.08133499
0.11304394 0.0067359465 -0.096568294 0.098172195 0.09658466 0.045852736 0.13237774 0.029726753
-0.04733503 0.07066867 -0.025065187 0.03440919 0.09130663 -0.0076701315 -0.033366684 -0.02883953
-0.18984054 0.0392885 0.02547482 -0.09068059 0.054150756 0.078511134 -0.17894787 0.05502509
-0.011617036 0.13813148 -0.019368524 0.13236843 -0.050896406 0.030214205 0.011578529 0.13848837
0.06633644 -0.06335345 -0.16616964 -0.09016794 -0.13121991 -0.19718978 0.022697326 -0.050108332
-0.08442321 -0.20466635 -0.13104333 0.12203702 0.13665645 -0.023900222 0.089584455 -0.045804854
-0.051020794 -0.008294021 -0.10587499 0.03141498 -0.080789596 -0.13475892 0.048701864 0.005914252
0.008783369 0.04585651 -0.13284053 0.06569621 -0.10693953 -0.012718346 -0.12862058 0.00016888804
-0.10803432 0.08702892 0.07700978 0.013215774 -0.18845922 -0.08630882 0.03354563 -0.13879937
0.09714988 0.04304166 -0.05218334 0.081550464 -0.016900199 0.1026125 0.047457222 -0.094187096
-0.052773517 -0.1102968 -0.03866655 -0.0057406477 0.060173307 0.013202928 0.025083376 0.15369616
-0.1501401 -0.065927416 -0.09632216 -0.13920161 -0.07701087 -0.059995595 -0.1425567 0.010065739
-0.04184127 -0.074388765 -0.18210766 -0.10123676 -0.09604859 -0.17238593 -0.19214869 -0.14056136
-0.10698013 -0.11938174 0.14021996 -0.0960635 0.11127911 -0.032801047 -0.045479584 -0.022798616
-0.08504736 0.053928807 0.06508206 0.0061294893 0.116256095 -0.02210614 0.0888697 -0.076277874
0.086328536 0.09861785 -0.09173416 -0.12805454 0.01744208 0.1322278 -0.057847265 0.05162825
00000000: d557 e6bd e521 913c 3949 f3bd b7fb c6bd
00000010: dd16 b8bd 0142 64bb 42c2 91bd 24cd 50bc
00000020: d514 a33d 4ba8 383d 84ce 8cbd 550f f13b
00000030: 1142 03bd 0970 48be 46ec c0bd 182d 13be
00000040: 8d70 633c 236b 94bd 49e9 42bd 248e bfbd
00000050: 6114 67be 10bb 093e 8996 e8bd 3b54 ddbc
00000060: 6826 f4bd 75ed 4a3d 9092 7d3c 6524 1fbe
00000070: bfb4 c3bd 33eb 213d ab3c 8e3d a687 90bc
00000080: 7737 c53d 84b8 c3bd f499 703d ca83 443d
00000090: b403 e83d eee1 bb3d a524 443b 0587 b9bd
000000a0: eb1f b83d 616b 97bd 2829 503d 95ee 593d
000000b0: 244e 3bbd 6f92 a23c 0a4d 963d a96b 93bc
000000c0: 63fe d13d 1c21 59bc 8c25 d03d 54aa 753d
000000d0: fd07 b33b 4072 473d 5cd6 61bd ea1d 59bb
000000e0: de97 023e f6df 993d 8a27 cc3d 80fe debd
000000f0: 8792 4fbd c129 a43d 58b1 8b3d c841 64bd
00000100: bf8e 303c e7b2 02bd 2b99 383e cad8 77bb
00000110: 6c61 52bc 9f54 34be cdfe 243d f3fc 80bd
00000120: ff21 34bd 27fe aabd 21a1 113e 4f40 a83c
00000130: d61e a33d 2bbb bcbd 21e2 d93c 7987 b93d
00000140: 7986 04bd c40d 3ebe 8b25 f23c 20e9 9f3c
00000150: c1b5 e33d 38ab e63d 4d8b 133e 6a20 543e
00000160: 2bbc 0a3e bf03 be3c 5398 5dbd 39e8 c8bd
00000170: 4073 c9bc 1d7b db3a 2d9e febd 336b 16be
00000180: 0669 0bbc 87c2 e5bd b9df 7f3d fd05 37bd
00000190: 6287 f5bc e841 e4bc 81b8 a83b 0314 b7bd
000001a0: bdbe 85bd 7ee3 b7bd 0e7e aebd 5a7f a03d
000001b0: 99b6 123e e999 b73d 0943 2d3e 3f90 0b3e
000001c0: ec0e 42bd 3582 273c a0d7 643d dabf 253d
000001d0: 7702 a63d 2998 2ebe b848 abbc 0cf7 44be
000001e0: ab6c e5bd d73d 863c 2c36 5bbe 6ed1 dc3c
000001f0: 7061 a4bd 8cb6 14bd 190d c2bd f692 a63d
00000200: 9583 e73d 37b9 dc3b 99c5 c5bd 810e c93d
00000210: 2ece c53d 14d0 3b3d 088e 073e 8585 f33c
00000220: 60e2 41bd bcba 903d 8255 cdbc a7f0 0c3d
00000230: f8fe ba3d ba55 fbbb 81ab 08bd e140 ecbc
00000240: 8f65 42be faec 203d 92b0 d03c bfb6 b9bd
00000250: 2fcd 5d3d 72ca a03d 1c3e 37be fd61 613d
00000260: 6155 3ebc 5772 0d3e bdaa 9ebc 978b 073e
00000270: c078 50bd c883 f73c dfb3 3d3c e5cf 0d3e
00000280: 66db 873d 74bf 81bd 6028 2abe f8a9 b8bd
00000290: 835e 06be 1eec 49be beef b93c 653e 4dbd
000002a0: 13e6 acbd 0e94 51be 3930 06be 8cee f93d
000002b0: abef 0b3e 66ca c3bc 0e78 b73d df9d 3bbd
000002c0: 2efb 50bd a5e3 07bc fdd4 d8bd feac 003d
000002d0: 0475 a5bd 3efe 09be 9b7b 473d 57cc c13b
000002e0: 1fe8 0f3c 09d4 3b3d 5907 08be bc8b 863d
000002f0: 1d03 dbbd 9c60 50bc 1db5 03be 8a17 3139
00000300: 1941 ddbd 383c b23d 4eb7 9d3d f986 583c
00000310: 74fb 40be aec2 b0bd 2467 093d 6c21 0ebe
00000320: 84f6 c63d 744c 303d 33be 55bd ee03 a73d
00000330: 4972 8abc 8126 d23d 8162 423d 2ae5 c0bd
00000340: 0b29 58bd 4ae3 e1bd d160 1ebd 0b1c bcbb
00000350: 4978 763d 1851 583c a77b cd3c 8762 1d3e
00000360: 54be 19be f404 87bd 8d44 c5bd de8a 0ebe
00000370: e0b7 9dbd f1bd 75bd 62fa 11be c5ea 243c
00000380: c061 2bbd 2359 98bd 6e7a 3abe 3855 cfbd
00000390: 20b5 c4bd f085 30be a0c2 44be 51ef 0fbe
000003a0: 6618 dbbd 6a7e f4bd d295 0f3e f1bc c4bd
000003b0: 4de6 e33d 645a 06bd cd48 3abd 2ac4 babc
000003c0: 4f2d aebd 74e4 5c3d be49 853d e2d9 c83b
000003d0: ad17 ee3d f017 b5bc 5101 b63d 9337 9cbd
000003e0: 04cd b03d 28f8 c93d 1fdf bbbd bb20 03be
000003f0: b1e2 8e3c b966 073e 41f1 6cbd 2578 533d

conv_v_0.bias f4 [16]
0.08041132 -0.062994115 0.029331887 0.12481373 0.07736668 -0.112186834 0.012723749 0.038654696
0.10101806 -0.005942335 -0.0142952865 0.004097365 -0.058214948 0.10615128 0.045184482 -0.07989977
00000000: b1ae a43d 0f03 81bd 6d49 f03c 579e ff3d
00000010: 6c72 9e3d 36c2 e5bd 4577 503c 6354 1e3d
00000020: 8fe2 ce3d ebb7 c2bb c736 6abc 3043 863b
00000030: cc72 6ebd d865 d93d 5d13 393d 7ea2 a3bd

conv_v_1.weight f4 [16, 16, 3, 3]
-0.09067155 -0.06855877 -0.026638739 -0.10515785 -0.032590844 -0.019369276 -0.062038165 -0.049417134
0.034392647 0.060611103 0.017741127 0.054004777 -0.019133069 0.05970731 0.11495129 0.13638055
0.14906223 -0.016046483 -0.034068454 0.021836305 0.1184827 0.015111403 0.14318822 0.0751005
-0.0012119994 0.0811909 0.08185209 0.10902219 0.00023087421 0.074455425 0.022524472 0.09709075
0.07102044 0.12638447 0.06521872 0.07599899 0.03309529 0.016960394 0.12485215 0.07227519
0.00790231 -0.03550759 0.10557185 0.06250897 0.09508196 -0.0076157674 -0.00867518 -0.04703715
-0.020422248 0.029189492 -0.011413909 0.08646951 0.076024756 0.07230353 0.032056686 0.06529115
-0.063337654 0.12877744 0.07725534 -0.03383835 -0.038679488 0.032160398 -0.007276496 0.046272945
0.12204021 0.07991827 0.08598257 0.11562893 0.11870561 0.17511003 0.1217814 0.047980785
0.10897249 0.046847887 0.042368677 -0.049698003 -0.042972308 0.08181812 -0.0019811648 0.017865753
-0.02507566 0.12627472 0.055597857 0.079613045 0.048635308 0.119858764 0.14851788 0.23133002
0.06329154 0.038310822 0.04162975 -0.025159935 0.03764549 -0.01499342 0.0046411576 0.05682802
-0.0045649526 0.012535037 0.058341753 0.08253026 0.10141025 -0.011568446 0.08639171 0.12855203
0.0015127709 0.0005538376 0.0036396699 -0.048633352 0.063100345 0.034179978 -0.06736533 0.015156022
0.03725473 -0.03431005 -0.024199685 0.015904007 0.14010262 0.010625478 0.1265077 0.04358401
0.106106095 0.07774212 0.10149298 0.04025293 0.0056096297 0.02805063 0.025612436 0.034311008
0.11175938 0.10185335 0.014818565 0.15960169 -0.013467307 0.07901832 0.04032745 -0.045180358
-0.03203422 0.021308597 0.10640667 -0.041437443 -0.063588426 0.063832685 0.07520598 -0.019236404
-0.08719206 -0.051248603 -0.08353757 0.06156004 0.119408935 0.037998438 -0.058762714 -0.015869632
0.05807882 0.030471867 0.014206545 -0.106188804 0.11767009 -0.02074944 0.08901562 -0.032234978
-0.0549189 -0.023305055 -0.031909212 0.061717298 0.012527959 -0.029036406 -0.08089319 -0.022665251
-0.046961546 -0.051345564 -0.009178359 0.051962767 -0.055944152 0.06270543 -0.0068224734 0.037957016
-0.043551967 -0.10826178 0.028045243 0.009271618 0.111876674 0.075264476 -0.013671146 0.021391986
0.0990689 0.025362113 -0.09319207 -0.09266758 0.06570896 -0.05174332 -0.04146952 0.057666082
-0.04772037 -0.00070446695 -0.0071230037 0.00641043 -0.12445255 -0.00856844 -0.013500858 -0.076331854
0.073371865 -0.06904739 -0.09979904 0.020482264 0.1252475 0.13937052 0.009546593 0.016338693
0.09200781 -0.045892127 0.12540956 0.08809662 0.11277686 0.07867296 0.087976426 0.07364099
0.07991481 0.030237164 -0.016897088 0.06149395 0.07327883 0.060229145 -0.051107164 -0.045252755
0.099459186 -0.064060174 0.10858574 0.023182046 0.10319206 0.08598086 -0.031689752 0.01970062
0.03006386 -0.028354868 -0.018586129 0.00927326 -0.08425639 -0.0100274095 0.0038938597 -0.013474086
-0.010966538 -0.030356647 0.0582721 0.019880604 0.12303027 0.059805542 0.0749456 0.092670225
-0.04471396 -0.017740509 0.012992725 -0.015966628 0.054448836 0.049565606 -0.06905071 -0.10028155
00000000: 01b2 b9bd 8a68 8cbd 7c39 dabc 005d d7bd
00000010: fa7d 05bd 51ac 9ebc bb1b 7ebd 9f69 4abd
00000020: 4edf 0c3d 5943 783d d755 913c 1d34 5d3d
00000030: f4bc 9cbc a78f 743d 956b eb3d 58a7 0b3e
00000040: c5a3 183e ea73 83bc 5d8b 0bbd 0de2 b23c
00000050: 0fa7 f23d d195 773c ef9f 123e 4ace 993d
00000060: f4db 9eba 6a47 a63d 12a2 a73d 0747 df3d
00000070: d316 7239 167c 983d 3e85 b83c 84d7 c63d
00000080: 2a73 913d ee6a 013e 6491 853d 5ca5 9b3d
00000090: ed8e 073d 86f0 8a3c 7cb2 ff3d 0405 943d
000000a0: b178 013c 6870 11bd 0e36 d83d b404 803d
000000b0: 55ba c23d b08d f9bb 5822 0ebc 07aa 40bd
000000c0: 8f4c a7bc cd1e ef3c 6701 3bbc ed16 b13d
000000d0: deb2 9b3d e013 943d df4d 033d 5eb7 853d
000000e0: 2cb7 81bd 3cde 033e 0c38 9e3d 159a 0abd
000000f0: 626e 1ebd 9fba 033d ac6f eebb b388 3d3d
00000100: 38f0 f93d 31ac a33d a117 b03d dcce ec3d
00000110: ed1b f33d 0b50 333e 8768 f93d 8087 443d
00000120: f82c df3d 92e3 3f3d c78a 2d3d 2290 4bbd
00000130: bb03 30bd 4290 a73d 6ed6 01bb 335b 923c
00000140: 786b cdbc 294e 013e 94ba 633d 2a0c a33d
00000150: d135 473d 8378 f53d 1215 183e c7e1 6c3e
00000160: ff9e 813d cfeb 1c3d f583 2a3d 351c cebc
00000170: 2832 1a3d f6a6 75bc da14 983b 7fc4 683d
00000180: 9995 95bb c15f 4d3c c3f7 6e3d a005 a93d
00000190: 2db0 cf3d 9489 3dbc 23ee b03d 25a3 033e
000001a0: 2b48 c63a 6a2f 113a 8787 6e3b c433 47bd
000001b0: c13a 813d 4e00 0c3d d6f6 89bd f750 783c
000001c0: 6a98 183d b288 0cbd 6b3e c6bc 1f49 823c
000001d0: 1077 0f3e 7c16 2e3c 3c8b 013e 2685 323d
000001e0: 274e d93d 4337 9f3d 8ddb cf3d 42e0 243d
000001f0: fcd0 b73b 6fca e53c 2cd1 d13c b389 0c3d
00000200: 1ae2 e43d 7d98 d03d 91c9 723c a06e 233e
00000210: fba5 5cbc 5bd4 a13d 652e 253d 0a0f 39bd
00000220: 5036 03bd 5e8f ae3c bdeb d93d 4fba 29bd
00000230: a63a 82bd b6ba 823d 9805 9a3d aa95 9dbc
00000240: c091 b2bd 0eea 51bd bf15 abbd 6126 7c3d
00000250: ac8c f43d 40a4 1b3d 2cb1 70bd 0801 82bc
00000260: 0fe4 6d3d 23a0 f93c 92c2 683c 8479 d9bd
00000270: 04fd f03d bbfa a9bc d24d b63d d308 04bd
00000280: a4f2 60bd 3eea bebc 3cb3 02bd 47cb 7c3d
00000290: 1242 4d3c c2dd edbc 54ab a5bd 7aac b9bc
000002a0: c05a 40bd ba4f 52bd d460 16bc e9d6 543d
000002b0: b225 65bd b46b 803d 0e8f dfbb d178 1b3d
000002c0: 8c63 32bd 5ab8 ddbd 23bf e53c fce7 173c
000002d0: 991f e53d 4324 9a3d f1fc 5fbc 3f3e af3c
000002e0: a3e4 ca3d 35c4 cf3c 7cdb bebd 80c8 bdbd
000002f0: 6b92 863d cef0 53bd f2db 29bd 4533 6c3d
00000300: 6f76 43bd faab 38ba 1668 e9bb 960e d23b
00000310: fbe0 febd a462 0cbc b432 5dbc e053 9cbd
00000320: fd43 963d b868 8dbd 7063 ccbd 6cca a73c
00000330: e140 003e 25b7 0e3e 5069 1c3c b9d8 853c
00000340: 976e bc3d 62f9 3bbd 5d6b 003e 006c b43d
00000350: 8ef7 e63d 4a1f a13d fc2c b43d 16d1 963d
00000360: 60aa a33d eeb3 f73c c36b 8abc 15e1 7b3d
00000370: 3613 963d d6b2 763d bf55 51bd f45a 39bd
00000380: 42b1 cb3d fb31 83bd 3362 de3d 46e8 bd3c
00000390: 5c56 d33d bc16 b03d 1dcd 01bd 3263 a13c
000003a0: 7c48 f63c 7848 e8bc f041 98bc dfee 173c
000003b0: 9d8e acbd 014a 24bc 2030 7f3b 6ac2 5cbc
000003c0: ffac 33bc 81ae f8bc baae 6e3d a6dc a23c
000003d0: 4bf7 fb3d a8f6 743d 147d 993d e3c9 bd3d
000003e0: fc25 37bd 8b54 91bc 70df 543c 72cc 82bc
000003f0: be05 5f3d 4e05 4b3d 756a 8dbd 6a60 cdbd

conv_v_1.bias f4 [16]
0.12461653 0.08044105 0.07680155 -0.061764557 0.089863695 0.07299597 0.057120193 0.073059544
0.045346536 -0.016578507 0.006618108 -0.030982677 0.059931695 -0.016002908 0.03930244 0.019863533
00000000: f436 ff3d 47be a43d 224a 9d3d d5fc 7cbd
00000010: 750a b83d e97e 953d ddf6 693d 3ea0 953d
00000020: 4abd 393d a6cf 87bc b7dc d83b 62cf fdbc
00000030: f07a 753d 8818 83bc 98fb 203d d9b8 a23c
