league/checkpoints/mfos_seeds/new_self_3x3_45/400_0.pth (torch, 300942 bytes, 105 tensors)

conv_a_0.weight f4 [16, 7, 3, 3]
000000 b6 b5 bd be 3b 6c 31 3e b9 1f dd bd ef a5 9a 3e
       -0.37052697 0.17326443 -0.10797066 0.30204722
000010 c8 c6 cb bd 6e dd 09 bc 92 a1 09 3e f3 06 18 3e
       -0.09950024 -0.008414609 0.1344054 0.14846401
000020 11 7d 1d 3e d5 1f 89 bc 0d b1 fc bd 3e 7b dc 3b
       0.1537974 -0.016738812 -0.12338457 0.006728559
000030 56 e3 5e bd d9 99 43 3d dd d3 97 3d 1a 7e 6c 3d
       -0.054416023 0.047754142 0.074134566 0.057737447
000040 a5 2d 19 3e b0 4e f2 3c f0 62 25 3e a4 4b 9d 3e
       0.14958818 0.029578537 0.16151023 0.30721772
000050 21 ae 12 be 59 d8 71 3d 17 1d 5d be ac 9f 69 3e
       -0.14324237 0.059044216 -0.21593128 0.22814816
000060 dd 30 27 bd 7e 62 66 3e 8c d1 95 bd 42 ab bf 3d
       -0.040818084 0.2249851 -0.073153585 0.09358837
000070 4f c7 43 be 06 05 51 be 59 ce aa 3d f9 4c bd 3a
       -0.19118999 -0.20412073 0.08340139 0.0014442495
000080 8f f3 1e 3e 94 f9 9a bc 0b 71 95 bd 79 bd 6b be
       0.15522598 -0.018917836 -0.07296952 -0.23021497
000090 9b 6e 36 3d f9 30 92 bd 74 a4 e2 bd 21 de 7d bb
       0.044539075 -0.07138247 -0.11066523 -0.0038737135
0000a0 93 82 ef bc e2 5e fb bd 1c f7 44 3d ff a2 d7 bd
       -0.029237067 -0.12273957 0.048087224 -0.10529136
0000b0 aa ae 00 be 11 ea bf bd 1a 2e e7 bb b5 d7 2c 3c
       -0.12566629 -0.093708165 -0.0070550563 0.010549475
0000c0 24 ee c9 bd bf 3d 01 3d 4f ba 5c bd 23 81 4b bd
       -0.09859875 0.031553026 -0.053888615 -0.0496837
0000d0 00 76 c2 3c 30 2b f0 3c bb d7 4a be b0 c0 e2 3b
       0.023737907 0.029317468 -0.19808857 0.006919943
0000e0 ec ec 0b be 57 74 ae bd d0 53 98 bd da df 11 bc
       -0.13664597 -0.08518284 -0.07437861 -0.008903468
0000f0 a5 bb 1a bc 33 04 fc bc b2 7a 11 be 2a a3 02 bd
       -0.009444152 -0.030763721 -0.14206961 -0.031893887
000100 56 b8 db 3d cf 54 2c 3c 1d d9 80 bc 27 4f 33 3d
       0.10728519 0.010518267 -0.015728528 0.043776657
000110 79 42 79 be e6 7b a9 bd 1e 03 03 be 98 22 74 bb
       -0.24341764 -0.08275585 -0.12794158 -0.0037252065
000120 f1 67 ec bd c0 0d 59 bd 32 ef e0 bc fc 65 1b 3e
       -0.11543263 -0.05299163 -0.027457807 0.15175623
000130 27 0d d2 3c 19 1b ee 3c 5c 91 c3 bd 45 59 4f bd
       0.025641037 0.029065656 -0.095492095 -0.050622243
000140 b7 90 93 bd 52 f1 8f 3d 53 5a 5a bd 67 4c f2 3d
       -0.072053365 0.0702845 -0.053308796 0.11830979
000150 98 e8 2b bd 10 f8 c6 3d 9f 13 23 3d 37 9b 8c bd
       -0.041969866 0.09715283 0.039813634 -0.068655424
000160 d0 08 8e be 87 9d 19 be 2c c8 88 bd b3 39 e7 bd
       -0.27741098 -0.15001498 -0.06678805 -0.11290302
000170 34 b0 32 3e 5c f2 74 bd ae 47 e6 bd 19 ae e7 3b
       0.17450029 -0.059801444 -0.112441406 0.0070703146
000180 79 52 6a be 27 05 25 be 08 40 81 be 58 1f 15 3e
       -0.22883023 -0.16115247 -0.25244164 0.14562738
000190 fd aa 2d bd 65 aa a2 3c 50 37 3f bd f9 3c 26 3c
       -0.042399395 0.019856641 -0.04668361 0.010146373
0001a0 d4 d8 21 bd 19 be 7a bd ea b8 a5 3d 46 bb a7 3c
       -0.039513424 -0.061216448 0.0809191 0.020475041
0001b0 78 c0 d9 bd 08 22 b6 bd d7 da c3 bd 6c 1c 16 be
       -0.106324136 -0.0889321 -0.09563225 -0.1465928
0001c0 4d 30 4b 3d 8f 2c ec bd bf 93 63 3c 4c f5 80 bd
       0.04960661 -0.115319364 0.013890206 -0.06296787
0001d0 9a 0d 37 be 88 5a ee 3b 0d a0 69 bc 3a 37 c6 3d
       -0.17876282 0.0072739758 -0.0142593505 0.096785024
0001e0 7c cc 17 3d a5 3c 89 3c 37 26 f2 bd 29 39 71 3d
       0.037060246 0.01675255 -0.11823695 0.058892403
0001f0 f8 f8 ca 3c 54 3f 04 3e 55 1f 8c be a0 0a 9e 3e
       0.02477692 0.12914783 -0.27367654 0.3086748
000200 17 2e e5 bd ce 59 a6 be cd 60 71 3e f9 05 15 bc
       -0.111904316 -0.3249039 0.23572083 -0.009095662
000210 8d 9c 4f be 5c 62 93 3e 7b b4 8b 3d 0d f7 9d 3d
       -0.20274563 0.2878598 0.06821533 0.07713137
000220 83 73 92 3d d5 48 af bd 86 4d f9 3d 79 c3 be 3d
       0.07150938 -0.085588135 0.121729895 0.09314627
000230 d7 87 53 bd 4f 6a a3 3d 48 41 d6 3d 6b 3c 69 bc
       -0.05164322 0.07979261 0.1046167 -0.014235596
000240 14 3c b2 bd e6 b0 ad be 23 1e a2 3c e2 3b 4e 3e
       -0.08702865 -0.33924025 0.019789761 0.20140031
000250 73 69 b6 be 0e e1 84 3d dc 48 3d 3e 3f b6 b6 be
       -0.35627326 0.06488238 0.18484825 -0.35685918
000260 db ce ae 3d 13 e2 90 3e 17 ec 2e bd 97 14 07 bd
       0.08535548 0.2829748 -0.04270562 -0.03297862
000270 4f fc d6 3c e2 e0 66 be ae 8f 2f ba da 31 79 3e
       0.026243357 -0.22546723 -0.000669713 0.24335423
000280 46 b4 a6 be 53 b6 94 3d c9 64 5b 3d d8 b1 27 3d
       -0.32559413 0.07261338 0.053562913 0.04094109
000290 c8 f3 c8 3d 49 a9 f8 3a 1d 18 0d 3d 9c 25 15 bd
       0.098121226 0.0018971349 0.034446824 -0.03641282
0002a0 40 11 a2 3d f0 d0 18 be 09 27 5d bd 59 b7 06 3e
       0.079134464 -0.14923453 -0.053992305 0.13155879
0002b0 19 c6 20 3e 09 f1 40 3e 9b 3d 48 bd 24 c5 13 3e
       0.15700568 0.18841948 -0.048886877 0.14430672
0002c0 4f 10 df 3d cf 62 2d 3e 9d 78 89 3c 16 97 06 3e
       0.108917825 0.16932224 0.016781146 0.13143572
0002d0 23 b7 67 bd 37 0a d8 bd 26 28 dc 3d 0b bf 65 bd
       -0.056571137 -0.10548823 0.10749845 -0.056090396
0002e0 b6 f6 30 3d 9f fe cd 3d d7 82 68 3d ab fd fa bd
       0.043204032 0.10058331 0.056765404 -0.122554146
0002f0 d7 1c 5e 3d 9e 8e 8d bd d4 80 23 3c 95 fe ed 3c
       0.054226723 -0.06911968 0.0099794455 0.029052058
000300 78 2f b7 bd 9c 4e 8f bc e1 f2 1c 3e b8 99 ea bd
       -0.08944601 -0.017493539 0.15327026 -0.11455101
000310 06 c2 3f be a5 c9 83 3d 2c f9 99 bc fb 8a f4 3d
       -0.18726358 0.06434945 -0.018795572 0.11940571
000320 13 68 38 be f1 88 32 be 99 fb 8c 3d 5c b6 0e be
       -0.18008451 -0.17435052 0.06883926 -0.13936752
000330 4c 35 4e bd 7a d1 63 3d e9 0b 76 3d c7 91 d4 3d
       -0.050343797 0.055619694 0.060069952 0.10379367
000340 2f 98 87 bd c3 67 56 3b 66 b4 a1 3d fa 72 d0 bd
       -0.066208236 0.0032715655 0.078957364 -0.1017818
000350 4b 8d 44 3d f2 1b 52 3d 00 96 04 be af 2f 1f be
       0.04798631 0.051296182 -0.12947845 -0.15545534
000360 e0 7c e0 bd 2c 0d 2c 3e 26 0e 11 be d0 12 38 3c
       -0.10961318 0.168019 -0.14165553 0.011234954
000370 ca 59 9c 3d 45 a3 89 3d e6 8c 3d 3d ec e8 a4 3c
       0.076343134 0.06720594 0.04627695 0.020130597
000380 93 37 03 bd 30 a5 01 3e 98 b5 28 bd 26 40 f6 ba
       -0.03203542 0.1266067 -0.041188806 -0.0018787428
000390 4c f2 78 bd fa ee c4 3d 89 26 88 3d c9 92 e4 3c
       -0.060777947 0.09615894 0.06647975 0.027902024
0003a0 ec 7a 83 bc e7 84 19 3e cf ae cc 3d 26 53 6a 3d
       -0.016049825 0.14992104 0.099942796 0.057208203
0003b0 00 d1 d3 bc c2 c2 b9 bd d1 22 b5 bd 2c e4 1a bd
       -0.025856495 -0.0907035 -0.08844531 -0.037815258
0003c0 aa 82 16 be 96 05 ef bd 6d cf 11 bd d3 97 33 bd
       -0.14698282 -0.11670987 -0.035598207 -0.043845963
0003d0 a8 d7 93 3d 02 c1 38 3c ed 2b 52 bc 0f d5 a1 3c
       0.072188675 0.011276485 -0.012827856 0.019754915
0003e0 d7 bb 9a 3d 6a cb a1 bd 5f e4 9b 3d 9a 6f ea 3d
       0.07555359 -0.07900126 0.07611918 0.114470676
0003f0 03 79 65 bd d5 7c 82 3e 47 15 22 be 2b 8f 37 be
       -0.05602361 0.25485864 -0.15828429 -0.17925708

conv_a_0.bias f4 [16]
000000 d3 cf a6 bb 23 31 a2 3d 77 ad 6a bd 01 a5 2e 3d
       -0.0050906925 0.07919528 -0.057294335 0.04263783
000010 70 c5 f1 bc 05 90 26 3d 4a 1c 5f 3d a2 bd c0 bd
       -0.02951309 0.04066469 0.054470338 -0.094111696
000020 38 4c 8a bd 60 2e 68 3c b9 06 c1 bc b0 3a b5 bd
       -0.06752819 0.014171213 -0.023562776 -0.088490844
000030 a1 5c 62 bd c1 83 ec bd 4e be 93 3c 79 a2 58 bd
       -0.05526412 -0.115485676 0.01803508 -0.05288932

conv_a_1.weight f4 [16, 16, 3, 3]
000000 fa f4 18 3e b7 8d 5a bd fd 16 e4 bb 9c 25 bd bc
       0.14937201 -0.053357806 -0.006960748 -0.023089223
000010 b5 19 36 3e ae 49 24 3e 37 3f 27 3e 75 c5 aa 3d
       0.17783244 0.16043732 0.16332708 0.08338443
000020 80 68 ca 3d b8 ab 97 3d 95 6c 26 3e 17 54 40 3c
       0.09883213 0.074057996 0.16252358 0.011738799
000030 8e 32 85 3d ea 49 19 3d be 89 da 3c 88 ad 18 3a
       0.06503783 0.037424006 0.026677009 0.0005824198
000040 52 9e 94 3d c7 27 c2 bc ba ed 5d bc 1c 7e f0 bb
       0.0725676 -0.023700608 -0.013545448 -0.007339252
000050 0b d9 06 3d 14 8a d6 bc b9 15 a3 3d 36 73 3e 3d
       0.032921832 -0.026188888 0.07963128 0.046496592
000060 bd c9 7d bd 05 52 9d bb 51 d7 a6 bd 28 d1 51 bc
       -0.06195997 -0.0048010373 -0.08146537 -0.012806214
000070 be 89 a9 3d 82 6c 14 bd b3 38 3f bd f8 41 c3 3c
       0.08278225 -0.036236294 -0.046684932 0.023835167
000080 35 a8 33 b9 4e d2 a6 3d 16 72 3b 3e 71 5d e8 3d
       -0.00017133432 0.08145581 0.18305239 0.113459475
000090 96 29 65 bd 59 a9 47 3d 14 df 1c bc c5 32 6f 3c
       -0.055947863 0.048745487 -0.00957467 0.014599507
0000a0 c9 e1 29 bc 92 a2 d2 bd 31 d9 8b bc 3c 64 54 3b
       -0.010368773 -0.10284914 -0.017071338 0.0032408377
0000b0 4f ad 9b 3c 88 e9 d5 bd a3 50 a0 bc 6e 20 be 3d
       0.019003538 -0.10444933 -0.0195697 0.09283529
0000c0 9e 4c 11 bb b5 00 a3 3d a5 95 85 3c e0 45 14 3d
       -0.0022170912 0.07959119 0.016306708 0.03619945
0000d0 90 e6 e1 bd 5f 51 af bd 3e 60 c5 bb 1e 67 d2 3c
       -0.110303044 -0.08560442 -0.006023436 0.025683936
0000e0 79 a5 87 bd 45 bd 6f bc af c0 7b 3b 56 14 64 3d
       -0.06623358 -0.014632528 0.003841441 0.055683456
0000f0 17 69 a7 3d 25 b2 3a bd 17 11 7c bc aa 28 de bd
       0.08174341 -0.045580048 -0.015384934 -0.108476
000100 c1 00 01 3c bd cd d3 bd b5 81 48 3c 88 0d 45 bd
       0.007873715 -0.10341976 0.012237956 -0.048108608
000110 cc 89 1c be 08 3c e1 bd b8 7b c5 3b ee 92 9c 3c
       -0.1528694 -0.10997778 0.0060267113 0.01911303
000120 a2 0a 5b 3d a7 df a8 3d 23 71 a1 3c ca c0 90 3d
       0.053476937 0.08245783 0.019707268 0.070680216
000130 46 60 06 bd fd 8c 82 3d a4 56 bb bc 70 20 8a bd
       -0.032806657 0.06374548 -0.022868462 -0.06744468
000140 44 ed c0 bd af bc 3d ba 57 aa e2 bd b6 91 92 3c
       -0.09420255 -0.0007237894 -0.11067646 0.017891746
000150 24 fd ea bd f7 50 18 3e 10 e3 af 3d 3b 24 66 bc
       -0.11474064 0.14874636 0.085882306 -0.014046724
000160 a6 c2 98 3d f5 05 6a 3d 2e a0 5d 3d 9e 75 d6 3d
       0.07459001 0.057134587 0.054107837 0.104716524
000170 14 37 2d 3d ee fd 70 3d 8d 22 71 3d eb 7c 70 bc
       0.042288855 0.058835916 0.05887084 -0.01467822
000180 45 42 e1 3d 87 40 a8 3d 65 de 9b 3d 0e 9f a0 3d
       0.10998968 0.082154326 0.07610778 0.07842837
000190 ad 40 a5 3d 5b 5a 3b 3d 9b 6c a6 bc e1 e9 87 bd
       0.080689766 0.045740467 -0.020315459 -0.06636406
0001a0 af 6d 0b be c0 08 ef 3d dd a0 9a 3c 76 05 65 bd
       -0.1361606 0.11671591 0.018875534 -0.05591341
0001b0 8c 3b 34 3c 9a eb ad bc 1b 18 00 be 19 1f bc bc
       0.011000525 -0.021230508 -0.12509196 -0.022964047
0001c0 99 74 aa bc 9d be 9b bc e5 a8 a7 3c 13 da 87 bd
       -0.020807551 -0.01901179 0.020466277 -0.06633391
0001d0 0e 02 7c bd 5c c2 1f bd d4 96 38 3d 31 75 39 3e
       -0.061525397 -0.039003715 0.045065716 0.18111111
0001e0 ab 01 cb 3d 3a 68 f4 3d aa 0a e4 3c ad 6c 90 3d
       0.099124275 0.11933942 0.027837116 0.07051978
0001f0 41 4f f1 bc 65 28 de bc dd 1d ad bc bd 44 59 bd
       -0.029456737 -0.027118871 -0.021132404 -0.05304407
000200 7f f6 93 bc 26 5e 4b 3d ad c8 a5 3b 9e 6a a1 bd
       -0.018061874 0.049650334 0.005059323 -0.07881664
000210 f3 09 8f bd a8 e4 76 bc 78 6c 67 bd fd e8 5a 3b
       -0.069843195 -0.015069164 -0.05649993 0.0033403032
000220 01 42 6a 3d e1 67 b0 bd 4e 75 4b bc f5 52 62 bd
       0.057191852 -0.08613563 -0.012418104 -0.055254895
000230 37 1e be 3d 06 94 80 3d d4 68 2c bd 4d ba 8d 3c
       0.09283107 0.06278233 -0.04209216 0.01730075
000240 0e 68 18 be e2 45 16 be 8b 13 bb bd 45 cb b4 bd
       -0.14883444 -0.14675096 -0.09134587 -0.08827833
000250 ff 8f 34 be 8f 93 60 be 0f e0 05 be f9 b2 0a bd
       -0.17633055 -0.21931289 -0.13073753 -0.033862088
000260 88 24 f2 bc 5b d5 72 3d 74 d3 55 3d 3d 45 25 3d
       -0.029558435 0.059285503 0.05220361 0.040349234
000270 bb ae 4a 3c f3 3f 9b 3d 37 b4 19 bd 71 66 35 3d
       0.012370761 0.07580557 -0.037525382 0.04428715
000280 ad 1c fa bc 0e 40 4d 3c f5 d7 24 3e e1 e2 81 3e
       -0.030531252 0.012527479 0.16098006 0.25368407
000290 2c 53 25 3e 66 19 2d 3e 0c cc 91 3e 3b 25 1b 3e
       0.16145009 0.1690422 0.28475988 0.15150921
0002a0 75 85 12 3e 92 84 9a 3e 98 b5 59 3e 03 66 ec 3d
       0.14308722 0.30179268 0.21260679 0.11542895
0002b0 b5 8c 8f 3d d4 da a9 3d 09 19 aa 3d 69 a6 d6 3d
       0.070092596 0.08293691 0.08305556 0.10480959
0002c0 53 26 8f 3d ee f9 af bc b1 9a a0 3d 83 b7 54 3d
       0.06989732 -0.02148148 0.07842005 0.051932823
0002d0 10 c7 05 3e 70 fe 1b 3e 0e 2e 0b 3d 56 2a 03 3e
       0.13064218 0.15233779 0.033979468 0.12809119
0002e0 66 b7 4a 3e 5b 29 fd 3d 73 06 de 3d 03 03 b7 3d
       0.19796523 0.123614036 0.10841074 0.08936121
0002f0 d3 8b 47 3e f4 43 60 3c a6 06 4c bc 65 c3 db bc
       0.19486932 0.013688076 -0.012452757 -0.02682657
000300 87 30 90 3d 7c e8 88 3d b8 b8 2d bc b8 86 e7 bc
       0.07040506 0.06684968 -0.010603122 -0.028262481
000310 12 7e 1d 3d 4b 89 42 3d 7b f1 8c 3d ab 46 f4 bc
       0.03845031 0.047494214 0.06881996 -0.029818853
000320 ff 16 c8 bb 14 ff 9c 3d 7a 11 dc 3d 6b 50 c8 3d
       -0.006106257 0.0766584 0.10745521 0.097809635
000330 c2 1a 84 3d f8 af 2a 3d d7 4b b2 3a 71 95 05 bd
       0.06450416 0.041671723 0.0013602924 -0.03261322
000340 13 b3 cd 3d 95 1c 58 bd 12 71 6a 3d a8 66 8d 3d
       0.10043921 -0.052761633 0.05723674 0.06904346
000350 fa 4c df 3d 9c 5a 8f bd 0f c6 3a bd 1a 6b b1 bb
       0.10903354 -0.06999704 -0.04559904 -0.005414379
000360 18 3e 75 3d 4d 0e 51 3d 0c 6b 0e 3e 31 cb 36 3e
       0.05987367 0.05103903 0.13908023 0.17850949
000370 b6 02 ea 3d 32 86 97 3d 21 e5 f9 3c 87 96 36 3d
       0.11426298 0.073986426 0.030504765 0.044577148
000380 43 aa 88 3c bd 35 68 bd 79 00 a1 bd 4b 54 45 3d
       0.01668275 -0.056691874 -0.07861418 0.04817609
000390 17 cf 32 bc 03 89 99 bb 7b a6 1a bd cd b1 dd bd
       -0.010913632 -0.0046855225 -0.037756424 -0.108249284
0003a0 6b b5 7b bb 27 f4 b2 bd 4f 1a 11 bc 65 32 90 3d
       -0.0038407694 -0.087379746 -0.00885637 0.07040862
0003b0 86 3d f9 3c 9c 15 36 bc a3 2f 9b bd 0b 51 42 3d
       0.030424844 -0.0111135505 -0.07577445 0.04744057
0003c0 f7 09 47 3d 1d f0 8b 3d 56 24 8c bd 81 a8 37 bd
       0.048593488 0.06832907 -0.06842868 -0.044838432
0003d0 44 99 1d bb a0 bc 12 bd 8e b7 66 3d 72 2c c3 3d
       -0.0024047652 -0.035824418 0.056327395 0.09529962
0003e0 76 f4 a5 bc c1 92 2f bc 98 de ac bd 6f 85 53 3c
       -0.02025817 -0.010716141 -0.08440894 0.012910231
0003f0 ea 85 1b 3d 99 0d 02 3c c4 99 9d 3d 53 69 bf bc
       0.037969507 0.007937812 0.07695344 -0.023365652

conv_a_1.bias f4 [16]
000000 2c ed d2 3d 75 1b 07 bd 42 ba 82 bd 8c cd 89 bd
       0.10299143 -0.03298517 -0.06383182 -0.06728658
000010 52 22 9f 3b 62 ef 92 3d 86 88 8c 3b 60 e9 7b bd
       0.004856386 0.07174565 0.004288736 -0.06150186
000020 0e d2 0a 3d 8d 4e 3e bd ca f9 42 3e b5 a2 84 3d
       0.03389173 -0.04646163 0.190406 0.064763464
000030 3d a9 41 bd 3f 0e 2e 3d 2c 52 55 39 0f d0 9a 3a
       -0.04728054 0.042494055 0.00020343874 0.0011811274

linear_a_0.weight f4 [16, 144]
000000 02 f8 c0 3d ad 4c 06 3e 02 e5 e7 3d 51 a0 ba ba
       0.09422304 0.13115187 0.11322977 -0.0014238452
000010 ee e9 8d 3d 3c f5 9f bd 19 5b 3b bc a7 38 37 bd
       0.06929384 -0.078104466 -0.011435294 -0.044731762
000020 a3 d0 92 3d 9c d9 7e 3d 71 ac 12 3d be 73 07 3d
       0.071687005 0.062219247 0.035808984 0.033069365
000030 90 56 26 3c c7 a0 7f 3d 2a db 68 bc 6c 99 82 3d
       0.010152474 0.06240919 -0.014212409 0.06376919
000040 d9 26 f4 3d d5 92 f6 3d 4d 54 97 bd ae f0 59 3d
       0.11921472 0.12039725 -0.07389126 0.053208046
000050 39 ba 3a bd 79 0b a2 3d f2 43 dc bd 86 05 3c bc
       -0.045587752 0.079123445 -0.10755147 -0.011475926
000060 67 0e 0a 3c 32 65 21 bd 18 40 0f 3d f3 a6 5a bd
       0.008426285 -0.039403148 0.034973234 -0.05338187
000070 bf 65 c8 bd f1 59 50 3d c0 ac 9b bd 0b f5 3c bd
       -0.097850315 0.050867025 -0.07601309 -0.04613213
000080 5f a2 0f 3d 27 96 30 bd 42 8a 60 3d 04 f5 72 3d
       0.03506696 -0.043111946 0.054819353 0.059315696
000090 e6 09 79 3c bf a1 b8 bc 0a b1 8f 3c 0a 22 d8 39
       0.015200114 -0.022538064 0.017540473 0.00041224092
0000a0 71 ff ac 3c 06 ff 8e ba a0 30 37 bc db 0d 31 3d
       0.021117898 -0.0010909743 -0.011181027 0.043226104
0000b0 77 23 65 bd 52 2f 90 3d b5 1e 56 bb eb fb 10 bc
       -0.055942025 0.07040276 -0.0032672111 -0.008849124
0000c0 4b 58 c9 3d 60 fb 09 3e 19 75 23 bc 5c 53 9a 3d
       0.09831294 0.13474798 -0.009976649 0.07535431
0000d0 ca d5 1a 3d 3a 88 21 3e d9 7a b9 3d 0a 89 d9 3d
       0.03780154 0.15774623 0.090566345 0.10621841
0000e0 81 b6 c3 3c 75 88 d2 3d fd 1c bc 3d cc 82 05 3e
       0.023890736 0.10279933 0.091852166 0.13038176
0000f0 41 2f 8d 3d 26 5a 3e 3e 4a 08 86 3d 6b 7b 79 bd
       0.068937786 0.18589076 0.0654455 -0.060908716
000100 85 81 6c 3d 11 70 ee 3c 78 dc 08 bc 65 1b 3a bd
       0.057740707 0.029106172 -0.008353345 -0.04543628
000110 e6 03 3c 3d 4a d9 5b bd fc b3 93 3d 05 f3 8d 3d
       0.045902155 -0.05367402 0.07212064 0.06931118
000120 8d 6a a9 bd 02 1d 59 3d b9 8b 8a bd 44 70 19 bd
       -0.08272276 0.05300618 -0.06764931 -0.03746058
000130 99 2a 85 3b ea b3 43 3d 73 96 58 bd 49 c0 ac bd
       0.004063916 0.047779 -0.052877855 -0.08435113
000140 df fa 79 3d 4f 59 5f bd 07 57 8e 3d 43 d0 d6 3d
       0.061030265 -0.05452853 0.06950193 0.104889415
000150 ea 5d 1a bd 88 22 31 3d da 41 c0 3c eb 99 10 bc
       -0.03768722 0.043245822 0.0234689 -0.008825759
000160 88 e4 09 3d b3 47 b7 3d 2a ac 43 3e 91 a7 97 3d
       0.03366521 0.089492224 0.19108644 0.07405008
000170 b9 21 0b 3e 64 c5 1f 3e 62 50 f6 3c ec 2d 06 3e
       0.13587083 0.15602642 0.030067626 0.13103455
000180 16 b5 15 3d c8 6e 28 3e 65 51 d8 3d 4b 7b 21 3e
       0.03654965 0.1644851 0.105624 0.15769689
000190 a7 e6 ef 3d 6b 0e e6 3c 5b 33 20 3e 03 3b 9d 3d
       0.11713915 0.028083047 0.1564459 0.07677271
0001a0 0c 9b 6d 3d 8d 7e a8 3d 84 bc a4 3c 6a 5e 19 3e
       0.058009192 0.08227263 0.020109423 0.14977422
0001b0 73 5e c4 3c 1c 0b be 3d 5c 6a f1 3d 67 e7 c9 3d
       0.023970818 0.09279463 0.117878646 0.098585896
0001c0 ed 85 76 3d 74 fe b3 3d 75 e8 04 3d e0 b1 84 3c
       0.060186315 0.087887675 0.03244825 0.016198099
0001d0 60 a3 e3 3d 15 83 3f bc 8c f1 9b 3d fc 86 16 3e
       0.11115146 -0.011688967 0.07614431 0.1469993
0001e0 7d 9a 8c 3d 54 b9 81 3c af c9 ed 3d cd f3 cf 3d
       0.06865404 0.015835442 0.11610734 0.10153923
0001f0 c9 95 7c 3d e5 b4 9b 3c c4 33 d9 bb 36 93 93 bc
       0.061666284 0.019007156 -0.0066284854 -0.018014532
000200 8f 80 e4 3d ac d2 9f 3d 4b 9e bf 3d 8c 2f 08 bd
       0.11157333 0.07803854 0.09356364 -0.03324847
000210 98 66 40 bd 70 f3 58 bd 21 f3 05 3d ad 99 9a 3d
       -0.04697284 -0.052966535 0.03270257 0.075488426
000220 44 7e c2 3d 51 3c b8 bc 86 45 a9 bd 98 a5 93 bd
       0.094967395 -0.022489699 -0.08265214 -0.07209319
000230 cd 97 1e bd 28 4c ed bb bc 01 b8 3d 67 5f 6c 3d
       -0.038718987 -0.0072417445 0.08984706 0.05770817
000240 67 ec ce 3c 41 cd bc 3d de eb a3 bc 0e 50 5e bb
       0.02525921 0.092188366 -0.020009931 -0.0033922228
000250 56 07 27 bd 87 3e 87 3d a6 62 6f 3d 92 af 88 3c
       -0.04077848 0.06603723 0.058443688 0.016685281
000260 e1 81 23 3d 66 e9 17 3d d4 b3 1a 3e 5b 11 b9 3d
       0.039918784 0.03708782 0.15107661 0.090365134
000270 1c f9 e6 3c 99 ee 9d 3d 4a 2d 4f bc ec 5b b1 3d
       0.028194956 0.077115245 -0.012645075 0.08660111
000280 d7 7b 23 3e ca 26 44 3d 53 20 10 3e 93 ea 96 3d
       0.1596521 0.047888555 0.1407483 0.0736896
000290 3f b4 2c 3d f0 f3 f0 3d 49 11 94 3d 93 50 60 3d
       0.042164084 0.117652774 0.072298594 0.05476434
0002a0 71 76 01 3d 77 b0 87 bc d5 60 23 3e 7a 09 88 3d
       0.031607095 -0.016563637 0.15954907 0.066424325
0002b0 8a 38 61 bd bc 62 a0 bb 34 23 4d 3c 69 98 97 3d
       -0.05498556 -0.0048945826 0.0125206 0.07402117
0002c0 9b 97 db 3c f6 e6 f4 3d f8 7b f1 3d eb cf 8f 3d
       0.02680569 0.11958115 0.11791223 0.07022079
0002d0 43 13 21 3b b2 7d 13 3e fd 6e 21 3e 91 11 fd 3c
       0.0024578131 0.14403418 0.15764995 0.030892165
0002e0 97 f0 11 3e db 9f 17 3d 87 f3 13 3e 5d 5e e3 3d
       0.14251934 0.037017684 0.14448367 0.11101983
0002f0 75 e3 3d 3d 35 93 b6 3d e7 31 c1 3d ae 14 16 3d
       0.046359498 0.08914796 0.09433346 0.036640815
000300 89 19 d5 3d 9d 33 fb 3c 49 f8 0e 3d 5f 34 c4 3d
       0.10405261 0.03066426 0.034904752 0.095803015
000310 12 6d 0e 3e 06 03 99 3d 81 c9 0c 3d ac 1a cf 3b
       0.13908795 0.0747128 0.034371857 0.006320318
000320 f4 53 c1 3d 95 50 ec bb d6 eb 7d 3d c5 ab ee 3c
       0.09439841 -0.0072117546 0.06199249 0.02913464
000330 2e 9d 17 3d 72 42 a1 3d 55 03 92 3d f3 ae 8b ba
       0.037015133 0.078740016 0.07129542 -0.0010656997
000340 ab 7a 11 3d 72 fe 71 bd 10 63 46 bd 3d 0b 19 bd
       0.035517376 -0.05908055 -0.048434317 -0.037364233
000350 54 af b0 bd 3f 3b 37 bd 4d 47 66 3d 5a a6 b2 bd
       -0.08627191 -0.044734236 0.05622034 -0.08723135
000360 ef 02 be ba 80 83 e2 3b 47 d7 a9 3d aa 99 fe 3d
       -0.0014496724 0.0069126487 0.08293014 0.12431653
000370 82 a6 59 3d c7 30 04 3e 4e b7 bf 3d 8b b5 8b 3d
       0.05313731 0.12909232 0.093611345 0.06821736
000380 53 f4 1b 3d e2 38 de bc 19 69 10 bd 40 d0 8a 3d
       0.038074803 -0.027126733 -0.03525648 0.06778002
000390 68 89 5d 3d df 19 78 3c 15 d2 d7 3d 96 6c 09 3c
       0.05408612 0.015142887 0.10538117 0.008387705
0003a0 52 35 fd bc d7 e2 18 3e 13 6b dc bd 44 11 4d bd
       -0.030909214 0.14930283 -0.1076261 -0.050065294
0003b0 68 39 af bd 2e 30 03 be ce 19 c1 bd d9 23 dc bd
       -0.08555871 -0.12811348 -0.0942875 -0.10749025
0003c0 b0 0c 96 bd 6f b6 a0 bd bd 99 ee bc 08 67 5f bc
       -0.07326639 -0.078472964 -0.029126043 -0.013635404
0003d0 d3 41 7f 3d 9e 2e f1 3d 22 3c e9 3d 5a 83 f5 3d
       0.062318634 0.1177647 0.113884225 0.11987944
0003e0 f9 5b a8 3c 6f 7e 0d 3d be 58 b4 3d 28 04 d7 bc
       0.020551668 0.034544405 0.08805989 -0.026247099
0003f0 71 43 7d 3b bb c4 86 3d 5f 2e 07 3e 26 1e 61 3d
       0.0038644935 0.06580492 0.13201283 0.054960392

linear_a_0.bias f4 [16]
000000 c7 50 83 3d 15 6a 9b 3b 30 af 08 3e 44 68 12 3d
       0.064118914 0.0047428706 0.13348079 0.035743967
000010 d6 8e f4 bb 26 62 40 3e 0e 40 89 3d b0 77 3f 3a
       -0.0074633164 0.1878744 0.067016706 0.00073039066
000020 29 f8 cd 3c 6f b6 2a bd ee 05 a7 bd 27 78 28 bd
       0.025142746 -0.04167789 -0.08155428 -0.04113021
000030 bc 0d 83 bc 90 80 37 3e 53 e5 02 3c dd 54 d8 bd
       -0.01599776 0.17920136 0.0079892455 -0.105630614

GRU_a.weight_ih_l0 f4 [48, 16]
000000 ae 45 a3 3d 09 e9 7f bc 0c 78 87 3e 3f 83 fa bd
       0.07972275 -0.015619525 0.26458776 -0.122320645
000010 d4 3a a5 bd 2b 7d 09 3d f5 a6 fd 3d 1c fe 1f be
       -0.08067861 0.033566635 0.1238536 -0.15624279
000020 a6 95 d8 bb 5f 37 b0 3d 28 47 9c 3d f6 53 e1 3d
       -0.0066096364 0.08604311 0.076307595 0.110023424
000030 df 5d c0 3d 3c 30 40 3e e8 73 da bc 2d 6d d2 3d
       0.093929045 0.187684 -0.026666597 0.1027473
000040 44 3d 38 be 23 9d 1c be a6 2f 3e 3d f2 01 29 3e
       -0.17992121 -0.15294318 0.04643216 0.16504648
000050 41 a3 f9 bd b0 7b 34 be 71 2f ac 3d 18 f7 ad bd
       -0.12189341 -0.17625308 0.08407486 -0.08494395
000060 b5 66 8e bc 12 1b 2e be f4 75 7c be 1a f4 5e 3e
       -0.017382959 -0.17002514 -0.2465437 0.21772805
000070 c4 e7 0d be 78 90 47 be ce ba 2e be e3 5a 5d be
       -0.13857943 -0.19488704 -0.17063448 -0.21616702
000080 da 11 3d be 23 45 56 3e f5 53 87 be ad e9 6c 3e
       -0.18463841 0.20924811 -0.26431242 0.23136015
000090 eb 45 a0 be 39 66 8e 3d 93 8b 16 3e ef cc 66 be
       -0.31303343 0.06953091 0.14701681 -0.22539113
0000a0 91 bd 18 3e c8 47 41 be a2 a2 39 be 80 11 1d be
       0.14916064 -0.18875039 -0.18128446 -0.15338707
0000b0 b6 bc 08 be 0f c3 59 be b5 fa d0 3d 61 ae 29 be
       -0.13353238 -0.21265815 0.102040686 -0.16570427
0000c0 f5 30 1d bc e4 76 3c 3e 24 7c 4c 3e 19 24 54 be
       -0.009594192 0.18404728 0.19969231 -0.20716895
0000d0 a9 c1 4f be 57 56 43 bc 24 fc 19 3c c1 1c 83 bd
       -0.20288719 -0.0119224405 0.009398494 -0.06401969
0000e0 23 e1 54 bd 9c 66 ba 3d 4c 61 77 be 18 c1 4e 3d
       -0.05197252 0.091016024 -0.2415821 0.050477117
0000f0 50 9c 6b be 13 f3 6b bd 01 de ea 3d ef 0b 53 be
       -0.23008847 -0.05760486 0.11468125 -0.20610021
000100 93 81 66 3c b2 7d 41 3e 44 42 a6 3d 7b c9 e1 3d
       0.014068979 0.18895605 0.08118108 0.110247575
000110 9e 85 68 3e 65 9f fb 3d f1 f2 c9 3d 0e ee 56 be
       0.22707221 0.122862615 0.098607905 -0.20989248
000120 52 50 5b 3e d5 ae 23 3e 8a 94 63 3e 2d cd 5c bd
       0.21417359 0.15984662 0.22224632 -0.05390661
000130 f7 0d 11 3d 25 8c a2 bd 6d a1 2b be ad 93 06 3e
       0.03541371 -0.07936887 -0.16760798 0.13142271
000140 f2 9c f6 bd 3c b4 34 3e 37 9e 40 3e 1c 03 a4 bd
       -0.12041654 0.17646879 0.18810354 -0.080084056
000150 4e 1f 6f 3e d0 13 fe 3d d1 23 89 bd 3f 6f aa 3e
       0.23351786 0.12406123 -0.066962846 0.33288
000160 a0 f8 1f 3e c4 1f 50 3d 20 b0 b6 3d f8 0b 7f 3d
       0.15622187 0.050811544 0.08920312 0.062267274
000170 4c 98 1b 3e 21 90 21 3e 95 c1 36 be 01 47 68 be
       0.15194815 0.15777637 -0.17847283 -0.22683336
000180 db ab 4f 3e 6b 4e d3 bd b9 3b 96 3e 49 fc 60 bd
       0.20280401 -0.103176914 0.2934244 -0.054928098
000190 2e 24 a4 3c 51 a7 b7 bc cd 6c c5 bd 8f 33 ac ba
       0.020036783 -0.02241865 -0.09639893 -0.0013137924
0001a0 55 af 41 be 49 d8 8c bd d4 18 ef bd 74 72 fa 3d
       -0.1891454 -0.068771906 -0.116746575 0.122288615
0001b0 dc ce e4 bd 9e 14 ad 3d 8d fb 56 bd 99 5e c2 bd
       -0.11172268 0.08451198 -0.05248599 -0.09490699
0001c0 de 4c f6 3d 99 1e 1e 3e 5e 71 d4 3e 75 9d 04 3d
       0.1202638 0.1544136 0.41492742 0.032376725
0001d0 2f 2e 11 be be 62 cd 3e 48 f4 4e 3e 8a 6f d9 bd
       -0.14177774 0.40114397 0.20210373 -0.106169775
0001e0 55 6d 70 3e ba 91 e0 3b 5a 6e 78 be 38 0c 69 be
       0.23479207 0.0068533095 -0.24260846 -0.22758567
0001f0 31 de d6 bd 5d dd 1d 3e c5 ec 3a be 08 05 71 3e
       -0.104915984 0.15416475 -0.18254383 0.23537076
000200 3c 44 d4 bd 90 54 83 bd d9 de 52 3e b9 b8 9c bd
       -0.10364577 -0.064126134 0.20592822 -0.076524206
000210 33 f0 2f be f7 91 2f 3d ab ec 33 3e 4e 96 66 be
       -0.17181472 0.042863812 0.1757075 -0.22518274
000220 02 0a 3a be 63 6c 2d be a8 cf 41 be 34 6b 2f be
       -0.1816788 -0.16935878 -0.18926871 -0.17130738
000230 81 2b 95 bd 57 b8 a6 bd a4 a6 55 be 1f 79 11 be
       -0.07283688 -0.08140629 -0.2086435 -0.1420636
000240 2e 64 1b be 7e 0f 81 3d c2 ea 22 3e 44 1e 38 3e
       -0.15174934 0.06301783 0.15909865 0.17980295
000250 dd 5d 0c be 2d 43 18 3d 8a f7 a4 bd ab 50 08 be
       -0.13707681 0.03717344 -0.08055027 -0.13312022
000260 1b ca 90 bb ad 0a 92 bd dc d9 b6 3d b0 22 f8 bd
       -0.004418624 -0.071309425 0.08928272 -0.12115991
000270 96 eb 50 3e d0 e6 2d be 55 0a 46 be 1c 5d 6f 3e
       0.20402369 -0.16982579 -0.19339879 0.23375362
000280 df 52 07 3e 45 b4 e2 3c 10 c7 13 3e 51 e8 55 be
       0.13215207 0.02767385 0.14431405 -0.20889403
000290 2d 67 2e 3d 8b 88 b2 3e b7 34 93 3e 7f 00 a4 bd
       0.042578865 0.348698 0.28751156 -0.08007907
0002a0 53 93 af bd e4 75 6a be ea 5b 49 be bd fb 98 3d
       -0.08573022 -0.22896534 -0.19663969 0.0746989
0002b0 c6 b7 a9 bd 81 f7 80 bd a1 87 49 be 72 e0 0e 3e
       -0.08287005 -0.062972076 -0.19680645 0.13952807
0002c0 21 50 3d 3d b1 5a 74 3e f6 3a 5e 3e b3 90 77 3e
       0.046218995 0.23862721 0.2170218 0.24176292
0002d0 eb 84 a7 3e 43 8d d4 3b ef 35 d5 bd 8d a2 8a 3e
       0.32718596 0.0064865663 -0.10410678 0.2707714
0002e0 36 f3 c6 3d 2b 45 81 3e 84 ff 13 3e d0 62 d1 bd
       0.097143576 0.25248083 0.1445294 -0.10223925
0002f0 b1 99 54 3e 80 cf a5 bd 9e 4d c3 3d 44 89 ac bd
       0.20761754 -0.08096218 0.09536289 -0.08424619
000300 3b d0 a7 bd e2 a4 9a 3b 9b 06 29 3d e4 c0 e3 bd
       -0.08194014 0.0047193626 0.041266065 -0.11120775
000310 9c 83 8b 3e 1b f7 75 3e 96 ba 1e 3e 6f ef 80 3e
       0.27248847 0.24020045 0.15500864 0.25182673
000320 ae ee 5a 3c 8e fa c9 3c 20 2e 7b 3d 28 19 05 3d
       0.01336257 0.024655607 0.061323285 0.032494694
000330 c1 59 df bd 6f c4 40 bc 9c 75 40 3d ce 78 06 be
       -0.10905791 -0.011765583 0.04698716 -0.13132021
000340 11 15 4e be f1 22 66 bb 0f eb 63 3d 8e ed 87 be
       -0.20125224 -0.0035116042 0.05564409 -0.26548427
000350 68 79 c4 bc 62 5c 13 be c6 54 38 3e bb 6e 18 be
       -0.023983672 -0.1439071 0.18001089 -0.1488599
000360 94 10 12 be 64 d8 58 be 3a 98 34 3e 80 c9 64 3e
       -0.14264137 -0.21176296 0.17636195 0.22342491
000370 9a d0 d1 bd 6b 6c 97 3e 50 c6 4e 3e 1d 2f 4a be
       -0.10244866 0.29574904 0.20192838 -0.19744535
000380 d8 4b 45 3e 6e fd 4d 3a ec 19 82 3d 5e 9c 7b bd
       0.19267213 0.00078578934 0.063526005 -0.06142842
000390 33 59 d1 3d b5 3a c7 3d 30 56 b2 3e 59 cc c4 bc
       0.102220915 0.09727994 0.3483138 -0.024023222
0003a0 dd f2 54 3d f8 53 cc bd fc 8f 04 3e 40 1d 6b bc
       0.051989425 -0.09976953 0.1294555 -0.014350235
0003b0 ee 33 cf 3e df b9 72 3c 5c b9 c3 3d b5 6d 87 bc
       0.40469307 0.014814823 0.09556839 -0.016531805
0003c0 8b 5d d5 3d 76 b1 71 3d bb 1d 42 3e 96 99 94 3d
       0.104182325 0.05900713 0.18956654 0.07255857
0003d0 33 d1 86 be 1d 9d 7f bd af 7a b0 3d b8 a6 88 be
       -0.2633148 -0.062405694 0.0861715 -0.26689696
0003e0 c4 68 6c 3d 98 a7 f2 bd 0a 38 34 be d0 55 79 3e
       0.0577171 -0.11848372 -0.17599502 0.24349141
0003f0 2a 53 d8 3d 32 c2 d2 3d 9a a7 d2 bd f6 5f 38 be
       0.10562737 0.10290946 -0.10285874 -0.18005356

GRU_a.weight_hh_l0 f4 [48, 16]
000000 83 75 1c 3d 73 78 09 bc 84 2d d4 bd 8d 7d 1b be
       0.038198005 -0.008390534 -0.10360244 -0.15184613
000010 1b 7b f0 3b 39 6a 5d 3e e7 1e 1a 3c f5 b6 55 3e
       0.007338894 0.21622552 0.009406782 0.20870574
000020 fe be 49 3e b3 7c bf bd 1f f5 78 be 7d c3 c5 3d
       0.19701764 -0.09349956 -0.24312256 0.09656427
000030 f0 18 29 be e0 37 d3 bc 80 06 9d bc e5 d9 75 3e
       -0.16513419 -0.02578348 -0.019168139 0.24008901
000040 e4 3b 19 be 22 41 fd 3d 9d 25 07 be ee 1f 8d 3d
       -0.14964253 0.12365939 -0.13197942 0.06890856
000050 c0 eb 6f bd ba c2 1f be b9 f6 20 be eb 1e b6 3d
       -0.058574438 -0.15601626 -0.15719117 0.08892616
000060 7f cc 2f be e8 14 b3 bd d6 f1 b1 bd f2 d6 2f 3e
       -0.17167853 -0.08744222 -0.08688705 0.17171839
000070 82 c0 8a 3d 2a 9f 47 3c 42 c6 d7 bd f6 1a c1 3d
       0.06774999 0.012183944 -0.105358616 0.094289705
000080 af 12 87 3e 8a fc e3 bd 84 22 76 be 07 a2 bc 3c
       0.26381442 -0.111321524 -0.24036604 0.02302648
000090 46 4e 26 be 96 2f 86 be 91 fd 0e be 72 e3 7a 3c
       -0.16240796 -0.2620818 -0.13963915 0.015313016
0000a0 89 b2 a4 bd 74 75 c0 3d ca 2c 4c be 88 45 94 3d
       -0.080418654 0.093974024 -0.1993896 0.072398245
0000b0 63 a7 51 3e 29 e0 a4 3c 8d 7c 40 bd 38 38 3c be
       0.20474009 0.02012642 -0.04699378 -0.18380821
0000c0 2d 0f f5 3d 81 ad 1d 3e 45 32 5c 3c 50 9b 87 bd
       0.11965785 0.15398218 0.01343972 -0.066214204
0000d0 e8 a7 16 3e 18 db 58 be 5a 21 ff 3d 6c 1f b0 bd
       0.14712489 -0.21177328 0.12457533 -0.08599743
0000e0 7a e5 41 3e 82 3d 62 3e 3b 75 4d 3d 7d 9e 65 3d
       0.18935195 0.22093776 0.050160628 0.05605935
0000f0 a9 a2 25 3d 11 89 ae 3d 8f 82 c6 bd a0 58 5e 3e
       0.040438328 0.08522237 -0.09692871 0.21713495
000100 eb 25 3e be be 2f 53 3d e8 28 c6 bd c1 68 06 be
       -0.18569152 0.051559202 -0.09675771 -0.13125898
000110 2f 19 04 3d a8 2c 9e 3d cc 90 d2 3d 62 af 39 3e
       0.03225058 0.07723361 0.10281524 0.1813331
000120 b7 bd d8 3d 66 1b 83 bd 77 fd 51 3e 3b 90 0b 3e
       0.1058306 -0.0640171 0.20506845 0.13629238
000130 ea a4 5b be 04 3b 9f bc 79 83 75 3e 64 45 07 3e
       -0.21449628 -0.01943732 0.23975934 0.13210064
000140 37 a3 2a be f9 f6 7b be 5e 1c 4b 3e 1c f3 72 be
       -0.16663824 -0.24605931 0.1983504 -0.23725551
000150 eb ba 2d be f2 66 2a 3e e3 85 d8 bd 06 f9 d3 3d
       -0.16965835 0.16640833 -0.10572412 0.10350232
000160 b1 6c 36 3d 41 8c 78 3e d7 ae 84 3e 06 db 0f be
       0.04453725 0.24272253 0.25914642 -0.14048395
000170 a8 1e 2a be cb 0e 5e bc 8e 94 70 3e 38 2b 10 be
       -0.16613257 -0.013553332 0.23494169 -0.14078987
000180 24 2e 20 be 90 0f 4d 3e fa 6a 2f 3d 2a f2 fe 3d
       -0.15642601 0.20025468 0.04282663 0.12448533
000190 ac 43 5d bb c0 24 a9 3e b6 65 0c be bf f8 0d be
       -0.003376226 0.3303585 -0.13710675 -0.1386442
0001a0 a9 c6 2a be 24 f7 87 be 6c bf 6c 3d 14 7f 80 3e
       -0.16677345 -0.2655574 0.05779974 0.25096953
0001b0 d1 d2 24 3e bc 63 2f be 4c 77 83 3e c9 cb 79 bd
       0.16096045 -0.1712789 0.25676954 -0.06098536
0001c0 1b e1 96 be 29 ad 8b bd f3 cc 44 3e 3c 78 6e 3d
       -0.29468617 -0.06820137 0.19218807 0.058220133
0001d0 03 d5 cf bd 1d 94 2d bd 43 1c 78 3d d3 86 d4 3e
       -0.10148051 -0.04237758 0.060573827 0.41509113
0001e0 b5 c6 cf bc b0 f2 f1 bd 5c 09 9a 3e a2 b0 98 3e
       -0.025363306 -0.11813867 0.30085266 0.2982226
0001f0 de 79 93 be d4 e2 48 be ba 88 72 3e 61 47 87 3e
       -0.28803915 -0.19617778 0.2368497 0.26421645
000200 22 7f 89 be bf 3b 6c 3e 4c 12 82 be 2c d4 1c bd
       -0.26854807 0.23069666 -0.25404584 -0.03828828
000210 8b 02 a5 be 61 db 1a bd dd cd e4 3c 0d 52 7f 3e
       -0.32228503 -0.037806872 0.027930195 0.24933644
000220 a4 84 af 3e de 6d 0a 3e 1f 80 3f 3e c2 a7 7c bd
       0.34280884 0.13518474 0.18701218 -0.061683424
000230 ba 12 79 be b3 3b b3 bd be 1c 97 3e a8 d3 16 3e
       -0.2432355 -0.08751621 0.29514116 0.14729178
000240 30 e3 54 be a6 f7 47 3c 2e 12 8f 3c e8 86 b7 bd
       -0.2078979 0.01220504 0.017464723 -0.08961278
000250 b5 dc 62 be 7b 29 2b bc cb bf a4 3b cd 77 1a 3e
       -0.22154506 -0.010446901 0.0050277463 0.15084763
000260 fa 36 84 3d 25 2f 81 be e0 c6 06 be 45 62 8f bd
       0.064557984 -0.2523128 -0.13161802 -0.07001165
000270 d3 7e 4a be 26 b8 6a be 5f 9e 0a be de b6 54 3e
       -0.19774942 -0.2292181 -0.13536976 0.20772883
000280 a0 52 a6 be 1c 52 98 3e 63 27 5b be e3 54 58 bc
       -0.32484913 0.29750144 -0.21401744 -0.013203832
000290 0e 35 fa bd 18 93 36 3d 0d 56 60 3e 88 be 59 3e
       -0.12217151 0.044573873 0.21907826 0.21264088
0002a0 7c cf 25 3e 14 dc 24 bd c3 47 0c be a3 26 fb 3d
       0.1619243 -0.040248945 -0.1369925 0.12263229
0002b0 5d fa e8 bd ca a4 b6 3b 45 66 c6 3e 2c de 6c bd
       -0.11375878 0.0055738436 0.387499 -0.057829067
0002c0 86 7d 3c 3e 76 84 c0 bd 76 77 62 bb ed 8f b2 3d
       0.18407258 -0.09400265 -0.0034556068 0.08718858
0002d0 33 95 2f 3d bb 63 6b be 48 de ff bd c8 53 1f 3e
       0.042866897 -0.22987263 -0.12493569 0.15559304
0002e0 12 c8 76 be f0 09 43 3e 20 3b df 3d da 94 67 be
       -0.24099758 0.1904676 0.10899949 -0.22615376
0002f0 7e 0e 77 3e 92 7a df 3c 90 49 cf 3d 0f b3 8a be
       0.24126622 0.027280126 0.10121453 -0.27089736
000300 ba 3f 03 3e c9 cf dc bc 04 52 41 3e cb 8b ad 3c
       0.12817279 -0.026954548 0.18878943 0.021184823
000310 c9 35 09 be b0 b3 11 3e 2e c8 97 3e 29 d6 92 3e
       -0.13399424 0.14228702 0.29644912 0.28679016
000320 7a 12 ea bd 35 05 12 3e 05 b1 bb 3c ed 00 ae 3d
       -0.114293054 0.14259799 0.022911558 0.0849627
000330 f1 36 17 3c a8 63 bd 3d cb 70 ee 3c 40 af 36 be
       0.009229408 0.092475235 0.029106518 -0.1784029
000340 2d 7a 4e bd 1c 12 0b 3e ee 0f 5b be 84 11 20 be
       -0.050409485 0.13581127 -0.21392795 -0.15631682
000350 fa d1 1e be 08 c9 f3 3d 1f 29 03 be 90 18 27 be
       -0.15509787 0.11903578 -0.12808655 -0.16317964
000360 57 7b dc bd 8b e1 f1 bd 06 24 52 be 41 c0 34 3e
       -0.10765713 -0.11810597 -0.20521554 0.17651464
000370 f2 ee 8f bd db 3a f0 3d b0 70 89 3e 16 46 11 3d
       -0.07027997 0.11729976 0.26843786 0.03546723
000380 73 ee 0d be a8 ee 9f 3e 86 db 80 be 54 91 b6 be
       -0.13860492 0.31236768 -0.25167483 -0.35657752
000390 52 ac 9e be d8 49 7d 3d 08 0e c2 bd fe 3f e3 3e
       -0.30990845 0.061838 -0.094753325 0.4438476
0003a0 3a 0f ae 3e bc bd 50 be e9 b2 ee bc 05 57 5e 3e
       0.33995992 -0.20384878 -0.029138045 0.21712883
0003b0 b2 c4 c3 be 87 f5 a3 be d3 b9 20 3a 1b 6d fb 3d
       -0.38236004 -0.3202326 0.00061312056 0.122766696
0003c0 f2 dd 42 be 54 07 6b be aa e3 09 be aa f1 20 be
       -0.19029978 -0.22952014 -0.13465753 -0.15717188
0003d0 44 8e 37 3c c8 4e 14 be 77 f9 26 be 53 c2 df 3c
       0.011203352 -0.14483178 -0.16306101 0.02731434
0003e0 04 3d c4 3d fa f5 8d 3c 7c 65 c1 bd 39 b8 0d 3e
       0.0958195 0.017329205 -0.09443185 0.13839807
0003f0 e2 84 a5 bd e8 92 32 be a7 0b 68 bc 30 27 7c 3e
       -0.08081986 -0.17438853 -0.014162934 0.24624324

GRU_a.bias_ih_l0 f4 [48]
000000 a7 b7 ad bd 32 ff 38 be 45 6b 56 3e 93 0b 39 bd
       -0.084822945 -0.180661 0.20939358 -0.045177054
000010 21 73 0f be 3b 61 60 3e ff a9 56 3d a1 e2 bd 3d
       -0.14008762 0.2191209 0.052408215 0.09271742
000020 30 1c c9 3c 87 7d 36 be ad f4 93 3d 59 56 76 bd
       0.024549574 -0.17821322 0.072244026 -0.06014094
000030 e8 79 89 3e d5 9c 04 3e aa a4 c2 3e 70 3a 22 be
       0.2685082 0.12950452 0.38016254 -0.15842605
000040 e0 c8 2e bd 6f 72 0e 3e 8c 50 1c be 1b 5d 8b bd
       -0.042672038 0.1391084 -0.15265101 -0.06804868
000050 4a 4c c3 3d c6 4c 0f be a1 5e 80 be 9c 3d 9f bd
       0.09536035 -0.1399413 -0.25072196 -0.07775423
000060 46 92 99 bd 55 4b 9e be 44 4e c5 3d 50 f3 c3 bd
       -0.074986026 -0.3091685 0.096340686 -0.095678926
000070 08 4b 98 3d bf a2 ee 3d ba 91 85 bd 4e d9 e5 bd
       0.07436186 0.11652135 -0.06521936 -0.11223088
000080 7c cf 03 bc 59 04 82 be d1 23 70 3d 19 66 94 be
       -0.008045074 -0.25393942 0.058627907 -0.28984144
000090 6e 62 18 be bb 1a 18 3e 45 d5 84 3e d3 08 3e 3e
       -0.14881298 0.14853947 0.25943962 0.18558054
0000a0 d4 29 a6 3d 5b 3f 62 be 89 2c e9 3d f3 1d 91 be
       0.08113447 -0.2209448 0.113854475 -0.28343162
0000b0 6d e1 87 be 3e a5 85 be b7 57 f8 3c e2 6a 84 bd
       -0.26539174 -0.26102632 0.030315263 -0.06465699

GRU_a.bias_hh_l0 f4 [48]
000000 24 e7 a0 3e e8 b2 b8 3d 8a 12 5e 3d 0f a4 50 3e
       0.31426346 0.09018499 0.0542169 0.20375083
000010 bf b9 1b be 53 61 6f 3c b3 0d 45 3d 37 2c b6 3e
       -0.15207575 0.014610606 0.048108768 0.35580608
000020 82 1c 00 39 3f 99 04 3d f9 4a 16 3c ba e1 89 3d
       0.00012217651 0.03237271 0.009173148 0.06732507
000030 42 b2 e3 3d 0b 29 8b bc 20 32 80 3d e7 0d 8a be
       0.11117984 -0.016987344 0.062595606 -0.26963732
000040 84 05 4a be 95 c3 b0 bd 53 07 0b be aa 4f 79 be
       -0.19728667 -0.08631054 -0.13577013 -0.24346796
000050 16 3c 99 be 14 29 7b be f8 de 8a be cb 99 53 3e
       -0.29928654 -0.24527389 -0.27123237 0.20664136
000060 2f d1 0c be de cd ab 3d 7c da 82 bc 9c a1 03 3d
       -0.13751672 0.083888754 -0.015973322 0.032136545
000070 37 a3 24 be 03 08 19 be 3e ce fe bd 78 45 4e be
       -0.16077887 -0.14944462 -0.12441681 -0.20143688
000080 0c 85 c0 bd f8 a6 f4 3d a3 6c 4e bb 63 e0 e4 3d
       -0.09400377 0.11945909 -0.0031497858 0.11175611
000090 4a 3a 84 be 73 c3 2f be 29 75 a8 3d 7e 37 20 bd
       -0.2582572 -0.17164402 0.082254715 -0.03911542
0000a0 9c 9c 5e 3e 8d ff 00 bd b7 1f 39 3e 7a a5 4a be
       0.21739429 -0.031493712 0.18078505 -0.19789687
0000b0 f2 62 d5 3d 21 c9 bb 3d 86 2d d3 bd 54 03 e4 bd
       0.10419263 0.09169222 -0.10311417 -0.11133447

linear_a.weight f4 [4, 16]
000000 3b 59 69 3c 33 c6 b8 3e 43 d3 e0 bc de eb 7d be
       0.014242466 0.36088714 -0.027444487 -0.24797007
000010 5e f0 23 3e 97 c7 94 3e 41 e1 7d be 15 13 9a 3d
       0.16009662 0.29058525 -0.24792959 0.07523171
000020 ad 76 56 3e b0 f0 79 3e 97 c5 7c 3e dc 25 04 3f
       0.20943709 0.24408221 0.2468475 0.5162027
000030 68 e9 e3 bd 7f 8c 5e 3e 0d f8 50 3d 03 03 e0 3e
       -0.11128503 0.21733283 0.05101781 0.43752298
000040 99 a3 97 bd 45 10 cd be 4e 90 3a 3e 04 6b 13 3e
       -0.07404251 -0.40051475 0.1821911 0.14396292
000050 c1 81 5a 3e b8 ed b0 be 12 89 92 3c 32 77 c2 be
       0.2133856 -0.34556365 0.017887626 -0.37981564
000060 6d 09 e0 be 6a ba a2 bd 5f 09 66 be 31 44 4f be
       -0.4375719 -0.07945712 -0.22464512 -0.20240857
000070 66 45 0c 3e 9c e2 3f bd df 8e f4 be b9 6c c9 bd
       0.13698348 -0.04684697 -0.47765252 -0.0983519
000080 4c bf 6a be de 6e 19 be 0c c1 18 3e 70 b2 80 bd
       -0.22924536 -0.14983699 0.14917392 -0.06284034
000090 bd 00 28 3e 53 e1 51 be 46 ea 1a 3d 13 4e ab be
       0.16406532 -0.2049611 0.037821077 -0.33458003
0000a0 05 37 9d be c5 41 03 be 3d 34 a4 bd 17 2b 75 be
       -0.3070604 -0.12818058 -0.08017776 -0.23942219
0000b0 e8 b6 c9 3d e2 e2 56 3c 21 d4 57 be ed b4 0d be
       0.0984934 0.0131156165 -0.21077015 -0.13838549
0000c0 b4 1c c9 3d a8 52 4e be e2 38 02 3e 64 f4 35 be
       0.09819928 -0.20148718 0.12717012 -0.17769009
0000d0 6d 09 2d be fb 0d f9 3c dd dc b3 3e 2a 9a 79 3e
       -0.16898127 0.030402174 0.35129443 0.24375215
0000e0 62 b8 a0 3e c1 a7 10 bc 14 26 8b 3e 54 07 a9 3b
       0.31390673 -0.008829058 0.2717749 0.0051583443
0000f0 66 09 63 3e 73 b8 58 be db ba 83 3e ab 00 a4 be
       0.22171554 -0.21164112 0.25728497 -0.3203176

linear_a.bias f4 [4]
000000 32 d5 1d 3e e0 84 31 3c 8a db 49 be 71 43 c6 bd
       0.15413359 0.0108349025 -0.19712654 -0.09680832

conv_v_0.weight f4 [16, 7, 3, 3]
000000 49 7e a6 bd 7c 18 60 bd a0 d4 5f be 31 e4 3a be
       -0.08129556 -0.05471085 -0.21858454 -0.1825111
000010 c3 b8 26 bd 95 7f 8a 3a 58 59 0e 3d f9 5f dd 3d
       -0.040703546 0.0010566587 0.034753174 0.10809321
000020 e3 36 29 3d e5 1b 23 3e de b4 e8 3c dd 34 5c 3d
       0.04131211 0.1592861 0.028406557 0.05376135
000030 88 90 1e bd 6c 13 b8 be 16 da 02 bd 00 93 99 be
       -0.038712054 -0.35952318 -0.031946264 -0.29994965
000040 6a 8d 01 3c 88 08 3d be 7b 78 79 be 64 88 46 be
       0.007907251 -0.18460286 -0.24362366 -0.19387966
000050 b3 43 b8 be 56 68 5e 3e 78 db cf bd a5 65 0a 3d
       -0.3598915 0.21719489 -0.10149282 0.033788342
000060 5d 54 e1 bd 61 6a d8 3d 9f c0 92 3b 3b 4a 2e be
       -0.11002419 0.10567165 0.0044785286 -0.17020504
000070 32 0d 27 be 40 e0 ca bc bd c6 18 3e 9e 81 83 bc
       -0.16313627 -0.024765134 0.14919563 -0.016053017
000080 9e b1 98 3d a7 6b 86 bd a7 e2 d1 3d 3c ac 93 3d
       0.07455753 -0.06563502 0.10248309 0.072105855
000090 6c 05 9f 3d 0b c7 65 3d 62 ba 05 bd b1 42 01 be
       0.07764706 0.056098025 -0.03264845 -0.12623097
0000a0 16 43 5e 3d a3 69 e0 bd dc b1 78 3c bb e3 8f 3c
       0.054263197 -0.109576486 0.015179124 0.017564645
0000b0 5f a5 a6 bd 81 52 c3 3c 13 7d 9e 3d bd 57 65 bc
       -0.08137011 0.023843052 0.077387 -0.013997969
0000c0 53 2e da 3d 7b a1 17 bc 7b 55 d8 3d 35 05 83 3d
       0.10653367 -0.009254809 0.10563179 0.063974775
0000d0 e6 03 1b 3c 52 d2 57 3d 27 1b 21 3c 40 8b 7c 3d
       0.009461379 0.05269081 0.009833134 0.061656237
0000e0 36 1f 45 3e 4b 77 0f 3e 1b 9b 28 3e da df 33 bd
       0.19250187 0.1401035 0.16465418 -0.043914653
0000f0 80 2a 6a 3c 35 9c 14 3e f9 5f 08 3e 5d 91 76 bc
       0.014292359 0.14512713 0.1331786 -0.015049306
000100 7c 53 6c 3d 54 4d b5 3d 6b 62 5d 3e a1 c5 3c bd
       0.057696804 0.0885264 0.21619575 -0.04608691
000110 40 3e a3 ba f1 c2 a9 be 70 6e 0e 3d 23 d3 46 be
       -0.0012454465 -0.3315654 0.03477329 -0.1941648
000120 b2 41 b1 bc 44 12 13 be 6a b4 fa 3d de 48 b9 bd
       -0.021637771 -0.14362437 0.122414425 -0.090471014
000130 dc a2 a5 3d 94 63 26 be 53 cb 03 3e 8c a0 17 3e
       0.080877036 -0.16248924 0.12870531 0.14807338
000140 12 d3 93 3d 50 e3 ac be d7 a7 98 3d 3e ab 59 bd
       0.07217993 -0.33767176 0.07453888 -0.053141825
000150 27 43 13 3e fb d5 2c 3d 72 97 f7 3d 8e 49 7b 3e
       0.14381085 0.042196255 0.12089433 0.24539778
000160 74 03 41 3e c1 37 8f 3d 54 88 8b bd f7 0d e6 bd
       0.18848974 0.06993056 -0.06813112 -0.11233132
000170 19 c0 5c bd 9e ff bf 3c 34 3d 0f be c2 cb 34 be
       -0.053894136 0.023437317 -0.13988191 -0.17655852
000180 11 13 50 3d f8 a0 04 be 12 64 d0 3d 5f 75 1d 37
       0.050799433 -0.1295203 0.10175337 9.385257e-06
000190 46 30 71 3c 9b dd 89 3c de 26 4c 3d 35 18 37 bd
       0.014720982 0.016829303 0.049841754 -0.04470082
0001a0 2d db a8 bc 2c b7 38 bd 56 ec 25 bd 4d 07 fc 3d
       -0.020612324 -0.04509656 -0.04050859 0.1230608
0001b0 e7 48 c4 3d 65 eb 2c 3d f6 61 f9 3d 3e fc b5 3d
       0.095842175 0.042216677 0.12176888 0.08886002
0001c0 a9 2b c2 bd b4 67 18 bd 6a 3d 0a 3c 3c 43 e4 bb
       -0.09480984 -0.037208274 0.008437494 -0.006966023
0001d0 a2 bc 09 3d 1a d5 2d be bd 30 a5 bc fe 33 44 be
       0.03362716 -0.16975823 -0.020164842 -0.19160458
0001e0 b8 e6 e3 bd d5 55 8c 3c 1e 73 5a be 6a e9 e2 3c
       -0.111279905 0.017130772 -0.21332976 0.027699191
0001f0 81 db a2 bd a3 aa 11 bd 7a 8a 1a bd e5 5c 8f 3d
       -0.07952023 -0.035563122 -0.037729718 0.0700014
000200 00 7f 0d 3e 9d 80 26 3d 4d 55 d0 bd 1e 72 f7 3d
       0.13817978 0.04065 -0.1017252 0.12082313
000210 ea 19 e1 3d 2d fe 46 3d 1a af 24 3e 61 cf 89 3c
       0.10991271 0.048582245 0.16082421 0.016822519
000220 59 43 52 bd ab 1e a6 3d c0 06 a2 bc a8 d1 9c 3d
       -0.05133376 0.08111318 -0.01977861 0.07657176
000230 93 e1 00 3e e2 5a 77 bb 96 67 89 3c af af 11 3c
       0.1258605 -0.003774338 0.016773026 0.008891984
000240 9b 20 73 be e1 ea 91 3d af 22 be 3b 13 ca d3 bd
       -0.23742907 0.07124878 0.0058024745 -0.10341277
000250 af 02 26 3d cd a2 2f 3d 01 9b 82 be 54 a1 e4 3c
       0.040529903 0.04287987 -0.25508884 0.027908958
000260 cd 05 af bd d8 14 32 3e 3b 20 18 3d 81 d7 42 3e
       -0.08546028 0.17390764 0.037140112 0.1902752
000270 dd 83 91 3c ed 36 55 3d 3e 93 a2 3d 61 1f 42 3e
       0.017763073 0.052054334 0.079382405 0.18957283
000280 87 fe a5 3d 12 1d 7f bc 8b fe d8 bd 6e 5f f5 bc
       0.08105188 -0.015570896 -0.10595425 -0.029952731
000290 dd 6a 91 bd 22 43 0c be 08 ce a9 3d 62 97 25 3c
       -0.07100461 -0.13697484 0.082912505 0.010106893
0002a0 dc 4f c6 bc 12 eb 13 be 4b 0e 91 bd 72 37 6e 3d
       -0.024208002 -0.14445141 -0.07082804 0.058158346
0002b0 7f 0c 95 3d 81 c5 b3 bd 6a 94 d2 3c b4 a1 e0 bd
       0.07277774 -0.08777905 0.025705535 -0.109683424
0002c0 5e 50 eb bd 6b cf 93 bd f2 d3 2d be f3 f8 04 bd
       -0.11489938 -0.07217296 -0.16975382 -0.03246398
0002d0 f1 5d ac bd ae 72 0d be eb a9 39 3d e3 7c 26 3b
       -0.084163554 -0.13813278 0.045328062 0.0025404028
0002e0 4e 42 b1 3b 50 02 2e 3d ca 7b 0b be c2 45 7f 3d
       0.0054095155 0.042482674 -0.1362144 0.062322386
0002f0 e9 eb e1 bd a7 7a 49 bd 78 af 86 bd be 4b 40 3c
       -0.110313244 -0.049189236 -0.06576437 0.011736808
000300 b8 2b bc bd 5f e5 c6 3d a3 fb d2 3d be fb cf bc
       -0.09188026 0.09711718 0.10301902 -0.025388595
000310 31 c8 96 be 00 c9 06 be 53 78 a3 3a e3 5e 15 be
       -0.2944961 -0.13162613 0.0012471772 -0.14586978
000320 97 e6 fd 3d 9a b1 c6 bb 72 61 e3 bd 85 a3 fa 3c
       0.12397497 -0.006063652 -0.111025706 0.03059555
000330 a8 2c a3 3c 70 2c 02 3e cf 52 b6 3d 35 ad 2f be
       0.019918755 0.12712264 0.08902513 -0.17155917
000340 2a 95 bb bd 04 88 1f be e0 cb 01 be ca ad d9 3c
       -0.0915931 -0.1557923 -0.12675428 0.026572127
000350 c8 a7 81 3d 0f 08 34 3d b7 27 03 bb 3c 39 29 3e
       0.0633083 0.043952998 -0.0020012686 0.1652574
000360 fe 4f 37 be 1b 7c d1 bc 98 9c 98 bd e8 c4 2c be
       -0.17901608 -0.025571873 -0.07451743 -0.16871989
000370 24 45 95 bd 44 a2 11 bd 5f 59 14 be 45 5e 47 3c
       -0.07288578 -0.03555514 -0.14487217 0.012168472
000380 9e aa 42 3c 69 49 3c bb 2f 7e e2 bd 89 79 f3 bc
       0.011881499 -0.002873028 -0.11059224 -0.029721038
000390 26 f9 c8 bc 2f 95 ce bd 9a 0e f7 bd e0 67 8d bd
       -0.024532866 -0.10087048 -0.12063332 -0.06904578
0003a0 29 43 11 bd 37 0f 44 bd f8 48 cd 3d ab 4f 0b be
       -0.03546444 -0.047866073 0.10023683 -0.1360461
0003b0 b7 03 92 3d c9 0f 95 bd 02 07 af bd a8 93 80 bd
       0.07129615 -0.072784014 -0.085462585 -0.06278163
0003c0 e3 07 00 be c2 7c 64 3c 93 9c cd 3c 45 fe 91 3d
       -0.12503009 0.01394576 0.025099074 0.07128576
0003d0 2f c4 39 3e 46 55 30 3d fc b8 1d 3e 87 37 36 bc
       0.18141244 0.043050073 0.15402597 -0.011121637
0003e0 d6 1e 1b 3e 6c b4 27 3e 19 ba d9 bc d1 d0 80 bd
       0.15148482 0.16377419 -0.026577996 -0.062898286
0003f0 84 0d 80 3d 5b 5e 0a 3e ef 48 75 bc 32 8a 53 3c
       0.06252578 0.13512556 -0.014971002 0.012911366

conv_v_0.bias f4 [16]
000000 f9 92 ac 3d b7 25 61 bd 3c 60 50 3d 91 71 f2 3d
       0.0842647 -0.05496761 0.050873026 0.11838067
000010 11 65 9b 3d f2 e2 a0 bd 05 e2 97 3c ce 76 26 3d
       0.07587636 -0.078557864 0.018540392 0.040640645
000020 bc 12 d8 3d fd 41 97 3c 6b de a5 bc 06 d2 68 3c
       0.10550448 0.018464083 -0.020247659 0.01421023
000030 a5 16 06 bd 73 13 d2 3d db f4 6c 3d c0 b5 ab bd
       -0.03273644 0.10257616 0.0578507 -0.083842754
