league/checkpoints/mfos_seeds/new_self_3x3_51/450_1.pth (torch, 300942 bytes, 105 tensors)

conv_a_0.weight f4 [16, 7, 3, 3]
000000 64 08 83 3e 91 fd 21 3e dd 90 11 be 95 8c 1e 3e
       0.2559234 0.15819384 -0.14215417 0.15483315
000010 42 59 75 bc 99 c4 93 bd d1 8b 81 3e 9b 17 c2 3d
       -0.014974894 -0.072152324 0.25301984 0.09477159
000020 10 33 a6 bc 45 3a 91 3d ac 59 8b bd 6b 38 2c 3e
       -0.02028802 0.07091192 -0.06804213 0.16818397
000030 05 6f 0a bd 8f 0b 29 be ca b2 4c 3e 45 84 1f bd
       -0.033797283 -0.16508316 0.19990078 -0.0389445
000040 18 b4 1c be 2e f9 e9 3d 3a f4 0f be a8 a3 88 3c
       -0.15303075 0.114244804 -0.14058009 0.0166796
000050 7f 26 cb bd 12 90 43 bd 34 0e 2b 3e a5 e4 04 be
       -0.09919452 -0.047744818 0.16704637 -0.12977846
000060 1b bc 80 be e0 d1 9a bd b5 24 53 bd 0e da b7 3d
       -0.25143513 -0.07559562 -0.05154868 0.089771375
000070 b0 37 e9 bd 88 65 10 3d e6 3e 9b 3d ac 5c 20 3d
       -0.11387575 0.035253078 0.07580356 0.03915088
000080 e7 fa 24 be 44 72 1a 3e 74 c5 a0 bd 4e 43 20 be
       -0.16111337 0.15082651 -0.07850161 -0.15650675
000090 7f 20 08 be b2 77 34 be 05 28 83 3d 2f 35 fd bd
       -0.13293646 -0.17623785 0.064041175 -0.123636596
0000a0 a9 01 2d bd a3 d7 57 bd 46 82 f9 3c 88 45 ad bd
       -0.04223791 -0.05269588 0.030457627 -0.08460528
0000b0 ce 9d 5b 3d c1 1f fd bd d6 a7 f0 3a 06 b4 2f 3d
       0.05361729 -0.12359572 0.0018360566 0.042896293
0000c0 d7 ef 90 3d b3 0e dd 3c 17 4d e5 bd 3d e7 01 3d
       0.07076996 0.026984548 -0.11196344 0.031714667
0000d0 af a2 45 3c dd 89 a9 3d 01 e9 1d be 8b cc b9 bd
       0.012062713 0.082782485 -0.15420915 -0.090722166
0000e0 e3 98 43 bc b8 82 28 be 1c 5b b6 3b 9b c2 4e be
       -0.0119383065 -0.16456115 0.0055650603 -0.20191424
0000f0 3f 84 85 bd 34 be 27 3d 54 46 6f bd 68 52 51 ba
       -0.065193646 0.040952876 -0.05841668 -0.0007984997
000100 97 81 2a 3e 89 7a 36 be a7 14 9f 3d 0a 1c fc 3d
       0.16650997 -0.17820181 0.07767611 0.123100355
000110 a0 70 a9 bc 65 f4 53 bd 85 88 64 3d e8 66 1c 3e
       -0.020683587 -0.051746745 0.055794258 0.1527363
000120 5c e6 2c 3d 8b e5 0c 3e 3b d7 a9 3b be 98 1b 3e
       0.042211875 0.13759439 0.005183128 0.15194985
000130 87 1e a7 3d ee 8f 37 be 6a 17 17 3e 67 e3 0f 3d
       0.081601195 -0.17925999 0.14755026 0.035128977
000140 89 ab d9 3d b3 4a b6 bd 15 7f 96 bd 28 72 7c 3d
       0.10628421 -0.089009665 -0.07348458 0.061632305
000150 ba 1f e4 bd 25 a0 d2 bd c3 db 19 be 37 a5 4d be
       -0.11138864 -0.102844514 -0.15025239 -0.20082556
000160 c2 ea 65 bb 8d 9c 4d be 5a 95 e1 3d 32 66 47 3e
       -0.0035082554 -0.2007925 0.11014815 0.19472578
000170 6d e0 62 3e 7e b4 e3 bb c3 bd d4 3d 3f 38 d4 3c
       0.22155924 -0.0069490066 0.10387757 0.025905726
000180 ab 62 d9 3d 9a 08 ec 3d 58 fa a7 3d be 2e ba bd
       0.106145225 0.11525078 0.08202046 -0.090909466
000190 76 b0 e9 3c c5 06 16 be 4d 43 d1 3c 24 e2 a5 bd
       0.028526526 -0.1465102 0.025544787 -0.080997735
0001a0 a2 25 44 3b 7b 3d 44 be 50 5a f3 bd c6 3c 32 be
       0.0029929657 -0.19164078 -0.1188246 -0.17405996
0001b0 14 16 18 3a 4d a7 87 3d 4b ef 07 3e 83 80 56 bd
       0.000580163 0.06623707 0.13274877 -0.052368652
0001c0 5e f7 fb 3c f8 26 9e 3d 77 f0 b2 bd 36 dc d3 3a
       0.030757602 0.077222764 -0.08737271 0.001616365
0001d0 06 ef 47 bd cf 33 67 bd f8 f7 79 bc 15 5d c4 bc
       -0.048811935 -0.056445893 -0.015256874 -0.023970166
0001e0 e9 d7 b8 bd 17 f1 22 be ea be 3e bd dd 64 d3 bd
       -0.090255566 -0.15912281 -0.04656879 -0.103219725
0001f0 19 df 7a bd 90 20 05 be fe b4 08 be 9d 49 fa 3c
       -0.06124792 -0.13000703 -0.13350293 0.03055268
000200 0a 43 cf bc 8d 9e 1a bd 3e cf 18 bd 1b 9b 3b bd
       -0.025300521 -0.037748862 -0.037307017 -0.045802217
000210 6d be 3a 3e c9 0b 55 3e 7f 29 13 3e 76 16 c8 3d
       0.18236704 0.20805277 0.14371298 0.09769909
000220 9a a5 ec 3d 6c 6e 82 3d 9f 70 8d bc b5 31 c7 3d
       0.115550235 0.063687176 -0.017265616 0.09726278
000230 7a ea 94 bd 53 7e a8 3c f6 44 de ba 14 93 81 3d
       -0.07271285 0.020568049 -0.0016957808 0.06326881
000240 88 a4 b8 3d 92 a1 dc 3d f9 5a f0 3d 22 0a 7d bd
       0.09015757 0.107730046 0.11736102 -0.06177724
000250 4c a1 26 3b 4f 5f e5 3d af 3b 34 be 61 ba 0f be
       0.002542573 0.11199819 -0.17600892 -0.14035942
000260 8d 49 98 be 4e 49 a6 3d 10 63 2f 3b 2b d6 b0 3d
       -0.29743615 0.081194505 0.0026761927 0.08634599
000270 48 be 30 bd 85 6e 15 3e 42 78 10 3e b0 7d aa 3d
       -0.043150216 0.14592941 0.14108375 0.08324754
000280 f8 12 9d bd c7 91 4c bd 05 3c 89 3d 37 ee fe bc
       -0.076696336 -0.04994371 0.06700901 -0.031119449
000290 a4 56 f4 3d 89 23 cd 3d 36 53 e6 bb a2 73 ca 3d
       0.11930588 0.100165434 -0.0070289625 0.098853365
0002a0 5d 9b ab 3d 8c 5f ec 3d ff 6f 5f bd 5d 25 8a bd
       0.083792426 0.115416616 -0.054550167 -0.06745408
0002b0 05 0d 10 be b8 d6 b8 bd 97 6d 03 be ea d7 ee bd
       -0.14067467 -0.09025329 -0.12834774 -0.11662276
0002c0 9b a1 1c 3c 57 67 21 be ca 5c a0 3c 62 e4 67 3d
       0.009560014 -0.15762077 0.019575495 0.056614287
0002d0 09 71 f9 3d 04 19 aa bc 85 df 18 3e ee c0 cc 3d
       0.12179763 -0.020763882 0.14929016 0.09997736
0002e0 b2 93 a7 bc 9f 4f 09 bc e8 57 53 3c 45 ed 77 3c
       -0.020456169 -0.0083808 0.012899376 0.015132253
0002f0 d9 5a 28 3e d8 7a 2a be 61 74 81 be 65 2c 74 be
       0.16440906 -0.16648424 -0.25284103 -0.2384506
000300 ff bb 6b 3e 9c f4 c2 3d f3 66 59 3e 34 ba a1 bd
       0.23020934 0.09519312 0.21230678 -0.078968436
000310 83 3a 9d bd 45 f3 38 bd c0 4d d7 bd ca 5f a9 bc
       -0.07677176 -0.045153875 -0.105128765 -0.020675559
000320 bb 8c f5 3c 67 d5 1c bd 69 ac 05 be 01 7d ef bc
       0.029974332 -0.038289454 -0.1305405 -0.029234411
000330 80 23 8b bd d1 88 67 bd 2e 61 a7 bd a3 d4 38 3e
       -0.067938805 -0.056526963 -0.081728324 0.18049864
000340 ba fb bd 3d 8d 2e 2e 3e 5e 65 90 be 18 49 9b be
       0.09276529 0.17009945 -0.28202337 -0.30329204
000350 44 42 a1 be 02 22 b5 3c f5 a6 59 bd ef 69 03 bd
       -0.3149587 0.022110943 -0.05313774 -0.032083448
000360 0d 35 b9 3d b9 66 db 3c eb ee d1 3d 89 76 88 be
       0.09043322 0.02678238 0.10250648 -0.26652935
000370 a2 59 92 be d0 dc 16 be 1c 58 51 bc 55 a2 92 bd
       -0.2858401 -0.14732671 -0.012777355 -0.07159869
000380 ce 3a ff bd 8b 49 3c be 37 52 48 be d2 a3 90 bd
       -0.12462388 -0.1838743 -0.19562612 -0.07062496
000390 05 61 2d bd 7a f5 39 bd de 23 1f be aa c2 46 be
       -0.042328853 -0.04540012 -0.15541026 -0.19410196
0003a0 a1 9d 7a bd c7 af 3d be 56 25 97 bd 15 8e e2 bc
       -0.061185483 -0.18524085 -0.07380168 -0.02765564
0003b0 7c b3 79 bd 6a 5f e5 3d 46 92 48 bd 7a 4f 9d bd
       -0.060962185 0.111998394 -0.048967622 -0.076811746
0003c0 2a 66 84 3b 5d 4f 16 bd 2e 3b d6 3c 74 88 38 be
       0.004040499 -0.03669678 0.026151266 -0.18020803
0003d0 f2 1f 39 3d 38 6f 56 3d b1 24 eb bb 60 07 72 bd
       0.04519648 0.05235216 -0.007176005 -0.059089065
0003e0 f4 e3 a5 bd 4c 53 15 bc 33 95 21 3d 5b a1 a7 3c
       -0.08100119 -0.009114098 0.039448928 0.020462682
0003f0 27 fc c6 3d 4a 9b 43 3c 0d 79 1d 3e c6 df 56 bd
       0.09716063 0.011938879 0.15378208 -0.0524595

conv_a_0.bias f4 [16]
000000 00 a5 a5 bd 41 ed 17 3e df 19 b3 bd ad e6 16 3c
       -0.08088112 0.14836599 -0.08745169 0.009210271
000010 ac c2 19 3e 43 cb 86 3d 08 fa 4a bd fd 4d f1 bc
       0.15015668 0.06581738 -0.049554855 -0.029456133
000020 96 d8 f6 3d 43 fc 79 3c 84 d9 08 bd 6b 27 ac bc
       0.12053029 0.015257898 -0.033410564 -0.02101489
000030 5a 6b c6 3c 01 5f 9d 3d fb 6f c6 3c 41 3e 38 3c
       0.024221111 0.07684136 0.024223318 0.011245311

conv_a_1.weight f4 [16, 16, 3, 3]
000000 a9 d6 55 bd 72 0d 1e 3d 75 ea 7a bd eb 28 2e bd
       -0.05220667 0.03858704 -0.061258752 -0.04251949
000010 08 b5 b8 bc d2 4c 70 bd 94 11 54 bd 27 47 79 bc
       -0.02254726 -0.05866701 -0.051774576 -0.015214718
000020 b9 8f 47 3d 4a 06 99 bd fa c6 ea 3c 2d 99 4e 3d
       0.04872105 -0.07471903 0.028659333 0.05043905
000030 8a 9b 00 bd b6 ad 47 bd 63 a9 f1 3c d2 48 12 bd
       -0.031398334 -0.048749648 0.029499715 -0.035713978
000040 21 b3 b5 bd 3c 32 85 3c 5b 08 be 3c 16 7e 93 3d
       -0.08872057 0.016259305 0.023197344 0.07201783
000050 1c 6f e0 3d 57 a1 cf bc 3a 31 90 3d 39 76 0c 3e
       0.109586924 -0.025345488 0.07040639 0.13716973
000060 15 4e b2 3d 70 37 be 3d 73 4f aa 3d d7 9a 27 3e
       0.08706299 0.092879176 0.08315935 0.1636766
000070 78 cd 35 3e 98 88 87 3d d3 7b 41 3e 0e 05 70 3d
       0.17754161 0.0661785 0.18894891 0.05859857
000080 0e ba 71 3d a7 24 40 3e 58 9f 32 3e f6 09 51 3d
       0.059015326 0.18763982 0.17443597 0.05103489
000090 f2 37 85 bd 80 43 43 bc df d6 38 3d 93 ad 93 bb
       -0.06504811 -0.011917949 0.045126792 -0.0045067756
0000a0 87 08 d6 bc a2 c1 fd bc 14 9c 81 bb 40 c7 65 3c
       -0.026127113 -0.03097612 -0.0039553735 0.014024556
0000b0 ac b3 5b 3b 74 27 79 3d 45 56 57 3d 33 ef 4a bd
       0.003352384 0.06082864 0.052572507 -0.049544524
0000c0 6b 8e 7d 3b f4 d1 1e bd 2a 41 2d 3d 3a fa ba 3d
       0.0038689624 -0.038774446 0.042298473 0.09129758
0000d0 81 cd 25 3c d5 4a 9c 3d 65 76 05 3e c6 87 82 3e
       0.010119797 0.076314606 0.13033445 0.25494212
0000e0 f2 4b d1 3d c4 83 86 3e 7c 0d 37 3e 5a df 2a 3e
       0.102195635 0.26272404 0.17876238 0.16686764
0000f0 87 1d 78 3e a9 65 2e 3e 23 82 36 3e 7e aa 52 3e
       0.24230014 0.17030968 0.1782308 0.2057285
000100 1f a0 83 3e b3 77 75 3e 5c 27 90 3e 6e a7 5d 3e
       0.257081 0.23971443 0.2815503 0.216459
000110 cf 9e 8f 3e 4a af ab 3e b8 90 82 3e 52 2b 77 3e
       0.2805085 0.33532172 0.25501037 0.24137619
000120 d6 32 91 bd 45 4f 93 bd b0 f8 a4 bd fe 44 ab bd
       -0.07089774 -0.07192854 -0.08055246 -0.083627686
000130 ab e1 e4 3c 6d b6 db bc 65 6b d2 ba 16 80 89 3c
       0.027939638 -0.026820386 -0.0016053735 0.016784709
000140 c4 e2 2e bd 99 83 c3 3d 56 2b e4 3d e9 83 97 3d
       -0.04269673 0.09546585 0.11141078 0.07398207
000150 4f 99 5e 3e 26 14 4f 3e 34 c9 1c 3e f1 6d a8 3d
       0.2173817 0.2022253 0.15311128 0.08224095
000160 2f 9d 0b 3d 1e 58 11 3e 82 1f 15 3e 65 dd 7f 3d
       0.03408545 0.1419377 0.145628 0.062466998
000170 29 db 24 3e 71 64 0e 3e b1 ab b3 3d 1e 84 c2 3d
       0.16099228 0.13905503 0.08772982 0.094978556
000180 64 45 2f 3e 91 02 ab 3d 6f 19 16 3e 52 24 9b 3c
       0.17116314 0.08350099 0.1465814 0.018938217
000190 b0 c7 fc 3d 78 48 4b 3d 99 37 82 bb 6e f6 00 3d
       0.12342775 0.04962966 -0.003973913 0.031485014
0001a0 cf ba 47 bc 92 fd 2d bc 39 2b 01 3e 56 96 a5 bc
       -0.012190535 -0.010619538 0.12614144 -0.020213287
0001b0 92 d6 07 bd 4b 31 88 3d eb 1a 7f 3d 54 f0 ab 3d
       -0.033163615 0.06650027 0.06228153 0.08395448
0001c0 d4 06 1a 3c fa da 81 3d ea 02 ca 3d 90 d1 d5 3d
       0.009401042 0.063405946 0.09863837 0.104403615
0001d0 00 be 2a bd 0a 65 f5 3d ce 23 c4 3d 75 40 99 3d
       -0.041685104 0.11982162 0.09577142 0.07482997
0001e0 2a fd e3 3d 51 35 f0 3d d7 30 87 3d 3d bb 1d 3e
       0.111322716 0.11728919 0.06601112 0.15403457
0001f0 a0 e7 f0 3d 7d c5 ad 3d 00 b2 5c 3d a9 80 12 3c
       0.11762929 0.084849335 0.05388069 0.008941808
000200 83 de bb 3d ef 1f a2 3d 9c 5e b2 bc 33 bd 58 3c
       0.091733 0.07916247 -0.021773629 0.013228702
000210 5b 26 71 bd 7a df ad 3d a5 dc d8 3d 82 fb 35 be
       -0.05887447 0.084898904 0.105889596 -0.17771724
000220 fa 61 a3 bd 1b ba c3 bd f7 1b 66 bd 7b e2 52 be
       -0.07977672 -0.09556981 -0.056179013 -0.20594208
000230 9c 78 95 bd fb 97 12 be 8c 1a ab bd 69 4f 4e be
       -0.07298395 -0.14315788 -0.08354673 -0.2014748
000240 cd 7c c4 3d da d1 0a 3e 3c da db 3d ba f1 fb 3d
       0.09594116 0.13556615 0.10734984 0.12301965
000250 e7 ce 2c 3e f3 22 30 3e e2 67 17 3e 32 01 7c 3d
       0.16875802 0.17200832 0.14785722 0.061524577
000260 56 b8 0b 3e 88 39 55 bd c1 04 cd bd d7 33 9e bd
       0.13644537 -0.05205682 -0.10010672 -0.077247314
000270 ac 3e 52 bd 06 a6 82 bd a0 b5 77 bc db ea c0 bd
       -0.0513293 -0.06379323 -0.015118986 -0.09419795
000280 92 a3 a1 bd 34 4a eb bc 96 54 d7 3d f0 98 c8 3d
       -0.07892527 -0.028721906 0.1051418 0.097947955
000290 a6 9f a9 bc 2e 87 a1 3d 51 37 c6 3c ef 3a 07 3d
       -0.02070601 0.078871116 0.024196299 0.033015188
0002a0 e8 39 cb 3d da 4d 3a 3d fb e0 20 3e fa 08 a5 3d
       0.09923154 0.0454844 0.15710823 0.08058353
0002b0 6a 6d 15 3e a0 6b 20 3e 96 9d d3 3d 30 3f 8d 3d
       0.1459252 0.15666056 0.103327915 0.06896818
0002c0 73 2c a6 3d bb 9a 41 3e 2f 9e 4c 3e 17 ed 50 3e
       0.08113947 0.18906681 0.19982217 0.20402943
0002d0 e2 7d 07 3c 76 55 71 bc 10 60 6d bd cd 0d 1e 3d
       0.008269759 -0.014729848 -0.05795294 0.03858738
0002e0 f2 aa fd bd a6 d3 da bd 4e e9 69 bd 5a 80 c7 bd
       -0.12386121 -0.106849 -0.057107262 -0.09741278
0002f0 1b 55 bb 3c 0a d5 20 3b 84 43 15 3c 5e a9 53 bd
       0.02286773 0.0024541044 0.009110335 -0.051675193
000300 ce fe 1e 3d c3 ee 72 3c 09 e9 d2 3d 28 b7 37 bd
       0.03881722 0.014827433 0.10298354 -0.044852406
000310 d5 25 bc bc de 1c 6c 3b 6b 81 29 3e 11 48 8a 3e
       -0.022967258 0.0036027948 0.16553275 0.27008107
000320 83 f4 0b 3e 92 d3 68 3e 77 40 44 3e 39 57 3f 3e
       0.13667493 0.22736958 0.19165216 0.18685617
000330 e6 0d 1e 3e 1d bd 7d 3e dd 52 47 3e 00 83 99 3e
       0.1543499 0.24779172 0.19465204 0.29982758
000340 3c e7 80 3e 92 2c 93 3e ba a0 66 3e ca 4f a0 3e
       0.25176418 0.28744942 0.2252225 0.31310874
000350 fd 5e 8f 3e 6a a0 68 3e 75 8f c5 3e 5f 21 b6 3e
       0.28002158 0.22717443 0.38586012 0.35572335
000360 46 c7 59 bc c4 ce ec bd d2 67 30 bd ad 91 63 bd
       -0.013292139 -0.11562875 -0.04306776 -0.05555885
000370 80 08 8e 3d 46 0e e7 3c 39 01 e6 bd 50 46 41 bb
       0.06935215 0.028205048 -0.11230702 -0.0029491372
000380 38 ab b5 bc b5 dc 64 3e 7d c1 82 3e 90 81 29 3e
       -0.02217637 0.22349818 0.25538245 0.1655333
000390 2b 8c d1 3d a2 40 67 3e 78 e8 69 3e 4d 14 17 3e
       0.10231813 0.22583249 0.22842586 0.14753838
0003a0 16 c6 6e 3d 47 ad 05 3e df cd e2 3d 65 d0 2d 3e
       0.05829438 0.13054381 0.11074423 0.16974027
0003b0 f3 9b 07 3e ea da 10 3d f2 6e 1c 3e cb 42 ad 3d
       0.13243084 0.035365023 0.15276697 0.084600054
0003c0 1a 97 42 3e a9 23 be 3d e5 34 3d 3e 4e 20 13 3e
       0.19002953 0.092841454 0.18477209 0.14367792
0003d0 9f f1 09 3e e7 59 fd bc 8e c3 e0 3b db 64 40 3d
       0.13471077 -0.030926658 0.0068592494 0.046971183
0003e0 18 7c 4b 3d 9f 87 ba 3d 5f 59 20 bc e6 44 eb bc
       0.049678892 0.09107899 -0.009786933 -0.028719377
0003f0 5b 19 00 3d 0b 66 d6 3d 2a 40 d2 3d 4a 87 aa 3d
       0.03127418 0.10468682 0.102661446 0.083265856

conv_a_1.bias f4 [16]
000000 38 8b a3 bd 3f 95 83 bd 86 90 72 3a fa 8b f6 3c
       -0.07985538 -0.06424951 0.0009253103 0.030096043
000010 81 36 97 bd 78 81 2c bc dd d0 ef 3c 78 c0 0b bd
       -0.07383443 -0.010528915 0.029274398 -0.0341191
000020 a9 ac 0c be f0 3c 26 bc 3f 89 6f 3e 80 af 82 3e
       -0.1373774 -0.010146365 0.23392199 0.2552452
000030 49 4b 86 bc 21 31 d0 3d 0e c1 e7 bd 62 ea ef 3c
       -0.01639332 0.101656206 -0.11316119 0.029286567

linear_a_0.weight f4 [16, 144]
000000 fc 58 18 bc 75 0a 1f bd 98 6e b3 3d 7a 0a 62 bd
       -0.009298559 -0.038828332 0.087613285 -0.055185772
000010 31 c2 50 bd 95 a3 05 bd 50 f7 25 3d 2a 4e 69 3d
       -0.050966445 -0.032626707 0.04051906 0.05695931
000020 b2 42 f8 3c d8 bf 5c 3d ce b1 00 3d be e8 ea bd
       0.03030524 0.053893894 0.031419568 -0.11470173
000030 13 94 33 3d c1 46 47 bd 4e 52 ff 3a c3 ba 83 3d
       0.043842386 -0.04865146 0.0019479485 0.06432106
000040 81 66 79 bd c1 00 83 ba b8 ac 6f 3d d2 c1 3d bc
       -0.06088877 -0.0009994732 0.058514327 -0.011581855
000050 4c b5 72 3d a9 62 db bc 9b 14 61 3d f4 b1 95 bd
       0.05925493 -0.026780443 0.05495129 -0.073093325
000060 32 8d e9 3c 62 4d fd bb b3 04 8c bc 91 f1 68 bd
       0.02850971 -0.007730172 -0.017092085 -0.056871
000070 68 dc e3 3c 63 21 ae bd 63 29 87 bd 7f c9 65 bd
       0.027815059 -0.08502462 -0.06599691 -0.056100365
000080 71 c8 3f 3c e2 68 67 bd 68 81 41 3d c5 82 15 bd
       0.011705504 -0.05649651 0.047242552 -0.036501665
000090 a5 7e 93 bd b5 21 a2 bd 61 56 f3 bc d8 48 40 3c
       -0.0720189 -0.07916585 -0.029704275 0.011736117
0000a0 29 0a c3 3d 8f d2 91 3d 40 12 ef 3c 41 d0 c4 bd
       0.09523422 0.07120239 0.029183507 -0.09610034
0000b0 28 26 5a 3d 66 78 94 3c d7 ef 66 bc 81 da 9b 3d
       0.053259045 0.018123817 -0.014095268 0.07610036
0000c0 0a a3 b0 bd db 06 59 3d d0 e5 f3 bc 64 1e 91 bc
       -0.08624847 0.052985054 -0.02977267 -0.017714687
0000d0 70 9e 16 3c 6e a7 8d bd 5f 01 bf bd 24 fa fd bb
       0.009193048 -0.069167 -0.093264334 -0.0077507664
0000e0 ce 93 85 bd 53 67 b2 bd b0 49 54 bd a2 f4 fe bd
       -0.06522332 -0.08711114 -0.051828086 -0.12449004
0000f0 d1 25 7c bc bc cd 87 bc e5 f0 49 bd 07 9e 9b bc
       -0.0153898755 -0.016577594 -0.049302 -0.018996252
000100 f5 5d ba 3c 63 78 e2 bc 1b 2f 69 bc 88 2d a0 bd
       0.02274988 -0.027645295 -0.014232422 -0.078211844
000110 90 63 d5 bd b5 8a 8c 3c 3d d2 31 ba 95 31 10 bd
       -0.10419381 0.017155984 -0.0006783342 -0.035203535
000120 75 d8 56 bc bb 03 13 bd fc 55 03 3d 3e 6b 07 bb
       -0.013113131 -0.03589223 0.032064423 -0.0020663287
000130 83 33 7b bd ef 31 4f 3d 78 8a 22 3d ab f7 fa bc
       -0.061328422 0.05058473 0.039682835 -0.030635675
000140 f9 b1 be 3c e7 05 87 bc 8c a7 04 3d 3b ad 79 bd
       0.023278223 -0.016482307 0.032386348 -0.06095622
000150 16 a9 a8 bd d9 43 27 3d 9b be f3 3c 1d 9a 36 bd
       -0.082353756 0.04083619 0.029753974 -0.044580568
000160 96 48 a6 3c 2a a8 84 ba 49 cc 03 bd 8b 9b 78 3a
       0.020298284 -0.0010120918 -0.032177243 0.0009483627
000170 20 63 19 bc 45 ed 92 3d 2e ad 70 3d 58 a1 74 3b
       -0.009362012 0.07174162 0.058758907 0.0037327614
000180 30 6b f6 bc 2c 5c 14 bc 8e 47 af 3d 63 ae 59 bd
       -0.030080408 -0.009055179 0.0855857 -0.053144824
000190 60 72 43 bd 1f e8 d8 3d dc bc d3 3c f7 33 ec 3d
       -0.0477165 0.105911486 0.025846891 0.11533349
0001a0 2d 1d fc bc 6d 72 81 3d 6b ef f1 3d d0 6b 27 3c
       -0.03077563 0.06320653 0.118132435 0.010218576
0001b0 0b f9 bd 3c 2c 0f 5c 3d 9b c6 9c bd af 83 8b 3d
       0.023190042 0.053725407 -0.076550685 0.06812226
0001c0 fd b6 8a bd 50 bf 15 bd 9f ca 87 3c 5e d8 cb bb
       -0.067731835 -0.036559403 0.01657611 -0.0062208613
0001d0 b5 bc cb bc 77 35 22 3c a4 c7 67 bd 12 1d 23 bd
       -0.024870256 0.009900442 -0.056586877 -0.039822645
0001e0 68 36 45 bd 97 e4 04 bc cb ce 82 bc 0c b8 11 bc
       -0.04814759 -0.008111141 -0.015967747 -0.008893978
0001f0 ce 3a 65 bb 92 eb 22 bc e1 f3 26 3d f9 ba ca bd
       -0.0034977677 -0.00994386 0.040759925 -0.098989435
000200 f7 ad 14 3d 6c 64 ea bb b3 cc 8c 3d 5d b6 0b 3d
       0.03629872 -0.0071530845 0.06874981 0.034109462
000210 18 32 31 bd 1e bb 70 bc b4 73 d8 bd 55 1f 8c 3d
       -0.043260664 -0.01469305 -0.105689436 0.068419136
000220 93 d1 6c bd 3b 55 bf bd 80 c4 20 bd d0 18 99 bd
       -0.057817053 -0.09342428 -0.039249897 -0.07475436
000230 80 a1 bd bd 1f 71 cb 3c ec 3e 6f bd 27 b6 ce bd
       -0.09259319 0.024834214 -0.058409616 -0.100933366
000240 86 65 a1 3c aa 4f 80 3b c0 ca c2 3c 16 d0 8d bd
       0.01970173 0.0039157467 0.02377832 -0.06924455
000250 f2 8f 6f bd 5f 7d 38 bc 6d b6 18 bd f8 f9 ae bd
       -0.058486886 -0.01126036 -0.03728335 -0.085437715
000260 11 61 d1 bd 7f 80 a1 bd f9 ff 2c bc 56 c9 bd b9
       -0.10223592 -0.07885837 -0.0105590755 -0.00036198896
000270 1b f9 e0 bd ad 8a 2c be 87 6c c2 bd 09 e1 0d be
       -0.10985013 -0.16849776 -0.09493356 -0.13855375
000280 42 32 b6 bd 44 27 0a be 36 bc 63 3d 20 03 6e bd
       -0.08896305 -0.13491541 0.055599414 -0.05810845
000290 60 27 a5 3d e8 fc 72 bd ef c7 e0 3c 7f ac b0 bb
       0.08064151 -0.05932322 0.027439086 -0.005391657
0002a0 7a c5 bb 3d 3e dc 8c bd 1b 87 be bd 35 36 12 3d
       0.09168525 -0.06877945 -0.09303113 0.035696227
0002b0 e9 fb e3 3c 2f bf 93 3d 17 6e 3d 3d 58 09 d5 3d
       0.027830081 0.072142 0.046247568 0.10402173
0002c0 98 39 dd 3d b8 78 b3 3b 31 56 a3 3d 25 93 bc 3d
       0.10802001 0.0054770373 0.07975424 0.09207753
0002d0 9b a8 13 be ee 6b 2f be ef 7d 87 bc 02 a4 48 be
       -0.14419787 -0.17131016 -0.016539542 -0.19593814
0002e0 cc 08 93 be 63 e8 01 be ca 75 77 bd 08 a4 c6 bd
       -0.2871765 -0.12686305 -0.060415067 -0.09699255
0002f0 b0 36 94 bd d9 f3 81 bd d2 e0 9e bd d5 2d a2 bd
       -0.07236993 -0.063453384 -0.07757725 -0.07918898
000300 82 7a ae bd 7a f8 42 bd a3 7f 1e bd d6 84 bf bd
       -0.0851946 -0.047600247 -0.038695943 -0.09351508
000310 d3 50 9d bd 45 c5 c7 bd 2c 74 2d be 7e d1 b4 bd
       -0.076814316 -0.09754423 -0.16938847 -0.0882902
000320 04 6c 2f be d8 9a 63 3c f9 b0 02 be 48 f4 78 bc
       -0.17131048 0.013891898 -0.12762822 -0.01519496
000330 41 7d 2b be 84 5b d9 bd 11 63 2b be d7 7d 0b bd
       -0.16747 -0.10613158 -0.1673701 -0.034055557
000340 11 dc 5a bd 72 ec 55 bd 50 8e fb bd c8 e3 c3 bd
       -0.053432528 -0.052227445 -0.12283003 -0.0956493
000350 8f ef 1c be 21 5b ee bd eb 58 e7 bd 89 ad 22 be
       -0.1532576 -0.11638475 -0.11296257 -0.15886511
000360 0d 4d 99 3c 57 f0 b8 bc 65 fa 2e be 5a 35 f5 bd
       0.018713498 -0.02257554 -0.17087705 -0.11973067
000370 8c ca 8e bc 3b d8 1b be 09 b6 3c bd f1 a0 aa bd
       -0.017430566 -0.15219204 -0.04607204 -0.083314784
000380 8d c4 88 bd 9f d4 64 be 52 28 5f be 5c b7 fb bd
       -0.06678114 -0.22346734 -0.21792725 -0.122908324
000390 0c c9 f7 bd 46 19 88 be 2e 95 85 be d6 da cd bd
       -0.120988935 -0.26581782 -0.26090378 -0.10051505
0003a0 c9 77 d4 bd 13 33 22 be bd cb 6f 3e 95 aa 05 3e
       -0.1037441 -0.15839796 0.23417564 0.13053353
0003b0 69 5b e6 3d 18 08 90 3d d8 50 0d 3e d5 a4 26 3e
       0.11247904 0.07032794 0.1380037 0.16273816
0003c0 ed 34 c6 3d 56 6c 1e 3e e0 5a db 3d ce ec 8a 3e
       0.096780635 0.15471014 0.107106924 0.27133793
0003d0 59 c1 5c 3e ab ca 4e 3e 8e 1c 97 3e 7c 6f 29 3e
       0.21558131 0.20194499 0.29513973 0.16546434
0003e0 02 bb 82 3e 29 f8 72 3e 20 d2 20 3e af d3 16 3e
       0.255333 0.23727478 0.15705156 0.14729188
0003f0 91 1d 36 bd e7 ec 6c 3d 2c a4 7e bd 4d 79 99 3d
       -0.04446179 0.057843115 -0.062168285 0.074938394

linear_a_0.bias f4 [16]
000000 3c 66 58 3d 06 91 57 3e 33 91 4c bd 9b 83 4f ba
       0.052831873 0.21051416 -0.04994316 -0.0007916034
000010 a3 73 10 3d 11 7b 6c 3e 57 96 10 3d c8 43 47 3d
       0.03526653 0.23093821 0.035299625 0.048648626
000020 26 a2 f4 bc b7 bc e2 3d 3f 82 41 3c 18 28 f3 bd
       -0.029862475 0.11071151 0.011810838 -0.11872882
000030 fe 84 6e bd 6d c3 0d bd 15 71 60 bd 9c 13 a1 bd
       -0.0582323 -0.0346102 -0.054795343 -0.07865068

GRU_a.weight_ih_l0 f4 [48, 16]
000000 b9 62 61 be a8 5e 7d 3d a1 74 15 be ad 32 53 be
       -0.22010316 0.06185785 -0.14595272 -0.206248
000010 87 42 e7 3d 47 23 69 3e c9 86 73 3e d9 91 2b be
       0.11291986 0.22767363 0.23781885 -0.16754855
000020 64 10 21 3e 75 05 61 be 4f 23 0b 3e 2c 42 a8 bc
       0.15728909 -0.21974738 0.13587688 -0.020539366
000030 60 b0 fd bc 87 45 4c be 48 f3 77 bd 22 3f 75 3e
       -0.030967891 -0.19948398 -0.060534745 0.23949865
000040 d6 42 9b 3e 77 b9 80 3e 41 ab 81 3c 2c 68 fc bc
       0.3032443 0.25141498 0.01582873 -0.030811392
000050 d9 c0 8a 3e 6b 50 5c 3e 05 d9 5d bd f0 da 7b bc
       0.27100256 0.21515052 -0.054162044 -0.015372023
000060 cc 01 f0 3d 28 a4 52 3e 05 7c 82 bd a3 d7 23 3e
       0.11719093 0.20570433 -0.06371311 0.16000228
000070 1c c8 2d 3e 82 05 7b 3e b5 5d 56 3d 3b b2 65 3e
       0.16970867 0.2451382 0.05233546 0.22431271
000080 15 98 d9 bd b9 fd 9d 3e 95 37 81 3d c7 97 13 bc
       -0.106247105 0.30857638 0.063094296 -0.0090083545
000090 83 4f 4e 3e f0 f7 59 bd 59 68 35 be 1c b9 39 be
       0.20147519 -0.053214967 -0.17715587 -0.1813702
0000a0 d0 38 24 bd a7 28 04 be e0 99 46 3b c9 b4 ce bc
       -0.040093243 -0.12906133 0.003030412 -0.02523269
0000b0 be 2f 52 be a0 b1 3c be 29 98 6c 3e a9 d2 73 3e
       -0.20526025 -0.18427134 0.2310492 0.23810829
0000c0 66 7f 4e 3e 19 72 f7 3d 85 ef f5 3d a0 aa 4c 3e
       0.20165786 0.12082309 0.12008575 0.19986963
0000d0 98 a3 8a 3e 30 d3 c5 3e a0 fb 3a be 5c be bc 3d
       0.27077937 0.38637686 -0.1826005 0.09215996
0000e0 80 72 a9 3b 99 19 c8 bd 5e 35 d4 bc 3e b4 cc bc
       0.00517112 -0.09770507 -0.025904354 -0.02498829
0000f0 3c 97 76 be a0 8d 7d 3e 58 28 24 3e 69 77 11 be
       -0.24081129 0.24761057 0.16031015 -0.14205708
000100 27 46 22 bd da 0e 22 be 62 11 0a bc 3b 07 17 3d
       -0.039617684 -0.15825978 -0.008426996 0.03687213
000110 27 a2 0d be 01 b0 08 be 39 68 64 3e 10 a3 8a bd
       -0.13831387 -0.1334839 0.22305383 -0.06769383
000120 94 26 25 be 3a 6c 2f 3e 7d 45 28 be be 2b cb bd
       -0.16127998 0.17131129 -0.16432758 -0.099204525
000130 a2 e7 3e be b4 31 8a bd 0e 74 8c 3c 9e 30 c6 bd
       -0.18643048 -0.06747761 0.017145183 -0.09677242
000140 27 a4 47 be b3 de 42 be 29 28 1e be 46 36 5d 3e
       -0.19496213 -0.19030266 -0.15445007 0.21602735
000150 58 61 35 be 7a 70 b4 3d 30 70 3f 3e d2 80 8a bd
       -0.17712915 0.08810516 0.1869514 -0.06762852
000160 38 b5 9d 3d c1 18 65 be 2c cc 61 bc 45 9d 53 be
       0.0770058 -0.22372724 -0.0137815885 -0.20665462
000170 a0 f9 eb 3c 7b f1 ee bc d7 9d f8 bd bc 97 57 3e
       0.028805554 -0.029167881 -0.121394806 0.21053976
000180 4f 36 1c be c7 eb 60 3d 54 2f 22 3e 54 8c b9 bd
       -0.15255092 0.054912355 0.15838367 -0.090599686
000190 5a 2e 67 bd 74 76 3e 3e b2 a3 38 3e 3b 88 08 be
       -0.05644069 0.18599874 0.18031195 -0.13333218
0001a0 4a 69 55 be ec 77 b4 3e a7 37 54 3e 7c 06 4e 3d
       -0.20840946 0.35247743 0.20724355 0.050299153
0001b0 92 f3 55 3e 9d 8d 29 3e 6e 7e 39 be ec 25 cc bd
       0.20893696 0.16557927 -0.18114635 -0.099681705
0001c0 7d 7a 19 3e b2 dc 9b 3e 9b d9 5f 3e b0 68 a0 3b
       0.14988132 0.30441815 0.21860354 0.004895292
0001d0 76 c2 43 3e b8 05 4c 3e e1 d0 83 3e 65 f2 2a bd
       0.1911715 0.19924057 0.257453 -0.04173507
0001e0 f0 8a 45 bd aa b2 83 3d 4b 2b 9d 3e 51 15 be 3c
       -0.048228204 0.06430562 0.30697092 0.023203524
0001f0 88 fd 73 3e c7 be ae 3d 8e a9 61 be 5d 9d 11 be
       0.23827183 0.08532482 -0.22037336 -0.14220186
000200 fc 3d d9 bd 51 1b a7 bd af f7 10 be c8 83 9b 3d
       -0.10607526 -0.08159507 -0.14156984 0.07593495
000210 91 ee 46 3e e3 8b bd 3e d4 3e 84 bc ae 62 0c 3e
       0.19426943 0.37020788 -0.01614324 0.13709518
000220 72 8a 0e 3e 0f 0b ad 3d dc 97 c4 3e 8b e4 bf 3d
       0.1392 0.08449375 0.3839711 0.09369763
000230 38 1a 1d 3d 73 02 6d bc d7 44 1d be 0d 07 06 be
       0.038355082 -0.014465916 -0.15358292 -0.13088627
000240 e3 9c 38 be 2c 0b d6 3a fa dd a1 bc c2 55 52 be
       -0.18028598 0.0016330234 -0.019759167 -0.20540527
000250 a2 7e a2 bd b2 d0 6b 3e ba 92 8d 3e 49 7e 1b be
       -0.079343095 0.2302883 0.27651006 -0.15184893
000260 b6 1b 28 3e 47 6b 7b 3d 0a 69 99 3e d4 28 98 bc
       0.16416821 0.061381605 0.2996295 -0.018574156
000270 6c 75 9a 3d 17 25 3f 3e 54 84 7d bd 6d 84 b7 3d
       0.07541928 0.18666492 -0.061893776 0.08960805
000280 93 08 0e bd d9 97 dc 3d cf 7d 0e be 8c 5f 0a 3e
       -0.034676146 0.1077115 -0.1391518 0.1351301
000290 6c 90 1f 3d 85 2c 2f 3e 98 06 cc bd d8 38 b5 bc
       0.03895609 0.17106827 -0.09962195 -0.022121832
0002a0 e8 3b 21 bd 96 8d 3f be 47 9b ca 3c 01 4a 3c 3e
       -0.03936377 -0.18706354 0.024732245 0.18387605
0002b0 d0 03 71 3d cb 30 f8 bd c0 3b 3f 3d 9d 84 a8 3d
       0.058841527 -0.121186815 0.04668784 0.08228419
0002c0 5a a7 5f bd 5d b0 00 3d 5b 30 16 be a5 51 80 3e
       -0.05460296 0.031418193 -0.14666884 0.2506229
0002d0 33 df 51 3d 81 ed 45 3e aa d1 ce bc 23 f0 5a bd
       0.05123825 0.19328882 -0.02524646 -0.05345167
0002e0 70 59 97 3c b5 9b 09 3e b8 9d 50 3e 32 ef 9c 3d
       0.018475264 0.13438304 0.20372665 0.076628104
0002f0 da 7b 27 3e 5d c6 78 3e 71 f8 61 be 92 0e 0b 3e
       0.1635584 0.2429442 -0.22067429 0.13579777
000300 c1 1c 0b 3d 0b 3c 19 3d a6 73 ae bc bf 20 f3 3c
       0.03396297 0.037410777 -0.02129538 0.0296787
000310 b8 67 12 3d 24 85 8e 3d 03 9a 47 bd 9c d1 be bd
       0.035743445 0.06958988 -0.04873086 -0.093173236
000320 f4 60 a9 3d f1 ef 02 3e 91 6b 70 3d 5b 80 89 3e
       0.082704455 0.12786843 0.058696333 0.2685574
000330 78 e2 5e bd 3f 7b a8 bd 97 75 de 3d 9a d7 6b 3e
       -0.054415196 -0.08226632 0.10862272 0.23031464
000340 bf ed 1c 3c 60 96 65 3d 62 1c 07 be 83 1f 6a be
       0.009578167 0.056051612 -0.13194421 -0.22863583
000350 a0 b3 b0 bd a2 c0 dc 3d f0 95 3d 3e 48 6d ce bd
       -0.08628011 0.10778929 0.18514228 -0.100794375
000360 54 42 5e be 1e 7a 42 bd 15 a4 3f 3c bb bd 51 3e
       -0.2170499 -0.04747974 0.011696835 0.20482533
000370 92 f8 12 be b2 da b8 bd 3c 17 08 3e da 00 34 3e
       -0.14352635 -0.09026088 0.13290113 0.1757845
000380 14 1f 51 3d 87 06 40 bd 6c 66 39 be c1 4a 0b 3e
       0.05105503 -0.046881225 -0.18105477 0.13602735
000390 ce 92 87 3d a9 a6 54 3e f5 9d 80 3e 7e 3e a9 bc
       0.06619798 0.20766701 0.25120512 -0.020659681
0003a0 84 ff 84 bd 61 fa 34 3e cb c4 c1 bd 34 66 65 3d
       -0.06494048 0.17673637 -0.094613634 0.05600567
0003b0 9a d2 68 be 29 f5 0a 3e 27 60 26 be 5b b8 28 be
       -0.22736588 0.13570084 -0.16247617 -0.16476576
0003c0 c8 6a 28 be c8 f0 c1 bd ad 78 9a 3c cf a7 d6 bd
       -0.16446984 -0.094697535 0.01885637 -0.10481226
0003d0 cf 9f 29 be 1c 9a 88 be 00 03 0a 3e aa 7d 61 be
       -0.16564868 -0.26680076 0.13477707 -0.22020593
0003e0 18 81 0f 3e 43 a4 53 bd 9d a6 0d 3d 5a e5 55 3e
       0.14014089 -0.051670324 0.034582723 0.20888272
0003f0 8a 9d 42 3e ee b7 5b 3e 59 b1 13 3e a1 fc 78 3e
       0.19005409 0.21456882 0.14423122 0.2431512

GRU_a.weight_hh_l0 f4 [48, 16]
000000 1c 1d aa 3e 1b 22 50 3e d8 e5 8c 3b 59 2a 2d be
       0.33225334 0.2032551 0.0042998604 -0.16910686
000010 d1 5c 9a 3d 1f 8f 0c be 5a 72 0f 3d 83 32 5e 3d
       0.075372346 -0.13726471 0.035021164 0.05424739
000020 61 a8 28 3e 66 a6 3d 3e 68 59 a3 be c4 ff 6f 3e
       0.16470481 0.18520507 -0.3190415 0.2343741
000030 15 7e 6a 3e f5 dc 96 3d 3c bc 6d 3e be d1 38 be
       0.22899659 0.07366363 0.23216337 -0.1804876
000040 8d e3 65 bd f9 c8 0e 3e e3 a0 c3 bc 06 ad a4 3e
       -0.056125212 0.13943852 -0.023880428 0.32163256
000050 aa b4 94 3d fc 26 a8 3d 44 a0 a1 3e 66 a1 33 be
       0.072610214 0.08210561 0.31567585 -0.17542037
000060 fa d2 d3 3c a8 62 02 3e 2d c9 5d be 6d 59 43 3e
       0.025857437 0.12732947 -0.21658774 0.19077082
000070 37 4c c7 bd a3 9f a6 be 6d 73 c1 3d 1c 85 b9 39
       -0.09731334 -0.32543668 0.09445844 0.00035385124
000080 7d c9 57 bd df 49 3f be ce e6 7e 3e 71 1b 57 be
       -0.05268239 -0.18680523 0.24892733 -0.21006562
000090 4f 8b e3 bd 07 48 3d 3e eb 3b 86 3e 35 6c bc 3d
       -0.111105554 0.18484508 0.2621759 0.09200326
0000a0 67 09 80 3e 42 14 22 be e2 b0 62 bd 05 ab 1f be
       0.25007173 -0.1582804 -0.05534447 -0.15592583
0000b0 a1 3d 67 bc 10 9c 22 3e 75 63 28 3e d4 eb 0a bd
       -0.014113815 0.15879846 0.1644419 -0.03391631
0000c0 23 55 05 3e 53 15 4e 3d f2 e0 9a 3d f5 f0 f4 bd
       0.13020758 0.050313305 0.07562436 -0.119600214
0000d0 25 02 a1 be af 42 2f be 91 7b 93 3e 48 69 6f be
       -0.3144695 -0.17115282 0.2880521 -0.23380005
0000e0 8c 90 c6 3d 65 6b 47 3e bd 4f 4c 37 b4 6f 28 be
       0.09695539 0.19474562 1.2177913e-05 -0.16448861
0000f0 c2 02 be bc 0d 46 f0 bc 92 2c 07 be d4 db 1e be
       -0.023194674 -0.029330278 -0.13200596 -0.15513545
000100 18 35 26 3e f4 0c 7e be 91 80 a4 bb d9 28 63 3e
       0.16231191 -0.24809629 -0.005020209 0.22183551
000110 91 74 1a 3e 3d 7c 9a 3c 8c 69 2a 3d 10 69 65 3e
       0.15083529 0.01885807 0.041604564 0.2240336
000120 71 1d 3e 3e a2 85 25 3e 8d 5f 2f be e1 f4 2e be
       0.18565919 0.16164258 -0.17126293 -0.17085601
000130 df c9 61 3e 7f 7d 2b 3d 5e fc 3d be 1b d1 0b bd
       0.22049664 0.04186773 -0.18553302 -0.034134965
000140 ad ab 90 be 30 c5 39 3e 4c 1f 34 bb 59 b2 ff 3d
       -0.28255978 0.18141627 -0.0027484475 0.12485189
000150 79 aa 47 3e 0e 05 86 3d fe 66 cc bd 7a b2 d6 bc
       0.19498624 0.06543933 -0.09980582 -0.026208151
000160 fc ec 53 be 79 86 16 be 2b 18 53 be 88 b9 71 bd
       -0.20695871 -0.14699735 -0.20614688 -0.059014827
000170 c7 67 b2 3c fb 27 5b be 1e 43 4a be e3 a3 82 be
       0.021778 -0.2140197 -0.19752166 -0.2551566
000180 92 f4 a6 3c db a4 a9 3e 17 96 12 3e ab 03 96 bd
       0.020380292 0.33133587 0.14315067 -0.07324918
000190 14 43 2f bc 31 93 1f be 47 5e f7 3d 16 93 5a bd
       -0.010697145 -0.15583493 0.12078529 -0.05336293
0001a0 d5 57 3d 3c 9d 78 7e 3b 3a 64 6f be c8 f5 84 be
       0.011556585 0.0038829215 -0.23378077 -0.25968766
0001b0 03 28 fd bd ad bb 83 3c 28 e3 0c 3d a9 5d 54 3d
       -0.12361147 0.016080702 0.03439632 0.051847134
0001c0 2b 56 14 3e e0 81 57 be 89 5b 8b bc 15 c3 b0 bc
       0.14485995 -0.21045637 -0.01701142 -0.021577397
0001d0 91 d4 ff bc 0e 27 07 3e e9 61 04 bd ae af 49 be
       -0.03122929 0.13198492 -0.032319937 -0.19695923
0001e0 90 6d 45 be 03 74 19 3d 54 6f 5a be ab 1c 7b 3e
       -0.19280076 0.037464153 -0.21331531 0.24522655
0001f0 1c f3 f5 bc 12 eb 4e 3e df e0 0e bc 1b 8c 0d 3d
       -0.03002315 0.2020686 -0.008720606 0.034557443
000200 81 57 1a 3e e2 c7 7b 3c da d1 f3 bc fe 8e 8b 3e
       0.15072443 0.01536748 -0.029763151 0.27257532
000210 cb f7 6d 3c 1d ce 58 3d 65 2e 99 bd b9 4c e9 3d
       0.0145244105 0.05293094 -0.07479552 0.11391587
000220 73 c6 30 3e 61 91 6d 3d 49 08 68 be c2 9d 80 bd
       0.17263202 0.057999972 -0.2265941 -0.0628009
000230 96 3b 81 3e 17 3e 88 bc f2 e4 13 3d 94 93 11 be
       0.25240773 -0.01663117 0.03610701 -0.14216453
000240 1f 70 2f 3b bd 45 1f be de 3f 58 3e 56 be 93 3e
       0.002676971 -0.15553947 0.21118113 0.28856152
000250 9b 1d 96 be b1 83 37 be 95 43 5e 3e 14 90 b2 be
       -0.29319462 -0.1792133 0.21705468 -0.34875548
000260 cc 55 8f 3e 3a 70 a7 3c 84 3a 4f be 37 b1 1d be
       0.27995145 0.020439256 -0.20237166 -0.15399633
000270 4a f9 c7 3a 51 11 b5 bd 05 07 56 3c 95 24 79 3e
       0.0015256789 -0.088411935 0.013063197 0.24330361
000280 d3 99 4d bd c0 7f 09 bd 34 0b 56 be 5f f9 81 3e
       -0.050195526 -0.033569098 -0.20902711 0.25385568
000290 64 d3 5a be af aa 97 be 9d 3f 70 bd 2f cb f8 bd
       -0.21369702 -0.2962241 -0.058654416 -0.12148129
0002a0 f1 84 42 3e 56 e0 a9 bd 1c 0e 01 be 08 8c 6c be
       0.18996026 -0.08294742 -0.12603039 -0.23100293
0002b0 fe 73 41 be 2a 45 62 3d 85 bb e5 bd d7 4e da 3d
       -0.18891904 0.05524174 -0.11217407 0.10659569
0002c0 11 dd 8b bc e4 b8 4a bc 52 fb 1f 3e 11 4f 0c bd
       -0.017073186 -0.012373183 0.15623215 -0.03425509
0002d0 b2 62 17 be 6e 71 51 bb ff 60 05 be ab a3 41 3e
       -0.14783743 -0.0031958479 -0.13025282 0.1891009
0002e0 af d7 06 3e f7 b8 58 be a0 1b fc bd e7 0f 4e 3c
       0.13168214 -0.21164308 -0.123099566 0.012577034
0002f0 68 a2 45 bc 8c 85 ed 3d b2 72 99 be 01 4e 87 be
       -0.012062646 0.11597738 -0.29970318 -0.264267
000300 84 f0 0f 3e 5b f8 21 bd 71 34 52 3d df 15 b8 3e
       0.14056593 -0.03954349 0.051319543 0.35954186
000310 00 1b 4e be 6f d0 bf be c9 f5 c4 3e ab 3b f3 3c
       -0.20127487 -0.3746371 0.3846877 0.029691538
000320 7a 25 04 be 52 66 e8 3c ba 23 2f be b1 db f5 bd
       -0.12904921 0.028369103 -0.17103472 -0.120047934
000330 6a 0e b4 3e 81 9e c0 be f6 34 2a bd e7 ed 23 bd
       0.35167247 -0.3762093 -0.041554414 -0.040021803
000340 3a 2e 81 be 5e 42 50 3e 84 f7 f2 3d e6 5c b7 bd
       -0.2523058 0.20337817 0.11863616 -0.08953266
000350 56 9a 10 3e 81 15 8b 3c 2d 00 7b 3e 89 55 26 3e
       0.14121374 0.016978027 0.24511786 0.16243567
000360 17 80 93 3d 88 9a 01 3e 41 f5 66 3e b3 a6 06 3e
       0.072021656 0.12656605 0.22554494 0.13149528
000370 83 5e 6b 3d 7c 25 fc 3d 24 83 57 3d 84 1a 32 be
       0.05746318 0.12311837 0.0526153 -0.17392927
000380 6f 67 2a bd 16 25 bf bd f3 2f a0 3e 3c 98 1f be
       -0.04160255 -0.093332455 0.31286582 -0.15585417
000390 db 7b 77 3d 99 d1 6b be 69 fe 52 be 2a 12 06 be
       0.060420852 -0.23029174 -0.20604862 -0.13092867
0003a0 93 20 d9 39 26 f9 94 3e 35 1b 48 3d 30 9e 80 3c
       0.00041413735 0.29096335 0.04885407 0.01570043
0003b0 7e af b1 3e 99 7f d5 3d 19 3f 14 be 6b 35 ae bd
       0.34704202 0.10424728 -0.14477195 -0.085062824
0003c0 96 8e 1f be cf 45 42 be 02 6c 5a be 6d fe a9 3d
       -0.15581736 -0.18971942 -0.21330264 0.08300481
0003d0 76 a5 85 3e 1f 05 07 bc 5b 61 74 bd 6a 5b 51 3e
       0.261028 -0.008240967 -0.059663158 0.20445028
0003e0 ae 45 22 3e c6 95 f1 3d 63 3c fd bd fd 1d 85 bd
       0.15846893 0.11796145 -0.123650335 -0.064998604
0003f0 17 e5 f9 bd c0 dd 59 3e ef 79 a4 3d 74 e2 e1 3d
       -0.122018985 0.21275997 0.080310695 0.11029521

GRU_a.bias_ih_l0 f4 [48]
000000 bc 61 a8 3e d1 5e 40 3e 09 4f 50 3e 85 ef 9a 3e
       0.32887065 0.1878617 0.2034265 0.30260864
000010 be 0b 71 be ca 23 5c 3e ee 57 01 be f3 6e fe 3c
       -0.23539636 0.21498027 -0.12631199 0.031058764
000020 e6 b2 dd 3c 26 10 c2 3d ca f2 71 3d c3 6e 93 be
       0.027062844 0.09475736 0.059069432 -0.28795442
000030 03 a6 a1 3e 71 94 50 be 97 24 35 bd e8 7b 5e 3d
       0.3157197 -0.20369126 -0.044224348 0.054317385
000040 5f 58 b5 be 9b 0d d0 be b1 ec 91 3d 3e 65 60 be
       -0.35418984 -0.4063538 0.071252234 -0.21913621
000050 5d 17 6a be 78 ba cc bd 11 11 bc be 00 ec 40 3c
       -0.22860475 -0.099965036 -0.3673177 0.011775017
000060 79 d2 95 be a9 2c 81 be 85 74 fa 3c 6a 33 59 3e
       -0.2926214 -0.25229385 0.030573139 0.21211019
000070 e5 ca 04 bd b8 ed 71 3d af 19 50 be 7c 8b 62 bd
       -0.032420058 0.059064597 -0.20322298 -0.055308804
000080 06 0d 9e 3d fc a7 13 3d 63 80 1c be 28 9e 3e 3e
       0.07717328 0.036048874 -0.1528335 0.1861502
000090 0b a0 63 bd 2d 41 07 3e 4b 84 88 3e 09 66 25 3c
       -0.05557255 0.13208456 0.26663432 0.010095128
0000a0 57 f0 99 3d ff a8 82 bd b6 e6 8f be 8d 19 3f be
       0.07516544 -0.0637989 -0.28105706 -0.1866209
0000b0 de 8b e8 3d d0 15 da 3c 2d 2f ac 3d 96 4d 20 be
       0.113548025 0.02662173 0.084074356 -0.15654597

GRU_a.bias_hh_l0 f4 [48]
000000 17 9d 81 3e 15 03 d6 bd 4f a3 7c 3e c8 81 a0 3e
       0.25315163 -0.104498066 0.24671672 0.31349015
000010 b8 3d 16 3e 9c a7 0d 3e ba 5d 9c bd 9a 07 46 be
       0.14671981 0.13833469 -0.076350644 -0.19338837
000020 96 0b 32 bd 2d 22 4b 3e 78 e6 12 be a8 1d 32 bd
       -0.04346808 0.19837256 -0.1434573 -0.043485314
000030 cf 70 56 3e d0 b5 83 be b4 ca 48 bd 03 89 3a 3e
       0.2094147 -0.2572465 -0.049021438 0.18216328
000040 1e 64 1b 3c 5d c5 1e 3d e3 88 a3 be 61 49 6e be
       0.009484319 0.03876244 -0.31940374 -0.2327018
000050 ff 21 79 be 89 4e 96 3e a9 59 8a 3d f1 c6 9e bd
       -0.24329375 0.29356793 0.067553826 -0.07752789
000060 1b c8 b7 bc c6 bc eb bd 65 8e 2d be 89 89 df bd
       -0.022434285 -0.11510615 -0.1694885 -0.109149046
000070 d6 bf fb bc 76 0d 36 be 31 9d af 3d 52 7e a6 3e
       -0.030731123 -0.17778572 0.08574904 0.3251825
000080 b7 46 13 bc fb bb ad 3e d5 0b 02 3e 3a af 29 3e
       -0.008989028 0.3393248 0.12699826 0.1657075
000090 b7 ad 67 be 9e 63 21 be 2f 1a a2 3e 58 1d 95 be
       -0.2262486 -0.15760657 0.31660601 -0.2912395
0000a0 9b 9e 1f 3e f7 ce 6d 3e 74 00 dc 3d f5 22 35 3e
       0.15587847 0.23223482 0.10742274 0.17689116
0000b0 10 b6 8e bd e5 54 70 be 3e cb 8f 3d 8f 7e 78 be
       -0.069683194 -0.23469885 0.07021187 -0.24267028

linear_a.weight f4 [4, 16]
000000 31 8f 1b bf 24 b3 f9 3e 5d d2 f2 be c3 bf e2 3e
       -0.6076537 0.48769486 -0.4742612 0.44286928
000010 c6 01 53 3e 94 0f ce 3d e2 26 f4 3e ee b5 33 be
       0.20606145 0.10061565 0.47685915 -0.1754987
000020 c4 36 0a 3f c6 d6 93 3e 46 2b 7f be f0 cb 70 be
       0.53989816 0.28874797 -0.24918851 -0.23515296
000030 b7 da 2e bf d5 3f ef bd 42 e3 58 3e e7 7b 00 be
       -0.6830248 -0.11682097 0.21180442 -0.12547265
000040 7b c1 05 bf 3a 0a c1 bd 45 7a 5c be b1 95 00 bf
       -0.5224835 -0.09425779 -0.21531017 -0.5022841
000050 10 2a 4d bd 34 c2 70 be 89 97 a8 be c4 c2 56 3e
       -0.050088942 -0.23511583 -0.32928112 0.20972735
000060 be 34 02 bf 6a 72 92 be 6c d1 04 be 12 f9 2a be
       -0.5086173 -0.28602916 -0.12970513 -0.16696575
000070 dd a2 c7 bd e2 4f 95 3d cd c1 eb be 46 1f 4b 3d
       -0.097478606 0.07290627 -0.46046296 0.04959037
000080 ef 74 63 3f 04 70 a2 3e 54 b7 53 3f 45 f9 a9 3d
       0.888503 0.31726086 0.8270161 0.082994975
000090 a0 e2 ad bd b1 41 6a 3e f2 5b b4 3d 04 a7 23 be
       -0.08490491 0.22876622 0.088066 -0.1598168
0000a0 b3 f2 80 be c2 c6 23 be 72 60 61 3e b3 33 26 3e
       -0.25185165 -0.15993789 0.22009447 0.16230659
0000b0 bb 7d 6f 3f 56 75 11 3e 9b 11 73 be bd 64 b6 bc
       0.93551224 0.14204916 -0.23737185 -0.022264833
0000c0 e9 9a 49 be ff 37 dc be 7a a3 f5 be 36 4e 21 bf
       -0.19688 -0.43011472 -0.47976285 -0.63009965
0000d0 f4 6d f5 bd 9d 09 38 3e b5 9f 17 bf 26 86 74 3e
       -0.119838625 0.17972417 -0.5922807 0.23879299
0000e0 6c d0 02 bf a8 b2 15 bf 1c 4b a9 3d ca 85 77 bd
       -0.51099277 -0.5847573 0.08266279 -0.060430326
0000f0 c2 a6 c2 be 61 76 79 3e de 8d d1 be 17 5e 14 be
       -0.3801785 0.24361564 -0.4092855 -0.14489017

linear_a.bias f4 [4]
000000 19 7e 84 3d 52 b3 cf be b4 f3 07 3e 2d 6f 6b be
       0.06469364 -0.40566498 0.13276559 -0.22991629

conv_v_0.weight f4 [16, 7, 3, 3]
000000 52 cc 93 bd 0b 7d b6 be cc 65 1c 3e 53 26 15 be
       -0.072167054 -0.35642275 0.15273207 -0.14565401
000010 9d 90 8d be 69 2f 02 be c6 3a d0 3d 6c 20 74 3c
       -0.27649394 -0.12713398 0.1016746 0.014900308
000020 9c a4 36 3e d0 06 f7 3d d5 3a d8 3d c2 92 e2 bd
       0.17836231 0.12061846 0.10558096 -0.11063148
000030 20 9e 09 be a5 56 8a 3d 19 eb b6 3d b6 f3 9f bc
       -0.13439226 0.067548074 0.0893156 -0.01952539
000040 d0 84 c1 bd 8f 63 0f be 05 e4 92 be f5 4e d1 3d
       -0.0944916 -0.14002822 -0.2868959 0.10220138
000050 da bf 18 3e 0e d9 6d 3e 93 2c 76 3e 84 e7 ed 3d
       0.14916936 0.23227331 0.24040441 0.11616424
000060 70 fa 06 be da fa 4f 3e 78 b2 81 be f3 23 d5 bd
       -0.13181472 0.20310536 -0.25331473 -0.104072474
000070 71 97 a7 3c 16 95 65 be 90 3a 6f bb a8 b9 10 3e
       0.020457955 -0.22420153 -0.0036503412 0.14133322
000080 87 1c 8d be 59 54 a9 be 9a 97 ae 3b fc cf 77 bd
       -0.27560827 -0.33072165 0.005328131 -0.060501084
000090 d1 ef de bd b1 4e 99 bd 92 c1 f7 3d 2b bf 2e 3d
       -0.10885585 -0.07485712 0.120974675 0.04266278
0000a0 fd 81 85 3c 38 00 de bd 96 58 df 3d e0 d2 e0 bd
       0.016297335 -0.108398855 0.10905568 -0.10977721
0000b0 6a 8c c7 bc af 1a cc 3d b4 66 38 bc 42 e9 95 bd
       -0.024358947 0.09966027 -0.011254955 -0.07319881
0000c0 b5 b4 61 bd a8 8b fc 3d 36 b5 3a 3d 02 70 e6 bd
       -0.055103976 0.12331325 0.045582972 -0.112518325
0000d0 71 d7 83 bd d2 a3 98 3c 57 55 83 bd 1f 17 20 bd
       -0.064375766 0.018632803 -0.06412762 -0.03908455
0000e0 4d 8a 16 bd ab a8 55 be ac ac 87 bd 85 7c 45 be
       -0.036752988 -0.20865123 -0.066247314 -0.19285782
0000f0 af eb a4 bd da ae 5f bd 24 e0 06 be 7b 98 6d 3d
       -0.080527656 -0.05461011 -0.1317144 0.058006745
000100 6b 2c 3e be 96 50 05 bc ef e4 5a bd 8e 46 bb 3d
       -0.18571632 -0.008136889 -0.053440984 0.091443166
000110 c3 9a 75 bb 9b 7b 0e 3e 86 97 16 3e e3 bc 27 be
       -0.0037476278 0.13914339 0.14706239 -0.16380648
000120 70 99 52 bd 9c 05 0f 3a 75 d9 af bd 46 47 0f be
       -0.05141586 0.0005455853 -0.085863985 -0.13992032
000130 65 f5 f5 3d 78 bb 38 bd 3a b2 95 bd 13 d5 b6 3d
       0.12009696 -0.04510066 -0.07309385 0.089273594
000140 1f cc 83 3d 8c df 6e be d1 1d c5 3d 91 e0 33 3e
       0.064354174 -0.23327464 0.09624828 0.17566134
000150 8c 43 44 3e b2 2c 3b 3e 67 1b e2 bc 35 b3 f0 3d
       0.19166392 0.18278769 -0.027600957 0.11752931
000160 53 b3 be 3d ad 31 2a 3e 28 13 4e bc 91 58 f7 bd
       0.09311547 0.16620512 -0.012577809 -0.120774396
000170 e9 d2 30 bd 94 af ad bd f9 fa 48 be aa b4 a7 bd
       -0.04316989 -0.084807545 -0.19626988 -0.08188756
000180 d2 e5 91 be 52 77 be 3d c2 94 0c bc b4 1f 30 3d
       -0.2849565 0.09300102 -0.0085803885 0.042998984
000190 f9 78 1a 3d 24 7c ff 3c 51 64 75 3d 3e 13 5e bd
       0.037713025 0.031187125 0.059910122 -0.05421757
0001a0 ae 2c 0b 3d e7 03 e7 bc 87 cc 2d be c5 c0 a7 3c
       0.033978157 -0.028200103 -0.16972552 0.020477662
0001b0 01 d6 26 3d ce 31 d0 bd 06 4c d0 bd 33 68 30 bc
       0.040731434 -0.101657495 -0.1017075 -0.0107670305
0001c0 da e9 02 3e d3 a8 b4 3d 2e 5c 43 3d 80 88 a9 3b
       0.1278452 0.08821263 0.04769533 0.005173743
0001d0 84 2d b8 bd 1e 1b f6 bb 63 d2 97 bd 32 82 32 be
       -0.089930564 -0.007510557 -0.07413175 -0.17432478
0001e0 61 66 40 bd 73 a4 04 bd 72 b5 ab bd 54 8e 97 bd
       -0.046972636 -0.032383393 -0.08384217 -0.07400194
0001f0 41 a8 8f bc 26 ef 8e bd 48 64 44 be 20 77 42 3e
       -0.017536284 -0.06979208 -0.1917888 0.18990755
000200 91 1f 6e bc 5e f9 b8 3d 97 24 ab 3d 54 e8 43 3e
       -0.014533893 0.09031938 0.08356588 0.19131595
000210 28 76 b8 be 95 57 0c bd cc 6a 8e 3d 6b e3 87 3d
       -0.36027646 -0.034263212 0.06953964 0.066351734
000220 23 9a 79 3d 0c 5e e9 3c 15 8f 73 bc 6d b8 13 bd
       0.06093801 0.028487228 -0.014865656 -0.036064554
000230 ca 36 1a 3e 4c ef 13 3e d2 2d 84 bd 06 a5 06 3e
       0.15059963 0.14446753 -0.06454052 0.13148889
000240 1d 8a 65 3e 2e 4b 29 3e 13 db 27 be 7a 30 4e 3e
       0.22415967 0.16532585 -0.16392164 0.2013568
000250 3b 96 9e be 29 f5 71 be 3e e3 a2 3d 66 d6 a8 3d
       -0.30973992 -0.23628677 0.07953499 0.08244018
000260 eb b5 7c bd 76 df 2f 3e 74 dd 6e bc ad a1 58 be
       -0.061696928 0.17175087 -0.014579166 -0.21155424
000270 20 83 2d 3e a0 57 00 bd bd 33 16 bd f4 c2 d4 3d
       0.16944551 -0.031333566 -0.036670435 0.10388747
000280 89 3b 13 be 74 d3 01 3e 4a 6d fd bd a0 ca c2 3d
       -0.1437818 0.12678319 -0.12374361 0.09511304
000290 5d 71 bb 3c de 5e b4 bd e5 a4 20 bd c2 03 5f bd
       0.022881204 -0.08807157 -0.039219756 -0.054446943
0002a0 be 2c 80 3d 26 80 ec bd f0 b8 93 bc e5 50 9b bc
       0.06258534 -0.1154788 -0.018032521 -0.018959472
0002b0 4b 24 39 bd bd 81 b4 bd 93 52 e4 3d 6d 5f 74 bd
       -0.045200627 -0.08813808 0.11148562 -0.059661318
0002c0 e6 e9 08 3e 75 60 9e bd 69 bf b0 3d b7 9b b5 bd
       0.13370475 -0.077332415 0.086302586 -0.08867591
0002d0 12 0d 9e 3d e8 4a 52 3d 5e be b1 bd 7f 68 b9 bd
       0.07717337 0.051340967 -0.08678888 -0.09053134
0002e0 b2 40 aa bc b5 95 ff 3c 61 27 a8 bc b5 5b e8 bd
       -0.020782802 0.031199316 -0.02052659 -0.11345617
0002f0 a6 7e 5a bd 4a 00 05 3e 97 40 c6 bd 9e ae b6 39
       -0.053343438 0.12988392 -0.09680288 0.00034843845
000300 89 b8 08 3e 4c df d5 bb 62 b4 31 be a5 f2 b4 3d
       0.13351645 -0.006526863 -0.17353967 0.08835343
000310 dc 35 61 bd a1 93 69 3d bd 90 53 be b1 27 45 bd
       -0.054983005 0.057025556 -0.20660682 -0.048133556
000320 4d d2 3c 3b 2e 7a 83 bd 91 26 bf 3d e9 f2 82 3d
       0.0028811872 -0.06419788 0.09333528 0.06393988
000330 5a fc 63 3d 44 ac f5 3d 18 fa 1e 3e 9a f9 ab be
       0.055660583 0.11995748 0.1552509 -0.33588868
000340 27 48 c7 bd d4 41 75 3e 04 4e d1 bd d0 e0 ae bc
       -0.09730559 0.23950893 -0.102199584 -0.021347433
000350 05 97 86 3e b4 0f 18 be ed 0f 0d be 3a dd 53 3e
       0.26287094 -0.1484974 -0.13775606 0.2068986
000360 32 b5 36 3d df 54 97 3d e6 f0 9d 3d 55 78 4a 3b
       0.044606395 0.07389235 0.07711963 0.0030894477
000370 7b 23 89 3d 77 7c 07 bd 88 37 6f 3d e8 a1 2a be
       0.066962205 -0.033077683 0.058402568 -0.16663325
000380 95 5c e4 bd a7 36 16 be 6a a2 c1 3d 15 87 20 be
       -0.11150471 -0.14669286 0.09454806 -0.1567653
000390 9b dc 14 be cf 5c c3 bc 7e 6f b8 bc 97 2b 9a bd
       -0.1453728 -0.023847966 -0.022514101 -0.07527845
0003a0 49 6f 1f be 4a 3c 1e be 97 34 02 bd 4d 93 1e 3b
       -0.15569796 -0.15452686 -0.031788435 0.0024196685
0003b0 5d 39 0d 3d 90 d7 1b 3e 5b eb 69 3d 2e f8 bd 3d
       0.034478534 0.1521895 0.057109218 0.09275852
0003c0 15 5a 67 3d 6e fc 77 bd c1 67 98 bd 63 66 1a bd
       0.056482393 -0.06054347 -0.074416645 -0.0376953
0003d0 8a d5 04 be 2a 87 35 be 68 1b e4 bc 6b 48 79 be
       -0.12972084 -0.17727342 -0.0278451 -0.24344032
0003e0 a7 e4 02 be 34 20 3a bd 55 d3 3b be 04 35 2c be
       -0.12782536 -0.045440868 -0.18342336 -0.16817099
0003f0 56 47 c4 3d 90 cc 18 3d f8 57 ba 3d 00 6d fb bd
       0.09583919 0.03730446 0.0909881 -0.122766495

conv_v_0.bias f4 [16]
000000 b3 a8 b8 3c 70 cf 8c 3d 60 b1 6c bc e6 7c ea 3d
       0.02254138 0.06875503 -0.014446586 0.11449604
000010 3c ec 09 bd 29 1c 30 3d 63 c5 04 3b 1f 01 56 bc
       -0.033672556 0.042995606 0.0020259253 -0.013061791
000020 ed f2 80 bc 1e c2 81 3d 7e 70 c3 3c 04 50 32 bd
       -0.015740836 0.06335853 0.023857351 -0.04353334
000030 22 c5 cb 3d f8 8b 02 3c e2 b4 a6 3d 02 89 f8 bc
       0.099497095 0.007967941 0.081399694 -0.030338768
