league/checkpoints/mfos_seeds/new_self_3x3_46/250_1.pth (torch, 300942 bytes, 105 tensors)

conv_a_0.weight f4 [16, 7, 3, 3]
0.112220004 0.043919314 -0.023819827 0.11762035 0.17143008 0.0105303 -0.01165519 0.15496135
0.15718037 0.08871299 0.17669271 0.06684784 0.10909101 -0.06297723 0.09264164 0.01715461
0.11786305 -0.018701473 -0.011646266 -0.028639685 -0.09654572 -0.007393464 -0.021552624 0.040641345
0.0028444647 0.18752891 0.033021286 -0.020619031 0.120070964 -0.024317957 0.115368664 0.0100915
0.16112207 0.044122826 -0.025487479 0.08349282 0.027622629 0.10808805 0.0016060923 -0.0149203185
0.022134176 0.0774438 0.0043395567 0.078496955 -0.03931024 -0.06700749 -0.038742095 -0.056587745
-0.0018939993 -0.11608869 0.06332807 0.09415661 -0.035293818 -0.09239633 0.0027674285 -0.044291463
-0.11327126 -0.14313085 -0.128174 -0.11404597 0.042324472 -0.14688294 -0.16489708 0.10716056
-0.03167801 0.034543302 0.12132467 0.08359069 -0.12508444 -0.10935978 0.05865581 0.013071475
0.08429764 0.14861275 -0.093365945 0.15543084 -0.004134384 -0.04519548 -0.09070949 0.15781134
0.17421006 0.009936177 0.090884246 -0.06047738 0.05555177 0.0500889 0.08191286 0.02965491
-0.05149782 0.017620271 -0.050443936 -0.053678617 0.012508495 0.026220446 0.14460385 0.07445031
0.05101953 -0.046749167 0.16751906 0.07109374 -0.08448286 -0.06894759 0.048968654 0.09972829
0.07683548 0.07798699 0.08602793 -0.09906134 0.09145782 0.10250435 0.03751682 0.09841827
0.036845516 -0.043055635 0.017258087 -0.037360493 -0.022742664 -0.13382092 0.0638842 0.058874175
-0.07514558 -0.11807631 -0.04960607 -0.08716346 0.10010795 -0.046290874 0.14287601 0.19283974
0.17330185 0.053021133 0.1766691 -0.05306749 0.09869829 -0.0631739 0.06628415 -0.059849985
0.20388614 0.19835152 -0.01563854 -0.04464529 0.024480654 0.18277831 -0.08369003 0.090946525
0.108123586 0.048044126 0.12994048 -0.11069899 0.058379844 0.1036444 0.07225426 -0.0665085
-0.07747787 0.15587623 -0.00071890117 0.18996176 0.11924535 0.16342582 -0.0065063844 0.108008854
0.09300818 -0.09284224 -0.043017257 0.05186344 -0.049057327 -0.11515506 -0.054456685 0.09005261
0.08550841 0.07790812 -0.051676314 -0.0018998426 0.041755684 0.069155775 -0.13308503 0.032169465
-0.082718186 -0.12345955 0.05491765 0.028463198 0.107754454 0.013954123 -0.08510586 0.11175942
0.091037184 0.04032635 0.10636386 0.013733468 0.13809271 0.043274384 -0.04392934 -0.07480737
0.14410456 0.14869589 0.10674419 0.13620561 0.05304886 -0.14016697 -0.09057677 -0.0786719
0.04463018 0.097528495 0.1818285 0.09876169 -0.056507956 -0.061398696 0.040071428 -0.087786205
0.012078152 0.1367312 0.05468299 -0.0279453 0.0016244401 -0.08032038 0.015912492 0.011733792
0.07529144 -0.03811383 0.00030384335 -0.16549538 0.115250185 0.17776884 0.15373129 -0.067682
0.0076263095 0.07983548 -0.025912484 0.09657698 -0.036842063 0.09167446 -0.14029095 0.08778078
0.030941771 -0.064185016 0.07950165 -0.11543869 -0.030607961 -0.09628516 0.027212644 0.08745441
-0.022072278 -0.112803005 0.024287874 -0.13235082 0.0063295383 -0.13641135 0.04586352 -0.068036646
-0.1285335 0.057497732 0.06819574 -0.1416441 0.13674572 0.12990142 -0.05468627 0.21061866
00000000: 9ad3 e53d bde4 333d cc21 c3bc f0e2 f03d
00000010: 5e8b 2f3e 4887 2c3c 69f5 3ebc 30ae 1e3e
00000020: e4f3 203e 28af b53d efee 343e 85e7 883d
00000030: 1c6b df3d 35fa 80bd e6ba bd3d d387 8c3c
00000040: 2f62 f13d d533 99bc fbcf 3ebc c69d eabc
00000050: c3b9 c5bd df44 f2bb 218f b0bc 8a77 263d
00000060: 336a 3a3b 9407 403e 5441 073d 3ee9 a8bc
00000070: c4e7 f53d 7436 c7bc 6846 ec3d d256 253c
00000080: 2ffd 243e 23ba 343d 1ecb d0bc 49fe aa3d
00000090: da48 e23c 445d dd3d 8483 d23a 5a74 74bc
000000a0: bb52 b53c db9a 9e3d d732 8e3b 03c3 a03d
000000b0: c603 21bd 393b 89bd 08b0 1ebd 8dc8 67bd
000000c0: 1240 f8ba e8bf edbd 26b2 813d 2ed5 c03d
000000d0: 4090 10bd 493a bdbd bf5d 353b f76a 35bd
000000e0: c3fa e7bd e590 12be 0c40 03be ef90 e9bd
000000f0: 6d5c 2d3d 7b68 16be c8da 28be ff76 db3d
00000100: cdc0 01bd 477d 0d3d 1279 f83d 9831 ab3d
00000110: 2316 00be 05f8 dfbd 1341 703d bd29 563c
00000120: 3ea4 ac3d f12d 183e a536 bfbd 4329 1f3e
00000130: ba79 87bb e51e 39bd e6c5 b9bd 4c99 213e
00000140: 1f64 323e 59cb 223c 8521 ba3d 21b7 77bd
00000150: 418a 633d 052a 4d3d eec1 a73d dbee f23c
00000160: 61ef 52bd 6358 903c 4d9e 4ebd 1cde 5bbd
00000170: 6ef0 4c3c 43cc d63c 0813 143e 6779 983d
00000180: dbf9 503d 0e7c 3fbd 1e8a 2b3e 9899 913d
00000190: 5a05 adbd 6534 8dbd 5b93 483d 593e cc3d
000001a0: ec5b 9d3d a5b7 9f3d 692f b03d ace0 cabd
000001b0: 3d4e bb3d cded d13d 3dab 193d 858f c93d
000001c0: 53eb 163d 1b5b 30bd d560 8d3c 5107 19bd
000001d0: d34e babc 5a08 09be b8d5 823d 0c26 713d
000001e0: ede5 99bd fed1 f1bd bc2f 4bbd c282 b2bd
000001f0: 6605 cd3d 809b 3dbd 174e 123e c877 453e
00000200: 0a76 313e b02c 593d bfe8 343e 4c5d 59bd
00000210: 5422 ca3d 5161 81bd fcbf 873d 4225 75bd
00000220: 87c7 503e a91c 4b3e 651c 80bc fbdd 36bd
00000230: a78b c83c 3d2a 3b3e ae65 abbd 2c42 ba3d
00000240: e66f dd3d ebc9 443d 1e0f 053e 27b6 e2bd
00000250: b41f 6f3d 8443 d43d 0bfa 933d 9c35 88bd
00000260: b8ac 9ebd 059e 1f3e a474 3cba 5685 423e
00000270: e836 f43d 1959 273e 8233 d5bb bf33 dd3d
00000280: 137b be3d 1324 bebd dd32 30bd c26e 543d
00000290: 56f0 48bd 6bd6 ebbd f90d 5fbd 816d b83d
000002a0: 091f af3d 4b8e 9f3d 8baa 53bd 2404 f9ba
000002b0: 0208 2b3d 8ba1 8d3d 7147 08be 21c4 033d
000002c0: 2768 a9bd 5cd8 fcbd 54f1 603d a72b e93c
000002d0: 5eae dc3d d59f 643c fb4b aebd 1fe2 e43d
000002e0: b471 ba3d 3e2d 253d 4cd5 d93d 5702 613c
000002f0: 2d68 0d3e 7b40 313d 40ef 33bd 9b34 99bd
00000300: 2590 133e bc43 183e b39c da3d 7c79 0b3e
00000310: c349 593d ee87 0fbe 5080 b9bd bc1e a1bd
00000320: 23ce 363d 05bd c73d 4031 3a3e 9243 ca3d
00000330: e374 67bd 337d 7bbd f021 243d 41c9 b3bd
00000340: 71e3 453c 4403 0c3e 45fb 5f3d 8bed e4bc
00000350: 2aeb d43a 037f a4bd ea5a 823c 173f 403c
00000360: 6632 9a3d 3f1d 1cbd 2a4d 9f39 9f77 29be
00000370: 4a08 ec3d 0909 363e bc6b 1d3e dc9c 8abd
00000380: 1fe6 f93b c980 a33d 6b46 d4bc 27ca c53d
00000390: b4e7 16bd d2bf bb3d 6ea8 0fbe 69c6 b33d
000003a0: 9979 fd3c 6f73 83bd c3d1 a23d 1f6b ecbd
000003b0: 8cbd fabc 2731 c5bd 0ded de3c 4c1b b33d
000003c0: ecd0 b4bc 4305 e7bd 5df7 c63c f986 07be
000003d0: 0468 cf3b 6baf 0bbe 63db 3b3d cc56 8bbd
000003e0: 499e 03be be82 6b3d 35aa 8b3d 270b 11be
000003f0: 1207 0c3e e104 053e b6fe 5fbd 6bac 573e

conv_a_0.bias f4 [16]
0.2046487 -0.014428783 0.14640878 -0.07589806 0.0138754165 0.1505418 0.21122603 0.020126471
0.19558623 0.158672 0.010397636 0.12355117 0.014497511 -0.0043010917 0.17917295 0.12764512
00000000: 6e8f 513e b466 6cbc 2fec 153e 7170 9bbd
00000010: b755 633c a127 1a3e a34b 583e 45e0 a43c
00000020: c247 483e ea7a 223e d95a 2a3c 6508 fd3d
00000030: f886 6d3c 2cf0 8cbb 1d79 373e 67b5 023e

conv_a_1.weight f4 [16, 16, 3, 3]
0.023141015 0.05427879 0.13117608 0.053753506 0.15813878 0.09003454 0.11571745 0.08703795
0.09455578 0.07740703 0.11585125 -0.03800511 0.12012414 0.08190224 0.10852209 0.08675055
0.1287219 0.09333466 0.110067934 0.1259207 0.114781015 0.1505656 0.07891174 0.10985483
0.062387303 0.14718203 0.035768718 0.025210192 0.016239805 0.017855784 0.0642989 0.090648554
0.0032329708 0.12543118 0.12029777 0.087738544 0.13830267 0.18142559 0.10706399 0.17897291
0.09560729 0.08959272 0.043202978 0.12159513 0.06416849 0.096873105 0.060895793 0.16650334
0.00787495 0.033024106 0.11190819 0.096763864 0.032704428 0.17152885 0.16314189 0.078000024
0.0043622465 0.12321066 0.06625006 0.053818062 0.09308046 0.026950559 0.08401319 0.15110873
0.0011914613 0.17048143 0.025657898 0.056548186 0.05668358 0.1726945 0.05314018 0.093936086
0.096487746 0.017873526 0.08920923 0.15238422 0.11033101 0.009494912 0.05642662 0.052159514
0.07870034 0.031618692 0.1511402 0.0048103714 0.08279677 0.070434436 0.14038986 0.06823298
0.016881604 0.03573815 0.11179721 0.0504925 0.046402074 0.044686884 0.10935882 -0.01721275
0.053223725 -0.035101917 0.08883074 0.17098819 0.14552653 0.028885823 0.06496571 0.015556039
0.07004068 0.12744153 0.050337262 0.082687885 0.08551821 0.04107002 0.13265558 0.051643364
0.16155438 0.12463748 0.056824256 0.18506265 0.053082783 0.13522996 0.12564826 0.01629541
0.09398327 0.08970031 0.13718675 0.15581122 0.10728176 0.09168563 0.054642 0.07095906
0.119130984 0.13170648 0.079695076 0.05094421 0.10508931 0.09791208 0.12527086 0.15251465
0.117048405 0.13696866 0.11758701 0.14932977 0.04324995 0.0531162 0.14585416 0.082886435
0.13992786 0.022831958 0.036084678 0.08893538 0.1347748 0.03564157 0.043609984 0.14835942
0.1310104 -0.052765895 0.119046696 0.04547359 0.107838266 -0.036705386 0.13601555 0.08768899
0.11882696 0.07294259 0.037647106 0.108513944 0.03415732 0.15101406 0.08156547 0.14732674
0.09815642 0.045017797 0.07601007 -0.00018329547 -0.030366555 0.07872821 -0.013920478 -0.014951197
-0.024095364 0.11105902 -0.0008818166 0.07562422 0.11427854 0.101561114 0.015901124 0.07695156
0.12446694 0.058503043 0.16379817 0.10269812 0.032532755 0.07527878 0.025356246 0.14554672
0.035812806 0.11075554 0.15738527 0.025958395 0.10993991 0.1483007 0.1664912 0.03711616
-0.013233132 0.042343374 0.11986792 0.019361855 0.028374705 0.0341463 0.107453175 0.09747293
0.00830896 0.07498821 0.13053727 -0.00083195575 0.13999847 -0.001346074 0.117447555 0.13625756
0.08271847 0.137655 0.031376455 0.11757334 0.049257096 0.03515739 0.0935772 0.11041242
0.10825242 0.034024306 0.020788636 0.054722395 0.10842902 -0.0026506651 0.034581352 0.0042837844
0.11311048 0.11604803 0.01593167 0.008602529 -0.003532787 0.06964529 0.034537915 0.019126413
0.05999525 0.0047861156 0.06785587 0.045347095 -0.023943363 0.03088249 0.04528053 -0.031787258
-0.0149957845 0.08741321 0.07439072 0.093354 -0.0077918274 0.03170746 0.13518247 0.043030567
00000000: 3a92 bd3c 7053 5e3d 0653 063e a32c 5c3d
00000010: 22ef 213e 0764 b83d 45fd ec3d f440 b23d
00000020: 76a6 c13d 9487 9e3d 6c43 ed3d 3fab 1bbd
00000030: a503 f63d 5dbc a73d d440 de3d 46aa b13d
00000040: accf 033e 3e26 bf3d 4c6b e13d 5bf1 003e
00000050: 4f12 eb3d de2d 1a3e 7a9c a13d 92fb e03d
00000060: d489 7f3d e3b6 163e 3882 123d 9b85 ce3c
00000070: 5709 853c 4b46 923c 24af 833d f3a5 b93d
00000080: 40e0 533b 0871 003e ad5e f63d 44b0 b33d
00000090: 379f 0d3e a1c7 393e 5d44 db3d ad44 373e
000000a0: c1cd c33d 637c b73d 9bf5 303d de06 f93d
000000b0: c56a 833d 6865 c63d de6d 793d da7f 2a3e
000000c0: ef05 013c 4944 073d 1f30 e53d 222c c63d
000000d0: 14f5 053d 42a5 2f3e ab0e 273e 7abe 9f3d
000000e0: 2df1 8e3b df55 fc3d 1dae 873d 5470 5c3d
000000f0: f8a0 be3d 6bc7 dc3c 1b0f ac3d 3fbc 1a3e
00000100: cf2a 9c3a af92 2e3e 8330 d23c 129f 673d
00000110: 0b2d 683d d4d6 303e 84a9 593d 9061 c03d
00000120: 5e9b c53d 806b 923c 54b3 b63d 9c0a 1c3e
00000130: 39f5 e13d 8c90 1b3c 991f 673d 37a5 553d
00000140: a52d a13d 9a82 013d 7fc4 1a3e 52a0 9d3b
00000150: 5a91 a93d ee3f 903d 5cc2 0f3e bcbd 8b3d
00000160: 4a4b 8a3c 2b62 123d f0f5 e43d 39d1 4e3d
00000170: 1a10 3e3d 9809 373d 84f7 df3d c101 8dbc
00000180: 1f01 5a3d 07c7 0fbd e4ec b53d 8717 2f3e
00000190: e804 153e f6a1 ec3c be0c 853d c2de 7e3c
000001a0: 7d71 8f3d 0880 023e 722e 4e3d 4458 a93d
000001b0: 2c24 af3d 0a39 283d ddd6 073e fe87 533d
000001c0: 836e 253e ef41 ff3d 8dc0 683d 1081 3d3e
000001d0: 556d 593d b979 0a3e f0a9 003e f47d 853c
000001e0: 4d7a c03d ccb4 b73d af7a 0c3e fa8c 1f3e
000001f0: 8ab6 db3d adc5 bb3d 4ad0 5f3d fc52 913d
00000200: f2fa f33d 10de 063e 2c37 a33d e0aa 503d
00000210: 1039 d73d 2186 c83d 0147 003e cd2c 1c3e
00000220: 13b7 ef3d 8341 0c3e 75d1 f03d e7e9 183e
00000230: dc26 313d 5f90 593d cb5a 153e 5dc0 a93d
00000240: 4049 0f3e 160a bb3c 87cd 133d c123 b63d
00000250: 6802 0a3e e5fc 113d 62a0 323d 88eb 173e
00000260: 9727 063e 0d21 58bd c1ce f33d 8442 3a3d
00000270: 4fda dc3d 6358 16bd a947 0b3e 4996 b33d
00000280: 8d5b f33d ed62 953d da33 1a3d 8f3c de3d
00000290: 8ce8 0b3d 6ea3 1a3e cc0b a73d d2dc 163e
000002a0: 3c06 c93d 9564 383d 2bab 9b3d 0133 40b9
000002b0: 48c3 f8bc 413c a13d b712 64bc def5 74bc
000002c0: a463 c5bc e972 e33d b629 67ba dfe0 9a3d
000002d0: de0a ea3d 46ff cf3d 1343 823c c898 9d3d
000002e0: 86e8 fe3d e3a0 6f3d b5ba 273e 6453 d23d
000002f0: 1141 053d c32b 9a3d e7b7 cf3c 330a 153e
00000300: 73b0 123d cdd3 e23d 9b29 213e b3a6 d43c
00000310: 2d28 e13d 24dc 173e ab7c 2a3e 1d07 183d
00000320: c7cf 58bc 3f70 2d3d 507d f53d c19c 9e3c
00000330: 1272 e83c fedc 0b3d 6910 dc3d e39f c73d
00000340: 4e22 083c 6b93 993d 90ab 053e 9b17 5aba
00000350: c25b 0f3e c06e b0ba 5888 f03d 1a87 0b3e
00000360: 4d68 a93d 6ff5 0c3e 9984 003d 4bca f03d
00000370: cfc1 493d 3201 103d 67a5 bf3d e81f e23d
00000380: 72b3 dd3d 125d 0b3d ee4c aa3c 9724 603d
00000390: 0910 de3d c8b6 2dbb 2da5 0d3d fd5e 8c3b
000003a0: 78a6 e73d 97aa ed3d 2283 823c 9ff1 0c3c
000003b0: 5586 67bb 31a2 8e3d a177 0d3d ffae 9c3c
000003c0: 94bd 753d d9d4 9c3b 05f8 8a3d e0bd 393d
000003d0: df24 c4bc 47fd fc3c 1478 393d 5b33 02bd
000003e0: e1b0 75bc b205 b33d 295a 983d 6230 bf3d
000003f0: 9652 ffbb aedf 013d 466d 0a3e d240 303d

conv_a_1.bias f4 [16]
0.04743489 0.1263338 0.023717232 0.08739734 -0.007736184 0.020127986 0.025884602 0.024744697
0.057607193 0.07492311 0.041024663 0.074794 0.024499755 0.04309574 0.036609214 -0.04980213
00000000: 164b 423d a65d 013e a44a c23c 60fd b23d
00000010: d17f fdbb 72e3 a43c f20b d43c 64b5 ca3c
00000020: 85f5 6b3d 4a71 993d 7a09 283d 992d 993d
00000030: b6b3 c83c 2985 303d 8bf3 153d 51fd 4bbd

linear_a_0.weight f4 [16, 144]
0.06569101 -0.049082585 0.0122674825 -0.07768549 0.0750121 -0.056531273 0.045395624 -0.004229897
-0.06790957 -0.04242472 -0.069787666 0.025322199 0.05256844 -0.06537129 -0.08828314 0.014062248
0.06241632 -0.023861516 0.07253068 -0.034379944 0.027205875 0.080033384 -0.046533413 0.037419837
0.046332166 -0.05562767 0.012893466 -0.030934196 -0.060197055 0.066881835 -0.027748995 0.039436404
-0.062300026 -0.046518523 0.050301027 0.010627216 0.011055051 0.06465092 0.051258728 -0.0054995953
0.026395567 0.020656584 -0.087151125 0.022357244 0.0062910714 -0.07478484 -0.08628444 -0.053856112
0.05146895 -0.00078772043 -0.03716655 0.037929155 -0.0028447462 0.060981244 -0.053557415 -0.036891486
-0.022656223 0.015694167 -0.060955726 0.008014211 0.012413348 -0.06233034 0.0110255955 -0.06188794
0.05760297 0.05385964 -0.07254151 0.05924074 0.0007404514 -0.10812746 -0.006267206 -0.06706177
-0.008588726 -0.08627903 -0.09508476 0.047320176 0.0150606055 -0.07643847 0.052274715 -0.06295462
0.05054209 0.03795797 -0.019307693 0.0016594573 0.012611399 0.02735992 0.058658298 -0.07094495
0.059188534 0.047907125 -0.06858053 -0.034357537 -0.010032296 -0.08200503 0.08456226 0.059710544
-0.053376265 0.035547 0.0146633955 0.033709466 0.036205128 0.04316339 0.08137086 0.04228308
0.07495149 -0.020772226 -0.045503415 0.073988594 0.061775733 -0.029189272 -0.038850404 0.0009460133
-0.052365094 0.04130709 -0.057454295 -0.014636248 -0.007686675 0.05729501 -0.068640664 0.062330008
0.031455368 0.0170608 0.0690766 0.04312808 -0.008427239 0.017026415 -0.018458981 -0.050521873
-0.009663543 -0.065976016 0.017131303 0.03121529 0.014642853 0.0038365482 -0.04116447 0.046510257
0.06870689 -0.04952315 0.034191765 0.005168461 -0.018298455 0.020705223 -0.06834767 -0.065206535
0.09052622 -0.03642414 -0.03993562 0.053001624 0.038954165 0.040905356 0.0043605017 -0.01483681
0.0661537 -0.06400372 -0.034407083 -0.06300274 0.017644435 0.055655137 0.014964456 -0.05679278
0.00069321285 -0.08763708 -0.06373156 -0.08342333 0.02566865 -0.019331856 -0.00155018 -0.03633188
-0.08372978 -0.03402111 0.05136018 0.064377174 0.06426115 0.04777359 0.0039858064 0.003339935
0.062278643 -0.04856573 -0.06889678 0.023746677 0.07382944 0.0056951866 0.054375328 -0.043092337
-0.0125287175 -0.039075553 0.008553437 0.034939032 0.046596546 0.01547573 0.056560624 -0.020922005
0.009016597 0.049338877 -0.014275326 -0.060182318 0.028561255 0.074127115 -0.0520087 0.07139236
-0.022277314 -0.0029525755 -0.054475788 0.01604258 -0.073021576 0.013634609 -0.0065855067 -0.015761368
-0.0620042 0.05272954 -0.086239666 -0.018631894 0.021025274 -0.009543298 -0.030416837 -0.046677183
0.013814729 0.048827183 0.042856604 0.08156465 -0.06727578 0.06294353 0.023261067 -0.045227073
-0.05941192 -0.08012701 0.0026608296 -0.075035684 -0.053011272 0.003390258 0.013365075 -0.02284228
0.041772634 -0.0013502155 -0.039608 -0.042853374 -0.021482212 -0.091860116 0.009966301 0.06202932
-0.06282409 -0.06818943 -0.072047085 0.046359476 -0.031925876 -0.009497033 -0.047167063 -0.00023536092
0.04979673 0.07118931 -0.039368995 0.038641986 0.038156897 0.0013967424 -0.0021084927 -0.07735953
00000000: 0289 863d d20a 49bd 8dfd 483c 9219 9fbd
00000010: f29f 993d 568d 67bd c3f0 393d f39a 8abb
00000020: 2c14 8bbd 8bc5 2dbd d6ec 8ebd 8070 cf3c
00000030: 0152 573d 62e1 85bd cacd b4bd 5865 663c
00000040: 41a8 7f3d 3a79 c3bc f78a 943d fcd1 0cbd
00000050: dbde de3c 8be8 a33d d299 3ebd 8b45 193d
00000060: ccc6 3d3d d7d9 63bd 1e3f 533c b669 fdbc
00000070: 3091 76bd 58f9 883d dc51 e3bc 1188 213d
00000080: 502e 7fbd 358a 3ebd 7308 4e3d c61d 2e3c
00000090: 3f20 353c b467 843d acf4 513d f335 b4bb
000000a0: 843b d83c ff37 a93c 4a7c b2bd 8a26 b73c
000000b0: 5525 ce3b cb28 99bd e5b5 b0bd 3a98 5cbd
000000c0: 1bd1 523d 067f 4eba f43b 18bd 9a5b 1b3d
000000d0: ec6e 3abb 78c7 793d 055f 5bbd 871b 17bd
000000e0: 8b99 b9bc 0e91 803c b6ac 79bd 0a4e 033c
000000f0: 5b61 4b3c 194e 7fbd b3a4 343c 357e 7dbd
00000100: 18f1 6b3d ed9b 5c3d a590 94bd 6ba6 723d
00000110: da1a 423a ee71 ddbd 225d cdbb ae57 89bd
00000120: bab7 0cbc 0fb3 b0bd ccbb c2bd cdd2 413d
00000130: c2c0 763c c68b 9cbd 031e 563d 5aee 80bd
00000140: 3905 4f3d d179 1b3d 2b2b 9ebc 2682 d93a
00000150: 0ba0 4e3c e921 e03c af43 703d 964b 91bd
00000160: ad6f 723d 433a 443d f373 8cbd 7dba 0cbd
00000170: 805e 24bc 41f2 a7bd fa2e ad3d 0b93 743d
00000180: 12a1 5abd bb99 113d bd3e 703c f012 0a3d
00000190: d44b 143d 18cc 303d c4a5 a63d 0631 2d3d
000001a0: 2b80 993d 842a aabc ca61 3abd 5587 973d
000001b0: 8d08 7d3d 571e efbc 9a21 1fbd e1fd 773a
000001c0: c87c 56bd a031 293d 3255 6bbd e0cc 6fbc
000001d0: 81e0 fbbb 2cae 6a3d 7a93 8cbd c04d 7f3d
000001e0: 58d7 003d 17c3 8b3c 0878 8d3d 12a7 303d
000001f0: 6712 0abc fb7a 8b3c 4a37 97bc 06f0 4ebd
00000200: d653 1ebc 6f1e 87bd f256 8c3c 35b7 ff3c
00000210: 94e8 6f3c 996e 7b3b 139c 28bd 8a81 3e3d
00000220: 33b6 8c3d c9d8 4abd aa0c 0c3d 315c a93b
00000230: a4e6 95bc 009e a93c ddf9 8bbd 018b 85bd
00000240: d065 b93d 7b31 15bd 8893 23bd 3b18 593d
00000250: 678e 1f3d 608c 273d 8ae2 8e3b 1716 73bc
00000260: 977b 873d 6214 83bd 71ee 0cbd 9507 81bd
00000270: 108b 903c a4f6 633d 7a2d 753c 8c9f 68bd
00000280: bab8 353a 127b b3bd b185 82bd dad9 aabd
00000290: 1047 d23c d75d 9ebc 692f cbba bdd0 14bd
000002a0: 857a abbd b859 0bbd 0d5f 523d 2ed8 833d
000002b0: 5a9b 833d 3dae 433d 5e9b 823b d0e2 5a3b
000002c0: e417 7f3d dcec 46bd c119 8dbd 6488 c23c
000002d0: e433 973d b09e ba3b aab8 5e3d 9781 30bd
000002e0: 4045 4dbc b00d 20bd b723 0c3c 3b1c 0f3d
000002f0: 05dc 3e3d eb8d 7d3c 1dac 673d a064 abbc
00000300: 59ba 133c 9017 4a3d 0fe3 69bc bc81 76bd
00000310: 4bf9 e93c f5cf 973d 1307 55bd 2836 923d
00000320: ea7e b6bc ff7f 41bb 0122 5fbd bb6b 833c
00000330: 568c 95bd b263 5f3c 3ccb d7bb fc1d 81bc
00000340: 1ef8 7dbd eefa 573d 6c9e b0bd eaa1 98bc
00000350: 323d ac3c 7e5b 1cbc bb2c f9bc 9330 3fbd
00000360: 2c57 623c 03ff 473d 688a 2f3d 5e0b a73d
00000370: e2c7 89bd 8ae8 803d fe8d be3c 0640 39bd
00000380: ea59 73bd a119 a4bd 5061 2e3b 4fac 99bd
00000390: 5922 59bd 172f 5e3b 30f9 5a3c bc1f bbbc
000003a0: c819 2b3d b7f9 b0ba 003c 22bd 0587 2fbd
000003b0: 77fb afbc 2821 bcbd b249 233c 7512 7e3d
000003c0: eba9 80bd e6a6 8bbd 6c8d 93bd 6fe3 3d3d
000003d0: b5c4 02bd 7299 1bbc 4032 41bd 37cb 76b9
000003e0: a8f7 4b3d b3cb 913d 6241 21bd 0f47 1e3d
000003f0: 684a 1c3d e612 b73a a32e 0abb ac6e 9ebd

linear_a_0.bias f4 [16]
0.056107894 0.010243621 0.09454058 -0.047687273 0.04271092 0.060204823 0.0092304 0.0003760313
0.05003221 0.076175414 -0.056830123 0.064799994 0.109905675 -0.040333398 0.035051327 -0.021433538
00000000: 64d1 653d dcd4 273c 7e9e c13d bb53 43bd
00000010: a5f1 2e3d 5599 763d 1b3b 173c 1126 c539
00000020: 93ee 4c3d db01 9c3d b4c6 68bd dcb5 843d
00000030: 3a16 e13d a234 25bd fb91 0f3d 6395 afbc

GRU_a.weight_ih_l0 f4 [48, 16]
-0.111730404 0.06034398 0.16730049 -0.16023295 0.2572118 -0.11274169 0.22287478 0.15889125
-0.040111702 0.085680075 -0.11723412 0.14626129 -0.079294845 -0.050402153 0.04919956 0.057996534
-0.21016262 -0.0034635821 -0.11836786 -0.12010025 0.15180762 0.21683507 0.027774299 -0.22103648
0.090775974 -0.0020954465 0.069402546 0.0026638603 -0.07022695 0.25267836 0.011917656 0.0064630425
0.11267213 -0.19500783 0.14014961 0.22326094 -0.16011631 0.22595266 0.1627965 0.22799975
0.17433558 0.008092216 -0.095621794 -0.062068988 0.34258232 -0.13178998 -0.02157753 -0.1494633
-0.1491722 0.08718953 0.03306842 -0.009441357 -0.18211213 -0.21051584 -0.024221381 0.22580001
-0.06940541 0.10048711 0.06958113 -0.23943144 0.05937355 0.13337247 0.05747532 -0.27138025
0.04250451 0.08991605 -0.17488815 0.13614534 -0.18900661 -0.2365855 -0.10033226 0.09356691
-0.02492473 -0.22965312 0.10494657 -0.03389946 -0.025750335 -0.15824343 0.23797974 0.12300531
0.0116965445 -0.068074286 0.16544126 -0.051324625 -0.17658046 -0.14416866 -0.23668519 -0.11973406
0.046926856 -0.14058669 0.060330223 0.10885343 -0.14240779 -0.2446291 0.04555756 -0.22324131
-0.15278731 -0.2702362 0.0030760993 0.1929633 -0.06552831 -0.051825643 0.081816696 -0.19013293
0.024074687 -0.058332562 -0.004254944 -0.18706763 -0.06306479 -0.19435792 0.120948 0.042327497
-0.07853495 -0.2127696 -0.07588998 -0.16456775 -0.116044685 -0.10816402 0.10828174 0.23469283
-0.17924291 -0.2291875 -0.2471575 0.11597335 -0.020147534 -0.18400714 -0.13973461 -0.12630558
0.13141668 0.14671347 0.018852282 6.51156e-05 -0.09793869 0.20631395 0.12332111 0.07160056
-0.16300432 0.05142964 0.106311925 0.24200234 0.253895 0.08110321 -0.0834626 0.045212798
0.16118394 -0.04116015 0.23646979 0.18574668 0.05058847 0.24999148 0.10374879 0.24625579
-0.09228859 -0.014184514 0.12653947 0.27138388 0.24152257 0.00016124651 -0.1304204 0.033114426
0.14758895 -0.20118353 -0.242567 0.040058587 0.18351126 0.20523976 0.15772809 -0.18524048
0.07152951 0.15479803 -0.019642234 -0.082957506 0.15355983 0.10927623 0.10681829 -0.23076752
-0.21424143 -0.21806067 0.12290406 -0.113749616 -0.115007386 0.05036037 0.2025188 -0.029116401
0.016208397 -0.06581002 0.21604362 0.073442094 0.15480866 0.0377884 0.24173053 0.03043944
0.15742566 0.108795956 0.27283865 -0.037257947 -0.15099648 0.2520484 0.03434436 0.24456686
-0.16946429 0.003913816 0.23675314 -0.20478636 0.10598124 -0.063779466 -0.19949724 0.03287555
0.16963732 -0.12676404 -0.03696616 -0.17065348 0.16394432 -0.2022668 -0.15042391 0.013838259
0.09639032 -0.23841023 -0.004744731 0.028622404 -0.030882169 0.21281983 -0.08655344 -0.033688102
-0.09829619 0.06540862 -0.29035795 -0.016039606 0.10524501 -0.11082667 -0.20389238 -0.22717656
-0.12602669 -0.19284715 0.061236333 0.047505926 0.013362588 -0.18681525 -0.19242185 0.17674148
-0.22789966 -0.24527736 0.023035144 0.0343292 0.11879194 -0.17446083 -0.18643983 0.057789758
-0.12750588 -0.01345374 -0.0075968746 -0.2284432 -0.11048645 -0.04650876 -0.21220995 -0.122139335
00000000: e9d2 e4bd 402b 773d d250 2b3e 1b14 24be
00000010: 44b1 833e 1de5 e6bd 4939 643e 63b4 223e
00000020: 2b4c 24bd 0979 af3d 7118 f0bd 85c5 153e
00000030: 5665 a2bd 7d72 4ebd 7a85 493d c68d 6d3d
00000040: df34 57be 44fd 62bb d96a f2bd 1ff7 f5bd
00000050: 7573 1b3e 030a 5e3e ed86 e33c 6357 62be
00000060: c1e8 b93d c253 09bb ec22 8e3d 2994 2e3b
00000070: 26d3 8fbd 0f5f 813e 4642 433c eec7 d33b
00000080: a5c0 e63d 22b0 47be 6183 0f3e 849e 643e
00000090: 88f5 23be 2260 673e 20b4 263e c478 693e
000000a0: 0785 323e 3795 043c 5cd5 c3bd 0d3c 7ebd
000000b0: f366 af3e f4f3 06be 5cc3 b0bc e80c 19be
000000c0: 99c0 18be 6d90 b23d c072 073d ecaf 1abc
000000d0: 9a7b 3abe 7791 57be eb6b c6bc 1e38 673e
000000e0: 6c24 8ebd 30cc cd3d 8d80 8e3d 842d 75be
000000f0: ae31 733d cb92 083e 3e6b 6b3d 5af2 8abe
00000100: 3619 2e3d e825 b83d e115 33be af69 0b3e
00000110: f38a 41be 7843 72be 007b cdbd 02a0 bf3d
00000120: f32e ccbc 302a 6bbe 3aee d63d 29da 0abd
00000130: 5ef2 d2bc 910a 22be f6b0 733e 35ea fb3d
00000140: dda2 3f3c 886a 8bbd 6f69 293e c539 52bd
00000150: 82d1 34be f3a0 13be 9a5d 72be 2137 f5bd
00000160: 6036 403d f5f5 0fbe d31c 773d 8cee de3d
00000170: 59d3 11be 0d80 7abe 909a 3a3d 5f99 64be
00000180: 4774 1cbe 665c 8abe 6298 493b 2c98 453e
00000190: b533 86bd 2047 54bd 838f a73d 35b2 42be
000001a0: 4738 c53c 20ee 6ebd 0f6d 8bbb a88e 3fbe
000001b0: 1d28 81bd c305 47be 96b3 f73d 995f 2d3d
000001c0: efd6 a0bd 46e0 59be 356c 9bbd 7384 28be
000001d0: d6a8 edbd 1985 ddbd d1c2 dd3d 5153 703e
000001e0: 748b 37be 21b0 6abe db16 7dbe 7083 ed3d
000001f0: 710c a5bc 5e6c 3cbe 9716 0fbe 4056 01be
00000200: 1892 063e 0e3c 163e 1a70 9a3c ac8e 8838
00000210: 1494 c8bd f743 533e c78f fc3d 50a3 923d
00000220: 9bea 26be e3a7 523d 11ba d93d 76cf 773e
00000230: 87fe 813e 7119 a63d 71ee aabd 0e31 393d
00000240: 670d 253e 8c97 28bd 2325 723e 6134 3e3e
00000250: db35 4f3d c4fd 7f3e 3f7a d43d 7a2a 7c3e
00000260: cd01 bdbd 2a66 68bc 9093 013e d4f2 8a3e
00000270: b151 773e 4814 2939 ed8c 05be fea2 073d
00000280: 8f21 173e 0e03 4ebe 7c63 78be 7914 243d
00000290: 60ea 3b3e 5f2a 523e 7983 213e aeaf 3dbe
000002a0: 107e 923d 6083 1e3e c0e8 a0bc a0e5 a9bd
000002b0: ca3e 1d3e 37cc df3d 8cc3 da3d 524e 6cbe
000002c0: 1b62 5bbe 4c4b 5fbe 20b5 fb3d 8ff5 e8bd
000002d0: fe88 ebbd ad46 4e3d 1761 4f3e 8585 eebc
000002e0: 79c7 843c 67c7 86bd 8a3a 5d3e cf68 963d
000002f0: 2986 1e3e 02c8 1a3d 3588 773e 225c f93c
00000300: 3134 213e 6ad0 de3d 82b1 8b3e ca9b 18bd
00000310: d29e 1abe 7d0c 813e acac 0c3d bc6f 7a3e
00000320: 0c88 2dbe 783f 803b 6a6f 723e 84b3 51be
00000330: b10c d93d cf9e 82bd 0149 4cbe 83a8 063d
00000340: 68b5 2d3e 6fce 01be d469 17bd c9bf 2ebe
00000350: 05e1 273e 071f 4fbe ba08 1abe ddb9 623c
00000360: 4a68 c53d d021 74be b079 9bbb 8879 ea3c
00000370: 9afc fcbc 71ed 593e ee42 b1bd 89fc 09bd
00000380: 834f c9bd f4f4 853d cca9 94be 7e65 83bc
00000390: b28a d73d 18f9 e2bd 2ac9 50be f9a0 68be
000003a0: 240d 01be b979 45be f3d2 7a3d 9395 423d
000003b0: c2ee 5a3c 7f4c 3fbe 3c0a 45be b8fb 343e
000003c0: 875e 69be fd29 7bbe 33b4 bc3c c69c 0c3d
000003d0: 3049 f33d dca5 32be 15ea 3ebe f4b4 6c3d
000003e0: e790 02be 136d 5cbc 34ef f8bb 04ed 69be
000003f0: b846 e2bd f87f 3ebd 914d 59be 3024 fabd

GRU_a.weight_hh_l0 f4 [48, 16]
0.1353208 -0.23136301 -0.11648354 0.2069044 0.11012523 -0.0381257 -0.26235774 0.0130707435
-0.15969671 -0.011035929 0.31134647 -0.26285857 -0.05622059 -0.061361477 -0.21980958 -0.11318359
0.16752909 0.16646352 0.015029916 0.12652256 -0.11690414 0.25345433 0.019264923 0.0067619784
0.22176513 -0.0028021166 -0.14559208 -0.15609638 -0.19574255 -0.04610271 -0.16828634 -0.13977985
0.27557003 -0.24574618 -0.09110343 0.21502723 0.14917347 -0.09750238 0.059700653 -0.07536767
-0.08369882 0.24276783 0.12919953 0.10633483 -0.07817761 -0.06734059 -0.18323389 0.18471582
-0.24617392 0.21730606 -0.046914957 0.0018985166 -0.046139617 0.2539689 0.1239372 0.091551766
0.12058998 0.06277319 -0.024128582 0.24092118 -0.17068309 -0.13959502 0.058071453 -0.05447167
-0.20770319 0.118496686 -0.053258646 0.19078115 0.09180504 -0.01659494 -0.0071655097 0.021494094
-0.11290297 -0.15314892 0.14955807 -0.04989568 0.038076274 -0.1044973 0.04357471 0.24479541
-0.17052543 0.0904936 -0.0648316 -0.2409192 -0.19683796 -0.16472833 0.094602466 0.15790613
-0.12187677 0.18445879 0.09780677 0.23975119 -0.21398507 0.16472551 0.24959816 0.008928651
-0.2311322 -0.17304577 -0.076365925 0.057054795 -0.09275621 -0.15242633 0.048571657 -0.06253625
0.15058988 0.1785414 0.05096516 -0.05018021 -0.16945256 -0.04645869 -0.20450237 0.2142484
0.19167174 0.0062005 0.15281118 -0.17461357 0.110376865 0.23744188 0.10890685 -0.08362864
0.1046669 0.10095683 0.19801526 0.1322054 -0.1982167 -0.01723313 -0.048427705 -0.1150949
0.00041089082 -0.0128541235 -0.18200704 -0.0796986 0.089124955 -0.10943966 0.19248945 0.10713474
-0.09643719 -0.038811035 0.03730793 0.025514757 0.030682335 0.08520704 -0.07466983 -0.08725561
-0.01768846 0.020278348 -0.104423575 -0.1741018 -0.11362593 -0.067327686 -0.027966153 0.1495519
0.033298995 -0.015493158 0.106181525 0.028557636 -0.16861655 0.2526406 -0.26654306 -0.0076819966
0.22330599 0.06718208 0.18001598 0.020963542 0.12101363 0.07275654 0.084404446 0.27822688
0.038426545 -0.039759625 -0.12707613 -0.1513069 -0.023434615 0.13938223 0.16872784 -0.2313678
0.22733377 0.07614872 0.11389417 0.055305272 -0.2090012 -0.011976923 -0.08128087 -0.15064165
-0.2083955 0.16051012 -0.016912203 0.1252789 -0.18774113 0.016979473 0.040111806 0.2322902
0.03863512 0.06463442 -0.15646817 0.13434438 0.25603884 -0.21005772 0.018272 0.103188574
-0.019682562 0.005454257 0.0992235 0.1493384 0.1888718 -0.024876151 -0.27120754 -0.022172477
-0.20130108 -0.1756592 -0.03678762 -0.23998621 -0.14720641 0.037672542 0.02525258 0.18383704
-0.04519907 0.18243842 0.17916465 0.18913475 0.105726115 -0.2332038 -0.09797886 0.039173108
0.04908292 -0.06513476 0.15179762 -0.044669908 -0.22284207 0.036333565 0.0041752513 -0.23492055
-0.093122624 -0.19176808 0.008433353 -0.15499009 0.06764837 0.2123103 0.22566997 0.015917836
0.24256332 0.11622296 -0.1455336 -0.111137316 -0.046132155 0.16968925 -0.10662453 0.104627095
0.10169738 0.13414593 0.23845787 -0.040122516 -0.24742861 -0.12071688 -0.0052276505 -0.2211066
00000000: 8991 0a3e 6dea 6cbe ec8e eebd bfde 533e
00000010: 5689 e13d b229 1cbd c153 86be ac26 563c
00000020: 8987 23be 0bd0 34bc ce68 9f3e 6695 86be
00000030: 9047 66bd 2c56 7bbd c315 61be cccc e7bd
00000040: bf8c 2b3e 6a75 2a3e 0940 763c 218f 013e
00000050: 706b efbd c4c4 813e 79d1 9d3c 9693 dd3b
00000060: 6616 633e b7a3 37bb 1716 15be bbd7 1fbe
00000070: bc70 48be 32d6 3cbd 4153 2cbe 7322 0fbe
00000080: 8417 8d3e e3a4 7bbe 6f94 babd 1930 5c3e
00000090: eec0 183e 54af c7bd ac88 743d 5d5a 9abd
000000a0: 496a abbd 2198 783e e24c 043e 13c6 d93d
000000b0: 951b a0bd dde9 89bd aaa1 3bbe 2526 3d3e
000000c0: 0415 7cbe 7b85 5e3e e629 40bd a5d7 f83a
000000d0: e5fc 3cbd 3608 823e c9d2 fd3d 7e7f bb3d
000000e0: e1f7 f63d 3b8f 803d 4ea9 c5bc 0bb4 763e
000000f0: 8cc7 2ebe fff1 0ebe 55dc 6d3d b01d 5fbd
00000100: 25b0 54be 64ae f23d bd25 5abd 225c 433e
00000110: 4804 bc3d 1df2 87bc a7cc eabb 6214 b03c
00000120: ac39 e7bd 12d3 1cbe c025 193e 6a5f 4cbd
00000130: def5 1b3d ae02 d6bd 657b 323d a6ab 7a3e
00000140: 389e 2ebe b554 b93d 6ec6 84bd 86b3 76be
00000150: e48f 49be 8bae 28be f0be c13d 25b2 213e
00000160: 879a f9bd c4e2 3c3e ea4e c83d 5681 753e
00000170: e71e 5bbe cead 283e a996 7f3e 7a49 123c
00000180: ebad 6cbe e932 31be bd65 9cbd 4ab2 693d
00000190: f8f6 bdbd a615 1cbe 13f3 463d 0113 80bd
000001a0: 3c34 1a3e 8fd3 363e d8c0 503d c489 4dbd
000001b0: f984 2dbe 784b 3ebd 1269 51be ef63 5b3e
000001c0: 9945 443e 902d cb3b 897a 1c3e e6cd 32be
000001d0: 440d e23d f723 733e 8e0a df3d 7e45 abbd
000001e0: 9a5b d63d 74c2 ce3d 83c4 4a3e da60 073e
000001f0: 52f9 4abe 7e2c 8dbc 215c 46bd e0b6 ebbd
00000200: d56c d739 1a9a 52bc 0e60 3abe 0539 a3bd
00000210: 2587 b63d e721 e0bd f41b 453e 7569 db3d
00000220: dd80 c5bd 52f8 1ebd 33d0 183d 5304 d13c
00000230: 8559 fb3c 0781 ae3d 7fec 98bd 12b3 b2bd
00000240: 64e7 90bc c71e a63c 07dc d5bd be47 32be
00000250: b6b4 e8bd 19e3 89bd 4619 e5bc 2224 193e
00000260: 8764 083d 04d7 7dbc b375 d93d b4f1 e93c
00000270: d1a9 2cbe 1c5a 813e 5578 88be 42b9 fbbb
00000280: 53aa 643e c296 893d 1c56 383e bcbb ab3c
00000290: fed5 f73d 6101 953d 3ddc ac3d c173 8e3e
000002a0: 2765 1d3d fdda 22bd 3f20 02be 32f0 1abe
000002b0: f3f9 bfbc 37ba 0e3e fec6 2c3e aeeb 6cbe
000002c0: 2fca 683e dcf3 9b3d 5941 e93d c887 623d
000002d0: 6904 56be db3a 44bc 9676 a6bd ce41 1abe
000002e0: a165 55be c45c 243e 768b 8abc 1d49 003e
000002f0: 363f 40be 8918 8b3c 474c 243d 7bdd 6d3e
00000300: dc3f 1e3d 0d5f 843d 3139 20be 9391 093e
00000310: 8617 833e 5f19 57be 29af 953c 8854 d33d
00000320: 533d a1bc a0b9 b23b b135 cb3d 2aec 183e
00000330: 9c67 413e 12c9 cbbc b7db 8abe 0ea3 b5bc
00000340: df21 4ebe 01e0 33be 9eae 16bd f2be 75be
00000350: 47bd 16be 864e 1a3d 80de ce3c c73f 3c3e
00000360: a922 39bd 23d1 3a3e f076 373e 8aac 413e
00000370: ef86 d83d facc 6ebe 24a9 c8bd fb73 203d
00000380: 2c0b 493d 6065 85bd d670 1b3e cbf7 36bd
00000390: b630 64be 81d2 143d 8cd0 883b 038f 70be
000003a0: 13b7 bebd da5e 44be 0c2c 0a3c b9b5 1ebe
000003b0: 3b8b 8a3d df67 593e 0716 673e 1f66 823c
000003c0: 8562 783e 4e06 ee3d c306 15be f69b e3bd
000003d0: 12f5 3cbd 05c3 2d3e f65d dabd bb46 d63d
000003e0: b746 d03d 8d5d 093e 4d2e 743e 8257 24bd
000003f0: ed5d 7dbe 693a f7bd b64c abbb c569 62be

GRU_a.bias_ih_l0 f4 [48]
0.051923905 -0.070529416 0.19489363 0.02984019 -0.037590634 -0.14780666 0.17945006 -0.27984157
-0.22910497 -0.2317704 -0.17795439 -0.013333801 -0.07917605 -0.06073744 0.126144 -0.11589242
0.0059723505 -0.08962656 -0.1376123 0.08229951 0.23780714 0.11602905 0.042673364 0.14731811
-0.34027648 -0.004909928 -0.047275703 0.096475035 0.08529714 0.009727966 0.16932108 0.16264725
0.07704664 0.22892791 -0.136362 0.1614722 -0.057184577 -0.16121908 0.120581515 -0.0795527
-0.15752132 -0.041278664 -0.09580891 -0.20101336 0.11455472 0.14108872 -0.23671289 0.22711377
00000000: 29ae 543d ba71 90bd 3292 473e 6a73 f43c
00000010: a3f8 19bd a15a 17be c2c1 373e 6547 8fbe
00000020: 7e9a 6abe 3855 6dbe ad39 36be 0476 5abc
00000030: 0e27 a2bd d2c7 78bd e52b 013e 0159 edbd
00000040: b5b3 c33b 218e b7bd 3dea 0cbe a58c a83d
00000050: b783 733e a3a0 ed3d 44ca 2e3d 8fda 163e
00000060: b838 aebe 76e3 a0bb 2ba4 41bd b494 c53d
00000070: 44b0 ae3d 0c62 1f3c 8162 2d3e 008d 263e
00000080: a1ca 9d3d 146c 6a3e 7ba2 0bbe f858 253e
00000090: 603a 6abd 9d16 25be 71f3 f63d 87ec a2bd
000000a0: 454d 21be d113 29bd 7637 c4bd 72d6 4dbe
000000b0: aa9b ea3d 9079 103e dd64 72be 8390 683e

GRU_a.bias_hh_l0 f4 [48]
0.18363284 0.1940313 -0.06722633 0.09954996 0.020763988 -0.21142985 0.018483434 0.05800227
-0.027215919 -0.17501295 -0.048192494 0.24326779 -0.11525234 -0.16028 -0.17709574 0.105310164
0.04948415 -0.0081029795 0.16410463 -0.037581213 -0.109177604 -0.024451822 -0.027402809 -0.14866242
-0.3216133 -0.045946766 -0.30461916 -0.024323277 -0.13198802 -0.09656001 -0.069651045 -0.12588607
0.24001303 0.23610425 0.22057897 0.017576687 0.05986586 -0.18270014 -0.14312015 -0.13478723
-0.1716432 0.16925685 -0.04491652 0.12312424 -0.16127484 -0.13208035 -0.039534204 0.14609167
00000000: 3f0a 3c3e 24b0 463e f5ad 89bd d9e0 cb3d
00000010: 3d19 aa3c 1181 58be 926a 973c ca93 6d3d
00000020: ebf3 debc 9836 33be 7e65 45bd 311b 793e
00000030: 6b09 ecbd 7120 24be 9658 35be dbac d73d
00000040: e4af 4a3d 5cc2 04bc 0b0b 283e c2ee 19bd
00000050: 8298 dfbd 304f c8bc db7b e0bc f63a 18be
00000060: 80aa a4be ad32 3cbd 0bf7 9bbe 9c41 c7bc
00000070: de27 07be 41c1 c5bd 35a5 8ebd 47e8 00be
00000080: fac5 753e 50c5 713e 74df 613e fcfc 8f3c
00000090: e735 753d bf15 3bbe 178e 12be aa05 0abe
000000a0: 3cc3 2fbe ab51 2d3e 63fa 37bd 9028 fc3d
000000b0: 3b25 25be 1240 07be 9eee 21bd 0e99 153e

linear_a.weight f4 [4, 16]
0.23139624 0.07230243 0.16255553 -0.028717823 -0.047283538 -0.048736066 -0.1547348 0.13932851
0.11519885 0.27179974 0.18476082 -0.22750483 0.086149216 -0.060844675 -0.098915964 -0.12756063
-0.21928042 0.14930229 -0.26072097 0.020994423 -0.35442087 0.13749835 -0.1179804 0.050372362
-0.32504582 -0.2619646 -0.4612298 -0.017547905 0.12206634 -0.4545039 -0.23826832 -0.006148761
0.15973163 -0.052732576 0.24297592 -0.025244623 0.19666933 0.029061317 0.15821125 -0.06485418
-0.08828239 0.12114473 0.012385991 0.10510211 -0.012110018 0.22906062 0.2499176 -0.08501796
-0.36982244 -0.17202482 -0.05522108 0.26254457 -0.26415005 0.196717 0.064959966 0.19180462
0.020716771 -0.34632924 -0.24089466 -0.071844794 0.18984607 -0.27565315 -0.014830619 0.013457993
00000000: 23f3 6c3e 4c13 943d f574 263e a441 ebbc
00000010: 62ac 41bd 789f 47bd cd72 1ebe 22ac 0e3e
00000020: 60ed eb3d 5629 8b3e f131 3d3e 07f7 68be
00000030: 006f b03d 4438 79bd 7494 cabd 419f 02be
00000040: 0c8b 60be b3e2 183e 387d 85be 7ffc ab3c
00000050: a776 b5be 5ecc 0c3e b59f f1bd 4053 4e3d
00000060: 686c a6be 3920 86be 5026 ecbe a0c0 8fbc
00000070: ebfd f93d bcb4 e8be 9cfc 73be 8c7b c9bb
00000080: b090 233e 1dfe 57bd aece 783e d0cd cebc
00000090: af63 493e 0012 ee3c 2102 223e 45d2 84bd
000000a0: 66cd b4bd ba1a f83d 9dee 4a3c c63f d73d
000000b0: 1969 46bc de8e 6a3e 66ea 7f3e e51d aebd
000000c0: 5e59 bdbe 4627 30be 802f 62bd 3e6c 863e
000000d0: ad3e 87be 2e70 493e bb09 853d 6e68 443e
000000e0: 38b6 a93c 1152 b1be 17ad 76be 5d23 93bd
000000f0: 0267 423e 6922 8dbe 20fc 72bc ea7e 5c3c

linear_a.bias f4 [4]
0.10828354 -0.3285472 0.007904609 -0.2388848
00000000: c3c3 dd3d 5737 a8be 5582 013c 389e 74be

conv_v_0.weight f4 [16, 7, 3, 3]
-0.059332833 0.017906893 -0.077378504 0.08541031 -0.13111867 -0.12897295 0.10144417 0.06985963
0.04090039 -0.16610633 0.11240794 0.097924374 -0.13172999 -0.017507691 -0.07604852 0.095622465
0.09265034 0.034273095 0.064932846 0.10207132 0.09873883 -0.025138523 0.12018498 0.14899041
0.1000701 0.078241095 0.111185215 -0.103092715 -0.029822266 0.044164274 -0.10725456 -0.10262123
0.058631875 -0.11214105 0.0055434103 0.012462688 0.033081405 -0.0817005 -0.024215376 -0.13070934
-0.04560047 -0.008654796 0.06331071 -0.020415623 0.06423218 0.08326165 -0.11131044 -0.012490733
0.049537357 0.08050929 0.10183806 0.036213998 -0.03576124 0.032286026 -0.13542193 0.10581616
0.08354518 0.09141397 0.021596285 0.013811289 0.072945684 0.07051683 -0.10115499 0.09901057
0.13050655 0.01822527 0.11642274 -0.047673948 0.11784328 0.0777449 -0.033116452 0.032386623
0.0066954456 0.009015936 -0.029192736 -0.1286696 -0.052958623 -0.10020624 -0.0050346893 0.12344154
-0.06796205 0.10676077 -0.1452596 0.091276936 0.14585914 0.09383754 0.036289815 0.068377934
-0.0750934 -0.021945266 0.03518045 0.029713107 -0.032201696 0.15713121 0.09994531 0.024228236
0.07779544 0.05819638 -0.048478387 0.052625343 0.15441096 0.11713581 -0.043062754 0.08120238
0.12104458 -0.03925211 0.0047409665 0.12212052 -0.027667312 0.024047017 0.15930109 0.06293567
0.071739666 -0.03521117 0.10682015 0.06776458 0.15433224 -0.091996364 -0.1253323 -0.12682694
-0.019260665 0.008697738 0.09110726 -0.04784433 -0.12851815 -0.055820156 0.20432976 -0.042414296
0.17017259 -0.054633524 0.12103467 -0.116766155 0.11227698 0.05239006 -0.12673438 -0.0007016308
-0.15650894 0.15612444 0.122263014 0.17623198 0.17627087 0.091124885 0.07615918 0.09213017
-0.021395188 0.06369086 0.011290997 -0.09547351 -0.038395304 -0.16670018 -0.22624485 0.028017014
-0.28386444 0.029612277 0.06377838 -0.084364034 0.13491759 0.18314204 0.17668211 0.18727772
0.2305576 0.06432254 -0.02660965 0.17861469 0.16228262 -0.0114989355 0.16330278 0.1031072
0.06518085 0.16985704 0.08418436 -0.08706853 -0.1524676 -0.13726003 -0.1593501 -0.116673924
0.025262134 -0.03727437 -0.1545598 -0.03585238 0.08518463 0.053777132 0.12128317 0.14909065
0.1202353 0.2025556 0.16748731 0.051635545 0.0565527 -0.09996025 0.12026114 0.1271287
-0.06647024 -0.07836166 -0.050698403 0.054313965 -0.020054772 0.12017588 0.019148028 -0.036921352
-0.11923534 0.10600381 0.09796945 0.046269853 -0.08868205 0.039879285 -0.055048 0.104873516
-0.21386848 0.029661711 -0.2445046 -0.22090355 -0.05160677 -0.14384718 -0.20001434 -0.21064845
0.20747331 0.1683753 -0.05874515 0.051415943 0.1056753 -0.013703381 0.1343044 -0.038711682
0.09977245 -0.06308821 -0.13251828 -0.031162694 -0.005912718 -0.057660114 -0.11711416 -0.051165782
-0.16931346 0.020812605 0.07490832 -0.08424622 -0.0018757522 -0.02914592 -0.094850056 0.053797595
-0.09103025 0.039714962 0.07689256 -0.22561602 -0.23635341 -0.11673583 -0.093143456 -0.097964615
-0.06647416 -0.21929164 -0.09951892 -0.23254642 0.12624395 -0.08757493 -0.00813158 0.047093853
00000000: fc06 73bd 7ab1 923c 9f78 9ebd 9aeb ae3d
00000010: f943 06be 7c11 04be f6c1 cf3d 9112 8f3d
00000020: 2b87 273d c717 2abe 2236 e63d 938c c83d
00000030: 3ae4 06be 4a6c 8fbc 54bf 9bbd b6d5 c33d
00000040: 76bf bd3d f261 0c3d 83fb 843d c50a d13d
00000050: 9537 ca3d 4eef cdbc 8b23 f63d f190 183e
00000060: 8df1 cc3d de3c a03d 13b5 e33d 4622 d3bd
00000070: d34d f4bc 99e5 343d 47a8 dbbd 142b d2bd
00000080: fa27 703d 35aa e5bd 7fa5 b53b 4d30 4c3c
00000090: 5e80 073d 9752 a7bd 535f c6bc abd8 05be
000000a0: 8fc7 3abd d8cc 0dbc 0ca9 813d aa3e a7bc
000000b0: 298c 833d 1585 aa3d baf6 e3bd eea5 4cbc
000000c0: afe7 4a3d 0ee2 a43d 7990 d03d 2155 143d
000000d0: 617a 12bd 5a3e 043d 0cac 0abe 25b6 d83d
000000e0: bc19 ab3d 3f37 bb3d b1ea b03c bf48 623c
000000f0: 8c64 953d 216b 903d 592a cfbd 0ec6 ca3d
00000100: 82a3 053e 294d 953c 0c6f ee3d c245 43bd
00000110: d157 f13d b838 9f3d 1ea5 07bd d6a7 043d
00000120: 7865 db3b 94b7 133c 9b25 efbc f7c1 03be
00000130: 24eb 58bd ee38 cdbd 09fa a4bb ebce fc3d
00000140: b02f 8bbd 64a5 da3d efbe 14be 67ef ba3d
00000150: 195c 153e e52d c03d a1a4 143d bb09 8c3d
00000160: 92ca 99bd 8fc6 b3bc 6019 103d e768 f33c
00000170: ede5 03bd 01e7 203e 20b0 cc3d 4b7a c63c
00000180: 3753 9f3d 545f 6e3d 4691 46bd ac8d 573d
00000190: e81d 1e3e e6e4 ef3d 9262 30bd 6f4d a63d
000001a0: 39e6 f73d d2c6 20bd 1c5a 9b3b 531a fa3d
000001b0: 8fa6 e2bc 40fe c43c d31f 233e 6be4 803d
000001c0: 3fec 923d 9639 10bd 86c4 da3d 28c8 8a3d
000001d0: 4509 1e3e 9768 bcbd 1c57 00be ecde 01be
000001e0: 8bc8 9dbc f580 0e3c 7196 ba3d 6bf8 43bd
000001f0: 439a 03be ada3 64bd d23b 513e 9dba 2dbd
00000200: b941 2e3e 67c7 5fbd 06e1 f73d 1823 efbd
00000210: 79f1 e53d f696 563d a8c6 01be a5ed 37ba
00000220: e143 20be 16df 1f3e 0865 fa3d 2876 343e
00000230: 5a80 343e af9f ba3d 58f9 9b3d beae bc3d
00000240: f644 afbc 5b70 823d e0fd 383c 9e87 c3bd
00000250: 6544 1dbd 74b3 2abe bbac 67be f083 e53c
00000260: ae56 91be 7295 f23c 3d9e 823d 0dc7 acbd
00000270: d627 0a3e 9689 3b3e 28ec 343e bbc5 3f3e
00000280: 4b17 6c3e 89bb 833d 7bfc d9bc c5e6 363e
00000290: 6a2d 263e 0866 3cbc d838 273e de29 d33d
000002a0: 8a7d 853d 01ef 2d3e da68 ac3d fc50 b2bd
000002b0: 7720 1cbe e58d 0cbe ac2c 23be bdf2 eebd
000002c0: 89f2 ce3c 03ad 18bd ed44 1ebe f2d9 12bd
000002d0: 4775 ae3d 6945 5c3d 5063 f83d 38ab 183e
000002e0: ed3d f63d bc6a 4f3e cb81 2b3e cb7f 533d
000002f0: cea3 673d f6b7 ccbd 794b f63d 072e 023e
00000300: 8d21 88bd 147c a0bd 21a9 4fbd 5278 5e3d
00000310: e849 a4bc c61e f63d 53dc 9c3c d83a 17bd
00000320: a831 f4bd 8718 d93d 35a4 c83d 7585 3d3d
00000330: ef9e b5bd 7658 233d 037a 61bd edc7 d63d
00000340: 5700 5bbe 1efd f23c 6a5f 7abe 8a34 62be
00000350: 9f61 53bd ad4c 13be 8fd0 4cbe 3ab4 57be
00000360: e273 543e 936a 2c3e c19e 70bd 8699 523d
00000370: 4b6c d83d 2584 60bc 1887 093e 2490 1ebd
00000380: 8055 cc3d 6434 81bd dfb2 07be e848 ffbc
00000390: 79bf c1bb 032d 6cbd 8cd9 efbd 3693 51bd
000003a0: 8260 2dbe 327f aa3c 8969 993d 4889 acbd
000003b0: cddb f5ba 6dc3 eebc bf40 c2bd de5a 5c3d
000003c0: 116e babd 28ac 223d d979 9d3d e307 67be
000003d0: a106 72be 3213 efbd ffc1 bebd aca1 c8bd
000003e0: 9b23 88bd fd8d 60be 93d0 cbbd a620 6ebe
000003f0: 1846 013e 7c5a b3bd 523a 05bc 7ce5 403d

conv_v_0.bias f4 [16]
0.035938386 -0.060162738 -0.0078596575 0.04431229 0.083131455 0.11434101 -0.04234249 0.058651786
0.04385039 -0.039855268 -0.047694873 -0.10243888 0.06996189 0.08025719 -0.011927024 0.09482947
00000000: 2134 133d 346d 76bd cbc5 00bc ce80 353d
00000010: d340 aa3d 9f2b ea3d 526f 2dbd db3c 703d
00000020: 779c 333d 473f 23bd b35b 43bd 7acb d1bd
00000030: 2e48 8f3d e25d a43d 9169 43bc f435 c23d

conv_v_1.weight f4 [16, 16, 3, 3]
-0.015089703 0.0014735668 0.0054634376 -0.05195423 -0.035030287 0.052586824 -0.017473387 -0.074345365
-0.019511698 0.005618123 0.094866544 0.026539434 0.004031694 0.06436912 0.11706697 0.040719688
-0.044285227 -0.017214643 -0.05138127 0.0016285296 -0.09984182 0.0098007275 -0.07813689 -0.063090816
-0.0085221175 -0.011743013 -0.13712315 -0.072056666 -0.042889003 -0.077268735 0.027638288 -0.015869785
0.03734801 -0.07942682 -0.0897819 -0.06115728 -0.06969034 -0.044535782 0.054391827 -0.12725668
0.041689668 0.04652349 -0.06646634 0.060416687 -0.053991627 -0.10520442 0.010108008 0.026147433
0.033347122 -0.078532875 0.04910965 -0.08207733 -0.079640515 0.023786852 0.029180763 -0.021750176
0.015982356 0.031843632 -0.039299462 -0.09414994 0.039710615 -0.058300175 0.039120756 0.053486023
0.08001532 0.041104812 -0.08385975 -0.022605533 0.012233586 0.028344197 0.036221895 0.047689237
-0.0352659 -0.02825673 -0.012516766 0.04648064 0.012662044 -0.039110057 -0.0019520062 -0.015400988
-0.10380157 -0.04548595 0.037355445 0.13053744 -0.08042976 -0.013969135 0.014780371 -0.07634667
-0.091603026 -0.07986361 0.025384353 -0.008495838 -0.052608468 0.03657904 0.000631498 -0.08260266
-0.037367854 -0.010705106 -0.0921126 -0.036299128 -0.022116607 0.0013449994 0.037608836 -0.014692273
-0.048411656 0.02379023 -0.12589559 -0.091840364 -0.05029827 0.030326463 -0.0816597 0.042064026
0.05049875 0.06968593 -0.034532674 0.021303756 -0.061935544 0.031856384 -0.11049719 -0.037067696
-0.071141094 -0.0718944 0.077236384 0.046833258 -0.0653248 0.04834736 -0.0035570613 0.06815054
-0.07700349 0.02462601 -0.045034386 0.060580786 0.06912861 0.12716487 0.087207295 -0.11427949
-0.09428247 0.07740729 -0.12513721 0.03199193 -0.10375446 0.026530877 -0.035154622 0.01566356
0.05643752 0.014536077 0.05378599 -0.03611188 0.021739028 -0.030946841 0.08069094 -0.06298497
0.026712162 0.057920344 0.07245717 0.039491992 -0.022204075 -0.07824079 0.016786382 0.031346902
0.07315768 0.09072085 0.06213786 0.005546763 0.033527326 -0.047624182 0.066812836 0.05173173
0.046018887 0.0077692596 0.015809672 0.020338474 0.025347743 0.04806727 0.0031368614 0.02961578
-0.033193026 0.06170708 0.019808955 -0.032278866 -0.059621833 0.0070603965 -0.02797622 0.053029753
0.056130387 -0.07583168 -0.09364628 -0.034536127 -0.08445007 0.040425476 -0.04363887 0.04748302
-0.07120052 0.035480373 0.032867532 0.047682215 0.036254223 0.03081052 0.043408938 -0.043997742
-0.07758686 -0.026980218 -0.03370229 -0.044737116 -0.09547334 -0.066299036 0.051723536 -0.048229344
-0.07801046 0.020181555 0.040977776 0.022532472 -0.004519829 -0.11762079 0.0590378 -0.061147805
0.02799157 -0.049604725 0.050005242 0.008178478 -0.060769167 -0.028643308 0.06352201 0.03593507
-0.092834115 -0.012786955 -0.07367276 -0.119151995 -0.02989888 0.0043991017 -0.06595929 -0.1082333
-0.08909707 -0.070311345 -0.07244972 -0.07792884 -0.048474573 0.06490991 0.039009873 0.08166366
-0.007431545 -0.018756194 -0.020892212 -0.026827732 -0.00403578 0.085120775 -0.011782149 -0.030179974
0.025827423 -0.007381038 0.030203149 -0.08591783 -0.060976464 0.009198705 0.08228808 0.0033043046
00000000: cd3a 77bc b224 c13a a306 b33b f5cd 54bd
00000010: eb7b 0fbd 4865 573d 5924 8fbc 6242 98bd
00000020: ffd6 9fbc 3b18 b83b 6449 c23d 3a69 d93c
00000030: 4d1c 843b f5d3 833d cfc0 ef3d b0c9 263d
00000040: 6d64 35bd b905 8dbc 2b75 52bd 6374 d53a
00000050: de79 ccbd 3b93 203c 3c06 a0bd c235 81bd
00000060: 5aa0 0bbc c465 40bc 036a 0cbe 7292 93bd
00000070: 61ac 2fbd 123f 9ebd b169 e23c 5a01 82bc
00000080: 3afa 183d 87aa a2bd 93df b7bd 0e80 7abd
00000090: cfb9 8ebd 276b 36bd f7c9 5e3d 934f 02be
000000a0: c9c2 2a3d 6a8f 3e3d 811f 88bd 7d77 773d
000000b0: 5326 5dbd 6a75 d7bd 0f9c 253c 2433 d63c
000000c0: fe96 083d d8d5 a0bd 3327 493d 2918 a8bd
000000d0: 911a a3bd a5dc c23c 7f0c ef3c 6d2d b2bc
000000e0: 6eed 823c 786e 023d 79f8 20bd afd1 c0bd
000000f0: 99a7 223d 2acc 6ebd 163d 203d 2914 5b3d
00000100: 12df a33d 855d 283d a9be abbd 3d2f b9bc
00000110: 616f 483c 1732 e83c 695d 143d ca55 433d
00000120: fa72 10bd a87a e7bc 1f13 4dbc 7c62 3e3d
00000130: 7674 4f3c de31 20bd 76da ffba 6d54 7cbc
00000140: eb95 d4bd 7a4f 3abd 0602 193d 9bab 053e
00000150: 5cb8 a4bd ccde 64bc 5f29 723c a55b 9cbd
00000160: 5e9a bbbd 888f a3bd d9f2 cf3c 2132 0bbc
00000170: fa7b 57bd e7d3 153d 1d8b 253a 952b a9bd
00000180: 090f 19bd 7864 2fbc 88a5 bcbd 65ae 14bd
00000190: e32d b5bc b14a b03a b90b 1a3d dcb7 70bc
000001a0: 4d4b 46bd bae3 c23c c6ea 00be cd16 bcbd
000001b0: 8f05 4ebd 346f f83c 333d a7bd 544b 2c3d
000001c0: c7d7 4e3d 7fb7 8e3d 2272 0dbd 3785 ae3c
000001d0: 20b0 7dbd d77b 023d 5a4c e2bd 4cd4 17bd
000001e0: 6cb2 91bd 5f3d 93bd 1c2e 9e3d 3bd4 3f3d
000001f0: 02c9 85bd e207 463d 961d 69bb 8392 8b3d
00000200: 01b4 9dbd 7cbc c93c fa75 38bd 8f23 783d
00000210: 4d93 8d3d 8237 023e bd99 b23d 5e0b eabd
00000220: 2b17 c1bd b787 9e3d f823 00be f809 033d
00000230: 387d d4bd 4857 d93c 4bfe 0fbd de50 803c
00000240: 072b 673d ba28 6e3c b34e 5c3d 0dea 13bd
00000250: 0c16 b23c 3b84 fdbc 4b41 a53d 44fe 80bd
00000260: 77d3 da3c e23d 6d3d 6d64 943d 5bc2 213d
00000270: 52e5 b5bc b53c a0bd 9883 893c 9c65 003d
00000280: b2d3 953d dacb b93d 4584 7e3d 9fc1 b53b
00000290: f353 093d 9311 43bd 2bd5 883d a7e4 533d
000002a0: 4d7e 3c3d 4695 fe3b 4983 813c df9c a63c
000002b0: 12a6 cf3c 30e2 443d cd93 4d3b cb9c f23c
000002c0: 69f5 07bd 90c0 7c3d 6446 a23c d836 04bd
000002d0: 0636 74bd e65a e73b 632e e5bc ba35 593d
000002e0: fae8 653d a44d 9bbd 9fc9 bfbd c175 0dbd
000002f0: 29f4 acbd 2f95 253d acbe 32bd 8e7d 423d
00000300: 94d1 91bd de53 113d 1ba0 063d 6d4e 433d
00000310: 4f7f 143d 5866 fc3c 92cd 313d fa36 34bd
00000320: dce5 9ebd 9e05 ddbc 6a0b 0abd 443e 37bd
00000330: 8787 c3bd cac7 87bd 0fdc 533d 228c 45bd
00000340: f3c3 9fbd ca53 a53c 50d8 273d 0596 b83c
00000350: 131b 94bb 2be3 f0bd 9fd1 713d 1f76 7abd
00000360: 944e e53c 532e 4bbd 4cd2 4c3d 06ff 053c
00000370: 17e9 78bd 5fa5 eabc d417 823d a730 133d
00000380: d01f bebd 6080 51bc bee1 96bd f605 f4bd
00000390: 7fee f4bc 5726 903b aa15 87bd 6ca9 ddbd
000003a0: 8678 b6bd 65ff 8fbd 8560 94bd 2899 9fbd
000003b0: 468d 46bd 7def 843d d1c8 1f3d 473f a73d
000003c0: 5184 f3bb 97a6 99bc 2526 abbc d5c5 dbbc
000003d0: 943e 84bb cd53 ae3d ea09 41bc fe3b f7bc
000003e0: 0894 d33c a2dc f1bb 986c f73c b0f5 afbd
000003f0: 75c2 79bd 2ab6 163c a786 a83d 088d 583b

conv_v_1.bias f4 [16]
0.023956468 -0.050552137 0.038520392 0.048743356 0.015560915 -0.026141468 -0.0041799336 -0.0030103615
0.0857778 -0.03335756 0.09638713 0.015050857 0.014226276 0.07291827 -0.038184498 -0.05051584
00000000: 5b40 c43c c20f 4fbd 8fc7 1d3d 1da7 473d
00000010: 35f3 7e3c a226 d6bc d3f7 88bb 7c49 45bb
00000020: 45ac af3d f0a1 08bd 9e66 c53d df97 763c
00000030: 5415 693c 2d56 953d 5967 1cbd b3e9 4ebd
