league/checkpoints/mfos_seeds/new_self_3x3_46/850_0.pth (torch, 300942 bytes, 105 tensors)

conv_a_0.weight f4 [16, 7, 3, 3]
000000 58 af 15 3e 07 5d 26 be ae 5b fd bd 4e 14 50 be
       0.1461767 -0.16246425 -0.12371002 -0.20320246
000010 87 63 6b 3e b2 70 06 3d e4 e2 d8 bc 5b 45 d3 bd
       0.22987185 0.03282232 -0.026475377 -0.10315963
000020 ed 37 3e bb f0 88 6a bd a9 89 01 3e 43 4d 24 be
       -0.0029025034 -0.0572595 0.1265017 -0.16045098
000030 de fc f0 3d 3c c5 0e 3d 1f 10 c5 3d a5 79 ac 3d
       0.117669806 0.034856066 0.096222155 0.08421639
000040 90 18 e8 3d af 61 bb 3d b2 f6 91 3d a6 c9 35 3e
       0.1133281 0.09149491 0.071271315 0.17752704
000050 9e c2 10 be 11 3e 9e ba da 0f 81 3c c5 42 15 bd
       -0.1413674 -0.0012072941 0.015754629 -0.03644063
000060 6f 03 0a be 84 1e 05 be d4 8d 34 3e 15 65 e4 3d
       -0.13477872 -0.12999922 0.17632228 0.11152092
000070 4f 69 50 3d 6a 9d 30 3e e3 5a 43 bc 2e 0c 54 3e
       0.05088168 0.17247549 -0.011923525 0.20707771
000080 13 db 64 bc d5 06 82 3c 13 61 43 bb aa e8 35 3e
       -0.013968247 0.015872398 -0.00298125 0.17764536
000090 b6 01 6e bd 91 1e 1c bd 66 f5 ce 3d 99 17 4d 3d
       -0.0581071 -0.038115088 0.101054 0.050071333
0000a0 c3 1a c3 bc 3a fe c1 3b 7f ef f1 3d 1b 71 70 bc
       -0.023816472 0.0059201987 0.118132584 -0.014675404
0000b0 a8 ad df bc 18 b3 b9 3d 0f 41 b0 bd cf c5 0a be
       -0.027304485 0.090673625 -0.08606159 -0.1355202
0000c0 07 db e7 bd f9 66 12 be 52 4a 5a bc e4 b6 b9 3d
       -0.11321073 -0.14297093 -0.013323383 0.09068087
0000d0 40 bc f2 bd 45 ae f4 bd e2 c8 98 3d 73 87 b8 3d
       -0.11852312 -0.11947302 0.0746019 0.0901021
0000e0 f1 4b 2d 3d 33 c9 af 3d 11 5e 16 3c 9b fa b0 3d
       0.04230875 0.085832976 0.009177701 0.08641549
0000f0 ca 29 c5 3d 6b 1c 0f 3b 3b bb 8b bd 30 40 fc 3d
       0.09627111 0.0021837007 -0.06822821 0.1231693
000100 f7 a4 04 be 2c 71 93 bd 93 e5 05 3d 95 a3 36 3c
       -0.12953554 -0.0719932 0.032689642 0.011147399
000110 09 bf c1 bd f1 02 16 3e c0 00 47 3d ba b6 2d bd
       -0.09460265 0.1464956 0.0485847 -0.04241059
000120 93 01 25 be 78 3e d3 3c 44 63 31 be 11 6d 1b be
       -0.16113882 0.025786623 -0.17323023 -0.15178324
000130 43 30 ad bd 5f 59 aa bd 9a 3f 9f 3d ed f4 c9 3d
       -0.08456471 -0.083178274 0.07775803 0.09861169
000140 10 d0 05 3e b9 c2 e1 3d 25 af 3e 3d b3 2c b2 3d
       0.13067651 0.110234685 0.04655375 0.08699932
000150 25 c1 e6 bd b3 34 45 3d ee d5 3d bd a8 53 be bd
       -0.11267308 0.04814596 -0.046346597 -0.092933
000160 4b 5a 11 3d 26 c5 40 3e 4c 36 96 3b 54 fa 9f 3c
       0.0354865 0.18825206 0.0045841094 0.019528545
000170 2b 4d 14 3c 86 58 7e be ae 5f 31 3e c8 b9 ef 3c
       0.009051601 -0.24838457 0.17321655 0.029263392
000180 48 07 a0 be e6 76 82 bb 62 c2 1f be f4 6c c9 bd
       -0.31255555 -0.003981459 -0.15601495 -0.09835234
000190 53 0c 95 3c ba f6 05 3d 15 2c 08 bd 7f 39 c7 bd
       0.018194353 0.032706 -0.033245165 -0.097277634
0001a0 e6 12 8b bb b8 56 b3 3d 44 9c c9 bc 66 1e 29 3d
       -0.004244196 0.08756775 -0.024610646 0.041288756
0001b0 63 0a 32 3e a2 48 30 3e fe 3a 6e bd fd b6 8d 3b
       0.17386775 0.17215207 -0.058161728 0.0043247924
0001c0 02 14 32 3e 7f 04 79 bd 53 fb 5e 3d 9c e6 20 3e
       0.17390445 -0.060795303 0.0544389 0.1571297
0001d0 43 2c 30 3e cd 19 f9 bd 77 fe 3b 3d 1a 55 ab bb
       0.17204385 -0.12163124 0.045896973 -0.0052286508
0001e0 30 7f 48 3d 20 ac 0d 3c c6 ba a8 3d c9 7a bd 3d
       0.04894942 0.008646995 0.08238749 0.09251935
0001f0 b2 55 5d bb 27 32 61 bb 65 4a 6b bc 43 fe fa 3d
       -0.0033773002 -0.0034362169 -0.014360999 0.12255528
000200 96 38 0f 3e 7d 3d 79 3d f2 4d ad 3c c6 49 d1 3d
       0.1398643 0.060849655 0.021155331 0.10219149
000210 83 83 24 bd a1 35 a5 bd e9 d6 38 bd 37 98 a1 3d
       -0.04016448 -0.080668695 -0.04512683 0.07890361
000220 dc 80 62 bd e6 ce df bd d3 42 fa bd ce 97 3b 3c
       -0.05529867 -0.109281346 -0.12219777 0.011449767
000230 49 53 a6 3d 8b 0c d8 3c 2f 34 dc 3c e1 60 80 bd
       0.08121354 0.026373168 0.026880352 -0.06268478
000240 e6 bb 52 3d 8e 18 b4 3d 89 3e 57 be ab ca a7 3d
       0.051448725 0.08793746 -0.21019949 0.08192953
000250 7a f0 56 ba 9f 18 ce bd c9 d2 b6 3c bc 91 ff bd
       -0.0008199286 -0.1006329 0.022317307 -0.124789685
000260 8e 07 32 3d d8 98 ca 3c 79 11 c7 3d 2d a8 aa 3d
       0.043464236 0.024731085 0.097201295 0.08332858
000270 f5 7e 87 3d 18 6c 89 3d 57 dc f7 bd d0 b2 1f be
       0.06616012 0.0671007 -0.12102573 -0.15595555
000280 82 e9 b1 bd e8 ce d3 bd 34 fd 76 3c 45 12 bb 3a
       -0.08687116 -0.103421986 0.015075017 0.0014272413
000290 59 af 02 3d f3 03 08 3d 50 54 f2 3b 68 10 e0 3d
       0.031905506 0.03320689 0.0073953047 0.10940629
0002a0 0d c9 cf 3d 28 d9 03 bd 60 06 b3 3d 63 17 f2 bd
       0.10145769 -0.03218952 0.0874145 -0.11820867
0002b0 3f 1b 0e be b1 9e 1b be 3e 46 f8 bd 95 a2 b6 bd
       -0.13877581 -0.15197255 -0.12122773 -0.08917729
0002c0 11 8b 18 bd 86 2a 60 bc 1a 14 32 bc ca d6 37 bd
       -0.037242 -0.013682013 -0.01086905 -0.044882573
0002d0 fa 6e a7 bd 4d 3f f9 bd 7e 08 3f bd 8c b6 76 bd
       -0.08175464 -0.12170277 -0.04663896 -0.060232684
0002e0 2b 77 4a 3c 80 4b fb bd 15 fc 22 be 0f 56 9a bd
       0.012357513 -0.1227026 -0.15916474 -0.075359456
0002f0 46 f7 8f bd 3e ee 62 be 96 6b 50 be d6 e9 70 be
       -0.070295855 -0.22161195 -0.20353541 -0.23526701
000300 d0 41 59 3e d7 80 41 3e b1 ea dc 3c 1c dc cd 3d
       0.21216512 0.18896805 0.026967378 0.10051748
000310 5b d6 ea 3d 39 91 67 bb e8 a8 4d be 81 fe f2 bd
       0.11466666 -0.0035334362 -0.20083964 -0.11864949
000320 ea a0 26 be 8b 11 93 3d ff 3f 6c 3d e0 31 34 3c
       -0.16272321 0.071810804 0.05767822 0.010998219
000330 7a f5 5f 3d 0a f9 2e 3d 4f 80 93 3d 54 7f 53 3e
       0.054677464 0.04271797 0.07202207 0.2065404
000340 06 c2 69 3e bd 9f 12 3e 46 86 95 3d a7 66 61 be
       0.2282792 0.14318748 0.07301001 -0.22011815
000350 ae ac 59 be 71 3e c4 bd ff 58 b5 bd d6 74 7c be
       -0.21257278 -0.09582222 -0.08854865 -0.24653944
000360 ee 48 78 3e ed d1 61 3e f8 5a 06 3e 12 c5 6b be
       0.2424657 0.22052737 0.1312064 -0.23024395
000370 a4 ec 6c be 7e b2 8c be d4 91 0b 3d e8 e1 5d bd
       -0.23137146 -0.2747993 0.03407462 -0.05417052
000380 62 10 11 be 9a f5 c8 3d b4 42 e5 3d 5b 96 d4 bd
       -0.14166406 0.0981247 0.11194363 -0.103802405
000390 06 25 1f bd cc 86 60 bd e3 3c 32 bd b1 f7 96 3d
       -0.038853668 -0.054816052 -0.043515097 0.07371462
0003a0 4b 52 c8 bd 1e 0d 15 bd 16 52 1c be f4 32 33 be
       -0.09781321 -0.036389463 -0.15265688 -0.17499906
0003b0 3f f2 bf bd ae ba 91 bb ea e0 b9 bd 07 dc be bc
       -0.09372377 -0.004447303 -0.09076102 -0.023298277
0003c0 8d f6 23 be 4c 50 97 3d 2e b0 93 bc db 9d 4d 3d
       -0.1601202 0.07388362 -0.018028345 0.05019937
0003d0 c4 bd d8 bd 15 2c e2 bd 18 5f 38 bd ae 6a 1f bd
       -0.1058307 -0.11043564 -0.045012563 -0.038920097
0003e0 81 e8 04 3e 2a b2 8e bd 70 7a db 3d a7 65 61 bd
       0.12979318 -0.06967576 0.107167125 -0.055028584
0003f0 f6 75 ce bd d6 78 b8 bd fc 9e d6 3c e2 52 27 be
       -0.10081093 -0.090074226 0.026198857 -0.16340211

conv_a_0.bias f4 [16]
000000 4c 64 4c bc 8f 49 45 3d 57 10 b8 3b a2 a0 5f bd
       -0.0124750845 0.048165854 0.0056171822 -0.05459655
000010 3a d1 4c bd be cb cb bd dc bf 05 3d e1 b8 0f bd
       -0.05000422 -0.0995097 0.032653674 -0.035088424
000020 a6 ce 28 3d 97 0e 0a bd b5 16 44 bd 0e c6 a1 bd
       0.0412127 -0.03370532 -0.047873218 -0.07899104
000030 bb bc 98 bd 95 2e 60 3d 0d 53 dc 3c 58 20 8f 3d
       -0.074578725 0.054731924 0.02689507 0.06988591

conv_a_1.weight f4 [16, 16, 3, 3]
000000 2c 24 c5 3c b7 1a 3f 3c 90 49 3e 3c 7c dc 70 ba
       0.0240651 0.011664084 0.011614218 -0.0009188128
000010 a5 e4 06 3e 98 d8 b2 3b ba da 0b 3d 70 a6 85 3d
       0.13173158 0.005457949 0.03414414 0.06525886
000020 ed d6 54 3d 57 f1 90 3d c8 21 2b 3d c8 7b 37 3e
       0.05196278 0.07077282 0.041780263 0.17918313
000030 1f 17 b1 39 9c a8 9f 3d 7e e6 a6 3d bd 1a 25 3d
       0.00033777297 0.077958316 0.08149432 0.040308703
000040 e0 ef 2b 3d f3 b0 3c 3d 77 f2 04 3e 32 e9 ab bb
       0.04197681 0.04606719 0.12983118 -0.005246305
000050 7b a3 6d 3c ee e1 b2 3d 88 53 88 3d 23 d0 cf 3c
       0.014504309 0.08734499 0.06656557 0.025367802
000060 19 e5 5e 3d b4 f6 63 3d 6f e3 27 3d 6f 5a 3e be
       0.054417703 0.055655196 0.040988382 -0.18589185
000070 76 85 46 be ca 87 3f be d6 ef 50 be bd cf 3b be
       -0.19386849 -0.18704143 -0.2040399 -0.18340965
000080 03 36 51 be c9 99 3e be 69 91 61 be df d6 31 be
       -0.2043076 -0.18613352 -0.22028126 -0.17367123
000090 52 08 32 bd 12 eb 91 bd 9b 46 cf 3a 30 36 5b bc
       -0.043464966 -0.07124914 0.0015813889 -0.0133796185
0000a0 03 b5 8b bd 26 dc 1f 3c 7e 68 dc bc ed 5d fa bd
       -0.068216346 0.009757077 -0.026905295 -0.12224946
0000b0 d2 86 fb bc 01 c4 4c bd d2 ff 0f bd 45 97 e7 bb
       -0.030703936 -0.04999161 -0.03515608 -0.0070675933
0000c0 73 48 74 3b 11 37 91 3d 6c 6a 7f bc fc 1d e8 3c
       0.0037274628 0.07090581 -0.015589338 0.02833461
0000d0 81 6d 9b 3c 82 5c 6d b9 1e 0a 6a bc 1d f9 e2 bc
       0.018973114 -0.00022636543 -0.014284639 -0.027706677
0000e0 79 a7 ce bd b5 c0 ae 3a 22 28 79 bd 99 5f 9e bd
       -0.100905366 0.0013332578 -0.06082929 -0.077330776
0000f0 5f 8a 81 bd 65 7d 08 be 73 f8 fe bd 60 8f 3c 3e
       -0.0632522 -0.13329084 -0.12449732 0.18414068
000100 d6 0f 3b 3d 14 8e 83 3d 4e c3 73 3d 77 88 07 3e
       0.0456694 0.064235836 0.05951243 0.13235651
000110 40 dc 56 3d 5b 21 02 3e b6 2b 17 3e 79 1c 1b 3e
       0.05245614 0.12708037 0.14762768 0.1514758
000120 b7 19 1a 3e 19 e0 59 3e c7 0f 0b 3e af 19 ca 3d
       0.15048872 0.21276893 0.13580237 0.0986818
000130 66 33 9a 3d 00 37 a9 3d b9 5d 08 3e 63 54 54 3e
       0.07529335 0.082624435 0.13317002 0.20735316
000140 f2 4f 35 3e 7f c0 26 3d 1c b1 5c bd c2 3f c4 3c
       0.17706278 0.040710922 -0.053879842 0.023956183
000150 5f e4 14 3d 47 a6 34 3d 78 dd 98 bc 4d 7c 3e 3d
       0.036350604 0.044103887 -0.018660292 0.04650526
000160 b2 98 99 3d 80 ca a5 3d c0 c1 0a bd 68 ac 89 bb
       0.074998274 0.080952644 -0.03387618 -0.0042014606
000170 15 77 75 bd b2 a1 19 be 7f 21 3a bd cb 57 1f be
       -0.05992802 -0.15003088 -0.0454421 -0.15560834
000180 39 94 83 bd 85 63 bf bd 5e 72 bf bd 3d 0d 66 be
       -0.064247556 -0.09345154 -0.09347986 -0.22465988
000190 1f 2a 4a be 6d a0 a9 bd dd 0e ee bd a1 b2 62 be
       -0.1974263 -0.08282552 -0.11623929 -0.22138454
0001a0 58 f3 62 be ac a4 97 bd ba 8d 45 be b9 63 1a be
       -0.22163141 -0.074044555 -0.19292346 -0.15077104
0001b0 ee 5d 27 be c8 37 38 be df ef 88 bd 9a 84 4e be
       -0.16344425 -0.17990029 -0.06686377 -0.20167771
0001c0 b3 69 06 be a7 77 44 be 51 08 39 be 4f 90 92 bd
       -0.13126259 -0.19186269 -0.18069579 -0.07156431
0001d0 8f ec 48 be 8f 8c 3c 3d 46 2c 1b 3e 3f d5 13 3e
       -0.1962149 0.046032485 0.15153608 0.14436816
0001e0 16 d9 08 3e dc 64 45 3e f7 a2 84 3d 96 0e 66 3d
       0.13364062 0.19276756 0.064763956 0.056166254
0001f0 df 1c 48 3e 7c 1c 0a 3e 40 78 18 3e fc b1 0e 3c
       0.19542263 0.13487428 0.14889622 0.008709427
000200 30 46 c0 3d 4a 6e 8d bb 75 31 86 3c cc 2a 64 bc
       0.09388387 -0.004316126 0.016381005 -0.013926219
000210 92 ce d6 3d e8 a9 35 3d 29 ce cf 3d 40 6d 0b 3e
       0.10488619 0.04435149 0.10146744 0.13615894
000220 53 3d 3f 3d e7 37 50 3c 04 37 fe 3d bd ad 00 3e
       0.046689343 0.012708641 0.12412837 0.12566276
000230 f8 24 f8 3d c7 2b 4a 3d 65 2f 42 3c f5 dd e0 3d
       0.12116426 0.049358156 0.01185212 0.10979835
000240 08 7d 96 bd 5e 53 ba 3d 83 4a 0f bc 20 0e 60 3d
       -0.073480666 0.09097932 -0.008745792 0.05470097
000250 bf 80 ef 3c e3 fe a3 3d 4e 6d 4e 3d 29 0e 92 3d
       0.029236196 0.080076 0.05039721 0.07131607
000260 6d 63 82 39 19 05 60 3d 43 df a9 3b f3 79 a0 3d
       0.0002486961 0.05469236 0.0051840856 0.0783576
000270 19 f6 d1 3d 3e 4a f4 3b 2c bc 2a 3d 90 f9 77 bd
       0.102520175 0.0074551394 0.04168336 -0.060540736
000280 dd 19 1f bd 58 20 32 3d 5d 50 19 bd af 03 65 3d
       -0.038843025 0.043487877 -0.037430156 0.055911716
000290 2e 44 b2 3c d0 a3 f0 bc f6 4a 0a bc 97 0e 47 3d
       0.021761026 -0.029374987 -0.008440724 0.0485979
0002a0 ae c4 f9 3b 37 5d 6e 3c 9b 54 03 bd fe 51 ca 3d
       0.007622323 0.014548591 -0.032063108 0.0987892
0002b0 46 22 78 3e 60 a3 31 3e 55 ee 84 3e ad f2 3b 3e
       0.24231824 0.17347479 0.25963083 0.18354292
0002c0 81 db 17 3e 11 b7 20 3e aa 79 5b 3e f9 f4 de 3d
       0.14829828 0.15694834 0.2143313 0.108865686
0002d0 36 d0 38 3e 6a 91 b3 3d df e9 1b 3e c6 4f 6c 3d
       0.18048176 0.0876797 0.15225933 0.057693265
0002e0 9a 8c d3 3d 71 05 1d 3e ab 18 2f 3e a2 27 ee 3d
       0.10329552 0.15334107 0.17099254 0.11628653
0002f0 d4 34 03 3e d2 f8 61 bd f3 ce 63 bd 65 39 b5 3d
       0.12813121 -0.055168934 -0.055617284 0.08848838
000300 9c 10 03 3d 33 f1 04 3e 72 d6 e8 3d 26 a9 3b 3d
       0.03199826 0.12982635 0.11369027 0.04581561
000310 31 80 72 3d d8 b1 68 3c 4f 9c 98 3d e6 5e 45 3d
       0.059204284 0.0142025575 0.074516885 0.048186205
000320 cd e2 85 bb e4 55 8d 3d ea 1f 47 3e e0 e7 19 3e
       -0.0040858747 0.06901148 0.19445768 0.1502986
000330 63 c7 ab 3d 51 f5 6d 3d 79 4b 6f 3d 44 56 8c 3d
       0.083876394 0.05809528 0.058421586 0.06852391
000340 ac 87 e4 3d b0 49 b7 3a f9 e6 68 bb cd 7a c6 bd
       0.1115869 0.0013983753 -0.003553806 -0.09691391
000350 62 b9 79 bd 30 8c 0d 3d 7d f3 a0 3d 5a 03 c7 3d
       -0.06096781 0.03455752 0.07858942 0.09717436
000360 15 04 8f 3d 98 e9 ce 3c 73 b1 53 3d 4e f2 a9 3d
       0.069832005 0.02525787 0.0516829 0.08298169
000370 1e a9 8c 3d ba b5 d9 3c 4a 4e 6a 3c 76 a1 ca bc
       0.06868194 0.026575912 0.014300892 -0.024735194
000380 e5 7b 2b 3d 0f 87 8b 3d b2 76 12 bd 29 fb 9c 3d
       0.041866202 0.0681287 -0.035757728 0.076650925
000390 63 ac 6e 3d d3 6b 8e bd 3e 2c 11 bd 71 7e 9d 3d
       0.05826987 -0.069541596 -0.035442583 0.076901324
0003a0 31 d7 d0 3d 35 58 25 bd 21 87 30 3e ab 15 09 3e
       0.101972945 -0.040367324 0.17239048 0.13387172
0003b0 aa fc 3b 3e 04 a1 1f 3e 4e 9e d4 3d 33 f2 28 3e
       0.18358102 0.15588766 0.10381757 0.16498642
0003c0 27 46 c5 3d 04 d1 56 3e d7 fc 35 3e ff 0a 3f 3e
       0.09632521 0.2097817 0.17772232 0.18656538
0003d0 a9 0c 61 3e 28 15 3b 3e 1a a8 2b 3e 85 6e 8e 3e
       0.21977486 0.18269789 0.16763344 0.27818695
0003e0 3b 0f 98 3e 24 d2 59 3e 2e d3 55 3e b3 29 60 3e
       0.2969912 0.21271569 0.2088134 0.21890907
0003f0 5f 71 83 3d 2b e1 2d 3e 87 b5 37 3e a5 f9 1c 3e
       0.06418108 0.16980426 0.17940341 0.15329607

conv_a_1.bias f4 [16]
000000 96 be 16 3e 82 5b 9f 3d 5b af 7d bb d9 3c 02 3d
       0.1472114 0.077811256 -0.0038709256 0.03179631
000010 e9 c6 52 3d ff ff 31 3c ef d4 93 bd 3c ce e4 3c
       0.051459227 0.010864257 -0.07218348 0.027930371
000020 ff 5f b0 bd 90 9c 0b 3d b5 a8 a0 bb 60 26 7e bd
       -0.0861206 0.034084857 -0.004902924 -0.062048316
000030 a7 28 5b bc 20 14 f7 39 94 cb ee 3d 16 88 22 3e
       -0.0133763915 0.00047126506 0.11659923 0.15872225

linear_a_0.weight f4 [16, 144]
000000 1c 9e d3 bd bf c1 08 be 59 22 98 bd 8e 8b 7f be
       -0.10332891 -0.13355158 -0.07428426 -0.2495558
000010 3e fe fe bd 47 c0 6a be d9 00 d7 bd 02 f9 4b be
       -0.124508366 -0.2292491 -0.104982086 -0.19919208
000020 06 14 da bd f9 80 d5 3c a8 50 a9 3d 32 55 1f bd
       -0.106483504 0.026062476 0.08267337 -0.038899608
000030 09 55 08 bc 8d e1 c4 3d 56 63 5f bd 10 4a c1 3d
       -0.008321055 0.09613333 -0.054538094 0.094379544
000040 a5 fe 49 3d 52 d9 e1 3d af bd b9 3c fa f5 37 bc
       0.049315114 0.11027779 0.022673456 -0.011228079
000050 0c 4a dc 3d 51 61 0a 3e 7f 8e 32 bb d6 be 3f 3d
       0.10756311 0.13513686 -0.0027245579 0.046812855
000060 bf ce 7f 3d b7 a6 42 3d 65 44 f2 3d 01 08 0a 3e
       0.062453028 0.047522273 0.118294515 0.13479616
000070 81 c3 16 3d 31 07 1d 3d 4a e8 fe 3d f6 fe e1 3c
       0.03680754 0.038336936 0.124466494 0.027587395
000080 35 c5 84 3d 9a 57 c8 3d df 82 07 3e 56 1d 2a 3e
       0.06482927 0.09782334 0.13233517 0.16612753
000090 77 e0 13 3e d1 ad 35 3d 08 c0 2c 3e ab 2b 39 3e
       0.14441095 0.044355217 0.16870129 0.18083064
0000a0 ea ac cc 3d 84 2d a2 3d a0 2f 37 3e 43 d4 12 3e
       0.09993918 0.07918838 0.17889261 0.14338784
0000b0 dd 2e 26 3e 94 54 45 3d 15 76 f8 3c 16 fc 50 bd
       0.16228814 0.048176363 0.030329743 -0.051021658
0000c0 4d d9 ce bc 7c bb 0a 3d 93 59 af 3d 5d c2 28 3e
       -0.025250101 0.033870205 0.08562007 0.16480394
0000d0 0a f1 37 3b fc 5e 9b 3d bd 57 24 3e c9 9b 3c 3e
       0.0028067254 0.07586476 0.16049094 0.18418802
0000e0 ef 6d 82 3d 57 4b 99 3d 0f f1 4d 3e 79 28 d4 3d
       0.063686244 0.07485073 0.20111488 0.10359282
0000f0 3d a0 2b 3d 22 bb 18 3d d1 47 75 3d dd 9b 92 3d
       0.041900862 0.03728784 0.059882943 0.07158635
000100 af 5c 13 3e b1 3e f3 3c e2 4f 9b 3c 52 4d 08 3e
       0.14390825 0.02969298 0.01895899 0.13310745
000110 6e f1 69 3d d6 67 09 3e 13 32 5e bc 5d bd d6 3d
       0.05711501 0.13418517 -0.013561743 0.10485337
000120 40 96 a1 3d 61 f3 ca 3c c3 69 07 3e a7 c8 89 3d
       0.07889986 0.024774255 0.13223939 0.067277245
000130 ae 1f 44 3d 82 a1 38 3e c2 2b a9 3c 73 f7 ba 3d
       0.047881775 0.1803036 0.020650748 0.091292284
000140 57 e7 37 3e f5 25 08 bd 19 7e 84 b9 65 53 be 3d
       0.17959343 -0.033239324 -0.00025270952 0.0929325
000150 3b 5b 9e 3d e7 fc 74 3d 44 c7 b6 3d eb 1a 5a 3d
       0.077322446 0.0598115 0.08924726 0.053248327
000160 96 79 51 bc 53 2d 06 3d ae aa 43 3e f5 2e 90 3d
       -0.012785336 0.03275807 0.19108078 0.07040206
000170 f5 3a af 3d 60 c9 86 3d f8 a5 f9 3d a8 b7 b9 bb
       0.08556167 0.06581378 0.12189859 -0.0056676455
000180 28 2d 15 3e b8 6f d6 3b 74 93 aa 3d 0d af a8 bc
       0.14568007 0.0065440796 0.08328906 -0.020591283
000190 1d db bb 3c d6 d4 fb 3d 8a 97 94 3d 2d 3a 0c 3c
       0.02293163 0.122964546 0.07255466 0.008558792
0001a0 1c be 93 3d e2 bb 99 3d 28 95 14 3e 8d 99 e4 3d
       0.07213995 0.07506539 0.14510024 0.111621
0001b0 bb 7a 3d 3e 9a b0 24 3e cd d4 4c 3e a7 d0 9c 3d
       0.18503849 0.16082993 0.20003052 0.07656985
0001c0 75 f2 63 3e 41 b8 1a 3d 0b cd 22 3e 46 17 9b 3d
       0.22260459 0.037773374 0.1589853 0.075727984
0001d0 34 c4 3d 3e 67 a8 5f 3c 6b ed 6d bd 57 d1 5a 3d
       0.18531877 0.01365099 -0.058087748 0.0534223
0001e0 da d3 8b 3d a6 bb 92 3d 66 8f 59 bd 72 c8 7d 3c
       0.06827517 0.07164697 -0.05311527 0.015489684
0001f0 a4 98 bf 3d ef 83 d0 bd 0f 0a 99 bd a5 f9 28 be
       0.09355286 -0.10181414 -0.07472622 -0.16501482
000200 f3 b6 4c 3c 92 13 07 3d f6 67 16 be 96 8f df bd
       0.01249479 0.032977648 -0.14688095 -0.10916059
000210 56 35 28 bd c6 78 db bc c6 d9 e6 bd d3 82 b0 bd
       -0.04106649 -0.026790988 -0.11272006 -0.08618703
000220 bf 73 1d be 5d 24 11 be fb 42 33 be 56 8e 10 bd
       -0.15376185 -0.14174028 -0.1750602 -0.035291992
000230 ff be 8f bd 9e 2a 82 bd 52 bc 4c be 05 51 1f be
       -0.070188515 -0.06355785 -0.19993713 -0.1555825
000240 3b 00 42 3e dc a4 74 3e e6 66 67 3e 14 ce 65 3e
       0.189454 0.23891014 0.22597846 0.22441894
000250 24 06 93 3e 5c 96 2c 3e e2 cd 48 3e f1 76 8b 3e
       0.28715622 0.16854233 0.19609788 0.27239183
000260 97 b5 aa 3e 9e af 8a bc 5c 27 f9 3d aa 5f fa 3d
       0.33341667 -0.016929444 0.1216571 0.12225278
000270 9f 04 7b 3c a6 ab 95 3d 3f 6a b7 3d 2b 1e 71 bb
       0.015320926 0.0730813 0.08955812 -0.0036791663
000280 31 ae e0 3d d3 03 08 bc fc dd 4d bd 13 bb 0a bd
       0.109707244 -0.008301693 -0.05026053 -0.033869814
000290 8e ea b6 3d 3f 4d 3b 3d 13 02 33 3d 37 96 ea 3b
       0.089314565 0.045727964 0.04370315 0.0071590203
0002a0 3a a0 03 bd 3d bd c2 3c 13 05 b8 3c 15 c9 b4 bd
       -0.032135226 0.023771876 0.022463357 -0.08827416
0002b0 57 58 58 39 67 36 1b bd 4a ca aa 3c f9 75 b5 bb
       0.00020632274 -0.03789368 0.020848412 -0.005537745
0002c0 6e 73 eb bd 5e db bc bd 55 04 85 bd 4e 8a 4c bc
       -0.11496626 -0.092215285 -0.06494967 -0.012484146
0002d0 38 67 72 bd 1b 17 55 bd 53 cb 42 be 2e 63 fd bd
       -0.05918047 -0.05202399 -0.19022875 -0.12372433
0002e0 9e 30 22 be a1 cd ff bd ae ee 03 be 7e 9c bc bd
       -0.15838858 -0.124903925 -0.12884018 -0.09209536
0002f0 41 d5 f8 bd 1a 89 1d bc 36 25 ee bd 1f 38 ba 3d
       -0.1215005 -0.009615207 -0.11628191 0.090927355
000300 94 77 d7 3d 14 9c 46 3d 68 1f 66 be f7 db b8 bd
       0.105208546 0.04848869 -0.22472918 -0.0902633
000310 71 57 b3 3c 4a 1b 7b 3d f0 2a 05 bb 8a a1 bf bc
       0.021892281 0.06130532 -0.0020319782 -0.023392458
000320 7e 8c eb bd 82 4b da bd 6a e5 18 be f0 62 01 bc
       -0.11501406 -0.10658933 -0.14931265 -0.007897124
000330 5a 72 94 bc 23 92 8d bd 1d 67 f0 bd 94 65 83 bd
       -0.018120933 -0.06912639 -0.11738417 -0.06415859
000340 3a c3 cf bd 23 38 2d be 5c 0d 81 3c ed 3d 82 bd
       -0.101446584 -0.16915946 0.01575344 -0.06359468
000350 62 01 64 bd d1 48 a2 bd 78 cc 30 bd bf 5a 01 be
       -0.05566538 -0.07924045 -0.043163747 -0.12632273
000360 82 f1 e6 bc cb 39 ea 3c 8c 88 0f be d0 41 4b bc
       -0.028191332 0.028592011 -0.14016932 -0.012405828
000370 f0 46 42 bc 65 75 0e bd 15 10 03 bc 4f 89 a8 bd
       -0.011857733 -0.034779925 -0.00799944 -0.082293145
000380 06 2c 4d bd f6 e9 a5 3d e0 98 b6 3d b7 ad db 3d
       -0.050090812 0.08101265 0.08915877 0.10726493
000390 0a d9 80 bd c0 3b 91 bd 5b a5 64 bd 7d c5 84 3c
       -0.06291397 -0.070914745 -0.055821758 0.016207451
0003a0 04 fa 52 3c 97 fb a3 bc 8e 5e a1 bb 1e 97 5c bc
       0.012876991 -0.020017428 -0.004924602 -0.0134637635
0003b0 e8 c8 2e be 69 bd e2 bd b3 f1 ed bd 12 4c ad bd
       -0.17068827 -0.11071283 -0.11618366 -0.08461775
0003c0 01 c1 d5 bd 09 cf d2 3c fa 5f 59 be e9 49 d3 bc
       -0.10437203 0.025733488 -0.21228018 -0.025792079
0003d0 5c 0c 2c 3d d0 2b 63 3c 58 e2 46 bd 99 bc 69 3d
       0.042003974 0.013865426 -0.048555702 0.057064626
0003e0 49 77 c6 3c 2d ab 06 3d 0e 8e 29 3b ea ea d6 bb
       0.024226801 0.03287809 0.0025872025 -0.0065587657
0003f0 7f 05 76 bd dd c4 9b bc ad 05 c8 bd ab 83 bc bd
       -0.060063835 -0.01901477 -0.097667076 -0.09204801

linear_a_0.bias f4 [16]
000000 8e 40 fe 3b c9 08 bd 3d 5e 41 a6 3a 01 16 c9 bb
       0.0077591604 0.09230191 0.0012684276 -0.0061366563
000010 58 5c 97 3b 7c 7f 49 3d 2c 7e a1 3d 9f 22 5e bd
       0.0046191625 0.049193844 0.078853935 -0.054232236
000020 fc cf 93 bd 74 d2 de bd 72 d2 be 3d 62 52 80 3d
       -0.07217404 -0.108799845 0.09317483 0.06265713
000030 f4 d3 c1 3d 9a a4 ae bd b9 6a 05 bd 58 c7 1d 3c
       0.09464255 -0.08527489 -0.03257248 0.009630047

GRU_a.weight_ih_l0 f4 [48, 16]
000000 5d 28 47 be 74 35 81 3e 98 9f 3e 3c 48 6e ed 3e
       -0.19448991 0.25236094 0.01163473 0.463732
000010 99 da 99 3d 12 96 5e 3e f3 bc d0 3d e1 61 8f 3d
       0.07512397 0.21736935 0.10192289 0.07001091
000020 9c de c6 bd 3c fa de bb 73 05 3d 3e 59 f2 46 bc
       -0.09710428 -0.0068047326 0.1845911 -0.012142741
000030 fb fc c7 3e c4 aa 71 3e fe ec 17 be 1f 37 97 bd
       0.39060196 0.23600298 -0.14836499 -0.073835604
000040 cc 1a 3c be 18 28 4b be b1 5e 12 3d 39 d7 59 be
       -0.18369597 -0.19839513 0.035734836 -0.21273507
000050 77 bc 17 be 93 c8 9f bc 1f 94 23 be 83 f0 10 3e
       -0.14817987 -0.01950482 -0.15974472 0.14154248
000060 14 d8 26 3e d8 2d 36 3e 7e 4a 77 3e 85 cd 25 be
       0.16293365 0.17790926 0.2414951 -0.1619168
000070 26 73 e8 bd 08 8a 8d bd e4 31 dc 3d 50 07 c0 bd
       -0.11350088 -0.06911093 0.107517034 -0.09376395
000080 ac 06 2e 3e 64 2a 67 3e 89 70 5e be ca 6e b9 3d
       0.16994733 0.22574764 -0.21722616 0.090543345
000090 1d 21 57 bd 2e fc 78 be 63 bb a1 bd c0 73 46 3e
       -0.052521814 -0.24314949 -0.07897069 0.19380093
0000a0 8e 8e 73 3e eb 01 50 3c ab b1 0b be 77 e4 fe bb
       0.23784849 0.01269577 -0.13641994 -0.0077787
0000b0 cb 36 3e 3e 08 f9 c0 3d bc 0d 30 3e 07 8f 61 3e
       0.1857559 0.09422499 0.17192739 0.22027217
0000c0 98 97 b1 bd 22 dc 2f bd 6f 20 2f be ed 7c 1b be
       -0.08671492 -0.042934544 -0.17102216 -0.15184374
0000d0 0c 1e 0b 3e 59 3a 36 3d ce 57 20 3e 7a 7a 6c 3e
       0.1358568 0.04448924 0.15658495 0.23093596
0000e0 54 59 5f 3e 59 57 0f bc 4a 94 08 be bd a7 83 bc
       0.2181142 -0.008748853 -0.13337818 -0.016071195
0000f0 de 2c 3b be 2b 27 7b 3e 87 96 c6 3c 86 22 23 3e
       -0.18278834 0.2452666 0.024241699 0.15931138
000100 11 d8 b0 bd ab 22 9c 3b b2 dc 5e 3e 66 70 da 3d
       -0.086349614 0.004764875 0.21763876 0.106659696
000110 fb 2a 11 3e 87 c7 4f 3e f5 14 11 3e 2c 19 a1 bd
       0.14176552 0.20290957 0.1416815 -0.07866129
000120 02 81 50 3e 7e 9f d7 bd ce ce b2 3d f3 07 15 be
       0.20361713 -0.105284676 0.08730851 -0.14553814
000130 5d e6 7c be 61 2b 75 bd 2f fa 0a be dd 05 16 be
       -0.24697252 -0.059855822 -0.13572 -0.14650674
000140 fe c3 e0 bd eb 1a e1 3e f4 35 f8 3d 4a bb 4a be
       -0.109748825 0.4396585 0.12119666 -0.19798008
000150 bc 51 a4 bd f2 17 b9 bd 0b 01 91 bc dc b8 9d be
       -0.08023402 -0.0903777 -0.017700693 -0.308051
000160 80 a8 55 be 94 27 89 3e 49 fe b5 3d 56 c6 56 bd
       -0.20865059 0.26788008 0.08886392 -0.05243524
000170 b3 b8 82 bd 3e 5e b4 3c 63 e6 8e be 99 f8 92 be
       -0.06382885 0.022017594 -0.27910146 -0.2870529
000180 89 60 e1 3b 89 f0 25 bb 68 40 93 bd d1 4f 37 bd
       0.006877963 -0.0025320372 -0.07190019 -0.044753853
000190 33 fd ae bd 4c ed 52 bd 4e a4 52 be 76 59 6c be
       -0.08544388 -0.051495835 -0.2057049 -0.23081002
0001a0 90 c1 6e 3d 9d 1f 21 bb f2 45 00 3e fa f1 75 be
       0.058290064 -0.0024585493 0.12526682 -0.24018088
0001b0 4a fe 55 3e 3d 57 22 3e 07 5b 16 3c 96 0d 73 3d
       0.20897785 0.15853591 0.009176976 0.05933913
0001c0 82 a8 74 3e a3 81 ab 3d 1f 9b 11 3e 7a 52 c5 3e
       0.23892406 0.083743356 0.1421933 0.38539487
0001d0 99 0f 2d be 0a fc 92 3d 66 77 b8 3e 27 81 1f be
       -0.16900481 0.07176979 0.36028594 -0.15576611
0001e0 68 54 b0 3d 05 0c 3b be cd 34 0c 3e cf 7c ae 3e
       0.08609849 -0.18266304 0.13692017 0.34079596
0001f0 69 f9 82 3e c6 26 3c 3e 56 5b 2e be 0a f0 d7 3c
       0.2558091 0.18374166 -0.1702703 0.026359577
000200 09 52 9c 3d 5e c5 8b 3e 12 b7 68 be f3 e4 eb bd
       0.076328345 0.27299017 -0.22726086 -0.11518278
000210 67 5f ca 3d 64 9c f4 bd 9f 53 0a 3d 11 39 84 3d
       0.09881478 -0.11943892 0.033771154 0.06456197
000220 70 41 24 3d 04 f8 12 be 9b 12 a0 3d d7 52 83 be
       0.04010147 -0.14352423 0.07816049 -0.2564914
000230 d1 3d 3f be 1b c1 54 3d 8a a5 1d 3d cc 36 85 be
       -0.18675925 0.051941972 0.03848795 -0.2601837
000240 08 ad 8a be 24 4a 55 3e 13 5e d2 bd 3c ae 1a be
       -0.27085137 0.20829064 -0.102718495 -0.15105528
000250 6a e5 27 3e df dc f8 3d 7d c2 1d bd bc 32 20 be
       0.16396108 0.12151503 -0.038515557 -0.15644354
000260 a0 a1 92 3d 51 74 2e be c3 8a 64 3e f9 b7 55 bc
       0.07159734 -0.17036559 0.22318558 -0.013044351
000270 4e a2 6f be 04 f9 47 be 3b a8 84 be c4 a6 13 be
       -0.23401758 -0.19528586 -0.259096 -0.14419085
000280 ae cc c3 3d ae bf b6 3e 0f e8 61 3e 42 1c 82 3d
       0.09560524 0.35693115 0.2206118 0.06353046
000290 5e fd 01 3e 55 a7 89 3d 5b 6a e4 3d 4c 2f b8 be
       0.12694308 0.06721369 0.11153098 -0.35973585
0002a0 36 04 6c 3e 07 d7 7a be 58 37 2f be 47 d0 49 be
       0.23048481 -0.24496089 -0.17110956 -0.19708358
0002b0 8a 23 b4 3d 3b 2f 29 be b9 85 2f be 86 07 cf bd
       0.08795841 -0.16521923 -0.17140855 -0.10108857
0002c0 ef ac 43 3d 4e fe bc 3e 92 dd fa 3d d9 a7 4d 3d
       0.047772344 0.3691277 0.122492924 0.0502089
0002d0 36 be 2a be f2 61 0f 3e 5e 6a b3 bd 44 9a 45 bd
       -0.16674122 0.14002207 -0.08760522 -0.048242822
0002e0 9a ac 3f 3e 4d 8f 1e 3e 1d 0f 9c bd c1 c0 5e be
       0.18718186 0.15484352 -0.0762007 -0.21753217
0002f0 91 36 2a 3e 92 bc 49 be df 47 82 be dc 1c 25 3e
       0.16622378 -0.1970084 -0.25445458 0.1612429
000300 dc 14 af bd 0b 77 59 3d 71 ce 08 be 02 56 b8 bc
       -0.085489005 0.053092044 -0.13360001 -0.02250195
000310 f2 3f da 3d 78 c5 8c bd 82 27 82 3e ce dd 51 3e
       0.10656728 -0.06873602 0.25420767 0.20494768
000320 68 72 b2 bd ed eb 54 be ff 0b 79 3e e5 22 3e 3e
       -0.087132275 -0.20793124 0.24320982 0.18567999
000330 8b 20 40 be df 6b 25 be ed 34 d2 3d fc da ef 3d
       -0.18762414 -0.16154431 0.10264001 0.1171169
000340 25 cd 23 3e 09 48 8f 3e a5 d0 3a be b2 4e e5 3b
       0.15996225 0.27984646 -0.18243654 0.0069979066
000350 ad a5 9d bd 52 ca 0f 3b a9 d1 7e 3e 97 3d 1f be
       -0.07697616 0.002194066 0.24884667 -0.15550838
000360 f4 73 53 3e 36 16 ea 3d 8b 69 9d 3d 48 cd d0 3e
       0.20649701 0.11430018 0.07686146 0.40781617
000370 6d 07 e5 3e 13 d3 8d 3c 8d 30 04 be 19 0e 15 3e
       0.44732228 0.017312562 -0.12909146 0.14556159
000380 2f 7d 0c 3e 0e 4f 8b be 41 01 79 3d 93 2e 95 be
       0.13719629 -0.2720875 0.06079221 -0.29137096
000390 3a 0f 50 be d4 3f 13 3e b0 12 39 bd 2a 8b 21 3e
       -0.20318308 0.14379817 -0.045183837 0.15775743
0003a0 be 96 17 be 11 ed 3a be 19 b9 50 be 4e e1 03 bc
       -0.14803597 -0.18254496 -0.20383109 -0.008049322
0003b0 81 5d 1b 3e 7f 60 10 3e ff 40 66 be 3e 85 85 be
       0.15172388 0.1409931 -0.22485732 -0.26078218
0003c0 b3 90 ab 3e af a3 a4 be 55 9b 36 bc 87 60 15 3e
       0.33508834 -0.3215613 -0.0111454325 0.14587604
0003d0 08 56 3e 3e 9c 95 1b 3e 3c 4d 4b bd d0 d9 6a 3e
       0.18587506 0.1519379 -0.049634203 0.22934651
0003e0 96 f3 5a be ba 93 f2 bd 20 f5 a0 3d 27 bf 8d bd
       -0.21381983 -0.11844583 0.07859254 -0.06921225
0003f0 85 db 63 3c e4 06 0a be d4 e4 45 3e e4 02 aa 3e
       0.013907318 -0.13479191 0.19325572 0.3320533

GRU_a.weight_hh_l0 f4 [48, 16]
000000 3f d5 a6 bd 2a cc 57 bd 61 36 d9 3d 02 37 20 3d
       -0.08146142 -0.05268494 0.10606075 0.03911496
000010 b7 cc c8 bc 3c fc 10 be 76 b3 8c be 5d 99 c9 bd
       -0.024511678 -0.1415872 -0.27480668 -0.09843705
000020 1e 40 bb be 30 20 30 be 99 76 68 be 1a f7 05 be
       -0.36572355 -0.17199779 -0.22701491 -0.13082543
000030 bd 85 42 be 0b 83 56 3e 78 6d 7c be ee 09 45 3e
       -0.1899633 0.20948426 -0.24651134 0.19242069
000040 22 85 16 3e 06 b8 21 3e 5e 18 76 be da dd 39 3d
       0.14699224 0.15792856 -0.24032733 0.04537759
000050 d5 1e 83 bd 47 c0 4e 3e b2 d3 3f be c6 2f 6c 3e
       -0.06402365 0.20190535 -0.18733099 0.23065099
000060 4d 08 b9 bd e9 b2 cd bc 47 be 2b 3e 65 00 6b 3d
       -0.090347864 -0.025109725 0.16771804 0.057373423
000070 49 e9 68 be 3d b2 9d bb c0 03 de 3d e5 7b 7d 3e
       -0.22745241 -0.0048125074 0.10840559 0.24754293
000080 8a 30 e0 3c ef c8 c1 bd 68 b3 9f be 31 ce ff 3c
       0.027366895 -0.09462153 -0.31191564 0.03122625
000090 40 84 60 3e 82 16 65 3d 33 bc 56 be 39 eb 1d be
       0.2192545 0.05592967 -0.2097023 -0.15421762
0000a0 36 be 23 be e8 a8 71 3e b4 3a 10 be b3 fb 90 3e
       -0.15990528 0.23599589 -0.14084893 0.2831703
0000b0 40 50 10 bd 13 8c 76 bd c3 ac 4f be 02 c8 90 3d
       -0.035232782 -0.06019218 -0.20280747 0.070693985
0000c0 2f 91 f3 bc 6e 0a 9e bc 53 42 53 3b 6c 1a e3 bd
       -0.029732315 -0.019292083 0.0032235577 -0.11089024
0000d0 b1 21 55 be 7b 54 49 3e 0e f0 bf bb 38 fe 32 bd
       -0.20813634 0.19661133 -0.005857474 -0.043699473
0000e0 cf c1 f8 3d 12 c0 20 3e 00 56 2b 3c 15 66 4a 3d
       0.12146341 0.15698269 0.010457516 0.04941376
0000f0 7e 3c c3 3d c8 f6 24 be 23 e6 e3 bc c9 2a 35 3e
       0.09533022 -0.16109765 -0.027819699 0.17692102
000100 9c c4 56 3e cd bb d1 3d 40 b8 c6 3d c8 15 47 bb
       0.20973438 0.10240898 0.09703112 -0.0030377973
000110 b4 14 91 3d 0d fa a0 3d e7 e2 24 bd 70 9f 3d ba
       0.07084027 0.078601934 -0.040255453 -0.0007233536
000120 eb 9f 35 be c1 17 da bd fe 8c 80 bb f0 79 7e 3d
       -0.17736785 -0.10649062 -0.0039230576 0.062128007
000130 64 fe 16 be 9d ab 5d 3e 17 8c 98 3d af 93 bb 3d
       -0.1474548 0.21647497 0.07448595 0.09159028
000140 c7 b0 4f 3e 23 cc b9 3d a2 ed 88 be ec ec be 3d
       0.20282279 0.09072139 -0.267438 0.09322533
000150 71 40 6f 3e 45 5c 9d bd 3b 0c 01 bd c6 c0 ab 3d
       0.23364426 -0.07683615 -0.031505805 0.08386378
000160 d4 17 8d be e6 87 4f 3c 08 b2 dd bd 07 09 65 3e
       -0.27557242 0.012666678 -0.108249724 0.22366725
000170 ff 92 1c 3d 05 d2 26 be ff 6f db 3d f0 2e 7c bc
       0.038226124 -0.16291054 0.10714721 -0.01539205
000180 a5 1c 28 3e 57 c2 2e be e1 41 05 3e 13 01 71 be
       0.16417177 -0.17066322 0.13013412 -0.23535566
000190 72 99 4a 3e 1e b9 85 3e 83 77 94 3d 9a 74 a9 3d
       0.19785097 0.26117796 0.072493576 0.08274193
0001a0 b9 2c 79 bd cf 29 c0 3d d8 19 47 3e 5b 52 a3 3e
       -0.060833666 0.09382974 0.19443452 0.3189877
0001b0 34 ca 9c 3c 9c b2 61 bc 3b 78 2d 3d 1b 57 91 bd
       0.019139387 -0.013775494 0.04235099 -0.07096692
0001c0 05 96 8f 3e 37 e8 89 be fd 26 96 3d 67 96 0e be
       0.28044143 -0.26934978 0.07331655 -0.13924561
0001d0 a5 5a 45 3e a7 7d ef 3d 86 f5 86 be cd 80 80 3d
       0.1927286 0.11693888 -0.26359195 0.06274567
0001e0 8b 58 ef bd c3 b2 04 3d 5b 76 54 3e e3 f5 ae bd
       -0.1168681 0.032397043 0.20748274 -0.08542993
0001f0 c9 35 6c b9 a5 00 53 3e ed e0 2a be 63 0d 25 3d
       -0.0002252675 0.20605715 -0.16687365 0.04029597
000200 f8 fb 02 3c 1f f0 2a be 01 91 8c be 51 14 36 be
       0.007994644 -0.16693161 -0.2745438 -0.17781188
000210 8e ba 0d 3c 9a 21 59 3e 9e 66 32 3d 9e f0 d3 3d
       0.008650435 0.21204224 0.043554895 0.103486285
000220 ae 84 fe 3d ff a5 a4 3e 25 11 87 3e c1 af 1a 3e
       0.124276504 0.32157895 0.26380268 0.15106107
000230 16 08 0a bc dc eb 6f 3e 70 9a 8c bd ad 42 ad bd
       -0.008424779 0.23429817 -0.06865394 -0.08459983
000240 e8 c6 88 3e 4c 4d 87 bd 4c 19 c4 3c cf 80 c4 bd
       0.26714253 -0.0660654 0.023937844 -0.09594881
000250 69 c6 26 3e 04 eb 32 3e 71 d4 04 be 85 02 b5 3d
       0.16286625 0.17472464 -0.12971665 0.08838371
000260 a8 87 ad bd 29 de 92 3e 56 29 98 3e 80 1f 92 3e
       -0.0847314 0.2868512 0.29719037 0.28539658
000270 ae de 66 be 68 13 51 3d ea ea ee bd f6 6d 9b bd
       -0.22545883 0.051043898 -0.116659 -0.07589333
000280 fd 02 38 3e a3 0a 8e bd 65 f2 8a be 12 c2 08 3d
       0.1796989 -0.069356225 -0.27138057 0.033388205
000290 00 ce db 3d 0e 43 ed 3d 3b b5 4b be 5b fa 3b be
       0.10732651 0.11585055 -0.19893353 -0.18357222
0002a0 c6 05 46 3d b2 4c 39 be 82 7a 0c 3e 43 f8 97 3e
       0.04834535 -0.18095663 0.13718608 0.29681596
0002b0 fd 38 87 ba 7c d7 6b 3e 14 9c d3 bd 4d 7e 03 be
       -0.0010316666 0.2303142 -0.10332504 -0.12841149
0002c0 c1 0b 24 3e 69 62 56 3d 00 6a 44 be 1d f4 21 be
       0.16020109 0.052339945 -0.19181061 -0.15815778
0002d0 d1 e6 9e bc 6b 5a e1 3d 9f 99 44 be 81 a7 f6 bd
       -0.019397171 0.11003574 -0.19199227 -0.120436676
0002e0 02 68 5d be c6 56 7b 3e 27 8d 1e bd e1 6c 84 3e
       -0.21621707 0.2454482 -0.038708832 0.25864318
0002f0 55 85 6b be f0 f7 16 3e 1d 96 88 be b4 f7 17 be
       -0.23000081 0.14743018 -0.26677027 -0.14840585
000300 a4 31 73 bd 75 44 a9 3d 16 1b cc 3d 57 97 4b be
       -0.059373513 0.0826501 0.09966104 -0.1988195
000310 2a ba 89 3e 04 e5 1d be 27 0d 55 be 41 07 80 3e
       0.26899844 -0.15419394 -0.20805798 0.25005534
000320 78 32 92 be 48 6a 9f 3d 6f 76 25 3e bc 0a fc bd
       -0.2855413 0.077839434 0.1615846 -0.12306735
000330 ed b2 4d bd af 78 34 bd 27 b5 c3 bb bb 00 6c 3d
       -0.050219465 -0.044060405 -0.005972523 0.057617884
000340 5f 66 f4 3d ab 40 07 be c2 2b f4 bd e7 0f a3 be
       0.11933588 -0.13208263 -0.11922409 -0.3184807
000350 e3 78 a4 3e ff 7c ec 3d d5 e9 9a be 64 d4 a5 3e
       0.3212348 0.115472786 -0.30256525 0.32388604
000360 99 a1 be be 24 f2 f8 3d 25 92 13 be c6 00 6a be
       -0.37232664 0.1215556 -0.14411218 -0.22851858
000370 c8 53 51 be 94 ee 8f 3e 52 3f 86 be 05 09 76 3e
       -0.20442116 0.28111708 -0.26220185 0.24026878
000380 ad 9c 90 be e2 9a dc bd 72 3f 04 3e a5 c9 5c 3e
       -0.28244534 -0.10771729 0.12914827 0.21561296
000390 32 af 4f be af 53 bc 3c 41 16 05 3e b7 e8 33 3d
       -0.20281675 0.022989122 0.1299677 0.043923106
0003a0 10 9c 3f 3e a2 5b b2 3d bf 0b 26 3d 55 92 8a 3e
       0.18711877 0.08708884 0.040538546 0.27064767
0003b0 51 68 a8 3e 44 b5 ab be a1 9e e5 3d af 42 99 3d
       0.32892087 -0.33536732 0.11211897 0.07483422
0003c0 c7 95 26 bd 5e 15 63 3e 9b 4c a0 3e 13 36 81 3e
       -0.040670183 0.2217612 0.31308445 0.25236568
0003d0 a1 3e 9c be 22 cb 88 3c 6b b3 35 be 52 94 a3 bd
       -0.30516532 0.016698424 -0.17744224 -0.07987274
0003e0 ac cd 4b 3e 12 06 3e 3e b5 9c 8d 3d b4 d0 b8 be
       0.19902676 0.18557003 0.06914655 -0.36096728
0003f0 6e 6a 1d bd 38 fb 96 bc b7 bc 87 3e 51 cb 15 3d
       -0.038431577 -0.018430337 0.26511165 0.03657085

GRU_a.bias_ih_l0 f4 [48]
000000 e1 97 32 3e 76 e6 12 bd 58 a4 c2 bd 66 08 b0 bd
       0.1744075 -0.035864316 -0.09504002 -0.08595352
000010 9a 07 9d bb e0 16 47 bc 7e 4c 1d 3e 42 25 8d 3e
       -0.004792166 -0.01215145 0.1536121 0.27567488
000020 77 80 31 be 64 00 42 3e 1b 6b 9b 3c 7c d1 c7 bd
       -0.17334162 0.18945462 0.01897197 -0.09756753
000030 7e 7a d6 bd 1c 29 6d 3e e5 8d 61 be 50 40 e1 bc
       -0.10472582 0.23160213 -0.22026785 -0.027496487
000040 1d 13 a4 be d5 6b 6c 3e 33 3b 58 3e a3 4a 0b 3e
       -0.32045832 0.2308801 0.21116333 0.1360269
000050 08 1c 5a be 4c 5e 64 bd 7d 52 1f be 0e b7 38 be
       -0.21299756 -0.05575399 -0.1555881 -0.1803858
000060 5e 87 59 3e 65 34 8c be 4b cb 31 be 81 e5 85 bd
       0.21243045 -0.27383724 -0.17362706 -0.06537915
000070 af 85 7b be 67 da 98 be 8b a6 87 3d a7 61 f1 bc
       -0.24562715 -0.29854128 0.066235624 -0.02946551
000080 07 68 70 3e b0 34 ca be b7 aa 29 3e 27 b0 15 be
       0.23477183 -0.39493322 0.16569029 -0.14617978
000090 be bd fa 3d 2a 18 9e be 30 38 2f be 8f 30 20 3e
       0.12243222 -0.3087781 -0.17111278 0.15643524
0000a0 b3 4f 98 3d c3 a8 3f 3e 73 b4 ad 3c a6 03 6d be
       0.074370764 0.18716721 0.021204209 -0.23145923
0000b0 e2 31 3c 3d b4 8f ae 3d 58 2c a0 be e6 3b b3 bd
       0.04594601 0.08523503 -0.31283832 -0.08751659

GRU_a.bias_hh_l0 f4 [48]
000000 a5 88 5d 3e f1 73 f3 bd 5a 69 09 3e 4a 76 53 3e
       0.21634157 -0.118873484 0.13419095 0.20650592
000010 31 e5 b8 3d 99 38 e7 bc 7b f3 92 bd fa ad 94 3e
       0.0902809 -0.02822523 -0.071753465 0.29038984
000020 22 3b 45 3e 7f d5 8c bc 9b 99 0b 3e e9 b0 84 3d
       0.19260839 -0.017191647 0.13632815 0.064790554
000030 5f f4 5f be 22 2f 65 3d e4 96 01 bd 13 8b 85 3d
       -0.21870564 0.055953152 -0.03163804 0.06520667
000040 03 64 78 be b0 cc 44 be 71 0a f0 3d 3a 49 a7 bd
       -0.24256901 -0.19218707 0.117207415 -0.08168264
000050 ea aa 77 3b 88 13 b3 be 8d 5c 9e 3d 3a 97 dd be
       0.0037791082 -0.3497584 0.077324964 -0.4327944
000060 f5 70 3b be 1d b8 46 be 3a c7 1a be ae f0 8d be
       -0.18304808 -0.19406171 -0.15115061 -0.27722687
000070 77 dc d6 bc a3 1b 57 3d dc 7b d8 bc c2 1e 88 be
       -0.026228173 0.05251659 -0.026426248 -0.26585966
000080 14 9e 40 3e 9c a9 37 be c6 ae 88 3e e5 39 6f be
       0.18810302 -0.17935795 0.26695842 -0.23361929
000090 0e 68 9b 3d a2 bf ba be 5a a6 f6 bd 25 e1 c4 3e
       0.07588206 -0.3647433 -0.12043448 0.38453022
0000a0 db 02 2f be 3d 84 47 be 0c 08 4e be 2b 38 8d bd
       -0.17090933 -0.19484039 -0.20120257 -0.06895479
0000b0 0f 29 43 3e 00 85 df 3e d5 e0 2c bc 81 7e 51 3e
       0.19058631 0.43656158 -0.010551651 0.20458414

linear_a.weight f4 [4, 16]
000000 38 fd 55 3f 49 81 17 be 78 68 51 3e 4f af 93 3b
       0.83589506 -0.14795412 0.20450008 0.0045069824
000010 1b df e7 be c0 ea 00 bf 25 d1 62 be c6 88 5e 3f
       -0.45287403 -0.503582 -0.22150095 0.8692745
000020 f0 09 18 3e c2 6d 05 bf 50 bd 50 bf e5 d9 2e bf
       0.14847541 -0.521206 -0.8153887 -0.6830123
000030 e2 8a 05 3c 3a 79 2e 3f 3a 5c 34 3e 4c a8 34 bf
       0.008150788 0.6815373 0.17613307 -0.705693
000040 6f 39 66 be ab 0f 8f be 2c 32 24 be 6b 50 49 3e
       -0.22482847 -0.2794164 -0.16034764 0.19659583
000050 c5 69 e4 bb d9 70 b5 be 5c 35 78 be 62 70 a0 be
       -0.0069706165 -0.35437658 -0.24239105 -0.3133574
000060 58 d7 83 bd 33 21 cb be 87 01 01 bf c2 7e a4 be
       -0.06437558 -0.39673766 -0.50392956 -0.3212796
000070 b1 19 8f 3d 63 fb 83 be 70 4e 33 3d da 4d b7 3c
       0.06987322 -0.2577773 0.043775976 0.02237599
000080 1a e0 ca bd 88 02 f6 3e 33 d0 3b be e3 6a 44 3d
       -0.09906025 0.48048806 -0.1834114 0.047953498
000090 a3 c1 30 3f 54 36 5d 3f 5c 88 08 bd 38 41 d1 bd
       0.69045466 0.86411023 -0.033333167 -0.102175176
0000a0 40 01 46 3e fb a8 6d 3f 9c 07 7e 3f 25 fe 80 3f
       0.19336414 0.9283597 0.9923036 1.0077559
0000b0 d2 cc c6 bd 27 c9 d2 be 74 45 0f 3e ab a8 60 3f
       -0.09707035 -0.41169092 0.13991338 0.87757367
0000c0 03 36 28 bf e8 a5 63 be 5d fd 49 bd fa 75 1a 3d
       -0.65707415 -0.22231257 -0.04931389 0.037710167
0000d0 2f 30 08 bf 1f c1 eb be 16 a6 f6 3d 19 7e 49 bf
       -0.5319852 -0.46045777 0.12043397 -0.78708035
0000e0 ff 72 94 3d d7 10 b9 be 20 19 2a bd 08 be e6 be
       0.07248496 -0.3614566 -0.041527867 -0.45066857
0000f0 3c 8c c0 3d 77 14 45 bf 00 5a d2 ba be 23 e5 be
       0.094017476 -0.7698435 -0.0016048551 -0.44753832

linear_a.bias f4 [4]
000000 51 e7 65 3f c3 fe 15 bf b9 54 c4 be 57 04 30 bf
       0.89806086 -0.5859186 -0.38345888 -0.6875662

conv_v_0.weight f4 [16, 7, 3, 3]
000000 99 6a 3d be 37 d5 f0 bb 65 2f 08 3d f4 36 76 3c
       -0.18497695 -0.007349636 0.033248324 0.01502775
000010 84 98 b9 bd 27 49 90 3d e2 1a 04 be 86 59 4c ba
       -0.09062293 0.07045203 -0.1290088 -0.00077953225
000020 74 b1 83 3d 61 18 d4 bd 2f 04 9e 3b 9d 11 02 be
       0.06430331 -0.103562124 0.004822276 -0.12702031
000030 ca bc e5 3d f6 7b 94 bd cd 76 46 3d 39 c4 06 3d
       0.11217649 -0.07250206 0.04845314 0.032901976
000040 81 50 19 bc ac bc 36 3d 3c 0d 1e bc 81 93 7e bc
       -0.0093575725 0.044613525 -0.00964671 -0.015538097
000050 dd a1 cd bd a7 a0 bc bd 48 0b 52 3c f1 47 08 bd
       -0.100406386 -0.092103295 0.0128200725 -0.033271734
000060 b9 8c 31 be 19 4e 85 3d ed d6 a7 bd 57 c5 21 3e
       -0.17338838 0.065090366 -0.08195291 0.15797935
000070 cd 63 9b bc dd 1b b2 3d f1 20 31 3d 15 3d e7 3d
       -0.018968487 0.08696721 0.043244306 0.11290947
000080 81 ad a3 3d 3a 17 b8 3d ee 4d 9e bc 2b 98 01 3e
       0.079920776 0.08988805 -0.01932427 0.12655704
000090 98 db b9 bd f3 e3 11 3d e8 71 cd bd 62 1d f3 bd
       -0.09075087 0.03561778 -0.100314915 -0.11870839
0000a0 68 7c 08 be 09 74 04 be 1e 20 9e 3d 2d 96 44 bd
       -0.13328707 -0.12934889 0.077209696 -0.04799478
0000b0 2d 63 0f 3d b2 54 dc 3d fc f2 47 bd 0d 1d 06 be
       0.03500669 0.10758342 -0.048815712 -0.1309702
0000c0 26 80 5a 3d c5 e1 9d 3d d5 24 ff bc f7 db 9e bd
       0.053344868 0.07709078 -0.031145493 -0.07756799
0000d0 61 3c 9a bc 7f e9 e8 3a 8b e8 08 bd 44 16 26 be
       -0.018827619 0.0017769783 -0.033424895 -0.16219431
0000e0 9c e3 50 be 8d 08 6b bd dd e0 f7 bd 18 3a 0b be
       -0.20399326 -0.0573812 -0.12103436 -0.1359638
0000f0 5d 9f fc bd 0d 79 ce bc 17 f6 6a be a2 30 67 3e
       -0.12335084 -0.025204206 -0.22945438 0.22577146
000100 0a 61 26 bd cd 3f 5c 3e 77 42 1c be d1 e1 2e 3e
       -0.040619887 0.21508713 -0.1525973 0.1707833
000110 ab 28 94 be 21 a0 72 3e 50 2c 79 be a6 57 d8 bd
       -0.28937277 0.23693897 -0.2433331 -0.105635926
000120 cd 19 13 bf 19 60 86 3d b1 4e 1c be 51 4e 3d 3e
       -0.57461244 0.06561298 -0.15264393 0.18486907
000130 8f 6d a1 3d 5c 61 3d bc 5e 95 a7 bd d0 1d c8 bc
       0.07882225 -0.011558857 -0.081827864 -0.024428278
000140 24 87 3c 3e f6 09 91 3e 26 d0 b4 3e 99 1c 18 bd
       0.18410927 0.28327912 0.35315055 -0.037136648
000150 66 17 94 3e 04 08 59 be f7 f5 99 3c 0a 12 4a be
       0.28924102 -0.21194464 0.018794043 -0.19733444
000160 95 ea 52 3c 82 40 4f be 3a c0 f3 3d 8c 66 87 3d
       0.0128733115 -0.20239452 0.11901899 0.06611356
000170 a1 f4 21 be 17 9c af 3d 84 6f 68 be cf 3e 0c be
       -0.15815975 0.08574694 -0.2269879 -0.13695835
000180 06 05 4f bd 01 d3 3e 3c 9c a1 9d bd 52 83 a2 bd
       -0.0505419 0.011646987 -0.0769684 -0.079352036
000190 93 dc da bd 17 96 1f 3d 8f 6b 6b 3d 25 6d ec bd
       -0.106866024 0.038961496 0.057475623 -0.11544255
0001a0 6b 76 ee bd 47 93 30 be b6 78 2a be 2f 55 af bd
       -0.1164368 -0.17243682 -0.1664761 -0.08561169
0001b0 a6 32 f0 3c 8e 86 75 3a 7e 27 90 3d dc c1 f2 3d
       0.029321026 0.00093660585 0.070387825 0.11853382
0001c0 98 54 65 3d 02 af dc bd bc 20 6c bd 2b 3e b4 3d
       0.055988878 -0.107755676 -0.057648405 0.0880092
0001d0 05 2a 7a bc 3b 43 e0 bc 05 12 17 be 48 d8 0b be
       -0.015268807 -0.027375808 -0.14752968 -0.13656723
0001e0 bd cf 04 be 8a 07 9e bd 9c 59 5b 3c 38 2d d1 bd
       -0.12969871 -0.07716282 0.013388064 -0.10213703
0001f0 78 b2 3a 3c 6d 39 0c 3d 58 6c 97 bc 30 47 46 3d
       0.011395089 0.034234453 -0.01848428 0.048407733
000200 c8 84 52 3e 6a d0 b6 bd 9e d4 b0 3c 23 ad 6c 3d
       0.20558465 -0.089264706 0.021585759 0.057782304
000210 78 e9 88 bd 3e 26 2d 3d 12 96 a8 3c 5c 6d a4 3c
       -0.06685156 0.0422728 0.020579372 0.020071678
000220 96 4b a9 bd da 6b 0c be c7 48 2a be 92 25 d9 3d
       -0.0826637 -0.13713017 -0.16629325 0.10602869
000230 88 a7 07 be 8f 64 97 3d ab 0d 6e bd c7 86 24 3e
       -0.13247502 0.07392227 -0.058118504 0.16067038
000240 a4 5e 06 be 33 e2 22 bd 47 8c 3b bd 46 cc 9f 3d
       -0.1312204 -0.0397665 -0.045788076 0.07802634
000250 f9 30 9b 3d 0f 38 66 bd 9f ef af be d6 c2 81 be
       0.075777 -0.056205805 -0.34362504 -0.2534396
000260 5b 13 5f 3c d5 b4 9d bd 2e b4 1a 3e ac 90 d8 3c
       0.013615455 -0.077005066 0.15107796 0.026436172
000270 b1 f5 86 3e c3 d8 04 3d 43 1c 0b 3e 94 d4 a4 3d
       0.26359323 0.032433283 0.13585 0.080483586
000280 b0 db 4b 3e 59 24 75 3d d6 c3 29 3d 1b c5 02 3d
       0.19908023 0.059849117 0.04144653 0.031926256
000290 85 2f 04 3e 4e f7 70 3d 80 27 c6 bd 60 0b ae 3d
       0.12908752 0.058829598 -0.09675503 0.08498263
0002a0 ea 1d dd bd d1 74 0f bc 02 7f 43 bd d0 52 95 3a
       -0.10796721 -0.008755879 -0.047728546 0.0011392478
0002b0 1b 40 e3 3d db 98 55 bd 14 cf cf bc 76 1e f0 3d
       0.110962115 -0.052147727 -0.025367297 0.1172456
0002c0 8a ab 24 bd 03 0e 02 3d 8e c1 b4 bd 62 11 00 3d
       -0.040202655 0.031751644 -0.0882598 0.031266578
0002d0 29 cd 05 3e 97 f8 e4 3d 12 a0 c6 3b 1b b9 2b 3e
       0.13066544 0.11180227 0.0060615623 0.16769831
0002e0 0d f5 61 3e 37 ed ff 3d d6 36 d8 3d 22 63 e8 3d
       0.22066136 0.12496417 0.10557334 0.11347033
0002f0 23 b2 62 3d 9a 9f 85 3e d9 ef 5e 3e 07 10 d2 3c
       0.055345666 0.2609833 0.21771182 0.025642408
000300 ae bf 1b 3d 7b 26 2f 3e 1c cc 64 be 91 6d b2 bd
       0.038024597 0.17104523 -0.22343487 -0.087123044
000310 1f b5 09 be 56 06 3a be 81 5c 87 bd c4 f7 47 bd
       -0.13447998 -0.1816648 -0.066094406 -0.048820272
000320 c5 30 49 3d 0f c4 95 bd 01 dd 85 bd d2 c4 39 3c
       0.049118776 -0.07312786 -0.06536294 0.0113384295
000330 b1 81 c2 bb 81 ae f4 bc ec 3a 90 bb 5f 1d cf 3d
       -0.0059358706 -0.029868366 -0.0044015553 0.10113024
000340 e6 17 27 be bb 9f 4b 3e 28 4c b3 bd 6a ee a8 be
       -0.1631771 0.19885151 -0.0875476 -0.32994395
000350 a1 8d c0 bd 14 21 b5 3d 1f 50 7a be c7 03 60 3e
       -0.094020136 0.088442 -0.24444626 0.21876441
000360 d9 cf d1 3d 0d 0e 51 be 9d ce c4 ba d5 a0 84 be
       0.10244722 -0.20415516 -0.0015015189 -0.25903955
000370 ba 28 6d be c7 35 5b 3d 76 0c 21 3e 44 62 3b 3e
       -0.23160067 0.053518083 0.1572741 0.18299204
000380 92 57 81 3e 11 7b b5 bc ec c3 8e 3d 3e 09 77 3d
       0.25262123 -0.02215341 0.06970963 0.06031155
000390 47 81 35 bd 28 5d aa 3d d3 b3 93 bd cd 92 b8 3b
       -0.04431274 0.083185494 -0.07212033 0.0056327344
0003a0 52 41 00 bd 00 3d e1 bd db be a5 3d 58 c2 e4 3d
       -0.031312294 -0.10997963 0.080930434 0.11169881
0003b0 68 2f c6 bd 8f 33 e5 3d f0 6e 88 bd c9 4a e0 bd
       -0.09677011 0.11191475 -0.06661785 -0.10951764
0003c0 ff ce 6a 3c ab c3 f3 bd a6 90 2b 3d 08 cf af bb
       0.014331578 -0.11902555 0.041885994 -0.005365256
0003d0 e9 27 25 be 4f 0a 4c be cc 72 37 be 55 a3 e2 bd
       -0.16128506 -0.19925807 -0.17914885 -0.11066309
0003e0 01 1a 44 be 90 a9 e0 bb e6 89 08 be c7 aa 43 bd
       -0.19150545 -0.006856151 -0.13333854 -0.047770288
0003f0 79 c3 0c be cb 1b 81 bd a1 b7 b4 3d 5e 68 d6 3d
       -0.13746442 -0.06304129 0.08824087 0.10469125

conv_v_0.bias f4 [16]
000000 70 8f e1 3d 5b d4 14 3b fc 89 56 3c e8 6f 4e 3c
       0.11013687 0.0022709582 0.0130944215 0.012599923
000010 35 65 ae 3c 4f 6f 1e 3d b0 c3 8d 3c 7c 9e 84 bb
       0.021288494 0.03868037 0.017305225 -0.004047213
000020 fb dd e8 3d af 8c 80 bd ca ea 21 be 85 93 6a bd
       0.113704644 -0.06276833 -0.15812221 -0.05726959
000030 c4 93 f8 3c 4a 82 c8 bd a1 7a e6 3c c4 b2 3e 3d
       0.030343898 -0.09790476 0.028134646 0.046557203
