league/checkpoints/mfos_seeds/new_self_7x7_64/100_0.pth (torch, 669646 bytes, 105 tensors)

conv_a_0.weight f4 [16, 7, 3, 3]
000000 9b ad e8 bd fb 63 96 3d 2c ae 0d bd 90 05 96 bc
       -0.113612376 0.073432885 -0.03458993 -0.0183132
000010 df 22 96 3c 83 2b f6 3d 84 f3 81 bd c8 1b 36 bd
       0.018327175 0.12020018 -0.06345275 -0.044460088
000020 a3 c1 0f 3e e5 05 57 3c 70 72 d0 3d ae 45 79 bd
       0.1403871 0.013123964 0.10178077 -0.060857467
000030 84 71 64 bd 7d 32 9b 3d 9b b5 f6 3c b0 94 95 39
       -0.05577232 0.07577989 0.030115893 0.00028530275
000040 c4 6a 15 3e 68 6e 24 3e 0e 9d f1 3c 31 12 d4 3d
       0.14591509 0.16057742 0.029493835 0.10355032
000050 70 79 47 bd 12 9d d1 ba 62 74 d9 3b 13 df f5 3d
       -0.048699796 -0.0015992245 0.0066361884 0.12005439
000060 5e e9 78 bd b0 11 4b bc fe 42 0f 3e cb 9f 0e 3d
       -0.06076943 -0.012394354 0.13990399 0.03482036
000070 e1 3b d2 bc 98 bc 4c 3c 38 57 e2 bc 57 cd e4 3d
       -0.025663318 0.012496136 -0.02762948 0.11171978
000080 2d b3 a6 3d 66 49 4f bd c9 28 90 bb 1c 6f 03 bd
       0.08139644 -0.050607108 -0.004399393 -0.032088384
000090 84 1f 00 bd 1f 82 3a 3d 32 3f c7 3d f5 df b7 3d
       -0.031280056 0.04553425 0.097288504 0.08978263
0000a0 7b 54 35 3b fb 59 c2 bd eb 1b aa bc c0 c4 06 be
       0.0027668762 -0.09489819 -0.020765265 -0.13160992
0000b0 90 12 e8 bd da 09 f5 bc 67 2c 90 3c e8 f2 cc bb
       -0.113316655 -0.029911924 0.017599298 -0.0062545426
0000c0 77 7d b1 3b 05 5e 16 3e e6 20 82 3d f9 40 90 bc
       0.005416568 0.14684303 0.06353931 -0.017609106
0000d0 f5 05 9e 3d 3d d9 0a bd a2 0e 39 3c 0e a2 04 3e
       0.0771598 -0.03389858 0.011294993 0.12952444
0000e0 e3 20 0d 3e 0f 3a 0f 3d e9 2a ac bd 29 e5 12 3e
       0.13782077 0.03496748 -0.08406622 0.1434523
0000f0 98 7f ae 3d 22 45 59 3d d0 9b c6 bd e9 aa c3 bd
       0.0852043 0.053044446 -0.096976876 -0.09554083
000100 23 c8 10 3d 5a b5 b1 3d 7f ea 12 3e 60 c4 20 3e
       0.035347115 0.08677168 0.14347266 0.15699911
000110 2a 25 84 bc fd 61 81 bd c5 b3 49 3d 85 0b c5 bc
       -0.016131002 -0.06317518 0.049243707 -0.024053345
000120 fe 90 4d bd 9a 4f 82 3d ad a6 ec bc 9c 27 8e bd
       -0.050187103 0.06362839 -0.028888071 -0.06941149
000130 39 3f 2e bc 3e 9c 41 bd 5b d0 09 3e aa 9e 1c bd
       -0.010635191 -0.047268145 0.13458388 -0.03823725
000140 d8 6c 82 3d 92 81 20 3e fc ad 10 bd 7b 47 0c 3e
       0.063684165 0.15674427 -0.035322174 0.13699143
000150 86 31 dd 3c d6 08 fe 3d 8d fd 0d 3e e9 1f 10 3e
       0.027001154 0.12404029 0.13866253 0.14074673
000160 bd d3 44 3d 4c 67 15 3e 97 7f 6c 3d 0d 12 b7 bd
       0.04805349 0.14590186 0.057738867 -0.0893899
000170 60 3a 9b bd bd 11 f4 3d ed fc 06 3e ca a0 e9 3d
       -0.075794935 0.11917446 0.13182421 0.11407621
000180 81 bb 93 bd 81 50 69 bc d2 3d ae 3c d0 a5 27 bd
       -0.07213498 -0.014240385 0.021269713 -0.040929615
000190 53 8b 70 bd c1 ef 47 bd ad c9 bf bd 0b a5 26 3d
       -0.05872662 -0.04881263 -0.093646385 0.04068474
0001a0 cb c9 e0 3c bb b4 46 3d 36 e5 26 bd 41 ef af 3c
       0.027439972 0.0485122 -0.040745936 0.02147639
0001b0 5f 30 d5 bd 7c 1c ac 3d c7 49 84 3d f2 6f ce 3d
       -0.10409617 0.084038705 0.064593844 0.100799456
0001c0 f0 38 01 3e f0 c5 a3 bc 3a a4 06 3e 7e 6f 08 3e
       0.12619376 -0.019991845 0.13148585 0.13323781
0001d0 39 b2 83 bd 67 a7 85 3d cc 9b b3 bd 3a ae bf bd
       -0.06430478 0.0652607 -0.0876995 -0.09359403
0001e0 92 82 d6 3d ce d5 ed 3b 45 f2 e5 3d 3d af 9f 3d
       0.10474123 0.0072581535 0.1122785 0.07797096
0001f0 36 04 af 3d fa fc d8 3d c5 d8 62 3c 7d 1c b9 3b
       0.08545725 0.105951265 0.013845627 0.005649148
000200 b4 98 67 bd 9c f6 c2 bc 98 81 8e bd b4 59 3e 3d
       -0.056542113 -0.023799233 -0.06958312 0.046472266
000210 c5 60 e4 3b 7f 78 63 3d f3 5a bf bd b9 4a b2 bd
       0.0069695436 0.055534836 -0.09343519 -0.087056585
000220 f8 4b 3e 3d ed f5 20 bd 49 8a c5 bd aa 65 87 3b
       0.04645917 -0.039297033 -0.096455164 0.0041319923
000230 51 4c 65 bd 52 7d d3 bc 17 b9 e0 3c 54 20 41 3c
       -0.055980984 -0.025816593 0.027432008 0.011787493
000240 80 03 cd bc bb ea d5 3d e8 51 58 3c cd 41 81 3d
       -0.025026083 0.10445162 0.013203122 0.06311379
000250 aa 2e c1 bd 9f bb af bb 4f 9c c5 3c 9e e0 58 3d
       -0.094327286 -0.0053629423 0.024122385 0.052948587
000260 87 2e 61 bd 41 39 26 bd 4b cf 06 3d 66 6c 8b bd
       -0.054976013 -0.040581945 0.032912534 -0.06807785
000270 26 41 ed 3d 70 1e a0 3d 30 42 85 bd d9 95 25 3d
       0.11584692 0.078183055 -0.06506765 0.04042611
000280 22 36 a3 bc 54 2f 20 3d 2b 7e 90 bd 17 5c 1f be
       -0.019923273 0.039107636 -0.07055315 -0.15562473
000290 22 a6 12 be 00 9c 26 be 84 b2 00 3d f6 4f a2 bd
       -0.14321187 -0.16270447 0.031420246 -0.079254076
0002a0 80 58 9c bd 8c 42 a8 3d f2 d7 b5 3d 55 3e b2 3d
       -0.076340675 0.08215818 0.08879079 0.08703295
0002b0 39 0b 1f 3e 5d 32 10 bd b6 3b 8e 3d 85 39 ad 3c
       0.15531625 -0.03520428 0.06944983 0.021145592
0002c0 78 1e ab 3d f4 f7 c8 3d b7 8a 84 3d d8 05 87 3d
       0.08355421 0.09812918 0.0647177 0.065929115
0002d0 f2 4b fd bd 6a a7 ad 3d a0 4a 46 3d e8 6c 82 3d
       -0.12368001 0.08479197 0.04841101 0.063684285
0002e0 06 6c 0c be 1b c1 19 bb 49 1f ef bd ca aa e4 3c
       -0.13713083 -0.0023461047 -0.11675889 0.02791347
0002f0 eb 96 65 bd f4 01 17 bd 75 18 36 3d 51 77 57 bc
       -0.05605213 -0.036867097 0.044456918 -0.013151006
000300 15 c7 1c 3e b7 0b d1 bb 86 86 bb 3d 88 08 31 3e
       0.15310319 -0.0063795703 0.09156518 0.1728841
000310 ca 3b ae 3d 4c 25 37 3e 03 bb 3f 3e 00 ff c4 bc
       0.085074976 0.17885321 0.18723683 -0.024047375
000320 7b c4 fa bb a8 0e 3e 3d 89 65 0b 3e fa 43 3b 3c
       -0.007652817 0.046400696 0.13612951 0.011429781
000330 fb 49 db 3b 41 fd 9f bd 9f a5 a4 3d 81 5f 11 3e
       0.006692169 -0.07811976 0.08039402 0.14196588
000340 19 72 63 3c 41 52 13 bd b8 1e d6 3d 60 1f 1f 3e
       0.0138821835 -0.035967115 0.10455078 0.15539312
000350 35 a6 a8 bd 03 8a 98 3c 1f a0 d7 3d b5 d5 4c 3c
       -0.082348265 0.018620497 0.105285875 0.012502124
000360 f1 ad 07 3d c4 77 8c 3d 55 c7 9f bd 08 a0 22 3d
       0.033124868 0.06858781 -0.078016914 0.0397034
000370 ce 7f d7 3d 9f e2 c8 3d 1f cd 0b 3e 27 db 14 bd
       0.10522424 0.098088495 0.13652466 -0.036341812
000380 da 22 85 3d c7 92 81 3d e9 7d 19 3e 68 34 15 bc
       0.06500788 0.06326824 0.14989437 -0.009106733
000390 e5 64 bd 3d 23 15 44 3c 2d a8 d1 bc 33 55 f4 3d
       0.0924776 0.01196793 -0.025592888 0.11930313
0003a0 e6 b6 e7 3d a2 11 17 bd 7b 33 93 3d e9 af 94 bb
       0.11314182 -0.03688205 0.071875535 -0.0045375717
0003b0 82 99 3f 3d c4 8a ab 3d c2 c4 db 3a 4d b8 a0 3d
       0.046777256 0.08376077 0.0016767012 0.078476526
0003c0 04 1b 59 3d 71 f3 89 3d ee 99 19 bd d2 c1 90 bd
       0.05300428 0.06735886 -0.037500314 -0.07068218
0003d0 dd c3 d1 3b 26 68 5f 3d b2 8c 22 bd d7 1e ce bd
       0.0064015226 0.054542683 -0.03968496 -0.10064476
0003e0 6f bb e7 bd 42 09 9b 3c de 8e 87 3d c7 37 ea bd
       -0.11315047 0.018925313 0.06619047 -0.1143642
0003f0 90 29 b4 3d 53 5d b7 bc 67 43 2e 3e 50 8f 88 bd
       0.0879699 -0.022383368 0.170179 -0.0666796

conv_a_0.bias f4 [16]
000000 f5 5f d7 3d 2c 63 eb 3d 59 57 7e bd 03 ec 37 3e
       0.10516349 0.11493525 -0.06209502 0.17961125
000010 e2 48 24 3e af 61 04 be 17 f1 24 bd e1 43 cb 3d
       0.16043428 -0.12927888 -0.040268984 0.09925056
000020 d8 03 3b 3e 45 49 3b 3e 27 da 62 3d 06 52 05 3e
       0.18263185 0.18289669 0.055383828 0.1301957
000030 e7 80 4f bd 3a 1d ad 3d b2 52 9c 3d 80 49 ca 3d
       -0.05066004 0.0845284 0.076329604 0.098773

conv_a_1.weight f4 [16, 16, 3, 3]
000000 b2 81 c1 3c 80 8b 1f 3d f0 b1 fd 3c 01 e1 4a 3d
       0.023621414 0.038951397 0.030968636 0.049530987
000010 48 55 68 3d e1 24 97 3d 89 e0 5a 3d fb 8f f5 bc
       0.056721956 0.07380081 0.05343679 -0.029975882
000020 a7 58 3e 3c 28 50 af 3d 05 04 9b bb 85 dd 3b bc
       0.011617816 0.085602105 -0.004730704 -0.011466389
000030 67 49 9e 3c 1b 59 55 3d 7e c0 ef bb ec 01 8c bb
       0.01932211 0.05208693 -0.007316648 -0.00427269
000040 a6 bc 6b 3d 5c ed 0b 3d d3 0c 6f 3d dd 72 8e bd
       0.057552956 0.03416191 0.05836184 -0.06955502
000050 00 26 8a 3c fa 68 9f 3d d5 45 87 bd 90 cb 46 3c
       0.016863823 0.077836946 -0.06605116 0.012133494
000060 28 da 48 3d 03 0a a3 bc c4 8b fb 3c 01 53 73 3d
       0.049036175 -0.019902235 0.030706294 0.05940533
000070 d5 92 b4 bc 28 13 d0 bc 80 db bf 3d c8 48 0b 3e
       -0.022042671 -0.02539976 0.09368038 0.13601983
000080 1e 9f cf 3d 57 77 6f 3d 2a 44 cf 3d ef 58 d2 3d
       0.10137771 0.05846342 0.10120423 0.10270869
000090 37 a9 20 3d 43 03 46 3c b8 e0 01 bd dc 8e 8c 3d
       0.039223876 0.012085739 -0.03170845 0.06863186
0000a0 ba d7 9a 3d b1 8b ce 3c 79 f7 68 3d 26 ec a2 3b
       0.07560678 0.025213094 0.056876633 0.0049719987
0000b0 94 99 da 3d b9 5d 06 bd e1 c8 5d bc 97 25 32 bc
       0.10673824 -0.032804225 -0.013536663 -0.01087322
0000c0 32 c9 8b bc 36 e7 e7 3c 12 50 7c 3c 6e 1b 61 bd
       -0.01706371 0.028308492 0.01539995 -0.0549578
0000d0 c9 b6 57 3c ad 16 a4 3d 17 67 ff bc e0 43 5a bc
       0.013166138 0.080121376 -0.031177087 -0.013321847
0000e0 01 67 f5 bc 47 52 1d bd 9a fc b0 3d 2a 19 c5 bc
       -0.029956343 -0.038408544 0.0864193 -0.02405985
0000f0 c3 56 a8 ba 77 9c 6f bd 9d 89 95 bd 76 8f 85 3d
       -0.001284324 -0.058498826 -0.07301638 0.065215036
000100 83 56 d5 3d 97 00 b6 3d 2f ea f5 3c 2e 62 1a 3c
       0.104168914 0.08886831 0.030018894 0.009422822
000110 61 d9 69 3b 0b 9d 6f 3d 08 58 f4 3d 35 d2 20 3c
       0.0035682546 0.058499377 0.11930853 0.009815742
000120 8b b2 20 3d fe f3 01 3e 3b 21 d6 3d f8 e7 79 3d
       0.03923277 0.12690732 0.10455557 0.06101224
000130 60 be 8f 3d 7f 6d 1c 3d 3d 12 3e 3d d6 aa e1 3d
       0.07018733 0.03819036 0.046404112 0.110189125
000140 0c 4f f4 3c b3 ac e6 3d 2a c0 98 3d 3c c9 8b 3c
       0.029822849 0.112634085 0.074585274 0.01706373
000150 7f 18 94 3b f6 4f 86 bc 45 7d 2a 3d 14 3c f4 3d
       0.0045195217 -0.01639555 0.041623373 0.119255215
000160 3d c8 d8 3d ef d8 72 3d 8f 5b aa 3d a4 d9 92 bc
       0.105850674 0.059288915 0.08318245 -0.017926045
000170 d1 ad ca 3b 38 da ce 3d 6b d7 69 3b 4c dc d0 ba
       0.0061852713 0.10100216 0.0035681378 -0.0015934794
000180 f9 7c cd 3d aa b5 ba 3d 7f 5b b0 3d 05 14 cc 3d
       0.10033602 0.09116681 0.086112015 0.09964756
000190 cb 46 99 3d 96 d2 11 3e cf da 09 3d 92 3f bd 3d
       0.07484206 0.14240488 0.033655938 0.09240641
0001a0 e6 c3 f3 3d e7 38 55 3d b8 c8 8a bc 88 0f a5 bc
       0.11902599 0.05205622 -0.016941413 -0.020149007
0001b0 31 93 36 3d 3f e2 53 b9 83 29 3c bd 87 42 4d bd
       0.044573966 -0.00020206811 -0.045938026 -0.050112274
0001c0 6f 4b 27 3d 63 7a 9d bc f9 5c c0 bd 0e 25 85 3c
       0.040843423 -0.019223398 -0.09392733 0.01625302
0001d0 0a 3f f7 bc da f9 71 3b 7f 3c 51 bd c5 e0 05 3d
       -0.030181427 0.0036922605 -0.051083084 0.03268506
0001e0 b5 da c5 3c 1d d0 03 bd aa fb a4 3d de 6b 33 bd
       0.02415214 -0.032180894 0.080558136 -0.043804042
0001f0 7f 88 35 3c 69 e0 17 3d bf ae 98 3d 33 ac db bc
       0.0110799065 0.03707925 0.07455205 -0.02681551
000200 40 3d a9 3c 24 c4 02 3e a5 ae 12 3d 3d de 87 3d
       0.02065909 0.12770134 0.035811085 0.066341855
000210 c5 21 95 3d f2 1a 77 3c d6 ec ad 3d 3b c8 c3 3d
       0.07281832 0.015082108 0.084924385 0.09559675
000220 69 0d 00 3e 31 27 c3 3d 40 ef fb 3d 37 b4 8f 3d
       0.12505116 0.095289595 0.12301493 0.07016795
000230 c3 52 01 3e 61 98 5f 3d aa 92 6f 3d 09 89 06 3d
       0.12629227 0.05458868 0.05848948 0.03284553
000240 18 53 a7 3d 0e 3e ec 3d 76 8a 6d 3b 32 1a 2e bc
       0.08170146 0.115352735 0.003624586 -0.010626363
000250 a0 4e 63 3d ae c2 ae 3d bd 61 7d 3d 2b 68 4d bc
       0.055494905 0.08533226 0.06186079 -0.012537043
000260 05 f5 30 3d d5 8f bf 3d 94 9f 8a 3d a6 e2 0c 3b
       0.04320242 0.09353606 0.06768718 0.0021497398
000270 94 bb 96 3d dc a6 11 bd ec d2 91 3d 97 25 74 3c
       0.073599964 -0.03555952 0.07120308 0.01490154
000280 5a 8b 65 bc fb a3 a6 3d de e2 e5 bc b3 65 5a bd
       -0.014010275 0.081367455 -0.02806228 -0.053319644
000290 6e b7 b3 bc 57 d1 c6 bd 84 af 73 ba e8 74 bf bb
       -0.021938052 -0.09707897 -0.0009295868 -0.0058427937
0002a0 b2 be 04 bd 56 63 c0 bd 69 fa c1 bd 49 39 c1 3d
       -0.032408424 -0.09393947 -0.0947159 0.094347544
0002b0 31 9c 7f 3d c2 73 c6 3d 5f 12 af 3d 97 a3 c5 3d
       0.062404815 0.09690048 0.08548426 0.09650343
0002c0 68 bb 12 3d 8f 54 b0 3d ac 08 ef 3d a4 d8 8c 3c
       0.035823256 0.08609878 0.11671576 0.017193146
0002d0 f3 11 09 bd 8a 7e eb 3d 89 6d eb 3d f2 d8 3f 3c
       -0.033464383 0.11498745 0.114955015 0.011709439
0002e0 49 8e 99 3d 2e 62 a6 3d 9a 01 c0 3d fb 7a e7 3d
       0.07497842 0.08124195 0.093753055 0.113027535
0002f0 d5 09 6a 3d 1d b5 00 3d 9b 67 6b bd f1 42 9d 3d
       0.057138283 0.031422723 -0.057471853 0.07678784
000300 70 a3 3a 3d f6 0b c2 3c 22 a9 bd bc 37 97 ff bc
       0.045566022 0.023687344 -0.023151938 -0.031200035
000310 c4 7c d7 bc ee 79 84 bd 57 22 56 bd 88 6f 5e 3d
       -0.02630461 -0.06468569 -0.052278843 0.054305583
000320 0c ca 1a 3c db 49 61 ba b9 b4 b6 bd b4 2d 53 bd
       0.009447586 -0.0008594074 -0.08921189 -0.051557258
000330 15 c3 ed bc b1 00 be bd da e3 2d bc 7c 9e 94 bc
       -0.029023686 -0.092774756 -0.010613406 -0.018141977
000340 c6 f2 77 3d cb d4 cb 3d 56 54 ff 3d 18 e4 45 3d
       0.06053426 0.099526964 0.12467258 0.04831323
000350 60 35 54 3b f5 cb aa 3d e5 09 61 3d 55 3e 46 3c
       0.0032380447 0.08339683 0.054941077 0.012099822
000360 47 54 03 3d 70 1a 13 3e 73 9a 38 3d 71 96 ee 3d
       0.032062795 0.14365554 0.04506917 0.11649788
000370 bd 70 67 bc 3d 29 a8 3d 97 81 77 bc ce f8 36 3d
       -0.014126 0.082109906 -0.01510658 0.044670872
000380 7b f8 ea 3d 31 7e a9 3d ab 74 0f 3d 62 35 84 3d
       0.11473175 0.08276022 0.035023373 0.064554945
000390 a9 dc 67 3d 19 4e fb 3d 90 11 33 3d ac 1a 67 3d
       0.056606922 0.12270755 0.04371792 0.05642192
0003a0 4f ac 25 bc 33 49 1b 3d 47 6a 05 3e 2f 76 b1 3d
       -0.010111882 0.037911605 0.13028823 0.0866512
0003b0 44 6a ea 3d 50 fd d6 3c c9 db 55 3d 3c 08 8a ba
       0.1144605 0.026243836 0.052211557 -0.0010531018
0003c0 d4 c5 de 3d 5d 1e dd 3c b7 35 0b 3e 95 36 fc 3d
       0.108775765 0.026992017 0.1359471 0.12315098
0003d0 32 1a 76 3d 5e 71 fa 3d 7b 4c 00 bc c5 29 e3 3d
       0.060083576 0.12228654 -0.007830734 0.11091951
0003e0 9d 83 b0 3d c6 3c ed 3d c9 fd 0d 3e a5 7a ba 3c
       0.08618853 0.11583857 0.13866343 0.02276356
0003f0 49 23 f5 bc 3a fd de bc 61 84 cf 3c 24 73 53 3d
       -0.029924052 -0.027220357 0.025331678 0.05162348

conv_a_1.bias f4 [16]
000000 81 b8 4f 3d 73 04 04 bb 04 7b 46 3d 12 a4 ea 3d
       0.050713066 -0.0020144254 0.04845716 0.11457075
000010 f8 c9 68 bb ed f9 b2 bc 52 41 c0 3d d7 93 12 bd
       -0.0035520773 -0.02184769 0.09387459 -0.035785522
000020 66 aa 6e 3d b8 85 66 3d e6 b5 aa 3d 9a b1 cb 3d
       0.058267973 0.056279868 0.083354756 0.09945984
000030 da 72 81 bd 3b ff dc 3d 9a 4f bc 3d e0 69 9c 3c
       -0.06320734 0.10790869 0.0919487 0.019093454

linear_a_0.weight f4 [16, 784]
000000 52 a8 c0 bc 28 63 67 3c af ed 79 bc b2 c0 b1 3c
       -0.023517761 0.014122762 -0.015254422 0.02169833
000010 a3 6d a8 3c a0 fd 1f bc ec 50 0f 3c 31 28 dd 3c
       0.020560091 -0.009765059 0.008747321 0.026996704
000020 ac 82 ed bc fc d5 cd bb c1 97 48 3c 1d eb 0d bd
       -0.028992973 -0.0062816124 0.012243212 -0.03464805
000030 ca c6 d7 bc 82 b0 02 bd 7b cd 38 bc 38 59 00 bd
       -0.026339907 -0.031906612 -0.011279459 -0.031335086
000040 78 b9 a2 3c 68 ba 9b ba e5 3a a4 3b 40 3d ad bc
       0.019863829 -0.0011881115 0.0050119036 -0.02114737
000050 20 d5 a4 bc 45 48 ea 3b 6b ff 01 bd 47 a2 93 bc
       -0.020121157 0.0071497285 -0.031737726 -0.018021716
000060 cc 3f 58 bc 45 b5 00 3d ca 66 ca bb f3 a1 d2 bb
       -0.013198804 0.031422872 -0.006176804 -0.0064279973
000070 24 4b 9a bc c8 ca f4 bb 67 20 10 bd 97 5f dd 3c
       -0.018834658 -0.0074704625 -0.03518715 0.02702312
000080 a5 9b f4 3c a8 79 a8 3c e0 fb 9a bc 79 c3 12 3c
       0.029859373 0.020565823 -0.018918931 0.008957737
000090 7a b8 f3 3c 65 07 1b bd 1e 25 29 bb df a3 d4 bc
       0.029751051 -0.03784885 -0.0025809477 -0.025957046
0000a0 69 f9 3d 3c f9 e5 b6 bb 2f e1 56 ba 04 9e a8 3c
       0.011595109 -0.005581614 -0.0008197007 0.02058316
0000b0 31 74 89 bc f7 ea 20 bd fd 78 2e bc 2d 4b 88 bc
       -0.016779037 -0.03928658 -0.010648963 -0.01663741
0000c0 0c 3b 7e bc 55 eb d7 bc 84 ad e3 bc 49 97 48 bc
       -0.015517008 -0.026357332 -0.0277927 -0.0122431
0000d0 9d a1 bf bc ce e0 02 3d 83 7f 10 bb 57 62 15 bd
       -0.023392493 0.03195267 -0.002204866 -0.036470737
0000e0 19 70 d3 ba 9d c5 bf ba 15 d1 44 b9 f2 cc a3 bc
       -0.001613143 -0.0014631037 -0.00018769906 -0.019995186
0000f0 d2 37 e4 3c 19 34 b9 3c 4c 17 a2 bc 84 7b 5f 3a
       0.027858648 0.02260785 -0.0197865 0.000852518
000100 a6 18 b2 bb ae 13 f8 bc d3 22 f5 bb 1d d8 f7 b8
       -0.005435067 -0.030282822 -0.007480958 -0.00011818132
000110 b7 d0 15 bb e9 f7 27 bc 44 3c a5 3c 30 4f ab 3c
       -0.002286 -0.0102519775 0.020170338 0.020911783
000120 22 de d7 3b 2d dc d6 3b e6 ba 2c bc 29 41 9b bc
       0.0065877596 0.0065570087 -0.010542607 -0.01895197
000130 78 e0 93 38 d0 71 0c bd e5 52 8d 3b 35 76 d6 bc
       7.051317e-05 -0.034288228 0.0043128603 -0.026179412
000140 fa 6e af bc 25 70 e5 bc d0 50 f1 3c f6 4b aa 3b
       -0.021415222 -0.028007576 0.02945748 0.0051970435
000150 48 c9 c5 bc 5a 6e 08 bd c9 e8 60 3c 2e 53 aa bc
       -0.02414383 -0.033308364 0.013727375 -0.020791616
000160 5c e9 2b 3c 2b 3f 3b bc 5b fd b3 3c c3 62 d8 3c
       0.010492649 -0.011428635 0.021971395 0.02641428
000170 54 a1 23 3c 16 6c c7 3b 38 23 18 bd 61 83 65 3c
       0.009987194 0.006085883 -0.037142962 0.014008374
000180 ed 1d 1a bd ba 57 c7 bb f7 d6 35 bc 77 d9 f3 3c
       -0.037626196 -0.006083456 -0.011098615 0.029766781
000190 27 fd fe 3b 08 07 83 3c 0d b2 fd 3b 7e 5e ad bc
       0.007781643 0.015994564 0.0077421726 -0.021163221
0001a0 1a 09 04 3c 0b ca a8 3c bd d1 f6 3c 04 25 12 bd
       0.008058811 0.020604154 0.030129308 -0.035679832
0001b0 a9 96 17 bd 30 cb 46 bc 45 f4 e2 3c 1a 62 f8 3c
       -0.037008915 -0.012133405 0.027704367 0.030320216
0001c0 48 2f a1 3b 20 12 f1 3b 6e 8e 13 3c bf 4b db 3c
       0.0049189664 0.007356897 0.009006126 0.026769517
0001d0 d2 42 04 bd 1b 2f 98 3c 40 55 8e bb b3 df 11 bd
       -0.032290287 0.01857715 -0.0043436587 -0.035613727
0001e0 bc 13 3e 3c c5 7e 1d bd 66 93 80 3c 20 92 ef bc
       0.011601385 -0.038450975 0.015695285 -0.029244483
0001f0 ea 29 22 bb a7 a4 09 3c 70 c5 cf bc 90 42 ce bc
       -0.002474422 0.008401073 -0.0253627 -0.025178224
000200 76 d4 67 bc 3a cd 07 3b 25 6d 84 3c b8 d2 92 3c
       -0.014149776 0.002072169 0.016165325 0.017922744
000210 eb c8 f7 ba bf e8 bc bc d1 25 70 3b ca ce bb b9
       -0.0018904483 -0.0230602 0.0036643634 -0.0003582149
000220 4e ba d7 bc b6 f9 0f bd 00 84 d2 3c 8a ef e0 bc
       -0.026333954 -0.035150252 0.025697708 -0.027457971
000230 ea 76 81 3c c6 ac 55 3b be e7 a1 bc 76 20 b9 bc
       0.015803773 0.0032604202 -0.019763824 -0.022598486
000240 d2 b0 f0 3b fc bf f0 3c ae f5 b2 3c b5 d6 fc 3c
       0.0073452974 0.02938842 0.021845665 0.030864099
000250 47 e0 a8 3c f5 79 1b bc 37 bc 72 bc 35 71 d0 bc
       0.020614756 -0.009489526 -0.014815382 -0.025444606
000260 1f 99 50 bc 38 b3 0f 3c fb 98 f0 3c 3c ee ef 3a
       -0.012731819 0.008770756 0.029369822 0.0018305252
000270 dc 2c d2 bc 95 19 1a bd c0 83 28 3c 0c b4 ad bc
       -0.025656156 -0.037622053 0.010285318 -0.021204017
000280 0c e4 c1 3c a4 0e fd 3b 57 d5 fc 3c bb 75 f6 bc
       0.023668312 0.0077226926 0.030863447 -0.030085435
000290 44 de 8e 3c 9b 92 c1 b9 9b 8b 4a 3c a6 a4 a6 3b
       0.017439969 -0.00036921058 0.012362386 0.0050855456
0002a0 4e dd ed 3c 79 0a 59 3b 4c 06 bc bc 2b 97 d1 ba
       0.02903619 0.0033117814 -0.022952221 -0.0015990486
0002b0 73 0c 35 ba b0 67 a7 3c 60 d4 ed 3b 7b e5 14 bd
       -0.0006906457 0.020435184 0.007257983 -0.036351662
0002c0 1c eb c1 3c 26 f5 d1 bc 42 5a b2 bc b4 92 ae bc
       0.02367168 -0.025629591 -0.021771554 -0.021310188
0002d0 c4 90 9e 3c 3c f4 e7 3c ec e1 98 39 37 ad a0 ba
       0.019356139 0.028314702 0.00029160024 -0.0012258653
0002e0 e9 91 66 bc 2c 63 02 bd 5e 8a ac bc a8 c4 34 3c
       -0.014072874 -0.03183286 -0.021062072 0.011033215
0002f0 bf 8c 13 3c aa ce d7 3c 65 72 cc bc ca ac da bc
       0.009005724 0.026343662 -0.024956891 -0.02669372
000300 c3 5c 0a bd 59 9c f1 bc 88 0f c6 bb 65 53 ab 3b
       -0.03377987 -0.029493498 -0.006044332 0.0052284473
000310 68 9e 06 3d ac 3e fe 3c 6e f9 60 ba 02 42 e6 bb
       0.03286591 0.031035744 -0.000858209 -0.0070269117
000320 b5 48 fd bc 60 c2 9d bc b4 c8 ad bc cf a6 e9 38
       -0.030918458 -0.019257724 -0.021213867 0.00011141376
000330 07 3a 09 bc 98 5d 07 bd 6e 25 a4 bc cf 34 df 3c
       -0.008375651 -0.033048242 -0.02003738 0.02724686
000340 d7 b0 a3 3c c1 9c 49 3c 7d 01 0e 3b 09 16 6f 3b
       0.019981785 0.012305439 0.0021668368 0.003648164
000350 0f 48 c9 bb 64 13 8f bb 8f 3b 72 bc 90 56 fe 3c
       -0.0061426233 -0.004366325 -0.014784708 0.031047136
000360 e6 f7 e4 bc a8 6c d4 bc 24 30 f2 3c 2f d7 c5 bc
       -0.027950238 -0.025930718 0.02956397 -0.02415046
000370 cd 13 d7 3b 68 71 b0 3b cc cb 3d bc 38 56 43 bc
       0.0065636397 0.005384613 -0.0115842335 -0.011922412
000380 3e 03 86 3c 82 2f 97 bc 83 0a 58 3a d1 e3 d6 3c
       0.016358968 -0.01845527 0.00082413125 0.026231678
000390 28 8b 0f bd ee e5 05 bd bc 51 92 bc ea 95 d2 3b
       -0.03504482 -0.03268998 -0.01786124 0.0064265626
0003a0 49 d7 e8 3c d0 1b fb 3c c0 0f 52 3a 26 3d d9 3c
       0.028422968 0.03065291 0.0008013211 0.026518416
0003b0 af f1 aa bc 03 24 e0 bb d7 ea de 3c a5 67 b1 bb
       -0.020867197 -0.0068402304 0.02721159 -0.0054139667
0003c0 9b 7d 55 b9 23 bc fd bc e6 d4 02 3d ee 72 fe bc
       -0.00020360055 -0.0309735 0.031941317 -0.031060662
0003d0 26 ed a3 bc b5 e1 ed bc cd 6a d6 3b 3b 62 79 bc
       -0.020010542 -0.02903829 0.0065434934 -0.015221174
0003e0 93 d2 99 bb 3a 60 bd 3b 8b 35 fb 3c f5 9c 05 bd
       -0.004694292 0.0057792934 0.03066518 -0.03262039
0003f0 93 ba eb 3c 60 76 03 bd 55 49 bd 3c a1 3d ef 3a
       0.028775489 -0.032095313 0.023106256 0.001825262

linear_a_0.bias f4 [16]
000000 24 c3 59 3c e1 84 b4 bb d1 07 b6 bb e9 af 6f 3c
       0.013291154 -0.0055090045 -0.005555131 0.014629343
000010 98 f0 b5 bc 47 2c 90 3d e8 84 e6 3c 1c bc 4b 3c
       -0.02220945 0.07039695 0.028139547 0.0124349855
000020 ef 04 8e bc ec ed a0 3a f9 ab 52 bc 97 c5 89 bc
       -0.017336337 0.0012277937 -0.012858384 -0.016817851
000030 c8 23 b1 bc ee 71 dc 3c 20 11 8a bb e2 34 f4 3c
       -0.021623507 0.026909795 -0.0042134672 0.029810373

GRU_a.weight_ih_l0 f4 [48, 16]
000000 0a e5 93 bd f3 d8 9d 3d af 8d 9d 3c da a1 84 3d
       -0.0722142 0.077073954 0.019232599 0.06476183
000010 d6 8a 3f be 4b a6 fc bd 3c 49 89 bd 3c de d8 bd
       -0.18705305 -0.12336405 -0.067034215 -0.10589263
000020 28 2c f3 bc 18 16 41 bd 07 ce 0c 3e 78 6d 87 3e
       -0.029684141 -0.04714021 0.13750468 0.26450706
000030 7e 80 8d 3d 7c d6 35 bd 4b 5b 43 be 6a bd 0f 3d
       0.069092736 -0.044394 -0.19077794 0.03509275
000040 a6 89 77 be 35 fb 66 be 6c 3f 72 3d a9 2e da 3d
       -0.24173602 -0.22556765 0.059142515 0.10653431
000050 05 86 4c be 48 8d 0a 3e d8 5c 53 be 63 8f d7 bd
       -0.19973 0.13530457 -0.20640886 -0.10525396
000060 70 10 8b 3d 8d 4f b8 bc b7 2d d4 3d 73 b4 77 3d
       0.067902446 -0.02249887 0.10360282 0.060474824
000070 9c 3a 11 bd 04 cb 11 3e b1 c8 ec bc 3c 1a c4 bd
       -0.035456285 0.142376 -0.02890429 -0.09575316
000080 66 b8 43 bd 67 68 9f bd da 9c 06 be 83 4c 53 3d
       -0.047783278 -0.07783585 -0.13145772 0.05158664
000090 65 75 1d be 49 13 01 3e 4f de 6a be 69 78 6b be
       -0.15376814 0.12605013 -0.22936366 -0.22995152
0000a0 13 4f 8d bb 3b e7 b1 bd ec d4 c9 3d 65 c4 fe 3d
       -0.004312405 -0.08686682 0.09855065 0.12439803
0000b0 67 b8 3b be 2d 15 73 be bd 73 03 be 08 34 bc 3d
       -0.18332063 -0.23738547 -0.1283712 0.09189612
0000c0 85 49 9f bd e8 85 37 3d 5c f6 72 be cc cd 69 3e
       -0.077776946 0.044805437 -0.23726791 0.22832412
0000d0 7b a7 80 3e ba 68 72 3e 30 81 a3 3c 85 dc 8c 3d
       0.25127777 0.23672763 0.019959062 0.06877998
0000e0 53 c4 08 3e 7f 9b 04 3e 8c 55 d7 bd e7 45 9a bc
       0.13356142 0.12949942 -0.10514364 -0.01883216
0000f0 7d 06 55 3e e5 50 0e 3e 0f 84 5f 3d 94 db 81 3e
       0.20803256 0.13898046 0.0545693 0.25362837
000100 fb 67 41 be 74 ae 09 3e e6 25 11 3d 9e 02 b3 3d
       -0.18887322 0.13445455 0.035436533 0.087407336
000110 43 1b 85 3c 27 31 82 be b9 8e a5 3d f7 63 04 3e
       0.016248351 -0.25428125 0.08083863 0.12928759
000120 ea 3f 23 be b9 8f 78 bd c9 01 67 be c3 85 15 be
       -0.1594235 -0.06068394 -0.22559275 -0.14601807
000130 85 a3 44 be 92 38 f1 3d 3a 80 5c be 32 6e 26 be
       -0.19203003 0.11778368 -0.2153329 -0.16252974
000140 85 de 56 bd d6 8c 23 3e 4e 17 5a be 16 20 31 3e
       -0.052458305 0.15971693 -0.21297953 0.17297396
000150 69 3b 4e 3d 5c 77 72 be 53 c8 77 3e 99 ad 06 3e
       0.050349627 -0.23678344 0.24197511 0.1315216
000160 48 a0 98 bd 91 d9 98 3d a1 55 89 bd 40 72 a1 bd
       -0.07452446 0.074633725 -0.067057855 -0.078831196
000170 af 62 44 3d ca f1 f6 bd 18 2f 79 3d c0 b8 e4 3b
       0.047945675 -0.12057836 0.060835928 0.0069800317
000180 42 46 ff bd 53 05 4c be 3e 18 7e 3e 41 85 01 3e
       -0.124645725 -0.19923906 0.24813935 0.12648489
000190 6f 14 c3 bd 06 cf 02 3e b5 ef 49 3b 89 c6 25 3e
       -0.09525382 0.12774286 0.0030813043 0.16189016
0001a0 26 22 65 be fa e2 51 be 8d c8 2c 3e c5 14 0c 3e
       -0.22376308 -0.20496741 0.16873379 0.13679798
0001b0 34 ae 7e be 54 64 0d be 6f a6 cd bc 06 42 46 be
       -0.2487114 -0.13807803 -0.025103776 -0.19361123
0001c0 21 98 79 be 4d 76 7a 3e e1 2a 45 3c 04 c6 fe 3d
       -0.24374439 0.2445919 0.012034149 0.12440112
0001d0 f2 78 79 be f6 47 01 3e 8a 76 91 3d 0a 01 3e 3d
       -0.24362543 0.12625107 0.07102688 0.04638771
0001e0 e2 d9 4b 3e f5 28 2f 3e 34 bf 62 3e c3 39 2f be
       0.19907334 0.17105468 0.2214325 -0.17111878
0001f0 8c 5e d6 bd 01 00 71 3e 9e c5 f5 3d 4c 32 6e 3d
       -0.10467252 0.23535158 0.12000583 0.058153436
000200 31 ee 37 3e 94 b0 5e be 0a 1c 2f be e3 0a 1c be
       0.17961957 -0.21747047 -0.1710054 -0.15238528
000210 7e a0 42 3e 2f db 07 bd b3 c1 6e bc 1e 33 bb 3d
       0.19006535 -0.033168014 -0.014572549 0.09140609
000220 a9 a8 87 3c e0 e4 5c 3d 55 99 e9 bb ac c3 3c be
       0.016559916 0.05392921 -0.0071288743 -0.18434018
000230 f5 e1 43 be 52 fd 6e bd c3 d8 8e bc 75 b2 41 3e
       -0.19129165 -0.058347054 -0.017437344 0.18915732
000240 c4 0c bf bc dc 7a 68 be c1 e6 20 be 53 4a 9d bd
       -0.023321517 -0.22703117 -0.15713026 -0.07680192
000250 ad 40 a4 3d dd cf 13 bc 0b ed 56 be 47 21 45 3d
       0.080201484 -0.009021726 -0.20988862 0.04812744
000260 f7 29 13 3e cd b3 74 3d a0 39 6e 3e e1 f4 30 be
       0.14371477 0.059741784 0.2326417 -0.17280914
000270 91 a6 22 be 9a e1 c6 bd b4 90 b0 bd 9b c6 6b 3e
       -0.15883853 -0.09710999 -0.0862135 0.2302498
000280 68 21 65 3e a1 18 1f 3e d1 98 c9 bd bf 38 38 be
       0.22376025 0.15536739 -0.098436005 -0.17990397
000290 63 d4 b1 bd f6 fa ff bd 67 c7 60 3e 10 c3 26 3e
       -0.08683088 -0.12499039 0.21951066 0.16285348
0002a0 62 70 5f be 4b 7b 14 be 06 b1 7b 3e ca cc f7 3d
       -0.21820214 -0.14500158 0.24579248 0.12099607
0002b0 ed c0 e7 bd a2 9f 94 bd 04 1a a3 bd f6 30 71 bd
       -0.113160945 -0.0725701 -0.079639465 -0.058884583
0002c0 44 34 6f be 1e 97 6b be 94 e4 05 3d ab ae 36 3e
       -0.23359782 -0.23006865 0.032688692 0.17840068
0002d0 ce fd 5d be b6 0f 50 3d c2 65 6c 3e b2 96 94 bd
       -0.2167885 0.050796233 0.23085693 -0.07255305
0002e0 4e f8 6e 3e 6a 08 42 be 52 b3 8b be e7 a1 99 be
       0.23336908 -0.18948522 -0.27285248 -0.30006334
0002f0 b3 c2 12 3e 7a 15 b3 bd c4 6c cf 3d ce 12 58 3e
       0.14332084 -0.08744331 0.10128167 0.21100923
000300 89 7e 82 3d ed 01 c3 bc 1d 13 69 3e 9c 80 7f be
       0.06371791 -0.02380463 0.22761197 -0.24951404
000310 7c 03 1d be 0c 77 2f be f2 58 5c 3e 98 e3 45 3e
       -0.1533336 -0.17135257 0.21518305 0.19325101
000320 a2 94 02 3d d7 41 3a 3e 35 59 e5 3d 82 99 09 bd
       0.03188003 0.18189178 0.111986555 -0.033593662
000330 e3 3f db 3d 64 34 15 be 54 34 14 3c 0a 93 6e 3e
       0.10705545 -0.14570767 0.009045679 0.23298278
000340 4f 8d 13 3d 60 31 9f 3d bc 6e 7a be e6 c1 bc 3c
       0.036023434 0.077730894 -0.24456304 0.023041677
000350 4c aa eb bd e3 c9 fb 3d 7a 56 c1 3d ba a6 0f bd
       -0.11507091 0.12294366 0.09440322 -0.035071112
000360 7d c1 76 be f6 d7 7e 3e 96 93 4e be e5 eb 51 3d
       -0.24097247 0.2488707 -0.20173487 0.051250357
000370 75 d7 e8 bd aa 81 1d 3e a9 6b 72 3e 88 63 80 3e
       -0.1136922 0.15381494 0.23673882 0.25075936
000380 17 bb 46 3e 69 a1 a7 3d 2e a9 ec bd 2a c2 78 3e
       0.19407307 0.081850834 -0.11555706 0.24292818
000390 85 c0 3f 3e 67 58 73 3e cd 44 39 3e 28 e6 2b 3e
       0.18725784 0.23764192 0.18092652 0.16787016
0003a0 80 ab c8 bb 17 b2 81 3d 61 40 4b 3e fb 6c 5d 3e
       -0.00612396 0.06332796 0.19848777 0.21623604
0003b0 b0 2f 20 3e c9 2a 2b be 1e 65 07 be a5 ef e2 bd
       0.15643191 -0.1671554 -0.13222167 -0.11080865
0003c0 c2 76 fb 3d e5 63 01 be f8 ae ab 3d a6 02 6b be
       0.12278511 -0.12635763 0.08382982 -0.22950229
0003d0 e5 d3 45 be ef 51 63 3e 47 a0 e8 bd 50 28 5f be
       -0.19319113 0.22199224 -0.113586955 -0.21792722
0003e0 54 f2 67 3d 5d a7 01 3e d9 68 30 be 94 da 54 3e
       0.056627586 0.126615 -0.17227496 0.20786506
0003f0 02 1d 91 bd eb b5 d6 bd 19 74 5d 3d 3c 95 31 be
       -0.07085611 -0.10483917 0.054065797 -0.17342085

GRU_a.weight_hh_l0 f4 [48, 16]
000000 c4 bf d6 bc db 84 32 be e1 0b 03 bd a3 b6 e6 3c
       -0.026214488 -0.17433493 -0.03199375 0.02816326
000010 6a df b0 bd 8d af 2b 3e be 62 06 be 93 64 86 bd
       -0.08636363 0.16766186 -0.13123605 -0.06562152
000020 97 33 f8 3b bd 68 17 be 3e ac 00 3e 34 85 1d be
       0.0075745094 -0.14786048 0.12565705 -0.15382844
000030 d5 b0 2d bd 59 41 3b be b1 4a 60 3e c6 99 0a bc
       -0.04240497 -0.18286647 0.21903493 -0.008459514
000040 12 c4 de bd 82 79 79 be 5d 99 3c 3e 61 fd dd bd
       -0.10877241 -0.24362758 0.18417878 -0.10839344
000050 7c c6 11 be c7 ed 3b 3e 31 96 20 3e e9 45 38 3e
       -0.14235872 0.18352424 0.15682293 0.17995419
000060 87 a9 0d be 5e 61 f5 bd 71 ab f9 bc 25 83 2d be
       -0.13834201 -0.11981462 -0.030477257 -0.16944559
000070 1d 89 3d bc 6c 67 5c be 3e 6c 19 3e 77 d1 46 bb
       -0.011568335 -0.21523827 0.14982697 -0.0030337253
000080 38 82 26 be 65 46 54 be f1 df 59 be 36 75 6d 3e
       -0.16260612 -0.20729978 -0.21276833 0.23189244
000090 25 0a 23 be f1 b8 1a 3e ca 11 59 be f5 1e da 3d
       -0.15921839 0.15109612 -0.21198192 0.10650436
0000a0 bd 8d 94 bd 63 7a a6 3d bd ee 69 bd 1f 51 74 3e
       -0.07253597 0.08128812 -0.057112444 0.2385907
0000b0 0a 0d 4c 3d a1 02 54 be ce 53 39 3d ef 2e 4f bb
       0.049817123 -0.20704128 0.045245938 -0.0031613668
0000c0 fb 38 12 be a1 0c 64 bc ad 5c 1d 3e 02 cf 83 bd
       -0.14279549 -0.013919027 0.15367384 -0.06435968
0000d0 b8 3b d0 bc 86 51 38 be db f1 b9 bd 0a c1 cb bd
       -0.025419101 -0.17999849 -0.090793334 -0.09948929
0000e0 aa 4e 2a 3e f6 cf c7 3c 78 58 e0 3d cc 16 96 3d
       0.1663157 0.024391156 0.10954374 0.07328567
0000f0 ee b8 31 3e 13 54 55 be ff 96 91 3e 34 3e ff bd
       0.17355701 -0.20832853 0.28435513 -0.12463036
000100 b8 4e 05 3e 8c e9 4b 3e 42 b0 03 3e 25 66 46 be
       0.1301831 0.1991331 0.12860206 -0.19374903
000110 9d ee 07 bd 3c ba 51 be e0 4e cd bc e0 81 18 39
       -0.033186544 -0.20481199 -0.025062025 0.00014544232
000120 90 62 49 bc 42 78 87 bd da f2 8c 3c ea 5a 2f 3e
       -0.012291566 -0.06614734 0.017205644 0.17124525
000130 27 6d 08 3d 3c 0d ce bd b0 72 d7 3d 4d 81 1d be
       0.03330722 -0.10061118 0.10519922 -0.15381356
000140 aa 53 8b 3d 86 00 7d 3e b6 9f 2a 3e 4b 55 57 3d
       0.06803067 0.24707231 0.16662487 0.052571576
000150 48 de b5 3d d7 5d 11 3d 65 67 ba bd a8 f5 ec 3d
       0.088802874 0.035489883 -0.09101752 0.11570293
000160 13 74 f0 3c 52 14 18 be 4b 43 8e 3c cb bd 62 3e
       0.029352224 -0.14851502 0.017366072 0.22142713
000170 15 43 0e 3e 7f 1f 3a be f3 67 0a be e8 ef be 3d
       0.13892777 -0.18176077 -0.13516216 0.09323102
000180 3d ae 1f be 5e a4 44 be 81 2e 2c 3e 60 af 69 be
       -0.1559381 -0.19203326 0.16814615 -0.22820807
000190 06 52 13 3d 03 23 21 3e 35 88 45 be 98 ae 6c 3d
       0.035966896 0.15736012 -0.1929024 0.057783693
0001a0 b1 bb 5b 3e 2b a7 29 3e 5e ec 65 be 2a ae e5 3d
       0.21458317 0.16567676 -0.22453448 0.1121486
0001b0 8c c2 82 3e 7f 85 c8 3d c8 4d 57 be 7f db 5a 3d
       0.25539052 0.09791087 -0.21025765 0.053431984
0001c0 a6 d7 5c 3e 0c e5 76 3e 17 d3 11 be 16 7a 31 3e
       0.21566638 0.24110812 -0.1424068 0.17331728
0001d0 c8 c5 62 be cf ec 7d be 42 1b c4 bd 95 fc 27 bd
       -0.2214576 -0.24797367 -0.095755115 -0.041012365
0001e0 8b de 6d be 2f 9f 7f 3e 92 45 82 bd 73 93 8e bd
       -0.23229425 0.24963067 -0.06360926 -0.069617175
0001f0 07 51 4b bc 3d e2 a5 3c 8c 7f 78 bd cb c5 32 3e
       -0.012409455 0.02024948 -0.060668513 0.17458265
000200 58 48 ab 3d 3e eb 30 3e 61 1e df 3d f1 17 7c be
       0.08363408 0.17277238 0.10894466 -0.24618508
000210 84 e3 55 bd 9e f2 82 bd ba af 1d 3e f8 b7 27 3e
       -0.05221893 -0.06393932 0.15399066 0.16378772
000220 b9 1b 21 be bc 43 64 3e 27 b5 30 3e 06 0c 59 3e
       -0.15733232 0.22291464 0.17256604 0.21195993
000230 32 11 37 3d ee db 67 3e 0b 27 4a be ae 01 7b 3e
       0.044694133 0.2264249 -0.19741456 0.2451236
000240 6b c9 59 3e 73 91 01 3e 6b 5f c6 bd 76 89 2b be
       0.21268241 0.1265314 -0.09686168 -0.16751656
000250 e3 cb 53 3d be 42 e6 3d 04 77 ed 3d e7 39 2c 3e
       0.051708113 0.11243199 0.11594966 0.16818963
000260 4a f0 31 be 70 de 36 be b6 c9 05 be 24 03 29 3e
       -0.17376819 -0.1785829 -0.13065228 0.16505104
000270 79 05 04 3e f6 68 96 bd 04 ac 82 bd db 30 89 bd
       0.12892713 -0.073442385 -0.063804656 -0.066987716
000280 33 15 9f bd f1 84 51 3d f5 bb c2 3d 66 46 db 3d
       -0.07767715 0.051152173 0.09508506 0.10706787
000290 ad 9a ba 3d 5d 86 04 be 82 c0 a4 3d 55 4c 4b bd
       0.09111533 -0.1294188 0.080445305 -0.049633343
0002a0 91 bb 8c 3d 19 7a 85 3e e9 70 ec 3d e0 cd b2 3c
       0.06871713 0.26069716 0.115449734 0.021826684
0002b0 6e 6c 5e be bb 30 8e 3d ec 04 1e be 66 f2 8f be
       -0.2172105 0.06942888 -0.15431565 -0.28114623
0002c0 43 3b 48 3e 1c b3 11 3d 13 b7 c3 bd fa 5b 31 3e
       0.19553857 0.035571203 -0.09556403 0.17320243
0002d0 9a ec 1f be 35 e8 1b 3e fb b7 7c be 51 fb 8a bd
       -0.156176 0.15225299 -0.24679558 -0.06786216
0002e0 d9 4a d9 3c 6a 69 09 bd 31 c7 8a be 18 a3 ce bd
       0.026524948 -0.033547796 -0.27105096 -0.100897014
0002f0 f0 28 f8 3d 3d 1b 98 3d 39 42 f1 3c 3e fa 32 bc
       0.12117183 0.0742707 0.029450523 -0.01092392
000300 a0 19 3c 3e 8d b4 6a be c1 bc fd bd 89 a5 99 3d
       0.1836915 -0.22920437 -0.123895176 0.075022765
000310 04 9a 6d bc 41 20 50 be a9 de 72 3e 05 3b 1c be
       -0.014502052 -0.20324804 0.2371775 -0.15256889
000320 52 3b b0 3d 08 fe b3 3d 15 b3 a7 37 7d 95 f9 3d
       0.086050645 0.08788687 1.9991343e-05 0.12186716
000330 a2 5d 96 bd 7b 4a 72 be 17 42 ff 3d 4a f7 b6 bd
       -0.07342078 -0.23661225 0.124637775 -0.089338854
000340 46 35 04 3e 95 c3 da 3d 9b 55 35 be df 54 0f 3e
       0.12910947 0.106818356 -0.17708437 0.1399722
000350 42 d1 c3 bd 55 20 7a 3e ad bb c5 bd 2c 7a 67 3e
       -0.09561397 0.24426396 -0.09654937 0.22605199
000360 e9 17 43 3e 4c fe 36 bd c3 62 4e 3e b6 6e f0 3d
       0.1905209 -0.04467611 0.20154862 0.117398664
000370 64 10 ab 3d 2f 87 23 3e 41 4c 16 be 18 d0 6a bd
       0.08352736 0.15969537 -0.14677526 -0.05732736
000380 0d 1f 04 be f1 c4 3b be 47 8e 16 be 77 66 87 bd
       -0.1290247 -0.18336846 -0.14702712 -0.066113405
000390 af 34 5f 3c d2 c3 bf bc 33 1c 3b bd a4 cf 9d bd
       0.013623401 -0.023408804 -0.04568119 -0.0770562
0003a0 ff de 52 3e 8c ef 0a bd bd 42 69 3e 89 ac 1b 3e
       0.20592879 -0.033919856 0.22779365 0.15202536
0003b0 7d c0 46 be e9 1b 8f bd 05 1a 87 3d c2 90 df 3c
       -0.19409366 -0.06987745 0.0659676 0.027290706
0003c0 a3 6f 90 3d be 8b 16 be 3e 8c 42 be 4d 10 e2 bd
       0.07052543 -0.14701745 -0.1899881 -0.110382654
0003d0 2d 02 cc 3d d0 4a 0c be 1b 96 4a 3d 7e f3 d5 3d
       0.099613525 -0.13700414 0.049459558 0.10446833
0003e0 c9 c1 51 be 63 0f 4e 3e db 80 bb 3d c8 05 f8 bc
       -0.2048408 0.20123057 0.091554366 -0.030276194
0003f0 33 f0 0d 3d 2d 6f 59 3d f6 9b a6 bd af a8 e0 bd
       0.0346529 0.05308454 -0.08135216 -0.10969674

GRU_a.bias_ih_l0 f4 [48]
000000 ae d9 be bd 56 10 76 3e c3 57 d3 3d 9f 0f df bc
       -0.09318863 0.24029669 0.103194736 -0.027229128
000010 22 9f 02 be 79 16 7e 3e 65 be 5b 3d 4e d8 52 3e
       -0.12756017 0.2481326 0.05364837 0.20590326
000020 3a ce 1e 3d 80 13 85 be 7f 20 80 3e 33 e0 f4 3c
       0.03877089 -0.2599144 0.25024793 0.029892063
000030 3e 3b b1 bd 2a 3a 3e 3e f8 47 27 3d 52 ac 72 be
       -0.08653878 0.18576875 0.04084012 -0.23698547
000040 66 a3 d5 bb 4c 38 cf 3c 7b 1f 79 bd d9 47 26 be
       -0.0065197228 0.0252954 -0.060821038 -0.16238345
000050 70 be 6e be f4 68 0e 3e 6e 76 35 bc b8 f5 94 be
       -0.23314834 0.13907224 -0.011075599 -0.2909372
000060 30 d3 45 3e 4d cd 51 be 29 75 4b 3e e3 22 85 bd
       0.19318843 -0.20488472 0.19868912 -0.06500795
000070 a7 98 b7 3a 85 89 90 bd f5 67 68 bc 79 8d 08 3e
       0.0014007286 -0.0705748 -0.014184942 0.13335218
000080 a1 85 40 3e 2b d4 bc bd e5 95 23 3e 42 1c 31 be
       0.18800975 -0.09220155 0.15975149 -0.17295936
000090 af 47 23 be d6 27 0d 3e 8c 94 29 3d 59 87 e4 3d
       -0.15945314 0.13784727 0.04140143 0.11158628
0000a0 0d fb a1 3d ec f7 92 3e 73 a4 ea 3d 01 4b 9f 3d
       0.07909212 0.28704774 0.114571474 0.07777978
0000b0 cf 93 3f be 98 51 1b be 3e 76 3c 3e 92 75 90 bd
       -0.18708728 -0.15167844 0.18404481 -0.07053675

GRU_a.bias_hh_l0 f4 [48]
000000 a9 2f b9 bd 59 e8 51 3d c3 03 6d 3c e5 fa 96 bd
       -0.090422936 0.051246975 0.014466229 -0.07372073
000010 87 5b 35 3e 6e 91 ee bc 34 a4 cd 3c 58 db 5a 3e
       0.17710696 -0.02912208 0.025102712 0.21372736
000020 85 bc 82 be ba ff 9a bc 2a ae 38 3e f3 9e 97 3d
       -0.25534454 -0.018920768 0.18035188 0.07403364
000030 36 41 99 bd 4a 9b 33 be c5 a1 6b 3e 07 2e a3 3d
       -0.07483141 -0.17539707 0.23010929 0.079677634
000040 a7 c8 16 be 21 7e 76 be 30 a7 6f be 78 0f 3d 3d
       -0.1472498 -0.24071552 -0.2340362 0.04615733
000050 49 91 fc 3c 8d 44 29 3b 8d 6e 3b bd 4c 7a 61 bd
       0.030830996 0.0025828213 -0.045759726 -0.055048272
000060 42 75 15 3e d4 18 53 3c b5 7e 93 3d 96 e4 0a 3e
       0.14595512 0.012884337 0.07201902 0.13563761
000070 57 c7 43 be c3 1a e0 3d 24 f8 52 bd 22 7e f6 bc
       -0.19119011 0.109426044 -0.051506177 -0.030089442
000080 ba 76 28 be dd 2f 71 be db ee 1d 3e 88 49 a8 3d
       -0.1645154 -0.23553415 0.15423147 0.0821715
000090 49 fa 1f be 24 a0 ba bc a9 a3 32 3e b6 bb 70 3e
       -0.1562282 -0.02278144 0.17445244 0.23509106
0000a0 d4 c6 95 3d 99 1f 18 3e 3d db 51 be 65 00 40 be
       0.07313314 0.14855804 -0.20493789 -0.1875015
0000b0 8a 94 70 be 25 60 46 be 49 80 33 bb e8 a5 34 3d
       -0.23494163 -0.19372614 -0.0027389696 0.044103533

linear_a.weight f4 [4, 16]
000000 c8 33 48 bd 16 83 54 be 67 f7 6c be f3 66 e2 3d
       -0.048877507 -0.2075313 -0.23141252 0.11054792
000010 c9 af 94 3e 74 ac 28 3e c0 c8 24 3e e4 0f 7f 3e
       0.29040363 0.16472036 0.16092205 0.24908406
000020 fa 18 65 be 2d fb 3d be 0b b9 f6 3d 84 af f6 3b
       -0.22372809 -0.18552847 0.12047013 0.0075282473
000030 fc 12 e7 3d e5 3b 29 be 66 db 68 3e 01 18 8f 3e
       0.11282918 -0.16526754 0.22739944 0.27948
000040 1a 55 45 ba d0 c6 4a 3d c3 42 11 3e d3 43 45 be
       -0.0007527635 0.04950601 0.14185624 -0.19264154
000050 c4 13 3a 3e 2c 07 3e be ee 72 03 bd 67 3c a0 be
       0.18171602 -0.18557423 -0.032092027 -0.31296083
000060 46 e0 c0 bc 8b 21 9b be 8d aa 52 be 76 12 6c be
       -0.023544442 -0.3029903 -0.20572872 -0.23053917
000070 28 c0 55 3e 26 ec 01 be 2b 96 cb bd 31 66 26 3e
       0.20874083 -0.1268774 -0.09940752 0.1624992
000080 d7 a7 4c bc d0 ad ff 3c 25 1c b2 3c bf b9 85 be
       -0.012491188 0.03121081 0.021741936 -0.26118276
000090 6d ba 0d be 90 69 55 3e a6 a5 db bd 09 05 40 bd
       -0.13840647 0.2084105 -0.10724954 -0.046879802
0000a0 6a 23 06 bd 15 00 76 be 54 1b 8e be d1 7a 6b be
       -0.032748617 -0.24023469 -0.27755225 -0.2299607
0000b0 dc 7d fa bd 72 0d 52 3c f7 a3 65 bd 17 85 27 bd
       -0.12231037 0.012820588 -0.056064572 -0.04089841
0000c0 b1 65 5f be 90 7b c7 3d 2e 8e 17 be 34 ff a3 3e
       -0.21816136 0.097403646 -0.14800331 0.32030642
0000d0 7f 8e 4b 3e 92 50 00 bd ab b0 ae 3d cd 8a a9 bd
       0.19878577 -0.031326838 0.085297905 -0.08278427
0000e0 63 58 30 be 8e 19 1c bc c0 21 20 be 7e 14 aa 3d
       -0.17221217 -0.009527577 -0.15637875 0.0830469
0000f0 94 35 f0 3d 45 36 40 bd 27 ec a5 3e d5 e4 b7 bc
       0.11728969 -0.046926755 0.32406732 -0.022447983

linear_a.bias f4 [4]
000000 f2 06 84 3e 1e 3a a0 3d fe 6c 30 be 76 b6 a3 3e
       0.2578655 0.07823585 -0.17229077 0.31975144

conv_v_0.weight f4 [16, 7, 3, 3]
000000 8d 95 ac 3d b2 84 b5 bd 7b bb 4c 3d 10 0b 00 3d
       0.08426962 -0.088632 0.049983483 0.03126055
000010 ae f9 ce bd 50 0c ed bd a4 19 89 3d 9a 64 ce 3c
       -0.10106216 -0.11574614 0.06694344 0.025194455
000020 4a f4 9c bd 71 08 02 3d be 76 19 3d 2e b8 a8 3d
       -0.07663782 0.03174633 0.037466757 0.082382545
000030 d2 89 c5 3d 2a 51 ba 3d c9 95 d7 3d 38 ee d5 3d
       0.09645428 0.09097512 0.10526616 0.10445827
000040 ba 76 44 bd bc f8 ae 3d ae 05 5d 3d e8 df 15 bc
       -0.04796479 0.08543536 0.053960495 -0.009147622
000050 16 82 db 3d 3d c1 11 3e e8 01 65 3d 80 46 0a 3e
       0.10718171 0.14233871 0.05591002 0.13503456
000060 61 dc 9c 3d bc 47 83 bc db 82 1a 3e 12 95 c6 bd
       0.076592214 -0.016025417 0.1508898 -0.09696402
000070 5f 32 96 bc 87 69 f1 bb a5 a4 79 3c 38 83 b5 bc
       -0.018334566 -0.007367316 0.015237008 -0.022157297
000080 cc 91 25 bc 87 86 6d 3d f5 8d d0 bd 4b 75 24 bc
       -0.010105561 0.057989623 -0.10183326 -0.01003773
000090 1c 7b 97 bd 81 0c 92 3d b9 7b a4 bd 5b 45 63 bd
       -0.07396528 0.07131291 -0.08031411 -0.055486064
0000a0 ad 2b b0 3c 23 3d 9e 3c 59 03 33 bd 05 09 1f bd
       0.021505201 0.019316262 -0.043704364 -0.03882696
0000b0 a6 56 ce 3d 1d 42 ce 3d 25 d7 aa bd cf a3 23 bd
       0.10075121 0.10071204 -0.08341817 -0.039951142
0000c0 ce 94 eb 3c f4 83 69 3d 15 ec dd 3d ec fe 89 bd
       0.028757479 0.057010606 0.10836045 -0.067380756
0000d0 f0 d1 c0 3d b7 d6 84 3d 3e f8 ed bd d7 11 6e bd
       0.094150424 0.06486266 -0.11619614 -0.058122482
0000e0 e1 23 e1 3c d2 3f 92 3d 5d 34 cb 3c 93 3d eb bd
       0.027482929 0.07141079 0.024805242 -0.11486354
0000f0 d3 02 79 bd ab df b9 3a 83 fd 31 bd 19 28 83 3d
       -0.06079371 0.0014181038 -0.04345466 0.064041324
000100 44 0e 8f 3d 4e 1a a3 3d 25 fe 5a 3d a8 e5 94 3d
       0.06985143 0.079640016 0.053465027 0.07270366
000110 d6 73 95 3d c9 34 6d 3d 94 17 78 3d f8 cb 86 3d
       0.072974846 0.057911668 0.06056936 0.06581873
000120 34 55 ea bd f5 95 00 be 4c dc 15 3c 3d 16 2b be
       -0.114420325 -0.12557204 0.009146761 -0.16707702
000130 ff d4 fe bd ce 9d f3 bd 62 25 18 be f5 3e 26 be
       -0.124429695 -0.11895333 -0.1485801 -0.16234954
000140 68 5d a8 bd 24 96 62 bd d9 dd 93 bb 93 7a dc 3b
       -0.08220941 -0.055318967 -0.0045125303 0.006728479
000150 cf 21 83 bd 6c fc b6 bb ac 12 84 bb c5 bf ab bd
       -0.06402933 -0.0055842903 -0.004030546 -0.083861865
000160 48 0f a6 bd 02 58 92 bd c0 0e 78 bd 29 78 06 be
       -0.081083834 -0.071456924 -0.06056094 -0.13131775
000170 2f a5 37 3e f5 d9 0b 3e b4 ab e3 bd 16 b9 0e 3e
       0.17934106 0.13657363 -0.11116734 0.13937792
000180 a1 37 93 3d 16 89 91 3d 05 10 88 3d 0e 03 96 bc
       0.07188345 0.07106225 0.066436805 -0.018312003
000190 70 15 5d bd 58 44 8c bd 7a bd e7 3d 78 17 76 bd
       -0.053975523 -0.06848973 0.11315437 -0.060080975
0001a0 97 f3 0c 3e 93 33 21 3d ae 6c a6 3d 3c d7 9f 3d
       0.13764797 0.039355826 0.08126198 0.078047246
0001b0 16 5b 92 bd 60 59 cd 3d 63 eb bf 3c f0 9b fb 3c
       -0.071462795 0.100268126 0.02342767 0.030714005
0001c0 10 25 92 3d b9 06 5d 3b 5e bc 65 bd 11 93 bf ba
       0.07135975 0.003372593 -0.056087844 -0.0014615973
0001d0 3c dc c0 3d 16 6f 2b bd ad db d4 bd 89 af ce bd
       0.094170064 -0.041853987 -0.10393462 -0.100920744
0001e0 d6 56 ce bd 93 ab 84 3b 45 5a 18 be 57 51 26 be
       -0.100751564 0.0040487736 -0.14878185 -0.16241966
0001f0 f2 a6 88 3d 97 6d 87 3d bf 36 29 bc c7 12 c1 3d
       0.06672467 0.066126995 -0.010327994 0.094274096
000200 c3 51 64 bd 6d cc 95 bb 57 09 a0 bc 7b 35 b9 bc
       -0.055742037 -0.0045714886 -0.019535704 -0.02260851
000210 8d 56 8f bc bd dc ec 3c da be a1 bc e9 b5 88 bd
       -0.017497325 0.02891385 -0.019744325 -0.066753216
000220 bf 87 e8 bb ba 18 a7 bc da a9 02 be 51 cb 6a 3d
       -0.0070962603 -0.020397533 -0.12760106 0.057322804
000230 ee c2 84 bd 20 1a 92 bc 3c 8f c7 3d 05 91 ab bb
       -0.064824924 -0.017834723 0.09744117 -0.0052357935
000240 b0 ca 10 3e b5 eb da 3d 42 e8 02 3e b0 0b 1c 3e
       0.14139819 0.10689489 0.12783912 0.15238833
000250 46 bf d3 3d 03 b8 2a 3e 04 14 92 bc 0e 6e 65 3c
       0.10339217 0.16671757 -0.01783181 0.01400329
000260 5b 0e 0b bc d0 e6 84 bd 5d 1b e8 3b 21 cd df 3d
       -0.008487309 -0.064893365 0.00708334 0.10927797
000270 57 4c 7f bd e1 63 8e bd 80 de 05 bd 0e 50 35 be
       -0.062328663 -0.06952644 -0.032682896 -0.1770632
000280 26 e9 8a 3c 0e 7f 33 3d 83 98 b4 3d b0 6d 99 3d
       0.016956877 0.04382234 0.08818152 0.07491624
000290 73 94 33 bd f2 42 f0 bc 7f eb f7 bd 74 cf 7c 3d
       -0.043842744 -0.029328797 -0.12105464 0.06172128
0002a0 e5 dd e5 bd 84 a2 cf bd e1 1d d0 bd 9c b0 99 bd
       -0.11223964 -0.10138419 -0.10161949 -0.07504389
0002b0 71 98 bb 3c a5 31 e3 bd a0 11 0b 3d 4a 67 be bd
       0.022899838 -0.11093453 0.033952355 -0.092970446
0002c0 35 3b e9 3d f6 af 7f bd 2c 85 14 bd 17 59 cc bd
       0.11388246 -0.06242367 -0.036259815 -0.0997793
0002d0 d1 79 6b 3d fe e5 69 3d 94 48 51 3d b9 ff 97 3c
       0.05748922 0.057104103 0.051094607 0.018554555
0002e0 51 73 03 bc d7 5e 6a bd 8c 37 11 be 51 ff 14 be
       -0.008023099 -0.057219353 -0.14181346 -0.1455052
0002f0 a5 03 9a bc 5b 6d 73 3d 79 98 58 3b 5f 61 da 3d
       -0.018800566 0.05943046 0.0033049865 0.10663103
000300 e0 1b ed 3c c2 9a f8 3d bf 55 c9 3c b4 b6 74 3d
       0.028943956 0.12138893 0.02457702 0.05974455
000310 d2 aa c4 3c 69 5b 0f 3d f4 aa b4 bc 98 67 c6 bc
       0.024007235 0.034999285 -0.022054173 -0.02421932
000320 e3 6e db bc 04 a9 d2 3d 0f 9d 8e 3d 81 9c 31 bd
       -0.026786273 0.102861434 0.0696355 -0.043362144
000330 96 4e de 3d 21 31 49 3d 21 87 2c 3d 55 6a 6f 3c
       0.10854833 0.04911912 0.042121056 0.014612754
000340 4a 0e 0b be 85 ec 72 bd ae 1e f7 bd 8a ef fe bc
       -0.1357967 -0.059307594 -0.120663986 -0.03112008
000350 90 da 0c be 24 5d 1a ba 4a 5e 17 bc 47 47 b5 3c
       -0.1375525 -0.0005888513 -0.009238789 0.022128714
000360 6c 5d 42 3e fa 6a 21 3d 08 81 32 3c 23 1a e7 3d
       0.1898095 0.03940866 0.010895021 0.11284282
000370 5b ea f2 bd 4f 5c 16 3e a6 8b 40 3e 9f d0 2d 3e
       -0.11861106 0.1468365 0.18803272 0.16974114
000380 3b 08 3c 3c a5 87 27 3e e5 c8 22 3e 6a 33 62 bd
       0.011476572 0.16360338 0.15896948 -0.055224814
000390 5e 3d c3 3c 7b 0c db 3d 51 87 42 bd 72 fc 0e bc
       0.023832973 0.1069574 -0.04749233 -0.00872718
0003a0 88 ac 15 3e 99 e7 e1 3d 48 79 a4 b9 d8 13 27 be
       0.14616597 0.11030502 -0.0003137088 -0.16316164
0003b0 fd 0f 03 3d 1d 83 d4 bd a8 37 22 be e7 ff a5 bd
       0.03199767 -0.103765704 -0.15841544 -0.0810545
0003c0 7c 34 45 bd 11 0d 35 be 4b 5f 25 be c6 bb 6e bd
       -0.048145756 -0.17680766 -0.16149633 -0.058284543
0003d0 dc d4 9c bc df fb f0 bd cb 66 ea 3d 2f 71 19 bd
       -0.019144468 -0.117667906 0.114453875 -0.037461456
0003e0 f0 f7 8b bd 35 fc de bd 4f ca a1 bd f4 74 fa bc
       -0.068344 -0.108879484 -0.078999154 -0.030573346
0003f0 e6 df 25 3d 69 d8 d5 3c dc ee e0 3c 1d 9c a5 3d
       0.04049673 0.026104169 0.027457647 0.08086417

conv_v_0.bias f4 [16]
000000 10 85 2a 3d 17 66 93 bd 91 5d f8 3d 78 a7 15 3c
       0.041630805 -0.071972065 0.121272214 0.009134166
000010 5c dd b5 bc 28 96 c5 3d 02 b5 8a bb a0 75 8d bd
       -0.022200279 0.09647781 -0.0042330036 -0.06907201
000020 74 99 83 bd 32 ce ee bd 8b 03 33 3d 9f 8e 79 3c
       -0.06425753 -0.116604224 0.04370455 0.015231757
000030 fa 6b bc bd 63 b0 0d 3c 53 28 a3 bd 70 62 c1 bc
       -0.092002824 0.008648011 -0.079666756 -0.023606509
