league/checkpoints/mfos_seeds/new_self_7x7_64/450_1.pth (torch, 669646 bytes, 105 tensors)

conv_a_0.weight f4 [16, 7, 3, 3]
000000 00 19 35 be 78 9e e6 3d f9 cc 98 bc 57 f6 d6 3d
       -0.17685318 0.11260694 -0.018652426 0.10496204
000010 c6 44 f2 3d 30 46 71 bd b7 ec ea 3d 8c 77 10 be
       0.11829524 -0.058904827 0.11470931 -0.14108104
000020 cf a7 13 3e a2 34 be 3d f8 5b 14 3e 5e d3 e5 bd
       0.14419483 0.09287383 0.14488208 -0.11221956
000030 e7 ff 68 be 31 97 3b 3c 2f 04 0f bd ab 3e b7 bd
       -0.22753869 0.011449621 -0.0349161 -0.089475
000040 ee 80 00 3e 14 75 7d bb 18 32 41 be 59 0c 19 3e
       0.12549183 -0.003867452 -0.18866765 0.14946117
000050 70 66 1e 3e 3b 6b 1c be 10 42 2a 3d d2 de 99 3d
       0.15468764 -0.1527528 0.04156691 0.07513203
000060 ea ce 5e 3d 25 2a 2f bc 23 1a c9 bd 46 52 1e 3e
       0.054396547 -0.0106912 -0.09819438 0.15461072
000070 32 cc 1a 3e 8e 8f 03 be 95 a3 2f 3e 9c 91 fe 3c
       0.15116957 -0.1284773 0.17152245 0.031075291
000080 5c 62 05 be 05 14 8d 3d c4 f8 7d 3c a5 ec 21 3e
       -0.13025802 0.06888584 0.015501205 0.15812929
000090 c3 86 2d 3e 72 bc 4a 3c 7f 69 f9 3c 85 88 d6 3d
       0.16945939 0.01237403 0.030445812 0.10475258
0000a0 12 c7 8d 3d 5f eb 58 bd 90 a2 47 3e ea f9 61 bd
       0.06922735 -0.052958842 0.19495606 -0.055169977
0000b0 40 5c 2e bd 55 bc 3f be 16 8f 00 be 68 10 7c bd
       -0.042568445 -0.18724187 -0.12554583 -0.061539084
0000c0 9a a9 55 be a2 4a b2 bd a8 53 3a be df 53 de b9
       -0.20865479 -0.08705641 -0.18195975 -0.00042405628
0000d0 3f 62 0b bd ca e5 ae bd 04 50 9f 3d b5 92 47 3e
       -0.03402924 -0.085399225 0.07778934 0.19489558
0000e0 23 92 f0 3d 3a 16 7b 3d 6a 81 c2 bb 22 f9 8b 3d
       0.11746623 0.061300494 -0.0059358375 0.06834628
0000f0 d1 5d 1d 3e 92 32 9e bc 52 6b 1e 3e 14 64 32 be
       0.1536782 -0.019311223 0.15470627 -0.1742099
000100 0a a3 a2 bd a3 02 12 bd 11 81 8e bd 5b c5 11 bd
       -0.079412535 -0.035647046 -0.06958211 -0.035588603
000110 ad ab 39 bd 0e 41 11 3e 40 79 7e 3d 59 c4 9c 3d
       -0.04532974 0.14184973 0.06212735 0.07654638
000120 20 ad 24 3e 13 cb 06 3e 82 8d e6 3d b9 c2 69 3d
       0.16081667 0.13163404 0.11257459 0.057070468
000130 fc bd 56 be d7 7e 82 3d 9d 57 ef bd 8f aa 9d bd
       -0.20970911 0.06371849 -0.11686633 -0.07698547
000140 52 07 70 bd f2 c6 1f 3d 3c bb f5 3d 36 77 29 3e
       -0.05860073 0.03900809 0.11998603 0.16549382
000150 00 e1 a6 bd e8 92 9d 3c 54 d6 e0 3c b7 14 05 be
       -0.08148384 0.01923509 0.02744595 -0.12996183
000160 5e 76 c5 bd 57 13 f5 bd c1 f6 d6 bd 73 dd e6 3b
       -0.096417174 -0.119665794 -0.10496283 0.007045442
000170 01 da b3 3c 8a 8c 2e bd 63 f9 00 bc 6a 11 3d 3c
       0.021954538 -0.042614497 -0.007871958 0.011539796
000180 da ba 03 3e 09 5b c7 3d 33 65 ba 3d 2e e3 3f bd
       0.12864247 0.097341605 0.091013335 -0.046847515
000190 6d 05 0f be a0 48 f7 bd cd d8 a1 bd 39 22 9f bc
       -0.13966914 -0.12074399 -0.079026796 -0.019425498
0001a0 6a 83 e0 bc 0d b2 18 3d 28 d5 df bc 10 10 12 bd
       -0.027406413 0.037279177 -0.02732332 -0.03565985
0001b0 91 fb b3 bd 09 e2 1b bd 52 0c 8c 3d d0 34 e6 bd
       -0.08788217 -0.03805736 0.068382874 -0.11240542
0001c0 b9 e1 cc bc af fb 95 3d 3c da 0a bc bb be ee bc
       -0.025009977 0.073233955 -0.008474883 -0.029143682
0001d0 f7 9c 8f bd b8 e8 54 3d be 7d 67 3d c1 bc b0 3d
       -0.070123605 0.05197975 0.0565164 0.08629752
0001e0 46 76 05 3e 14 a8 44 bd 7f 5f af 3d 0d 9b 8c 3d
       0.13033399 -0.048011854 0.08563136 0.06865511
0001f0 91 13 5e bd e2 a7 2e bd 40 92 8f bd 55 d8 cd bd
       -0.05421788 -0.042640574 -0.07010317 -0.10051028
000200 a5 59 3e bd 85 f5 a2 3b 95 0b fe bd c3 3e 09 3c
       -0.04647221 0.004973116 -0.12404553 0.00837678
000210 76 0d 31 3d 79 5b aa 3d fc a0 51 bd 2e 92 84 3d
       0.043225728 0.08318228 -0.051178917 0.06473194
000220 96 6f b7 3d 00 27 55 3d 72 5d 0c be 09 82 80 3d
       0.0895683 0.052039146 -0.13707522 0.06274802
000230 f4 f6 e9 ba 57 e9 29 be 13 55 ce 3d 48 43 92 bc
       -0.0017850087 -0.16592918 0.1007482 -0.017854348
000240 41 fe a3 3d 5e 1d 96 3d 2a ca 94 3d ba 96 5b 3d
       0.080074795 0.0732982 0.07265122 0.05361054
000250 74 5f 2b 3e 48 e3 01 3e 38 76 46 bc f5 dd e0 bd
       0.16735631 0.12684357 -0.0121131465 -0.10979835
000260 cb 87 2a 3d a0 b4 7a 3c 7b 54 d2 3d e0 dd a2 3d
       0.04163341 0.015301853 0.102700196 0.079524755
000270 c0 83 c7 bd 25 b6 84 be 0d 78 80 3d 9c eb dd 3d
       -0.09741926 -0.25920215 0.06272898 0.108359545
000280 63 dd 6b 3d b1 d3 03 3d 30 be e8 3c 88 54 15 be
       0.057584178 0.032184307 0.028411001 -0.14583027
000290 68 9d 3b 3b 36 d8 08 bc 4b 09 a9 bc 1a c8 2e be
       0.0028627757 -0.00835233 -0.020634314 -0.1706852
0002a0 c2 55 33 be 0c 5f 31 be 45 a0 12 be 12 c8 81 3d
       -0.17513183 -0.17321414 -0.1431895 0.063369885
0002b0 4e 65 e0 bc c4 fc ee 3d 6d 66 f9 bb 3f 0c 00 3d
       -0.027392056 0.11669305 -0.007611087 0.03126168
0002c0 e9 82 5d 3c 6c 60 f7 3d 82 2b ae bc c5 5c 5c 3d
       0.013519981 0.12078938 -0.02126098 0.05379941
0002d0 b5 00 85 bd c8 fd aa 3c b2 f3 0b 3d 3f c3 a7 3d
       -0.064942755 0.020872965 0.034167953 0.08191537
0002e0 10 11 96 bc f4 60 e8 bd 76 37 5d 3d 80 78 cc bd
       -0.018318683 -0.11346617 0.05400797 -0.09983921
0002f0 81 b1 09 be f9 e3 f9 bd 06 8f 16 3e d0 b9 df 3d
       -0.13446619 -0.122016855 0.14702997 0.10924113
000300 c1 24 0b 3e b8 25 1c be 18 5f 17 be 72 5e c8 bd
       0.13588239 -0.15248764 -0.14782369 -0.09783639
000310 b4 58 d6 bd 69 45 07 bd fa f3 a1 bb ef 51 38 bd
       -0.104661375 -0.03302518 -0.0049424144 -0.045000013
000320 ec 6e eb bd 3c 9d 9c 3d 39 87 0c be 52 f5 c9 3d
       -0.11495766 0.076471776 -0.13723458 0.09861244
000330 93 44 f2 3d 8c 4d e2 bd 8b e0 ba bd 21 e2 04 be
       0.11829486 -0.11049947 -0.091248594 -0.12976886
000340 80 16 48 bd d2 5e 0a 3e f7 c7 d4 bd f9 32 64 bc
       -0.048849583 0.13512734 -0.10389703 -0.013928168
000350 ed 14 04 3e c0 24 c0 3c dd de 67 3d ea b7 2b 3c
       0.12898608 0.023455024 0.056609023 0.01048086
000360 10 81 1e be b0 17 55 3e f1 38 77 be e8 47 4c bd
       -0.15478921 0.20809817 -0.24142815 -0.049873263
000370 95 e4 1c 3e 27 20 21 3e 59 eb 43 3e 56 96 8e 3d
       0.15321572 0.15734921 0.19132747 0.06962268
000380 6f a4 e3 3d 2b a2 f1 3d c6 4e 04 3e 2e 0d 6b bc
       0.111153476 0.11798509 0.12920675 -0.014346404
000390 70 34 5b 3d a4 8c 7b 3d 73 bf 2a 3e 6c 3f 26 3c
       0.053516805 0.061413422 0.16674595 0.010146957
0003a0 0a 8d 39 3d 4e a5 86 bc d5 10 92 bd 17 26 a8 bd
       0.04530052 -0.016436245 -0.07132117 -0.0821039
0003b0 08 a3 39 be 5a 03 52 be 8f 98 f9 bd 57 b1 5f bc
       -0.18128598 -0.20509091 -0.12187301 -0.013653121
0003c0 81 f2 62 bc ae d9 cd bd c3 d8 22 be 7c 2f 74 3c
       -0.013851763 -0.10051285 -0.15903 0.014903899
0003d0 dc 91 0f 3e 2d 8f 11 bd 70 71 22 3e 56 ed 60 3d
       0.14020485 -0.035536934 0.15863585 0.05491384
0003e0 eb 8d e6 3d b9 e2 d5 3d 06 d8 e1 3c d8 3b 24 3e
       0.112575375 0.104436345 0.027568828 0.16038454
0003f0 a6 1e 2f 3e 85 cf 70 bd 83 22 65 bd aa 3e 50 be
       0.17101535 -0.058791656 -0.055941116 -0.20336404

conv_a_0.bias f4 [16]
000000 48 0f 10 3d d2 fc a1 3d d7 1e d4 3d 8e a0 bf ba
       0.035170823 0.0790955 0.10357445 -0.0014619993
000010 27 9b 4c bd fc 92 c4 bd 1a 8f 82 bc e9 5a 48 bc
       -0.049952652 -0.095983475 -0.015937377 -0.012228706
000020 51 b8 ec 3d 8c 9b d3 3d 39 11 2e bd dc 4d 66 bc
       0.11558593 0.103324026 -0.042496894 -0.014056649
000030 a7 e8 75 bd b5 be d7 3d c2 cf 8b bb ce f9 6c bd
       -0.060036328 0.10534421 -0.00426671 -0.05785542

conv_a_1.weight f4 [16, 16, 3, 3]
000000 e3 6b 33 bc 7e 6f ed 3d a4 99 78 bc ae a6 b5 bc
       -0.010951015 0.11593531 -0.0151733495 -0.022174206
000010 af 7e d3 3d ed 3f b2 3d eb cd 5e bc 37 3c d8 bc
       0.10326897 0.08703599 -0.013598899 -0.0263959
000020 89 5c c0 3d 6f 89 aa 3d 22 8e e7 3d db ba 01 3d
       0.0939265 0.08326995 0.113064066 0.03167234
000030 56 60 c9 3d f4 15 14 ba 7a 70 cf 3c f8 d6 e7 3c
       0.09832828 -0.0005649023 0.025322188 0.028300747
000040 cc 03 04 3d 66 53 b1 bc 77 4b 55 3d 36 97 8e 3c
       0.032230183 -0.021646213 0.052073922 0.017406087
000050 76 fa 15 3e 98 c5 85 3c 4c e2 11 3e de f0 8a 3d
       0.14646325 0.016329572 0.14246482 0.06784223
000060 ce ea f9 3d 4d 11 14 3e 4c 5d 87 3d e5 5c b2 3d
       0.122029886 0.14459725 0.06609592 0.087091245
000070 e3 98 a3 bc c7 1d bc 3d 13 18 a8 3d fe 2b e3 3c
       -0.019970363 0.09185367 0.08207717 0.027730938
000080 de 08 7c 3d 1b 4f 8b 3d c1 4b c4 3d 8d 55 d6 bc
       0.061531894 0.068021975 0.095847614 -0.02616384
000090 19 e8 04 bd dd f6 7f bc 96 63 e5 3d fb ed 89 3d
       -0.032447908 -0.015622822 0.11200635 0.06734844
0000a0 49 34 60 3d bd 82 a3 3d bc 65 3a ba 06 a5 f8 3c
       0.054737363 0.07983921 -0.00071104965 0.030352127
0000b0 97 1c b8 3c 5b 8e 2a 3d 59 32 09 3e 82 0e 36 3e
       0.02247457 0.041639667 0.13398112 0.17778972
0000c0 ec 4b 15 3e 3f 06 be 3d f2 e8 83 3d 95 95 a1 3d
       0.14579743 0.09278535 0.06440915 0.07889859
0000d0 c2 4f 40 3e 06 03 a2 3d 75 bb 2d 3e 1c f6 dd 3d
       0.18780425 0.07910733 0.1696604 0.10837957
0000e0 56 06 c6 3d d0 77 20 3e f5 2b 1c 3e b9 75 49 3e
       0.09669177 0.15670705 0.15251143 0.19673814
0000f0 a8 3d 1e 3e a3 c2 80 3d fa b5 f2 3d 40 5f 39 3e
       0.15453207 0.06287124 0.118511155 0.18102741
000100 13 ed f6 3d 77 73 aa 3d 99 8c e8 3d 23 11 be 3d
       0.12056937 0.083228044 0.11354942 0.09280612
000110 ed b8 44 3e c3 9a 3d 3e 07 39 af 3d fd 40 16 3e
       0.19211169 0.18516068 0.08555799 0.14673229
000120 8e c6 95 3d fd 92 97 3d 25 39 6c 3d c6 4b fa 3d
       0.07313262 0.07401083 0.057671685 0.12221484
000130 92 be e5 3b 99 a3 47 3d f7 60 de 3b c8 f7 c3 3d
       0.007011243 0.048740003 0.0067864615 0.09568745
000140 07 1d 3d 3d fa b3 8b 3d ce 92 c9 3d 5b 18 ce 3d
       0.04617026 0.06821437 0.09842454 0.10063239
000150 75 6c 22 bd 35 ca 12 3d 15 d3 1e bd c7 cd fb 3d
       -0.039654214 0.03583737 -0.038775522 0.12295108
000160 90 49 b6 bc 79 5a 6f 3d de 9a a0 3d da 73 c9 bc
       -0.022251874 0.05843589 0.078420386 -0.024591375
000170 2d 32 db bd f9 67 52 bc f6 cb ce 3b b7 8d 02 bd
       -0.1070293 -0.012842172 0.006310935 -0.03187343
000180 f4 67 b6 bd ed 7f dd bd d2 6b a8 ba 2d 47 33 3e
       -0.08906546 -0.108154155 -0.0012849516 0.1750762
000190 77 62 1d 3e 65 60 fa 3c 7d 8c f0 3d 4f a2 17 3e
       0.15369593 0.030563543 0.11745546 0.1480801
0001a0 4f ef 14 3e bc b7 33 3e ca 07 6e 3d 8b 9e fa 3c
       0.14544414 0.17550558 0.058112897 0.030593177
0001b0 29 14 43 3e 29 1e 3a 3e 3b 7c fa 3d ff b2 29 3e
       0.19050659 0.18175568 0.12230726 0.16572188
0001c0 89 f6 74 3d 53 97 45 3e c8 90 ed 3d 28 06 ae 3d
       0.059805427 0.19296007 0.115998805 0.08497268
0001d0 94 b7 26 3d 9c fa 85 3d 9c 03 1e 3d 10 79 39 3d
       0.040702417 0.065419406 0.03857766 0.04528147
0001e0 42 d2 5a 3d 29 74 a0 3d c8 10 6e 3d 0f 02 00 3e
       0.053423174 0.07834656 0.058121473 0.12500785
0001f0 db 76 f2 3d f9 1d d3 3c 7c e5 b0 3d d6 32 f4 3d
       0.11839076 0.025771128 0.08637521 0.11923759
000200 af 28 05 3e 0b e1 04 3e e4 10 1c 3c 99 ec d4 3c
       0.13003801 0.12976472 0.009525511 0.025991725
000210 23 08 ca 3d ad d1 ce 3d e3 83 84 3d d6 17 5b 3e
       0.09864833 0.10098586 0.06470468 0.21395811
000220 86 14 bf 3d 0b c8 78 3d e5 a4 7f 3d 47 1a bc 3d
       0.093300864 0.06073765 0.062413115 0.091846995
000230 21 79 1b 3e ef cb 55 3e b6 95 07 3e c9 ca ea 3d
       0.15182926 0.20878576 0.13240704 0.114644594
000240 e0 f6 e9 3d 15 8b 03 3d bd 19 d1 3d 9b 1d a3 bc
       0.11424041 0.03211506 0.10209987 -0.019911578
000250 f6 bd 0a 3e 8f 56 9b 3d fc 06 19 3e 63 25 75 3d
       0.13549027 0.07584869 0.1494407 0.059850108
000260 99 0f a5 3d 27 0e d6 3b b6 1c d7 bc f5 a1 1e bd
       0.08059616 0.006532449 -0.026258808 -0.038728673
000270 2c ab b4 3d f4 c4 54 3d 8a 77 c3 3d 98 fb 3a bc
       0.08821711 0.05194564 0.09544285 -0.011412524
000280 62 05 fa 3d 68 76 02 3e ff 55 df 3c 1e 0e d8 3d
       0.12208058 0.12740481 0.027262686 0.10549568
000290 11 64 0c bd f7 44 8a 3c 51 dc c9 bc c5 5f 69 3d
       -0.03427512 0.016878588 -0.024641188 0.0569761
0002a0 4b 97 12 bd 4a 9d 62 3d ca db 0e bd fe 1c b8 3d
       -0.035788815 0.055325784 -0.034877576 0.08989905
0002b0 31 ec 24 3d b2 c8 14 3e 34 74 39 3e c9 32 57 3d
       0.040264312 0.14529684 0.18110734 0.052538667
0002c0 0d 0f 01 3d 83 02 36 3e c5 18 af 3d b2 34 ac 3d
       0.031508494 0.17774396 0.08549646 0.08408488
0002d0 15 5b 2d 3e 37 21 1b 3e ee c4 fc 3d 54 7c f1 3d
       0.16929276 0.15149389 0.12342249 0.11791292
0002e0 88 ea 9f 3c ad 84 93 3d a8 ad 1d 3d 7f f6 6a 3d
       0.019521013 0.0720304 0.03849569 0.057363983
0002f0 ec 72 11 3e d5 16 e6 bd 6c 0f 82 bd ce a6 c7 bd
       0.14203995 -0.112348236 -0.06350598 -0.09748612
000300 95 ef 9f bc 6f ae 86 bd 05 fa cd bd 6b 9f ac bd
       -0.019523421 -0.06576239 -0.10057453 -0.08428844
000310 02 fb 2a be 2c 90 3a bb 38 5c 69 bd e4 87 90 bd
       -0.16697314 -0.002846728 -0.056972712 -0.07057169
000320 56 be 3c 3b 28 54 0f be 4c 56 82 bd 02 dc 87 3c
       0.0028799972 -0.13996947 -0.06364116 0.0165844
000330 75 37 ab bc 3d 55 b4 bd 6e e4 40 bd 2b 0e 93 bd
       -0.020900467 -0.088053204 -0.047092848 -0.07180437
000340 72 25 a0 bd 5d 78 10 3d 0f 60 31 bd 0c fd de 3a
       -0.07819642 0.035271037 -0.0433045 0.001701267
000350 6b 88 f3 bc 6f 7e d5 bc 2b fc 57 bd e6 5d c1 bc
       -0.029728135 -0.026061265 -0.05273072 -0.023604345
000360 36 73 ef 3c 67 ba b1 3d 70 be fd 3d 67 3c 57 3b
       0.029229742 0.086781316 0.12389839 0.00328424
000370 14 86 9b 3d 99 91 89 3d 06 3f 7d bc 3e 55 d1 bc
       0.07593933 0.06717224 -0.0154569205 -0.025553342
000380 0d c0 8d 3d ae 9b 1f bd 81 f5 dc 3d b3 72 15 3b
       0.069213964 -0.038966827 0.10789014 0.0022803962
000390 9b e7 63 ba c5 b0 fe 3d ae bc 60 3b bf e3 c9 3d
       -0.00086938747 0.1243606 0.003429215 0.09857892
0003a0 cb 6d a3 3d 51 e6 b4 bc af 45 67 3e f3 f4 31 3e
       0.07979926 -0.02208248 0.22585176 0.17378597
0003b0 85 b7 61 3e ba 85 e3 3d 2a 49 f9 3d 79 1a 61 3e
       0.22042663 0.11109491 0.12172158 0.21982755
0003c0 a0 de 37 3e 19 76 e3 3d d1 8c 24 3e 8b c4 78 3c
       0.17956018 0.1110651 0.16069342 0.015183578
0003d0 dd 83 c6 3c ab b9 a2 bd e2 de 99 bd 43 d2 60 bd
       0.0242328 -0.079455696 -0.07513215 -0.05488802
0003e0 dd 5d 9c bd 94 9b 3e bd ab fe 5a bd 39 89 e0 3c
       -0.076350905 -0.04653509 -0.053465527 0.027409183
0003f0 56 3a db bd 8a fc 30 be e9 57 2a be 1c 3f 25 be
       -0.10704486 -0.17283836 -0.16635098 -0.16137356

conv_a_1.bias f4 [16]
000000 e4 f4 be bc 92 f4 91 bc 40 ac 9d 3d 84 34 57 bc
       -0.023310132 -0.017816816 0.0769887 -0.013135079
000010 e4 7c 96 bb a1 17 be 3c b0 67 df 3d 81 7f df 3d
       -0.004592525 0.023204627 0.10908449 0.10912991
000020 f2 00 98 3c c4 2a a1 3d c0 21 d0 3d 9a 6c c8 3d
       0.018555138 0.07869485 0.10162687 0.09786339
000030 4c b6 15 bb a4 43 5d bd be 27 c3 3d 60 d5 96 3d
       -0.0022844253 -0.054019585 0.095290646 0.07364917

linear_a_0.weight f4 [16, 784]
000000 c8 d3 b2 bd 24 04 32 bd ce 21 97 bd f7 e5 81 3b
       -0.087318 -0.04346098 -0.073794946 0.0039641815
000010 44 8c 1a 3d c9 6f 49 3c e3 49 81 bd 52 df 89 bd
       0.037731424 0.012294718 -0.06312921 -0.06732048
000020 4a ff 11 bd 05 3c f0 bc 0c c8 19 3d f9 9b 93 3c
       -0.035643853 -0.029325495 0.037544295 0.01801871
000030 a9 ab 6b 3c 60 f1 80 bc d0 11 fe 3b 0d 65 3b 3c
       0.014384189 -0.015740097 0.0077535883 0.011437667
000040 3f 0d 17 3b 63 76 5d bb 0b b8 30 b9 1e 92 e2 3c
       0.0023048667 -0.0033792488 -0.0001685323 0.027657565
000050 2d 28 c3 bc c5 c6 3e 3c c2 02 09 3d 79 41 0f 3c
       -0.023822868 0.01164407 0.033449896 0.008743637
000060 00 47 76 3d 93 a9 e5 3a da ef 1e 3d b3 52 16 3b
       0.060126305 0.001752185 0.03880296 0.0022937476
000070 66 37 63 3d f0 cb 1a 3c e2 18 31 3d 57 1e 23 bb
       0.055472754 0.009448037 0.04323662 -0.002488991
000080 51 22 4f 3d c4 8c 5e 3d 90 5c 52 3d 79 ab b8 bc
       0.050569836 0.054333463 0.051357806 -0.022542702
000090 4e ff d2 bc 40 d3 4d 3c 31 6f 28 3d c9 55 f5 3b
       -0.025756504 0.012562573 0.041121665 0.007487033
0000a0 8a e8 c2 3c f3 ad 02 3d b0 ce 49 bd f0 85 5b bd
       0.023792524 0.031904172 -0.04926938 -0.05359453
0000b0 d8 83 6b bd 07 e4 11 bd 60 9c 8d bc fb 25 f9 bc
       -0.057498783 -0.035617854 -0.01728648 -0.030413618
0000c0 c4 65 0c bb f2 f1 f7 3b 09 8a 0f bc ec 6a ad 3b
       -0.0021422962 0.007566684 -0.0087609375 0.005292287
0000d0 8d cf 09 bd b8 b6 b1 bd df 11 95 bd eb 05 8c bc
       -0.0336452 -0.08677429 -0.07278799 -0.017092666
0000e0 e9 94 c3 bc 55 92 9c 3b 13 71 d1 bc d3 ca c9 3c
       -0.023874717 0.0047781863 -0.025566613 0.024632847
0000f0 c0 e7 3b bc 09 a0 5c bd ac 6d 1e 3d fc 41 c3 3c
       -0.011468828 -0.05386356 0.03867881 0.023835175
000100 f4 10 3f 3b dc 96 6a bd 11 77 b7 3c e7 d2 04 bd
       0.0029154392 -0.057272777 0.022395642 -0.032427695
000110 fa bd 1a 3d 68 cb 54 3b 3b 1a 86 3c 44 1d 2b bc
       0.037778832 0.0032469872 0.01636993 -0.010443989
000120 81 b7 fc bc cd 40 8d bc 28 16 dd b9 20 db e7 3c
       -0.03084922 -0.017242813 -0.00042168912 0.02830273
000130 7e b0 50 ba e9 e5 28 3d ef 1b 5a bc 0a 6e e6 bb
       -0.00079608697 0.041234884 -0.013312324 -0.0070321606
000140 2d 9c d9 bb 52 c1 20 bb 79 e3 60 bb cb 5a ea 3b
       -0.006640932 -0.002452929 -0.0034315272 0.0071519366
000150 96 0e b1 ba 03 a8 dd 3c f8 06 22 bc 1b 5d 0c bd
       -0.0013508375 0.027057653 -0.009889357 -0.03426848
000160 f5 7f 14 bd bf a6 06 bd e4 07 cf bc 5d 84 00 bd
       -0.03625484 -0.032873865 -0.025272317 -0.03137623
000170 cc 56 18 3d be e8 23 bc 7b 92 20 bc 40 8b 2f bb
       0.03719215 -0.0100042205 -0.009800549 -0.002678588
000180 60 82 8a bd 82 f5 9f bc 0c 60 55 3c a6 17 90 3c
       -0.06763148 -0.019526247 0.013023388 0.017589401
000190 56 eb 29 bc 5e b9 96 bc b6 a8 9e bc 6f f2 51 3c
       -0.01037105 -0.018398937 -0.019367557 0.012814148
0001a0 46 90 05 ba ab d8 7c 3c 89 e1 93 3c 70 97 de 3a
       -0.0005095046 0.015432517 0.01805188 0.0016982388
0001b0 7e 1a 80 3c 90 4c da 39 86 cb 32 bc ac 1b 52 bc
       0.015637632 0.00041637244 -0.010912782 -0.01282398
0001c0 d4 d7 8c 3c 39 09 45 bd ae 75 41 3c 24 26 1b 3c
       0.017192759 -0.0481045 0.011807842 0.009469543
0001d0 15 61 39 3c a0 57 11 3c 12 aa be bc 9e 7f 14 bc
       0.01131465 0.008870989 -0.023274455 -0.009063629
0001e0 f3 6f 03 3d b2 77 10 bd ff 51 07 3c f7 9d 3b bd
       0.032089185 -0.0352704 0.0082592955 -0.045804944
0001f0 c9 bc a1 bc 98 72 1d bd f5 4d ca 3c 18 d4 80 bc
       -0.01974334 -0.038439363 0.024695376 -0.015726134
000200 b2 15 12 bd 6a ac c9 bc 75 99 8b 3c d1 80 44 bd
       -0.03566522 -0.024618346 0.017040947 -0.04797441
000210 29 bd 63 bc e0 10 2d 3d fa a4 0a 3d ec 26 b6 bc
       -0.01390008 0.04225242 0.03384874 -0.022235356
000220 d8 48 08 3b 56 97 60 bd 55 79 b9 bb 77 a6 1e bd
       0.0020795371 -0.054831825 -0.005660216 -0.038732972
000230 79 0a b0 3c 98 f9 c5 bb 0b 00 c8 3b 01 2f 0a 3b
       0.021489369 -0.006041717 0.0061035207 0.0021085145
000240 d9 30 6c 3c 5d f6 a3 3c 19 9f 43 bc fa 67 ab bd
       0.014415943 0.020014936 -0.011939787 -0.08369441
000250 69 a7 95 bd 7f 86 bd bc 4e 9c da 3b c5 9a b4 39
       -0.073073216 -0.023135422 0.006671465 0.00034447588
000260 bf af f1 bc 46 33 5d bd f7 4a df bc a1 13 b0 bd
       -0.029502748 -0.054003976 -0.027257426 -0.08597494
000270 b2 a3 c9 bb 5a 15 1e 3d 50 7a cb bb 66 10 45 3d
       -0.006153547 0.03859458 -0.006209649 0.048111342
000280 df 3b 0b 3c 2c a4 c4 3c ad 65 6d 3c cc 64 1b 3d
       0.008498161 0.024004065 0.014489573 0.037937924
000290 32 95 f3 bc 3b 26 81 3d f9 ba 1e 3c 41 06 1e bc
       -0.029734228 0.0630612 0.009688132 -0.009645046
0002a0 38 a5 34 3d e6 20 67 3d f6 72 0e 3d 1d dc 1e bd
       0.044102877 0.05642786 0.034777604 -0.038784135
0002b0 07 43 8e 3b ef 47 e9 3c da ad 11 3d 1a 5a fc 3b
       0.0043414864 0.028476683 0.03556619 0.0077011706
0002c0 3e 61 8f 3c 1f 1a 41 3d 9d 65 75 3c da 45 68 bc
       0.017502423 0.04714405 0.01497784 -0.01417681
0002d0 ab b3 e9 bc e8 56 67 3c e2 79 7f 3c fb 0e 41 3d
       -0.028528055 0.014119841 0.015593024 0.047133427
0002e0 29 d7 85 3c ff 4a da 3c ee 05 53 bc 0d 55 92 bb
       0.016337948 0.026647089 -0.012879832 -0.0044657052
0002f0 0d 9c ae 3c ba d3 2d bd 0b 2f b0 bd 27 93 88 bc
       0.021314645 -0.042438246 -0.08602723 -0.01667173
000300 91 e8 33 bd c3 c9 8b bd a9 df 87 bd 0d 0c fe bc
       -0.043922964 -0.06825592 -0.06634457 -0.031011606
000310 44 cd a6 bd 61 7f 01 bd 20 b0 91 3d 02 19 6e bd
       -0.0814462 -0.03161562 0.07113671 -0.058129318
000320 a0 2b 9e bc a3 5e ae bd a9 64 ad bd 85 ff 5d bd
       -0.019307911 -0.08514144 -0.08466465 -0.05419876
000330 58 32 18 3b 3a 84 86 3c 20 24 4e 3d 8e 03 a6 bd
       0.0023223367 0.016420472 0.05032742 -0.08106147
000340 48 8c 76 bd 35 6a 9d bd 30 61 a5 bd f6 86 51 bd
       -0.060192376 -0.07686273 -0.08075178 -0.0511541
000350 1e 1d bf bc b8 b2 8a 3b 86 84 d2 3c 75 56 b2 3c
       -0.023329314 0.0042327307 0.025697958 0.021769742
000360 06 71 d0 bc 9a 9e 2c 3c 30 43 61 3d 6f c3 39 bd
       -0.025444519 0.01053586 0.054995716 -0.045352396
000370 94 38 2a 3d 90 6b 9a 3d 19 1b ca 3d c3 85 f1 3c
       0.041557863 0.07540047 0.0986845 0.029482728
000380 6b 32 37 3d 18 75 27 bb da c1 26 bc 07 02 9b bc
       0.044725817 -0.002555197 -0.010178054 -0.018921865
000390 06 30 ae 3d 15 07 cf 3c 29 a0 de 3c 88 70 8d 3c
       0.085052535 0.025271932 0.02717598 0.017265573
0003a0 48 bd 4e 3d af b2 9f bc 65 91 91 bd f9 d7 f3 bb
       0.05047348 -0.019494383 -0.0710781 -0.0074415174
0003b0 b3 b2 d7 bc e7 4a f8 3b e4 a7 db bc 79 6c c9 bb
       -0.026330328 0.0075772884 -0.026813455 -0.006146964
0003c0 34 6a 50 bc 4b 6f 0b bd 03 7c c8 bc 87 7d 4b bd
       -0.012720633 -0.034041684 -0.024473196 -0.04968026
0003d0 3b f9 b2 bd c3 6d 38 bc 03 0a 0d bd 10 39 0d 3d
       -0.08738943 -0.011256638 -0.034433376 0.034478247
0003e0 ec 94 04 bd 8c 33 9f bd e8 ca f1 3c d4 c9 51 bd
       -0.032368585 -0.07773504 0.029515699 -0.05121787
0003f0 19 94 cd bc 58 9a 53 3b 97 48 12 bd f9 2e 6c 3c
       -0.025095033 0.003228804 -0.03571376 0.014415496

linear_a_0.bias f4 [16]
000000 1f 62 f4 3b 96 9b c1 3c 3b 7c 05 3d d2 fe 45 3b
       0.007457986 0.02363376 0.03258918 0.00302117
000010 60 62 85 bb 80 50 ca 3c d2 3b e1 3b e1 c5 9d bb
       -0.004070565 0.024696589 0.006873586 -0.004814849
000020 2c 10 d7 bc fa f5 93 3d 00 98 ab 3c 16 b1 19 bd
       -0.026252829 0.07224651 0.020946503 -0.037522398
000030 0e 56 63 3c b9 3a a6 3a 2c c9 0a 3c 09 1b bb 3d
       0.0138754975 0.0012682296 0.008470815 0.09136016

GRU_a.weight_ih_l0 f4 [48, 16]
000000 b3 2f 53 be e3 03 02 be 2d 41 74 be 34 26 2a be
       -0.20623665 -0.12696795 -0.23852988 -0.16616136
000010 4d c3 31 3e 5e ff 8c be 1d 09 7d be 66 e7 33 bd
       0.17359658 -0.2753858 -0.24710508 -0.04392185
000020 9c 82 44 3e 84 78 9c bd 32 33 1a be cd 7f b9 bc
       0.19190449 -0.07640174 -0.15058592 -0.022643948
000030 3e f0 02 3d f0 76 dc 3d ae a5 de bd 60 ed 55 be
       0.031967394 0.10764873 -0.10871445 -0.20891333
000040 2d cc ec bd f0 1b f8 3d f9 bd d8 bd fb 33 7d bc
       -0.11562381 0.12114704 -0.105831094 -0.015454288
000050 55 ce 0d be 9e 09 3c be 3e d4 fc bc c4 eb 27 bb
       -0.1384824 -0.18363044 -0.030862924 -0.0025622705
000060 10 85 fd bd 69 5e 61 3e d4 65 43 3d 9d 0c 83 3e
       -0.12378895 0.22008671 0.047704533 0.2559556
000070 f5 7d 5d 3e 02 df 09 be 35 36 1d be 56 2e 14 3e
       0.2163008 -0.13463977 -0.1535271 0.14470801
000080 91 8f 98 3d 33 19 7a be 11 d8 82 3d 63 2e da bd
       0.07449258 -0.24423675 0.06388868 -0.10653379
000090 9a 56 61 3e 61 45 0c 3e 2b 80 34 bc 51 5f 13 be
       0.22005692 0.13698341 -0.011016886 -0.14391829
0000a0 c8 ad 76 be 02 be 1b be 39 fd bb 3d d1 d1 7b bd
       -0.2408973 -0.15209201 0.09179158 -0.061479393
0000b0 3d 1f f5 3c 7e 63 05 3e 50 e8 24 3e 9a 13 85 3e
       0.029922122 0.13026235 0.16104245 0.25991517
0000c0 ce 3d f4 bd 12 de a1 bd f9 c7 df bc 72 26 4b be
       -0.11925851 -0.07903685 -0.027317034 -0.19838884
0000d0 5d aa 44 be db 6c 47 3d 8c 44 df bd 0a 3a 43 3e
       -0.19205613 0.048687797 -0.10901746 0.19065109
0000e0 30 50 39 3e af 58 9a 3e 06 b8 b5 3d 14 59 48 3d
       0.18096995 0.30145785 0.0887299 0.048913077
0000f0 ef f4 3e 3e ca 12 21 be 7e 45 00 3d 81 e1 2f 3d
       0.18648122 -0.15729824 0.031316273 0.042939667
000100 10 13 17 3e 5c 69 47 be 8d 75 5c be d5 f6 49 bc
       0.14753366 -0.19473785 -0.21529217 -0.012326916
000110 07 ef 8a bd 37 ff a8 3d b0 c4 e3 3d f4 74 42 3e
       -0.06783872 0.08251803 0.111214995 0.18989927
000120 74 8b 67 be aa 3b 66 3d 56 1e 2a be 07 f9 6d bd
       -0.22611791 0.056209244 -0.16613135 -0.05809882
000130 0d ac 94 3c cb 52 6d 3d e3 4c b9 3d c3 20 3b 3e
       0.018148446 0.057940286 0.09047868 0.18274216
000140 76 7e 50 3e 93 10 34 3b e9 9f 6d 3e 9d 2e c8 3c
       0.20360741 0.00274757 0.23205532 0.02443629
000150 30 cf 80 3d 8a b9 89 3e c3 e5 4c 3e 64 13 c9 bd
       0.06289518 0.26899368 0.20009522 -0.098181516
000160 68 f8 5b 3d c7 40 e0 bb 48 59 58 be e5 d5 1e be
       0.053703696 -0.0068436596 -0.21127808 -0.15511282
000170 4b b4 36 3e 35 5a b6 bc 0b 2f 80 3c a3 b6 b5 3e
       0.17842214 -0.022259811 0.015647432 0.35490903
000180 ca 88 4b 3e 52 6d 66 3e f9 ef 66 be 85 78 59 3e
       0.198764 0.2250264 -0.2255248 0.21237381
000190 03 74 86 3e 19 62 af bd 55 7c c2 bc ad 2e 2b be
       0.26260385 -0.085636325 -0.023740927 -0.16717024
0001a0 f4 3d cd bd 38 b8 b9 3d 55 8f 30 3e 69 b7 64 3e
       -0.10021582 0.0906834 0.17242177 0.2233559
0001b0 a5 1f b7 bd 84 70 64 3e 4f d7 12 3e ed e9 87 3e
       -0.089415826 0.22308546 0.14339946 0.2654566
0001c0 14 f1 b7 3b 99 fe 21 be 29 c0 0b be a9 69 30 bd
       0.0056134555 -0.15819778 -0.13647522 -0.043069515
0001d0 27 c1 cf bd da e6 34 3e 84 8b 93 bd 72 62 b5 3e
       -0.10144263 0.17666188 -0.07204345 0.3542667
0001e0 90 d8 29 3d 7e b2 d6 3d 87 08 e7 3d 91 14 9d bd
       0.041466296 0.104832634 0.11280923 -0.07669938
0001f0 85 c6 5d bc d2 cc 12 3d a8 e9 65 be 3b e5 b3 bc
       -0.0135361 0.035839863 -0.22452414 -0.021959892
000200 82 33 1f 3e 1a 04 3f bd bf ae 33 bd 93 a4 51 bb
       0.15546992 -0.04663477 -0.043867823 -0.0031988963
000210 cd b3 4d 3d c9 8c ab bd d5 f0 86 bc d4 ef 66 3e
       0.0502203 -0.08376462 -0.01647226 0.22552425
000220 38 ee 65 3d 86 8b 5f 3e fe 35 f4 bd 23 a5 4e bd
       0.056135386 0.21830568 -0.11924361 -0.050450455
000230 2e 00 3d be 41 78 62 be 8d 4f 2a be fa 8b e5 3d
       -0.184571 -0.22116186 -0.16631909 0.11208339
000240 96 f3 07 3e e9 6f 49 be 7f 88 68 3d f5 b7 4f 3d
       0.13276514 -0.19671597 0.056770798 0.050712544
000250 c3 74 20 3e 2b 41 da bd 69 82 12 3d b9 c8 0d 3e
       0.15669541 -0.10656961 0.0357689 0.13846101
000260 00 2b 7a bc ea 80 1e 3e 2a ed 0e 3d dd e5 d5 bd
       -0.015269041 0.15478864 0.034894146 -0.104442336
000270 c6 ba 9a bd 16 45 40 be c0 d7 61 3e 58 12 9c 3e
       -0.075551555 -0.18776354 0.22054958 0.30482745
000280 c3 84 41 3e 07 b2 4c bd 9b 99 6c 3d d8 96 0e 3d
       0.18898301 -0.049974468 0.057763677 0.034811825
000290 11 a7 82 3d df d7 3b 3e c2 41 11 3b f8 34 8d bc
       0.06379522 0.18344067 0.002216444 -0.017237172
0002a0 3e 3f 47 3e 3e 2f a2 bd fe 42 1a bd c9 08 45 3e
       0.19457719 -0.07919167 -0.037661545 0.19241633
0002b0 18 4e ae bd df 97 28 be 58 da 0f 3e c8 aa 18 3e
       -0.08510989 -0.16464184 0.14048135 0.14908898
0002c0 03 06 1b 3d 3d 58 27 3e 66 db 2c bd 24 3a f7 bd
       0.03784753 0.16342254 -0.042201422 -0.12071636
0002d0 77 12 74 be 2a 51 09 3e 98 7d ec 3d 3f 00 9d 3d
       -0.23835169 0.13409868 0.115473926 0.076660626
0002e0 20 04 4c 3e 60 ad 6d 3d 33 9f 58 3e 60 96 0d be
       0.19923449 0.05802667 0.2115448 -0.13826895
0002f0 8f 37 87 3d 10 bc 1b be 2d d1 7f be ed 2f 38 be
       0.06602394 -0.15208459 -0.24982138 -0.17987032
000300 d1 1b 8d be fc 8d 0b 3e 85 ef 39 be 51 db 25 3e
       -0.27560285 0.13628381 -0.18157776 0.16196944
000310 c3 c0 ac 3d 0d 4b d5 3c b0 c8 61 3e 22 d2 47 3e
       0.08435204 0.026036764 0.22049212 0.19513753
000320 18 90 a0 bd 76 9b c5 bd 5e 7c 4d 3e 79 2d a8 bd
       -0.07839984 -0.096487924 0.20066974 -0.08211798
000330 3c 6e 71 3c b0 12 65 3c b9 fd 0a 3e 44 fc e1 bd
       0.014735755 0.013981506 0.1357335 -0.11034444
000340 3a ad c6 bc 27 2a a3 bd d0 63 c0 3b 85 ca 1f bd
       -0.024252523 -0.07967024 0.0058712736 -0.039011497
000350 15 04 60 3e f4 ec 08 3e be 88 88 3d d8 8b 43 3e
       0.21876557 0.1337164 0.066667065 0.19096315
000360 fc 7f a8 3d 3e e5 91 3e ab e3 66 3e 8b 8f 6b 3d
       0.08227536 0.2849521 0.22547786 0.05750994
000370 d8 05 59 3e 5e 85 b8 bd 1d 56 08 be ff 16 bf 3e
       0.21193635 -0.09009813 -0.133141 0.37322232
000380 e0 2b 81 be e4 8d 10 be d3 2f 06 3e cc 25 65 be
       -0.25228786 -0.14116627 0.13104181 -0.223777
000390 8e 76 9f 3d 6a 1e 9d bd 00 76 32 3d d1 ce 95 bd
       0.077862844 -0.07671817 0.043569565 -0.07314838
0003a0 da 54 52 be 6c a5 67 be 0d 47 4b be 84 12 19 3e
       -0.20540181 -0.22621697 -0.19851322 0.1494847
0003b0 6a ad dc bd 77 92 3c 3d 1e 72 7c be de a4 4a bd
       -0.107752636 0.046038117 -0.24652907 -0.049473636
0003c0 e8 65 d9 bd 4a a2 84 bd 66 ec 50 bd 39 6e ab bd
       -0.1061514 -0.06476267 -0.051006697 -0.08370633
0003d0 3d 11 71 3e a8 07 b9 3d 9b 05 0d be d6 67 6f 3e
       0.23541732 0.090346634 -0.1377167 0.23379454
0003e0 5c e7 09 3e 13 9b 88 bc 2b f0 48 3d 65 cc 55 3c
       0.13467163 -0.016675508 0.049057167 0.01304922
0003f0 14 15 0f be eb e3 62 be 20 20 63 3e c3 80 5e bd
       -0.13972884 -0.22157256 0.22180223 -0.054322015

GRU_a.weight_hh_l0 f4 [48, 16]
000000 8a 72 5c 3e 10 8f 2b be 88 f9 25 3e 37 fd 75 3d
       0.21528068 -0.16753793 0.1620847 0.060055938
000010 dc 51 cc bb 51 de 05 3b 1b cf 11 3e 19 03 a7 bc
       -0.0062353443 0.00204267 0.1423916 -0.02038722
000020 10 f2 a5 bc fe 48 0b bd 55 9e 36 be 98 4a 32 bd
       -0.020257026 -0.034005158 -0.17833836 -0.04352817
000030 be ab 60 be ff ca d7 bc 60 4c 50 3e f7 07 43 3e
       -0.21940514 -0.026341913 0.20341635 0.19046007
000040 6f 50 e1 3d ea b3 82 3e bc 67 86 3d 58 a8 79 3e
       0.110016696 0.2552789 0.065627545 0.24380624
000050 c6 73 be 3d 20 b2 88 3e e3 c4 58 3e ec bd 13 be
       0.09299426 0.266984 0.21168856 -0.14427918
000060 30 38 96 bd 06 a8 80 3c 13 83 85 bc f5 f8 1b 3e
       -0.07334936 0.01570512 -0.016297853 0.15231688
000070 e5 d7 89 be 07 97 66 3e df b2 13 be be 56 2a 3e
       -0.26922527 0.2251855 -0.14423703 0.16634652
000080 42 7c 5d be 38 42 6a 3e 7d e8 e4 bd 62 0b 9d 3e
       -0.21629432 0.22876823 -0.11177156 0.30672747
000090 aa da 69 be 6c 86 2a 3e 4e de 00 3d c6 b7 ba be
       -0.2283732 0.1665284 0.031462006 -0.36468333
0000a0 44 82 cf 3c ae bd 51 bd 23 a6 38 3e b7 a6 11 3d
       0.02533067 -0.051206283 0.18032126 0.035559382
0000b0 df 71 81 3d be e4 ae 3e f8 c0 d0 bd c6 b6 23 3c
       0.06320547 0.3415889 -0.10193056 0.009992307
0000c0 d0 07 b1 3d ad 7d e3 3c c5 5e ad be d3 5d 99 3e
       0.08644068 0.027769888 -0.33861366 0.29954395
0000d0 36 ca 06 3e d8 f6 cb 3d 61 0d f4 bd 3e e6 23 3d
       0.13163075 0.09959191 -0.11916614 0.040014498
0000e0 f7 af 93 3e 3f d7 9d 3e f1 43 98 3c 03 fc 84 be
       0.28845188 0.30828282 0.018587084 -0.2597352
0000f0 7c c0 2a 3e 3e 98 10 3e 73 68 3c 3d b7 bc 20 bc
       0.1667499 0.14120576 0.045998048 -0.009810618
000100 c3 7b c3 3d b7 ca 9f 3d c7 53 65 be 2f 17 15 be
       0.0954509 0.07802337 -0.2239524 -0.14559625
000110 47 c7 aa bd fc 37 4d 3c 85 36 de 3d 36 0d 49 be
       -0.083387904 0.012525555 0.108502425 -0.19633946
000120 11 a0 ef 3d a1 d2 78 3e c9 67 7f be dd 90 73 3e
       0.11700452 0.24299099 -0.24941935 0.2378573
000130 07 6c 43 bc f9 e8 07 3d 53 02 b8 3d 77 b2 96 3d
       -0.011927611 0.033181164 0.08984818 0.07358258
000140 dd 14 b1 be 5c 43 44 3d a0 a5 bc be cc 66 2f 3e
       -0.3458623 0.0479158 -0.36845112 0.17129058
000150 b2 96 98 be 51 bb a0 3b c5 70 e4 3d f2 5e 81 be
       -0.2980247 0.0049051424 0.111543216 -0.2526775
000160 3d 35 2d 3d 0c f0 90 bd 89 b2 38 bd f3 5a e0 3d
       0.0422871 -0.07077035 -0.04509214 0.10954847
000170 cb b9 b4 be 3f d9 84 3e 98 39 b7 be 1c 36 32 3c
       -0.35298 0.25946996 -0.35786128 0.0108771585
000180 f6 f6 30 3e 9d bb 75 3e c8 d9 4c be f3 24 6c 3e
       0.17281708 0.2399735 -0.20004952 0.2306097
000190 bd f9 62 be 06 cb bc bd 5a 91 84 3d b4 68 37 be
       -0.2216558 -0.09218411 0.06473036 -0.17911035
0001a0 f4 d2 38 3e aa 5b 9f 3d a6 8d 1a 3e 95 61 9f 3d
       0.18049222 0.077811554 0.15093097 0.07782284
0001b0 1d 5e 35 be 40 8e 18 be dc f1 25 bd f3 e0 21 bd
       -0.17711683 -0.14898014 -0.04051386 -0.03952117
0001c0 ae 76 89 bd 6e ac dc bd 0a cc 9f bd 1d ff 18 be
       -0.067120895 -0.10775076 -0.07802589 -0.14941068
0001d0 e3 45 a6 be dc bc 9b 3e 47 ac 15 3e f0 12 20 3e
       -0.32475194 0.30417526 0.146165 0.15632224
0001e0 09 10 1f be d2 23 c4 bd ce eb c9 bd c0 12 63 bd
       -0.1553346 -0.09577145 -0.09859429 -0.055437803
0001f0 f9 67 00 be fe e7 d0 bd 67 88 2b 3e 4d be 35 bd
       -0.12539662 -0.10200499 0.16751252 -0.044370938
000200 a6 d0 82 be 99 4c 58 3e 64 77 6b 3d b7 f1 26 be
       -0.2554981 0.2112297 0.057486907 -0.16303144
000210 69 e1 bd 3c 9f e4 e8 3c 90 90 90 3e f4 5d 2c 3e
       0.023178773 0.028429328 0.28235292 0.16832715
000220 2f f7 73 3e 3c dc 2a 3e f9 86 00 3e e0 f6 9e bd
       0.23824762 0.16685575 0.12551488 -0.077619314
000230 83 48 5d 3d ad 05 97 3d dc 58 5a bb f4 ea 4a 3d
       0.05402423 0.073741294 -0.0033317124 0.049540475
000240 37 d0 bc bd 83 a9 a3 3e 10 5a 24 bd ca 3c 48 3e
       -0.09219401 0.31965265 -0.040124953 0.19554439
000250 f8 4b 47 be 86 a4 11 3c 20 d9 82 3d df 35 2f 3e
       -0.19462574 0.008889323 0.063890696 0.17110394
000260 cc 81 41 3e 63 90 03 be 60 f5 8a be 45 b4 06 be
       0.1889717 -0.12848048 -0.2714033 -0.13154705
000270 51 0a 00 bc e6 24 f9 3d 0c 5a 44 3d 84 13 3c 3e
       -0.00781496 0.12165241 0.047937438 0.1836682
000280 b5 19 89 3d c8 a3 a9 bd 18 0e df 3c 44 36 ee 3d
       0.06694356 -0.08283192 0.0272284 0.11631444
000290 73 d9 ac bd cd f3 44 bc 09 1d 7f 3e 6a 85 8a be
       -0.08439913 -0.012021017 0.2491342 -0.27054912
0002a0 c7 0b f4 3c d2 7a 19 3d 1b f0 0b 3e 58 5e 3e 3d
       0.029790772 0.037470646 0.13665812 0.046476692
0002b0 ba 4c 0d 3e 8e a5 e1 bd ac 12 32 be 5e 57 f4 3d
       0.137988 -0.11017905 -0.17389935 0.119307265
0002c0 9f 31 4d 3e 42 f4 83 3e a9 c8 7d 3e 36 95 be bc
       0.2003846 0.2577229 0.24783577 -0.023264509
0002d0 04 3d 4a be 26 79 9a 3d 36 bd 3b 3d 02 65 c1 bd
       -0.19749838 0.075426385 0.045834742 -0.09443094
0002e0 6b b4 6a be 26 de 5c be 40 ad d4 3b 6c b6 23 3a
       -0.22920386 -0.21569118 0.0064903796 0.00062451395
0002f0 18 41 43 bd 6c 24 7b 3e e2 61 1d 3b 93 01 ab 3d
       -0.0476695 0.24525613 0.0024014642 0.0834991
000300 cb b1 1c be 61 b0 01 be a8 4c 2c 3e a2 8b 73 3d
       -0.15302198 -0.1266494 0.16826117 0.059459336
000310 c8 a2 ec 3d e4 39 8f be 48 6b 79 be 10 a8 ba bd
       0.115544856 -0.27973855 -0.24357331 -0.09114087
000320 a3 1d 68 bd ad 7f 57 3d f6 b4 70 3e f6 6b 1e be
       -0.05666889 0.052611995 0.23506531 -0.15470871
000330 ae 5b 2a bd d9 38 a9 bd 50 42 3b 3e d4 b6 32 bc
       -0.04159134 -0.08262796 0.18287015 -0.010907847
000340 42 1e 9d bd a0 47 89 3e 3e bf 14 be 03 12 51 3e
       -0.07671787 0.26812458 -0.14526078 0.20417027
000350 0a a3 40 be 80 7b ce bd 4d ff 13 3d 9c ef 80 be
       -0.18812194 -0.100821495 0.036132146 -0.25182807
000360 62 ec b2 3d 14 74 55 3e 17 c2 13 3e 00 33 59 3e
       0.08736493 0.20845062 0.14429508 0.21210861
000370 ba 34 57 bd a1 15 0d be 74 30 e8 3d 87 c1 9f bd
       -0.05254052 -0.13777782 0.11337367 -0.07800584
000380 46 eb 2b be 8d 68 4d 3e 91 9f 13 3e e4 98 58 bd
       -0.16788968 0.20059414 0.14416339 -0.052880183
000390 bd 19 6b 3e e5 66 16 bc 37 16 2b 3e 54 e5 6e 3e
       0.22959037 -0.009179805 0.16707693 0.23329669
0003a0 8a 3d 18 3e 3e 8a db 3c ad e5 7d 3e 89 ca f0 bd
       0.14867225 0.026799317 0.24794646 -0.117573805
0003b0 70 72 65 3e 1a c6 4b 3e 10 31 4b 3e 2b 30 25 be
       0.22406936 0.19899788 0.19842935 -0.16131656
0003c0 f9 77 14 be 1d cb 17 be 7b 0c b2 bd e1 f7 9a 3e
       -0.14498891 -0.14823575 -0.08693787 0.30267242
0003d0 ce a6 0a bc 27 ad fa bd 33 85 b3 3e b6 b5 15 be
       -0.008462621 -0.122400574 0.3506256 -0.14620098
0003e0 09 15 52 bd 25 6e 87 3e 8a bc 08 bc ac 8b 1b 3e
       -0.051289592 0.2645122 -0.008345732 0.1519
0003f0 6d 5a 8b bc 94 38 9e 3e 98 b0 7d be 51 1f af 3e
       -0.017010892 0.3090254 -0.24774396 0.3420358

GRU_a.bias_ih_l0 f4 [48]
000000 ae 26 e4 bb 69 2c ad bd be 68 3c bd 99 51 40 bd
       -0.006962619 -0.08455736 -0.045998327 -0.046952818
000010 43 7a 71 3e ac 9a 41 3e 64 f5 8a 3e 6f 86 eb 3b
       0.23581795 0.18906659 0.27140343 0.0071876566
000020 ce fc ec bd a2 c7 94 3d 91 f8 04 3e 78 a1 26 be
       -0.11571656 0.072646394 0.12985446 -0.16272533
000030 fc e6 59 be b7 74 77 3e 25 f8 1f bd 43 32 d8 bd
       -0.2127952 0.24165617 -0.03905501 -0.10556462
000040 3d 62 43 3d a6 9b 29 3e 2e c6 26 bd 54 4a 5e 3d
       0.04770111 0.16563281 -0.040716343 0.054270104
000050 1b 6b ae 3d 4e d1 09 be 98 68 a2 be df 52 2c 3e
       0.085165225 -0.1345875 -0.31720424 0.16828488
000060 df 58 6a bb cb 10 a3 3b f1 20 07 bd 0d c3 8f 3d
       -0.0035758538 0.004976367 -0.0329904 0.07019625
000070 ac e9 d8 bd e4 77 2a be 5d 41 92 3d d9 f3 38 3d
       -0.105914444 -0.16647297 0.07141373 0.045154426
000080 5e 61 32 3d b0 24 93 3e a6 2b be bc 9e f8 78 bd
       0.043549888 0.28738928 -0.023214173 -0.060783975
000090 25 a0 8e be 94 6e a8 bd ac 1f 86 3d 53 97 91 3c
       -0.27856556 -0.08224216 0.0654901 0.017772352
0000a0 48 4c 8c bd 26 31 2a 3e dc 79 13 be d1 10 04 be
       -0.06850487 0.16620311 -0.14401954 -0.1289704
0000b0 43 bd b5 3d b6 76 81 bc d9 3b 4a 3e 16 0f 6b 3e
       0.088739894 -0.015803676 0.19749393 0.22954974

GRU_a.bias_hh_l0 f4 [48]
000000 7b 6c 54 3e 19 a0 19 be b7 28 c7 3d b4 61 6c 3e
       0.20744507 -0.15002479 0.097245626 0.23084146
000010 40 55 86 3e b0 f3 05 3e ea 78 1e 3e 0e f5 95 3e
       0.26236916 0.1308124 0.15475813 0.29288524
000020 af db 4e be ff 55 0f be e9 84 9a 3d 30 fb 7b be
       -0.2020099 -0.13997649 0.07544882 -0.24607539
000030 8a 4e 17 3e c4 51 70 3d f0 94 2d be 52 95 96 3e
       0.14776054 0.058671728 -0.16951346 0.29410797
000040 c5 0a 0c 3e 90 8b b3 3d 38 95 84 be 64 d8 16 3d
       0.13675983 0.08766854 -0.25895095 0.03682746
000050 62 01 6a 3c f0 59 9b bd df 78 7f 3d 33 3d 33 be
       0.014282556 -0.075855136 0.06237113 -0.17503814
000060 a3 97 a5 be 34 3b 80 be a7 1b 19 be 37 d9 f1 bc
       -0.32342252 -0.25045168 -0.14951955 -0.029522521
000070 28 dd 0e be f4 15 96 be 0f bd 28 3e f0 d1 a0 3d
       -0.13951552 -0.29313624 0.1647837 0.078525424
000080 a7 d2 46 3e 57 0b a6 bd 6a dd b1 3c 68 ca b4 3a
       0.19416295 -0.08107632 0.021712024 0.0013793232
000090 c7 ff 34 3e 71 98 1a be 63 71 88 3e 43 3d de bd
       0.17675696 -0.15097214 0.26649007 -0.108515285
0000a0 58 e7 88 bd 3f 49 36 3e df aa 31 be b0 3f 3e be
       -0.0668475 0.17801379 -0.17350338 -0.18578982
0000b0 a7 41 7c 3e a7 17 8f 3e 63 85 23 be 36 be f9 3c
       0.2463442 0.27947733 -0.15968852 0.030486207

linear_a.weight f4 [4, 16]
000000 64 44 63 bd 6a 0b 96 3d c5 77 65 bd 59 4b a9 3e
       -0.055485144 0.07326396 -0.056022424 0.33065298
000010 a0 39 80 be d2 8e d2 3e 23 fd 1f bb 91 9c 6d 3e
       -0.25043964 0.41124588 -0.0024412356 0.23204257
000020 5e 35 f5 3b ce b3 a0 3e e4 e0 47 3c 8b b2 03 3d
       0.0074831685 0.3138718 0.012199614 0.032152694
000030 ad 88 cf bc da dc a3 3e f0 5b 2d 3e 7a a8 bc 3e
       -0.025333727 0.32004434 0.16929603 0.36847287
000040 cb 12 98 bd 78 8d 50 be 75 b5 8a bd 63 e1 2f be
       -0.074254595 -0.20366466 -0.067728914 -0.17175822
000050 a3 04 3f 3e f9 77 8d be 82 5a 8f be 0a 79 63 3e
       0.18654113 -0.27630594 -0.2799874 0.22214141
000060 ff d9 a7 be 5a fc ea be 7a 9c 24 3e 64 49 14 3e
       -0.32783505 -0.45895654 0.16075316 0.14481121
000070 21 ea f5 bd 92 19 cf be 04 12 62 3e ed f5 8b bd
       -0.12007547 -0.40449196 0.22077185 -0.06834016
000080 b0 54 42 3e b1 6d 77 3e af 05 96 3d 6a 99 8d 3e
       0.18977618 0.24162938 0.07325303 0.27656108
000090 b8 38 c1 3d 2b 8e f9 3d 0f 81 aa 3e 74 c0 f9 bd
       0.09434646 0.121853195 0.3330159 -0.12194911
0000a0 d9 8c 77 3e 4a 5b 93 3e c8 aa 99 be d7 dc 63 bd
       0.24174823 0.28780586 -0.30013108 -0.05563053
0000b0 1d 4f 09 bd 59 41 be 3e 7f 3d 76 be ca cc 4e 3d
       -0.033522714 0.3715923 -0.24046896 0.05048827
0000c0 8f f9 20 3d d4 b9 34 be 7b 25 2c 3e d3 3c 01 bf
       0.039300498 -0.17649013 0.16811173 -0.50483435
0000d0 1f b1 78 bd 2f 77 b1 be 1e c4 ea bd 73 f8 d4 bd
       -0.06071579 -0.34661242 -0.11463188 -0.103989504
0000e0 9f c9 f7 be 79 9b c9 be bb e2 69 be a0 7f f4 3d
       -0.48396012 -0.3937643 -0.22840397 0.11938405
0000f0 ef 0d b0 3d 70 dd d1 3b 4b bb 70 3e 07 bc ce be
       0.085964076 0.0064045712 0.23508947 -0.40377828

linear_a.bias f4 [4]
000000 f6 d7 9d 3e 73 62 df 3c 1b 16 68 3d ff 50 4b 3d
       0.30828828 0.027268624 0.056661706 0.04963779

conv_v_0.weight f4 [16, 7, 3, 3]
000000 fe d7 7a 3d 83 2a 8b bd 40 57 2b bc 69 18 03 3e
       0.061241142 -0.06795218 -0.010457814 0.1280228
000010 22 c9 1d 3d 37 ae 70 bd 29 65 b2 bd 9e 9f e0 bd
       0.038521893 -0.058759894 -0.08710701 -0.109679446
000020 ce d5 0a be de 09 b5 bd 97 5e 2c be d8 f3 cd 3c
       -0.13558123 -0.08839773 -0.16832958 0.025140688
000030 ae 2d 0f 3d 39 b7 3a 3e 8c 3e f9 ba f3 6a 0c bd
       0.034955673 0.18233956 -0.0019015833 -0.034281682
000040 95 fb 85 3d 4d 69 76 bd c6 32 c6 3d ea 3a 4e be
       0.06542126 -0.060159016 0.09677653 -0.20139661
000050 5b c3 0d be b0 03 ac 3d ec 0b 00 be a1 d2 4a be
       -0.13844053 0.08399141 -0.12504548 -0.19806911
000060 e7 81 88 3d ee 08 88 3d ef b9 29 3d 75 7f 24 3e
       0.06665402 0.06642328 0.041437086 0.16064246
000070 3f c5 c3 3d 63 d9 14 3e 1b fe 2a 3e af 6b 2b be
       0.09559106 0.14536051 0.16698496 -0.16740297
000080 96 ad 32 be 60 c8 42 3e fd fa ff 3d 10 9f 68 3e
       -0.1744903 0.1902175 0.12499044 0.22716928
000090 31 1f 56 bc 46 04 c5 3d d7 0e 40 bd 11 6a d9 3d
       -0.01306896 0.09619956 -0.046889152 0.10615934
0000a0 b5 c1 f7 bd 13 5a 4d 3d a5 a1 f8 3d d5 08 db bd
       -0.120974936 0.05013473 0.12140206 -0.10695044
0000b0 52 83 dc bc 96 23 3f 3d f9 8f 6f 3d 9e 9f ee bd
       -0.026918087 0.046664797 0.058486912 -0.11651538
0000c0 0f 63 20 3d 7f 4c da 3b 33 e8 6c bd 1f a4 74 bd
       0.03915697 0.006661951 -0.05783863 -0.05972683
0000d0 88 86 80 3c 27 8e 2c be 14 2c 28 bd f1 ad d5 bd
       0.01568915 -0.16851102 -0.04105766 -0.10433567
0000e0 af 21 b0 bd 30 02 97 3d f9 71 0e 3d f8 39 0e bd
       -0.08600175 0.07373464 0.03477666 -0.034723252
0000f0 fc e2 5d bb 74 80 0a 3d c1 9a f4 bd 00 28 4b 3d
       -0.0033857217 0.03381391 -0.119435795 0.049598694
000100 fa d7 b0 bd 2a 6b 77 bd e5 1f ca 3d 79 23 80 bd
       -0.08634944 -0.060404934 0.09869365 -0.06256766
000110 84 06 c8 bd e8 d5 84 3d 93 db b1 bd 5b f8 24 bc
       -0.09766868 0.06486112 -0.086844586 -0.010068978
000120 aa 56 76 be 5d bc 2e 3a ac 5c 5a 3c 77 2a 8b 3e
       -0.24056497 0.00066656416 0.013327759 0.27180836
000130 9d 45 32 3e 6e d4 44 3c 87 1d 2f be a9 81 27 3e
       0.17409368 0.012013538 -0.17101108 0.16358055
000140 3d 7b 19 bd cb 4f 37 3d 02 84 2b be 89 b2 3f be
       -0.037471045 0.04475383 -0.16749576 -0.1872045
000150 b8 ed a5 3d eb 3f 70 be 58 e6 6f be d4 c2 c6 3d
       0.08101982 -0.23461883 -0.23427713 0.09705129
000160 f4 2e 98 3d 89 b8 5b 3d ba d5 6d 3e 42 26 ee 3d
       0.074308306 0.053642783 0.23226061 0.11628391
000170 ca 76 e7 3d 66 57 7d 3e b8 53 3c 3e 11 0e 09 be
       0.11301954 0.24740371 0.18391311 -0.13384272
000180 cb 15 ec 3d 01 fe fc 3d c5 6b 0a 3d b9 b4 10 3e
       0.11527594 0.12353135 0.033794183 0.1413144
000190 b6 8f e8 3d 49 ae 08 3e e0 d6 0d 3e ca e6 84 3d
       0.11355536 0.13347735 0.138515 0.06489332
0001a0 d8 5c 03 3e d8 44 91 bd c9 ee 44 3d 25 b4 12 bd
       0.12828386 -0.07093209 0.048079286 -0.03581633
0001b0 11 a3 0d 3d df 55 69 bd ef 13 0f bd 6c 0a 5a 3d
       0.03457934 -0.05696666 -0.03493112 0.053232595
0001c0 5f 0d 85 bd b1 df ef 3c 9e a6 b6 3d c6 13 d4 3d
       -0.06496691 0.029281469 0.089184985 0.10355334
0001d0 89 db dd bd 13 c9 0d be c3 a7 c6 bd 1a 15 e8 bc
       -0.10832889 -0.13846235 -0.09699967 -0.028330375
0001e0 b5 1a 00 be 30 5f c6 3d 55 95 7a bd 3b 2b 9e 3d
       -0.12510188 0.09686124 -0.06117757 0.07723089
0001f0 5f ac 85 3d ab e9 78 3d d6 ee 8e 3d 56 16 db bc
       0.06527018 0.06076972 0.06979148 -0.026744049
000200 5d 62 19 be 49 fd bb bc f1 4e a8 bd 21 eb 07 be
       -0.14978929 -0.022947924 -0.08218182 -0.13273288
000210 97 a3 45 bd 80 29 9f bd cf 04 3d bc 0e de 01 3d
       -0.048251715 -0.07771587 -0.011536791 0.03170591
000220 d1 b9 50 be 83 05 5b 3c 8d a4 94 3e 90 76 71 3d
       -0.20383383 0.013368013 0.29031792 0.05895096
000230 80 74 b8 3d ef a0 6a bd 57 2e ab 3b 67 27 84 bc
       0.090065956 -0.057282384 0.00522403 -0.01613207
000240 0b 36 77 be c2 67 41 be 16 95 19 be 10 72 93 3d
       -0.2414171 -0.18887237 -0.14998278 0.0719949
000250 4b e7 8a be a4 da 7f be 51 39 2d 3d 26 0a 55 3d
       -0.27129588 -0.24985749 0.04229099 0.05201163
000260 8f ac 84 3d e2 0f 66 3e 11 80 c7 3d 01 9a 55 bc
       0.064782254 0.22466996 0.097412236 -0.013037206
000270 b0 8c 7d 3e d1 76 73 be 9e f4 0f 3e aa 51 ff bd
       0.247607 -0.23775794 0.14058158 -0.12466748
000280 0d 9a 36 3e 4b b1 81 bc 4b 34 01 3e a1 53 83 3d
       0.17832203 -0.01583161 0.12617604 0.06412435
000290 e4 53 c0 bd bf 30 89 3d 80 8f f1 3c a1 d1 43 3d
       -0.09391001 0.06698751 0.029487371 0.04780734
0002a0 f8 83 87 bd 82 ae 8d bd 21 af 88 bd 13 af 8d 3c
       -0.06616968 -0.0691805 -0.06674028 0.017295396
0002b0 e1 bc 17 3d 62 94 94 3c 93 d7 c4 bd 2e 17 96 bd
       0.037045363 0.01813716 -0.0961143 -0.0732864
0002c0 c3 92 1b bd f2 11 fa bc 65 59 b8 bd 65 d8 ed 3c
       -0.03798176 -0.030526135 -0.09001426 0.029033849
0002d0 bb 9a 9b bd 7d 55 e4 bd 2b 54 4c 3d 97 d9 9e bb
       -0.07597872 -0.11149118 0.049884956 -0.004847716
0002e0 ac 08 df bd ee d4 2b be 00 f7 a9 bd e2 5d 2c bc
       -0.10890326 -0.16780445 -0.08299065 -0.01052043
0002f0 14 c1 61 3d 95 79 16 be fe 88 80 bd 05 ee 85 3d
       0.055115774 -0.14694817 -0.06276129 0.06539539
000300 e8 df 04 be 1b 78 59 bd 7e cc 56 3d b6 5d 00 be
       -0.12976038 -0.053093057 0.052441113 -0.12535748
000310 ef fa b4 3d dc 33 ad 3c 51 b2 f7 3c 32 ea 48 3c
       0.08836924 0.021142893 0.030236395 0.012262868
000320 09 d5 0a be 66 7f 5f 3e 0b 47 5f 3d ed 59 90 bc
       -0.13557829 0.21825942 0.05451111 -0.017621005
000330 23 9d 2c 3e bf bc 3b 3d 7e 44 a9 bd eb 7a 82 bd
       0.16856818 0.0458343 -0.08265017 -0.06371101
000340 bb 64 2c be b5 68 87 be c7 68 93 be 79 44 a3 be
       -0.168353 -0.26447073 -0.28790876 -0.31888178
000350 b9 a5 b3 be 4e a3 25 be ac d4 1e be 3e bb 91 bd
       -0.35087374 -0.16175577 -0.15510815 -0.07115792
000360 74 e4 85 3e 59 4d 2b 3e 0e 61 71 3e 57 43 59 3e
       0.26150858 0.16728725 0.2357218 0.21217094
000370 9f 34 9b 3c 54 8e 4b 3e 6c 5c 71 3d 97 fb 1f 3e
       0.01894599 0.19878513 0.05892603 0.15623318
000380 86 01 d0 3c 2a 1e 99 3c a2 60 d7 bd 01 b7 12 3d
       0.025391351 0.018691141 -0.10516478 0.035819057
000390 9e a2 87 bd db 7b a3 bd 73 cb b4 bc d5 ad 8f 3d
       -0.06622814 -0.07982608 -0.022069668 0.07015578
0003a0 73 53 c0 bd 93 e9 96 bd b8 10 33 3d 3a 8e 87 bb
       -0.09390917 -0.073687695 0.043717116 -0.004136828
0003b0 0d 89 d1 3c e9 4e 01 3d b4 44 ea bd 5b f6 df bc
       0.025578046 0.031569395 -0.11438885 -0.027339151
0003c0 d4 c2 00 3b c4 2c 66 bd af 71 f4 bc 01 ab 18 be
       0.0019647377 -0.056195036 -0.029839365 -0.14908983
0003d0 f4 2e 36 bd 07 94 b8 bd 5a bb 88 bc 2f 37 14 be
       -0.04447837 -0.09012609 -0.016690899 -0.14474176
0003e0 b8 15 fe bd b6 26 b5 bc 28 63 07 be dd 81 b1 bd
       -0.12406486 -0.022113185 -0.13221419 -0.086673476
0003f0 98 73 a0 bd cc 1e a1 bc b0 59 3f 3d 40 14 c5 3d
       -0.07834548 -0.019668005 0.046716392 0.09623003

conv_v_0.bias f4 [16]
000000 87 e9 53 bd a6 35 3c bd 03 de 73 bd bf e8 8d 3d
       -0.05173638 -0.0459496 -0.0595379 0.069291584
000010 d9 e4 d6 bc 05 9b a0 3d a8 17 86 3d 1e df e7 3d
       -0.02623217 0.07842068 0.06547481 0.11321853
000020 87 39 18 be 8d 21 9c bc 28 ba b1 3d d9 d9 c1 bd
       -0.14865695 -0.019058967 0.086780846 -0.09465379
000030 a9 13 7e bb c9 d6 02 3e 51 c5 5c 3d 68 56 1e bd
       -0.0038769043 0.12777247 0.053899113 -0.038656622
