league/checkpoints/mfos_seeds/new_self_6x6_64/200_1.pth (torch, 549838 bytes, 105 tensors)

conv_a_0.weight f4 [16, 7, 3, 3]
00000000: 0514 37bc cdd2 833d 37eb 423c a35b 0c3e
00000010: 97f1 383d 897c 833d 3b87 613d 86c4 52bb
00000020: b092 693c 58fd 01be f785 10bd 864b 323e
00000030: c3b7 c23d 8fdf 1e3e 663a 203e 5cd6 22bb
00000040: de0b 863a 1e48 b93c 8239 0ebe 2061 d63b
00000050: 5847 99bd 1b67 b63d 3e83 483b a193 0fbd
00000060: e139 4cbd 8859 ee3c b060 ee3d 5828 aebc
00000070: 2805 333d 75a9 f83d c7be fb3b bb00 55bd
00000080: 239c c03d c599 0d3e 16ac 323c 3ae6 23be
00000090: d1d4 bebc f9e5 c0bc 8681 5bbd 41f4 9b3d
000000a0: bb81 b9bd 87bf 8ab9 92bd 21be c931 b93c
000000b0: bea5 b0bd 211c ebbb 7ea4 a33c caa2 e33d
000000c0: 9883 353e af60 383e 255b 493d 915f 2b3e
000000d0: eef1 433e 3c22 0a3e 14f7 39bd 92f6 c83d
000000e0: edc9 d33c 404a e4bd 0478 bf3d fe89 acbc
000000f0: dca2 ccbd c210 6b3c 14ef 91bd b604 f83d
00000100: bc3e 8abc 47d2 b3bd efb0 a83d 030b c93d
00000110: 43e4 c93a a6fd f33b 178e 2b3e 3169 cd3d
00000120: 1653 87bb fe28 093e 35d6 a43b b921 d03d
00000130: 5fc9 693d eff4 003e 631b 0c3e b231 b13d
00000140: 0e5f 4d3c d138 6e3b 6795 e03d af01 023e
00000150: 0f95 c4bd b980 f83c ece9 033d 5ba9 3a3c
00000160: ea3f a03d 7698 45bd cf58 ac3d ec2b 253d
00000170: 9a56 7e3d 3b5d 643c b3e1 193e 9c08 af3d
00000180: b886 f43d 08ac 47bb 488f a9bd bdf7 f53d
00000190: 0a39 febd 15cd 07bd 0e92 1a3d 86a2 b2bc
000001a0: c7bf 8e3d edf3 833d 7e17 92bd 3f7a 8f3a
000001b0: dbf9 403e e5de df3c b7ff 293d d09f 193e
000001c0: 520e ffbc b05d b63c 738e 433e aa0d e63d
000001d0: dcc8 193e de3d be3d 4e00 ae3d 83db 8bbd
000001e0: 0a9e f23c e01f 833d 31b5 b43d 629c d0bd
000001f0: 3c13 adbb a39e 88bc f680 cd3c 28d0 d0bd
00000200: 0fbb 153e c9e9 b73d 3e5e 8cbd 7b24 dd3d
00000210: bedd 06bd a598 8c3d 3649 453e 403b 013e
00000220: d858 d1bd a827 0abd 9ea2 d23d a7a5 013e
00000230: ef7c 0e3e 8159 8b3d dff7 343e 423a 263e
00000240: 6aa9 833d fbee d33d e1cd a9bd d8ba cebd
00000250: 9815 53be dc4d 203e df71 cd3d 07e0 bb3d
00000260: 1603 e33c 13b6 9bbd 8a48 d43d 5518 7fba
00000270: 98c2 c3bd 58d2 c33d d3c9 cc3d 3d76 d6bd
00000280: 79d4 a23d 5dc8 cb3b c46b a8bd e3e4 633d
00000290: 60f4 9dbd 8b68 3d3d 76ad bebd 9f22 09be
000002a0: 1b1d c1bd d6c2 c0bd 2cbd 5bbd 7112 443e
000002b0: c8b7 433c 28ec 353e 6b9c a83c 7423 1f3e
000002c0: c6b7 9b3d a3fd 3e3d a636 453e 1756 d13c
000002d0: 7351 573d 8bec a0bc e5d0 d93d c64a 1f3d
000002e0: 4e97 103d 9a85 e8bd cb5f fabc 11dd 483d
000002f0: 75d6 7d3b 5356 383e c6d5 02bd 1e2a aa3d
00000300: 7dba af3d e4ef 443e 6313 ae3d c3ad 1d3e
00000310: 1640 8d3d 6a35 0f3e c9d6 0f3e a0f9 823d
00000320: 0459 d33d 12a5 06bd 9c40 ea3d dcd6 3ebd
00000330: 73a4 be3d 121c 573d 1140 0f3e f359 763d
00000340: f2d7 083e 23a1 85bd 5b8f 633d d2d3 783c
00000350: 9194 2d3e fca1 01bd 4bb2 17be 6a01 fd3d
00000360: 9a22 4fbc 4d23 24bc 34bb 093e db9b 153e
00000370: ed9e d13d 4706 0e3e 0d41 9d3d 73fc 99bd
00000380: 8ed7 0b3d 8a1f 9fbc 887b a0bd 5d0a e83d
00000390: 6266 5b3c abd2 cf3c 5737 303d bb32 f63c
000003a0: 16e8 82bd 0c5b 92bd 4e7b df3d 299c 4b3d
000003b0: 6684 e8bd 1608 c5bd 6899 d1bd bc37 f6bd
000003c0: e5ed 9e3d 8cbd 74bd ad8a 073d bb53 dc3d
000003d0: 9865 b43d 0d4f ae3d 07c6 fd3d de83 c9bd
000003e0: f10c d5bb eb49 0d3d b963 a93d 719c 57bc
000003f0: d776 053e a0c5 9b3d f9ba 66ba 5498 343d
-0.011174207 0.064366914 0.0118969 0.13706832 0.045152273 0.064202376 0.055060606 -0.0032160594
0.014256164 -0.12694299 -0.03528401 0.17411622 0.09507706 0.15514968 0.15647277 -0.0024847006
0.0010226925 0.022617396 -0.13889125 0.00654234 -0.07484311 0.089063846 0.0030595805 -0.0350529
-0.049859885 0.029095426 0.116395354 -0.021259472 0.04370609 0.12141696 0.0076826545 -0.05200265
0.09404781 0.1382819 0.010905286 -0.16005793 -0.023294838 -0.02354716 -0.05359032 0.07614947
-0.09057947 -0.0002646411 -0.15794972 0.022606747 -0.08625363 -0.007174984 0.019975897 0.11115034
0.1772598 0.18005632 0.049159188 0.16735674 0.19135258 0.13489622 -0.045401648 0.098126546
0.025853122 -0.111469746 0.09349063 -0.021061894 -0.099920005 0.014347257 -0.07125679 0.121102735
-0.016875617 -0.087803416 0.082368724 0.098165534 0.001540311 0.0074460087 0.16753422 0.10029829
-0.0041297777 0.13394544 0.0050304183 0.10162682 0.057076808 0.12593435 0.13682322 0.08652057
0.01253487 0.0036349783 0.10965996 0.12695955 -0.09598743 0.030334817 0.032205507 0.011392917
0.07824691 -0.0482411 0.084153764 0.04032509 0.06209431 0.0139382435 0.15027504 0.08546564
0.11939758 -0.003046753 -0.08279282 0.12010143 -0.12413223 -0.033154566 0.037736945 -0.021806013
0.069701724 0.064430095 -0.07133387 0.0010946466 0.18845312 0.027327964 0.041503634 0.1500237
-0.031134758 0.02226147 0.19097309 0.11233075 0.15018028 0.09289144 0.08496152 -0.06828978
0.029616375 0.06402564 0.08823622 -0.10186078 -0.005281834 -0.016677206 0.025085907 -0.10195953
0.14622138 0.08980138 -0.06853913 0.10797974 -0.032926314 0.06865052 0.19266209 0.12620258
-0.10222024 -0.033729225 0.10284923 0.12660848 0.13914846 0.06804181 0.1767268 0.16233161
0.064287975 0.10348316 -0.082912214 -0.10094231 -0.20613706 0.15654701 0.10031485 0.09173589
0.027711432 -0.07603087 0.10365398 -0.0009731104 -0.095586 0.09561604 0.099994324 -0.10471771
0.07950682 0.0062189535 -0.0822368 0.055638205 -0.077126265 0.046242278 -0.09310429 -0.13392113
-0.094293796 -0.09412162 -0.053647205 0.1914766 0.011945672 0.17765868 0.020582398 0.15540868
0.076034114 0.046628606 0.19259128 0.025553746 0.05256791 -0.019644042 0.106355466 0.03888967
0.035300545 -0.113536075 -0.030563256 0.04903895 0.0038732563 0.1800168 -0.03194215 0.083088145
0.08580492 0.19232136 0.084997915 0.15398316 0.06896989 0.1398522 0.14046778 0.063952684
0.10319713 -0.032872267 0.114381045 -0.046591625 0.0930871 0.052517004 0.13989283 0.060144376
0.13363627 -0.06524875 0.055556636 0.015187221 0.16951205 -0.03164862 -0.14814107 0.12353785
-0.012642527 -0.010018182 0.13450319 0.14610235 0.10235391 0.13869582 0.07678423 -0.07518854
0.034141116 -0.019424219 -0.07836062 0.11330102 0.013391109 0.025369009 0.043021526 0.030053487
-0.06391923 -0.07146272 0.109121904 0.049709473 -0.11353378 -0.09620683 -0.10234338 -0.12022349
0.077602185 -0.05975108 0.033091236 0.10758158 0.0880844 0.085111715 0.12391286 -0.09839605
-0.006501787 0.03449432 0.08270974 -0.013159857 0.13033615 0.07606053 -0.0008801665 0.044090584

conv_a_0.bias f4 [16]
00000000: 8e54 ea3d c193 373e b5fe 903d 12ae 093e
00000010: eebc dc3d 8392 483b 7550 a33d 5da2 7dbd
00000020: 5892 653b 2707 c13c 537e e33d 8802 a93d
00000030: 21c2 a73d 8c79 393e e31c ae3d 3f08 0b3e
0.11441909 0.17927457 0.070798315 0.13445309 0.10778223 0.0030604906 0.0797433 -0.06192242
0.0035029855 0.02356298 0.11108079 0.08252436 0.08191324 0.18112773 0.085016035 0.13577364

conv_a_1.weight f4 [16, 16, 3, 3]
00000000: f993 cf3d 9559 8f3b 86a2 6e3d 217c 4f3d
00000010: eeb8 063e 41fa 273d 98f8 183e 5a4e b13d
00000020: 57d6 243d 9a35 043c 6cf0 e23d 7382 d33c
00000030: 72aa 093e 4cc8 d23d 296e eb3d 459b 833d
00000040: f8f1 913d bd09 e73d 1d25 afbb 2f67 fd3d
00000050: 1df1 403d e054 ee3d a267 263c 8bc1 40bc
00000060: 0cf6 e83d 3e81 ba3c e1d4 793d b3f9 643d
00000070: 4b68 963d 1398 20bc 8b33 9bbc fea1 1cbd
00000080: dbdc 4d3d 97f3 e43d e62e d93d c4b6 1ebd
00000090: cefe a73d e914 94bc cfaf cc3d 7871 143e
000000a0: 522a 4d3d f242 0e3e a3fd 1a3e 3214 073d
000000b0: 1241 e8ba 6b09 7b3d 4e8e 0c3d 6d94 b23b
000000c0: c379 c33d b711 8c3d fa24 04bd 507c f43d
000000d0: fb63 833d 2afb 1fbc e0fc c93d a7fa fdbb
000000e0: d598 98bc 2af1 013e b603 c73d f624 183d
000000f0: 6639 3a3d 147c af3d f478 763c de91 debc
00000100: f5f7 2fbc 4ee6 dd3d dcdb 8a3b bbef 6dbb
00000110: 77d9 993c 883b a33d 4ca4 ecbc e965 923d
00000120: de68 58b9 2c15 963b 95ab 2f3d 6b4b 143d
00000130: b102 d53d 1805 383d 9e8d d9bb fd21 d63a
00000140: 42a6 883d 0480 3e3d e3c8 4dbd 9dd7 d33b
00000150: c8d2 a03c d0d1 453d 1a35 94bc 6a92 b13c
00000160: 5ed8 e43d fba2 81bc 54b5 3e3d bf78 ac3d
00000170: f6e0 e4bc 75be a43d df17 763d e953 2cbd
00000180: 9084 04bd 1d76 cf3a b955 afbb 94df f13c
00000190: c5bc 11bd 1f03 ff3c 50a0 47bd a634 bbbc
000001a0: 84b2 73bd 89bf 83bc 261f 82bc de6f a63d
000001b0: c390 a43d 4890 d63d 8632 003d 8a8b db3d
000001c0: b5ad 063e 4ce7 533d 98ae a73d 5a4b 36bc
000001d0: b0b5 a23d cbce 603d c834 323d 0c07 b43d
000001e0: 51e6 913d be01 1fbc 9a61 2bbb 6bc0 f43d
000001f0: e05d 723d fb01 ee3d cd1e 903c 2bf1 173d
00000200: 4e6e b43d 7292 f73d 26f1 fd3d ec2e df3d
00000210: 7937 d2bc 7189 8f3d 3d1a b23d d05e ad3d
00000220: c2e0 a43c 7380 063e 94a8 1f3d c13f 453b
00000230: b891 b23d 779a c7bc 52cd 3bbc c6eb 1b3d
00000240: 25e7 363d cc44 28bb 5faa a13c 65e3 b33d
00000250: f6a6 ee3d 6fc9 073e beee d53d 383b 493c
00000260: cdad c9bc da81 a8bc e8b6 6d3d 3d34 e93d
00000270: 5743 7ebc 5abd 8d3d 48f1 dd3d 70a0 0b3c
00000280: d282 aa3d 4857 223d 68ab f23c b77b d33d
00000290: 211c f039 01c4 8a3d 45b0 b83d 3a8d 163d
000002a0: b387 063c fbb7 133d 63e9 c6bc 3e6e 5a3d
000002b0: 72ce ff3d 9495 913d 2bbf bb3c 6822 043b
000002c0: e561 9b3d c3f4 d83d 0ee7 063d 92fc ce3d
000002d0: 71d7 583a 0448 e53d 964e c93c ece5 873d
000002e0: 8011 4e3d 85d7 bc3d 0048 3abc 865d 5dbc
000002f0: 6d0f 4a3d 3e37 e3bc 82b4 893d c41a ccbc
00000300: dd35 423d 48ce 663d e9af b03c f2da 8dbc
00000310: 4fb1 9a3d 92a2 8f3c 9b8a ce3c e454 ed3d
00000320: 5f91 183d 293a f23b 6ed0 a43c 10f0 b73a
00000330: 8293 cf3d a6a7 74bb 3f73 073d fde8 3d3d
00000340: c42f b6bc cdc9 1a3d 03fb 263d 2587 cf3d
00000350: 9184 ec3c d86b 253d da45 943c 7306 4fbd
00000360: a71f d13d 7e8d 473c b9af 953d b085 37bd
00000370: 1d74 273d 3643 5e3d 6637 e93c 2122 d13d
00000380: ba5f d63c 80d2 c23d 98a5 e23c b58c 363d
00000390: afed b63d 4076 b03b 87b8 05bc 5ce3 a13c
000003a0: dd33 a43d 489e 573d 3376 f5bc 1d57 c33d
000003b0: b86f 2a3d e820 f7bc d032 a2bc 3d0a b43c
000003c0: 0fb2 13bd dab3 0dbd 9982 303d 806e 45bc
000003d0: 2928 5b3d c83c 943d 1f11 92b9 cec9 af3c
000003e0: 303d e43d fcfe 2e3d 6c7c f83d 22bc b63d
000003f0: 6d06 d8bc 218c e5bb 904f 8b3c acd1 c13d
0.101356454 0.0043746927 0.058260463 0.050655488 0.13156483 0.041010145 0.14938581 0.086575225
0.040243473 0.00806942 0.11081013 0.025819039 0.13443926 0.1029211 0.11495621 0.064261
0.0712623 0.11281154 -0.0053450004 0.12373196 0.047104944 0.11637282 0.010156544 -0.011764894
0.11375055 0.022766706 0.060994033 0.055902194 0.07344111 -0.009801882 -0.018945476 -0.038240425
0.050259452 0.111792736 0.10604648 -0.038748518 0.08202897 -0.018076377 0.0999447 0.1449641
0.050089188 0.13892725 0.15135817 0.032978244 -0.0017719588 0.06128828 0.0343154 0.0054498226
0.095447086 0.06839316 -0.032261826 0.11937773 0.06415554 -0.009764472 0.09862685 -0.0077508274
-0.018627563 0.12689653 0.09717505 0.037144624 0.045464896 0.08568588 0.015043486 -0.027169164
-0.01074027 0.10834943 0.004237635 -0.003630622 0.018780453 0.07970339 -0.028886937 0.07148344
-0.00020638431 0.0045801606 0.042888243 0.036204737 0.10400904 0.044926733 -0.0066391965 0.0016337034
0.06672336 0.046508804 -0.05024041 0.006464912 0.019631758 0.048295796 -0.018091727 0.021676261
0.11174081 -0.015824785 0.046559647 0.08421468 -0.027939301 0.08044139 0.06008136 -0.04207221
-0.032352984 0.0015828047 -0.005350795 0.029525556 -0.035580415 0.031129418 -0.04873687 -0.022852253
-0.059496418 -0.016082542 -0.015883993 0.08126806 0.080354236 0.10476738 0.031298183 0.10719974
0.13152201 0.051734254 0.08187598 -0.011126364 0.079448104 0.054884713 0.043507367 0.087904066
0.071240075 -0.009705005 -0.0026150704 0.11950763 0.059171557 0.116214715 0.017592812 0.03709523
0.088101014 0.12088479 0.12399511 0.108976215 -0.025661217 0.07008637 0.08696411 0.0846535
0.020126704 0.13134937 0.038979128 0.0030097815 0.087192 -0.024365647 -0.011462526 0.038066648
0.04465403 -0.0025675772 0.01973456 0.087836064 0.11652939 0.13260435 0.10445927 0.012282185
-0.024619007 -0.02056973 0.05803576 0.11386917 -0.015518985 0.069208816 0.10837036 0.008522138
0.08325733 0.03963402 0.029622748 0.10326331 0.00045797325 0.06775666 0.09017996 0.036755778
0.008211064 0.03606413 -0.02428121 0.05332779 0.12490548 0.07108608 0.022918304 0.002016211
0.07587031 0.105935596 0.032935195 0.10106768 0.00082718494 0.111953765 0.024573606 0.06635651
0.050309658 0.092207946 -0.011369705 -0.013511067 0.049331117 -0.027736302 0.06723882 -0.024915107
0.04741465 0.05634907 0.021568255 -0.017316315 0.0755335 0.017533574 0.025212577 0.11588457
0.03724801 0.007392187 0.020118918 0.0014033336 0.10135557 -0.0037331372 0.03306889 0.046364773
-0.022239573 0.03779011 0.040766727 0.10133199 0.028871806 0.04038605 0.018099714 -0.05054326
0.10211115 0.01217973 0.07308907 -0.04480523 0.04088222 0.054263316 0.028468799 0.10211588
0.026168693 0.09512806 0.027666852 0.044567782 0.08932053 0.0053851902 -0.0081616705 0.019761734
0.08017705 0.052641183 -0.029963588 0.095381 0.04161045 -0.030167058 -0.01979962 0.021977538
-0.03605848 -0.034595348 0.043093298 -0.012050271 0.053505097 0.072381556 -0.00027860046 0.021458533
0.11144483 0.04272364 0.121331066 0.08922602 -0.026370252 -0.00700523 0.017005712 0.0946382

conv_a_1.bias f4 [16]
00000000: 58c1 2abc c203 013e 523e 2cbc a0ac c43d
00000010: 9956 ee3d 6290 ec3d 4885 433d 4ad7 943d
00000020: b0ff ccbc d7e2 bf3d 5186 453d 1321 75bc
00000030: 4b6c c23c 11c1 b43b e342 54bd 76ca 62bd
-0.010422073 0.1259909 -0.010512905 0.09603238 0.11637611 0.11550976 0.04773453 0.07267626
-0.025024265 0.09369438 0.048223797 -0.014961499 0.023733279 0.0055161794 -0.0518216 -0.055368863

linear_a_0.weight f4 [16, 576]
00000000: b0b6 ef3c ab0f ab3c 0633 d93c ce44 22bd
00000010: 93a5 ad3c e080 b9bc 43af 1f3d f04a c8bc
00000020: 46fa 093c ab66 1cbc 13c8 cf3c 8bd2 903b
00000030: 9bb2 0a3c 8b6e aabc 2840 ce3c 6e50 083d
00000040: 3616 eebb b80d b1bc 9b79 84bc 2067 1cbd
00000050: 181a 0bbd c00f 1ebc b6bc 8c3b 382f 95bc
00000060: db6f bfbc 2602 68bc 00f2 243a 4bd2 19bd
00000070: 2ea2 e83c c00d 9b3c 1bc9 583c d752 14bd
00000080: b0df 1dbc 72ad 163d 0097 c33a eba2 153b
00000090: c643 a2bc d62f 41bb f07a d13c ae1b 1fbd
000000a0: 2b46 62bc 0023 7d3a eb94 5fbb e73d 133d
000000b0: 46c0 f0bc e4fd 24bd 4085 133d b0aa 1bbd
000000c0: 2b59 f83a 6069 753c 08bb 25bd 709b 513c
000000d0: 6023 25bd 400d 05bc 87e9 223d 40e7 af3b
000000e0: 4bf8 9d3b abb9 f93a 1b6c 883c 8b04 febb
000000f0: 5030 d93c 0081 7e3a ebe0 9b3b cfb9 133d
00000100: c6a1 173c 1329 b8bc fb79 453c c0cf 74bc
00000110: 532b eebc bac4 1d3d a61b db3c 36b4 283d
00000120: e33f af3c d6dc 75bc 06a2 5abc ebe9 81bb
00000130: ced4 ccbc 2b2f b3bc 26d4 163c 9336 0a3d
00000140: 9f35 063d 3f2f 073d a243 1c3d 7ed0 183d
00000150: 237d dc3c 36be 023c f069 c0bc e6e2 803c
00000160: f6d7 de3b 7608 503c dfe2 1f3d 1e01 c4bc
00000170: 3093 283c d697 babb 4676 a03c d300 cfbc
00000180: 702d 00bc ee97 20bd 964f 7abb 73b2 d2bc
00000190: 607b dfbb 630c 853c 0045 143a 64d8 1f3d
000001a0: 6e3f cebc 068a 9f3c d872 8bbc d693 f1bc
000001b0: 13a6 02bd eb56 84bc f374 e9bc 2e1d b3bc
000001c0: f462 24bd 330a a2bc e325 893c d3e5 a53c
000001d0: 86f4 2ebc fea4 e8bc abd0 45ba f071 a23c
000001e0: 678f 0f3d 60ae cc3c 00b4 78b9 20c8 4f3c
000001f0: 16c7 263b 70bc 76bc db33 513c b3d1 eabc
00000200: f8e5 b2bc 569d 163a 47ec 0f3d d626 fbbc
00000210: bb4a 283c 734c 21bd a453 0c3d 284a e3bc
00000220: e3c0 c6bc 8073 ff3a 666d 89bc bbd3 2fbc
00000230: 4018 863b 36f6 fabc 2e69 1d3d 000e 623a
00000240: 0014 a53b eb04 8b3b 9b97 953c 0332 e4bc
00000250: b650 d6bc 769f adbc 54b7 263d ef19 14bd
00000260: 7644 f33b 7bd2 e53c 9b43 c93c b391 c5bc
00000270: 6623 a03c 5322 b2bc 2b6f 3c3c 4b2c bf3b
00000280: ab13 72ba 762b 9e3b 802c 00bb 0077 893c
00000290: 2b19 54bb 5423 093d cbcd d5bc cbc0 e93b
000002a0: c0e2 7abc 8465 0fbd f68c 8c3c 8005 22bc
000002b0: 6bf2 783c 0be3 983c 9390 b0bc d06b b4bc
000002c0: be14 a73c c0a4 f5bc de15 003d 5663 d63c
000002d0: e329 8fbc 3b15 4cbc 1608 4fbb 5631 de3a
000002e0: d65e 18bb 565b 77bc 9e30 9cbc c3e5 1f3d
000002f0: aaed 21bd 08c7 cebc 5637 d8bb abeb 913b
00000300: 03f0 ee3c bbe8 253d 9692 e7bb 00a6 3e3a
00000310: cc9d 273d ffe8 01bd 9b58 b4bc 766a 193d
00000320: eb12 09bc 08a7 c8bc 30ce 233c 8b32 43bc
00000330: f6cb 4e3c 4c36 103d a386 8fbc 6009 4d3c
00000340: 5ec3 183d 567d 50bb 5677 43bc 4e2e 0e3d
00000350: f488 073d a3aa ca3c 90b0 733c 6bea 883c
00000360: 1835 97bc 10b7 9bbc 0648 66bc 3364 27bd
00000370: 163b c43b 8b1b b3bb b306 803c b3ee 18bd
00000380: 7353 eb3c d60b 25bd 2b6e f13b 7331 073d
00000390: 3642 633c c691 193d 90e2 5abc f813 cb3c
000003a0: 2096 f83c b20a 21bd abe8 5dbb 08a6 f23c
000003b0: 1634 48bc 1696 0d3b f0e1 833c 3b04 90bc
000003c0: 788d febc 3612 883c 40b0 edbc ab43 86ba
000003d0: 0b13 633c 57cb 05bd 3840 c0bc b83b b93c
000003e0: 8b05 0d3c 9398 b33c 4bab 043d 93bd 26bd
000003f0: abd8 bdbb e39d e5bc 9a0d 09bd 9b01 3bbc
0.029261917 0.020881495 0.026513588 -0.0396164 0.021197116 -0.02264446 0.038985502 -0.024449795
0.008421486 -0.009545962 0.025363958 0.00441963 0.008465434 -0.020804664 0.025177076 0.03327983
-0.0072658313 -0.021612987 -0.016171267 -0.038184285 -0.03396043 -0.00964731 0.004294957 -0.018210992
-0.023368767 -0.0141606685 0.00062921643 -0.037554067 0.028397646 0.018927455 0.013231541 -0.036211815
-0.009635851 0.036786504 0.0014922321 0.0022832702 -0.019807708 -0.0029477975 0.025571316 -0.038844757
-0.013810675 0.00096563995 -0.0034115862 0.035947707 -0.029388558 -0.04028119 0.03601575 -0.038004577
0.0018947473 0.014978737 -0.04046157 0.012793407 -0.04031694 -0.008120835 0.03977349 0.0053681433
0.0048208586 0.0019052526 0.016653111 -0.0077520064 0.026512295 0.00097085536 0.004757037 0.036065873
0.009254878 -0.022480523 0.012053008 -0.01494211 -0.029073393 0.03851769 0.026746582 0.041187488
0.021392768 -0.015006265 -0.013344293 -0.003964653 -0.025003817 -0.021873077 0.009205854 0.033743452
0.03276598 0.03300404 0.038150437 0.03730821 0.026915139 0.00797992 -0.023488015 0.015733194
0.006800647 0.01269733 0.03903472 -0.023926314 0.0102889985 -0.00569437 0.019587647 -0.025268948
-0.007823333 -0.03920739 -0.003819441 -0.025719857 -0.0068201274 0.016241258 0.0005656034 0.039024726
-0.02517673 0.019474994 -0.017022535 -0.029489439 -0.031896662 -0.016154727 -0.028498149 -0.0218645
-0.04013343 -0.019780254 0.016741699 0.02025119 -0.010678416 -0.028398987 -0.00075460476 0.01982972
0.03504887 0.024985492 -0.00023718178 0.012681991 0.0025448254 -0.015059575 0.012768711 -0.028664446
-0.021838173 0.0005745491 0.03513744 -0.030658167 0.010271723 -0.03937955 0.034259453 -0.027745321
-0.024261897 0.0019489378 -0.016775798 -0.010731633 0.0040922463 -0.03063498 0.038430385 0.0008623302
0.0050377846 0.0042425296 0.018260768 -0.027855879 -0.026161533 -0.021194201 0.04070218 -0.036157545
0.0074239327 0.028054466 0.02456837 -0.024117326 0.01954813 -0.021744883 0.011501114 0.0058341376
-0.0009234498 0.0048269583 -0.0019557774 0.016780376 -0.0032363634 0.033480957 -0.026099106 0.0071335784
-0.0153128505 -0.035008922 0.01715706 -0.009889007 0.015194516 0.01866295 -0.021553313 -0.022024065
0.020395633 -0.029985785 0.031270854 0.026170414 -0.017476028 -0.012456234 -0.0031590513 0.0016951959
-0.0023249886 -0.01509746 -0.019066151 0.039037477 -0.039533295 -0.02524139 -0.0065983934 0.0044531426
0.02916718 0.040505152 -0.007067035 0.0007272661 0.04092197 -0.031716343 -0.022014907 0.037455045
-0.008366327 -0.02449371 0.009997889 -0.011913906 0.01262187 0.03520803 -0.017520254 0.012514442
0.03729569 -0.0031812987 -0.011930307 0.03471213 0.033089593 0.024739569 0.014873639 0.016713342
-0.018457934 -0.01900819 -0.014055258 -0.04086704 0.005988489 -0.00546593 0.015628194 -0.037337016
0.028726315 -0.04029449 0.0073678694 0.033006143 0.013870766 0.037492536 -0.013359681 0.024789795
0.030345023 -0.03931684 -0.0033860605 0.029620185 -0.0122194495 0.002160435 0.016098946 -0.017580142
-0.031073317 0.016610246 -0.029014707 -0.0010243555 0.013859521 -0.032664623 -0.023468122 0.022611484
0.008607279 0.021923339 0.03238992 -0.040708136 -0.005793651 -0.028029388 -0.033460237 -0.011413957

linear_a_0.bias f4 [16]
00000000: e892 fabc e7b4 a33c 3925 c63c 326d 17bd
00000010: a78f 043d c6d2 d23c aa95 e53b 967a 8e3c
00000020: c707 00bc e33c 933d 43ff 04bd 29a7 bfbc
00000030: 7811 6f3c 0470 6d3b 4778 4b3d 6a34 753d
-0.030587628 0.019983722 0.024187671 -0.03696937 0.03236356 0.02573527 0.0070063667 0.017392438
-0.007814354 0.071893476 -0.03247 -0.023395138 0.014591567 0.0036230097 0.049675252 0.05986444

GRU_a.weight_ih_l0 f4 [48, 16]
00000000: f67f 233e ff97 91bd f7bc f83d a544 453c
00000010: 4c9b bc3d 2217 49bd 8370 9fbc 0bfb 0ebe
00000020: d331 3ebe d88c 34bd fa6b 99bc 84b4 3abe
00000030: 6e82 d1bd 696d 32be 090f 9d3d d2c8 1dbe
00000040: 4431 d4bd 01bf 40be 7a01 0c3e 9fb1 e93d
00000050: 3c46 b83d bfd0 06be b6ca 1b3e 1fbc febc
00000060: c55c 283e d91b 923d bb12 fabc 51d8 9a3d
00000070: 86ea 5b3e 7263 343d 9d7c b9bc 520e 2d3e
00000080: 60f6 a5bc 0eab 6c3e 0a2a c13d 7166 a93d
00000090: 799f d0bd 6dd0 0b3e c073 cfbd 2774 70be
000000a0: 5dfa 5c3e 545c 6fbd 7838 b0bd e5a6 a9bc
000000b0: a433 4b3d 806c b0bd 8037 ca3d b1f9 273d
000000c0: 60a6 9e3c a1b4 2ebe 97ff 71be 16d2 0b3e
000000d0: 5261 a3bd dcaa 8fbd e88e f43d 4484 5dbe
000000e0: 94f8 923d 1781 27be dfe4 47be ce48 633d
000000f0: 5435 703e abe0 6a3e a296 54be 9d1e 253e
00000100: 4855 50bd 770f f93d 102c 613e 2949 0e3e
00000110: d7da 2a3e 2d81 513e b824 a2bd 38bf 763e
00000120: 097a f7bc a239 00bd 3827 37be 540d d53d
00000130: c116 7abd cd34 633e 04b8 543e 2a1a 51be
00000140: 70ab 19bd 0da0 61be 2f0c 763e ce47 64be
00000150: a3ea ea3d 5ff8 0b3c 3500 23be 9187 05bd
00000160: bddd 26be 387c 32be 8bff df3c 653b 66be
00000170: 288a b3bb 7350 4dbe 265e 95bd 591a 8a3d
00000180: 88bd 583d f077 15be 0f8c b93d f8a6 d33d
00000190: af97 603e a924 593e 1b64 21bd 9ab6 403d
000001a0: dbe0 9b3d a42d 3a3e 6f0e 1c3e ae5f 04bd
000001b0: 9058 913c 9f25 48be 0cf0 ee3d 09ef 733e
000001c0: e0f8 993c 1091 65be b412 92bd f3b6 023e
000001d0: 58b8 2dbe 133b 89bb 1d4b 2cbe ca7b 023e
000001e0: 98eb adbd f731 d23d 658b 223d 3ccb 0d3e
000001f0: 828c 3cbe 6445 31be 58db 993b 83e4 a1bd
00000200: 94ad 81bd c283 3b3d 1b9f 803d 41fd e1bd
00000210: 19e9 9f3d 5424 59be be9a 193e 625a 38be
00000220: 09b5 173d 05fb d0bd df2a 813c a61b babd
00000230: 3a7a 173d 019d 6a3e cf19 e43d eeab 6dbe
00000240: 94e9 b8bd f8b0 b53c 5f60 323e bb7a f83d
00000250: 42a7 7d3e 2d7c d43c 1630 2fbd f64f b53c
00000260: e015 07be 4b0e 803e b815 20be 79f2 3e3d
00000270: d5fa e1bd 0510 85bd 4f5c 72bd 2b65 1cbe
00000280: f427 c0bd b300 863d 4238 bb3d 50d7 56be
00000290: fc95 38be 2afa d73d 2071 8d3c 1ad8 1abd
000002a0: 9b31 073d caf8 003d e033 45be 17c5 62be
000002b0: 56db d5bd 9d7b 5ebe 98bf b7bd 8cb9 d53d
000002c0: 00e6 e5bd 4d9a 17be e0e9 6bbe 342b 3ebe
000002d0: b9dd 5abe 2888 6bbe 9163 6bbe 6ed9 7cbe
000002e0: 4833 6e3d 8eda 70bd 2dfa 48be 9da1 4c3e
000002f0: 4e7e 293e ec64 4a3c cbdb 863d 91c1 2bbe
00000300: 2cad 01be dbc7 0c3e d16d 34be 2c1c 1a3e
00000310: a95f 443c 1be4 333e 59c7 f23c 0919 a0bc
00000320: b908 2d3e fa8f 82bd b283 40be 99d1 0dbe
00000330: 0c11 823e 175c 3bbe acad 443b aa03 cabd
00000340: dc2b 51be 6a1f 5dbe 8f9b 0fbe 2779 5c3e
00000350: 5741 413e 20a9 5f3e 8288 003c 827d 47bd
00000360: 2d20 30be 8393 16be 7ed7 c53d 3ace ebbd
00000370: 07a5 b03d fba9 bfbd e57c 7cbe d587 5b3e
00000380: 0898 fbbd 8c0b 9fbd d6a4 7bbe f2c9 0cbe
00000390: dacc b83a 91be 143e 9722 14bd 63de 12bd
000003a0: fba6 4bbe 1933 06bd e8b2 7cbe 2021 2e3d
000003b0: 4de5 b7ba 170f b43d a89e 953d 149f 79be
000003c0: 3818 5dbe ca6a 97bc 462a 86bd 1569 7a3e
000003d0: c5f2 893d 9644 52bc 27d3 2b3d 563e a03d
000003e0: 8479 f0bd 24e8 1fbe 9c55 8b3c cb76 d938
000003f0: 71f5 303d 74ec e73d 8913 3e3d c992 58be
0.15966782 -0.07109069 0.12145417 0.012040292 0.09209308 -0.049094327 -0.01946283 -0.13962953
-0.18573694 -0.04407963 -0.018728245 -0.18232924 -0.102299556 -0.17424549 0.07668883 -0.15408638
-0.10360959 -0.18822862 0.13672438 0.11410832 0.08997771 -0.13165568 0.15214047 -0.031095563
0.16441639 0.07134218 -0.03052651 0.0756079 0.21476182 0.04404015 -0.022642428 0.16899994
-0.020259082 0.23112127 0.094318464 0.08271492 -0.10186667 0.13653727 -0.101294994 -0.23481809
0.21579881 -0.05843766 -0.086045206 -0.020709464 0.049609795 -0.08614445 0.09873867 0.04100961
0.019366443 -0.17061092 -0.23632656 0.1365436 -0.07977547 -0.07015011 0.1194132 -0.21632487
0.07176319 -0.16357838 -0.19520901 0.055489354 0.23457843 0.22937267 -0.20760587 0.1612496
-0.05086258 0.12161153 0.21989465 0.13895096 0.16685043 0.20459433 -0.0791716 0.24096382
-0.030209558 -0.031304963 -0.17886055 0.10402933 -0.061056856 0.2218811 0.20773321 -0.20420137
-0.03751701 -0.22033711 0.24028085 -0.22293016 0.11470535 0.008543103 -0.15918048 -0.03259999
-0.16295524 -0.17430198 0.027343532 -0.22483595 -0.005479116 -0.2005022 -0.07293348 0.06743307
0.052915126 -0.14596534 0.09059917 0.10334581 0.21932863 0.21205391 -0.03940211 0.047049142
0.07611247 0.18181473 0.15239881 -0.03231781 0.017742425 -0.19545601 0.11666879 0.23821653
0.01879543 -0.22418618 -0.071324736 0.12765102 -0.16964853 -0.0041879504 -0.16825528 0.12742534
-0.084922016 0.10263436 0.03968372 0.13847059 -0.18412974 -0.17311627 0.0046953373 -0.07904913
-0.063319355 0.04577995 0.06280347 -0.110346325 0.07808132 -0.21205264 0.15000436 -0.18003228
0.037037883 -0.10204128 0.015767513 -0.09087305 0.0369818 0.22911455 0.11137735 -0.23210117
-0.090289265 0.022179112 0.17419575 0.12132784 0.24770835 0.025938118 -0.042770468 0.022132855
-0.13191938 0.25010905 -0.15633285 0.04661796 -0.110341705 -0.06497196 -0.059170064 -0.15272968
-0.093826205 0.06543102 0.0914159 -0.20980573 -0.18025964 0.10545762 0.017265856 -0.037803747
0.03300629 0.031487264 -0.1925807 -0.22145496 -0.10442226 -0.21726842 -0.089720905 0.10435781
-0.1122551 -0.14804955 -0.23038435 -0.18571168 -0.21373643 -0.23001158 -0.229872 -0.24692318
0.058154374 -0.05880218 -0.19626684 0.19983526 0.16552088 0.012353163 0.06584891 -0.16773058
-0.12663716 0.13748114 -0.17620017 0.15049809 0.011985698 0.17567484 0.029636072 -0.019543188
0.16897859 -0.063751176 -0.18800238 -0.13849486 0.2540363 -0.18296848 0.0030010743 -0.0986398
-0.20426887 -0.21594015 -0.14024185 0.21530591 0.18872581 0.2184186 0.007845046 -0.048703678
-0.17199774 -0.14704709 0.096602425 -0.11513944 0.086252265 -0.09358593 -0.24657018 0.21438535
-0.12284857 -0.07765874 -0.24574599 -0.13748911 0.0014099136 0.1452582 -0.0361658 -0.035856616
-0.19887917 -0.032763574 -0.24677622 0.04251206 -0.0014030129 0.08791941 0.07305652 -0.2437709
-0.2159127 -0.018483538 -0.06551032 0.24454148 0.06735758 -0.012833735 0.041949417 0.0782439
-0.11741927 -0.15615898 0.017008595 0.00010369493 0.04320282 0.11324397 0.04640535 -0.21149744

GRU_a.weight_hh_l0 f4 [48, 16]
00000000: 3f98 0fbe 0dfd 043e 4d26 0f3e fc36 9dbb
00000010: 42ba 2b3e 4e6b 77be 009f 693e d8b9 2dbe
00000020: 53f0 483e 4054 2b3e fe82 f9bd 1828 133e
00000030: 5b7a 3b3d 5e36 29bd 7453 473c b89f 033e
00000040: a3da 75be a4a4 66be 5512 713b 03f6 84be
00000050: f4a9 2b3e 513e 2bbc 5d65 723e e9cd 583e
00000060: fc19 a5bd 447b 90bd e416 4f3e 2751 85be
00000070: 7ee7 3c3e e9cc 2c3e 609e a83c 13a0 003e
00000080: 087c 693e 8bd7 d7bd 18a4 313e 0a83 5d3d
00000090: 3990 5c3e 2f96 3b3d 4a01 5abe a0fe 3b3e
000000a0: 60bc eb3d a66f ebbd 1468 0c3d 6e0e 03be
000000b0: cf52 c83d 21a2 2cbd c9db ee3c d299 b8bd
000000c0: f3bf 36be ca20 f5bc b540 573e 7d1e 59bd
000000d0: 0f86 a13c 44c6 d3bd e71d a0bd 9c35 5bbe
000000e0: e02f fe3d c9ba 583e 04f8 883d d10c 593e
000000f0: cc03 1dbc eb08 c93d e60b 583e 1584 1fbe
00000100: e398 c6bd aabc fbbd 18de b9bd c72f 523c
00000110: e729 5abe b6cd debd 0cee 3f3e a892 c23d
00000120: 1803 eb3c a090 21be 3fde ccbd 0242 07be
00000130: c35e d1bc 6454 3fbc 3d9b 723e 6806 033e
00000140: cb07 723e 183d 873d af7c 4c3e e5b7 07be
00000150: 570a 0d3e 9e99 8dbe f563 97bd 418f ddbd
00000160: ae53 af3d 5679 2d3d 9c0e f2bd 5cff 1cbe
00000170: e20a 0d3d 72cb 5ebd 14d0 92bd 22d6 3ebd
00000180: 898e 51bc 6ecd efbd 5b8b 5f3e bd41 a5bd
00000190: 7bb9 a13d 1c06 38be 4095 c43d 37f0 f33d
000001a0: 5692 193d 1599 53bd 8fa8 92bd 36d9 89be
000001b0: 3a38 413b a42f 08be 2eda 593e 18ba 8b3d
000001c0: 86e2 46bc d9bf 50be 89b9 54be de4c 0f3e
000001d0: 0f19 7e3d a5e0 04be 1d5e f0bd e573 793d
000001e0: f736 18bd 5f81 313e 055a 803e e8fc 263e
000001f0: 3a23 1ebe a690 a3bd 6076 6bbe 6b03 c03b
00000200: 6bd3 4abe fd75 70be 08a6 58be c117 7bbd
00000210: 5328 80be eae6 c73c d9b4 21be fb30 1b3d
00000220: 36f0 273e bf79 683e 1afb 00bd 6040 003e
00000230: 0f3a 293e ea0c 79be 638f b8bc ac59 503d
00000240: 178b 76be 6ec9 b33c 8a3a 5f39 5a62 fdbd
00000250: 4b97 a7bd 3c46 c53d 44e3 31be 6f7f d8bd
00000260: 496b cabd 76c9 3c3d 8331 3cbe 6868 debd
00000270: f6b1 0d3d fd63 f23d ebe8 1bbe d229 bdbc
00000280: 4a4b 9bbd c85a 65be cabb 4a3e 98c4 1d3d
00000290: c43b ea3d eddf 1ebe 76c2 0fbe 82e4 d83c
000002a0: 3a36 883d 7a55 35bd 5f8b b63d cbe9 13be
000002b0: 2099 b2bd 3bc5 40bc 5d70 10be d3c0 07be
000002c0: ec18 0b3e 5f40 903d 1227 a8bd 76cf 57be
000002d0: 891b f13d 4ebb 8ebd 947a 5a3e 473c d7bc
000002e0: 6a07 d43d 85e7 883d 0603 34be 9fce 76be
000002f0: 5f1a e4bd f7da b53b d613 87bd 6f5c db3d
00000300: efe0 453e 153a 4a3e cdb4 2ebe ed2d 90bb
00000310: 2e62 ed3c 8fb2 7abe f74e bfbd 3f84 68be
00000320: 9720 9ebd 0ad0 26be 5914 c03d a4a7 e4bd
00000330: 9b60 72bd d4f7 61be 09b9 babc 8ea0 c73d
00000340: 3385 e8bd b5c8 f63d cf27 55be 4d59 4c3e
00000350: d945 04bd fb32 d0bd a4ed 0a3e ff14 44be
00000360: c542 58be 5b41 fcbd c54a f3bd dd26 cebd
00000370: 5abc a83c ce7d 5e3e 76a4 403d 5139 7a3e
00000380: 1711 233e e87e 283d db4f 8c3e 1cad 3bbe
00000390: bf4a 46be 617d 833e 66ac 0dbe 63b3 1f3e
000003a0: 4724 823e d26d 053e 7442 06bd 7023 7abd
000003b0: 1885 4fbe 5243 b8bd 7945 aa3d 26fe c1bd
000003c0: a377 233e 357e 413d 55f0 cabd a001 5abe
000003d0: 1fb0 1fbd 04cc 94bc c1f8 4bbe e672 8ebc
000003e0: 58a2 f4bb 4480 72bb 24d1 263e 82ab 8cbb
000003f0: 8afd 5fbe 8abd e83b 9115 423e ddff 173e
-0.14022921 0.12987156 0.13979454 -0.0047978144 0.1677027 -0.24162027 0.2281456 -0.16965425
0.19622926 0.16731358 -0.12183188 0.14370763 0.045770984 -0.041311614 0.012165893 0.12853897
-0.24009185 -0.22523743 0.0036784608 -0.25968942 0.1676405 -0.010451869 0.2367148 0.21172298
-0.08061597 -0.07054761 0.20223576 -0.26038477 0.18447682 0.16875042 0.020583332 0.12561063
0.2280122 -0.105391584 0.17347753 0.054080047 0.21539392 0.045797523 -0.21289554 0.1835885
0.11510539 -0.114959046 0.034278944 -0.12798473 0.097814195 -0.042146806 0.029157536 -0.09013714
-0.1784666 -0.029922862 0.21020778 -0.05300759 0.019717244 -0.103405505 -0.078182034 -0.21407169
0.12411475 0.21165003 0.0668793 0.21196295 -0.009583425 0.09816154 0.21098289 -0.15577729
-0.096971296 -0.12291844 -0.09075564 0.012828774 -0.21305047 -0.1087908 0.18743151 0.09500629
0.028687999 -0.15777826 -0.100033276 -0.13208774 -0.025557881 -0.011677835 0.23692031 0.12795413
0.23635785 0.066034496 0.19969438 -0.13253744 0.13773476 -0.27656263 -0.07392112 -0.10818339
0.085608825 0.042352043 -0.11819193 -0.15331787 0.034434207 -0.05439324 -0.07168594 -0.04659093
-0.012790331 -0.117091045 0.21830504 -0.08069179 0.07896706 -0.1797108 0.0959878 0.11911052
0.037493072 -0.051659662 -0.07161056 -0.2692353 0.0029482977 -0.13299423 0.21274635 0.06822604
-0.012138968 -0.20385684 -0.20773901 0.13994166 0.062035616 -0.1297632 -0.11736701 0.06090154
-0.037161794 0.17334507 0.2506868 0.16307414 -0.15443125 -0.07986574 -0.22994375 0.0058597825
-0.19807212 -0.23482509 -0.21157086 -0.06130195 -0.25030765 0.0244021 -0.15791644 0.03788851
0.16400227 0.22702692 -0.03148947 0.12524557 0.16526054 -0.24321333 -0.02252931 0.050866768
-0.24076496 0.021946635 0.00021288745 -0.12372275 -0.08183154 0.09632537 -0.17371851 -0.10571181
-0.09883744 0.046090566 -0.18378262 -0.10859758 0.034593545 0.118354775 -0.1522557 -0.02309123
-0.075827196 -0.22397912 0.19798198 0.038517565 0.11437181 -0.15515108 -0.14039025 0.026476149
0.06650968 -0.04427097 0.08913302 -0.14444654 -0.087206125 -0.011765773 -0.14105363 -0.1325715
0.13583726 0.07043528 -0.08210577 -0.21075234 0.1177283 -0.06969319 0.21335822 -0.02627386
0.103529766 0.06684784 -0.17579278 -0.24102257 -0.111378424 0.0055497843 -0.0659558 0.1071099
0.19324087 0.19748719 -0.17061158 -0.004400006 0.02897748 -0.24482177 -0.09341233 -0.22706698
-0.0772106 -0.16290298 0.09378881 -0.111647874 -0.05917416 -0.22067195 -0.02279331 0.0974742
-0.11353531 0.120500006 -0.20815967 0.1995594 -0.032293174 -0.10165974 0.13567215 -0.19148634
-0.2111922 -0.12317153 -0.118794955 -0.10066006 0.020597626 0.21727678 0.047031842 0.24435927
0.15924488 0.041136652 0.27404675 -0.18327755 -0.19364451 0.25681594 -0.13835296 0.15595774
0.25418302 0.13030174 -0.03277822 -0.061068952 -0.20265615 -0.08997215 0.08314032 -0.09472303
0.15963607 0.0472395 -0.09909121 -0.21289682 -0.03898632 -0.018163688 -0.19919111 -0.017388772
-0.007465642 -0.0037002722 0.16290718 -0.0042929063 -0.21874061 0.007102673 0.1895354 0.14843698

GRU_a.bias_ih_l0 f4 [48]
00000000: d269 b2ba 01f0 1bbe f253 983d 881b 443e
00000010: e71a b7bc 899f dbbd 7a35 913d 2901 693e
00000020: 3115 ca3a 2adc 7fbe ac2b c0bd 5f8c 163e
00000030: 8942 1d3e c916 20be 7691 4abe 3487 ddbd
00000040: bb92 95be 6e72 60bd 4f0e 80be a064 35be
00000050: 2db9 96be 4cde df3d 98e2 2fbe 0bca 71be
00000060: 86f4 de3d 803b dbbd 31bd 663e cb9a 39bc
00000070: ee28 ff3c 2935 20be 0159 1fbe 27a4 0cbe
00000080: aae6 74be 8244 41be fbb9 5cbe 72b8 d43d
00000090: ef8e 04bc 887d ec3c 25e6 803e a901 b33c
000000a0: 7ac5 fcbd 398c 3b3d d5d2 313e 9856 44bd
000000b0: 392a 8ebd 7a18 16be 6a48 8abe 9cca 843d
-0.0013611859 -0.15228273 0.07437886 0.19151127 -0.022351695 -0.10723788 0.07090278 0.22754349
0.0015417692 -0.2498633 -0.0938333 0.14701985 0.15357412 -0.15633692 -0.19782051 -0.108168036
-0.2921351 -0.05479663 -0.25010917 -0.17714167 -0.29438153 0.10931072 -0.17176282 -0.2361223
0.10886483 -0.10704708 0.22533108 -0.011328409 0.031147446 -0.15645279 -0.15561296 -0.13734494
-0.23916116 -0.1887379 -0.21555321 0.10386743 -0.008090719 0.028868452 0.25175586 0.021851378
-0.12342353 0.045788024 0.17365582 -0.047934145 -0.06941647 -0.14657775 -0.27008373 0.06483957

GRU_a.bias_hh_l0 f4 [48]
00000000: b818 5b3e 0a86 aa3d b09c 00be 20cc 203e
00000010: cb8f 8f3b a7f3 2a3e b5e4 de3d aff1 59be
00000020: 7345 0abb 4925 643e f9aa 58bd 2767 35be
00000030: 250c 36be 00eb 41bc 935a b5bd 60c8 983d
00000040: c0d3 a3bd efe0 3bbe eb79 f23c aa4b 83bd
00000050: 105e c93a ee25 a1be 19f6 9dbd 198d 013e
00000060: a4cc 383e 5cd5 85bd b497 53bd b21e 69be
00000070: bad0 56bd 1787 403e b52c 8cbd 3395 8ebd
00000080: 5cf9 5e3d 83be debd df90 373d b389 32be
00000090: e80b 763d 85ce 1b3e cf3d 563d fb77 cdbd
000000a0: 12d6 953d e046 3cbd 3f05 713e b2fe 75be
000000b0: 0a36 55be 57c0 153e 9f86 323e b863 6e3e
0.21396148 0.08326347 -0.12559772 0.15702868 0.004381155 0.16694508 0.10883466 -0.21283601
-0.0021098524 0.22279848 -0.052897427 -0.17715131 -0.1777807 -0.0118358135 -0.08855166 0.074600935
-0.079993725 -0.18347524 0.02959915 -0.06410916 0.0015363116 -0.3147425 -0.07712955 0.1265148
0.18046814 -0.06534836 -0.051658347 -0.22765616 -0.05244515 0.18801533 -0.06844465 -0.06962051
0.054437026 -0.10876181 0.044815894 -0.1743534 0.06006995 0.152155 0.05230504 -0.1003265
0.07316221 -0.04596603 0.23537157 -0.2402294 -0.20821396 0.14624153 0.17434166 0.23280227

linear_a.weight f4 [4, 16]
00000000: f092 e8bd f1e7 f9bc 604c 3e3e b499 7cbe
00000010: d58c cb3e b2e3 883d dae6 d33c b39c 893d
00000020: c432 9c3d 6ac9 e13d d240 303d 0450 f6bc
00000030: b679 4f3e 1653 53be 888b e6bd e5ea 87bd
00000040: da51 153e 3db6 c0bc 368c 1f3e 1903 493e
00000050: 2db9 03be 5de8 0c3e e3ce 9fbe d42f b6be
00000060: 348f 983d e41f c4be 38ac c4bd 3dc8 25be
00000070: a080 f1bc b628 6b3e 0e0a 713e ddc4 293c
00000080: 0066 1c3c 74eb d73d 84e4 2c3e 4de1 0e3e
00000090: ae08 76be 6a89 8abd cd16 9ebe 5e15 c0be
000000a0: 9822 d83d e6e3 babe 79b4 e7be d2a3 e93a
000000b0: b499 973d d00b 9bbe 0c59 04be d5de 6abd
000000c0: 8496 ee3d df03 1f3d b047 653d b33a 81bd
000000d0: 9158 953c c998 05bd 60d2 2a3e 8c68 7f3e
000000e0: 4f54 9dbd 99ef 4d3e bb4c 913e 7af6 dbbd
000000f0: 0090 51bd 82e7 3cbe f04c a03d d20a 5abd
-0.11356151 -0.030506106 0.18583822 -0.24668008 0.39755884 0.066840544 0.025866915 0.06719341
0.0762687 0.11024745 0.043030567 -0.030067451 0.20261273 -0.20637164 -0.11257082 -0.066365995
0.14582005 -0.023524398 0.1558083 0.19630088 -0.12863608 0.13760515 -0.3121253 -0.35583365
0.07449189 -0.3830558 -0.096031606 -0.16189666 -0.029480278 0.22964749 0.23538992 0.010361877
0.009545803 0.10542956 0.16884047 0.13953133 -0.24026749 -0.06764491 -0.3087677 -0.37516302
0.10553473 -0.36501998 -0.45254877 0.0017825312 0.074023634 -0.3028245 -0.12924594 -0.057341415
0.11649802 0.03882205 0.05597657 -0.06310024 0.018230708 -0.03261641 0.16681814 0.24942225
-0.07682096 0.2011093 0.28378853 -0.10740371 -0.05116272 -0.18447688 0.07827175 -0.053232975

linear_a.bias f4 [4]
00000000: da03 573e f0b5 84be eb15 08bd 0cc7 4d3e
0.20997563 -0.25920057 -0.033224028 0.20095462

conv_v_0.weight f4 [16, 7, 3, 3]
00000000: 8de5 2abc f012 9539 33d1 e93c ca5c 6ebc
00000010: 1406 85bb aef5 54bc 0648 2bbc 641c 1f3d
00000020: a684 5dbb fb2f 88bd 4464 34bc 3050 63bc
00000030: ac3c 10be f664 f33d 3448 9d3d d85f 503d
00000040: fdba f43d e72e e13d b102 0abe 2577 08be
00000050: 84e0 91bd 4116 29be 8209 fabc c708 f3bd
00000060: 0df0 01bc cb40 2dbd e4e6 1ebc d3de 653e
00000070: 4ff0 6f3e 0103 b03d 4e9f 363e 1b71 fc3d
00000080: e3bb 073e 3177 4f3e 8891 253e a535 9c3d
00000090: a3ec 5a3c 97e1 0abe 04c4 1cbe 42ac a5bc
000000a0: 52c6 63bd b9f9 0dbe 660a 43bb 9239 78ba
000000b0: 65f2 91bd 711a 05be f9e2 7f3d a056 b23d
000000c0: 4ffb 13bc 1f52 4d3c 0231 b3bd e351 f0bc
000000d0: ad5c 98bd d7f4 a83c e44c 21bd 54b0 0abe
000000e0: bb46 133d 8c03 c4bd bd13 c93c 433f 10be
000000f0: 86fc a73d cd1d 4b3c d083 acbd 8d18 67bd
00000100: 3879 763d 1814 a83d a6f2 67bd 7310 63bd
00000110: 60f8 47bd 92c6 b03c e366 71bb f068 f93d
00000120: 089f 61bd 72cd 65bd d94d 21bd a5fc e73d
00000130: 2525 69be b30b 113e 3831 cc3d f04f 233e
00000140: 7d1a b83d 8052 5fbe ff7a 58be 801e a5bd
00000150: b822 70be 5854 76be b835 53bc ae21 33bd
00000160: b302 0cbe 7c42 1ebe 6d8f b43d 73e5 833e
00000170: 050a 673e f208 013e 24f1 2e3e 8269 5e3e
00000180: f614 2f3e 4ce9 363e 8b1b c13c 6f0d 26be
00000190: d18a 313d 28d2 b1bd f957 1cbd a5b0 d8bb
000001a0: 7bad 513c 625a 04be 852d 2dbe 4559 16be
000001b0: 9c5b d9bb 43ab f8bd 493d 66bd 8e09 073d
000001c0: a42d 91bd 991b 053c bd34 91bd eb32 e53d
000001d0: b58e 3cbc 1954 413c ba80 dd3d 46d0 9d3d
000001e0: d83b b33d 7db9 443d 03de 8fbd 44b1 58bd
000001f0: a83f 80bb c08d 63bc a6c8 aa3d 06cf be3c
00000200: 1fd2 723d 7420 74bb d6c0 daba 4647 68bd
00000210: 0033 2ab9 b2fe d6ba be25 5fbb e3b2 fbbd
00000220: a3ef 02bb f5f9 9f3c f2a2 f03d f283 0cbe
00000230: afa2 3f3e 744d ee3b 91a8 bfbd 1d79 373e
00000240: 5153 3dbe a698 3fbe 3ff9 3dbe 7e86 3dbe
00000250: 61e5 44be 06b2 2bbe 28a0 53be 65a8 3bbb
00000260: 461e b9bc 8a9a f0bd 5670 833e ed24 c6bd
00000270: deee 333e 99ba 303e 4cd6 353e a55e 8b3e
00000280: 2c79 943d 1790 89bd 4eae 1ebe 2be1 a1bd
00000290: d0f0 a7bb d3b5 b1bd d7df d6bd e552 1abd
000002a0: f795 10bd 1408 3cbd d08a 05be 04ae 0bbd
000002b0: cda1 da3d fc18 893d 31d3 bd3d 2c6c 5dbd
000002c0: 81db bdbd 27c6 c2bc 5828 2dbd c6b2 ddbd
000002d0: 679a d0bd 6a7c a4bd 9147 a1bd 6180 84bd
000002e0: 4926 86bc b1fa cebc 4a9d 92bc 09ac edbd
000002f0: efde 6abd f367 b6bd 2711 c53d c4b6 d13d
00000300: 9dcf 70bc 2b5f 94bc 7a6e 02bc 7495 dabc
00000310: 71ab a2bc a018 573d 1e9f 033d 6cbd 36be
00000320: 98e9 8f3d 8ced c83d ac89 1ebe 5d84 f53d
00000330: 5a2c a53d 638e 033e 181f 333e 0348 0abe
00000340: e71c 44be 45d3 35be d8b1 03be 1c11 40be
00000350: f6fa 2abe 9887 9dbd bf7c 47be c9c5 a8bd
00000360: 2288 403e 6db9 8abd 9f31 673e e429 90bd
00000370: 5563 253e e843 103e aaea f93d 6b88 023e
00000380: 71a8 6d3e 2453 b6bd 2dbb 81bd 759a d33d
00000390: 2cb3 c63d 44d8 273c daaf 1ebc f8f6 513b
000003a0: 49ae 923d e88a 6d3d 4151 a0bd b81f f8bb
000003b0: a30a 833d c60f bc3d f82e 07be 1629 863d
000003c0: 3101 ac3d 9b52 4abd 7ab0 35bc 7f07 9bbd
000003d0: 0e76 f1bb 751a 26bb 1ef6 09be 888f 6e3d
000003e0: 3e46 a0bc 235f 10be 79cd 58bd 4c1d 6dbd
000003f0: d8a7 bbbb 0c4b 7bbc c1da b73c a59f 55bc
-0.010430706 0.00028433604 0.028542137 -0.01454849 -0.0040595625 -0.012998028 -0.010454183 0.038845435
-0.0033800988 -0.066497765 -0.011010233 -0.013874099 -0.14085644 0.11884491 0.07679787 0.050872654
0.11949728 0.10995274 -0.13477589 -0.133267 -0.07122901 -0.16512395 -0.030522112 -0.118669085
-0.007930768 -0.04229812 -0.009698603 0.22448282 0.23431514 0.08594323 0.17834207 0.12326261
0.13255267 0.20260312 0.16168797 0.076274194 0.013362083 -0.13562618 -0.15309149 -0.02022374
-0.055609055 -0.13864793 -0.0029760837 -0.0009469028 -0.07126311 -0.12998368 0.062472317 0.08707929
-0.009032085 0.012531786 -0.08749582 -0.029335922 -0.074395515 0.020624561 -0.03937997 -0.13543826
0.035956126 -0.09570989 0.024545545 -0.14086632 0.08202462 0.012397242 -0.08423579 -0.056419898
0.060174197 0.082069576 -0.056627892 -0.05543561 -0.048820853 0.02157906 -0.0036835007 0.12178218
-0.055083305 -0.05610413 -0.039380882 0.11327485 -0.22768076 0.14164619 0.09970325 0.15948462
0.08989427 -0.21808815 -0.2114067 -0.08062458 -0.23450744 -0.24055612 -0.0128912255 -0.04373329
-0.13672905 -0.1545505 0.08816419 0.25760993 0.22562416 0.12601069 0.17084175 0.21719936
0.1709784 0.17862433 0.023572704 -0.16216062 0.043345276 -0.08682662 -0.038169835 -0.0066128545
0.012797709 -0.12925103 -0.16911896 -0.14682491 -0.006633235 -0.121420406 -0.05621079 0.032968096
-0.070887834 0.008124256 -0.07090137 0.111913525 -0.011508633 0.011799836 0.10815568 0.07705741
0.08751649 0.048028458 -0.07024767 -0.05290343 -0.0039138384 -0.013888776 0.08339052 0.023292076
0.05928242 -0.003725079 -0.001668955 -0.056708597 -0.00016231462 -0.0016402809 -0.0034049596 -0.12289979
-0.001997926 0.019528368 0.11749829 -0.13722208 0.18714403 0.0072724167 -0.09358323 0.17917295
-0.18488814 -0.18710575 -0.18552111 -0.18508336 -0.19228126 -0.1676713 -0.20666564 -0.0028634307
-0.022597443 -0.11748226 0.25671643 -0.09675012 0.1757159 0.17258681 0.17757529 0.27220646
0.07249674 -0.06716936 -0.1549618 -0.079042755 -0.0051251426 -0.08677258 -0.10491913 -0.03767671
-0.035299268 -0.04590614 -0.13041234 -0.0341015 0.10675392 0.066942185 0.09268797 -0.05405824
-0.09270383 -0.023776127 -0.042274803 -0.10825114 -0.101857 -0.080315426 -0.07874978 -0.06469799
-0.016375678 -0.025266023 -0.017897267 -0.11605079 -0.057341512 -0.089065455 0.09622412 0.10239938
-0.014697936 -0.018111786 -0.00796091 -0.026682593 -0.01985714 0.05251372 0.032134168 -0.17845696
0.07026976 0.098109335 -0.15482205 0.11988137 0.080651 0.12847285 0.1749233 -0.13504033
-0.1915165 -0.17756374 -0.12860811 -0.18756527 -0.16697297 -0.07691878 -0.1948118 -0.082408495
0.1880193 -0.067736484 0.22577523 -0.0703924 0.16151173 0.14088404 0.12202962 0.12747352
0.23208787 -0.089025766 -0.06334529 0.10332195 0.09702143 0.010244433 -0.009685481 0.0032038074
0.071621485 0.0579938 -0.07827998 -0.0075721405 0.06398513 0.09182696 -0.13201511 0.06550805
0.08398665 -0.049395185 -0.011089439 -0.07569789 -0.0073688095 -0.002534536 -0.13472793 0.05824235
-0.019564744 -0.14098792 -0.05293033 -0.057889268 -0.0057267956 -0.015337717 0.022443177 -0.0130385505

conv_v_0.bias f4 [16]
00000000: bfa5 353c f9e7 603d ed12 3038 20d5 5d3c
00000010: 8574 5c3c f085 6b3d d96e 743d ce44 ed3c
00000020: 15e6 133d b637 df3c 8777 d53d 1b9b 1abb
00000030: fd52 0cbd 9411 d43d fefe 11bd 2c77 dbbd
0.01108688 0.054908726 4.1979296e-05 0.0135395825 0.013455515 0.05750078 0.059676025 0.028963473
0.036108095 0.027248245 0.10423189 -0.0023590985 -0.03425883 0.10354915 -0.03564357 -0.107160896

conv_v_1.weight f4 [16, 16, 3, 3]
00000000: 5969 8bbc 0373 253d 054e ce3c 2e57 2c3d
00000010: d336 a5bc 34aa 9bbc 1841 e93d aff4 b5bd
00000020: 2926 983d d815 cf3d 74db 873d 9697 a9bc
00000030: 2eea e53c eac8 9a3c b529 163d 4688 7e3d
00000040: 6c81 90bc acd5 0cbd 04eb b83d dc8b c33d
00000050: 21b0 48bd 692c 3bbd ecec 963c 73a3 83bd
00000060: 1372 ae3d 4d66 463d d063 8cbb 2d7c f03b
00000070: 9895 0e3e 5fe0 883d 8103 0d3d d48a 423d
00000080: 5bd4 80bd 466f 44bc 23bd 1c3d 8cac 1a3d
00000090: b704 e03d 75fe cd3c 5d30 2a3d 6661 89bb
000000a0: eee9 74bb ad89 193d 4da5 f13b e2aa b93d
000000b0: 85ca 54bd 2fb7 f33d 6202 18bc 9110 6d3d
000000c0: edb0 a03c 6b1b d43d ef73 c43d 003b 173d
000000d0: f6c8 b0bc 6a20 f83d 8ad4 b7bc a6f0 9bbc
000000e0: 09a4 ca3d 1383 d93d 5192 d4bc b570 083e
000000f0: e4d3 7f3d b707 013e ece6 f93d c7dc ca3d
00000100: 1002 abbb f3ae 14bc fa59 023c d649 2d3d
00000110: 114e 7ebc 4911 593d bc98 37bb 6cd5 cb3a
00000120: cdd2 b6bd f8c2 033d bb73 9d3d 3c34 b9bc
00000130: b8b9 463d 7355 cabb aca4 c63d f11b 823d
00000140: 241c a73c 4ea4 1c3e 16c0 0b3d ddb8 3e3d
00000150: 63d5 b4bc 1bf5 ed3d b45b d03d c771 dcbc
00000160: b3c8 9dbc 9ad3 19ba 6aaa 403d b0f3 fc3d
00000170: aeea 5abd b62c 9e3c ad04 d4bb 7b04 a9bc
00000180: 67a4 813d f5e2 063d 30fb e13d c8cb df3d
00000190: b350 4b3e c399 e73d ad48 223d ef78 9e3d
000001a0: 5432 083e f40d bc3d a819 ea3d 537f 033e
000001b0: 6ec9 a73d 7b97 6bbd 7cf4 57bd 60d2 4cbd
000001c0: ac68 84bd 02f2 8a3c b1aa 193d 66d4 3a3d
000001d0: 0a19 a73c b00d d3bc c6bb fc3d 4742 deb9
000001e0: 3598 213d ff6a 253d 531e 57bd dc83 47bd
000001f0: 9d71 7e3d 96cd d43d 4e04 2ebd f2c6 c13d
00000200: c07d 173b 62e2 58bc a576 babc b4c0 8d3c
00000210: 0ffb 2a3d c364 8b3d e5d9 d6bc fdae 0f3e
00000220: aa1d 44ba 7642 c5bd e52d 753d e5d9 d43c
00000230: 2cd0 63bc 41dc 3f3b 1556 8c3d c527 f43c
00000240: 9cde e13d c273 d93d 68d7 273b d2e4 cf3d
00000250: 5b2e 263c 5001 033e 30a2 163e 0398 f43d
00000260: 7277 d63d ffe7 e13d 14ad 0c3e 6753 293e
00000270: 6266 163d b735 dc3d 2f75 c73d d29a 2a3e
00000280: 5664 f43d 9894 3f3d 7df1 b03d 2e9c 943d
00000290: f38d 223e 227c de3d 0fd7 3a3e 6ef1 aa3d
000002a0: a107 773e c180 4f3e 422f 073e e6e4 1d3e
000002b0: c52d 823d 7162 033e cc69 0f3e 04d2 073e
000002c0: a2f3 243e d8ee 6e3d 1692 053e 8094 803d
000002d0: 38f9 29bd cc20 0bbc 3960 a63d e106 eb3c
000002e0: 6088 da3d 51f6 6b3c fa83 703d 213a 123e
000002f0: 19da d63d 32d0 85bc bf55 2dbd 75aa fd3b
00000300: 59de 943d af92 843d f5b3 553c a067 74bc
00000310: 699b 43bc 4d34 623d b8ae 8cbd 9c80 97bc
00000320: cc4e fdbc 6786 5cbd f83f 173d ac28 843c
00000330: 1eef 993d 5b3f 903d 42bc 803d 51f2 b4bd
00000340: 6bb3 c6bd 1030 ae3c 7b3a 53bd 206f 5ebd
00000350: 04f1 74bd 24c2 3a3d 7556 d1bd dc19 d5bd
00000360: da8b 003e 06cb 073d 1d27 d4bb 1b27 4b3d
00000370: a2b9 ebbb 8aa3 7fbc 4d61 25bc e8e9 ab3d
00000380: 7adc b13d 0157 683d 783a c63c 25c4 ad3c
00000390: d824 713c 4a25 153e 625c 88bc bf0d d73c
000003a0: 17e3 e13d e2c3 843c e7da 3b3d a7f3 a93d
000003b0: 3238 23bc 2317 f33d d68e dc3d 36f0 653b
000003c0: b289 0b3d 85f4 ea3d 7211 a83d 74d4 243d
000003d0: 38b0 a83b a20a 303d 5d52 083e d642 553b
000003e0: eeae 353d ca95 de3d 76a0 8ebb ae1e 923d
000003f0: 8f2e 083e 62d7 d43d 4675 223e 6b15 233e
-0.017018007 0.040392887 0.025183687 0.04207533 -0.020167744 -0.019002058 0.11389369 -0.0888456
0.074291535 0.10111588 0.06633654 -0.020702165 0.028065767 0.018894631 0.03666087 0.06214168
-0.017639838 -0.03438346 0.09029201 0.095481604 -0.048996095 -0.04569665 0.01842352 -0.0642766
0.08517852 0.048437405 -0.0042843595 0.0073390217 0.13924253 0.066834204 0.03442717 0.047495678
-0.062905036 -0.01198942 0.038266312 0.03776221 0.10938399 0.025145749 0.04155003 -0.004192519
-0.0037370878 0.037484813 0.0073744417 0.090657964 -0.05195095 0.11900174 -0.009277912 0.057877127
0.019615615 0.10356792 0.09592425 0.0369215 -0.0215802 0.121155575 -0.022440214 -0.019035649
0.098945685 0.106207035 -0.025948675 0.13324244 0.062457934 0.12600599 0.12202248 0.09905391
-0.0052187517 -0.009074914 0.007956022 0.042306744 -0.015521542 0.052995 -0.002801462 0.0015551276
-0.08926926 0.03216836 0.076880895 -0.022607915 0.04851696 -0.006174737 0.096993774 0.06352986
0.02039916 0.15297052 0.034118734 0.046563018 -0.022074407 0.11619016 0.10173741 -0.026909722
-0.01926074 -0.0005868018 0.04703752 0.12351167 -0.053446464 0.01930843 -0.006470284 -0.02063202
0.063301854 0.032931287 0.11034238 0.1092754 0.19855003 0.113086246 0.03962009 0.0773791
0.13300449 0.09182349 0.11430675 0.12841539 0.081927165 -0.05751751 -0.052723393 -0.050005317
-0.06465277 0.016961101 0.0375163 0.045612715 0.020397682 -0.025763363 0.123405024 -0.0004239252
0.039451797 0.040385243 -0.052519154 -0.048709735 0.06212007 0.10390775 -0.042484574 0.09461774
0.0023115724 -0.013237568 -0.022761652 0.017303802 0.041743334 0.06806328 -0.026226947 0.14031596
-0.0007481227 -0.09631817 0.05985822 0.025982806 -0.0139046125 0.0029275569 0.06852356 0.02980412
0.110287875 0.10617782 0.002561057 0.10151066 0.010142888 0.1279347 0.14710307 0.119430564
0.10472001 0.11030578 0.13737899 0.16535722 0.036718734 0.10752433 0.09739148 0.16660622
0.119332 0.04677257 0.0863981 0.072563514 0.15874462 0.1086352 0.18246101 0.0834683
0.24124004 0.2026396 0.13201621 0.15419349 0.06356386 0.12830521 0.14005202 0.13263708
0.16108564 0.058333248 0.13044009 0.06278324 -0.04149744 -0.008491706 0.08123822 0.028689804
0.10670543 0.014401988 0.058719613 0.14279987 0.104908176 -0.016334627 -0.042318102 0.0077412673
0.07268972 0.0647329 0.013043393 -0.014917284 -0.011938908 0.05522566 -0.068692625 -0.018493943
-0.030921362 -0.053839114 0.03692624 0.016132675 0.07516311 0.07043334 0.06285907 -0.08835281
-0.0970219 0.021263152 -0.051569443 -0.054305196 -0.059800163 0.045595303 -0.102215685 -0.10405323
0.12553349 0.033152603 -0.006474389 0.04959784 -0.00719376 -0.015602956 -0.010093999 0.083942235
0.08684631 0.0567236 0.024197802 0.021211693 0.014718257 0.14565006 -0.016645614 0.026251672
0.11029642 0.016206685 0.04586306 0.08298426 -0.0099621285 0.11869647 0.10769431 0.0035085804
0.034066863 0.1147242 0.082064524 0.040241674 0.00514796 0.04297889 0.13312669 0.0032541058
0.04435628 0.10868414 -0.0043526245 0.07134758 0.1329901 0.103926435 0.15865049 0.15926139

conv_v_1.bias f4 [16]
00000000: b682 12bd 34d7 923d b427 a0bc 75ab a6bd
00000010: 1ac6 e4bc acc6 2cbc 8a97 b8bc 777f 23bc
00000020: 6766 8d3c bd60 983b d39a aabb 1740 c63c
00000030: 9372 04bd 7421 a2bc 7dd7 f5bb 06f8 90bd
-0.035769187 0.07169953 -0.019550182 -0.081381716 -0.027926493 -0.010545414 -0.022533197 -0.00997912
0.017260743 0.004650204 -0.0052064448 0.024200482 -0.03233583 -0.019791342 -0.007502495 -0.07078557
