league/checkpoints/mfos_seeds/new_self_3x3_47/300_1.pth (torch, 300942 bytes, 105 tensors)

conv_a_0.weight f4 [16, 7, 3, 3]
00000000: 577d 023e 059e d4bc 6ff8 2f3c 3b7c 303d
00000010: 74b9 f13d f5b9 d03c 3f9a 7a3d f161 8d3c
00000020: 3380 283e cc9f 7bbd 0a33 1abe 127a ccbd
00000030: d6d2 fa3c 1715 fd3d 840a adbd 8b7d cd3c
00000040: c15d 0e3e a8ab cb3c 8290 03bd 0d26 18be
00000050: 27d5 cd3c 0dbc 043e 644a e1b9 2b71 14be
00000060: b097 0c3d f32c 223e 74e1 1f3e 3cc0 b0bd
00000070: 9494 0abe 8f67 013e 0a66 c53c 2355 8c3d
00000080: c5d8 bc3d b27b bc3d eb47 3c3e ec1d e13d
00000090: 0b68 a9bb c388 19bd 9339 b5bd c08d 16be
000000a0: 7d51 7cbc d1d3 41bd acb9 8cbd 2c2c 35be
000000b0: b169 98bc 9839 0a3e 5890 ff3d a001 ab3d
000000c0: d4bf 383b c5c9 413d f24b a03c f429 db3d
000000d0: 56ce b23d 7054 153e 1fea e0bc b685 7cbd
000000e0: cd5d a6bd 48f4 3d3d e6a3 f1bd 10a1 603d
000000f0: 51bf 18be 1803 7fbd d3a6 6f3d d614 a5bd
00000100: 80c8 0d3e df2a e83d 8e3c cd3d 1d6e dc3d
00000110: d2f6 a03d 3061 1b3e 0358 22bd 904c 033e
00000120: be1e 6b3d 7187 873d d3ed e63d 35be d8bc
00000130: a8d9 82bd 25da 213d a561 d0bd 2d88 253e
00000140: 7351 a63d 2bbb c13a 389d 7c3c 5b09 13be
00000150: 98a9 5cbd 3fc6 913d 2063 033e 814d 9bbc
00000160: 40bd e3bd 24c5 bbbd cc3e 6abd 5463 aa3d
00000170: 7489 163d ede1 033e 2f04 573d 2886 763c
00000180: 96e9 62bd 4a76 24bc d255 793d dcb9 993d
00000190: f5d9 023d 76a8 d9bc aa3d 3cbc f4d9 d73c
000001a0: d431 68bd 5c69 c63d 4c0a 34bd ad2a b5bd
000001b0: bd44 123e 2cb5 2d3c eb18 853d effe 223e
000001c0: fb56 aa3c 9264 bf3d 002b 713c da73 783c
000001d0: 3775 ecbb 7d50 923d 37c1 8cbc 1b26 d03d
000001e0: a091 5a3d 5121 043e ef6f d83c 9119 b1bd
000001f0: 6c0f e3bc 7efb 133e 1c6e 0b3e e15e 323e
00000200: d527 943b 4a6a 2b3e 3c1c c0bd 46b3 e1bc
00000210: 1e43 43bd 79e4 263e 8ac3 fa3c a046 0dbd
00000220: 50b5 9f3d 37cb 81bb 73b3 b5bc 2170 b63d
00000230: 0b19 c63c 7536 343e 9f5c 7fbd 8992 2e3e
00000240: bc6e 5dbc 2753 983d 6d5e 1e3e 7419 2c3e
00000250: 0934 083e af62 6ebd 0dec b43d fdcc 993d
00000260: ff3c 1c3e b80b 14bd 4eaf 50bc 8099 3a3d
00000270: 59a3 63bb 74d9 d53c 7346 8ebc c732 81ba
00000280: b3a6 69bd 6179 5abd f6a4 bdbc 2c76 873d
00000290: 491f d53d 1cd2 b3bd 8fd8 17bd e97d d83d
000002a0: ff57 813d e103 95bd d6a4 f03d 797c 93bd
000002b0: 3452 023d dd18 aa3d 1210 ebbd bfa5 a2bd
000002c0: 95bd 803d 47b3 383c 08c7 34bc 828f ef3d
000002d0: d404 ad3d 705c 31bd c117 5b3d b317 df3d
000002e0: 403b 233e c36a 213e b82d 42bc f262 54bc
000002f0: f680 d0bc 740e b33d edee 1b3d 9dda acbc
00000300: 8333 013e 8999 113d 153d 253b cf02 293e
00000310: e97d 2d3d f80c 41bd 193d da3c ebe5 b5bc
00000320: 192c 67bd e7f3 f83b 8f1d 19bd 5db6 d03d
00000330: 25e3 153e 4fd8 233e 46e8 1e3e c881 7ebd
00000340: c16a 1b3e c9a4 93bd 6579 0e3e be90 3a3d
00000350: b4a5 4fbd 449e 87bd 1529 a23d 87e6 90bc
00000360: cc61 8b3d 8f2b 0b3e af99 08bd 6ad4 c43d
00000370: d55a 5bbd 2d5c 78bd f993 76bd a047 a33d
00000380: 9c53 9cbd 8580 c23d ca0f 543c 6f39 ef3d
00000390: 5c99 35bd 00ac e63d c317 a2bc 0957 113e
000003a0: 1a11 133e 844e 8a3d 5739 b8bd 60ed dd3d
000003b0: 2750 47bc 03c2 f13c d4bc cd3d 9103 0d3e
000003c0: e1d8 103e 3ffc c43d 23bc 92bd 36f5 34bd
000003d0: ce37 81bd dcb6 6c3d bfda 113e 8bd6 8cbd
000003e0: fc32 8abb d555 95bb e699 273e e7c0 e23d
000003f0: cc0f 4c3d dd61 803c 6d6c 173e 97ef 1f3e
0.12743126 -0.025954256 0.0107403835 0.043087225 0.118029505 0.025479296 0.061182257 0.017258616
0.16455154 -0.06143169 -0.15058532 -0.099842206 0.030618113 0.12357538 -0.08449271 0.025084278
0.13902952 0.024862126 -0.032120235 -0.14858265 0.025126053 0.1296236 -0.0004297077 -0.14496295
0.034324348 0.1583746 0.15613347 -0.08630416 -0.1353324 0.1263716 0.024096508 0.06852176
0.09221033 0.092032805 0.1838681 0.10992035 -0.0051698736 -0.03748394 -0.08848872 -0.14702511
-0.015400288 -0.047321144 -0.068713516 -0.17692631 -0.018605085 0.13498533 0.12478703 0.08349919
0.002819051 0.047311563 0.019567464 0.10701361 0.08730762 0.14582992 -0.027455388 -0.061650954
-0.0812336 0.046375543 -0.11798839 0.0548411 -0.14916731 -0.06225881 0.058508705 -0.08060615
0.13846016 0.11336302 0.100213155 0.1076319 0.07859577 0.15173793 -0.039634716 0.12822175
0.057402365 0.0661763 0.1127583 -0.026457885 -0.06389171 0.03951468 -0.10174874 0.16165228
0.08121004 0.0014780512 0.015418343 -0.14359038 -0.053872675 0.071178906 0.12830782 -0.018957855
-0.11120081 -0.09168461 -0.057188794 0.083197266 0.03675218 0.12879153 0.052494224 0.015046634
-0.055398546 -0.010037968 0.06087286 0.07506153 0.03194614 -0.026569586 -0.011489311 0.026349045
-0.056688145 0.096880645 -0.043955132 -0.088460304 0.14284034 0.010602277 0.06498893 0.15917562
0.020793429 0.09345354 0.014719725 0.01516434 -0.0072161215 0.07144258 -0.017181976 0.10163518
0.053361535 0.12903334 0.026420562 -0.086474545 -0.027717315 0.14451405 0.13616222 0.17419006
0.00452135 0.16739765 -0.09380385 -0.027551305 -0.04767143 0.16298093 0.030610818 -0.03449118
0.077982545 -0.0039609927 -0.022180295 0.08908106 0.024181863 0.17598899 -0.06234419 0.17048086
-0.013515171 0.07437735 0.15465708 0.16806585 0.133011 -0.05819958 0.088340856 0.075098015
0.15257643 -0.03614399 -0.012737108 0.045556545 -0.0034734814 0.026104666 -0.017367577 -0.0009857052
-0.057043742 -0.053338412 -0.023149949 0.06614336 0.10406358 -0.087803096 -0.03707176 0.105708905
0.06315612 -0.072761305 0.1175019 -0.07201476 0.031816676 0.083055235 -0.114776745 -0.0794177
0.0628616 0.011273212 -0.011033781 0.11697294 0.084481865 -0.043301046 0.05348945 0.10893192
0.15940571 0.15763383 -0.0118517205 -0.0129630435 -0.025452118 0.08742991 0.038069654 -0.021100337
0.12617306 0.035546813 0.002521341 0.16504978 0.042356405 -0.04713151 0.026640462 -0.02220436
-0.05643854 0.007597435 -0.037381705 0.10191033 0.1463743 0.16000484 0.15518293 -0.062135488
0.15177442 -0.07209165 0.13913496 0.045548193 -0.050695136 -0.06621984 0.07917992 -0.017688049
0.06805763 0.13590835 -0.03334969 0.09610827 -0.05355342 -0.06063478 -0.06019971 0.07972646
-0.07633135 0.094971694 0.0129432175 0.116808765 -0.044335708 0.11263275 -0.019786721 0.14193358
0.14361992 0.06753257 -0.08995312 0.10836291 -0.012165106 0.029511457 0.10045782 0.13770892
0.14145233 0.096184246 -0.071647905 -0.044179164 -0.06309472 0.057791576 0.14243601 -0.06876858
-0.0042175036 -0.004557351 0.16367301 0.110719495 0.049819753 0.015671665 0.14787455 0.1561874

conv_a_0.bias f4 [16]
00000000: c4af 80bd fe66 5c3d eebd fa3d 2a82 223e
00000010: d3e0 bbbc b3fc 1e3e 1b0a ad3d 323d 22bc
00000020: 6a86 393d 2ede 5d3d b483 4b3d 9d60 463e
00000030: fd35 b23d 7c28 2d3e 8376 3abd 0713 5fbd
-0.06283525 0.05380916 0.122432575 0.15869966 -0.022934353 0.15526085 0.08449193 -0.009902285
0.045294203 0.054166965 0.04968615 0.19372793 0.08701704 0.16909975 -0.045523178 -0.054461505

conv_a_1.weight f4 [16, 16, 3, 3]
00000000: 8078 b43d 1b27 c2bc d9bb 7fbd fabd e83b
00000010: c0d0 e5bc 08fa 8c3d 3c88 c1bb 2823 06bd
00000020: 320d e5bc 66b7 e43d a02a ad3d 0c93 0f3d
00000030: 3a49 523d 9bb7 2bbb 30f0 073d fdb3 833d
00000040: 81ea a83d 5101 8e3c dcda 933d 8bf5 513c
00000050: 1c48 273e 4384 b13d 2e38 9d3d 7a3f 373d
00000060: 833d 163e 06a9 1b3d 56fc f63d b379 fd3d
00000070: 960d 4c3d 3b36 483d 1425 373e c86b 9d3d
00000080: 64f5 f03d 7170 223e 6e97 cb3d 6e6e da3d
00000090: 00fb fe3d 54fc 203e e3ec 01bc 345d 423c
000000a0: be63 113d 9bd7 843d b069 f439 bcdc 483c
000000b0: 9f42 c23d 90b1 ee3c 2ab7 833c 4ad4 e23d
000000c0: 03d0 003e 8501 c73c cd58 f63d 286f 163e
000000d0: 11eb d13d 6eb6 ad3d 1f02 463d b18d 843d
000000e0: a999 86bd 2fe8 b53b 868b 75bd a8b3 d13d
000000f0: 32c6 593d aad5 ed3d 2f67 853d 2f1b f43c
00000100: 7c0f ce3d 5843 463d cce8 2c3e deab 063e
00000110: ecad 213e f499 8d3d b466 f33c 551c ff3c
00000120: 245e c73d 68fa 8f3c 6ace 953d d394 51bc
00000130: 3205 ba3d 3a8f 9c3d d1ab 463d 4458 a2ba
00000140: 7f3e f03d 26a1 f23d 9d9c 0c3e 0959 c23d
00000150: c2d0 ed3d 3922 f83d 4b9a e43d 2906 103e
00000160: c97c 323d 1dd6 2d3d 7487 c53d a76a 20bc
00000170: dcb8 14bd ca36 8c3d 218c 14bd 4e94 f23c
00000180: c9a4 6bbc fdf8 d43c 4b86 273c e391 ec3d
00000190: 77b1 d63d 4a06 883d 1ff0 d23c 5d89 bb3d
000001a0: 3262 5b3d 0982 093e 3126 013e 8c19 f1bb
000001b0: 2fdf 553c 91a4 733c 034b 493d 59d3 7bbd
000001c0: 8232 dc3d b2d6 683c b201 7e3d c625 9c3d
000001d0: 3939 26bd 82c7 24bd 514e 393d d0c3 353d
000001e0: def0 2a3d b605 a93c d03c 063e 3d7e 1d3d
000001f0: 627a 05bd 280e 723d 2c06 c63d 96ea bdbc
00000200: 3939 9e3c c159 4bbd 7347 5b3d 36bc bb3d
00000210: 71c3 cf3c 29df 803d d630 be3d df03 533d
00000220: 21cc 253d 4b9b 3fbd a25c 983d cb6a 38bd
00000230: 6eb5 37bd 53b1 46bc 67c6 31bd 03b2 7b3d
00000240: fa4c bc3d a117 ffbb 7b5a bc3d b993 893d
00000250: 3e56 993d 4aa2 693d 9e03 8d3d 8d54 b83b
00000260: 58b0 033d 92ee b63b eece c13d e75e 033e
00000270: dc04 f1bc 2445 8f3d aea4 9a3c c7ac eb3d
00000280: 5822 843d 47ee fc3c 9918 9d3d d8f5 313d
00000290: c814 c73d 7915 c03d cc69 a03d 9c62 c63d
000002a0: 880f 09bc ec32 8b3c 63cf 973d c323 623d
000002b0: d0d5 8a3b 99df b83c beaf 863d d012 f03c
000002c0: a87f ad3c 8b41 833d c02b f6bc b522 afbc
000002d0: dc87 943d 17f9 5fbc 4df1 8b3c 6e63 03bd
000002e0: 379d 703d 33b0 febc fe54 c23c 7c9a 313d
000002f0: e876 813d a922 0bbd a45d 1f3d 4178 b9bc
00000300: 0ca1 393c a3f2 833d 3342 013d 97a1 6b3c
00000310: 31e7 8b3d 0c43 09bd ea21 33bd e813 ae3d
00000320: 5c99 b63d 1a15 de3d a93f 3b3d a1df a0bc
00000330: 0e50 0abd 99f3 52bd 55f1 db3d 866b 6dbc
00000340: 7e8a 4fbd 4aab 47bd 93bc 0a3d b2ac 863d
00000350: ce22 b1bc 99a4 3b3d 5959 90bd 71af 85bd
00000360: a227 903d 0b10 813d ca56 d73b 9063 07bb
00000370: 0865 4e3d b919 623d 2cfb 5ebd 8efb 3dbd
00000380: 83a0 b0bc 0019 2bbd d3e2 553d 587b 35bd
00000390: fd84 a63d 0763 bbbc afc7 843d 76cf b8bc
000003a0: 1797 bb3d bd0f b83d 3f7a d23d f5e6 013e
000003b0: 5ece a23d 627b 333d 625a e13c b4ae a03d
000003c0: 4587 f3bc d6cb debc d34c c93d 88b8 73bd
000003d0: 0a3f f53c a094 f13d a56d 043e 0ed1 f8bc
000003e0: 96df eb3d 91ec a43d 69db a73d 0d36 0ebd
000003f0: 90f4 683d 679b 1c3c 7a78 aa3d 721d a3bc
0.08812046 -0.023700288 -0.062435005 0.007102725 -0.028053641 0.06883627 -0.005906133 -0.03274837
-0.027960394 0.11167793 0.08455396 0.035052344 0.051339366 -0.0026201967 0.033188045 0.064308144
0.08247853 0.017334612 0.072194785 0.01281489 0.16336101 0.08667805 0.07676731 0.04473827
0.14671902 0.03800299 0.12059848 0.12376728 0.049817644 0.048879843 0.17885238 0.07686573
0.117655545 0.15863205 0.09940992 0.10665594 0.12450218 0.15721256 -0.007930013 0.011863042
0.035495512 0.06486436 0.0004661805 0.012259658 0.09485363 0.029137403 0.01607855 0.11075647
0.1257935 0.024292717 0.12028656 0.1469084 0.102499135 0.08482061 0.048341867 0.06472338
-0.06572277 0.00555136 -0.059947513 0.10239345 0.05316753 0.11613019 0.06513821 0.029798118
0.10061547 0.048404068 0.1688568 0.131515 0.15789002 0.0691413 0.029712059 0.03114144
0.09734753 0.017575458 0.07314761 -0.01279183 0.09083022 0.07644506 0.0485037 -0.0012385924
0.1173067 0.11847143 0.13731618 0.09489638 0.11612083 0.121159025 0.111622415 0.1406485
0.043576036 0.042440522 0.09644976 -0.009791053 -0.03630911 0.06846388 -0.03626645 0.029611733
-0.01438255 0.025997633 0.010224889 0.11551263 0.104830675 0.066418245 0.025749264 0.09157059
0.053560443 0.1342851 0.12612225 -0.0073577818 0.013053699 0.014870779 0.049143802 -0.061480854
0.10751821 0.014211344 0.062013336 0.07624392 -0.040581916 -0.040229328 0.045240704 0.044376194
0.041733615 0.020632606 0.13109136 0.03845047 -0.032587416 0.05909553 0.09669146 -0.023183148
0.019314395 -0.049646143 0.053534936 0.09166758 0.025361748 0.062925644 0.092866585 0.051517364
0.040477876 -0.04677896 0.07439543 -0.04502372 -0.04485076 -0.012127238 -0.0434021 0.061449062
0.091943696 -0.007784799 0.09196945 0.06717629 0.074871525 0.057039537 0.068854555 0.0056253136
0.032150596 0.005582639 0.09463297 0.12829171 -0.029421262 0.069956094 0.018877354 0.11507564
0.06451863 0.030875338 0.07670707 0.043447345 0.097207606 0.093790956 0.07832679 0.09686777
-0.008365519 0.016992055 0.07412603 0.055209886 0.004236914 0.022567557 0.06576489 0.029305845
0.021179035 0.06408986 -0.030050159 -0.021378854 0.072524756 -0.0136702275 0.017082835 -0.032077245
0.05874368 -0.031089878 0.023722168 0.04336022 0.06321508 -0.0339686 0.038907662 -0.02264035
0.0113299005 0.06442764 0.031557273 0.014381788 0.06831206 -0.033511207 -0.043733515 0.084998906
0.0891597 0.108438686 0.045715008 -0.019637885 -0.033767752 -0.051501844 0.1073939 -0.014490968
-0.050669186 -0.04874734 0.033871245 0.06575908 -0.021623041 0.04581127 -0.07048292 -0.065276034
0.07038809 0.06301888 0.0065716254 -0.002065871 0.05038932 0.055200312 -0.054438755 -0.04638248
-0.021560913 -0.04177189 0.05221827 -0.044307083 0.08130834 -0.022874368 0.06483399 -0.022559863
0.091596775 0.08987377 0.10277223 0.1268576 0.07949518 0.04381884 0.027508918 0.07845822
-0.029727587 -0.027196806 0.09829106 -0.059502155 0.029937286 0.11795926 0.12932451 -0.030373123
0.11517255 0.08052934 0.08196146 -0.034719516 0.056873858 0.009558535 0.0832376 -0.019911502

conv_a_1.bias f4 [16]
00000000: 1344 1bbb 1698 ca3d a386 5a3d a0e4 6a3d
00000010: f189 bb3d 5f1d 073d 806e 31bd 73fe 883d
00000020: 2cf0 cd3d b92f c83d 402f 20bd e3b3 0d3d
00000030: dc20 c3bc 4ad8 d53c 3486 c73d 65e4 be3d
-0.0023691698 0.09892289 0.053351056 0.05734694 0.091571696 0.032986995 -0.04331827 0.06689157
0.10055575 0.097747274 -0.03910756 0.03459538 -0.02381938 0.026104111 0.09742394 0.093209065

linear_a_0.weight f4 [16, 144]
00000000: a4c2 143c 53ac a0bd 4a4f 3cbd b44a 013d
00000010: 142e 293d a8ff 153d 2790 a2bc 6a93 3ebc
00000020: 8a94 dfbd 30f9 14b8 01dc 3ebb 60f1 97bd
00000030: 67ca cbbc 8edb a53d d419 c1bc 87b8 d23b
00000040: b5ce 553b d9a9 16bd 5c97 42bd 64b4 82bd
00000050: 6eb1 74bd f8a0 fe3c 3c9d 153d 1225 b2bd
00000060: 3d99 633d 6e6b 253d 258d 2f3d ad3e b4bd
00000070: 12d6 613d 6ae4 c0bc dd67 703d 2fa2 b7bd
00000080: 8988 8dbd 2b8e 84bd 51f9 8abd 190f 963c
00000090: 4843 8ebd 0ed2 aebd 257c 9b3c a8f0 7bbd
000000a0: acf3 ad3c 6215 80ba 7cd1 50bd dff6 9fbd
000000b0: cf4c 91bd aea4 773c ba9f 0fba 9db9 5d3d
000000c0: dca6 b63c cbd6 a7bd 9177 c33c de21 9fbd
000000d0: 7ea9 a13c 0126 7ebc f01f 05bd eb45 8dbd
000000e0: e89f 97bd 293e 043a fab0 613d 57d3 95bd
000000f0: e767 fc3b b1fb 313d a49e fe3c 88a0 cbbb
00000100: 189e 0ebd d6f2 933d 59b0 a3bd 1670 e0bc
00000110: bee5 5f3d 4cec 6abd e08f 3c3c 8b96 283d
00000120: 130e 83bb 6ff6 7bbd 438e ab3c 1978 4d3d
00000130: be4e 973d 2375 90bd 7dc7 0e3d 9b14 973d
00000140: 3bf2 80bc a1e6 8b3d 06a5 923d eeb7 64bd
00000150: 07a1 9ebd 4ddd 7c36 f5b0 95bc bb59 f4bc
00000160: 5b65 1bbd 0567 58bd e6ad c4bc 7aa2 543d
00000170: f9b3 173b 0cf6 aa3c 3716 8f3d 9af4 403d
00000180: d0f4 5f3c a7d6 9c3d cb0a dcbc c7d3 93bc
00000190: 1387 153b 8f01 3fbd ddfa 87bd e5e2 2a3d
000001a0: dc79 3cbd 06df b7bd 9216 97bd d56a 383d
000001b0: 434c 0abd 790e 853d 1243 7fbd 7b37 ce38
000001c0: 7e4a 853d b6a5 57bd 406c 37bd 0eb8 a73d
000001d0: 08ce 9a3d 850b b6bd 1efc 5f3d 3597 c8ba
000001e0: d7b4 9bbd 7a5b f13a 00e9 913d 8202 16bb
000001f0: 42d1 d1bb b2ce 583d d080 fc3c fc0f c53b
00000200: 1033 263d 9953 923d 55da 883d d1cb 8bbd
00000210: a53d 5c3d cb76 cabc a2df 0abd 29c2 9abd
00000220: 67bd 2cbc ce8c 973d a23f a4bd c5b2 843d
00000230: ea77 c8bd bf13 60bd 664d babb 8247 16bd
00000240: 6cb9 bbbc 1037 5a3d a4a6 d13c ef18 e83b
00000250: 8554 d73d 7d23 d03c f918 bd3b ddf2 0cbc
00000260: dbe0 173e f109 693d 5505 053d c421 d03a
00000270: c4d8 543d 2d14 e5bc 5273 993d eafa 773d
00000280: 8445 f53d 305b 483c d6ca 4dbd e56a 163d
00000290: 13de 923d 3300 c83d 50d8 c13d df7a 673d
000002a0: 2f02 633d bc45 bbbb d50e 873d 583a cf3c
000002b0: 222c da3d cd3c 313d b791 923d 8c40 dc3a
000002c0: 37e8 a53c a295 b53d d2f9 163d c694 e3bc
000002d0: 63ba d7bb 5c28 fd3b 188c 753b bdf8 5d3c
000002e0: b079 b03d 677b 203b ba33 4e3d a0a9 3a3d
000002f0: 7e2d 283d 5200 c63d bfcf b33d 308b a43c
00000300: 2ddd c13c 323f 333a 8cc9 4dbd 4ae8 7e3d
00000310: f83a c63c a5a4 a53d 94d5 3b3d 5527 78bd
00000320: 1d40 7dbb 1709 c13d 301e 6dbd cfc0 183a
00000330: a3aa 16bd f4e4 c9bc e5a3 d23b 3ebf c83d
00000340: c5ad 823d fcb9 803d ace7 dc3b 43e8 773d
00000350: d94d 013d 7f0f d03c 2e67 fd3c 6823 1bbd
00000360: 645c 8dbc 76d2 cbbb 4f46 d63d 13c2 7c3d
00000370: 019c c93c 3f89 80bc ca13 11bd a8f8 b33d
00000380: cfda 9e3d a05a c73c 186d d63d e14e ce3d
00000390: d91e fd3d f6bc c3bc f0aa e93c fb24 34bd
000003a0: 7acf 943d 04bf dd3d 8c9f 903b bb6a dfbc
000003b0: 66de 4d3d 87d5 33ba d941 703d aa03 333d
000003c0: fc43 d23d b346 5cbd b340 f83c 7da0 6c3d
000003d0: 43f0 7c3d 088e 3cbc 6441 e73c 6ac4 933d
000003e0: 0286 33bc 6a8a 9fbd 4cd7 b9bd 862c 383d
000003f0: dbba a13d 2d3d f8bc 938b cb3d 213b b83d
0.009079609 -0.07845368 -0.045974053 0.031565383 0.04130371 0.036620766 -0.019844128 -0.011631826
-0.109170035 -3.5518024e-05 -0.0029122832 -0.074190855 -0.024876786 0.08098517 -0.023571886 0.006430689
0.0032624428 -0.036783073 -0.04750763 -0.06382063 -0.059739523 0.031082615 0.036526904 -0.08698477
0.05556606 0.040385656 0.042859215 -0.08801017 0.055135794 -0.023546416 0.0586928 -0.08966481
-0.06910808 -0.06472429 -0.067858346 0.018317746 -0.06946427 -0.085361585 0.018980095 -0.061508805
0.021234356 -0.0009771998 -0.05098103 -0.07810759 -0.07094728 0.015114946 -0.0005478818 0.054132093
0.022296362 -0.081952654 0.023860725 -0.077701315 0.01973414 -0.0155119905 -0.03250116 -0.068981014
-0.074035466 0.0005044663 0.05510042 -0.073157005 0.007702816 0.043452922 0.031081505 -0.006214205
-0.03481874 0.07224052 -0.0799262 -0.027397197 0.05466246 -0.057354257 0.011508912 0.041159194
-0.0039994805 -0.061514314 0.02094186 0.050163362 0.07388066 -0.07053592 0.034858216 0.07376977
-0.015740504 0.06831098 0.07160382 -0.05583947 -0.07745557 3.767974e-06 -0.018272856 -0.029827943
-0.037938457 -0.052832622 -0.024008702 0.051912762 0.0023148044 0.020869277 0.06986659 0.04710827
0.013669208 0.07658129 -0.026860615 -0.01804532 0.0022816106 -0.046632346 -0.06639645 0.04172029
-0.04601465 -0.08978085 -0.07377352 0.045023758 -0.033764135 0.06496901 -0.062319823 9.8331795e-05
0.06508349 -0.05264827 -0.04478097 0.081894025 0.075588286 -0.08888916 0.054683797 -0.0015303852
-0.07602852 0.0018414103 0.07124519 -0.0022889678 -0.0064031193 0.052931495 0.030823141 0.0060138684
0.04057604 0.07144851 0.066822685 -0.06825984 0.053769726 -0.024714848 -0.03390468 -0.07556564
-0.010543204 0.07399903 -0.080199495 0.0647941 -0.09788497 -0.05470633 -0.005685496 -0.03668929
-0.022915564 0.053275168 0.025592156 0.0070830504 0.10514168 0.025407547 0.0057707992 -0.008602825
0.1483187 0.056894246 0.03247579 0.0015879204 0.051964536 -0.027963722 0.07492699 0.060542025
0.1197615 0.012228772 -0.050242268 0.036723036 0.071712635 0.09765663 0.094650865 0.056513663
0.055422004 -0.0057151 0.06594626 0.025296375 0.10652949 0.043270875 0.07156699 0.0016803904
0.02025233 0.08866431 0.03685934 -0.027780902 -0.0065834983 0.0077257585 0.0037467536 0.013548073
0.0861696 0.0024487616 0.0503423 0.045571923 0.04105901 0.0966803 0.08779859 0.020085901
0.023665035 0.0006837725 -0.05024104 0.062233247 0.02419804 0.08088044 0.04585798 -0.060584385
-0.003864295 0.09425562 -0.057890117 0.00058270706 -0.036783826 -0.024645306 0.006428229 0.098021016
0.063808 0.06285474 0.0067414846 0.060524236 0.031568382 0.025398014 0.030932989 -0.037875563
-0.01725597 -0.0062201573 0.10462629 0.06170852 0.024610521 -0.015690444 -0.035419263 0.08787662
0.07756578 0.024335206 0.10470027 0.10073639 0.12359399 -0.023893815 0.028523892 -0.04398058
0.072661355 0.10827449 0.0044135507 -0.027272573 0.050260924 -0.0006860126 0.058656547 0.043704666
0.10266873 -0.05377836 0.030304288 0.05777024 0.06175257 -0.011508472 0.028229423 0.072151974
-0.010957243 -0.07790072 -0.09074268 0.044964336 0.07896968 -0.030302608 0.09938731 0.08995653

linear_a_0.bias f4 [16]
00000000: f622 1a3d 43a4 213d c0bc 5dbd 6a8a 2bbd
00000010: d8c3 4e3d 20eb 3dbc 3271 9b3d ef0d 4abd
00000020: ebfb c8bc 74c7 1cb9 4773 093e 0bca 253d
00000030: 9d4b ba3c 46eb 3abd 5d6c fc3b 347a 27bd
0.037630998 0.039463293 -0.054135084 -0.04188005 0.05047974 -0.011591703 0.0758995 -0.049329694
-0.024534186 -0.00014951621 0.13422881 0.040475886 0.022741133 -0.04563453 0.0077033476 -0.040888026

GRU_a.weight_ih_l0 f4 [48, 16]
00000000: 0fd6 dc3d 6dbd 683d cb34 4a3e 83ee af3c
00000010: 03df 683e a665 46bd 8892 a23d a12d 04be
00000020: f2a7 bbbb 71aa 5fbd 448c 65be 30b9 da3d
00000030: 3dbd 423d 4f46 1d3e 8529 4b3e d86b 3dbe
00000040: 3e44 133e c023 563d 334d a9bd be18 8bbd
00000050: 58bc 23be 10d5 673e 3401 9c3d 4475 4abe
00000060: d536 453e 2d6e 503d 6c94 92bd 0e4d 583e
00000070: 542c 203e df8c 2f3e 2fa0 39be c9c9 21be
00000080: 6e2a 4ebe 8674 2cbe 9f6e a9bd 1248 30be
00000090: a4ed 20be bf14 7d3e 67cb e6bd 3308 3e3e
000000a0: 7bc1 393e 019d bfbc 680a 22be 0d84 303e
000000b0: 5fc8 823e 0fc3 48be 7e17 693e 5c93 323e
000000c0: f523 d0bc 0f3b b9bb a747 79be b78c 4c3d
000000d0: 046b 94bd 84cd f13c 4677 ddbd 2249 e83d
000000e0: d31f 293e 0421 48be c052 8f3d 73e2 cbbc
000000f0: d1ff 7e3d bd36 1cbe d96e bb3d 6025 123d
00000100: 45e1 00bd 6c0f 3f3e 985f 583d 1787 2abe
00000110: 94fb 2fbe e16a 973e 86f4 fe3d af77 29ba
00000120: 47f7 5a3e 5eaa cdbd c12c 06be f640 ad3c
00000130: ef36 873e 1904 9e3c 2d40 afbb 6ddf 923d
00000140: f7a2 97bd ed0b 2f3e 8fbe 233e 95a4 023e
00000150: c7fd 73bb 490b ac3d c002 003e 8018 b73d
00000160: acde 54be 17d5 4b3e 1a5b 30bc b140 0b3e
00000170: 2143 893e a700 853e d7c6 333e 36d4 c13d
00000180: 3182 64bd 7d5e e6bd 25b5 aa3d 7847 2fbe
00000190: bca9 1abe b0f7 113d 6f0c c9bc d069 c03c
000001a0: 2d8a 083e 25ce 413d 1dc2 6dbe 6995 773e
000001b0: 0c8d 953c fe85 55be 03a1 00be 8afb 6fbd
000001c0: 050d 21be 9ac3 48be 6cf1 473e a1d4 eb3d
000001d0: 8287 433d 3d1a c43c b506 d8bd aeb5 ba3c
000001e0: 03b3 f63d 97a4 c6bd 787d 36be 7eb9 1bbe
000001f0: cc82 1b3e 2fbe 353e 87f4 5e3e ae4c 443d
00000200: 3fff 79be ceeb adbd 5547 1f3e 5323 213e
00000210: 3211 8abe 13db d13d d2ba 38be 315b dcbd
00000220: 2c47 b43d 1f29 923c 71aa 34bd b785 37bc
00000230: 6b97 15be bca9 243e 8f0c efbc 1103 47be
00000240: 68fb 453c 60ee 42be f82b 503e a96d 8a3c
00000250: 3a76 063d dc0c 3c3e ac37 833c 3960 42be
00000260: cab9 4fbe aeba 083e fa11 48be dc05 283e
00000270: 5853 263e 8e79 3f3e 95cd 91be 0458 0cbe
00000280: e80d 443c 1d75 f13d 0b72 8b3d fcf7 44be
00000290: 6c8b 3c3d 3ae3 5b3e 9393 91bd a42f ca3d
000002a0: 6a58 833d 58f2 563e 602a 633c 714c 03be
000002b0: cc09 2fbe 9d88 a0bc a13b 2bbe bc0e 0bbe
000002c0: 6363 80be 2b7a 50be 4aea 5d3e 4b27 94bd
000002d0: ee3d 863e cbd0 043e 7fe7 063e 7396 13be
000002e0: d4a2 cb3d dd4f 9abd 9972 623d 5757 503e
000002f0: 5b75 463d 5e52 d1bb 4630 1b3e 94b5 70be
00000300: 852f 0e3e 5ab2 2d3e 52d2 b1bd 9a11 7e3e
00000310: bf9d 6abe a1f2 2ebe ec00 6a3d 54b7 02be
00000320: 0040 3fbd 8ff7 b0bd ce2c 143e 7e63 ec3d
00000330: 712c a93d 2b9e 533d c934 a7bc 9262 0e3e
00000340: b1dc 6c3e 8653 82bd e900 403e 62d1 a7bd
00000350: afca df3d 5ea4 bb3d 5628 7e3d 965a 723c
00000360: 6c51 583d 2dcf 6f3d b503 2fbe b2b4 c3bb
00000370: 7725 ee3d 3ad2 c7bd 5111 b3bc cc9f 3e3e
00000380: f805 58bd c4f7 8c3d 4967 32be 31de 39bc
00000390: 0356 113e 1f6a 063e 8253 e6bc deaf 67be
000003a0: 0075 7c3e 5e8e 94bd cd0d 5dbe 8b7d 853d
000003b0: be75 ee3d 6c29 803e d240 d9bd 7e9c 3abe
000003c0: bd06 40be 05fd 64bc 6e34 26be 45da 683d
000003d0: 9ebb 103e 9b90 04be 090b 4bbd 6b95 84be
000003e0: 1ba4 90be 404c aabb b966 41be c525 1fbe
000003f0: 8f56 b13b dd38 50bd a25b 7e3d d40a 453e
0.10783016 0.056821276 0.19746701 0.021476036 0.22741322 -0.048436783 0.07938105 -0.12908031
-0.0057268078 -0.054605905 -0.22416788 0.10679853 0.047543753 0.15358852 0.19840057 -0.1849817
0.14381501 0.052280188 -0.08266678 -0.067918286 -0.15989816 0.2263987 0.07617417 -0.19771296
0.19259198 0.05088632 -0.071572155 0.21123144 0.1564191 0.17143582 -0.18127511 -0.15799631
-0.20133373 -0.16841325 -0.082730524 -0.17214993 -0.15715653 0.24714945 -0.11269265 0.18557815
0.18140213 -0.023390295 -0.15824282 0.17237873 0.25543496 -0.19605659 0.22762868 0.17439026
-0.02540777 -0.0056527923 -0.2434374 0.049938884 -0.07246974 0.029516943 -0.10813765 0.11342074
0.16516046 -0.19543844 0.06998205 -0.024888253 0.062255684 -0.15255256 0.09152002 0.035680175
-0.031464834 0.18658227 0.05282554 -0.16653095 -0.17185813 0.2957373 0.12448983 -0.00064646726
0.21383391 -0.100422606 -0.1310301 0.02114914 0.26409099 0.019289063 -0.0053482265 0.07171521
-0.0740413 0.17094393 0.15990661 0.12758096 -0.003723012 0.0840059 0.12501049 0.0894022
-0.20788068 0.19905506 -0.010763908 0.13598897 0.26809028 0.2597706 0.1755632 0.09464304
-0.055788223 -0.11248491 0.08335332 -0.17117107 -0.15103811 0.035636604 -0.024542062 0.023487955
0.1333396 0.047315735 -0.2321858 0.24178089 0.018255733 -0.20851895 -0.12561421 -0.058589496
-0.15727623 -0.19605866 0.19525689 0.11515165 0.047736652 0.023938293 -0.10548154 0.02279171
0.120458625 -0.09699362 -0.178213 -0.15207478 0.15186614 0.1774833 0.21772967 0.04792469
-0.24413775 -0.08492242 0.15554555 0.15736131 -0.26966244 0.10246863 -0.18040016 -0.10759581
0.088026375 0.017841874 -0.044107858 -0.011201314 -0.14608543 0.16080374 -0.029180793 -0.19434763
0.012083866 -0.19036245 0.20329273 0.016897993 0.032827593 0.1836428 0.016017757 -0.18982019
-0.20285717 0.13352463 -0.19538108 0.16408485 0.1624273 0.18698713 -0.2847716 -0.1370545
0.011966206 0.11789916 0.06808861 -0.19235224 0.0460314 0.21473399 -0.07108226 0.09872368
0.06413348 0.20990884 0.013865083 -0.12822129 -0.17093581 -0.019596392 -0.16721965 -0.1357984
-0.25075826 -0.20359103 0.21671405 -0.07234057 0.26219124 0.12970273 0.13174246 -0.1441286
0.099431664 -0.07534764 0.05528507 0.20345818 0.048451763 -0.0063879928 0.15155134 -0.23506767
0.13885315 0.16962567 -0.086826935 0.24811402 -0.22911738 -0.17084743 0.057129785 -0.12765247
-0.046691895 -0.08640968 0.14470217 0.11542414 0.0826043 0.051664513 -0.020410912 0.13904789
0.23131062 -0.06363587 0.18750347 -0.081942335 0.10927331 0.0916221 0.062050186 0.014792105
0.052812025 0.058547188 -0.17091258 -0.0059724683 0.116282396 -0.097568944 -0.021858843 0.18615645
-0.052740067 0.06883195 -0.17422213 -0.011344478 0.14192967 0.1312642 -0.028115992 -0.22625682
0.24654007 -0.07253717 -0.21587296 0.06518086 0.11643551 0.25031602 -0.106080666 -0.1822376
-0.1875257 -0.01397634 -0.16230938 0.056848783 0.1413407 -0.12945788 -0.04957107 -0.25895247
-0.28250203 -0.005197078 -0.18886842 -0.15541752 0.00541193 -0.05083548 0.062099107 0.19242412

GRU_a.weight_hh_l0 f4 [48, 16]
00000000: e79c 8e3d 9a18 e6bd 6aaf 263e 8b35 3a3e
00000010: fa47 80bd 8334 23be 2644 51be 3606 70bd
00000020: ed63 183d 2058 5b3e 0450 3a3e 9382 3a3e
00000030: 97ed f73d 72e7 c1bd ee9a 243d 4bd2 d63d
00000040: 0d17 1b3e 8a41 87bd 16b4 8cbe bf25 3e3b
00000050: 7d5f 2a3e 9c76 5c3d 91c2 e4bd 35d2 22be
00000060: fc2b 13be 67b0 77be f13a c2bd c3bb 90bd
00000070: 5cc5 80bb 2f89 5bbe b57d be3d c5aa 0f3d
00000080: cff1 ca3d fb52 5b3e bfdd 14bd fd87 3cbe
00000090: 20ee 903e f053 79bd c872 d93d 66ee e93d
000000a0: d23a 9d3d af62 9e3c f2fc a6bd 8b1c 20be
000000b0: d577 103d 078a c23d e884 7cbd b0ea bcbd
000000c0: 923e 76bd a02b 4f3e c842 f13b 8650 a8bd
000000d0: dc42 bfbd eb00 78be 2120 103d b083 5bbe
000000e0: 89a3 ce3d 76bd eabd 4d82 01be 43e6 453e
000000f0: dc58 c73d 8866 373e 6a86 513e cbfd 3c3e
00000100: ae8a a73d ecde c33d e34b 653e 4b3d 743e
00000110: 445a 303e 693b 493e cbeb 34be c1c5 1b3c
00000120: 2813 393e df1e 423d be2f 983e bc37 ec3a
00000130: 4918 1bbd 3f93 623e ecd9 863e 193d 67be
00000140: d28c 143e 2077 443e c2cf c83d b9e1 ceb8
00000150: d309 1e3d 7708 4fbd 33d4 c1bd 3cc8 fbbd
00000160: c7a4 4dbe d605 383e 195b f03d b22c a23c
00000170: 5587 50be 00bc adbb ec67 a0bd 3ad7 bcbd
00000180: fe83 a23d 673d 12be 8aa4 21be 7a28 abbc
00000190: 874e 793b 3e6c 63be 447c 783e 1c42 bc3d
000001a0: 9ec7 31be d14f 31be 75f8 643e f04f afbd
000001b0: c76c babd a20f b7bb 7854 f63d bbb3 c13d
000001c0: 22f5 7fbd df7e 103e 4f96 c0bd fb50 a9bc
000001d0: c6be 003e ee76 233d a105 cfbd 8521 353e
000001e0: 99e3 acbd 08ed b33d bfe6 6abe a56b 32be
000001f0: 8adb 23be 1cef d03d 3ae9 893d 6ae5 5a3d
00000200: 9718 c3bd 33c1 2cbe f5df 01be ab82 37be
00000210: 0886 3fbe 5a82 f7bd ab76 f4bd 211a f4bd
00000220: 9c45 0d3e 7221 04be dc16 a03d 29c2 47be
00000230: 6fac 653e 4a3a 493e 66bb e4bd 25c3 6ebe
00000240: 4bb0 b73d 7176 98bc 7df0 3abe 6d7a aa3c
00000250: 7a97 263e 1eb1 18be 5825 3b3e 006c 673d
00000260: 5a0b 98bd 9bd5 3f3e c26a 6abc c9d6 4abe
00000270: 38bc b3bd 6745 843d e092 2f3d 4814 423e
00000280: cd1b 6dbe 9b7c 20bd 335f d83d 37b6 d0bc
00000290: 147a 6cbe 11a9 a83d 0d10 523e 5bb6 5b3e
000002a0: c1fb 2ebe 24ec 0b3e 668a 193e 337c 39be
000002b0: 8057 98bc 1c5b ef3d 37f5 2cbc 02b7 b03c
000002c0: e9ef 573e 98cc 793e b729 3ebe 68ee 00be
000002d0: 2be8 6bbe d8a6 e5bd 85c6 88bc 6d99 4abd
000002e0: 4a25 c4bd 02dc 373e 4130 5ebe e46b 043e
000002f0: f7d2 f63b 9daf 5abe 95f3 35be e96a 063b
00000300: 513a d73d 55ca 8bbc 87a6 3e3c f78d 453c
00000310: a19d 4d3e e7f7 3c3e 1b91 97bd 0cea 353c
00000320: 8df7 66be 549c 433d 2214 253e b3c3 d83d
00000330: 9fbc 563e ffe1 2cbe e8e4 48bd 4870 553e
00000340: 0509 7b3d 666c 5a3e 8a0c 133d 5758 573e
00000350: d6c9 40be 2d38 9f3d 938e a3bd ebb7 45be
00000360: 5d5d 40be 957e 9abd 4be3 b73d df86 003e
00000370: 4d3f 26bc 3d4b 25bd d8f8 31bd 0623 393e
00000380: 6940 163e 07ce 163e 7480 14be 1aa5 943d
00000390: fd10 033e 46d3 eebd 46f7 773e 028b 293e
000003a0: 6257 ad3d 2bf5 ea3c 77b1 183e 40ae 4d3e
000003b0: d3d9 2bbd 172f 3b3e b0ae 2d3e 7e19 4fbd
000003c0: 8c11 ca3d ea96 dabd 3871 5ebe b5df 87be
000003d0: e0a5 353e 01db 443d 1f8d c43d a051 043d
000003e0: 7537 41be 801b 533e 8dbe f13d eae8 45be
000003f0: 2e9a 4fbe b189 53be 5e11 11be 3756 68be
0.069635205 -0.11235161 0.16277853 0.18184488 -0.062637284 -0.15938 -0.20436153 -0.058599673
0.03720467 0.21420336 0.18194586 0.18213873 0.121058635 -0.09467973 0.040186815 0.10489329
0.15145512 -0.066042975 -0.27481145 0.0029014198 0.16637988 0.053824052 -0.11169923 -0.159005
-0.14372247 -0.24188386 -0.094838984 -0.07067063 -0.003929777 -0.2143905 0.093013205 0.035074968
0.099094026 0.21418373 -0.036344286 -0.1841125 0.28306675 -0.060871065 0.10617596 0.11422424
0.07677235 0.019334165 -0.08153714 -0.15635888 0.03527053 0.09498983 -0.061650187 -0.092244506
-0.060118265 0.20231485 0.0073626973 -0.082184836 -0.09338924 -0.242191 0.03518689 -0.21436954
0.100897856 -0.11461918 -0.12647362 0.19326119 0.097337455 0.17910206 0.20461431 0.1845619
0.08180748 0.09564003 0.2239223 0.23851506 0.17221934 0.1965157 -0.17668073 0.009507597
0.18073714 0.047392722 0.29723924 0.0018021981 -0.037864957 0.22126482 0.26338136 -0.225819
0.14506844 0.19186068 0.09805252 -9.8648896e-05 0.038583588 -0.050545182 -0.09464302 -0.12294051
-0.20082389 0.17970976 0.117361255 0.019796703 -0.20364125 -0.0053019524 -0.078323215 -0.09220739
0.07935332 -0.14281236 -0.15785423 -0.020893324 0.003804119 -0.2220926 0.24266154 0.09192297
-0.17361304 -0.17315604 0.22360404 -0.08560169 -0.09102779 -0.0055865804 0.1202783 0.09458109
-0.062489636 0.14110897 -0.09403669 -0.020668497 0.12572774 0.039908342 -0.101084955 0.17688568
-0.08441848 0.087854445 -0.22939585 -0.17423876 -0.16001716 0.102018565 0.067339376 0.053441443
-0.095261745 -0.16870575 -0.12683089 -0.1792094 -0.18703473 -0.120854095 -0.119366966 -0.11919046
0.13796085 -0.12903383 0.0781686 -0.1950766 0.2242906 0.19651142 -0.11168556 -0.23316629
0.08969172 -0.018611165 -0.18255801 0.02081033 0.16268721 -0.14911315 0.18275964 0.05649948
-0.0742404 0.18733828 -0.01430768 -0.19808497 -0.08776134 0.0645855 0.04286468 0.18953049
-0.23155136 -0.039181333 0.10565033 -0.025477512 -0.23093444 0.08235372 0.20513935 0.21456282
-0.17088224 0.13664299 0.14994201 -0.18113784 -0.01859641 0.116872996 -0.010556511 0.02157164
0.21087612 0.24394453 -0.185706 -0.12590945 -0.23037784 -0.112134635 -0.016696224 -0.049462724
-0.09577425 0.1795502 -0.21698095 0.12931782 0.007532473 -0.21356054 -0.177687 0.00205105
0.1050917 -0.017064253 0.011636383 0.012057773 0.20079662 0.18453942 -0.074007235 0.011103164
-0.2255537 0.047756508 0.16120961 0.10584202 0.2097039 -0.16883086 -0.049046427 0.20843613
0.0612879 0.21330413 0.03590063 0.21029793 -0.18826994 0.077743866 -0.07986178 -0.1930844
-0.18785615 -0.07543675 0.089788996 0.12551449 -0.010146928 -0.040354956 -0.043450207 0.18079767
0.14673008 0.1472703 -0.14502126 0.07258053 0.1279945 -0.11661391 0.24215421 0.16556934
0.084639326 0.028681358 0.14911447 0.20086002 -0.04195578 0.18279682 0.16961169 -0.05056142
0.09866628 -0.10673316 -0.21722877 -0.26537862 0.17739058 0.04806042 0.09597229 0.032304406
-0.18868811 0.20615959 0.11803923 -0.19327131 -0.20273659 -0.20657994 -0.14166781 -0.22689138

GRU_a.bias_ih_l0 f4 [48]
00000000: cd99 5bbe 16c4 043e 190b 0abe 1987 3dbd
00000010: c310 043e ccd7 193c 2c5b 553e 070c bebd
00000020: 005c 4b3e 8257 913d 1775 2abb b0ec a93d
00000030: 9d6d d8bd 0305 573e 9be0 193d cd22 423e
00000040: 9853 a8bd 880a 3f3e 0ceb 18be 6386 2abe
00000050: 57bc 0d3e 9172 1fbe 4d52 ca3d a125 ffbd
00000060: 28cb 6f3e 8f94 9ebe 4925 b3bc 901d 3abe
00000070: 49db 8abd a1bf edbc 4264 3b3e 995e 68be
00000080: f59d a9bd e037 bc3d efac 6d3d 9ed6 173e
00000090: a8bf 64be 3836 24bc d614 423e 46d0 2f3e
000000a0: 5c2c 66be 6360 a4bd 569b 8a3d 976a 28be
000000b0: 61d9 3b3e 2692 263e 55bb bbbc 06aa 34be
-0.21445389 0.12965426 -0.13480796 -0.046271417 0.12897019 0.009389829 0.2083556 -0.09279638
0.19859314 0.07096769 -0.0026009732 0.08297098 -0.10567782 0.20998006 0.037567716 0.18958588
-0.08219069 0.18656361 -0.14933413 -0.16652827 0.13841377 -0.15571047 0.09878979 -0.12458349
0.23417342 -0.30972716 -0.021868365 -0.1817534 -0.067801066 -0.02902204 0.18299964 -0.22692336
-0.08282081 0.09190345 0.05802625 0.14827964 -0.22338736 -0.010022692 0.18953261 0.17169294
-0.2247786 -0.08026197 0.06767909 -0.16446911 0.18344642 0.16266689 -0.022916475 -0.17642984

GRU_a.bias_hh_l0 f4 [48]
00000000: 73c5 133e 70ba 0abe 29c7 4fbe 4aef e83d
00000010: f6fe babd 11ef 4c3d 0aab 643e 3a49 de3c
00000020: a0f7 a33d 93f0 fb3d 4362 04be 6ca0 363d
00000030: 8d15 afbd 5561 503e 5c09 b8bc 7e5e 49bc
00000040: d138 303e 4aed 98bd 0f89 2fbe 70b9 25be
00000050: a7a9 44bd 4f36 7cbe 8217 6a3e 429a 44be
00000060: 2695 17be e2bb 6fbe 6c60 0a3e 87a4 8e3d
00000070: f9a9 613e afca dcbd 3839 80be 47ad cfbd
00000080: 2cb9 d23d 4289 68be 8d47 02be 08f0 653e
00000090: efd3 513e a001 25be 367c 64be 9d1b 5cbe
000000a0: 516c 493d 529d f9bd cc94 1b3e 3586 de3d
000000b0: 9743 e73c c1f9 6c3e 2178 0b3e 5543 bc3d
0.1443079 -0.13547683 -0.20290817 0.11373766 -0.09130661 0.05003268 0.22330871 0.027134527
0.08006215 0.12301745 -0.12928109 0.044586584 -0.08549032 0.20349629 -0.0224654 -0.012290595
0.17209174 -0.07467134 -0.17142127 -0.1618402 -0.048013356 -0.24630092 0.2286053 -0.1919947
-0.1480299 -0.23411515 0.13513345 0.06964975 0.22037496 -0.10780846 -0.25043654 -0.10140472
0.10289225 -0.2270861 -0.12722607 0.22454846 0.20491003 -0.16113901 -0.22313008 -0.21494909
0.049175564 -0.121882096 0.1519348 0.10865442 0.028230472 0.23142149 0.13620044 0.0919253

linear_a.weight f4 [4, 16]
00000000: 1026 a53d 4b46 efbe d211 01be 164f c3bd
00000010: d8d2 a6be 1beb ebbe 59cb 17be 0776 73be
00000020: 45a9 febd a8cb edbe 2cea 61bd ba04 b3be
00000030: 8eeb 5bbd 62aa 093e 1ab4 293e 1c90 093e
00000040: 38a4 bcbc 2bbd a6bc 6147 b43e 0623 6a3e
00000050: 52cb be3e 5ab3 1b3d bd52 743e 0044 333e
00000060: 2488 513e d060 553e 60a6 b23e d2fd 8d3e
00000070: f91d 26be 1190 743e dc10 ffbb 0234 353e
00000080: 3177 d3bc 0b4b 2cbe 8a4f f3bd c119 b9be
00000090: 442c 53be 6155 c5bc 8008 5ebe 75c4 e1be
000000a0: 64ca 22be 839f a2bd 062c b2be 1558 9f3d
000000b0: 1a6b 08be ce21 52be 7ee6 8c3d 7d28 dc3d
000000c0: f8a2 80be c31c 953e 71c9 843e cbe1 683e
000000d0: c972 853e 3b82 ae3e 8c06 2e3e c41b 863e
000000e0: f3b1 00bd 0fed 1cbe 5374 4a3e 6909 c3bd
000000f0: b6b0 193e 4ff4 973d 4f03 6f3e 84c1 44bc
0.080639005 -0.46733317 -0.12604454 -0.09536569 -0.32582736 -0.4607781 -0.14823665 -0.23775493
-0.12434629 -0.4644444 -0.055154964 -0.34964544 -0.05369144 0.13443902 0.1657261 0.1343388
-0.023027524 -0.020353874 0.35210708 0.22864923 0.37264496 0.03801284 0.23859687 0.17506409
0.2046209 0.20837712 0.3489256 0.27732712 -0.16222371 0.23883082 -0.007783992 0.1769562
-0.02581367 -0.16825502 -0.11880405 -0.3615246 -0.20622355 -0.024088563 -0.2168293 -0.44095197
-0.15897518 -0.07940581 -0.34799212 0.07780472 -0.13322106 -0.20520708 0.068799004 0.1074991
-0.25124335 0.29123506 0.25934938 0.22742383 0.26064137 0.34083733 0.16994685 0.26193058
-0.031419706 -0.15324806 0.19770937 -0.09523279 0.15008816 0.07419645 0.23341106 -0.012009028

linear_a.bias f4 [4]
00000000: 951a 80bd bd10 d4bc 08cf a73a d248 963d
-0.0625507 -0.025886888 0.0012802789 0.07338108

conv_v_0.weight f4 [16, 7, 3, 3]
00000000: 3a76 b3bd f1c4 273e 184d 3d3e d4b2 b83c
00000010: 4c97 b43d 16c1 113e 2ee2 bd3d b8fe dfbc
00000020: 8724 c0bd 223e d13d 317f 8fbc 1bb2 273e
00000030: f0db 143e e60d 163e 7e2d 153e fb44 c8bd
00000040: 0257 bebc b66a b13d 5a69 aa3d 4873 8c3d
00000050: 713a 113e d26c cd3d dceb 67bc 49e1 983d
00000060: 1972 7fbd 10df 40bc 3536 3c3e 04a0 9e3d
00000070: 7528 f23b 0a09 023d f155 1c3e fa7e b93c
00000080: c8fc 613d 7859 1d3d 8a8e 08be 79b6 2e3e
00000090: 1120 ac3d 8672 2e3d 0d3b eb3d 8753 bfba
000000a0: 30e2 0a3d 748d 0bbd b0d1 1bbd b693 603d
000000b0: 0c2a 89bd 820a 18bd 673d 7a3d 74ff b8bc
000000c0: 09b5 34bd f216 bb3c 8400 12bd 0820 f63d
000000d0: 6e33 5ebd 3bf3 023e 231a 08be 2111 edbd
000000e0: f12c 08be 7dcb 06be 2689 4d3d 390a 8fba
000000f0: 443f 17be 0810 25be aac1 d2bd cd96 db3c
00000100: a5cc 6cbc f643 75bd ef6e c33d 8b93 153d
00000110: 3aaf 033d bfe0 bebd d9aa b4bd 1857 b8be
00000120: bdcc 75bd 1b7c 95bc 5c4a c83d 08e0 14be
00000130: 9ea3 c6bd 58d4 23be cd9c 0c3e 856b 3e3d
00000140: d141 f73d 6a69 2abe 14f6 65be 62ca 73be
00000150: c074 1fbd a4d4 193d 1a41 5e3e 83b6 053d
00000160: 9f48 393e 0bd1 f73d 31ed 853d 1312 b03d
00000170: f6b7 fa3c e986 16bd cf6b 9dbc e34b 41be
00000180: 2a81 c73c 03ca 61bc 1d44 8b3d 0dbc 023e
00000190: 3756 aa3c 6d6e 953d c52a cabd af10 29bd
000001a0: 1336 073c fa0d 95bd e4e4 e93d bb86 2cbd
000001b0: 66cd f13c da01 f9bd f1b3 fd3d b7ad fdbd
000001c0: 66b2 c73c ff12 6c3d 0eae 913d d6f1 1dbc
000001d0: 7156 913d 15c6 5ebd 325b f8bd 3121 b33c
000001e0: ad9e bbbd f2fc a9bd c63c 70bc 2b4e 9bbd
000001f0: 859e 69bd 7d59 3e3d 2f52 763e 61a9 873e
00000200: 256d bbbd 7291 a83d f09b 11be 0789 97bd
00000210: 67a9 d9bd abfc cdbd 6715 20be 4431 8dbc
00000220: eb9a 82bd e48b d0bd 10f5 b13c d14c 343e
00000230: d6ac a5bc fbdb be3d 559b 5d3e e866 b03d
00000240: 049b 643e a5b3 41be 5d7d 263e 0515 84be
00000250: f855 adbe 3b1d 8fbe 9893 053e 1e4d b3bc
00000260: 42d1 efbd 14f0 1bbd d3a3 2dbe 7aac 0abe
00000270: 3e05 ea3a 3bf0 f9bd fdfa 293e ebe5 3e3e
00000280: d7ae dbbd fa49 3e3e d94c 2e3e 09c8 b93d
00000290: 37a4 e93d 7732 debc ceef 313b 279e 823d
000002a0: f59a 793c b35b 13bd af9c 063e a029 2abd
000002b0: a6cd debd 878e 0bbd 0b84 72bc a186 61bd
000002c0: 6e2c 843d 066c cabd 1978 223d 7758 f33d
000002d0: 8505 27bd 3744 1a3e a42e db3d 3cdb 853d
000002e0: 6c13 dc3c 58b7 3b3d 44e3 3bbb 5d2f 753d
000002f0: a992 203e 2ba9 02be c3af dabc 640b e9bd
00000300: 9ff6 213d fd10 083e eafd 21be 2102 f53d
00000310: a37b 263d bf93 37bd 6759 aa3d 6d86 23be
00000320: a1f4 033e 81f2 3dbc 0121 853d 4458 4c3d
00000330: 7141 9abc c2af bf3c a8a2 87bd 09c7 e0bd
00000340: 4d53 b43c 6ca6 43bd 6181 1f3c a3ae 8abc
00000350: b149 e9bd 2d1b 1abe 0ba5 3d3d de70 933c
00000360: 92e1 de3c 9aef 203e c027 ffbc 420e 8bbd
00000370: d77c fd3d 6880 963c bbd1 513d d348 063e
00000380: b7a0 e43c ecc4 f4bb aa11 a73d 1f34 033e
00000390: 1196 0a3e f9c1 d0bd 962d ab3d ed13 e2bd
000003a0: 6ff8 ff3d 986a cabd 93e2 ef3d 306a 81bd
000003b0: 341a e4bc 2f85 71bd 268e 73bb 196d ffbd
000003c0: fc23 50bd 61d8 9e3d 18ce 903d aab7 1dbe
000003d0: 93fb a6bd de0e 8c3d 4f68 503c 9433 47bd
000003e0: 69db 84bd c3ca 123d 9089 a5bc a94f cdbc
000003f0: 5eda 053e cf71 e63d 75e0 d03c ca4c 33bb
-0.08762784 0.16383721 0.1848644 0.02254621 0.0881792 0.14233813 0.09271656 -0.027343139
-0.09381967 0.10216929 -0.017516704 0.16376536 0.14537024 0.1465374 0.14568135 -0.09778782
-0.023234848 0.086629316 0.083208755 0.06857926 0.1418245 0.100305215 -0.014155354 0.07464845
-0.06236467 -0.011771932 0.18380053 0.07745364 0.0073900768 0.0317469 0.15267159 0.022643555
0.05517271 0.038415402 -0.13335624 0.17061795 0.08404554 0.042589687 0.114858724 -0.0014597037
0.033907115 -0.034070447 -0.03804177 0.054828368 -0.06697473 -0.037119396 0.061093714 -0.022582747
-0.04411796 0.02283809 -0.035645023 0.12017828 -0.054248266 0.12788098 -0.1329122 -0.11575533
-0.13298394 -0.13163562 0.050179623 -0.0010913081 -0.14770228 -0.16119397 -0.10290845 0.026805306
-0.014453088 -0.059879266 0.09542643 0.03651766 0.03214953 -0.09320211 -0.08821649 -0.36003947
-0.060009707 -0.018247655 0.09779808 -0.14538586 -0.09699176 -0.15998971 0.1373169 0.046489257
0.120731 -0.16641775 -0.22457153 -0.23807672 -0.0389297 0.037556306 0.21704522 0.03264476
0.18094109 0.12100419 0.06539381 0.085971974 0.030605298 -0.036749754 -0.019216446 -0.18876605
0.024353582 -0.0137810735 0.06800101 0.12767048 0.020793064 0.07296453 -0.09871439 -0.041275676
0.008252638 -0.072780564 0.114206105 -0.042120676 0.029516887 -0.12158556 0.12387837 -0.12386649
0.02437706 0.057635304 0.071132764 -0.009640178 0.070965655 -0.054388124 -0.12126769 0.021866413
-0.091611244 -0.083001986 -0.014662927 -0.07583269 -0.05703594 0.04647206 0.24054788 0.26496413
-0.09151677 0.082308665 -0.14219642 -0.07399183 -0.10628014 -0.10057958 -0.15633164 -0.017235406
-0.063772045 -0.10182932 0.0217233 0.17607428 -0.020224016 0.09319302 0.21641286 0.08613378
0.22324759 -0.18916185 0.1625876 -0.25797287 -0.3385465 -0.2795199 0.13044584 -0.021887358
-0.11709835 -0.038070753 -0.16957025 -0.13542357 0.0017854345 -0.122040235 0.1659965 0.18642394
-0.107267074 0.18582907 0.17021503 0.09071357 0.114082746 -0.027123673 0.0027150991 0.063778214
0.015234699 -0.035976123 0.13145708 -0.041543603 -0.10879068 -0.03407147 -0.014801989 -0.055060033
0.06453787 -0.09883885 0.039665315 0.11882108 -0.04077675 0.15065084 0.10702255 0.06535956
0.02686473 0.045829147 -0.0028669396 0.059859622 0.15680946 -0.12759845 -0.026695138 -0.11379126
0.039541837 0.1328773 -0.15819517 0.11963297 0.040645253 -0.044818636 0.083178334 -0.15969248
0.12886287 -0.011593462 0.065004356 0.049888864 -0.018830033 0.023399238 -0.06622821 -0.10975463
0.022012377 -0.047766134 0.009735436 -0.016928976 -0.11391009 -0.15049429 0.046299975 0.017998155
0.02720717 0.157164 -0.031146884 -0.06789829 0.12377327 0.018371776 0.051225405 0.13113718
0.027908666 -0.007469764 0.08157666 0.12812851 0.13533808 -0.10193247 0.08358304 -0.11038957
0.12498557 -0.098836124 0.117131375 -0.06319082 -0.027844526 -0.058964904 -0.0037163584 -0.124719806
-0.050815567 0.07756115 0.07070559 -0.15402094 -0.08153453 0.06838773 0.012720182 -0.048633173
-0.06487162 0.0358379 -0.020207196 -0.025062399 0.13071582 0.11252176 0.025497654 -0.0027359002

conv_v_0.bias f4 [16]
00000000: ecbb 2c3e 806f b73d 0afe 3cbb 8f02 d4bb
00000010: 939c 053e 412f c93d f403 c53d 2070 263e
00000020: eaeb a83d a599 053e 43bc 833d dda2 b4bc
00000030: bc67 08bd 3df5 f2bc 2caa eabb 7ddb f73d
0.16868562 0.08956814 -0.0028837943 -0.0064700316 0.1304801 0.09823466 0.096198946 0.1625371
0.08248122 0.13046892 0.064323924 -0.022050316 -0.033302054 -0.029657954 -0.0071613993 0.12102411

conv_v_1.weight f4 [16, 16, 3, 3]
00000000: daf6 08bc 6d47 263d eb85 c33d 0e5c b43c
00000010: 38ba 81bc 113e 163d d391 82bd 04cd f73c
00000020: 1d1d ce3d c553 35bc 349d 33be d9a3 cabd
00000030: 44f1 34bc bac4 05be dcc3 b9bc b3ad 07be
00000040: e952 62bd 25ed 1bbe cc28 dd3d 6215 e63d
00000050: 618f ee3d 5c4b 073e 5e6c 0d3e 78fd 803e
00000060: 3080 193e 146c 463d b031 713e b8a6 cb3a
00000070: 5bee 03bd 01fb 3a3d ab9b 18bd a1d7 80bd
00000080: b0fa 96bd e8f5 a33d d2d4 3ebd efe2 24bd
00000090: c352 3ebd ece7 d6bc b2e1 0c3e 67fd 2fbd
000000a0: d2a9 323e dddf 513d cc40 f73d 8fd1 56bb
000000b0: fec5 e63d a430 f73d 84f8 fb3b c33c da3d
000000c0: e7d7 4dbc c487 4cbd 0d45 163e e0e5 61bd
000000d0: c39f 8fbc 4322 833d 5b5c edbc bd07 8c3d
000000e0: ab97 e53d 7849 343c 8b76 113e 35fa 40bb
000000f0: c04a 94bd 115e 3e3b bf1b 123e c157 3f3d
00000100: a409 c43d 63d5 a6bc 945b c03c e50f c23d
00000110: 8228 a9bc d4db 3b3d 813f 04bd ed19 923d
00000120: 15e7 613e 8a0e 593e 9d34 303e aa40 263e
00000130: 741f 8b3e dbab 473e 35c8 af3d 1696 6e3e
00000140: d1d6 c63c 1cc7 1d3d 679e 343e 318d 1ebc
00000150: 746d 843d 3d92 c63d 3c06 d3bc 3ae4 e13d
00000160: 47cb 7e3c f170 69bb b1c1 a23d c3b8 023d
00000170: 98cd 343d 925d 9ebd c162 3c3e 011c 5ebd
00000180: 14dc f43d 09a9 b03d 6af5 683d 88b2 bdbc
00000190: 65af c43d 04e1 70bd 0e83 c1bc 1600 573c
000001a0: d932 b43c 1a60 6b3d 5e3f 6f3d e709 673d
000001b0: 0f89 35be 4689 99bd 864d 00be 2a7c 3cbe
000001c0: 635c 37be 9d48 47be bc64 21be 31d5 4abe
000001d0: d03b 20be 2f02 c53c 0616 193e 727c 463e
000001e0: 3011 44bc bddb 6f3e 759f eb3d efe0 4f3e
000001f0: 32bb 8e3e 8d98 02bc 4f58 b83d 834b 183d
00000200: d04f 5a3e 2bc4 1e3e 31f3 223e 023e d03d
00000210: f603 f03d b5de 253d c51d 083e a8d2 993c
00000220: 53c6 5fbd 35f7 fbbd 9134 90bc b251 43bb
00000230: e9b5 a7bd 4e90 91bd 048a 093d ac74 1bbe
00000240: 386e 583d a3e0 37bd eeaf 1e3c d829 c13d
00000250: e797 953d 91e4 e93c 80fa f2bb 1dac 87bc
00000260: e1fb 0b3e 9761 a0bd fd57 c73c dba6 0fbd
00000270: 98dd c4bc c49c ca3c 5a50 063d db88 d6bd
00000280: ee80 b4bd b08d 9c3c 32c6 993c 6971 763c
00000290: cc19 523d 1d55 163e 6803 bf3d 13f7 d83d
000002a0: 1aa9 9e3d f23a 193e 6387 503e a18c e93d
000002b0: b15a e33b 9331 a83d 7200 013e ec48 653d
000002c0: 0308 993d 6401 81ba caa1 003e 91ae af3d
000002d0: e9fa 1fbd 16cb 66bd adc0 91bd a4fa 733d
000002e0: 4313 d53c 5e04 0a3d 277a 1cbd 7f70 1a3c
000002f0: fdab 4cbc 53d9 723d b97f 52bc d6ed 2f3c
00000300: e090 d0bc e610 0cbd d180 b6bd 1f4a acbd
00000310: 6cdc 6abd 2346 79bd f3e8 883d 6061 f93c
00000320: 380c b43d 77e0 c13c 19d6 bbbb cff6 8f3d
00000330: a739 253e 6524 193e 896b 433c 71da 833d
00000340: 2582 943d 7c71 e0bb 8494 9dbd 0e83 5abd
00000350: 1ea6 1f3b db4d d6bc 1c8b 813d fd83 ca3a
00000360: d9aa 0e3e d385 8b3d 0fed 153e d4f1 323e
00000370: 651f d93d 2754 423d 7ce2 c73d a464 653e
00000380: 0c88 aa3d a888 fa3c e15c 44bc b616 8cbd
00000390: 2718 59bd af20 a33d ddfa 89bd ecb3 d2bc
000003a0: 16f9 f1bc 8d2b cf3c 7db0 fc3d 23b7 873d
000003b0: c86f c73d c45a 86bd 7d87 423c 1266 873c
000003c0: ff29 f538 caa9 19bd 77dc 7b3d 6f06 8ebd
000003d0: ee6e ccbc 36aa d6bd 87af bfbd f790 b839
000003e0: 846a a4bd 5acf 5abd 3007 8fbb 074a 0fbc
000003f0: 009f a83a 7871 f53c 2123 8b3d 9f45 093d
-0.008359635 0.04059546 0.09547027 0.022016551 -0.015835866 0.036680285 -0.0637547 0.030249126
0.10064147 -0.0110673355 -0.17540437 -0.09894533 -0.01104385 -0.13063326 -0.0226764 -0.13249855
-0.05525485 -0.15227182 0.10798797 0.11234547 0.11648441 0.13212341 0.1381087 0.2519338
0.14990306 0.048442915 0.2355411 0.0015537357 -0.032209735 0.045649532 -0.03725783 -0.06291128
-0.073720336 0.08005887 -0.04658968 -0.040255483 -0.046465646 -0.026233636 0.13757971 -0.042966273
0.17447594 0.051238883 0.12072906 -0.0032778715 0.11268233 0.12069824 0.0076895375 0.10656121
-0.012563682 -0.049934164 0.14674778 -0.055150867 -0.017532235 0.06403019 -0.028974703 0.068374135
0.11210569 0.011003844 0.14205377 -0.002944601 -0.0724082 0.0029047767 0.14268397 0.046714548
0.09572151 -0.020365423 0.023481168 0.09475688 -0.020649198 0.04586394 -0.032287125 0.07133851
0.22060807 0.21196952 0.1720757 0.16235605 0.27172434 0.19499151 0.08583108 0.2329944
0.024272354 0.038519964 0.1763855 -0.009677217 0.06466189 0.096958615 -0.025759809 0.11029859
0.015551395 -0.0035620297 0.079471 0.031914484 0.044141382 -0.07732691 0.18397047 -0.054225925
0.11956039 0.08625991 0.05687467 -0.02315642 0.09603766 -0.05880834 -0.023622062 0.013122579
0.021996902 0.057464696 0.05841004 0.056405928 -0.17728065 -0.07496886 -0.12529573 -0.1840674
-0.17906336 -0.19461294 -0.15761083 -0.19807889 -0.15647817 0.024048893 0.14949808 0.1938341
-0.011966988 0.23423667 0.115050234 0.20300649 0.27877194 -0.007970941 0.090012185 0.03718139
0.21319509 0.1550452 0.15913083 0.10168077 0.117195055 0.040495593 0.13292606 0.018777207
-0.054632496 -0.123030104 -0.01760319 -0.0029803333 -0.081889935 -0.07107602 0.033578888 -0.15181226
0.052839488 -0.044891965 0.0096855 0.09431809 0.07304364 0.028551372 -0.007415116 -0.016561562
0.13670303 -0.07831114 0.024333948 -0.035071235 -0.024031445 0.024732955 0.032791473 -0.10475322
-0.08813654 0.01911053 0.018771265 0.0150416875 0.051294133 0.14680906 0.093268216 0.10594001
0.07747097 0.14963892 0.20364146 0.11403776 0.0069383015 0.082125805 0.12597826 0.055977747
0.07472231 -0.0009842333 0.12561718 0.08578218 -0.039057646 -0.05634602 -0.07116828 0.0595652
0.026010161 0.03369557 -0.03820243 0.009426235 -0.012492177 0.059289288 -0.012847834 0.010737857
-0.025459707 -0.034195803 -0.089112885 -0.08412575 -0.057339117 -0.060857903 0.066850565 0.03044194
0.08791393 0.023666603 -0.0057323095 0.07029497 0.16135274 0.1495529 0.011927494 0.06438149
0.072513856 -0.006849466 -0.07694343 -0.05334764 0.0024360488 -0.026160171 0.06325361 0.0015450713
0.1393236 0.06812634 0.14641212 0.17475063 0.10601691 0.047443535 0.09759995 0.22401673
0.0832673 0.03058274 -0.011985035 -0.06840269 -0.05300155 0.07965218 -0.067373015 -0.025720559
-0.029537719 0.025289321 0.1233835 0.066267274 0.097381175 -0.06560281 0.011873123 0.016528163
0.00011690333 -0.03751544 0.06148955 -0.06934821 -0.02495524 -0.10481684 -0.09359651 0.00035203222
-0.08028129 -0.053420402 -0.0043648705 -0.008745677 0.0012864769 0.029961333 0.0679381 0.03351366

conv_v_1.bias f4 [16]
00000000: 6421 313c 4dd1 be3d f7f5 b43d 14e8 75bc
00000010: f7ad a8bd 7b27 f53c 2e4c 133e 00b8 bd3d
00000020: ae65 88bb c029 643d b344 bd3d baf4 ef39
00000030: fbaf ac3d cee7 333d 2c6d 973d 983a de3d
0.010811184 0.09317265 0.088359766 -0.015008945 -0.08236306 0.029926052 0.14384529 0.09263611
-0.004162512 0.05570388 0.09241619 0.00045767968 0.08432003 0.043922238 0.0739387 0.108510196
