league/checkpoints/mfos_seeds/new_self_3x3_47/450_1.pth (torch, 300942 bytes, 105 tensors)

conv_a_0.weight f4 [16, 7, 3, 3]
000000 e6 97 06 3e b9 b0 47 bd a1 dc 6d 3c 09 4a 92 3d
       0.13143882 -0.04875252 0.014517934 0.07143027
000010 5d 78 15 3e 67 9f 62 3c 66 ed c4 3d 34 a2 82 3d
       0.14596696 0.01383195 0.09615593 0.06378594
000020 1b ae 40 3e 76 f2 4c bd af f1 00 be ba b5 ce bd
       0.18816416 -0.050035916 -0.12592195 -0.10093255
000030 46 f8 17 3d 2e b4 09 3e 86 0a 11 bd 91 63 7f 3d
       0.037102006 0.1344764 -0.035410427 0.062350813
000040 70 a6 0c 3e 60 40 5b 3d 7f 50 7b bd c8 f8 12 be
       0.13735366 0.05352819 -0.061356064 -0.14352715
000050 86 1a 06 3c 01 b0 0d 3e 18 f8 44 bc 99 49 15 be
       0.008185035 0.13836671 -0.012022041 -0.14578857
000060 62 5b 56 3d 79 83 28 3e 98 d7 29 3e 3e cb 60 bd
       0.052333243 0.16456403 0.16586149 -0.054881327
000070 14 a0 0e be f4 e2 20 3e 7f 5e 4d 3d ae 17 bc 3d
       -0.13928252 0.15711576 0.050138947 0.09184204
000080 6a 4f e5 3d f8 5d e1 3d 5e d1 57 3e 80 79 0c 3e
       0.11196788 0.11004251 0.21075961 0.13718224
000090 b3 c9 a3 bb e5 d4 18 bd a9 df b4 bd bb 60 16 be
       -0.0049984097 -0.037312407 -0.08831722 -0.14685337
0000a0 58 82 79 bc f3 1f 41 bd c2 5f 8c bd 27 ff 34 be
       -0.01522883 -0.04714961 -0.06854202 -0.17675458
0000b0 07 02 97 bc c6 43 09 3e b7 a4 fd 3d f8 15 a9 3d
       -0.018433584 0.1340476 0.123849325 0.08256143
0000c0 87 96 f6 3a 73 f2 3d 3d 67 9d 98 3c 4c 3e d9 3d
       0.0018813171 0.046373796 0.018629743 0.10607585
0000d0 ad e2 b0 3d 9e 5e 14 3e 32 13 a9 bc 48 9a 60 bd
       0.08636985 0.14489219 -0.020639036 -0.054834634
0000e0 17 68 98 bd b6 df 59 3d 30 ae e3 bd 7e 8c 7c 3d
       -0.074417286 0.053191863 -0.11117208 0.06165742
0000f0 82 c4 11 be aa 17 63 bd 2d c9 85 3d 11 64 69 bd
       -0.14235118 -0.05544249 0.06532512 -0.056980196
000100 26 cb 21 3e 11 de 0c 3e a4 88 ee 3d e8 ef f8 3d
       0.15800151 0.13756587 0.11647156 0.121551335
000110 03 35 dd 3d 21 a3 30 3e 8b 8b db bc c1 de 12 3e
       0.10801127 0.17249729 -0.026799938 0.14342786
000120 bd 88 87 3d a9 89 a2 3d 27 5c 10 3e c0 07 83 bc
       0.06617878 0.07936413 0.14097653 -0.015994906
000130 86 25 db bc 18 7a 68 3d af 82 ab bd 47 b9 3b 3e
       -0.026751291 0.056757063 -0.08374535 0.18332396
000140 ca 3c d6 3d d1 e4 a3 bb dd b6 10 3d e2 e4 42 be
       0.10460813 -0.0050016423 0.035330642 -0.19032624
000150 3a a0 2f bd 9e 4c 9a 3d 60 39 02 3e d0 35 11 bd
       -0.042877413 0.07534145 0.127172 -0.03545171
000160 8f d1 06 be e5 27 b3 bd 4f 41 cd bc d9 58 ed 3d
       -0.13165878 -0.08747844 -0.025055556 0.11589212
000170 ae e8 77 3d 5f 3c 22 3e c6 e4 b1 3d b7 b7 49 3d
       0.060524635 0.15843342 0.08686213 0.04924747
000180 46 3b 9a bc 4d 09 dd 3c 52 78 a5 3d 59 98 a1 3d
       -0.018827092 0.026981974 0.0807959 0.07890386
000190 c9 96 12 3d b8 2e ba bc 3c 94 fa bb bc 53 f7 3c
       0.03578833 -0.022727355 -0.0076470654 0.030191295
0001a0 fb 74 58 bd d9 47 ce 3d 7a 4d 24 bd 30 4c ad bd
       -0.052845936 0.100722976 -0.04011295 -0.08461797
0001b0 23 16 12 3e 87 ca 2a 3c 9d bb 84 3d 55 d0 22 3e
       0.14266257 0.010424263 0.06481097 0.15899785
0001c0 9a e1 a8 3c 3c 07 bf 3d 66 40 6e 3c 44 89 75 3c
       0.020615388 0.09327552 0.014541721 0.01498634
0001d0 85 4a f2 bb 2f e3 91 3d 87 76 8e bc cd b8 cf 3d
       -0.0073941373 0.0712341 -0.017390503 0.1014267
0001e0 04 b7 59 3d d1 ea 03 3e 9f ba d6 3c df 86 b1 bd
       0.053153053 0.12882544 0.026212035 -0.08668303
0001f0 bd c4 e4 bc fe c4 13 3e 46 6a 1e 3e 15 07 42 3e
       -0.027925843 0.14430615 0.15470228 0.18948014
000200 b1 51 d4 3c 7e f8 40 3e a1 68 c3 bd cf 32 40 bc
       0.02591786 0.18844792 -0.09541441 -0.011730864
000210 7a 7a 01 bd 14 53 39 3e 73 18 4b 3d 6d e7 96 bc
       -0.031610943 0.18098098 0.049583863 -0.0184209
000220 54 65 c4 3d 2d 95 b2 3b 0d 26 99 bb 89 fd d8 3d
       0.09589639 0.005449912 -0.0046737255 0.10595233
000230 55 46 13 3d 03 25 4a 3e 40 0c 31 bd ba 01 3f 3e
       0.035955746 0.19740681 -0.043224573 0.18653002
000240 bf ad 82 bc 63 f1 8e 3d 96 4f 1a 3e ae bf 28 3e
       -0.01595199 0.069796346 0.15069422 0.1647937
000250 2a 5a fe 3d 0f d1 7d bd ac 0e 9f 3d bc 85 8b 3d
       0.12419541 -0.061966952 0.0776647 0.06812617
000260 d6 ba 13 3e ec 0b 05 bc ef 00 91 3c 84 2d 99 3d
       0.14426741 -0.008120518 0.01770064 0.074793845
000270 9b 9f b7 3c 5b 59 64 3d b8 5a 49 3c d1 59 ea 3c
       0.022414973 0.05574928 0.012289695 0.02860728
000280 35 84 d7 bc 25 e1 b1 bc b3 7c cb bc 40 00 84 3d
       -0.026308158 -0.021713803 -0.024839735 0.0644536
000290 68 a9 d1 3d fc 47 b7 bd 76 c4 1e bd 09 08 d5 3d
       0.1023739 -0.08949277 -0.03876158 0.10401923
0002a0 15 c4 7b 3d c1 79 98 bd f7 2e ed 3d 67 a0 6e bd
       0.061466295 -0.07445098 0.115812235 -0.05825844
0002b0 b7 aa 3a 3d 19 45 c6 3d d6 e3 ce bd 80 79 86 bd
       0.045572963 0.09681148 -0.1010205 -0.06566143
0002c0 d3 e9 9c 3d b0 0a cd 3c 0b 6c 32 3b e9 dd 05 3e
       0.07661786 0.02502951 0.0027225043 0.13072933
0002d0 bd 72 ad 3d da 80 30 bd 57 f3 5b 3d 9c 85 df 3d
       0.0846915 -0.043091632 0.053698864 0.10914156
0002e0 2b 72 23 3e ae a1 21 3e 59 bf 3e bc 92 f4 50 bc
       0.1596152 0.15784332 -0.0116423005 -0.012753623
0002f0 be c9 ce bc 48 e2 d5 3d ab 53 72 3d c9 47 d0 3a
       -0.025242683 0.1044355 0.059161823 0.0015890534
000300 d8 ce 13 3e 5d c6 64 3d 83 37 ef 3c fd a6 41 3e
       0.14434373 0.055853236 0.029201275 0.18911357
000310 06 e5 77 3d 3b 6d aa bc f0 7e 2e 3d c3 c3 cc bb
       0.06052115 -0.020804038 0.042601526 -0.0062489226
000320 90 e7 28 bd 89 ff ef 3c 8c 35 3b bc ea 25 fe 3d
       -0.04123646 0.029296653 -0.011426341 0.12409575
000330 7b 5a 34 3e 94 40 39 3e f5 ef 38 3e 58 7f 74 bd
       0.1761264 0.18091041 0.18060286 -0.059691757
000340 42 1b 1a 3e e1 41 77 bd 11 73 07 3e 68 da fa 3c
       0.1504946 -0.06036556 0.13227488 0.030621722
000350 62 f5 5d bd 4f f9 83 bd be 7b 96 3d 8a b9 cf bc
       -0.054189093 -0.06444036 0.07347821 -0.025357027
000360 e5 f3 c7 3d 2a 6b 2a 3e b5 6e 45 3b d9 92 05 3e
       0.09763316 0.16642442 0.00301258 0.13044299
000370 69 f4 a4 bc 38 99 ee bc 3c 36 fb bc 32 c9 ec 3d
       -0.020136075 -0.029125795 -0.03066551 0.115618125
000380 2f 25 32 bd c6 91 e4 3d af 4c f2 3c 4d a5 08 3e
       -0.043492492 0.111606166 0.029577581 0.13344307
000390 fb ed e2 bc 98 5e 04 3e ea 97 4e bb 9b 5f 22 3e
       -0.027701369 0.1292671 -0.0031523653 0.15856783
0003a0 ac 19 24 3e c6 5f ac 3d c9 84 bb bd ee a1 da 3d
       0.16025418 0.08416705 -0.09156186 0.10675417
0003b0 2c ab 61 bc 87 94 e4 3c 62 71 ca 3d f0 5d 0b 3e
       -0.013773721 0.027902855 0.09884907 0.13610053
0003c0 41 33 0f 3e ce b0 c1 3d 94 07 96 bd 36 8c 48 bd
       0.13984396 0.09457551 -0.07325664 -0.04896184
0003d0 3d 03 8b bd dd 1f 59 3d 1d f5 0c 3e fb a1 96 bd
       -0.06787727 0.053008903 0.13765378 -0.07355114
0003e0 9c 75 13 bc 06 07 19 bc 44 b4 22 3e 77 f5 d8 3d
       -0.009000208 -0.009340053 0.15889078 0.10593694
0003f0 f0 16 a7 3d 9c fe 3b 3d e0 22 2f 3e 62 0e 3a 3e
       0.08158672 0.04589711 0.17103148 0.18169549

conv_a_0.bias f4 [16]
000000 4b 4a 2b bd cc 90 98 3d f5 7a 0e 3e 9e 2e 39 3e
       -0.0418189 0.07449493 0.13914092 0.1808419
000010 53 3d b9 39 0b 3e 35 3e 81 e5 d7 3d d6 2c 1d 3c
       0.0003533164 0.17699449 0.10541821 0.009593209
000020 59 9f 7a 3d 82 fb 95 3d 5d 12 8f 3d 86 93 5b 3e
       0.061187122 0.07323362 0.069859244 0.21442994
000030 27 08 d7 3d 6f b3 42 3e cb 8b b2 bc 47 67 12 bd
       0.10499602 0.19013761 -0.021795174 -0.035743024

conv_a_1.weight f4 [16, 16, 3, 3]
000000 33 81 cf 3d 36 aa 5e bc 26 0e 5d bd f4 81 57 3c
       0.10132065 -0.013590386 -0.05396857 0.013153542
000010 20 8f 93 bc c6 0e a0 3d 92 ac 85 3b b1 ba a4 bc
       -0.018012583 0.07815318 0.00407941 -0.020108553
000020 80 c0 59 bc ff 77 03 3e c3 b6 d9 3d 73 4a 63 3d
       -0.0132905245 0.12838744 0.10630562 0.055490922
000030 93 68 a2 3d 72 8c 9c 3c 57 f4 5c 3d 7b f0 a8 3d
       0.07930102 0.019109938 0.053943958 0.08248993
000040 c6 b6 ce 3d 8c c3 e5 3c 88 ba a9 3d a6 c6 c5 3c
       0.10093455 0.028047346 0.08287531 0.024142575
000050 d0 4a 2f 3e e4 c4 c3 3d af a7 bc 3d aa c4 6b 3d
       0.17118382 0.09559038 0.092116706 0.0575606
000060 bf b1 21 3e 09 04 45 3d ee d0 07 3e 88 84 0e 3e
       0.15790461 0.04809955 0.13263294 0.13917744
000070 50 2f 89 3d da f3 84 3d c3 37 46 3e 93 b2 d3 3d
       0.06698477 0.064918235 0.19357209 0.10336795
000080 ba 49 10 3e b4 d7 36 3e 66 c2 f8 3d dd b5 02 3e
       0.14090624 0.17855722 0.121464536 0.12764688
000090 d7 35 14 3e c5 6a 33 3e e0 78 1b 3b 0f b2 05 3d
       0.14473663 0.17521198 0.002372317 0.032640513
0000a0 af 3e 5c 3d 89 f5 9f 3d db 5a 5d 3c 91 e5 fd 3c
       0.053770717 0.07810504 0.013510431 0.030993255
0000b0 46 bb dc 3d e4 14 2f 3d a8 2c 14 3d 83 b7 00 3e
       0.10777907 0.042744532 0.0361754 0.12570004
0000c0 10 60 13 3e 74 95 26 3d 97 84 0c 3e 16 55 24 3e
       0.14392114 0.040669873 0.13722454 0.16048083
0000d0 04 8c f0 3d ac 12 d5 3d 92 22 90 3d f6 32 a9 3d
       0.11745456 0.10403952 0.07037844 0.08261673
0000e0 22 e5 36 bd 01 3a c8 3c 48 6f 2c bd 32 54 03 3e
       -0.04465211 0.02444172 -0.042098314 0.12825087
0000f0 91 9d 9e 3d 6d 91 0b 3e 2c 87 aa 3d 93 cb 0c 3d
       0.07744897 0.13629694 0.08326563 0.03437383
000100 fa 3a eb 3d b6 ae 61 3d eb 30 33 3e 3c 21 11 3e
       0.11485858 0.055098258 0.1749913 0.14172834
000110 72 b9 2d 3e b9 5c a0 3d 36 63 17 3d 36 a7 30 3d
       0.16965273 0.078301854 0.03695985 0.043128215
000120 af 19 ed 3d ae 5f f5 3c 4e d4 a9 3d c5 25 aa ba
       0.115771644 0.02995285 0.08292447 -0.0012981227
000130 9e 38 e4 3d 0d 47 c0 3d 0f ac 8b 3d 35 eb 2e 3c
       0.11143611 0.09388552 0.06819927 0.010676195
000140 88 2b 03 3e 13 6c 0c 3e 91 3d 12 3e f2 db e7 3d
       0.12809575 0.13713102 0.14281298 0.11321248
000150 c3 73 08 3e f8 9b 08 3e d4 6c fb 3d d5 51 23 3e
       0.1332541 0.13340747 0.12276617 0.15949185
000160 24 47 75 3d bf c0 64 3d 11 25 e1 3d 3f 32 86 3a
       0.059882298 0.05584788 0.10993398 0.0010238363
000170 b5 db ae bc 44 85 a3 3d 85 a6 b5 bc 52 8e 3b 3d
       -0.021344999 0.07984403 -0.02217413 0.045790024
000180 4d 88 91 3a 8b 91 31 3d 9d 1d d5 3c 62 f8 07 3e
       0.0011103243 0.04335169 0.026015097 0.13278344
000190 9a 56 f3 3d bd 55 b2 3d 46 30 21 3d c0 48 e3 3d
       0.11881752 0.087077595 0.039352678 0.1109786
0001a0 d0 df 8e 3d cc 12 18 3e f5 02 15 3e 11 45 48 3c
       0.069762826 0.1485092 0.1455191 0.012223498
0001b0 7a c7 d8 3c ea 0c 24 3d f8 23 93 3d 71 60 40 bd
       0.026462305 0.04005138 0.07184595 -0.046966974
0001c0 c4 8e f8 3d 65 1c 0c 3d a4 e9 9b 3d 98 c7 b9 3d
       0.121366054 0.034206767 0.07612923 0.090712726
0001d0 24 4f c2 bc 18 d5 e0 bc 73 e9 82 3d 0e 11 83 3d
       -0.023719378 -0.027445361 0.06392183 0.06399737
0001e0 4e 3d 65 3d f2 fd 10 3d 3f a5 18 3e c8 ad 5c 3d
       0.055966668 0.03539843 0.14906786 0.05387667
0001f0 23 be 52 bc ff a5 a3 3d ed 04 f3 3d f1 c6 1f bc
       -0.012862715 0.079906456 0.11866174 -0.009752021
000200 08 e6 1c 3d 7d e7 d8 bc 4c 23 8b 3d 3a a2 e2 3d
       0.038305312 -0.02647757 0.06793842 0.110660985
000210 d9 b9 2f 3d e4 ae ab 3d 74 9b e4 3d 11 49 7f 3d
       0.042901848 0.08382967 0.11162463 0.06232554
000220 4a 3f 60 3d 26 08 06 bd ab 14 b2 3d 49 90 16 bd
       0.054747857 -0.032722615 0.08695348 -0.036758695
000230 88 af 00 bd 72 7e d3 3a ae 2e ec bc 2a 18 96 3d
       -0.0314174 0.0016135706 -0.028830852 0.07328828
000240 1f 30 ce 3d 68 37 df 3b ec bb df 3d 5b 06 a4 3d
       0.10067772 0.006812025 0.10924515 0.08009025
000250 79 52 a9 3d bd 01 8e 3d 8a 99 ad 3d 1d 7b 9c 3c
       0.082676835 0.06933925 0.08476551 0.019101674
000260 89 8c 46 3d 25 39 8d 3c ee 0a f1 3d 81 3a 0f 3e
       0.04847387 0.017239163 0.11769663 0.13987161
000270 58 45 80 bc e0 db b1 3d fa 1d 3a 3d 66 b8 0a 3e
       -0.015658066 0.08684516 0.045438744 0.13546905
000280 53 04 9f 3d 6d b9 12 3d 8d 8b ba 3d ea 4f 47 3d
       0.07764497 0.035821367 0.091086484 0.048660196
000290 c0 f0 da 3d 71 0a d3 3d dc b8 bd 3d d5 a5 d2 3d
       0.10690451 0.10304726 0.09263775 0.10285536
0002a0 42 b8 5a bb 13 3f e0 3c 05 78 b5 3d bd 07 95 3d
       -0.0033373986 0.027373826 0.088607825 0.072768666
0002b0 28 bc 8d 3c e1 ea 01 3d 3a 1e a1 3d 0d 50 43 3d
       0.017301634 0.03171814 0.078670934 0.047683764
0002c0 34 db 1b 3d f3 8c 9e 3d ea 4e 79 bc 8c 59 cc b9
       0.038050845 0.07741728 -0.0152165685 -0.0003897663
0002d0 54 1d ae 3d 2f 29 77 bb 6e 3a f1 3c 5b 4c 87 bc
       0.08501688 -0.0037713756 0.029446807 -0.016515901
0002e0 7a 87 9d 3d 39 e5 cf bc c0 79 fb 3c 6f 8c 6d 3d
       0.07691856 -0.025377857 0.030697703 0.057995256
0002f0 cc 84 9e 3d 34 ab a8 bc e3 bc 52 3d 08 2c c0 bb
       0.07740173 -0.020589449 0.051449668 -0.005864624
000300 7b ef c5 3c 2c 17 a7 3d ff 53 36 3d 3f fd e1 3c
       0.024162045 0.081587166 0.0445137 0.027586577
000310 30 d1 a5 3d fe fe 9d bc 5b 60 e0 bc d4 d2 da 3d
       0.0809654 -0.019286629 -0.027389696 0.106847435
000320 4c 76 d4 3d f2 c4 02 3e e7 d9 65 3d c4 f4 f5 39
       0.10374126 0.12770441 0.05611601 0.00046912406
000330 11 b6 4f bc 1f 88 12 bd 85 76 fb 3d 67 f8 e7 bb
       -0.012677685 -0.035774346 0.12278465 -0.0070791724
000340 f4 3c 2a bd 37 a9 33 bd 1f 54 19 3d 0c e4 97 3d
       -0.041562036 -0.043862548 0.03743374 0.07416543
000350 c5 99 3d bc 2b bf 68 3d d6 ae 85 bd 1c 14 66 bd
       -0.011572306 0.056822937 -0.06527488 -0.05617152
000360 59 6a b1 3d 3c 2b 9f 3d e0 c8 08 3c ce 85 e8 3b
       0.08662862 0.07771918 0.008348674 0.007096029
000370 d9 6c 8a 3d 8d d9 92 3d 9d cd 23 bd 83 ed 0d bd
       0.06759042 0.07170401 -0.03999101 -0.034650337
000380 74 da 90 bb 45 83 02 bd 38 12 81 3d e8 14 09 bd
       -0.004420573 -0.03186347 0.06302303 -0.033467203
000390 b9 d8 c6 3d 8c 99 8e bc c1 79 9c 3d 81 55 1f bc
       0.09709305 -0.017407201 0.0764041 -0.009724976
0003a0 76 b4 de 3d ab a9 c9 3d 00 a7 ed 3d 57 25 11 3e
       0.10874264 0.09846815 0.11604118 0.141744
0003b0 66 07 b5 3d f7 51 6b 3d 50 97 2a 3d 69 73 c3 3d
       0.08839302 0.057451215 0.04164821 0.09543497
0003c0 b0 f0 87 bc f4 78 60 bc aa 3c f7 3d 54 2c 2e bd
       -0.01659426 -0.0137007125 0.120721176 -0.042522743
0003d0 bb b9 26 3d fd c2 04 3e 40 39 10 3e c9 d8 6d bc
       0.04070447 0.12965007 0.14084339 -0.014517018
0003e0 03 0b 02 3e f2 0d ba 3d 2c 96 c2 3d 05 61 77 bc
       0.12699513 0.09084691 0.09501299 -0.015098815
0003f0 b3 bd 92 3d 64 69 ca 3c dd 44 dc 3d 10 91 19 bc
       0.071650885 0.024708457 0.10755322 -0.0093729645

conv_a_1.bias f4 [16]
000000 a4 7c 31 3c 06 2d e5 3d 6a e6 83 3d 35 71 9b 3d
       0.010832939 0.11190228 0.06440432 0.07589952
000010 a5 14 d0 3d 5d 6e 47 3d 3e 8b 23 bd 07 8d 9a 3d
       0.10160188 0.048689235 -0.039927714 0.0754643
000020 db f5 eb 3d 30 23 ec 3d 81 25 05 bd e3 b3 0d 3d
       0.115215026 0.11530149 -0.03250647 0.03459538
000030 55 26 31 bc e2 4e 29 3d fd a6 ed 3d c4 34 dc 3d
       -0.010812362 0.041334994 0.11604116 0.10752252

linear_a_0.weight f4 [16, 144]
000000 a4 c2 14 3c 53 ac a0 bd 4a 4f 3c bd b4 4a 01 3d
       0.009079609 -0.07845368 -0.045974053 0.031565383
000010 14 2e 29 3d a8 ff 15 3d 27 90 a2 bc 6a 93 3e bc
       0.04130371 0.036620766 -0.019844128 -0.011631826
000020 8a 94 df bd 30 f9 14 b8 01 dc 3e bb 60 f1 97 bd
       -0.109170035 -3.5518024e-05 -0.0029122832 -0.074190855
000030 67 ca cb bc 8e db a5 3d d4 19 c1 bc 87 b8 d2 3b
       -0.024876786 0.08098517 -0.023571886 0.006430689
000040 b5 ce 55 3b d9 a9 16 bd 5c 97 42 bd 64 b4 82 bd
       0.0032624428 -0.036783073 -0.04750763 -0.06382063
000050 6e b1 74 bd f8 a0 fe 3c 3c 9d 15 3d 12 25 b2 bd
       -0.059739523 0.031082615 0.036526904 -0.08698477
000060 3d 99 63 3d 6e 6b 25 3d 25 8d 2f 3d ad 3e b4 bd
       0.05556606 0.040385656 0.042859215 -0.08801017
000070 12 d6 61 3d 6a e4 c0 bc dd 67 70 3d 2f a2 b7 bd
       0.055135794 -0.023546416 0.0586928 -0.08966481
000080 89 88 8d bd 2b 8e 84 bd 51 f9 8a bd 19 0f 96 3c
       -0.06910808 -0.06472429 -0.067858346 0.018317746
000090 48 43 8e bd 0e d2 ae bd 25 7c 9b 3c a8 f0 7b bd
       -0.06946427 -0.085361585 0.018980095 -0.061508805
0000a0 ac f3 ad 3c 62 15 80 ba 7c d1 50 bd df f6 9f bd
       0.021234356 -0.0009771998 -0.05098103 -0.07810759
0000b0 cf 4c 91 bd ae a4 77 3c ba 9f 0f ba 9d b9 5d 3d
       -0.07094728 0.015114946 -0.0005478818 0.054132093
0000c0 dc a6 b6 3c cb d6 a7 bd 91 77 c3 3c de 21 9f bd
       0.022296362 -0.081952654 0.023860725 -0.077701315
0000d0 7e a9 a1 3c 01 26 7e bc f0 1f 05 bd eb 45 8d bd
       0.01973414 -0.0155119905 -0.03250116 -0.068981014
0000e0 e8 9f 97 bd 29 3e 04 3a fa b0 61 3d 57 d3 95 bd
       -0.074035466 0.0005044663 0.05510042 -0.073157005
0000f0 e7 67 fc 3b b1 fb 31 3d a4 9e fe 3c 88 a0 cb bb
       0.007702816 0.043452922 0.031081505 -0.006214205
000100 18 9e 0e bd d6 f2 93 3d 59 b0 a3 bd 16 70 e0 bc
       -0.03481874 0.07224052 -0.0799262 -0.027397197
000110 be e5 5f 3d 4c ec 6a bd e0 8f 3c 3c 8b 96 28 3d
       0.05466246 -0.057354257 0.011508912 0.041159194
000120 13 0e 83 bb 6f f6 7b bd 43 8e ab 3c 19 78 4d 3d
       -0.0039994805 -0.061514314 0.02094186 0.050163362
000130 be 4e 97 3d 23 75 90 bd 7d c7 0e 3d 9b 14 97 3d
       0.07388066 -0.07053592 0.034858216 0.07376977
000140 3b f2 80 bc a1 e6 8b 3d 06 a5 92 3d ee b7 64 bd
       -0.015740504 0.06831098 0.07160382 -0.05583947
000150 07 a1 9e bd 4d dd 7c 36 f5 b0 95 bc bb 59 f4 bc
       -0.07745557 3.767974e-06 -0.018272856 -0.029827943
000160 5b 65 1b bd 05 67 58 bd e6 ad c4 bc 7a a2 54 3d
       -0.037938457 -0.052832622 -0.024008702 0.051912762
000170 f9 b3 17 3b 0c f6 aa 3c 37 16 8f 3d 9a f4 40 3d
       0.0023148044 0.020869277 0.06986659 0.04710827
000180 d0 f4 5f 3c a7 d6 9c 3d cb 0a dc bc c7 d3 93 bc
       0.013669208 0.07658129 -0.026860615 -0.01804532
000190 13 87 15 3b 8f 01 3f bd dd fa 87 bd e5 e2 2a 3d
       0.0022816106 -0.046632346 -0.06639645 0.04172029
0001a0 dc 79 3c bd 06 df b7 bd 92 16 97 bd d5 6a 38 3d
       -0.04601465 -0.08978085 -0.07377352 0.045023758
0001b0 43 4c 0a bd 79 0e 85 3d 12 43 7f bd 7b 37 ce 38
       -0.033764135 0.06496901 -0.062319823 9.8331795e-05
0001c0 7e 4a 85 3d b6 a5 57 bd 40 6c 37 bd 0e b8 a7 3d
       0.06508349 -0.05264827 -0.04478097 0.081894025
0001d0 08 ce 9a 3d 85 0b b6 bd 1e fc 5f 3d 35 97 c8 ba
       0.075588286 -0.08888916 0.054683797 -0.0015303852
0001e0 d7 b4 9b bd 7a 5b f1 3a 00 e9 91 3d 82 02 16 bb
       -0.07602852 0.0018414103 0.07124519 -0.0022889678
0001f0 42 d1 d1 bb b2 ce 58 3d d0 80 fc 3c fc 0f c5 3b
       -0.0064031193 0.052931495 0.030823141 0.0060138684
000200 10 33 26 3d 99 53 92 3d 55 da 88 3d d1 cb 8b bd
       0.04057604 0.07144851 0.066822685 -0.06825984
000210 a5 3d 5c 3d cb 76 ca bc a2 df 0a bd 29 c2 9a bd
       0.053769726 -0.024714848 -0.03390468 -0.07556564
000220 67 bd 2c bc ce 8c 97 3d a2 3f a4 bd c5 b2 84 3d
       -0.010543204 0.07399903 -0.080199495 0.0647941
000230 ea 77 c8 bd bf 13 60 bd 66 4d ba bb 82 47 16 bd
       -0.09788497 -0.05470633 -0.005685496 -0.03668929
000240 3f 32 08 bc 37 ac 8b 3d fa 0e 24 3d 4d 3c b7 3c
       -0.008312761 0.06819957 0.040053345 0.02236762
000250 e1 65 f3 3d f0 57 21 3d d5 86 9e 3c 24 a4 b9 3b
       0.11884666 0.039390504 0.019351402 0.005665319
000260 82 aa 26 3e a1 1a 95 3d d6 68 3c 3d bf 3e 60 3c
       0.16275981 0.0728047 0.045998417 0.013686835
000270 1e d2 87 3d eb ee 58 bc a9 cb bc 3d 2d 9c 9c 3d
       0.066318735 -0.013240556 0.092185326 0.07646976
000280 95 59 08 3e c2 eb ce 3c 0b 3e 15 bd 91 6d 57 3d
       0.13315423 0.025258902 -0.036436122 0.052594725
000290 2e 11 b3 3d 3f 06 e5 3d f3 2e e2 3d 32 9f 92 3d
       0.08743511 0.11182832 0.11044111 0.0715927
0002a0 57 8f 8e 3d b9 2e 1e 3c f9 c8 a6 3d a6 d2 24 3d
       0.06960934 0.009654694 0.08143801 0.040239953
0002b0 91 95 f5 3d 17 22 6a 3d 86 8c af 3d 32 8d 82 3c
       0.11991418 0.057161417 0.085717246 0.015936468
0002c0 a5 e8 0d 3d 91 2c d1 3d 72 72 4d 3d 14 d9 61 bc
       0.034645695 0.102135785 0.05015797 -0.013784666
0002d0 a1 dc 29 3c a5 9d af 3c c6 37 73 3c 61 7c e9 3c
       0.010367543 0.021437475 0.01484484 0.028501691
0002e0 39 63 cd 3d 99 76 67 3c 28 1f 87 3d fc 18 76 3d
       0.10028691 0.014127397 0.065977395 0.06008242
0002f0 e4 ff 57 3d 5c 8d e3 3d 66 94 d0 3d 1f 76 0e 3d
       0.05273427 0.111109465 0.10184555 0.034780618
000300 a8 f6 17 3d 69 c9 77 3c 9a 63 1f bd 56 44 9e 3d
       0.037100464 0.0151237035 -0.038913347 0.07727878
000310 5e c2 1e 3d 10 5c c1 3d c4 8d 2c 3d e1 15 5d bd
       0.03875958 0.09441388 0.042127386 -0.053975943
000320 0e 3c 68 ba 2e 7d c5 3d 9e 3d 85 bd a8 2e 32 3b
       -0.00088590465 0.09643017 -0.06505893 0.0027188454
000330 8a bd 19 bd bb a1 c9 bc 7a f9 ac 3b 5f ff da 3d
       -0.037534274 -0.024613252 0.0052787634 0.106932394
000340 80 e6 aa 3d a3 db 9a 3d da 47 ab 3c 1f 33 8d 3d
       0.08344746 0.07561424 0.020908285 0.06894516
000350 d9 59 55 3d ae 1a 33 3d 20 70 27 3d 39 6c e0 bc
       0.05208764 0.043726616 0.040878415 -0.027395355
000360 89 aa 07 bb a0 f0 06 3c 47 58 f5 3d f4 5d 9a 3d
       -0.0020701012 0.00823608 0.11979728 0.075374514
000370 a2 be 21 3d b4 2a 36 b9 b7 a3 b1 bc 2b 78 d0 3d
       0.039488442 -0.0001737278 -0.02168451 0.1017917
000380 76 fb bc 3d 2b ee 28 3d fa 1d f4 3d c6 73 f0 3d
       0.0922765 0.04124276 0.1191978 0.11740832
000390 ae c8 0f 3e 7f dd 01 bc 8c 6f 31 3d 50 46 ea bc
       0.14041397 -0.007926344 0.04331927 -0.02859798
0003a0 6f b1 b5 3d f0 42 fe 3d 26 82 5f 3c c2 94 7e bc
       0.088717334 0.12415111 0.01364187 -0.015538396
0003b0 9d 9c 84 3d bd 02 1d 3c 6e 81 92 3d bb f7 6f 3d
       0.06475184 0.009583172 0.07153593 0.058585864
0003c0 92 72 ea 3d 9d 3d 2c bd 25 4d 2a 3d 7d a0 6c 3d
       0.11447634 -0.042050947 0.041577477 0.05777024
0003d0 43 f0 7c 3d 08 8e 3c bc 64 41 e7 3c 6a c4 93 3d
       0.06175257 -0.011508472 0.028229423 0.072151974
0003e0 02 86 33 bc 6a 8a 9f bd 4c d7 b9 bd 86 2c 38 3d
       -0.010957243 -0.07790072 -0.09074268 0.044964336
0003f0 27 38 c0 3d 95 a0 6d bc e0 12 ea 3d 0d cc d3 3d
       0.0938571 -0.014503618 0.11429381 0.10341654

linear_a_0.bias f4 [16]
000000 f6 22 1a 3d 2a 9c 5b 3d c0 bc 5d bd 6a 8a 2b bd
       0.037630998 0.053615727 -0.054135084 -0.04188005
000010 7a 12 6f 3d 88 c1 2b bc 67 2d a3 3d ef 0d 4a bd
       0.05836723 -0.010483153 0.07967644 -0.049329694
000020 1d 82 d9 bc 74 c7 1c b9 db 97 0c 3e 0b ca 25 3d
       -0.0265513 -0.00014951621 0.13729803 0.040475886
000030 2e b6 b6 3c 46 eb 3a bd e9 84 25 3c 34 7a 27 bd
       0.022303667 -0.04563453 0.010102489 -0.040888026

GRU_a.weight_ih_l0 f4 [48, 16]
000000 0f d6 dc 3d 76 94 68 3d cb 34 4a 3e 83 ee af 3c
       0.10783016 0.05678221 0.19746701 0.021476036
000010 36 d5 68 3e f0 6e 46 bd 6b 88 a2 3d a1 2d 04 be
       0.22737584 -0.048445642 0.07936176 -0.12908031
000020 76 f0 bb bb 71 aa 5f bd 4d 9c 65 be 30 b9 da 3d
       -0.0057354523 -0.054605905 -0.22422905 0.10679853
000030 3d bd 42 3d 4f 46 1d 3e 61 28 4b 3e d8 6b 3d be
       0.047543753 0.15358852 0.19839622 -0.1849817
000040 3e 44 13 3e b1 80 54 3d 33 4d a9 bd be 18 8b bd
       0.14381501 0.051880542 -0.08266678 -0.067918286
000050 4a 45 24 be d7 82 67 3e d5 12 9b 3d 44 75 4a be
       -0.16042057 0.22608505 0.07571951 -0.19771296
000060 86 e5 44 3e 2d 6e 50 3d bc 67 94 bd 0e 4d 58 3e
       0.19228181 0.05088632 -0.07246348 0.21123144
000070 54 2c 20 3e df 8c 2f 3e 09 f2 39 be c9 c9 21 be
       0.1564191 0.17143582 -0.18158735 -0.15799631
000080 6e 2a 4e be d8 06 28 be 9f 6e a9 bd 12 48 30 be
       -0.20133373 -0.1640886 -0.082730524 -0.17214993
000090 62 c0 1d be f9 4b 7f 3e f3 e4 de bd 33 08 3e 3e
       -0.1540542 0.24931325 -0.10883512 0.18557815
0000a0 77 6f 3c 3e 01 9d bf bc fe f3 1c be 0d 84 30 3e
       0.18401895 -0.023390295 -0.1532745 0.17237873
0000b0 5f c8 82 3e 0f c3 48 be 52 9f 6c 3e 5c 93 32 3e
       0.25543496 -0.19605659 0.23107651 0.17439026
0000c0 f5 23 d0 bc 41 97 a6 bb a7 47 79 be b7 8c 4c 3d
       -0.02540777 -0.005083949 -0.2434374 0.049938884
0000d0 44 25 93 bd 9c e6 f3 3c 2f a0 dc bd 22 49 e8 3d
       -0.07184842 0.029773049 -0.1077274 0.11342074
0000e0 3a 6d 29 3e 04 21 48 be 73 8a 91 3d 73 e2 cb bc
       0.16545573 -0.19543844 0.07106485 -0.024888253
0000f0 d1 ff 7e 3d bd 36 1c be bc d7 bb 3d 60 25 12 3d
       0.062255684 -0.15255256 0.091720074 0.035680175
000100 45 e1 00 bd 13 6d 3f 3e 98 5f 58 3d 17 87 2a be
       -0.031464834 0.18693952 0.05282554 -0.16653095
000110 78 9d 2f be 48 85 97 3e f2 c7 ff 3d af 77 29 ba
       -0.17149913 0.29593873 0.124893084 -0.00064646726
000120 a4 39 5b 3e 5e aa cd bd e0 8d 05 be f6 40 ad 3c
       0.21408707 -0.100422606 -0.13042402 0.02114914
000130 ef 36 87 3e 19 04 9e 3c f0 69 a6 bb 6d df 92 3d
       0.26409099 0.019289063 -0.0050785467 0.07171521
000140 f7 a2 97 bd a2 d3 35 3e 8f be 23 3e 95 a4 02 3e
       -0.0740413 0.17756513 0.15990661 0.12758096
000150 1b 48 8a 3a 58 8c b2 3d 6b d2 06 3e 80 18 b7 3d
       0.0010550054 0.08718175 0.13166206 0.0894022
000160 7b dd 50 be 17 d5 4b 3e 40 6e 63 bb b1 40 0b 3e
       -0.20396988 0.19905506 -0.0034703165 0.13598897
000170 21 43 89 3e a7 00 85 3e 70 2f 38 3e 36 d4 c1 3d
       0.26809028 0.2597706 0.17986846 0.09464304
000180 31 82 64 bd 44 d9 de bd 25 b5 aa 3d 78 47 2f be
       -0.055788223 -0.10881284 0.08335332 -0.17117107
000190 a5 11 18 be 05 32 1a 3d dd c3 af bc d0 69 c0 3c
       -0.14850481 0.03764536 -0.0214557 0.023487955
0001a0 30 ae 0a 3e 25 ce 41 3d c8 da 69 be 69 95 77 3e
       0.1354301 0.047315735 -0.22837365 0.24178089
0001b0 0c 8d 95 3c fe 85 55 be 71 2d fd bd 8a fb 6f bd
       0.018255733 -0.20851895 -0.12362183 -0.058589496
0001c0 05 0d 21 be 47 f5 48 be 6c f1 47 3e a1 d4 eb 3d
       -0.15727623 -0.19624816 0.19525689 0.11515165
0001d0 ca af 42 3d 23 45 c3 3c 84 66 d8 bd ae b5 ba 3c
       0.047530927 0.023836678 -0.10566428 0.02279171
0001e0 cf 75 f6 3d 97 a4 c6 bd a7 d1 36 be 7e b9 1b be
       0.12034189 -0.09699362 -0.17853414 -0.15207478
0001f0 cc 82 1b 3e 2f be 35 3e ed da 5e 3e ae 4c 44 3d
       0.15186614 0.1774833 0.21763201 0.04792469
000200 3f ff 79 be 15 25 a8 bd 55 47 1f 3e 53 23 21 3e
       -0.24413775 -0.08210198 0.15554555 0.15736131
000210 9f 1d 89 be 74 01 d4 3d f2 9b 36 be 31 5b dc bd
       -0.26780412 0.1035184 -0.17832926 -0.10759581
000220 2d 93 b7 3d 1f 29 92 3c 7b e5 29 bd b7 85 37 bc
       0.089636184 0.017841874 -0.041478615 -0.011201314
000230 6b 97 15 be bc a9 24 3e 70 15 dc bc 11 03 47 be
       -0.14608543 0.16080374 -0.026865691 -0.19434763
000240 68 fb 45 3c 36 de 42 be f8 2b 50 3e a9 6d 8a 3c
       0.012083866 -0.19030079 0.20329273 0.016897993
000250 23 b5 06 3d ca 16 3c 3e 44 b5 83 3c 39 60 42 be
       0.03288759 0.18368068 0.016077645 -0.18982019
000260 61 ab 4f be ae ba 08 3e d5 f7 47 be dc 05 28 3e
       -0.2028022 0.13352463 -0.19528134 0.16408485
000270 58 53 26 3e 8e 79 3f 3e 08 c3 91 be 04 58 0c be
       0.1624273 0.18698713 -0.2846911 -0.1370545
000280 e8 0d 44 3c 86 d2 f1 3d 0b 72 8b 3d fc f7 44 be
       0.011966206 0.11807732 0.06808861 -0.19235224
000290 ab 5e 3d 3d 43 fc 5b 3e cc 44 91 bd a4 2f ca 3d
       0.04623286 0.21482949 -0.070932 0.09872368
0002a0 f0 8a 83 3d 58 f2 56 3e e3 d9 68 3c 71 4c 03 be
       0.064229846 0.20990884 0.0142121045 -0.12822129
0002b0 cc 09 2f be 9d 88 a0 bc 0e 2c 2b be bc 0e 0b be
       -0.17093581 -0.019596392 -0.16716024 -0.1357984
0002c0 63 63 80 be 57 a9 50 be 4a ea 5d 3e 4b 27 94 bd
       -0.25075826 -0.20377098 0.21671405 -0.07234057
0002d0 98 2b 86 3e 91 b7 04 3e 41 b9 06 3e 73 96 13 be
       0.26205134 0.1296065 0.13156606 -0.1441286
0002e0 bb 68 cb 3d dd 4f 9a bd 30 91 61 3d 57 57 50 3e
       0.09932085 -0.07534764 0.055070102 0.20345818
0002f0 5b 75 46 3d 5e 52 d1 bb 16 05 1b 3e 94 b5 70 be
       0.048451763 -0.0063879928 0.15138659 -0.23506767
000300 85 2f 0e 3e 31 cf 2d 3e 52 d2 b1 bd 9a 11 7e 3e
       0.13885315 0.16973568 -0.086826935 0.24811402
000310 7c 8b 6a be 51 e9 2e be 72 54 6a 3d 54 b7 02 be
       -0.22904772 -0.1708119 0.05720944 -0.12765247
000320 62 0d 3f bd 8f f7 b0 bd 3a 4a 14 3e 7e 63 ec 3d
       -0.046643622 -0.08640968 0.1448144 0.11542414
000330 71 2c a9 3d 2b 9e 53 3d a6 cc a6 bc 92 62 0e 3e
       0.0826043 0.051664513 -0.020361256 0.13904789
000340 b1 dc 6c 3e d0 b9 82 bd e9 00 40 3e 62 d1 a7 bd
       0.23131062 -0.06383097 0.18750347 -0.081942335
000350 7f 39 df 3d bc 67 bb 3d 8a 22 7d 3d 96 5a 72 3c
       0.108996384 0.09150645 0.061800517 0.014792105
000360 cf 81 57 3d 2d cf 6f 3d 64 4c 2f be b2 b4 c3 bb
       0.05261403 0.058547188 -0.17118984 -0.0059724683
000370 77 25 ee 3d 3a d2 c7 bd de 8d b3 bc cc 9f 3e 3e
       0.116282396 -0.097568944 -0.021918233 0.18615645
000380 f8 05 58 bd ce 0c 8e 3d 49 67 32 be 31 de 39 bc
       -0.052740067 0.06936036 -0.17422213 -0.011344478
000390 2a 9a 11 3e 65 8b 06 3e 40 c4 e3 bc de af 67 be
       0.14218965 0.13139112 -0.02780354 -0.22625682
0003a0 51 ad 7c 3e 5e 8e 94 bd bd 9b 5c be 8b 7d 85 3d
       0.2467549 -0.07253717 -0.21543784 0.06518086
0003b0 be 75 ee 3d 6c 29 80 3e a8 73 d8 bd 7e 9c 3a be
       0.11643551 0.25031602 -0.10568935 -0.1822376
0003c0 bd 06 40 be f4 70 90 bc 6e 34 26 be 45 da 68 3d
       -0.1875257 -0.017631985 -0.16230938 0.056848783
0003d0 5f a1 0d 3e 21 61 06 be 0e 83 57 bd 6b 95 84 be
       0.1383109 -0.13122989 -0.052615218 -0.25895247
0003e0 f2 f6 91 be 40 4c aa bb fe 90 46 be c5 25 1f be
       -0.28508717 -0.005197078 -0.19391248 -0.15541752
0003f0 8f 56 b1 3b dd 38 50 bd f9 f5 6f 3d d4 0a 45 3e
       0.00541193 -0.05083548 0.058584187 0.19242412

GRU_a.weight_hh_l0 f4 [48, 16]
000000 8f 9d 8e 3d 22 19 e6 bd 07 af 26 3e dc 34 3a 3e
       0.06963646 -0.112352625 0.16277705 0.18184227
000010 9b 48 80 bd 71 35 23 be d0 45 51 be 55 09 70 bd
       -0.062638484 -0.15938355 -0.20436788 -0.05860265
000020 49 62 18 3d ca 57 5b 3e 54 4f 3a 3e 4c 82 3a 3e
       0.037203107 0.21420208 0.18194324 0.18213767
000030 05 ef f7 3d 1a e7 c1 bd ed 9f 24 3d cd d2 d6 3d
       0.12106136 -0.09467907 0.04019158 0.10489426
000040 1f 91 1b 3e aa b4 88 bd 76 26 8d be e5 76 23 3b
       0.15192078 -0.06675084 -0.27568406 0.0024942693
000050 86 eb 29 3e 43 bf 58 3d 6f 7a e7 bd 85 58 23 be
       0.16593751 0.052916776 -0.11302649 -0.15951736
000060 06 d8 13 be ed 51 78 be ab 3f c3 bd 5d 07 92 bd
       -0.14437875 -0.24250002 -0.09533628 -0.07130311
000070 b2 9a 4e bb 44 e7 5a be 15 07 c0 3d a5 08 11 3d
       -0.003152531 -0.21377283 0.09376351 0.035408635
000080 5a 99 c6 3d e6 b0 5d 3e de 65 0a bd 7e 81 3a be
       0.09697218 0.21649513 -0.033788554 -0.1821346
000090 f9 f0 91 3e 5a 25 6a bd d4 af e0 3d 7d 3a ee 3d
       0.2850416 -0.057164527 0.109710366 0.116322495
0000a0 8d e6 a3 3d 20 b0 b2 3c 90 b5 a2 bd a1 14 1d be
       0.080029584 0.021812499 -0.079447865 -0.153399
0000b0 65 50 04 3d e9 4b c0 3d 45 c0 8c bd 01 30 c3 bd
       0.032303233 0.09389479 -0.0687261 -0.095306404
0000c0 52 3b 77 bd ab 45 4f 3e 8a b0 f8 3b 77 13 a8 bd
       -0.060359307 0.2024142 0.0075894045 -0.082068376
0000d0 60 fe be bd 30 b1 77 be 89 59 11 3d 1d 4f 5b be
       -0.09325862 -0.24188685 0.035485778 -0.21416898
0000e0 b8 0b cf 3d e5 49 ea bd 74 58 01 be b6 01 46 3e
       0.10109657 -0.114398755 -0.12631398 0.1933659
0000f0 88 8b c6 3d e6 47 37 3e 4f 34 51 3e aa e1 3c 3e
       0.09694582 0.17898521 0.2043011 0.18445459
000100 24 26 a7 3d 38 53 c4 3d 67 99 65 3e 4b 65 74 3e
       0.081615716 0.09586185 0.224218 0.23866765
000110 c4 88 30 3e 99 b7 49 3e 17 5f 34 be 4f 9b 1e 3c
       0.17239672 0.19698943 -0.17614399 0.009680583
000120 2c 92 39 3e 8a 27 43 3d 58 46 98 3e e8 20 0a 3b
       0.18122166 0.04764513 0.29741168 0.0021076743
000130 01 31 1d bd a0 7c 62 3e 40 9b 86 3e fd 9a 67 be
       -0.038376812 0.22117853 0.2629032 -0.22617717
000140 c5 77 11 3e a8 fa 47 3e f5 73 d0 3d 4e 59 40 3b
       0.14205845 0.19529212 0.10178367 0.0029350105
000150 b8 53 2a 3d 78 c9 3c bd e1 7c b6 bd 25 1c f5 bd
       0.041583747 -0.046090573 -0.089105375 -0.11968259
000160 88 f7 48 be 85 aa 3b 3e cf e4 f6 3d 47 01 c5 3c
       -0.19625676 0.18326767 0.120553605 0.02404846
000170 f0 bf 54 be 31 75 12 bc 87 fb aa bd 6c 68 c0 bd
       -0.20776343 -0.008939073 -0.08348756 -0.09394917
000180 f2 92 9f 3d 87 fc 10 be ca ca 1f be 88 e3 9d bc
       0.077916995 -0.14158832 -0.15604702 -0.019273534
000190 8a 7d a3 3b da 29 61 be fb 3b 7b 3e 48 f1 bf 3d
       0.0049893307 -0.21988621 0.245346 0.093721926
0001a0 02 90 2f be ab ab 2f be 90 c7 66 3e 6b 7c ac bd
       -0.17144778 -0.1715533 0.22537065 -0.08422168
0001b0 17 89 bf bd 44 0d d2 bb 4f 36 f0 3d cf 91 bf 3d
       -0.0935232 -0.006410273 0.117291085 0.09353983
0001c0 8f 9e 7f bd 4f 68 10 3e fc d8 c0 bd e4 d1 a9 bc
       -0.062407073 0.1410229 -0.094163865 -0.020729966
0001d0 f2 af 00 3e 3c e3 22 3d d2 61 cf bd f2 06 35 3e
       0.12567118 0.03976749 -0.101260796 0.1767843
0001e0 b0 0e ad bd ae ca b3 3d c8 fd 6a be 28 7d 32 be
       -0.08450067 0.087788925 -0.22948372 -0.17430556
0001f0 6e b7 23 be a5 11 d1 3d df 4d 8a 3d 4a 36 5b 3d
       -0.15987942 0.102084436 0.06753134 0.05351857
000200 9a f8 c5 bd 3b 24 2b be 7b 1e 00 be ae 13 36 be
       -0.096665576 -0.1671304 -0.12511627 -0.17780945
000210 8b 17 3e be 71 14 f4 bd 75 59 f0 bd 59 57 f1 bd
       -0.18563668 -0.119179614 -0.117358126 -0.11784238
000220 23 1b 10 3e c3 97 02 be f3 da a2 3d 88 8a 45 be
       0.14072852 -0.12753205 0.079519175 -0.19291127
000230 80 cb 63 3e c3 70 4b 3e bd 28 eb bd 3c 76 74 be
       0.22245598 0.19867234 -0.114823796 -0.23873228
000240 c8 84 b7 3d 51 c5 97 bc 1b d0 3a be 59 3e ab 3c
       0.08960873 -0.018526705 -0.18243448 0.020903753
000250 e9 a9 26 3e 38 94 18 be 3b 4a 3b 3e 80 0b 68 3d
       0.16275753 -0.14900291 0.18290035 0.056651592
000260 3d c3 97 bd 70 ec 3f 3e 4c 3a 68 bc fb bf 4a be
       -0.074102856 0.18742537 -0.014174055 -0.19799797
000270 4a fa b3 bd ce aa 83 3d 68 0f 2f 3d 78 f5 41 3e
       -0.08787973 0.06429063 0.042739302 0.18941295
000280 d3 24 6d be 6d 51 20 bd 07 90 d8 3d 62 6c d0 bc
       -0.23158579 -0.039140154 0.10574346 -0.025442306
000290 89 6c 6c be 31 d8 a8 3d c4 29 52 3e 4f c5 5b 3e
       -0.23088278 0.0824436 0.20523745 0.21461986
0002a0 57 f0 2e be ef f5 0b 3e 15 96 19 3e 05 71 39 be
       -0.1708387 0.13668035 0.14998658 -0.1810952
0002b0 b1 17 99 bc 12 49 ef 3d 54 53 2e bc 2a 4c b0 3c
       -0.018688055 0.11683859 -0.010639984 0.021520693
0002c0 4c 0e 58 3e d7 aa 79 3e c3 56 3e be 0d 0e 01 be
       0.21099204 0.24381576 -0.18587784 -0.12603016
0002d0 f2 02 6c be 3d fe e5 bd 81 4b 8a bc 5f 4f 4b bd
       -0.23047999 -0.11230133 -0.016881706 -0.04963624
0002e0 75 ed c4 bd 84 bb 37 3e 33 5b 5e be 00 39 04 3e
       -0.09615604 0.17942625 -0.21714477 0.12912369
0002f0 7d c5 fd 3b cd 51 5a be a3 b4 35 be 61 14 19 3b
       0.0077444897 -0.21320267 -0.17744689 0.0023358094
000300 e1 2b d7 3d 44 97 8b bc 89 37 3f 3c 7c e9 45 3c
       0.10506416 -0.017039903 0.011670955 0.012079593
000310 23 a3 4d 3e 13 04 3d 3e 63 76 97 bd c1 4e 36 3c
       0.20081763 0.18458585 -0.07395627 0.011127175
000320 7f ef 66 be 0f b8 43 3d 1e 1a 25 3e e4 d0 d8 3d
       -0.22552298 0.047782954 0.16123244 0.10586718
000330 69 ad 56 3e d0 e3 2c be 26 1b 49 bd 4c 6a 55 3e
       0.20964588 -0.16883779 -0.049098156 0.2084133
000340 1c 0e 7b 3d 88 6b 5a 3e b4 04 13 3d 74 56 57 3e
       0.061292753 0.21330082 0.035893157 0.21029073
000350 c3 ca 40 be 84 32 9f 3d a0 96 a3 bd 6b ba 45 be
       -0.18827347 0.07773307 -0.07987714 -0.19309394
000360 94 5e 40 be f8 80 9a bd 5a e0 b7 3d 1e 86 00 3e
       -0.18786079 -0.0754413 0.089783385 0.12551162
000370 10 ff 25 bc 6e 4c 25 bd e1 ef 31 bd 70 22 39 3e
       -0.010131612 -0.040356092 -0.043441657 0.18079543
000380 34 3a 16 3e 21 d5 16 3e 09 79 14 be d4 b1 94 3d
       0.1467064 0.1472974 -0.14499296 0.072604805
000390 33 17 03 3e 0e c4 ee bd e6 fe 77 3e 3e 90 29 3e
       0.12801819 -0.11658488 0.2421833 0.1655893
0003a0 59 65 ad 3d 48 31 eb 3c 8c b6 18 3e d7 b7 4d 3e
       0.08466596 0.028710023 0.14913386 0.2008966
0003b0 93 fa 2b bd 87 2c 3b 3e d8 a5 2d 3e 12 11 4f bd
       -0.041987013 0.18278705 0.16957796 -0.05055339
0003c0 e7 3f cc 3d b7 64 dd bd 05 43 60 be 11 5f 88 be
       0.09973126 -0.108102255 -0.21900566 -0.2663503
0003d0 d1 90 34 3e 42 59 3c 3d 5f aa c0 3d 11 d3 ff 3c
       0.17633368 0.04598356 0.09407496 0.031228574
0003e0 9f fb 43 be c2 a4 51 3e bf 74 ef 3d c5 f1 47 be
       -0.19138955 0.20473006 0.116921894 -0.19525822
0003f0 30 48 4d be eb dd 52 be 53 d1 0e be 63 37 69 be
       -0.20047069 -0.20592467 -0.13947038 -0.22775035

GRU_a.bias_ih_l0 f4 [48]
000000 1d 9a 5b be fa 87 04 3e be 9c 08 be 52 61 3d bd
       -0.21445508 0.12942496 -0.13341042 -0.04623539
000010 28 2b 04 3e 85 61 57 3c c7 d9 55 3e 4d 14 be bd
       0.12907088 0.013145809 0.20883857 -0.09281216
000020 cd 19 4d 3e 2a 74 91 3d dc 86 29 bb 5b bb a9 3d
       0.20029373 0.07102235 -0.0025867736 0.08287688
000030 17 69 d8 bd 4b 04 57 3e b0 44 1a 3d 8d 22 41 3e
       -0.10566919 0.20997731 0.03766316 0.18860836
000040 01 2b a9 bd 84 e7 3d 3e e1 38 26 be d5 06 32 be
       -0.082601555 0.18545347 -0.16232635 -0.17385419
000050 56 32 0c 3e 4a 8b 14 be fd 4a a7 3d da a2 0a be
       0.13691077 -0.1450626 0.081686 -0.13538685
000060 13 cd 61 3e 92 96 a0 be 70 8e 16 bd 1d 4d 46 be
       0.22050886 -0.31364876 -0.036756933 -0.19365354
000070 22 b8 8a bd b8 45 00 bd 59 7c 3b 3e 8c 79 75 be
       -0.06773402 -0.03131649 0.18309154 -0.23972148
000080 60 9e a9 bd 7c b2 bc 3d 61 85 6e 3d 67 dd 17 3e
       -0.08282161 0.09213731 0.05823267 0.14830552
000090 86 b2 64 be 28 0d 2a bc fb b1 47 3e 06 d5 2f 3e
       -0.22333726 -0.010379113 0.19501488 0.17171106
0000a0 72 c1 63 be 65 1f a4 bd 54 9c 8a 3d 8b 68 28 be
       -0.22241762 -0.080138005 0.067680985 -0.1644613
0000b0 70 db 3b 3e d0 91 26 3e 42 3b bb bc ce 73 37 be
       0.18345428 0.1626656 -0.022855405 -0.1791527

GRU_a.bias_hh_l0 f4 [48]
000000 23 c5 13 3e 8c f6 0a be ce 58 4e be 3a 02 e9 3d
       0.1443067 -0.13570613 -0.20151064 0.11377378
000010 21 ca ba bd 87 51 5c 3d a5 29 65 3e cb 27 de 3c
       -0.09120584 0.053788688 0.22379167 0.027118584
000020 5e 73 a7 3d 3b 0d fc 3d 8d 5e 04 be a0 3d 36 3d
       0.081763014 0.12307211 -0.12926693 0.044492364
000030 07 11 af bd 9d 60 50 3e 17 41 b7 bc c8 64 59 bc
       -0.085481696 0.20349355 -0.022369904 -0.013268657
000040 05 cd 2f 3e 9c 33 9b bd e4 d6 3c be e2 39 2d be
       0.17168052 -0.07578203 -0.1844135 -0.16916612
000050 ce d1 4a bd 08 4f 71 be d3 93 58 3e 33 aa 4f be
       -0.04951649 -0.23565304 0.2115014 -0.2027977
000060 3b 93 25 be f2 bf 73 be 16 43 f6 3d f9 8a 6c 3d
       -0.16169445 -0.2380369 0.120245144 0.057749722
000070 9e bb 61 3e b3 7d e1 bd ff 2c 80 be 32 e3 e9 bd
       0.22044227 -0.11010303 -0.2503433 -0.11420287
000080 b8 b8 d2 3d 85 6f 68 be 52 16 02 be bf f7 65 3e
       0.102891386 -0.22698791 -0.12703827 0.22457789
000090 ad e5 51 3e a0 5d 25 be e9 b5 63 be 44 19 5c be
       0.2049777 -0.16148996 -0.22237362 -0.21494013
0000a0 7e 46 53 3d 64 a3 f9 bd 99 95 1b 3e 43 8b de 3d
       0.0515809 -0.121893674 0.15193786 0.10866406
0000b0 41 55 e7 3c 92 f9 6c 3e 76 83 0b 3e bd 8d bb 3d
       0.028238894 0.23142079 0.13624367 0.09157894

linear_a.weight f4 [4, 16]
000000 10 26 a5 3d 33 3f f7 be 27 c3 11 be 52 82 e4 bd
       0.080639005 -0.48290405 -0.14234601 -0.11157669
000010 a0 dc ae be b4 d8 f3 be 91 6f 29 be fe f1 81 be
       -0.341527 -0.4762627 -0.16546465 -0.25379938
000020 c1 65 12 be 43 69 f6 be 74 df 92 bd 05 79 bc be
       -0.14296629 -0.48127183 -0.071715266 -0.3681108
000030 8e eb 5b bd 62 aa 09 3e 1a b4 29 3e dd 0c f8 3d
       -0.05369144 0.13443902 0.1657261 0.121118285
000040 38 a4 bc bc ae ac 36 bd a0 63 a6 3e 37 54 51 3e
       -0.023027524 -0.044598274 0.32497883 0.20442282
000050 71 40 b1 3e dd 3b 5b 3c e3 20 5c 3e 2e 71 17 3e
       0.34619477 0.013380972 0.2149692 0.14789268
000060 e0 c5 39 3e 00 09 3c 3e d4 02 a5 3e f2 41 81 3e
       0.1814189 0.18362808 0.3222872 0.25245625
000070 f9 1d 26 be 11 90 74 3e dc 10 ff bb bb 7c 32 3e
       -0.16222371 0.23883082 -0.007783992 0.17430393
000080 31 77 d3 bc ea dd e0 bd 66 ff 71 bd 19 3e 9b be
       -0.02581367 -0.10979827 -0.059081458 -0.30320814
000090 6e 55 17 be 3d 1e 0c 3d 01 12 21 be 0c 92 c2 be
       -0.14778683 0.034208525 -0.15729524 -0.3800205
0000a0 60 70 d1 bd 83 35 bc bc 59 c9 93 be 57 50 0b 3e
       -0.10226512 -0.022974735 -0.28864554 0.13604866
0000b0 1a 6b 08 be ce 21 52 be 7e e6 8c 3d 4b 6b d5 3d
       -0.13322106 -0.20520708 0.068799004 0.10420855
0000c0 f8 a2 80 be 65 80 9a 3e c2 7c 8b 3e 58 d7 73 3e
       -0.25124335 0.30176082 0.2724362 0.23812616
0000d0 67 de 8b 3e 68 11 b4 3e 34 79 38 3e bf af 8c 3e
       0.27318117 0.3516953 0.18014985 0.27477834
0000e0 3c 48 aa bc 61 00 11 be a3 94 57 3e 99 26 ab bd
       -0.020786397 -0.14160301 0.21052794 -0.08356971
0000f0 b6 b0 19 3e 4f f4 97 3d 4f 03 6f 3e 37 17 c5 bb
       0.15008816 0.07419645 0.23341106 -0.0060147303

linear_a.bias f4 [4]
000000 1c b9 9e bd 15 22 5c bd a2 7c 73 3d e5 5e b2 3d
       -0.077501506 -0.05374344 0.05944503 0.08709506

conv_v_0.weight f4 [16, 7, 3, 3]
000000 65 13 fe bd 28 b2 3b 3e 8f b6 4b 3e ff c6 cd 3b
       -0.12406043 0.1832968 0.1989386 0.0062798257
000010 a9 9c ab 3d f2 6d 03 3e 21 70 a8 3d 38 ca 02 bc
       0.0837949 0.1283491 0.08224512 -0.007982783
000020 fb d9 6c bd 2a 92 84 3d 50 43 b2 bb 9e 99 3b 3e
       -0.05782507 0.06473191 -0.005440153 0.18320319
000030 34 d7 1f 3e f2 62 1d 3e 15 34 2e 3e 08 e0 db bd
       0.15609437 0.15369776 0.17012055 -0.1073609
000040 eb bb 94 bc 69 24 58 3d 4b 70 b8 3d 96 a4 85 3d
       -0.018156013 0.0527691 0.09005793 0.06525533
000050 8d 33 10 3e b2 b8 d5 3d 67 ec 8b bc e9 85 95 3d
       0.14082165 0.104356185 -0.017080499 0.07300932
000060 c3 9f a4 bd e8 94 9b bc be 16 4f 3e 05 56 9b 3d
       -0.08038285 -0.018991902 0.20223519 0.07584766
000070 03 75 19 3d 93 70 1e 3c 65 09 25 3e ca 9e f6 3b
       0.037465107 0.0096703945 0.16116865 0.0075262534
000080 ea 2d 57 3d d8 53 78 3d 36 ce 07 be 79 92 28 3e
       0.05253402 0.060626835 -0.13262257 0.16462125
000090 5d 00 c1 3d 4a 33 58 3d ab 0d 00 3e 68 18 0f 3c
       0.094238974 0.052783288 0.12505214 0.008733846
0000a0 ec a2 34 3d 7e 99 c3 bc 0d 22 e4 bc 21 2a 85 3d
       0.044100687 -0.023876902 -0.027848268 0.06502176
0000b0 59 93 68 bd c0 14 4d bd 1e 33 45 3d e4 89 11 bd
       -0.056781147 -0.050068617 0.048144452 -0.035531893
0000c0 40 bf 69 bd f4 04 22 3c c7 0a 47 bd e5 9a db 3d
       -0.057067156 0.009888876 -0.048594262 0.10722903
0000d0 e3 9e 89 bd 38 61 eb 3d 1e f0 fc bd 1a cd d9 bd
       -0.06719758 0.114931524 -0.12350486 -0.10634823
0000e0 b8 15 fd bd de 52 fa bd 30 11 74 3d 10 3f 08 3c
       -0.12357658 -0.12222837 0.059586704 0.0083158165
0000f0 34 9d 0d be f8 6d 1b be a4 7d bf bd e3 19 52 3d
       -0.138295 -0.15178668 -0.09350136 0.05129422
000100 2d 6e 4c 3c b3 86 40 bd 37 52 93 3d 11 33 c1 3c
       0.01247744 -0.04700346 0.071934156 0.02358392
000110 c2 92 9e 3d 57 18 06 be ab f2 a7 bd 8a 85 e1 be
       0.077428356 -0.13095222 -0.08200582 -0.44047195
000120 fa aa 7d bd e8 ae 59 bc ac 7e 09 3e 21 ea 15 be
       -0.061930634 -0.01328633 0.13427228 -0.14640094
000130 92 03 8b bd bf 29 38 be 32 4e e6 3d 00 23 85 3c
       -0.0678779 -0.17984675 0.11245383 0.01625204
000140 b4 35 0b 3e ed 8c 15 be f9 e1 60 be 90 f8 78 be
       0.13594705 -0.1460454 -0.21961202 -0.24313569
000150 c7 0a db bc ec ee 99 3c 4b bf 84 3e 38 33 99 bc
       -0.026738537 0.018790685 0.25927195 -0.01870118
000160 3d 7d 49 3e 61 bc 06 3e 6b a5 c8 3c e8 69 ef 3c
       0.19676681 0.13157798 0.02449294 0.029225305
000170 9e a5 47 bc 4b a5 00 bd 27 c4 cc bc 38 8c 3c be
       -0.012185482 -0.031407636 -0.024995876 -0.18412864
000180 e8 3d cc 3c 1a 19 b5 3b 09 cc ae 3d f9 3a 0a 3e
       0.024931863 0.005526674 0.0853501 0.13499059
000190 85 4d e6 3c 30 6c a4 3d 02 2d bb bd 25 15 0b bd
       0.028113136 0.08028448 -0.09139444 -0.033955712
0001a0 88 24 7f 3c 28 10 86 bd ab e2 f8 3d 2d 8b 0e bd
       0.015572675 -0.0654605 0.121526085 -0.034800697
0001b0 fc b5 df 3c 6c 87 fd bd fd 2d f9 3d 9f 19 01 be
       0.027308457 -0.12379345 0.12166975 -0.1260743
0001c0 ff 9a b5 3c 45 07 63 3d 29 28 8d 3d b8 20 42 bc
       0.022168634 0.055426855 0.068924256 -0.011848621
0001d0 8d d0 8c 3d a9 85 5d bd fe ba f7 bd 04 a2 b5 3c
       0.068757154 -0.054082546 -0.12096213 0.022171982
0001e0 79 fe ba bd be 5c a9 bd 1d 3b 6b bc f7 ad 9a bd
       -0.09130568 -0.08269642 -0.014357355 -0.075527124
0001f0 18 5e 68 bd e9 99 3f 3d 06 de 88 3e e6 a5 85 3e
       -0.05673036 0.04677764 0.2673189 0.26103133
000200 f2 b8 ce bd 15 32 95 3d ae 22 fc bd c4 da 81 bd
       -0.10093869 0.07284943 -0.12311302 -0.06340554
000210 2b f7 02 be 1a 1f 26 be 55 e4 4f be ef 11 34 3d
       -0.127896 -0.16222802 -0.20301946 0.043962415
000220 60 7d 87 bd 72 ca 18 be 17 54 1d 3d 3f 7b 6a 3e
       -0.0661571 -0.14920977 0.038410272 0.22898577
000230 c1 25 5f bd 5e 21 23 3d 9b 53 49 3e c4 71 47 3d
       -0.054479364 0.039826743 0.19660799 0.04869248
000240 35 60 5c 3e 2c 6c 6c be 6d fc 00 3e 7e d7 7e be
       0.21521075 -0.2308814 0.12596293 -0.24886891
000250 8c 72 a9 be 97 64 9b be 48 19 1d 3e f3 73 fc bc
       -0.33095205 -0.3035018 0.15341675 -0.030817008
000260 a2 45 e7 bd 1c 26 9a bd de 66 35 be 30 73 24 be
       -0.11292578 -0.075268 -0.17715022 -0.16059566
000270 87 79 0f 3d c0 16 ea bd c7 96 2a 3e 68 4e 3e 3e
       0.035028007 -0.114301205 0.1665908 0.18584597
000280 67 ba e3 bd 02 a1 3f 3e e6 63 3d 3e 0c f6 d7 3d
       -0.11119538 0.18713763 0.1849514 0.105449766
000290 1d e9 03 3e 83 f4 4a bc 16 f6 8e 3c 28 cc a0 3d
       0.12881894 -0.012387398 0.017451327 0.0785144
0002a0 a5 85 f5 3c 6a ff ad bc bc b3 15 3e 37 3b 33 bd
       0.029970953 -0.021239955 0.14619344 -0.043757644
0002b0 43 56 e3 bd 0e a0 14 bd e8 64 8b bc 39 98 6a bd
       -0.111004375 -0.036285453 -0.01701589 -0.057274077
0002c0 85 47 7f 3d a4 f4 ce bd 7f 66 19 3d d3 cf ee 3d
       0.062324066 -0.10105255 0.037451264 0.11660733
0002d0 7d 8f 3d bd b5 a1 14 3e 88 e9 cf 3d 79 2c 75 3d
       -0.04627942 0.14514811 0.101519644 0.059856866
0002e0 5c ff ae 3c 61 2d 25 3d ff 20 09 bc 66 a5 5e 3d
       0.021362 0.04032648 -0.008369683 0.054356955
0002f0 27 f0 1a 3e 95 ee 0f be 97 be a8 bd 9d e1 93 bd
       0.15130673 -0.14055856 -0.08239477 -0.07220767
000300 87 4f 25 bd c8 29 42 3e 0b 6c 5e be f0 2c 04 3e
       -0.040359046 0.18961251 -0.21720903 0.12907767
000310 14 b0 b3 3d f1 9d d5 bc a4 0b 87 3d 85 8f 49 be
       0.087738186 -0.026076289 0.06594017 -0.19683655
000320 74 3a 40 3e 09 e5 7d bd ad 12 33 3d 67 f7 a8 38
       0.18772298 -0.061986003 0.043718982 8.0569465e-05
000330 17 57 7b 3d cd da c2 3c ed 57 66 bd 3c 2a 22 bd
       0.061362352 0.023785973 -0.056236196 -0.03959106
000340 25 6a 05 3d 9f 8f b3 bd 89 a9 81 3c 16 f8 dc bb
       0.03257193 -0.08767628 0.015827911 -0.0067434413
000350 08 c9 d0 bd 42 58 fe bd 0f 54 86 3d 6e 5e 70 bd
       -0.10194594 -0.124191776 0.06559002 -0.058683805
000360 87 63 9b 3c 9e 33 20 3e 13 04 32 bc 8c 71 01 be
       0.018968357 0.1564469 -0.010865229 -0.12640971
000370 19 0f 0c 3e f9 47 3d 3c de 38 66 3d b3 89 00 3e
       0.13677634 0.011552804 0.056206577 0.12552528
000380 82 4b 40 3c b7 64 63 3c 91 ca d2 3d a5 10 19 3e
       0.011736752 0.013878993 0.10292543 0.14947756
000390 99 72 20 3e 13 09 a5 bd 7d e6 d6 3d 05 5b b6 bd
       0.15668716 -0.080583714 0.10493181 -0.08904079
0003a0 b9 d8 15 3e b2 b1 9e bd b1 34 f4 3d cd 2f 7a bd
       0.14633454 -0.077487364 0.119241126 -0.061080743
0003b0 13 d1 d2 bc 9e e0 68 bd d2 8a d2 ba e3 1a fb bd
       -0.02573446 -0.056854837 -0.00160631 -0.122609876
0003c0 6d 7f 47 bd 98 2a a3 3d 4e 20 95 3d de 6e 1d be
       -0.048705507 0.079671085 0.07281552 -0.15374324
0003d0 d7 69 a6 bd 9a a0 8c 3d 56 f6 54 3c 20 10 46 bd
       -0.08125656 0.0686657 0.012998184 -0.04835522
0003e0 ad 49 84 bd 36 ee 13 3d 61 42 a3 bc 7a 08 cb bc
       -0.06459365 0.036115848 -0.019929113 -0.024784315
0003f0 29 d1 03 3e f0 04 b0 3d f9 91 c8 3c b8 aa af 3a
       0.12872757 0.08594692 0.024483668 0.0013402319

conv_v_0.bias f4 [16]
000000 18 e0 2d 3e c6 52 b9 3d 8d 41 62 bc e0 77 ae bb
       0.16980016 0.09048991 -0.013809574 -0.005324349
000010 61 39 07 3e 6a b2 c3 3d ff e4 b0 3d c0 6c 24 3e
       0.13205482 0.09555514 0.086374275 0.1605711
000020 94 7b aa 3d f6 87 ee 3d 49 aa 44 3d 66 0e a5 bc
       0.08324352 0.11647026 0.04801396 -0.020148467
000030 e7 ad 14 bd 9f c7 be bc 3c 4b a4 bb 50 a6 07 3e
       -0.03629866 -0.023288546 -0.0050138514 0.13247037
