league/checkpoints/mfos_seeds/new_self_3x3_50/850_1.pth (torch, 300942 bytes, 105 tensors)

conv_a_0.weight f4 [16, 7, 3, 3]
0.20875093 0.040719353 -0.009638999 0.00046661968 -0.21369274 -0.13524894 0.00083141704 -0.21549961
-0.18967861 -0.05282977 0.03023374 0.049980175 0.10325247 -0.014745831 -0.050034944 0.0007678273
-0.002430284 -0.23958154 -0.09352168 -0.29436594 0.019283814 0.12108501 0.046828505 0.08431789
0.101176806 -0.1381811 0.16191113 -0.11210584 -0.084012784 -0.20595378 -0.108372144 -0.17490634
0.024263667 -0.014440314 -0.005633397 0.10059285 -0.114387065 -0.18453136 -0.04909352 -0.1985716
-0.15238641 -0.026318066 0.010411039 -0.2180788 -0.21784616 0.086291425 0.010385858 -0.08438124
0.0631769 0.09423173 -0.06254048 -0.118766375 0.030451968 0.10342963 0.09569946 0.13046819
0.037940808 0.026620476 -0.010857222 0.05526255 0.079899125 0.08904378 0.0404124 -0.14255542
0.001116234 -0.04757 -0.051046636 -0.008319331 0.08123608 0.022220928 -0.022056237 0.012283952
-0.31837815 0.1280102 0.1033694 -0.2910628 -0.08779991 0.17736177 -0.1938477 0.03451236
0.1463902 0.03704242 0.09411035 -0.037767507 -0.032510117 -0.035954103 -0.22411783 0.13809891
0.08467007 -0.1204573 -0.19375567 0.16191284 -0.035870712 -0.27339387 0.18374398 -0.088382095
-0.24430276 0.1486747 -0.036914773 -0.10418081 0.043068886 -0.025763469 -0.097300336 -0.015096545
-0.017339794 -0.12707359 0.035026778 -0.106147684 0.023912523 0.06370347 -0.08078869 0.0043479623
0.031119449 -0.07368757 -0.10874492 -0.08529344 -0.06649825 -0.036462408 -0.13452537 -0.13240299
-0.1683098 -0.06903544 -0.16709943 -0.0024222347 -0.039496828 -0.081176504 -0.31386462 -0.3126806
0.036408663 -0.109117575 -0.12193189 -0.027980344 0.073247194 0.1974919 0.20942262 0.037448816
-0.1518188 0.055561647 0.039648537 -0.011284932 0.044677988 0.0180352 0.023393942 0.099817105
-0.0813424 0.17388743 0.20488901 -0.12173626 0.07327945 0.025522841 -0.2775831 -0.13228934
-0.21070683 -0.020982295 0.13925345 0.20691286 -0.16283154 -0.027261134 0.13638324 -0.20493239
-0.10537243 -0.21484335 0.17161305 0.15245575 0.17397296 0.22994769 0.1879548 0.23006546
0.08909989 0.17700645 0.23354077 0.052816566 0.05602845 0.081985354 -0.07004755 -0.048998497
-0.109452814 0.07841755 0.018760888 -0.012360079 0.01166463 -0.045183305 -0.039978415 -0.08055688
-0.080179356 -0.009867829 -0.12674364 -0.09754437 -0.11454388 -0.2135387 0.21530262 0.002356663
-0.18927366 0.18306477 0.094206735 -0.23550463 0.17694454 -0.017159162 0.035334423 -0.024588717
0.077951394 0.06331154 -0.09486612 0.067675166 0.0396155 0.10526239 0.06952103 -0.14357744
0.16790237 -0.09754158 -0.15359195 0.15984163 -0.18983518 -0.102814704 0.22164303 -0.260736
0.0026061195 0.12506913 -0.29613996 -0.071041286 0.08425332 -0.10610434 -0.023648897 0.16155876
0.08254902 -0.06538947 0.07939991 0.014209496 0.039373077 0.03602209 -0.10801396 -0.13138095
-0.12201891 -0.10677048 -0.0751803 -0.040662527 0.121391796 -0.043660577 -0.04512559 -0.09472264
-0.0071928385 0.121671125 0.01704219 0.011291548 0.052549876 0.08162732 -0.13953228 -0.12711301
-0.14138143 0.06790575 -0.063395314 -0.06988225 -0.33516422 -0.33149123 -0.33081853 0.058795065
00000000: cec2 553e 56c9 263d e4ec 1dbc a2a4 f439
00000010: 45d2 5abe b37e 0abe 74f3 593a eeab 5cbe
00000020: 1c3b 42be 0764 58bd c0ac f73c 03b8 4c3d
00000030: 0876 d33d 7f98 71bc 71f1 4cbd 0548 493a
00000040: 6645 1fbb dd54 75be 4b88 bfbd 22b7 96be
00000050: 17f9 9d3c 6bfb f73d 3fcf 3f3d dcae ac3d
00000060: c935 cf3d 597f 0dbe 08cc 253e bf97 e5bd
00000070: e50e acbd 8ce5 52be 37f2 ddbd a61a 33be
00000080: 99c4 c63c 1197 6cbc 5c98 b8bb a003 ce3d
00000090: c443 eabd caf5 3cbe 4916 49bd 5a56 4bbe
000000a0: 2f0b 1cbe fc98 d7bc 1093 2a3c 0d50 5fbe
000000b0: 1013 5fbe 8fb9 b03d 7229 2a3c 12d0 acbd
000000c0: e462 813d 91fc c03d 3915 80bd c93b f3bd
000000d0: 6876 f93c ead2 d33d 14fe c33d 7499 053e
000000e0: d267 1b3d 2f13 da3c 7de2 31bc fc5a 623d
000000f0: 27a2 a33d 965c b63d 7987 253d 0cfa 11be
00000100: 994e 923a c3d8 42bd 4716 51bd ce4d 08bc
00000110: 1a5f a63d aa08 b63c 48af b4bc a142 493c
00000120: 7602 a3be 1b15 033e 56b3 d33d 2f06 95be
00000130: 70d0 b3bd 539e 353e 0380 46be d55c 0d3d
00000140: 50e7 153e cbb9 173d edbc c03d 1ab2 1abd
00000150: 5429 05bd 9c44 13bd 257f 65be cd69 0d3e
00000160: 8067 ad3d 51b2 f6bd e367 46be 7bcc 253e
00000170: 2bed 12bd 48fa 8bbe 6227 3c3e ac01 b5bd
00000180: 812a 7abe 2e3e 183e f233 17bd c05c d5bd
00000190: 0069 303d e90d d3bc 6645 c7bd 8057 77bc
000001a0: 2f0c 8ebc 941f 02be 3d78 0f3d f563 d9bd
000001b0: 32e4 c33c f776 823d 8a74 a5bd 5a79 8e3b
000001c0: 37ee fe3c 82e9 96bd a8b5 debd 54ae aebd
000001d0: 3c30 88bd 9b59 15bd 05c1 09be a694 07be
000001e0: 6759 2cbe 7462 8dbd 1d1c 2bbe 5bbe 1ebb
000001f0: 6dc7 21bd de3f a6bd ddb2 a0be ac17 a0be
00000200: 4021 153d 0979 dfbd 6db7 f9bd 0937 e5bc
00000210: a002 963d 513b 4a3e e272 563e ee63 193d
00000220: 6376 1bbe 9c94 633d 8166 223d 6fe4 38bc
00000230: 4400 373d 8ebe 933c a7a4 bf3c e96c cc3d
00000240: d896 a6bd 8c0f 323e 6dce 513e dc50 f9bd
00000250: 8913 963d 4715 d13c 5f1f 8ebe db76 07be
00000260: 88c3 57be 10e3 abbc 7598 0e3e f7e0 533e
00000270: 50bd 26be be52 dfbc 0ca8 0b3e ccd9 51be
00000280: 80cd d7bd e5ff 5bbe 55bb 2f3e 5c1d 1c3e
00000290: f825 323e 6877 6b3e 3977 403e 4896 6b3e
000002a0: 017a b63d 2e41 353e 5025 6f3e 2f56 583d
000002b0: 177e 653d f0e7 a73d 1775 8fbd a6b2 48bd
000002c0: cc28 e0bd 6199 a03d 6fb0 993c ee81 4abc
000002d0: 011d 3f3c 2112 39bd 68c0 23bd 01fb a4bd
000002e0: 1335 a4bd adac 21bc 16c9 01be 58c5 c7bd
000002f0: fb95 eabd e4a9 5abe 4a78 5c3e 3f72 1a3b
00000300: f4d0 41be 5575 3b3e 76ef c03d 2028 71be
00000310: f330 353e 5f91 8cbc d4ba 103d 476e c9bc
00000320: fba4 9f3d 7ba9 813d 2b49 c2bd 4799 8a3d
00000330: dd43 223d cf93 d73d 0b61 8e3d f705 13be
00000340: 99ee 2b3e e1c3 c7bd 3547 1dbe 86ad 233e
00000350: 2764 42be 8490 d2bd 64f6 623e 307f 85be
00000360: 6ecb 2a3b 1f12 003e a89f 97be 187e 91bd
00000370: 018d ac3d 3b4d d9bd 55bb c1bc a96f 253e
00000380: 760f a93d eaea 85bd 6c9c a23d f2ce 683c
00000390: aa45 213d e68b 133d 6c36 ddbd ba88 06be
000003a0: 0de5 f9bd 7baa dabd 21f8 99bd c08d 26bd
000003b0: 439c f83d 6fd5 32bd 9cd5 38bd f2fd c1bd
000003c0: e7b1 ebbb b62e f93d 109c 8b3c 2f00 393c
000003d0: 8a3e 573d 392c a73d 8de1 0ebe ea29 02be
000003e0: 4bc6 10be 2b12 8b3d 67d5 81bd 6d1e 8fbd
000003f0: a59a abbe 38b9 a9be 0c61 a9be 18d3 703d

conv_a_0.bias f4 [16]
0.09350237 -0.023752932 -0.07637638 -0.05480428 0.026718715 -0.13809988 0.15985982 -0.0905121
-0.01157615 0.033403777 -0.06379071 -0.030464979 0.08365735 -0.05663214 -0.08472387 -0.028659685
00000000: 2c7e bf3d 8295 c2bc 386b 9cbd 747a 60bd
00000010: 35e1 da3c 0e6a 0dbe 4bb2 233e 685e b9bd
00000020: e4a9 3dbc 66d2 083d b4a4 82bd b191 f9bc
00000030: 8b54 ab3d 1af7 67bd b583 adbd b7c7 eabc

conv_a_1.weight f4 [16, 16, 3, 3]
0.026791746 0.09551794 0.045806207 0.05232441 0.009611785 0.027355121 -0.06667408 -0.010235392
0.086653344 0.16234484 0.0699749 0.110444635 0.097864084 0.0521466 0.00036338964 0.028785387
0.0063302834 0.09573734 0.21693297 0.24295664 0.25114736 0.23631984 0.17573114 0.15822126
0.172528 0.25599974 0.1913263 0.1778907 0.20760618 0.0922711 0.2398721 0.120373316
0.057971332 0.13657157 0.15422924 0.07492591 0.011982943 0.1772679 0.027016966 0.07064379
0.105140716 0.10856812 0.112578906 0.11434866 0.07821359 0.08013045 0.049867224 0.19138674
0.099874936 0.08518226 0.1436358 0.052145917 0.14206749 0.15547046 0.067503035 -0.080586374
0.021363333 0.020680897 0.018535012 -0.06859906 0.012410636 0.048663527 0.044580184 -0.02627511
0.022146955 0.05336073 0.08101038 0.046376064 0.1477152 0.040703326 0.1565263 0.093564406
-0.060152892 0.025877474 0.01291922 0.021541113 0.063878715 0.023298647 -0.08265588 -0.056957193
-0.005205103 -0.030615203 -0.027459497 0.09613006 0.08124269 -0.0117301745 0.044425756 0.06831737
-0.049215622 -0.04060449 -0.0046062157 0.035038814 0.070921876 0.048753984 0.12095651 -0.00027750863
0.0938589 0.08739942 0.05825538 0.09964006 0.07175137 0.10684124 0.11163272 0.12735188
0.09347945 0.11585363 0.12006136 0.12881352 -0.013844708 0.0474676 -0.019515805 -0.10269682
-0.0020333538 -0.09555543 -0.07008122 0.05648059 -0.035304964 0.06257096 0.13747214 0.05800061
0.043578003 0.047707867 0.118541814 -0.0043333266 0.18170938 0.15058447 -0.09141361 -0.22084908
-0.19547907 -0.1436639 -0.07948771 -0.12441497 -0.15897703 -0.1682083 -0.22748812 -0.09987129
-0.12194718 -0.12350147 -0.021157764 -0.09150851 -0.029841041 -0.14593236 -0.14754413 -0.15677767
0.123020425 0.08644812 0.109313615 0.0801493 0.08753726 0.04380306 0.1313893 0.08744747
0.04604573 -0.15506335 0.037113816 -0.044804662 0.0055267974 0.15381274 0.083963804 -0.10107885
0.02785442 0.015343895 -0.15715343 -0.13837886 -0.15876551 -0.1756026 -0.172896 -0.22364156
-0.19520275 -0.17590964 -0.13272642 -0.005633786 -0.024949143 -0.09682028 -0.04432249 -0.033363406
-0.06049911 -0.12799925 -0.10074788 0.072822034 0.055913802 -0.08825932 -0.015261379 -0.07119555
-0.08386045 -0.017888704 -0.029444873 -0.11366437 -0.047105722 -0.04083034 0.061158642 -0.09216515
0.11836347 -0.054501273 0.05811259 0.02809298 -0.078867346 0.006484698 0.16208307 0.24537072
0.18654989 0.14324751 0.19560464 0.21312767 0.11915415 0.11442565 0.048605356 0.014877397
-0.038264405 0.06454276 0.02454139 -0.04601236 0.04771834 0.0646129 0.04032012 0.11344392
-0.0515485 0.15871105 -0.013553705 0.026209122 0.024725325 0.14503488 -0.12028001 0.038325556
0.0067095803 -0.010795757 0.020047044 0.080890775 -0.13736439 -0.010591092 -0.02929244 -0.058263436
0.07209274 0.052731093 0.1501302 0.016386585 -0.010663493 0.09653159 0.022312365 0.13080658
0.0517159 0.06342101 0.14574172 0.08895737 0.081313044 -0.013773952 0.08526888 0.057321317
0.05613714 0.03804586 0.19062683 0.14139682 0.034047067 0.117587514 0.09603412 0.13721456
00000000: 5d7a db3c e99e c33d 4a9f 3b3d 1f52 563d
00000010: c07a 1d3c d917 e03c 6c8c 88bd 58b2 27bc
00000020: 4f77 b13d ba3d 263e 004f 8f3d cc30 e23d
00000030: f76c c83d ac97 553d 5585 be39 55cf eb3c
00000040: 446e cf3b f011 c43d ad23 5e3e a0c9 783e
00000050: 6396 803e d4fd 713e ddf2 333e c104 223e
00000060: 2eab 303e 6612 833e 0beb 433e fb28 363e
00000070: b796 543e a1f8 bc3d 08a1 753e 4986 f63d
00000080: 5973 6d3d 6bd9 0b3e 45ee 1d3e c172 993d
00000090: 1b54 443c b785 353e af52 dd3c b1ad 903d
000000a0: 0454 d73d f658 de3d c58f e63d a12f ea3d
000000b0: 722e a03d 6f1b a43d 9341 4c3d e3fa 433e
000000c0: 3b8b cc3d 0974 ae3d 4315 133e f596 553d
000000d0: 247a 113e a633 1f3e 083f 8a3d 780a a5bd
000000e0: 2802 af3c fc6a a93c bdd6 973c aa7d 8cbd
000000f0: fb55 4b3c 6853 473d b699 363d e63e d7bc
00000100: 886d b53c c890 5a3d c5e8 a53d d4f4 3d3d
00000110: a742 173e 88b8 263d 6e48 203e b29e bf3d
00000120: e162 76bd fffc d33c 23ab 533c fd76 b03c
00000130: d8d2 823d cedc be3c 7c47 a9bd f24b 69bd
00000140: 928f aabb bccc fabc bdf2 e0bc d6df c43d
00000150: 9162 a63d eb2f 40bc c8f7 353d fae9 8b3d
00000160: 5296 49bd e550 26bd bdef 96bb dc84 0f3d
00000170: 7d3f 913d 42b2 473d 0cb8 f73d 947e 91b9
00000180: 1839 c03d 78fe b23d 319d 6e3d 1610 cc3d
00000190: 62f2 923d 94cf da3d b29f e43d 8868 023e
000001a0: 2772 bf3d ab44 ed3d bbe2 f53d b1e7 033e
000001b0: ead4 62bc 636d 423d 9cdf 9fbc b652 d2bd
000001c0: 0442 05bb 91b2 c3bd be86 8fbd 3158 673d
000001d0: f09b 10bd 3425 803d 7fc5 0c3e 0c92 6d3d
000001e0: d97e 323d 5369 433d 0dc6 f23d 94fe 8dbb
000001f0: 0612 3a3e d132 1a3e 0f37 bbbd 4326 62be
00000200: aa2b 48be a11c 13be 74ca a2bd 47cd febd
00000210: e0ca 22be cc3e 2cbe a5f2 68be 5289 ccbd
00000220: 71bf f9bd 57ee fcbd 0c53 adbc d068 bbbd
00000230: 3375 f4bc 4b6f 15be cf15 17be 538a 20be
00000240: 22f2 fb3d b60b b13d d1df df3d 5125 a43d
00000250: bc46 b33d d66a 333d eb8a 063e a917 b33d
00000260: 739a 3c3d edc8 1ebe a804 183d 1885 37bd
00000270: 231a b53b 1681 1d3e 37f5 ab3d 6e02 cfbd
00000280: f42e e43c f664 7b3c d4ec 20be 30b3 0dbe
00000290: 6d93 22be 2bd1 33be a60b 31be 4b02 65be
000002a0: 3be3 47be a821 34be 6fe9 07be 9f9b b8bb
000002b0: 2562 ccbc b649 c6bd 808b 35bd 11a8 08bd
000002c0: eacd 77bd 3c12 03be e854 cebd b823 953d
000002d0: df05 653d 4dc1 b4bd dd0a 7abc f9ce 91bd
000002e0: 07bf abbd 558b 92bc 6036 f1bc ddc8 e8bd
000002f0: eef1 40bd b73d 27bd 7c81 7a3d 15c1 bcbd
00000300: 8c68 f23d ba3c 5fbd 7807 6e3d 4023 e63c
00000310: 3485 a1bd 977d d43b 1bf9 253e 7642 7b3e
00000320: ef06 3f3e 7aaf 123e 954c 483e 243e 5a3e
00000330: 1707 f43d ff57 ea3d 6916 473d 53c0 733c
00000340: 23bb 1cbd ff2e 843d 060b c93c 7577 3cbd
00000350: 4e74 433d c553 843d b626 253d 4955 e83d
00000360: 8524 53bd 2685 223e 5c10 5ebc 83b4 d63c
00000370: c48c ca3c 0684 143e 5e55 f6bd 42fb 1c3d
00000380: 0adc db3b b0e0 30bc b339 a43c 10aa a53d
00000390: 40a9 0cbe 4286 2dbc b3f6 efbc a4a5 6ebd
000003a0: 5ca5 933d 8ffc 573d bbbb 193e 293d 863c
000003b0: eeb5 2ebc 5bb2 c53d 6cc8 b63c 29f2 053e
000003c0: 0dd4 533d e0e2 813d 513d 153e 482f b63d
000003d0: 7487 a63d 24ac 61bc 73a1 ae3d c2c9 6a3d
000003e0: 0ff0 653d fad5 1b3d ae33 433e 54ca 103e
000003f0: f074 0b3d b9d1 f03d 89ad c43d f981 0c3e

conv_a_1.bias f4 [16]
-0.025809221 0.08480966 0.13175759 -0.009334266 0.031953145 -0.011732973 -0.04832337 -0.042816676
0.0007834604 -0.0795179 -0.040963657 -0.10325508 -0.031404093 -0.011567188 0.15937012 -0.0023706025
00000000: dc6d d3bc b0b0 ad3d 76eb 063e c0ee 18bc
00000010: 4de1 023d a83b 40bc baee 45bd 8a60 2fbd
00000020: 2361 4d3a 48da a2bd 82c9 27bd 6677 d3bd
00000030: 94a1 00bd 4e84 3dbc ec31 233e 1c5c 1bbb

linear_a_0.weight f4 [16, 144]
0.17286555 0.10463219 0.033432174 0.19687021 0.06634355 0.10193957 0.17936362 0.095916726
0.09988573 -0.033722688 -0.17998075 0.091088906 -0.16190934 -0.108561255 -0.15142308 -0.13512047
-0.119041085 -0.20696525 -0.1156627 -0.11089832 -0.040643625 -0.056457523 -0.04422731 -0.10582378
-0.115984 -0.1366514 -0.13234548 0.16730864 0.20800343 0.13967131 0.11658588 0.16599007
0.18772916 0.07884497 0.054241367 0.15784088 0.025154576 0.03730774 0.1378929 0.011470612
0.17224658 0.035412952 0.1477858 0.14022945 0.1629822 0.11143623 0.11902394 0.117942445
0.15682015 0.15643767 0.103148036 0.0063375044 0.1817646 0.098069176 0.2600775 0.11293429
0.25183138 0.19604874 0.16114703 0.13363229 0.16598697 0.18863657 0.20855395 0.19488561
0.18244714 0.042128846 0.11826873 0.12881793 0.24262048 0.17697932 0.23912749 0.1534926
0.11452733 0.14161828 0.07860473 -0.032331623 0.13755064 0.14911397 0.010886958 0.096649505
0.094105005 0.14535871 0.21354502 0.06879125 0.21423551 0.17286965 0.07361513 0.11968109
0.17249331 0.07540708 0.13031618 0.17906013 0.078358546 0.055451937 0.18851466 0.07863646
0.13871492 0.14113198 0.08711765 0.0555684 0.18626633 0.07400729 0.04101944 0.19877931
0.11428854 0.07041275 0.19550611 0.08418441 0.13425006 -0.028496698 0.051575944 -0.19966775
-0.15799566 0.004644826 0.07477112 0.026218748 -0.03607486 0.11109177 0.13615625 0.035683434
0.03673808 0.09580127 0.18467861 0.10896191 0.15008007 0.08840606 0.07275446 0.015711522
0.020462051 0.036309455 -0.07309969 -0.00931647 0.024211675 -0.0008668832 -0.021862922 0.10074075
0.068382904 0.13657027 0.041183718 0.04797276 0.0802404 0.09371278 0.13201417 0.12476442
-0.010189952 -0.046392556 -0.08163631 -0.059360713 -0.118964404 -0.03516805 0.07038707 0.022242678
0.026344066 -0.07269282 -0.09284255 0.028197333 0.008960652 0.10163777 -0.005068223 0.014748656
-0.03263703 0.020795548 -0.038949296 0.028259043 -0.04012669 0.025785018 -0.06991234 -0.07238992
-0.013900159 -0.017385243 -0.060289558 -0.0381857 0.010047343 0.018946331 0.011500274 -0.01714838
-0.054932322 -0.046565134 -0.004957795 -0.078198425 0.02259022 0.0072101974 -0.015203702 0.07693373
0.08382439 -0.04029186 0.056539852 -0.04039705 0.05557763 0.00811094 -0.03368945 0.03270974
-0.042733535 -0.046680823 -0.05983997 0.017706534 -0.041261546 -0.033021167 -0.075311445 -0.00039614137
0.07541387 0.032912385 -0.015977914 -0.042599794 0.078397185 0.06430198 -0.042036146 -0.10304512
-0.02445214 0.037587617 -0.003663398 -0.045102235 -0.053994063 0.04294139 -0.053611957 -0.030510856
0.045687392 -0.072702706 0.075638555 -0.08925175 -0.044264704 -0.021853155 -0.046816956 0.016342279
-0.003694185 -0.04848547 -0.033423148 -0.0031648425 -0.051161382 -0.05175649 0.08807799 -0.013963243
0.066969946 0.03535657 0.059710324 -0.08821446 -0.045464683 -0.08458964 -0.052807663 -0.003802973
0.054596428 0.008420046 0.061661847 -0.0013100995 0.025570223 -0.049166176 0.031803764 -0.023975566
0.007985523 0.08214367 0.07048976 0.06861563 -0.06760004 -0.072824836 -0.014513803 -0.022781711
00000000: ab03 313e 6749 d63d 2df0 083d 5898 493e
00000010: 21df 873d b1c5 d03d 19ab 373e fd6f c43d
00000020: e490 cc3d cd20 0abd e04c 38be d28c ba3d
00000030: 90cb 25be 5d55 debd a70e 1bbe 055d 0abe
00000040: d0cb f3bd b3ee 53be 91e0 ecbd a91e e3bd
00000050: ee79 26bd 0140 67bd b227 35bd 23ba d8bd
00000060: 0589 edbd 58ee 0bbe 9385 07be f552 2b3e
00000070: dafe 543e ff05 0f3e 94c4 ee3d 4df9 293e
00000080: 133c 403e 7979 a13d 322c 5e3d 0aa1 213e
00000090: f810 ce3c 00d0 183d cc33 0d3e 3cef 3b3c
000000a0: 6861 303e 2c0d 113d 2955 173e 4f98 0f3e
000000b0: cee4 263e ae38 e43d d3c2 f33d cf8b f13d
000000c0: 7695 203e 3231 203e 473f d33d d7aa cf3b
000000d0: 8020 3a3e 7ed8 c83d e128 853e 184a e73d
000000e0: 0bf0 803e 00c1 483e ba03 253e e7d6 083e
000000f0: 7df8 293e f229 413e 2b8f 553e 1890 473e
00000100: 6cd3 3a3e 4c8f 2c3d e036 f23d d9e8 033e
00000110: 8171 783e 113a 353e d6dd 743e 2a2d 1d3e
00000120: 4e8d ea3d 6204 113e 84fb a03d 2a6e 04bd
00000130: 13da 0c3e 55b1 183e 365f 323c 2df0 c53d
00000140: 20ba c03d ead8 143e 8cab 5a3e 6de2 8c3d
00000150: 8e60 5b3e be04 313e 87c3 963d 5c1b f53d
00000160: 16a2 303e 076f 9a3d 9b71 053e 8a5b 373e
00000170: 727a a03d 9221 633d fd09 413e 270c a13d
00000180: 490b 0e3e e784 103e bd6a b23d b19b 633d
00000190: 9abc 3e3e 2291 973d 0004 283d ce8c 4b3e
000001a0: 1c10 ea3d 8f34 903d c132 483e e068 ac3d
000001b0: d978 093e e871 e9bc 4c41 533d b475 4cbe
000001c0: 9dc9 21be a033 983b 9a21 993d b3c8 d63c
000001d0: 3bc3 13bd 1584 e33d 8b6c 0b3e cb28 123d
000001e0: ab7a 163d 7533 c43d 641c 3d3e 6c27 df3d
000001f0: 97ae 193e 3d0e b53d 4a00 953d 73b5 803c
00000200: 08a0 a73c 39b9 143d 4ab5 95bd 1ba4 18bc
00000210: 9057 c63c 8c3f 63ba df19 b3bc 2b51 ce3d
00000220: 560c 8c3d 14d9 0b3e 42b0 283d 167f 443d
00000230: 1455 a43d 7cec bf3d b92e 073e 7d84 ff3d
00000240: c2f3 26bc 1f06 3ebd f030 a7bd 3824 73bd
00000250: 9ca3 f3bd 600c 10bd 1927 903d 4736 b63c
00000260: 83cf d73c f9df 94bd 3c24 bebd 18fe e63c
00000270: b3cf 123c 7727 d03d 5613 a6bb 59a4 713c
00000280: 68ae 05bd 6d5b aa3c 4c89 1fbd 827f e73c
00000290: e25b 24bd 1a3b d33c 332e 8fbd 2b41 94bd
000002a0: 7ebd 63bc 7f6b 8ebc 2ff2 76bd 9c68 1cbd
000002b0: 9c9d 243c 5635 9b3c a56b 3c3c c27a 8cbc
000002c0: b700 61bd 15bb 3ebd 0075 a2bb 7f26 a0bd
000002d0: 200f b93c 8543 ec3b f318 79bc 6e8f 9d3d
000002e0: 1fac ab3d 1409 25bd 5596 673d 6177 25bd
000002f0: 5ea5 633d c0e3 043c f3fd 09bd a6fa 053d
00000300: 5c09 2fbd 6434 3fbd c21a 75bd 4b0d 913c
00000310: de01 29bd 3441 07bd e33c 9abd 32b1 cfb9
00000320: 9672 9a3d 23cf 063d 1de4 82bc 1f7d 2ebd
00000330: b48e a03d c2b0 833d 182e 2cbd 5209 d3bd
00000340: db4f c8bc 79f5 193d 9f15 70bb 1fbd 38bd
00000350: e128 5dbd 50e3 2f3d 3698 5bbd e7f1 f9bc
00000360: b422 3b3d 28e5 94bd 63e8 9a3d 9fc9 b6bd
00000370: e84e 35bd 6305 b3bc 23c3 3fbd 3ee0 853c
00000380: 241a 72bb b398 46bd b6e6 08bd 3f69 4fbb
00000390: 998e 51bd 9dfe 53bd 3c62 b43d 16c6 64bc
000003a0: 8a27 893d 0dd2 103d d092 743d c8a9 b4bd
000003b0: 2d39 3abd 553d adbd d94c 58bd 4d3b 79bb
000003c0: 81a0 5f3d 3cf4 093c 2291 7c3d a5b7 abba
000003d0: a578 d13c 7962 49bd aa44 023d 6868 c4bc
000003e0: b6d5 023c f13a a83d ef5c 903d 5a86 8c3d
000003f0: e471 8abd 3025 95bd 4dcb 6dbc b6a0 babc

linear_a_0.bias f4 [16]
0.0067024883 0.02168819 0.13933563 -0.027834367 0.068580076 0.12376066 0.10008169 0.10939848
-0.00747851 0.056613524 0.029578539 -0.054637197 0.053217784 -0.05037766 0.02622716 0.03641967
00000000: 8ca0 db3b 6eab b13c 00ae 0e3e e604 e4bc
00000010: b673 8c3d 3b76 fd3d a1f7 cc3d 4f0c e03d
00000020: 4a0e f5bb 95e3 673d b14e f23c 41cb 5fbd
00000030: e4fa 593d ce58 4ebd 57da d63c cb2c 153d

GRU_a.weight_ih_l0 f4 [48, 16]
0.025042957 0.123237975 0.26304007 -0.24316102 -0.1262623 0.15823612 0.007962625 -0.15452863
0.18620321 -0.15571128 0.25999552 0.26843455 0.020104686 -0.076399595 -0.11710059 0.038057182
0.05334108 -0.21976365 0.25082815 -0.1318768 -0.08199498 -0.26130208 -0.18393996 0.0019739496
0.07009263 -0.24063893 -0.16548723 -0.11401075 -0.088655494 0.07359576 0.14517696 -0.17584427
-0.15877981 0.1439324 0.3944015 -0.0031937207 -0.19288707 -0.13957357 0.11927639 0.12001409
0.12216374 0.14234954 -0.24647838 -0.106343634 0.13424987 0.14484641 -0.17290697 -0.23389041
-0.19328627 0.20512085 0.15041529 -0.091927975 0.20000608 0.0223634 -0.29357785 -0.08324718
0.08833807 -0.20586702 -0.18202057 0.0042914855 -0.1623333 0.17324 -0.23175454 0.18660785
0.21529076 0.19987401 0.055460803 -0.1638699 0.044907015 0.01174759 0.101627745 0.26634288
0.39163062 -0.20145646 0.035668254 0.07691356 0.16550817 0.109463125 0.053215586 0.24218526
-0.24725059 0.23889834 0.14063607 -0.059969492 0.22904895 0.024281433 0.21978152 0.25592342
-0.21754922 0.15201025 0.057128087 -0.039814416 0.11334151 -0.09208548 -0.3018691 -0.3252732
-0.20787655 0.16833127 -0.0855279 -0.060795266 -0.1505079 -0.031177606 -0.19461498 0.1998588
-0.101682626 0.18591122 -0.06258141 -0.016245091 -0.20225202 -0.10458028 0.16348541 -0.06713008
0.025632948 0.11671802 0.12932128 0.105225705 0.1943612 0.29142052 0.2011039 0.35069612
-0.22586241 0.15137352 0.1417314 -0.046265986 0.006143276 -0.2474761 0.10072857 0.0830444
-0.20796098 0.13900459 0.15667878 -0.16000587 0.09639014 -0.049662363 -0.004658005 0.21608892
0.009285623 0.23871107 0.16338085 -0.14136635 -0.004563404 0.15668696 0.13222204 0.063939996
0.17800616 -0.09527799 -0.18795393 -0.08790447 0.14583024 -0.25197312 -0.068488434 -0.036741376
-0.082954936 -0.007765646 0.1257135 0.04203747 -0.101505905 0.1889177 0.034717664 0.056562874
0.2121322 -0.14487505 0.3743755 0.0007233595 -0.00518087 -0.03488204 0.13879766 -0.051273342
-0.036451317 0.21961245 -0.05426775 -0.15287632 -0.072748326 0.21750382 0.31125632 -0.13950782
-0.022275647 -0.21065666 0.15475664 -0.05630173 0.008616995 0.15258148 -0.08251669 -0.014790458
0.090034485 0.17007537 -0.04999078 -0.086566105 -0.24338944 -0.16271141 -0.21335645 -0.2543524
0.19842897 0.181904 -0.17477182 -0.1708135 -0.1923313 -0.2580144 0.12463686 0.057430584
0.3815834 -0.067739785 -0.065315925 0.024504852 0.12762605 0.12943077 0.008137643 0.2846065
-0.11239869 0.17475215 -0.06847561 -0.013471675 0.19277765 -0.073136404 -0.14070584 0.10639788
-0.36107668 0.17035016 0.03957328 -0.07268313 -0.32819587 0.03961298 -0.14130594 -0.21054403
0.050806843 0.13934915 -0.42406085 -0.07993737 -0.15250002 -0.18405853 -0.4047489 -0.18000981
0.2615173 -0.009587985 -0.07669825 0.34050584 0.013886864 -0.12724239 0.13170528 0.009307629
-0.021329379 -0.01967623 0.24479865 0.2022078 -0.0488689 0.31580734 0.113640375 0.23298869
0.11786458 0.24006519 -0.19723724 0.17498681 0.24324083 -0.07950911 0.009409978 0.25185284
00000000: e326 cd3c 3164 fc3d 30ad 863e 34ff 78be
00000010: e84a 01be a608 223e ab75 023c c13c 1ebe
00000020: 0eac 3e3e c772 1fbe 221e 853e 4170 893e
00000030: 95b2 a43c 6477 9cbd 6fd2 efbd d9e1 1b3d
00000040: 2d7c 5a3d b909 61be 8c6c 803e b60a 07be
00000050: fcec a7bd 63c9 85be c25a 3cbe 615d 013b
00000060: ba8c 8f3d 0d6a 76be 7c75 29be 787e e9bd
00000070: 0391 b5bd 60b9 963d 45a9 143e 8510 34be
00000080: 2d97 22be 0463 133e feee c93e be4d 51bb
00000090: 3084 45be 60ec 0ebe 2e47 f43d f2c9 f53d
000000a0: fc30 fa3d 14c4 113e d464 7cbe b1ca d9bd
000000b0: cc78 093e 9e52 143e 860e 31be f880 6fbe
000000c0: d6ec 45be 330b 523e 7706 1a3e bc44 bcbd
000000d0: 65ce 4c3e 7333 b73c d64f 96be 7f7d aabd
000000e0: 97ea b43d cece 52be 9a63 3abe 979f 8c3b
000000f0: b33a 26be d465 313e 1051 6dbe 2116 3f3e
00000100: 2e75 5c3e c6ab 4c3e de2a 633d 83cd 27be
00000110: 6bf0 373d f778 403c 3522 d03d 185e 883e
00000120: cf83 c83e 9a4a 4ebe e018 123d db84 9d3d
00000130: f97a 293e 342e e03d 96f8 593d 6aff 773e
00000140: 422f 7dbe c4a1 743e e702 103e 92a2 75bd
00000150: cf8b 6a3e dbe9 c63c 680e 613e 6508 833e
00000160: 39c5 5ebe 93a8 1b3e 24ff 693d 7114 23bd
00000170: 981f e83d 5097 bcbd 968e 9abe 358a a6be
00000180: 97dd 54be 085f 2c3e 4029 afbd 7504 79bd
00000190: be1e 1abe 2e68 ffbc 2649 47be c9a7 4c3e
000001a0: fb3e d0bd 835f 3e3e af2a 80bd 6d14 85bc
000001b0: 271b 4fbe 302e d6bd b868 273e 7f7b 89bd
000001c0: 30fc d13c db09 ef3d cc6c 043e 9380 d73d
000001d0: 9f06 473e 1235 953e 2eee 4d3e 718e b33e
000001e0: 7a48 67be a901 1b3e 0922 113e 6781 3dbd
000001f0: 894d c93b 606a 7dbe c84a ce3d 2f13 aa3d
00000200: b9f3 54be 3857 0e3e 6770 203e 94d8 23be
00000210: 3268 c53d c36a 4bbd 2ea2 98bb 6a46 5d3e
00000220: ba22 183c ad70 743e 4f4d 273e 57c2 10be
00000230: 9b88 95bb 8c72 203e 3765 073e f9f2 823d
00000240: 3f47 363e 1b21 c3bd ff76 40be 4207 b4bd
00000250: 8654 153e 9f02 81be aa43 8cbd 207e 16bd
00000260: 47e4 a9bd f676 febb 0abb 003e 7b2f 2c3d
00000270: 54e2 cfbd a473 413e 1c34 0e3d 79ae 673d
00000280: 2f39 593e 205a 14be 25ae bf3e d69f 3d3a
00000290: 4ac4 a9bb 78e0 0ebd f920 0e3e ff03 52bd
000002a0: fa4d 15bd 16e2 603e dc47 5ebd 9c8b 1cbe
000002b0: 13fd 94bd 52b9 5e3e fd5c 9f3e 23db 0ebe
000002c0: 6b7b b6bc 61b6 57be 8678 1e3e a59c 66bd
000002d0: 4c2e 0d3c 523e 1c3e 83fe a8bd ad53 72bc
000002e0: 0064 b83d 3d28 2e3e 22c3 4cbd 9249 b1bd
000002f0: 153b 79be d29d 26be 1d7a 5abe 7a3a 82be
00000300: f730 4b3e 0b45 3a3e 62f7 32be bce9 2ebe
00000310: 7ff2 44be 771a 84be 9c41 ff3d 553c 6b3d
00000320: e65e c33e 28bb 8abd 5bc4 85bd 66be c83c
00000330: 67b0 023e 8089 043e c053 053c f1b7 913e
00000340: 4931 e6bd 3af2 323e f13c 8cbd 4db8 5cbc
00000350: 8167 453e 8ac8 95bd 3115 10be 22e7 d93d
00000360: 0bdf b8be 4670 2e3e 9717 223d e5da 94bd
00000370: 4a09 a8be 3841 223d 81b2 10be db98 57be
00000380: d61a 503d 8bb1 0e3e 811e d9be 34b6 a3bd
00000390: f728 1cbe d779 3cbe 3f3b cfbe 7e54 38be
000003a0: 98e5 853e ed16 1dbc f913 9dbd c856 ae3e
000003b0: bb85 633c d44b 02be c0dd 063e 077f 183c
000003c0: f3ba aebc 0c30 a1bc 7fac 7a3e 900f 4f3e
000003d0: c12a 48bd 80b1 a13e 49bc e83d 9694 6e3e
000003e0: fc62 f13d a6d3 753e 8ff8 49be be2f 333e
000003f0: 2014 793e acd5 a2bd 4f2c 1a3c dbf2 803e

GRU_a.weight_hh_l0 f4 [48, 16]
-0.2366691 -0.08955998 -0.1619929 -0.06303956 -0.12000403 0.24321681 -0.13803145 0.056373324
0.15322113 -0.19152299 0.11084431 -0.07032708 -0.2050129 0.20517185 0.16123731 -0.21300815
0.13059868 -0.231173 0.107207246 -0.062732436 -0.075596295 0.086455114 0.1695936 -0.06399136
0.231647 0.07602228 -0.15069275 -0.22028157 0.15011144 0.14466599 -0.099311255 -0.031417534
0.163058 0.06832083 -0.0904195 0.10539412 -0.14512865 -0.15304542 0.26223636 0.11794448
0.07163482 0.22874695 0.30572757 0.30443045 0.024417456 -0.26695338 0.38641274 -0.13673918
0.21515591 -0.09987264 0.12292016 0.23831856 -0.08460102 -0.032003224 0.04744078 -0.22640242
-0.23751968 -0.018394152 0.16082636 -0.22013074 0.11969999 -0.024062146 0.18440571 -0.020062756
-0.3944975 -0.22231926 0.05653195 -0.0035801076 -0.07060134 0.013995752 -0.08359107 0.28991678
0.2740232 0.06267986 0.09647694 -0.105781175 -0.16140358 -0.24275184 -0.018148372 -0.057006277
-0.08046639 -0.014878118 -0.20051074 0.18341926 0.21983811 0.10892469 0.23918033 -0.08642049
-0.09591707 -0.19043767 0.08719097 -0.0077651236 0.21900833 -0.04119169 0.2536357 -0.020074502
-0.14133471 0.20017536 0.23180722 -0.23624183 0.14210777 0.028853195 0.29481086 0.12283187
-0.07850307 0.20356154 0.23877613 -0.1295862 0.25350755 -0.15072376 0.20374799 -0.19761334
0.2211594 -0.24496539 0.15544395 0.10034801 0.30967468 0.27464813 -0.09897082 0.22262828
0.24135374 -0.11726103 -0.01563225 -0.08852328 -0.17676823 0.073928826 0.020147411 0.17993054
-0.12839918 -0.054439068 0.18369786 -0.0964473 0.2962828 -0.32028463 0.07791157 -0.08827288
0.14934178 -0.2374208 0.008084076 -0.0049744425 0.105701566 -0.091035716 -0.12604296 0.18440595
-0.15402491 0.15758835 -0.097126074 0.008383365 0.02716252 0.130111 0.00554463 -0.24353856
-0.23327902 0.26447517 0.06363605 0.12855354 -0.12206509 0.06406757 -0.034745816 -0.07375709
-0.15780163 -0.3175227 0.13476305 0.007892937 0.22841077 0.10589251 -0.14062452 0.03296713
0.26902336 -0.13138504 -0.08910776 0.3205177 0.061774008 -0.07157046 0.15879163 0.07075729
-0.25912315 -0.10724936 -0.0940749 -0.27069366 0.030139491 -0.05390363 0.045419905 0.050393123
-0.10946547 -0.28368095 0.1097752 0.28296763 0.25408712 -0.018222772 -0.118090376 -0.04495458
0.16543362 0.10460238 0.1162864 -0.026916813 0.062446073 -0.01612175 0.24196537 0.033890944
0.24700636 -0.108015575 0.037444565 0.307094 -0.026442768 0.19675046 -0.1558539 0.23662883
-0.068804026 0.18544868 -0.0154232085 0.18467833 -0.15765396 0.22863322 0.014174906 -0.13445072
0.07685745 0.20955478 0.1606435 -0.27866927 0.10737235 0.3713624 -0.25197467 0.11282579
-0.054518204 0.338274 -0.1409241 -0.11320578 -0.26769117 0.18588881 0.003528157 -0.09658871
0.08885209 0.07532857 -0.13526277 -0.2023332 0.0117546795 0.0638293 -0.12097067 -0.014612778
-0.25955224 0.170179 -0.083327584 -0.032999706 0.22072284 0.07681396 -0.004346363 0.14077023
-0.18575096 -0.14520669 -0.026794782 -0.020441117 -0.28076446 -0.19131495 -0.06524507 0.14149107
00000000: 6259 72be 396b b7bd 77e1 25be e31a 81bd
00000010: acc4 f5bd d40d 793e 1e58 0dbe b7e7 663d
00000020: 00e6 1c3e 9a1e 44be 5702 e33d a507 90bd
00000030: e7ee 51be 9218 523e 651b 253e cf1e 5abe
00000040: a9bb 053e 9db8 6cbe 798f db3d dd79 80bd
00000050: 3bd2 9abd 610f b13d f2a9 2d3e e70d 83bd
00000060: df34 6d3e 92b1 9b3d 334f 1abe 7e91 61be
00000070: d0b6 193e 5223 143e b363 cbbd acaf 00bd
00000080: adf8 263e cbeb 8b3d dc2d b9bd dfd8 d73d
00000090: 9b9c 14be f0b7 1cbe d843 863e e08c f13d
000000a0: 47b5 923d a43c 6a3e 5388 9c3e 4fde 9b3e
000000b0: 1e07 c83c 1dae 88be e4d7 c53e 5b05 0cbe
000000c0: d551 5c3e 078a ccbd 91bd fb3d c809 743e
000000d0: 4d43 adbd d015 03bd 4351 423d 09d6 67be
000000e0: 5c38 73be 55af 96bc aaaf 243e f469 61be
000000f0: 4525 f53d fa1d c5bc dad4 3c3e a65a a4bc
00000100: 94fb c9be a9a7 63be 0c8e 673d 3da0 6abb
00000110: 6f97 90bd 704e 653c cb31 abbd f96f 943e
00000120: c54c 8c3e 4c5e 803d b495 c53d cda3 d8bd
00000130: fb46 25be f093 78be e5ab 94bc 6a7f 69bd
00000140: 90cb a4bd 5ac3 73bc b052 4dbe 42d2 3b3e
00000150: 3e1d 613e e813 df3d b0eb 743e 3afd b0bd
00000160: 2b70 c4bd 1802 43be 2e91 b23d 9472 febb
00000170: b843 603e 9eb8 28bd 8adc 813e 4873 a4bc
00000180: 0cba 10be c5fa 4c3e df5e 6d3e 61e9 71be
00000190: b384 113e 895d ec3c 73f1 963e 478f fb3d
000001a0: 38c6 a0bd 7072 503e bb81 743e 3fb2 04be
000001b0: becb 813e 5457 1abe 50a3 503e 275b 4abe
000001c0: 9c77 623e 35d8 7abe b32c 1f3e 4283 cd3d
000001d0: ae8d 9e3e ae9e 8c3e 37b1 cabd abf8 633e
000001e0: 6f25 773e 8d26 f0bd 340f 80bc b24b b5bd
000001f0: bb02 35be ff67 973d 2f0c a53c b63f 383e
00000200: 137b 03be 80fb 5ebd 4b1b 3c3e 2986 c5bd
00000210: 61b2 973e 59fc a3be 1a90 9f3d 69c8 b4bd
00000220: 0ded 183e 701e 73be 1373 043c a600 a3bb
00000230: 107a d83d ef70 babd 6811 01be ead4 3c3e
00000240: b5b8 1dbe d75e 213e 09ea c6bd 625a 093c
00000250: ef83 de3c d13b 053e baaf b53b 2c62 79be
00000260: b2e0 6ebe 4a69 873e 9e53 823d 8aa3 033e
00000270: 43fd f9bd dc35 833d a151 0ebd f50d 97bd
00000280: c096 21be 5692 a2be 53ff 093e 6151 013c
00000290: 83e4 693e 2cde d83d e0ff 0fbe 8b08 073d
000002a0: 6ebd 893e cd89 06be 217e b6bd e51a a43e
000002b0: be06 7d3d 8993 92bd 469a 223e 33e9 903d
000002c0: caab 84be 8da5 dbbd 57aa c0bd 5c98 8abe
000002d0: 18e7 f63c 0dca 5cbd 390a 3a3d 0569 4e3d
000002e0: 6f2f e0bd a13e 91be d2d1 e03d 22e1 903e
000002f0: b517 823e ec47 95bc 5ed9 f1bd 4b22 38bd
00000300: 6e67 293e c639 d63d 9027 ee3d a680 dcbc
00000310: 74c7 7f3d c311 84bc c5c5 773e 3bd1 0a3d
00000320: 3cef 7c3e 4537 ddbd 795f 193d 6d3b 9d3e
00000330: 819e d8bc f478 493e 2a98 1fbe d44e 723e
00000340: 20e9 8cbd 42e6 3d3e a0b1 7cbc 511c 3d3e
00000350: 0a70 21be d41e 6a3e dd3d 683c 73ad 09be
00000360: 7067 9d3d 8795 563e bb7f 243e bdad 8ebe
00000370: 09e6 db3d 3623 be3e d302 81be 3511 e73d
00000380: 7b4e 5fbd 4032 ad3e 684e 10be 6fd8 e7bd
00000390: d10e 89be a359 3e3e a738 673b 4dd0 c5bd
000003a0: 16f8 b53d de45 9a3d 5382 0abe 6f30 4fbe
000003b0: b396 403c f0b8 823d 78bf f7bd 6f6a 6fbc
000003c0: 08e4 84be 6743 2e3e a7a7 aabd b32a 07bd
000003d0: 2b05 623e a350 9d3d ef6b 8ebb 1226 103e
000003e0: 8035 3ebe 10b1 14be bb80 dbbc 2174 a7bc
000003f0: 5cc0 8fbe 11e8 43be 359f 85bd 09e3 103e

GRU_a.bias_ih_l0 f4 [48]
-0.05105885 0.13964179 -0.07895397 0.13433754 0.2452797 -0.12809195 0.06678775 0.16505112
0.1567213 0.050779384 0.084593914 0.11768613 0.0199919 0.046366468 0.009470824 0.1828589
0.14607403 -0.115876 -0.25117102 -0.12734538 0.37244818 -0.18283255 0.13688855 -0.30257627
-0.21906114 -0.043196566 -0.04906369 -0.3437027 -0.38422695 -0.010724464 -0.09930219 0.16891828
0.093055375 0.03622075 -0.057148468 -0.11822405 0.18082844 0.25907028 -0.13301979 0.2383718
0.16064973 0.19649923 0.09773008 -0.043166496 0.113407575 0.07434309 -0.16922693 -0.098445274
00000000: 1623 51bd 42fe 0e3e 9eb2 a1bd c88f 093e
00000010: 9a2a 7b3e 892a 03be 04c8 883d 2903 293e
00000020: 8c7b 203e 0bfe 4f3d 933f ad3d 6d05 f13d
00000030: 0ec6 a33c c4ea 3d3d 842b 1b3c 5d3f 3b3e
00000040: 6e94 153e 6550 edbd 7d99 80be d466 02be
00000050: 87b1 be3e 7538 3bbe 832c 0c3e 47eb 9abe
00000060: 9051 60be e2ee 30bd 02f7 48bd cdf9 afbe
00000070: 65b9 c4be aab5 2fbc f25e cbbd eaf8 2c3e
00000080: d193 be3d 365c 143d 8314 6abd 731f f2bd
00000090: 172b 393e dca4 843e 5736 08be bd17 743e
000000a0: 5d81 243e 1837 493e b526 c83d 5acf 30bd
000000b0: 3b42 e83d 3141 983d d349 2dbe ad9d c9bd

GRU_a.bias_hh_l0 f4 [48]
0.25545347 -0.05376904 -0.06493042 0.1384722 0.060991995 0.13206038 -0.12960738 -0.20447047
-0.16652006 -0.0046564103 -0.09076547 0.26567698 -0.016792756 -0.13511038 -0.014361563 0.17572764
-0.08682394 -0.10573454 0.06386566 -0.21801484 0.011678559 -0.48248523 0.15176617 -0.050453387
-0.08422725 -0.09993984 -0.05403497 0.041533053 -0.3590141 0.029042218 -0.21782602 -0.108954385
-0.03911313 -0.13688311 -0.24590163 0.07215585 -0.12737727 0.3344486 0.12156708 0.17549463
0.11562801 0.025401104 -0.20071791 -0.118946336 0.1674425 0.06808752 0.31437767 -0.0976331
00000000: ccca 823e ed3c 5cbd 3dfa 84bd a8cb 0d3e
00000010: bed2 793d d63a 073e ccb7 04be b560 51be
00000020: 3c84 2abe cd94 98bb 3fe3 b9bd d006 883e
00000030: f690 89bc 605a 0abe c34c 6bbc f2f1 333e
00000040: c0d0 b1bd 5a8b d8bd 00cc 823d 483f 5fbe
00000050: 6d57 3f3c 4e08 f7be 9768 1b3e 36a8 4ebd
00000060: 567f acbd 42ad ccbd c653 5dbd 901e 2a3d
00000070: b2d0 b7be f2e9 ed3c c90d 5fbe 7a23 dfbd
00000080: 1735 20bd 162b 0cbe a3cd 7bbe 72c6 933d
00000090: 306f 02be d93c ab3e 29f8 f83d ddb4 333e
000000a0: 61ce ec3d fa15 d03c ff88 4dbe 239a f3bd
000000b0: 0c76 2b3e 7871 8b3d 1cf6 a03e ddf3 c7bd

linear_a.weight f4 [4, 16]
0.016225168 0.01394159 -0.066660136 0.10771581 0.5279801 1.2596885 -0.6981734 0.570028
1.0298566 -0.32946345 -0.50275755 -0.6403433 -0.59399116 -0.030776655 -0.40662265 -0.071147025
0.21357961 0.12013365 -0.42494836 -0.076227404 -0.10514509 -0.5036061 0.081519425 -0.46072522
-0.5131936 0.14962488 0.028411947 -0.20098723 -0.44371468 -0.12424912 -0.17082709 -0.07380924
-0.11367273 0.048306916 0.7133089 -0.009806207 0.04068061 -0.8740206 0.7174553 0.30097172
-0.69156426 0.2974177 0.6197169 0.5893643 0.76299256 0.061548993 0.7603972 -0.017715426
0.1779154 0.3396308 -0.21898201 0.108825915 -0.34499967 -0.43963137 -0.31121078 -0.55261314
-0.6841595 0.21509048 -0.3977776 -0.25902855 -0.053296022 0.045444272 -0.16954127 0.07979885
00000000: a5ea 843c 446b 643c 1c85 88bd 1b9a dc3d
00000010: b429 073f 793d a13f 7ebb 32bf 5bed 113f
00000020: 57d2 833f 6faf a8be b8b4 00bf 8aed 23bf
00000030: ce0f 18bf 531f fcbc d830 d0be 88b5 91bd
00000040: 9db4 5a3e a208 f63d d592 d9be 1d1d 9cbd
00000050: 4f56 d7bd 54ec 00bf a8f3 a63d 2de4 ebbe
00000060: a860 03bf 4437 193e 2cc0 e83c 99cf 4dbe
00000070: 922e e3be 5376 febd 4ced 2ebe 4c29 97bd
00000080: 40cd e8bd 79dd 453d 699b 363f 37aa 20bc
00000090: b6a0 263d d0bf 5fbf 27ab 373f f718 9a3e
000000a0: 5b0a 31bf 2247 983e c4a5 1e3f 94e0 163f
000000b0: 7b53 433f cc1a 7c3d 64a9 423f f11f 91bc
000000c0: 742f 363e 17e4 ad3e d23c 60be 1fe0 de3d
000000d0: cca3 b0be 5d17 e1be 0557 9fbe 0e78 0dbf
000000e0: 1425 2fbf ae40 5c3e 81a9 cbbe 649f 84be
000000f0: ee4c 5abd c623 3a3d 3a9c 2dbe 946d a33d

linear_a.bias f4 [4]
0.66460437 -0.2672564 0.038547054 -0.61249983
00000000: 8323 2a3f d5d5 88be 84e3 1d3d cacc 1cbf

conv_v_0.weight f4 [16, 7, 3, 3]
0.10027358 0.0983913 -0.06764062 -0.043610997 -0.093255915 -0.19956335 0.016077798 0.1312763
0.0572288 0.11261768 -0.0268853 0.06273255 0.09562833 0.078956544 -0.09959699 0.103580184
0.09979672 -0.07618527 0.10661241 0.06816187 0.09664981 -0.011623676 -0.092828125 0.025833078
0.1804042 0.091939695 0.12303443 -0.10885711 0.0112883225 0.15266828 0.029045915 0.018176373
0.010553576 -0.19182761 0.09769538 -0.016561784 -0.021430256 0.047954246 -0.15943325 0.017439932
-0.13657665 0.0006453826 -0.1419537 0.030008595 -0.032731216 -0.06722113 -0.068198845 0.013727729
-0.051883783 0.10718247 -0.003939898 -0.042246502 -0.028524188 -0.11390711 -0.072450735 -0.14478144
0.042618338 -0.15443678 -0.007280126 -0.1877552 -0.09630156 -0.17171739 -0.13989674 0.14611962
-0.19465087 0.0075034993 -0.050118797 -0.075390935 0.09392236 -0.04065283 0.096671484 -0.0825502
0.050536722 0.11996396 0.08523513 0.08215946 0.06585826 0.09727591 -0.27258518 -0.092580356
0.1668147 0.038508635 0.0031360008 0.08111812 0.20506641 0.004992889 0.05978172 0.13702121
0.15198319 0.20117866 -0.009658215 0.05431549 -0.13459493 -0.064384535 -0.079385445 -0.006221085
0.045559574 0.034710716 -0.009312116 0.03880204 -0.16576704 -0.0145014515 0.029492836 0.04557847
-0.15214714 -0.1569967 -0.05215042 0.03826076 0.038295392 -0.04084423 0.028851863 -0.14033248
-0.11262272 -0.0104548875 -0.034550324 0.028944159 -0.07030817 -0.045249276 -0.2272198 -0.033500597
-0.23740846 -0.0109033855 -0.07775388 -0.19814245 -0.23387651 -0.13508661 0.17146127 -0.19975555
-0.038533513 -0.09350802 0.015934553 -0.05838147 0.0222636 -0.043517787 -0.1473764 -0.13649262
-0.0905229 0.17510067 -0.1494552 0.04720502 -0.15533441 -0.029371196 0.06765887 -0.09836952
0.011499646 0.04715332 0.039739687 0.06341083 0.10266921 0.031733193 0.102792114 0.1304444
0.12006349 0.12843892 -0.1164744 -0.07684555 -0.28478417 -0.12545186 -0.047254108 -0.14076568
0.03314802 0.09601808 -0.09795084 -0.10746699 0.011033536 -0.14409392 0.090165585 -0.09201977
0.10043287 0.045889292 -0.00051913125 -0.015887415 -0.097134046 -0.094657056 0.010648639 0.079826936
-0.035639208 0.06400415 -0.08170224 -0.058098715 -0.1707879 -0.1797865 0.0054505006 -0.17916083
-0.20542078 0.008493368 -0.18295552 -0.16992344 -0.10154343 0.14149128 0.14942758 0.0096166385
-0.0059972783 -0.044584017 -0.13101554 -0.013200279 -0.124335885 -0.044700902 0.08013921 0.027578777
-0.011965266 0.083832875 0.055809554 0.020712158 -0.104721025 0.12603427 -0.0824276 -0.16445792
0.08715586 0.033832397 -0.021920819 -0.018060742 -0.03103474 -0.060090695 -0.016438909 0.04149073
-0.16608383 -0.03209803 -0.25874835 0.030492995 0.15603472 -0.02348448 -0.043319 0.022080602
0.11986354 -0.04035894 -0.08450479 0.020177487 -0.12600504 -0.0057506775 -0.1715782 -0.003600669
0.010420182 -0.18107828 0.08008826 0.09237008 0.2065599 0.16101867 0.03343426 0.07008287
0.12331601 0.16942464 0.14973754 -0.10232216 -0.121620595 0.029020216 -0.14709531 -0.029233921
-0.08901727 0.08730297 -0.0630784 0.024476059 -0.0068676905 -0.15327477 -0.037901588 0.2837781
00000000: 3c5c cd3d 6181 c93d 2a87 8abd 72a1 32bd
00000010: f5fc bebd 565a 4cbe 96b5 833c 4b6d 063e
00000020: bf68 6a3d 19a4 e63d 903e dcbc ec79 803d
00000030: c9d8 c33d f8b3 a13d 82f9 cbbd d921 d43d
00000040: 3962 cc3d 0607 9cbd 9b57 da3d 7398 8b3d
00000050: 56f0 c53d 3b71 3ebc ac1c bebd e49f d33c
00000060: e1bb 383e e14a bc3d 7af9 fb3d 7af0 debd
00000070: a8f2 383c 1355 1c3e b3f1 ed3c 9ee6 943c
00000080: e8e8 2c3c 756e 44be 8414 c83d 94ac 87bc
00000090: 818e afbc ac6b 443d 7842 23be 30de 8e3c
000000a0: c0da 0bbe e52e 293a 505c 11be 96d4 f53c
000000b0: 2b11 06bd 3bab 89bd d6ab 8bbd 45ea 603c
000000c0: 1784 54bd 7c82 db3d 431a 81bb ab0a 2dbd
000000d0: 8fab e9bc 2248 e9bd 0d61 94bd 9641 14be
000000e0: 9190 2e3d ad24 1ebe 208e eebb e642 40be
000000f0: c139 c5bd afd6 2fbe 1741 0fbe 62a0 153e
00000100: 8f52 47be eadf f53b 5e49 4dbd 9066 9abd
00000110: 5e5a c03d 9583 26bd b3fb c53d 1410 a9bd
00000120: 98ff 4e3d aaaf f53d c18f ae3d 3843 a83d
00000130: b2e0 863d 9838 c73d 4990 8bbe c59a bdbd
00000140: 79d1 2a3e 3bbb 1d3d 5d85 4d3b 4221 a63d
00000150: eefc 513e 639b a33b addd 743d 4a4f 0c3e
00000160: 7ba1 1b3e c701 4e3e 7d3d 1ebc eb79 5e3d
00000170: 41d3 09be 0adc 83bd d694 a2bd 3eda cbbb
00000180: ad9c 3a3d d32c 0e3d d891 18bc e3ee 1e3d
00000190: d6be 29be 7f97 6dbc f69a f13c 7db0 3a3d
000001a0: 76cc 1bbe bec3 20be ae9b 55bd 51b7 1c3d
000001b0: a1db 1c3d 484c 27bd be5a ec3c 51b3 0fbe
000001c0: bea6 e6bd fa4a 2bbc a484 0dbd 4d1c ed3c
000001d0: bbfd 8fbd 4e57 39bd 4fac 68be ec37 09bd
000001e0: 341b 73be 1da4 32bc 6d3d 9fbd dbe5 4abe
000001f0: 537d 6fbe 2554 0abe 8b93 2f3e b88c 4cbe
00000200: 51d5 1dbd 2281 bfbd 2e89 823c 6921 6fbd
00000210: 2762 b63c b53f 32bd d7e9 16be b9c4 0bbe
00000220: 1264 b9bd 974d 333e c90a 19be 0d5a 413d
00000230: fc0f 1fbe dd9b f0bc bc90 8a3d f575 c9bd
00000240: 0369 3c3c d723 413d 15c6 223d 8add 813d
00000250: 3c44 d23d aafa 013d ac84 d23d 3793 053e
00000260: d9e3 f53d 7e85 033e 218a eebd 3361 9dbd
00000270: 3bcf 91be 7476 00be 868d 41bd e124 10be
00000280: 38c6 073d 21a5 c43d 739a c8bd a717 dcbd
00000290: 01c6 343c 5b8d 13be bca8 b83d dc74 bcbd
000002a0: c0af cd3d 69f6 3b3d 4f16 08ba 5326 82bc
000002b0: 37ee c6bd 8fdb c1bd a177 2e3c 4e7c a33d
000002c0: 6bfa 11bd 9c14 833d 8153 a7bd ebf8 6dbd
000002d0: 06e3 2ebe f419 38be 1d9a b23b f075 37be
000002e0: d359 52be c427 0b3c b158 3bbe 6900 2ebe
000002f0: 00f6 cfbd 17e3 103e 8b03 193e 1b8f 1d3c
00000300: d184 c4bb bb9d 36bd f028 06be fc45 58bc
00000310: d0a3 febd 4b18 37bd 0720 a43d e3ec e13c
00000320: f709 44bc 92b0 ab3d 8f98 643d 8bac a93c
00000330: fa77 d6bd 210f 013e cdcf a8bd a867 28be
00000340: c67e b23d d793 0a3d 4a93 b3bc 1ff4 93bc
00000350: 913c febc a921 76bd e4aa 86bc 2ff2 293d
00000360: e111 2abe 3979 03bd aa7a 84be 72cc f93c
00000370: 91c7 1f3e 8662 c0bc 446f 31bd 61e2 b43c
00000380: 047b f53d 6a4f 25bd d910 adbd 424b a53c
00000390: 7707 01be 2e70 bcbb 32b2 2fbe 34f9 6bbb
000003a0: 69b9 2a3c 966c 39be 5005 a43d 862c bd3d
000003b0: 7084 533e 14e2 243e 5df2 083d 9c87 8f3d
000003c0: 1b8d fc3d a77d 2d3e cc54 193e 488e d1bd
000003d0: 3814 f9bd cebb ed3c 27a0 16be fa7b efbc
000003e0: b04e b6bd e6cb b23d 402f 81bd 0482 c83c
000003f0: 5d0a e1bb 10f4 1cbe b23e 1bbd 5d4b 913e

conv_v_0.bias f4 [16]
0.029472493 0.04228839 -0.02618428 -0.017492918 0.07378617 0.091485806 0.25230503 0.10492748
-0.032128796 0.0039378786 0.024663754 0.15615173 -0.088475056 -0.026375879 0.09458525 -0.023993755
00000000: 4c70 f13c 9736 2d3d 6a80 d6bc 4f4d 8fbc
00000010: 341d 973d e95c bb3d 202e 813e 38e4 d63d
00000020: 7c99 03bd 5209 813b a40b ca3c 3de6 1f3e
00000030: 6932 b5bd 3a12 d8bc e9b5 c13d 8d8e c4bc

conv_v_1.weight f4 [16, 16, 3, 3]
-0.054498024 0.045643214 0.036021564 0.047572922 0.07667595 0.0003627973 -0.12243999 -0.02041879
-0.06156621 0.011770302 0.005484822 0.031309783 0.06239823 0.04086618 0.049865365 0.0010147179
-0.037587143 -0.11254577 0.06992918 0.10973177 0.07367016 0.017458636 -0.0618897 0.11888889
-0.0010406035 0.053865056 0.05320925 -0.07322044 0.055320136 -0.07767921 -0.01358413 0.030318689
-0.0950981 -0.10788122 -0.037299555 0.050769422 0.01878675 -0.2232468 0.065462366 0.035127155
0.09021496 -0.10929866 -0.10452928 0.028996702 0.038116034 -0.13208522 0.025863359 0.027995352
0.05065163 -0.005396795 0.18585078 0.13667437 0.018201407 -0.008642269 0.033466533 0.036662456
-0.107289284 0.08789982 0.105535254 0.16028948 -0.024649618 -0.0658197 -0.05390179 0.0120249605
0.09197041 -0.009530629 0.039358273 -0.10592231 -0.12705867 0.021174632 0.06352286 -0.12857966
-0.08726257 -0.027106764 0.13671891 0.15834758 0.04758028 0.103594124 -0.09427228 -0.08560706
-0.021838393 -0.026131358 0.03443238 0.028403733 -0.069396056 0.017607328 0.05044604 0.04964249
-0.06508514 0.17713164 -0.043820333 0.12852657 -0.04009245 -0.005545279 0.0768216 -0.034765884
-0.015254192 0.043272894 0.029358987 0.03633662 0.016819807 0.007630441 -0.028402917 0.060317855
-0.16146527 -0.007833231 0.016789803 -0.07943914 -0.0010007737 0.08351239 0.11060962 0.11964081
0.09343965 0.018902853 0.15365633 -0.07558302 0.0132694505 0.071084835 -0.0629466 0.09566538
-0.22622262 0.06414922 -0.081759356 0.12521222 0.026848588 0.022292942 0.06756924 0.027630083
0.040186577 -0.20333633 0.005806453 -0.16037811 0.17272452 0.04885173 0.10416677 -0.1172444
0.05095802 0.09743531 -0.037733905 -0.18256353 -0.1305116 -0.034600753 0.05292151 -0.0316027
0.009949613 -0.04564912 0.020172987 0.06898332 -0.027387686 -0.05092091 0.024113888 -0.013193845
0.07171675 0.020176 0.03610425 0.030597571 0.04049401 0.025163162 0.0829013 0.10523362
0.010624696 0.0681007 0.07145186 0.061303362 0.09529707 0.05363704 0.13470407 0.11305574
0.08270889 0.09716669 -0.007818471 0.12694755 0.18648335 0.11383972 0.123569414 0.12944616
0.04848936 0.16738367 0.044673596 0.076476336 0.033466198 -0.0048036436 0.080896944 0.06385222
-0.10733615 -0.07876563 -0.11049262 -0.0008459606 -0.117178015 0.06145808 0.18782921 -0.078206696
0.1235075 0.1314516 0.11103058 0.10464036 0.049096603 0.017175542 0.115619816 0.040911663
0.1221842 0.15649866 0.076504566 0.0459688 0.07291428 0.11318451 0.00038903672 0.17270769
0.06674804 0.025032302 0.09556408 0.055957176 0.05326427 0.17677438 0.14658488 0.17704698
0.088896446 0.022069305 0.039518088 0.07837676 0.07087168 0.035527356 0.05124066 0.12589544
0.044886116 0.075306065 0.030364968 0.008872818 -0.09425961 0.07888974 -0.031120855 0.07338987
-0.04824267 0.042345557 0.06758438 -0.06573156 -0.058854155 -0.051435523 0.012290194 0.021966925
-0.09039734 -0.08561608 -0.03839421 0.14380719 0.11037071 0.11671367 0.085834175 0.14040093
0.072929054 0.13245335 0.098267965 -0.0012275802 -0.037305836 0.06043137 0.027898595 0.058342353
00000000: 5239 5fbd 61f4 3a3d 598b 133d d3db 423d
00000010: 4808 9d3d d435 be39 d1c1 fabd 4e45 a7bc
00000020: da2c 7cbd 3ad8 403c 06ba b33b b03e 003d
00000030: 4995 7f3d 4c63 273d a03f 4c3d 4800 853a
00000040: faf4 19bd 667e e6bd 0837 8f3d 0dbb e03d
00000050: 61e0 963d 6a05 8f3c 0e80 7dbd 057c f33d
00000060: dc64 88ba 9ba1 5c3d f1f1 593d 99f4 95bd
00000070: 5e97 623d 4716 9fbd f98f 5ebc e65e f83c
00000080: cbc2 c2bd d4f0 dcbd 6bc7 18bd 99f3 4f3d
00000090: ace6 993c cf9a 64be 2211 863d 7ee1 0f3d
000000a0: 9fc2 b83d fad7 dfbd 7213 d6bd 7e8a ed3c
000000b0: 8f1f 1c3d 5941 07be 65df d33c 8256 e53c
000000c0: 1578 4f3d 99d7 b0bb ab4f 3e3e 5ef4 0b3e
000000d0: 1e1b 953c 4e98 0dbc 3414 093d 5f2b 163d
000000e0: 7cba dbbd d204 b43d de22 d83d ed22 243e
000000f0: ffed c9bc 7bcc 86bd 20c8 5cbd 5704 453c
00000100: fb5a bc3d 5b26 1cbc 2436 213d cced d8bd
00000110: ab1b 02be 6c76 ad3c 4618 823d 63aa 03be
00000120: b8b6 b2bd 010f debc 0b00 0c3e de25 223e
00000130: 8ae3 423d 2829 d43d d311 c1bd c152 afbd
00000140: 6ee6 b2bc 6e11 d6bc f808 0d3d f2ae e83c
00000150: 851f 8ebd 3e3d 903c 82a0 4e3d ec55 4b3d
00000160: 5c4b 85bd ff61 353e f37c 33bd 789c 033e
00000170: fb37 24bd 2cb5 b5bb a554 9d3d ac66 0ebd
00000180: b8ec 79bc eb3e 313d 4282 f03c b5d5 143d
00000190: b1c9 893c c708 fa3b 3cad e8bc db0f 773d
000001a0: 2757 25be f456 00bc c58a 893c fdb0 a2bd
000001b0: 652c 83ba 8b08 ab3d 4c87 e23d 3e06 f53d
000001c0: 4a5d bf3d 28da 9a3c 1658 1d3e 45cb 9abd
000001d0: 1c68 593c ed94 913d 26ea 80bd 36ec c33d
000001e0: e7a6 67be ab60 833d 7371 a7bd a237 003e
000001f0: 92f1 db3c b09f b63c be61 8a3d 7c58 e23c
00000200: ae9a 243d 6637 50be 0f44 be3b 293a 24be
00000210: b2de 303e c018 483d 6355 d53d d51d f0bd
00000220: 5bb9 503d 2a8c c73d de8e 1abd eff1 3abe
00000230: d5a4 05be 85b9 0dbd 3ac4 583d d571 01bd
00000240: b403 233c 92fa 3abd d241 a53c 2047 8d3d
00000250: 245c e0bc 7292 50bd 7d8a c53c ff2a 58bc
00000260: 3be0 923d 2448 a53c 0de2 133d c2a7 fa3c
00000270: 0cdd 253d fa22 ce3c 28c8 a93d b984 d73d
00000280: 3413 2e3c 6178 8b3d 5a55 923d 3c19 7b3d
00000290: 1c2b c33d 83b2 5b3d ddef 093e c589 e73d
000002a0: 4763 a93d 54ff c63d 0b19 00bc 8afe 013e
000002b0: 7ef5 3e3e cd24 e93d f611 fd3d 898d 043e
000002c0: c79c 463d a066 2b3e a9fb 363d a09f 9c3d
000002d0: da13 093d e267 9dbb 4cad a53d f4c4 823d
000002e0: 0ed3 dbbd e04f a1bd f449 e2bd 74c3 5dba
000002f0: 07fb efbd 78bb 7b3d 4d56 403e d52a a0bd
00000300: 80f1 fc3d 409b 063e 0064 e33d af4d d63d
00000310: 8519 493d b9b3 8c3c 15ca ec3d fd92 273d
00000320: b63b fa3d 2f41 203e 6dae 9c3d c849 3c3d
00000330: 1554 953d 48cd e73d a0f7 cb39 49da 303e
00000340: 32b3 883d 8b10 cd3c 1ab7 c33d 5a33 653d
00000350: a32b 5a3d 5804 353e 591a 163e ce4b 353e
00000360: 570f b63d b0ca b43c b8dd 213d ff83 a03d
00000370: 2c25 913d 2285 113d bae1 513d bcea 003e
00000380: 81da 373d 113a 9a3d f4bf f83c 4c5f 113c
00000390: 2f0b c1bd f290 a13d 2af1 febc 6e4d 963d
000003a0: 1b9a 45bd 8972 2d3d ae69 8a3d 459e 86bd
000003b0: 0e11 71bd 0eae 52bd cf5c 493c fbf3 b33c
000003c0: 3e22 b9bd 7c57 afbd 3f43 1dbd 3142 133e
000003d0: 0a0a e23d 9407 ef3d d4c9 af3d 43c5 0f3e
000003e0: d45b 953d daa1 073e b740 c93d c2e6 a0ba
000003f0: 01ce 18bd e286 773d 988b e43c 64f8 6e3d

conv_v_1.bias f4 [16]
-0.035429094 0.13510212 0.11467043 -0.017152471 -0.08878493 0.19773285 -0.098339744 -0.043451894
0.13258094 0.10020796 -0.09350708 -0.07110443 -0.08269279 -0.044513475 0.01044742 0.07264547
00000000: 191e 11bd 3658 0a3e 55d8 ea3d 5783 8cbc
00000010: e0d4 b5bd 7b7a 4a3e 5966 c9bd 9dfa 31bd
00000020: 4cc3 073e d539 cd3d a480 bfbd 339f 91bd
00000030: d65a a9bd c353 36bd a82b 2b3c 26c7 943d
