league/checkpoints/mfos_seeds/new_self_3x3_50/900_0.pth (torch, 300942 bytes, 105 tensors)

conv_a_0.weight f4 [16, 7, 3, 3]
0	0xbd7a1059	-0.061050747
1	0xbce77bdb	-0.028257301
2	0x3e2acded	0.16680117
3	0xbda8b5ce	-0.082378015
4	0xbce8a62b	-0.028399548
5	0xbe575831	-0.21029736
6	0x3d0e3b5d	0.034724582
7	0xbdeeb27d	-0.11655138
8	0x3d7be083	0.061493408
9	0x3de9a215	0.11407868
10	0xbde4c70b	-0.11170777
11	0x3da97374	0.08273974
12	0xbc136817	-0.008996985
13	0x3e2021c5	0.15637882
14	0xbcda5a20	-0.026654303
15	0x3d808bd9	0.06276674
16	0x3ca33116	0.019920867
17	0x3c6bad74	0.014384616
18	0xbd68b37d	-0.0568118
19	0x3dc358e3	0.09538438
20	0xbdbb7465	-0.0915306
21	0x3bb00204	0.005371334
22	0xbe68c5e9	-0.22731747
23	0xbe80b800	-0.2514038
24	0x3d0bf8e7	0.03417292
25	0xbb6f8a3f	-0.0036550907
26	0x3dce7846	0.10081534
27	0xbdeac071	-0.114624865
28	0x3d40c55c	0.047063217
29	0xbe0453b7	-0.1292256
30	0x3dd15557	0.102213554
31	0xbe55c45b	-0.20875685
32	0xbe8c86b3	-0.27446517
33	0x3aa7e6cb	0.001280987
34	0xbcb8506e	-0.02249929
35	0x3e40cf2c	0.1882903
36	0xbdd01e14	-0.10161987
37	0xbdb028d3	-0.086015366
38	0xbe7bbb09	-0.24583067
39	0xbd675002	-0.056472786
40	0xbd83850a	-0.064218596
41	0xbe86477b	-0.2622641
42	0xbe6e48e9	-0.2327
43	0xbe4f19eb	-0.2022473
44	0xbe07a87f	-0.1324787
45	0xbdcc921b	-0.09988805
46	0xbd2823ce	-0.04104977
47	0x3d886428	0.06659728
48	0xbdaf7492	-0.08567156
49	0x3d75236c	0.059848234
50	0xbc67fc63	-0.014159295
51	0x3de2bbd8	0.110709846
52	0x3d96d0ac	0.0736402
53	0x3e04ac1f	0.12956284
54	0xbd10de83	-0.035368454
55	0xbcf85fd8	-0.03031914
56	0xbe0c2ef7	-0.1368979
57	0xbd69f9c6	-0.057122968
58	0xbe0b688d	-0.13614102
59	0xbd4547ec	-0.048164293
60	0xbde6d226	-0.112705514
61	0xbc9fc73e	-0.019504186
62	0x3d6be2b2	0.05758924
63	0x3e07b21b	0.13251536
64	0x3cbc9ddf	0.023024498
65	0x3c97debe	0.018538829
66	0xbc876492	-0.016527448
67	0x3cf29199	0.029610442
68	0x3cd04dfc	0.02542781
69	0xbd6dfd34	-0.0581028
70	0xbd878f51	-0.06619132
71	0x3d982d9c	0.07430574
72	0x3dec5030	0.11538732
73	0x3de7f7ce	0.11326562
74	0xbcb8b1fa	-0.022545803
75	0x3de57a3a	0.112049535
76	0xbdda95c7	-0.10673099
77	0x3da9be31	0.08288229
78	0x3daf3d22	0.08556582
79	0xbbff736a	-0.007795741
80	0x3e1a78b9	0.15085115
81	0xbddc5aa7	-0.10759478
82	0x3ce5aeb1	0.0280374
83	0x3d1d6415	0.038425524
84	0x3de75a46	0.11296515
85	0x3b7962d7	0.0038053298
86	0x3c9ae138	0.01890622
87	0x3d31383f	0.04326653
88	0x3d624aea	0.055247225
89	0x3d9fafb1	0.07797182
90	0xbdaea4f7	-0.08527558
91	0x3e43c60f	0.19118522
92	0x3e1ef493	0.15522985
93	0x3d7bdab2	0.06148786
94	0x3e2b1413	0.16706876
95	0x3d1bbd64	0.038022414
96	0x3db0ee05	0.086391486
97	0xbd5609ce	-0.052255444
98	0xbc9d00b4	-0.019165374
99	0x3e507a72	0.20359209
100	0x3daf49d4	0.085590035
101	0x3d1007f0	0.03516382
102	0x3e3a062c	0.18166417
103	0x3bf61df1	0.0075108935
104	0x3e1c7387	0.15278445
105	0x3cb9ead0	0.022694975
106	0x3d530939	0.051522467
107	0xbceb2bc2	-0.028707389
108	0x3e3e0053	0.18554811
109	0x3e296ce3	0.16545443
110	0x3e2f70c2	0.17132857
111	0x3e097b52	0.13425949
112	0x3cc360ab	0.023849806
113	0x3e451a81	0.19248392
114	0x3e63863f	0.2221918
115	0x3e67abfe	0.22624204
116	0x3e1caada	0.1529955
117	0xbd07bcc9	-0.033139024
118	0x3d0cf1c5	0.034410257
119	0xbcf2a808	-0.02962114
120	0xbcbe4624	-0.023226805
121	0xbd7b3c4f	-0.06133681
122	0x3caecd44	0.021338113
123	0xb9f31253	-0.00046362224
124	0xbdb62af3	-0.08894911
125	0x3d8d22bb	0.0689139
126	0xbcbf02d9	-0.023316788
127	0x3d02708e	0.03184562
128	0xbe3561e0	-0.17713118
129	0xbdad1511	-0.08451284
130	0xbe22a45d	-0.15883012
131	0xbdc00c98	-0.09377402
132	0x3e7908b5	0.24319728
133	0x3e10b56f	0.14131711
134	0x3d662d3c	0.056195483
135	0xbe1edc67	-0.15513764
136	0xbcbb1af3	-0.022839999
137	0xbdbaad21	-0.09115053
138	0x3cad7751	0.021175059
139	0x3bb2e2c5	0.005459162
140	0x3cff0fe0	0.0311355
141	0x3dc84d25	0.09780339
142	0x3d58eccd	0.052960206
143	0x3d0acc96	0.033886515
144	0xbe81c007	-0.25341818
145	0xbe4b9ec3	-0.19884782
146	0xbea912dd	-0.33022204
147	0x3b8fd0ed	0.0043889196
148	0xbb93b510	-0.0045076683
149	0x3e0dfb9d	0.13865514
150	0x3e38e448	0.18055832
151	0x3e35dd2c	0.17760152
152	0x3dd4c5e6	0.10389309
153	0xbe4d7a31	-0.20066144
154	0x3c75d076	0.015003314
155	0xbdf9aa13	-0.12190642
156	0xbc072b30	-0.008250043
157	0x3d2ece8b	0.042677443
158	0x3e39ab27	0.18131696
159	0xbcacceef	-0.021094767
160	0xbcd37ee9	-0.025817351
161	0x3d76e571	0.060277406
162	0xbd798dee	-0.06092637
163	0xbe807b79	-0.25094202
164	0xbe76ccad	-0.24101515
165	0xbd980176	-0.07422154
166	0xbe1d288c	-0.15347499
167	0xbe4771d0	-0.1947701
168	0xbe35436f	-0.17701505
169	0xbde3279a	-0.11091538
170	0xbe29ead6	-0.16593489
171	0x3dc97530	0.09836805
172	0x3dff5048	0.12466484
173	0xbd914fb1	-0.07095278
174	0xbd34a225	-0.044099946
175	0xbb624e43	-0.003453151
176	0x3dfbffd7	0.12304657
177	0xbb8f6fcf	-0.0043773423
178	0x3db14f95	0.08657757
179	0x3e094a64	0.13407284
180	0xbdeb9dad	-0.11504684
181	0xbd992e9d	-0.07479594
182	0x3d89d603	0.067302726
183	0xbe289cd7	-0.1646608
184	0xbdd26383	-0.102728866
185	0xbe363363	-0.1779304
186	0xbe044684	-0.12917525
187	0xbde8c8cd	-0.11366425
188	0x3d81d044	0.06338552
189	0xbc93d2f8	-0.018044934
190	0xbc5cd838	-0.013479285
191	0x3ca60a06	0.020268451
192	0x3d32e0d9	0.043671463
193	0x3c834531	0.016024204
194	0x3e260ae8	0.16215098
195	0x3e0e6487	0.13905536
196	0x3ca4a27d	0.020097012
197	0x3e84ba24	0.25923264
198	0xbdf5a658	-0.11994618
199	0x3db305ce	0.087413415
200	0x3c959ef3	0.01826427
201	0x3d891d76	0.06695072
202	0xbbf4f8ec	-0.007475963
203	0xbc81ee36	-0.015860658
204	0x3d25bba9	0.04046217
205	0x3e4c7dbc	0.19969839
206	0xbc728588	-0.014802344
207	0x3dd04192	0.101687565
208	0xbe8e3b16	-0.27779454
209	0x3d8a32b2	0.067479506
210	0xbe195dcc	-0.14977187
211	0xbe585183	-0.21124844
212	0x3dfd0afe	0.12355612
213	0xbd8f8e5e	-0.07009576
214	0xbe3bb8e7	-0.18332253
215	0x3d9aa0b2	0.075501814
216	0xbccb284b	-0.024799487
217	0xbc921445	-0.01783193
218	0xbe2bf19b	-0.16791384
219	0xbdfb90f4	-0.12283507
220	0x3e543446	0.20723066
221	0xbcabcf8a	-0.020972986
222	0x3d0babae	0.034099273
223	0x3dd2532f	0.10269772
224	0x3e188aa3	0.14896636
225	0x3c8764e8	0.016527608
226	0xbcaa60e1	-0.020798149
227	0xbd450c17	-0.048107233
228	0x3bb2675d	0.005444451
229	0xbcb6ac58	-0.022298977
230	0x3dc7aaf8	0.097494066
231	0x3d649412	0.055805273
232	0xbe070c3a	-0.13188258
233	0xbd94d433	-0.07267036
234	0xbd97fd88	-0.07421404
235	0x3de1a84b	0.110184275
236	0x3e1f4568	0.1555382
237	0xbc9dd31a	-0.0192657
238	0x3d80eef6	0.06295578
239	0xbc2db304	-0.010601763
240	0x3d9f883e	0.07789658
241	0x3d53587a	0.05159805
242	0xbc898978	-0.016789183
243	0xbdb2a6d3	-0.087232254
244	0xbc5c1820	-0.013433486
245	0xbd69a6ae	-0.057043724
246	0x3acb8ede	0.0015530249
247	0xbdd8e2e2	-0.105901495
248	0xbd496e7b	-0.049177628
249	0xbdbbc0b5	-0.09167615
250	0x3ceaa604	0.028643616
251	0x3cea8ce8	0.028631642
252	0xbdf94d86	-0.121729895
253	0xbcd9a703	-0.026568895
254	0x3e40ffc6	0.1884757
255	0xbea5570e	-0.3229298

conv_a_0.bias f4 [16]
0	0xbd3f70dc	-0.04673849
1	0x3e1560eb	0.14587753
2	0xbd83c45d	-0.06433938
3	0xbcb25f07	-0.021773828
4	0xbd0d50b9	-0.03450081
5	0xbd462779	-0.048377488
6	0xbd1c06f3	-0.038092565
7	0x3e1a1a43	0.1504908
8	0x3c468375	0.012116303
9	0xbd096818	-0.033546537
10	0x3da896a8	0.082318604
11	0xbccee559	-0.025255846
12	0xbd223f02	-0.03961087
13	0x3d8b94f6	0.068155214
14	0xbb6c7d58	-0.0036085453
15	0x3d5b71c4	0.053575292

conv_a_1.weight f4 [16, 16, 3, 3]
0	0xbd2c5d92	-0.042081423
1	0xbd9d2e55	-0.07674853
2	0x3c80a03b	0.015701404
3	0xbc7a41f4	-0.0152745135
4	0x3dee3e02	0.11632921
5	0x3d5e20a6	0.054230355
6	0xbd778975	-0.060433824
7	0xbd94d335	-0.07266847
8	0x3d6ff4b9	0.058582995
9	0x3db6984a	0.089157656
10	0x3d958f9a	0.073027804
11	0x3dc7d927	0.097582154
12	0x3da1d3b9	0.07901711
13	0x3e504aa3	0.20340972
14	0x3ddfb195	0.10922543
15	0x3e1425b9	0.14467515
16	0x3d5d1278	0.05397269
17	0x3dac2df0	0.084071994
18	0xbe0ad806	-0.13558969
19	0x3d0daaa7	0.034586575
20	0xbda929ca	-0.08259924
21	0x3d30ef1b	0.04319678
22	0xbc9a18cc	-0.018810652
23	0xbd82aeef	-0.06381022
24	0xbd9979d4	-0.0749394
25	0xbd3344a7	-0.043766644
26	0x3c069fd4	0.008216817
27	0x3dda1dd0	0.106502175
28	0x3e558edb	0.20855276
29	0x3e28f89e	0.1650109
30	0x3e39a0ac	0.18127698
31	0x3d35c3b8	0.044376105
32	0x3e60dcab	0.21959178
33	0x3e4c5b78	0.19956768
34	0x3dba0fdb	0.090850554
35	0x3daa2200	0.08307266
36	0xbd23f133	-0.040024947
37	0xbd28ae3e	-0.041181795
38	0xbc68af8b	-0.014202009
39	0x3c842252	0.016129646
40	0xbd2cf501	-0.04222584
41	0x3d5c4b43	0.053782713
42	0xba15d943	-0.00057162734
43	0x3cff14ee	0.03113791
44	0x3d6764b9	0.05649254
45	0x3d52f191	0.051499907
46	0x3dd5b86a	0.10435565
47	0x3cf7662b	0.030200085
48	0xbd1afdd9	-0.037839744
49	0x3de6de19	0.112728305
50	0x3db30755	0.08741633
51	0x3d7d01bf	0.061769243
52	0x3db12a97	0.086507015
53	0x3d964bac	0.07338652
54	0x3a7fbc76	0.0009755561
55	0x3d82e105	0.06390575
56	0x3b9310f8	0.004488107
57	0xbca93206	-0.020653736
58	0xbcb480ce	-0.022034075
59	0x3c6c26f2	0.014413582
60	0x3dae9831	0.08525122
61	0x3d19cb81	0.037547592
62	0x3dc27dbf	0.094966404
63	0x3e008f66	0.12554702
64	0x3e4d7660	0.20064688
65	0x3e23d39f	0.15998696
66	0x3e0f873f	0.14016436
67	0x3e5d4d4f	0.21611522
68	0x3e148c59	0.14506663
69	0x3e290c37	0.16508566
70	0x3d91e523	0.071237825
71	0x3e372898	0.17886579
72	0xbdf3be35	-0.119015135
73	0xbbb05b19	-0.0053819534
74	0xbdc8c0c2	-0.09802391
75	0xbd3b7291	-0.045763556
76	0xbdae7aaf	-0.08519494
77	0xbde649d7	-0.112445526
78	0xbd4a2541	-0.049351934
79	0xbdc89663	-0.09794309
80	0xbd2beb35	-0.041972358
81	0xbdeaf611	-0.11472715
82	0xbda6490a	-0.081194
83	0xbd24eb20	-0.040263295
84	0xbd9e73fd	-0.07736967
85	0xbcdff6a8	-0.027339295
86	0xbe167f01	-0.14696886
87	0xbe14b373	-0.1452158
88	0xbd16ca71	-0.036814157
89	0xbdd641f8	-0.10461801
90	0x3d661a2b	0.0561773
91	0x3c841b4f	0.016126303
92	0x3d211ae2	0.039332278
93	0x3d3c1575	0.0459189
94	0x3da594c6	0.08085017
95	0xbd433217	-0.04765519
96	0xbdb174e6	-0.08664875
97	0xbc9c7221	-0.01909739
98	0x3dd2ad3e	0.102869496
99	0xbcee20f0	-0.02906844
100	0x3db09772	0.08622636
101	0x3d5a8afb	0.0533552
102	0x3df6aef0	0.120450854
103	0x3d224f06	0.039626144
104	0x3af6ec01	0.0018838645
105	0x3ca3f5fd	0.020014757
106	0x3db7189c	0.08940241
107	0x3dc337ad	0.09532104
108	0x3d3621b2	0.044465728
109	0x3d42f411	0.04759604
110	0x3c760f29	0.015018263
111	0x3caca1e5	0.021073291
112	0x3ca0fb56	0.019651096
113	0x3d5227e7	0.051307585
114	0x3d5ad890	0.053429186
115	0x3c762993	0.0150245605
116	0x3d1273ce	0.03575497
117	0x3e39f86b	0.1816117
118	0x3e2ff19f	0.17182015
119	0x3daefdd3	0.08544507
120	0x3e1b7e3f	0.15184878
121	0x3dc9a0dc	0.098451346
122	0x3e1b9870	0.15194869
123	0x3dc41248	0.09573799
124	0x3e52a494	0.20570594
125	0x3df618fc	0.12016484
126	0xbe219e88	-0.15783131
127	0xbd97feea	-0.07421668
128	0xbe495fa9	-0.19665398
129	0xbe38ebb3	-0.18058662
130	0xbe0678d2	-0.13132027
131	0xbe07c45a	-0.13258496
132	0xbe4dd107	-0.20099269
133	0xbe2f4b51	-0.17118575
134	0xbe434cc9	-0.1907226
135	0xbd9b651b	-0.07587644
136	0xbd1c644b	-0.038181584
137	0xbe190909	-0.14944853
138	0xbd9e9422	-0.07743098
139	0xbe3a9bdf	-0.18223523
140	0xbd80b13a	-0.06283803
141	0xbdd64952	-0.104632035
142	0xbe177832	-0.14791945
143	0xbda098b6	-0.07841627
144	0xbc363cad	-0.011122865
145	0xbe2a8df2	-0.1665571
146	0x3dec0ec4	0.11526254
147	0xbe2ec52d	-0.17067404
148	0x3db8469f	0.08997845
149	0xbc5a1b1f	-0.01331213
150	0x3e2b8ca1	0.16752864
151	0x3cc95f5f	0.02458161
152	0xbe031044	-0.12799174
153	0x3dcf17ab	0.10111936
154	0x3e4ac8ac	0.19803113
155	0x3c98087e	0.018558737
156	0x3e836821	0.25665382
157	0x3df246ba	0.11829896
158	0x3d8e5f20	0.069517374
159	0x3e0d38f7	0.13791262
160	0x3dcf6989	0.10127551
161	0x3de096f1	0.1096629
162	0xbd740d1d	-0.05958282
163	0xbc6f2a27	-0.014597452
164	0x3d7cdeb7	0.061735835
165	0x3e67ece2	0.22648957
166	0x3d0dde30	0.034635723
167	0xbbddf4c5	-0.0067735636
168	0xbe0f3d7b	-0.13988297
169	0x3db5d2c9	0.08878095
170	0xbc7ce6ac	-0.015435856
171	0x3dedefcd	0.11618004
172	0x3d827ace	0.063710794
173	0x3d5eb041	0.054367308
174	0x3e114c90	0.14189363
175	0x3e1c9a4d	0.15293236
176	0xbd9162c7	-0.070989184
177	0x3e02e235	0.12781604
178	0x3da99610	0.08280575
179	0xbd2caad2	-0.042155094
180	0xbd4a9dc7	-0.049466874
181	0x3d95adac	0.07308516
182	0x3e068b1c	0.13139004
183	0x3db28c40	0.08718157
184	0x3e5629a8	0.20914328
185	0xbcde035a	-0.027101208
186	0xbe2242ee	-0.15845844
187	0xbde89158	-0.11355847
188	0xbdb4abb5	-0.08821813
189	0xbcd8a745	-0.026446948
190	0x3e113fa2	0.1418443
191	0x3e88219f	0.2658815
192	0xbd9090a6	-0.070588395
193	0x3d68b439	0.0568125
194	0x3c4f4545	0.0126507925
195	0x3e5ebb5a	0.21751156
196	0x3df36de0	0.11886191
197	0x3d8fc327	0.07019644
198	0xbe148e24	-0.14507347
199	0x3c11e27d	0.008904097
200	0xbd899bb2	-0.0671915
201	0x3d4b6bd6	0.049663387
202	0x3c7509fd	0.014955995
203	0xbe246022	-0.16052297
204	0xbd4a948d	-0.049458075
205	0xbd8b00e4	-0.06787279
206	0x3dda818a	0.10669239
207	0x3b8280d8	0.0039826445
208	0x3e0aa399	0.1353897
209	0xbe11bc98	-0.14232099
210	0x3e3ca7fa	0.18423453
211	0x3e0b2652	0.13588837
212	0xbd34ef2c	-0.044173405
213	0x3da97409	0.08274085
214	0x3e479a11	0.19492365
215	0x3e297185	0.1654721
216	0x3c9a5548	0.018839493
217	0x3cf639da	0.030056883
218	0x3da412ee	0.08011423
219	0x3db15c6a	0.08660205
220	0x3dd9f336	0.10642092
221	0x3d1035b9	0.035207484
222	0x3d1b2cda	0.03788457
223	0xbd94c23b	-0.07263609
224	0x3cf86a1e	0.030324038
225	0x3db24f14	0.08706489
226	0xba9f1fe6	-0.0012140244
227	0xbd7e548a	-0.06209234
228	0x3e782590	0.24233079
229	0x3b95e316	0.00457419
230	0x3d8681d5	0.06567732
231	0x3e38199f	0.17978524
232	0xbe0a3aec	-0.1349904
233	0xbde18900	-0.11012459
234	0x3d6ae693	0.0573488
235	0x3dde4621	0.1085322
236	0xbd802994	-0.062579304
237	0x3e40da75	0.18833335
238	0xbdaea3b8	-0.085273206
239	0xbce69c8b	-0.028150817
240	0xbbddce41	-0.006768972
241	0xbd0192a4	-0.031633988
242	0x3d47a670	0.04874271
243	0xbd27842f	-0.040897544
244	0x3da482c1	0.08032752
245	0x3cec441b	0.028841069
246	0x3d94df62	0.072691694
247	0x3d430fa8	0.047622353
248	0xbb9a7cd6	-0.0047145886
249	0xbbd72846	-0.0065660803
250	0xbcfdef19	-0.0309978
251	0x3e300333	0.1718872
252	0x3d9f16dc	0.07768032
253	0x3dfc1933	0.12309494
254	0x3e20af8a	0.15691963
255	0x3e2ab081	0.16668893

conv_a_1.bias f4 [16]
0	0x3e2f2df3	0.17107372
1	0x3deb7f34	0.114988714
2	0xbcc4b28f	-0.024010925
3	0xbcc7f5fa	-0.024409283
4	0x3d403aa1	0.046930913
5	0xbd2c6130	-0.042084873
6	0xbc6aa49e	-0.014321474
7	0x3d26604c	0.04061918
8	0xbc992c54	-0.018697895
9	0xbd4a6910	-0.0494166
10	0x3bbb4a9e	0.005715682
11	0x3bee2323	0.007267372
12	0x3da9cbbd	0.08290813
13	0x3dda5252	0.106602326
14	0x3d4e421e	0.050356023
15	0xbd6d836a	-0.057986654

linear_a_0.weight f4 [16, 144]
0	0x3e480d0c	0.19536227
1	0x3e58606e	0.21130535
2	0x3e0de2ae	0.13856003
3	0x3e24d538	0.16096961
4	0x3e7dcb62	0.24784616
5	0x3dfd5b25	0.123709
6	0x3e7281ad	0.2368228
7	0x3e18719d	0.1488709
8	0x3e7948c6	0.24344167
9	0x3dc8af86	0.097991034
10	0x3df43350	0.119238496
11	0x3e36bfa8	0.17846549
12	0x3c1c1509	0.0095265
13	0x3e34c00b	0.17651384
14	0x3d8f7eab	0.07006582
15	0x3d4da26a	0.05020372
16	0x3e08d858	0.13363779
17	0x3d70aab0	0.05875653
18	0xbdb8cc36	-0.09023325
19	0xbdb8c5f4	-0.090221316
20	0x3c037484	0.008023385
21	0xbe0322c2	-0.12806228
22	0xbe277ef8	-0.16357028
23	0xbd734221	-0.059389237
24	0xbe11cb74	-0.14237767
25	0xbcac2b69	-0.021016793
26	0xbd74e1ed	-0.059785772
27	0xbde5892c	-0.11207804
28	0xbd5acc7c	-0.053417668
29	0xbcc0c1f8	-0.023529992
30	0xbc8e5ca0	-0.017378151
31	0xbd269c38	-0.040676326
32	0xbdfe36ca	-0.12412794
33	0xbd227dc0	-0.039670706
34	0xbe2aa7c7	-0.16665564
35	0xbdf676c1	-0.12034369
36	0xbdbcc5ed	-0.09217439
37	0xbd282c4d	-0.041057874
38	0xbd5a0100	-0.05322361
39	0x3d304288	0.0430322
40	0x3d2092de	0.039202563
41	0xbd8fea04	-0.07027057
42	0xbd47d95c	-0.048791274
43	0xbdeedbb0	-0.11662996
44	0x3d1e53a2	0.038653977
45	0x39c07492	0.00036707945
46	0xbd30f476	-0.043201886
47	0x3ca14d68	0.01969023
48	0x3ac83e79	0.0015277407
49	0xbda684e7	-0.08130818
50	0x3a439e46	0.0007462244
51	0x3d85b1f1	0.0652808
52	0xbcd8f075	-0.026481846
53	0xbd9efff2	-0.077636614
54	0xbc8514bc	-0.016245238
55	0x3c0185b7	0.007905415
56	0xbe051f3f	-0.130002
57	0xbe07cc3e	-0.13261506
58	0xba6f496e	-0.00091280683
59	0xbe0f0fba	-0.13970843
60	0xbdc8a96a	-0.09797938
61	0xbe4b0728	-0.19826949
62	0xbc85abb7	-0.016317232
63	0x3cdae44d	0.02672019
64	0x3bae18d1	0.005313017
65	0xbd047800	-0.032341003
66	0x3d5991d0	0.053117573
67	0xbbf02223	-0.007328288
68	0x3d11a45b	0.035557132
69	0xbcafde74	-0.021468379
70	0xbc9e2bce	-0.019307997
71	0x3c237767	0.009977198
72	0xbdbed46b	-0.09317859
73	0xbe018fdb	-0.12652533
74	0xbbe0c4b1	-0.006859385
75	0xbdbf6c01	-0.09346772
76	0xbda46921	-0.08027864
77	0xbda204a4	-0.079110414
78	0xbe0a63e9	-0.13514675
79	0xbd7d0141	-0.061768774
80	0xbe0e316a	-0.13886037
81	0xbdb497c2	-0.08818008
82	0xbdce2751	-0.10066093
83	0xbcb582b6	-0.022157054
84	0xbd2283c8	-0.039676458
85	0xbdbb0904	-0.09132579
86	0xbdf0b6ff	-0.11753654
87	0xbda86a5f	-0.08223414
88	0xbd08f7c4	-0.033439413
89	0xbce07270	-0.027398318
90	0xb9efa9da	-0.00045712182
91	0x3d889b9e	0.066703066
92	0x3d475e60	0.048673987
93	0x3da09072	0.07840051
94	0x3db9c35b	0.09070464
95	0xbc5dfae5	-0.013548587
96	0xbd876916	-0.066118404
97	0x3de618a5	0.11235169
98	0x3d89dddc	0.067317694
99	0xbcca5c3f	-0.02470219
100	0x3d9054db	0.07047435
101	0xbd806365	-0.06268958
102	0x3d138ea2	0.036024697
103	0x3de71d4a	0.11284883
104	0x3da99966	0.082812116
105	0x3e1ba4a1	0.1519952
106	0x3cd4c04d	0.025970602
107	0xbd20a3c4	-0.03921868
108	0xbdf58b5e	-0.11989473
109	0xbe65c4c1	-0.22438337
110	0xbdcae69c	-0.099072665
111	0xbe2eda7d	-0.17075534
112	0xbe55f38e	-0.2089369
113	0xbe442413	-0.19154386
114	0xbe0e94ef	-0.13924001
115	0xbdf2b8eb	-0.118516766
116	0xbcd45f1d	-0.02592426
117	0x3e514227	0.20435391
118	0x3e1f5437	0.15559469
119	0x3e161caf	0.1465938
120	0x3dd9231f	0.10602402
121	0xbb05e9f8	-0.0020433646
122	0x3e272739	0.16323556
123	0x3e02c351	0.1276982
124	0x3e34c4b2	0.17653158
125	0x3e2228e2	0.15835908
126	0xbd5f4031	-0.054504577
127	0xbd4700e1	-0.048584823
128	0xbd68c85e	-0.05683171
129	0x3cdd7a2e	0.027035799
130	0xbcaa995c	-0.02082508
131	0x3c582d0d	0.013194335
132	0x3ccab313	0.024743592
133	0xbc127531	-0.008939073
134	0x3d1ed52c	0.038777515
135	0xbc893f8e	-0.016753938
136	0xbd2be960	-0.04197061
137	0xbcc40281	-0.023926975
138	0xbc38aad0	-0.011271194
139	0xbd99dd6c	-0.07512936
140	0xbd875970	-0.06608856
141	0xbdf07c5b	-0.11742469
142	0xbce4215e	-0.027847942
143	0xbc1df84f	-0.009641721
144	0xbd0eecd5	-0.03489383
145	0xbcadff2b	-0.021239838
146	0xbdad4cd1	-0.08461917
147	0x3cceeac5	0.025258431
148	0x3c6f21bc	0.014595445
149	0x3ba8944f	0.005144633
150	0x3da2a300	0.07941246
151	0x3d0cf141	0.034409765
152	0xbd1c4964	-0.03815593
153	0xbd55f926	-0.05223956
154	0x3bf299eb	0.0074036024
155	0xbda6996f	-0.08134734
156	0xb9bcb268	-0.00035991077
157	0x3db5ee56	0.088833496
158	0xbd7d3276	-0.0618157
159	0xbd3e3c33	-0.04644413
160	0xbc6cb14d	-0.014446569
161	0xbd9fe21e	-0.078068
162	0x3d406c89	0.046978507
163	0xbd1eb089	-0.038742576
164	0x3ce726b4	0.028216697
165	0xbd2f3a06	-0.042779945
166	0x3d93b8b6	0.07212965
167	0xbce54c5d	-0.027990514
168	0x3d12cb26	0.03583827
169	0x3d615c54	0.05501969
170	0x3d3f8ddb	0.046766143
171	0x3cd9acd5	0.02657167
172	0x3d63e4ce	0.055638127
173	0xbccadd04	-0.024763592
174	0x3cbb03ba	0.022828925
175	0x3d7cebc6	0.06174829
176	0xbdbaa85e	-0.09114145
177	0x3d17fb2e	0.037104778
178	0xbd9d0791	-0.07667459
179	0xbdae549e	-0.08512233
180	0x3bb7a4d6	0.005604367
181	0xbd3141ca	-0.043275632
182	0x3c9557b9	0.018230306
183	0xbb3606c9	-0.002777504
184	0xbd90b618	-0.070659816
185	0xbdb57bf7	-0.08861535
186	0x3ce097bd	0.027416104
187	0xbd18296c	-0.037148878
188	0x3d56c62c	0.052435085
189	0x3d0c8900	0.03431034
190	0xbdbbbb9c	-0.09166643
191	0x3d6ef7e8	0.05834189
192	0x3cd2f86f	0.025753228
193	0x3c3a7677	0.011380783
194	0xbba1d973	-0.004939252
195	0xbbc7dc36	-0.0060992492
196	0xbcc91194	-0.024544515
197	0xbd17c53c	-0.03705333
198	0xbdc42eb6	-0.09579222
199	0x3bfc5d88	0.0077015795
200	0x3c4e4572	0.012589799
201	0x3d95fc65	0.07323531
202	0xbd90cc80	-0.07070255
203	0xbd93031c	-0.071783274
204	0x3d4af0fb	0.049546223
205	0x3c941255	0.018075148
206	0xbd4f678d	-0.050635863
207	0x3dae4a19	0.08510227
208	0xbbec3ed6	-0.007209639
209	0xbd0cb977	-0.03435656
210	0x3d2611ad	0.0405442
211	0x3cb1df2c	0.021712862
212	0xbd0f255d	-0.03494774
213	0x3cca460c	0.024691604
214	0x3d99c2ce	0.07507859
215	0x3d2644a1	0.040592793
216	0xbd4daaf0	-0.050211847
217	0xbd6933d0	-0.056934178
218	0xbd53b75d	-0.05168854
219	0xbde11023	-0.10989406
220	0xbd7086af	-0.058722194
221	0xbceeeff5	-0.029167155
222	0xbd6e00af	-0.05810612
223	0x3c8baa9e	0.01704913
224	0x3c3d10b2	0.011539625
225	0xbd8fef97	-0.0702812
226	0x3bef72ca	0.007307385
227	0x3ce352c9	0.027749436
228	0xbd64bd74	-0.05584474
229	0x3cba6aaa	0.02275594
230	0x3cfd18f5	0.03089569
231	0xbd5b85bf	-0.053594347
232	0x3d080e61	0.033216838
233	0xbd805931	-0.06267012
234	0xbaec5b8c	-0.0018032654
235	0x3d70827d	0.058718193
236	0xbd2322a0	-0.039827943
237	0xbbb6aaff	-0.0055745835
238	0xbd246190	-0.040132105
239	0xbd7d0c32	-0.06177921
240	0xbd045427	-0.032306816
241	0xbdaa5bac	-0.08318266
242	0x3d2b7f64	0.041869536
243	0xbcdb80ad	-0.026794756
244	0xbcdc48a4	-0.026890106
245	0x3d94c1fd	0.07263563
246	0x3cd23af4	0.025662877
247	0x3d12dde1	0.03585613
248	0x3db8df44	0.090269595
249	0x39b494d9	0.00034443176
250	0xbd5a3888	-0.05327657
251	0xba1caacd	-0.0005976379
252	0x3bc92db8	0.0061394833
253	0x3c19ca0e	0.0093865525
254	0xbd7cf389	-0.06175569
255	0xbceab82a	-0.02865227

linear_a_0.bias f4 [16]
0	0x3df50ad7	0.11964958
1	0xb921508b	-0.00015384161
2	0xbd8c7d96	-0.06859891
3	0xbd2d36da	-0.04228864
4	0x3e4bc2f9	0.19898595
5	0x3cdba9e8	0.026814416
6	0x3d35293c	0.044228777
7	0x3d25cbf5	0.04047771
8	0xbc0d6de8	-0.008632161
9	0x3d7c4b12	0.06159503
10	0x3e42b3a5	0.19013841
11	0xbda6e5af	-0.081492774
12	0xbd4445a6	-0.047917984
13	0xbc0a3e01	-0.008437634
14	0x3d21d8ff	0.039513584
15	0x3cf3d1a9	0.02976306

GRU_a.weight_ih_l0 f4 [48, 16]
0	0x3e1d2da4	0.15349442
1	0xbd6c8493	-0.05774362
2	0x3dc7e280	0.09759998
3	0x3bbf9e97	0.005847763
4	0xbda562ee	-0.0807551
5	0xbda49eb7	-0.08038085
6	0x3c71efad	0.014766616
7	0xbe0e7804	-0.1391297
8	0x3dc3937c	0.09549615
9	0x3e45c0a2	0.19311765
10	0x3dd83fc9	0.10559041
11	0xbcacf018	-0.02111058
12	0xbe27ccdc	-0.16386741
13	0x3deeeef0	0.116666675
14	0x3cda3072	0.026634429
15	0x3c6a42a7	0.014298118
16	0x3db1b1eb	0.08676513
17	0x3d7fd7c4	0.06246163
18	0x3bb70bc0	0.0055861175
19	0xbe3d56bf	-0.18490122
20	0x3e1acae9	0.15116467
21	0xbd2ea7aa	-0.042640366
22	0xbe733789	-0.23751654
23	0xbe0bac82	-0.13640025
24	0x3dfcef10	0.12350285
25	0xbdabb93d	-0.08384941
26	0x3d91c210	0.071170926
27	0xbdd20965	-0.10255698
28	0x3e0fe8c4	0.14053637
29	0x3e7887e0	0.24270582
30	0xbdd5d189	-0.10440356
31	0x3e3cfd71	0.18456055
32	0x3d16cc3c	0.036815867
33	0xbd062022	-0.032745488
34	0xbe624514	-0.22096664
35	0x3e0706ce	0.1318619
36	0x3dcaa18d	0.098940946
37	0x3cfadef7	0.030623896
38	0xbc43d494	-0.011952538
39	0xbe75f387	-0.2401868
40	0x3e262fe8	0.16229212
41	0x3dbf36ab	0.09336599
42	0x3daf8d30	0.08571851
43	0xbcc2d0a2	-0.023781125
44	0xbe7a5d31	-0.24449612
45	0x3e4e909b	0.2017235
46	0x3dd8d33f	0.10587167
47	0xbe1d2529	-0.15346207
48	0x3e8097eb	0.25115904
49	0xbe219d3a	-0.15782633
50	0x3e42ae94	0.19011909
51	0x3d2500a5	0.040283818
52	0x3da4414a	0.080202654
53	0xbea001dd	-0.31251422
54	0xbe09ecfc	-0.13469309
55	0xbe264e15	-0.16240723
56	0xbe728330	-0.23682857
57	0xbd9a1636	-0.07523768
58	0xbdeefac9	-0.11668927
59	0xbdf6cc9a	-0.120507434
60	0x3d107d86	0.03527596
61	0x3b454bee	0.0030105072
62	0xbe5e55d2	-0.21712425
63	0xbeadbe16	-0.33934087
64	0x3ea7c8f5	0.32770506
65	0xbd57fd06	-0.052731536
66	0x3d5eed28	0.05442539
67	0x3d215141	0.03938413
68	0xbe90d4b3	-0.28287277
69	0xbe10735f	-0.1410651
70	0xbcb7e6d4	-0.022448935
71	0xbd9ca4b1	-0.076486
72	0x3e3ad69f	0.18245934
73	0xbe7b1a56	-0.24521765
74	0xbe6d9491	-0.23201205
75	0x3e27a53f	0.1637163
76	0x3da2815e	0.07934831
77	0x3c0c2eb4	0.008556057
78	0xbdc2ddac	-0.09514937
79	0x3e2ef2d4	0.17084819
80	0xbd44dce4	-0.04806222
81	0xbe23d42b	-0.15998904
82	0xbe177eec	-0.1479451
83	0xbe04f0c6	-0.12982473
84	0x3ea259ae	0.31709045
85	0x3e930932	0.28717953
86	0x3d99fba9	0.075187035
87	0xbd51ce0f	-0.051221903
88	0xbdbabef3	-0.09118452
89	0xbe4bec59	-0.19914378
90	0x3e98e3f8	0.29861426
91	0xbdee42e8	-0.11633855
92	0x3c779d15	0.015113135
93	0x3e015bf3	0.12632732
94	0x3e885cd8	0.26633334
95	0x3e60f4a3	0.21968322
96	0xbe1da04b	-0.15393178
97	0x3dcb79d0	0.09935343
98	0x3d58c178	0.05291888
99	0xbde3ffa6	-0.111327454
100	0x3e2abcd6	0.16673598
101	0x3e25bd1e	0.16185424
102	0xbe3d2986	-0.18472871
103	0xbe4bb155	-0.19891866
104	0x3e00f6af	0.12594102
105	0x3dfcbb8b	0.123404585
106	0x3e0c84cb	0.13722531
107	0x3e545158	0.20734155
108	0xbe892d03	-0.26792154
109	0x3ea8363a	0.32853872
110	0x3e43b98d	0.19113751
111	0x3eba3df1	0.36375383
112	0x3dd02958	0.10164136
113	0x3d5b0f94	0.053481653
114	0xbdba767c	-0.0910463
115	0xbdf23eab	-0.11828359
116	0x3e720492	0.23634556
117	0x3e51cd84	0.20488554
118	0xbd22e5be	-0.03976988
119	0xbe262ac8	-0.16227257
120	0x3caf5163	0.021401113
121	0xbe65156f	-0.22371458
122	0x3dd59b4d	0.10430012
123	0xbd8a3fc5	-0.06750444
124	0x3d8b9692	0.068158284
125	0xbe21f610	-0.15816522
126	0x3e977bf9	0.2958677
127	0x3df31030	0.11868322
128	0x3d04fbaa	0.032466568
129	0xbe76221e	-0.24036452
130	0xbd2d0180	-0.04223776
131	0xbe1ed718	-0.15511739
132	0x3e2ff1c2	0.17182067
133	0x3e0cfbfe	0.13768002
134	0xbe56d94f	-0.20981334
135	0xbe77423b	-0.24146359
136	0x3de0bc3e	0.10973404
137	0xbe463e79	-0.19359769
138	0x3deb8184	0.114993125
139	0xbe7d4c9d	-0.24736257
140	0x3c557b7f	0.013029932
141	0xbd8a571f	-0.06754898
142	0x3c40d4ba	0.011769468
143	0x3e6c2e77	0.230646
144	0x3e9e00e2	0.3086005
145	0x3e3e8274	0.18604451
146	0x3e3c2970	0.18375182
147	0x3e7c8e40	0.24663639
148	0x3e75e237	0.24012075
149	0xbdd2d111	-0.102937825
150	0xbe1beaf0	-0.1522634
151	0xbc438caf	-0.011935397
152	0x3d789e4c	0.06069784
153	0xbe46ae98	-0.1940254
154	0xbe08f05d	-0.13372941
155	0xbb23d737	-0.0025000104
156	0x3e636fb5	0.22210582
157	0xbd91e23d	-0.0712323
158	0x3e0c0506	0.13673791
159	0xbe89add1	-0.26890424
160	0x3efc3092	0.49255806
161	0xbe0c4307	-0.13697444
162	0xbe10e066	-0.14148101
163	0x3d11c46a	0.035587706
164	0x3eab7598	0.33488154
165	0xbe800a40	-0.2500782
166	0x3dc60d4f	0.09670507
167	0x3d2477be	0.040153258
168	0x3d1234d1	0.0356949
169	0x3be9ac20	0.0071311146
170	0x3eebd5b6	0.46061486
171	0x3e3495f3	0.17635326
172	0xbe8237ba	-0.2543314
173	0xbda9e94a	-0.082964495
174	0xbe5bda81	-0.21470071
175	0x3cfdcf28	0.030982569
176	0xbe311302	-0.17292407
177	0xbd9023c4	-0.07038072
178	0x3a5e1000	0.0008471012
179	0x3e5959c7	0.21225654
180	0x3cd86f7b	0.026420346
181	0x3eeba25d	0.4602231
182	0xbe72b825	-0.23703058
183	0xbe45949a	-0.19294968
184	0x3de70436	0.112801
185	0xbe3cef75	-0.1845072
186	0xbe72a920	-0.23697329
187	0xbe546ccb	-0.20744626
188	0x3e3df1ca	0.18549266
189	0x3ce6e34f	0.028184561
190	0x3eda4a80	0.42634964
191	0x3e3f51b2	0.18683508
192	0xbc67e742	-0.014154257
193	0xbcd5ca3a	-0.026097406
194	0x3d5c2440	0.05374551
195	0x3e128d23	0.14311652
196	0x3d99c9eb	0.07509216
197	0xbe50867c	-0.20363802
198	0xbdf51f46	-0.119688556
199	0xbe81cb1f	-0.25350282
200	0x3e20b2fd	0.15693279
201	0xbe224061	-0.15844871
202	0x3dec2dfd	0.11532209
203	0x3e76213c	0.24036115
204	0xbc8d7cd1	-0.017271431
205	0xbd65a7a7	-0.05606809
206	0x3e0669f5	0.13126357
207	0xbe37c9c1	-0.17948057
208	0xbe06a051	-0.13147093
209	0xbdf940b4	-0.12170544
210	0xbe0e841a	-0.1391758
211	0xbd0ce674	-0.034399465
212	0x3d22c659	0.03973994
213	0xbe732024	-0.2374273
214	0x3e83e1a9	0.25758103
215	0xbd8c3f2e	-0.06847988
216	0x3e7138d4	0.23556834
217	0x3d81660a	0.063182905
218	0xbdd49289	-0.10379512
219	0x3dafb108	0.08578688
220	0xbdc269fd	-0.09492872
221	0x3e05c7c7	0.1306449
222	0xbd5c67e8	-0.05381003
223	0xbdfe5948	-0.12419373
224	0xbe8c2d63	-0.27378377
225	0x3e705105	0.23468406
226	0xbcb2eb70	-0.021840781
227	0x3da8e574	0.0824689
228	0xbe907059	-0.28210714
229	0x3ec26bf1	0.37972978
230	0xbc5bdc97	-0.013419292
231	0x3e77350f	0.24141334
232	0x3dca79b2	0.09886493
233	0xbe0db712	-0.13839367
234	0xbeddc166	-0.43311614
235	0xbd04a259	-0.03238139
236	0x3dc07d91	0.0939895
237	0xbdc0ac2c	-0.09407839
238	0x3e386596	0.18007502
239	0xbe00cf40	-0.1257906
240	0x3d8ded1f	0.06929993
241	0x3e54008e	0.20703337
242	0x3e005b94	0.12534934
243	0x3e11ff4a	0.14257541
244	0xbe39158b	-0.18074624
245	0x3e35c1ce	0.17749712
246	0x3e01bee1	0.12670471
247	0xbe3c99a6	-0.18417987
248	0x3e80d316	0.25161046
249	0x3aa7d5e7	0.0012804837
250	0x3ca6e9da	0.020375181
251	0x3e18301f	0.14862107
252	0xbd4db6cf	-0.050223168
253	0xbe8dd55b	-0.2770184
254	0x3e2cabd7	0.16862427
255	0x3e530b0e	0.20609686

GRU_a.weight_hh_l0 f4 [48, 16]
0	0xbe2c47ae	-0.16824219
1	0xbdeac4a3	-0.11463287
2	0xbdb16499	-0.086617656
3	0x3da95afe	0.082693085
4	0xbc96dee9	-0.018416839
5	0x3e4a38d5	0.19748242
6	0xbd8ddc37	-0.06926768
7	0xbe0e8bbb	-0.1392049
8	0x3de03f44	0.10949567
9	0xbd694d63	-0.056958567
10	0x3cda833f	0.026673911
11	0xbd119a71	-0.035547677
12	0x3dfc3026	0.12313871
13	0xbdece611	-0.11567319
14	0x3e660b70	0.224653
15	0x3e70e4ed	0.23524828
16	0x3d9d0010	0.076660275
17	0xbdd990ab	-0.10623296
18	0xbe407c39	-0.18797387
19	0xbdb76692	-0.089551106
20	0x3e3db457	0.18525825
21	0xbe522ac7	-0.20524131
22	0xbdc7f202	-0.09762956
23	0x3de156c6	0.11002879
24	0x3dee7771	0.116438754
25	0x3dc9fcea	0.09862693
26	0x3e781dae	0.24230072
27	0xbbaa7fa3	-0.0052032038
28	0xbe9c20e7	-0.30493852
29	0xbe02493b	-0.12723248
30	0xbd13ff07	-0.036131885
31	0x3e269e93	0.16271429
32	0x3e4f1767	0.20223771
33	0x3ac3c9ec	0.0014937497
34	0x3c327bc5	0.010893767
35	0x3d74c62d	0.059759308
36	0x3da25c9f	0.07927822
37	0xbe4b12fc	-0.1983146
38	0xbe6c565d	-0.2307982
39	0xbd08b48a	-0.0333753
40	0x3e2474c5	0.16060169
41	0xbe4ece47	-0.20195876
42	0xbda6293a	-0.08113332
43	0xbdd05e1c	-0.101742
44	0x3dcacfa3	0.09902885
45	0xbe9c20f4	-0.3049389
46	0x3ea65523	0.3248683
47	0xbd6ea178	-0.058259457
48	0x3bf377ae	0.0074300384
49	0x3e16f60b	0.14742295
50	0x3d8c211e	0.06842254
51	0x3e1d8c6c	0.15385598
52	0x3e15dc7c	0.1463489
53	0xbcd89c2c	-0.026441656
54	0xbdd0e90d	-0.10200701
55	0x3dc7d199	0.097567745
56	0xbb28bd0f	-0.0025747453
57	0xbe53cdb6	-0.20683941
58	0x3e38caa0	0.18046045
59	0xbe33a78e	-0.17544386
60	0xbdcc24ed	-0.099679805
61	0x3d6557d7	0.055991974
62	0x3e001421	0.12507679
63	0xbddd5a43	-0.10808232
64	0x3e5c7510	0.21529031
65	0xbe3ff28c	-0.18744868
66	0x3e757ca4	0.23973328
67	0x3dde6403	0.108589195
68	0xbe0208b6	-0.12698635
69	0x3e36fed2	0.17870644
70	0x3e4ed81c	0.20199627
71	0x3d894bd6	0.06703918
72	0xbd463cb7	-0.048397746
73	0xbda26c4a	-0.07930811
74	0x3d51532f	0.05110472
75	0xbe4ea992	-0.20181873
76	0xbe5a979e	-0.213469
77	0xbdc29f13	-0.09502997
78	0xbe10873d	-0.1411409
79	0x3cc8d9c4	0.024517901
80	0xbda00a27	-0.078144364
81	0x3e353d35	0.1769913
82	0xbdfa6a07	-0.12227254
83	0x3e7e5e1e	0.2484059
84	0x3d2b4e43	0.041822683
85	0x3c05affb	0.008159633
86	0x3e47da38	0.19516838
87	0x3e65af67	0.22430192
88	0xbde6e561	-0.11274219
89	0xbcc2b67a	-0.023768652
90	0x3e0a9585	0.135336
91	0x3dd19ec0	0.10235357
92	0xbe6f08ca	-0.23343197
93	0x3e22f045	0.15911968
94	0xbe79b554	-0.24385577
95	0xbe1688a3	-0.1470056
96	0x3d842099	0.0645153
97	0x3e247274	0.16059285
98	0xbd9e954e	-0.07743321
99	0xbe2ff501	-0.17183305
100	0x3df6ff53	0.12060418
101	0xbd317387	-0.043323066
102	0x3da09e21	0.07842661
103	0x3e8255c9	0.25456074
104	0x3d59cf27	0.05317607
105	0x3d38b24e	0.04509192
106	0x3de89fb5	0.11358587
107	0xbcfab4f5	-0.030603865
108	0xbe27d575	-0.16390021
109	0x3d15b64e	0.036550812
110	0x3db425b1	0.087962516
111	0x3e2609ed	0.16214724
112	0xbe17a60a	-0.14809433
113	0x3e690d1a	0.22758904
114	0xbe93f63d	-0.28898802
115	0x3a43fed6	0.0007476633
116	0xbd848582	-0.06470777
117	0xbc89848e	-0.01678684
118	0x3e59ff56	0.21288809
119	0xbd73f6bd	-0.05956148
120	0x3d63565e	0.055502288
121	0x3e82f3b6	0.25576562
122	0xbc2fcbaf	-0.010729714
123	0x3e62598e	0.22104475
124	0x3dca836f	0.0988835
125	0x3de485e8	0.11158353
126	0x3e8ece7d	0.27891913
127	0x3e854bfe	0.2603454
128	0xbc84e8f8	-0.01622437
129	0xbe25c406	-0.16188058
130	0xbdc9725e	-0.09836267
131	0xbd83d217	-0.06436556
132	0x3e132d15	0.14372666
133	0xbe3afa4a	-0.1825954
134	0x3e8c31a3	0.2738162
135	0x3dbde163	0.09271505
136	0xbe780772	-0.2422159
137	0x3ccd95c4	0.025095828
138	0x3e64dac5	0.22349079
139	0xbddfc55a	-0.10926314
140	0x3d85b487	0.065285735
141	0x399dc562	0.00030092435
142	0xbe3f8751	-0.18703963
143	0x3e31ad4f	0.17351268
144	0xbd9bb64e	-0.07603131
145	0x3d140fb7	0.0361478
146	0x3dc8e04a	0.09808405
147	0x3e3eb10d	0.18622227
148	0xbe0202c7	-0.12696372
149	0xbc9ea34b	-0.019364974
150	0x3d1cccce	0.038281254
151	0xbe2bd6d9	-0.16781177
152	0x3e279ac5	0.16367634
153	0xbdfc1194	-0.1230804
154	0x3d85ab02	0.06526758
155	0x3e598ab4	0.21244317
156	0xbdf6ed86	-0.12057023
157	0x3d7a12ef	0.061053213
158	0xbe50e771	-0.20400788
159	0x3dc4026e	0.09570776
160	0xbe1ca444	-0.15297037
161	0xbe26718e	-0.16254255
162	0xbdd518ee	-0.104051456
163	0xbe53c76b	-0.2068154
164	0xbdb0a35e	-0.0862491
165	0x3da13729	0.07871849
166	0xbe4bb65d	-0.19893785
167	0xbdf69f25	-0.12042073
168	0xbe804998	-0.25056148
169	0xba83d153	-0.001005689
170	0xbd93e604	-0.072216064
171	0xbe099355	-0.13435109
172	0xbe85da26	-0.26142997
173	0x3e5768ab	0.21036021
174	0x3ecf925a	0.40541345
175	0x3d763b8d	0.060115386
176	0xbd73bdc6	-0.059507154
177	0x3e04e209	0.1297685
178	0xbe2e0e29	-0.16997589
179	0x3d0b2069	0.033966456
180	0x3dfa6ce3	0.122278
181	0x3e68d20a	0.22736374
182	0xbe6b4546	-0.22975644
183	0x3db9c7cb	0.090713106
184	0x3e1cecc9	0.15324701
185	0x3dc73a6f	0.09727942
186	0xbe0bcabe	-0.13651559
187	0xbd9e37bb	-0.077254735
188	0x3e688c0b	0.22709672
189	0xbdc0902a	-0.09402497
190	0xbe8b2198	-0.27174067
191	0xbd8314e3	-0.06400468
192	0xbdcffd3f	-0.10155725
193	0xbd93b04e	-0.07211362
194	0xbe01d70e	-0.12679693
195	0x3e8a2968	0.26984715
196	0xbe6a597a	-0.22885695
197	0xbe2718ee	-0.16318104
198	0x3d826979	0.063677736
199	0x3d1eadd0	0.03873998
200	0x3e09bcc7	0.13450919
201	0x3dcb895b	0.09938308
202	0x3d925684	0.07145408
203	0xbe90f438	-0.28311324
204	0x3e836988	0.2566645
205	0xbdf890cd	-0.121369936
206	0xbd8ab624	-0.06773022
207	0xbe71ca9c	-0.23612446
208	0xbe3f3a28	-0.18674529
209	0x3e0f13d9	0.13972415
210	0xbd3d86dd	-0.046271194
211	0x3cd954af	0.026529638
212	0xbdb70fd3	-0.08938565
213	0x3e04bb73	0.12962131
214	0x3e2d0e6b	0.16900031
215	0x3e543542	0.20723441
216	0xbd30f722	-0.043204434
217	0x3e502e72	0.20330217
218	0xbe9c17b4	-0.30486834
219	0x3cb76916	0.022388976
220	0xbde60273	-0.11230936
221	0xbdd5ca63	-0.10438993
222	0xbd4bfc15	-0.04980095
223	0x3e206b7a	0.15665999
224	0x3e846111	0.25855306
225	0xbdccc78a	-0.099989966
226	0xbd9cc93a	-0.076555684
227	0x3de655a3	0.11246803
228	0x3a074309	0.00051598303
229	0x3e52ba51	0.20578887
230	0xbd1b08d4	-0.037850216
231	0xbe0b14d6	-0.13582167
232	0xbdf43918	-0.11924952
233	0x3ea5c008	0.3237307
234	0xbcae9c19	-0.021314668
235	0xbe511365	-0.20417555
236	0x3d412405	0.04715349
237	0xbe451eb7	-0.19249998
238	0xbea6cde8	-0.3257897
239	0xbe872a3c	-0.2639941
240	0x3e4ce709	0.20010008
241	0xbe360c15	-0.17778046
242	0xbd8f0fca	-0.069854334
243	0xbe005a20	-0.1253438
244	0xbe81c72b	-0.25347266
245	0xbde036fb	-0.10947987
246	0x3dda2664	0.10651854
247	0xbd89a11d	-0.06720183
248	0xbe64f3df	-0.22358654
249	0xbcd1f2a5	-0.025628397
250	0x3da17757	0.078840904
251	0x3e8db4ac	0.27676904
252	0xbc90aafc	-0.017659657
253	0xbe212b36	-0.1573914
254	0x3db2843d	0.08716629
255	0x3da17983	0.07884505

GRU_a.bias_ih_l0 f4 [48]
0	0x3dd103ca	0.10205801
1	0x3cbae537	0.022814376
2	0xbd56ffce	-0.052490048
3	0x3d2e664b	0.042578023
4	0xbdcadf3e	-0.09905861
5	0xbe1a60ac	-0.1507594
6	0x3ea7465b	0.32670864
7	0x3e9ee709	0.3103564
8	0xbe4d5025	-0.20050104
9	0x3e6bf58b	0.23042886
10	0x3e801e7b	0.25023255
11	0xbd10634a	-0.03525094
12	0xbe5cb83e	-0.21554658
13	0x3defeed9	0.117154785
14	0xbe39652c	-0.18105
15	0xbdc67081	-0.09689427
16	0x3e182e97	0.14861523
17	0xbe8af6a9	-0.27141312
18	0x3a9595d3	0.0011412449
19	0xbddf9b7d	-0.10918329
20	0xbe2a0994	-0.16605216
21	0x3dd4c4f3	0.103891276
22	0x3da7e383	0.08197691
23	0xbe91fa66	-0.2851135
24	0xbb9e3fdd	-0.0048293904
25	0xbe52fbad	-0.20603819
26	0xbe54e94e	-0.20792124
27	0xbd85b650	-0.06528914
28	0x3d11205d	0.035431255
29	0xbe2c1156	-0.16803488
30	0xbeafa653	-0.34306583
31	0xbe4a6ea6	-0.19768772
32	0xbe11faa6	-0.14255771
33	0x3e38d8fb	0.18051521
34	0xbe3c75d6	-0.18404326
35	0xbe30cb25	-0.17264993
36	0xbe250308	-0.16114438
37	0xbe83247e	-0.2561378
38	0xbd802674	-0.06257334
39	0x3dd06a04	0.10176471
40	0xbe551872	-0.20810106
41	0x3d1b00a4	0.037842408
42	0x3dd52f8a	0.10409458
43	0x3e5a02c1	0.21290113
44	0xbe81ff24	-0.2538997
45	0xbe2da87c	-0.16958803
46	0xbe1deb3b	-0.15421765
47	0x3e1abdea	0.15111509

GRU_a.bias_hh_l0 f4 [48]
0	0xbdc2e1f5	-0.09515754
1	0x3e87936e	0.26479667
2	0xbdf3556f	-0.118815295
3	0x3dbd3dfe	0.0924034
4	0x3e8c0a9c	0.27351844
5	0xbcb53e0a	-0.02212431
6	0x3d9e7247	0.077366404
7	0x3d69aa63	0.05704726
8	0x3dba0966	0.09083824
9	0x3e554249	0.20826067
10	0x3d59505f	0.053055163
11	0xbcdafd30	-0.026732057
12	0xbdbd92f4	-0.09256545
13	0x3de67463	0.11252668
14	0xbe236e18	-0.15959966
15	0x3dc91eb7	0.098203115
16	0x3e3dde6f	0.18541883
17	0xbeb76c79	-0.35824946
18	0xbde6d18a	-0.11270435
19	0xbef97193	-0.48719463
20	0xbd703b45	-0.058650274
21	0x3daaf4a8	0.08347446
22	0xbc8529ef	-0.016255347
23	0xbeae4445	-0.3403646
24	0xbed65787	-0.41863653
25	0x3df6fb4a	0.12059648
26	0xbf1853ec	-0.59503055
27	0xbea3e997	-0.32014152
28	0x3e0b21f2	0.13587168
29	0xbe80e6a0	-0.25175953
30	0xbd927a60	-0.071522474
31	0xbebb3c70	-0.36569548
32	0x3d8cf71d	0.068830706
33	0xbc7c6e17	-0.015407107
34	0xbe57f2ed	-0.21088763
35	0x3e0b877e	0.13625905
36	0x3e5afd2c	0.2138564
37	0xbe9041b4	-0.28175128
38	0xbe8726bc	-0.2639674
39	0xbe9563a2	-0.29177576
40	0xbe0d200b	-0.13781755
41	0xbe98383c	-0.29730403
42	0x3f1f2dcd	0.6217926
43	0xbda6f56e	-0.08152281
44	0xbe2183d3	-0.15772943
45	0xbd0b8cd6	-0.03406986
46	0x3dbeff4a	0.09326036
47	0xbc81d3f4	-0.015848137

linear_a.weight f4 [4, 16]
0	0xbe089ef1	-0.13341881
1	0xbf0081e7	-0.50198215
2	0xbc8ccce2	-0.01718754
3	0xbe83905b	-0.25696072
4	0xbe6f9129	-0.23395218
5	0x3e142d80	0.14470482
6	0xbf0ef081	-0.5583573
7	0xbeb99860	-0.36249065
8	0x3d3e511c	0.04646407
9	0xbe229a26	-0.15879115
10	0xbedada18	-0.42744517
11	0xbf2a41a7	-0.6650643
12	0x3de28160	0.110598326
13	0xbf072509	-0.52790886
14	0xbe3d5058	-0.1848768
15	0xbed727e1	-0.42022613
16	0xbe2de947	-0.1698352
17	0xbe3d69bf	-0.1849737
18	0xbe0fe2f3	-0.14051418
19	0xbeef1e26	-0.4670269
20	0x3e9b3439	0.3031328
21	0xbd81a05e	-0.06329416
22	0x3ee56b37	0.4480836
23	0x3f04631c	0.5171373
24	0x3d2dbd92	0.042417116
25	0x3e577c0e	0.21043417
26	0xbec7cc0b	-0.3902286
27	0x3e49426b	0.19654243
28	0x3b02bc80	0.001994878
29	0x3f1c6253	0.6108753
30	0x3e469ccb	0.1939575
31	0x3e98d69e	0.2985124
32	0x3e41417c	0.18872637
33	0x3e96b407	0.29434225
34	0xbd3e87fd	-0.046516407
35	0x3f494b61	0.78630644
36	0xbe820d38	-0.2540071
37	0xbe0e74c3	-0.13911729
38	0xbf11052a	-0.56648505
39	0xbe7a92e9	-0.24470104
40	0xbe0650ac	-0.13116711
41	0xbe410ea3	-0.1885324
42	0x3ef067b6	0.46954125
43	0xbe821428	-0.25406003
44	0xbd6ced90	-0.057843745
45	0xbef50367	-0.47854158
46	0xbc59b390	-0.01328744
47	0xbf1e248d	-0.6177452
48	0x3e4bf573	0.1991785
49	0xbdffb663	-0.124859594
50	0xbe82db6e	-0.25558037
51	0xbe737fa9	-0.23779167
52	0xbdc101f7	-0.09424203
53	0x3d49452f	0.049138244
54	0xbd4ec539	-0.050481055
55	0x3dcd4ce8	0.10024434
56	0x3d97f0a6	0.07418947
57	0xbe152d0b	-0.14567964
58	0x3ebdfa3a	0.3710497
59	0x3eadd4ee	0.33951515
60	0xbde860cc	-0.113465875
61	0x3dcd5afd	0.1002712
62	0xbe792220	-0.24329424
63	0x3e863d4e	0.26218647

linear_a.bias f4 [4]
0	0xbe8b703d	-0.2723407
1	0x3e977d3b	0.2958773
2	0x3e591db5	0.21202739
3	0x3d4bba8d	0.049738456

conv_v_0.weight f4 [16, 7, 3, 3]
0	0xbd927fab	-0.07153257
1	0x3aa6ef01	0.0012736024
2	0xbd41e041	-0.047333006
3	0xbd6fdf64	-0.05856265
4	0x3db42afe	0.087972626
5	0x3d978434	0.073982626
6	0xbe9ee63e	-0.31035036
7	0xbde2f7be	-0.11082409
8	0x3d3278ae	0.04357212
9	0x3e83d47a	0.25748044
10	0x3c1661e5	0.009178613
11	0x3dc13004	0.094329864
12	0xbe40dad5	-0.18833478
13	0xbeaa3347	-0.33242247
14	0xbdb9446f	-0.09046256
15	0x3d9393a5	0.07205895
16	0xb752381f	-1.2530042e-05
17	0xbe362aad	-0.17789717
18	0x3edb24bb	0.4280146
19	0x3e75ba41	0.23996831
20	0x3d3dee4f	0.046369847
21	0x3dda0766	0.106459424
22	0xbe2447ee	-0.16043064
23	0xbd15982b	-0.03652207
24	0xbd97d4f8	-0.074136674
25	0xbe613efc	-0.21996683
26	0x3ea0918c	0.31361043
27	0x3e92c505	0.2866594
28	0xbcf83bff	-0.030302046
29	0xbebc7c65	-0.36813655
30	0x3dc4ec41	0.09615374
31	0xbe4c7387	-0.19965945
32	0xbe3e9052	-0.18609741
33	0xbe0a2d70	-0.13493896
34	0xbdffff0e	-0.1249982
35	0xbe7e8b89	-0.24857916
36	0x3d4b1fcb	0.049590867
37	0x3d20b737	0.039237227
38	0xbdfacdff	-0.12246322
39	0x3d965b80	0.07341671
40	0xbd91169d	-0.07084391
41	0x3dcf2603	0.10114672
42	0x3dbfbdea	0.09362395
43	0x3d1ec6b6	0.038763724
44	0x3d41ce63	0.047315966
45	0xbce74bcc	-0.028234385
46	0x3dec9e04	0.115535766
47	0xbbe7432b	-0.0070575676
48	0x3e0eb7a8	0.13937247
49	0x3d278336	0.040896617
50	0x3e163366	0.14668044
51	0xbcb41bd7	-0.021985931
52	0x3da003ba	0.07813211
53	0x3dee1ec9	0.116269656
54	0x3c888c7f	0.016668556
55	0xbc7655cf	-0.015035107
56	0xbd821b33	-0.06352844
57	0xbe474901	-0.19461443
58	0xbd8b34db	-0.06797191
59	0x3d016198	0.031587213
60	0xbe404a51	-0.1877835
61	0xbd24b582	-0.04021216
62	0xbd4cd3fa	-0.050006844
63	0x3c7dbf95	0.015487571
64	0x3e0ef06f	0.13958906
65	0x3d83cfa9	0.064360924
66	0x3c5fe460	0.013665289
67	0xbc3b1deb	-0.011420707
68	0xbd60eed5	-0.054915268
69	0xbd136c9f	-0.03599226
70	0xbd384e6d	-0.044996668
71	0xba0310a7	-0.0004999735
72	0x3e45bfef	0.19311498
73	0x3e9b9d27	0.30393335
74	0xbe753a46	-0.23948011
75	0xbe097185	-0.1342221
76	0xbe25a57e	-0.16176412
77	0xbe5d4b85	-0.2161084
78	0x3d8de5a2	0.069285646
79	0x3db98850	0.09059203
80	0x3d1aacd0	0.037762463
81	0xbdd008bc	-0.10157916
82	0x3cb35ddf	0.021895347
83	0xbd409d76	-0.047025166
84	0x3eb71da8	0.35764813
85	0x3eb83689	0.35979107
86	0x3e16b03d	0.14715667
87	0x3d6f1a9b	0.058374982
88	0x3da64b9e	0.081198916
89	0xbcdf85fb	-0.027285567
90	0xbd51a2f3	-0.05118079
91	0xbd17209f	-0.036896344
92	0xbe01fbe9	-0.12693752
93	0xbebb0329	-0.36525849
94	0x3d658196	0.056031786
95	0xbe478e22	-0.19487813
96	0x3dcc2012	0.099670544
97	0x3db6593f	0.08903741
98	0xbda5911d	-0.08084319
99	0x3d62f9eb	0.05541412
100	0x3d8f6db5	0.07003347
101	0x3d33661b	0.043798547
102	0xbc94ec43	-0.018179065
103	0xbdae25ef	-0.08503329
104	0xbe007c57	-0.12547432
105	0xbcb1e1a9	-0.021714048
106	0xbc2219eb	-0.009893875
107	0xbdda1c3d	-0.10649917
108	0xbc9da27f	-0.019242523
109	0xbd516cb9	-0.051129077
110	0x3cab6ec5	0.020926842
111	0xbdc2720e	-0.094944105
112	0xbe2be8e6	-0.16788062
113	0xbcca91fb	-0.024727812
114	0x3aa16c25	0.0012315555
115	0xbc3a8078	-0.011383168
116	0x3cff6e6f	0.031180589
117	0xbe380b86	-0.17973146
118	0xbde88caa	-0.113549545
119	0xbe37bab3	-0.17942314
120	0xbe2100a6	-0.15722904
121	0xbd1f0fd1	-0.038833443
122	0xbd943fac	-0.07238707
123	0xbe56bf2a	-0.20971361
124	0xbe436bec	-0.19084138
125	0xbe637d85	-0.2221585
126	0xbd8b2320	-0.06793809
127	0xbe378999	-0.17923583
128	0x3e152567	0.14565049
129	0xbcacd106	-0.021095764
130	0xbd76b67d	-0.060232628
131	0x3c1fc748	0.009752102
132	0x3e068f69	0.13140644
133	0x3e1d66d4	0.15371257
134	0x3c57e548	0.0131772235
135	0xbd3ef14e	-0.046616845
136	0x3dd90f0e	0.105985746
137	0x3d90cbc5	0.07070116
138	0x3e29632b	0.16541736
139	0x3dfd6e4c	0.12374553
140	0x3d8a52db	0.06754085
141	0xbe049cf0	-0.12950492
142	0xbe26d827	-0.16293393
143	0x3d997b0f	0.07494175
144	0xbdc4db46	-0.096121356
145	0xbe750180	-0.23926353
146	0x3e13dae3	0.14438967
147	0x3e082445	0.13295086
148	0x3e3aea6f	0.18253492
149	0x3e1c6fc7	0.15277015
150	0xbba4befb	-0.0050276495
151	0x3d46a04d	0.04849272
152	0xbec16ea6	-0.3777973
153	0x3d4d9965	0.050195117
154	0xbdd6df4f	-0.104918115
155	0x3d7e6a1b	0.06211291
156	0x3d712544	0.05887343
157	0xbcc51b6d	-0.02406093
158	0x3d4b1dd6	0.049589
159	0xbd89144e	-0.06693326
160	0x3d9b4578	0.075816095
161	0xbeaa4844	-0.3325826
162	0x3ba5e8fc	0.0050631743
163	0x3a6882f2	0.000886961
164	0x3d122059	0.03567538
165	0xbda1607f	-0.07879733
166	0x3d27ba52	0.040949173
167	0xbc20226a	-0.00977383
168	0xbdc94f69	-0.098295994
169	0x3d4b3c01	0.04961777
170	0xbe2548fe	-0.16141126
171	0x3c7b1c78	0.015326612
172	0xbe196389	-0.14979376
173	0xbe1efd6d	-0.15526362
174	0x3d009dd4	0.031400517
175	0xbda970d0	-0.082734704
176	0xbcf90066	-0.030395698
177	0xbcc24945	-0.023716578
178	0xbd138d61	-0.0360235
179	0xbe16bf43	-0.14721398
180	0x3cd62797	0.026141925
181	0xbdccb403	-0.09995272
182	0xbc8e04c6	-0.01733626
183	0x3ddb958d	0.10721884
184	0xbe0482c5	-0.1294051
185	0xbd9e3ab2	-0.07726039
186	0xbd5cbd62	-0.053891547
187	0xbdd63ce7	-0.10460835
188	0xbddfe237	-0.10931819
189	0x3dbe6182	0.09295942
190	0x3e91b7ca	0.28460532
191	0x3e37328d	0.17890377
192	0xbcd7d7a8	-0.02634795
193	0xbdb91db6	-0.0903887
194	0xbe4e0055	-0.20117314
195	0xbdc83856	-0.0977637
196	0x3d84b376	0.06479542
197	0xbf03536a	-0.51299155
198	0xbdfe1ce8	-0.12407857
199	0x3e08b0d1	0.133487
200	0x3c9f7842	0.019466523
201	0xbdd8293d	-0.105547406
202	0x3c628597	0.013825796
203	0x3dbb78cd	0.091539
204	0xbea838c2	-0.32855803
205	0xbe8a9e83	-0.2707406
206	0x3cf44832	0.029819582
207	0xbef98ea3	-0.48741636
208	0xbea33a05	-0.31880203
209	0x3e009039	0.12555017
210	0x3e02b8b5	0.12765773
211	0x3e884271	0.2661319
212	0x3eb464cd	0.35233155
213	0xbdb8b99f	-0.090197794
214	0x3ed0dd96	0.40794057
215	0x3e36a925	0.17837961
216	0xbea7f548	-0.32804322
217	0xbe3761ec	-0.17908448
218	0x3d546572	0.05185456
219	0xbe5c7044	-0.21527201
220	0xbd8323ad	-0.06403289
221	0x3e5856b3	0.21126823
222	0xbe236613	-0.15956907
223	0xbe00403c	-0.12524503
224	0xbe7bacdf	-0.24577664
225	0x3da5fee8	0.0810526
226	0x3dbde55e	0.09272264
227	0x3de9247d	0.11383913
228	0xbdf2b60c	-0.11851129
229	0x3e00b025	0.12567194
230	0xbd9dadaf	-0.07699143
231	0xbd9d2ef4	-0.07674971
232	0xbd322426	-0.043491505
233	0xbc8bd2b0	-0.017068237
234	0xbd7c0775	-0.06153055
235	0x3c93f4f0	0.018061131
236	0xbddffa25	-0.10936383
237	0x3da645d2	0.08118786
238	0x3d914793	0.0709373
239	0xbd23ace3	-0.0399598
240	0x3d509f94	0.050933436
241	0x3d44955b	0.047994
242	0xbcb89e2c	-0.02253636
243	0xbd16bb8b	-0.03679995
244	0xbc421604	-0.011846069
245	0xbdc3c073	-0.09558191
246	0xbe0d9414	-0.13826019
247	0xbe1f711d	-0.15570493
248	0xbdfc5636	-0.12321131
249	0x3d1572e3	0.036486518
250	0x3c8a6a08	0.016896263
251	0xbe1199b9	-0.14218797
252	0x3e38028d	0.17969723
253	0xbc561920	-0.013067514
254	0x3d04d297	0.032427397
255	0x3cbfa8e5	0.023395965

conv_v_0.bias f4 [16]
0	0xbde5a28c	-0.11212644
1	0x3dbf06e6	0.09327488
2	0x3c159c85	0.009131555
3	0xbd40f2a3	-0.047106396
4	0xbcb8b329	-0.022546368
5	0x3c35efa5	0.011104499
6	0xbc9796b0	-0.01850447
7	0xbb45e40e	-0.0030195746
8	0xbe19d87c	-0.15023988
9	0xbc1cbf18	-0.009567045
10	0xbd83f8ee	-0.06443964
11	0x3e2fd94e	0.17172739
12	0x3d074215	0.033022005
13	0xbe15e21c	-0.14637035
14	0xbdb1765b	-0.08665153
15	0xbd976e9b	-0.07394143
