league/checkpoints/mfos_seeds/new_self_3x3_50/900_1.pth (torch, 300942 bytes, 105 tensors)

conv_a_0.weight f4 [16, 7, 3, 3]
00000000: 6a4a 3c3e 7ea9 6d3d 67f4 13bc 22d6 b33b
00000010: 9c8d 50be 78e6 1abe ae01 b7bb 1458 68be
00000020: fd97 51be 746d 98bd 0c30 463c 8772 153d
00000030: c051 043e c0a9 b13b 0e30 50bd 53a6 05bc
00000040: 18ba 0bbc 30c0 82be 4da3 dfbd 15f6 98be
00000050: 0d42 61bc 3321 f03d dcef 8a3d 8e92 973d
00000060: 2c18 af3d ef66 14be ef0d 223e 5ed3 07be
00000070: e5b0 b9bd 8ec1 54be e591 f0bd 0654 26be
00000080: 02c2 5d3d 79dc a7ba cf42 47bc 074c c93d
00000090: 9463 d7bd a885 33be de55 23bd 37e6 41be
000000a0: 0d9b 12be 3618 8cbc 51ca a03c eadf 55be
000000b0: eea2 55be 4131 853d b318 32bc 6458 d8bd
000000c0: 4cb5 2b3d 3f74 953d 8a9d abbd 1062 0fbe
000000d0: b0aa 163c 984a a83d fec5 db3d 6f7d 113e
000000e0: 9ff7 4a3d 6799 1c3d 7bcb 453a 6af5 883d
000000f0: 116a bb3d 8024 ce3d 4617 553d 6498 0fbe
00000100: 5270 82bb 5b0b 22bd 4f06 2bbd 77f0 e5bb
00000110: 69c7 a43d 7d40 173d f488 febc bbe5 5dbb
00000120: e901 a1be b2c2 013e 4856 d43d dfcd 94be
00000130: fa62 8bbd b5e3 323e b84c 48be 45cb 153d
00000140: 31d7 133e eaf1 003d 8480 a93d b00e 37bc
00000150: 4c0f 0cbd c521 68bd 6fdc 6cbe 334e 033e
00000160: 13ef 783d 5e6f debd 8f83 40be 09d3 303e
00000170: 6bce b9bc 4e98 88be 0394 473e a287 a5bd
00000180: bf3f 67be a165 283e 766b 23bd 741f ddbd
00000190: aae3 203d a418 f2bc 1a08 cfbd 73b6 9abc
000001a0: e716 adbc e200 06be c1e5 ff3c a926 e1bd
000001b0: e662 e83c a896 8b3d da54 9cbd 023a 103c
000001c0: 6fb6 113d d1c9 8dbd f895 d5bd a58e a5bd
000001d0: 1f21 7ebd 65a0 03bd b952 05be 5b26 03be
000001e0: 1beb 27be e485 84bd d1ad 26be 1ca9 f93a
000001f0: 370e 10bd 4d63 9dbd 9798 a0be 59e5 9fbe
00000200: 38eb b7ba 497d c3bd a6e1 f1bd b93b a6bc
00000210: 778a a93d 1660 533e 8efc 4e3e 4017 4f3d
00000220: 391a 0dbe 7747 7c3d ab4c 6c3d 673e 98bc
00000230: a2d6 cf3c b009 a93c 4f73 ca3c 95a7 bf3d
00000240: d7c6 9bbd 764b 2a3e 8b85 593e fac6 dcbd
00000250: a4aa 783d 1732 1f3d cf2f 8ebe 7a68 2dbe
00000260: abdf 57be c4eb c6bc 38ad 123e bded 5a3e
00000270: 3286 22be 9881 bebc 387e 1a3e e7b0 52be
00000280: 3b0c f7bd ae03 58be 0abd 373e 111f 243e
00000290: ad27 3a3e 1d79 733e ee78 483e fd97 733e
000002a0: 7a7d c63d e342 3d3e 0527 773e c08a 313d
000002b0: a9b2 3e3d 4882 943d c0da a2bd 157e 6fbd
000002c0: 758e f3bd b933 8d3d 5933 183c b5d7 b2bc
000002d0: ce46 443c bdc7 37bd 0476 22bd bf55 a4bd
000002e0: d18f a3bd e082 1cbc 7e76 01be 1620 c7bd
000002f0: b9f0 e9bd 53bd 3dbe c8b7 5e3e c008 95ba
00000300: c58d 42be 7431 3e3e 51ec a73d 91f1 70be
00000310: 8f8c 3a3e 6956 bfbc e34c 1f3d 1f63 8ebc
00000320: f68e 9b3d c123 903d 8bb9 91bd 887b 453d
00000330: 4485 443d 2a1d c33d a5b9 873d d58f 0ebe
00000340: 1c62 123e 7ad7 adbd 68d4 3abe c74e 0d3e
00000350: 2046 35be 19c3 04be aefb 593e c79d 6bbe
00000360: 2ac9 673c 6acb 193e 4717 95be 2b4f 43bd
00000370: 688f dc3d d8ab f7bd d6d6 12bc 3fb0 3a3e
00000380: 9d35 8e3d 205e 91bd 3529 973d 5035 0d3c
00000390: 435f 0a3d 004b f93c a3a9 e8bd 4f42 0cbe
000003a0: 1fac 02be b11d e6bd a5d0 95bd b73e 1ebd
000003b0: bec3 fc3d 6386 2abd 9086 30bd 78d6 bdbd
000003c0: d339 a9bb 2f56 fd3d 1d3a 9c3c 5f43 a5bb
000003d0: 0c56 143d fbb7 853d a89b 1fbe 05e4 12be
000003e0: 6680 21be e13b 533d a449 a3bd aa92 b0bd
000003f0: fb87 a6be 95cd a0be 7183 a7be 9c61 6c3d
0.18387762 0.05802297 -0.009030438 0.005488173 -0.2036652 -0.1512698 -0.005584917 -0.22689849
-0.20468135 -0.074427515 0.012096416 0.036486175 0.1292181 0.005421847 -0.05082708 -0.008157331
-0.008528255 -0.25537252 -0.10919819 -0.29875246 -0.013748658 0.11725082 0.06784031 0.07401
0.08549532 -0.14492391 0.15825628 -0.13264224 -0.09066943 -0.2077696 -0.11746577 -0.1624299
0.0541401 -0.0012806795 -0.0121619245 0.09828954 -0.1051704 -0.17531455 -0.03987681 -0.18935476
-0.1431696 -0.017101388 0.019627722 -0.20886198 -0.20862934 0.06503535 -0.010870147 -0.10563734
0.041920945 0.07297563 -0.083796576 -0.14002252 0.0091959685 0.08217353 0.107311234 0.14208005
0.049552556 0.038232233 0.00075452746 0.06687434 0.0915109 0.100655556 0.05202415 -0.14022976
-0.003980675 -0.03956161 -0.041754063 -0.007017191 0.08045847 0.036926735 -0.031071164 -0.0033858854
-0.3144677 0.12671927 0.10368019 -0.29063317 -0.06805988 0.17469676 -0.19560516 0.036570806
0.14437558 0.031480707 0.082764655 -0.011172935 -0.034194276 -0.05667283 -0.23130964 0.128228
0.060774874 -0.10861085 -0.18800186 0.17268004 -0.022681436 -0.266787 0.19490056 -0.080825105
-0.22582911 0.16445018 -0.039897405 -0.10797015 0.039279617 -0.029552765 -0.10108967 -0.018885827
-0.021129085 -0.13086274 0.031237485 -0.10993702 0.028367471 0.06815845 -0.07633372 0.008802893
0.035574373 -0.06923259 -0.10428995 -0.08083848 -0.062043305 -0.032135386 -0.13019837 -0.128076
-0.1639828 -0.0647085 -0.16277243 0.0019047591 -0.035169806 -0.07684956 -0.31366417 -0.31229666
-0.0014031893 -0.095453806 -0.11810617 -0.02029215 0.08278363 0.20642123 0.2021353 0.050559282
-0.13779534 0.06159159 0.057690304 -0.018584443 0.0253709 0.020634502 0.024713187 0.093581356
-0.07606285 0.16630349 0.21242349 -0.10780139 0.06070961 0.03886613 -0.2777085 -0.16934386
-0.21081416 -0.024282344 0.1432389 0.21379752 -0.15871504 -0.023255154 0.15087211 -0.20575295
-0.1206288 -0.21095154 0.17943206 0.16027476 0.18179198 0.2377667 0.19577381 0.23788448
0.096919015 0.18482547 0.24135979 0.043345213 0.046557102 0.07251412 -0.079518795 -0.05846985
-0.11892406 0.06894631 0.009289586 -0.021831373 0.011979772 -0.04486822 -0.03966333 -0.08024167
-0.07986415 -0.009552687 -0.12642857 -0.09722917 -0.11422867 -0.18529253 0.21749794 -0.0011370406
-0.18999393 0.18573552 0.08199371 -0.2352965 0.18217681 -0.023356633 0.038891684 -0.017381249
0.07595627 0.070380695 -0.07115468 0.04821351 0.047978655 0.09527047 0.06627206 -0.13922055
0.14295238 -0.084883645 -0.18245089 0.13799582 -0.17702532 -0.12965049 0.21287414 -0.23009406
0.014147082 0.15019003 -0.29119322 -0.047682922 0.1076954 -0.120933235 -0.008962354 0.18231295
0.0694382 -0.07098031 0.073809065 0.008618668 0.033782255 0.03043127 -0.11360481 -0.1369717
-0.12760971 -0.11236132 -0.073151864 -0.03863403 0.12342022 -0.041632067 -0.04309708 -0.09269422
-0.005164364 0.12369954 0.01907068 -0.0050434317 0.036214873 0.06529232 -0.15586722 -0.14344795
-0.15771636 0.051570777 -0.0797303 -0.08621724 -0.3252562 -0.31406847 -0.3271747 0.057710275

conv_a_0.bias f4 [16]
00000000: d73d b33d 6480 b9bc cbc8 97bd 538a 60bd
00000010: d261 d83c 7d0a fbbd 1463 263e d3e4 bcbd
00000020: 3c35 c6bb 5a9f f73c ddcf 96bd 0bc5 18bd
00000030: b963 a53d 05de 7fbd 835a afbd a184 c6bc
0.087520294 -0.02264423 -0.07411345 -0.054819416 0.026413832 -0.1225786 0.16248733 -0.09223332
-0.0060488265 0.030227352 -0.073638655 -0.03729729 0.08075661 -0.062467594 -0.085621856 -0.024233164

conv_a_1.weight f4 [16, 16, 3, 3]
00000000: 9f26 f13c 6441 c73d 02a9 3b3d 5702 663d
00000010: 63f4 2e3c 62b3 e43c 46d1 84bd 06be 17bc
00000020: 32ce af3d 3f3a 293e c396 8a3d c538 d73d
00000030: 5b9a c73d 7c48 463d c19a 59bb 7565 f43c
00000040: fcd3 813b fa3f c03d dd67 553e 1af9 743e
00000050: e0f7 7f3e fde2 703e 0675 323e 56a9 213e
00000060: 8c31 313e 2bae 843e db4a 483e 6d93 323e
00000070: 9b21 573e 8d46 c33d ecf7 703e a15d fa3d
00000080: 22c7 7c3d 43eb 083e f45e 203e ddf4 a53d
00000090: 246f 863c 0189 393e 4bcf ff3c 40ff 993d
000000a0: 8e40 e43d 7d6f eb3d e43b f03d 2e1a f73d
000000b0: f6ec ac3d c09c c13d 1fa7 783d e4b7 4f3e
000000c0: 94f8 e43d 044c c43d 544a 1a3e ec94 863d
000000d0: d2f4 1e3e bc80 2a3e f800 8b3d c674 a4bd
000000e0: 0d77 b23c f209 b13c 3d61 973c d4e0 89bd
000000f0: 4344 4c3c f087 493d ede6 393d 6cf9 fcbc
00000100: 9caa 583c 8d4c 4d3d a818 9b3d e253 223d
00000110: 6704 123e 2b45 133d be05 1a3e f3e7 bb3d
00000120: f568 76bd 99e6 ad3c ba0c 4c3c 49d1 c03c
00000130: c327 873d c0e0 ca3c 0cf3 a0bd a101 77bd
00000140: 94b6 07bb c9da 03bd e942 11bd 3d24 b03d
00000150: f083 9c3d 0705 84bc 31cd 2b3d ee81 8c3d
00000160: 0690 6cbd 575c 3bbd ab58 1fbb 6ba7 193d
00000170: c1d5 943d 375c 4a3d 0ef2 f93d ecfb 2f3a
00000180: 6308 c23d 83d7 b23d 2168 743d 9f61 d13d
00000190: 0d0c 9c3d 26bd df3d c8df ea3d 2948 063e
000001a0: 4811 c73d 5987 f13d 0387 fe3d 64ae 073e
000001b0: 9979 a8bc 3488 223d 1b57 e4bc 77a9 e2bd
000001c0: 3bbf 07bc 2489 cebd 20b4 95bd 50d0 653d
000001d0: 25d0 1cbd eb60 7f3d 4442 093e 9d26 683d
000001e0: c59e 3d3d 6e11 3d3d 2853 e93d db7e 5dbb
000001f0: dda1 333e d54b 153e 6b81 b3bd 12fa 5ebe
00000200: 128a 41be b12d 0ebe 3a3e 95bd 03d5 f1bd
00000210: b8b6 20be 62c4 27be c4b0 61be eb73 d1bd
00000220: f890 00be fa0b fabd e7f6 c2bc c1fb c0bd
00000230: 2195 e1bc 5b5c 13be a3ca 14be 96f6 1fbe
00000240: 78d5 f43d 556f ad3d ee43 dd3d ef43 9a3d
00000250: 8295 b03d e8dc 2f3d ee71 043e 823d b23d
00000260: 8416 383d 0a4e 1ebe 2086 383d bc9b 26bd
00000270: 2a4e 173c bebd 283e b998 b03d 3c92 cabd
00000280: 2853 0a3d 671a 9a3c fa59 13be 581e 0bbe
00000290: 9339 1dbe d52d 2cbe 8f9d 2dbe 2be0 5dbe
000002a0: dc50 44be 2627 35be be10 0dbe cc28 63bb
000002b0: b55b 03bd 2ac5 cdbd 8863 25bd f09c 1dbd
000002c0: 292d 82bd adbe 00be 6ee1 dfbd 7460 8b3d
000002d0: 82cb 6a3d 11e7 afbd d72e 59bc 7b5b 8cbd
000002e0: bea1 abbd 8f1b 96bc 7999 01bd a1a5 f0bd
000002f0: 7b0e 47bd 9071 63bd 1e4d 533d 9142 d3bd
00000300: e8d0 df3d 5364 7cbd 28e5 473d cffe 703c
00000310: 8997 b4bd f20d 90bb 7ad2 263e ff1d 7c3e
00000320: e5f8 3f3e c66c 133e c46f 493e d406 5a3e
00000330: ea28 f83d ebe4 ea3d 89a1 443d 6aef 9b3c
00000340: 22a1 01bd deef 833d 3f28 fd3c ee74 26bd
00000350: 1d26 4d3d aa07 873d 3944 383d c40d e93d
00000360: 1c1e 49bd 2b74 233e 1efe 8fbc 969f c83c
00000370: e153 a23c 4995 0f3e 2bc1 02be ee2d 153d
00000380: 8d61 4b3b 3def 40bb 3a55 0f3d af38 b43d
00000390: dd6a 06be c36e 993b da9a d5bc 617e 58bd
000003a0: f504 ab3d 83b6 6e3d 5c71 153e c8f1 2b3c
000003b0: e414 84bc d012 bc3d 6811 963c 71d4 013e
000003c0: 4321 463d 5ff9 773d 7bf1 103e 1bc6 ad3d
000003d0: adef 983d 2fb1 89bc 1350 a43d e9df 563d
000003e0: 6959 523d 198b 0d3d 4813 3d3e 9429 0b3e
000003f0: 7fda 353d b170 043e c6b9 e33d afe1 183e
0.029437361 0.09729269 0.045815475 0.056154575 0.0106783835 0.027917568 -0.06485228 -0.009261614
0.085842505 0.16526125 0.06767037 0.10508875 0.09746238 0.04840897 -0.0033203813 0.029833535
0.003962038 0.093872026 0.20840402 0.2392315 0.249969 0.23524089 0.17427453 0.15787253
0.17304057 0.2591413 0.19559805 0.17439051 0.21008913 0.09534941 0.23532075 0.122248895
0.061713345 0.13370995 0.15661222 0.081033446 0.016410418 0.18118669 0.031226775 0.07519388
0.11145125 0.11495874 0.11730173 0.1206554 0.08443634 0.09453726 0.060706254 0.20284992
0.11180225 0.09584811 0.15067416 0.06571373 0.15523079 0.16650671 0.06787294 -0.08030085
0.021785283 0.021611188 0.018478984 -0.06732336 0.012467447 0.049201906 0.045386244 -0.030880652
0.01322427 0.050121833 0.07573062 0.039630778 0.14259492 0.035954636 0.15041253 0.091751
-0.06015869 0.021228122 0.012454206 0.023537295 0.06599381 0.024765372 -0.078588575 -0.060304288
-0.002070819 -0.03219107 -0.0354642 0.08600662 0.076423526 -0.016115678 0.041943733 0.068607196
-0.05775454 -0.04574236 -0.0024314325 0.037513178 0.07267333 0.04940435 0.122043714 0.00067132595
0.09474256 0.08732512 0.059669618 0.10223698 0.07619486 0.10924749 0.11468464 0.13113464
0.09720093 0.11793394 0.12428095 0.13250118 -0.020565795 0.039680675 -0.027873566 -0.11067479
-0.008285339 -0.10084751 -0.07309747 0.056106865 -0.03828444 0.062348288 0.13404185 0.05667745
0.046293993 0.0461592 0.11392814 -0.0033797536 0.17542215 0.14579709 -0.08764919 -0.21775082
-0.18900326 -0.13884617 -0.072872594 -0.11808207 -0.15694702 -0.16383508 -0.22040087 -0.10227188
-0.12555301 -0.122093156 -0.023799373 -0.09423018 -0.02753693 -0.143907 -0.14530425 -0.15621409
0.119547784 0.084685005 0.10803972 0.075324886 0.08622266 0.042935282 0.12934086 0.08703138
0.044943348 -0.15459457 0.045049787 -0.040675864 0.009234944 0.16478631 0.086228795 -0.09891173
0.03377071 0.018811418 -0.14389792 -0.13585794 -0.15353994 -0.16814359 -0.16954635 -0.21667545
-0.1917147 -0.17690715 -0.13775918 -0.0034661768 -0.03206988 -0.10047372 -0.040378124 -0.038479745
-0.0635627 -0.12572737 -0.10931669 0.06805506 0.057322986 -0.08588994 -0.013255796 -0.06853386
-0.08380459 -0.018323688 -0.031640504 -0.11750341 -0.048597794 -0.055528224 0.051587217 -0.10315431
0.109285176 -0.061619114 0.048802525 0.014709189 -0.088179655 -0.0043961937 0.16291228 0.24620818
0.1874729 0.14396963 0.19671541 0.21291667 0.12117179 0.11469444 0.048005614 0.01903506
-0.03164781 0.064422354 0.03090298 -0.040638857 0.050085176 0.06593259 0.044986937 0.11379579
-0.04910098 0.15962283 -0.017577227 0.024490159 0.019815387 0.14021792 -0.12769 0.036420755
0.0031033487 -0.0029439472 0.034993388 0.08799874 -0.13126703 0.0046823933 -0.026074816 -0.0528549
0.08350555 0.058279525 0.14594024 0.010494657 -0.016123243 0.09183276 0.018318847 0.12678696
0.048371565 0.060540553 0.14154617 0.08485051 0.074675895 -0.01680812 0.080230854 0.05245963
0.0513548 0.034556482 0.18464386 0.1359008 0.044397827 0.12933613 0.11119418 0.14929841

conv_a_1.bias f4 [16]
00000000: 824e e3bc 92a8 b43d 862c 0a3e c96f 49bc
00000010: 7e1a 013d d808 64bc d2e6 4dbd 4b4c 35bd
00000020: dd5f aab9 d04f a7bd fbe7 29bd 8ccf d0bd
00000030: 8670 b43c 12b1 5bbc c8ac 2b3e a315 93bb
-0.027747396 0.08821215 0.13493547 -0.012294718 0.031519406 -0.013918124 -0.050268956 -0.04426221
-0.0003249635 -0.0816952 -0.041481 -0.101958364 0.022026312 -0.013408916 0.1676513 -0.0044886633

linear_a_0.weight f4 [16, 144]
00000000: d8bf 353e 5d53 de3d 2452 253d 73fb 4b3e
00000010: 6b77 903d f710 e13d 30fe 3b3e 4aba cc3d
00000020: c5d9 dc3d 3d83 f6bc ee17 33be f0cf c43d
00000030: b035 22be 230e d7bd 0d48 16be 71cf 08be
00000040: e762 ecbd ebf1 50be 73a3 e7bd 76e6 dbbd
00000050: a471 15bd 6d01 55bd 1119 28bd 2f15 cebd
00000060: cfee e5bd 00fe 09be 6f93 02be 59f5 353e
00000070: f30d 603e 3ebc 1c3e 994f ee3d 8ea9 2b3e
00000080: 8cc0 463e e7b8 9c3d 01b6 573d 8ac0 243e
00000090: 8e5e 133d a7b5 063d cfce 113e 14a4 7a3c
000000a0: 90cd 2e3e cd4b 183d 51e4 213e 6a77 083e
000000b0: 7b39 203e d723 f53d d574 003e 0e1d ea3d
000000c0: 2e5e 293e b5e2 233e a3ac c63d d550 673c
000000d0: fbfa 3e3e 2a75 cc3d 4f9a 843e 5c97 ee3d
000000e0: 12ce 813e d6d3 4e3e 3911 2c3e 4c29 123e
000000f0: 3bd9 293e 7070 443e ddb0 573e aeca 463e
00000100: 7f05 3b3e eb63 3c3d ed30 f83d 4052 083e
00000110: 4876 803e 3aca 3b3e 4bba 783e ff52 273e
00000120: 7c8a f93d 5ee7 143e 2f3c aa3d c20c f1bc
00000130: 581f 113e 7f09 193e e82c 8c3c ddb6 c93d
00000140: e221 c13d 9bb3 1d3e bb3a 5e3e e439 9b3d
00000150: 5b75 623e 8621 333e 4a3d 9d3d 3b74 013e
00000160: f5a5 303e acb3 9e3d 20b3 133e e562 393e
00000170: 9d74 b13d bc83 653d dd8c 3f3e b069 a13d
00000180: b68e 173e 59dd 103e 1e05 b83d 4ed5 773d
00000190: a4ea 373e b8f3 9b3d 74b0 563d d246 4f3e
000001a0: 2767 f03d ada6 953d 7e15 423e 9c2f 9f3d
000001b0: 8b17 1a3e f866 9fbc fec4 843d 2d5c 53be
000001c0: 6da3 35be e636 9abc 6ff5 c13d 4ddc f63c
000001d0: 4a5b a8bc 741d e23d cc29 0e3e 8209 233d
000001e0: 852b 253d 90b9 cb3d 7d74 403e 27f9 e83d
000001f0: 8a54 1f3e d495 be3d 4e85 953d 6136 9f3c
00000200: ab07 b03c 372a 243d 10fe 85bd ce84 5cbb
00000210: 41ee d13c 5a29 b23b 2fe9 94bc 2cc9 e23d
00000220: 1f04 913d 4044 103e 7491 3e3d 50c3 373d
00000230: 6e31 ab3d 15c5 cf3d 45c5 083e 90c7 ff3d
00000240: c2f3 26bc 1f06 3ebd f030 a7bd 3824 73bd
00000250: 9ca3 f3bd 600c 10bd 1927 903d 4736 b63c
00000260: 83cf d73c f9df 94bd 3c24 bebd 18fe e63c
00000270: b3cf 123c 7727 d03d 5613 a6bb 59a4 713c
00000280: 68ae 05bd 6d5b aa3c 4c89 1fbd 827f e73c
00000290: e25b 24bd 1a3b d33c 332e 8fbd 2b41 94bd
000002a0: 7ebd 63bc 7f6b 8ebc 2ff2 76bd 9c68 1cbd
000002b0: 9c9d 243c 5635 9b3c a56b 3c3c c27a 8cbc
000002c0: b700 61bd 15bb 3ebd 0075 a2bb 7f26 a0bd
000002d0: 200f b93c 8543 ec3b f318 79bc 6e8f 9d3d
000002e0: 1fac ab3d 1409 25bd 5596 673d 6177 25bd
000002f0: 5ea5 633d c0e3 043c f3fd 09bd a6fa 053d
00000300: 5c09 2fbd 6434 3fbd c21a 75bd 4b0d 913c
00000310: de01 29bd 3441 07bd e33c 9abd 32b1 cfb9
00000320: 9672 9a3d 23cf 063d 1de4 82bc 1f7d 2ebd
00000330: b48e a03d c2b0 833d 182e 2cbd 5209 d3bd
00000340: db4f c8bc 79f5 193d 9f15 70bb 1fbd 38bd
00000350: e128 5dbd 50e3 2f3d 3698 5bbd e7f1 f9bc
00000360: b422 3b3d 28e5 94bd 63e8 9a3d 9fc9 b6bd
00000370: e84e 35bd 6305 b3bc 23c3 3fbd 3ee0 853c
00000380: 241a 72bb b398 46bd b6e6 08bd 3f69 4fbb
00000390: 998e 51bd 9dfe 53bd 3c62 b43d 16c6 64bc
000003a0: 8a27 893d 0dd2 103d d092 743d c8a9 b4bd
000003b0: 2d39 3abd 553d adbd d94c 58bd 4d3b 79bb
000003c0: 81a0 5f3d 3cf4 093c 2291 7c3d a5b7 abba
000003d0: a578 d13c 7962 49bd aa44 023d 6868 c4bc
000003e0: b6d5 023c f13a a83d ef5c 903d 5a86 8c3d
000003f0: e471 8abd 3025 95bd 4dcb 6dbc b6a0 babc
0.17748964 0.10855744 0.04036154 0.19920139 0.07054027 0.10989564 0.18358684 0.09996469
0.10783724 -0.030091876 -0.17489597 0.096099734 -0.15840793 -0.10500743 -0.14675923 -0.13360383
-0.115423016 -0.20404784 -0.11310472 -0.10737316 -0.03648533 -0.052003313 -0.04103953 -0.10062634
-0.1122719 -0.134758 -0.12751554 0.17769374 0.21880321 0.15306184 0.11636276 0.16763899
0.19409388 0.07652455 0.052663807 0.16089073 0.035978846 0.03288808 0.14239047 0.015297908
0.17070603 0.037181664 0.15809752 0.13326803 0.15646927 0.119697265 0.12544568 0.11431323
0.16539833 0.1600445 0.097008966 0.014118393 0.18650429 0.09983285 0.25898978 0.11649963
0.25352532 0.20197996 0.16803445 0.14273566 0.16586773 0.19183517 0.21063562 0.19413254
0.18263815 0.045993727 0.12118707 0.13312626 0.2509024 0.18338862 0.24289815 0.16340254
0.12184617 0.14541385 0.0831226 -0.029425029 0.14172113 0.14945029 0.017111257 0.098493315
0.09430291 0.15400545 0.21702091 0.07579401 0.2211508 0.17493257 0.076777056 0.12641995
0.17250808 0.077491134 0.144238 0.18104132 0.0866482 0.056033835 0.18706079 0.078814864
0.14800534 0.14146937 0.08985351 0.060506158 0.17960602 0.07614845 0.052414373 0.2024186
0.11738425 0.073071815 0.18953511 0.07772753 0.15048043 -0.019458279 0.06482886 -0.20640631
-0.17738123 -0.018825006 0.09470641 0.030134344 -0.020551343 0.11040774 0.13883132 0.03980399
0.040324707 0.099475026 0.18794437 0.11375647 0.15559593 0.09305921 0.073008165 0.01943511
0.021488031 0.04007932 -0.06542599 -0.0033648494 0.025626304 0.0054370584 -0.018177597 0.11073527
0.07080864 0.14088535 0.046525434 0.044864 0.08359037 0.10145012 0.13356502 0.124892354
-0.010189952 -0.046392556 -0.08163631 -0.059360713 -0.118964404 -0.03516805 0.07038707 0.022242678
0.026344066 -0.07269282 -0.09284255 0.028197333 0.008960652 0.10163777 -0.005068223 0.014748656
-0.03263703 0.020795548 -0.038949296 0.028259043 -0.04012669 0.025785018 -0.06991234 -0.07238992
-0.013900159 -0.017385243 -0.060289558 -0.0381857 0.010047343 0.018946331 0.011500274 -0.01714838
-0.054932322 -0.046565134 -0.004957795 -0.078198425 0.02259022 0.0072101974 -0.015203702 0.07693373
0.08382439 -0.04029186 0.056539852 -0.04039705 0.05557763 0.00811094 -0.03368945 0.03270974
-0.042733535 -0.046680823 -0.05983997 0.017706534 -0.041261546 -0.033021167 -0.075311445 -0.00039614137
0.07541387 0.032912385 -0.015977914 -0.042599794 0.078397185 0.06430198 -0.042036146 -0.10304512
-0.02445214 0.037587617 -0.003663398 -0.045102235 -0.053994063 0.04294139 -0.053611957 -0.030510856
0.045687392 -0.072702706 0.075638555 -0.08925175 -0.044264704 -0.021853155 -0.046816956 0.016342279
-0.003694185 -0.04848547 -0.033423148 -0.0031648425 -0.051161382 -0.05175649 0.08807799 -0.013963243
0.066969946 0.03535657 0.059710324 -0.08821446 -0.045464683 -0.08458964 -0.052807663 -0.003802973
0.054596428 0.008420046 0.061661847 -0.0013100995 0.025570223 -0.049166176 0.031803764 -0.023975566
0.007985523 0.08214367 0.07048976 0.06861563 -0.06760004 -0.072824836 -0.014513803 -0.022781711

linear_a_0.bias f4 [16]
00000000: 3917 e13b 6eab b13c cbbe 103e e604 e4bc
00000010: b673 8c3d e544 023e 6e46 dd3d 9e80 e03d
00000020: ee15 adbc 95e3 673d b14e f23c dd54 5fbd
00000030: 95af 883d ce58 4ebd f846 ff3c 7db3 213d
0.0068692234 0.02168819 0.14135282 -0.027834367 0.068580076 0.12721594 0.10804449 0.10962032
-0.021128621 0.056613524 0.029578539 -0.05452429 0.066741146 -0.05037766 0.03116177 0.039477814

GRU_a.weight_ih_l0 f4 [48, 16]
00000000: 69ad c13c 3164 fc3d ad42 853e 34ff 78be
00000010: e84a 01be f15e 1f3e 4300 c33b 7c17 20be
00000020: c1be 3b3e c772 1fbe 221e 853e aded 873e
00000030: d1ee 953c 6477 9cbd cbae f5bd dda8 0c3d
00000040: 5c74 573d b909 61be 6b9d 683e b60a 07be
00000050: fcec a7bd ad57 91be 7bbf 5cbe 1037 06bd
00000060: f236 8d3d 0d6a 76be 7c75 29be f1d3 ecbd
00000070: 741e cfbd 60b9 963d 1a50 113e db73 38be
00000080: c6b4 15be 0463 133e 55c2 d23e be4d 51bb
00000090: 3084 45be e293 fabd 5c2f 0c3e 1d9e 0c3e
000000a0: 45a5 0b3e 14c4 113e d464 7cbe db8b bcbd
000000b0: ddd5 153e 9e52 143e 379d 22be caec 5fbe
000000c0: c7fd 4ebe 330b 523e 071a 163e bc44 bcbd
000000d0: 65ce 4c3e 4184 8c3c f8e2 97be 4c97 aebd
000000e0: bb7e a13d cece 52be 9a63 3abe f557 a4bb
000000f0: 9b54 2dbe d465 313e 7af2 75be 4252 353e
00000100: 4893 553e c6ab 4c3e 8482 6b3d 83cd 27be
00000110: 6bf0 373d b246 573c 60c0 d83d f9ea 893e
00000120: 1ee6 c43e 9a4a 4ebe e018 123d 0bc1 923d
00000130: 423d 293e 342e e03d 1c80 483d 506a 723e
00000140: c05a 7cbe c4a1 743e e391 103e 92a2 75bd
00000150: cf8b 6a3e 89a5 ca3c 1331 623e 2423 833e
00000160: 2ff6 5ebe 93a8 1b3e 24ff 693d a52a 21bd
00000170: dfce e83d 5097 bcbd 9a11 9abe e646 a6be
00000180: df10 5bbe 085f 2c3e cddf c0bd 7504 79bd
00000190: be1e 1abe a689 28bd df79 50be fbb4 433e
000001a0: e934 dfbd 835f 3e3e af2a 80bd 59ac c5bc
000001b0: bc69 56be 302e d6bd 9ad6 203e e56f 99bd
000001c0: 3606 b13c db09 ef3d b7c4 0c3e 9380 d73d
000001d0: 9f06 473e 65ae 993e ed53 573e e69b b83e
000001e0: 1118 6dbe a901 1b3e 0922 113e 17de 56bd
000001f0: 0dad fe3b 606a 7dbe 81f8 c43d df7c a43d
00000200: 8fbe 5dbe 3857 0e3e 50a6 0f3e 94d8 23be
00000210: 3268 c53d 7aab 88bd b495 bbbc b308 4b3e
00000220: 3819 13bb ad70 743e 4f4d 273e b3ce 1dbe
00000230: 8ac9 8bbc 8c72 203e 7364 f63d 415e 513d
00000240: a60c 623e 1b21 c3bd 48f1 16be 4207 b4bd
00000250: 8654 153e b891 53be f8ac d4bc 214e 27bc
00000260: d203 12bd f676 febb 0abb 003e a968 bb3d
00000270: 5e95 43bd a473 413e 740c aa3d 6b77 d53d
00000280: 560d 7c3e 205a 14be 260f d33e d69f 3d3a
00000290: 4ac4 a9bb 8ab7 b33b 58c2 373e f40a 81bc
000002a0: b43e c5b9 16e2 603e dc47 5ebd 7cf7 e9bd
000002b0: 4317 1ebd 52b9 5e3e 8feb b13e 1a4c d4bd
000002c0: 59cc fbbc 61b6 57be 45af 0d3e a59c 66bd
000002d0: 4c2e 0d3c 894f 0a3e 9ddf ccbd 6d95 04bd
000002e0: e34b 9e3d 3d28 2e3e 22c3 4cbd ee63 cabd
000002f0: 9949 83be d29d 26be 7688 65be 398b 88be
00000300: c3ee 343e 0b45 3a3e a4f2 43be bce9 2ebe
00000310: 7ff2 44be 50fb 8dbe c0c8 dd3d c766 2d3d
00000320: 93ea b83e 28bb 8abd 5bc4 85bd 2045 843b
00000330: 031e e43d 8089 043e ed63 21bc fc18 873e
00000340: 483d eebd 3af2 323e 00af 88bd 4db8 5cbc
00000350: 8167 453e 7350 91bd 0d08 0ebe 4ca8 e13d
00000360: f94c babe 4670 2e3e 9717 223d b1c1 9abd
00000370: e363 a7be 3841 223d 3335 13be 93a5 59be
00000380: 1baf 413d 8bb1 0e3e 0a56 dcbe 34b6 a3bd
00000390: f728 1cbe 5d87 42be d07f d2be 9d01 3fbe
000003a0: 0bcb 833e ed16 1dbc f913 9dbd 5388 ac3e
000003b0: 001e 293c d44b 02be 931b 023e 6a1f 913b
000003c0: 4d4d abbc 0c30 a1bc 0df5 8e3e 900f 4f3e
000003d0: c12a 48bd f32a b43e 7cf7 183e d3b4 883e
000003e0: 8827 063e a6d3 753e 8ff8 49be ebb5 3c3e
000003f0: ae2f 893e acd5 a2bd b4d8 ce3c 5181 8c3e
0.023642259 0.123237975 0.26027432 -0.24316102 -0.1262623 0.15563561 0.005950959 -0.15633959
0.18334486 -0.15571128 0.25999552 0.2654852 0.018302353 -0.076399595 -0.1199623 0.034340728
0.052601203 -0.21976365 0.227163 -0.1318768 -0.08199498 -0.28387204 -0.21557419 -0.032767355
0.068952456 -0.24063893 -0.16548723 -0.11563862 -0.1011323 0.07359576 0.14190713 -0.18012945
-0.14619741 0.1439324 0.4116389 -0.0031937207 -0.19288707 -0.12235238 0.13689941 0.1373219
0.13637264 0.14234954 -0.24647838 -0.09206363 0.14632364 0.14484641 -0.15880285 -0.21867672
-0.20213996 0.20512085 0.14658366 -0.091927975 0.20000608 0.017152907 -0.2966535 -0.08524951
0.078855 -0.20586702 -0.18202057 -0.005015368 -0.16926806 0.17324 -0.24018279 0.1770716
0.20856965 0.19987401 0.057497516 -0.1638699 0.044907015 0.013139414 0.105835676 0.26937082
0.38456815 -0.20145646 0.035668254 0.07165726 0.16527274 0.109463125 0.0489503 0.23673368
-0.24643993 0.23889834 0.14118151 -0.059969492 0.22904895 0.024737136 0.22089033 0.25612748
-0.21773599 0.15201025 0.057128087 -0.03934731 0.113675825 -0.09208548 -0.30091554 -0.32475966
-0.21393155 0.16833127 -0.094176866 -0.060795266 -0.1505079 -0.041146897 -0.2035899 0.19112007
-0.10898764 0.18591122 -0.06258141 -0.024130033 -0.20938772 -0.10458028 0.15706864 -0.07492045
0.021609407 0.11671802 0.13746916 0.105225705 0.1943612 0.30015865 0.21028109 0.3605644
-0.23153712 0.15137352 0.1417314 -0.052457895 0.007772094 -0.2474761 0.09617711 0.0803163
-0.21654724 0.13900459 0.14028287 -0.16000587 0.09639014 -0.066733316 -0.022898532 0.19827537
-0.0022445451 0.23871107 0.16338085 -0.1541088 -0.017063875 0.15668696 0.12030878 0.05111528
0.22075137 -0.09527799 -0.14740479 -0.08790447 0.14583024 -0.20661056 -0.025961384 -0.0102114985
-0.035648175 -0.007765646 0.1257135 0.09150822 -0.04774987 0.1889177 0.083031565 0.10423168
0.24614462 -0.14487505 0.41222495 0.0007233595 -0.00518087 0.005484526 0.1794523 -0.015752293
-0.00037621486 0.21961245 -0.05426775 -0.11424157 -0.038596403 0.21750382 0.3475003 -0.10366078
-0.030737089 -0.21065666 0.13836391 -0.05630173 0.008616995 0.13506903 -0.10003588 -0.032369066
0.07729318 0.17007537 -0.04999078 -0.09882341 -0.25642088 -0.16271141 -0.22415337 -0.26668718
0.17669205 0.181904 -0.19135529 -0.1708135 -0.1923313 -0.277308 0.10829306 0.042334344
0.36116466 -0.067739785 -0.065315925 0.0040365607 0.11138537 0.12943077 -0.009850484 0.2638625
-0.11632782 0.17475215 -0.066740036 -0.013471675 0.19277765 -0.070954226 -0.13870259 0.11018428
-0.3638685 0.17035016 0.03957328 -0.07556475 -0.32693395 0.03961298 -0.14375763 -0.21254568
0.047286134 0.13934915 -0.43034393 -0.07993737 -0.15250002 -0.1899695 -0.41113138 -0.18652959
0.25740847 -0.009587985 -0.07669825 0.33697757 0.010322094 -0.12724239 0.12705831 0.0044287937
-0.020910883 -0.01967623 0.27921334 0.2022078 -0.0488689 0.35189018 0.14938158 0.26700458
0.13101017 0.24006519 -0.19723724 0.18428771 0.2679419 -0.07950911 0.025249816 0.2744241

GRU_a.weight_hh_l0 f4 [48, 16]
00000000: bc50 6fbe 2281 b1bd 2d20 27be cf39 76bd
00000010: 1812 ffbd 40d9 7a3e 369d 0fbe eebf 5a3d
00000020: bb42 163e 9732 46be c2b3 e83d 567d 93bd
00000030: 4786 47be 7dc3 4e3e 99a9 2f3e 5316 57be
00000040: feff 123e 12ef 5fbe 4aee cd3d 628d 4fbd
00000050: 9844 8fbd 0e24 c93d 2751 213e 638f 9dbd
00000060: 66f5 733e 7a4f 893d 9ec0 20be fdb9 6cbe
00000070: c67f 0e3e 5315 113e cea9 ddbd 7143 98bc
00000080: 158a 193e b2a5 653d 2c16 9fbd 618e be3d
00000090: 5ee3 04be 194e 29be 369a 8c3e 9a98 053e
000000a0: 9f09 ba3d 6908 783e 5ad8 a23e 4592 a23e
000000b0: 9ed3 fe3c fb72 8cbe d2db c93e 61c0 18be
000000c0: 3e66 623e 55b5 c1bd c538 fa3d 226a 793e
000000d0: 19a0 bcbd 5c2f debc bd9f 2e3d 9ee5 6cbe
000000e0: 7b9a 76be adcd 09bd 33fe 233e c57f 66be
000000f0: cfaf ff3d 755e 0bbd b783 3e3e a0b7 75bc
00000100: b8ed ccbe fd71 6abe 0069 6e3d 3753 1fbc
00000110: 4d32 97bd 5f4d 563b b42c 8fbd c09a 973e
00000120: 2bb6 833e 5149 593d 6642 cb3d 8f66 b4bd
00000130: c91d 1fbe 5347 7cbe 5f6e 4dbc 47b5 81bd
00000140: 1b70 a5bd f637 65bc 2027 54be 3d50 3c3e
00000150: 6507 653e 9442 ec3d eb80 723e f9a4 b1bd
00000160: 9a27 fabd a679 49be 4b73 a53d 033f 26bc
00000170: a940 5b3e 9eb3 9fbd 9d00 803e f21f a2bc
00000180: ba44 07be c606 563e 8774 643e e0ed 68be
00000190: 9151 103e 6dbc 213d a3e6 913e 0c8d e93d
000001a0: ea5c b1bd d1b0 413e a6c4 6a3e 6143 0dbe
000001b0: fd70 6b3e fa56 34be 5731 393e 3559 41be
000001c0: 57df 5f3e 7915 7fbe b12c 213e aba3 c53d
000001d0: ee4d 9e3e abef 8a3e cf40 c2bd fed7 673e
000001e0: 7c41 763e c15b f1bd 6485 53bc dbab acbd
000001f0: 0e40 31be c0d1 953d 1b26 bb3c f611 343e
00000200: 3a5a dabd 3dad 03bd c9f9 2e3e 8808 99bd
00000210: 7160 933e 8e6b 9dbe c358 663d 910f e2bd
00000220: 7bb1 103e 1af5 8abe e5c5 f8bb d67e e9bc
00000230: ae6d e93d b6ad bbbd 46c1 eebd 785d 533e
00000240: a4f1 55be 6a2e d13d e61a dfbd 0ee5 3cbd
00000250: 57f7 843d dbf2 d83d 45ba 613d 1c77 41be
00000260: 0f96 5bbe ef18 9b3e 41b6 233d b203 323e
00000270: b550 0ebe 859d a43d 40ec 60bd 50d8 03be
00000280: 89e7 46be 1e3a b4be 94eb 2f3e a3ed debc
00000290: ed8e 863e 6b43 923d 4bb3 d5bd aa62 893d
000002a0: 6552 7e3e f6c2 92bd 98d0 57bd 7216 b63e
000002b0: 3090 c03d 7dfe 72bd 3c61 4b3e f701 163d
000002c0: 520a 78be cceb bcbd b1e2 f3bd 6787 82be
000002d0: 7735 c83c 7786 fabc b7e1 e03c c8a0 103d
000002e0: 942a f0bd f621 a5be 7add ae3d 20bf 883e
000002f0: 8417 583e 35e4 79bd 04c4 23be c8e5 f2bc
00000300: ea82 3a3e 5f6b fb3d 1463 003e f8fc 14bc
00000310: 32e6 783d ebe8 a1bc 8df5 6f3e 55fb 823c
00000320: f0cf 6d3e 7a32 d2bd de3f 4d3d 02c8 9c3e
00000330: ef8e 25bc ebd4 5a3e c704 0ebe 4e42 823e
00000340: cc64 89bd 056b 3f3e 3179 d4bc 24b2 3e3e
00000350: b968 26be d45d 773e d541 933b 1529 0bbe
00000360: 42b2 b13d 9d88 4f3e c87e 153e ecb9 93be
00000370: 81da c03d 70ab bb3e b8e6 87be ce40 ea3d
00000380: a96d 57bd 1bb7 ae3e 6122 0cbe dc07 e3bd
00000390: 252e 8bbe 7ae1 3b3e a76f 823b 080e cbbd
000003a0: f0ad c03d 138a a93d c0ec 06be adbe 4dbe
000003b0: 030a 6c3c 71a6 9e3d 3c02 f6bd 76ec 47bc
000003c0: 33af 93be cfd0 103e cb2a 6ebd 5ddb 7dbd
000003d0: 7a74 753e e20a 453d 8f71 d03c 0574 2d3e
000003e0: 5776 31be ad82 d9bd 253e 84bb 2fee ec3b
000003f0: aee0 84be edf7 2abe 15c8 35bd 1914 e73d
-0.23370641 -0.08667208 -0.16320868 -0.060113724 -0.12454623 0.24496937 -0.14024815 0.053405695
0.14673893 -0.19355236 0.11362411 -0.0720164 -0.19484816 0.2019176 0.1715454 -0.2100461
0.14355466 -0.21868542 0.10055216 -0.050671943 -0.06995505 0.0982133 0.15753613 -0.076933645
0.23824081 0.06704612 -0.15698478 -0.23117824 0.13915929 0.14168291 -0.10823403 -0.018586846
0.1499408 0.056066222 -0.07767901 0.093045 -0.12977359 -0.16533698 0.27461404 0.13046494
0.09083866 0.24221958 0.31805688 0.3175222 0.031106766 -0.27431473 0.39425522 -0.14917137
0.22109315 -0.094584145 0.12217859 0.24356893 -0.09210224 -0.027122192 0.042632807 -0.23134467
-0.24082367 -0.033643413 0.16014938 -0.22509678 0.12484705 -0.034025628 0.18604933 -0.014997393
-0.40025115 -0.22895046 0.058205605 -0.00972443 -0.07382641 0.0032699925 -0.06990948 0.29610252
0.2572492 0.053048436 0.09924774 -0.08808624 -0.15538706 -0.24636583 -0.012538522 -0.06333404
-0.08078023 -0.013990393 -0.2071805 0.18389983 0.22366102 0.11536136 0.23681991 -0.08674044
-0.12214585 -0.19675311 0.08078631 -0.010146859 0.21411385 -0.07797931 0.25000468 -0.019790623
-0.13209811 0.20901021 0.22310077 -0.22746992 0.14093615 0.039486337 0.28496274 0.11403856
-0.086603 0.18915106 0.22926578 -0.13795234 0.2299232 -0.17611304 0.18085228 -0.18881686
0.21862541 -0.24910535 0.15739705 0.09650358 0.3091883 0.27135977 -0.094850175 0.22640988
0.24048418 -0.11785079 -0.012910221 -0.08431216 -0.17309591 0.07315397 0.022845319 0.17584977
-0.106617406 -0.032147635 0.17087473 -0.0747233 0.28784516 -0.3074612 0.056236994 -0.11038125
0.14130203 -0.27140123 -0.0075919502 -0.028502863 0.11397873 -0.09163992 -0.11657958 0.20641124
-0.2089296 0.10213931 -0.10893802 -0.04611688 0.06492489 0.10593196 0.05510928 -0.18893093
-0.21443962 0.3029246 0.039968733 0.17384222 -0.13897975 0.08037857 -0.054912806 -0.12875485
-0.19424261 -0.3520059 0.1717971 -0.027212923 0.2628092 0.07141765 -0.10434588 0.06708272
0.24836119 -0.07166092 -0.052689165 0.35564 0.094025016 -0.05932473 0.1986131 0.036622968
-0.24222687 -0.09224662 -0.11908472 -0.2549393 0.024439557 -0.030581696 0.02745138 0.035309583
-0.11726871 -0.32252473 0.08538337 0.26708317 0.2110272 -0.06100865 -0.15992743 -0.029650584
0.18214002 0.12276339 0.12537795 -0.009093516 0.060766406 -0.019764384 0.23433514 0.015988985
0.23223853 -0.10263534 0.050109737 0.30621344 -0.010104879 0.21370284 -0.1386901 0.2544121
-0.067086786 0.18693168 -0.025936695 0.18622643 -0.16250886 0.24156886 0.004493932 -0.1358989
0.08676578 0.20266958 0.14599144 -0.28852785 0.09416676 0.36654234 -0.26543212 0.11438142
-0.052594814 0.34124073 -0.1368499 -0.110854834 -0.27183643 0.18347731 0.003980595 -0.099147856
0.09408176 0.08278289 -0.1317625 -0.20092268 0.014406684 0.0774659 -0.12012145 -0.012202373
-0.28844604 0.14142154 -0.05814628 -0.06197678 0.23970214 0.04810608 0.025444774 0.16938789
-0.173303 -0.106206276 -0.0040357285 0.007230542 -0.25952667 -0.16696139 -0.044380266 0.1128313

GRU_a.bias_ih_l0 f4 [48]
00000000: 8d3d 5ebd 56f1 013e 95dd 82bd be93 013e
00000010: c171 793e b358 02be 4a70 6d3d d517 2c3e
00000020: 3b1a 0d3e 9b59 d73d 4dbc 013e 8d55 d33d
00000030: c86f 393b 9dc4 3f3d 4fb7 b53b 1575 553e
00000040: e721 183e df1c d4bd 4a04 7bbe 63ad 18be
00000050: 748b b63e fb52 46be 47f9 fc3d 718d 99be
00000060: d96e 82be 10d2 a9bd e0a6 d7bc 60ee a2be
00000070: a72e c6be fefe 4a3c 1ef4 dcbd af21 433e
00000080: 360d ab3d 8fab c13c ad3a b7bd de63 f2bd
00000090: 1157 573e 4c00 863e eb3a f1bd 590c 773e
000000a0: 0c97 193e 2bbd 3d3e ee50 8d3d 0f02 e2bc
000000b0: 7166 d73d 3e5c 8d3d 9aa4 3dbe 3292 efbd
-0.05425792 0.12689719 -0.0638992 0.12654015 0.243598 -0.12729149 0.057968415 0.16805966
0.13779537 0.10515138 0.12669487 0.10319052 0.0028295387 0.046818364 0.0055455337 0.20845445
0.14856683 -0.10357069 -0.24513355 -0.14909892 0.3565327 -0.19367592 0.123522334 -0.29990724
-0.25475195 -0.08292019 -0.02632469 -0.3182249 -0.38707468 0.012389896 -0.10788749 0.19055818
0.08352129 0.023641376 -0.089467384 -0.118354544 0.21029307 0.26172101 -0.11778816 0.24125804
0.14999026 0.18529193 0.06900202 -0.027588872 0.10517586 0.069023594 -0.18519822 -0.116978064

GRU_a.bias_hh_l0 f4 [48]
00000000: 7027 813e 6638 88bd 564a 4cbd 9ecf 053e
00000010: 20ef 723d a50c 083e b8bf 0dbe 094c 4ebe
00000020: 8de5 3dbe 99a2 4b3d 5d54 47bd e39a 803e
00000030: 7f14 0bbd dfe3 09be 66ce 95bc aa27 4e3e
00000040: bdb5 acbd d457 bfbd 7929 8f3d d785 75be
00000050: 8ad6 8abb 8a95 fcbe b6b8 0d3e c5b9 43bd
00000060: 7a97 f5bd ef03 0fbe 3830 00bd ea3c 893d
00000070: f445 b9be 2ba2 553d 64d8 67be f5d1 b2bd
00000080: 99e3 46bd a16b 14be 6a39 8dbe 4aa4 893d
00000090: d350 c8bd 6b7a af3e 6d5b 163e 794e 383e
000000a0: 3ffa d43d 2c5f 303c 981a 68be 13cb cdbd
000000b0: 934e 243e 1577 a33d 28e5 993e cc1e eebd
0.252254 -0.06651382 -0.04987558 0.13067481 0.05931008 0.13286074 -0.13842666 -0.20146193
-0.18544598 0.049715612 -0.04866444 0.2511817 -0.033955093 -0.13465832 -0.018286895 0.20132318
-0.08433101 -0.09342924 0.06990332 -0.23976837 -0.004237001 -0.4933284 0.13839993 -0.047784586
-0.119917825 -0.13966344 -0.031295985 0.067010716 -0.36186182 0.05215661 -0.2264114 -0.087314524
-0.048556898 -0.14494182 -0.27582866 0.06720789 -0.09781041 0.34273085 0.14683314 0.17998685
0.10399293 0.010764878 -0.22666395 -0.10048499 0.16045599 0.079816975 0.30057645 -0.11626968

linear_a.weight f4 [4, 16]
00000000: a5ea 843c 446b 643c 2610 a4bd 1b9a dc3d
00000010: 9c95 053f c6c0 a83f 3f0f 38bf 5afe 133f
00000020: 1120 853f 7eee d0be e265 08bf f197 28bf
00000030: 0219 1ebf 3e29 6dbd 05c6 ddbe 88b5 91bd
00000040: 9db4 5a3e a208 f63d 0c64 d7be 1d1d 9cbd
00000050: f0dc e6bd 60e7 0cbf 1468 db3d 7f54 ebbe
00000060: 22f3 09bf 6562 3c3e 61ac e33c 420c 35be
00000070: 9cc4 e0be d854 18be f130 27be 4c29 97bd
00000080: 40cd e8bd 79dd 453d 6b82 393f 37aa 20bc
00000090: 3e4d 513d 0f46 6bbf 383c 3b3f 5991 983e
000000a0: 8975 30bf b8b4 b93e f7e1 243f cc31 1a3f
000000b0: 9cf7 473f a597 e73d 38af 473f f11f 91bc
000000c0: 742f 363e 17e4 ad3e 3892 5ebe 1fe0 de3d
000000d0: 71e8 b1be bdfc e7be e059 a4be b008 10bf
000000e0: 627d 30bf 18ca 513e a48d c6be 377d 8abe
000000f0: eff0 4cbd 6042 7fba 2e3c 29be 946d a33d
0.016225168 0.01394159 -0.080108926 0.10771581 0.5218141 1.318383 -0.71898264 0.57809985
1.0400411 -0.40806955 -0.5328046 -0.65856844 -0.6175691 -0.05790066 -0.4331514 -0.071147025
0.21357961 0.12013365 -0.42068517 -0.076227404 -0.11272609 -0.5504055 0.10713211 -0.45962903
-0.53886616 0.1839691 0.027792158 -0.17680457 -0.439 -0.14876115 -0.16327263 -0.07380924
-0.11367273 0.048306916 0.7246463 -0.009806207 0.051099055 -0.91903776 0.7313876 0.2979839
-0.68929344 0.3627069 0.64407295 0.60232234 0.78112197 0.11308221 0.7800174 -0.017715426
0.1779154 0.3396308 -0.21735466 0.108825915 -0.3474765 -0.45310012 -0.3209982 -0.56263256
-0.6894132 0.20487249 -0.38779938 -0.27048656 -0.05003446 -0.00097373687 -0.16526863 0.07979885

linear_a.bias f4 [4]
00000000: d93b 2c3f 153c 88be ccf2 103d 705a 1fbf
0.6727882 -0.2660834 0.0353878 -0.6224737

conv_v_0.weight f4 [16, 7, 3, 3]
00000000: c297 8e3d 94ce 993d a546 8abd a25c 25bd
00000010: c94b efbd 5757 42be d78a 533d edef 213e
00000020: 9381 4c3d dc94 003e 4712 a0bc d11b b23d
00000030: 6ec8 9b3d eae8 7b3d 289c 92bd e6af 9b3d
00000040: 9e64 b33d e791 a8bd 843b a33d 0261 873d
00000050: 7eb2 ff3d 044e d83c dd70 0dbe 9554 d43c
00000060: 134a 343e 10c5 063e c1b0 f23d 9ea0 e4bd
00000070: 8240 4c3c 2c25 0c3e b168 4d3c 0b0b c73c
00000080: c410 543b 9fe0 52be b083 b03d 6f35 773b
00000090: 7b68 b2bb f4f2 823d f3e3 12be 44e9 083d
000000a0: 66f8 f6bd d43d 883c c6fd 00be 7d64 3c3d
000000b0: 022e 89bc 4ee5 75bd 8ce6 79bd 5457 ab3c
000000c0: f812 37bd 123b ea3d 32dd 543b 8f99 0fbd
000000d0: 56c9 aebc 8a8f dabd 9659 94bd dd3d 14be
000000e0: 7b9f 2e3d f420 1ebe a316 eebb 2d3f 40be
000000f0: 4a32 c5bd f6d2 2fbe 5e3d 0fbe 7794 053e
00000100: d5d7 34be c364 303c 420c 9dbd ac39 97bd
00000110: 8e85 d13d fe4f 77bc c49c d93d d672 73bd
00000120: f307 9f3d 9cbf 0b3e 57ee 913d 94f0 f93d
00000130: 2134 7e3d 01a6 d03d 8b09 90be 50ae bebd
00000140: 4a71 193e 537e 003e b9dd 803c 511f b53d
00000150: 6e6a 4c3e c7f9 4fbd 555d ad3c d1d9 093e
00000160: 6119 0f3e abd0 473e 9442 893b d07c a73d
00000170: 757b f6bd d0d5 40bd c05f 96bd 71c9 a2bc
00000180: 4f79 433d c5e5 ee3c d005 6dba 0602 123d
00000190: 0cfa 2cbe 66a5 90bc 32c1 d73c 9dc3 2d3d
000001a0: ac07 1fbe f5fe 23be 8e88 62bd 74ca 0f3d
000001b0: 8785 0b3d 5ea2 38bd 8fae c93c d708 14be
000001c0: d351 efbd 67a3 70bc beda 1ebd 1c70 ca3c
000001d0: d0a8 98bd 4e57 39bd 4fac 68be ec37 09bd
000001e0: 341b 73be 1da4 32bc 6d3d 9fbd dbe5 4abe
000001f0: 537d 6fbe 2554 0abe f15c 3e3e c8ef 3fbe
00000200: b870 10bd 88a1 bfbd d006 273d f15d d5bc
00000210: c430 a13c bfd2 4cbd 70ad b7bd 3b9d 29be
00000220: b351 0dbe e0be 4f3e 02b3 afbd b731 a73d
00000230: 0c98 c0bd 52ba a7bc 5f41 3e3d 9f0e 83bd
00000240: 6327 2c3c bf7b bb3d 4183 db3c bd95 1e3c
00000250: dc77 cb3d 4337 d63d fd63 df3d cbad 3a3e
00000260: a4ff 1b3e ae55 0e3e e581 14be 9091 ebbd
00000270: 6fd4 85be 7a1c 13be d06c 26bc 461e 2dbe
00000280: 9058 723d 24bf 983d b300 99bd e77d acbd
00000290: 1565 0c3d f380 f7bd 7c42 e83d 1cdb 8cbd
000002a0: 8149 fd3d 0295 8d3d 6e26 ba3c 0bca 0cbd
000002b0: a9c9 ecbd 02b7 e7bd e763 00bc b241 7b3d
000002c0: 50b1 5dbd 4d72 3a3d f42e cdbd e6d7 9cbd
000002d0: 53ea 2bbe 4121 35be 20d9 083c 3d7d 34be
000002e0: 2061 4fbe cfb3 3a3c fe5f 38be b607 2bbe
000002f0: 7804 cabd d8ea 333e 0c4a 113e 8eb4 0bbd
00000300: 3195 0cbd 1ec6 30bd 588f 22be 1bdd b8bc
00000310: e6ae 26be efde 93bd 59e0 5d3d c449 99bc
00000320: 11b6 dfba 0447 923d 5011 0b3d da1b 8a3d
00000330: f5b2 09be cd66 d63d 41b9 a9bd f02e 28be
00000340: f774 c93d a7e4 3a3d e810 4abd 80a4 f8bc
00000350: 1ec7 01bd 2773 b5bb d2a3 0dbd 5bf9 ec3d
00000360: d769 4cbe 287d 4ebd 9965 77be ea22 55bc
00000370: 8862 f73d f54a 14bd 1a66 aebd 8dba 6ebb
00000380: ac57 bf3d 35e6 89bd 524f e4bd 2abb debb
00000390: c5a6 1cbe 040b 06bd 8151 4bbe 2279 fabc
000003a0: 4a9d 87bc e50b 55be 3a74 413d b0c2 733d
000003b0: dcde 313e 833c 033e 9902 173a dd78 183d
000003c0: ec41 b93d 16d8 0b3e 765e ef3d 6de2 a5bd
000003d0: 5868 cdbd 8335 4e3d 3aca 00be 8299 01bc
000003e0: d6a2 8abd bd77 de3d e906 2bbd a298 3b3d
000003f0: ebe6 43bb b933 2abe d916 e3bc 1fcb 983e
0.06962539 0.07510105 -0.067517556 -0.040371545 -0.11684377 -0.1897863 0.05164608 0.1581418
0.04992826 0.12556785 -0.019539965 0.08696712 0.07606588 0.06150142 -0.07158691 0.07601909
0.087594256 -0.08230954 0.07970336 0.066103 0.124852166 0.026404388 -0.13812585 0.025919238
0.17606382 0.13161111 0.118501194 -0.11163448 0.012466552 0.13686055 0.012537167 0.024297258
0.0032358626 -0.20593499 0.086188674 0.0037721058 -0.005444584 0.06393996 -0.14344768 0.033425584
-0.12059097 0.016631044 -0.12596807 0.04599427 -0.016745571 -0.060033135 -0.061010882 0.020915665
-0.044695824 0.11437048 0.0032480475 -0.035058554 -0.021336239 -0.10671909 -0.0724365 -0.14476724
0.04263256 -0.15442258 -0.007265882 -0.187741 -0.096287325 -0.17170319 -0.13988253 0.13044916
-0.17660458 0.010766211 -0.076683536 -0.07384047 0.10230552 -0.015094755 0.10625604 -0.059435688
0.07765188 0.13647312 0.07125538 0.1220409 0.062061433 0.10187913 -0.2813228 -0.09310591
0.14984623 0.12548189 0.015730726 0.08843864 0.19962475 -0.050775316 0.021162668 0.13461997
0.13974525 0.19513194 0.004188845 0.08178103 -0.12035266 -0.047078907 -0.073424816 -0.019871445
0.04772311 0.029162297 -0.00090416986 0.03564646 -0.1689226 -0.017656993 0.02633724 0.04242288
-0.1553027 -0.16015227 -0.05530601 0.035105184 0.03406289 -0.04507672 0.024619369 -0.14456497
-0.116855286 -0.014687396 -0.038782828 0.024711661 -0.074540734 -0.045249276 -0.2272198 -0.033500597
-0.23740846 -0.0109033855 -0.07775388 -0.19814245 -0.23387651 -0.13508661 0.18590142 -0.18743813
-0.035263747 -0.093569815 0.04077798 -0.026045771 0.019676574 -0.05000567 -0.089686275 -0.16563885
-0.13800697 0.20287657 -0.08579065 0.08163779 -0.09404001 -0.020474587 0.04644906 -0.06399273
0.010507437 0.09154462 0.026795985 0.009679255 0.09934971 0.10459759 0.10907743 0.1823036
0.15234238 0.13899872 -0.14502676 -0.11502373 -0.26138636 -0.14366332 -0.010157779 -0.1690608
0.05916649 0.07458332 -0.074708365 -0.084224515 0.034276087 -0.12085142 0.11340806 -0.06877729
0.123675354 0.069131866 0.022723403 -0.03437237 -0.11561901 -0.11314203 -0.007836319 0.06134195
-0.054124177 0.045519162 -0.10018721 -0.07658367 -0.16788606 -0.17688467 0.008352548 -0.176259
-0.20251894 0.011395409 -0.18005368 -0.1670216 -0.098641336 0.17570055 0.14188403 -0.034107737
-0.034321968 -0.04315769 -0.15874994 -0.022566369 -0.16277656 -0.072202556 0.054169033 -0.018711932
-0.001706781 0.071424514 0.033952057 0.067435935 -0.13447173 0.104688264 -0.082872875 -0.16424155
0.098367624 0.045628216 -0.04933253 -0.030351877 -0.031684034 -0.005537409 -0.03458006 0.11570998
-0.1996225 -0.050412327 -0.2415985 -0.013008812 0.1207934 -0.036204297 -0.08515568 -0.003642711
0.09342894 -0.06733362 -0.11147942 -0.006797214 -0.15297993 -0.03272535 -0.1985531 -0.030575339
-0.016554493 -0.20805319 0.047229983 0.05951184 0.1737017 0.12816052 0.000576058 0.03722464
0.09045777 0.13656649 0.11687939 -0.08099828 -0.100296676 0.050344 -0.12577143 -0.007910134
-0.0676934 0.10862682 -0.041754637 0.04579986 -0.0029892277 -0.16621293 -0.027720856 0.2984247

conv_v_0.bias f4 [16]
00000000: 1144 cb3c 42aa 4d3d ece6 3d3a 5368 2cbd
00000010: fff3 9c3d 5cb0 b93d edb4 843e c86c b63d
00000020: 6a9a 83bd 8d1a 823c d48d fb3c b933 133e
00000030: 1bec a2bd 4682 ecbc a051 8c3d f22d 2fbd
0.02481273 0.0502112 0.0007244188 -0.04209168 0.07663726 0.09066841 0.25919285 0.08907467
-0.064259365 0.015881801 0.030707277 0.143752 -0.0795519 -0.028870713 0.06851506 -0.042768426

conv_v_1.weight f4 [16, 16, 3, 3]
00000000: 2062 18bd aeb6 943d 6a23 a53c b85b 4d3c
00000010: 8ccf 6f3d 297a c9bc 28d4 b3bd fa32 d73b
00000020: a53d 2ebd e95b 363d 9129 e73b f191 a13d
00000030: 3d79 393d df6e 213c eac8 413d aec9 f6bc
00000040: 1729 553c d599 f3bd d0e9 8f3d 1496 0b3e
00000050: 2e93 b63d ec48 5d3c a758 89bd 5951 e53d
00000060: 7176 2f3a 984b 0a3d 0f00 8e3d 678a abbd
00000070: 3f6f db3d 5104 d6bd 4a9c c1bc 543d 033d
00000080: ed86 63bd f4ba 76bd 6975 703c 613b 133e
00000090: c73f 723d 0d9b 2fbe 1020 973d 0217 3c3d
000000a0: f3ea e53d f9cd aabd d7a8 07be 51b5 e0bb
000000b0: 810b 193c 5015 15be b968 e73c e823 e03c
000000c0: 5fa5 033e e9c9 bbbc aeb5 4c3e 0994 353e
000000d0: 55ec 8d3c 0efd 02bc 2d23 aa3c f4dc 103d
000000e0: dd6f d3bd 7da7 9c3d 441a c13d 4808 2e3e
000000f0: a75e a3bc 89bd 96bd d415 38bd 7007 f23c
00000100: 3a7e f83d 88b8 7f3b d4ff 433d bffd 3ebd
00000110: 0985 eabd 9e94 a13c 46c6 a93d 9c19 82bd
00000120: 9da9 5fbd 2477 17bd 7d1d fd3d b204 203e
00000130: 6cdb f93c 3499 053e cc01 a1bd 8f10 a2bd
00000140: 0235 ae3b d147 c1bc 2dc9 623d 7aa4 bc3d
00000150: f9eb 4fbd 0f51 08ba f308 173c 81e4 993c
00000160: 4393 22bd 6a6a 653e 8bc6 d2bc a1c4 133e
00000170: e948 c4bc bed7 813b d14a c53d 2ca2 8cbc
00000180: 3d88 b9bc e04e 933d 174e 913c c29b 7c3d
00000190: 7d93 8a3d 55f9 303c 546a d4bc 01a2 b63d
000001a0: be9d 14be 3fbc bb3c 40b5 c83c b308 5cbd
000001b0: 80dc 9b3c f2fd d33d be17 fe3d 2daa f53d
000001c0: 90a0 ab3d 24dc 033d a572 253e 3e7c 86bd
000001d0: f48c 6c3c 68ee 733d 202c 11bd f5c6 e03d
000001e0: f74d 59be b9ce 8d3d 076b b6bd f8e6 003e
000001f0: 9416 0c3b d228 aa3c d3a2 da3c 4411 393d
00000200: c766 3e3d df44 2fbe 2a68 dabb 13ae 32be
00000210: d9a9 843e a96a 373d 9684 083e 90fd e6bd
00000220: b5bc 923d 8b03 cb3d ae97 99bc c06e f5bd
00000230: 8d32 d5bd ae45 28bd 74f3 c23d 7b10 9c3c
00000240: 2fd4 bc3c cd24 383c e9bc 813d d449 a93d
00000250: 4499 8cbb b313 a0bc 1fac 563d c8d5 923c
00000260: bad0 b13d 9188 2d3d 6603 713d 1b15 723d
00000270: 7da7 963d 808c 543d 5fa3 bf3d 6d87 003e
00000280: ae67 643c c4dc cf3d 7f48 dd3d 79ac af3d
00000290: ef16 0a3e ebfc 963d e9cf 293e 932c 213e
000002a0: 82cd ed3d 0f3c 083e 70fe 473c 78fb d93d
000002b0: b6a0 3e3e 1bef 063e 93fd d93d 5562 f73d
000002c0: 0c2e 1c3d ee6a 1b3e cab2 f73c e2c1 a63d
000002d0: 1e83 033d 0ba4 c63b d06e e23d 991f b73d
000002e0: 334f babd 6653 66bd 2a8f b7bd 5702 bb3b
000002f0: 5186 c8bd a92c 883d f323 433e ec8d bbbd
00000300: a3e6 003e fb0f 143e cddc cc3d 0efc d23d
00000310: b6e7 7e3d 0ea6 823c 1bdf e43d 386d e33c
00000320: 1218 e43d b8c2 143e 450e 803d f529 0e3d
00000330: cb8b 853d 16b8 ce3d 8547 2abc e9b3 313e
00000340: dded 843d ea57 d33b ca12 9f3d 7f4a 663d
00000350: ceb3 593d da96 423e 1ccf 0b3e 321e 273e
00000360: 0703 b73d 2c95 f53c 7ab1 ab3c 3e24 9f3d
00000370: f3f5 303d 0265 183d 4927 903d 3049 cb3d
00000380: ba93 153d 577c a73d bf41 023d c2ec 133d
00000390: 1f3a afbd 5b3f d53d 26b9 cfbc b2c2 833d
000003a0: 2eaa 4dbd 338e 823d 2928 c13d 0994 9dbc
000003b0: c287 4abd 4307 5fbc 68ef 2f3d a342 fd3c
000003c0: a4b9 93bd 2fca 4fbd 7354 b6bc e9d2 023e
000003d0: 004c cf3d b70e db3d 2b2c 8f3d f6ba 003e
000003e0: d260 8a3d 3b42 0c3e 0d32 af3d 3dbe f7bc
000003f0: d478 52bc 01a9 b53d 4e76 893d cbb1 b03d
-0.037202954 0.07261406 0.020158488 0.0125340745 0.05854754 -0.024594383 -0.087807 0.006567356
-0.042539258 0.044521246 0.0070545156 0.07889164 0.045281637 0.009853094 0.047310747 -0.030125465
0.013010285 -0.118945755 0.07027018 0.13631469 0.08914791 0.013506155 -0.06706362 0.111971565
0.00066933694 0.033763498 0.06933605 -0.083760075 0.10714578 -0.10450042 -0.023634095 0.03204091
-0.055548597 -0.060236886 0.01467643 0.1437812 0.059142854 -0.17148991 0.07379162 0.04592038
0.11226454 -0.083400674 -0.13248001 -0.006857552 0.009341122 -0.14558911 0.028248178 0.027360871
0.12856053 -0.022923427 0.1999118 0.17732252 0.017324606 -0.007994903 0.020768726 0.035366967
-0.103240706 0.07649133 0.09428838 0.16995347 -0.019942595 -0.0736037 -0.044942692 0.029544562
0.12133451 0.0039019901 0.0478514 -0.04662871 -0.11451156 0.019724187 0.08289771 -0.06352541
-0.054605115 -0.036978856 0.1235914 0.15626791 0.030500136 0.13046724 -0.07861671 -0.079133146
0.0053163776 -0.023593815 0.055367637 0.09211059 -0.05076215 -0.0005200067 0.009218442 0.018785717
-0.03969122 0.22403875 -0.025729438 0.14430477 -0.023960548 0.003962486 0.09633411 -0.017167173
-0.022647971 0.071927786 0.017737431 0.06167198 0.067664124 0.010801633 -0.025929607 0.089176185
-0.14513299 0.022916911 0.02450049 -0.053719234 0.019026041 0.103511706 0.12406872 0.11995349
0.08380234 0.032192364 0.16157015 -0.06566666 0.014437903 0.059553534 -0.03544247 0.10975448
-0.21221147 0.06924195 -0.089071326 0.12588108 0.0021375762 0.020771418 0.026688969 0.04518248
0.046484735 -0.17116116 -0.0066652494 -0.17449217 0.25910833 0.044779453 0.13331828 -0.11278832
0.07164899 0.09912785 -0.018749084 -0.119840145 -0.104100324 -0.041082077 0.09519091 0.019050827
0.023050396 0.011239243 0.0633486 0.08266035 -0.0042907316 -0.019540643 0.05241024 0.017924204
0.086823896 0.042366568 0.05884113 0.05910216 0.073561646 0.051891804 0.093573324 0.12551661
0.013940735 0.101495296 0.10804843 0.085778184 0.13485311 0.07372459 0.16583218 0.1573966
0.11611463 0.1330416 0.012206659 0.10643667 0.18615994 0.13177149 0.106440686 0.12079302
0.03812985 0.15177509 0.03023662 0.08142449 0.032107465 0.006062036 0.11056292 0.08941574
-0.09097137 -0.05623188 -0.08962853 0.005707066 -0.09791244 0.06649143 0.19056682 -0.09157929
0.12587981 0.14459221 0.10003052 0.10301982 0.062232696 0.015948322 0.111753665 0.02776204
0.111374035 0.14527404 0.06252722 0.034707982 0.06520804 0.10093705 -0.010393028 0.17353787
0.06490681 0.006449689 0.077672556 0.05622339 0.05314999 0.19002858 0.13653225 0.16320112
0.08936124 0.029978357 0.02095865 0.077705845 0.043203305 0.037205704 0.07038743 0.09926069
0.036517836 0.08178013 0.03180098 0.03611446 -0.085560076 0.10412475 -0.02535684 0.064336196
-0.050211124 0.063747786 0.09431488 -0.019235628 -0.049445875 -0.013612571 0.042952925 0.030915564
-0.072131425 -0.050729927 -0.022257065 0.12775768 0.10121918 0.10696166 0.06990846 0.1257132
0.06756748 0.1369714 0.08554468 -0.03024208 -0.0128461905 0.088701256 0.06712018 0.08627661

conv_v_1.bias f4 [16]
00000000: 1d5a 18bd bc3a 093e 2532 ff3d 9d52 bfbc
00000010: e0d4 b5bd e1ab 543e 2db2 bcbd b6b9 88bd
00000020: ef44 133e 072c f33d a480 bfbd 28b6 92bd
00000030: d65a a9bd dd9e 21bd ca12 493b 84fc 913d
-0.037195314 0.13401312 0.12460736 -0.023354823 -0.08878493 0.20768692 -0.09213672 -0.066760466
0.14381765 0.11873632 -0.09350708 -0.0716365 -0.08269279 -0.039458144 0.0030681365 0.07128242
